…
      sampler {
        min_scale: 0.3
        max_scale: 1
        min_aspect_ratio: 0.5
        max_aspect_ratio: 2
      }
      sample_constraint {
        min_jaccard_overlap: 0.9
      }
      max_sample: 1
      max_trials: 50
    }
    batch_sampler {
      sampler {
        min_scale: 0.3
        max_scale: 1
        min_aspect_ratio: 0.5
        max_aspect_ratio: 2
      }
      sample_constraint {
        max_jaccard_overlap: 1
      }
      max_sample: 1
      max_trials: 50
    }
    label_map_file: "data/VOC0712/labelmap_voc.prototxt"
  }
}
layer {
  name: "conv0"
  type: "Convolution"
  bottom: "data"
  top: "conv0"
  param {
    lr_mult: 0.1
    decay_mult: 0.1
  }
  convolution_param {
    num_output: 32
    bias_term: false
    pad: 1
    kernel_size: 3
    stride: 2
    weight_filler {
      type: "msra"
    }
  }
}
layer {
  name: "conv0/bn"
  type: "BatchNorm"
  bottom: "conv0"
  top: "conv0"
}
layer {
  name: "conv0/scale"
  type: "Scale"
  bottom: "conv0"
  top: "conv0"
  param {
    lr_mult: 0.1
    decay_mult: 0
  }
  param {
    lr_mult: 0.2
    decay_mult: 0
  }
  scale_param {
    filler {
      value: 1
    }
    bias_term: true
    bias_filler {
      value: 0
    }
  }
}
layer {
  name: "conv0/relu"
  type: "ReLU"
  bottom: "conv0"
  top: "conv0"
}
layer {
  name: "conv1/dw"
  type: "Convolution"
  bottom: "conv0"
  top: "conv1/dw"
  param {
    lr_mult: 0.1
    decay_mult: 0.1
  }
  convolution_param {
    num_output: 32
    bias_term: false
    pad: 1
    kernel_size: 3
    group: 32
    weight_filler {
      type: "msra"
    }
    engine: CAFFE
  }
}
layer {
  name: "conv1/dw/bn"
  type: "BatchNorm"
  bottom: "conv1/dw"
  top: "conv1/dw"
}
layer {
  name: "conv1/dw/scale"
  type: "Scale"
  bottom: "conv1/dw"
  top: "conv1/dw"
  param {
    lr_mult: 0.1
    decay_mult: 0
  }
  param {
    lr_mult: 0.2
    decay_mult: 0
  }
  scale_param {
    filler {
      value: 1
    }
    bias_term: true
    bias_filler {
      value: 0
    }
  }
}
layer {
  name: "conv1/dw/relu"
  type: "ReLU"
  bottom: "conv1/dw"
  top: "conv1/dw"
}
layer {
  name: "conv1"
  type: "Convolution"
  bottom: "conv1/dw"
  top: "conv1"
  param {
    lr_mult: 0.1
    decay_mult: 0.1
  }
  convolution_param {
    num_output: 64
    bias_term: false
    kernel_size: 1
    weight_filler {
      type: "msra"
    }
  }
}
layer {
  name: "conv1/bn"
  type: "BatchNorm"
  bottom: "conv1"
  top: "conv1"
}
layer {
  name: "conv1/scale"
  type: "Scale"
  bottom: "conv1"
  top: "conv1"
  param {
    lr_mult: 0.1
    decay_mult: 0
  }
  param {
    lr_mult: 0.2
    decay_mult: 0
  }
  scale_param {
    filler {
      value: 1
    }
    bias_term: true
    bias_filler {
      value: 0
    }
  }
}
layer {
  name: "conv1/relu"
  type: "ReLU"
  bottom: "conv1"
  top: "conv1"
}
layer {
  name: "conv2/dw"
  type: "Convolution"
  bottom: "conv1"
  top: "conv2/dw"
  param {
    lr_mult: 0.1
    decay_mult: 0.1
  }
  convolution_param {
    num_output: 64
    bias_term: false
    pad: 1
    kernel_size: 3
    group: 64
    stride: 2
    weight_filler {
      type: "msra"
    }
    engine: CAFFE
  }
}
layer {
  name: "conv2/dw/bn"
  type: "BatchNorm"
  bottom: "conv2/dw"
  top: "conv2/dw"
}
layer {
  name: "conv2/dw/scale"
  type: "Scale"
  bottom: "conv2/dw"
  top: "conv2/dw"
  param {
    lr_mult: 0.1
    decay_mult: 0
  }
  param {
    lr_mult: 0.2
    decay_mult: 0
  }
  scale_param {
    filler {
      value: 1
    }
    bias_term: true
    bias_filler {
      value: 0
    }
  }
}
layer {
  name: "conv2/dw/relu"
  type: "ReLU"
  bottom: "conv2/dw"
  top: "conv2/dw"
}
layer {
  name: "conv2"
  type: "Convolution"
  bottom: "conv2/dw"
  top: "conv2"
  param {
    lr_mult: 0.1
    decay_mult: 0.1
  }
  convolution_param {
    num_output: 128
    bias_term: false
    kernel_size: 1
    weight_filler {
      type: "msra"
    }
  }
}
layer {
  name: "conv2/bn"
  type: "BatchNorm"
  bottom: "conv2"
  top: "conv2"
}
layer {
  name: "conv2/scale"
  type: "Scale"
  bottom: "conv2"
  top: "conv2"
  param {
    lr_mult: 0.1
    decay_mult: 0
  }
  param {
    lr_mult: 0.2
    decay_mult: 0
  }
  scale_param {
    filler {
      value: 1
    }
    bias_term: true
    bias_filler {
      value: 0
    }
  }
}
layer {
  name: "conv2/relu"
  type: "ReLU"
  bottom: "conv2"
  top: "conv2"
}
layer {
  name: "conv3/dw"
  type: "Convolution"
  bottom: "conv2"
  top: "conv3/dw"
  param {
    lr_mult: 0.1
    decay_mult: 0.1
  }
  convolution_param {
    num_output: 128
    bias_term: false
    pad: 1
    kernel_size: 3
    group: 128
    weight_filler {
      type: "msra"
    }
    engine: CAFFE
  }
}
layer {
  name: "conv3/dw/bn"
  type: "BatchNorm"
  bottom: "conv3/dw"
  top: "conv3/dw"
}
layer {
  name: "conv3/dw/scale"
  type: "Scale"
  bottom: "conv3/dw"
  top: "conv3/dw"
  param {
    lr_mult: 0.1
    decay_mult: 0
  }
  param {
    lr_mult: 0.2
    decay_mult: 0
  }
  scale_param {
    filler {
      value: 1
    }
    bias_term: true
    bias_filler {
      value: 0
    }
  }
}
layer {
  name: "conv3/dw/relu"
  type: "ReLU"
  bottom: "conv3/dw"
  top: "conv3/dw"
}
layer {
  name: "conv3"
  type: "Convolution"
  bottom: "conv3/dw"
  top: "conv3"
  param {
    lr_mult: 0.1
    decay_mult: 0.1
  }
  convolution_param {
    num_output: 128
    bias_term: false
    kernel_size: 1
    weight_filler {
      type: "msra"
    }
  }
}
layer {
  name: "conv3/bn"
  type: "BatchNorm"
  bottom: "conv3"
  top: "conv3"
}
layer {
  name: "conv3/scale"
  type: "Scale"
  bottom: "conv3"
  top: "conv3"
  param {
    lr_mult: 0.1
    decay_mult: 0
  }
  param {
    lr_mult: 0.2
    decay_mult: 0
  }
  scale_param {
    filler {
      value: 1
    }
    bias_term: true
    bias_filler {
      value: 0
    }
  }
}
layer {
  name: "conv3/relu"
  type: "ReLU"
  bottom: "conv3"
  top: "conv3"
}
layer {
  name: "conv4/dw"
  type: "Convolution"
  bottom: "conv3"
  top: "conv4/dw"
  param {
    lr_mult: 0.1
    decay_mult: 0.1
  }
  convolution_param {
    num_output: 128
    bias_term: false
    pad: 1
    kernel_size: 3
    group: 128
    stride: 2
    weight_filler {
      type: "msra"
    }
    engine: CAFFE
  }
}
layer {
  name: "conv4/dw/bn"
  type: "BatchNorm"
  bottom: "conv4/dw"
  top: "conv4/dw"
}
layer {
  name: "conv4/dw/scale"
  type: "Scale"
  bottom: "conv4/dw"
  top: "conv4/dw"
  param {
    lr_mult: 0.1
    decay_mult: 0
  }
  param {
    lr_mult: 0.2
    decay_mult: 0
  }
  scale_param {
    filler {
      value: 1
    }
    bias_term: true
    bias_filler {
      value: 0
    }
  }
}
layer {
  name: "conv4/dw/relu"
  type: "ReLU"
  bottom: "conv4/dw"
  top: "conv4/dw"
}
layer {
  name: "conv4"
  type: "Convolution"
  bottom: "conv4/dw"
  top: "conv4"
  param {
    lr_mult: 0.1
    decay_mult: 0.1
  }
  convolution_param {
    num_output: 256
    bias_term: false
    kernel_size: 1
    weight_filler {
      type: "msra"
    }
  }
}
layer {
  name: "conv4/bn"
  type: "BatchNorm"
  bottom: "conv4"
  top: "conv4"
}
layer {
  name: "conv4/scale"
  type: "Scale"
  bottom: "conv4"
  top: "conv4"
  param {
    lr_mult: 0.1
    decay_mult: 0
  }
  param {
    lr_mult: 0.2
    decay_mult: 0
  }
  scale_param {
    filler {
      value: 1
    }
    bias_term: true
    bias_filler {
      value: 0
    }
  }
}
layer {
  name: "conv4/relu"
  type: "ReLU"
  bottom: "conv4"
  top: "conv4"
}
layer {
  name: "conv5/dw"
  type: "Convolution"
  bottom: "conv4"
  top: "conv5/dw"
  param {
    lr_mult: 0.1
    decay_mult: 0.1
  }
  convolution_param {
    num_output: 256
    bias_term: false
    pad: 1
    kernel_size: 3
    group: 256
    weight_filler {
      type: "msra"
    }
    engine: CAFFE
  }
}
layer {
  name: "conv5/dw/bn"
  type: "BatchNorm"
  bottom: "conv5/dw"
  top: "conv5/dw"
}
layer {
  name: "conv5/dw/scale"
  type: "Scale"
  bottom: "conv5/dw"
  top: "conv5/dw"
  param {
    lr_mult: 0.1
    decay_mult: 0
  }
  param {
    lr_mult: 0.2
    decay_mult: 0
  }
  scale_param {
    filler {
      value: 1
    }
    bias_term: true
    bias_filler {
      value: 0
    }
  }
}
layer {
  name: "conv5/dw/relu"
  type: "ReLU"
  bottom: "conv5/dw"
  top: "conv5/dw"
}
layer {
  name: "conv5"
  type: "Convolution"
  bottom: "conv5/dw"
  top: "conv5"
  param {
    lr_mult: 0.1
    decay_mult: 0.1
  }
  convolution_param {
    num_output: 256
    bias_term: false
    kernel_size: 1
    weight_filler {
      type: "msra"
    }
  }
}
layer {
  name: "conv5/bn"
  type: "BatchNorm"
  bottom: "conv5"
  top: "conv5"
}
layer {
  name: "conv5/scale"
  type: "Scale"
  bottom: "conv5"
  top: "conv5"
  param {
    lr_mult: 0.1
    decay_mult: 0
  }
  param {
    lr_mult: 0.2
    decay_mult: 0
  }
  scale_param {
    filler {
      value: 1
    }
    bias_term: true
    bias_filler {
      value: 0
    }
  }
}
layer {
  name: "conv5/relu"
  type: "ReLU"
  bottom: "conv5"
  top: "conv5"
}
layer {
  name: "conv6/dw"
  type: "Convolution"
  bottom: "conv5"
  top: "conv6/dw"
  param {
    lr_mult: 0.1
    decay_mult: 0.1
  }
  convolution_param {
    num_output: 256
    bias_term: false
    pad: 1
    kernel_size: 3
    group: 256
    stride: 2
    weight_filler {
      type: "msra"
    }
    engine: CAFFE
  }
}
layer {
  name: "conv6/dw/bn"
  type: "BatchNorm"
  bottom: "conv6/dw"
  top: "conv6/dw"
}
layer {
  name: "conv6/dw/scale"
  type: "Scale"
  bottom: "conv6/dw"
  top: "conv6/dw"
  param {
    lr_mult: 0.1
    decay_mult: 0
  }
  param {
    lr_mult: 0.2
    decay_mult: 0
  }
  scale_param {
    filler {
      value: 1
    }
    bias_term: true
    bias_filler {
      value: 0
    }
  }
}
layer {
  name: "conv6/dw/relu"
  type: "ReLU"
  bottom: "conv6/dw"
  top: "conv6/dw"
}
layer {
  name: "conv6"
  type: "Convolution"
  bottom: "conv6/dw"
  top: "conv6"
  param {
    lr_mult: 0.1
    decay_mult: 0.1
  }
  convolution_param {
    num_output: 512
    bias_term: false
    kernel_size: 1
    weight_filler {
      type: "msra"
    }
  }
}
layer {
  name: "conv6/bn"
  type: "BatchNorm"
  bottom: "conv6"
  top: "conv6"
}
layer {
  name: "conv6/scale"
  type: "Scale"
  bottom: "conv6"
  top: "conv6"
  param {
    lr_mult: 0.1
    decay_mult: 0
  }
  param {
    lr_mult: 0.2
    decay_mult: 0
  }
  scale_param {
    filler {
      value: 1
    }
    bias_term: true
    bias_filler {
      value: 0
    }
  }
}
layer {
  name: "conv6/relu"
  type: "ReLU"
  bottom: "conv6"
  top: "conv6"
}
layer {
  name: "conv7/dw"
  type: "Convolution"
  bottom: "conv6"
  top: "conv7/dw"
  param {
    lr_mult: 0.1
    decay_mult: 0.1
  }
  convolution_param {
    num_output: 512
    bias_term: false
    pad: 1
    kernel_size: 3
    group: 512
    weight_filler {
      type: "msra"
    }
    engine: CAFFE
  }
}
layer {
  name: "conv7/dw/bn"
  type: "BatchNorm"
  bottom: "conv7/dw"
  top: "conv7/dw"
}
layer {
  name: "conv7/dw/scale"
  type: "Scale"
  bottom: "conv7/dw"
  top: "conv7/dw"
  param {
    lr_mult: 0.1
    decay_mult: 0
  }
  param {
    lr_mult: 0.2
    decay_mult: 0
  }
  scale_param {
    filler {
      value: 1
    }
    bias_term: true
    bias_filler {
      value: 0
    }
  }
}
layer {
  name: "conv7/dw/relu"
  type: "ReLU"
  bottom: "conv7/dw"
  top: "conv7/dw"
}
layer {
  name: "conv7"
  type: "Convolution"
  bottom: "conv7/dw"
  top: "conv7"
  param {
    lr_mult: 0.1
    decay_mult: 0.1
  }
  convolution_param {
    num_output: 512
    bias_term: false
    kernel_size: 1
    weight_filler {
      type: "msra"
    }
  }
}
layer {
  name: "conv7/bn"
  type: "BatchNorm"
  bottom: "conv7"
  top: "conv7"
}
layer {
  name: "conv7/scale"
  type: "Scale"
  bottom: "conv7"
  top: "conv7"
  param {
    lr_mult: 0.1
    decay_mult: 0
  }
  param {
    lr_mult: 0.2
    decay_mult: 0
  }
  scale_param {
    filler {
      value: 1
    }
    bias_term: true
    bias_filler {
      value: 0
    }
  }
}
layer {
  name: "conv7/relu"
  type: "ReLU"
  bottom: "conv7"
  top: "conv7"
}
layer {
  name: "conv8/dw"
  type: "Convolution"
  bottom: "conv7"
  top: "conv8/dw"
  param {
    lr_mult: 0.1
    decay_mult: 0.1
  }
  convolution_param {
    num_output: 512
    bias_term: false
    pad: 1
    kernel_size: 3
    group: 512
    weight_filler {
      type: "msra"
    }
    engine: CAFFE
  }
}
layer {
  name: "conv8/dw/bn"
  type: "BatchNorm"
  bottom: "conv8/dw"
  top: "conv8/dw"
}
layer {
  name: "conv8/dw/scale"
  type: "Scale"
  bottom: "conv8/dw"
  top: "conv8/dw"
  param {
    lr_mult: 0.1
    decay_mult: 0
  }
  param {
    lr_mult: 0.2
    decay_mult: 0
  }
  scale_param {
    filler {
      value: 1
    }
    bias_term: true
    bias_filler {
      value: 0
    }
  }
}
layer {
  name: "conv8/dw/relu"
  type: "ReLU"
  bottom: "conv8/dw"
  top: "conv8/dw"
}
layer {
  name: "conv8"
  type: "Convolution"
  bottom: "conv8/dw"
  top: "conv8"
  param {
    lr_mult: 0.1
    decay_mult: 0.1
  }
  convolution_param {
    num_output: 512
    bias_term: false
    kernel_size: 1
    weight_filler {
      type: "msra"
    }
  }
}
layer {
  name: "conv8/bn"
  type: "BatchNorm"
  bottom: "conv8"
  top: "conv8"
}
layer {
  name: "conv8/scale"
  type: "Scale"
  bottom: "conv8"
  top: "conv8"
  param {
    lr_mult: 0.1
    decay_mult: 0
  }
  param {
    lr_mult: 0.2
    decay_mult: 0
  }
  scale_param {
    filler {
      value: 1
    }
    bias_term: true
    bias_filler {
      value: 0
    }
  }
}
layer {
  name: "conv8/relu"
  type: "ReLU"
  bottom: "conv8"
  top: "conv8"
}
layer {
  name: "conv9/dw"
  type: "Convolution"
  bottom: "conv8"
  top: "conv9/dw"
  param {
    lr_mult: 0.1
    decay_mult: 0.1
  }
  convolution_param {
    num_output: 512
    bias_term: false
    pad: 1
    kernel_size: 3
    group: 512
    weight_filler {
      type: "msra"
    }
    engine: CAFFE
  }
}
layer {
  name: "conv9/dw/bn"
  type: "BatchNorm"
  bottom: "conv9/dw"
  top: "conv9/dw"
}
layer {
  name: "conv9/dw/scale"
  type: "Scale"
  bottom: "conv9/dw"
  top: "conv9/dw"
  param {
    lr_mult: 0.1
    decay_mult: 0
  }
  param {
    lr_mult: 0.2
    decay_mult: 0
  }
  scale_param {
    filler {
      value: 1
    }
    bias_term: true
    bias_filler {
      value: 0
    }
  }
}
layer {
  name: "conv9/dw/relu"
  type: "ReLU"
  bottom: "conv9/dw"
  top: "conv9/dw"
}
layer {
  name: "conv9"
  type: "Convolution"
  bottom: "conv9/dw"
  top: "conv9"
  param {
    lr_mult: 0.1
    decay_mult: 0.1
  }
  convolution_param {
    num_output: 512
    bias_term: false
    kernel_size: 1
    weight_filler {
      type: "msra"
    }
  }
}
layer {
  name: "conv9/bn"
  type: "BatchNorm"
  bottom: "conv9"
  top: "conv9"
}
layer {
  name: "conv9/scale"
  type: "Scale"
  bottom: "conv9"
  top: "conv9"
  param {
    lr_mult: 0.1
    decay_mult: 0
  }
  param {
    lr_mult: 0.2
    decay_mult: 0
  }
  scale_param {
    filler {
      value: 1
    }
    bias_term: true
    bias_filler {
      value: 0
    }
  }
}
layer {
  name: "conv9/relu"
  type: "ReLU"
  bottom: "conv9"
  top: "conv9"
}
layer {
  name: "conv10/dw"
  type: "Convolution"
  bottom: "conv9"
  top: "conv10/dw"
  param {
    lr_mult: 0.1
    decay_mult: 0.1
  }
  convolution_param {
    num_output: 512
    bias_term: false
    pad: 1
    kernel_size: 3
    group: 512
    weight_filler {
      type: "msra"
    }
    engine: CAFFE
  }
}
layer {
  name: "conv10/dw/bn"
  type: "BatchNorm"
  bottom: "conv10/dw"
  top: "conv10/dw"
}
layer {
  name: "conv10/dw/scale"
  type: "Scale"
  bottom: "conv10/dw"
  top: "conv10/dw"
  param {
    lr_mult: 0.1
    decay_mult: 0
  }
  param {
    lr_mult: 0.2
    decay_mult: 0
  }
  scale_param {
    filler {
      value: 1
    }
    bias_term: true
    bias_filler {
      value: 0
    }
  }
}
layer {
  name: "conv10/dw/relu"
  type: "ReLU"
  bottom: "conv10/dw"
  top: "conv10/dw"
}
layer {
  name: "conv10"
  type: "Convolution"
  bottom: "conv10/dw"
  top: "conv10"
  param {
    lr_mult: 0.1
    decay_mult: 0.1
  }
  convolution_param {
    num_output: 512
    bias_term: false
    kernel_size: 1
    weight_filler {
      type: "msra"
    }
  }
}
layer {
  name: "conv10/bn"
  type: "BatchNorm"
  bottom: "conv10"
  top: "conv10"
}
layer {
  name: "conv10/scale"
  type: "Scale"
  bottom: "conv10"
  top: "conv10"
  param {
    lr_mult: 0.1
    decay_mult: 0
  }
  param {
    lr_mult: 0.2
    decay_mult: 0
  }
  scale_param {
    filler {
      value: 1
    }
    bias_term: true
    bias_filler {
      value: 0
    }
  }
}
layer {
  name: "conv10/relu"
  type: "ReLU"
  bottom: "conv10"
  top: "conv10"
}
layer {
  name: "conv11/dw"
  type: "Convolution"
  bottom: "conv10"
  top: "conv11/dw"
  param {
    lr_mult: 0.1
    decay_mult: 0.1
  }
  convolution_param {
    num_output: 512
    bias_term: false
    pad: 1
    kernel_size: 3
    group: 512
    weight_filler {
      type: "msra"
    }
    engine: CAFFE
  }
}
layer {
  name: "conv11/dw/bn"
  type: "BatchNorm"
  bottom: "conv11/dw"
  top: "conv11/dw"
}
layer {
  name: "conv11/dw/scale"
  type: "Scale"
  bottom: "conv11/dw"
  top: "conv11/dw"
  param {
    lr_mult: 0.1
    decay_mult: 0
  }
  param {
    lr_mult: 0.2
    decay_mult: 0
  }
  scale_param {
    filler {
      value: 1
    }
    bias_term: true
    bias_filler {
      value: 0
    }
  }
}
layer {
  name: "conv11/dw/relu"
  type: "ReLU"
  bottom: "conv11/dw"
  top: "conv11/dw"
}
layer {
  name: "conv11"
  type: "Convolution"
  bottom: "conv11/dw"
  top: "conv11"
  param {
    lr_mult: 0.1
    decay_mult: 0.1
  }
  convolution_param {
    num_output: 512
    bias_term: false
    kernel_size: 1
    weight_filler {
      type: "msra"
    }
  }
}
layer {
  name: "conv11/bn"
  type: "BatchNorm"
  bottom: "conv11"
  top: "conv11"
}
layer {
  name: "conv11/scale"
  type: "Scale"
  bottom: "conv11"
  top: "conv11"
  param {
    lr_mult: 0.1
    decay_mult: 0
  }
  param {
    lr_mult: 0.2
    decay_mult: 0
  }
  scale_param {
    filler {
      value: 1
    }
    bias_term: true
    bias_filler {
      value: 0
    }
  }
}
layer {
  name: "conv11/relu"
  type: "ReLU"
  bottom: "conv11"
  top: "conv11"
}
layer {
  name: "conv12/dw"
  type: "Convolution"
  bottom: "conv11"
  top: "conv12/dw"
  param {
    lr_mult: 0.1
    decay_mult: 0.1
  }
  convolution_param {
    num_output: 512
    bias_term: false
    pad: 1
    kernel_size: 3
    group: 512
    stride: 2
    weight_filler {
      type: "msra"
    }
    engine: CAFFE
  }
}
layer {
  name: "conv12/dw/bn"
  type: "BatchNorm"
  bottom: "conv12/dw"
  top: "conv12/dw"
}
layer {
  name: "conv12/dw/scale"
  type: "Scale"
  bottom: "conv12/dw"
  top: "conv12/dw"
  param {
    lr_mult: 0.1
    decay_mult: 0
  }
  param {
    lr_mult: 0.2
    decay_mult: 0
  }
  scale_param {
    filler {
      value: 1
    }
    bias_term: true
    bias_filler {
      value: 0
    }
  }
}
layer {
  name: "conv12/dw/relu"
  type: "ReLU"
  bottom: "conv12/dw"
  top: "conv12/dw"
}
layer {
  name: "conv12"
  type: "Convolution"
  bottom: "conv12/dw"
  top: "conv12"
  param {
    lr_mult: 0.1
    decay_mult: 0.1
  }
  convolution_param {
    num_output: 1024
    bias_term: false
    kernel_size: 1
    weight_filler {
      type: "msra"
    }
  }
}
layer {
  name: "conv12/bn"
  type: "BatchNorm"
  bottom: "conv12"
  top: "conv12"
}
layer {
  name: "conv12/scale"
  type: "Scale"
  bottom: "conv12"
  top: "conv12"
  param {
    lr_mult: 0.1
    decay_mult: 0
  }
  param {
    lr_mult: 0.2
    decay_mult: 0
  }
  scale_param {
    filler {
      value: 1
    }
    bias_term: true
    bias_filler {
      value: 0
    }
  }
}
layer {
  name: "conv12/relu"
  type: "ReLU"
  bottom: "conv12"
  top: "conv12"
}
layer {
  name: "conv13/dw"
  type: "Convolution"
  bottom: "conv12"
  top: "conv13/dw"
  param {
    lr_mult: 0.1
    decay_mult: 0.1
  }
  convolution_param {
    num_output: 1024
    bias_term: false
    pad: 1
    kernel_size: 3
    group: 1024
    weight_filler {
      type: "msra"
    }
    engine: CAFFE
  }
}
layer {
  name: "conv13/dw/bn"
  type: "BatchNorm"
  bottom: "conv13/dw"
  top: "conv13/dw"
}
layer {
  name: "conv13/dw/scale"
  type: "Scale"
  bottom: "conv13/dw"
  top: "conv13/dw"
  param {
    lr_mult: 0.1
    decay_mult: 0
  }
  param {
    lr_mult: 0.2
    decay_mult: 0
  }
  scale_param {
    filler {
      value: 1
    }
    bias_term: true
    bias_filler {
      value: 0
    }
  }
}
layer {
  name: "conv13/dw/relu"
  type: "ReLU"
  bottom: "conv13/dw"
  top: "conv13/dw"
}
layer {
  name: "conv13"
  type: "Convolution"
  bottom: "conv13/dw"
  top: "conv13"
  param {
    lr_mult: 0.1
    decay_mult: 0.1
  }
  convolution_param {
    num_output: 1024
    bias_term: false
    kernel_size: 1
    weight_filler {
      type: "msra"
    }
  }
}
layer {
  name: "conv13/bn"
  type: "BatchNorm"
  bottom: "conv13"
  top: "conv13"
}
layer {
  name: "conv13/scale"
  type: "Scale"
  bottom: "conv13"
  top: "conv13"
  param {
    lr_mult: 0.1
    decay_mult: 0
  }
  param {
    lr_mult: 0.2
    decay_mult: 0
  }
  scale_param {
    filler {
      value: 1
    }
    bias_term: true
    bias_filler {
      value: 0
    }
  }
}
layer {
  name: "conv13/relu"
  type: "ReLU"
  bottom: "conv13"
  top: "conv13"
}
layer {
  name: "conv14_1"
  type: "Convolution"
  bottom: "conv13"
  top: "conv14_1"
  param {
    lr_mult: 0.1
    decay_mult: 0.1
  }
  convolution_param {
    num_output: 256
    bias_term: false
    kernel_size: 1
    weight_filler {
      type: "msra"
    }
  }
}
layer {
  name: "conv14_1/bn"
  type: "BatchNorm"
  bottom: "conv14_1"
  top: "conv14_1"
}
layer {
  name: "conv14_1/scale"
  type: "Scale"
  bottom: "conv14_1"
  top: "conv14_1"
  param {
    lr_mult: 0.1
    decay_mult: 0
  }
  param {
    lr_mult: 0.2
    decay_mult: 0
  }
  scale_param {
    filler {
      value: 1
    }
    bias_term: true
    bias_filler {
      value: 0
    }
  }
}
layer {
  name: "conv14_1/relu"
  type: "ReLU"
  bottom: "conv14_1"
  top: "conv14_1"
}
layer {
  name: "conv14_2"
  type: "Convolution"
  bottom: "conv14_1"
  top: "conv14_2"
  param {
    lr_mult: 0.1
    decay_mult: 0.1
  }
  convolution_param {
    num_output: 512
    bias_term: false
    pad: 1
    kernel_size: 3
    stride: 2
    weight_filler {
      type: "msra"
    }
  }
}
layer {
  name: "conv14_2/bn"
  type: "BatchNorm"
  bottom: "conv14_2"
  top: "conv14_2"
}
layer {
  name: "conv14_2/scale"
  type: "Scale"
  bottom: "conv14_2"
  top: "conv14_2"
  param {
    lr_mult: 0.1
    decay_mult: 0
  }
  param {
    lr_mult: 0.2
    decay_mult: 0
  }
  scale_param {
    filler {
      value: 1
    }
    bias_term: true
    bias_filler {
      value: 0
    }
  }
}
layer {
  name: "conv14_2/relu"
  type: "ReLU"
  bottom: "conv14_2"
  top: "conv14_2"
}
layer {
  name: "conv15_1"
  type: "Convolution"
  bottom: "conv14_2"
  top: "conv15_1"
  param {
    lr_mult: 0.1
    decay_mult: 0.1
  }
  convolution_param {
    num_output: 128
    bias_term: false
    kernel_size: 1
    weight_filler {
      type: "msra"
    }
  }
}
layer {
  name: "conv15_1/bn"
  type: "BatchNorm"
  bottom: "conv15_1"
  top: "conv15_1"
}
layer {
  name: "conv15_1/scale"
  type: "Scale"
  bottom: "conv15_1"
  top: "conv15_1"
  param {
    lr_mult: 0.1
    decay_mult: 0
  }
  param {
    lr_mult: 0.2
    decay_mult: 0
  }
  scale_param {
    filler {
      value: 1
    }
    bias_term: true
    bias_filler {
      value: 0
    }
  }
}
layer {
  name: "conv15_1/relu"
  type: "ReLU"
  bottom: "conv15_1"
  top: "conv15_1"
}
layer {
  name: "conv15_2"
  type: "Convolution"
  bottom: "conv15_1"
  top: "conv15_2"
  param {
    lr_mult: 0.1
    decay_mult: 0.1
  }
  convolution_param {
    num_output: 256
    bias_term: false
    pad: 1
    kernel_size: 3
    stride: 2
    weight_filler {
      type: "msra"
    }
  }
}
layer {
  name: "conv15_2/bn"
  type: "BatchNorm"
  bottom: "conv15_2"
  top: "conv15_2"
}
layer {
  name: "conv15_2/scale"
  type: "Scale"
  bottom: "conv15_2"
  top: "conv15_2"
  param {
    lr_mult: 0.1
    decay_mult: 0
  }
  param {
    lr_mult: 0.2
    decay_mult: 0
  }
  scale_param {
    filler {
      value: 1
    }
    bias_term: true
    bias_filler {
      value: 0
    }
  }
}
layer {
  name: "conv15_2/relu"
  type: "ReLU"
  bottom: "conv15_2"
  top: "conv15_2"
}
layer {
  name: "conv16_1"
  type: "Convolution"
  bottom: "conv15_2"
  top: "conv16_1"
  param {
    lr_mult: 0.1
    decay_mult: 0.1
  }
  convolution_param {
    num_output: 128
    bias_term: false
    kernel_size: 1
    weight_filler {
      type: "msra"
    }
  }
}
layer {
  name: "conv16_1/bn"
  type: "BatchNorm"
  bottom: "conv16_1"
  top: "conv16_1"
}
layer {
  name: "conv16_1/scale"
  type: "Scale"
  bottom: "conv16_1"
  top: "conv16_1"
  param {
    lr_mult: 0.1
    decay_mult: 0
  }
  param {
    lr_mult: 0.2
    decay_mult: 0
  }
  scale_param {
    filler {
      value: 1
    }
    bias_term: true
    bias_filler {
      value: 0
    }
  }
}
layer {
  name: "conv16_1/relu"
  type: "ReLU"
  bottom: "conv16_1"
  top: "conv16_1"
}
layer {
  name: "conv16_2"
  type: "Convolution"
  bottom: "conv16_1"
  top: "conv16_2"
  param {
    lr_mult: 0.1
    decay_mult: 0.1
  }
  convolution_param {
    num_output: 256
    bias_term: false
    pad: 1
    kernel_size: 3
    stride: 2
    weight_filler {
      type: "msra"
    }
  }
}
layer {
  name: "conv16_2/bn"
  type: "BatchNorm"
  bottom: "conv16_2"
  top: "conv16_2"
}
layer {
  name: "conv16_2/scale"
  type: "Scale"
  bottom: "conv16_2"
  top: "conv16_2"
  param {
    lr_mult: 0.1
    decay_mult: 0
  }
  param {
    lr_mult: 0.2
    decay_mult: 0
  }
  scale_param {
    filler {
      value: 1
    }
    bias_term: true
    bias_filler {
      value: 0
    }
  }
}
layer {
  name: "conv16_2/relu"
  type: "ReLU"
  bottom: "conv16_2"
  top: "conv16_2"
}
layer {
  name: "conv17_1"
  type: "Convolution"
  bottom: "conv16_2"
  top: "conv17_1"
  param {
    lr_mult: 0.1
    decay_mult: 0.1
  }
  convolution_param {
    num_output: 64
    bias_term: false
    kernel_size: 1
    weight_filler {
      type: "msra"
    }
  }
}
layer {
  name: "conv17_1/bn"
  type: "BatchNorm"
  bottom: "conv17_1"
  top: "conv17_1"
}
layer {
  name: "conv17_1/scale"
  type: "Scale"
  bottom: "conv17_1"
  top: "conv17_1"
  param {
    lr_mult: 0.1
    decay_mult: 0
  }
  param {
    lr_mult: 0.2
    decay_mult: 0
  }
  scale_param {
    filler {
      value: 1
    }
    bias_term: true
    bias_filler {
      value: 0
    }
  }
}
layer {
  name: "conv17_1/relu"
  type: "ReLU"
  bottom: "conv17_1"
  top: "conv17_1"
}
layer {
  name: "conv17_2"
  type: "Convolution"
  bottom: "conv17_1"
  top: "conv17_2"
  param {
    lr_mult: 0.1
    decay_mult: 0.1
  }
  convolution_param {
    num_output: 128
    bias_term: false
    pad: 1
    kernel_size: 3
    stride: 2
    weight_filler {
      type: "msra"
    }
  }
}
layer {
  name: "conv17_2/bn"
  type: "BatchNorm"
  bottom: "conv17_2"
  top: "conv17_2"
}
layer {
  name: "conv17_2/scale"
  type: "Scale"
  bottom: "conv17_2"
  top: "conv17_2"
  param {
    lr_mult: 0.1
    decay_mult: 0
  }
  param {
    lr_mult: 0.2
    decay_mult: 0
  }
  scale_param {
    filler {
      value: 1
    }
    bias_term: true
    bias_filler {
      value: 0
    }
  }
}
layer {
  name: "conv17_2/relu"
  type: "ReLU"
  bottom: "conv17_2"
  top: "conv17_2"
}
layer {
  name: "conv11_mbox_loc"
  type: "Convolution"
  bottom: "conv11"
  top: "conv11_mbox_loc"
  param {
    lr_mult: 0.1
    decay_mult: 0.1
  }
  param {
    lr_mult: 0.2
    decay_mult: 0
  }
  convolution_param {
    num_output: 12
    kernel_size: 1
    weight_filler {
      type: "msra"
    }
    bias_filler {
      type: "constant"
      value: 0
    }
  }
}
layer {
  name: "conv11_mbox_loc_perm"
  type: "Permute"
  bottom: "conv11_mbox_loc"
  top: "conv11_mbox_loc_pe
I1031 15:14:54.706717 31137 layer_factory.hpp:77] Creating layer data
I1031 15:14:54.706971 31137 net.cpp:100] Creating Layer data
I1031 15:14:54.706990 31137 net.cpp:452] data -> data
I1031 15:14:54.707056 31137 net.cpp:452] data -> label
I1031 15:14:54.710153 31177 db_lmdb.cpp:35] Opened lmdb examples/VOC0712/VOC0712_trainval_lmdb
I1031 15:14:54.727937 31137 annotated_data_layer.cpp:62] output data size: 24,3,300,300
I1031 15:14:54.778962 31137 net.cpp:150] Setting up data
I1031 15:14:54.779029 31137 net.cpp:157] Top shape: 24 3 300 300 (6480000)
I1031 15:14:54.779036 31137 net.cpp:157] Top shape: 1 1 1 8 (8)
I1031 15:14:54.779037 31137 net.cpp:165] Memory required for data: 25920032
I1031 15:14:54.779047 31137 layer_factory.hpp:77] Creating layer data_data_0_split
I1031 15:14:54.779062 31137 net.cpp:100] Creating Layer data_data_0_split
I1031 15:14:54.779068 31137 net.cpp:478] data_data_0_split <- data
I1031 15:14:54.779108 31137 net.cpp:452] data_data_0_split -> data_data_0_split_0
I1031 15:14:54.779126 31137 net.cpp:452] data_data_0_split -> data_data_0_split_1
I1031 15:14:54.779132 31137 net.cpp:452] data_data_0_split -> data_data_0_split_2
I1031 15:14:54.779139 31137 net.cpp:452] data_data_0_split -> data_data_0_split_3
I1031 15:14:54.779161 31137 net.cpp:452] data_data_0_split -> data_data_0_split_4
I1031 15:14:54.779166 31137 net.cpp:452] data_data_0_split -> data_data_0_split_5
I1031 15:14:54.779171 31137 net.cpp:452] data_data_0_split -> data_data_0_split_6
I1031 15:14:54.779343 31137 net.cpp:150] Setting up data_data_0_split
I1031 15:14:54.779356 31137 net.cpp:157] Top shape: 24 3 300 300 (6480000)
I1031 15:14:54.779359 31137 net.cpp:157] Top shape: 24 3 300 300 (6480000)
I1031 15:14:54.779363 31137 net.cpp:157] Top shape: 24 3 300 300 (6480000)
I1031 15:14:54.779366 31137 net.cpp:157] Top shape: 24 3 300 300 (6480000)
I1031 15:14:54.779384 31137 net.cpp:157] Top shape: 24 3 300 300 (6480000)
I1031 15:14:54.779387 31137 net.cpp:157] Top shape: 24 3 300 300 (6480000)
I1031 15:14:54.779391 31137 net.cpp:157] Top shape: 24 3 300 300 (6480000)
I1031 15:14:54.779393 31137 net.cpp:165] Memory required for data: 207360032
I1031 15:14:54.779397 31137 layer_factory.hpp:77] Creating layer conv0
I1031 15:14:54.779414 31137 net.cpp:100] Creating Layer conv0
I1031 15:14:54.779417 31137 net.cpp:478] conv0 <- data_data_0_split_0
I1031 15:14:54.779424 31137 net.cpp:452] conv0 -> conv0
I1031 15:14:54.781910 31137 net.cpp:150] Setting up conv0
I1031 15:14:54.781931 31137 net.cpp:157] Top shape: 24 32 150 150 (17280000)
I1031 15:14:54.781955 31137 net.cpp:165] Memory required for data: 276480032
I1031 15:14:54.782011 31137 layer_factory.hpp:77] Creating layer conv0/bn
I1031 15:14:54.782035 31137 net.cpp:100] Creating Layer conv0/bn
I1031 15:14:54.782038 31137 net.cpp:478] conv0/bn <- conv0
I1031 15:14:54.782043 31137 net.cpp:439] conv0/bn -> conv0 (in-place)
I1031 15:14:54.784418 31137 net.cpp:150] Setting up conv0/bn
I1031 15:14:54.784436 31137 net.cpp:157] Top shape: 24 32 150 150 (17280000)
I1031 15:14:54.784440 31137 net.cpp:165] Memory required for data: 345600032
I1031 15:14:54.784461 31137 layer_factory.hpp:77] Creating layer conv0/scale
I1031 15:14:54.784472 31137 net.cpp:100] Creating Layer conv0/scale
I1031 15:14:54.784476 31137 net.cpp:478] conv0/scale <- conv0
I1031 15:14:54.784482 31137 net.cpp:439] conv0/scale -> conv0 (in-place)
I1031 15:14:54.784524 31137 layer_factory.hpp:77] Creating layer conv0/scale
I1031 15:14:54.784688 31137 net.cpp:150] Setting up conv0/scale
I1031 15:14:54.784708 31137 net.cpp:157] Top shape: 24 32 150 150 (17280000)
I1031 15:14:54.784710 31137 net.cpp:165] Memory required for data: 414720032
I1031 15:14:54.784718 31137 layer_factory.hpp:77] Creating layer conv0/relu
I1031 15:14:54.784725 31137 net.cpp:100] Creating Layer conv0/relu
I1031 15:14:54.784729 31137 net.cpp:478] conv0/relu <- conv0
I1031 15:14:54.784734 31137 net.cpp:439] conv0/relu -> conv0 (in-place)
I1031 15:14:54.784739 31137 net.cpp:150] Setting up conv0/relu
I1031 15:14:54.784741 31137 net.cpp:157] Top shape: 24 32 150 150 (17280000)
I1031 15:14:54.784744 31137 net.cpp:165] Memory required for data: 483840032
I1031 15:14:54.784746 31137 layer_factory.hpp:77] Creating layer conv1/dw
I1031 15:14:54.784754 31137 net.cpp:100] Creating Layer conv1/dw
I1031 15:14:54.784757 31137 net.cpp:478] conv1/dw <- conv0
I1031 15:14:54.784761 31137 net.cpp:452] conv1/dw -> conv1/dw
I1031 15:14:54.784948 31137 net.cpp:150] Setting up conv1/dw
I1031 15:14:54.784958 31137 net.cpp:157] Top shape: 24 32 150 150 (17280000)
I1031 15:14:54.784961 31137 net.cpp:165] Memory required for data: 552960032
I1031 15:14:54.784965 31137 layer_factory.hpp:77] Creating layer conv1/dw/bn
I1031 15:14:54.784970 31137 net.cpp:100] Creating Layer conv1/dw/bn
I1031 15:14:54.784976 31137 net.cpp:478] conv1/dw/bn <- conv1/dw
I1031 15:14:54.784981 31137 net.cpp:439] conv1/dw/bn -> conv1/dw (in-place)
I1031 15:14:54.785187 31137 net.cpp:150] Setting up conv1/dw/bn
I1031 15:14:54.785197 31137 net.cpp:157] Top shape: 24 32 150 150 (17280000)
I1031 15:14:54.785200 31137 net.cpp:165] Memory required for data: 622080032
I1031 15:14:54.785225 31137 layer_factory.hpp:77] Creating layer conv1/dw/scale
I1031 15:14:54.785233 31137 net.cpp:100] Creating Layer conv1/dw/scale
I1031 15:14:54.785235 31137 net.cpp:478] conv1/dw/scale <- conv1/dw
I1031 15:14:54.785239 31137 net.cpp:439] conv1/dw/scale -> conv1/dw (in-place)
I1031 15:14:54.785274 31137 layer_factory.hpp:77] Creating layer conv1/dw/scale
I1031 15:14:54.785413 31137 net.cpp:150] Setting up conv1/dw/scale
I1031 15:14:54.785424 31137 net.cpp:157] Top shape: 24 32 150 150 (17280000)
I1031 15:14:54.785428 31137 net.cpp:165] Memory required for data: 691200032
I1031 15:14:54.785432 31137 layer_factory.hpp:77] Creating layer conv1/dw/relu
I1031 15:14:54.785436 31137 net.cpp:100] Creating Layer conv1/dw/relu
I1031 15:14:54.785439 31137 net.cpp:478] conv1/dw/relu <- conv1/dw
I1031 15:14:54.785459 31137 net.cpp:439] conv1/dw/relu -> conv1/dw (in-place)
I1031 15:14:54.785464 31137 net.cpp:150] Setting up conv1/dw/relu
I1031 15:14:54.785466 31137 net.cpp:157] Top shape: 24 32 150 150 (17280000)
I1031 15:14:54.785483 31137 net.cpp:165] Memory required for data: 760320032
I1031 15:14:54.785485 31137 layer_factory.hpp:77] Creating layer conv1
I1031 15:14:54.785493 31137 net.cpp:100] Creating Layer conv1
I1031 15:14:54.785495 31137 net.cpp:478] conv1 <- conv1/dw
I1031 15:14:54.785500 31137 net.cpp:452] conv1 -> conv1
I1031 15:14:54.786854 31137 net.cpp:150] Setting up conv1
I1031 15:14:54.786873 31137 net.cpp:157] Top shape: 24 64 150 150 (34560000)
I1031 15:14:54.786877 31137 net.cpp:165] Memory required for data: 898560032
I1031 15:14:54.786881 31137 layer_factory.hpp:77] Creating layer conv1/bn
I1031 15:14:54.786887 31137 net.cpp:100] Creating Layer conv1/bn
I1031 15:14:54.786895 31137 net.cpp:478] conv1/bn <- conv1
I1031 15:14:54.786900 31137 net.cpp:439] conv1/bn -> conv1 (in-place)
I1031 15:14:54.787099 31137 net.cpp:150] Setting up conv1/bn
I1031 15:14:54.787127 31137 net.cpp:157] Top shape: 24 64 150 150 (34560000)
I1031 15:14:54.787128 31137 net.cpp:165] Memory required for data: 1036800032
I1031 15:14:54.787135 31137 layer_factory.hpp:77] Creating layer conv1/scale
I1031 15:14:54.787142 31137 net.cpp:100] Creating Layer conv1/scale
I1031 15:14:54.787143 31137 net.cpp:478] conv1/scale <- conv1
I1031 15:14:54.787168 31137 net.cpp:439] conv1/scale -> conv1 (in-place)
I1031 15:14:54.787202 31137 layer_factory.hpp:77] Creating layer conv1/scale
I1031 15:14:54.787344 31137 net.cpp:150] Setting up conv1/scale
I1031 15:14:54.787355 31137 net.cpp:157] Top shape: 24 64 150 150 (34560000)
I1031 15:14:54.787358 31137 net.cpp:165] Memory required for data: 1175040032
I1031 15:14:54.787367 31137 layer_factory.hpp:77] Creating layer conv1/relu
I1031 15:14:54.787375 31137 net.cpp:100] Creating Layer conv1/relu
I1031 15:14:54.787379 31137 net.cpp:478] conv1/relu <- conv1
I1031 15:14:54.787384 31137 net.cpp:439] conv1/relu -> conv1 (in-place)
I1031 15:14:54.787389 31137 net.cpp:150] Setting up conv1/relu
I1031 15:14:54.787391 31137 net.cpp:157] Top shape: 24 64 150 150 (34560000)
I1031 15:14:54.787408 31137 net.cpp:165] Memory required for data: 1313280032
I1031 15:14:54.787411 31137 layer_factory.hpp:77] Creating layer conv2/dw
I1031 15:14:54.787417 31137 net.cpp:100] Creating Layer conv2/dw
I1031 15:14:54.787420 31137 net.cpp:478] conv2/dw <- conv1
I1031 15:14:54.787425 31137 net.cpp:452] conv2/dw -> conv2/dw
I1031 15:14:54.787570 31137 net.cpp:150] Setting up conv2/dw
I1031 15:14:54.787580 31137 net.cpp:157] Top shape: 24 64 75 75 (8640000)
I1031 15:14:54.787582 31137 net.cpp:165] Memory required for data: 1347840032
I1031 15:14:54.787586 31137 layer_factory.hpp:77] Creating layer conv2/dw/bn
I1031 15:14:54.787590 31137 net.cpp:100] Creating Layer conv2/dw/bn
I1031 15:14:54.787593 31137 net.cpp:478] conv2/dw/bn <- conv2/dw
I1031 15:14:54.787597 31137 net.cpp:439] conv2/dw/bn -> conv2/dw (in-place)
I1031 15:14:54.788856 31137 net.cpp:150] Setting up conv2/dw/bn
I1031 15:14:54.788873 31137 net.cpp:157] Top shape: 24 64 75 75 (8640000)
I1031 15:14:54.788875 31137 net.cpp:165] Memory required for data: 1382400032
I1031 15:14:54.788883 31137 layer_factory.hpp:77] Creating layer conv2/dw/scale
I1031 15:14:54.788895 31137 net.cpp:100] Creating Layer conv2/dw/scale
I1031 15:14:54.788903 31137 net.cpp:478] conv2/dw/scale <- conv2/dw
I1031 15:14:54.788911 31137 net.cpp:439] conv2/dw/scale -> conv2/dw (in-place)
I1031 15:14:54.792321 31137 layer_factory.hpp:77] Creating layer conv2/dw/scale
I1031 15:14:54.792559 31137 net.cpp:150] Setting up conv2/dw/scale
I1031 15:14:54.792588 31137 net.cpp:157] Top shape: 24 64 75 75 (8640000)
I1031 15:14:54.792592 31137 net.cpp:165] Memory required for data: 1416960032
I1031 15:14:54.792598 31137 layer_factory.hpp:77] Creating layer conv2/dw/relu
I1031 15:14:54.792603 31137 net.cpp:100] Creating Layer conv2/dw/relu
I1031 15:14:54.792606 31137 net.cpp:478] conv2/dw/relu <- conv2/dw
I1031 15:14:54.792610 31137 net.cpp:439] conv2/dw/relu -> conv2/dw (in-place)
I1031 15:14:54.792616 31137 net.cpp:150] Setting up conv2/dw/relu
I1031 15:14:54.792619 31137 net.cpp:157] Top shape: 24 64 75 75 (8640000)
I1031 15:14:54.792621 31137 net.cpp:165] Memory required for data: 1451520032
I1031 15:14:54.792623 31137 layer_factory.hpp:77] Creating layer conv2
I1031 15:14:54.792631 31137 net.cpp:100] Creating Layer conv2
I1031 15:14:54.792654 31137 net.cpp:478] conv2 <- conv2/dw
I1031 15:14:54.792670 31137 net.cpp:452] conv2 -> conv2
I1031 15:14:54.792901 31137 net.cpp:150] Setting up conv2
I1031 15:14:54.792912 31137 net.cpp:157] Top shape: 24 128 75 75 (17280000)
I1031 15:14:54.792913 31137 net.cpp:165] Memory required for data: 1520640032
I1031 15:14:54.792917 31137 layer_factory.hpp:77] Creating layer conv2/bn
I1031 15:14:54.792922 31137 net.cpp:100] Creating Layer conv2/bn
I1031 15:14:54.792927 31137 net.cpp:478] conv2/bn <- conv2
I1031 15:14:54.792948 31137 net.cpp:439] conv2/bn -> conv2 (in-place)
I1031 15:14:54.793134 31137 net.cpp:150] Setting up conv2/bn
I1031 15:14:54.793144 31137 net.cpp:157] Top shape: 24 128 75 75 (17280000)
I1031 15:14:54.793148 31137 net.cpp:165] Memory required for data: 1589760032
I1031 15:14:54.793154 31137 layer_factory.hpp:77] Creating layer conv2/scale
I1031 15:14:54.793159 31137 net.cpp:100] Creating Layer conv2/scale
I1031 15:14:54.793162 31137 net.cpp:478] conv2/scale <- conv2
I1031 15:14:54.793169 31137 net.cpp:439] conv2/scale -> conv2 (in-place)
I1031 15:14:54.793200 31137 layer_factory.hpp:77] Creating layer conv2/scale
I1031 15:14:54.793334 31137 net.cpp:150] Setting up conv2/scale
I1031 15:14:54.793342 31137 net.cpp:157] Top shape: 24 128 75 75 (17280000)
I1031 15:14:54.793344 31137 net.cpp:165] Memory required for data: 1658880032
I1031 15:14:54.793349 31137 layer_factory.hpp:77] Creating layer conv2/relu
I1031 15:14:54.793354 31137 net.cpp:100] Creating Layer conv2/relu
I1031 15:14:54.793356 31137 net.cpp:478] conv2/relu <- conv2
I1031 15:14:54.793359 31137 net.cpp:439] conv2/relu -> conv2 (in-place)
I1031 15:14:54.793365 31137 net.cpp:150] Setting up conv2/relu
I1031 15:14:54.793368 31137 net.cpp:157] Top shape: 24 128 75 75 (17280000)
I1031 15:14:54.793370 31137 net.cpp:165] Memory required for data: 1728000032
I1031 15:14:54.793373 31137 layer_factory.hpp:77] Creating layer conv3/dw
I1031 15:14:54.793378 31137 net.cpp:100] Creating Layer conv3/dw
I1031 15:14:54.793380 31137 net.cpp:478] conv3/dw <- conv2
I1031 15:14:54.793386 31137 net.cpp:452] conv3/dw -> conv3/dw
I1031 15:14:54.793545 31137 net.cpp:150] Setting up conv3/dw
I1031 15:14:54.793553 31137 net.cpp:157] Top shape: 24 128 75 75 (17280000)
I1031 15:14:54.793555 31137 net.cpp:165] Memory required for data: 1797120032
I1031 15:14:54.793560 31137 layer_factory.hpp:77] Creating layer conv3/dw/bn
I1031 15:14:54.793563 31137 net.cpp:100] Creating Layer conv3/dw/bn
I1031 15:14:54.793565 31137 net.cpp:478] conv3/dw/bn <- conv3/dw
I1031 15:14:54.793576 31137 net.cpp:439] conv3/dw/bn -> conv3/dw (in-place)
I1031 15:14:54.793733 31137 net.cpp:150] Setting up conv3/dw/bn
I1031 15:14:54.793742 31137 net.cpp:157] Top shape: 24 128 75 75 (17280000)
I1031 15:14:54.793745 31137 net.cpp:165] Memory required for data: 1866240032
I1031 15:14:54.793756 31137 layer_factory.hpp:77] Creating layer conv3/dw/scale
I1031 15:14:54.793763 31137 net.cpp:100] Creating Layer conv3/dw/scale
I1031 15:14:54.793766 31137 net.cpp:478] conv3/dw/scale <- conv3/dw
I1031 15:14:54.793771 31137 net.cpp:439] conv3/dw/scale -> conv3/dw (in-place)
I1031 15:14:54.793803 31137 layer_factory.hpp:77] Creating layer conv3/dw/scale
I1031 15:14:54.794013 31137 net.cpp:150] Setting up conv3/dw/scale
I1031 15:14:54.794044 31137 net.cpp:157] Top shape: 24 128 75 75 (17280000)
I1031 15:14:54.794046 31137 net.cpp:165] Memory required for data: 1935360032
I1031 15:14:54.794052 31137 layer_factory.hpp:77] Creating layer conv3/dw/relu
I1031 15:14:54.794059 31137 net.cpp:100] Creating Layer conv3/dw/relu
I1031 15:14:54.794062 31137 net.cpp:478] conv3/dw/relu <- conv3/dw
I1031 15:14:54.794066 31137 net.cpp:439] conv3/dw/relu -> conv3/dw (in-place)
I1031 15:14:54.794070 31137 net.cpp:150] Setting up conv3/dw/relu
I1031 15:14:54.794075 31137 net.cpp:157] Top shape: 24 128 75 75 (17280000)
I1031 15:14:54.794076 31137 net.cpp:165] Memory required for data: 2004480032
I1031 15:14:54.794078 31137 layer_factory.hpp:77] Creating layer conv3
I1031 15:14:54.794085 31137 net.cpp:100] Creating Layer conv3
I1031 15:14:54.794088 31137 net.cpp:478] conv3 <- conv3/dw
I1031 15:14:54.794092 31137 net.cpp:452] conv3 -> conv3
I1031 15:14:54.794512 31137 net.cpp:150] Setting up conv3
I1031 15:14:54.794523 31137 net.cpp:157] Top shape: 24 128 75 75 (17280000)
I1031 15:14:54.794526 31137 net.cpp:165] Memory required for data: 2073600032
I1031 15:14:54.794529 31137 layer_factory.hpp:77] Creating layer conv3/bn
I1031 15:14:54.794533 31137 net.cpp:100] Creating Layer conv3/bn
I1031 15:14:54.794536 31137 net.cpp:478] conv3/bn <- conv3
I1031 15:14:54.794539 31137 net.cpp:439] conv3/bn -> conv3 (in-place)
I1031 15:14:54.794724 31137 net.cpp:150] Setting up conv3/bn
I1031 15:14:54.794734 31137 net.cpp:157] Top shape: 24 128 75 75 (17280000)
I1031 15:14:54.794735 31137 net.cpp:165] Memory required for data: 2142720032
I1031 15:14:54.794741 31137 layer_factory.hpp:77] Creating layer conv3/scale
I1031 15:14:54.794749 31137 net.cpp:100] Creating Layer conv3/scale
I1031 15:14:54.794751 31137 net.cpp:478] conv3/scale <- conv3
I1031 15:14:54.794754 31137 net.cpp:439] conv3/scale -> conv3 (in-place)
I1031 15:14:54.794787 31137 layer_factory.hpp:77] Creating layer conv3/scale
I1031 15:14:54.794881 31137 net.cpp:150] Setting up conv3/scale
I1031 15:14:54.794893 31137 net.cpp:157] Top shape: 24 128 75 75 (17280000)
I1031 15:14:54.794894 31137 net.cpp:165] Memory required for data: 2211840032
I1031 15:14:54.794898 31137 layer_factory.hpp:77] Creating layer conv3/relu
I1031 15:14:54.794903 31137 net.cpp:100] Creating Layer conv3/relu
I1031 15:14:54.794905 31137 net.cpp:478] conv3/relu <- conv3
I1031 15:14:54.794909 31137 net.cpp:439] conv3/relu -> conv3 (in-place)
I1031 15:14:54.794912 31137 net.cpp:150] Setting up conv3/relu
I1031 15:14:54.794915 31137 net.cpp:157] Top shape: 24 128 75 75 (17280000)
I1031 15:14:54.794917 31137 net.cpp:165] Memory required for data: 2280960032
I1031 15:14:54.794919 31137 layer_factory.hpp:77] Creating layer conv4/dw
I1031 15:14:54.794926 31137 net.cpp:100] Creating Layer conv4/dw
I1031 15:14:54.794929 31137 net.cpp:478] conv4/dw <- conv3
I1031 15:14:54.794934 31137 net.cpp:452] conv4/dw -> conv4/dw
I1031 15:14:54.795092 31137 net.cpp:150] Setting up conv4/dw
I1031 15:14:54.795104 31137 net.cpp:157] Top shape: 24 128 38 38 (4435968)
I1031 15:14:54.795120 31137 net.cpp:165] Memory required for data: 2298703904
I1031 15:14:54.795125 31137 layer_factory.hpp:77] Creating layer conv4/dw/bn
I1031 15:14:54.795145 31137 net.cpp:100] Creating Layer conv4/dw/bn
I1031 15:14:54.795148 31137 net.cpp:478] conv4/dw/bn <- conv4/dw
I1031 15:14:54.795153 31137 net.cpp:439] conv4/dw/bn -> conv4/dw (in-place)
I1031 15:14:54.795318 31137 net.cpp:150] Setting up conv4/dw/bn
I1031 15:14:54.795327 31137 net.cpp:157] Top shape: 24 128 38 38 (4435968)
I1031 15:14:54.795330 31137 net.cpp:165] Memory required for data: 2316447776
I1031 15:14:54.795336 31137 layer_factory.hpp:77] Creating layer conv4/dw/scale
I1031 15:14:54.795346 31137 net.cpp:100] Creating Layer conv4/dw/scale
I1031 15:14:54.795348 31137 net.cpp:478] conv4/dw/scale <- conv4/dw
I1031 15:14:54.795352 31137 net.cpp:439] conv4/dw/scale -> conv4/dw (in-place)
I1031 15:14:54.795384 31137 layer_factory.hpp:77] Creating layer conv4/dw/scale
I1031 15:14:54.795539 31137 net.cpp:150] Setting up conv4/dw/scale
I1031 15:14:54.795549 31137 net.cpp:157] Top shape: 24 128 38 38 (4435968)
I1031 15:14:54.795567 31137 net.cpp:165] Memory required for data: 2334191648
I1031 15:14:54.795572 31137 layer_factory.hpp:77] Creating layer conv4/dw/relu
I1031 15:14:54.795577 31137 net.cpp:100] Creating Layer conv4/dw/relu
I1031 15:14:54.795579 31137 net.cpp:478] conv4/dw/relu <- conv4/dw
I1031 15:14:54.795583 31137 net.cpp:439] conv4/dw/relu -> conv4/dw (in-place)
I1031 15:14:54.795586 31137 net.cpp:150] Setting up conv4/dw/relu
I1031 15:14:54.795589 31137 net.cpp:157] Top shape: 24 128 38 38 (4435968)
I1031 15:14:54.795591 31137 net.cpp:165] Memory required for data: 2351935520
I1031 15:14:54.795594 31137 layer_factory.hpp:77] Creating layer conv4
I1031 15:14:54.795601 31137 net.cpp:100] Creating Layer conv4
I1031 15:14:54.795603 31137 net.cpp:478] conv4 <- conv4/dw
I1031 15:14:54.795609 31137 net.cpp:452] conv4 -> conv4
I1031 15:14:54.796075 31137 net.cpp:150] Setting up conv4
I1031 15:14:54.796089 31137 net.cpp:157] Top shape: 24 256 38 38 (8871936)
I1031 15:14:54.796092 31137 net.cpp:165] Memory required for data: 2387423264
I1031 15:14:54.796095 31137 layer_factory.hpp:77] Creating layer conv4/bn
I1031 15:14:54.796099 31137 net.cpp:100] Creating Layer conv4/bn
I1031 15:14:54.796103 31137 net.cpp:478] conv4/bn <- conv4
I1031 15:14:54.796106 31137 net.cpp:439] conv4/bn -> conv4 (in-place)
I1031 15:14:54.796257 31137 net.cpp:150] Setting up conv4/bn
I1031 15:14:54.796269 31137 net.cpp:157] Top shape: 24 256 38 38 (8871936)
I1031 15:14:54.796272 31137 net.cpp:165] Memory required for data: 2422911008
I1031 15:14:54.796277 31137 layer_factory.hpp:77] Creating layer conv4/scale
I1031 15:14:54.796283 31137 net.cpp:100] Creating Layer conv4/scale
I1031 15:14:54.796284 31137 net.cpp:478] conv4/scale <- conv4
I1031 15:14:54.796288 31137 net.cpp:439] conv4/scale -> conv4 (in-place)
I1031 15:14:54.796321 31137 layer_factory.hpp:77] Creating layer conv4/scale
I1031 15:14:54.796413 31137 net.cpp:150] Setting up conv4/scale
I1031 15:14:54.796422 31137 net.cpp:157] Top shape: 24 256 38 38 (8871936)
I1031 15:14:54.796424 31137 net.cpp:165] Memory required for data: 2458398752
I1031 15:14:54.796428 31137 layer_factory.hpp:77] Creating layer conv4/relu
I1031 15:14:54.796432 31137 net.cpp:100] Creating Layer conv4/relu
I1031 15:14:54.796437 31137 net.cpp:478] conv4/relu <- conv4
I1031 15:14:54.796442 31137 net.cpp:439] conv4/relu -> conv4 (in-place)
I1031 15:14:54.796447 31137 net.cpp:150] Setting up conv4/relu
I1031 15:14:54.796449 31137 net.cpp:157] Top shape: 24 256 38 38 (8871936)
I1031 15:14:54.796452 31137 net.cpp:165] Memory required for data: 2493886496
I1031 15:14:54.796454 31137 layer_factory.hpp:77] Creating layer conv5/dw
I1031 15:14:54.796460 31137 net.cpp:100] Creating Layer conv5/dw
I1031 15:14:54.796463 31137 net.cpp:478] conv5/dw <- conv4
I1031 15:14:54.796470 31137 net.cpp:452] conv5/dw -> conv5/dw
I1031 15:14:54.796679 31137 net.cpp:150] Setting up conv5/dw
I1031 15:14:54.796692 31137 net.cpp:157] Top shape: 24 256 38 38 (8871936)
I1031 15:14:54.796695 31137 net.cpp:165] Memory required for data: 2529374240
I1031 15:14:54.796700 31137 layer_factory.hpp:77] Creating layer conv5/dw/bn
I1031 15:14:54.796703 31137 net.cpp:100] Creating Layer conv5/dw/bn
I1031 15:14:54.796706 31137 net.cpp:478] conv5/dw/bn <- conv5/dw
I1031 15:14:54.796710 31137 net.cpp:439] conv5/dw/bn -> conv5/dw (in-place)
I1031 15:14:54.796865 31137 net.cpp:150] Setting up conv5/dw/bn
I1031 15:14:54.796876 31137 net.cpp:157] Top shape: 24 256 38 38 (8871936)
I1031 15:14:54.796880 31137 net.cpp:165] Memory required for data: 2564861984
I1031 15:14:54.796885 31137 layer_factory.hpp:77] Creating layer conv5/dw/scale
I1031 15:14:54.796890 31137 net.cpp:100] Creating Layer conv5/dw/scale
I1031 15:14:54.796895 31137 net.cpp:478] conv5/dw/scale <- conv5/dw
I1031 15:14:54.796900 31137 net.cpp:439] conv5/dw/scale -> conv5/dw (in-place)
I1031 15:14:54.796933 31137 layer_factory.hpp:77] Creating layer conv5/dw/scale
I1031 15:14:54.797061 31137 net.cpp:150] Setting up conv5/dw/scale
I1031 15:14:54.797070 31137 net.cpp:157] Top shape: 24 256 38 38 (8871936)
I1031 15:14:54.797073 31137 net.cpp:165] Memory required for data: 2600349728
I1031 15:14:54.797078 31137 layer_factory.hpp:77] Creating layer conv5/dw/relu
I1031 15:14:54.797083 31137 net.cpp:100] Creating Layer conv5/dw/relu
I1031 15:14:54.797089 31137 net.cpp:478] conv5/dw/relu <- conv5/dw
I1031 15:14:54.797092 31137 net.cpp:439] conv5/dw/relu -> conv5/dw (in-place)
I1031 15:14:54.797097 31137 net.cpp:150] Setting up conv5/dw/relu
I1031 15:14:54.797101 31137 net.cpp:157] Top shape: 24 256 38 38 (8871936)
I1031 15:14:54.797102 31137 net.cpp:165] Memory required for data: 2635837472
I1031 15:14:54.797104 31137 layer_factory.hpp:77] Creating layer conv5
I1031 15:14:54.797111 31137 net.cpp:100] Creating Layer conv5
I1031 15:14:54.797113 31137 net.cpp:478] conv5 <- conv5/dw
I1031 15:14:54.797117 31137 net.cpp:452] conv5 -> conv5
I1031 15:14:54.799001 31137 net.cpp:150] Setting up conv5
I1031 15:14:54.799019 31137 net.cpp:157] Top shape: 24 256 38 38 (8871936)
I1031 15:14:54.799022 31137 net.cpp:165] Memory required for data: 2671325216
I1031 15:14:54.799032 31137 layer_factory.hpp:77] Creating layer conv5/bn
I1031 15:14:54.799041 31137 net.cpp:100] Creating Layer conv5/bn
I1031 15:14:54.799046 31137 net.cpp:478] conv5/bn <- conv5
I1031 15:14:54.799051 31137 net.cpp:439] conv5/bn -> conv5 (in-place)
I1031 15:14:54.799204 31137 net.cpp:150] Setting up conv5/bn
I1031 15:14:54.799214 31137 net.cpp:157] Top shape: 24 256 38 38 (8871936)
I1031 15:14:54.799217 31137 net.cpp:165] Memory required for data: 2706812960
I1031 15:14:54.799223 31137 layer_factory.hpp:77] Creating layer conv5/scale
I1031 15:14:54.799233 31137 net.cpp:100] Creating Layer conv5/scale
I1031 15:14:54.799239 31137 net.cpp:478] conv5/scale <- conv5
I1031 15:14:54.799243 31137 net.cpp:439] conv5/scale -> conv5 (in-place)
I1031 15:14:54.799278 31137 layer_factory.hpp:77] Creating layer conv5/scale
I1031 15:14:54.799372 31137 net.cpp:150] Setting up conv5/scale
I1031 15:14:54.799381 31137 net.cpp:157] Top shape: 24 256 38 38 (8871936)
I1031 15:14:54.799384 31137 net.cpp:165] Memory required for data: 2742300704
I1031 15:14:54.799399 31137 layer_factory.hpp:77] Creating layer conv5/relu
I1031 15:14:54.799424 31137 net.cpp:100] Creating Layer conv5/relu
I1031 15:14:54.799439 31137 net.cpp:478] conv5/relu <- conv5
I1031 15:14:54.799453 31137 net.cpp:439] conv5/relu -> conv5 (in-place)
I1031 15:14:54.799469 31137 net.cpp:150] Setting up conv5/relu
I1031 15:14:54.799484 31137 net.cpp:157] Top shape: 24 256 38 38 (8871936)
I1031 15:14:54.799495 31137 net.cpp:165] Memory required for data: 2777788448
I1031 15:14:54.799506 31137 layer_factory.hpp:77] Creating layer conv6/dw
I1031 15:14:54.799523 31137 net.cpp:100] Creating Layer conv6/dw
I1031 15:14:54.799536 31137 net.cpp:478] conv6/dw <- conv5
I1031 15:14:54.799556 31137 net.cpp:452] conv6/dw -> conv6/dw
I1031 15:14:54.799778 31137 net.cpp:150] Setting up conv6/dw
I1031 15:14:54.799789 31137 net.cpp:157] Top shape: 24 256 19 19 (2217984)
I1031 15:14:54.799793 31137 net.cpp:165] Memory required for data: 2786660384
I1031 15:14:54.799796 31137 layer_factory.hpp:77] Creating layer conv6/dw/bn
I1031 15:14:54.799801 31137 net.cpp:100] Creating Layer conv6/dw/bn
I1031 15:14:54.799805 31137 net.cpp:478] conv6/dw/bn <- conv6/dw
I1031 15:14:54.799809 31137 net.cpp:439] conv6/dw/bn -> conv6/dw (in-place)
I1031 15:14:54.799953 31137 net.cpp:150] Setting up conv6/dw/bn
I1031 15:14:54.799962 31137 net.cpp:157] Top shape: 24 256 19 19 (2217984)
I1031 15:14:54.799964 31137 net.cpp:165] Memory required for data: 2795532320
I1031 15:14:54.799970 31137 layer_factory.hpp:77] Creating layer conv6/dw/scale
I1031 15:14:54.799975 31137 net.cpp:100] Creating Layer conv6/dw/scale
I1031 15:14:54.799978 31137 net.cpp:478] conv6/dw/scale <- conv6/dw
I1031 15:14:54.799981 31137 net.cpp:439] conv6/dw/scale -> conv6/dw (in-place)
I1031 15:14:54.800015 31137 layer_factory.hpp:77] Creating layer conv6/dw/scale
I1031 15:14:54.800128 31137 net.cpp:150] Setting up conv6/dw/scale
I1031 15:14:54.800140 31137 net.cpp:157] Top shape: 24 256 19 19 (2217984)
I1031 15:14:54.800143 31137 net.cpp:165] Memory required for data: 2804404256
I1031 15:14:54.800148 31137 layer_factory.hpp:77] Creating layer conv6/dw/relu
I1031 15:14:54.800153 31137 net.cpp:100] Creating Layer conv6/dw/relu
I1031 15:14:54.800155 31137 net.cpp:478] conv6/dw/relu <- conv6/dw
I1031 15:14:54.800158 31137 net.cpp:439] conv6/dw/relu -> conv6/dw (in-place)
I1031 15:14:54.800163 31137 net.cpp:150] Setting up conv6/dw/relu
I1031 15:14:54.800166 31137 net.cpp:157] Top shape: 24 256 19 19 (2217984)
I1031 15:14:54.800168 31137 net.cpp:165] Memory required for data: 2813276192
I1031 15:14:54.800170 31137 layer_factory.hpp:77] Creating layer conv6
I1031 15:14:54.800177 31137 net.cpp:100] Creating Layer conv6
I1031 15:14:54.800180 31137 net.cpp:478] conv6 <- conv6/dw
I1031 15:14:54.800185 31137 net.cpp:452] conv6 -> conv6
I1031 15:14:54.802692 31137 net.cpp:150] Setting up conv6
I1031 15:14:54.802712 31137 net.cpp:157] Top shape: 24 512 19 19 (4435968)
I1031 15:14:54.802716 31137 net.cpp:165] Memory required for data: 2831020064
I1031 15:14:54.802721 31137 layer_factory.hpp:77] Creating layer conv6/bn
I1031 15:14:54.802745 31137 net.cpp:100] Creating Layer conv6/bn
I1031 15:14:54.802749 31137 net.cpp:478] conv6/bn <- conv6
I1031 15:14:54.802754 31137 net.cpp:439] conv6/bn -> conv6 (in-place)
I1031 15:14:54.802933 31137 net.cpp:150] Setting up conv6/bn
I1031 15:14:54.802961 31137 net.cpp:157] Top shape: 24 512 19 19 (4435968)
I1031 15:14:54.802963 31137 net.cpp:165] Memory required for data: 2848763936
I1031 15:14:54.802985 31137 layer_factory.hpp:77] Creating layer conv6/scale
I1031 15:14:54.802994 31137 net.cpp:100] Creating Layer conv6/scale
I1031 15:14:54.802995 31137 net.cpp:478] conv6/scale <- conv6
I1031 15:14:54.803015 31137 net.cpp:439] conv6/scale -> conv6 (in-place)
I1031 15:14:54.803071 31137 layer_factory.hpp:77] Creating layer conv6/scale
I1031 15:14:54.803180 31137 net.cpp:150] Setting up conv6/scale
I1031 15:14:54.803190 31137 net.cpp:157] Top shape: 24 512 19 19 (4435968)
I1031 15:14:54.803192 31137 net.cpp:165] Memory required for data: 2866507808
I1031 15:14:54.803197 31137 layer_factory.hpp:77] Creating layer conv6/relu
I1031 15:14:54.803201 31137 net.cpp:100] Creating Layer conv6/relu
I1031 15:14:54.803205 31137 net.cpp:478] conv6/relu <- conv6
I1031 15:14:54.803210 31137 net.cpp:439] conv6/relu -> conv6 (in-place)
I1031 15:14:54.803215 31137 net.cpp:150] Setting up conv6/relu
I1031 15:14:54.803217 31137 net.cpp:157] Top shape: 24 512 19 19 (4435968)
I1031 15:14:54.803220 31137 net.cpp:165] Memory required for data: 2884251680
I1031 15:14:54.803222 31137 layer_factory.hpp:77] Creating layer conv7/dw
I1031 15:14:54.803228 31137 net.cpp:100] Creating Layer conv7/dw
I1031 15:14:54.803231 31137 net.cpp:478] conv7/dw <- conv6
I1031 15:14:54.803236 31137 net.cpp:452] conv7/dw -> conv7/dw
I1031 15:14:54.803491 31137 net.cpp:150] Setting up conv7/dw
I1031 15:14:54.803503 31137 net.cpp:157] Top shape: 24 512 19 19 (4435968)
I1031 15:14:54.803505 31137 net.cpp:165] Memory required for data: 2901995552
I1031 15:14:54.803508 31137 layer_factory.hpp:77] Creating layer conv7/dw/bn
I1031 15:14:54.803513 31137 net.cpp:100] Creating Layer conv7/dw/bn
I1031 15:14:54.803515 31137 net.cpp:478] conv7/dw/bn <- conv7/dw
I1031 15:14:54.803519 31137 net.cpp:439] conv7/dw/bn -> conv7/dw (in-place)
I1031 15:14:54.803668 31137 net.cpp:150] Setting up conv7/dw/bn
I1031 15:14:54.803679 31137 net.cpp:157] Top shape: 24 512 19 19 (4435968)
I1031 15:14:54.803681 31137 net.cpp:165] Memory required for data: 2919739424
I1031 15:14:54.803688 31137 layer_factory.hpp:77] Creating layer conv7/dw/scale
I1031 15:14:54.803692 31137 net.cpp:100] Creating Layer conv7/dw/scale
I1031 15:14:54.803695 31137 net.cpp:478] conv7/dw/scale <- conv7/dw
I1031 15:14:54.803699 31137 net.cpp:439] conv7/dw/scale -> conv7/dw (in-place)
I1031 15:14:54.803748 31137 layer_factory.hpp:77] Creating layer conv7/dw/scale
I1031 15:14:54.803859 31137 net.cpp:150] Setting up conv7/dw/scale
I1031 15:14:54.803869 31137 net.cpp:157] Top shape: 24 512 19 19 (4435968)
I1031 15:14:54.803872 31137 net.cpp:165] Memory required for data: 2937483296
I1031 15:14:54.803876 31137 layer_factory.hpp:77] Creating layer conv7/dw/relu
I1031 15:14:54.803882 31137 net.cpp:100] Creating Layer conv7/dw/relu
I1031 15:14:54.803885 31137 net.cpp:478] conv7/dw/relu <- conv7/dw
I1031 15:14:54.803889 31137 net.cpp:439] conv7/dw/relu -> conv7/dw (in-place)
I1031 15:14:54.803894 31137 net.cpp:150] Setting up conv7/dw/relu
I1031 15:14:54.803896 31137 net.cpp:157] Top shape: 24 512 19 19 (4435968)
I1031 15:14:54.803899 31137 net.cpp:165] Memory required for data: 2955227168
I1031 15:14:54.803901 31137 layer_factory.hpp:77] Creating layer conv7
I1031 15:14:54.803910 31137 net.cpp:100] Creating Layer conv7
I1031 15:14:54.803911 31137 net.cpp:478] conv7 <- conv7/dw
I1031 15:14:54.803915 31137 net.cpp:452] conv7 -> conv7
I1031 15:14:54.807765 31137 net.cpp:150] Setting up conv7
I1031 15:14:54.807783 31137 net.cpp:157] Top shape: 24 512 19 19 (4435968)
I1031 15:14:54.807786 31137 net.cpp:165] Memory required for data: 2972971040
I1031 15:14:54.807791 31137 layer_factory.hpp:77] Creating layer conv7/bn
I1031 15:14:54.807798 31137 net.cpp:100] Creating Layer conv7/bn
I1031 15:14:54.807801 31137 net.cpp:478] conv7/bn <- conv7
I1031 15:14:54.807806 31137 net.cpp:439] conv7/bn -> conv7 (in-place)
I1031 15:14:54.807983 31137 net.cpp:150] Setting up conv7/bn
I1031 15:14:54.807996 31137 net.cpp:157] Top shape: 24 512 19 19 (4435968)
I1031 15:14:54.807997 31137 net.cpp:165] Memory required for data: 2990714912
I1031 15:14:54.808003 31137 layer_factory.hpp:77] Creating layer conv7/scale
I1031 15:14:54.808010 31137 net.cpp:100] Creating Layer conv7/scale
I1031 15:14:54.808013 31137 net.cpp:478] conv7/scale <- conv7
I1031 15:14:54.808017 31137 net.cpp:439] conv7/scale -> conv7 (in-place)
I1031 15:14:54.808059 31137 layer_factory.hpp:77] Creating layer conv7/scale
I1031 15:14:54.808159 31137 net.cpp:150] Setting up conv7/scale
I1031 15:14:54.808169 31137 net.cpp:157] Top shape: 24 512 19 19 (4435968)
I1031 15:14:54.808171 31137 net.cpp:165] Memory required for data: 3008458784
I1031 15:14:54.808176 31137 layer_factory.hpp:77] Creating layer conv7/relu
I1031 15:14:54.808182 31137 net.cpp:100] Creating Layer conv7/relu
I1031 15:14:54.808184 31137 net.cpp:478] conv7/relu <- conv7
I1031 15:14:54.808188 31137 net.cpp:439] conv7/relu -> conv7 (in-place)
I1031 15:14:54.808193 31137 net.cpp:150] Setting up conv7/relu
I1031 15:14:54.808197 31137 net.cpp:157] Top shape: 24 512 19 19 (4435968)
I1031 15:14:54.808198 31137 net.cpp:165] Memory required for data: 3026202656
I1031 15:14:54.808200 31137 layer_factory.hpp:77] Creating layer conv8/dw
I1031 15:14:54.808208 31137 net.cpp:100] Creating Layer conv8/dw
I1031 15:14:54.808214 31137 net.cpp:478] conv8/dw <- conv7
I1031 15:14:54.808220 31137 net.cpp:452] conv8/dw -> conv8/dw
I1031 15:14:54.808406 31137 net.cpp:150] Setting up conv8/dw
I1031 15:14:54.808418 31137 net.cpp:157] Top shape: 24 512 19 19 (4435968)
I1031 15:14:54.808420 31137 net.cpp:165] Memory required for data: 3043946528
I1031 15:14:54.808424 31137 layer_factory.hpp:77] Creating layer conv8/dw/bn
I1031 15:14:54.808430 31137 net.cpp:100] Creating Layer conv8/dw/bn
I1031 15:14:54.808434 31137 net.cpp:478] conv8/dw/bn <- conv8/dw
I1031 15:14:54.808437 31137 net.cpp:439] conv8/dw/bn -> conv8/dw (in-place)
I1031 15:14:54.808586 31137 net.cpp:150] Setting up conv8/dw/bn
I1031 15:14:54.808595 31137 net.cpp:157] Top shape: 24 512 19 19 (4435968)
I1031 15:14:54.808598 31137 net.cpp:165] Memory required for data: 3061690400
I1031 15:14:54.808604 31137 layer_factory.hpp:77] Creating layer conv8/dw/scale
I1031 15:14:54.808617 31137 net.cpp:100] Creating Layer conv8/dw/scale
I1031 15:14:54.808622 31137 net.cpp:478] conv8/dw/scale <- conv8/dw
I1031 15:14:54.808626 31137 net.cpp:439] conv8/dw/scale -> conv8/dw (in-place)
I1031 15:14:54.808661 31137 layer_factory.hpp:77] Creating layer conv8/dw/scale
I1031 15:14:54.808795 31137 net.cpp:150] Setting up conv8/dw/scale
I1031 15:14:54.808804 31137 net.cpp:157] Top shape: 24 512 19 19 (4435968)
I1031 15:14:54.808806 31137 net.cpp:165] Memory required for data: 3079434272
I1031 15:14:54.808811 31137 layer_factory.hpp:77] Creating layer conv8/dw/relu
I1031 15:14:54.808818 31137 net.cpp:100] Creating Layer conv8/dw/relu
I1031 15:14:54.808820 31137 net.cpp:478] conv8/dw/relu <- conv8/dw
I1031 15:14:54.808828 31137 net.cpp:439] conv8/dw/relu -> conv8/dw (in-place)
I1031 15:14:54.808835 31137 net.cpp:150] Setting up conv8/dw/relu
I1031 15:14:54.808840 31137 net.cpp:157] Top shape: 24 512 19 19 (4435968)
I1031 15:14:54.808841 31137 net.cpp:165] Memory required for data: 3097178144
I1031 15:14:54.808843 31137 layer_factory.hpp:77] Creating layer conv8
I1031 15:14:54.808864 31137 net.cpp:100] Creating Layer conv8
I1031 15:14:54.808876 31137 net.cpp:478] conv8 <- conv8/dw
I1031 15:14:54.808895 31137 net.cpp:452] conv8 -> conv8
I1031 15:14:54.812463 31137 net.cpp:150] Setting up conv8
I1031 15:14:54.812479 31137 net.cpp:157] Top shape: 24 512 19 19 (4435968)
I1031 15:14:54.812482 31137 net.cpp:165] Memory required for data: 3114922016
I1031 15:14:54.812486 31137 layer_factory.hpp:77] Creating layer conv8/bn
I1031 15:14:54.812492 31137 net.cpp:100] Creating Layer conv8/bn
I1031 15:14:54.812495 31137 net.cpp:478] conv8/bn <- conv8
I1031 15:14:54.812500 31137 net.cpp:439] conv8/bn -> conv8 (in-place)
I1031 15:14:54.812721 31137 net.cpp:150] Setting up conv8/bn
I1031 15:14:54.812733 31137 net.cpp:157] Top shape: 24 512 19 19 (4435968)
I1031 15:14:54.812736 31137 net.cpp:165] Memory required for data: 3132665888
I1031 15:14:54.812742 31137 layer_factory.hpp:77] Creating layer conv8/scale
I1031 15:14:54.812752 31137 net.cpp:100] Creating Layer conv8/scale
I1031 15:14:54.812754 31137 net.cpp:478] conv8/scale <- conv8
I1031 15:14:54.812759 31137 net.cpp:439] conv8/scale -> conv8 (in-place)
I1031 15:14:54.812813 31137 layer_factory.hpp:77] Creating layer conv8/scale
I1031 15:14:54.812943 31137 net.cpp:150] Setting up conv8/scale
I1031 15:14:54.812954 31137 net.cpp:157] Top shape: 24 512 19 19 (4435968)
I1031 15:14:54.812957 31137 net.cpp:165] Memory required for data: 3150409760
I1031 15:14:54.812961 31137 layer_factory.hpp:77] Creating layer conv8/relu
I1031 15:14:54.812966 31137 net.cpp:100] Creating Layer conv8/relu
I1031 15:14:54.812970 31137 net.cpp:478] conv8/relu <- conv8
I1031 15:14:54.812976 31137 net.cpp:439] conv8/relu -> conv8 (in-place)
I1031 15:14:54.812981 31137 net.cpp:150] Setting up conv8/relu
I1031 15:14:54.812984 31137 net.cpp:157] Top shape: 24 512 19 19 (4435968)
I1031 15:14:54.812986 31137 net.cpp:165] Memory required for data: 3168153632
I1031 15:14:54.812988 31137 layer_factory.hpp:77] Creating layer conv9/dw
I1031 15:14:54.812996 31137 net.cpp:100] Creating Layer conv9/dw
I1031 15:14:54.813001 31137 net.cpp:478] conv9/dw <- conv8
I1031 15:14:54.813006 31137 net.cpp:452] conv9/dw -> conv9/dw
I1031 15:14:54.813199 31137 net.cpp:150] Setting up conv9/dw
I1031 15:14:54.813210 31137 net.cpp:157] Top shape: 24 512 19 19 (4435968)
I1031 15:14:54.813212 31137 net.cpp:165] Memory required for data: 3185897504
I1031 15:14:54.813215 31137 layer_factory.hpp:77] Creating layer conv9/dw/bn
I1031 15:14:54.813220 31137 net.cpp:100] Creating Layer conv9/dw/bn
I1031 15:14:54.813225 31137 net.cpp:478] conv9/dw/bn <- conv9/dw
I1031 15:14:54.813228 31137 net.cpp:439] conv9/dw/bn -> conv9/dw (in-place)
I1031 15:14:54.813377 31137 net.cpp:150] Setting up conv9/dw/bn
I1031 15:14:54.813388 31137 net.cpp:157] Top shape: 24 512 19 19 (4435968)
I1031 15:14:54.813390 31137 net.cpp:165] Memory required for data: 3203641376
I1031 15:14:54.813396 31137 layer_factory.hpp:77] Creating layer conv9/dw/scale
I1031 15:14:54.813401 31137 net.cpp:100] Creating Layer conv9/dw/scale
I1031 15:14:54.813405 31137 net.cpp:478] conv9/dw/scale <- conv9/dw
I1031 15:14:54.813410 31137 net.cpp:439] conv9/dw/scale -> conv9/dw (in-place)
I1031 15:14:54.813444 31137 layer_factory.hpp:77] Creating layer conv9/dw/scale
I1031 15:14:54.813544 31137 net.cpp:150] Setting up conv9/dw/scale
I1031 15:14:54.813555 31137 net.cpp:157] Top shape: 24 512 19 19 (4435968)
I1031 15:14:54.813556 31137 net.cpp:165] Memory required for data: 3221385248
I1031 15:14:54.813560 31137 layer_factory.hpp:77] Creating layer conv9/dw/relu
I1031 15:14:54.813568 31137 net.cpp:100] Creating Layer conv9/dw/relu
I1031 15:14:54.813571 31137 net.cpp:478] conv9/dw/relu <- conv9/dw
I1031 15:14:54.813575 31137 net.cpp:439] conv9/dw/relu -> conv9/dw (in-place)
I1031 15:14:54.813578 31137 net.cpp:150] Setting up conv9/dw/relu
I1031 15:14:54.813582 31137 net.cpp:157] Top shape: 24 512 19 19 (4435968)
I1031 15:14:54.813585 31137 net.cpp:165] Memory required for data: 3239129120
I1031 15:14:54.813586 31137 layer_factory.hpp:77] Creating layer conv9
I1031 15:14:54.813593 31137 net.cpp:100] Creating Layer conv9
I1031 15:14:54.813598 31137 net.cpp:478] conv9 <- conv9/dw
I1031 15:14:54.813603 31137 net.cpp:452] conv9 -> conv9
I1031 15:14:54.816959 31137 net.cpp:150] Setting up conv9
I1031 15:14:54.816977 31137 net.cpp:157] Top shape: 24 512 19 19 (4435968)
I1031 15:14:54.816979 31137 net.cpp:165] Memory required for data: 3256872992
I1031 15:14:54.816984 31137 layer_factory.hpp:77] Creating layer conv9/bn
I1031 15:14:54.816989 31137 net.cpp:100] Creating Layer conv9/bn
I1031 15:14:54.816992 31137 net.cpp:478] conv9/bn <- conv9
I1031 15:14:54.816998 31137 net.cpp:439] conv9/bn -> conv9 (in-place)
I1031 15:14:54.817176 31137 net.cpp:150] Setting up conv9/bn
I1031 15:14:54.817188 31137 net.cpp:157] Top shape: 24 512 19 19 (4435968)
I1031 15:14:54.817190 31137 net.cpp:165] Memory required for data: 3274616864
I1031 15:14:54.817196 31137 layer_factory.hpp:77] Creating layer conv9/scale
I1031 15:14:54.817201 31137 net.cpp:100] Creating Layer conv9/scale
I1031 15:14:54.817206 31137 net.cpp:478] conv9/scale <- conv9
I1031 15:14:54.817212 31137 net.cpp:439] conv9/scale -> conv9 (in-place)
I1031 15:14:54.817247 31137 layer_factory.hpp:77] Creating layer conv9/scale
I1031 15:14:54.817340 31137 net.cpp:150] Setting up conv9/scale
I1031 15:14:54.817350 31137 net.cpp:157] Top shape: 24 512 19 19 (4435968)
I1031 15:14:54.817353 31137 net.cpp:165] Memory required for data: 3292360736
I1031 15:14:54.817358 31137 layer_factory.hpp:77] Creating layer conv9/relu
I1031 15:14:54.817361 31137 net.cpp:100] Creating Layer conv9/relu
I1031 15:14:54.817366 31137 net.cpp:478] conv9/relu <- conv9
I1031 15:14:54.817387 31137 net.cpp:439] conv9/relu -> conv9 (in-place)
I1031 15:14:54.817392 31137 net.cpp:150] Setting up conv9/relu
I1031 15:14:54.817396 31137 net.cpp:157] Top shape: 24 512 19 19 (4435968)
I1031 15:14:54.817399 31137 net.cpp:165] Memory required for data: 3310104608
I1031 15:14:54.817401 31137 layer_factory.hpp:77] Creating layer conv10/dw
I1031 15:14:54.817409 31137 net.cpp:100] Creating Layer conv10/dw
I1031 15:14:54.817414 31137 net.cpp:478] conv10/dw <- conv9
I1031 15:14:54.817418 31137 net.cpp:452] conv10/dw -> conv10/dw
I1031 15:14:54.817591 31137 net.cpp:150] Setting up conv10/dw
I1031 15:14:54.817601 31137 net.cpp:157] Top shape: 24 512 19 19 (4435968)
I1031 15:14:54.817603 31137 net.cpp:165] Memory required for data: 3327848480
I1031 15:14:54.817607 31137 layer_factory.hpp:77] Creating layer conv10/dw/bn
I1031 15:14:54.817612 31137 net.cpp:100] Creating Layer conv10/dw/bn
I1031 15:14:54.817617 31137 net.cpp:478] conv10/dw/bn <- conv10/dw
I1031 15:14:54.817621 31137 net.cpp:439] conv10/dw/bn -> conv10/dw (in-place)
I1031 15:14:54.817766 31137 net.cpp:150] Setting up conv10/dw/bn
I1031 15:14:54.817775 31137 net.cpp:157] Top shape: 24 512 19 19 (4435968)
I1031 15:14:54.817777 31137 net.cpp:165] Memory required for data: 3345592352
I1031 15:14:54.817783 31137 layer_factory.hpp:77] Creating layer conv10/dw/scale
I1031 15:14:54.817790 31137 net.cpp:100] Creating Layer conv10/dw/scale
I1031 15:14:54.817795 31137 net.cpp:478] conv10/dw/scale <- conv10/dw
I1031 15:14:54.817798 31137 net.cpp:439] conv10/dw/scale -> conv10/dw (in-place)
I1031 15:14:54.817832 31137 layer_factory.hpp:77] Creating layer conv10/dw/scale
I1031 15:14:54.817966 31137 net.cpp:150] Setting up conv10/dw/scale
I1031 15:14:54.817976 31137 net.cpp:157] Top shape: 24 512 19 19 (4435968)
I1031 15:14:54.817979 31137 net.cpp:165] Memory required for data: 3363336224
I1031 15:14:54.817983 31137 layer_factory.hpp:77] Creating layer conv10/dw/relu
I1031 15:14:54.817992 31137 net.cpp:100] Creating Layer conv10/dw/relu
I1031 15:14:54.817996 31137 net.cpp:478] conv10/dw/relu <- conv10/dw
I1031 15:14:54.818001 31137 net.cpp:439] conv10/dw/relu -> conv10/dw (in-place)
I1031 15:14:54.818004 31137 net.cpp:150] Setting up conv10/dw/relu
I1031 15:14:54.818008 31137 net.cpp:157] Top shape: 24 512 19 19 (4435968)
I1031 15:14:54.818011 31137 net.cpp:165] Memory required for data: 3381080096
I1031 15:14:54.818012 31137 layer_factory.hpp:77] Creating layer conv10
I1031 15:14:54.818019 31137 net.cpp:100] Creating Layer conv10
I1031 15:14:54.818024 31137 net.cpp:478] conv10 <- conv10/dw
I1031 15:14:54.818034 31137 net.cpp:452] conv10 -> conv10
I1031 15:14:54.821816 31137 net.cpp:150] Setting up conv10
I1031 15:14:54.821835 31137 net.cpp:157] Top shape: 24 512 19 19 (4435968)
I1031 15:14:54.821838 31137 net.cpp:165] Memory required for data: 3398823968
I1031 15:14:54.821843 31137 layer_factory.hpp:77] Creating layer conv10/bn
I1031 15:14:54.821849 31137 net.cpp:100] Creating Layer conv10/bn
I1031 15:14:54.821852 31137 net.cpp:478] conv10/bn <- conv10
I1031 15:14:54.821857 31137 net.cpp:439] conv10/bn -> conv10 (in-place)
I1031 15:14:54.822098 31137 net.cpp:150] Setting up conv10/bn
I1031 15:14:54.822118 31137 net.cpp:157] Top shape: 24 512 19 19 (4435968)
I1031 15:14:54.822120 31137 net.cpp:165] Memory required for data: 3416567840
I1031 15:14:54.822129 31137 layer_factory.hpp:77] Creating layer conv10/scale
I1031 15:14:54.822136 31137 net.cpp:100] Creating Layer conv10/scale
I1031 15:14:54.822139 31137 net.cpp:478] conv10/scale <- conv10
I1031 15:14:54.822144 31137 net.cpp:439] conv10/scale -> conv10 (in-place)
I1031 15:14:54.822187 31137 layer_factory.hpp:77] Creating layer conv10/scale
I1031 15:14:54.822301 31137 net.cpp:150] Setting up conv10/scale
I1031 15:14:54.822311 31137 net.cpp:157] Top shape: 24 512 19 19 (4435968)
I1031 15:14:54.822314 31137 net.cpp:165] Memory required for data: 3434311712
I1031 15:14:54.822319 31137 layer_factory.hpp:77] Creating layer conv10/relu
I1031 15:14:54.822324 31137 net.cpp:100] Creating Layer conv10/relu
I1031 15:14:54.822327 31137 net.cpp:478] conv10/relu <- conv10
I1031 15:14:54.822331 31137 net.cpp:439] conv10/relu -> conv10 (in-place)
I1031 15:14:54.822335 31137 net.cpp:150] Setting up conv10/relu
I1031 15:14:54.822340 31137 net.cpp:157] Top shape: 24 512 19 19 (4435968)
I1031 15:14:54.822341 31137 net.cpp:165] Memory required for data: 3452055584
I1031 15:14:54.822343 31137 layer_factory.hpp:77] Creating layer conv11/dw
I1031 15:14:54.822351 31137 net.cpp:100] Creating Layer conv11/dw
I1031 15:14:54.822355 31137 net.cpp:478] conv11/dw <- conv10
I1031 15:14:54.822360 31137 net.cpp:452] conv11/dw -> conv11/dw
I1031 15:14:54.822626 31137 net.cpp:150] Setting up conv11/dw
I1031 15:14:54.822638 31137 net.cpp:157] Top shape: 24 512 19 19 (4435968)
I1031 15:14:54.822641 31137 net.cpp:165] Memory required for data: 3469799456
I1031 15:14:54.822645 31137 layer_factory.hpp:77] Creating layer conv11/dw/bn
I1031 15:14:54.822650 31137 net.cpp:100] Creating Layer conv11/dw/bn
I1031 15:14:54.822654 31137 net.cpp:478] conv11/dw/bn <- conv11/dw
I1031 15:14:54.822656 31137 net.cpp:439] conv11/dw/bn -> conv11/dw (in-place)
I1031 15:14:54.822823 31137 net.cpp:150] Setting up conv11/dw/bn
I1031 15:14:54.822834 31137 net.cpp:157] Top shape: 24 512 19 19 (4435968)
I1031 15:14:54.822835 31137 net.cpp:165] Memory required for data: 3487543328
I1031 15:14:54.822856 31137 layer_factory.hpp:77] Creating layer conv11/dw/scale
I1031 15:14:54.822866 31137 net.cpp:100] Creating Layer conv11/dw/scale
I1031 15:14:54.822870 31137 net.cpp:478] conv11/dw/scale <- conv11/dw
I1031 15:14:54.822875 31137 net.cpp:439] conv11/dw/scale -> conv11/dw (in-place)
I1031 15:14:54.822932 31137 layer_factory.hpp:77] Creating layer conv11/dw/scale
I1031 15:14:54.823072 31137 net.cpp:150] Setting up conv11/dw/scale
I1031 15:14:54.823083 31137 net.cpp:157] Top shape: 24 512 19 19 (4435968)
I1031 15:14:54.823086 31137 net.cpp:165] Memory required for data: 3505287200
I1031 15:14:54.823091 31137 layer_factory.hpp:77] Creating layer conv11/dw/relu
I1031 15:14:54.823096 31137 net.cpp:100] Creating Layer conv11/dw/relu
I1031 15:14:54.823099 31137 net.cpp:478] conv11/dw/relu <- conv11/dw
I1031 15:14:54.823103 31137 net.cpp:439] conv11/dw/relu -> conv11/dw (in-place)
I1031 15:14:54.823107 31137 net.cpp:150] Setting up conv11/dw/relu
I1031 15:14:54.823112 31137 net.cpp:157] Top shape: 24 512 19 19 (4435968)
I1031 15:14:54.823113 31137 net.cpp:165] Memory required for data: 3523031072
I1031 15:14:54.823115 31137 layer_factory.hpp:77] Creating layer conv11
I1031 15:14:54.823122 31137 net.cpp:100] Creating Layer conv11
I1031 15:14:54.823124 31137 net.cpp:478] conv11 <- conv11/dw
I1031 15:14:54.823130 31137 net.cpp:452] conv11 -> conv11
I1031 15:14:54.826813 31137 net.cpp:150] Setting up conv11
I1031 15:14:54.826833 31137 net.cpp:157] Top shape: 24 512 19 19 (4435968)
I1031 15:14:54.826835 31137 net.cpp:165] Memory required for data: 3540774944
I1031 15:14:54.826854 31137 layer_factory.hpp:77] Creating layer conv11/bn
I1031 15:14:54.826860 31137 net.cpp:100] Creating Layer conv11/bn
I1031 15:14:54.826864 31137 net.cpp:478] conv11/bn <- conv11
I1031 15:14:54.826882 31137 net.cpp:439] conv11/bn -> conv11 (in-place)
I1031 15:14:54.827157 31137 net.cpp:150] Setting up conv11/bn
I1031 15:14:54.827178 31137 net.cpp:157] Top shape: 24 512 19 19 (4435968)
I1031 15:14:54.827180 31137 net.cpp:165] Memory required for data: 3558518816
I1031 15:14:54.827188 31137 layer_factory.hpp:77] Creating layer conv11/scale
I1031 15:14:54.827195 31137 net.cpp:100] Creating Layer conv11/scale
I1031 15:14:54.827198 31137 net.cpp:478] conv11/scale <- conv11
I1031 15:14:54.827203 31137 net.cpp:439] conv11/scale -> conv11 (in-place)
I1031 15:14:54.827250 31137 layer_factory.hpp:77] Creating layer conv11/scale
I1031 15:14:54.827347 31137 net.cpp:150] Setting up conv11/scale
I1031 15:14:54.827359 31137 net.cpp:157] Top shape: 24 512 19 19 (4435968)
I1031 15:14:54.827361 31137 net.cpp:165] Memory required for data: 3576262688
I1031 15:14:54.827366 31137 layer_factory.hpp:77] Creating layer conv11/relu
I1031 15:14:54.827370 31137 net.cpp:100] Creating Layer conv11/relu
I1031 15:14:54.827373 31137 net.cpp:478] conv11/relu <- conv11
I1031 15:14:54.827376 31137 net.cpp:439] conv11/relu -> conv11 (in-place)
I1031 15:14:54.827381 31137 net.cpp:150] Setting up conv11/relu
I1031 15:14:54.827384 31137 net.cpp:157] Top shape: 24 512 19 19 (4435968)
I1031 15:14:54.827386 31137 net.cpp:165] Memory required for data: 3594006560
I1031 15:14:54.827389 31137 layer_factory.hpp:77] Creating layer conv11_conv11/relu_0_split
I1031 15:14:54.827394 31137 net.cpp:100] Creating Layer conv11_conv11/relu_0_split
I1031 15:14:54.827395 31137 net.cpp:478] conv11_conv11/relu_0_split <- conv11
I1031 15:14:54.827400 31137 net.cpp:452] conv11_conv11/relu_0_split -> conv11_conv11/relu_0_split_0
I1031 15:14:54.827410 31137 net.cpp:452] conv11_conv11/relu_0_split -> conv11_conv11/relu_0_split_1
I1031 15:14:54.827419 31137 net.cpp:452] conv11_conv11/relu_0_split -> conv11_conv11/relu_0_split_2
I1031 15:14:54.827427 31137 net.cpp:452] conv11_conv11/relu_0_split -> conv11_conv11/relu_0_split_3
I1031 15:14:54.827476 31137 net.cpp:150] Setting up conv11_conv11/relu_0_split
I1031 15:14:54.827481 31137 net.cpp:157] Top shape: 24 512 19 19 (4435968)
I1031 15:14:54.827483 31137 net.cpp:157] Top shape: 24 512 19 19 (4435968)
I1031 15:14:54.827486 31137 net.cpp:157] Top shape: 24 512 19 19 (4435968)
I1031 15:14:54.827488 31137 net.cpp:157] Top shape: 24 512 19 19 (4435968)
I1031 15:14:54.827491 31137 net.cpp:165] Memory required for data: 3664982048
I1031 15:14:54.827492 31137 layer_factory.hpp:77] Creating layer conv12/dw
I1031 15:14:54.827502 31137 net.cpp:100] Creating Layer conv12/dw
I1031 15:14:54.827514 31137 net.cpp:478] conv12/dw <- conv11_conv11/relu_0_split_0
I1031 15:14:54.827522 31137 net.cpp:452] conv12/dw -> conv12/dw
I1031 15:14:54.827713 31137 net.cpp:150] Setting up conv12/dw
I1031 15:14:54.827719 31137 net.cpp:157] Top shape: 24 512 10 10 (1228800)
I1031 15:14:54.827721 31137 net.cpp:165] Memory required for data: 3669897248
I1031 15:14:54.827724 31137 layer_factory.hpp:77] Creating layer conv12/dw/bn
I1031 15:14:54.827729 31137 net.cpp:100] Creating Layer conv12/dw/bn
I1031 15:14:54.827731 31137 net.cpp:478] conv12/dw/bn <- conv12/dw
I1031 15:14:54.827736 31137 net.cpp:439] conv12/dw/bn -> conv12/dw (in-place)
I1031 15:14:54.827883 31137 net.cpp:150] Setting up conv12/dw/bn
I1031 15:14:54.827888 31137 net.cpp:157] Top shape: 24 512 10 10 (1228800)
I1031 15:14:54.827890 31137 net.cpp:165] Memory required for data: 3674812448
I1031 15:14:54.827895 31137 layer_factory.hpp:77] Creating layer conv12/dw/scale
I1031 15:14:54.827899 31137 net.cpp:100] Creating Layer conv12/dw/scale
I1031 15:14:54.827903 31137 net.cpp:478] conv12/dw/scale <- conv12/dw
I1031 15:14:54.827908 31137 net.cpp:439] conv12/dw/scale -> conv12/dw (in-place)
I1031 15:14:54.827934 31137 layer_factory.hpp:77] Creating layer conv12/dw/scale
I1031 15:14:54.828023 31137 net.cpp:150] Setting up conv12/dw/scale
I1031 15:14:54.828027 31137 net.cpp:157] Top shape: 24 512 10 10 (1228800)
I1031 15:14:54.828029 31137 net.cpp:165] Memory required for data: 3679727648
I1031 15:14:54.828034 31137 layer_factory.hpp:77] Creating layer conv12/dw/relu
I1031 15:14:54.828037 31137 net.cpp:100] Creating Layer conv12/dw/relu
I1031 15:14:54.828040 31137 net.cpp:478] conv12/dw/relu <- conv12/dw
I1031 15:14:54.828044 31137 net.cpp:439] conv12/dw/relu -> conv12/dw (in-place)
I1031 15:14:54.828057 31137 net.cpp:150] Setting up conv12/dw/relu
I1031 15:14:54.828060 31137 net.cpp:157] Top shape: 24 512 10 10 (1228800)
I1031 15:14:54.828063 31137 net.cpp:165] Memory required for data: 3684642848
I1031 15:14:54.828065 31137 layer_factory.hpp:77] Creating layer conv12
I1031 15:14:54.828071 31137 net.cpp:100] Creating Layer conv12
I1031 15:14:54.828074 31137 net.cpp:478] conv12 <- conv12/dw
I1031 15:14:54.828078 31137 net.cpp:452] conv12 -> conv12
I1031 15:14:54.834537 31137 net.cpp:150] Setting up conv12
I1031 15:14:54.834549 31137 net.cpp:157] Top shape: 24 1024 10 10 (2457600)
I1031 15:14:54.834553 31137 net.cpp:165] Memory required for data: 3694473248
I1031 15:14:54.834556 31137 layer_factory.hpp:77] Creating layer conv12/bn
I1031 15:14:54.834563 31137 net.cpp:100] Creating Layer conv12/bn
I1031 15:14:54.834565 31137 net.cpp:478] conv12/bn <- conv12
I1031 15:14:54.834569 31137 net.cpp:439] conv12/bn -> conv12 (in-place)
I1031 15:14:54.834723 31137 net.cpp:150] Setting up conv12/bn
I1031 15:14:54.834730 31137 net.cpp:157] Top shape: 24 1024 10 10 (2457600)
I1031 15:14:54.834733 31137 net.cpp:165] Memory required for data: 3704303648
I1031 15:14:54.834738 31137 layer_factory.hpp:77] Creating layer conv12/scale
I1031 15:14:54.834743 31137 net.cpp:100] Creating Layer conv12/scale
I1031 15:14:54.834745 31137 net.cpp:478] conv12/scale <- conv12
I1031 15:14:54.834748 31137 net.cpp:439] conv12/scale -> conv12 (in-place)
I1031 15:14:54.834795 31137 layer_factory.hpp:77] Creating layer conv12/scale
I1031 15:14:54.834887 31137 net.cpp:150] Setting up conv12/scale
I1031 15:14:54.834892 31137 net.cpp:157] Top shape: 24 1024 10 10 (2457600)
I1031 15:14:54.834894 31137 net.cpp:165] Memory required for data: 3714134048
I1031 15:14:54.834898 31137 layer_factory.hpp:77] Creating layer conv12/relu
I1031 15:14:54.834903 31137 net.cpp:100] Creating Layer conv12/relu
I1031 15:14:54.834905 31137 net.cpp:478] conv12/relu <- conv12
I1031 15:14:54.834910 31137 net.cpp:439] conv12/relu -> conv12 (in-place)
I1031 15:14:54.834914 31137 net.cpp:150] Setting up conv12/relu
I1031 15:14:54.834918 31137 net.cpp:157] Top shape: 24 1024 10 10 (2457600)
I1031 15:14:54.834919 31137 net.cpp:165] Memory required for data: 3723964448
I1031 15:14:54.834921 31137 layer_factory.hpp:77] Creating layer conv13/dw
I1031 15:14:54.834944 31137 net.cpp:100] Creating Layer conv13/dw
I1031 15:14:54.834946 31137 net.cpp:478] conv13/dw <- conv12
I1031 15:14:54.834951 31137 net.cpp:452] conv13/dw -> conv13/dw
I1031 15:14:54.835244 31137 net.cpp:150] Setting up conv13/dw
I1031 15:14:54.835250 31137 net.cpp:157] Top shape: 24 1024 10 10 (2457600)
I1031 15:14:54.835253 31137 net.cpp:165] Memory required for data: 3733794848
I1031 15:14:54.835256 31137 layer_factory.hpp:77] Creating layer conv13/dw/bn
I1031 15:14:54.835261 31137 net.cpp:100] Creating Layer conv13/dw/bn
I1031 15:14:54.835263 31137 net.cpp:478] conv13/dw/bn <- conv13/dw
I1031 15:14:54.835268 31137 net.cpp:439] conv13/dw/bn -> conv13/dw (in-place)
I1031 15:14:54.835417 31137 net.cpp:150] Setting up conv13/dw/bn
I1031 15:14:54.835422 31137 net.cpp:157] Top shape: 24 1024 10 10 (2457600)
I1031 15:14:54.835423 31137 net.cpp:165] Memory required for data: 3743625248
I1031 15:14:54.835428 31137 layer_factory.hpp:77] Creating layer conv13/dw/scale
I1031 15:14:54.835433 31137 net.cpp:100] Creating Layer conv13/dw/scale
I1031 15:14:54.835436 31137 net.cpp:478] conv13/dw/scale <- conv13/dw
I1031 15:14:54.835439 31137 net.cpp:439] conv13/dw/scale -> conv13/dw (in-place)
I1031 15:14:54.835484 31137 layer_factory.hpp:77] Creating layer conv13/dw/scale
I1031 15:14:54.835568 31137 net.cpp:150] Setting up conv13/dw/scale
I1031 15:14:54.835572 31137 net.cpp:157] Top shape: 24 1024 10 10 (2457600)
I1031 15:14:54.835574 31137 net.cpp:165] Memory required for data: 3753455648
I1031 15:14:54.835578 31137 layer_factory.hpp:77] Creating layer conv13/dw/relu
I1031 15:14:54.835584 31137 net.cpp:100] Creating Layer conv13/dw/relu
I1031 15:14:54.835587 31137 net.cpp:478] conv13/dw/relu <- conv13/dw
I1031 15:14:54.835589 31137 net.cpp:439] conv13/dw/relu -> conv13/dw (in-place)
I1031 15:14:54.835593 31137 net.cpp:150] Setting up conv13/dw/relu
I1031 15:14:54.835597 31137 net.cpp:157] Top shape: 24 1024 10 10 (2457600)
I1031 15:14:54.835598 31137 net.cpp:165] Memory required for data: 3763286048
I1031 15:14:54.835600 31137 layer_factory.hpp:77] Creating layer conv13
I1031 15:14:54.835606 31137 net.cpp:100] Creating Layer conv13
I1031 15:14:54.835608 31137 net.cpp:478] conv13 <- conv13/dw
I1031 15:14:54.835613 31137 net.cpp:452] conv13 -> conv13
I1031 15:14:54.847322 31137 net.cpp:150] Setting up conv13
I1031 15:14:54.847333 31137 net.cpp:157] Top shape: 24 1024 10 10 (2457600)
I1031 15:14:54.847337 31137 net.cpp:165] Memory required for data: 3773116448
I1031 15:14:54.847340 31137 layer_factory.hpp:77] Creating layer conv13/bn
I1031 15:14:54.847347 31137 net.cpp:100] Creating Layer conv13/bn
I1031 15:14:54.847349 31137 net.cpp:478] conv13/bn <- conv13
I1031 15:14:54.847354 31137 net.cpp:439] conv13/bn -> conv13 (in-place)
I1031 15:14:54.847509 31137 net.cpp:150] Setting up conv13/bn
I1031 15:14:54.847514 31137 net.cpp:157] Top shape: 24 1024 10 10 (2457600)
I1031 15:14:54.847517 31137 net.cpp:165] Memory required for data: 3782946848
I1031 15:14:54.847522 31137 layer_factory.hpp:77] Creating layer conv13/scale
I1031 15:14:54.847527 31137 net.cpp:100] Creating Layer conv13/scale
I1031 15:14:54.847530 31137 net.cpp:478] conv13/scale <- conv13
I1031 15:14:54.847538 31137 net.cpp:439] conv13/scale -> conv13 (in-place)
I1031 15:14:54.847568 31137 layer_factory.hpp:77] Creating layer conv13/scale
I1031 15:14:54.847662 31137 net.cpp:150] Setting up conv13/scale
I1031 15:14:54.847667 31137 net.cpp:157] Top shape: 24 1024 10 10 (2457600)
I1031 15:14:54.847676 31137 net.cpp:165] Memory required for data: 3792777248
I1031 15:14:54.847681 31137 layer_factory.hpp:77] Creating layer conv13/relu
I1031 15:14:54.847685 31137 net.cpp:100] Creating Layer conv13/relu
I1031 15:14:54.847687 31137 net.cpp:478] conv13/relu <- conv13
I1031 15:14:54.847694 31137 net.cpp:439] conv13/relu -> conv13 (in-place)
I1031 15:14:54.847699 31137 net.cpp:150] Setting up conv13/relu
I1031 15:14:54.847702 31137 net.cpp:157] Top shape: 24 1024 10 10 (2457600)
I1031 15:14:54.847704 31137 net.cpp:165] Memory required for data: 3802607648
I1031 15:14:54.847717 31137 layer_factory.hpp:77] Creating layer conv13_conv13/relu_0_split
I1031 15:14:54.847721 31137 net.cpp:100] Creating Layer conv13_conv13/relu_0_split
I1031 15:14:54.847724 31137 net.cpp:478] conv13_conv13/relu_0_split <- conv13
I1031 15:14:54.847730 31137 net.cpp:452] conv13_conv13/relu_0_split -> conv13_conv13/relu_0_split_0
I1031 15:14:54.847735 31137 net.cpp:452] conv13_conv13/relu_0_split -> conv13_conv13/relu_0_split_1
I1031 15:14:54.847740 31137 net.cpp:452] conv13_conv13/relu_0_split -> conv13_conv13/relu_0_split_2
I1031 15:14:54.847746 31137 net.cpp:452] conv13_conv13/relu_0_split -> conv13_conv13/relu_0_split_3
I1031 15:14:54.847795 31137 net.cpp:150] Setting up conv13_conv13/relu_0_split
I1031 15:14:54.847800 31137 net.cpp:157] Top shape: 24 1024 10 10 (2457600)
I1031 15:14:54.847802 31137 net.cpp:157] Top shape: 24 1024 10 10 (2457600)
I1031 15:14:54.847805 31137 net.cpp:157] Top shape: 24 1024 10 10 (2457600)
I1031 15:14:54.847808 31137 net.cpp:157] Top shape: 24 1024 10 10 (2457600)
I1031 15:14:54.847810 31137 net.cpp:165] Memory required for data: 3841929248
I1031 15:14:54.847812 31137 layer_factory.hpp:77] Creating layer conv14_1
I1031 15:14:54.847820 31137 net.cpp:100] Creating Layer conv14_1
I1031 15:14:54.847822 31137 net.cpp:478] conv14_1 <- conv13_conv13/relu_0_split_0
I1031 15:14:54.847828 31137 net.cpp:452] conv14_1 -> conv14_1
I1031 15:14:54.848217 31178 blocking_queue.cpp:50] Waiting for data
I1031 15:14:54.851521 31137 net.cpp:150] Setting up conv14_1
I1031 15:14:54.851533 31137 net.cpp:157] Top shape: 24 256 10 10 (614400)
I1031 15:14:54.851536 31137 net.cpp:165] Memory required for data: 3844386848
I1031 15:14:54.851539 31137 layer_factory.hpp:77] Creating layer conv14_1/bn
I1031 15:14:54.851547 31137 net.cpp:100] Creating Layer conv14_1/bn
I1031 15:14:54.851549 31137 net.cpp:478] conv14_1/bn <- conv14_1
I1031 15:14:54.851554 31137 net.cpp:439] conv14_1/bn -> conv14_1 (in-place)
I1031 15:14:54.851719 31137 net.cpp:150] Setting up conv14_1/bn
I1031 15:14:54.851724 31137 net.cpp:157] Top shape: 24 256 10 10 (614400)
I1031 15:14:54.851727 31137 net.cpp:165] Memory required for data: 3846844448
I1031 15:14:54.851732 31137 layer_factory.hpp:77] Creating layer conv14_1/scale
I1031 15:14:54.851739 31137 net.cpp:100] Creating Layer conv14_1/scale
I1031 15:14:54.851742 31137 net.cpp:478] conv14_1/scale <- conv14_1
I1031 15:14:54.851745 31137 net.cpp:439] conv14_1/scale -> conv14_1 (in-place)
I1031 15:14:54.851779 31137 layer_factory.hpp:77] Creating layer conv14_1/scale
I1031 15:14:54.851869 31137 net.cpp:150] Setting up conv14_1/scale
I1031 15:14:54.851874 31137 net.cpp:157] Top shape: 24 256 10 10 (614400)
I1031 15:14:54.851876 31137 net.cpp:165] Memory required for data: 3849302048
I1031 15:14:54.851881 31137 layer_factory.hpp:77] Creating layer conv14_1/relu
I1031 15:14:54.851886 31137 net.cpp:100] Creating Layer conv14_1/relu
I1031 15:14:54.851888 31137 net.cpp:478] conv14_1/relu <- conv14_1
I1031 15:14:54.851892 31137 net.cpp:439] conv14_1/relu -> conv14_1 (in-place)
I1031 15:14:54.851897 31137 net.cpp:150] Setting up conv14_1/relu
I1031 15:14:54.851899 31137 net.cpp:157] Top shape: 24 256 10 10 (614400)
I1031 15:14:54.851902 31137 net.cpp:165] Memory required for data: 3851759648
I1031 15:14:54.851904 31137 layer_factory.hpp:77] Creating layer conv14_2
I1031 15:14:54.851912 31137 net.cpp:100] Creating Layer conv14_2
I1031 15:14:54.851914 31137 net.cpp:478] conv14_2 <- conv14_1
I1031 15:14:54.851920 31137 net.cpp:452] conv14_2 -> conv14_2
I1031 15:14:54.864586 31137 net.cpp:150] Setting up conv14_2
I1031 15:14:54.864598 31137 net.cpp:157] Top shape: 24 512 5 5 (307200)
I1031 15:14:54.864600 31137 net.cpp:165] Memory required for data: 3852988448
I1031 15:14:54.864608 31137 layer_factory.hpp:77] Creating layer conv14_2/bn
I1031 15:14:54.864612 31137 net.cpp:100] Creating Layer conv14_2/bn
I1031 15:14:54.864615 31137 net.cpp:478] conv14_2/bn <- conv14_2
I1031 15:14:54.864619 31137 net.cpp:439] conv14_2/bn -> conv14_2 (in-place)
I1031 15:14:54.864770 31137 net.cpp:150] Setting up conv14_2/bn
I1031 15:14:54.864786 31137 net.cpp:157] Top shape: 24 512 5 5 (307200)
I1031 15:14:54.864789 31137 net.cpp:165] Memory required for data: 3854217248
I1031 15:14:54.864794 31137 layer_factory.hpp:77] Creating layer conv14_2/scale
I1031 15:14:54.864799 31137 net.cpp:100] Creating Layer conv14_2/scale
I1031 15:14:54.864802 31137 net.cpp:478] conv14_2/scale <- conv14_2
I1031 15:14:54.864805 31137 net.cpp:439] conv14_2/scale -> conv14_2 (in-place)
I1031 15:14:54.864840 31137 layer_factory.hpp:77] Creating layer conv14_2/scale
I1031 15:14:54.864931 31137 net.cpp:150] Setting up conv14_2/scale
I1031 15:14:54.864938 31137 net.cpp:157] Top shape: 24 512 5 5 (307200)
I1031 15:14:54.864940 31137 net.cpp:165] Memory required for data: 3855446048
I1031 15:14:54.864944 31137 layer_factory.hpp:77] Creating layer conv14_2/relu
I1031 15:14:54.864948 31137 net.cpp:100] Creating Layer conv14_2/relu
I1031 15:14:54.864950 31137 net.cpp:478] conv14_2/relu <- conv14_2
I1031 15:14:54.864954 31137 net.cpp:439] conv14_2/relu -> conv14_2 (in-place)
I1031 15:14:54.864959 31137 net.cpp:150] Setting up conv14_2/relu
I1031 15:14:54.864961 31137 net.cpp:157] Top shape: 24 512 5 5 (307200)
I1031 15:14:54.864964 31137 net.cpp:165] Memory required for data: 3856674848
I1031 15:14:54.864965 31137 layer_factory.hpp:77] Creating layer conv14_2_conv14_2/relu_0_split
I1031 15:14:54.864969 31137 net.cpp:100] Creating Layer conv14_2_conv14_2/relu_0_split
I1031 15:14:54.864971 31137 net.cpp:478] conv14_2_conv14_2/relu_0_split <- conv14_2
I1031 15:14:54.864976 31137 net.cpp:452] conv14_2_conv14_2/relu_0_split -> conv14_2_conv14_2/relu_0_split_0
I1031 15:14:54.864982 31137 net.cpp:452] conv14_2_conv14_2/relu_0_split -> conv14_2_conv14_2/relu_0_split_1
I1031 15:14:54.864986 31137 net.cpp:452] conv14_2_conv14_2/relu_0_split -> conv14_2_conv14_2/relu_0_split_2
I1031 15:14:54.864990 31137 net.cpp:452] conv14_2_conv14_2/relu_0_split -> conv14_2_conv14_2/relu_0_split_3
I1031 15:14:54.865036 31137 net.cpp:150] Setting up conv14_2_conv14_2/relu_0_split
I1031 15:14:54.865039 31137 net.cpp:157] Top shape: 24 512 5 5 (307200)
I1031 15:14:54.865042 31137 net.cpp:157] Top shape: 24 512 5 5 (307200)
I1031 15:14:54.865044 31137 net.cpp:157] Top shape: 24 512 5 5 (307200)
I1031 15:14:54.865047 31137 net.cpp:157] Top shape: 24 512 5 5 (307200)
I1031 15:14:54.865054 31137 net.cpp:165] Memory required for data: 3861590048
I1031 15:14:54.865057 31137 layer_factory.hpp:77] Creating layer conv15_1
I1031 15:14:54.865077 31137 net.cpp:100] Creating Layer conv15_1
I1031 15:14:54.865079 31137 net.cpp:478] conv15_1 <- conv14_2_conv14_2/relu_0_split_0
I1031 15:14:54.865100 31137 net.cpp:452] conv15_1 -> conv15_1
I1031 15:14:54.865818 31137 net.cpp:150] Setting up conv15_1
I1031 15:14:54.865824 31137 net.cpp:157] Top shape: 24 128 5 5 (76800)
I1031 15:14:54.865826 31137 net.cpp:165] Memory required for data: 3861897248
I1031 15:14:54.865829 31137 layer_factory.hpp:77] Creating layer conv15_1/bn
I1031 15:14:54.865833 31137 net.cpp:100] Creating Layer conv15_1/bn
I1031 15:14:54.865836 31137 net.cpp:478] conv15_1/bn <- conv15_1
I1031 15:14:54.865839 31137 net.cpp:439] conv15_1/bn -> conv15_1 (in-place)
I1031 15:14:54.866008 31137 net.cpp:150] Setting up conv15_1/bn
I1031 15:14:54.866016 31137 net.cpp:157] Top shape: 24 128 5 5 (76800)
I1031 15:14:54.866019 31137 net.cpp:165] Memory required for data: 3862204448
I1031 15:14:54.866024 31137 layer_factory.hpp:77] Creating layer conv15_1/scale
I1031 15:14:54.866029 31137 net.cpp:100] Creating Layer conv15_1/scale
I1031 15:14:54.866031 31137 net.cpp:478] conv15_1/scale <- conv15_1
I1031 15:14:54.866035 31137 net.cpp:439] conv15_1/scale -> conv15_1 (in-place)
I1031 15:14:54.866073 31137 layer_factory.hpp:77] Creating layer conv15_1/scale
I1031 15:14:54.866191 31137 net.cpp:150] Setting up conv15_1/scale
I1031 15:14:54.866197 31137 net.cpp:157] Top shape: 24 128 5 5 (76800)
I1031 15:14:54.866214 31137 net.cpp:165] Memory required for data: 3862511648
I1031 15:14:54.866219 31137 layer_factory.hpp:77] Creating layer conv15_1/relu
I1031 15:14:54.866245 31137 net.cpp:100] Creating Layer conv15_1/relu
I1031 15:14:54.866248 31137 net.cpp:478] conv15_1/relu <- conv15_1
I1031 15:14:54.866255 31137 net.cpp:439] conv15_1/relu -> conv15_1 (in-place)
I1031 15:14:54.866273 31137 net.cpp:150] Setting up conv15_1/relu
I1031 15:14:54.866276 31137 net.cpp:157] Top shape: 24 128 5 5 (76800)
I1031 15:14:54.866278 31137 net.cpp:165] Memory required for data: 3862818848
I1031 15:14:54.866281 31137 layer_factory.hpp:77] Creating layer conv15_2
I1031 15:14:54.866287 31137 net.cpp:100] Creating Layer conv15_2
I1031 15:14:54.866289 31137 net.cpp:478] conv15_2 <- conv15_1
I1031 15:14:54.866293 31137 net.cpp:452] conv15_2 -> conv15_2
I1031 15:14:54.869932 31137 net.cpp:150] Setting up conv15_2
I1031 15:14:54.869956 31137 net.cpp:157] Top shape: 24 256 3 3 (55296)
I1031 15:14:54.869958 31137 net.cpp:165] Memory required for data: 3863040032
I1031 15:14:54.869962 31137 layer_factory.hpp:77] Creating layer conv15_2/bn
I1031 15:14:54.869967 31137 net.cpp:100] Creating Layer conv15_2/bn
I1031 15:14:54.869971 31137 net.cpp:478] conv15_2/bn <- conv15_2
I1031 15:14:54.869976 31137 net.cpp:439] conv15_2/bn -> conv15_2 (in-place)
I1031 15:14:54.870128 31137 net.cpp:150] Setting up conv15_2/bn
I1031 15:14:54.870133 31137 net.cpp:157] Top shape: 24 256 3 3 (55296)
I1031 15:14:54.870136 31137 net.cpp:165] Memory required for data: 3863261216
I1031 15:14:54.870141 31137 layer_factory.hpp:77] Creating layer conv15_2/scale
I1031 15:14:54.870146 31137 net.cpp:100] Creating Layer conv15_2/scale
I1031 15:14:54.870147 31137 net.cpp:478] conv15_2/scale <- conv15_2
I1031 15:14:54.870152 31137 net.cpp:439] conv15_2/scale -> conv15_2 (in-place)
I1031 15:14:54.870184 31137 layer_factory.hpp:77] Creating layer conv15_2/scale
I1031 15:14:54.870268 31137 net.cpp:150] Setting up conv15_2/scale
I1031 15:14:54.870272 31137 net.cpp:157] Top shape: 24 256 3 3 (55296)
I1031 15:14:54.870275 31137 net.cpp:165] Memory required for data: 3863482400
I1031 15:14:54.870278 31137 layer_factory.hpp:77] Creating layer conv15_2/relu
I1031 15:14:54.870292 31137 net.cpp:100] Creating Layer conv15_2/relu
I1031 15:14:54.870295 31137 net.cpp:478] conv15_2/relu <- conv15_2
I1031 15:14:54.870297 31137 net.cpp:439] conv15_2/relu -> conv15_2 (in-place)
I1031 15:14:54.870301 31137 net.cpp:150] Setting up conv15_2/relu
I1031 15:14:54.870304 31137 net.cpp:157] Top shape: 24 256 3 3 (55296)
I1031 15:14:54.870306 31137 net.cpp:165] Memory required for data: 3863703584
I1031 15:14:54.870308 31137 layer_factory.hpp:77] Creating layer conv15_2_conv15_2/relu_0_split
I1031 15:14:54.870312 31137 net.cpp:100] Creating Layer conv15_2_conv15_2/relu_0_split
I1031 15:14:54.870314 31137 net.cpp:478] conv15_2_conv15_2/relu_0_split <- conv15_2
I1031 15:14:54.870318 31137 net.cpp:452] conv15_2_conv15_2/relu_0_split -> conv15_2_conv15_2/relu_0_split_0
I1031 15:14:54.870322 31137 net.cpp:452] conv15_2_conv15_2/relu_0_split -> conv15_2_conv15_2/relu_0_split_1
I1031 15:14:54.870327 31137 net.cpp:452] conv15_2_conv15_2/relu_0_split -> conv15_2_conv15_2/relu_0_split_2
I1031 15:14:54.870332 31137 net.cpp:452] conv15_2_conv15_2/relu_0_split -> conv15_2_conv15_2/relu_0_split_3
I1031 15:14:54.870378 31137 net.cpp:150] Setting up conv15_2_conv15_2/relu_0_split
I1031 15:14:54.870383 31137 net.cpp:157] Top shape: 24 256 3 3 (55296)
I1031 15:14:54.870386 31137 net.cpp:157] Top shape: 24 256 3 3 (55296)
I1031 15:14:54.870388 31137 net.cpp:157] Top shape: 24 256 3 3 (55296)
I1031 15:14:54.870391 31137 net.cpp:157] Top shape: 24 256 3 3 (55296)
I1031 15:14:54.870393 31137 net.cpp:165] Memory required for data: 3864588320
I1031 15:14:54.870395 31137 layer_factory.hpp:77] Creating layer conv16_1
I1031 15:14:54.870402 31137 net.cpp:100] Creating Layer conv16_1
I1031 15:14:54.870404 31137 net.cpp:478] conv16_1 <- conv15_2_conv15_2/relu_0_split_0
I1031 15:14:54.870409 31137 net.cpp:452] conv16_1 -> conv16_1
I1031 15:14:54.870805 31137 net.cpp:150] Setting up conv16_1
I1031 15:14:54.870810 31137 net.cpp:157] Top shape: 24 128 3 3 (27648)
I1031 15:14:54.870821 31137 net.cpp:165] Memory required for data: 3864698912
I1031 15:14:54.870826 31137 layer_factory.hpp:77] Creating layer conv16_1/bn
I1031 15:14:54.870831 31137 net.cpp:100] Creating Layer conv16_1/bn
I1031 15:14:54.870834 31137 net.cpp:478] conv16_1/bn <- conv16_1
I1031 15:14:54.870837 31137 net.cpp:439] conv16_1/bn -> conv16_1 (in-place)
I1031 15:14:54.870980 31137 net.cpp:150] Setting up conv16_1/bn
I1031 15:14:54.870985 31137 net.cpp:157] Top shape: 24 128 3 3 (27648)
I1031 15:14:54.870987 31137 net.cpp:165] Memory required for data: 3864809504
I1031 15:14:54.871006 31137 layer_factory.hpp:77] Creating layer conv16_1/scale
I1031 15:14:54.871012 31137 net.cpp:100] Creating Layer conv16_1/scale
I1031 15:14:54.871016 31137 net.cpp:478] conv16_1/scale <- conv16_1
I1031 15:14:54.871018 31137 net.cpp:439] conv16_1/scale -> conv16_1 (in-place)
I1031 15:14:54.871068 31137 layer_factory.hpp:77] Creating layer conv16_1/scale
I1031 15:14:54.871150 31137 net.cpp:150] Setting up conv16_1/scale
I1031 15:14:54.871153 31137 net.cpp:157] Top shape: 24 128 3 3 (27648)
I1031 15:14:54.871155 31137 net.cpp:165] Memory required for data: 3864920096
I1031 15:14:54.871160 31137 layer_factory.hpp:77] Creating layer conv16_1/relu
I1031 15:14:54.871165 31137 net.cpp:100] Creating Layer conv16_1/relu
I1031 15:14:54.871166 31137 net.cpp:478] conv16_1/relu <- conv16_1
I1031 15:14:54.871170 31137 net.cpp:439] conv16_1/relu -> conv16_1 (in-place)
I1031 15:14:54.871173 31137 net.cpp:150] Setting up conv16_1/relu
I1031 15:14:54.871176 31137 net.cpp:157] Top shape: 24 128 3 3 (27648)
I1031 15:14:54.871178 31137 net.cpp:165] Memory required for data: 3865030688
I1031 15:14:54.871181 31137 layer_factory.hpp:77] Creating layer conv16_2
I1031 15:14:54.871202 31137 net.cpp:100] Creating Layer conv16_2
I1031 15:14:54.871204 31137 net.cpp:478] conv16_2 <- conv16_1
I1031 15:14:54.871209 31137 net.cpp:452] conv16_2 -> conv16_2
I1031 15:14:54.875205 31137 net.cpp:150] Setting up conv16_2
I1031 15:14:54.875216 31137 net.cpp:157] Top shape: 24 256 2 2 (24576)
I1031 15:14:54.875218 31137 net.cpp:165] Memory required for data: 3865128992
I1031 15:14:54.875222 31137 layer_factory.hpp:77] Creating layer conv16_2/bn
I1031 15:14:54.875227 31137 net.cpp:100] Creating Layer conv16_2/bn
I1031 15:14:54.875231 31137 net.cpp:478] conv16_2/bn <- conv16_2
I1031 15:14:54.875234 31137 net.cpp:439] conv16_2/bn -> conv16_2 (in-place)
I1031 15:14:54.875373 31137 net.cpp:150] Setting up conv16_2/bn
I1031 15:14:54.875377 31137 net.cpp:157] Top shape: 24 256 2 2 (24576)
I1031 15:14:54.875380 31137 net.cpp:165] Memory required for data: 3865227296
I1031 15:14:54.875385 31137 layer_factory.hpp:77] Creating layer conv16_2/scale
I1031 15:14:54.875389 31137 net.cpp:100] Creating Layer conv16_2/scale
I1031 15:14:54.875391 31137 net.cpp:478] conv16_2/scale <- conv16_2
I1031 15:14:54.875396 31137 net.cpp:439] conv16_2/scale -> conv16_2 (in-place)
I1031 15:14:54.875444 31137 layer_factory.hpp:77] Creating layer conv16_2/scale
I1031 15:14:54.875555 31137 net.cpp:150] Setting up conv16_2/scale
I1031 15:14:54.875562 31137 net.cpp:157] Top shape: 24 256 2 2 (24576)
I1031 15:14:54.875564 31137 net.cpp:165] Memory required for data: 3865325600
I1031 15:14:54.875568 31137 layer_factory.hpp:77] Creating layer conv16_2/relu
I1031 15:14:54.875572 31137 net.cpp:100] Creating Layer conv16_2/relu
I1031 15:14:54.875582 31137 net.cpp:478] conv16_2/relu <- conv16_2
I1031 15:14:54.875586 31137 net.cpp:439] conv16_2/relu -> conv16_2 (in-place)
I1031 15:14:54.875589 31137 net.cpp:150] Setting up conv16_2/relu
I1031 15:14:54.875593 31137 net.cpp:157] Top shape: 24 256 2 2 (24576)
I1031 15:14:54.875594 31137 net.cpp:165] Memory required for data: 3865423904
I1031 15:14:54.875597 31137 layer_factory.hpp:77] Creating layer conv16_2_conv16_2/relu_0_split
I1031 15:14:54.875602 31137 net.cpp:100] Creating Layer conv16_2_conv16_2/relu_0_split
I1031 15:14:54.875604 31137 net.cpp:478] conv16_2_conv16_2/relu_0_split <- conv16_2
I1031 15:14:54.875608 31137 net.cpp:452] conv16_2_conv16_2/relu_0_split -> conv16_2_conv16_2/relu_0_split_0
I1031 15:14:54.875625 31137 net.cpp:452] conv16_2_conv16_2/relu_0_split -> conv16_2_conv16_2/relu_0_split_1
I1031 15:14:54.875630 31137 net.cpp:452] conv16_2_conv16_2/relu_0_split -> conv16_2_conv16_2/relu_0_split_2
I1031 15:14:54.875635 31137 net.cpp:452] conv16_2_conv16_2/relu_0_split -> conv16_2_conv16_2/relu_0_split_3
I1031 15:14:54.875681 31137 net.cpp:150] Setting up conv16_2_conv16_2/relu_0_split
I1031 15:14:54.875686 31137 net.cpp:157] Top shape: 24 256 2 2 (24576)
I1031 15:14:54.875689 31137 net.cpp:157] Top shape: 24 256 2 2 (24576)
I1031 15:14:54.875691 31137 net.cpp:157] Top shape: 24 256 2 2 (24576)
I1031 15:14:54.875694 31137 net.cpp:157] Top shape: 24 256 2 2 (24576)
I1031 15:14:54.875695 31137 net.cpp:165] Memory required for data: 3865817120
I1031 15:14:54.875699 31137 layer_factory.hpp:77] Creating layer conv17_1
I1031 15:14:54.875715 31137 net.cpp:100] Creating Layer conv17_1
I1031 15:14:54.875716 31137 net.cpp:478] conv17_1 <- conv16_2_conv16_2/relu_0_split_0
I1031 15:14:54.875723 31137 net.cpp:452] conv17_1 -> conv17_1
I1031 15:14:54.876016 31137 net.cpp:150] Setting up conv17_1
I1031 15:14:54.876022 31137 net.cpp:157] Top shape: 24 64 2 2 (6144)
I1031 15:14:54.876024 31137 net.cpp:165] Memory required for data: 3865841696
I1031 15:14:54.876027 31137 layer_factory.hpp:77] Creating layer conv17_1/bn
I1031 15:14:54.876031 31137 net.cpp:100] Creating Layer conv17_1/bn
I1031 15:14:54.876034 31137 net.cpp:478] conv17_1/bn <- conv17_1
I1031 15:14:54.876037 31137 net.cpp:439] conv17_1/bn -> conv17_1 (in-place)
I1031 15:14:54.876226 31137 net.cpp:150] Setting up conv17_1/bn
I1031 15:14:54.876231 31137 net.cpp:157] Top shape: 24 64 2 2 (6144)
I1031 15:14:54.876233 31137 net.cpp:165] Memory required for data: 3865866272
I1031 15:14:54.876240 31137 layer_factory.hpp:77] Creating layer conv17_1/scale
I1031 15:14:54.876243 31137 net.cpp:100] Creating Layer conv17_1/scale
I1031 15:14:54.876246 31137 net.cpp:478] conv17_1/scale <- conv17_1
I1031 15:14:54.876252 31137 net.cpp:439] conv17_1/scale -> conv17_1 (in-place)
I1031 15:14:54.876299 31137 layer_factory.hpp:77] Creating layer conv17_1/scale
I1031 15:14:54.876404 31137 net.cpp:150] Setting up conv17_1/scale
I1031 15:14:54.876408 31137 net.cpp:157] Top shape: 24 64 2 2 (6144)
I1031 15:14:54.876410 31137 net.cpp:165] Memory required for data: 3865890848
I1031 15:14:54.876413 31137 layer_factory.hpp:77] Creating layer conv17_1/relu
I1031 15:14:54.876417 31137 net.cpp:100] Creating Layer conv17_1/relu
I1031 15:14:54.876420 31137 net.cpp:478] conv17_1/relu <- conv17_1
I1031 15:14:54.876425 31137 net.cpp:439] conv17_1/relu -> conv17_1 (in-place)
I1031 15:14:54.876428 31137 net.cpp:150] Setting up conv17_1/relu
I1031 15:14:54.876431 31137 net.cpp:157] Top shape: 24 64 2 2 (6144)
I1031 15:14:54.876432 31137 net.cpp:165] Memory required for data: 3865915424
I1031 15:14:54.876435 31137 layer_factory.hpp:77] Creating layer conv17_2
I1031 15:14:54.876442 31137 net.cpp:100] Creating Layer conv17_2
I1031 15:14:54.876444 31137 net.cpp:478] conv17_2 <- conv17_1
I1031 15:14:54.876448 31137 net.cpp:452] conv17_2 -> conv17_2
I1031 15:14:54.877383 31137 net.cpp:150] Setting up conv17_2
I1031 15:14:54.877389 31137 net.cpp:157] Top shape: 24 128 1 1 (3072)
I1031 15:14:54.877393 31137 net.cpp:165] Memory required for data: 3865927712
I1031 15:14:54.877398 31137 layer_factory.hpp:77] Creating layer conv17_2/bn
I1031 15:14:54.877403 31137 net.cpp:100] Creating Layer conv17_2/bn
I1031 15:14:54.877405 31137 net.cpp:478] conv17_2/bn <- conv17_2
I1031 15:14:54.877408 31137 net.cpp:439] conv17_2/bn -> conv17_2 (in-place)
I1031 15:14:54.877549 31137 net.cpp:150] Setting up conv17_2/bn
I1031 15:14:54.877554 31137 net.cpp:157] Top shape: 24 128 1 1 (3072)
I1031 15:14:54.877557 31137 net.cpp:165] Memory required for data: 3865940000
I1031 15:14:54.877560 31137 layer_factory.hpp:77] Creating layer conv17_2/scale
I1031 15:14:54.877568 31137 net.cpp:100] Creating Layer conv17_2/scale
I1031 15:14:54.877569 31137 net.cpp:478] conv17_2/scale <- conv17_2
I1031 15:14:54.877573 31137 net.cpp:439] conv17_2/scale -> conv17_2 (in-place)
I1031 15:14:54.877611 31137 layer_factory.hpp:77] Creating layer conv17_2/scale
I1031 15:14:54.877699 31137 net.cpp:150] Setting up conv17_2/scale
I1031 15:14:54.877704 31137 net.cpp:157] Top shape: 24 128 1 1 (3072)
I1031 15:14:54.877707 31137 net.cpp:165] Memory required for data: 3865952288
I1031 15:14:54.877709 31137 layer_factory.hpp:77] Creating layer conv17_2/relu
I1031 15:14:54.877715 31137 net.cpp:100] Creating Layer conv17_2/relu
I1031 15:14:54.877717 31137 net.cpp:478] conv17_2/relu <- conv17_2
I1031 15:14:54.877720 31137 net.cpp:439] conv17_2/relu -> conv17_2 (in-place)
I1031 15:14:54.877724 31137 net.cpp:150] Setting up conv17_2/relu
I1031 15:14:54.877727 31137 net.cpp:157] Top shape: 24 128 1 1 (3072)
I1031 15:14:54.877729 31137 net.cpp:165] Memory required for data: 3865964576
I1031 15:14:54.877732 31137 layer_factory.hpp:77] Creating layer conv17_2_conv17_2/relu_0_split
I1031 15:14:54.877735 31137 net.cpp:100] Creating Layer conv17_2_conv17_2/relu_0_split
I1031 15:14:54.877738 31137 net.cpp:478] conv17_2_conv17_2/relu_0_split <- conv17_2
I1031 15:14:54.877743 31137 net.cpp:452] conv17_2_conv17_2/relu_0_split -> conv17_2_conv17_2/relu_0_split_0
I1031 15:14:54.877756 31137 net.cpp:452] conv17_2_conv17_2/relu_0_split -> conv17_2_conv17_2/relu_0_split_1
I1031 15:14:54.877761 31137 net.cpp:452] conv17_2_conv17_2/relu_0_split -> conv17_2_conv17_2/relu_0_split_2
I1031 15:14:54.877815 31137 net.cpp:150] Setting up conv17_2_conv17_2/relu_0_split
I1031 15:14:54.877820 31137 net.cpp:157] Top shape: 24 128 1 1 (3072)
I1031 15:14:54.877821 31137 net.cpp:157] Top shape: 24 128 1 1 (3072)
I1031 15:14:54.877825 31137 net.cpp:157] Top shape: 24 128 1 1 (3072)
I1031 15:14:54.877826 31137 net.cpp:165] Memory required for data: 3866001440
I1031 15:14:54.877828 31137 layer_factory.hpp:77] Creating layer conv11_mbox_loc
I1031 15:14:54.877835 31137 net.cpp:100] Creating Layer conv11_mbox_loc
I1031 15:14:54.877851 31137 net.cpp:478] conv11_mbox_loc <- conv11_conv11/relu_0_split_1
I1031 15:14:54.877864 31137 net.cpp:452] conv11_mbox_loc -> conv11_mbox_loc
I1031 15:14:54.878242 31137 net.cpp:150] Setting up conv11_mbox_loc
I1031 15:14:54.878250 31137 net.cpp:157] Top shape: 24 12 19 19 (103968)
I1031 15:14:54.878252 31137 net.cpp:165] Memory required for data: 3866417312
I1031 15:14:54.878257 31137 layer_factory.hpp:77] Creating layer conv11_mbox_loc_perm
I1031 15:14:54.878262 31137 net.cpp:100] Creating Layer conv11_mbox_loc_perm
I1031 15:14:54.878265 31137 net.cpp:478] conv11_mbox_loc_perm <- conv11_mbox_loc
I1031 15:14:54.878271 31137 net.cpp:452] conv11_mbox_loc_perm -> conv11_mbox_loc_perm
I1031 15:14:54.878403 31137 net.cpp:150] Setting up conv11_mbox_loc_perm
I1031 15:14:54.878409 31137 net.cpp:157] Top shape: 24 19 19 12 (103968)
I1031 15:14:54.878412 31137 net.cpp:165] Memory required for data: 3866833184
I1031 15:14:54.878428 31137 layer_factory.hpp:77] Creating layer conv11_mbox_loc_flat
I1031 15:14:54.878434 31137 net.cpp:100] Creating Layer conv11_mbox_loc_flat
I1031 15:14:54.878437 31137 net.cpp:478] conv11_mbox_loc_flat <- conv11_mbox_loc_perm
I1031 15:14:54.878442 31137 net.cpp:452] conv11_mbox_loc_flat -> conv11_mbox_loc_flat
I1031 15:14:54.878463 31137 net.cpp:150] Setting up conv11_mbox_loc_flat
I1031 15:14:54.878466 31137 net.cpp:157] Top shape: 24 4332 (103968)
I1031 15:14:54.878468 31137 net.cpp:165] Memory required for data: 3867249056
I1031 15:14:54.878470 31137 layer_factory.hpp:77] Creating layer conv11_mbox_conf_new
I1031 15:14:54.878479 31137 net.cpp:100] Creating Layer conv11_mbox_conf_new
I1031 15:14:54.878482 31137 net.cpp:478] conv11_mbox_conf_new <- conv11_conv11/relu_0_split_2
I1031 15:14:54.878486 31137 net.cpp:452] conv11_mbox_conf_new -> conv11_mbox_conf
I1031 15:14:54.878971 31137 net.cpp:150] Setting up conv11_mbox_conf_new
I1031 15:14:54.878978 31137 net.cpp:157] Top shape: 24 63 19 19 (545832)
I1031 15:14:54.878980 31137 net.cpp:165] Memory required for data: 3869432384
I1031 15:14:54.878984 31137 layer_factory.hpp:77] Creating layer conv11_mbox_conf_perm
I1031 15:14:54.878998 31137 net.cpp:100] Creating Layer conv11_mbox_conf_perm
I1031 15:14:54.879000 31137 net.cpp:478] conv11_mbox_conf_perm <- conv11_mbox_conf
I1031 15:14:54.879006 31137 net.cpp:452] conv11_mbox_conf_perm -> conv11_mbox_conf_perm
I1031 15:14:54.879092 31137 net.cpp:150] Setting up conv11_mbox_conf_perm
I1031 15:14:54.879097 31137 net.cpp:157] Top shape: 24 19 19 63 (545832)
I1031 15:14:54.879099 31137 net.cpp:165] Memory required for data: 3871615712
I1031 15:14:54.879102 31137 layer_factory.hpp:77] Creating layer conv11_mbox_conf_flat
I1031 15:14:54.879124 31137 net.cpp:100] Creating Layer conv11_mbox_conf_flat
I1031 15:14:54.879127 31137 net.cpp:478] conv11_mbox_conf_flat <- conv11_mbox_conf_perm
I1031 15:14:54.879132 31137 net.cpp:452] conv11_mbox_conf_flat -> conv11_mbox_conf_flat
I1031 15:14:54.879150 31137 net.cpp:150] Setting up conv11_mbox_conf_flat
I1031 15:14:54.879153 31137 net.cpp:157] Top shape: 24 22743 (545832)
I1031 15:14:54.879155 31137 net.cpp:165] Memory required for data: 3873799040
I1031 15:14:54.879158 31137 layer_factory.hpp:77] Creating layer conv11_mbox_priorbox
I1031 15:14:54.879166 31137 net.cpp:100] Creating Layer conv11_mbox_priorbox
I1031 15:14:54.879169 31137 net.cpp:478] conv11_mbox_priorbox <- conv11_conv11/relu_0_split_3
I1031 15:14:54.879173 31137 net.cpp:478] conv11_mbox_priorbox <- data_data_0_split_1
I1031 15:14:54.879194 31137 net.cpp:452] conv11_mbox_priorbox -> conv11_mbox_priorbox
I1031 15:14:54.879216 31137 net.cpp:150] Setting up conv11_mbox_priorbox
I1031 15:14:54.879220 31137 net.cpp:157] Top shape: 1 2 4332 (8664)
I1031 15:14:54.879222 31137 net.cpp:165] Memory required for data: 3873833696
I1031 15:14:54.879225 31137 layer_factory.hpp:77] Creating layer conv13_mbox_loc
I1031 15:14:54.879248 31137 net.cpp:100] Creating Layer conv13_mbox_loc
I1031 15:14:54.879251 31137 net.cpp:478] conv13_mbox_loc <- conv13_conv13/relu_0_split_1
I1031 15:14:54.879256 31137 net.cpp:452] conv13_mbox_loc -> conv13_mbox_loc
I1031 15:14:54.879791 31137 net.cpp:150] Setting up conv13_mbox_loc
I1031 15:14:54.879799 31137 net.cpp:157] Top shape: 24 24 10 10 (57600)
I1031 15:14:54.879801 31137 net.cpp:165] Memory required for data: 3874064096
I1031 15:14:54.879806 31137 layer_factory.hpp:77] Creating layer conv13_mbox_loc_perm
I1031 15:14:54.879811 31137 net.cpp:100] Creating Layer conv13_mbox_loc_perm
I1031 15:14:54.879813 31137 net.cpp:478] conv13_mbox_loc_perm <- conv13_mbox_loc
I1031 15:14:54.879817 31137 net.cpp:452] conv13_mbox_loc_perm -> conv13_mbox_loc_perm
I1031 15:14:54.879917 31137 net.cpp:150] Setting up conv13_mbox_loc_perm
I1031 15:14:54.879922 31137 net.cpp:157] Top shape: 24 10 10 24 (57600)
I1031 15:14:54.879940 31137 net.cpp:165] Memory required for data: 3874294496
I1031 15:14:54.879941 31137 layer_factory.hpp:77] Creating layer conv13_mbox_loc_flat
I1031 15:14:54.879962 31137 net.cpp:100] Creating Layer conv13_mbox_loc_flat
I1031 15:14:54.879964 31137 net.cpp:478] conv13_mbox_loc_flat <- conv13_mbox_loc_perm
I1031 15:14:54.879968 31137 net.cpp:452] conv13_mbox_loc_flat -> conv13_mbox_loc_flat
I1031 15:14:54.879987 31137 net.cpp:150] Setting up conv13_mbox_loc_flat
I1031 15:14:54.879992 31137 net.cpp:157] Top shape: 24 2400 (57600)
I1031 15:14:54.879993 31137 net.cpp:165] Memory required for data: 3874524896
I1031 15:14:54.879995 31137 layer_factory.hpp:77] Creating layer conv13_mbox_conf_new
I1031 15:14:54.880003 31137 net.cpp:100] Creating Layer conv13_mbox_conf_new
I1031 15:14:54.880007 31137 net.cpp:478] conv13_mbox_conf_new <- conv13_conv13/relu_0_split_2
I1031 15:14:54.880028 31137 net.cpp:452] conv13_mbox_conf_new -> conv13_mbox_conf
I1031 15:14:54.882448 31137 net.cpp:150] Setting up conv13_mbox_conf_new
I1031 15:14:54.882460 31137 net.cpp:157] Top shape: 24 126 10 10 (302400)
I1031 15:14:54.882462 31137 net.cpp:165] Memory required for data: 3875734496
I1031 15:14:54.882468 31137 layer_factory.hpp:77] Creating layer conv13_mbox_conf_perm
I1031 15:14:54.882477 31137 net.cpp:100] Creating Layer conv13_mbox_conf_perm
I1031 15:14:54.882479 31137 net.cpp:478] conv13_mbox_conf_perm <- conv13_mbox_conf
I1031 15:14:54.882495 31137 net.cpp:452] conv13_mbox_conf_perm -> conv13_mbox_conf_perm
I1031 15:14:54.882602 31137 net.cpp:150] Setting up conv13_mbox_conf_perm
I1031 15:14:54.882608 31137 net.cpp:157] Top shape: 24 10 10 126 (302400)
I1031 15:14:54.882611 31137 net.cpp:165] Memory required for data: 3876944096
I1031 15:14:54.882612 31137 layer_factory.hpp:77] Creating layer conv13_mbox_conf_flat
I1031 15:14:54.882619 31137 net.cpp:100] Creating Layer conv13_mbox_conf_flat
I1031 15:14:54.882622 31137 net.cpp:478] conv13_mbox_conf_flat <- conv13_mbox_conf_perm
I1031 15:14:54.882627 31137 net.cpp:452] conv13_mbox_conf_flat -> conv13_mbox_conf_flat
I1031 15:14:54.882663 31137 net.cpp:150] Setting up conv13_mbox_conf_flat
I1031 15:14:54.882666 31137 net.cpp:157] Top shape: 24 12600 (302400)
I1031 15:14:54.882668 31137 net.cpp:165] Memory required for data: 3878153696
I1031 15:14:54.882671 31137 layer_factory.hpp:77] Creating layer conv13_mbox_priorbox
I1031 15:14:54.882678 31137 net.cpp:100] Creating Layer conv13_mbox_priorbox
I1031 15:14:54.882680 31137 net.cpp:478] conv13_mbox_priorbox <- conv13_conv13/relu_0_split_3
I1031 15:14:54.882684 31137 net.cpp:478] conv13_mbox_priorbox <- data_data_0_split_2
I1031 15:14:54.882688 31137 net.cpp:452] conv13_mbox_priorbox -> conv13_mbox_priorbox
I1031 15:14:54.882710 31137 net.cpp:150] Setting up conv13_mbox_priorbox
I1031 15:14:54.882714 31137 net.cpp:157] Top shape: 1 2 2400 (4800)
I1031 15:14:54.882716 31137 net.cpp:165] Memory required for data: 3878172896
I1031 15:14:54.882719 31137 layer_factory.hpp:77] Creating layer conv14_2_mbox_loc
I1031 15:14:54.882726 31137 net.cpp:100] Creating Layer conv14_2_mbox_loc
I1031 15:14:54.882730 31137 net.cpp:478] conv14_2_mbox_loc <- conv14_2_conv14_2/relu_0_split_1
I1031 15:14:54.882735 31137 net.cpp:452] conv14_2_mbox_loc -> conv14_2_mbox_loc
I1031 15:14:54.883033 31137 net.cpp:150] Setting up conv14_2_mbox_loc
I1031 15:14:54.883038 31137 net.cpp:157] Top shape: 24 24 5 5 (14400)
I1031 15:14:54.883040 31137 net.cpp:165] Memory required for data: 3878230496
I1031 15:14:54.883045 31137 layer_factory.hpp:77] Creating layer conv14_2_mbox_loc_perm
I1031 15:14:54.883069 31137 net.cpp:100] Creating Layer conv14_2_mbox_loc_perm
I1031 15:14:54.883071 31137 net.cpp:478] conv14_2_mbox_loc_perm <- conv14_2_mbox_loc
I1031 15:14:54.883075 31137 net.cpp:452] conv14_2_mbox_loc_perm -> conv14_2_mbox_loc_perm
I1031 15:14:54.883160 31137 net.cpp:150] Setting up conv14_2_mbox_loc_perm
I1031 15:14:54.883165 31137 net.cpp:157] Top shape: 24 5 5 24 (14400)
I1031 15:14:54.883167 31137 net.cpp:165] Memory required for data: 3878288096
I1031 15:14:54.883169 31137 layer_factory.hpp:77] Creating layer conv14_2_mbox_loc_flat
I1031 15:14:54.883175 31137 net.cpp:100] Creating Layer conv14_2_mbox_loc_flat
I1031 15:14:54.883178 31137 net.cpp:478] conv14_2_mbox_loc_flat <- conv14_2_mbox_loc_perm
I1031 15:14:54.883183 31137 net.cpp:452] conv14_2_mbox_loc_flat -> conv14_2_mbox_loc_flat
I1031 15:14:54.883218 31137 net.cpp:150] Setting up conv14_2_mbox_loc_flat
I1031 15:14:54.883222 31137 net.cpp:157] Top shape: 24 600 (14400)
I1031 15:14:54.883224 31137 net.cpp:165] Memory required for data: 3878345696
I1031 15:14:54.883226 31137 layer_factory.hpp:77] Creating layer conv14_2_mbox_conf_new
I1031 15:14:54.883234 31137 net.cpp:100] Creating Layer conv14_2_mbox_conf_new
I1031 15:14:54.883237 31137 net.cpp:478] conv14_2_mbox_conf_new <- conv14_2_conv14_2/relu_0_split_2
I1031 15:14:54.883245 31137 net.cpp:452] conv14_2_mbox_conf_new -> conv14_2_mbox_conf
I1031 15:14:54.885046 31137 net.cpp:150] Setting up conv14_2_mbox_conf_new
I1031 15:14:54.885063 31137 net.cpp:157] Top shape: 24 126 5 5 (75600)
I1031 15:14:54.885066 31137 net.cpp:165] Memory required for data: 3878648096
I1031 15:14:54.885071 31137 layer_factory.hpp:77] Creating layer conv14_2_mbox_conf_perm
I1031 15:14:54.885079 31137 net.cpp:100] Creating Layer conv14_2_mbox_conf_perm
I1031 15:14:54.885082 31137 net.cpp:478] conv14_2_mbox_conf_perm <- conv14_2_mbox_conf
I1031 15:14:54.885097 31137 net.cpp:452] conv14_2_mbox_conf_perm -> conv14_2_mbox_conf_perm
I1031 15:14:54.885187 31137 net.cpp:150] Setting up conv14_2_mbox_conf_perm
I1031 15:14:54.885193 31137 net.cpp:157] Top shape: 24 5 5 126 (75600)
I1031 15:14:54.885195 31137 net.cpp:165] Memory required for data: 3878950496
I1031 15:14:54.885197 31137 layer_factory.hpp:77] Creating layer conv14_2_mbox_conf_flat
I1031 15:14:54.885202 31137 net.cpp:100] Creating Layer conv14_2_mbox_conf_flat
I1031 15:14:54.885205 31137 net.cpp:478] conv14_2_mbox_conf_flat <- conv14_2_mbox_conf_perm
I1031 15:14:54.885211 31137 net.cpp:452] conv14_2_mbox_conf_flat -> conv14_2_mbox_conf_flat
I1031 15:14:54.885233 31137 net.cpp:150] Setting up conv14_2_mbox_conf_flat
I1031 15:14:54.885237 31137 net.cpp:157] Top shape: 24 3150 (75600)
I1031 15:14:54.885239 31137 net.cpp:165] Memory required for data: 3879252896
I1031 15:14:54.885242 31137 layer_factory.hpp:77] Creating layer conv14_2_mbox_priorbox
I1031 15:14:54.885249 31137 net.cpp:100] Creating Layer conv14_2_mbox_priorbox
I1031 15:14:54.885251 31137 net.cpp:478] conv14_2_mbox_priorbox <- conv14_2_conv14_2/relu_0_split_3
I1031 15:14:54.885255 31137 net.cpp:478] conv14_2_mbox_priorbox <- data_data_0_split_3
I1031 15:14:54.885260 31137 net.cpp:452] conv14_2_mbox_priorbox -> conv14_2_mbox_priorbox
I1031 15:14:54.885282 31137 net.cpp:150] Setting up conv14_2_mbox_priorbox
I1031 15:14:54.885288 31137 net.cpp:157] Top shape: 1 2 600 (1200)
I1031 15:14:54.885289 31137 net.cpp:165] Memory required for data: 3879257696
I1031 15:14:54.885291 31137 layer_factory.hpp:77] Creating layer conv15_2_mbox_loc
I1031 15:14:54.885304 31137 net.cpp:100] Creating Layer conv15_2_mbox_loc
I1031 15:14:54.885308 31137 net.cpp:478] conv15_2_mbox_loc <- conv15_2_conv15_2/relu_0_split_1
I1031 15:14:54.885315 31137 net.cpp:452] conv15_2_mbox_loc -> conv15_2_mbox_loc
I1031 15:14:54.885567 31137 net.cpp:150] Setting up conv15_2_mbox_loc
I1031 15:14:54.885572 31137 net.cpp:157] Top shape: 24 24 3 3 (5184)
I1031 15:14:54.885576 31137 net.cpp:165] Memory required for data: 3879278432
I1031 15:14:54.885579 31137 layer_factory.hpp:77] Creating layer conv15_2_mbox_loc_perm
I1031 15:14:54.885587 31137 net.cpp:100] Creating Layer conv15_2_mbox_loc_perm
I1031 15:14:54.885591 31137 net.cpp:478] conv15_2_mbox_loc_perm <- conv15_2_mbox_loc
I1031 15:14:54.885594 31137 net.cpp:452] conv15_2_mbox_loc_perm -> conv15_2_mbox_loc_perm
I1031 15:14:54.885676 31137 net.cpp:150] Setting up conv15_2_mbox_loc_perm
I1031 15:14:54.885681 31137 net.cpp:157] Top shape: 24 3 3 24 (5184)
I1031 15:14:54.885684 31137 net.cpp:165] Memory required for data: 3879299168
I1031 15:14:54.885686 31137 layer_factory.hpp:77] Creating layer conv15_2_mbox_loc_flat
I1031 15:14:54.885690 31137 net.cpp:100] Creating Layer conv15_2_mbox_loc_flat
I1031 15:14:54.885692 31137 net.cpp:478] conv15_2_mbox_loc_flat <- conv15_2_mbox_loc_perm
I1031 15:14:54.885699 31137 net.cpp:452] conv15_2_mbox_loc_flat -> conv15_2_mbox_loc_flat
I1031 15:14:54.885718 31137 net.cpp:150] Setting up conv15_2_mbox_loc_flat
I1031 15:14:54.885722 31137 net.cpp:157] Top shape: 24 216 (5184)
I1031 15:14:54.885725 31137 net.cpp:165] Memory required for data: 3879319904
I1031 15:14:54.885727 31137 layer_factory.hpp:77] Creating layer conv15_2_mbox_conf_new
I1031 15:14:54.885735 31137 net.cpp:100] Creating Layer conv15_2_mbox_conf_new
I1031 15:14:54.885737 31137 net.cpp:478] conv15_2_mbox_conf_new <- conv15_2_conv15_2/relu_0_split_2
I1031 15:14:54.885743 31137 net.cpp:452] conv15_2_mbox_conf_new -> conv15_2_mbox_conf
I1031 15:14:54.886283 31137 net.cpp:150] Setting up conv15_2_mbox_conf_new
I1031 15:14:54.886291 31137 net.cpp:157] Top shape: 24 126 3 3 (27216)
I1031 15:14:54.886294 31137 net.cpp:165] Memory required for data: 3879428768
I1031 15:14:54.886298 31137 layer_factory.hpp:77] Creating layer conv15_2_mbox_conf_perm
I1031 15:14:54.886306 31137 net.cpp:100] Creating Layer conv15_2_mbox_conf_perm
I1031 15:14:54.886308 31137 net.cpp:478] conv15_2_mbox_conf_perm <- conv15_2_mbox_conf
I1031 15:14:54.886313 31137 net.cpp:452] conv15_2_mbox_conf_perm -> conv15_2_mbox_conf_perm
I1031 15:14:54.886409 31137 net.cpp:150] Setting up conv15_2_mbox_conf_perm
I1031 15:14:54.886415 31137 net.cpp:157] Top shape: 24 3 3 126 (27216)
I1031 15:14:54.886417 31137 net.cpp:165] Memory required for data: 3879537632
I1031 15:14:54.886420 31137 layer_factory.hpp:77] Creating layer conv15_2_mbox_conf_flat
I1031 15:14:54.886425 31137 net.cpp:100] Creating Layer conv15_2_mbox_conf_flat
I1031 15:14:54.886427 31137 net.cpp:478] conv15_2_mbox_conf_flat <- conv15_2_mbox_conf_perm
I1031 15:14:54.886432 31137 net.cpp:452] conv15_2_mbox_conf_flat -> conv15_2_mbox_conf_flat
I1031 15:14:54.886453 31137 net.cpp:150] Setting up conv15_2_mbox_conf_flat
I1031 15:14:54.886457 31137 net.cpp:157] Top shape: 24 1134 (27216)
I1031 15:14:54.886459 31137 net.cpp:165] Memory required for data: 3879646496
I1031 15:14:54.886461 31137 layer_factory.hpp:77] Creating layer conv15_2_mbox_priorbox
I1031 15:14:54.886466 31137 net.cpp:100] Creating Layer conv15_2_mbox_priorbox
I1031 15:14:54.886469 31137 net.cpp:478] conv15_2_mbox_priorbox <- conv15_2_conv15_2/relu_0_split_3
I1031 15:14:54.886472 31137 net.cpp:478] conv15_2_mbox_priorbox <- data_data_0_split_4
I1031 15:14:54.886478 31137 net.cpp:452] conv15_2_mbox_priorbox -> conv15_2_mbox_priorbox
I1031 15:14:54.886500 31137 net.cpp:150] Setting up conv15_2_mbox_priorbox
I1031 15:14:54.886504 31137 net.cpp:157] Top shape: 1 2 216 (432)
I1031 15:14:54.886507 31137 net.cpp:165] Memory required for data: 3879648224
I1031 15:14:54.886508 31137 layer_factory.hpp:77] Creating layer conv16_2_mbox_loc
I1031 15:14:54.886517 31137 net.cpp:100] Creating Layer conv16_2_mbox_loc
I1031 15:14:54.886519 31137 net.cpp:478] conv16_2_mbox_loc <- conv16_2_conv16_2/relu_0_split_1
I1031 15:14:54.886526 31137 net.cpp:452] conv16_2_mbox_loc -> conv16_2_mbox_loc
I1031 15:14:54.886776 31137 net.cpp:150] Setting up conv16_2_mbox_loc
I1031 15:14:54.886782 31137 net.cpp:157] Top shape: 24 24 2 2 (2304)
I1031 15:14:54.886785 31137 net.cpp:165] Memory required for data: 3879657440
I1031 15:14:54.886788 31137 layer_factory.hpp:77] Creating layer conv16_2_mbox_loc_perm
I1031 15:14:54.886795 31137 net.cpp:100] Creating Layer conv16_2_mbox_loc_perm
I1031 15:14:54.886797 31137 net.cpp:478] conv16_2_mbox_loc_perm <- conv16_2_mbox_loc
I1031 15:14:54.886801 31137 net.cpp:452] conv16_2_mbox_loc_perm -> conv16_2_mbox_loc_perm
I1031 15:14:54.886883 31137 net.cpp:150] Setting up conv16_2_mbox_loc_perm
I1031 15:14:54.886888 31137 net.cpp:157] Top shape: 24 2 2 24 (2304)
I1031 15:14:54.886890 31137 net.cpp:165] Memory required for data: 3879666656
I1031 15:14:54.886893 31137 layer_factory.hpp:77] Creating layer conv16_2_mbox_loc_flat
I1031 15:14:54.886898 31137 net.cpp:100] Creating Layer conv16_2_mbox_loc_flat
I1031 15:14:54.886899 31137 net.cpp:478] conv16_2_mbox_loc_flat <- conv16_2_mbox_loc_perm
I1031 15:14:54.886905 31137 net.cpp:452] conv16_2_mbox_loc_flat -> conv16_2_mbox_loc_flat
I1031 15:14:54.886926 31137 net.cpp:150] Setting up conv16_2_mbox_loc_flat
I1031 15:14:54.886930 31137 net.cpp:157] Top shape: 24 96 (2304)
I1031 15:14:54.886932 31137 net.cpp:165] Memory required for data: 3879675872
I1031 15:14:54.886934 31137 layer_factory.hpp:77] Creating layer conv16_2_mbox_conf_new
I1031 15:14:54.886942 31137 net.cpp:100] Creating Layer conv16_2_mbox_conf_new
I1031 15:14:54.886945 31137 net.cpp:478] conv16_2_mbox_conf_new <- conv16_2_conv16_2/relu_0_split_2
I1031 15:14:54.886950 31137 net.cpp:452] conv16_2_mbox_conf_new -> conv16_2_mbox_conf
I1031 15:14:54.887439 31137 net.cpp:150] Setting up conv16_2_mbox_conf_new
I1031 15:14:54.887445 31137 net.cpp:157] Top shape: 24 126 2 2 (12096)
I1031 15:14:54.887447 31137 net.cpp:165] Memory required for data: 3879724256
I1031 15:14:54.887451 31137 layer_factory.hpp:77] Creating layer conv16_2_mbox_conf_perm
I1031 15:14:54.887457 31137 net.cpp:100] Creating Layer conv16_2_mbox_conf_perm
I1031 15:14:54.887460 31137 net.cpp:478] conv16_2_mbox_conf_perm <- conv16_2_mbox_conf
I1031 15:14:54.887465 31137 net.cpp:452] conv16_2_mbox_conf_perm -> conv16_2_mbox_conf_perm
I1031 15:14:54.887552 31137 net.cpp:150] Setting up conv16_2_mbox_conf_perm
I1031 15:14:54.887557 31137 net.cpp:157] Top shape: 24 2 2 126 (12096)
I1031 15:14:54.887559 31137 net.cpp:165] Memory required for data: 3879772640
I1031 15:14:54.887562 31137 layer_factory.hpp:77] Creating layer conv16_2_mbox_conf_flat
I1031 15:14:54.887567 31137 net.cpp:100] Creating Layer conv16_2_mbox_conf_flat
I1031 15:14:54.887569 31137 net.cpp:478] conv16_2_mbox_conf_flat <- conv16_2_mbox_conf_perm
I1031 15:14:54.887574 31137 net.cpp:452] conv16_2_mbox_conf_flat -> conv16_2_mbox_conf_flat
I1031 15:14:54.887594 31137 net.cpp:150] Setting up conv16_2_mbox_conf_flat
I1031 15:14:54.887598 31137 net.cpp:157] Top shape: 24 504 (12096)
I1031 15:14:54.887600 31137 net.cpp:165] Memory required for data: 3879821024
I1031 15:14:54.887603 31137 layer_factory.hpp:77] Creating layer conv16_2_mbox_priorbox
I1031 15:14:54.887606 31137 net.cpp:100] Creating Layer conv16_2_mbox_priorbox
I1031 15:14:54.887609 31137 net.cpp:478] conv16_2_mbox_priorbox <- conv16_2_conv16_2/relu_0_split_3
I1031 15:14:54.887614 31137 net.cpp:478] conv16_2_mbox_priorbox <- data_data_0_split_5
I1031 15:14:54.887619 31137 net.cpp:452] conv16_2_mbox_priorbox -> conv16_2_mbox_priorbox
I1031 15:14:54.887639 31137 net.cpp:150] Setting up conv16_2_mbox_priorbox
I1031 15:14:54.887643 31137 net.cpp:157] Top shape: 1 2 96 (192)
I1031 15:14:54.887645 31137 net.cpp:165] Memory required for data: 3879821792
I1031 15:14:54.887647 31137 layer_factory.hpp:77] Creating layer conv17_2_mbox_loc
I1031 15:14:54.887657 31137 net.cpp:100] Creating Layer conv17_2_mbox_loc
I1031 15:14:54.887660 31137 net.cpp:478] conv17_2_mbox_loc <- conv17_2_conv17_2/relu_0_split_0
I1031 15:14:54.887666 31137 net.cpp:452] conv17_2_mbox_loc -> conv17_2_mbox_loc
I1031 15:14:54.887883 31137 net.cpp:150] Setting up conv17_2_mbox_loc
I1031 15:14:54.887889 31137 net.cpp:157] Top shape: 24 24 1 1 (576)
I1031 15:14:54.887892 31137 net.cpp:165] Memory required for data: 3879824096
I1031 15:14:54.887895 31137 layer_factory.hpp:77] Creating layer conv17_2_mbox_loc_perm
I1031 15:14:54.887902 31137 net.cpp:100] Creating Layer conv17_2_mbox_loc_perm
I1031 15:14:54.887904 31137 net.cpp:478] conv17_2_mbox_loc_perm <- conv17_2_mbox_loc
I1031 15:14:54.887908 31137 net.cpp:452] conv17_2_mbox_loc_perm -> conv17_2_mbox_loc_perm
I1031 15:14:54.887989 31137 net.cpp:150] Setting up conv17_2_mbox_loc_perm
I1031 15:14:54.887992 31137 net.cpp:157] Top shape: 24 1 1 24 (576)
I1031 15:14:54.887995 31137 net.cpp:165] Memory required for data: 3879826400
I1031 15:14:54.887996 31137 layer_factory.hpp:77] Creating layer conv17_2_mbox_loc_flat
I1031 15:14:54.888001 31137 net.cpp:100] Creating Layer conv17_2_mbox_loc_flat
I1031 15:14:54.888003 31137 net.cpp:478] conv17_2_mbox_loc_flat <- conv17_2_mbox_loc_perm
I1031 15:14:54.888010 31137 net.cpp:452] conv17_2_mbox_loc_flat -> conv17_2_mbox_loc_flat
I1031 15:14:54.888029 31137 net.cpp:150] Setting up conv17_2_mbox_loc_flat
I1031 15:14:54.888033 31137 net.cpp:157] Top shape: 24 24 (576)
I1031 15:14:54.888036 31137 net.cpp:165] Memory required for data: 3879828704
I1031 15:14:54.888037 31137 layer_factory.hpp:77] Creating layer conv17_2_mbox_conf_new
I1031 15:14:54.888044 31137 net.cpp:100] Creating Layer conv17_2_mbox_conf_new
I1031 15:14:54.888047 31137 net.cpp:478] conv17_2_mbox_conf_new <- conv17_2_conv17_2/relu_0_split_1
I1031 15:14:54.888059 31137 net.cpp:452] conv17_2_mbox_conf_new -> conv17_2_mbox_conf
I1031 15:14:54.888391 31137 net.cpp:150] Setting up conv17_2_mbox_conf_new
I1031 15:14:54.888396 31137 net.cpp:157] Top shape: 24 126 1 1 (3024)
I1031 15:14:54.888398 31137 net.cpp:165] Memory required for data: 3879840800
I1031 15:14:54.888403 31137 layer_factory.hpp:77] Creating layer conv17_2_mbox_conf_perm
I1031 15:14:54.888407 31137 net.cpp:100] Creating Layer conv17_2_mbox_conf_perm
I1031 15:14:54.888411 31137 net.cpp:478] conv17_2_mbox_conf_perm <- conv17_2_mbox_conf
I1031 15:14:54.888417 31137 net.cpp:452] conv17_2_mbox_conf_perm -> conv17_2_mbox_conf_perm
I1031 15:14:54.888504 31137 net.cpp:150] Setting up conv17_2_mbox_conf_perm
I1031 15:14:54.888509 31137 net.cpp:157] Top shape: 24 1 1 126 (3024)
I1031 15:14:54.888511 31137 net.cpp:165] Memory required for data: 3879852896
I1031 15:14:54.888514 31137 layer_factory.hpp:77] Creating layer conv17_2_mbox_conf_flat
I1031 15:14:54.888519 31137 net.cpp:100] Creating Layer conv17_2_mbox_conf_flat
I1031 15:14:54.888521 31137 net.cpp:478] conv17_2_mbox_conf_flat <- conv17_2_mbox_conf_perm
I1031 15:14:54.888527 31137 net.cpp:452] conv17_2_mbox_conf_flat -> conv17_2_mbox_conf_flat
I1031 15:14:54.888547 31137 net.cpp:150] Setting up conv17_2_mbox_conf_flat
I1031 15:14:54.888551 31137 net.cpp:157] Top shape: 24 126 (3024)
I1031 15:14:54.888553 31137 net.cpp:165] Memory required for data: 3879864992
I1031 15:14:54.888556 31137 layer_factory.hpp:77] Creating layer conv17_2_mbox_priorbox
I1031 15:14:54.888561 31137 net.cpp:100] Creating Layer conv17_2_mbox_priorbox
I1031 15:14:54.888563 31137 net.cpp:478] conv17_2_mbox_priorbox <- conv17_2_conv17_2/relu_0_split_2
I1031 15:14:54.888566 31137 net.cpp:478] conv17_2_mbox_priorbox <- data_data_0_split_6
I1031 15:14:54.888572 31137 net.cpp:452] conv17_2_mbox_priorbox -> conv17_2_mbox_priorbox
I1031 15:14:54.888593 31137 net.cpp:150] Setting up conv17_2_mbox_priorbox
I1031 15:14:54.888597 31137 net.cpp:157] Top shape: 1 2 24 (48)
I1031 15:14:54.888598 31137 net.cpp:165] Memory required for data: 3879865184
I1031 15:14:54.888602 31137 layer_factory.hpp:77] Creating layer mbox_loc
I1031 15:14:54.888607 31137 net.cpp:100] Creating Layer mbox_loc
I1031 15:14:54.888609 31137 net.cpp:478] mbox_loc <- conv11_mbox_loc_flat
I1031 15:14:54.888612 31137 net.cpp:478] mbox_loc <- conv13_mbox_loc_flat
I1031 15:14:54.888615 31137 net.cpp:478] mbox_loc <- conv14_2_mbox_loc_flat
I1031 15:14:54.888618 31137 net.cpp:478] mbox_loc <- conv15_2_mbox_loc_flat
I1031 15:14:54.888622 31137 net.cpp:478] mbox_loc <- conv16_2_mbox_loc_flat
I1031 15:14:54.888638 31137 net.cpp:478] mbox_loc <- conv17_2_mbox_loc_flat
I1031 15:14:54.888643 31137 net.cpp:452] mbox_loc -> mbox_loc
I1031 15:14:54.888667 31137 net.cpp:150] Setting up mbox_loc
I1031 15:14:54.888671 31137 net.cpp:157] Top shape: 24 7668 (184032)
I1031 15:14:54.888674 31137 net.cpp:165] Memory required for data: 3880601312
I1031 15:14:54.888675 31137 layer_factory.hpp:77] Creating layer mbox_conf
I1031 15:14:54.888679 31137 net.cpp:100] Creating Layer mbox_conf
I1031 15:14:54.888682 31137 net.cpp:478] mbox_conf <- conv11_mbox_conf_flat
I1031 15:14:54.888685 31137 net.cpp:478] mbox_conf <- conv13_mbox_conf_flat
I1031 15:14:54.888689 31137 net.cpp:478] mbox_conf <- conv14_2_mbox_conf_flat
I1031 15:14:54.888691 31137 net.cpp:478] mbox_conf <- conv15_2_mbox_conf_flat
I1031 15:14:54.888694 31137 net.cpp:478] mbox_conf <- conv16_2_mbox_conf_flat
I1031 15:14:54.888696 31137 net.cpp:478] mbox_conf <- conv17_2_mbox_conf_flat
I1031 15:14:54.888701 31137 net.cpp:452] mbox_conf -> mbox_conf
I1031 15:14:54.888720 31137 net.cpp:150] Setting up mbox_conf
I1031 15:14:54.888723 31137 net.cpp:157] Top shape: 24 40257 (966168)
I1031 15:14:54.888725 31137 net.cpp:165] Memory required for data: 3884465984
I1031 15:14:54.888727 31137 layer_factory.hpp:77] Creating layer mbox_priorbox
I1031 15:14:54.888731 31137 net.cpp:100] Creating Layer mbox_priorbox
I1031 15:14:54.888733 31137 net.cpp:478] mbox_priorbox <- conv11_mbox_priorbox
I1031 15:14:54.888736 31137 net.cpp:478] mbox_priorbox <- conv13_mbox_priorbox
I1031 15:14:54.888739 31137 net.cpp:478] mbox_priorbox <- conv14_2_mbox_priorbox
I1031 15:14:54.888742 31137 net.cpp:478] mbox_priorbox <- conv15_2_mbox_priorbox
I1031 15:14:54.888744 31137 net.cpp:478] mbox_priorbox <- conv16_2_mbox_priorbox
I1031 15:14:54.888747 31137 net.cpp:478] mbox_priorbox <- conv17_2_mbox_priorbox
I1031 15:14:54.888751 31137 net.cpp:452] mbox_priorbox -> mbox_priorbox
I1031 15:14:54.888768 31137 net.cpp:150] Setting up mbox_priorbox
I1031 15:14:54.888772 31137 net.cpp:157] Top shape: 1 2 7668 (15336)
I1031 15:14:54.888774 31137 net.cpp:165] Memory required for data: 3884527328
I1031 15:14:54.888783 31137 layer_factory.hpp:77] Creating layer mbox_loss
I1031 15:14:54.888794 31137 net.cpp:100] Creating Layer mbox_loss
I1031 15:14:54.888797 31137 net.cpp:478] mbox_loss <- mbox_loc
I1031 15:14:54.888799 31137 net.cpp:478] mbox_loss <- mbox_conf
I1031 15:14:54.888803 31137 net.cpp:478] mbox_loss <- mbox_priorbox
…
layer {
  name: "data"
  type: "AnnotatedData"
  top: "data"
  top: "label"
  include {
    phase: TEST
  }
  transform_param {
    scale: 0.007843
    mean_value: 127.5
    mean_value: 127.5
    mean_value: 127.5
    resize_param {
      prob: 1
      resize_mode: WARP
      height: 300
      width: 300
      interp_mode: LINEAR
    }
  }
  data_param {
    source: "examples/VOC0712/VOC0712_test_lmdb"
    batch_size: 8
    backend: LMDB
  }
  annotated_data_param {
    batch_sampler {
    }
    label_map_file: "data/VOC0712/labelmap_voc.prototxt"
  }
}
layer {
  name: "conv0"
  type: "Convolution"
  bottom: "data"
  top: "conv0"
  param {
    lr_mult: 1
    decay_mult: 1
  }
  convolution_param {
    num_output: 32
    bias_term: false
    pad: 1
    kernel_size: 3
    stride: 2
    weight_filler {
      type: "msra"
    }
  }
}
layer {
  name: "conv0/bn"
  type: "BatchNorm"
  bottom: "conv0"
  top: "conv0"
}
layer {
  name: "conv0/scale"
  type: "Scale"
  bottom: "conv0"
  top: "conv0"
  param {
    lr_mult: 1
    decay_mult: 0
  }
  param {
    lr_mult: 2
    decay_mult: 0
  }
  scale_param {
    filler {
      value: 1
    }
    bias_term: true
    bias_filler {
      value: 0
    }
  }
}
layer {
  name: "conv0/relu"
  type: "ReLU"
  bottom: "conv0"
  top: "conv0"
}
layer {
  name: "conv1/dw"
  type: "Convolution"
  bottom: "conv0"
  top: "conv1/dw"
  param {
    lr_mult: 1
    decay_mult: 1
  }
  convolution_param {
    num_output: 32
    bias_term: false
    pad: 1
    kernel_size: 3
    group: 32
    weight_filler {
      type: "msra"
    }
    engine: CAFFE
  }
}
layer {
  name: "conv1/dw/bn"
  type: "BatchNorm"
  bottom: "conv1/dw"
  top: "conv1/dw"
}
layer {
  name: "conv1/dw/scale"
  type: "Scale"
  bottom: "conv1/dw"
  top: "conv1/dw"
  param {
    lr_mult: 1
    decay_mult: 0
  }
  param {
    lr_mult: 2
    decay_mult: 0
  }
  scale_param {
    filler {
      value: 1
    }
    bias_term: true
    bias_filler {
      value: 0
    }
  }
}
layer {
  name: "conv1/dw/relu"
  type: "ReLU"
  bottom: "conv1/dw"
  top: "conv1/dw"
}
layer {
  name: "conv1"
  type: "Convolution"
  bottom: "conv1/dw"
  top: "conv1"
  param {
    lr_mult: 1
    decay_mult: 1
  }
  convolution_param {
    num_output: 64
    bias_term: false
    kernel_size: 1
    weight_filler {
      type: "msra"
    }
  }
}
layer {
  name: "conv1/bn"
  type: "BatchNorm"
  bottom: "conv1"
  top: "conv1"
}
layer {
  name: "conv1/scale"
  type: "Scale"
  bottom: "conv1"
  top: "conv1"
  param {
    lr_mult: 1
    decay_mult: 0
  }
  param {
    lr_mult: 2
    decay_mult: 0
  }
  scale_param {
    filler {
      value: 1
    }
    bias_term: true
    bias_filler {
      value: 0
    }
  }
}
layer {
  name: "conv1/relu"
  type: "ReLU"
  bottom: "conv1"
  top: "conv1"
}
layer {
  name: "conv2/dw"
  type: "Convolution"
  bottom: "conv1"
  top: "conv2/dw"
  param {
    lr_mult: 1
    decay_mult: 1
  }
  convolution_param {
    num_output: 64
    bias_term: false
    pad: 1
    kernel_size: 3
    group: 64
    stride: 2
    weight_filler {
      type: "msra"
    }
    engine: CAFFE
  }
}
layer {
  name: "conv2/dw/bn"
  type: "BatchNorm"
  bottom: "conv2/dw"
  top: "conv2/dw"
}
layer {
  name: "conv2/dw/scale"
  type: "Scale"
  bottom: "conv2/dw"
  top: "conv2/dw"
  param {
    lr_mult: 1
    decay_mult: 0
  }
  param {
    lr_mult: 2
    decay_mult: 0
  }
  scale_param {
    filler {
      value: 1
    }
    bias_term: true
    bias_filler {
      value: 0
    }
  }
}
layer {
  name: "conv2/dw/relu"
  type: "ReLU"
  bottom: "conv2/dw"
  top: "conv2/dw"
}
layer {
  name: "conv2"
  type: "Convolution"
  bottom: "conv2/dw"
  top: "conv2"
  param {
    lr_mult: 1
    decay_mult: 1
  }
  convolution_param {
    num_output: 128
    bias_term: false
    kernel_size: 1
    weight_filler {
      type: "msra"
    }
  }
}
layer {
  name: "conv2/bn"
  type: "BatchNorm"
  bottom: "conv2"
  top: "conv2"
}
layer {
  name: "conv2/scale"
  type: "Scale"
  bottom: "conv2"
  top: "conv2"
  param {
    lr_mult: 1
    decay_mult: 0
  }
  param {
    lr_mult: 2
    decay_mult: 0
  }
  scale_param {
    filler {
      value: 1
    }
    bias_term: true
    bias_filler {
      value: 0
    }
  }
}
layer {
  name: "conv2/relu"
  type: "ReLU"
  bottom: "conv2"
  top: "conv2"
}
layer {
  name: "conv3/dw"
  type: "Convolution"
  bottom: "conv2"
  top: "conv3/dw"
  param {
    lr_mult: 1
    decay_mult: 1
  }
  convolution_param {
    num_output: 128
    bias_term: false
    pad: 1
    kernel_size: 3
    group: 128
    weight_filler {
      type: "msra"
    }
    engine: CAFFE
  }
}
layer {
  name: "conv3/dw/bn"
  type: "BatchNorm"
  bottom: "conv3/dw"
  top: "conv3/dw"
}
layer {
  name: "conv3/dw/scale"
  type: "Scale"
  bottom: "conv3/dw"
  top: "conv3/dw"
  param {
    lr_mult: 1
    decay_mult: 0
  }
  param {
    lr_mult: 2
    decay_mult: 0
  }
  scale_param {
    filler {
      value: 1
    }
    bias_term: true
    bias_filler {
      value: 0
    }
  }
}
layer {
  name: "conv3/dw/relu"
  type: "ReLU"
  bottom: "conv3/dw"
  top: "conv3/dw"
}
layer {
  name: "conv3"
  type: "Convolution"
  bottom: "conv3/dw"
  top: "conv3"
  param {
    lr_mult: 1
    decay_mult: 1
  }
  convolution_param {
    num_output: 128
    bias_term: false
    kernel_size: 1
    weight_filler {
      type: "msra"
    }
  }
}
layer {
  name: "conv3/bn"
  type: "BatchNorm"
  bottom: "conv3"
  top: "conv3"
}
layer {
  name: "conv3/scale"
  type: "Scale"
  bottom: "conv3"
  top: "conv3"
  param {
    lr_mult: 1
    decay_mult: 0
  }
  param {
    lr_mult: 2
    decay_mult: 0
  }
  scale_param {
    filler {
      value: 1
    }
    bias_term: true
    bias_filler {
      value: 0
    }
  }
}
layer {
  name: "conv3/relu"
  type: "ReLU"
  bottom: "conv3"
  top: "conv3"
}
layer {
  name: "conv4/dw"
  type: "Convolution"
  bottom: "conv3"
  top: "conv4/dw"
  param {
    lr_mult: 1
    decay_mult: 1
  }
  convolution_param {
    num_output: 128
    bias_term: false
    pad: 1
    kernel_size: 3
    group: 128
    stride: 2
    weight_filler {
      type: "msra"
    }
    engine: CAFFE
  }
}
layer {
  name: "conv4/dw/bn"
  type: "BatchNorm"
  bottom: "conv4/dw"
  top: "conv4/dw"
}
layer {
  name: "conv4/dw/scale"
  type: "Scale"
  bottom: "conv4/dw"
  top: "conv4/dw"
  param {
    lr_mult: 1
    decay_mult: 0
  }
  param {
    lr_mult: 2
    decay_mult: 0
  }
  scale_param {
    filler {
      value: 1
    }
    bias_term: true
    bias_filler {
      value: 0
    }
  }
}
layer {
  name: "conv4/dw/relu"
  type: "ReLU"
  bottom: "conv4/dw"
  top: "conv4/dw"
}
layer {
  name: "conv4"
  type: "Convolution"
  bottom: "conv4/dw"
  top: "conv4"
  param {
    lr_mult: 1
    decay_mult: 1
  }
  convolution_param {
    num_output: 256
    bias_term: false
    kernel_size: 1
    weight_filler {
      type: "msra"
    }
  }
}
layer {
  name: "conv4/bn"
  type: "BatchNorm"
  bottom: "conv4"
  top: "conv4"
}
layer {
  name: "conv4/scale"
  type: "Scale"
  bottom: "conv4"
  top: "conv4"
  param {
    lr_mult: 1
    decay_mult: 0
  }
  param {
    lr_mult: 2
    decay_mult: 0
  }
  scale_param {
    filler {
      value: 1
    }
    bias_term: true
    bias_filler {
      value: 0
    }
  }
}
layer {
  name: "conv4/relu"
  type: "ReLU"
  bottom: "conv4"
  top: "conv4"
}
layer {
  name: "conv5/dw"
  type: "Convolution"
  bottom: "conv4"
  top: "conv5/dw"
  param {
    lr_mult: 1
    decay_mult: 1
  }
  convolution_param {
    num_output: 256
    bias_term: false
    pad: 1
    kernel_size: 3
    group: 256
    weight_filler {
      type: "msra"
    }
    engine: CAFFE
  }
}
layer {
  name: "conv5/dw/bn"
  type: "BatchNorm"
  bottom: "conv5/dw"
  top: "conv5/dw"
}
layer {
  name: "conv5/dw/scale"
  type: "Scale"
  bottom: "conv5/dw"
  top: "conv5/dw"
  param {
    lr_mult: 1
    decay_mult: 0
  }
  param {
    lr_mult: 2
    decay_mult: 0
  }
  scale_param {
    filler {
      value: 1
    }
    bias_term: true
    bias_filler {
      value: 0
    }
  }
}
layer {
  name: "conv5/dw/relu"
  type: "ReLU"
  bottom: "conv5/dw"
  top: "conv5/dw"
}
layer {
  name: "conv5"
  type: "Convolution"
  bottom: "conv5/dw"
  top: "conv5"
  param {
    lr_mult: 1
    decay_mult: 1
  }
  convolution_param {
    num_output: 256
    bias_term: false
    kernel_size: 1
    weight_filler {
      type: "msra"
    }
  }
}
layer {
  name: "conv5/bn"
  type: "BatchNorm"
  bottom: "conv5"
  top: "conv5"
}
layer {
  name: "conv5/scale"
  type: "Scale"
  bottom: "conv5"
  top: "conv5"
  param {
    lr_mult: 1
    decay_mult: 0
  }
  param {
    lr_mult: 2
    decay_mult: 0
  }
  scale_param {
    filler {
      value: 1
    }
    bias_term: true
    bias_filler {
      value: 0
    }
  }
}
layer {
  name: "conv5/relu"
  type: "ReLU"
  bottom: "conv5"
  top: "conv5"
}
layer {
  name: "conv6/dw"
  type: "Convolution"
  bottom: "conv5"
  top: "conv6/dw"
  param {
    lr_mult: 1
    decay_mult: 1
  }
  convolution_param {
    num_output: 256
    bias_term: false
    pad: 1
    kernel_size: 3
    group: 256
    stride: 2
    weight_filler {
      type: "msra"
    }
    engine: CAFFE
  }
}
layer {
  name: "conv6/dw/bn"
  type: "BatchNorm"
  bottom: "conv6/dw"
  top: "conv6/dw"
}
layer {
  name: "conv6/dw/scale"
  type: "Scale"
  bottom: "conv6/dw"
  top: "conv6/dw"
  param {
    lr_mult: 1
    decay_mult: 0
  }
  param {
    lr_mult: 2
    decay_mult: 0
  }
  scale_param {
    filler {
      value: 1
    }
    bias_term: true
    bias_filler {
      value: 0
    }
  }
}
layer {
  name: "conv6/dw/relu"
  type: "ReLU"
  bottom: "conv6/dw"
  top: "conv6/dw"
}
layer {
  name: "conv6"
  type: "Convolution"
  bottom: "conv6/dw"
  top: "conv6"
  param {
    lr_mult: 1
    decay_mult: 1
  }
  convolution_param {
    num_output: 512
    bias_term: false
    kernel_size: 1
    weight_filler {
      type: "msra"
    }
  }
}
layer {
  name: "conv6/bn"
  type: "BatchNorm"
  bottom: "conv6"
  top: "conv6"
}
layer {
  name: "conv6/scale"
  type: "Scale"
  bottom: "conv6"
  top: "conv6"
  param {
    lr_mult: 1
    decay_mult: 0
  }
  param {
    lr_mult: 2
    decay_mult: 0
  }
  scale_param {
    filler {
      value: 1
    }
    bias_term: true
    bias_filler {
      value: 0
    }
  }
}
layer {
  name: "conv6/relu"
  type: "ReLU"
  bottom: "conv6"
  top: "conv6"
}
layer {
  name: "conv7/dw"
  type: "Convolution"
  bottom: "conv6"
  top: "conv7/dw"
  param {
    lr_mult: 1
    decay_mult: 1
  }
  convolution_param {
    num_output: 512
    bias_term: false
    pad: 1
    kernel_size: 3
    group: 512
    weight_filler {
      type: "msra"
    }
    engine: CAFFE
  }
}
layer {
  name: "conv7/dw/bn"
  type: "BatchNorm"
  bottom: "conv7/dw"
  top: "conv7/dw"
}
layer {
  name: "conv7/dw/scale"
  type: "Scale"
  bottom: "conv7/dw"
  top: "conv7/dw"
  param {
    lr_mult: 1
    decay_mult: 0
  }
  param {
    lr_mult: 2
    decay_mult: 0
  }
  scale_param {
    filler {
      value: 1
    }
    bias_term: true
    bias_filler {
      value: 0
    }
  }
}
layer {
  name: "conv7/dw/relu"
  type: "ReLU"
  bottom: "conv7/dw"
  top: "conv7/dw"
}
layer {
  name: "conv7"
  type: "Convolution"
  bottom: "conv7/dw"
  top: "conv7"
  param {
    lr_mult: 1
    decay_mult: 1
  }
  convolution_param {
    num_output: 512
    bias_term: false
    kernel_size: 1
    weight_filler {
      type: "msra"
    }
  }
}
layer {
  name: "conv7/bn"
  type: "BatchNorm"
  bottom: "conv7"
  top: "conv7"
}
layer {
  name: "conv7/scale"
  type: "Scale"
  bottom: "conv7"
  top: "conv7"
  param {
    lr_mult: 1
    decay_mult: 0
  }
  param {
    lr_mult: 2
    decay_mult: 0
  }
  scale_param {
    filler {
      value: 1
    }
    bias_term: true
    bias_filler {
      value: 0
    }
  }
}
layer {
  name: "conv7/relu"
  type: "ReLU"
  bottom: "conv7"
  top: "conv7"
}
layer {
  name: "conv8/dw"
  type: "Convolution"
  bottom: "conv7"
  top: "conv8/dw"
  param {
    lr_mult: 1
    decay_mult: 1
  }
  convolution_param {
    num_output: 512
    bias_term: false
    pad: 1
    kernel_size: 3
    group: 512
    weight_filler {
      type: "msra"
    }
    engine: CAFFE
  }
}
layer {
  name: "conv8/dw/bn"
  type: "BatchNorm"
  bottom: "conv8/dw"
  top: "conv8/dw"
}
layer {
  name: "conv8/dw/scale"
  type: "Scale"
  bottom: "conv8/dw"
  top: "conv8/dw"
  param {
    lr_mult: 1
    decay_mult: 0
  }
  param {
    lr_mult: 2
    decay_mult: 0
  }
  scale_param {
    filler {
      value: 1
    }
    bias_term: true
    bias_filler {
      value: 0
    }
  }
}
layer {
  name: "conv8/dw/relu"
  type: "ReLU"
  bottom: "conv8/dw"
  top: "conv8/dw"
}
layer {
  name: "conv8"
  type: "Convolution"
  bottom: "conv8/dw"
  top: "conv8"
  param {
    lr_mult: 1
    decay_mult: 1
  }
  convolution_param {
    num_output: 512
    bias_term: false
    kernel_size: 1
    weight_filler {
      type: "msra"
    }
  }
}
layer {
  name: "conv8/bn"
  type: "BatchNorm"
  bottom: "conv8"
  top: "conv8"
}
layer {
  name: "conv8/scale"
  type: "Scale"
  bottom: "conv8"
  top: "conv8"
  param {
    lr_mult: 1
    decay_mult: 0
  }
  param {
    lr_mult: 2
    decay_mult: 0
  }
  scale_param {
    filler {
      value: 1
    }
    bias_term: true
    bias_filler {
      value: 0
    }
  }
}
layer {
  name: "conv8/relu"
  type: "ReLU"
  bottom: "conv8"
  top: "conv8"
}
layer {
  name: "conv9/dw"
  type: "Convolution"
  bottom: "conv8"
  top: "conv9/dw"
  param {
    lr_mult: 1
    decay_mult: 1
  }
  convolution_param {
    num_output: 512
    bias_term: false
    pad: 1
    kernel_size: 3
    group: 512
    weight_filler {
      type: "msra"
    }
    engine: CAFFE
  }
}
layer {
  name: "conv9/dw/bn"
  type: "BatchNorm"
  bottom: "conv9/dw"
  top: "conv9/dw"
}
layer {
  name: "conv9/dw/scale"
  type: "Scale"
  bottom: "conv9/dw"
  top: "conv9/dw"
  param {
    lr_mult: 1
    decay_mult: 0
  }
  param {
    lr_mult: 2
    decay_mult: 0
  }
  scale_param {
    filler {
      value: 1
    }
    bias_term: true
    bias_filler {
      value: 0
    }
…
I1031 15:14:55.456614 31137 layer_factory.hpp:77] Creating layer conv14_1/scale
I1031 15:14:55.456619 31137 net.cpp:100] Creating Layer conv14_1/scale
I1031 15:14:55.456621 31137 net.cpp:478] conv14_1/scale <- conv14_1
I1031 15:14:55.456625 31137 net.cpp:439] conv14_1/scale -> conv14_1 (in-place)
I1031 15:14:55.456662 31137 layer_factory.hpp:77] Creating layer conv14_1/scale
I1031 15:14:55.456753 31137 net.cpp:150] Setting up conv14_1/scale
I1031 15:14:55.456758 31137 net.cpp:157] Top shape: 8 256 10 10 (204800)
I1031 15:14:55.456759 31137 net.cpp:165] Memory required for data: 1283100736
I1031 15:14:55.456764 31137 layer_factory.hpp:77] Creating layer conv14_1/relu
I1031 15:14:55.456785 31137 net.cpp:100] Creating Layer conv14_1/relu
I1031 15:14:55.456789 31137 net.cpp:478] conv14_1/relu <- conv14_1
I1031 15:14:55.456791 31137 net.cpp:439] conv14_1/relu -> conv14_1 (in-place)
I1031 15:14:55.456796 31137 net.cpp:150] Setting up conv14_1/relu
I1031 15:14:55.456799 31137 net.cpp:157] Top shape: 8 256 10 10 (204800)
I1031 15:14:55.456801 31137 net.cpp:165] Memory required for data: 1283919936
I1031 15:14:55.456804 31137 layer_factory.hpp:77] Creating layer conv14_2
I1031 15:14:55.456811 31137 net.cpp:100] Creating Layer conv14_2
I1031 15:14:55.456815 31137 net.cpp:478] conv14_2 <- conv14_1
I1031 15:14:55.456818 31137 net.cpp:452] conv14_2 -> conv14_2
I1031 15:14:55.470296 31137 net.cpp:150] Setting up conv14_2
I1031 15:14:55.470309 31137 net.cpp:157] Top shape: 8 512 5 5 (102400)
I1031 15:14:55.470310 31137 net.cpp:165] Memory required for data: 1284329536
I1031 15:14:55.470315 31137 layer_factory.hpp:77] Creating layer conv14_2/bn
I1031 15:14:55.470321 31137 net.cpp:100] Creating Layer conv14_2/bn
I1031 15:14:55.470324 31137 net.cpp:478] conv14_2/bn <- conv14_2
I1031 15:14:55.470330 31137 net.cpp:439] conv14_2/bn -> conv14_2 (in-place)
I1031 15:14:55.470499 31137 net.cpp:150] Setting up conv14_2/bn
I1031 15:14:55.470505 31137 net.cpp:157] Top shape: 8 512 5 5 (102400)
I1031 15:14:55.470507 31137 net.cpp:165] Memory required for data: 1284739136
I1031 15:14:55.470532 31137 layer_factory.hpp:77] Creating layer conv14_2/scale
I1031 15:14:55.470538 31137 net.cpp:100] Creating Layer conv14_2/scale
I1031 15:14:55.470541 31137 net.cpp:478] conv14_2/scale <- conv14_2
I1031 15:14:55.470546 31137 net.cpp:439] conv14_2/scale -> conv14_2 (in-place)
I1031 15:14:55.470580 31137 layer_factory.hpp:77] Creating layer conv14_2/scale
I1031 15:14:55.470695 31137 net.cpp:150] Setting up conv14_2/scale
I1031 15:14:55.470700 31137 net.cpp:157] Top shape: 8 512 5 5 (102400)
I1031 15:14:55.470702 31137 net.cpp:165] Memory required for data: 1285148736
I1031 15:14:55.470707 31137 layer_factory.hpp:77] Creating layer conv14_2/relu
I1031 15:14:55.470711 31137 net.cpp:100] Creating Layer conv14_2/relu
I1031 15:14:55.470715 31137 net.cpp:478] conv14_2/relu <- conv14_2
I1031 15:14:55.470721 31137 net.cpp:439] conv14_2/relu -> conv14_2 (in-place)
I1031 15:14:55.470727 31137 net.cpp:150] Setting up conv14_2/relu
I1031 15:14:55.470733 31137 net.cpp:157] Top shape: 8 512 5 5 (102400)
I1031 15:14:55.470736 31137 net.cpp:165] Memory required for data: 1285558336
I1031 15:14:55.470741 31137 layer_factory.hpp:77] Creating layer conv14_2_conv14_2/relu_0_split
I1031 15:14:55.470747 31137 net.cpp:100] Creating Layer conv14_2_conv14_2/relu_0_split
I1031 15:14:55.470752 31137 net.cpp:478] conv14_2_conv14_2/relu_0_split <- conv14_2
I1031 15:14:55.470762 31137 net.cpp:452] conv14_2_conv14_2/relu_0_split -> conv14_2_conv14_2/relu_0_split_0
I1031 15:14:55.470768 31137 net.cpp:452] conv14_2_conv14_2/relu_0_split -> conv14_2_conv14_2/relu_0_split_1
I1031 15:14:55.470775 31137 net.cpp:452] conv14_2_conv14_2/relu_0_split -> conv14_2_conv14_2/relu_0_split_2
I1031 15:14:55.470785 31137 net.cpp:452] conv14_2_conv14_2/relu_0_split -> conv14_2_conv14_2/relu_0_split_3
I1031 15:14:55.470839 31137 net.cpp:150] Setting up conv14_2_conv14_2/relu_0_split
I1031 15:14:55.470844 31137 net.cpp:157] Top shape: 8 512 5 5 (102400)
I1031 15:14:55.470846 31137 net.cpp:157] Top shape: 8 512 5 5 (102400)
I1031 15:14:55.470865 31137 net.cpp:157] Top shape: 8 512 5 5 (102400)
I1031 15:14:55.470868 31137 net.cpp:157] Top shape: 8 512 5 5 (102400)
I1031 15:14:55.470870 31137 net.cpp:165] Memory required for data: 1287196736
I1031 15:14:55.470872 31137 layer_factory.hpp:77] Creating layer conv15_1
I1031 15:14:55.470880 31137 net.cpp:100] Creating Layer conv15_1
I1031 15:14:55.470883 31137 net.cpp:478] conv15_1 <- conv14_2_conv14_2/relu_0_split_0
I1031 15:14:55.470890 31137 net.cpp:452] conv15_1 -> conv15_1
I1031 15:14:55.471704 31137 net.cpp:150] Setting up conv15_1
I1031 15:14:55.471710 31137 net.cpp:157] Top shape: 8 128 5 5 (25600)
I1031 15:14:55.471712 31137 net.cpp:165] Memory required for data: 1287299136
I1031 15:14:55.471716 31137 layer_factory.hpp:77] Creating layer conv15_1/bn
I1031 15:14:55.471721 31137 net.cpp:100] Creating Layer conv15_1/bn
I1031 15:14:55.471724 31137 net.cpp:478] conv15_1/bn <- conv15_1
I1031 15:14:55.471727 31137 net.cpp:439] conv15_1/bn -> conv15_1 (in-place)
I1031 15:14:55.471879 31137 net.cpp:150] Setting up conv15_1/bn
I1031 15:14:55.471884 31137 net.cpp:157] Top shape: 8 128 5 5 (25600)
I1031 15:14:55.471885 31137 net.cpp:165] Memory required for data: 1287401536
I1031 15:14:55.471890 31137 layer_factory.hpp:77] Creating layer conv15_1/scale
I1031 15:14:55.471895 31137 net.cpp:100] Creating Layer conv15_1/scale
I1031 15:14:55.471899 31137 net.cpp:478] conv15_1/scale <- conv15_1
I1031 15:14:55.471904 31137 net.cpp:439] conv15_1/scale -> conv15_1 (in-place)
I1031 15:14:55.471935 31137 layer_factory.hpp:77] Creating layer conv15_1/scale
I1031 15:14:55.472045 31137 net.cpp:150] Setting up conv15_1/scale
I1031 15:14:55.472051 31137 net.cpp:157] Top shape: 8 128 5 5 (25600)
I1031 15:14:55.472054 31137 net.cpp:165] Memory required for data: 1287503936
I1031 15:14:55.472059 31137 layer_factory.hpp:77] Creating layer conv15_1/relu
I1031 15:14:55.472062 31137 net.cpp:100] Creating Layer conv15_1/relu
I1031 15:14:55.472064 31137 net.cpp:478] conv15_1/relu <- conv15_1
I1031 15:14:55.472069 31137 net.cpp:439] conv15_1/relu -> conv15_1 (in-place)
I1031 15:14:55.472081 31137 net.cpp:150] Setting up conv15_1/relu
I1031 15:14:55.472085 31137 net.cpp:157] Top shape: 8 128 5 5 (25600)
I1031 15:14:55.472087 31137 net.cpp:165] Memory required for data: 1287606336
I1031 15:14:55.472090 31137 layer_factory.hpp:77] Creating layer conv15_2
I1031 15:14:55.472097 31137 net.cpp:100] Creating Layer conv15_2
I1031 15:14:55.472100 31137 net.cpp:478] conv15_2 <- conv15_1
I1031 15:14:55.472106 31137 net.cpp:452] conv15_2 -> conv15_2
I1031 15:14:55.476143 31137 net.cpp:150] Setting up conv15_2
I1031 15:14:55.476155 31137 net.cpp:157] Top shape: 8 256 3 3 (18432)
I1031 15:14:55.476157 31137 net.cpp:165] Memory required for data: 1287680064
I1031 15:14:55.476161 31137 layer_factory.hpp:77] Creating layer conv15_2/bn
I1031 15:14:55.476168 31137 net.cpp:100] Creating Layer conv15_2/bn
I1031 15:14:55.476171 31137 net.cpp:478] conv15_2/bn <- conv15_2
I1031 15:14:55.476176 31137 net.cpp:439] conv15_2/bn -> conv15_2 (in-place)
I1031 15:14:55.476338 31137 net.cpp:150] Setting up conv15_2/bn
I1031 15:14:55.476343 31137 net.cpp:157] Top shape: 8 256 3 3 (18432)
I1031 15:14:55.476346 31137 net.cpp:165] Memory required for data: 1287753792
I1031 15:14:55.476359 31137 layer_factory.hpp:77] Creating layer conv15_2/scale
I1031 15:14:55.476366 31137 net.cpp:100] Creating Layer conv15_2/scale
I1031 15:14:55.476369 31137 net.cpp:478] conv15_2/scale <- conv15_2
I1031 15:14:55.476372 31137 net.cpp:439] conv15_2/scale -> conv15_2 (in-place)
I1031 15:14:55.476405 31137 layer_factory.hpp:77] Creating layer conv15_2/scale
I1031 15:14:55.476495 31137 net.cpp:150] Setting up conv15_2/scale
I1031 15:14:55.476500 31137 net.cpp:157] Top shape: 8 256 3 3 (18432)
I1031 15:14:55.476502 31137 net.cpp:165] Memory required for data: 1287827520
I1031 15:14:55.476506 31137 layer_factory.hpp:77] Creating layer conv15_2/relu
I1031 15:14:55.476524 31137 net.cpp:100] Creating Layer conv15_2/relu
I1031 15:14:55.476527 31137 net.cpp:478] conv15_2/relu <- conv15_2
I1031 15:14:55.476531 31137 net.cpp:439] conv15_2/relu -> conv15_2 (in-place)
I1031 15:14:55.476536 31137 net.cpp:150] Setting up conv15_2/relu
I1031 15:14:55.476539 31137 net.cpp:157] Top shape: 8 256 3 3 (18432)
I1031 15:14:55.476541 31137 net.cpp:165] Memory required for data: 1287901248
I1031 15:14:55.476543 31137 layer_factory.hpp:77] Creating layer conv15_2_conv15_2/relu_0_split
I1031 15:14:55.476548 31137 net.cpp:100] Creating Layer conv15_2_conv15_2/relu_0_split
I1031 15:14:55.476550 31137 net.cpp:478] conv15_2_conv15_2/relu_0_split <- conv15_2
I1031 15:14:55.476554 31137 net.cpp:452] conv15_2_conv15_2/relu_0_split -> conv15_2_conv15_2/relu_0_split_0
I1031 15:14:55.476560 31137 net.cpp:452] conv15_2_conv15_2/relu_0_split -> conv15_2_conv15_2/relu_0_split_1
I1031 15:14:55.476564 31137 net.cpp:452] conv15_2_conv15_2/relu_0_split -> conv15_2_conv15_2/relu_0_split_2
I1031 15:14:55.476569 31137 net.cpp:452] conv15_2_conv15_2/relu_0_split -> conv15_2_conv15_2/relu_0_split_3
I1031 15:14:55.476619 31137 net.cpp:150] Setting up conv15_2_conv15_2/relu_0_split
I1031 15:14:55.476624 31137 net.cpp:157] Top shape: 8 256 3 3 (18432)
I1031 15:14:55.476627 31137 net.cpp:157] Top shape: 8 256 3 3 (18432)
I1031 15:14:55.476630 31137 net.cpp:157] Top shape: 8 256 3 3 (18432)
I1031 15:14:55.476632 31137 net.cpp:157] Top shape: 8 256 3 3 (18432)
I1031 15:14:55.476634 31137 net.cpp:165] Memory required for data: 1288196160
I1031 15:14:55.476637 31137 layer_factory.hpp:77] Creating layer conv16_1
I1031 15:14:55.476644 31137 net.cpp:100] Creating Layer conv16_1
I1031 15:14:55.476647 31137 net.cpp:478] conv16_1 <- conv15_2_conv15_2/relu_0_split_0
I1031 15:14:55.476651 31137 net.cpp:452] conv16_1 -> conv16_1
I1031 15:14:55.477165 31137 net.cpp:150] Setting up conv16_1
I1031 15:14:55.477172 31137 net.cpp:157] Top shape: 8 128 3 3 (9216)
I1031 15:14:55.477174 31137 net.cpp:165] Memory required for data: 1288233024
I1031 15:14:55.477177 31137 layer_factory.hpp:77] Creating layer conv16_1/bn
I1031 15:14:55.477182 31137 net.cpp:100] Creating Layer conv16_1/bn
I1031 15:14:55.477195 31137 net.cpp:478] conv16_1/bn <- conv16_1
I1031 15:14:55.477200 31137 net.cpp:439] conv16_1/bn -> conv16_1 (in-place)
I1031 15:14:55.477350 31137 net.cpp:150] Setting up conv16_1/bn
I1031 15:14:55.477355 31137 net.cpp:157] Top shape: 8 128 3 3 (9216)
I1031 15:14:55.477358 31137 net.cpp:165] Memory required for data: 1288269888
I1031 15:14:55.477365 31137 layer_factory.hpp:77] Creating layer conv16_1/scale
I1031 15:14:55.477368 31137 net.cpp:100] Creating Layer conv16_1/scale
I1031 15:14:55.477371 31137 net.cpp:478] conv16_1/scale <- conv16_1
I1031 15:14:55.477375 31137 net.cpp:439] conv16_1/scale -> conv16_1 (in-place)
I1031 15:14:55.477408 31137 layer_factory.hpp:77] Creating layer conv16_1/scale
I1031 15:14:55.477495 31137 net.cpp:150] Setting up conv16_1/scale
I1031 15:14:55.477500 31137 net.cpp:157] Top shape: 8 128 3 3 (9216)
I1031 15:14:55.477502 31137 net.cpp:165] Memory required for data: 1288306752
I1031 15:14:55.477507 31137 layer_factory.hpp:77] Creating layer conv16_1/relu
I1031 15:14:55.477512 31137 net.cpp:100] Creating Layer conv16_1/relu
I1031 15:14:55.477515 31137 net.cpp:478] conv16_1/relu <- conv16_1
I1031 15:14:55.477519 31137 net.cpp:439] conv16_1/relu -> conv16_1 (in-place)
I1031 15:14:55.477522 31137 net.cpp:150] Setting up conv16_1/relu
I1031 15:14:55.477525 31137 net.cpp:157] Top shape: 8 128 3 3 (9216)
I1031 15:14:55.477527 31137 net.cpp:165] Memory required for data: 1288343616
I1031 15:14:55.477530 31137 layer_factory.hpp:77] Creating layer conv16_2
I1031 15:14:55.477536 31137 net.cpp:100] Creating Layer conv16_2
I1031 15:14:55.477540 31137 net.cpp:478] conv16_2 <- conv16_1
I1031 15:14:55.477543 31137 net.cpp:452] conv16_2 -> conv16_2
I1031 15:14:55.481509 31137 net.cpp:150] Setting up conv16_2
I1031 15:14:55.481521 31137 net.cpp:157] Top shape: 8 256 2 2 (8192)
I1031 15:14:55.481523 31137 net.cpp:165] Memory required for data: 1288376384
I1031 15:14:55.481528 31137 layer_factory.hpp:77] Creating layer conv16_2/bn
I1031 15:14:55.481534 31137 net.cpp:100] Creating Layer conv16_2/bn
I1031 15:14:55.481537 31137 net.cpp:478] conv16_2/bn <- conv16_2
I1031 15:14:55.481544 31137 net.cpp:439] conv16_2/bn -> conv16_2 (in-place)
I1031 15:14:55.481708 31137 net.cpp:150] Setting up conv16_2/bn
I1031 15:14:55.481712 31137 net.cpp:157] Top shape: 8 256 2 2 (8192)
I1031 15:14:55.485157 31137 net.cpp:165] Memory required for data: 1288409152
I1031 15:14:55.485173 31137 layer_factory.hpp:77] Creating layer conv16_2/scale
I1031 15:14:55.485180 31137 net.cpp:100] Creating Layer conv16_2/scale
I1031 15:14:55.485184 31137 net.cpp:478] conv16_2/scale <- conv16_2
I1031 15:14:55.485191 31137 net.cpp:439] conv16_2/scale -> conv16_2 (in-place)
I1031 15:14:55.485245 31137 layer_factory.hpp:77] Creating layer conv16_2/scale
I1031 15:14:55.485416 31137 net.cpp:150] Setting up conv16_2/scale
I1031 15:14:55.485424 31137 net.cpp:157] Top shape: 8 256 2 2 (8192)
I1031 15:14:55.485440 31137 net.cpp:165] Memory required for data: 1288441920
I1031 15:14:55.485446 31137 layer_factory.hpp:77] Creating layer conv16_2/relu
I1031 15:14:55.485450 31137 net.cpp:100] Creating Layer conv16_2/relu
I1031 15:14:55.485453 31137 net.cpp:478] conv16_2/relu <- conv16_2
I1031 15:14:55.485458 31137 net.cpp:439] conv16_2/relu -> conv16_2 (in-place)
I1031 15:14:55.485463 31137 net.cpp:150] Setting up conv16_2/relu
I1031 15:14:55.485466 31137 net.cpp:157] Top shape: 8 256 2 2 (8192)
I1031 15:14:55.485468 31137 net.cpp:165] Memory required for data: 1288474688
I1031 15:14:55.485471 31137 layer_factory.hpp:77] Creating layer conv16_2_conv16_2/relu_0_split
I1031 15:14:55.485476 31137 net.cpp:100] Creating Layer conv16_2_conv16_2/relu_0_split
I1031 15:14:55.485477 31137 net.cpp:478] conv16_2_conv16_2/relu_0_split <- conv16_2
I1031 15:14:55.485482 31137 net.cpp:452] conv16_2_conv16_2/relu_0_split -> conv16_2_conv16_2/relu_0_split_0
I1031 15:14:55.485488 31137 net.cpp:452] conv16_2_conv16_2/relu_0_split -> conv16_2_conv16_2/relu_0_split_1
I1031 15:14:55.485492 31137 net.cpp:452] conv16_2_conv16_2/relu_0_split -> conv16_2_conv16_2/relu_0_split_2
I1031 15:14:55.485525 31137 net.cpp:452] conv16_2_conv16_2/relu_0_split -> conv16_2_conv16_2/relu_0_split_3
I1031 15:14:55.485608 31137 net.cpp:150] Setting up conv16_2_conv16_2/relu_0_split
I1031 15:14:55.485613 31137 net.cpp:157] Top shape: 8 256 2 2 (8192)
I1031 15:14:55.485616 31137 net.cpp:157] Top shape: 8 256 2 2 (8192)
I1031 15:14:55.485618 31137 net.cpp:157] Top shape: 8 256 2 2 (8192)
I1031 15:14:55.485621 31137 net.cpp:157] Top shape: 8 256 2 2 (8192)
I1031 15:14:55.485623 31137 net.cpp:165] Memory required for data: 1288605760
I1031 15:14:55.485625 31137 layer_factory.hpp:77] Creating layer conv17_1
I1031 15:14:55.485633 31137 net.cpp:100] Creating Layer conv17_1
I1031 15:14:55.485636 31137 net.cpp:478] conv17_1 <- conv16_2_conv16_2/relu_0_split_0
I1031 15:14:55.485641 31137 net.cpp:452] conv17_1 -> conv17_1
I1031 15:14:55.485958 31137 net.cpp:150] Setting up conv17_1
I1031 15:14:55.485966 31137 net.cpp:157] Top shape: 8 64 2 2 (2048)
I1031 15:14:55.485968 31137 net.cpp:165] Memory required for data: 1288613952
I1031 15:14:55.485988 31137 layer_factory.hpp:77] Creating layer conv17_1/bn
I1031 15:14:55.485993 31137 net.cpp:100] Creating Layer conv17_1/bn
I1031 15:14:55.485996 31137 net.cpp:478] conv17_1/bn <- conv17_1
I1031 15:14:55.485999 31137 net.cpp:439] conv17_1/bn -> conv17_1 (in-place)
I1031 15:14:55.486259 31137 net.cpp:150] Setting up conv17_1/bn
I1031 15:14:55.486281 31137 net.cpp:157] Top shape: 8 64 2 2 (2048)
I1031 15:14:55.486284 31137 net.cpp:165] Memory required for data: 1288622144
I1031 15:14:55.486289 31137 layer_factory.hpp:77] Creating layer conv17_1/scale
I1031 15:14:55.486295 31137 net.cpp:100] Creating Layer conv17_1/scale
I1031 15:14:55.486299 31137 net.cpp:478] conv17_1/scale <- conv17_1
I1031 15:14:55.486302 31137 net.cpp:439] conv17_1/scale -> conv17_1 (in-place)
I1031 15:14:55.486340 31137 layer_factory.hpp:77] Creating layer conv17_1/scale
I1031 15:14:55.486454 31137 net.cpp:150] Setting up conv17_1/scale
I1031 15:14:55.486459 31137 net.cpp:157] Top shape: 8 64 2 2 (2048)
I1031 15:14:55.486461 31137 net.cpp:165] Memory required for data: 1288630336
I1031 15:14:55.486465 31137 layer_factory.hpp:77] Creating layer conv17_1/relu
I1031 15:14:55.486469 31137 net.cpp:100] Creating Layer conv17_1/relu
I1031 15:14:55.486472 31137 net.cpp:478] conv17_1/relu <- conv17_1
I1031 15:14:55.486477 31137 net.cpp:439] conv17_1/relu -> conv17_1 (in-place)
I1031 15:14:55.486481 31137 net.cpp:150] Setting up conv17_1/relu
I1031 15:14:55.486485 31137 net.cpp:157] Top shape: 8 64 2 2 (2048)
I1031 15:14:55.486486 31137 net.cpp:165] Memory required for data: 1288638528
I1031 15:14:55.486488 31137 layer_factory.hpp:77] Creating layer conv17_2
I1031 15:14:55.486495 31137 net.cpp:100] Creating Layer conv17_2
I1031 15:14:55.486496 31137 net.cpp:478] conv17_2 <- conv17_1
I1031 15:14:55.486501 31137 net.cpp:452] conv17_2 -> conv17_2
I1031 15:14:55.488363 31137 net.cpp:150] Setting up conv17_2
I1031 15:14:55.488376 31137 net.cpp:157] Top shape: 8 128 1 1 (1024)
I1031 15:14:55.488379 31137 net.cpp:165] Memory required for data: 1288642624
I1031 15:14:55.488382 31137 layer_factory.hpp:77] Creating layer conv17_2/bn
I1031 15:14:55.488389 31137 net.cpp:100] Creating Layer conv17_2/bn
I1031 15:14:55.488391 31137 net.cpp:478] conv17_2/bn <- conv17_2
I1031 15:14:55.488397 31137 net.cpp:439] conv17_2/bn -> conv17_2 (in-place)
I1031 15:14:55.488564 31137 net.cpp:150] Setting up conv17_2/bn
I1031 15:14:55.488569 31137 net.cpp:157] Top shape: 8 128 1 1 (1024)
I1031 15:14:55.488571 31137 net.cpp:165] Memory required for data: 1288646720
I1031 15:14:55.488577 31137 layer_factory.hpp:77] Creating layer conv17_2/scale
I1031 15:14:55.488582 31137 net.cpp:100] Creating Layer conv17_2/scale
I1031 15:14:55.488585 31137 net.cpp:478] conv17_2/scale <- conv17_2
I1031 15:14:55.488591 31137 net.cpp:439] conv17_2/scale -> conv17_2 (in-place)
I1031 15:14:55.488623 31137 layer_factory.hpp:77] Creating layer conv17_2/scale
I1031 15:14:55.488709 31137 net.cpp:150] Setting up conv17_2/scale
I1031 15:14:55.488714 31137 net.cpp:157] Top shape: 8 128 1 1 (1024)
I1031 15:14:55.488728 31137 net.cpp:165] Memory required for data: 1288650816
I1031 15:14:55.488732 31137 layer_factory.hpp:77] Creating layer conv17_2/relu
I1031 15:14:55.488736 31137 net.cpp:100] Creating Layer conv17_2/relu
I1031 15:14:55.488739 31137 net.cpp:478] conv17_2/relu <- conv17_2
I1031 15:14:55.488745 31137 net.cpp:439] conv17_2/relu -> conv17_2 (in-place)
I1031 15:14:55.488749 31137 net.cpp:150] Setting up conv17_2/relu
I1031 15:14:55.488752 31137 net.cpp:157] Top shape: 8 128 1 1 (1024)
I1031 15:14:55.488754 31137 net.cpp:165] Memory required for data: 1288654912
I1031 15:14:55.488756 31137 layer_factory.hpp:77] Creating layer conv17_2_conv17_2/relu_0_split
I1031 15:14:55.488760 31137 net.cpp:100] Creating Layer conv17_2_conv17_2/relu_0_split
I1031 15:14:55.488762 31137 net.cpp:478] conv17_2_conv17_2/relu_0_split <- conv17_2
I1031 15:14:55.488767 31137 net.cpp:452] conv17_2_conv17_2/relu_0_split -> conv17_2_conv17_2/relu_0_split_0
I1031 15:14:55.488782 31137 net.cpp:452] conv17_2_conv17_2/relu_0_split -> conv17_2_conv17_2/relu_0_split_1
I1031 15:14:55.488787 31137 net.cpp:452] conv17_2_conv17_2/relu_0_split -> conv17_2_conv17_2/relu_0_split_2
I1031 15:14:55.488848 31137 net.cpp:150] Setting up conv17_2_conv17_2/relu_0_split
I1031 15:14:55.488853 31137 net.cpp:157] Top shape: 8 128 1 1 (1024)
I1031 15:14:55.488857 31137 net.cpp:157] Top shape: 8 128 1 1 (1024)
I1031 15:14:55.488859 31137 net.cpp:157] Top shape: 8 128 1 1 (1024)
I1031 15:14:55.488862 31137 net.cpp:165] Memory required for data: 1288667200
I1031 15:14:55.488863 31137 layer_factory.hpp:77] Creating layer conv11_mbox_loc
I1031 15:14:55.488874 31137 net.cpp:100] Creating Layer conv11_mbox_loc
I1031 15:14:55.488891 31137 net.cpp:478] conv11_mbox_loc <- conv11_conv11/relu_0_split_1
I1031 15:14:55.488896 31137 net.cpp:452] conv11_mbox_loc -> conv11_mbox_loc
I1031 15:14:55.489195 31137 net.cpp:150] Setting up conv11_mbox_loc
I1031 15:14:55.489202 31137 net.cpp:157] Top shape: 8 12 19 19 (34656)
I1031 15:14:55.489204 31137 net.cpp:165] Memory required for data: 1288805824
I1031 15:14:55.489209 31137 layer_factory.hpp:77] Creating layer conv11_mbox_loc_perm
I1031 15:14:55.489217 31137 net.cpp:100] Creating Layer conv11_mbox_loc_perm
I1031 15:14:55.489219 31137 net.cpp:478] conv11_mbox_loc_perm <- conv11_mbox_loc
I1031 15:14:55.489224 31137 net.cpp:452] conv11_mbox_loc_perm -> conv11_mbox_loc_perm
I1031 15:14:55.489315 31137 net.cpp:150] Setting up conv11_mbox_loc_perm
I1031 15:14:55.489320 31137 net.cpp:157] Top shape: 8 19 19 12 (34656)
I1031 15:14:55.489321 31137 net.cpp:165] Memory required for data: 1288944448
I1031 15:14:55.489325 31137 layer_factory.hpp:77] Creating layer conv11_mbox_loc_flat
I1031 15:14:55.489331 31137 net.cpp:100] Creating Layer conv11_mbox_loc_flat
I1031 15:14:55.489332 31137 net.cpp:478] conv11_mbox_loc_flat <- conv11_mbox_loc_perm
I1031 15:14:55.489338 31137 net.cpp:452] conv11_mbox_loc_flat -> conv11_mbox_loc_flat
I1031 15:14:55.489359 31137 net.cpp:150] Setting up conv11_mbox_loc_flat
I1031 15:14:55.489363 31137 net.cpp:157] Top shape: 8 4332 (34656)
I1031 15:14:55.489365 31137 net.cpp:165] Memory required for data: 1289083072
I1031 15:14:55.489367 31137 layer_factory.hpp:77] Creating layer conv11_mbox_conf_new
I1031 15:14:55.489375 31137 net.cpp:100] Creating Layer conv11_mbox_conf_new
I1031 15:14:55.489377 31137 net.cpp:478] conv11_mbox_conf_new <- conv11_conv11/relu_0_split_2
I1031 15:14:55.489384 31137 net.cpp:452] conv11_mbox_conf_new -> conv11_mbox_conf
I1031 15:14:55.491058 31137 net.cpp:150] Setting up conv11_mbox_conf_new
I1031 15:14:55.491075 31137 net.cpp:157] Top shape: 8 63 19 19 (181944)
I1031 15:14:55.491078 31137 net.cpp:165] Memory required for data: 1289810848
I1031 15:14:55.491084 31137 layer_factory.hpp:77] Creating layer conv11_mbox_conf_perm
I1031 15:14:55.491092 31137 net.cpp:100] Creating Layer conv11_mbox_conf_perm
I1031 15:14:55.491096 31137 net.cpp:478] conv11_mbox_conf_perm <- conv11_mbox_conf
I1031 15:14:55.491101 31137 net.cpp:452] conv11_mbox_conf_perm -> conv11_mbox_conf_perm
I1031 15:14:55.491204 31137 net.cpp:150] Setting up conv11_mbox_conf_perm
I1031 15:14:55.491209 31137 net.cpp:157] Top shape: 8 19 19 63 (181944)
I1031 15:14:55.491211 31137 net.cpp:165] Memory required for data: 1290538624
I1031 15:14:55.491214 31137 layer_factory.hpp:77] Creating layer conv11_mbox_conf_flat
I1031 15:14:55.491220 31137 net.cpp:100] Creating Layer conv11_mbox_conf_flat
I1031 15:14:55.491224 31137 net.cpp:478] conv11_mbox_conf_flat <- conv11_mbox_conf_perm
I1031 15:14:55.491227 31137 net.cpp:452] conv11_mbox_conf_flat -> conv11_mbox_conf_flat
I1031 15:14:55.491250 31137 net.cpp:150] Setting up conv11_mbox_conf_flat
I1031 15:14:55.491255 31137 net.cpp:157] Top shape: 8 22743 (181944)
I1031 15:14:55.491257 31137 net.cpp:165] Memory required for data: 1291266400
I1031 15:14:55.491259 31137 layer_factory.hpp:77] Creating layer conv11_mbox_priorbox
I1031 15:14:55.491276 31137 net.cpp:100] Creating Layer conv11_mbox_priorbox
I1031 15:14:55.491278 31137 net.cpp:478] conv11_mbox_priorbox <- conv11_conv11/relu_0_split_3
I1031 15:14:55.491282 31137 net.cpp:478] conv11_mbox_priorbox <- data_data_0_split_1
I1031 15:14:55.491287 31137 net.cpp:452] conv11_mbox_priorbox -> conv11_mbox_priorbox
I1031 15:14:55.491312 31137 net.cpp:150] Setting up conv11_mbox_priorbox
I1031 15:14:55.491315 31137 net.cpp:157] Top shape: 1 2 4332 (8664)
I1031 15:14:55.491317 31137 net.cpp:165] Memory required for data: 1291301056
I1031 15:14:55.491319 31137 layer_factory.hpp:77] Creating layer conv13_mbox_loc
I1031 15:14:55.491328 31137 net.cpp:100] Creating Layer conv13_mbox_loc
I1031 15:14:55.491330 31137 net.cpp:478] conv13_mbox_loc <- conv13_conv13/relu_0_split_1
I1031 15:14:55.491338 31137 net.cpp:452] conv13_mbox_loc -> conv13_mbox_loc
I1031 15:14:55.491740 31137 net.cpp:150] Setting up conv13_mbox_loc
I1031 15:14:55.491746 31137 net.cpp:157] Top shape: 8 24 10 10 (19200)
I1031 15:14:55.491750 31137 net.cpp:165] Memory required for data: 1291377856
I1031 15:14:55.491753 31137 layer_factory.hpp:77] Creating layer conv13_mbox_loc_perm
I1031 15:14:55.491773 31137 net.cpp:100] Creating Layer conv13_mbox_loc_perm
I1031 15:14:55.491775 31137 net.cpp:478] conv13_mbox_loc_perm <- conv13_mbox_loc
I1031 15:14:55.491782 31137 net.cpp:452] conv13_mbox_loc_perm -> conv13_mbox_loc_perm
I1031 15:14:55.491866 31137 net.cpp:150] Setting up conv13_mbox_loc_perm
I1031 15:14:55.491871 31137 net.cpp:157] Top shape: 8 10 10 24 (19200)
I1031 15:14:55.491873 31137 net.cpp:165] Memory required for data: 1291454656
I1031 15:14:55.491875 31137 layer_factory.hpp:77] Creating layer conv13_mbox_loc_flat
I1031 15:14:55.491879 31137 net.cpp:100] Creating Layer conv13_mbox_loc_flat
I1031 15:14:55.491883 31137 net.cpp:478] conv13_mbox_loc_flat <- conv13_mbox_loc_perm
I1031 15:14:55.491888 31137 net.cpp:452] conv13_mbox_loc_flat -> conv13_mbox_loc_flat
I1031 15:14:55.491907 31137 net.cpp:150] Setting up conv13_mbox_loc_flat
I1031 15:14:55.491911 31137 net.cpp:157] Top shape: 8 2400 (19200)
I1031 15:14:55.491914 31137 net.cpp:165] Memory required for data: 1291531456
I1031 15:14:55.491915 31137 layer_factory.hpp:77] Creating layer conv13_mbox_conf_new
I1031 15:14:55.491924 31137 net.cpp:100] Creating Layer conv13_mbox_conf_new
I1031 15:14:55.491925 31137 net.cpp:478] conv13_mbox_conf_new <- conv13_conv13/relu_0_split_2
I1031 15:14:55.491931 31137 net.cpp:452] conv13_mbox_conf_new -> conv13_mbox_conf
I1031 15:14:55.493486 31137 net.cpp:150] Setting up conv13_mbox_conf_new
I1031 15:14:55.493494 31137 net.cpp:157] Top shape: 8 126 10 10 (100800)
I1031 15:14:55.493496 31137 net.cpp:165] Memory required for data: 1291934656
I1031 15:14:55.493501 31137 layer_factory.hpp:77] Creating layer conv13_mbox_conf_perm
I1031 15:14:55.493506 31137 net.cpp:100] Creating Layer conv13_mbox_conf_perm
I1031 15:14:55.493510 31137 net.cpp:478] conv13_mbox_conf_perm <- conv13_mbox_conf
I1031 15:14:55.493515 31137 net.cpp:452] conv13_mbox_conf_perm -> conv13_mbox_conf_perm
I1031 15:14:55.493607 31137 net.cpp:150] Setting up conv13_mbox_conf_perm
I1031 15:14:55.493611 31137 net.cpp:157] Top shape: 8 10 10 126 (100800)
I1031 15:14:55.493623 31137 net.cpp:165] Memory required for data: 1292337856
I1031 15:14:55.493625 31137 layer_factory.hpp:77] Creating layer conv13_mbox_conf_flat
I1031 15:14:55.493630 31137 net.cpp:100] Creating Layer conv13_mbox_conf_flat
I1031 15:14:55.493633 31137 net.cpp:478] conv13_mbox_conf_flat <- conv13_mbox_conf_perm
I1031 15:14:55.493640 31137 net.cpp:452] conv13_mbox_conf_flat -> conv13_mbox_conf_flat
I1031 15:14:55.493664 31137 net.cpp:150] Setting up conv13_mbox_conf_flat
I1031 15:14:55.493667 31137 net.cpp:157] Top shape: 8 12600 (100800)
I1031 15:14:55.493669 31137 net.cpp:165] Memory required for data: 1292741056
I1031 15:14:55.493672 31137 layer_factory.hpp:77] Creating layer conv13_mbox_priorbox
I1031 15:14:55.493677 31137 net.cpp:100] Creating Layer conv13_mbox_priorbox
I1031 15:14:55.493680 31137 net.cpp:478] conv13_mbox_priorbox <- conv13_conv13/relu_0_split_3
I1031 15:14:55.493683 31137 net.cpp:478] conv13_mbox_priorbox <- data_data_0_split_2
I1031 15:14:55.493690 31137 net.cpp:452] conv13_mbox_priorbox -> conv13_mbox_priorbox
I1031 15:14:55.493712 31137 net.cpp:150] Setting up conv13_mbox_priorbox
I1031 15:14:55.493716 31137 net.cpp:157] Top shape: 1 2 2400 (4800)
I1031 15:14:55.493718 31137 net.cpp:165] Memory required for data: 1292760256
I1031 15:14:55.493721 31137 layer_factory.hpp:77] Creating layer conv14_2_mbox_loc
I1031 15:14:55.493728 31137 net.cpp:100] Creating Layer conv14_2_mbox_loc
I1031 15:14:55.493731 31137 net.cpp:478] conv14_2_mbox_loc <- conv14_2_conv14_2/relu_0_split_1
I1031 15:14:55.493737 31137 net.cpp:452] conv14_2_mbox_loc -> conv14_2_mbox_loc
I1031 15:14:55.494135 31137 net.cpp:150] Setting up conv14_2_mbox_loc
I1031 15:14:55.494143 31137 net.cpp:157] Top shape: 8 24 5 5 (4800)
I1031 15:14:55.494160 31137 net.cpp:165] Memory required for data: 1292779456
I1031 15:14:55.494165 31137 layer_factory.hpp:77] Creating layer conv14_2_mbox_loc_perm
I1031 15:14:55.494171 31137 net.cpp:100] Creating Layer conv14_2_mbox_loc_perm
I1031 15:14:55.494174 31137 net.cpp:478] conv14_2_mbox_loc_perm <- conv14_2_mbox_loc
I1031 15:14:55.494180 31137 net.cpp:452] conv14_2_mbox_loc_perm -> conv14_2_mbox_loc_perm
I1031 15:14:55.497167 31137 net.cpp:150] Setting up conv14_2_mbox_loc_perm
I1031 15:14:55.497179 31137 net.cpp:157] Top shape: 8 5 5 24 (4800)
I1031 15:14:55.497181 31137 net.cpp:165] Memory required for data: 1292798656
I1031 15:14:55.497184 31137 layer_factory.hpp:77] Creating layer conv14_2_mbox_loc_flat
I1031 15:14:55.497190 31137 net.cpp:100] Creating Layer conv14_2_mbox_loc_flat
I1031 15:14:55.497195 31137 net.cpp:478] conv14_2_mbox_loc_flat <- conv14_2_mbox_loc_perm
I1031 15:14:55.497200 31137 net.cpp:452] conv14_2_mbox_loc_flat -> conv14_2_mbox_loc_flat
I1031 15:14:55.497225 31137 net.cpp:150] Setting up conv14_2_mbox_loc_flat
I1031 15:14:55.497231 31137 net.cpp:157] Top shape: 8 600 (4800)
I1031 15:14:55.497231 31137 net.cpp:165] Memory required for data: 1292817856
I1031 15:14:55.497234 31137 layer_factory.hpp:77] Creating layer conv14_2_mbox_conf_new
I1031 15:14:55.497242 31137 net.cpp:100] Creating Layer conv14_2_mbox_conf_new
I1031 15:14:55.497246 31137 net.cpp:478] conv14_2_mbox_conf_new <- conv14_2_conv14_2/relu_0_split_2
I1031 15:14:55.497252 31137 net.cpp:452] conv14_2_mbox_conf_new -> conv14_2_mbox_conf
I1031 15:14:55.498078 31137 net.cpp:150] Setting up conv14_2_mbox_conf_new
I1031 15:14:55.498087 31137 net.cpp:157] Top shape: 8 126 5 5 (25200)
I1031 15:14:55.498090 31137 net.cpp:165] Memory required for data: 1292918656
I1031 15:14:55.498095 31137 layer_factory.hpp:77] Creating layer conv14_2_mbox_conf_perm
I1031 15:14:55.498100 31137 net.cpp:100] Creating Layer conv14_2_mbox_conf_perm
I1031 15:14:55.498103 31137 net.cpp:478] conv14_2_mbox_conf_perm <- conv14_2_mbox_conf
I1031 15:14:55.498109 31137 net.cpp:452] conv14_2_mbox_conf_perm -> conv14_2_mbox_conf_perm
I1031 15:14:55.498201 31137 net.cpp:150] Setting up conv14_2_mbox_conf_perm
I1031 15:14:55.498206 31137 net.cpp:157] Top shape: 8 5 5 126 (25200)
I1031 15:14:55.498208 31137 net.cpp:165] Memory required for data: 1293019456
I1031 15:14:55.498221 31137 layer_factory.hpp:77] Creating layer conv14_2_mbox_conf_flat
I1031 15:14:55.498226 31137 net.cpp:100] Creating Layer conv14_2_mbox_conf_flat
I1031 15:14:55.498229 31137 net.cpp:478] conv14_2_mbox_conf_flat <- conv14_2_mbox_conf_perm
I1031 15:14:55.498235 31137 net.cpp:452] conv14_2_mbox_conf_flat -> conv14_2_mbox_conf_flat
I1031 15:14:55.498271 31137 net.cpp:150] Setting up conv14_2_mbox_conf_flat
I1031 15:14:55.498275 31137 net.cpp:157] Top shape: 8 3150 (25200)
I1031 15:14:55.498277 31137 net.cpp:165] Memory required for data: 1293120256
I1031 15:14:55.498280 31137 layer_factory.hpp:77] Creating layer conv14_2_mbox_priorbox
I1031 15:14:55.498302 31137 net.cpp:100] Creating Layer conv14_2_mbox_priorbox
I1031 15:14:55.498306 31137 net.cpp:478] conv14_2_mbox_priorbox <- conv14_2_conv14_2/relu_0_split_3
I1031 15:14:55.498309 31137 net.cpp:478] conv14_2_mbox_priorbox <- data_data_0_split_3
I1031 15:14:55.498320 31137 net.cpp:452] conv14_2_mbox_priorbox -> conv14_2_mbox_priorbox
I1031 15:14:55.498345 31137 net.cpp:150] Setting up conv14_2_mbox_priorbox
I1031 15:14:55.498349 31137 net.cpp:157] Top shape: 1 2 600 (1200)
I1031 15:14:55.498352 31137 net.cpp:165] Memory required for data: 1293125056
I1031 15:14:55.498353 31137 layer_factory.hpp:77] Creating layer conv15_2_mbox_loc
I1031 15:14:55.498361 31137 net.cpp:100] Creating Layer conv15_2_mbox_loc
I1031 15:14:55.498363 31137 net.cpp:478] conv15_2_mbox_loc <- conv15_2_conv15_2/relu_0_split_1
I1031 15:14:55.498369 31137 net.cpp:452] conv15_2_mbox_loc -> conv15_2_mbox_loc
I1031 15:14:55.498615 31137 net.cpp:150] Setting up conv15_2_mbox_loc
I1031 15:14:55.498621 31137 net.cpp:157] Top shape: 8 24 3 3 (1728)
I1031 15:14:55.498623 31137 net.cpp:165] Memory required for data: 1293131968
I1031 15:14:55.498642 31137 layer_factory.hpp:77] Creating layer conv15_2_mbox_loc_perm
I1031 15:14:55.498647 31137 net.cpp:100] Creating Layer conv15_2_mbox_loc_perm
I1031 15:14:55.498651 31137 net.cpp:478] conv15_2_mbox_loc_perm <- conv15_2_mbox_loc
I1031 15:14:55.498656 31137 net.cpp:452] conv15_2_mbox_loc_perm -> conv15_2_mbox_loc_perm
I1031 15:14:55.498757 31137 net.cpp:150] Setting up conv15_2_mbox_loc_perm
I1031 15:14:55.498777 31137 net.cpp:157] Top shape: 8 3 3 24 (1728)
I1031 15:14:55.498780 31137 net.cpp:165] Memory required for data: 1293138880
I1031 15:14:55.498781 31137 layer_factory.hpp:77] Creating layer conv15_2_mbox_loc_flat
I1031 15:14:55.498785 31137 net.cpp:100] Creating Layer conv15_2_mbox_loc_flat
I1031 15:14:55.498788 31137 net.cpp:478] conv15_2_mbox_loc_flat <- conv15_2_mbox_loc_perm
I1031 15:14:55.498793 31137 net.cpp:452] conv15_2_mbox_loc_flat -> conv15_2_mbox_loc_flat
I1031 15:14:55.498811 31137 net.cpp:150] Setting up conv15_2_mbox_loc_flat
I1031 15:14:55.498814 31137 net.cpp:157] Top shape: 8 216 (1728)
I1031 15:14:55.498816 31137 net.cpp:165] Memory required for data: 1293145792
I1031 15:14:55.498818 31137 layer_factory.hpp:77] Creating layer conv15_2_mbox_conf_new
I1031 15:14:55.498826 31137 net.cpp:100] Creating Layer conv15_2_mbox_conf_new
I1031 15:14:55.498829 31137 net.cpp:478] conv15_2_mbox_conf_new <- conv15_2_conv15_2/relu_0_split_2
I1031 15:14:55.498833 31137 net.cpp:452] conv15_2_mbox_conf_new -> conv15_2_mbox_conf
I1031 15:14:55.499368 31137 net.cpp:150] Setting up conv15_2_mbox_conf_new
I1031 15:14:55.499374 31137 net.cpp:157] Top shape: 8 126 3 3 (9072)
I1031 15:14:55.499377 31137 net.cpp:165] Memory required for data: 1293182080
I1031 15:14:55.499382 31137 layer_factory.hpp:77] Creating layer conv15_2_mbox_conf_perm
I1031 15:14:55.499387 31137 net.cpp:100] Creating Layer conv15_2_mbox_conf_perm
I1031 15:14:55.499389 31137 net.cpp:478] conv15_2_mbox_conf_perm <- conv15_2_mbox_conf
I1031 15:14:55.499395 31137 net.cpp:452] conv15_2_mbox_conf_perm -> conv15_2_mbox_conf_perm
I1031 15:14:55.499480 31137 net.cpp:150] Setting up conv15_2_mbox_conf_perm
I1031 15:14:55.499487 31137 net.cpp:157] Top shape: 8 3 3 126 (9072)
I1031 15:14:55.499490 31137 net.cpp:165] Memory required for data: 1293218368
I1031 15:14:55.499500 31137 layer_factory.hpp:77] Creating layer conv15_2_mbox_conf_flat
I1031 15:14:55.499503 31137 net.cpp:100] Creating Layer conv15_2_mbox_conf_flat
I1031 15:14:55.499506 31137 net.cpp:478] conv15_2_mbox_conf_flat <- conv15_2_mbox_conf_perm
I1031 15:14:55.499512 31137 net.cpp:452] conv15_2_mbox_conf_flat -> conv15_2_mbox_conf_flat
I1031 15:14:55.499547 31137 net.cpp:150] Setting up conv15_2_mbox_conf_flat
I1031 15:14:55.499550 31137 net.cpp:157] Top shape: 8 1134 (9072)
I1031 15:14:55.499552 31137 net.cpp:165] Memory required for data: 1293254656
I1031 15:14:55.499554 31137 layer_factory.hpp:77] Creating layer conv15_2_mbox_priorbox
I1031 15:14:55.499562 31137 net.cpp:100] Creating Layer conv15_2_mbox_priorbox
I1031 15:14:55.499563 31137 net.cpp:478] conv15_2_mbox_priorbox <- conv15_2_conv15_2/relu_0_split_3
I1031 15:14:55.499567 31137 net.cpp:478] conv15_2_mbox_priorbox <- data_data_0_split_4
I1031 15:14:55.499572 31137 net.cpp:452] conv15_2_mbox_priorbox -> conv15_2_mbox_priorbox
I1031 15:14:55.499593 31137 net.cpp:150] Setting up conv15_2_mbox_priorbox
I1031 15:14:55.499598 31137 net.cpp:157] Top shape: 1 2 216 (432)
I1031 15:14:55.499616 31137 net.cpp:165] Memory required for data: 1293256384
I1031 15:14:55.499619 31137 layer_factory.hpp:77] Creating layer conv16_2_mbox_loc
I1031 15:14:55.499629 31137 net.cpp:100] Creating Layer conv16_2_mbox_loc
I1031 15:14:55.499631 31137 net.cpp:478] conv16_2_mbox_loc <- conv16_2_conv16_2/relu_0_split_1
I1031 15:14:55.499636 31137 net.cpp:452] conv16_2_mbox_loc -> conv16_2_mbox_loc
I1031 15:14:55.499907 31137 net.cpp:150] Setting up conv16_2_mbox_loc
I1031 15:14:55.499912 31137 net.cpp:157] Top shape: 8 24 2 2 (768)
I1031 15:14:55.499913 31137 net.cpp:165] Memory required for data: 1293259456
I1031 15:14:55.499917 31137 layer_factory.hpp:77] Creating layer conv16_2_mbox_loc_perm
I1031 15:14:55.499922 31137 net.cpp:100] Creating Layer conv16_2_mbox_loc_perm
I1031 15:14:55.499924 31137 net.cpp:478] conv16_2_mbox_loc_perm <- conv16_2_mbox_loc
I1031 15:14:55.499930 31137 net.cpp:452] conv16_2_mbox_loc_perm -> conv16_2_mbox_loc_perm
I1031 15:14:55.500030 31137 net.cpp:150] Setting up conv16_2_mbox_loc_perm
I1031 15:14:55.500035 31137 net.cpp:157] Top shape: 8 2 2 24 (768)
I1031 15:14:55.500036 31137 net.cpp:165] Memory required for data: 1293262528
I1031 15:14:55.500038 31137 layer_factory.hpp:77] Creating layer conv16_2_mbox_loc_flat
I1031 15:14:55.500044 31137 net.cpp:100] Creating Layer conv16_2_mbox_loc_flat
I1031 15:14:55.500046 31137 net.cpp:478] conv16_2_mbox_loc_flat <- conv16_2_mbox_loc_perm
I1031 15:14:55.500058 31137 net.cpp:452] conv16_2_mbox_loc_flat -> conv16_2_mbox_loc_flat
I1031 15:14:55.500079 31137 net.cpp:150] Setting up conv16_2_mbox_loc_flat
I1031 15:14:55.500083 31137 net.cpp:157] Top shape: 8 96 (768)
I1031 15:14:55.500085 31137 net.cpp:165] Memory required for data: 1293265600
I1031 15:14:55.500087 31137 layer_factory.hpp:77] Creating layer conv16_2_mbox_conf_new
I1031 15:14:55.500097 31137 net.cpp:100] Creating Layer conv16_2_mbox_conf_new
I1031 15:14:55.500099 31137 net.cpp:478] conv16_2_mbox_conf_new <- conv16_2_conv16_2/relu_0_split_2
I1031 15:14:55.500104 31137 net.cpp:452] conv16_2_mbox_conf_new -> conv16_2_mbox_conf
I1031 15:14:55.500627 31137 net.cpp:150] Setting up conv16_2_mbox_conf_new
I1031 15:14:55.500633 31137 net.cpp:157] Top shape: 8 126 2 2 (4032)
I1031 15:14:55.500635 31137 net.cpp:165] Memory required for data: 1293281728
I1031 15:14:55.500640 31137 layer_factory.hpp:77] Creating layer conv16_2_mbox_conf_perm
I1031 15:14:55.500644 31137 net.cpp:100] Creating Layer conv16_2_mbox_conf_perm
I1031 15:14:55.500648 31137 net.cpp:478] conv16_2_mbox_conf_perm <- conv16_2_mbox_conf
I1031 15:14:55.500653 31137 net.cpp:452] conv16_2_mbox_conf_perm -> conv16_2_mbox_conf_perm
I1031 15:14:55.500743 31137 net.cpp:150] Setting up conv16_2_mbox_conf_perm
I1031 15:14:55.500749 31137 net.cpp:157] Top shape: 8 2 2 126 (4032)
I1031 15:14:55.500752 31137 net.cpp:165] Memory required for data: 1293297856
I1031 15:14:55.500754 31137 layer_factory.hpp:77] Creating layer conv16_2_mbox_conf_flat
I1031 15:14:55.500766 31137 net.cpp:100] Creating Layer conv16_2_mbox_conf_flat
I1031 15:14:55.500771 31137 net.cpp:478] conv16_2_mbox_conf_flat <- conv16_2_mbox_conf_perm
I1031 15:14:55.500777 31137 net.cpp:452] conv16_2_mbox_conf_flat -> conv16_2_mbox_conf_flat
I1031 15:14:55.500797 31137 net.cpp:150] Setting up conv16_2_mbox_conf_flat
I1031 15:14:55.500802 31137 net.cpp:157] Top shape: 8 504 (4032)
I1031 15:14:55.500803 31137 net.cpp:165] Memory required for data: 1293313984
I1031 15:14:55.500807 31137 layer_factory.hpp:77] Creating layer conv16_2_mbox_priorbox
I1031 15:14:55.500813 31137 net.cpp:100] Creating Layer conv16_2_mbox_priorbox
I1031 15:14:55.500815 31137 net.cpp:478] conv16_2_mbox_priorbox <- conv16_2_conv16_2/relu_0_split_3
I1031 15:14:55.500819 31137 net.cpp:478] conv16_2_mbox_priorbox <- data_data_0_split_5
I1031 15:14:55.500825 31137 net.cpp:452] conv16_2_mbox_priorbox -> conv16_2_mbox_priorbox
I1031 15:14:55.500862 31137 net.cpp:150] Setting up conv16_2_mbox_priorbox
I1031 15:14:55.500866 31137 net.cpp:157] Top shape: 1 2 96 (192)
I1031 15:14:55.500869 31137 net.cpp:165] Memory required for data: 1293314752
I1031 15:14:55.500870 31137 layer_factory.hpp:77] Creating layer conv17_2_mbox_loc
I1031 15:14:55.500880 31137 net.cpp:100] Creating Layer conv17_2_mbox_loc
I1031 15:14:55.500883 31137 net.cpp:478] conv17_2_mbox_loc <- conv17_2_conv17_2/relu_0_split_0
I1031 15:14:55.500887 31137 net.cpp:452] conv17_2_mbox_loc -> conv17_2_mbox_loc
I1031 15:14:55.501189 31137 net.cpp:150] Setting up conv17_2_mbox_loc
I1031 15:14:55.501195 31137 net.cpp:157] Top shape: 8 24 1 1 (192)
I1031 15:14:55.501197 31137 net.cpp:165] Memory required for data: 1293315520
I1031 15:14:55.501202 31137 layer_factory.hpp:77] Creating layer conv17_2_mbox_loc_perm
I1031 15:14:55.501209 31137 net.cpp:100] Creating Layer conv17_2_mbox_loc_perm
I1031 15:14:55.501210 31137 net.cpp:478] conv17_2_mbox_loc_perm <- conv17_2_mbox_loc
I1031 15:14:55.501216 31137 net.cpp:452] conv17_2_mbox_loc_perm -> conv17_2_mbox_loc_perm
I1031 15:14:55.501312 31137 net.cpp:150] Setting up conv17_2_mbox_loc_perm
I1031 15:14:55.501317 31137 net.cpp:157] Top shape: 8 1 1 24 (192)
I1031 15:14:55.501318 31137 net.cpp:165] Memory required for data: 1293316288
I1031 15:14:55.501320 31137 layer_factory.hpp:77] Creating layer conv17_2_mbox_loc_flat
I1031 15:14:55.501341 31137 net.cpp:100] Creating Layer conv17_2_mbox_loc_flat
I1031 15:14:55.501344 31137 net.cpp:478] conv17_2_mbox_loc_flat <- conv17_2_mbox_loc_perm
I1031 15:14:55.501350 31137 net.cpp:452] conv17_2_mbox_loc_flat -> conv17_2_mbox_loc_flat
I1031 15:14:55.501384 31137 net.cpp:150] Setting up conv17_2_mbox_loc_flat
I1031 15:14:55.501387 31137 net.cpp:157] Top shape: 8 24 (192)
I1031 15:14:55.501389 31137 net.cpp:165] Memory required for data: 1293317056
I1031 15:14:55.501391 31137 layer_factory.hpp:77] Creating layer conv17_2_mbox_conf_new
I1031 15:14:55.501400 31137 net.cpp:100] Creating Layer conv17_2_mbox_conf_new
I1031 15:14:55.501402 31137 net.cpp:478] conv17_2_mbox_conf_new <- conv17_2_conv17_2/relu_0_split_1
I1031 15:14:55.501407 31137 net.cpp:452] conv17_2_mbox_conf_new -> conv17_2_mbox_conf
I1031 15:14:55.501812 31137 net.cpp:150] Setting up conv17_2_mbox_conf_new
I1031 15:14:55.501818 31137 net.cpp:157] Top shape: 8 126 1 1 (1008)
I1031 15:14:55.501821 31137 net.cpp:165] Memory required for data: 1293321088
I1031 15:14:55.501826 31137 layer_factory.hpp:77] Creating layer conv17_2_mbox_conf_perm
I1031 15:14:55.501830 31137 net.cpp:100] Creating Layer conv17_2_mbox_conf_perm
I1031 15:14:55.501833 31137 net.cpp:478] conv17_2_mbox_conf_perm <- conv17_2_mbox_conf
I1031 15:14:55.501838 31137 net.cpp:452] conv17_2_mbox_conf_perm -> conv17_2_mbox_conf_perm
I1031 15:14:55.501927 31137 net.cpp:150] Setting up conv17_2_mbox_conf_perm
I1031 15:14:55.501947 31137 net.cpp:157] Top shape: 8 1 1 126 (1008)
I1031 15:14:55.501951 31137 net.cpp:165] Memory required for data: 1293325120
I1031 15:14:55.501953 31137 layer_factory.hpp:77] Creating layer conv17_2_mbox_conf_flat
I1031 15:14:55.501983 31137 net.cpp:100] Creating Layer conv17_2_mbox_conf_flat
I1031 15:14:55.501986 31137 net.cpp:478] conv17_2_mbox_conf_flat <- conv17_2_mbox_conf_perm
I1031 15:14:55.501992 31137 net.cpp:452] conv17_2_mbox_conf_flat -> conv17_2_mbox_conf_flat
I1031 15:14:55.502017 31137 net.cpp:150] Setting up conv17_2_mbox_conf_flat
I1031 15:14:55.502020 31137 net.cpp:157] Top shape: 8 126 (1008)
I1031 15:14:55.502022 31137 net.cpp:165] Memory required for data: 1293329152
I1031 15:14:55.502025 31137 layer_factory.hpp:77] Creating layer conv17_2_mbox_priorbox
I1031 15:14:55.502032 31137 net.cpp:100] Creating Layer conv17_2_mbox_priorbox
I1031 15:14:55.502035 31137 net.cpp:478] conv17_2_mbox_priorbox <- conv17_2_conv17_2/relu_0_split_2
I1031 15:14:55.502038 31137 net.cpp:478] conv17_2_mbox_priorbox <- data_data_0_split_6
I1031 15:14:55.502044 31137 net.cpp:452] conv17_2_mbox_priorbox -> conv17_2_mbox_priorbox
I1031 15:14:55.502074 31137 net.cpp:150] Setting up conv17_2_mbox_priorbox
I1031 15:14:55.502077 31137 net.cpp:157] Top shape: 1 2 24 (48)
I1031 15:14:55.502079 31137 net.cpp:165] Memory required for data: 1293329344
I1031 15:14:55.502082 31137 layer_factory.hpp:77] Creating layer mbox_loc
I1031 15:14:55.502090 31137 net.cpp:100] Creating Layer mbox_loc
I1031 15:14:55.502094 31137 net.cpp:478] mbox_loc <- conv11_mbox_loc_flat
I1031 15:14:55.502097 31137 net.cpp:478] mbox_loc <- conv13_mbox_loc_flat
I1031 15:14:55.502101 31137 net.cpp:478] mbox_loc <- conv14_2_mbox_loc_flat
I1031 15:14:55.502104 31137 net.cpp:478] mbox_loc <- conv15_2_mbox_loc_flat
I1031 15:14:55.502107 31137 net.cpp:478] mbox_loc <- conv16_2_mbox_loc_flat
I1031 15:14:55.502110 31137 net.cpp:478] mbox_loc <- conv17_2_mbox_loc_flat
I1031 15:14:55.502116 31137 net.cpp:452] mbox_loc -> mbox_loc
I1031 15:14:55.502138 31137 net.cpp:150] Setting up mbox_loc
I1031 15:14:55.502142 31137 net.cpp:157] Top shape: 8 7668 (61344)
I1031 15:14:55.502144 31137 net.cpp:165] Memory required for data: 1293574720
I1031 15:14:55.502147 31137 layer_factory.hpp:77] Creating layer mbox_conf
I1031 15:14:55.502154 31137 net.cpp:100] Creating Layer mbox_conf
I1031 15:14:55.502156 31137 net.cpp:478] mbox_conf <- conv11_mbox_conf_flat
I1031 15:14:55.502161 31137 net.cpp:478] mbox_conf <- conv13_mbox_conf_flat
I1031 15:14:55.502164 31137 net.cpp:478] mbox_conf <- conv14_2_mbox_conf_flat
I1031 15:14:55.502167 31137 net.cpp:478] mbox_conf <- conv15_2_mbox_conf_flat
I1031 15:14:55.502171 31137 net.cpp:478] mbox_conf <- conv16_2_mbox_conf_flat
I1031 15:14:55.502173 31137 net.cpp:478] mbox_conf <- conv17_2_mbox_conf_flat
I1031 15:14:55.502177 31137 net.cpp:452] mbox_conf -> mbox_conf
I1031 15:14:55.502197 31137 net.cpp:150] Setting up mbox_conf
I1031 15:14:55.502202 31137 net.cpp:157] Top shape: 8 40257 (322056)
I1031 15:14:55.502203 31137 net.cpp:165] Memory required for data: 1294862944
I1031 15:14:55.502205 31137 layer_factory.hpp:77] Creating layer mbox_priorbox
I1031 15:14:55.502210 31137 net.cpp:100] Creating Layer mbox_priorbox
I1031 15:14:55.502213 31137 net.cpp:478] mbox_priorbox <- conv11_mbox_priorbox
I1031 15:14:55.502218 31137 net.cpp:478] mbox_priorbox <- conv13_mbox_priorbox
I1031 15:14:55.502221 31137 net.cpp:478] mbox_priorbox <- conv14_2_mbox_priorbox
I1031 15:14:55.502224 31137 net.cpp:478] mbox_priorbox <- conv15_2_mbox_priorbox
I1031 15:14:55.502226 31137 net.cpp:478] mbox_priorbox <- conv16_2_mbox_priorbox
I1031 15:14:55.502229 31137 net.cpp:478] mbox_priorbox <- conv17_2_mbox_priorbox
I1031 15:14:55.502233 31137 net.cpp:452] mbox_priorbox -> mbox_priorbox
I1031 15:14:55.502252 31137 net.cpp:150] Setting up mbox_priorbox
I1031 15:14:55.502256 31137 net.cpp:157] Top shape: 1 2 7668 (15336)
I1031 15:14:55.502259 31137 net.cpp:165] Memory required for data: 1294924288
I1031 15:14:55.502276 31137 layer_factory.hpp:77] Creating layer mbox_conf_reshape
I1031 15:14:55.502282 31137 net.cpp:100] Creating Layer mbox_conf_reshape
I1031 15:14:55.502285 31137 net.cpp:478] mbox_conf_reshape <- mbox_conf
I1031 15:14:55.502291 31137 net.cpp:452] mbox_conf_reshape -> mbox_conf_reshape
I1031 15:14:55.502329 31137 net.cpp:150] Setting up mbox_conf_reshape
I1031 15:14:55.502334 31137 net.cpp:157] Top shape: 8 1917 21 (322056)
I1031 15:14:55.502336 31137 net.cpp:165] Memory required for data: 1296212512
I1031 15:14:55.502339 31137 layer_factory.hpp:77] Creating layer mbox_conf_softmax
I1031 15:14:55.502344 31137 net.cpp:100] Creating Layer mbox_conf_softmax
I1031 15:14:55.502362 31137 net.cpp:478] mbox_conf_softmax <- mbox_conf_reshape
I1031 15:14:55.502370 31137 net.cpp:452] mbox_conf_softmax -> mbox_conf_softmax
I1031 15:14:55.502444 31137 net.cpp:150] Setting up mbox_conf_softmax
I1031 15:14:55.502447 31137 net.cpp:157] Top shape: 8 1917 21 (322056)
I1031 15:14:55.502449 31137 net.cpp:165] Memory required for data: 1297500736
I1031 15:14:55.502452 31137 layer_factory.hpp:77] Creating layer mbox_conf_flatten
I1031 15:14:55.502456 31137 net.cpp:100] Creating Layer mbox_conf_flatten
I1031 15:14:55.502459 31137 net.cpp:478] mbox_conf_flatten <- mbox_conf_softmax
I1031 15:14:55.502465 31137 net.cpp:452] mbox_conf_flatten -> mbox_conf_flatten
I1031 15:14:55.502482 31137 net.cpp:150] Setting up mbox_conf_flatten
I1031 15:14:55.502486 31137 net.cpp:157] Top shape: 8 40257 (322056)
I1031 15:14:55.502488 31137 net.cpp:165] Memory required for data: 1298788960
I1031 15:14:55.502490 31137 layer_factory.hpp:77] Creating layer detection_out
I1031 15:14:55.502508 31137 net.cpp:100] Creating Layer detection_out
I1031 15:14:55.502511 31137 net.cpp:478] detection_out <- mbox_loc
I1031 15:14:55.502516 31137 net.cpp:478] detection_out <- mbox_conf_flatten
I1031 15:14:55.502518 31137 net.cpp:478] detection_out <- mbox_priorbox
I1031 15:14:55.502522 31137 net.cpp:452] detection_out -> detection_out
I1031 15:14:55.502585 31137 net.cpp:150] Setting up detection_out
I1031 15:14:55.502590 31137 net.cpp:157] Top shape: 1 1 1 7 (7)
I1031 15:14:55.502593 31137 net.cpp:165] Memory required for data: 1298788988
I1031 15:14:55.502595 31137 layer_factory.hpp:77] Creating layer detection_eval
I1031 15:14:55.502602 31137 net.cpp:100] Creating Layer detection_eval
I1031 15:14:55.502605 31137 net.cpp:478] detection_eval <- detection_out
I1031 15:14:55.502609 31137 net.cpp:478] detection_eval <- label
I1031 15:14:55.502629 31137 net.cpp:452] detection_eval -> detection_eval
I1031 15:14:55.502666 31137 net.cpp:150] Setting up detection_eval
I1031 15:14:55.502671 31137 net.cpp:157] Top shape: 1 1 21 5 (105)
I1031 15:14:55.502672 31137 net.cpp:165] Memory required for data: 1298789408
I1031 15:14:55.502674 31137 net.cpp:228] detection_eval does not need backward computation.
I1031 15:14:55.502678 31137 net.cpp:228] detection_out does not need backward computation.
I1031 15:14:55.502681 31137 net.cpp:228] mbox_conf_flatten does not need backward computation.
I1031 15:14:55.502683 31137 net.cpp:228] mbox_conf_softmax does not need backward computation.
…
