…
      sampler {
        min_scale: 0.3
        max_scale: 1
        min_aspect_ratio: 0.5
        max_aspect_ratio: 2
      }
      sample_constraint {
        min_jaccard_overlap: 0.9
      }
      max_sample: 1
      max_trials: 50
    }
    batch_sampler {
      sampler {
        min_scale: 0.3
        max_scale: 1
        min_aspect_ratio: 0.5
        max_aspect_ratio: 2
      }
      sample_constraint {
        max_jaccard_overlap: 1
      }
      max_sample: 1
      max_trials: 50
    }
    label_map_file: "data/VOC0712/labelmap_voc.prototxt"
  }
}
layer {
  name: "conv0"
  type: "Convolution"
  bottom: "data"
  top: "conv0"
  param {
    lr_mult: 0.1
    decay_mult: 0.1
  }
  convolution_param {
    num_output: 32
    bias_term: false
    pad: 1
    kernel_size: 3
    stride: 2
    weight_filler {
      type: "msra"
    }
  }
}
layer {
  name: "conv0/bn"
  type: "BatchNorm"
  bottom: "conv0"
  top: "conv0"
}
layer {
  name: "conv0/scale"
  type: "Scale"
  bottom: "conv0"
  top: "conv0"
  param {
    lr_mult: 0.1
    decay_mult: 0
  }
  param {
    lr_mult: 0.2
    decay_mult: 0
  }
  scale_param {
    filler {
      value: 1
    }
    bias_term: true
    bias_filler {
      value: 0
    }
  }
}
layer {
  name: "conv0/relu"
  type: "ReLU"
  bottom: "conv0"
  top: "conv0"
}
layer {
  name: "conv1/dw"
  type: "Convolution"
  bottom: "conv0"
  top: "conv1/dw"
  param {
    lr_mult: 0.1
    decay_mult: 0.1
  }
  convolution_param {
    num_output: 32
    bias_term: false
    pad: 1
    kernel_size: 3
    group: 32
    weight_filler {
      type: "msra"
    }
    engine: CAFFE
  }
}
layer {
  name: "conv1/dw/bn"
  type: "BatchNorm"
  bottom: "conv1/dw"
  top: "conv1/dw"
}
layer {
  name: "conv1/dw/scale"
  type: "Scale"
  bottom: "conv1/dw"
  top: "conv1/dw"
  param {
    lr_mult: 0.1
    decay_mult: 0
  }
  param {
    lr_mult: 0.2
    decay_mult: 0
  }
  scale_param {
    filler {
      value: 1
    }
    bias_term: true
    bias_filler {
      value: 0
    }
  }
}
layer {
  name: "conv1/dw/relu"
  type: "ReLU"
  bottom: "conv1/dw"
  top: "conv1/dw"
}
layer {
  name: "conv1"
  type: "Convolution"
  bottom: "conv1/dw"
  top: "conv1"
  param {
    lr_mult: 0.1
    decay_mult: 0.1
  }
  convolution_param {
    num_output: 64
    bias_term: false
    kernel_size: 1
    weight_filler {
      type: "msra"
    }
  }
}
layer {
  name: "conv1/bn"
  type: "BatchNorm"
  bottom: "conv1"
  top: "conv1"
}
layer {
  name: "conv1/scale"
  type: "Scale"
  bottom: "conv1"
  top: "conv1"
  param {
    lr_mult: 0.1
    decay_mult: 0
  }
  param {
    lr_mult: 0.2
    decay_mult: 0
  }
  scale_param {
    filler {
      value: 1
    }
    bias_term: true
    bias_filler {
      value: 0
    }
  }
}
layer {
  name: "conv1/relu"
  type: "ReLU"
  bottom: "conv1"
  top: "conv1"
}
layer {
  name: "conv2/dw"
  type: "Convolution"
  bottom: "conv1"
  top: "conv2/dw"
  param {
    lr_mult: 0.1
    decay_mult: 0.1
  }
  convolution_param {
    num_output: 64
    bias_term: false
    pad: 1
    kernel_size: 3
    group: 64
    stride: 2
    weight_filler {
      type: "msra"
    }
    engine: CAFFE
  }
}
layer {
  name: "conv2/dw/bn"
  type: "BatchNorm"
  bottom: "conv2/dw"
  top: "conv2/dw"
}
layer {
  name: "conv2/dw/scale"
  type: "Scale"
  bottom: "conv2/dw"
  top: "conv2/dw"
  param {
    lr_mult: 0.1
    decay_mult: 0
  }
  param {
    lr_mult: 0.2
    decay_mult: 0
  }
  scale_param {
    filler {
      value: 1
    }
    bias_term: true
    bias_filler {
      value: 0
    }
  }
}
layer {
  name: "conv2/dw/relu"
  type: "ReLU"
  bottom: "conv2/dw"
  top: "conv2/dw"
}
layer {
  name: "conv2"
  type: "Convolution"
  bottom: "conv2/dw"
  top: "conv2"
  param {
    lr_mult: 0.1
    decay_mult: 0.1
  }
  convolution_param {
    num_output: 128
    bias_term: false
    kernel_size: 1
    weight_filler {
      type: "msra"
    }
  }
}
layer {
  name: "conv2/bn"
  type: "BatchNorm"
  bottom: "conv2"
  top: "conv2"
}
layer {
  name: "conv2/scale"
  type: "Scale"
  bottom: "conv2"
  top: "conv2"
  param {
    lr_mult: 0.1
    decay_mult: 0
  }
  param {
    lr_mult: 0.2
    decay_mult: 0
  }
  scale_param {
    filler {
      value: 1
    }
    bias_term: true
    bias_filler {
      value: 0
    }
  }
}
layer {
  name: "conv2/relu"
  type: "ReLU"
  bottom: "conv2"
  top: "conv2"
}
layer {
  name: "conv3/dw"
  type: "Convolution"
  bottom: "conv2"
  top: "conv3/dw"
  param {
    lr_mult: 0.1
    decay_mult: 0.1
  }
  convolution_param {
    num_output: 128
    bias_term: false
    pad: 1
    kernel_size: 3
    group: 128
    weight_filler {
      type: "msra"
    }
    engine: CAFFE
  }
}
layer {
  name: "conv3/dw/bn"
  type: "BatchNorm"
  bottom: "conv3/dw"
  top: "conv3/dw"
}
layer {
  name: "conv3/dw/scale"
  type: "Scale"
  bottom: "conv3/dw"
  top: "conv3/dw"
  param {
    lr_mult: 0.1
    decay_mult: 0
  }
  param {
    lr_mult: 0.2
    decay_mult: 0
  }
  scale_param {
    filler {
      value: 1
    }
    bias_term: true
    bias_filler {
      value: 0
    }
  }
}
layer {
  name: "conv3/dw/relu"
  type: "ReLU"
  bottom: "conv3/dw"
  top: "conv3/dw"
}
layer {
  name: "conv3"
  type: "Convolution"
  bottom: "conv3/dw"
  top: "conv3"
  param {
    lr_mult: 0.1
    decay_mult: 0.1
  }
  convolution_param {
    num_output: 128
    bias_term: false
    kernel_size: 1
    weight_filler {
      type: "msra"
    }
  }
}
layer {
  name: "conv3/bn"
  type: "BatchNorm"
  bottom: "conv3"
  top: "conv3"
}
layer {
  name: "conv3/scale"
  type: "Scale"
  bottom: "conv3"
  top: "conv3"
  param {
    lr_mult: 0.1
    decay_mult: 0
  }
  param {
    lr_mult: 0.2
    decay_mult: 0
  }
  scale_param {
    filler {
      value: 1
    }
    bias_term: true
    bias_filler {
      value: 0
    }
  }
}
layer {
  name: "conv3/relu"
  type: "ReLU"
  bottom: "conv3"
  top: "conv3"
}
layer {
  name: "conv4/dw"
  type: "Convolution"
  bottom: "conv3"
  top: "conv4/dw"
  param {
    lr_mult: 0.1
    decay_mult: 0.1
  }
  convolution_param {
    num_output: 128
    bias_term: false
    pad: 1
    kernel_size: 3
    group: 128
    stride: 2
    weight_filler {
      type: "msra"
    }
    engine: CAFFE
  }
}
layer {
  name: "conv4/dw/bn"
  type: "BatchNorm"
  bottom: "conv4/dw"
  top: "conv4/dw"
}
layer {
  name: "conv4/dw/scale"
  type: "Scale"
  bottom: "conv4/dw"
  top: "conv4/dw"
  param {
    lr_mult: 0.1
    decay_mult: 0
  }
  param {
    lr_mult: 0.2
    decay_mult: 0
  }
  scale_param {
    filler {
      value: 1
    }
    bias_term: true
    bias_filler {
      value: 0
    }
  }
}
layer {
  name: "conv4/dw/relu"
  type: "ReLU"
  bottom: "conv4/dw"
  top: "conv4/dw"
}
layer {
  name: "conv4"
  type: "Convolution"
  bottom: "conv4/dw"
  top: "conv4"
  param {
    lr_mult: 0.1
    decay_mult: 0.1
  }
  convolution_param {
    num_output: 256
    bias_term: false
    kernel_size: 1
    weight_filler {
      type: "msra"
    }
  }
}
layer {
  name: "conv4/bn"
  type: "BatchNorm"
  bottom: "conv4"
  top: "conv4"
}
layer {
  name: "conv4/scale"
  type: "Scale"
  bottom: "conv4"
  top: "conv4"
  param {
    lr_mult: 0.1
    decay_mult: 0
  }
  param {
    lr_mult: 0.2
    decay_mult: 0
  }
  scale_param {
    filler {
      value: 1
    }
    bias_term: true
    bias_filler {
      value: 0
    }
  }
}
layer {
  name: "conv4/relu"
  type: "ReLU"
  bottom: "conv4"
  top: "conv4"
}
layer {
  name: "conv5/dw"
  type: "Convolution"
  bottom: "conv4"
  top: "conv5/dw"
  param {
    lr_mult: 0.1
    decay_mult: 0.1
  }
  convolution_param {
    num_output: 256
    bias_term: false
    pad: 1
    kernel_size: 3
    group: 256
    weight_filler {
      type: "msra"
    }
    engine: CAFFE
  }
}
layer {
  name: "conv5/dw/bn"
  type: "BatchNorm"
  bottom: "conv5/dw"
  top: "conv5/dw"
}
layer {
  name: "conv5/dw/scale"
  type: "Scale"
  bottom: "conv5/dw"
  top: "conv5/dw"
  param {
    lr_mult: 0.1
    decay_mult: 0
  }
  param {
    lr_mult: 0.2
    decay_mult: 0
  }
  scale_param {
    filler {
      value: 1
    }
    bias_term: true
    bias_filler {
      value: 0
    }
  }
}
layer {
  name: "conv5/dw/relu"
  type: "ReLU"
  bottom: "conv5/dw"
  top: "conv5/dw"
}
layer {
  name: "conv5"
  type: "Convolution"
  bottom: "conv5/dw"
  top: "conv5"
  param {
    lr_mult: 0.1
    decay_mult: 0.1
  }
  convolution_param {
    num_output: 256
    bias_term: false
    kernel_size: 1
    weight_filler {
      type: "msra"
    }
  }
}
layer {
  name: "conv5/bn"
  type: "BatchNorm"
  bottom: "conv5"
  top: "conv5"
}
layer {
  name: "conv5/scale"
  type: "Scale"
  bottom: "conv5"
  top: "conv5"
  param {
    lr_mult: 0.1
    decay_mult: 0
  }
  param {
    lr_mult: 0.2
    decay_mult: 0
  }
  scale_param {
    filler {
      value: 1
    }
    bias_term: true
    bias_filler {
      value: 0
    }
  }
}
layer {
  name: "conv5/relu"
  type: "ReLU"
  bottom: "conv5"
  top: "conv5"
}
layer {
  name: "conv6/dw"
  type: "Convolution"
  bottom: "conv5"
  top: "conv6/dw"
  param {
    lr_mult: 0.1
    decay_mult: 0.1
  }
  convolution_param {
    num_output: 256
    bias_term: false
    pad: 1
    kernel_size: 3
    group: 256
    stride: 2
    weight_filler {
      type: "msra"
    }
    engine: CAFFE
  }
}
layer {
  name: "conv6/dw/bn"
  type: "BatchNorm"
  bottom: "conv6/dw"
  top: "conv6/dw"
}
layer {
  name: "conv6/dw/scale"
  type: "Scale"
  bottom: "conv6/dw"
  top: "conv6/dw"
  param {
    lr_mult: 0.1
    decay_mult: 0
  }
  param {
    lr_mult: 0.2
    decay_mult: 0
  }
  scale_param {
    filler {
      value: 1
    }
    bias_term: true
    bias_filler {
      value: 0
    }
  }
}
layer {
  name: "conv6/dw/relu"
  type: "ReLU"
  bottom: "conv6/dw"
  top: "conv6/dw"
}
layer {
  name: "conv6"
  type: "Convolution"
  bottom: "conv6/dw"
  top: "conv6"
  param {
    lr_mult: 0.1
    decay_mult: 0.1
  }
  convolution_param {
    num_output: 512
    bias_term: false
    kernel_size: 1
    weight_filler {
      type: "msra"
    }
  }
}
layer {
  name: "conv6/bn"
  type: "BatchNorm"
  bottom: "conv6"
  top: "conv6"
}
layer {
  name: "conv6/scale"
  type: "Scale"
  bottom: "conv6"
  top: "conv6"
  param {
    lr_mult: 0.1
    decay_mult: 0
  }
  param {
    lr_mult: 0.2
    decay_mult: 0
  }
  scale_param {
    filler {
      value: 1
    }
    bias_term: true
    bias_filler {
      value: 0
    }
  }
}
layer {
  name: "conv6/relu"
  type: "ReLU"
  bottom: "conv6"
  top: "conv6"
}
layer {
  name: "conv7/dw"
  type: "Convolution"
  bottom: "conv6"
  top: "conv7/dw"
  param {
    lr_mult: 0.1
    decay_mult: 0.1
  }
  convolution_param {
    num_output: 512
    bias_term: false
    pad: 1
    kernel_size: 3
    group: 512
    weight_filler {
      type: "msra"
    }
    engine: CAFFE
  }
}
layer {
  name: "conv7/dw/bn"
  type: "BatchNorm"
  bottom: "conv7/dw"
  top: "conv7/dw"
}
layer {
  name: "conv7/dw/scale"
  type: "Scale"
  bottom: "conv7/dw"
  top: "conv7/dw"
  param {
    lr_mult: 0.1
    decay_mult: 0
  }
  param {
    lr_mult: 0.2
    decay_mult: 0
  }
  scale_param {
    filler {
      value: 1
    }
    bias_term: true
    bias_filler {
      value: 0
    }
  }
}
layer {
  name: "conv7/dw/relu"
  type: "ReLU"
  bottom: "conv7/dw"
  top: "conv7/dw"
}
layer {
  name: "conv7"
  type: "Convolution"
  bottom: "conv7/dw"
  top: "conv7"
  param {
    lr_mult: 0.1
    decay_mult: 0.1
  }
  convolution_param {
    num_output: 512
    bias_term: false
    kernel_size: 1
    weight_filler {
      type: "msra"
    }
  }
}
layer {
  name: "conv7/bn"
  type: "BatchNorm"
  bottom: "conv7"
  top: "conv7"
}
layer {
  name: "conv7/scale"
  type: "Scale"
  bottom: "conv7"
  top: "conv7"
  param {
    lr_mult: 0.1
    decay_mult: 0
  }
  param {
    lr_mult: 0.2
    decay_mult: 0
  }
  scale_param {
    filler {
      value: 1
    }
    bias_term: true
    bias_filler {
      value: 0
    }
  }
}
layer {
  name: "conv7/relu"
  type: "ReLU"
  bottom: "conv7"
  top: "conv7"
}
layer {
  name: "conv8/dw"
  type: "Convolution"
  bottom: "conv7"
  top: "conv8/dw"
  param {
    lr_mult: 0.1
    decay_mult: 0.1
  }
  convolution_param {
    num_output: 512
    bias_term: false
    pad: 1
    kernel_size: 3
    group: 512
    weight_filler {
      type: "msra"
    }
    engine: CAFFE
  }
}
layer {
  name: "conv8/dw/bn"
  type: "BatchNorm"
  bottom: "conv8/dw"
  top: "conv8/dw"
}
layer {
  name: "conv8/dw/scale"
  type: "Scale"
  bottom: "conv8/dw"
  top: "conv8/dw"
  param {
    lr_mult: 0.1
    decay_mult: 0
  }
  param {
    lr_mult: 0.2
    decay_mult: 0
  }
  scale_param {
    filler {
      value: 1
    }
    bias_term: true
    bias_filler {
      value: 0
    }
  }
}
layer {
  name: "conv8/dw/relu"
  type: "ReLU"
  bottom: "conv8/dw"
  top: "conv8/dw"
}
layer {
  name: "conv8"
  type: "Convolution"
  bottom: "conv8/dw"
  top: "conv8"
  param {
    lr_mult: 0.1
    decay_mult: 0.1
  }
  convolution_param {
    num_output: 512
    bias_term: false
    kernel_size: 1
    weight_filler {
      type: "msra"
    }
  }
}
layer {
  name: "conv8/bn"
  type: "BatchNorm"
  bottom: "conv8"
  top: "conv8"
}
layer {
  name: "conv8/scale"
  type: "Scale"
  bottom: "conv8"
  top: "conv8"
  param {
    lr_mult: 0.1
    decay_mult: 0
  }
  param {
    lr_mult: 0.2
    decay_mult: 0
  }
  scale_param {
    filler {
      value: 1
    }
    bias_term: true
    bias_filler {
      value: 0
    }
  }
}
layer {
  name: "conv8/relu"
  type: "ReLU"
  bottom: "conv8"
  top: "conv8"
}
layer {
  name: "conv9/dw"
  type: "Convolution"
  bottom: "conv8"
  top: "conv9/dw"
  param {
    lr_mult: 0.1
    decay_mult: 0.1
  }
  convolution_param {
    num_output: 512
    bias_term: false
    pad: 1
    kernel_size: 3
    group: 512
    weight_filler {
      type: "msra"
    }
    engine: CAFFE
  }
}
layer {
  name: "conv9/dw/bn"
  type: "BatchNorm"
  bottom: "conv9/dw"
  top: "conv9/dw"
}
layer {
  name: "conv9/dw/scale"
  type: "Scale"
  bottom: "conv9/dw"
  top: "conv9/dw"
  param {
    lr_mult: 0.1
    decay_mult: 0
  }
  param {
    lr_mult: 0.2
    decay_mult: 0
  }
  scale_param {
    filler {
      value: 1
    }
    bias_term: true
    bias_filler {
      value: 0
    }
  }
}
layer {
  name: "conv9/dw/relu"
  type: "ReLU"
  bottom: "conv9/dw"
  top: "conv9/dw"
}
layer {
  name: "conv9"
  type: "Convolution"
  bottom: "conv9/dw"
  top: "conv9"
  param {
    lr_mult: 0.1
    decay_mult: 0.1
  }
  convolution_param {
    num_output: 512
    bias_term: false
    kernel_size: 1
    weight_filler {
      type: "msra"
    }
  }
}
layer {
  name: "conv9/bn"
  type: "BatchNorm"
  bottom: "conv9"
  top: "conv9"
}
layer {
  name: "conv9/scale"
  type: "Scale"
  bottom: "conv9"
  top: "conv9"
  param {
    lr_mult: 0.1
    decay_mult: 0
  }
  param {
    lr_mult: 0.2
    decay_mult: 0
  }
  scale_param {
    filler {
      value: 1
    }
    bias_term: true
    bias_filler {
      value: 0
    }
  }
}
layer {
  name: "conv9/relu"
  type: "ReLU"
  bottom: "conv9"
  top: "conv9"
}
layer {
  name: "conv10/dw"
  type: "Convolution"
  bottom: "conv9"
  top: "conv10/dw"
  param {
    lr_mult: 0.1
    decay_mult: 0.1
  }
  convolution_param {
    num_output: 512
    bias_term: false
    pad: 1
    kernel_size: 3
    group: 512
    weight_filler {
      type: "msra"
    }
    engine: CAFFE
  }
}
layer {
  name: "conv10/dw/bn"
  type: "BatchNorm"
  bottom: "conv10/dw"
  top: "conv10/dw"
}
layer {
  name: "conv10/dw/scale"
  type: "Scale"
  bottom: "conv10/dw"
  top: "conv10/dw"
  param {
    lr_mult: 0.1
    decay_mult: 0
  }
  param {
    lr_mult: 0.2
    decay_mult: 0
  }
  scale_param {
    filler {
      value: 1
    }
    bias_term: true
    bias_filler {
      value: 0
    }
  }
}
layer {
  name: "conv10/dw/relu"
  type: "ReLU"
  bottom: "conv10/dw"
  top: "conv10/dw"
}
layer {
  name: "conv10"
  type: "Convolution"
  bottom: "conv10/dw"
  top: "conv10"
  param {
    lr_mult: 0.1
    decay_mult: 0.1
  }
  convolution_param {
    num_output: 512
    bias_term: false
    kernel_size: 1
    weight_filler {
      type: "msra"
    }
  }
}
layer {
  name: "conv10/bn"
  type: "BatchNorm"
  bottom: "conv10"
  top: "conv10"
}
layer {
  name: "conv10/scale"
  type: "Scale"
  bottom: "conv10"
  top: "conv10"
  param {
    lr_mult: 0.1
    decay_mult: 0
  }
  param {
    lr_mult: 0.2
    decay_mult: 0
  }
  scale_param {
    filler {
      value: 1
    }
    bias_term: true
    bias_filler {
      value: 0
    }
  }
}
layer {
  name: "conv10/relu"
  type: "ReLU"
  bottom: "conv10"
  top: "conv10"
}
layer {
  name: "conv11/dw"
  type: "Convolution"
  bottom: "conv10"
  top: "conv11/dw"
  param {
    lr_mult: 0.1
    decay_mult: 0.1
  }
  convolution_param {
    num_output: 512
    bias_term: false
    pad: 1
    kernel_size: 3
    group: 512
    weight_filler {
      type: "msra"
    }
    engine: CAFFE
  }
}
layer {
  name: "conv11/dw/bn"
  type: "BatchNorm"
  bottom: "conv11/dw"
  top: "conv11/dw"
}
layer {
  name: "conv11/dw/scale"
  type: "Scale"
  bottom: "conv11/dw"
  top: "conv11/dw"
  param {
    lr_mult: 0.1
    decay_mult: 0
  }
  param {
    lr_mult: 0.2
    decay_mult: 0
  }
  scale_param {
    filler {
      value: 1
    }
    bias_term: true
    bias_filler {
      value: 0
    }
  }
}
layer {
  name: "conv11/dw/relu"
  type: "ReLU"
  bottom: "conv11/dw"
  top: "conv11/dw"
}
layer {
  name: "conv11"
  type: "Convolution"
  bottom: "conv11/dw"
  top: "conv11"
  param {
    lr_mult: 0.1
    decay_mult: 0.1
  }
  convolution_param {
    num_output: 512
    bias_term: false
    kernel_size: 1
    weight_filler {
      type: "msra"
    }
  }
}
layer {
  name: "conv11/bn"
  type: "BatchNorm"
  bottom: "conv11"
  top: "conv11"
}
layer {
  name: "conv11/scale"
  type: "Scale"
  bottom: "conv11"
  top: "conv11"
  param {
    lr_mult: 0.1
    decay_mult: 0
  }
  param {
    lr_mult: 0.2
    decay_mult: 0
  }
  scale_param {
    filler {
      value: 1
    }
    bias_term: true
    bias_filler {
      value: 0
    }
  }
}
layer {
  name: "conv11/relu"
  type: "ReLU"
  bottom: "conv11"
  top: "conv11"
}
layer {
  name: "conv12/dw"
  type: "Convolution"
  bottom: "conv11"
  top: "conv12/dw"
  param {
    lr_mult: 0.1
    decay_mult: 0.1
  }
  convolution_param {
    num_output: 512
    bias_term: false
    pad: 1
    kernel_size: 3
    group: 512
    stride: 2
    weight_filler {
      type: "msra"
    }
    engine: CAFFE
  }
}
layer {
  name: "conv12/dw/bn"
  type: "BatchNorm"
  bottom: "conv12/dw"
  top: "conv12/dw"
}
layer {
  name: "conv12/dw/scale"
  type: "Scale"
  bottom: "conv12/dw"
  top: "conv12/dw"
  param {
    lr_mult: 0.1
    decay_mult: 0
  }
  param {
    lr_mult: 0.2
    decay_mult: 0
  }
  scale_param {
    filler {
      value: 1
    }
    bias_term: true
    bias_filler {
      value: 0
    }
  }
}
layer {
  name: "conv12/dw/relu"
  type: "ReLU"
  bottom: "conv12/dw"
  top: "conv12/dw"
}
layer {
  name: "conv12"
  type: "Convolution"
  bottom: "conv12/dw"
  top: "conv12"
  param {
    lr_mult: 0.1
    decay_mult: 0.1
  }
  convolution_param {
    num_output: 1024
    bias_term: false
    kernel_size: 1
    weight_filler {
      type: "msra"
    }
  }
}
layer {
  name: "conv12/bn"
  type: "BatchNorm"
  bottom: "conv12"
  top: "conv12"
}
layer {
  name: "conv12/scale"
  type: "Scale"
  bottom: "conv12"
  top: "conv12"
  param {
    lr_mult: 0.1
    decay_mult: 0
  }
  param {
    lr_mult: 0.2
    decay_mult: 0
  }
  scale_param {
    filler {
      value: 1
    }
    bias_term: true
    bias_filler {
      value: 0
    }
  }
}
layer {
  name: "conv12/relu"
  type: "ReLU"
  bottom: "conv12"
  top: "conv12"
}
layer {
  name: "conv13/dw"
  type: "Convolution"
  bottom: "conv12"
  top: "conv13/dw"
  param {
    lr_mult: 0.1
    decay_mult: 0.1
  }
  convolution_param {
    num_output: 1024
    bias_term: false
    pad: 1
    kernel_size: 3
    group: 1024
    weight_filler {
      type: "msra"
    }
    engine: CAFFE
  }
}
layer {
  name: "conv13/dw/bn"
  type: "BatchNorm"
  bottom: "conv13/dw"
  top: "conv13/dw"
}
layer {
  name: "conv13/dw/scale"
  type: "Scale"
  bottom: "conv13/dw"
  top: "conv13/dw"
  param {
    lr_mult: 0.1
    decay_mult: 0
  }
  param {
    lr_mult: 0.2
    decay_mult: 0
  }
  scale_param {
    filler {
      value: 1
    }
    bias_term: true
    bias_filler {
      value: 0
    }
  }
}
layer {
  name: "conv13/dw/relu"
  type: "ReLU"
  bottom: "conv13/dw"
  top: "conv13/dw"
}
layer {
  name: "conv13"
  type: "Convolution"
  bottom: "conv13/dw"
  top: "conv13"
  param {
    lr_mult: 0.1
    decay_mult: 0.1
  }
  convolution_param {
    num_output: 1024
    bias_term: false
    kernel_size: 1
    weight_filler {
      type: "msra"
    }
  }
}
layer {
  name: "conv13/bn"
  type: "BatchNorm"
  bottom: "conv13"
  top: "conv13"
}
layer {
  name: "conv13/scale"
  type: "Scale"
  bottom: "conv13"
  top: "conv13"
  param {
    lr_mult: 0.1
    decay_mult: 0
  }
  param {
    lr_mult: 0.2
    decay_mult: 0
  }
  scale_param {
    filler {
      value: 1
    }
    bias_term: true
    bias_filler {
      value: 0
    }
  }
}
layer {
  name: "conv13/relu"
  type: "ReLU"
  bottom: "conv13"
  top: "conv13"
}
layer {
  name: "conv14_1"
  type: "Convolution"
  bottom: "conv13"
  top: "conv14_1"
  param {
    lr_mult: 0.1
    decay_mult: 0.1
  }
  convolution_param {
    num_output: 256
    bias_term: false
    kernel_size: 1
    weight_filler {
      type: "msra"
    }
  }
}
layer {
  name: "conv14_1/bn"
  type: "BatchNorm"
  bottom: "conv14_1"
  top: "conv14_1"
}
layer {
  name: "conv14_1/scale"
  type: "Scale"
  bottom: "conv14_1"
  top: "conv14_1"
  param {
    lr_mult: 0.1
    decay_mult: 0
  }
  param {
    lr_mult: 0.2
    decay_mult: 0
  }
  scale_param {
    filler {
      value: 1
    }
    bias_term: true
    bias_filler {
      value: 0
    }
  }
}
layer {
  name: "conv14_1/relu"
  type: "ReLU"
  bottom: "conv14_1"
  top: "conv14_1"
}
layer {
  name: "conv14_2"
  type: "Convolution"
  bottom: "conv14_1"
  top: "conv14_2"
  param {
    lr_mult: 0.1
    decay_mult: 0.1
  }
  convolution_param {
    num_output: 512
    bias_term: false
    pad: 1
    kernel_size: 3
    stride: 2
    weight_filler {
      type: "msra"
    }
  }
}
layer {
  name: "conv14_2/bn"
  type: "BatchNorm"
  bottom: "conv14_2"
  top: "conv14_2"
}
layer {
  name: "conv14_2/scale"
  type: "Scale"
  bottom: "conv14_2"
  top: "conv14_2"
  param {
    lr_mult: 0.1
    decay_mult: 0
  }
  param {
    lr_mult: 0.2
    decay_mult: 0
  }
  scale_param {
    filler {
      value: 1
    }
    bias_term: true
    bias_filler {
      value: 0
    }
  }
}
layer {
  name: "conv14_2/relu"
  type: "ReLU"
  bottom: "conv14_2"
  top: "conv14_2"
}
layer {
  name: "conv15_1"
  type: "Convolution"
  bottom: "conv14_2"
  top: "conv15_1"
  param {
    lr_mult: 0.1
    decay_mult: 0.1
  }
  convolution_param {
    num_output: 128
    bias_term: false
    kernel_size: 1
    weight_filler {
      type: "msra"
    }
  }
}
layer {
  name: "conv15_1/bn"
  type: "BatchNorm"
  bottom: "conv15_1"
  top: "conv15_1"
}
layer {
  name: "conv15_1/scale"
  type: "Scale"
  bottom: "conv15_1"
  top: "conv15_1"
  param {
    lr_mult: 0.1
    decay_mult: 0
  }
  param {
    lr_mult: 0.2
    decay_mult: 0
  }
  scale_param {
    filler {
      value: 1
    }
    bias_term: true
    bias_filler {
      value: 0
    }
  }
}
layer {
  name: "conv15_1/relu"
  type: "ReLU"
  bottom: "conv15_1"
  top: "conv15_1"
}
layer {
  name: "conv15_2"
  type: "Convolution"
  bottom: "conv15_1"
  top: "conv15_2"
  param {
    lr_mult: 0.1
    decay_mult: 0.1
  }
  convolution_param {
    num_output: 256
    bias_term: false
    pad: 1
    kernel_size: 3
    stride: 2
    weight_filler {
      type: "msra"
    }
  }
}
layer {
  name: "conv15_2/bn"
  type: "BatchNorm"
  bottom: "conv15_2"
  top: "conv15_2"
}
layer {
  name: "conv15_2/scale"
  type: "Scale"
  bottom: "conv15_2"
  top: "conv15_2"
  param {
    lr_mult: 0.1
    decay_mult: 0
  }
  param {
    lr_mult: 0.2
    decay_mult: 0
  }
  scale_param {
    filler {
      value: 1
    }
    bias_term: true
    bias_filler {
      value: 0
    }
  }
}
layer {
  name: "conv15_2/relu"
  type: "ReLU"
  bottom: "conv15_2"
  top: "conv15_2"
}
layer {
  name: "conv16_1"
  type: "Convolution"
  bottom: "conv15_2"
  top: "conv16_1"
  param {
    lr_mult: 0.1
    decay_mult: 0.1
  }
  convolution_param {
    num_output: 128
    bias_term: false
    kernel_size: 1
    weight_filler {
      type: "msra"
    }
  }
}
layer {
  name: "conv16_1/bn"
  type: "BatchNorm"
  bottom: "conv16_1"
  top: "conv16_1"
}
layer {
  name: "conv16_1/scale"
  type: "Scale"
  bottom: "conv16_1"
  top: "conv16_1"
  param {
    lr_mult: 0.1
    decay_mult: 0
  }
  param {
    lr_mult: 0.2
    decay_mult: 0
  }
  scale_param {
    filler {
      value: 1
    }
    bias_term: true
    bias_filler {
      value: 0
    }
  }
}
layer {
  name: "conv16_1/relu"
  type: "ReLU"
  bottom: "conv16_1"
  top: "conv16_1"
}
layer {
  name: "conv16_2"
  type: "Convolution"
  bottom: "conv16_1"
  top: "conv16_2"
  param {
    lr_mult: 0.1
    decay_mult: 0.1
  }
  convolution_param {
    num_output: 256
    bias_term: false
    pad: 1
    kernel_size: 3
    stride: 2
    weight_filler {
      type: "msra"
    }
  }
}
layer {
  name: "conv16_2/bn"
  type: "BatchNorm"
  bottom: "conv16_2"
  top: "conv16_2"
}
layer {
  name: "conv16_2/scale"
  type: "Scale"
  bottom: "conv16_2"
  top: "conv16_2"
  param {
    lr_mult: 0.1
    decay_mult: 0
  }
  param {
    lr_mult: 0.2
    decay_mult: 0
  }
  scale_param {
    filler {
      value: 1
    }
    bias_term: true
    bias_filler {
      value: 0
    }
  }
}
layer {
  name: "conv16_2/relu"
  type: "ReLU"
  bottom: "conv16_2"
  top: "conv16_2"
}
layer {
  name: "conv17_1"
  type: "Convolution"
  bottom: "conv16_2"
  top: "conv17_1"
  param {
    lr_mult: 0.1
    decay_mult: 0.1
  }
  convolution_param {
    num_output: 64
    bias_term: false
    kernel_size: 1
    weight_filler {
      type: "msra"
    }
  }
}
layer {
  name: "conv17_1/bn"
  type: "BatchNorm"
  bottom: "conv17_1"
  top: "conv17_1"
}
layer {
  name: "conv17_1/scale"
  type: "Scale"
  bottom: "conv17_1"
  top: "conv17_1"
  param {
    lr_mult: 0.1
    decay_mult: 0
  }
  param {
    lr_mult: 0.2
    decay_mult: 0
  }
  scale_param {
    filler {
      value: 1
    }
    bias_term: true
    bias_filler {
      value: 0
    }
  }
}
layer {
  name: "conv17_1/relu"
  type: "ReLU"
  bottom: "conv17_1"
  top: "conv17_1"
}
layer {
  name: "conv17_2"
  type: "Convolution"
  bottom: "conv17_1"
  top: "conv17_2"
  param {
    lr_mult: 0.1
    decay_mult: 0.1
  }
  convolution_param {
    num_output: 128
    bias_term: false
    pad: 1
    kernel_size: 3
    stride: 2
    weight_filler {
      type: "msra"
    }
  }
}
layer {
  name: "conv17_2/bn"
  type: "BatchNorm"
  bottom: "conv17_2"
  top: "conv17_2"
}
layer {
  name: "conv17_2/scale"
  type: "Scale"
  bottom: "conv17_2"
  top: "conv17_2"
  param {
    lr_mult: 0.1
    decay_mult: 0
  }
  param {
    lr_mult: 0.2
    decay_mult: 0
  }
  scale_param {
    filler {
      value: 1
    }
    bias_term: true
    bias_filler {
      value: 0
    }
  }
}
layer {
  name: "conv17_2/relu"
  type: "ReLU"
  bottom: "conv17_2"
  top: "conv17_2"
}
layer {
  name: "conv11_mbox_loc"
  type: "Convolution"
  bottom: "conv11"
  top: "conv11_mbox_loc"
  param {
    lr_mult: 0.1
    decay_mult: 0.1
  }
  param {
    lr_mult: 0.2
    decay_mult: 0
  }
  convolution_param {
    num_output: 12
    kernel_size: 1
    weight_filler {
      type: "msra"
    }
    bias_filler {
      type: "constant"
      value: 0
    }
  }
}
layer {
  name: "conv11_mbox_loc_perm"
  type: "Permute"
  bottom: "conv11_mbox_loc"
  top: "conv11_mbox_loc_pe
I1031 17:46:14.355741  8381 layer_factory.hpp:77] Creating layer data
I1031 17:46:14.356494  8381 net.cpp:100] Creating Layer data
I1031 17:46:14.356510  8381 net.cpp:452] data -> data
I1031 17:46:14.356556  8381 net.cpp:452] data -> label
I1031 17:46:14.359745  8421 db_lmdb.cpp:35] Opened lmdb examples/VOC0712/VOC0712_trainval_lmdb
I1031 17:46:14.377621  8381 annotated_data_layer.cpp:62] output data size: 24,3,300,300
I1031 17:46:14.427434  8381 net.cpp:150] Setting up data
I1031 17:46:14.427485  8381 net.cpp:157] Top shape: 24 3 300 300 (6480000)
I1031 17:46:14.427490  8381 net.cpp:157] Top shape: 1 1 1 8 (8)
I1031 17:46:14.427492  8381 net.cpp:165] Memory required for data: 25920032
I1031 17:46:14.427502  8381 layer_factory.hpp:77] Creating layer data_data_0_split
I1031 17:46:14.427517  8381 net.cpp:100] Creating Layer data_data_0_split
I1031 17:46:14.427522  8381 net.cpp:478] data_data_0_split <- data
I1031 17:46:14.427549  8381 net.cpp:452] data_data_0_split -> data_data_0_split_0
I1031 17:46:14.427561  8381 net.cpp:452] data_data_0_split -> data_data_0_split_1
I1031 17:46:14.427572  8381 net.cpp:452] data_data_0_split -> data_data_0_split_2
I1031 17:46:14.427580  8381 net.cpp:452] data_data_0_split -> data_data_0_split_3
I1031 17:46:14.427584  8381 net.cpp:452] data_data_0_split -> data_data_0_split_4
I1031 17:46:14.427589  8381 net.cpp:452] data_data_0_split -> data_data_0_split_5
I1031 17:46:14.427593  8381 net.cpp:452] data_data_0_split -> data_data_0_split_6
I1031 17:46:14.427775  8381 net.cpp:150] Setting up data_data_0_split
I1031 17:46:14.427785  8381 net.cpp:157] Top shape: 24 3 300 300 (6480000)
I1031 17:46:14.427788  8381 net.cpp:157] Top shape: 24 3 300 300 (6480000)
I1031 17:46:14.427793  8381 net.cpp:157] Top shape: 24 3 300 300 (6480000)
I1031 17:46:14.427795  8381 net.cpp:157] Top shape: 24 3 300 300 (6480000)
I1031 17:46:14.427798  8381 net.cpp:157] Top shape: 24 3 300 300 (6480000)
I1031 17:46:14.427800  8381 net.cpp:157] Top shape: 24 3 300 300 (6480000)
I1031 17:46:14.427803  8381 net.cpp:157] Top shape: 24 3 300 300 (6480000)
I1031 17:46:14.427806  8381 net.cpp:165] Memory required for data: 207360032
I1031 17:46:14.427809  8381 layer_factory.hpp:77] Creating layer conv0
I1031 17:46:14.427826  8381 net.cpp:100] Creating Layer conv0
I1031 17:46:14.427855  8381 net.cpp:478] conv0 <- data_data_0_split_0
I1031 17:46:14.427873  8381 net.cpp:452] conv0 -> conv0
I1031 17:46:14.461410  8422 blocking_queue.cpp:50] Waiting for data
I1031 17:46:14.956516  8381 net.cpp:150] Setting up conv0
I1031 17:46:14.956568  8381 net.cpp:157] Top shape: 24 32 150 150 (17280000)
I1031 17:46:14.956571  8381 net.cpp:165] Memory required for data: 276480032
I1031 17:46:14.956605  8381 layer_factory.hpp:77] Creating layer conv0/bn
I1031 17:46:14.956615  8381 net.cpp:100] Creating Layer conv0/bn
I1031 17:46:14.956620  8381 net.cpp:478] conv0/bn <- conv0
I1031 17:46:14.956629  8381 net.cpp:439] conv0/bn -> conv0 (in-place)
I1031 17:46:14.958091  8381 net.cpp:150] Setting up conv0/bn
I1031 17:46:14.958108  8381 net.cpp:157] Top shape: 24 32 150 150 (17280000)
I1031 17:46:14.958112  8381 net.cpp:165] Memory required for data: 345600032
I1031 17:46:14.958123  8381 layer_factory.hpp:77] Creating layer conv0/scale
I1031 17:46:14.958135  8381 net.cpp:100] Creating Layer conv0/scale
I1031 17:46:14.958143  8381 net.cpp:478] conv0/scale <- conv0
I1031 17:46:14.958150  8381 net.cpp:439] conv0/scale -> conv0 (in-place)
I1031 17:46:14.958197  8381 layer_factory.hpp:77] Creating layer conv0/scale
I1031 17:46:14.958386  8381 net.cpp:150] Setting up conv0/scale
I1031 17:46:14.958412  8381 net.cpp:157] Top shape: 24 32 150 150 (17280000)
I1031 17:46:14.958415  8381 net.cpp:165] Memory required for data: 414720032
I1031 17:46:14.958422  8381 layer_factory.hpp:77] Creating layer conv0/relu
I1031 17:46:14.958429  8381 net.cpp:100] Creating Layer conv0/relu
I1031 17:46:14.958436  8381 net.cpp:478] conv0/relu <- conv0
I1031 17:46:14.958441  8381 net.cpp:439] conv0/relu -> conv0 (in-place)
I1031 17:46:14.959506  8381 net.cpp:150] Setting up conv0/relu
I1031 17:46:14.959524  8381 net.cpp:157] Top shape: 24 32 150 150 (17280000)
I1031 17:46:14.959527  8381 net.cpp:165] Memory required for data: 483840032
I1031 17:46:14.959532  8381 layer_factory.hpp:77] Creating layer conv1/dw
I1031 17:46:14.959558  8381 net.cpp:100] Creating Layer conv1/dw
I1031 17:46:14.959560  8381 net.cpp:478] conv1/dw <- conv0
I1031 17:46:14.959566  8381 net.cpp:452] conv1/dw -> conv1/dw
I1031 17:46:14.959791  8381 net.cpp:150] Setting up conv1/dw
I1031 17:46:14.959803  8381 net.cpp:157] Top shape: 24 32 150 150 (17280000)
I1031 17:46:14.959811  8381 net.cpp:165] Memory required for data: 552960032
I1031 17:46:14.959816  8381 layer_factory.hpp:77] Creating layer conv1/dw/bn
I1031 17:46:14.959823  8381 net.cpp:100] Creating Layer conv1/dw/bn
I1031 17:46:14.959843  8381 net.cpp:478] conv1/dw/bn <- conv1/dw
I1031 17:46:14.959856  8381 net.cpp:439] conv1/dw/bn -> conv1/dw (in-place)
I1031 17:46:14.960065  8381 net.cpp:150] Setting up conv1/dw/bn
I1031 17:46:14.960079  8381 net.cpp:157] Top shape: 24 32 150 150 (17280000)
I1031 17:46:14.960083  8381 net.cpp:165] Memory required for data: 622080032
I1031 17:46:14.960108  8381 layer_factory.hpp:77] Creating layer conv1/dw/scale
I1031 17:46:14.960119  8381 net.cpp:100] Creating Layer conv1/dw/scale
I1031 17:46:14.960124  8381 net.cpp:478] conv1/dw/scale <- conv1/dw
I1031 17:46:14.960129  8381 net.cpp:439] conv1/dw/scale -> conv1/dw (in-place)
I1031 17:46:14.960188  8381 layer_factory.hpp:77] Creating layer conv1/dw/scale
I1031 17:46:14.960371  8381 net.cpp:150] Setting up conv1/dw/scale
I1031 17:46:14.960384  8381 net.cpp:157] Top shape: 24 32 150 150 (17280000)
I1031 17:46:14.960387  8381 net.cpp:165] Memory required for data: 691200032
I1031 17:46:14.960392  8381 layer_factory.hpp:77] Creating layer conv1/dw/relu
I1031 17:46:14.960397  8381 net.cpp:100] Creating Layer conv1/dw/relu
I1031 17:46:14.960402  8381 net.cpp:478] conv1/dw/relu <- conv1/dw
I1031 17:46:14.960405  8381 net.cpp:439] conv1/dw/relu -> conv1/dw (in-place)
I1031 17:46:14.960714  8381 net.cpp:150] Setting up conv1/dw/relu
I1031 17:46:14.960731  8381 net.cpp:157] Top shape: 24 32 150 150 (17280000)
I1031 17:46:14.960733  8381 net.cpp:165] Memory required for data: 760320032
I1031 17:46:14.960736  8381 layer_factory.hpp:77] Creating layer conv1
I1031 17:46:14.960746  8381 net.cpp:100] Creating Layer conv1
I1031 17:46:14.960752  8381 net.cpp:478] conv1 <- conv1/dw
I1031 17:46:14.960758  8381 net.cpp:452] conv1 -> conv1
I1031 17:46:14.964745  8381 net.cpp:150] Setting up conv1
I1031 17:46:14.964767  8381 net.cpp:157] Top shape: 24 64 150 150 (34560000)
I1031 17:46:14.964771  8381 net.cpp:165] Memory required for data: 898560032
I1031 17:46:14.964777  8381 layer_factory.hpp:77] Creating layer conv1/bn
I1031 17:46:14.964788  8381 net.cpp:100] Creating Layer conv1/bn
I1031 17:46:14.964792  8381 net.cpp:478] conv1/bn <- conv1
I1031 17:46:14.964797  8381 net.cpp:439] conv1/bn -> conv1 (in-place)
I1031 17:46:14.965049  8381 net.cpp:150] Setting up conv1/bn
I1031 17:46:14.965064  8381 net.cpp:157] Top shape: 24 64 150 150 (34560000)
I1031 17:46:14.965067  8381 net.cpp:165] Memory required for data: 1036800032
I1031 17:46:14.965075  8381 layer_factory.hpp:77] Creating layer conv1/scale
I1031 17:46:14.965085  8381 net.cpp:100] Creating Layer conv1/scale
I1031 17:46:14.965087  8381 net.cpp:478] conv1/scale <- conv1
I1031 17:46:14.965093  8381 net.cpp:439] conv1/scale -> conv1 (in-place)
I1031 17:46:14.965142  8381 layer_factory.hpp:77] Creating layer conv1/scale
I1031 17:46:14.965332  8381 net.cpp:150] Setting up conv1/scale
I1031 17:46:14.965343  8381 net.cpp:157] Top shape: 24 64 150 150 (34560000)
I1031 17:46:14.965346  8381 net.cpp:165] Memory required for data: 1175040032
I1031 17:46:14.965356  8381 layer_factory.hpp:77] Creating layer conv1/relu
I1031 17:46:14.965366  8381 net.cpp:100] Creating Layer conv1/relu
I1031 17:46:14.965371  8381 net.cpp:478] conv1/relu <- conv1
I1031 17:46:14.965375  8381 net.cpp:439] conv1/relu -> conv1 (in-place)
I1031 17:46:14.966305  8381 net.cpp:150] Setting up conv1/relu
I1031 17:46:14.966325  8381 net.cpp:157] Top shape: 24 64 150 150 (34560000)
I1031 17:46:14.966328  8381 net.cpp:165] Memory required for data: 1313280032
I1031 17:46:14.966331  8381 layer_factory.hpp:77] Creating layer conv2/dw
I1031 17:46:14.966341  8381 net.cpp:100] Creating Layer conv2/dw
I1031 17:46:14.966348  8381 net.cpp:478] conv2/dw <- conv1
I1031 17:46:14.966356  8381 net.cpp:452] conv2/dw -> conv2/dw
I1031 17:46:14.966537  8381 net.cpp:150] Setting up conv2/dw
I1031 17:46:14.966548  8381 net.cpp:157] Top shape: 24 64 75 75 (8640000)
I1031 17:46:14.966552  8381 net.cpp:165] Memory required for data: 1347840032
I1031 17:46:14.966555  8381 layer_factory.hpp:77] Creating layer conv2/dw/bn
I1031 17:46:14.966560  8381 net.cpp:100] Creating Layer conv2/dw/bn
I1031 17:46:14.966564  8381 net.cpp:478] conv2/dw/bn <- conv2/dw
I1031 17:46:14.966570  8381 net.cpp:439] conv2/dw/bn -> conv2/dw (in-place)
I1031 17:46:14.967798  8381 net.cpp:150] Setting up conv2/dw/bn
I1031 17:46:14.967820  8381 net.cpp:157] Top shape: 24 64 75 75 (8640000)
I1031 17:46:14.967824  8381 net.cpp:165] Memory required for data: 1382400032
I1031 17:46:14.967831  8381 layer_factory.hpp:77] Creating layer conv2/dw/scale
I1031 17:46:14.967841  8381 net.cpp:100] Creating Layer conv2/dw/scale
I1031 17:46:14.967849  8381 net.cpp:478] conv2/dw/scale <- conv2/dw
I1031 17:46:14.967855  8381 net.cpp:439] conv2/dw/scale -> conv2/dw (in-place)
I1031 17:46:14.967916  8381 layer_factory.hpp:77] Creating layer conv2/dw/scale
I1031 17:46:14.968053  8381 net.cpp:150] Setting up conv2/dw/scale
I1031 17:46:14.968065  8381 net.cpp:157] Top shape: 24 64 75 75 (8640000)
I1031 17:46:14.968067  8381 net.cpp:165] Memory required for data: 1416960032
I1031 17:46:14.968072  8381 layer_factory.hpp:77] Creating layer conv2/dw/relu
I1031 17:46:14.968080  8381 net.cpp:100] Creating Layer conv2/dw/relu
I1031 17:46:14.968086  8381 net.cpp:478] conv2/dw/relu <- conv2/dw
I1031 17:46:14.968089  8381 net.cpp:439] conv2/dw/relu -> conv2/dw (in-place)
I1031 17:46:14.968364  8381 net.cpp:150] Setting up conv2/dw/relu
I1031 17:46:14.968379  8381 net.cpp:157] Top shape: 24 64 75 75 (8640000)
I1031 17:46:14.968381  8381 net.cpp:165] Memory required for data: 1451520032
I1031 17:46:14.968384  8381 layer_factory.hpp:77] Creating layer conv2
I1031 17:46:14.968395  8381 net.cpp:100] Creating Layer conv2
I1031 17:46:14.968401  8381 net.cpp:478] conv2 <- conv2/dw
I1031 17:46:14.968407  8381 net.cpp:452] conv2 -> conv2
I1031 17:46:14.970983  8381 net.cpp:150] Setting up conv2
I1031 17:46:14.971017  8381 net.cpp:157] Top shape: 24 128 75 75 (17280000)
I1031 17:46:14.971020  8381 net.cpp:165] Memory required for data: 1520640032
I1031 17:46:14.971026  8381 layer_factory.hpp:77] Creating layer conv2/bn
I1031 17:46:14.971035  8381 net.cpp:100] Creating Layer conv2/bn
I1031 17:46:14.971038  8381 net.cpp:478] conv2/bn <- conv2
I1031 17:46:14.971058  8381 net.cpp:439] conv2/bn -> conv2 (in-place)
I1031 17:46:14.971266  8381 net.cpp:150] Setting up conv2/bn
I1031 17:46:14.971277  8381 net.cpp:157] Top shape: 24 128 75 75 (17280000)
I1031 17:46:14.971280  8381 net.cpp:165] Memory required for data: 1589760032
I1031 17:46:14.971287  8381 layer_factory.hpp:77] Creating layer conv2/scale
I1031 17:46:14.971293  8381 net.cpp:100] Creating Layer conv2/scale
I1031 17:46:14.971295  8381 net.cpp:478] conv2/scale <- conv2
I1031 17:46:14.971299  8381 net.cpp:439] conv2/scale -> conv2 (in-place)
I1031 17:46:14.971339  8381 layer_factory.hpp:77] Creating layer conv2/scale
I1031 17:46:14.971446  8381 net.cpp:150] Setting up conv2/scale
I1031 17:46:14.971472  8381 net.cpp:157] Top shape: 24 128 75 75 (17280000)
I1031 17:46:14.971488  8381 net.cpp:165] Memory required for data: 1658880032
I1031 17:46:14.971494  8381 layer_factory.hpp:77] Creating layer conv2/relu
I1031 17:46:14.971498  8381 net.cpp:100] Creating Layer conv2/relu
I1031 17:46:14.971503  8381 net.cpp:478] conv2/relu <- conv2
I1031 17:46:14.971509  8381 net.cpp:439] conv2/relu -> conv2 (in-place)
I1031 17:46:14.972503  8381 net.cpp:150] Setting up conv2/relu
I1031 17:46:14.972522  8381 net.cpp:157] Top shape: 24 128 75 75 (17280000)
I1031 17:46:14.972524  8381 net.cpp:165] Memory required for data: 1728000032
I1031 17:46:14.972527  8381 layer_factory.hpp:77] Creating layer conv3/dw
I1031 17:46:14.972537  8381 net.cpp:100] Creating Layer conv3/dw
I1031 17:46:14.972543  8381 net.cpp:478] conv3/dw <- conv2
I1031 17:46:14.972550  8381 net.cpp:452] conv3/dw -> conv3/dw
I1031 17:46:14.972728  8381 net.cpp:150] Setting up conv3/dw
I1031 17:46:14.972738  8381 net.cpp:157] Top shape: 24 128 75 75 (17280000)
I1031 17:46:14.972740  8381 net.cpp:165] Memory required for data: 1797120032
I1031 17:46:14.972744  8381 layer_factory.hpp:77] Creating layer conv3/dw/bn
I1031 17:46:14.972749  8381 net.cpp:100] Creating Layer conv3/dw/bn
I1031 17:46:14.972753  8381 net.cpp:478] conv3/dw/bn <- conv3/dw
I1031 17:46:14.972757  8381 net.cpp:439] conv3/dw/bn -> conv3/dw (in-place)
I1031 17:46:14.972964  8381 net.cpp:150] Setting up conv3/dw/bn
I1031 17:46:14.972975  8381 net.cpp:157] Top shape: 24 128 75 75 (17280000)
I1031 17:46:14.972977  8381 net.cpp:165] Memory required for data: 1866240032
I1031 17:46:14.972990  8381 layer_factory.hpp:77] Creating layer conv3/dw/scale
I1031 17:46:14.973000  8381 net.cpp:100] Creating Layer conv3/dw/scale
I1031 17:46:14.973002  8381 net.cpp:478] conv3/dw/scale <- conv3/dw
I1031 17:46:14.973006  8381 net.cpp:439] conv3/dw/scale -> conv3/dw (in-place)
I1031 17:46:14.973065  8381 layer_factory.hpp:77] Creating layer conv3/dw/scale
I1031 17:46:14.973177  8381 net.cpp:150] Setting up conv3/dw/scale
I1031 17:46:14.973188  8381 net.cpp:157] Top shape: 24 128 75 75 (17280000)
I1031 17:46:14.973191  8381 net.cpp:165] Memory required for data: 1935360032
I1031 17:46:14.973196  8381 layer_factory.hpp:77] Creating layer conv3/dw/relu
I1031 17:46:14.973201  8381 net.cpp:100] Creating Layer conv3/dw/relu
I1031 17:46:14.973204  8381 net.cpp:478] conv3/dw/relu <- conv3/dw
I1031 17:46:14.973211  8381 net.cpp:439] conv3/dw/relu -> conv3/dw (in-place)
I1031 17:46:14.974148  8381 net.cpp:150] Setting up conv3/dw/relu
I1031 17:46:14.974166  8381 net.cpp:157] Top shape: 24 128 75 75 (17280000)
I1031 17:46:14.974169  8381 net.cpp:165] Memory required for data: 2004480032
I1031 17:46:14.974172  8381 layer_factory.hpp:77] Creating layer conv3
I1031 17:46:14.974182  8381 net.cpp:100] Creating Layer conv3
I1031 17:46:14.974189  8381 net.cpp:478] conv3 <- conv3/dw
I1031 17:46:14.974197  8381 net.cpp:452] conv3 -> conv3
I1031 17:46:14.976791  8381 net.cpp:150] Setting up conv3
I1031 17:46:14.976811  8381 net.cpp:157] Top shape: 24 128 75 75 (17280000)
I1031 17:46:14.976814  8381 net.cpp:165] Memory required for data: 2073600032
I1031 17:46:14.976841  8381 layer_factory.hpp:77] Creating layer conv3/bn
I1031 17:46:14.976863  8381 net.cpp:100] Creating Layer conv3/bn
I1031 17:46:14.976867  8381 net.cpp:478] conv3/bn <- conv3
I1031 17:46:14.976871  8381 net.cpp:439] conv3/bn -> conv3 (in-place)
I1031 17:46:14.977087  8381 net.cpp:150] Setting up conv3/bn
I1031 17:46:14.977099  8381 net.cpp:157] Top shape: 24 128 75 75 (17280000)
I1031 17:46:14.977102  8381 net.cpp:165] Memory required for data: 2142720032
I1031 17:46:14.977108  8381 layer_factory.hpp:77] Creating layer conv3/scale
I1031 17:46:14.977114  8381 net.cpp:100] Creating Layer conv3/scale
I1031 17:46:14.977120  8381 net.cpp:478] conv3/scale <- conv3
I1031 17:46:14.977124  8381 net.cpp:439] conv3/scale -> conv3 (in-place)
I1031 17:46:14.977166  8381 layer_factory.hpp:77] Creating layer conv3/scale
I1031 17:46:14.977293  8381 net.cpp:150] Setting up conv3/scale
I1031 17:46:14.977303  8381 net.cpp:157] Top shape: 24 128 75 75 (17280000)
I1031 17:46:14.977305  8381 net.cpp:165] Memory required for data: 2211840032
I1031 17:46:14.977310  8381 layer_factory.hpp:77] Creating layer conv3/relu
I1031 17:46:14.977316  8381 net.cpp:100] Creating Layer conv3/relu
I1031 17:46:14.977319  8381 net.cpp:478] conv3/relu <- conv3
I1031 17:46:14.977322  8381 net.cpp:439] conv3/relu -> conv3 (in-place)
I1031 17:46:14.977612  8381 net.cpp:150] Setting up conv3/relu
I1031 17:46:14.977627  8381 net.cpp:157] Top shape: 24 128 75 75 (17280000)
I1031 17:46:14.977630  8381 net.cpp:165] Memory required for data: 2280960032
I1031 17:46:14.977632  8381 layer_factory.hpp:77] Creating layer conv4/dw
I1031 17:46:14.977643  8381 net.cpp:100] Creating Layer conv4/dw
I1031 17:46:14.977660  8381 net.cpp:478] conv4/dw <- conv3
I1031 17:46:14.977666  8381 net.cpp:452] conv4/dw -> conv4/dw
I1031 17:46:14.977861  8381 net.cpp:150] Setting up conv4/dw
I1031 17:46:14.977874  8381 net.cpp:157] Top shape: 24 128 38 38 (4435968)
I1031 17:46:14.977877  8381 net.cpp:165] Memory required for data: 2298703904
I1031 17:46:14.977881  8381 layer_factory.hpp:77] Creating layer conv4/dw/bn
I1031 17:46:14.977887  8381 net.cpp:100] Creating Layer conv4/dw/bn
I1031 17:46:14.977906  8381 net.cpp:478] conv4/dw/bn <- conv4/dw
I1031 17:46:14.977910  8381 net.cpp:439] conv4/dw/bn -> conv4/dw (in-place)
I1031 17:46:14.978082  8381 net.cpp:150] Setting up conv4/dw/bn
I1031 17:46:14.978094  8381 net.cpp:157] Top shape: 24 128 38 38 (4435968)
I1031 17:46:14.978097  8381 net.cpp:165] Memory required for data: 2316447776
I1031 17:46:14.978102  8381 layer_factory.hpp:77] Creating layer conv4/dw/scale
I1031 17:46:14.978127  8381 net.cpp:100] Creating Layer conv4/dw/scale
I1031 17:46:14.978148  8381 net.cpp:478] conv4/dw/scale <- conv4/dw
I1031 17:46:14.978153  8381 net.cpp:439] conv4/dw/scale -> conv4/dw (in-place)
I1031 17:46:14.978209  8381 layer_factory.hpp:77] Creating layer conv4/dw/scale
I1031 17:46:14.978348  8381 net.cpp:150] Setting up conv4/dw/scale
I1031 17:46:14.978360  8381 net.cpp:157] Top shape: 24 128 38 38 (4435968)
I1031 17:46:14.978363  8381 net.cpp:165] Memory required for data: 2334191648
I1031 17:46:14.978368  8381 layer_factory.hpp:77] Creating layer conv4/dw/relu
I1031 17:46:14.978373  8381 net.cpp:100] Creating Layer conv4/dw/relu
I1031 17:46:14.978375  8381 net.cpp:478] conv4/dw/relu <- conv4/dw
I1031 17:46:14.978379  8381 net.cpp:439] conv4/dw/relu -> conv4/dw (in-place)
I1031 17:46:14.979308  8381 net.cpp:150] Setting up conv4/dw/relu
I1031 17:46:14.979326  8381 net.cpp:157] Top shape: 24 128 38 38 (4435968)
I1031 17:46:14.979329  8381 net.cpp:165] Memory required for data: 2351935520
I1031 17:46:14.979332  8381 layer_factory.hpp:77] Creating layer conv4
I1031 17:46:14.979341  8381 net.cpp:100] Creating Layer conv4
I1031 17:46:14.979344  8381 net.cpp:478] conv4 <- conv4/dw
I1031 17:46:14.979351  8381 net.cpp:452] conv4 -> conv4
I1031 17:46:14.982076  8381 net.cpp:150] Setting up conv4
I1031 17:46:14.982097  8381 net.cpp:157] Top shape: 24 256 38 38 (8871936)
I1031 17:46:14.982115  8381 net.cpp:165] Memory required for data: 2387423264
I1031 17:46:14.982120  8381 layer_factory.hpp:77] Creating layer conv4/bn
I1031 17:46:14.982126  8381 net.cpp:100] Creating Layer conv4/bn
I1031 17:46:14.982130  8381 net.cpp:478] conv4/bn <- conv4
I1031 17:46:14.982136  8381 net.cpp:439] conv4/bn -> conv4 (in-place)
I1031 17:46:14.982327  8381 net.cpp:150] Setting up conv4/bn
I1031 17:46:14.982339  8381 net.cpp:157] Top shape: 24 256 38 38 (8871936)
I1031 17:46:14.982342  8381 net.cpp:165] Memory required for data: 2422911008
I1031 17:46:14.982347  8381 layer_factory.hpp:77] Creating layer conv4/scale
I1031 17:46:14.982355  8381 net.cpp:100] Creating Layer conv4/scale
I1031 17:46:14.982363  8381 net.cpp:478] conv4/scale <- conv4
I1031 17:46:14.982367  8381 net.cpp:439] conv4/scale -> conv4 (in-place)
I1031 17:46:14.982424  8381 layer_factory.hpp:77] Creating layer conv4/scale
I1031 17:46:14.982544  8381 net.cpp:150] Setting up conv4/scale
I1031 17:46:14.982555  8381 net.cpp:157] Top shape: 24 256 38 38 (8871936)
I1031 17:46:14.982558  8381 net.cpp:165] Memory required for data: 2458398752
I1031 17:46:14.982563  8381 layer_factory.hpp:77] Creating layer conv4/relu
I1031 17:46:14.982568  8381 net.cpp:100] Creating Layer conv4/relu
I1031 17:46:14.982578  8381 net.cpp:478] conv4/relu <- conv4
I1031 17:46:14.982585  8381 net.cpp:439] conv4/relu -> conv4 (in-place)
I1031 17:46:14.982868  8381 net.cpp:150] Setting up conv4/relu
I1031 17:46:14.982900  8381 net.cpp:157] Top shape: 24 256 38 38 (8871936)
I1031 17:46:14.982918  8381 net.cpp:165] Memory required for data: 2493886496
I1031 17:46:14.982923  8381 layer_factory.hpp:77] Creating layer conv5/dw
I1031 17:46:14.982945  8381 net.cpp:100] Creating Layer conv5/dw
I1031 17:46:14.982949  8381 net.cpp:478] conv5/dw <- conv4
I1031 17:46:14.982954  8381 net.cpp:452] conv5/dw -> conv5/dw
I1031 17:46:14.983212  8381 net.cpp:150] Setting up conv5/dw
I1031 17:46:14.983239  8381 net.cpp:157] Top shape: 24 256 38 38 (8871936)
I1031 17:46:14.983242  8381 net.cpp:165] Memory required for data: 2529374240
I1031 17:46:14.983261  8381 layer_factory.hpp:77] Creating layer conv5/dw/bn
I1031 17:46:14.983268  8381 net.cpp:100] Creating Layer conv5/dw/bn
I1031 17:46:14.983284  8381 net.cpp:478] conv5/dw/bn <- conv5/dw
I1031 17:46:14.983289  8381 net.cpp:439] conv5/dw/bn -> conv5/dw (in-place)
I1031 17:46:14.983499  8381 net.cpp:150] Setting up conv5/dw/bn
I1031 17:46:14.983508  8381 net.cpp:157] Top shape: 24 256 38 38 (8871936)
I1031 17:46:14.983510  8381 net.cpp:165] Memory required for data: 2564861984
I1031 17:46:14.983516  8381 layer_factory.hpp:77] Creating layer conv5/dw/scale
I1031 17:46:14.983532  8381 net.cpp:100] Creating Layer conv5/dw/scale
I1031 17:46:14.983539  8381 net.cpp:478] conv5/dw/scale <- conv5/dw
I1031 17:46:14.983543  8381 net.cpp:439] conv5/dw/scale -> conv5/dw (in-place)
I1031 17:46:14.983610  8381 layer_factory.hpp:77] Creating layer conv5/dw/scale
I1031 17:46:14.983721  8381 net.cpp:150] Setting up conv5/dw/scale
I1031 17:46:14.983731  8381 net.cpp:157] Top shape: 24 256 38 38 (8871936)
I1031 17:46:14.983734  8381 net.cpp:165] Memory required for data: 2600349728
I1031 17:46:14.983739  8381 layer_factory.hpp:77] Creating layer conv5/dw/relu
I1031 17:46:14.983748  8381 net.cpp:100] Creating Layer conv5/dw/relu
I1031 17:46:14.983753  8381 net.cpp:478] conv5/dw/relu <- conv5/dw
I1031 17:46:14.983757  8381 net.cpp:439] conv5/dw/relu -> conv5/dw (in-place)
I1031 17:46:14.984786  8381 net.cpp:150] Setting up conv5/dw/relu
I1031 17:46:14.984805  8381 net.cpp:157] Top shape: 24 256 38 38 (8871936)
I1031 17:46:14.984808  8381 net.cpp:165] Memory required for data: 2635837472
I1031 17:46:14.984812  8381 layer_factory.hpp:77] Creating layer conv5
I1031 17:46:14.984828  8381 net.cpp:100] Creating Layer conv5
I1031 17:46:14.984836  8381 net.cpp:478] conv5 <- conv5/dw
I1031 17:46:14.984843  8381 net.cpp:452] conv5 -> conv5
I1031 17:46:14.988795  8381 net.cpp:150] Setting up conv5
I1031 17:46:14.988822  8381 net.cpp:157] Top shape: 24 256 38 38 (8871936)
I1031 17:46:14.988826  8381 net.cpp:165] Memory required for data: 2671325216
I1031 17:46:14.988831  8381 layer_factory.hpp:77] Creating layer conv5/bn
I1031 17:46:14.988837  8381 net.cpp:100] Creating Layer conv5/bn
I1031 17:46:14.988839  8381 net.cpp:478] conv5/bn <- conv5
I1031 17:46:14.988845  8381 net.cpp:439] conv5/bn -> conv5 (in-place)
I1031 17:46:14.989101  8381 net.cpp:150] Setting up conv5/bn
I1031 17:46:14.989114  8381 net.cpp:157] Top shape: 24 256 38 38 (8871936)
I1031 17:46:14.989115  8381 net.cpp:165] Memory required for data: 2706812960
I1031 17:46:14.989122  8381 layer_factory.hpp:77] Creating layer conv5/scale
I1031 17:46:14.989143  8381 net.cpp:100] Creating Layer conv5/scale
I1031 17:46:14.989151  8381 net.cpp:478] conv5/scale <- conv5
I1031 17:46:14.989156  8381 net.cpp:439] conv5/scale -> conv5 (in-place)
I1031 17:46:14.989213  8381 layer_factory.hpp:77] Creating layer conv5/scale
I1031 17:46:14.989348  8381 net.cpp:150] Setting up conv5/scale
I1031 17:46:14.989359  8381 net.cpp:157] Top shape: 24 256 38 38 (8871936)
I1031 17:46:14.989362  8381 net.cpp:165] Memory required for data: 2742300704
I1031 17:46:14.989377  8381 layer_factory.hpp:77] Creating layer conv5/relu
I1031 17:46:14.989384  8381 net.cpp:100] Creating Layer conv5/relu
I1031 17:46:14.989387  8381 net.cpp:478] conv5/relu <- conv5
I1031 17:46:14.989392  8381 net.cpp:439] conv5/relu -> conv5 (in-place)
I1031 17:46:14.990289  8381 net.cpp:150] Setting up conv5/relu
I1031 17:46:14.990309  8381 net.cpp:157] Top shape: 24 256 38 38 (8871936)
I1031 17:46:14.990312  8381 net.cpp:165] Memory required for data: 2777788448
I1031 17:46:14.990316  8381 layer_factory.hpp:77] Creating layer conv6/dw
I1031 17:46:14.990325  8381 net.cpp:100] Creating Layer conv6/dw
I1031 17:46:14.990331  8381 net.cpp:478] conv6/dw <- conv5
I1031 17:46:14.990337  8381 net.cpp:452] conv6/dw -> conv6/dw
I1031 17:46:14.990546  8381 net.cpp:150] Setting up conv6/dw
I1031 17:46:14.990557  8381 net.cpp:157] Top shape: 24 256 19 19 (2217984)
I1031 17:46:14.990561  8381 net.cpp:165] Memory required for data: 2786660384
I1031 17:46:14.990564  8381 layer_factory.hpp:77] Creating layer conv6/dw/bn
I1031 17:46:14.990571  8381 net.cpp:100] Creating Layer conv6/dw/bn
I1031 17:46:14.990578  8381 net.cpp:478] conv6/dw/bn <- conv6/dw
I1031 17:46:14.990582  8381 net.cpp:439] conv6/dw/bn -> conv6/dw (in-place)
I1031 17:46:14.990757  8381 net.cpp:150] Setting up conv6/dw/bn
I1031 17:46:14.990767  8381 net.cpp:157] Top shape: 24 256 19 19 (2217984)
I1031 17:46:14.990769  8381 net.cpp:165] Memory required for data: 2795532320
I1031 17:46:14.990775  8381 layer_factory.hpp:77] Creating layer conv6/dw/scale
I1031 17:46:14.990782  8381 net.cpp:100] Creating Layer conv6/dw/scale
I1031 17:46:14.990788  8381 net.cpp:478] conv6/dw/scale <- conv6/dw
I1031 17:46:14.990792  8381 net.cpp:439] conv6/dw/scale -> conv6/dw (in-place)
I1031 17:46:14.990885  8381 layer_factory.hpp:77] Creating layer conv6/dw/scale
I1031 17:46:14.991016  8381 net.cpp:150] Setting up conv6/dw/scale
I1031 17:46:14.991026  8381 net.cpp:157] Top shape: 24 256 19 19 (2217984)
I1031 17:46:14.991029  8381 net.cpp:165] Memory required for data: 2804404256
I1031 17:46:14.991034  8381 layer_factory.hpp:77] Creating layer conv6/dw/relu
I1031 17:46:14.991042  8381 net.cpp:100] Creating Layer conv6/dw/relu
I1031 17:46:14.991046  8381 net.cpp:478] conv6/dw/relu <- conv6/dw
I1031 17:46:14.991050  8381 net.cpp:439] conv6/dw/relu -> conv6/dw (in-place)
I1031 17:46:14.992250  8381 net.cpp:150] Setting up conv6/dw/relu
I1031 17:46:14.992269  8381 net.cpp:157] Top shape: 24 256 19 19 (2217984)
I1031 17:46:14.992271  8381 net.cpp:165] Memory required for data: 2813276192
I1031 17:46:14.992274  8381 layer_factory.hpp:77] Creating layer conv6
I1031 17:46:14.992283  8381 net.cpp:100] Creating Layer conv6
I1031 17:46:14.992290  8381 net.cpp:478] conv6 <- conv6/dw
I1031 17:46:14.992296  8381 net.cpp:452] conv6 -> conv6
I1031 17:46:14.996769  8381 net.cpp:150] Setting up conv6
I1031 17:46:14.996790  8381 net.cpp:157] Top shape: 24 512 19 19 (4435968)
I1031 17:46:14.996793  8381 net.cpp:165] Memory required for data: 2831020064
I1031 17:46:14.996798  8381 layer_factory.hpp:77] Creating layer conv6/bn
I1031 17:46:14.996824  8381 net.cpp:100] Creating Layer conv6/bn
I1031 17:46:14.996827  8381 net.cpp:478] conv6/bn <- conv6
I1031 17:46:14.996836  8381 net.cpp:439] conv6/bn -> conv6 (in-place)
I1031 17:46:14.997081  8381 net.cpp:150] Setting up conv6/bn
I1031 17:46:14.997093  8381 net.cpp:157] Top shape: 24 512 19 19 (4435968)
I1031 17:46:14.997097  8381 net.cpp:165] Memory required for data: 2848763936
I1031 17:46:14.997102  8381 layer_factory.hpp:77] Creating layer conv6/scale
I1031 17:46:14.997112  8381 net.cpp:100] Creating Layer conv6/scale
I1031 17:46:14.997124  8381 net.cpp:478] conv6/scale <- conv6
I1031 17:46:14.997128  8381 net.cpp:439] conv6/scale -> conv6 (in-place)
I1031 17:46:14.997205  8381 layer_factory.hpp:77] Creating layer conv6/scale
I1031 17:46:14.997344  8381 net.cpp:150] Setting up conv6/scale
I1031 17:46:14.997354  8381 net.cpp:157] Top shape: 24 512 19 19 (4435968)
I1031 17:46:14.997356  8381 net.cpp:165] Memory required for data: 2866507808
I1031 17:46:14.997362  8381 layer_factory.hpp:77] Creating layer conv6/relu
I1031 17:46:14.997366  8381 net.cpp:100] Creating Layer conv6/relu
I1031 17:46:14.997370  8381 net.cpp:478] conv6/relu <- conv6
I1031 17:46:14.997375  8381 net.cpp:439] conv6/relu -> conv6 (in-place)
I1031 17:46:14.998301  8381 net.cpp:150] Setting up conv6/relu
I1031 17:46:14.998333  8381 net.cpp:157] Top shape: 24 512 19 19 (4435968)
I1031 17:46:14.998337  8381 net.cpp:165] Memory required for data: 2884251680
I1031 17:46:14.998340  8381 layer_factory.hpp:77] Creating layer conv7/dw
I1031 17:46:14.998349  8381 net.cpp:100] Creating Layer conv7/dw
I1031 17:46:14.998356  8381 net.cpp:478] conv7/dw <- conv6
I1031 17:46:14.998379  8381 net.cpp:452] conv7/dw -> conv7/dw
I1031 17:46:14.998643  8381 net.cpp:150] Setting up conv7/dw
I1031 17:46:14.998656  8381 net.cpp:157] Top shape: 24 512 19 19 (4435968)
I1031 17:46:14.998657  8381 net.cpp:165] Memory required for data: 2901995552
I1031 17:46:14.998661  8381 layer_factory.hpp:77] Creating layer conv7/dw/bn
I1031 17:46:14.998667  8381 net.cpp:100] Creating Layer conv7/dw/bn
I1031 17:46:14.998672  8381 net.cpp:478] conv7/dw/bn <- conv7/dw
I1031 17:46:14.998678  8381 net.cpp:439] conv7/dw/bn -> conv7/dw (in-place)
I1031 17:46:14.998893  8381 net.cpp:150] Setting up conv7/dw/bn
I1031 17:46:14.998904  8381 net.cpp:157] Top shape: 24 512 19 19 (4435968)
I1031 17:46:14.998908  8381 net.cpp:165] Memory required for data: 2919739424
I1031 17:46:14.998914  8381 layer_factory.hpp:77] Creating layer conv7/dw/scale
I1031 17:46:14.998924  8381 net.cpp:100] Creating Layer conv7/dw/scale
I1031 17:46:14.998926  8381 net.cpp:478] conv7/dw/scale <- conv7/dw
I1031 17:46:14.998931  8381 net.cpp:439] conv7/dw/scale -> conv7/dw (in-place)
I1031 17:46:14.998991  8381 layer_factory.hpp:77] Creating layer conv7/dw/scale
I1031 17:46:14.999107  8381 net.cpp:150] Setting up conv7/dw/scale
I1031 17:46:14.999132  8381 net.cpp:157] Top shape: 24 512 19 19 (4435968)
I1031 17:46:14.999135  8381 net.cpp:165] Memory required for data: 2937483296
I1031 17:46:14.999140  8381 layer_factory.hpp:77] Creating layer conv7/dw/relu
I1031 17:46:14.999146  8381 net.cpp:100] Creating Layer conv7/dw/relu
I1031 17:46:14.999150  8381 net.cpp:478] conv7/dw/relu <- conv7/dw
I1031 17:46:14.999155  8381 net.cpp:439] conv7/dw/relu -> conv7/dw (in-place)
I1031 17:46:14.999454  8381 net.cpp:150] Setting up conv7/dw/relu
I1031 17:46:14.999469  8381 net.cpp:157] Top shape: 24 512 19 19 (4435968)
I1031 17:46:14.999471  8381 net.cpp:165] Memory required for data: 2955227168
I1031 17:46:14.999475  8381 layer_factory.hpp:77] Creating layer conv7
I1031 17:46:14.999501  8381 net.cpp:100] Creating Layer conv7
I1031 17:46:14.999521  8381 net.cpp:478] conv7 <- conv7/dw
I1031 17:46:14.999544  8381 net.cpp:452] conv7 -> conv7
I1031 17:46:15.006330  8381 net.cpp:150] Setting up conv7
I1031 17:46:15.006350  8381 net.cpp:157] Top shape: 24 512 19 19 (4435968)
I1031 17:46:15.006353  8381 net.cpp:165] Memory required for data: 2972971040
I1031 17:46:15.006358  8381 layer_factory.hpp:77] Creating layer conv7/bn
I1031 17:46:15.006364  8381 net.cpp:100] Creating Layer conv7/bn
I1031 17:46:15.006367  8381 net.cpp:478] conv7/bn <- conv7
I1031 17:46:15.006373  8381 net.cpp:439] conv7/bn -> conv7 (in-place)
I1031 17:46:15.006664  8381 net.cpp:150] Setting up conv7/bn
I1031 17:46:15.006691  8381 net.cpp:157] Top shape: 24 512 19 19 (4435968)
I1031 17:46:15.006693  8381 net.cpp:165] Memory required for data: 2990714912
I1031 17:46:15.006700  8381 layer_factory.hpp:77] Creating layer conv7/scale
I1031 17:46:15.006721  8381 net.cpp:100] Creating Layer conv7/scale
I1031 17:46:15.006724  8381 net.cpp:478] conv7/scale <- conv7
I1031 17:46:15.006732  8381 net.cpp:439] conv7/scale -> conv7 (in-place)
I1031 17:46:15.006795  8381 layer_factory.hpp:77] Creating layer conv7/scale
I1031 17:46:15.006960  8381 net.cpp:150] Setting up conv7/scale
I1031 17:46:15.006973  8381 net.cpp:157] Top shape: 24 512 19 19 (4435968)
I1031 17:46:15.006975  8381 net.cpp:165] Memory required for data: 3008458784
I1031 17:46:15.006980  8381 layer_factory.hpp:77] Creating layer conv7/relu
I1031 17:46:15.006988  8381 net.cpp:100] Creating Layer conv7/relu
I1031 17:46:15.006990  8381 net.cpp:478] conv7/relu <- conv7
I1031 17:46:15.006995  8381 net.cpp:439] conv7/relu -> conv7 (in-place)
I1031 17:46:15.007958  8381 net.cpp:150] Setting up conv7/relu
I1031 17:46:15.007979  8381 net.cpp:157] Top shape: 24 512 19 19 (4435968)
I1031 17:46:15.007982  8381 net.cpp:165] Memory required for data: 3026202656
I1031 17:46:15.007985  8381 layer_factory.hpp:77] Creating layer conv8/dw
I1031 17:46:15.007995  8381 net.cpp:100] Creating Layer conv8/dw
I1031 17:46:15.007998  8381 net.cpp:478] conv8/dw <- conv7
I1031 17:46:15.008004  8381 net.cpp:452] conv8/dw -> conv8/dw
I1031 17:46:15.008256  8381 net.cpp:150] Setting up conv8/dw
I1031 17:46:15.008270  8381 net.cpp:157] Top shape: 24 512 19 19 (4435968)
I1031 17:46:15.008271  8381 net.cpp:165] Memory required for data: 3043946528
I1031 17:46:15.008276  8381 layer_factory.hpp:77] Creating layer conv8/dw/bn
I1031 17:46:15.008280  8381 net.cpp:100] Creating Layer conv8/dw/bn
I1031 17:46:15.008283  8381 net.cpp:478] conv8/dw/bn <- conv8/dw
I1031 17:46:15.008289  8381 net.cpp:439] conv8/dw/bn -> conv8/dw (in-place)
I1031 17:46:15.008548  8381 net.cpp:150] Setting up conv8/dw/bn
I1031 17:46:15.008559  8381 net.cpp:157] Top shape: 24 512 19 19 (4435968)
I1031 17:46:15.008563  8381 net.cpp:165] Memory required for data: 3061690400
I1031 17:46:15.008569  8381 layer_factory.hpp:77] Creating layer conv8/dw/scale
I1031 17:46:15.008586  8381 net.cpp:100] Creating Layer conv8/dw/scale
I1031 17:46:15.008592  8381 net.cpp:478] conv8/dw/scale <- conv8/dw
I1031 17:46:15.008597  8381 net.cpp:439] conv8/dw/scale -> conv8/dw (in-place)
I1031 17:46:15.008694  8381 layer_factory.hpp:77] Creating layer conv8/dw/scale
I1031 17:46:15.008862  8381 net.cpp:150] Setting up conv8/dw/scale
I1031 17:46:15.008874  8381 net.cpp:157] Top shape: 24 512 19 19 (4435968)
I1031 17:46:15.008877  8381 net.cpp:165] Memory required for data: 3079434272
I1031 17:46:15.008883  8381 layer_factory.hpp:77] Creating layer conv8/dw/relu
I1031 17:46:15.008891  8381 net.cpp:100] Creating Layer conv8/dw/relu
I1031 17:46:15.008894  8381 net.cpp:478] conv8/dw/relu <- conv8/dw
I1031 17:46:15.008901  8381 net.cpp:439] conv8/dw/relu -> conv8/dw (in-place)
I1031 17:46:15.009902  8381 net.cpp:150] Setting up conv8/dw/relu
I1031 17:46:15.009922  8381 net.cpp:157] Top shape: 24 512 19 19 (4435968)
I1031 17:46:15.009925  8381 net.cpp:165] Memory required for data: 3097178144
I1031 17:46:15.009928  8381 layer_factory.hpp:77] Creating layer conv8
I1031 17:46:15.009958  8381 net.cpp:100] Creating Layer conv8
I1031 17:46:15.009963  8381 net.cpp:478] conv8 <- conv8/dw
I1031 17:46:15.009968  8381 net.cpp:452] conv8 -> conv8
I1031 17:46:15.015487  8381 net.cpp:150] Setting up conv8
I1031 17:46:15.015522  8381 net.cpp:157] Top shape: 24 512 19 19 (4435968)
I1031 17:46:15.015525  8381 net.cpp:165] Memory required for data: 3114922016
I1031 17:46:15.015545  8381 layer_factory.hpp:77] Creating layer conv8/bn
I1031 17:46:15.015555  8381 net.cpp:100] Creating Layer conv8/bn
I1031 17:46:15.015558  8381 net.cpp:478] conv8/bn <- conv8
I1031 17:46:15.015563  8381 net.cpp:439] conv8/bn -> conv8 (in-place)
I1031 17:46:15.015825  8381 net.cpp:150] Setting up conv8/bn
I1031 17:46:15.015849  8381 net.cpp:157] Top shape: 24 512 19 19 (4435968)
I1031 17:46:15.015852  8381 net.cpp:165] Memory required for data: 3132665888
I1031 17:46:15.015858  8381 layer_factory.hpp:77] Creating layer conv8/scale
I1031 17:46:15.015864  8381 net.cpp:100] Creating Layer conv8/scale
I1031 17:46:15.015871  8381 net.cpp:478] conv8/scale <- conv8
I1031 17:46:15.015874  8381 net.cpp:439] conv8/scale -> conv8 (in-place)
I1031 17:46:15.015938  8381 layer_factory.hpp:77] Creating layer conv8/scale
I1031 17:46:15.016074  8381 net.cpp:150] Setting up conv8/scale
I1031 17:46:15.016086  8381 net.cpp:157] Top shape: 24 512 19 19 (4435968)
I1031 17:46:15.016088  8381 net.cpp:165] Memory required for data: 3150409760
I1031 17:46:15.016093  8381 layer_factory.hpp:77] Creating layer conv8/relu
I1031 17:46:15.016104  8381 net.cpp:100] Creating Layer conv8/relu
I1031 17:46:15.016108  8381 net.cpp:478] conv8/relu <- conv8
I1031 17:46:15.016114  8381 net.cpp:439] conv8/relu -> conv8 (in-place)
I1031 17:46:15.016383  8381 net.cpp:150] Setting up conv8/relu
I1031 17:46:15.016399  8381 net.cpp:157] Top shape: 24 512 19 19 (4435968)
I1031 17:46:15.016402  8381 net.cpp:165] Memory required for data: 3168153632
I1031 17:46:15.016405  8381 layer_factory.hpp:77] Creating layer conv9/dw
I1031 17:46:15.016418  8381 net.cpp:100] Creating Layer conv9/dw
I1031 17:46:15.016422  8381 net.cpp:478] conv9/dw <- conv8
I1031 17:46:15.016429  8381 net.cpp:452] conv9/dw -> conv9/dw
I1031 17:46:15.016712  8381 net.cpp:150] Setting up conv9/dw
I1031 17:46:15.016724  8381 net.cpp:157] Top shape: 24 512 19 19 (4435968)
I1031 17:46:15.016727  8381 net.cpp:165] Memory required for data: 3185897504
I1031 17:46:15.016731  8381 layer_factory.hpp:77] Creating layer conv9/dw/bn
I1031 17:46:15.016736  8381 net.cpp:100] Creating Layer conv9/dw/bn
I1031 17:46:15.016757  8381 net.cpp:478] conv9/dw/bn <- conv9/dw
I1031 17:46:15.016760  8381 net.cpp:439] conv9/dw/bn -> conv9/dw (in-place)
I1031 17:46:15.016990  8381 net.cpp:150] Setting up conv9/dw/bn
I1031 17:46:15.017001  8381 net.cpp:157] Top shape: 24 512 19 19 (4435968)
I1031 17:46:15.017004  8381 net.cpp:165] Memory required for data: 3203641376
I1031 17:46:15.017010  8381 layer_factory.hpp:77] Creating layer conv9/dw/scale
I1031 17:46:15.017019  8381 net.cpp:100] Creating Layer conv9/dw/scale
I1031 17:46:15.017022  8381 net.cpp:478] conv9/dw/scale <- conv9/dw
I1031 17:46:15.017026  8381 net.cpp:439] conv9/dw/scale -> conv9/dw (in-place)
I1031 17:46:15.017119  8381 layer_factory.hpp:77] Creating layer conv9/dw/scale
I1031 17:46:15.017232  8381 net.cpp:150] Setting up conv9/dw/scale
I1031 17:46:15.017243  8381 net.cpp:157] Top shape: 24 512 19 19 (4435968)
I1031 17:46:15.017246  8381 net.cpp:165] Memory required for data: 3221385248
I1031 17:46:15.017251  8381 layer_factory.hpp:77] Creating layer conv9/dw/relu
I1031 17:46:15.017258  8381 net.cpp:100] Creating Layer conv9/dw/relu
I1031 17:46:15.017264  8381 net.cpp:478] conv9/dw/relu <- conv9/dw
I1031 17:46:15.017267  8381 net.cpp:439] conv9/dw/relu -> conv9/dw (in-place)
I1031 17:46:15.018224  8381 net.cpp:150] Setting up conv9/dw/relu
I1031 17:46:15.018241  8381 net.cpp:157] Top shape: 24 512 19 19 (4435968)
I1031 17:46:15.018244  8381 net.cpp:165] Memory required for data: 3239129120
I1031 17:46:15.018247  8381 layer_factory.hpp:77] Creating layer conv9
I1031 17:46:15.018256  8381 net.cpp:100] Creating Layer conv9
I1031 17:46:15.018260  8381 net.cpp:478] conv9 <- conv9/dw
I1031 17:46:15.018266  8381 net.cpp:452] conv9 -> conv9
I1031 17:46:15.023967  8381 net.cpp:150] Setting up conv9
I1031 17:46:15.023991  8381 net.cpp:157] Top shape: 24 512 19 19 (4435968)
I1031 17:46:15.023994  8381 net.cpp:165] Memory required for data: 3256872992
I1031 17:46:15.024000  8381 layer_factory.hpp:77] Creating layer conv9/bn
I1031 17:46:15.024005  8381 net.cpp:100] Creating Layer conv9/bn
I1031 17:46:15.024013  8381 net.cpp:478] conv9/bn <- conv9
I1031 17:46:15.024019  8381 net.cpp:439] conv9/bn -> conv9 (in-place)
I1031 17:46:15.024232  8381 net.cpp:150] Setting up conv9/bn
I1031 17:46:15.024245  8381 net.cpp:157] Top shape: 24 512 19 19 (4435968)
I1031 17:46:15.024248  8381 net.cpp:165] Memory required for data: 3274616864
I1031 17:46:15.024255  8381 layer_factory.hpp:77] Creating layer conv9/scale
I1031 17:46:15.024265  8381 net.cpp:100] Creating Layer conv9/scale
I1031 17:46:15.024267  8381 net.cpp:478] conv9/scale <- conv9
I1031 17:46:15.024271  8381 net.cpp:439] conv9/scale -> conv9 (in-place)
I1031 17:46:15.024324  8381 layer_factory.hpp:77] Creating layer conv9/scale
I1031 17:46:15.024456  8381 net.cpp:150] Setting up conv9/scale
I1031 17:46:15.024467  8381 net.cpp:157] Top shape: 24 512 19 19 (4435968)
I1031 17:46:15.024469  8381 net.cpp:165] Memory required for data: 3292360736
I1031 17:46:15.024474  8381 layer_factory.hpp:77] Creating layer conv9/relu
I1031 17:46:15.024478  8381 net.cpp:100] Creating Layer conv9/relu
I1031 17:46:15.024482  8381 net.cpp:478] conv9/relu <- conv9
I1031 17:46:15.024487  8381 net.cpp:439] conv9/relu -> conv9 (in-place)
I1031 17:46:15.024780  8381 net.cpp:150] Setting up conv9/relu
I1031 17:46:15.024796  8381 net.cpp:157] Top shape: 24 512 19 19 (4435968)
I1031 17:46:15.024798  8381 net.cpp:165] Memory required for data: 3310104608
I1031 17:46:15.024801  8381 layer_factory.hpp:77] Creating layer conv10/dw
I1031 17:46:15.024811  8381 net.cpp:100] Creating Layer conv10/dw
I1031 17:46:15.024822  8381 net.cpp:478] conv10/dw <- conv9
I1031 17:46:15.024832  8381 net.cpp:452] conv10/dw -> conv10/dw
I1031 17:46:15.025091  8381 net.cpp:150] Setting up conv10/dw
I1031 17:46:15.025104  8381 net.cpp:157] Top shape: 24 512 19 19 (4435968)
I1031 17:46:15.025106  8381 net.cpp:165] Memory required for data: 3327848480
I1031 17:46:15.025110  8381 layer_factory.hpp:77] Creating layer conv10/dw/bn
I1031 17:46:15.025116  8381 net.cpp:100] Creating Layer conv10/dw/bn
I1031 17:46:15.025125  8381 net.cpp:478] conv10/dw/bn <- conv10/dw
I1031 17:46:15.025128  8381 net.cpp:439] conv10/dw/bn -> conv10/dw (in-place)
I1031 17:46:15.025354  8381 net.cpp:150] Setting up conv10/dw/bn
I1031 17:46:15.025364  8381 net.cpp:157] Top shape: 24 512 19 19 (4435968)
I1031 17:46:15.025367  8381 net.cpp:165] Memory required for data: 3345592352
I1031 17:46:15.025373  8381 layer_factory.hpp:77] Creating layer conv10/dw/scale
I1031 17:46:15.025380  8381 net.cpp:100] Creating Layer conv10/dw/scale
I1031 17:46:15.025387  8381 net.cpp:478] conv10/dw/scale <- conv10/dw
I1031 17:46:15.025390  8381 net.cpp:439] conv10/dw/scale -> conv10/dw (in-place)
I1031 17:46:15.025461  8381 layer_factory.hpp:77] Creating layer conv10/dw/scale
I1031 17:46:15.025604  8381 net.cpp:150] Setting up conv10/dw/scale
I1031 17:46:15.025614  8381 net.cpp:157] Top shape: 24 512 19 19 (4435968)
I1031 17:46:15.025617  8381 net.cpp:165] Memory required for data: 3363336224
I1031 17:46:15.025622  8381 layer_factory.hpp:77] Creating layer conv10/dw/relu
I1031 17:46:15.025626  8381 net.cpp:100] Creating Layer conv10/dw/relu
I1031 17:46:15.025630  8381 net.cpp:478] conv10/dw/relu <- conv10/dw
I1031 17:46:15.025635  8381 net.cpp:439] conv10/dw/relu -> conv10/dw (in-place)
I1031 17:46:15.026727  8381 net.cpp:150] Setting up conv10/dw/relu
I1031 17:46:15.026746  8381 net.cpp:157] Top shape: 24 512 19 19 (4435968)
I1031 17:46:15.026749  8381 net.cpp:165] Memory required for data: 3381080096
I1031 17:46:15.026752  8381 layer_factory.hpp:77] Creating layer conv10
I1031 17:46:15.026762  8381 net.cpp:100] Creating Layer conv10
I1031 17:46:15.026787  8381 net.cpp:478] conv10 <- conv10/dw
I1031 17:46:15.026809  8381 net.cpp:452] conv10 -> conv10
I1031 17:46:15.032528  8381 net.cpp:150] Setting up conv10
I1031 17:46:15.032548  8381 net.cpp:157] Top shape: 24 512 19 19 (4435968)
I1031 17:46:15.032552  8381 net.cpp:165] Memory required for data: 3398823968
I1031 17:46:15.032572  8381 layer_factory.hpp:77] Creating layer conv10/bn
I1031 17:46:15.032578  8381 net.cpp:100] Creating Layer conv10/bn
I1031 17:46:15.032582  8381 net.cpp:478] conv10/bn <- conv10
I1031 17:46:15.032588  8381 net.cpp:439] conv10/bn -> conv10 (in-place)
I1031 17:46:15.032814  8381 net.cpp:150] Setting up conv10/bn
I1031 17:46:15.032845  8381 net.cpp:157] Top shape: 24 512 19 19 (4435968)
I1031 17:46:15.032848  8381 net.cpp:165] Memory required for data: 3416567840
I1031 17:46:15.032855  8381 layer_factory.hpp:77] Creating layer conv10/scale
I1031 17:46:15.032862  8381 net.cpp:100] Creating Layer conv10/scale
I1031 17:46:15.032869  8381 net.cpp:478] conv10/scale <- conv10
I1031 17:46:15.032874  8381 net.cpp:439] conv10/scale -> conv10 (in-place)
I1031 17:46:15.032922  8381 layer_factory.hpp:77] Creating layer conv10/scale
I1031 17:46:15.033044  8381 net.cpp:150] Setting up conv10/scale
I1031 17:46:15.033056  8381 net.cpp:157] Top shape: 24 512 19 19 (4435968)
I1031 17:46:15.033057  8381 net.cpp:165] Memory required for data: 3434311712
I1031 17:46:15.033062  8381 layer_factory.hpp:77] Creating layer conv10/relu
I1031 17:46:15.033067  8381 net.cpp:100] Creating Layer conv10/relu
I1031 17:46:15.033078  8381 net.cpp:478] conv10/relu <- conv10
I1031 17:46:15.033084  8381 net.cpp:439] conv10/relu -> conv10 (in-place)
I1031 17:46:15.034008  8381 net.cpp:150] Setting up conv10/relu
I1031 17:46:15.034027  8381 net.cpp:157] Top shape: 24 512 19 19 (4435968)
I1031 17:46:15.034030  8381 net.cpp:165] Memory required for data: 3452055584
I1031 17:46:15.034034  8381 layer_factory.hpp:77] Creating layer conv11/dw
I1031 17:46:15.034042  8381 net.cpp:100] Creating Layer conv11/dw
I1031 17:46:15.034045  8381 net.cpp:478] conv11/dw <- conv10
I1031 17:46:15.034068  8381 net.cpp:452] conv11/dw -> conv11/dw
I1031 17:46:15.034340  8381 net.cpp:150] Setting up conv11/dw
I1031 17:46:15.034353  8381 net.cpp:157] Top shape: 24 512 19 19 (4435968)
I1031 17:46:15.034355  8381 net.cpp:165] Memory required for data: 3469799456
I1031 17:46:15.034374  8381 layer_factory.hpp:77] Creating layer conv11/dw/bn
I1031 17:46:15.034380  8381 net.cpp:100] Creating Layer conv11/dw/bn
I1031 17:46:15.034399  8381 net.cpp:478] conv11/dw/bn <- conv11/dw
I1031 17:46:15.034402  8381 net.cpp:439] conv11/dw/bn -> conv11/dw (in-place)
I1031 17:46:15.034665  8381 net.cpp:150] Setting up conv11/dw/bn
I1031 17:46:15.034692  8381 net.cpp:157] Top shape: 24 512 19 19 (4435968)
I1031 17:46:15.034708  8381 net.cpp:165] Memory required for data: 3487543328
I1031 17:46:15.034731  8381 layer_factory.hpp:77] Creating layer conv11/dw/scale
I1031 17:46:15.034756  8381 net.cpp:100] Creating Layer conv11/dw/scale
I1031 17:46:15.034762  8381 net.cpp:478] conv11/dw/scale <- conv11/dw
I1031 17:46:15.034782  8381 net.cpp:439] conv11/dw/scale -> conv11/dw (in-place)
I1031 17:46:15.034900  8381 layer_factory.hpp:77] Creating layer conv11/dw/scale
I1031 17:46:15.035042  8381 net.cpp:150] Setting up conv11/dw/scale
I1031 17:46:15.035053  8381 net.cpp:157] Top shape: 24 512 19 19 (4435968)
I1031 17:46:15.035055  8381 net.cpp:165] Memory required for data: 3505287200
I1031 17:46:15.035069  8381 layer_factory.hpp:77] Creating layer conv11/dw/relu
I1031 17:46:15.035079  8381 net.cpp:100] Creating Layer conv11/dw/relu
I1031 17:46:15.035084  8381 net.cpp:478] conv11/dw/relu <- conv11/dw
I1031 17:46:15.035089  8381 net.cpp:439] conv11/dw/relu -> conv11/dw (in-place)
I1031 17:46:15.035467  8381 net.cpp:150] Setting up conv11/dw/relu
I1031 17:46:15.035483  8381 net.cpp:157] Top shape: 24 512 19 19 (4435968)
I1031 17:46:15.035485  8381 net.cpp:165] Memory required for data: 3523031072
I1031 17:46:15.035488  8381 layer_factory.hpp:77] Creating layer conv11
I1031 17:46:15.035553  8381 net.cpp:100] Creating Layer conv11
I1031 17:46:15.035562  8381 net.cpp:478] conv11 <- conv11/dw
I1031 17:46:15.035583  8381 net.cpp:452] conv11 -> conv11
I1031 17:46:15.041345  8381 net.cpp:150] Setting up conv11
I1031 17:46:15.041365  8381 net.cpp:157] Top shape: 24 512 19 19 (4435968)
I1031 17:46:15.041369  8381 net.cpp:165] Memory required for data: 3540774944
I1031 17:46:15.041374  8381 layer_factory.hpp:77] Creating layer conv11/bn
I1031 17:46:15.041383  8381 net.cpp:100] Creating Layer conv11/bn
I1031 17:46:15.041385  8381 net.cpp:478] conv11/bn <- conv11
I1031 17:46:15.041389  8381 net.cpp:439] conv11/bn -> conv11 (in-place)
I1031 17:46:15.041656  8381 net.cpp:150] Setting up conv11/bn
I1031 17:46:15.041667  8381 net.cpp:157] Top shape: 24 512 19 19 (4435968)
I1031 17:46:15.041671  8381 net.cpp:165] Memory required for data: 3558518816
I1031 17:46:15.041676  8381 layer_factory.hpp:77] Creating layer conv11/scale
I1031 17:46:15.041682  8381 net.cpp:100] Creating Layer conv11/scale
I1031 17:46:15.041692  8381 net.cpp:478] conv11/scale <- conv11
I1031 17:46:15.041695  8381 net.cpp:439] conv11/scale -> conv11 (in-place)
I1031 17:46:15.041759  8381 layer_factory.hpp:77] Creating layer conv11/scale
I1031 17:46:15.041901  8381 net.cpp:150] Setting up conv11/scale
I1031 17:46:15.041914  8381 net.cpp:157] Top shape: 24 512 19 19 (4435968)
I1031 17:46:15.041918  8381 net.cpp:165] Memory required for data: 3576262688
I1031 17:46:15.041923  8381 layer_factory.hpp:77] Creating layer conv11/relu
I1031 17:46:15.041927  8381 net.cpp:100] Creating Layer conv11/relu
I1031 17:46:15.041932  8381 net.cpp:478] conv11/relu <- conv11
I1031 17:46:15.041952  8381 net.cpp:439] conv11/relu -> conv11 (in-place)
I1031 17:46:15.043118  8381 net.cpp:150] Setting up conv11/relu
I1031 17:46:15.043138  8381 net.cpp:157] Top shape: 24 512 19 19 (4435968)
I1031 17:46:15.043140  8381 net.cpp:165] Memory required for data: 3594006560
I1031 17:46:15.043144  8381 layer_factory.hpp:77] Creating layer conv11_conv11/relu_0_split
I1031 17:46:15.043172  8381 net.cpp:100] Creating Layer conv11_conv11/relu_0_split
I1031 17:46:15.043179  8381 net.cpp:478] conv11_conv11/relu_0_split <- conv11
I1031 17:46:15.043186  8381 net.cpp:452] conv11_conv11/relu_0_split -> conv11_conv11/relu_0_split_0
I1031 17:46:15.043200  8381 net.cpp:452] conv11_conv11/relu_0_split -> conv11_conv11/relu_0_split_1
I1031 17:46:15.043210  8381 net.cpp:452] conv11_conv11/relu_0_split -> conv11_conv11/relu_0_split_2
I1031 17:46:15.043216  8381 net.cpp:452] conv11_conv11/relu_0_split -> conv11_conv11/relu_0_split_3
I1031 17:46:15.043289  8381 net.cpp:150] Setting up conv11_conv11/relu_0_split
I1031 17:46:15.043299  8381 net.cpp:157] Top shape: 24 512 19 19 (4435968)
I1031 17:46:15.043303  8381 net.cpp:157] Top shape: 24 512 19 19 (4435968)
I1031 17:46:15.043306  8381 net.cpp:157] Top shape: 24 512 19 19 (4435968)
I1031 17:46:15.043308  8381 net.cpp:157] Top shape: 24 512 19 19 (4435968)
I1031 17:46:15.043311  8381 net.cpp:165] Memory required for data: 3664982048
I1031 17:46:15.043313  8381 layer_factory.hpp:77] Creating layer conv12/dw
I1031 17:46:15.043339  8381 net.cpp:100] Creating Layer conv12/dw
I1031 17:46:15.043345  8381 net.cpp:478] conv12/dw <- conv11_conv11/relu_0_split_0
I1031 17:46:15.043351  8381 net.cpp:452] conv12/dw -> conv12/dw
I1031 17:46:15.043581  8381 net.cpp:150] Setting up conv12/dw
I1031 17:46:15.043593  8381 net.cpp:157] Top shape: 24 512 10 10 (1228800)
I1031 17:46:15.043596  8381 net.cpp:165] Memory required for data: 3669897248
I1031 17:46:15.043601  8381 layer_factory.hpp:77] Creating layer conv12/dw/bn
I1031 17:46:15.043609  8381 net.cpp:100] Creating Layer conv12/dw/bn
I1031 17:46:15.043612  8381 net.cpp:478] conv12/dw/bn <- conv12/dw
I1031 17:46:15.043618  8381 net.cpp:439] conv12/dw/bn -> conv12/dw (in-place)
I1031 17:46:15.043824  8381 net.cpp:150] Setting up conv12/dw/bn
I1031 17:46:15.043850  8381 net.cpp:157] Top shape: 24 512 10 10 (1228800)
I1031 17:46:15.043853  8381 net.cpp:165] Memory required for data: 3674812448
I1031 17:46:15.043874  8381 layer_factory.hpp:77] Creating layer conv12/dw/scale
I1031 17:46:15.043900  8381 net.cpp:100] Creating Layer conv12/dw/scale
I1031 17:46:15.043905  8381 net.cpp:478] conv12/dw/scale <- conv12/dw
I1031 17:46:15.043908  8381 net.cpp:439] conv12/dw/scale -> conv12/dw (in-place)
I1031 17:46:15.043953  8381 layer_factory.hpp:77] Creating layer conv12/dw/scale
I1031 17:46:15.044081  8381 net.cpp:150] Setting up conv12/dw/scale
I1031 17:46:15.044092  8381 net.cpp:157] Top shape: 24 512 10 10 (1228800)
I1031 17:46:15.044095  8381 net.cpp:165] Memory required for data: 3679727648
I1031 17:46:15.044100  8381 layer_factory.hpp:77] Creating layer conv12/dw/relu
I1031 17:46:15.044106  8381 net.cpp:100] Creating Layer conv12/dw/relu
I1031 17:46:15.044109  8381 net.cpp:478] conv12/dw/relu <- conv12/dw
I1031 17:46:15.044113  8381 net.cpp:439] conv12/dw/relu -> conv12/dw (in-place)
I1031 17:46:15.044421  8381 net.cpp:150] Setting up conv12/dw/relu
I1031 17:46:15.044437  8381 net.cpp:157] Top shape: 24 512 10 10 (1228800)
I1031 17:46:15.044440  8381 net.cpp:165] Memory required for data: 3684642848
I1031 17:46:15.044442  8381 layer_factory.hpp:77] Creating layer conv12
I1031 17:46:15.044456  8381 net.cpp:100] Creating Layer conv12
I1031 17:46:15.044462  8381 net.cpp:478] conv12 <- conv12/dw
I1031 17:46:15.044467  8381 net.cpp:452] conv12 -> conv12
I1031 17:46:15.054436  8381 net.cpp:150] Setting up conv12
I1031 17:46:15.054456  8381 net.cpp:157] Top shape: 24 1024 10 10 (2457600)
I1031 17:46:15.054461  8381 net.cpp:165] Memory required for data: 3694473248
I1031 17:46:15.054466  8381 layer_factory.hpp:77] Creating layer conv12/bn
I1031 17:46:15.054478  8381 net.cpp:100] Creating Layer conv12/bn
I1031 17:46:15.054481  8381 net.cpp:478] conv12/bn <- conv12
I1031 17:46:15.054487  8381 net.cpp:439] conv12/bn -> conv12 (in-place)
I1031 17:46:15.054795  8381 net.cpp:150] Setting up conv12/bn
I1031 17:46:15.054806  8381 net.cpp:157] Top shape: 24 1024 10 10 (2457600)
I1031 17:46:15.054808  8381 net.cpp:165] Memory required for data: 3704303648
I1031 17:46:15.054814  8381 layer_factory.hpp:77] Creating layer conv12/scale
I1031 17:46:15.054842  8381 net.cpp:100] Creating Layer conv12/scale
I1031 17:46:15.054846  8381 net.cpp:478] conv12/scale <- conv12
I1031 17:46:15.054868  8381 net.cpp:439] conv12/scale -> conv12 (in-place)
I1031 17:46:15.054944  8381 layer_factory.hpp:77] Creating layer conv12/scale
I1031 17:46:15.055114  8381 net.cpp:150] Setting up conv12/scale
I1031 17:46:15.055141  8381 net.cpp:157] Top shape: 24 1024 10 10 (2457600)
I1031 17:46:15.055143  8381 net.cpp:165] Memory required for data: 3714134048
I1031 17:46:15.055150  8381 layer_factory.hpp:77] Creating layer conv12/relu
I1031 17:46:15.055157  8381 net.cpp:100] Creating Layer conv12/relu
I1031 17:46:15.055160  8381 net.cpp:478] conv12/relu <- conv12
I1031 17:46:15.055166  8381 net.cpp:439] conv12/relu -> conv12 (in-place)
I1031 17:46:15.056275  8381 net.cpp:150] Setting up conv12/relu
I1031 17:46:15.056295  8381 net.cpp:157] Top shape: 24 1024 10 10 (2457600)
I1031 17:46:15.056298  8381 net.cpp:165] Memory required for data: 3723964448
I1031 17:46:15.056327  8381 layer_factory.hpp:77] Creating layer conv13/dw
I1031 17:46:15.056354  8381 net.cpp:100] Creating Layer conv13/dw
I1031 17:46:15.056362  8381 net.cpp:478] conv13/dw <- conv12
I1031 17:46:15.056370  8381 net.cpp:452] conv13/dw -> conv13/dw
I1031 17:46:15.056738  8381 net.cpp:150] Setting up conv13/dw
I1031 17:46:15.056751  8381 net.cpp:157] Top shape: 24 1024 10 10 (2457600)
I1031 17:46:15.056752  8381 net.cpp:165] Memory required for data: 3733794848
I1031 17:46:15.056757  8381 layer_factory.hpp:77] Creating layer conv13/dw/bn
I1031 17:46:15.056763  8381 net.cpp:100] Creating Layer conv13/dw/bn
I1031 17:46:15.056767  8381 net.cpp:478] conv13/dw/bn <- conv13/dw
I1031 17:46:15.056771  8381 net.cpp:439] conv13/dw/bn -> conv13/dw (in-place)
I1031 17:46:15.057008  8381 net.cpp:150] Setting up conv13/dw/bn
I1031 17:46:15.057019  8381 net.cpp:157] Top shape: 24 1024 10 10 (2457600)
I1031 17:46:15.057021  8381 net.cpp:165] Memory required for data: 3743625248
I1031 17:46:15.057027  8381 layer_factory.hpp:77] Creating layer conv13/dw/scale
I1031 17:46:15.057035  8381 net.cpp:100] Creating Layer conv13/dw/scale
I1031 17:46:15.057044  8381 net.cpp:478] conv13/dw/scale <- conv13/dw
I1031 17:46:15.057049  8381 net.cpp:439] conv13/dw/scale -> conv13/dw (in-place)
I1031 17:46:15.057126  8381 layer_factory.hpp:77] Creating layer conv13/dw/scale
I1031 17:46:15.057307  8381 net.cpp:150] Setting up conv13/dw/scale
I1031 17:46:15.057317  8381 net.cpp:157] Top shape: 24 1024 10 10 (2457600)
I1031 17:46:15.057320  8381 net.cpp:165] Memory required for data: 3753455648
I1031 17:46:15.057325  8381 layer_factory.hpp:77] Creating layer conv13/dw/relu
I1031 17:46:15.057329  8381 net.cpp:100] Creating Layer conv13/dw/relu
I1031 17:46:15.057341  8381 net.cpp:478] conv13/dw/relu <- conv13/dw
I1031 17:46:15.057348  8381 net.cpp:439] conv13/dw/relu -> conv13/dw (in-place)
I1031 17:46:15.058316  8381 net.cpp:150] Setting up conv13/dw/relu
I1031 17:46:15.058351  8381 net.cpp:157] Top shape: 24 1024 10 10 (2457600)
I1031 17:46:15.058354  8381 net.cpp:165] Memory required for data: 3763286048
I1031 17:46:15.058357  8381 layer_factory.hpp:77] Creating layer conv13
I1031 17:46:15.058387  8381 net.cpp:100] Creating Layer conv13
I1031 17:46:15.058394  8381 net.cpp:478] conv13 <- conv13/dw
I1031 17:46:15.058400  8381 net.cpp:452] conv13 -> conv13
I1031 17:46:15.071996  8381 net.cpp:150] Setting up conv13
I1031 17:46:15.072017  8381 net.cpp:157] Top shape: 24 1024 10 10 (2457600)
I1031 17:46:15.072021  8381 net.cpp:165] Memory required for data: 3773116448
I1031 17:46:15.072041  8381 layer_factory.hpp:77] Creating layer conv13/bn
I1031 17:46:15.072064  8381 net.cpp:100] Creating Layer conv13/bn
I1031 17:46:15.072068  8381 net.cpp:478] conv13/bn <- conv13
I1031 17:46:15.072072  8381 net.cpp:439] conv13/bn -> conv13 (in-place)
I1031 17:46:15.072319  8381 net.cpp:150] Setting up conv13/bn
I1031 17:46:15.072346  8381 net.cpp:157] Top shape: 24 1024 10 10 (2457600)
I1031 17:46:15.072350  8381 net.cpp:165] Memory required for data: 3782946848
I1031 17:46:15.072371  8381 layer_factory.hpp:77] Creating layer conv13/scale
I1031 17:46:15.072393  8381 net.cpp:100] Creating Layer conv13/scale
I1031 17:46:15.072401  8381 net.cpp:478] conv13/scale <- conv13
I1031 17:46:15.072404  8381 net.cpp:439] conv13/scale -> conv13 (in-place)
I1031 17:46:15.072450  8381 layer_factory.hpp:77] Creating layer conv13/scale
I1031 17:46:15.072584  8381 net.cpp:150] Setting up conv13/scale
I1031 17:46:15.072597  8381 net.cpp:157] Top shape: 24 1024 10 10 (2457600)
I1031 17:46:15.072598  8381 net.cpp:165] Memory required for data: 3792777248
I1031 17:46:15.072604  8381 layer_factory.hpp:77] Creating layer conv13/relu
I1031 17:46:15.072610  8381 net.cpp:100] Creating Layer conv13/relu
I1031 17:46:15.072613  8381 net.cpp:478] conv13/relu <- conv13
I1031 17:46:15.072619  8381 net.cpp:439] conv13/relu -> conv13 (in-place)
I1031 17:46:15.072926  8381 net.cpp:150] Setting up conv13/relu
I1031 17:46:15.072958  8381 net.cpp:157] Top shape: 24 1024 10 10 (2457600)
I1031 17:46:15.072975  8381 net.cpp:165] Memory required for data: 3802607648
I1031 17:46:15.072979  8381 layer_factory.hpp:77] Creating layer conv13_conv13/relu_0_split
I1031 17:46:15.072985  8381 net.cpp:100] Creating Layer conv13_conv13/relu_0_split
I1031 17:46:15.072989  8381 net.cpp:478] conv13_conv13/relu_0_split <- conv13
I1031 17:46:15.072996  8381 net.cpp:452] conv13_conv13/relu_0_split -> conv13_conv13/relu_0_split_0
I1031 17:46:15.073006  8381 net.cpp:452] conv13_conv13/relu_0_split -> conv13_conv13/relu_0_split_1
I1031 17:46:15.073012  8381 net.cpp:452] conv13_conv13/relu_0_split -> conv13_conv13/relu_0_split_2
I1031 17:46:15.073020  8381 net.cpp:452] conv13_conv13/relu_0_split -> conv13_conv13/relu_0_split_3
I1031 17:46:15.073117  8381 net.cpp:150] Setting up conv13_conv13/relu_0_split
I1031 17:46:15.073127  8381 net.cpp:157] Top shape: 24 1024 10 10 (2457600)
I1031 17:46:15.073130  8381 net.cpp:157] Top shape: 24 1024 10 10 (2457600)
I1031 17:46:15.073133  8381 net.cpp:157] Top shape: 24 1024 10 10 (2457600)
I1031 17:46:15.073137  8381 net.cpp:157] Top shape: 24 1024 10 10 (2457600)
I1031 17:46:15.073138  8381 net.cpp:165] Memory required for data: 3841929248
I1031 17:46:15.073141  8381 layer_factory.hpp:77] Creating layer conv14_1
I1031 17:46:15.073151  8381 net.cpp:100] Creating Layer conv14_1
I1031 17:46:15.073158  8381 net.cpp:478] conv14_1 <- conv13_conv13/relu_0_split_0
I1031 17:46:15.073180  8381 net.cpp:452] conv14_1 -> conv14_1
I1031 17:46:15.078747  8381 net.cpp:150] Setting up conv14_1
I1031 17:46:15.078768  8381 net.cpp:157] Top shape: 24 256 10 10 (614400)
I1031 17:46:15.078786  8381 net.cpp:165] Memory required for data: 3844386848
I1031 17:46:15.078793  8381 layer_factory.hpp:77] Creating layer conv14_1/bn
I1031 17:46:15.078797  8381 net.cpp:100] Creating Layer conv14_1/bn
I1031 17:46:15.078800  8381 net.cpp:478] conv14_1/bn <- conv14_1
I1031 17:46:15.078809  8381 net.cpp:439] conv14_1/bn -> conv14_1 (in-place)
I1031 17:46:15.079059  8381 net.cpp:150] Setting up conv14_1/bn
I1031 17:46:15.079073  8381 net.cpp:157] Top shape: 24 256 10 10 (614400)
I1031 17:46:15.079077  8381 net.cpp:165] Memory required for data: 3846844448
I1031 17:46:15.079098  8381 layer_factory.hpp:77] Creating layer conv14_1/scale
I1031 17:46:15.079109  8381 net.cpp:100] Creating Layer conv14_1/scale
I1031 17:46:15.079113  8381 net.cpp:478] conv14_1/scale <- conv14_1
I1031 17:46:15.079118  8381 net.cpp:439] conv14_1/scale -> conv14_1 (in-place)
I1031 17:46:15.079196  8381 layer_factory.hpp:77] Creating layer conv14_1/scale
I1031 17:46:15.079316  8381 net.cpp:150] Setting up conv14_1/scale
I1031 17:46:15.079326  8381 net.cpp:157] Top shape: 24 256 10 10 (614400)
I1031 17:46:15.079329  8381 net.cpp:165] Memory required for data: 3849302048
I1031 17:46:15.079334  8381 layer_factory.hpp:77] Creating layer conv14_1/relu
I1031 17:46:15.079339  8381 net.cpp:100] Creating Layer conv14_1/relu
I1031 17:46:15.079342  8381 net.cpp:478] conv14_1/relu <- conv14_1
I1031 17:46:15.079349  8381 net.cpp:439] conv14_1/relu -> conv14_1 (in-place)
I1031 17:46:15.080415  8381 net.cpp:150] Setting up conv14_1/relu
I1031 17:46:15.080432  8381 net.cpp:157] Top shape: 24 256 10 10 (614400)
I1031 17:46:15.080435  8381 net.cpp:165] Memory required for data: 3851759648
I1031 17:46:15.080438  8381 layer_factory.hpp:77] Creating layer conv14_2
I1031 17:46:15.080447  8381 net.cpp:100] Creating Layer conv14_2
I1031 17:46:15.080451  8381 net.cpp:478] conv14_2 <- conv14_1
I1031 17:46:15.080457  8381 net.cpp:452] conv14_2 -> conv14_2
I1031 17:46:15.096046  8381 net.cpp:150] Setting up conv14_2
I1031 17:46:15.096066  8381 net.cpp:157] Top shape: 24 512 5 5 (307200)
I1031 17:46:15.096069  8381 net.cpp:165] Memory required for data: 3852988448
I1031 17:46:15.096074  8381 layer_factory.hpp:77] Creating layer conv14_2/bn
I1031 17:46:15.096081  8381 net.cpp:100] Creating Layer conv14_2/bn
I1031 17:46:15.096083  8381 net.cpp:478] conv14_2/bn <- conv14_2
I1031 17:46:15.096105  8381 net.cpp:439] conv14_2/bn -> conv14_2 (in-place)
I1031 17:46:15.096379  8381 net.cpp:150] Setting up conv14_2/bn
I1031 17:46:15.096433  8381 net.cpp:157] Top shape: 24 512 5 5 (307200)
I1031 17:46:15.096436  8381 net.cpp:165] Memory required for data: 3854217248
I1031 17:46:15.096457  8381 layer_factory.hpp:77] Creating layer conv14_2/scale
I1031 17:46:15.096464  8381 net.cpp:100] Creating Layer conv14_2/scale
I1031 17:46:15.096483  8381 net.cpp:478] conv14_2/scale <- conv14_2
I1031 17:46:15.096487  8381 net.cpp:439] conv14_2/scale -> conv14_2 (in-place)
I1031 17:46:15.096546  8381 layer_factory.hpp:77] Creating layer conv14_2/scale
I1031 17:46:15.096681  8381 net.cpp:150] Setting up conv14_2/scale
I1031 17:46:15.096693  8381 net.cpp:157] Top shape: 24 512 5 5 (307200)
I1031 17:46:15.096694  8381 net.cpp:165] Memory required for data: 3855446048
I1031 17:46:15.096699  8381 layer_factory.hpp:77] Creating layer conv14_2/relu
I1031 17:46:15.096704  8381 net.cpp:100] Creating Layer conv14_2/relu
I1031 17:46:15.096709  8381 net.cpp:478] conv14_2/relu <- conv14_2
I1031 17:46:15.096716  8381 net.cpp:439] conv14_2/relu -> conv14_2 (in-place)
I1031 17:46:15.097038  8381 net.cpp:150] Setting up conv14_2/relu
I1031 17:46:15.097054  8381 net.cpp:157] Top shape: 24 512 5 5 (307200)
I1031 17:46:15.097055  8381 net.cpp:165] Memory required for data: 3856674848
I1031 17:46:15.097059  8381 layer_factory.hpp:77] Creating layer conv14_2_conv14_2/relu_0_split
I1031 17:46:15.097066  8381 net.cpp:100] Creating Layer conv14_2_conv14_2/relu_0_split
I1031 17:46:15.097087  8381 net.cpp:478] conv14_2_conv14_2/relu_0_split <- conv14_2
I1031 17:46:15.097093  8381 net.cpp:452] conv14_2_conv14_2/relu_0_split -> conv14_2_conv14_2/relu_0_split_0
I1031 17:46:15.097101  8381 net.cpp:452] conv14_2_conv14_2/relu_0_split -> conv14_2_conv14_2/relu_0_split_1
I1031 17:46:15.097106  8381 net.cpp:452] conv14_2_conv14_2/relu_0_split -> conv14_2_conv14_2/relu_0_split_2
I1031 17:46:15.097113  8381 net.cpp:452] conv14_2_conv14_2/relu_0_split -> conv14_2_conv14_2/relu_0_split_3
I1031 17:46:15.097200  8381 net.cpp:150] Setting up conv14_2_conv14_2/relu_0_split
I1031 17:46:15.097211  8381 net.cpp:157] Top shape: 24 512 5 5 (307200)
I1031 17:46:15.097214  8381 net.cpp:157] Top shape: 24 512 5 5 (307200)
I1031 17:46:15.097218  8381 net.cpp:157] Top shape: 24 512 5 5 (307200)
I1031 17:46:15.097220  8381 net.cpp:157] Top shape: 24 512 5 5 (307200)
I1031 17:46:15.097223  8381 net.cpp:165] Memory required for data: 3861590048
I1031 17:46:15.097224  8381 layer_factory.hpp:77] Creating layer conv15_1
I1031 17:46:15.097234  8381 net.cpp:100] Creating Layer conv15_1
I1031 17:46:15.097239  8381 net.cpp:478] conv15_1 <- conv14_2_conv14_2/relu_0_split_0
I1031 17:46:15.097244  8381 net.cpp:452] conv15_1 -> conv15_1
I1031 17:46:15.100324  8381 net.cpp:150] Setting up conv15_1
I1031 17:46:15.100347  8381 net.cpp:157] Top shape: 24 128 5 5 (76800)
I1031 17:46:15.100364  8381 net.cpp:165] Memory required for data: 3861897248
I1031 17:46:15.100369  8381 layer_factory.hpp:77] Creating layer conv15_1/bn
I1031 17:46:15.100374  8381 net.cpp:100] Creating Layer conv15_1/bn
I1031 17:46:15.100378  8381 net.cpp:478] conv15_1/bn <- conv15_1
I1031 17:46:15.100383  8381 net.cpp:439] conv15_1/bn -> conv15_1 (in-place)
I1031 17:46:15.100623  8381 net.cpp:150] Setting up conv15_1/bn
I1031 17:46:15.100634  8381 net.cpp:157] Top shape: 24 128 5 5 (76800)
I1031 17:46:15.100637  8381 net.cpp:165] Memory required for data: 3862204448
I1031 17:46:15.100643  8381 layer_factory.hpp:77] Creating layer conv15_1/scale
I1031 17:46:15.100652  8381 net.cpp:100] Creating Layer conv15_1/scale
I1031 17:46:15.100656  8381 net.cpp:478] conv15_1/scale <- conv15_1
I1031 17:46:15.100661  8381 net.cpp:439] conv15_1/scale -> conv15_1 (in-place)
I1031 17:46:15.100723  8381 layer_factory.hpp:77] Creating layer conv15_1/scale
I1031 17:46:15.100879  8381 net.cpp:150] Setting up conv15_1/scale
I1031 17:46:15.100913  8381 net.cpp:157] Top shape: 24 128 5 5 (76800)
I1031 17:46:15.100915  8381 net.cpp:165] Memory required for data: 3862511648
I1031 17:46:15.100920  8381 layer_factory.hpp:77] Creating layer conv15_1/relu
I1031 17:46:15.100945  8381 net.cpp:100] Creating Layer conv15_1/relu
I1031 17:46:15.100951  8381 net.cpp:478] conv15_1/relu <- conv15_1
I1031 17:46:15.100970  8381 net.cpp:439] conv15_1/relu -> conv15_1 (in-place)
I1031 17:46:15.101919  8381 net.cpp:150] Setting up conv15_1/relu
I1031 17:46:15.101965  8381 net.cpp:157] Top shape: 24 128 5 5 (76800)
I1031 17:46:15.101969  8381 net.cpp:165] Memory required for data: 3862818848
I1031 17:46:15.101972  8381 layer_factory.hpp:77] Creating layer conv15_2
I1031 17:46:15.101996  8381 net.cpp:100] Creating Layer conv15_2
I1031 17:46:15.101999  8381 net.cpp:478] conv15_2 <- conv15_1
I1031 17:46:15.102005  8381 net.cpp:452] conv15_2 -> conv15_2
I1031 17:46:15.108425  8381 net.cpp:150] Setting up conv15_2
I1031 17:46:15.108445  8381 net.cpp:157] Top shape: 24 256 3 3 (55296)
I1031 17:46:15.108448  8381 net.cpp:165] Memory required for data: 3863040032
I1031 17:46:15.108469  8381 layer_factory.hpp:77] Creating layer conv15_2/bn
I1031 17:46:15.108474  8381 net.cpp:100] Creating Layer conv15_2/bn
I1031 17:46:15.108476  8381 net.cpp:478] conv15_2/bn <- conv15_2
I1031 17:46:15.108480  8381 net.cpp:439] conv15_2/bn -> conv15_2 (in-place)
I1031 17:46:15.108724  8381 net.cpp:150] Setting up conv15_2/bn
I1031 17:46:15.108736  8381 net.cpp:157] Top shape: 24 256 3 3 (55296)
I1031 17:46:15.108738  8381 net.cpp:165] Memory required for data: 3863261216
I1031 17:46:15.108744  8381 layer_factory.hpp:77] Creating layer conv15_2/scale
I1031 17:46:15.108752  8381 net.cpp:100] Creating Layer conv15_2/scale
I1031 17:46:15.108757  8381 net.cpp:478] conv15_2/scale <- conv15_2
I1031 17:46:15.108762  8381 net.cpp:439] conv15_2/scale -> conv15_2 (in-place)
I1031 17:46:15.108808  8381 layer_factory.hpp:77] Creating layer conv15_2/scale
I1031 17:46:15.108965  8381 net.cpp:150] Setting up conv15_2/scale
I1031 17:46:15.108978  8381 net.cpp:157] Top shape: 24 256 3 3 (55296)
I1031 17:46:15.108980  8381 net.cpp:165] Memory required for data: 3863482400
I1031 17:46:15.108985  8381 layer_factory.hpp:77] Creating layer conv15_2/relu
I1031 17:46:15.109001  8381 net.cpp:100] Creating Layer conv15_2/relu
I1031 17:46:15.109007  8381 net.cpp:478] conv15_2/relu <- conv15_2
I1031 17:46:15.109012  8381 net.cpp:439] conv15_2/relu -> conv15_2 (in-place)
I1031 17:46:15.109943  8381 net.cpp:150] Setting up conv15_2/relu
I1031 17:46:15.109975  8381 net.cpp:157] Top shape: 24 256 3 3 (55296)
I1031 17:46:15.109978  8381 net.cpp:165] Memory required for data: 3863703584
I1031 17:46:15.109997  8381 layer_factory.hpp:77] Creating layer conv15_2_conv15_2/relu_0_split
I1031 17:46:15.110004  8381 net.cpp:100] Creating Layer conv15_2_conv15_2/relu_0_split
I1031 17:46:15.110008  8381 net.cpp:478] conv15_2_conv15_2/relu_0_split <- conv15_2
I1031 17:46:15.110013  8381 net.cpp:452] conv15_2_conv15_2/relu_0_split -> conv15_2_conv15_2/relu_0_split_0
I1031 17:46:15.110020  8381 net.cpp:452] conv15_2_conv15_2/relu_0_split -> conv15_2_conv15_2/relu_0_split_1
I1031 17:46:15.110030  8381 net.cpp:452] conv15_2_conv15_2/relu_0_split -> conv15_2_conv15_2/relu_0_split_2
I1031 17:46:15.110035  8381 net.cpp:452] conv15_2_conv15_2/relu_0_split -> conv15_2_conv15_2/relu_0_split_3
I1031 17:46:15.110124  8381 net.cpp:150] Setting up conv15_2_conv15_2/relu_0_split
I1031 17:46:15.110134  8381 net.cpp:157] Top shape: 24 256 3 3 (55296)
I1031 17:46:15.110137  8381 net.cpp:157] Top shape: 24 256 3 3 (55296)
I1031 17:46:15.110141  8381 net.cpp:157] Top shape: 24 256 3 3 (55296)
I1031 17:46:15.110142  8381 net.cpp:157] Top shape: 24 256 3 3 (55296)
I1031 17:46:15.110144  8381 net.cpp:165] Memory required for data: 3864588320
I1031 17:46:15.110147  8381 layer_factory.hpp:77] Creating layer conv16_1
I1031 17:46:15.110157  8381 net.cpp:100] Creating Layer conv16_1
I1031 17:46:15.110163  8381 net.cpp:478] conv16_1 <- conv15_2_conv15_2/relu_0_split_0
I1031 17:46:15.110169  8381 net.cpp:452] conv16_1 -> conv16_1
I1031 17:46:15.112998  8381 net.cpp:150] Setting up conv16_1
I1031 17:46:15.113034  8381 net.cpp:157] Top shape: 24 128 3 3 (27648)
I1031 17:46:15.113061  8381 net.cpp:165] Memory required for data: 3864698912
I1031 17:46:15.113082  8381 layer_factory.hpp:77] Creating layer conv16_1/bn
I1031 17:46:15.113088  8381 net.cpp:100] Creating Layer conv16_1/bn
I1031 17:46:15.113091  8381 net.cpp:478] conv16_1/bn <- conv16_1
I1031 17:46:15.113113  8381 net.cpp:439] conv16_1/bn -> conv16_1 (in-place)
I1031 17:46:15.113334  8381 net.cpp:150] Setting up conv16_1/bn
I1031 17:46:15.113361  8381 net.cpp:157] Top shape: 24 128 3 3 (27648)
I1031 17:46:15.113363  8381 net.cpp:165] Memory required for data: 3864809504
I1031 17:46:15.113370  8381 layer_factory.hpp:77] Creating layer conv16_1/scale
I1031 17:46:15.113378  8381 net.cpp:100] Creating Layer conv16_1/scale
I1031 17:46:15.113380  8381 net.cpp:478] conv16_1/scale <- conv16_1
I1031 17:46:15.113385  8381 net.cpp:439] conv16_1/scale -> conv16_1 (in-place)
I1031 17:46:15.113466  8381 layer_factory.hpp:77] Creating layer conv16_1/scale
I1031 17:46:15.113608  8381 net.cpp:150] Setting up conv16_1/scale
I1031 17:46:15.113634  8381 net.cpp:157] Top shape: 24 128 3 3 (27648)
I1031 17:46:15.113636  8381 net.cpp:165] Memory required for data: 3864920096
I1031 17:46:15.113642  8381 layer_factory.hpp:77] Creating layer conv16_1/relu
I1031 17:46:15.113646  8381 net.cpp:100] Creating Layer conv16_1/relu
I1031 17:46:15.113667  8381 net.cpp:478] conv16_1/relu <- conv16_1
I1031 17:46:15.113672  8381 net.cpp:439] conv16_1/relu -> conv16_1 (in-place)
I1031 17:46:15.114047  8381 net.cpp:150] Setting up conv16_1/relu
I1031 17:46:15.114063  8381 net.cpp:157] Top shape: 24 128 3 3 (27648)
I1031 17:46:15.114065  8381 net.cpp:165] Memory required for data: 3865030688
I1031 17:46:15.114069  8381 layer_factory.hpp:77] Creating layer conv16_2
I1031 17:46:15.114079  8381 net.cpp:100] Creating Layer conv16_2
I1031 17:46:15.114086  8381 net.cpp:478] conv16_2 <- conv16_1
I1031 17:46:15.114094  8381 net.cpp:452] conv16_2 -> conv16_2
I1031 17:46:15.120482  8381 net.cpp:150] Setting up conv16_2
I1031 17:46:15.120502  8381 net.cpp:157] Top shape: 24 256 2 2 (24576)
I1031 17:46:15.120506  8381 net.cpp:165] Memory required for data: 3865128992
I1031 17:46:15.120525  8381 layer_factory.hpp:77] Creating layer conv16_2/bn
I1031 17:46:15.120530  8381 net.cpp:100] Creating Layer conv16_2/bn
I1031 17:46:15.120533  8381 net.cpp:478] conv16_2/bn <- conv16_2
I1031 17:46:15.120540  8381 net.cpp:439] conv16_2/bn -> conv16_2 (in-place)
I1031 17:46:15.120772  8381 net.cpp:150] Setting up conv16_2/bn
I1031 17:46:15.120784  8381 net.cpp:157] Top shape: 24 256 2 2 (24576)
I1031 17:46:15.120787  8381 net.cpp:165] Memory required for data: 3865227296
I1031 17:46:15.120793  8381 layer_factory.hpp:77] Creating layer conv16_2/scale
I1031 17:46:15.120800  8381 net.cpp:100] Creating Layer conv16_2/scale
I1031 17:46:15.120806  8381 net.cpp:478] conv16_2/scale <- conv16_2
I1031 17:46:15.120810  8381 net.cpp:439] conv16_2/scale -> conv16_2 (in-place)
I1031 17:46:15.120882  8381 layer_factory.hpp:77] Creating layer conv16_2/scale
I1031 17:46:15.121028  8381 net.cpp:150] Setting up conv16_2/scale
I1031 17:46:15.121039  8381 net.cpp:157] Top shape: 24 256 2 2 (24576)
I1031 17:46:15.121042  8381 net.cpp:165] Memory required for data: 3865325600
I1031 17:46:15.121047  8381 layer_factory.hpp:77] Creating layer conv16_2/relu
I1031 17:46:15.121054  8381 net.cpp:100] Creating Layer conv16_2/relu
I1031 17:46:15.121060  8381 net.cpp:478] conv16_2/relu <- conv16_2
I1031 17:46:15.121064  8381 net.cpp:439] conv16_2/relu -> conv16_2 (in-place)
I1031 17:46:15.122990  8381 net.cpp:150] Setting up conv16_2/relu
I1031 17:46:15.123010  8381 net.cpp:157] Top shape: 24 256 2 2 (24576)
I1031 17:46:15.123013  8381 net.cpp:165] Memory required for data: 3865423904
I1031 17:46:15.123016  8381 layer_factory.hpp:77] Creating layer conv16_2_conv16_2/relu_0_split
I1031 17:46:15.123025  8381 net.cpp:100] Creating Layer conv16_2_conv16_2/relu_0_split
I1031 17:46:15.123034  8381 net.cpp:478] conv16_2_conv16_2/relu_0_split <- conv16_2
I1031 17:46:15.123041  8381 net.cpp:452] conv16_2_conv16_2/relu_0_split -> conv16_2_conv16_2/relu_0_split_0
I1031 17:46:15.123062  8381 net.cpp:452] conv16_2_conv16_2/relu_0_split -> conv16_2_conv16_2/relu_0_split_1
I1031 17:46:15.123070  8381 net.cpp:452] conv16_2_conv16_2/relu_0_split -> conv16_2_conv16_2/relu_0_split_2
I1031 17:46:15.123075  8381 net.cpp:452] conv16_2_conv16_2/relu_0_split -> conv16_2_conv16_2/relu_0_split_3
I1031 17:46:15.123188  8381 net.cpp:150] Setting up conv16_2_conv16_2/relu_0_split
I1031 17:46:15.123199  8381 net.cpp:157] Top shape: 24 256 2 2 (24576)
I1031 17:46:15.123203  8381 net.cpp:157] Top shape: 24 256 2 2 (24576)
I1031 17:46:15.123205  8381 net.cpp:157] Top shape: 24 256 2 2 (24576)
I1031 17:46:15.123208  8381 net.cpp:157] Top shape: 24 256 2 2 (24576)
I1031 17:46:15.123209  8381 net.cpp:165] Memory required for data: 3865817120
I1031 17:46:15.123212  8381 layer_factory.hpp:77] Creating layer conv17_1
I1031 17:46:15.123221  8381 net.cpp:100] Creating Layer conv17_1
I1031 17:46:15.123227  8381 net.cpp:478] conv17_1 <- conv16_2_conv16_2/relu_0_split_0
I1031 17:46:15.123234  8381 net.cpp:452] conv17_1 -> conv17_1
I1031 17:46:15.125885  8381 net.cpp:150] Setting up conv17_1
I1031 17:46:15.125905  8381 net.cpp:157] Top shape: 24 64 2 2 (6144)
I1031 17:46:15.125908  8381 net.cpp:165] Memory required for data: 3865841696
I1031 17:46:15.125913  8381 layer_factory.hpp:77] Creating layer conv17_1/bn
I1031 17:46:15.125918  8381 net.cpp:100] Creating Layer conv17_1/bn
I1031 17:46:15.125923  8381 net.cpp:478] conv17_1/bn <- conv17_1
I1031 17:46:15.125929  8381 net.cpp:439] conv17_1/bn -> conv17_1 (in-place)
I1031 17:46:15.126160  8381 net.cpp:150] Setting up conv17_1/bn
I1031 17:46:15.126173  8381 net.cpp:157] Top shape: 24 64 2 2 (6144)
I1031 17:46:15.126175  8381 net.cpp:165] Memory required for data: 3865866272
I1031 17:46:15.126181  8381 layer_factory.hpp:77] Creating layer conv17_1/scale
I1031 17:46:15.126189  8381 net.cpp:100] Creating Layer conv17_1/scale
I1031 17:46:15.126193  8381 net.cpp:478] conv17_1/scale <- conv17_1
I1031 17:46:15.126195  8381 net.cpp:439] conv17_1/scale -> conv17_1 (in-place)
I1031 17:46:15.126243  8381 layer_factory.hpp:77] Creating layer conv17_1/scale
I1031 17:46:15.126365  8381 net.cpp:150] Setting up conv17_1/scale
I1031 17:46:15.126370  8381 net.cpp:157] Top shape: 24 64 2 2 (6144)
I1031 17:46:15.126372  8381 net.cpp:165] Memory required for data: 3865890848
I1031 17:46:15.126377  8381 layer_factory.hpp:77] Creating layer conv17_1/relu
I1031 17:46:15.126382  8381 net.cpp:100] Creating Layer conv17_1/relu
I1031 17:46:15.126385  8381 net.cpp:478] conv17_1/relu <- conv17_1
I1031 17:46:15.126389  8381 net.cpp:439] conv17_1/relu -> conv17_1 (in-place)
I1031 17:46:15.126664  8381 net.cpp:150] Setting up conv17_1/relu
I1031 17:46:15.126689  8381 net.cpp:157] Top shape: 24 64 2 2 (6144)
I1031 17:46:15.126691  8381 net.cpp:165] Memory required for data: 3865915424
I1031 17:46:15.126694  8381 layer_factory.hpp:77] Creating layer conv17_2
I1031 17:46:15.126703  8381 net.cpp:100] Creating Layer conv17_2
I1031 17:46:15.126706  8381 net.cpp:478] conv17_2 <- conv17_1
I1031 17:46:15.126719  8381 net.cpp:452] conv17_2 -> conv17_2
I1031 17:46:15.129806  8381 net.cpp:150] Setting up conv17_2
I1031 17:46:15.129825  8381 net.cpp:157] Top shape: 24 128 1 1 (3072)
I1031 17:46:15.129828  8381 net.cpp:165] Memory required for data: 3865927712
I1031 17:46:15.129834  8381 layer_factory.hpp:77] Creating layer conv17_2/bn
I1031 17:46:15.129854  8381 net.cpp:100] Creating Layer conv17_2/bn
I1031 17:46:15.129873  8381 net.cpp:478] conv17_2/bn <- conv17_2
I1031 17:46:15.129879  8381 net.cpp:439] conv17_2/bn -> conv17_2 (in-place)
I1031 17:46:15.130156  8381 net.cpp:150] Setting up conv17_2/bn
I1031 17:46:15.130165  8381 net.cpp:157] Top shape: 24 128 1 1 (3072)
I1031 17:46:15.130167  8381 net.cpp:165] Memory required for data: 3865940000
I1031 17:46:15.130174  8381 layer_factory.hpp:77] Creating layer conv17_2/scale
I1031 17:46:15.130182  8381 net.cpp:100] Creating Layer conv17_2/scale
I1031 17:46:15.130184  8381 net.cpp:478] conv17_2/scale <- conv17_2
I1031 17:46:15.130188  8381 net.cpp:439] conv17_2/scale -> conv17_2 (in-place)
I1031 17:46:15.130270  8381 layer_factory.hpp:77] Creating layer conv17_2/scale
I1031 17:46:15.130437  8381 net.cpp:150] Setting up conv17_2/scale
I1031 17:46:15.130444  8381 net.cpp:157] Top shape: 24 128 1 1 (3072)
I1031 17:46:15.130445  8381 net.cpp:165] Memory required for data: 3865952288
I1031 17:46:15.130450  8381 layer_factory.hpp:77] Creating layer conv17_2/relu
I1031 17:46:15.130455  8381 net.cpp:100] Creating Layer conv17_2/relu
I1031 17:46:15.130456  8381 net.cpp:478] conv17_2/relu <- conv17_2
I1031 17:46:15.130461  8381 net.cpp:439] conv17_2/relu -> conv17_2 (in-place)
I1031 17:46:15.131459  8381 net.cpp:150] Setting up conv17_2/relu
I1031 17:46:15.131471  8381 net.cpp:157] Top shape: 24 128 1 1 (3072)
I1031 17:46:15.131474  8381 net.cpp:165] Memory required for data: 3865964576
I1031 17:46:15.131476  8381 layer_factory.hpp:77] Creating layer conv17_2_conv17_2/relu_0_split
I1031 17:46:15.131482  8381 net.cpp:100] Creating Layer conv17_2_conv17_2/relu_0_split
I1031 17:46:15.131485  8381 net.cpp:478] conv17_2_conv17_2/relu_0_split <- conv17_2
I1031 17:46:15.131494  8381 net.cpp:452] conv17_2_conv17_2/relu_0_split -> conv17_2_conv17_2/relu_0_split_0
I1031 17:46:15.131512  8381 net.cpp:452] conv17_2_conv17_2/relu_0_split -> conv17_2_conv17_2/relu_0_split_1
I1031 17:46:15.131517  8381 net.cpp:452] conv17_2_conv17_2/relu_0_split -> conv17_2_conv17_2/relu_0_split_2
I1031 17:46:15.131582  8381 net.cpp:150] Setting up conv17_2_conv17_2/relu_0_split
I1031 17:46:15.131587  8381 net.cpp:157] Top shape: 24 128 1 1 (3072)
I1031 17:46:15.131590  8381 net.cpp:157] Top shape: 24 128 1 1 (3072)
I1031 17:46:15.131593  8381 net.cpp:157] Top shape: 24 128 1 1 (3072)
I1031 17:46:15.131595  8381 net.cpp:165] Memory required for data: 3866001440
I1031 17:46:15.131598  8381 layer_factory.hpp:77] Creating layer conv11_mbox_loc
I1031 17:46:15.131608  8381 net.cpp:100] Creating Layer conv11_mbox_loc
I1031 17:46:15.131611  8381 net.cpp:478] conv11_mbox_loc <- conv11_conv11/relu_0_split_1
I1031 17:46:15.131618  8381 net.cpp:452] conv11_mbox_loc -> conv11_mbox_loc
I1031 17:46:15.134080  8381 net.cpp:150] Setting up conv11_mbox_loc
I1031 17:46:15.134093  8381 net.cpp:157] Top shape: 24 12 19 19 (103968)
I1031 17:46:15.134095  8381 net.cpp:165] Memory required for data: 3866417312
I1031 17:46:15.134101  8381 layer_factory.hpp:77] Creating layer conv11_mbox_loc_perm
I1031 17:46:15.134110  8381 net.cpp:100] Creating Layer conv11_mbox_loc_perm
I1031 17:46:15.134114  8381 net.cpp:478] conv11_mbox_loc_perm <- conv11_mbox_loc
I1031 17:46:15.134119  8381 net.cpp:452] conv11_mbox_loc_perm -> conv11_mbox_loc_perm
I1031 17:46:15.134233  8381 net.cpp:150] Setting up conv11_mbox_loc_perm
I1031 17:46:15.134238  8381 net.cpp:157] Top shape: 24 19 19 12 (103968)
I1031 17:46:15.134240  8381 net.cpp:165] Memory required for data: 3866833184
I1031 17:46:15.134243  8381 layer_factory.hpp:77] Creating layer conv11_mbox_loc_flat
I1031 17:46:15.134248  8381 net.cpp:100] Creating Layer conv11_mbox_loc_flat
I1031 17:46:15.134251  8381 net.cpp:478] conv11_mbox_loc_flat <- conv11_mbox_loc_perm
I1031 17:46:15.134256  8381 net.cpp:452] conv11_mbox_loc_flat -> conv11_mbox_loc_flat
I1031 17:46:15.134285  8381 net.cpp:150] Setting up conv11_mbox_loc_flat
I1031 17:46:15.134290  8381 net.cpp:157] Top shape: 24 4332 (103968)
I1031 17:46:15.134292  8381 net.cpp:165] Memory required for data: 3867249056
I1031 17:46:15.134294  8381 layer_factory.hpp:77] Creating layer conv11_mbox_conf_new
I1031 17:46:15.134304  8381 net.cpp:100] Creating Layer conv11_mbox_conf_new
I1031 17:46:15.134305  8381 net.cpp:478] conv11_mbox_conf_new <- conv11_conv11/relu_0_split_2
I1031 17:46:15.134311  8381 net.cpp:452] conv11_mbox_conf_new -> conv11_mbox_conf
I1031 17:46:15.137197  8381 net.cpp:150] Setting up conv11_mbox_conf_new
I1031 17:46:15.137209  8381 net.cpp:157] Top shape: 24 63 19 19 (545832)
I1031 17:46:15.137212  8381 net.cpp:165] Memory required for data: 3869432384
I1031 17:46:15.137218  8381 layer_factory.hpp:77] Creating layer conv11_mbox_conf_perm
I1031 17:46:15.137234  8381 net.cpp:100] Creating Layer conv11_mbox_conf_perm
I1031 17:46:15.137238  8381 net.cpp:478] conv11_mbox_conf_perm <- conv11_mbox_conf
I1031 17:46:15.137244  8381 net.cpp:452] conv11_mbox_conf_perm -> conv11_mbox_conf_perm
I1031 17:46:15.137367  8381 net.cpp:150] Setting up conv11_mbox_conf_perm
I1031 17:46:15.137372  8381 net.cpp:157] Top shape: 24 19 19 63 (545832)
I1031 17:46:15.137373  8381 net.cpp:165] Memory required for data: 3871615712
I1031 17:46:15.137377  8381 layer_factory.hpp:77] Creating layer conv11_mbox_conf_flat
I1031 17:46:15.137392  8381 net.cpp:100] Creating Layer conv11_mbox_conf_flat
I1031 17:46:15.137394  8381 net.cpp:478] conv11_mbox_conf_flat <- conv11_mbox_conf_perm
I1031 17:46:15.137399  8381 net.cpp:452] conv11_mbox_conf_flat -> conv11_mbox_conf_flat
I1031 17:46:15.137424  8381 net.cpp:150] Setting up conv11_mbox_conf_flat
I1031 17:46:15.137428  8381 net.cpp:157] Top shape: 24 22743 (545832)
I1031 17:46:15.137430  8381 net.cpp:165] Memory required for data: 3873799040
I1031 17:46:15.137434  8381 layer_factory.hpp:77] Creating layer conv11_mbox_priorbox
I1031 17:46:15.137441  8381 net.cpp:100] Creating Layer conv11_mbox_priorbox
I1031 17:46:15.137444  8381 net.cpp:478] conv11_mbox_priorbox <- conv11_conv11/relu_0_split_3
I1031 17:46:15.137449  8381 net.cpp:478] conv11_mbox_priorbox <- data_data_0_split_1
I1031 17:46:15.137454  8381 net.cpp:452] conv11_mbox_priorbox -> conv11_mbox_priorbox
I1031 17:46:15.137485  8381 net.cpp:150] Setting up conv11_mbox_priorbox
I1031 17:46:15.137490  8381 net.cpp:157] Top shape: 1 2 4332 (8664)
I1031 17:46:15.137491  8381 net.cpp:165] Memory required for data: 3873833696
I1031 17:46:15.137493  8381 layer_factory.hpp:77] Creating layer conv13_mbox_loc
I1031 17:46:15.137504  8381 net.cpp:100] Creating Layer conv13_mbox_loc
I1031 17:46:15.137507  8381 net.cpp:478] conv13_mbox_loc <- conv13_conv13/relu_0_split_1
I1031 17:46:15.137512  8381 net.cpp:452] conv13_mbox_loc -> conv13_mbox_loc
I1031 17:46:15.140379  8381 net.cpp:150] Setting up conv13_mbox_loc
I1031 17:46:15.140391  8381 net.cpp:157] Top shape: 24 24 10 10 (57600)
I1031 17:46:15.140394  8381 net.cpp:165] Memory required for data: 3874064096
I1031 17:46:15.140400  8381 layer_factory.hpp:77] Creating layer conv13_mbox_loc_perm
I1031 17:46:15.140406  8381 net.cpp:100] Creating Layer conv13_mbox_loc_perm
I1031 17:46:15.140409  8381 net.cpp:478] conv13_mbox_loc_perm <- conv13_mbox_loc
I1031 17:46:15.140415  8381 net.cpp:452] conv13_mbox_loc_perm -> conv13_mbox_loc_perm
I1031 17:46:15.140527  8381 net.cpp:150] Setting up conv13_mbox_loc_perm
I1031 17:46:15.140532  8381 net.cpp:157] Top shape: 24 10 10 24 (57600)
I1031 17:46:15.140534  8381 net.cpp:165] Memory required for data: 3874294496
I1031 17:46:15.140537  8381 layer_factory.hpp:77] Creating layer conv13_mbox_loc_flat
I1031 17:46:15.140542  8381 net.cpp:100] Creating Layer conv13_mbox_loc_flat
I1031 17:46:15.140544  8381 net.cpp:478] conv13_mbox_loc_flat <- conv13_mbox_loc_perm
I1031 17:46:15.140549  8381 net.cpp:452] conv13_mbox_loc_flat -> conv13_mbox_loc_flat
I1031 17:46:15.140576  8381 net.cpp:150] Setting up conv13_mbox_loc_flat
I1031 17:46:15.140580  8381 net.cpp:157] Top shape: 24 2400 (57600)
I1031 17:46:15.140583  8381 net.cpp:165] Memory required for data: 3874524896
I1031 17:46:15.140584  8381 layer_factory.hpp:77] Creating layer conv13_mbox_conf_new
I1031 17:46:15.140592  8381 net.cpp:100] Creating Layer conv13_mbox_conf_new
I1031 17:46:15.140595  8381 net.cpp:478] conv13_mbox_conf_new <- conv13_conv13/relu_0_split_2
I1031 17:46:15.140601  8381 net.cpp:452] conv13_mbox_conf_new -> conv13_mbox_conf
I1031 17:46:15.145098  8381 net.cpp:150] Setting up conv13_mbox_conf_new
I1031 17:46:15.145110  8381 net.cpp:157] Top shape: 24 126 10 10 (302400)
I1031 17:46:15.145113  8381 net.cpp:165] Memory required for data: 3875734496
I1031 17:46:15.145119  8381 layer_factory.hpp:77] Creating layer conv13_mbox_conf_perm
I1031 17:46:15.145128  8381 net.cpp:100] Creating Layer conv13_mbox_conf_perm
I1031 17:46:15.145130  8381 net.cpp:478] conv13_mbox_conf_perm <- conv13_mbox_conf
I1031 17:46:15.145145  8381 net.cpp:452] conv13_mbox_conf_perm -> conv13_mbox_conf_perm
I1031 17:46:15.145299  8381 net.cpp:150] Setting up conv13_mbox_conf_perm
I1031 17:46:15.145305  8381 net.cpp:157] Top shape: 24 10 10 126 (302400)
I1031 17:46:15.145308  8381 net.cpp:165] Memory required for data: 3876944096
I1031 17:46:15.145309  8381 layer_factory.hpp:77] Creating layer conv13_mbox_conf_flat
I1031 17:46:15.145315  8381 net.cpp:100] Creating Layer conv13_mbox_conf_flat
I1031 17:46:15.145318  8381 net.cpp:478] conv13_mbox_conf_flat <- conv13_mbox_conf_perm
I1031 17:46:15.145323  8381 net.cpp:452] conv13_mbox_conf_flat -> conv13_mbox_conf_flat
I1031 17:46:15.145364  8381 net.cpp:150] Setting up conv13_mbox_conf_flat
I1031 17:46:15.145367  8381 net.cpp:157] Top shape: 24 12600 (302400)
I1031 17:46:15.145370  8381 net.cpp:165] Memory required for data: 3878153696
I1031 17:46:15.145371  8381 layer_factory.hpp:77] Creating layer conv13_mbox_priorbox
I1031 17:46:15.145380  8381 net.cpp:100] Creating Layer conv13_mbox_priorbox
I1031 17:46:15.145382  8381 net.cpp:478] conv13_mbox_priorbox <- conv13_conv13/relu_0_split_3
I1031 17:46:15.145385  8381 net.cpp:478] conv13_mbox_priorbox <- data_data_0_split_2
I1031 17:46:15.145392  8381 net.cpp:452] conv13_mbox_priorbox -> conv13_mbox_priorbox
I1031 17:46:15.145418  8381 net.cpp:150] Setting up conv13_mbox_priorbox
I1031 17:46:15.145423  8381 net.cpp:157] Top shape: 1 2 2400 (4800)
I1031 17:46:15.145426  8381 net.cpp:165] Memory required for data: 3878172896
I1031 17:46:15.145427  8381 layer_factory.hpp:77] Creating layer conv14_2_mbox_loc
I1031 17:46:15.145437  8381 net.cpp:100] Creating Layer conv14_2_mbox_loc
I1031 17:46:15.145442  8381 net.cpp:478] conv14_2_mbox_loc <- conv14_2_conv14_2/relu_0_split_1
I1031 17:46:15.145447  8381 net.cpp:452] conv14_2_mbox_loc -> conv14_2_mbox_loc
I1031 17:46:15.148413  8381 net.cpp:150] Setting up conv14_2_mbox_loc
I1031 17:46:15.148425  8381 net.cpp:157] Top shape: 24 24 5 5 (14400)
I1031 17:46:15.148427  8381 net.cpp:165] Memory required for data: 3878230496
I1031 17:46:15.148433  8381 layer_factory.hpp:77] Creating layer conv14_2_mbox_loc_perm
I1031 17:46:15.148439  8381 net.cpp:100] Creating Layer conv14_2_mbox_loc_perm
I1031 17:46:15.148442  8381 net.cpp:478] conv14_2_mbox_loc_perm <- conv14_2_mbox_loc
I1031 17:46:15.148448  8381 net.cpp:452] conv14_2_mbox_loc_perm -> conv14_2_mbox_loc_perm
I1031 17:46:15.148571  8381 net.cpp:150] Setting up conv14_2_mbox_loc_perm
I1031 17:46:15.148576  8381 net.cpp:157] Top shape: 24 5 5 24 (14400)
I1031 17:46:15.148578  8381 net.cpp:165] Memory required for data: 3878288096
I1031 17:46:15.148581  8381 layer_factory.hpp:77] Creating layer conv14_2_mbox_loc_flat
I1031 17:46:15.148584  8381 net.cpp:100] Creating Layer conv14_2_mbox_loc_flat
I1031 17:46:15.148597  8381 net.cpp:478] conv14_2_mbox_loc_flat <- conv14_2_mbox_loc_perm
I1031 17:46:15.148602  8381 net.cpp:452] conv14_2_mbox_loc_flat -> conv14_2_mbox_loc_flat
I1031 17:46:15.148630  8381 net.cpp:150] Setting up conv14_2_mbox_loc_flat
I1031 17:46:15.148634  8381 net.cpp:157] Top shape: 24 600 (14400)
I1031 17:46:15.148636  8381 net.cpp:165] Memory required for data: 3878345696
I1031 17:46:15.148638  8381 layer_factory.hpp:77] Creating layer conv14_2_mbox_conf_new
I1031 17:46:15.148646  8381 net.cpp:100] Creating Layer conv14_2_mbox_conf_new
I1031 17:46:15.148649  8381 net.cpp:478] conv14_2_mbox_conf_new <- conv14_2_conv14_2/relu_0_split_2
I1031 17:46:15.148655  8381 net.cpp:452] conv14_2_mbox_conf_new -> conv14_2_mbox_conf
I1031 17:46:15.152880  8381 net.cpp:150] Setting up conv14_2_mbox_conf_new
I1031 17:46:15.152932  8381 net.cpp:157] Top shape: 24 126 5 5 (75600)
I1031 17:46:15.152935  8381 net.cpp:165] Memory required for data: 3878648096
I1031 17:46:15.152941  8381 layer_factory.hpp:77] Creating layer conv14_2_mbox_conf_perm
I1031 17:46:15.152948  8381 net.cpp:100] Creating Layer conv14_2_mbox_conf_perm
I1031 17:46:15.152951  8381 net.cpp:478] conv14_2_mbox_conf_perm <- conv14_2_mbox_conf
I1031 17:46:15.152969  8381 net.cpp:452] conv14_2_mbox_conf_perm -> conv14_2_mbox_conf_perm
I1031 17:46:15.153106  8381 net.cpp:150] Setting up conv14_2_mbox_conf_perm
I1031 17:46:15.153113  8381 net.cpp:157] Top shape: 24 5 5 126 (75600)
I1031 17:46:15.153115  8381 net.cpp:165] Memory required for data: 3878950496
I1031 17:46:15.153118  8381 layer_factory.hpp:77] Creating layer conv14_2_mbox_conf_flat
I1031 17:46:15.153122  8381 net.cpp:100] Creating Layer conv14_2_mbox_conf_flat
I1031 17:46:15.153126  8381 net.cpp:478] conv14_2_mbox_conf_flat <- conv14_2_mbox_conf_perm
I1031 17:46:15.153132  8381 net.cpp:452] conv14_2_mbox_conf_flat -> conv14_2_mbox_conf_flat
I1031 17:46:15.153158  8381 net.cpp:150] Setting up conv14_2_mbox_conf_flat
I1031 17:46:15.153163  8381 net.cpp:157] Top shape: 24 3150 (75600)
I1031 17:46:15.153165  8381 net.cpp:165] Memory required for data: 3879252896
I1031 17:46:15.153167  8381 layer_factory.hpp:77] Creating layer conv14_2_mbox_priorbox
I1031 17:46:15.153190  8381 net.cpp:100] Creating Layer conv14_2_mbox_priorbox
I1031 17:46:15.153193  8381 net.cpp:478] conv14_2_mbox_priorbox <- conv14_2_conv14_2/relu_0_split_3
I1031 17:46:15.153198  8381 net.cpp:478] conv14_2_mbox_priorbox <- data_data_0_split_3
I1031 17:46:15.153203  8381 net.cpp:452] conv14_2_mbox_priorbox -> conv14_2_mbox_priorbox
I1031 17:46:15.153245  8381 net.cpp:150] Setting up conv14_2_mbox_priorbox
I1031 17:46:15.153249  8381 net.cpp:157] Top shape: 1 2 600 (1200)
I1031 17:46:15.153250  8381 net.cpp:165] Memory required for data: 3879257696
I1031 17:46:15.153252  8381 layer_factory.hpp:77] Creating layer conv15_2_mbox_loc
I1031 17:46:15.153265  8381 net.cpp:100] Creating Layer conv15_2_mbox_loc
I1031 17:46:15.153270  8381 net.cpp:478] conv15_2_mbox_loc <- conv15_2_conv15_2/relu_0_split_1
I1031 17:46:15.153273  8381 net.cpp:452] conv15_2_mbox_loc -> conv15_2_mbox_loc
I1031 17:46:15.155794  8381 net.cpp:150] Setting up conv15_2_mbox_loc
I1031 17:46:15.155807  8381 net.cpp:157] Top shape: 24 24 3 3 (5184)
I1031 17:46:15.155809  8381 net.cpp:165] Memory required for data: 3879278432
I1031 17:46:15.155822  8381 layer_factory.hpp:77] Creating layer conv15_2_mbox_loc_perm
I1031 17:46:15.155830  8381 net.cpp:100] Creating Layer conv15_2_mbox_loc_perm
I1031 17:46:15.155834  8381 net.cpp:478] conv15_2_mbox_loc_perm <- conv15_2_mbox_loc
I1031 17:46:15.155840  8381 net.cpp:452] conv15_2_mbox_loc_perm -> conv15_2_mbox_loc_perm
I1031 17:46:15.156005  8381 net.cpp:150] Setting up conv15_2_mbox_loc_perm
I1031 17:46:15.156011  8381 net.cpp:157] Top shape: 24 3 3 24 (5184)
I1031 17:46:15.156014  8381 net.cpp:165] Memory required for data: 3879299168
I1031 17:46:15.156018  8381 layer_factory.hpp:77] Creating layer conv15_2_mbox_loc_flat
I1031 17:46:15.156021  8381 net.cpp:100] Creating Layer conv15_2_mbox_loc_flat
I1031 17:46:15.156039  8381 net.cpp:478] conv15_2_mbox_loc_flat <- conv15_2_mbox_loc_perm
I1031 17:46:15.156044  8381 net.cpp:452] conv15_2_mbox_loc_flat -> conv15_2_mbox_loc_flat
I1031 17:46:15.156072  8381 net.cpp:150] Setting up conv15_2_mbox_loc_flat
I1031 17:46:15.156077  8381 net.cpp:157] Top shape: 24 216 (5184)
I1031 17:46:15.156080  8381 net.cpp:165] Memory required for data: 3879319904
I1031 17:46:15.156081  8381 layer_factory.hpp:77] Creating layer conv15_2_mbox_conf_new
I1031 17:46:15.156105  8381 net.cpp:100] Creating Layer conv15_2_mbox_conf_new
I1031 17:46:15.156108  8381 net.cpp:478] conv15_2_mbox_conf_new <- conv15_2_conv15_2/relu_0_split_2
I1031 17:46:15.156116  8381 net.cpp:452] conv15_2_mbox_conf_new -> conv15_2_mbox_conf
I1031 17:46:15.159955  8381 net.cpp:150] Setting up conv15_2_mbox_conf_new
I1031 17:46:15.159970  8381 net.cpp:157] Top shape: 24 126 3 3 (27216)
I1031 17:46:15.159971  8381 net.cpp:165] Memory required for data: 3879428768
I1031 17:46:15.159977  8381 layer_factory.hpp:77] Creating layer conv15_2_mbox_conf_perm
I1031 17:46:15.159983  8381 net.cpp:100] Creating Layer conv15_2_mbox_conf_perm
I1031 17:46:15.159986  8381 net.cpp:478] conv15_2_mbox_conf_perm <- conv15_2_mbox_conf
I1031 17:46:15.159996  8381 net.cpp:452] conv15_2_mbox_conf_perm -> conv15_2_mbox_conf_perm
I1031 17:46:15.160153  8381 net.cpp:150] Setting up conv15_2_mbox_conf_perm
I1031 17:46:15.160161  8381 net.cpp:157] Top shape: 24 3 3 126 (27216)
I1031 17:46:15.160162  8381 net.cpp:165] Memory required for data: 3879537632
I1031 17:46:15.160166  8381 layer_factory.hpp:77] Creating layer conv15_2_mbox_conf_flat
I1031 17:46:15.160169  8381 net.cpp:100] Creating Layer conv15_2_mbox_conf_flat
I1031 17:46:15.160172  8381 net.cpp:478] conv15_2_mbox_conf_flat <- conv15_2_mbox_conf_perm
I1031 17:46:15.160178  8381 net.cpp:452] conv15_2_mbox_conf_flat -> conv15_2_mbox_conf_flat
I1031 17:46:15.160205  8381 net.cpp:150] Setting up conv15_2_mbox_conf_flat
I1031 17:46:15.160209  8381 net.cpp:157] Top shape: 24 1134 (27216)
I1031 17:46:15.160212  8381 net.cpp:165] Memory required for data: 3879646496
I1031 17:46:15.160213  8381 layer_factory.hpp:77] Creating layer conv15_2_mbox_priorbox
I1031 17:46:15.160220  8381 net.cpp:100] Creating Layer conv15_2_mbox_priorbox
I1031 17:46:15.160223  8381 net.cpp:478] conv15_2_mbox_priorbox <- conv15_2_conv15_2/relu_0_split_3
I1031 17:46:15.160228  8381 net.cpp:478] conv15_2_mbox_priorbox <- data_data_0_split_4
I1031 17:46:15.160233  8381 net.cpp:452] conv15_2_mbox_priorbox -> conv15_2_mbox_priorbox
I1031 17:46:15.160261  8381 net.cpp:150] Setting up conv15_2_mbox_priorbox
I1031 17:46:15.160265  8381 net.cpp:157] Top shape: 1 2 216 (432)
I1031 17:46:15.160266  8381 net.cpp:165] Memory required for data: 3879648224
I1031 17:46:15.160269  8381 layer_factory.hpp:77] Creating layer conv16_2_mbox_loc
I1031 17:46:15.160277  8381 net.cpp:100] Creating Layer conv16_2_mbox_loc
I1031 17:46:15.160280  8381 net.cpp:478] conv16_2_mbox_loc <- conv16_2_conv16_2/relu_0_split_1
I1031 17:46:15.160301  8381 net.cpp:452] conv16_2_mbox_loc -> conv16_2_mbox_loc
I1031 17:46:15.162937  8381 net.cpp:150] Setting up conv16_2_mbox_loc
I1031 17:46:15.162950  8381 net.cpp:157] Top shape: 24 24 2 2 (2304)
I1031 17:46:15.162951  8381 net.cpp:165] Memory required for data: 3879657440
I1031 17:46:15.162957  8381 layer_factory.hpp:77] Creating layer conv16_2_mbox_loc_perm
I1031 17:46:15.162966  8381 net.cpp:100] Creating Layer conv16_2_mbox_loc_perm
I1031 17:46:15.162968  8381 net.cpp:478] conv16_2_mbox_loc_perm <- conv16_2_mbox_loc
I1031 17:46:15.162973  8381 net.cpp:452] conv16_2_mbox_loc_perm -> conv16_2_mbox_loc_perm
I1031 17:46:15.163084  8381 net.cpp:150] Setting up conv16_2_mbox_loc_perm
I1031 17:46:15.163089  8381 net.cpp:157] Top shape: 24 2 2 24 (2304)
I1031 17:46:15.163091  8381 net.cpp:165] Memory required for data: 3879666656
I1031 17:46:15.163094  8381 layer_factory.hpp:77] Creating layer conv16_2_mbox_loc_flat
I1031 17:46:15.163105  8381 net.cpp:100] Creating Layer conv16_2_mbox_loc_flat
I1031 17:46:15.163108  8381 net.cpp:478] conv16_2_mbox_loc_flat <- conv16_2_mbox_loc_perm
I1031 17:46:15.163112  8381 net.cpp:452] conv16_2_mbox_loc_flat -> conv16_2_mbox_loc_flat
I1031 17:46:15.163168  8381 net.cpp:150] Setting up conv16_2_mbox_loc_flat
I1031 17:46:15.163172  8381 net.cpp:157] Top shape: 24 96 (2304)
I1031 17:46:15.163174  8381 net.cpp:165] Memory required for data: 3879675872
I1031 17:46:15.163177  8381 layer_factory.hpp:77] Creating layer conv16_2_mbox_conf_new
I1031 17:46:15.163184  8381 net.cpp:100] Creating Layer conv16_2_mbox_conf_new
I1031 17:46:15.163187  8381 net.cpp:478] conv16_2_mbox_conf_new <- conv16_2_conv16_2/relu_0_split_2
I1031 17:46:15.163193  8381 net.cpp:452] conv16_2_mbox_conf_new -> conv16_2_mbox_conf
I1031 17:46:15.165902  8381 net.cpp:150] Setting up conv16_2_mbox_conf_new
I1031 17:46:15.165913  8381 net.cpp:157] Top shape: 24 126 2 2 (12096)
I1031 17:46:15.165916  8381 net.cpp:165] Memory required for data: 3879724256
I1031 17:46:15.165922  8381 layer_factory.hpp:77] Creating layer conv16_2_mbox_conf_perm
I1031 17:46:15.165928  8381 net.cpp:100] Creating Layer conv16_2_mbox_conf_perm
I1031 17:46:15.165931  8381 net.cpp:478] conv16_2_mbox_conf_perm <- conv16_2_mbox_conf
I1031 17:46:15.165951  8381 net.cpp:452] conv16_2_mbox_conf_perm -> conv16_2_mbox_conf_perm
I1031 17:46:15.166155  8381 net.cpp:150] Setting up conv16_2_mbox_conf_perm
I1031 17:46:15.166162  8381 net.cpp:157] Top shape: 24 2 2 126 (12096)
I1031 17:46:15.166164  8381 net.cpp:165] Memory required for data: 3879772640
I1031 17:46:15.166167  8381 layer_factory.hpp:77] Creating layer conv16_2_mbox_conf_flat
I1031 17:46:15.166172  8381 net.cpp:100] Creating Layer conv16_2_mbox_conf_flat
I1031 17:46:15.166174  8381 net.cpp:478] conv16_2_mbox_conf_flat <- conv16_2_mbox_conf_perm
I1031 17:46:15.166193  8381 net.cpp:452] conv16_2_mbox_conf_flat -> conv16_2_mbox_conf_flat
I1031 17:46:15.166223  8381 net.cpp:150] Setting up conv16_2_mbox_conf_flat
I1031 17:46:15.166227  8381 net.cpp:157] Top shape: 24 504 (12096)
I1031 17:46:15.166229  8381 net.cpp:165] Memory required for data: 3879821024
I1031 17:46:15.166231  8381 layer_factory.hpp:77] Creating layer conv16_2_mbox_priorbox
I1031 17:46:15.166237  8381 net.cpp:100] Creating Layer conv16_2_mbox_priorbox
I1031 17:46:15.166239  8381 net.cpp:478] conv16_2_mbox_priorbox <- conv16_2_conv16_2/relu_0_split_3
I1031 17:46:15.166244  8381 net.cpp:478] conv16_2_mbox_priorbox <- data_data_0_split_5
I1031 17:46:15.166265  8381 net.cpp:452] conv16_2_mbox_priorbox -> conv16_2_mbox_priorbox
I1031 17:46:15.166312  8381 net.cpp:150] Setting up conv16_2_mbox_priorbox
I1031 17:46:15.166316  8381 net.cpp:157] Top shape: 1 2 96 (192)
I1031 17:46:15.166318  8381 net.cpp:165] Memory required for data: 3879821792
I1031 17:46:15.166321  8381 layer_factory.hpp:77] Creating layer conv17_2_mbox_loc
I1031 17:46:15.166329  8381 net.cpp:100] Creating Layer conv17_2_mbox_loc
I1031 17:46:15.166332  8381 net.cpp:478] conv17_2_mbox_loc <- conv17_2_conv17_2/relu_0_split_0
I1031 17:46:15.166338  8381 net.cpp:452] conv17_2_mbox_loc -> conv17_2_mbox_loc
I1031 17:46:15.169121  8381 net.cpp:150] Setting up conv17_2_mbox_loc
I1031 17:46:15.169132  8381 net.cpp:157] Top shape: 24 24 1 1 (576)
I1031 17:46:15.169134  8381 net.cpp:165] Memory required for data: 3879824096
I1031 17:46:15.169140  8381 layer_factory.hpp:77] Creating layer conv17_2_mbox_loc_perm
I1031 17:46:15.169148  8381 net.cpp:100] Creating Layer conv17_2_mbox_loc_perm
I1031 17:46:15.169167  8381 net.cpp:478] conv17_2_mbox_loc_perm <- conv17_2_mbox_loc
I1031 17:46:15.169172  8381 net.cpp:452] conv17_2_mbox_loc_perm -> conv17_2_mbox_loc_perm
I1031 17:46:15.169286  8381 net.cpp:150] Setting up conv17_2_mbox_loc_perm
I1031 17:46:15.169291  8381 net.cpp:157] Top shape: 24 1 1 24 (576)
I1031 17:46:15.169292  8381 net.cpp:165] Memory required for data: 3879826400
I1031 17:46:15.169294  8381 layer_factory.hpp:77] Creating layer conv17_2_mbox_loc_flat
I1031 17:46:15.169301  8381 net.cpp:100] Creating Layer conv17_2_mbox_loc_flat
I1031 17:46:15.169303  8381 net.cpp:478] conv17_2_mbox_loc_flat <- conv17_2_mbox_loc_perm
I1031 17:46:15.169307  8381 net.cpp:452] conv17_2_mbox_loc_flat -> conv17_2_mbox_loc_flat
I1031 17:46:15.169334  8381 net.cpp:150] Setting up conv17_2_mbox_loc_flat
I1031 17:46:15.169338  8381 net.cpp:157] Top shape: 24 24 (576)
I1031 17:46:15.169340  8381 net.cpp:165] Memory required for data: 3879828704
I1031 17:46:15.169342  8381 layer_factory.hpp:77] Creating layer conv17_2_mbox_conf_new
I1031 17:46:15.169350  8381 net.cpp:100] Creating Layer conv17_2_mbox_conf_new
I1031 17:46:15.169353  8381 net.cpp:478] conv17_2_mbox_conf_new <- conv17_2_conv17_2/relu_0_split_1
I1031 17:46:15.169359  8381 net.cpp:452] conv17_2_mbox_conf_new -> conv17_2_mbox_conf
I1031 17:46:15.172139  8381 net.cpp:150] Setting up conv17_2_mbox_conf_new
I1031 17:46:15.172168  8381 net.cpp:157] Top shape: 24 126 1 1 (3024)
I1031 17:46:15.172171  8381 net.cpp:165] Memory required for data: 3879840800
I1031 17:46:15.172194  8381 layer_factory.hpp:77] Creating layer conv17_2_mbox_conf_perm
I1031 17:46:15.172200  8381 net.cpp:100] Creating Layer conv17_2_mbox_conf_perm
I1031 17:46:15.172204  8381 net.cpp:478] conv17_2_mbox_conf_perm <- conv17_2_mbox_conf
I1031 17:46:15.172211  8381 net.cpp:452] conv17_2_mbox_conf_perm -> conv17_2_mbox_conf_perm
I1031 17:46:15.172389  8381 net.cpp:150] Setting up conv17_2_mbox_conf_perm
I1031 17:46:15.172395  8381 net.cpp:157] Top shape: 24 1 1 126 (3024)
I1031 17:46:15.172397  8381 net.cpp:165] Memory required for data: 3879852896
I1031 17:46:15.172399  8381 layer_factory.hpp:77] Creating layer conv17_2_mbox_conf_flat
I1031 17:46:15.172405  8381 net.cpp:100] Creating Layer conv17_2_mbox_conf_flat
I1031 17:46:15.172407  8381 net.cpp:478] conv17_2_mbox_conf_flat <- conv17_2_mbox_conf_perm
I1031 17:46:15.172412  8381 net.cpp:452] conv17_2_mbox_conf_flat -> conv17_2_mbox_conf_flat
I1031 17:46:15.172442  8381 net.cpp:150] Setting up conv17_2_mbox_conf_flat
I1031 17:46:15.172446  8381 net.cpp:157] Top shape: 24 126 (3024)
I1031 17:46:15.172448  8381 net.cpp:165] Memory required for data: 3879864992
I1031 17:46:15.172451  8381 layer_factory.hpp:77] Creating layer conv17_2_mbox_priorbox
I1031 17:46:15.172472  8381 net.cpp:100] Creating Layer conv17_2_mbox_priorbox
I1031 17:46:15.172475  8381 net.cpp:478] conv17_2_mbox_priorbox <- conv17_2_conv17_2/relu_0_split_2
I1031 17:46:15.172478  8381 net.cpp:478] conv17_2_mbox_priorbox <- data_data_0_split_6
I1031 17:46:15.172487  8381 net.cpp:452] conv17_2_mbox_priorbox -> conv17_2_mbox_priorbox
I1031 17:46:15.172531  8381 net.cpp:150] Setting up conv17_2_mbox_priorbox
I1031 17:46:15.172535  8381 net.cpp:157] Top shape: 1 2 24 (48)
I1031 17:46:15.172538  8381 net.cpp:165] Memory required for data: 3879865184
I1031 17:46:15.172539  8381 layer_factory.hpp:77] Creating layer mbox_loc
I1031 17:46:15.172545  8381 net.cpp:100] Creating Layer mbox_loc
I1031 17:46:15.172549  8381 net.cpp:478] mbox_loc <- conv11_mbox_loc_flat
I1031 17:46:15.172551  8381 net.cpp:478] mbox_loc <- conv13_mbox_loc_flat
I1031 17:46:15.172555  8381 net.cpp:478] mbox_loc <- conv14_2_mbox_loc_flat
I1031 17:46:15.172557  8381 net.cpp:478] mbox_loc <- conv15_2_mbox_loc_flat
I1031 17:46:15.172560  8381 net.cpp:478] mbox_loc <- conv16_2_mbox_loc_flat
I1031 17:46:15.172564  8381 net.cpp:478] mbox_loc <- conv17_2_mbox_loc_flat
I1031 17:46:15.172569  8381 net.cpp:452] mbox_loc -> mbox_loc
I1031 17:46:15.172598  8381 net.cpp:150] Setting up mbox_loc
I1031 17:46:15.172603  8381 net.cpp:157] Top shape: 24 7668 (184032)
I1031 17:46:15.172605  8381 net.cpp:165] Memory required for data: 3880601312
I1031 17:46:15.172607  8381 layer_factory.hpp:77] Creating layer mbox_conf
I1031 17:46:15.172611  8381 net.cpp:100] Creating Layer mbox_conf
I1031 17:46:15.172614  8381 net.cpp:478] mbox_conf <- conv11_mbox_conf_flat
I1031 17:46:15.172617  8381 net.cpp:478] mbox_conf <- conv13_mbox_conf_flat
I1031 17:46:15.172621  8381 net.cpp:478] mbox_conf <- conv14_2_mbox_conf_flat
I1031 17:46:15.172623  8381 net.cpp:478] mbox_conf <- conv15_2_mbox_conf_flat
I1031 17:46:15.172626  8381 net.cpp:478] mbox_conf <- conv16_2_mbox_conf_flat
I1031 17:46:15.172628  8381 net.cpp:478] mbox_conf <- conv17_2_mbox_conf_flat
I1031 17:46:15.172634  8381 net.cpp:452] mbox_conf -> mbox_conf
I1031 17:46:15.172659  8381 net.cpp:150] Setting up mbox_conf
I1031 17:46:15.172663  8381 net.cpp:157] Top shape: 24 40257 (966168)
I1031 17:46:15.172665  8381 net.cpp:165] Memory required for data: 3884465984
I1031 17:46:15.172667  8381 layer_factory.hpp:77] Creating layer mbox_priorbox
I1031 17:46:15.172672  8381 net.cpp:100] Creating Layer mbox_priorbox
I1031 17:46:15.172674  8381 net.cpp:478] mbox_priorbox <- conv11_mbox_priorbox
I1031 17:46:15.172677  8381 net.cpp:478] mbox_priorbox <- conv13_mbox_priorbox
I1031 17:46:15.172680  8381 net.cpp:478] mbox_priorbox <- conv14_2_mbox_priorbox
I1031 17:46:15.172683  8381 net.cpp:478] mbox_priorbox <- conv15_2_mbox_priorbox
I1031 17:46:15.172685  8381 net.cpp:478] mbox_priorbox <- conv16_2_mbox_priorbox
I1031 17:46:15.172688  8381 net.cpp:478] mbox_priorbox <- conv17_2_mbox_priorbox
I1031 17:46:15.172691  8381 net.cpp:452] mbox_priorbox -> mbox_priorbox
I1031 17:46:15.172716  8381 net.cpp:150] Setting up mbox_priorbox
I1031 17:46:15.172721  8381 net.cpp:157] Top shape: 1 2 7668 (15336)
I1031 17:46:15.172724  8381 net.cpp:165] Memory required for data: 3884527328
I1031 17:46:15.172732  8381 layer_factory.hpp:77] Creating layer mbox_loss
I1031 17:46:15.172757  8381 net.cpp:100] Creating Layer mbox_loss
I1031 17:46:15.172760  8381 net.cpp:478] mbox_loss <- mbox_loc
I1031 17:46:15.172763  8381 net.cpp:478] mbox_loss <- mbox_conf
I1031 17:46:15.172766  8381 net.cpp:478] mbox_loss <- mbox_priorbox
…
layer {
  name: "data"
  type: "AnnotatedData"
  top: "data"
  top: "label"
  include {
    phase: TEST
  }
  transform_param {
    scale: 0.007843
    mean_value: 127.5
    mean_value: 127.5
    mean_value: 127.5
    resize_param {
      prob: 1
      resize_mode: WARP
      height: 300
      width: 300
      interp_mode: LINEAR
    }
  }
  data_param {
    source: "examples/VOC0712/VOC0712_test_lmdb"
    batch_size: 8
    backend: LMDB
  }
  annotated_data_param {
    batch_sampler {
    }
    label_map_file: "data/VOC0712/labelmap_voc.prototxt"
  }
}
layer {
  name: "conv0"
  type: "Convolution"
  bottom: "data"
  top: "conv0"
  param {
    lr_mult: 1
    decay_mult: 1
  }
  convolution_param {
    num_output: 32
    bias_term: false
    pad: 1
    kernel_size: 3
    stride: 2
    weight_filler {
      type: "msra"
    }
  }
}
layer {
  name: "conv0/bn"
  type: "BatchNorm"
  bottom: "conv0"
  top: "conv0"
}
layer {
  name: "conv0/scale"
  type: "Scale"
  bottom: "conv0"
  top: "conv0"
  param {
    lr_mult: 1
    decay_mult: 0
  }
  param {
    lr_mult: 2
    decay_mult: 0
  }
  scale_param {
    filler {
      value: 1
    }
    bias_term: true
    bias_filler {
      value: 0
    }
  }
}
layer {
  name: "conv0/relu"
  type: "ReLU"
  bottom: "conv0"
  top: "conv0"
}
layer {
  name: "conv1/dw"
  type: "Convolution"
  bottom: "conv0"
  top: "conv1/dw"
  param {
    lr_mult: 1
    decay_mult: 1
  }
  convolution_param {
    num_output: 32
    bias_term: false
    pad: 1
    kernel_size: 3
    group: 32
    weight_filler {
      type: "msra"
    }
    engine: CAFFE
  }
}
layer {
  name: "conv1/dw/bn"
  type: "BatchNorm"
  bottom: "conv1/dw"
  top: "conv1/dw"
}
layer {
  name: "conv1/dw/scale"
  type: "Scale"
  bottom: "conv1/dw"
  top: "conv1/dw"
  param {
    lr_mult: 1
    decay_mult: 0
  }
  param {
    lr_mult: 2
    decay_mult: 0
  }
  scale_param {
    filler {
      value: 1
    }
    bias_term: true
    bias_filler {
      value: 0
    }
  }
}
layer {
  name: "conv1/dw/relu"
  type: "ReLU"
  bottom: "conv1/dw"
  top: "conv1/dw"
}
layer {
  name: "conv1"
  type: "Convolution"
  bottom: "conv1/dw"
  top: "conv1"
  param {
    lr_mult: 1
    decay_mult: 1
  }
  convolution_param {
    num_output: 64
    bias_term: false
    kernel_size: 1
    weight_filler {
      type: "msra"
    }
  }
}
layer {
  name: "conv1/bn"
  type: "BatchNorm"
  bottom: "conv1"
  top: "conv1"
}
layer {
  name: "conv1/scale"
  type: "Scale"
  bottom: "conv1"
  top: "conv1"
  param {
    lr_mult: 1
    decay_mult: 0
  }
  param {
    lr_mult: 2
    decay_mult: 0
  }
  scale_param {
    filler {
      value: 1
    }
    bias_term: true
    bias_filler {
      value: 0
    }
  }
}
layer {
  name: "conv1/relu"
  type: "ReLU"
  bottom: "conv1"
  top: "conv1"
}
layer {
  name: "conv2/dw"
  type: "Convolution"
  bottom: "conv1"
  top: "conv2/dw"
  param {
    lr_mult: 1
    decay_mult: 1
  }
  convolution_param {
    num_output: 64
    bias_term: false
    pad: 1
    kernel_size: 3
    group: 64
    stride: 2
    weight_filler {
      type: "msra"
    }
    engine: CAFFE
  }
}
layer {
  name: "conv2/dw/bn"
  type: "BatchNorm"
  bottom: "conv2/dw"
  top: "conv2/dw"
}
layer {
  name: "conv2/dw/scale"
  type: "Scale"
  bottom: "conv2/dw"
  top: "conv2/dw"
  param {
    lr_mult: 1
    decay_mult: 0
  }
  param {
    lr_mult: 2
    decay_mult: 0
  }
  scale_param {
    filler {
      value: 1
    }
    bias_term: true
    bias_filler {
      value: 0
    }
  }
}
layer {
  name: "conv2/dw/relu"
  type: "ReLU"
  bottom: "conv2/dw"
  top: "conv2/dw"
}
layer {
  name: "conv2"
  type: "Convolution"
  bottom: "conv2/dw"
  top: "conv2"
  param {
    lr_mult: 1
    decay_mult: 1
  }
  convolution_param {
    num_output: 128
    bias_term: false
    kernel_size: 1
    weight_filler {
      type: "msra"
    }
  }
}
layer {
  name: "conv2/bn"
  type: "BatchNorm"
  bottom: "conv2"
  top: "conv2"
}
layer {
  name: "conv2/scale"
  type: "Scale"
  bottom: "conv2"
  top: "conv2"
  param {
    lr_mult: 1
    decay_mult: 0
  }
  param {
    lr_mult: 2
    decay_mult: 0
  }
  scale_param {
    filler {
      value: 1
    }
    bias_term: true
    bias_filler {
      value: 0
    }
  }
}
layer {
  name: "conv2/relu"
  type: "ReLU"
  bottom: "conv2"
  top: "conv2"
}
layer {
  name: "conv3/dw"
  type: "Convolution"
  bottom: "conv2"
  top: "conv3/dw"
  param {
    lr_mult: 1
    decay_mult: 1
  }
  convolution_param {
    num_output: 128
    bias_term: false
    pad: 1
    kernel_size: 3
    group: 128
    weight_filler {
      type: "msra"
    }
    engine: CAFFE
  }
}
layer {
  name: "conv3/dw/bn"
  type: "BatchNorm"
  bottom: "conv3/dw"
  top: "conv3/dw"
}
layer {
  name: "conv3/dw/scale"
  type: "Scale"
  bottom: "conv3/dw"
  top: "conv3/dw"
  param {
    lr_mult: 1
    decay_mult: 0
  }
  param {
    lr_mult: 2
    decay_mult: 0
  }
  scale_param {
    filler {
      value: 1
    }
    bias_term: true
    bias_filler {
      value: 0
    }
  }
}
layer {
  name: "conv3/dw/relu"
  type: "ReLU"
  bottom: "conv3/dw"
  top: "conv3/dw"
}
layer {
  name: "conv3"
  type: "Convolution"
  bottom: "conv3/dw"
  top: "conv3"
  param {
    lr_mult: 1
    decay_mult: 1
  }
  convolution_param {
    num_output: 128
    bias_term: false
    kernel_size: 1
    weight_filler {
      type: "msra"
    }
  }
}
layer {
  name: "conv3/bn"
  type: "BatchNorm"
  bottom: "conv3"
  top: "conv3"
}
layer {
  name: "conv3/scale"
  type: "Scale"
  bottom: "conv3"
  top: "conv3"
  param {
    lr_mult: 1
    decay_mult: 0
  }
  param {
    lr_mult: 2
    decay_mult: 0
  }
  scale_param {
    filler {
      value: 1
    }
    bias_term: true
    bias_filler {
      value: 0
    }
  }
}
layer {
  name: "conv3/relu"
  type: "ReLU"
  bottom: "conv3"
  top: "conv3"
}
layer {
  name: "conv4/dw"
  type: "Convolution"
  bottom: "conv3"
  top: "conv4/dw"
  param {
    lr_mult: 1
    decay_mult: 1
  }
  convolution_param {
    num_output: 128
    bias_term: false
    pad: 1
    kernel_size: 3
    group: 128
    stride: 2
    weight_filler {
      type: "msra"
    }
    engine: CAFFE
  }
}
layer {
  name: "conv4/dw/bn"
  type: "BatchNorm"
  bottom: "conv4/dw"
  top: "conv4/dw"
}
layer {
  name: "conv4/dw/scale"
  type: "Scale"
  bottom: "conv4/dw"
  top: "conv4/dw"
  param {
    lr_mult: 1
    decay_mult: 0
  }
  param {
    lr_mult: 2
    decay_mult: 0
  }
  scale_param {
    filler {
      value: 1
    }
    bias_term: true
    bias_filler {
      value: 0
    }
  }
}
layer {
  name: "conv4/dw/relu"
  type: "ReLU"
  bottom: "conv4/dw"
  top: "conv4/dw"
}
layer {
  name: "conv4"
  type: "Convolution"
  bottom: "conv4/dw"
  top: "conv4"
  param {
    lr_mult: 1
    decay_mult: 1
  }
  convolution_param {
    num_output: 256
    bias_term: false
    kernel_size: 1
    weight_filler {
      type: "msra"
    }
  }
}
layer {
  name: "conv4/bn"
  type: "BatchNorm"
  bottom: "conv4"
  top: "conv4"
}
layer {
  name: "conv4/scale"
  type: "Scale"
  bottom: "conv4"
  top: "conv4"
  param {
    lr_mult: 1
    decay_mult: 0
  }
  param {
    lr_mult: 2
    decay_mult: 0
  }
  scale_param {
    filler {
      value: 1
    }
    bias_term: true
    bias_filler {
      value: 0
    }
  }
}
layer {
  name: "conv4/relu"
  type: "ReLU"
  bottom: "conv4"
  top: "conv4"
}
layer {
  name: "conv5/dw"
  type: "Convolution"
  bottom: "conv4"
  top: "conv5/dw"
  param {
    lr_mult: 1
    decay_mult: 1
  }
  convolution_param {
    num_output: 256
    bias_term: false
    pad: 1
    kernel_size: 3
    group: 256
    weight_filler {
      type: "msra"
    }
    engine: CAFFE
  }
}
layer {
  name: "conv5/dw/bn"
  type: "BatchNorm"
  bottom: "conv5/dw"
  top: "conv5/dw"
}
layer {
  name: "conv5/dw/scale"
  type: "Scale"
  bottom: "conv5/dw"
  top: "conv5/dw"
  param {
    lr_mult: 1
    decay_mult: 0
  }
  param {
    lr_mult: 2
    decay_mult: 0
  }
  scale_param {
    filler {
      value: 1
    }
    bias_term: true
    bias_filler {
      value: 0
    }
  }
}
layer {
  name: "conv5/dw/relu"
  type: "ReLU"
  bottom: "conv5/dw"
  top: "conv5/dw"
}
layer {
  name: "conv5"
  type: "Convolution"
  bottom: "conv5/dw"
  top: "conv5"
  param {
    lr_mult: 1
    decay_mult: 1
  }
  convolution_param {
    num_output: 256
    bias_term: false
    kernel_size: 1
    weight_filler {
      type: "msra"
    }
  }
}
layer {
  name: "conv5/bn"
  type: "BatchNorm"
  bottom: "conv5"
  top: "conv5"
}
layer {
  name: "conv5/scale"
  type: "Scale"
  bottom: "conv5"
  top: "conv5"
  param {
    lr_mult: 1
    decay_mult: 0
  }
  param {
    lr_mult: 2
    decay_mult: 0
  }
  scale_param {
    filler {
      value: 1
    }
    bias_term: true
    bias_filler {
      value: 0
    }
  }
}
layer {
  name: "conv5/relu"
  type: "ReLU"
  bottom: "conv5"
  top: "conv5"
}
layer {
  name: "conv6/dw"
  type: "Convolution"
  bottom: "conv5"
  top: "conv6/dw"
  param {
    lr_mult: 1
    decay_mult: 1
  }
  convolution_param {
    num_output: 256
    bias_term: false
    pad: 1
    kernel_size: 3
    group: 256
    stride: 2
    weight_filler {
      type: "msra"
    }
    engine: CAFFE
  }
}
layer {
  name: "conv6/dw/bn"
  type: "BatchNorm"
  bottom: "conv6/dw"
  top: "conv6/dw"
}
layer {
  name: "conv6/dw/scale"
  type: "Scale"
  bottom: "conv6/dw"
  top: "conv6/dw"
  param {
    lr_mult: 1
    decay_mult: 0
  }
  param {
    lr_mult: 2
    decay_mult: 0
  }
  scale_param {
    filler {
      value: 1
    }
    bias_term: true
    bias_filler {
      value: 0
    }
  }
}
layer {
  name: "conv6/dw/relu"
  type: "ReLU"
  bottom: "conv6/dw"
  top: "conv6/dw"
}
layer {
  name: "conv6"
  type: "Convolution"
  bottom: "conv6/dw"
  top: "conv6"
  param {
    lr_mult: 1
    decay_mult: 1
  }
  convolution_param {
    num_output: 512
    bias_term: false
    kernel_size: 1
    weight_filler {
      type: "msra"
    }
  }
}
layer {
  name: "conv6/bn"
  type: "BatchNorm"
  bottom: "conv6"
  top: "conv6"
}
layer {
  name: "conv6/scale"
  type: "Scale"
  bottom: "conv6"
  top: "conv6"
  param {
    lr_mult: 1
    decay_mult: 0
  }
  param {
    lr_mult: 2
    decay_mult: 0
  }
  scale_param {
    filler {
      value: 1
    }
    bias_term: true
    bias_filler {
      value: 0
    }
  }
}
layer {
  name: "conv6/relu"
  type: "ReLU"
  bottom: "conv6"
  top: "conv6"
}
layer {
  name: "conv7/dw"
  type: "Convolution"
  bottom: "conv6"
  top: "conv7/dw"
  param {
    lr_mult: 1
    decay_mult: 1
  }
  convolution_param {
    num_output: 512
    bias_term: false
    pad: 1
    kernel_size: 3
    group: 512
    weight_filler {
      type: "msra"
    }
    engine: CAFFE
  }
}
layer {
  name: "conv7/dw/bn"
  type: "BatchNorm"
  bottom: "conv7/dw"
  top: "conv7/dw"
}
layer {
  name: "conv7/dw/scale"
  type: "Scale"
  bottom: "conv7/dw"
  top: "conv7/dw"
  param {
    lr_mult: 1
    decay_mult: 0
  }
  param {
    lr_mult: 2
    decay_mult: 0
  }
  scale_param {
    filler {
      value: 1
    }
    bias_term: true
    bias_filler {
      value: 0
    }
  }
}
layer {
  name: "conv7/dw/relu"
  type: "ReLU"
  bottom: "conv7/dw"
  top: "conv7/dw"
}
layer {
  name: "conv7"
  type: "Convolution"
  bottom: "conv7/dw"
  top: "conv7"
  param {
    lr_mult: 1
    decay_mult: 1
  }
  convolution_param {
    num_output: 512
    bias_term: false
    kernel_size: 1
    weight_filler {
      type: "msra"
    }
  }
}
layer {
  name: "conv7/bn"
  type: "BatchNorm"
  bottom: "conv7"
  top: "conv7"
}
layer {
  name: "conv7/scale"
  type: "Scale"
  bottom: "conv7"
  top: "conv7"
  param {
    lr_mult: 1
    decay_mult: 0
  }
  param {
    lr_mult: 2
    decay_mult: 0
  }
  scale_param {
    filler {
      value: 1
    }
    bias_term: true
    bias_filler {
      value: 0
    }
  }
}
layer {
  name: "conv7/relu"
  type: "ReLU"
  bottom: "conv7"
  top: "conv7"
}
layer {
  name: "conv8/dw"
  type: "Convolution"
  bottom: "conv7"
  top: "conv8/dw"
  param {
    lr_mult: 1
    decay_mult: 1
  }
  convolution_param {
    num_output: 512
    bias_term: false
    pad: 1
    kernel_size: 3
    group: 512
    weight_filler {
      type: "msra"
    }
    engine: CAFFE
  }
}
layer {
  name: "conv8/dw/bn"
  type: "BatchNorm"
  bottom: "conv8/dw"
  top: "conv8/dw"
}
layer {
  name: "conv8/dw/scale"
  type: "Scale"
  bottom: "conv8/dw"
  top: "conv8/dw"
  param {
    lr_mult: 1
    decay_mult: 0
  }
  param {
    lr_mult: 2
    decay_mult: 0
  }
  scale_param {
    filler {
      value: 1
    }
    bias_term: true
    bias_filler {
      value: 0
    }
  }
}
layer {
  name: "conv8/dw/relu"
  type: "ReLU"
  bottom: "conv8/dw"
  top: "conv8/dw"
}
layer {
  name: "conv8"
  type: "Convolution"
  bottom: "conv8/dw"
  top: "conv8"
  param {
    lr_mult: 1
    decay_mult: 1
  }
  convolution_param {
    num_output: 512
    bias_term: false
    kernel_size: 1
    weight_filler {
      type: "msra"
    }
  }
}
layer {
  name: "conv8/bn"
  type: "BatchNorm"
  bottom: "conv8"
  top: "conv8"
}
layer {
  name: "conv8/scale"
  type: "Scale"
  bottom: "conv8"
  top: "conv8"
  param {
    lr_mult: 1
    decay_mult: 0
  }
  param {
    lr_mult: 2
    decay_mult: 0
  }
  scale_param {
    filler {
      value: 1
    }
    bias_term: true
    bias_filler {
      value: 0
    }
  }
}
layer {
  name: "conv8/relu"
  type: "ReLU"
  bottom: "conv8"
  top: "conv8"
}
layer {
  name: "conv9/dw"
  type: "Convolution"
  bottom: "conv8"
  top: "conv9/dw"
  param {
    lr_mult: 1
    decay_mult: 1
  }
  convolution_param {
    num_output: 512
    bias_term: false
    pad: 1
    kernel_size: 3
    group: 512
    weight_filler {
      type: "msra"
    }
    engine: CAFFE
  }
}
layer {
  name: "conv9/dw/bn"
  type: "BatchNorm"
  bottom: "conv9/dw"
  top: "conv9/dw"
}
layer {
  name: "conv9/dw/scale"
  type: "Scale"
  bottom: "conv9/dw"
  top: "conv9/dw"
  param {
    lr_mult: 1
    decay_mult: 0
  }
  param {
    lr_mult: 2
    decay_mult: 0
  }
  scale_param {
    filler {
      value: 1
    }
    bias_term: true
    bias_filler {
      value: 0
    }
…
I1031 17:46:16.010937  8381 layer_factory.hpp:77] Creating layer conv14_1/scale
I1031 17:46:16.010946  8381 net.cpp:100] Creating Layer conv14_1/scale
I1031 17:46:16.010949  8381 net.cpp:478] conv14_1/scale <- conv14_1
I1031 17:46:16.010954  8381 net.cpp:439] conv14_1/scale -> conv14_1 (in-place)
I1031 17:46:16.010993  8381 layer_factory.hpp:77] Creating layer conv14_1/scale
I1031 17:46:16.011088  8381 net.cpp:150] Setting up conv14_1/scale
I1031 17:46:16.011095  8381 net.cpp:157] Top shape: 8 256 10 10 (204800)
I1031 17:46:16.011097  8381 net.cpp:165] Memory required for data: 1283100736
I1031 17:46:16.011101  8381 layer_factory.hpp:77] Creating layer conv14_1/relu
I1031 17:46:16.011106  8381 net.cpp:100] Creating Layer conv14_1/relu
I1031 17:46:16.011108  8381 net.cpp:478] conv14_1/relu <- conv14_1
I1031 17:46:16.011113  8381 net.cpp:439] conv14_1/relu -> conv14_1 (in-place)
I1031 17:46:16.011469  8381 net.cpp:150] Setting up conv14_1/relu
I1031 17:46:16.011479  8381 net.cpp:157] Top shape: 8 256 10 10 (204800)
I1031 17:46:16.011482  8381 net.cpp:165] Memory required for data: 1283919936
I1031 17:46:16.011484  8381 layer_factory.hpp:77] Creating layer conv14_2
I1031 17:46:16.011492  8381 net.cpp:100] Creating Layer conv14_2
I1031 17:46:16.011494  8381 net.cpp:478] conv14_2 <- conv14_1
I1031 17:46:16.011502  8381 net.cpp:452] conv14_2 -> conv14_2
I1031 17:46:16.027143  8381 net.cpp:150] Setting up conv14_2
I1031 17:46:16.027156  8381 net.cpp:157] Top shape: 8 512 5 5 (102400)
I1031 17:46:16.027159  8381 net.cpp:165] Memory required for data: 1284329536
I1031 17:46:16.027164  8381 layer_factory.hpp:77] Creating layer conv14_2/bn
I1031 17:46:16.027169  8381 net.cpp:100] Creating Layer conv14_2/bn
I1031 17:46:16.027173  8381 net.cpp:478] conv14_2/bn <- conv14_2
I1031 17:46:16.027179  8381 net.cpp:439] conv14_2/bn -> conv14_2 (in-place)
I1031 17:46:16.027442  8381 net.cpp:150] Setting up conv14_2/bn
I1031 17:46:16.027451  8381 net.cpp:157] Top shape: 8 512 5 5 (102400)
I1031 17:46:16.027452  8381 net.cpp:165] Memory required for data: 1284739136
I1031 17:46:16.027484  8381 layer_factory.hpp:77] Creating layer conv14_2/scale
I1031 17:46:16.027490  8381 net.cpp:100] Creating Layer conv14_2/scale
I1031 17:46:16.027493  8381 net.cpp:478] conv14_2/scale <- conv14_2
I1031 17:46:16.027498  8381 net.cpp:439] conv14_2/scale -> conv14_2 (in-place)
I1031 17:46:16.027578  8381 layer_factory.hpp:77] Creating layer conv14_2/scale
I1031 17:46:16.027693  8381 net.cpp:150] Setting up conv14_2/scale
I1031 17:46:16.027706  8381 net.cpp:157] Top shape: 8 512 5 5 (102400)
I1031 17:46:16.027709  8381 net.cpp:165] Memory required for data: 1285148736
I1031 17:46:16.027712  8381 layer_factory.hpp:77] Creating layer conv14_2/relu
I1031 17:46:16.027716  8381 net.cpp:100] Creating Layer conv14_2/relu
I1031 17:46:16.027719  8381 net.cpp:478] conv14_2/relu <- conv14_2
I1031 17:46:16.027724  8381 net.cpp:439] conv14_2/relu -> conv14_2 (in-place)
I1031 17:46:16.028589  8381 net.cpp:150] Setting up conv14_2/relu
I1031 17:46:16.028599  8381 net.cpp:157] Top shape: 8 512 5 5 (102400)
I1031 17:46:16.028601  8381 net.cpp:165] Memory required for data: 1285558336
I1031 17:46:16.028604  8381 layer_factory.hpp:77] Creating layer conv14_2_conv14_2/relu_0_split
I1031 17:46:16.028610  8381 net.cpp:100] Creating Layer conv14_2_conv14_2/relu_0_split
I1031 17:46:16.028614  8381 net.cpp:478] conv14_2_conv14_2/relu_0_split <- conv14_2
I1031 17:46:16.028620  8381 net.cpp:452] conv14_2_conv14_2/relu_0_split -> conv14_2_conv14_2/relu_0_split_0
I1031 17:46:16.028625  8381 net.cpp:452] conv14_2_conv14_2/relu_0_split -> conv14_2_conv14_2/relu_0_split_1
I1031 17:46:16.028632  8381 net.cpp:452] conv14_2_conv14_2/relu_0_split -> conv14_2_conv14_2/relu_0_split_2
I1031 17:46:16.028636  8381 net.cpp:452] conv14_2_conv14_2/relu_0_split -> conv14_2_conv14_2/relu_0_split_3
I1031 17:46:16.028695  8381 net.cpp:150] Setting up conv14_2_conv14_2/relu_0_split
I1031 17:46:16.028699  8381 net.cpp:157] Top shape: 8 512 5 5 (102400)
I1031 17:46:16.028702  8381 net.cpp:157] Top shape: 8 512 5 5 (102400)
I1031 17:46:16.028705  8381 net.cpp:157] Top shape: 8 512 5 5 (102400)
I1031 17:46:16.028707  8381 net.cpp:157] Top shape: 8 512 5 5 (102400)
I1031 17:46:16.028709  8381 net.cpp:165] Memory required for data: 1287196736
I1031 17:46:16.028712  8381 layer_factory.hpp:77] Creating layer conv15_1
I1031 17:46:16.028719  8381 net.cpp:100] Creating Layer conv15_1
I1031 17:46:16.028723  8381 net.cpp:478] conv15_1 <- conv14_2_conv14_2/relu_0_split_0
I1031 17:46:16.028728  8381 net.cpp:452] conv15_1 -> conv15_1
I1031 17:46:16.033005  8381 net.cpp:150] Setting up conv15_1
I1031 17:46:16.033020  8381 net.cpp:157] Top shape: 8 128 5 5 (25600)
I1031 17:46:16.033021  8381 net.cpp:165] Memory required for data: 1287299136
I1031 17:46:16.033026  8381 layer_factory.hpp:77] Creating layer conv15_1/bn
I1031 17:46:16.033033  8381 net.cpp:100] Creating Layer conv15_1/bn
I1031 17:46:16.033037  8381 net.cpp:478] conv15_1/bn <- conv15_1
I1031 17:46:16.033041  8381 net.cpp:439] conv15_1/bn -> conv15_1 (in-place)
I1031 17:46:16.033212  8381 net.cpp:150] Setting up conv15_1/bn
I1031 17:46:16.033217  8381 net.cpp:157] Top shape: 8 128 5 5 (25600)
I1031 17:46:16.033219  8381 net.cpp:165] Memory required for data: 1287401536
I1031 17:46:16.033226  8381 layer_factory.hpp:77] Creating layer conv15_1/scale
I1031 17:46:16.033232  8381 net.cpp:100] Creating Layer conv15_1/scale
I1031 17:46:16.033236  8381 net.cpp:478] conv15_1/scale <- conv15_1
I1031 17:46:16.033238  8381 net.cpp:439] conv15_1/scale -> conv15_1 (in-place)
I1031 17:46:16.033290  8381 layer_factory.hpp:77] Creating layer conv15_1/scale
I1031 17:46:16.033388  8381 net.cpp:150] Setting up conv15_1/scale
I1031 17:46:16.033393  8381 net.cpp:157] Top shape: 8 128 5 5 (25600)
I1031 17:46:16.033396  8381 net.cpp:165] Memory required for data: 1287503936
I1031 17:46:16.033399  8381 layer_factory.hpp:77] Creating layer conv15_1/relu
I1031 17:46:16.033406  8381 net.cpp:100] Creating Layer conv15_1/relu
I1031 17:46:16.033407  8381 net.cpp:478] conv15_1/relu <- conv15_1
I1031 17:46:16.033411  8381 net.cpp:439] conv15_1/relu -> conv15_1 (in-place)
I1031 17:46:16.034418  8381 net.cpp:150] Setting up conv15_1/relu
I1031 17:46:16.034431  8381 net.cpp:157] Top shape: 8 128 5 5 (25600)
I1031 17:46:16.034435  8381 net.cpp:165] Memory required for data: 1287606336
I1031 17:46:16.034437  8381 layer_factory.hpp:77] Creating layer conv15_2
I1031 17:46:16.034445  8381 net.cpp:100] Creating Layer conv15_2
I1031 17:46:16.034448  8381 net.cpp:478] conv15_2 <- conv15_1
I1031 17:46:16.034456  8381 net.cpp:452] conv15_2 -> conv15_2
I1031 17:46:16.040644  8381 net.cpp:150] Setting up conv15_2
I1031 17:46:16.040658  8381 net.cpp:157] Top shape: 8 256 3 3 (18432)
I1031 17:46:16.040660  8381 net.cpp:165] Memory required for data: 1287680064
I1031 17:46:16.040680  8381 layer_factory.hpp:77] Creating layer conv15_2/bn
I1031 17:46:16.040685  8381 net.cpp:100] Creating Layer conv15_2/bn
I1031 17:46:16.040689  8381 net.cpp:478] conv15_2/bn <- conv15_2
I1031 17:46:16.040695  8381 net.cpp:439] conv15_2/bn -> conv15_2 (in-place)
I1031 17:46:16.040982  8381 net.cpp:150] Setting up conv15_2/bn
I1031 17:46:16.040989  8381 net.cpp:157] Top shape: 8 256 3 3 (18432)
I1031 17:46:16.040992  8381 net.cpp:165] Memory required for data: 1287753792
I1031 17:46:16.040998  8381 layer_factory.hpp:77] Creating layer conv15_2/scale
I1031 17:46:16.041003  8381 net.cpp:100] Creating Layer conv15_2/scale
I1031 17:46:16.041007  8381 net.cpp:478] conv15_2/scale <- conv15_2
I1031 17:46:16.041010  8381 net.cpp:439] conv15_2/scale -> conv15_2 (in-place)
I1031 17:46:16.041050  8381 layer_factory.hpp:77] Creating layer conv15_2/scale
I1031 17:46:16.041169  8381 net.cpp:150] Setting up conv15_2/scale
I1031 17:46:16.041175  8381 net.cpp:157] Top shape: 8 256 3 3 (18432)
I1031 17:46:16.041177  8381 net.cpp:165] Memory required for data: 1287827520
I1031 17:46:16.041182  8381 layer_factory.hpp:77] Creating layer conv15_2/relu
I1031 17:46:16.041213  8381 net.cpp:100] Creating Layer conv15_2/relu
I1031 17:46:16.041218  8381 net.cpp:478] conv15_2/relu <- conv15_2
I1031 17:46:16.041220  8381 net.cpp:439] conv15_2/relu -> conv15_2 (in-place)
I1031 17:46:16.041575  8381 net.cpp:150] Setting up conv15_2/relu
I1031 17:46:16.041599  8381 net.cpp:157] Top shape: 8 256 3 3 (18432)
I1031 17:46:16.041600  8381 net.cpp:165] Memory required for data: 1287901248
I1031 17:46:16.041659  8381 layer_factory.hpp:77] Creating layer conv15_2_conv15_2/relu_0_split
I1031 17:46:16.041671  8381 net.cpp:100] Creating Layer conv15_2_conv15_2/relu_0_split
I1031 17:46:16.041673  8381 net.cpp:478] conv15_2_conv15_2/relu_0_split <- conv15_2
I1031 17:46:16.041678  8381 net.cpp:452] conv15_2_conv15_2/relu_0_split -> conv15_2_conv15_2/relu_0_split_0
I1031 17:46:16.041685  8381 net.cpp:452] conv15_2_conv15_2/relu_0_split -> conv15_2_conv15_2/relu_0_split_1
I1031 17:46:16.041690  8381 net.cpp:452] conv15_2_conv15_2/relu_0_split -> conv15_2_conv15_2/relu_0_split_2
I1031 17:46:16.041708  8381 net.cpp:452] conv15_2_conv15_2/relu_0_split -> conv15_2_conv15_2/relu_0_split_3
I1031 17:46:16.041775  8381 net.cpp:150] Setting up conv15_2_conv15_2/relu_0_split
I1031 17:46:16.041782  8381 net.cpp:157] Top shape: 8 256 3 3 (18432)
I1031 17:46:16.041785  8381 net.cpp:157] Top shape: 8 256 3 3 (18432)
I1031 17:46:16.041788  8381 net.cpp:157] Top shape: 8 256 3 3 (18432)
I1031 17:46:16.041790  8381 net.cpp:157] Top shape: 8 256 3 3 (18432)
I1031 17:46:16.041792  8381 net.cpp:165] Memory required for data: 1288196160
I1031 17:46:16.041795  8381 layer_factory.hpp:77] Creating layer conv16_1
I1031 17:46:16.041801  8381 net.cpp:100] Creating Layer conv16_1
I1031 17:46:16.041805  8381 net.cpp:478] conv16_1 <- conv15_2_conv15_2/relu_0_split_0
I1031 17:46:16.041817  8381 net.cpp:452] conv16_1 -> conv16_1
I1031 17:46:16.044842  8381 net.cpp:150] Setting up conv16_1
I1031 17:46:16.044855  8381 net.cpp:157] Top shape: 8 128 3 3 (9216)
I1031 17:46:16.044857  8381 net.cpp:165] Memory required for data: 1288233024
I1031 17:46:16.044862  8381 layer_factory.hpp:77] Creating layer conv16_1/bn
I1031 17:46:16.044867  8381 net.cpp:100] Creating Layer conv16_1/bn
I1031 17:46:16.044880  8381 net.cpp:478] conv16_1/bn <- conv16_1
I1031 17:46:16.044888  8381 net.cpp:439] conv16_1/bn -> conv16_1 (in-place)
I1031 17:46:16.045116  8381 net.cpp:150] Setting up conv16_1/bn
I1031 17:46:16.045122  8381 net.cpp:157] Top shape: 8 128 3 3 (9216)
I1031 17:46:16.045125  8381 net.cpp:165] Memory required for data: 1288269888
I1031 17:46:16.045130  8381 layer_factory.hpp:77] Creating layer conv16_1/scale
I1031 17:46:16.045135  8381 net.cpp:100] Creating Layer conv16_1/scale
I1031 17:46:16.045138  8381 net.cpp:478] conv16_1/scale <- conv16_1
I1031 17:46:16.045143  8381 net.cpp:439] conv16_1/scale -> conv16_1 (in-place)
I1031 17:46:16.045178  8381 layer_factory.hpp:77] Creating layer conv16_1/scale
I1031 17:46:16.045305  8381 net.cpp:150] Setting up conv16_1/scale
I1031 17:46:16.045310  8381 net.cpp:157] Top shape: 8 128 3 3 (9216)
I1031 17:46:16.045311  8381 net.cpp:165] Memory required for data: 1288306752
I1031 17:46:16.045316  8381 layer_factory.hpp:77] Creating layer conv16_1/relu
I1031 17:46:16.045320  8381 net.cpp:100] Creating Layer conv16_1/relu
I1031 17:46:16.045322  8381 net.cpp:478] conv16_1/relu <- conv16_1
I1031 17:46:16.045327  8381 net.cpp:439] conv16_1/relu -> conv16_1 (in-place)
I1031 17:46:16.046330  8381 net.cpp:150] Setting up conv16_1/relu
I1031 17:46:16.046344  8381 net.cpp:157] Top shape: 8 128 3 3 (9216)
I1031 17:46:16.046345  8381 net.cpp:165] Memory required for data: 1288343616
I1031 17:46:16.046349  8381 layer_factory.hpp:77] Creating layer conv16_2
I1031 17:46:16.046357  8381 net.cpp:100] Creating Layer conv16_2
I1031 17:46:16.046360  8381 net.cpp:478] conv16_2 <- conv16_1
I1031 17:46:16.046365  8381 net.cpp:452] conv16_2 -> conv16_2
I1031 17:46:16.053025  8381 net.cpp:150] Setting up conv16_2
I1031 17:46:16.053036  8381 net.cpp:157] Top shape: 8 256 2 2 (8192)
I1031 17:46:16.053040  8381 net.cpp:165] Memory required for data: 1288376384
I1031 17:46:16.053061  8381 layer_factory.hpp:77] Creating layer conv16_2/bn
I1031 17:46:16.053066  8381 net.cpp:100] Creating Layer conv16_2/bn
I1031 17:46:16.053069  8381 net.cpp:478] conv16_2/bn <- conv16_2
I1031 17:46:16.053073  8381 net.cpp:439] conv16_2/bn -> conv16_2 (in-place)
I1031 17:46:16.053261  8381 net.cpp:150] Setting up conv16_2/bn
I1031 17:46:16.053267  8381 net.cpp:157] Top shape: 8 256 2 2 (8192)
I1031 17:46:16.068608  8381 net.cpp:165] Memory required for data: 1288409152
I1031 17:46:16.068624  8381 layer_factory.hpp:77] Creating layer conv16_2/scale
I1031 17:46:16.068632  8381 net.cpp:100] Creating Layer conv16_2/scale
I1031 17:46:16.068636  8381 net.cpp:478] conv16_2/scale <- conv16_2
I1031 17:46:16.068645  8381 net.cpp:439] conv16_2/scale -> conv16_2 (in-place)
I1031 17:46:16.068717  8381 layer_factory.hpp:77] Creating layer conv16_2/scale
I1031 17:46:16.068859  8381 net.cpp:150] Setting up conv16_2/scale
I1031 17:46:16.068866  8381 net.cpp:157] Top shape: 8 256 2 2 (8192)
I1031 17:46:16.068869  8381 net.cpp:165] Memory required for data: 1288441920
I1031 17:46:16.068874  8381 layer_factory.hpp:77] Creating layer conv16_2/relu
I1031 17:46:16.068878  8381 net.cpp:100] Creating Layer conv16_2/relu
I1031 17:46:16.068881  8381 net.cpp:478] conv16_2/relu <- conv16_2
I1031 17:46:16.068886  8381 net.cpp:439] conv16_2/relu -> conv16_2 (in-place)
I1031 17:46:16.069252  8381 net.cpp:150] Setting up conv16_2/relu
I1031 17:46:16.069260  8381 net.cpp:157] Top shape: 8 256 2 2 (8192)
I1031 17:46:16.069262  8381 net.cpp:165] Memory required for data: 1288474688
I1031 17:46:16.069265  8381 layer_factory.hpp:77] Creating layer conv16_2_conv16_2/relu_0_split
I1031 17:46:16.069270  8381 net.cpp:100] Creating Layer conv16_2_conv16_2/relu_0_split
I1031 17:46:16.069273  8381 net.cpp:478] conv16_2_conv16_2/relu_0_split <- conv16_2
I1031 17:46:16.069280  8381 net.cpp:452] conv16_2_conv16_2/relu_0_split -> conv16_2_conv16_2/relu_0_split_0
I1031 17:46:16.069286  8381 net.cpp:452] conv16_2_conv16_2/relu_0_split -> conv16_2_conv16_2/relu_0_split_1
I1031 17:46:16.069293  8381 net.cpp:452] conv16_2_conv16_2/relu_0_split -> conv16_2_conv16_2/relu_0_split_2
I1031 17:46:16.069309  8381 net.cpp:452] conv16_2_conv16_2/relu_0_split -> conv16_2_conv16_2/relu_0_split_3
I1031 17:46:16.069372  8381 net.cpp:150] Setting up conv16_2_conv16_2/relu_0_split
I1031 17:46:16.069377  8381 net.cpp:157] Top shape: 8 256 2 2 (8192)
I1031 17:46:16.069394  8381 net.cpp:157] Top shape: 8 256 2 2 (8192)
I1031 17:46:16.069397  8381 net.cpp:157] Top shape: 8 256 2 2 (8192)
I1031 17:46:16.069399  8381 net.cpp:157] Top shape: 8 256 2 2 (8192)
I1031 17:46:16.069401  8381 net.cpp:165] Memory required for data: 1288605760
I1031 17:46:16.069403  8381 layer_factory.hpp:77] Creating layer conv17_1
I1031 17:46:16.069411  8381 net.cpp:100] Creating Layer conv17_1
I1031 17:46:16.069414  8381 net.cpp:478] conv17_1 <- conv16_2_conv16_2/relu_0_split_0
I1031 17:46:16.069420  8381 net.cpp:452] conv17_1 -> conv17_1
I1031 17:46:16.072060  8381 net.cpp:150] Setting up conv17_1
I1031 17:46:16.072072  8381 net.cpp:157] Top shape: 8 64 2 2 (2048)
I1031 17:46:16.072073  8381 net.cpp:165] Memory required for data: 1288613952
I1031 17:46:16.072078  8381 layer_factory.hpp:77] Creating layer conv17_1/bn
I1031 17:46:16.072084  8381 net.cpp:100] Creating Layer conv17_1/bn
I1031 17:46:16.072088  8381 net.cpp:478] conv17_1/bn <- conv17_1
I1031 17:46:16.072093  8381 net.cpp:439] conv17_1/bn -> conv17_1 (in-place)
I1031 17:46:16.072274  8381 net.cpp:150] Setting up conv17_1/bn
I1031 17:46:16.072279  8381 net.cpp:157] Top shape: 8 64 2 2 (2048)
I1031 17:46:16.072281  8381 net.cpp:165] Memory required for data: 1288622144
I1031 17:46:16.072286  8381 layer_factory.hpp:77] Creating layer conv17_1/scale
I1031 17:46:16.072306  8381 net.cpp:100] Creating Layer conv17_1/scale
I1031 17:46:16.072309  8381 net.cpp:478] conv17_1/scale <- conv17_1
I1031 17:46:16.072314  8381 net.cpp:439] conv17_1/scale -> conv17_1 (in-place)
I1031 17:46:16.072351  8381 layer_factory.hpp:77] Creating layer conv17_1/scale
I1031 17:46:16.072450  8381 net.cpp:150] Setting up conv17_1/scale
I1031 17:46:16.072455  8381 net.cpp:157] Top shape: 8 64 2 2 (2048)
I1031 17:46:16.072456  8381 net.cpp:165] Memory required for data: 1288630336
I1031 17:46:16.072461  8381 layer_factory.hpp:77] Creating layer conv17_1/relu
I1031 17:46:16.072465  8381 net.cpp:100] Creating Layer conv17_1/relu
I1031 17:46:16.072468  8381 net.cpp:478] conv17_1/relu <- conv17_1
I1031 17:46:16.072473  8381 net.cpp:439] conv17_1/relu -> conv17_1 (in-place)
I1031 17:46:16.073529  8381 net.cpp:150] Setting up conv17_1/relu
I1031 17:46:16.073539  8381 net.cpp:157] Top shape: 8 64 2 2 (2048)
I1031 17:46:16.073540  8381 net.cpp:165] Memory required for data: 1288638528
I1031 17:46:16.073544  8381 layer_factory.hpp:77] Creating layer conv17_2
I1031 17:46:16.073551  8381 net.cpp:100] Creating Layer conv17_2
I1031 17:46:16.073554  8381 net.cpp:478] conv17_2 <- conv17_1
I1031 17:46:16.073561  8381 net.cpp:452] conv17_2 -> conv17_2
I1031 17:46:16.077881  8381 net.cpp:150] Setting up conv17_2
I1031 17:46:16.077893  8381 net.cpp:157] Top shape: 8 128 1 1 (1024)
I1031 17:46:16.077909  8381 net.cpp:165] Memory required for data: 1288642624
I1031 17:46:16.077914  8381 layer_factory.hpp:77] Creating layer conv17_2/bn
I1031 17:46:16.077920  8381 net.cpp:100] Creating Layer conv17_2/bn
I1031 17:46:16.077924  8381 net.cpp:478] conv17_2/bn <- conv17_2
I1031 17:46:16.077929  8381 net.cpp:439] conv17_2/bn -> conv17_2 (in-place)
I1031 17:46:16.078146  8381 net.cpp:150] Setting up conv17_2/bn
I1031 17:46:16.078153  8381 net.cpp:157] Top shape: 8 128 1 1 (1024)
I1031 17:46:16.078155  8381 net.cpp:165] Memory required for data: 1288646720
I1031 17:46:16.078161  8381 layer_factory.hpp:77] Creating layer conv17_2/scale
I1031 17:46:16.078169  8381 net.cpp:100] Creating Layer conv17_2/scale
I1031 17:46:16.078172  8381 net.cpp:478] conv17_2/scale <- conv17_2
I1031 17:46:16.078191  8381 net.cpp:439] conv17_2/scale -> conv17_2 (in-place)
I1031 17:46:16.078229  8381 layer_factory.hpp:77] Creating layer conv17_2/scale
I1031 17:46:16.078338  8381 net.cpp:150] Setting up conv17_2/scale
I1031 17:46:16.078357  8381 net.cpp:157] Top shape: 8 128 1 1 (1024)
I1031 17:46:16.078368  8381 net.cpp:165] Memory required for data: 1288650816
I1031 17:46:16.078373  8381 layer_factory.hpp:77] Creating layer conv17_2/relu
I1031 17:46:16.078377  8381 net.cpp:100] Creating Layer conv17_2/relu
I1031 17:46:16.078380  8381 net.cpp:478] conv17_2/relu <- conv17_2
I1031 17:46:16.078383  8381 net.cpp:439] conv17_2/relu -> conv17_2 (in-place)
I1031 17:46:16.079332  8381 net.cpp:150] Setting up conv17_2/relu
I1031 17:46:16.079344  8381 net.cpp:157] Top shape: 8 128 1 1 (1024)
I1031 17:46:16.079347  8381 net.cpp:165] Memory required for data: 1288654912
I1031 17:46:16.079349  8381 layer_factory.hpp:77] Creating layer conv17_2_conv17_2/relu_0_split
I1031 17:46:16.079355  8381 net.cpp:100] Creating Layer conv17_2_conv17_2/relu_0_split
I1031 17:46:16.079357  8381 net.cpp:478] conv17_2_conv17_2/relu_0_split <- conv17_2
I1031 17:46:16.079363  8381 net.cpp:452] conv17_2_conv17_2/relu_0_split -> conv17_2_conv17_2/relu_0_split_0
I1031 17:46:16.079380  8381 net.cpp:452] conv17_2_conv17_2/relu_0_split -> conv17_2_conv17_2/relu_0_split_1
I1031 17:46:16.079386  8381 net.cpp:452] conv17_2_conv17_2/relu_0_split -> conv17_2_conv17_2/relu_0_split_2
I1031 17:46:16.079450  8381 net.cpp:150] Setting up conv17_2_conv17_2/relu_0_split
I1031 17:46:16.079457  8381 net.cpp:157] Top shape: 8 128 1 1 (1024)
I1031 17:46:16.079460  8381 net.cpp:157] Top shape: 8 128 1 1 (1024)
I1031 17:46:16.079463  8381 net.cpp:157] Top shape: 8 128 1 1 (1024)
I1031 17:46:16.079464  8381 net.cpp:165] Memory required for data: 1288667200
I1031 17:46:16.079466  8381 layer_factory.hpp:77] Creating layer conv11_mbox_loc
I1031 17:46:16.079474  8381 net.cpp:100] Creating Layer conv11_mbox_loc
I1031 17:46:16.079478  8381 net.cpp:478] conv11_mbox_loc <- conv11_conv11/relu_0_split_1
I1031 17:46:16.079481  8381 net.cpp:452] conv11_mbox_loc -> conv11_mbox_loc
I1031 17:46:16.082355  8381 net.cpp:150] Setting up conv11_mbox_loc
I1031 17:46:16.082366  8381 net.cpp:157] Top shape: 8 12 19 19 (34656)
I1031 17:46:16.082368  8381 net.cpp:165] Memory required for data: 1288805824
I1031 17:46:16.082375  8381 layer_factory.hpp:77] Creating layer conv11_mbox_loc_perm
I1031 17:46:16.082382  8381 net.cpp:100] Creating Layer conv11_mbox_loc_perm
I1031 17:46:16.082401  8381 net.cpp:478] conv11_mbox_loc_perm <- conv11_mbox_loc
I1031 17:46:16.082404  8381 net.cpp:452] conv11_mbox_loc_perm -> conv11_mbox_loc_perm
I1031 17:46:16.082511  8381 net.cpp:150] Setting up conv11_mbox_loc_perm
I1031 17:46:16.082515  8381 net.cpp:157] Top shape: 8 19 19 12 (34656)
I1031 17:46:16.082517  8381 net.cpp:165] Memory required for data: 1288944448
I1031 17:46:16.082520  8381 layer_factory.hpp:77] Creating layer conv11_mbox_loc_flat
I1031 17:46:16.082525  8381 net.cpp:100] Creating Layer conv11_mbox_loc_flat
I1031 17:46:16.082527  8381 net.cpp:478] conv11_mbox_loc_flat <- conv11_mbox_loc_perm
I1031 17:46:16.082532  8381 net.cpp:452] conv11_mbox_loc_flat -> conv11_mbox_loc_flat
I1031 17:46:16.082569  8381 net.cpp:150] Setting up conv11_mbox_loc_flat
I1031 17:46:16.082573  8381 net.cpp:157] Top shape: 8 4332 (34656)
I1031 17:46:16.082576  8381 net.cpp:165] Memory required for data: 1289083072
I1031 17:46:16.082578  8381 layer_factory.hpp:77] Creating layer conv11_mbox_conf_new
I1031 17:46:16.082587  8381 net.cpp:100] Creating Layer conv11_mbox_conf_new
I1031 17:46:16.082588  8381 net.cpp:478] conv11_mbox_conf_new <- conv11_conv11/relu_0_split_2
I1031 17:46:16.082594  8381 net.cpp:452] conv11_mbox_conf_new -> conv11_mbox_conf
I1031 17:46:16.086589  8381 net.cpp:150] Setting up conv11_mbox_conf_new
I1031 17:46:16.086601  8381 net.cpp:157] Top shape: 8 63 19 19 (181944)
I1031 17:46:16.086604  8381 net.cpp:165] Memory required for data: 1289810848
I1031 17:46:16.086623  8381 layer_factory.hpp:77] Creating layer conv11_mbox_conf_perm
I1031 17:46:16.086629  8381 net.cpp:100] Creating Layer conv11_mbox_conf_perm
I1031 17:46:16.086633  8381 net.cpp:478] conv11_mbox_conf_perm <- conv11_mbox_conf
I1031 17:46:16.086653  8381 net.cpp:452] conv11_mbox_conf_perm -> conv11_mbox_conf_perm
I1031 17:46:16.086765  8381 net.cpp:150] Setting up conv11_mbox_conf_perm
I1031 17:46:16.086771  8381 net.cpp:157] Top shape: 8 19 19 63 (181944)
I1031 17:46:16.086773  8381 net.cpp:165] Memory required for data: 1290538624
I1031 17:46:16.086776  8381 layer_factory.hpp:77] Creating layer conv11_mbox_conf_flat
I1031 17:46:16.086781  8381 net.cpp:100] Creating Layer conv11_mbox_conf_flat
I1031 17:46:16.086783  8381 net.cpp:478] conv11_mbox_conf_flat <- conv11_mbox_conf_perm
I1031 17:46:16.086789  8381 net.cpp:452] conv11_mbox_conf_flat -> conv11_mbox_conf_flat
I1031 17:46:16.086810  8381 net.cpp:150] Setting up conv11_mbox_conf_flat
I1031 17:46:16.086817  8381 net.cpp:157] Top shape: 8 22743 (181944)
I1031 17:46:16.086818  8381 net.cpp:165] Memory required for data: 1291266400
I1031 17:46:16.086820  8381 layer_factory.hpp:77] Creating layer conv11_mbox_priorbox
I1031 17:46:16.086827  8381 net.cpp:100] Creating Layer conv11_mbox_priorbox
I1031 17:46:16.086829  8381 net.cpp:478] conv11_mbox_priorbox <- conv11_conv11/relu_0_split_3
I1031 17:46:16.086833  8381 net.cpp:478] conv11_mbox_priorbox <- data_data_0_split_1
I1031 17:46:16.086845  8381 net.cpp:452] conv11_mbox_priorbox -> conv11_mbox_priorbox
I1031 17:46:16.086874  8381 net.cpp:150] Setting up conv11_mbox_priorbox
I1031 17:46:16.086879  8381 net.cpp:157] Top shape: 1 2 4332 (8664)
I1031 17:46:16.086881  8381 net.cpp:165] Memory required for data: 1291301056
I1031 17:46:16.086884  8381 layer_factory.hpp:77] Creating layer conv13_mbox_loc
I1031 17:46:16.086906  8381 net.cpp:100] Creating Layer conv13_mbox_loc
I1031 17:46:16.086910  8381 net.cpp:478] conv13_mbox_loc <- conv13_conv13/relu_0_split_1
I1031 17:46:16.086928  8381 net.cpp:452] conv13_mbox_loc -> conv13_mbox_loc
I1031 17:46:16.089891  8381 net.cpp:150] Setting up conv13_mbox_loc
I1031 17:46:16.089903  8381 net.cpp:157] Top shape: 8 24 10 10 (19200)
I1031 17:46:16.089905  8381 net.cpp:165] Memory required for data: 1291377856
I1031 17:46:16.089911  8381 layer_factory.hpp:77] Creating layer conv13_mbox_loc_perm
I1031 17:46:16.089920  8381 net.cpp:100] Creating Layer conv13_mbox_loc_perm
I1031 17:46:16.089922  8381 net.cpp:478] conv13_mbox_loc_perm <- conv13_mbox_loc
I1031 17:46:16.089928  8381 net.cpp:452] conv13_mbox_loc_perm -> conv13_mbox_loc_perm
I1031 17:46:16.090096  8381 net.cpp:150] Setting up conv13_mbox_loc_perm
I1031 17:46:16.090118  8381 net.cpp:157] Top shape: 8 10 10 24 (19200)
I1031 17:46:16.090121  8381 net.cpp:165] Memory required for data: 1291454656
I1031 17:46:16.090142  8381 layer_factory.hpp:77] Creating layer conv13_mbox_loc_flat
I1031 17:46:16.090147  8381 net.cpp:100] Creating Layer conv13_mbox_loc_flat
I1031 17:46:16.090164  8381 net.cpp:478] conv13_mbox_loc_flat <- conv13_mbox_loc_perm
I1031 17:46:16.090170  8381 net.cpp:452] conv13_mbox_loc_flat -> conv13_mbox_loc_flat
I1031 17:46:16.090196  8381 net.cpp:150] Setting up conv13_mbox_loc_flat
I1031 17:46:16.090200  8381 net.cpp:157] Top shape: 8 2400 (19200)
I1031 17:46:16.090203  8381 net.cpp:165] Memory required for data: 1291531456
I1031 17:46:16.090204  8381 layer_factory.hpp:77] Creating layer conv13_mbox_conf_new
I1031 17:46:16.090214  8381 net.cpp:100] Creating Layer conv13_mbox_conf_new
I1031 17:46:16.090216  8381 net.cpp:478] conv13_mbox_conf_new <- conv13_conv13/relu_0_split_2
I1031 17:46:16.090222  8381 net.cpp:452] conv13_mbox_conf_new -> conv13_mbox_conf
I1031 17:46:16.094703  8381 net.cpp:150] Setting up conv13_mbox_conf_new
I1031 17:46:16.094729  8381 net.cpp:157] Top shape: 8 126 10 10 (100800)
I1031 17:46:16.094732  8381 net.cpp:165] Memory required for data: 1291934656
I1031 17:46:16.094738  8381 layer_factory.hpp:77] Creating layer conv13_mbox_conf_perm
I1031 17:46:16.094745  8381 net.cpp:100] Creating Layer conv13_mbox_conf_perm
I1031 17:46:16.094748  8381 net.cpp:478] conv13_mbox_conf_perm <- conv13_mbox_conf
I1031 17:46:16.094754  8381 net.cpp:452] conv13_mbox_conf_perm -> conv13_mbox_conf_perm
I1031 17:46:16.094868  8381 net.cpp:150] Setting up conv13_mbox_conf_perm
I1031 17:46:16.094875  8381 net.cpp:157] Top shape: 8 10 10 126 (100800)
I1031 17:46:16.094887  8381 net.cpp:165] Memory required for data: 1292337856
I1031 17:46:16.094890  8381 layer_factory.hpp:77] Creating layer conv13_mbox_conf_flat
I1031 17:46:16.094895  8381 net.cpp:100] Creating Layer conv13_mbox_conf_flat
I1031 17:46:16.094897  8381 net.cpp:478] conv13_mbox_conf_flat <- conv13_mbox_conf_perm
I1031 17:46:16.094902  8381 net.cpp:452] conv13_mbox_conf_flat -> conv13_mbox_conf_flat
I1031 17:46:16.094930  8381 net.cpp:150] Setting up conv13_mbox_conf_flat
I1031 17:46:16.094936  8381 net.cpp:157] Top shape: 8 12600 (100800)
I1031 17:46:16.094938  8381 net.cpp:165] Memory required for data: 1292741056
I1031 17:46:16.094940  8381 layer_factory.hpp:77] Creating layer conv13_mbox_priorbox
I1031 17:46:16.094946  8381 net.cpp:100] Creating Layer conv13_mbox_priorbox
I1031 17:46:16.094949  8381 net.cpp:478] conv13_mbox_priorbox <- conv13_conv13/relu_0_split_3
I1031 17:46:16.094952  8381 net.cpp:478] conv13_mbox_priorbox <- data_data_0_split_2
I1031 17:46:16.094957  8381 net.cpp:452] conv13_mbox_priorbox -> conv13_mbox_priorbox
I1031 17:46:16.094981  8381 net.cpp:150] Setting up conv13_mbox_priorbox
I1031 17:46:16.094986  8381 net.cpp:157] Top shape: 1 2 2400 (4800)
I1031 17:46:16.094988  8381 net.cpp:165] Memory required for data: 1292760256
I1031 17:46:16.094990  8381 layer_factory.hpp:77] Creating layer conv14_2_mbox_loc
I1031 17:46:16.094998  8381 net.cpp:100] Creating Layer conv14_2_mbox_loc
I1031 17:46:16.095000  8381 net.cpp:478] conv14_2_mbox_loc <- conv14_2_conv14_2/relu_0_split_1
I1031 17:46:16.095005  8381 net.cpp:452] conv14_2_mbox_loc -> conv14_2_mbox_loc
I1031 17:46:16.097800  8381 net.cpp:150] Setting up conv14_2_mbox_loc
I1031 17:46:16.097811  8381 net.cpp:157] Top shape: 8 24 5 5 (4800)
I1031 17:46:16.097813  8381 net.cpp:165] Memory required for data: 1292779456
I1031 17:46:16.097818  8381 layer_factory.hpp:77] Creating layer conv14_2_mbox_loc_perm
I1031 17:46:16.097826  8381 net.cpp:100] Creating Layer conv14_2_mbox_loc_perm
I1031 17:46:16.097829  8381 net.cpp:478] conv14_2_mbox_loc_perm <- conv14_2_mbox_loc
I1031 17:46:16.097834  8381 net.cpp:452] conv14_2_mbox_loc_perm -> conv14_2_mbox_loc_perm
I1031 17:46:16.097981  8381 net.cpp:150] Setting up conv14_2_mbox_loc_perm
I1031 17:46:16.097988  8381 net.cpp:157] Top shape: 8 5 5 24 (4800)
I1031 17:46:16.097990  8381 net.cpp:165] Memory required for data: 1292798656
I1031 17:46:16.097992  8381 layer_factory.hpp:77] Creating layer conv14_2_mbox_loc_flat
I1031 17:46:16.097997  8381 net.cpp:100] Creating Layer conv14_2_mbox_loc_flat
I1031 17:46:16.098001  8381 net.cpp:478] conv14_2_mbox_loc_flat <- conv14_2_mbox_loc_perm
I1031 17:46:16.098006  8381 net.cpp:452] conv14_2_mbox_loc_flat -> conv14_2_mbox_loc_flat
I1031 17:46:16.098031  8381 net.cpp:150] Setting up conv14_2_mbox_loc_flat
I1031 17:46:16.098034  8381 net.cpp:157] Top shape: 8 600 (4800)
I1031 17:46:16.098037  8381 net.cpp:165] Memory required for data: 1292817856
I1031 17:46:16.098038  8381 layer_factory.hpp:77] Creating layer conv14_2_mbox_conf_new
I1031 17:46:16.098060  8381 net.cpp:100] Creating Layer conv14_2_mbox_conf_new
I1031 17:46:16.098063  8381 net.cpp:478] conv14_2_mbox_conf_new <- conv14_2_conv14_2/relu_0_split_2
I1031 17:46:16.098069  8381 net.cpp:452] conv14_2_mbox_conf_new -> conv14_2_mbox_conf
I1031 17:46:16.101382  8381 net.cpp:150] Setting up conv14_2_mbox_conf_new
I1031 17:46:16.101394  8381 net.cpp:157] Top shape: 8 126 5 5 (25200)
I1031 17:46:16.101397  8381 net.cpp:165] Memory required for data: 1292918656
I1031 17:46:16.101403  8381 layer_factory.hpp:77] Creating layer conv14_2_mbox_conf_perm
I1031 17:46:16.101409  8381 net.cpp:100] Creating Layer conv14_2_mbox_conf_perm
I1031 17:46:16.101413  8381 net.cpp:478] conv14_2_mbox_conf_perm <- conv14_2_mbox_conf
I1031 17:46:16.101434  8381 net.cpp:452] conv14_2_mbox_conf_perm -> conv14_2_mbox_conf_perm
I1031 17:46:16.101558  8381 net.cpp:150] Setting up conv14_2_mbox_conf_perm
I1031 17:46:16.101564  8381 net.cpp:157] Top shape: 8 5 5 126 (25200)
I1031 17:46:16.101567  8381 net.cpp:165] Memory required for data: 1293019456
I1031 17:46:16.101579  8381 layer_factory.hpp:77] Creating layer conv14_2_mbox_conf_flat
I1031 17:46:16.101584  8381 net.cpp:100] Creating Layer conv14_2_mbox_conf_flat
I1031 17:46:16.101586  8381 net.cpp:478] conv14_2_mbox_conf_flat <- conv14_2_mbox_conf_perm
I1031 17:46:16.101593  8381 net.cpp:452] conv14_2_mbox_conf_flat -> conv14_2_mbox_conf_flat
I1031 17:46:16.101630  8381 net.cpp:150] Setting up conv14_2_mbox_conf_flat
I1031 17:46:16.101634  8381 net.cpp:157] Top shape: 8 3150 (25200)
I1031 17:46:16.101636  8381 net.cpp:165] Memory required for data: 1293120256
I1031 17:46:16.101639  8381 layer_factory.hpp:77] Creating layer conv14_2_mbox_priorbox
I1031 17:46:16.101645  8381 net.cpp:100] Creating Layer conv14_2_mbox_priorbox
I1031 17:46:16.101649  8381 net.cpp:478] conv14_2_mbox_priorbox <- conv14_2_conv14_2/relu_0_split_3
I1031 17:46:16.101651  8381 net.cpp:478] conv14_2_mbox_priorbox <- data_data_0_split_3
I1031 17:46:16.101657  8381 net.cpp:452] conv14_2_mbox_priorbox -> conv14_2_mbox_priorbox
I1031 17:46:16.101680  8381 net.cpp:150] Setting up conv14_2_mbox_priorbox
I1031 17:46:16.101685  8381 net.cpp:157] Top shape: 1 2 600 (1200)
I1031 17:46:16.101686  8381 net.cpp:165] Memory required for data: 1293125056
I1031 17:46:16.101688  8381 layer_factory.hpp:77] Creating layer conv15_2_mbox_loc
I1031 17:46:16.101697  8381 net.cpp:100] Creating Layer conv15_2_mbox_loc
I1031 17:46:16.101701  8381 net.cpp:478] conv15_2_mbox_loc <- conv15_2_conv15_2/relu_0_split_1
I1031 17:46:16.101706  8381 net.cpp:452] conv15_2_mbox_loc -> conv15_2_mbox_loc
I1031 17:46:16.104496  8381 net.cpp:150] Setting up conv15_2_mbox_loc
I1031 17:46:16.104507  8381 net.cpp:157] Top shape: 8 24 3 3 (1728)
I1031 17:46:16.104511  8381 net.cpp:165] Memory required for data: 1293131968
I1031 17:46:16.104516  8381 layer_factory.hpp:77] Creating layer conv15_2_mbox_loc_perm
I1031 17:46:16.104538  8381 net.cpp:100] Creating Layer conv15_2_mbox_loc_perm
I1031 17:46:16.104542  8381 net.cpp:478] conv15_2_mbox_loc_perm <- conv15_2_mbox_loc
I1031 17:46:16.104547  8381 net.cpp:452] conv15_2_mbox_loc_perm -> conv15_2_mbox_loc_perm
I1031 17:46:16.104640  8381 net.cpp:150] Setting up conv15_2_mbox_loc_perm
I1031 17:46:16.104645  8381 net.cpp:157] Top shape: 8 3 3 24 (1728)
I1031 17:46:16.104647  8381 net.cpp:165] Memory required for data: 1293138880
I1031 17:46:16.104650  8381 layer_factory.hpp:77] Creating layer conv15_2_mbox_loc_flat
I1031 17:46:16.104655  8381 net.cpp:100] Creating Layer conv15_2_mbox_loc_flat
I1031 17:46:16.104658  8381 net.cpp:478] conv15_2_mbox_loc_flat <- conv15_2_mbox_loc_perm
I1031 17:46:16.104661  8381 net.cpp:452] conv15_2_mbox_loc_flat -> conv15_2_mbox_loc_flat
I1031 17:46:16.104683  8381 net.cpp:150] Setting up conv15_2_mbox_loc_flat
I1031 17:46:16.104687  8381 net.cpp:157] Top shape: 8 216 (1728)
I1031 17:46:16.104689  8381 net.cpp:165] Memory required for data: 1293145792
I1031 17:46:16.104691  8381 layer_factory.hpp:77] Creating layer conv15_2_mbox_conf_new
I1031 17:46:16.104698  8381 net.cpp:100] Creating Layer conv15_2_mbox_conf_new
I1031 17:46:16.104701  8381 net.cpp:478] conv15_2_mbox_conf_new <- conv15_2_conv15_2/relu_0_split_2
I1031 17:46:16.104707  8381 net.cpp:452] conv15_2_mbox_conf_new -> conv15_2_mbox_conf
I1031 17:46:16.107965  8381 net.cpp:150] Setting up conv15_2_mbox_conf_new
I1031 17:46:16.107978  8381 net.cpp:157] Top shape: 8 126 3 3 (9072)
I1031 17:46:16.107980  8381 net.cpp:165] Memory required for data: 1293182080
I1031 17:46:16.107987  8381 layer_factory.hpp:77] Creating layer conv15_2_mbox_conf_perm
I1031 17:46:16.107995  8381 net.cpp:100] Creating Layer conv15_2_mbox_conf_perm
I1031 17:46:16.107998  8381 net.cpp:478] conv15_2_mbox_conf_perm <- conv15_2_mbox_conf
I1031 17:46:16.108005  8381 net.cpp:452] conv15_2_mbox_conf_perm -> conv15_2_mbox_conf_perm
I1031 17:46:16.108129  8381 net.cpp:150] Setting up conv15_2_mbox_conf_perm
I1031 17:46:16.108134  8381 net.cpp:157] Top shape: 8 3 3 126 (9072)
I1031 17:46:16.108136  8381 net.cpp:165] Memory required for data: 1293218368
I1031 17:46:16.108166  8381 layer_factory.hpp:77] Creating layer conv15_2_mbox_conf_flat
I1031 17:46:16.108187  8381 net.cpp:100] Creating Layer conv15_2_mbox_conf_flat
I1031 17:46:16.108191  8381 net.cpp:478] conv15_2_mbox_conf_flat <- conv15_2_mbox_conf_perm
I1031 17:46:16.108212  8381 net.cpp:452] conv15_2_mbox_conf_flat -> conv15_2_mbox_conf_flat
I1031 17:46:16.108255  8381 net.cpp:150] Setting up conv15_2_mbox_conf_flat
I1031 17:46:16.108260  8381 net.cpp:157] Top shape: 8 1134 (9072)
I1031 17:46:16.108263  8381 net.cpp:165] Memory required for data: 1293254656
I1031 17:46:16.108264  8381 layer_factory.hpp:77] Creating layer conv15_2_mbox_priorbox
I1031 17:46:16.108269  8381 net.cpp:100] Creating Layer conv15_2_mbox_priorbox
I1031 17:46:16.108271  8381 net.cpp:478] conv15_2_mbox_priorbox <- conv15_2_conv15_2/relu_0_split_3
I1031 17:46:16.108275  8381 net.cpp:478] conv15_2_mbox_priorbox <- data_data_0_split_4
I1031 17:46:16.108281  8381 net.cpp:452] conv15_2_mbox_priorbox -> conv15_2_mbox_priorbox
I1031 17:46:16.108307  8381 net.cpp:150] Setting up conv15_2_mbox_priorbox
I1031 17:46:16.108311  8381 net.cpp:157] Top shape: 1 2 216 (432)
I1031 17:46:16.108314  8381 net.cpp:165] Memory required for data: 1293256384
I1031 17:46:16.108315  8381 layer_factory.hpp:77] Creating layer conv16_2_mbox_loc
I1031 17:46:16.108323  8381 net.cpp:100] Creating Layer conv16_2_mbox_loc
I1031 17:46:16.108326  8381 net.cpp:478] conv16_2_mbox_loc <- conv16_2_conv16_2/relu_0_split_1
I1031 17:46:16.108330  8381 net.cpp:452] conv16_2_mbox_loc -> conv16_2_mbox_loc
I1031 17:46:16.111002  8381 net.cpp:150] Setting up conv16_2_mbox_loc
I1031 17:46:16.111017  8381 net.cpp:157] Top shape: 8 24 2 2 (768)
I1031 17:46:16.111019  8381 net.cpp:165] Memory required for data: 1293259456
I1031 17:46:16.111024  8381 layer_factory.hpp:77] Creating layer conv16_2_mbox_loc_perm
I1031 17:46:16.111030  8381 net.cpp:100] Creating Layer conv16_2_mbox_loc_perm
I1031 17:46:16.111033  8381 net.cpp:478] conv16_2_mbox_loc_perm <- conv16_2_mbox_loc
I1031 17:46:16.111038  8381 net.cpp:452] conv16_2_mbox_loc_perm -> conv16_2_mbox_loc_perm
I1031 17:46:16.421139  8381 net.cpp:150] Setting up conv16_2_mbox_loc_perm
I1031 17:46:16.421151  8381 net.cpp:157] Top shape: 8 2 2 24 (768)
I1031 17:46:16.421154  8381 net.cpp:165] Memory required for data: 1293262528
I1031 17:46:16.421156  8381 layer_factory.hpp:77] Creating layer conv16_2_mbox_loc_flat
I1031 17:46:16.421164  8381 net.cpp:100] Creating Layer conv16_2_mbox_loc_flat
I1031 17:46:16.421169  8381 net.cpp:478] conv16_2_mbox_loc_flat <- conv16_2_mbox_loc_perm
I1031 17:46:16.421182  8381 net.cpp:452] conv16_2_mbox_loc_flat -> conv16_2_mbox_loc_flat
I1031 17:46:16.421208  8381 net.cpp:150] Setting up conv16_2_mbox_loc_flat
I1031 17:46:16.421213  8381 net.cpp:157] Top shape: 8 96 (768)
I1031 17:46:16.421216  8381 net.cpp:165] Memory required for data: 1293265600
I1031 17:46:16.421217  8381 layer_factory.hpp:77] Creating layer conv16_2_mbox_conf_new
I1031 17:46:16.421228  8381 net.cpp:100] Creating Layer conv16_2_mbox_conf_new
I1031 17:46:16.421232  8381 net.cpp:478] conv16_2_mbox_conf_new <- conv16_2_conv16_2/relu_0_split_2
I1031 17:46:16.421237  8381 net.cpp:452] conv16_2_mbox_conf_new -> conv16_2_mbox_conf
I1031 17:46:16.424758  8381 net.cpp:150] Setting up conv16_2_mbox_conf_new
I1031 17:46:16.424772  8381 net.cpp:157] Top shape: 8 126 2 2 (4032)
I1031 17:46:16.424773  8381 net.cpp:165] Memory required for data: 1293281728
I1031 17:46:16.424779  8381 layer_factory.hpp:77] Creating layer conv16_2_mbox_conf_perm
I1031 17:46:16.424787  8381 net.cpp:100] Creating Layer conv16_2_mbox_conf_perm
I1031 17:46:16.424791  8381 net.cpp:478] conv16_2_mbox_conf_perm <- conv16_2_mbox_conf
I1031 17:46:16.424796  8381 net.cpp:452] conv16_2_mbox_conf_perm -> conv16_2_mbox_conf_perm
I1031 17:46:16.424927  8381 net.cpp:150] Setting up conv16_2_mbox_conf_perm
I1031 17:46:16.424933  8381 net.cpp:157] Top shape: 8 2 2 126 (4032)
I1031 17:46:16.424937  8381 net.cpp:165] Memory required for data: 1293297856
I1031 17:46:16.424938  8381 layer_factory.hpp:77] Creating layer conv16_2_mbox_conf_flat
I1031 17:46:16.424973  8381 net.cpp:100] Creating Layer conv16_2_mbox_conf_flat
I1031 17:46:16.424978  8381 net.cpp:478] conv16_2_mbox_conf_flat <- conv16_2_mbox_conf_perm
I1031 17:46:16.424981  8381 net.cpp:452] conv16_2_mbox_conf_flat -> conv16_2_mbox_conf_flat
I1031 17:46:16.425029  8381 net.cpp:150] Setting up conv16_2_mbox_conf_flat
I1031 17:46:16.425034  8381 net.cpp:157] Top shape: 8 504 (4032)
I1031 17:46:16.425036  8381 net.cpp:165] Memory required for data: 1293313984
I1031 17:46:16.425040  8381 layer_factory.hpp:77] Creating layer conv16_2_mbox_priorbox
I1031 17:46:16.425047  8381 net.cpp:100] Creating Layer conv16_2_mbox_priorbox
I1031 17:46:16.425050  8381 net.cpp:478] conv16_2_mbox_priorbox <- conv16_2_conv16_2/relu_0_split_3
I1031 17:46:16.425055  8381 net.cpp:478] conv16_2_mbox_priorbox <- data_data_0_split_5
I1031 17:46:16.425060  8381 net.cpp:452] conv16_2_mbox_priorbox -> conv16_2_mbox_priorbox
I1031 17:46:16.425119  8381 net.cpp:150] Setting up conv16_2_mbox_priorbox
I1031 17:46:16.425123  8381 net.cpp:157] Top shape: 1 2 96 (192)
I1031 17:46:16.425125  8381 net.cpp:165] Memory required for data: 1293314752
I1031 17:46:16.425127  8381 layer_factory.hpp:77] Creating layer conv17_2_mbox_loc
I1031 17:46:16.425137  8381 net.cpp:100] Creating Layer conv17_2_mbox_loc
I1031 17:46:16.425139  8381 net.cpp:478] conv17_2_mbox_loc <- conv17_2_conv17_2/relu_0_split_0
I1031 17:46:16.425146  8381 net.cpp:452] conv17_2_mbox_loc -> conv17_2_mbox_loc
I1031 17:46:16.427973  8381 net.cpp:150] Setting up conv17_2_mbox_loc
I1031 17:46:16.427985  8381 net.cpp:157] Top shape: 8 24 1 1 (192)
I1031 17:46:16.427987  8381 net.cpp:165] Memory required for data: 1293315520
I1031 17:46:16.427994  8381 layer_factory.hpp:77] Creating layer conv17_2_mbox_loc_perm
I1031 17:46:16.428002  8381 net.cpp:100] Creating Layer conv17_2_mbox_loc_perm
I1031 17:46:16.428006  8381 net.cpp:478] conv17_2_mbox_loc_perm <- conv17_2_mbox_loc
I1031 17:46:16.428014  8381 net.cpp:452] conv17_2_mbox_loc_perm -> conv17_2_mbox_loc_perm
I1031 17:46:16.428139  8381 net.cpp:150] Setting up conv17_2_mbox_loc_perm
I1031 17:46:16.428144  8381 net.cpp:157] Top shape: 8 1 1 24 (192)
I1031 17:46:16.428146  8381 net.cpp:165] Memory required for data: 1293316288
I1031 17:46:16.428148  8381 layer_factory.hpp:77] Creating layer conv17_2_mbox_loc_flat
I1031 17:46:16.428153  8381 net.cpp:100] Creating Layer conv17_2_mbox_loc_flat
I1031 17:46:16.428156  8381 net.cpp:478] conv17_2_mbox_loc_flat <- conv17_2_mbox_loc_perm
I1031 17:46:16.428162  8381 net.cpp:452] conv17_2_mbox_loc_flat -> conv17_2_mbox_loc_flat
I1031 17:46:16.428187  8381 net.cpp:150] Setting up conv17_2_mbox_loc_flat
I1031 17:46:16.428191  8381 net.cpp:157] Top shape: 8 24 (192)
I1031 17:46:16.428194  8381 net.cpp:165] Memory required for data: 1293317056
I1031 17:46:16.428196  8381 layer_factory.hpp:77] Creating layer conv17_2_mbox_conf_new
I1031 17:46:16.428205  8381 net.cpp:100] Creating Layer conv17_2_mbox_conf_new
I1031 17:46:16.428207  8381 net.cpp:478] conv17_2_mbox_conf_new <- conv17_2_conv17_2/relu_0_split_1
I1031 17:46:16.428215  8381 net.cpp:452] conv17_2_mbox_conf_new -> conv17_2_mbox_conf
I1031 17:46:16.431161  8381 net.cpp:150] Setting up conv17_2_mbox_conf_new
I1031 17:46:16.431174  8381 net.cpp:157] Top shape: 8 126 1 1 (1008)
I1031 17:46:16.431176  8381 net.cpp:165] Memory required for data: 1293321088
I1031 17:46:16.431182  8381 layer_factory.hpp:77] Creating layer conv17_2_mbox_conf_perm
I1031 17:46:16.431190  8381 net.cpp:100] Creating Layer conv17_2_mbox_conf_perm
I1031 17:46:16.431195  8381 net.cpp:478] conv17_2_mbox_conf_perm <- conv17_2_mbox_conf
I1031 17:46:16.431200  8381 net.cpp:452] conv17_2_mbox_conf_perm -> conv17_2_mbox_conf_perm
I1031 17:46:16.431305  8381 net.cpp:150] Setting up conv17_2_mbox_conf_perm
I1031 17:46:16.431310  8381 net.cpp:157] Top shape: 8 1 1 126 (1008)
I1031 17:46:16.431313  8381 net.cpp:165] Memory required for data: 1293325120
I1031 17:46:16.431314  8381 layer_factory.hpp:77] Creating layer conv17_2_mbox_conf_flat
I1031 17:46:16.431331  8381 net.cpp:100] Creating Layer conv17_2_mbox_conf_flat
I1031 17:46:16.431335  8381 net.cpp:478] conv17_2_mbox_conf_flat <- conv17_2_mbox_conf_perm
I1031 17:46:16.431339  8381 net.cpp:452] conv17_2_mbox_conf_flat -> conv17_2_mbox_conf_flat
I1031 17:46:16.431370  8381 net.cpp:150] Setting up conv17_2_mbox_conf_flat
I1031 17:46:16.431375  8381 net.cpp:157] Top shape: 8 126 (1008)
I1031 17:46:16.431376  8381 net.cpp:165] Memory required for data: 1293329152
I1031 17:46:16.431378  8381 layer_factory.hpp:77] Creating layer conv17_2_mbox_priorbox
I1031 17:46:16.431385  8381 net.cpp:100] Creating Layer conv17_2_mbox_priorbox
I1031 17:46:16.431388  8381 net.cpp:478] conv17_2_mbox_priorbox <- conv17_2_conv17_2/relu_0_split_2
I1031 17:46:16.431391  8381 net.cpp:478] conv17_2_mbox_priorbox <- data_data_0_split_6
I1031 17:46:16.431397  8381 net.cpp:452] conv17_2_mbox_priorbox -> conv17_2_mbox_priorbox
I1031 17:46:16.431423  8381 net.cpp:150] Setting up conv17_2_mbox_priorbox
I1031 17:46:16.431427  8381 net.cpp:157] Top shape: 1 2 24 (48)
I1031 17:46:16.431429  8381 net.cpp:165] Memory required for data: 1293329344
I1031 17:46:16.431432  8381 layer_factory.hpp:77] Creating layer mbox_loc
I1031 17:46:16.431438  8381 net.cpp:100] Creating Layer mbox_loc
I1031 17:46:16.431442  8381 net.cpp:478] mbox_loc <- conv11_mbox_loc_flat
I1031 17:46:16.431445  8381 net.cpp:478] mbox_loc <- conv13_mbox_loc_flat
I1031 17:46:16.431448  8381 net.cpp:478] mbox_loc <- conv14_2_mbox_loc_flat
I1031 17:46:16.431452  8381 net.cpp:478] mbox_loc <- conv15_2_mbox_loc_flat
I1031 17:46:16.431454  8381 net.cpp:478] mbox_loc <- conv16_2_mbox_loc_flat
I1031 17:46:16.431457  8381 net.cpp:478] mbox_loc <- conv17_2_mbox_loc_flat
I1031 17:46:16.431463  8381 net.cpp:452] mbox_loc -> mbox_loc
I1031 17:46:16.431488  8381 net.cpp:150] Setting up mbox_loc
I1031 17:46:16.431493  8381 net.cpp:157] Top shape: 8 7668 (61344)
I1031 17:46:16.431494  8381 net.cpp:165] Memory required for data: 1293574720
I1031 17:46:16.431498  8381 layer_factory.hpp:77] Creating layer mbox_conf
I1031 17:46:16.431504  8381 net.cpp:100] Creating Layer mbox_conf
I1031 17:46:16.431506  8381 net.cpp:478] mbox_conf <- conv11_mbox_conf_flat
I1031 17:46:16.431510  8381 net.cpp:478] mbox_conf <- conv13_mbox_conf_flat
I1031 17:46:16.431514  8381 net.cpp:478] mbox_conf <- conv14_2_mbox_conf_flat
I1031 17:46:16.431516  8381 net.cpp:478] mbox_conf <- conv15_2_mbox_conf_flat
I1031 17:46:16.431519  8381 net.cpp:478] mbox_conf <- conv16_2_mbox_conf_flat
I1031 17:46:16.431522  8381 net.cpp:478] mbox_conf <- conv17_2_mbox_conf_flat
I1031 17:46:16.431526  8381 net.cpp:452] mbox_conf -> mbox_conf
I1031 17:46:16.431548  8381 net.cpp:150] Setting up mbox_conf
I1031 17:46:16.431552  8381 net.cpp:157] Top shape: 8 40257 (322056)
I1031 17:46:16.431555  8381 net.cpp:165] Memory required for data: 1294862944
I1031 17:46:16.431557  8381 layer_factory.hpp:77] Creating layer mbox_priorbox
I1031 17:46:16.431561  8381 net.cpp:100] Creating Layer mbox_priorbox
I1031 17:46:16.431565  8381 net.cpp:478] mbox_priorbox <- conv11_mbox_priorbox
I1031 17:46:16.431567  8381 net.cpp:478] mbox_priorbox <- conv13_mbox_priorbox
I1031 17:46:16.431571  8381 net.cpp:478] mbox_priorbox <- conv14_2_mbox_priorbox
I1031 17:46:16.431573  8381 net.cpp:478] mbox_priorbox <- conv15_2_mbox_priorbox
I1031 17:46:16.431582  8381 net.cpp:478] mbox_priorbox <- conv16_2_mbox_priorbox
I1031 17:46:16.431586  8381 net.cpp:478] mbox_priorbox <- conv17_2_mbox_priorbox
I1031 17:46:16.431591  8381 net.cpp:452] mbox_priorbox -> mbox_priorbox
I1031 17:46:16.431614  8381 net.cpp:150] Setting up mbox_priorbox
I1031 17:46:16.431618  8381 net.cpp:157] Top shape: 1 2 7668 (15336)
I1031 17:46:16.431620  8381 net.cpp:165] Memory required for data: 1294924288
I1031 17:46:16.431622  8381 layer_factory.hpp:77] Creating layer mbox_conf_reshape
I1031 17:46:16.431628  8381 net.cpp:100] Creating Layer mbox_conf_reshape
I1031 17:46:16.431632  8381 net.cpp:478] mbox_conf_reshape <- mbox_conf
I1031 17:46:16.431637  8381 net.cpp:452] mbox_conf_reshape -> mbox_conf_reshape
I1031 17:46:16.431679  8381 net.cpp:150] Setting up mbox_conf_reshape
I1031 17:46:16.431687  8381 net.cpp:157] Top shape: 8 1917 21 (322056)
I1031 17:46:16.431689  8381 net.cpp:165] Memory required for data: 1296212512
I1031 17:46:16.431691  8381 layer_factory.hpp:77] Creating layer mbox_conf_softmax
I1031 17:46:16.431697  8381 net.cpp:100] Creating Layer mbox_conf_softmax
I1031 17:46:16.431699  8381 net.cpp:478] mbox_conf_softmax <- mbox_conf_reshape
I1031 17:46:16.431704  8381 net.cpp:452] mbox_conf_softmax -> mbox_conf_softmax
I1031 17:46:16.432098  8381 net.cpp:150] Setting up mbox_conf_softmax
I1031 17:46:16.432107  8381 net.cpp:157] Top shape: 8 1917 21 (322056)
I1031 17:46:16.432111  8381 net.cpp:165] Memory required for data: 1297500736
I1031 17:46:16.432113  8381 layer_factory.hpp:77] Creating layer mbox_conf_flatten
I1031 17:46:16.432121  8381 net.cpp:100] Creating Layer mbox_conf_flatten
I1031 17:46:16.432123  8381 net.cpp:478] mbox_conf_flatten <- mbox_conf_softmax
I1031 17:46:16.432127  8381 net.cpp:452] mbox_conf_flatten -> mbox_conf_flatten
I1031 17:46:16.432155  8381 net.cpp:150] Setting up mbox_conf_flatten
I1031 17:46:16.432160  8381 net.cpp:157] Top shape: 8 40257 (322056)
I1031 17:46:16.432163  8381 net.cpp:165] Memory required for data: 1298788960
I1031 17:46:16.432164  8381 layer_factory.hpp:77] Creating layer detection_out
I1031 17:46:16.432180  8381 net.cpp:100] Creating Layer detection_out
I1031 17:46:16.432183  8381 net.cpp:478] detection_out <- mbox_loc
I1031 17:46:16.432188  8381 net.cpp:478] detection_out <- mbox_conf_flatten
I1031 17:46:16.432190  8381 net.cpp:478] detection_out <- mbox_priorbox
I1031 17:46:16.432195  8381 net.cpp:452] detection_out -> detection_out
I1031 17:46:16.432253  8381 net.cpp:150] Setting up detection_out
I1031 17:46:16.432258  8381 net.cpp:157] Top shape: 1 1 1 7 (7)
I1031 17:46:16.432260  8381 net.cpp:165] Memory required for data: 1298788988
I1031 17:46:16.432263  8381 layer_factory.hpp:77] Creating layer detection_eval
I1031 17:46:16.432271  8381 net.cpp:100] Creating Layer detection_eval
I1031 17:46:16.432272  8381 net.cpp:478] detection_eval <- detection_out
I1031 17:46:16.432276  8381 net.cpp:478] detection_eval <- label
I1031 17:46:16.432281  8381 net.cpp:452] detection_eval -> detection_eval
I1031 17:46:16.432329  8381 net.cpp:150] Setting up detection_eval
I1031 17:46:16.432333  8381 net.cpp:157] Top shape: 1 1 21 5 (105)
I1031 17:46:16.432335  8381 net.cpp:165] Memory required for data: 1298789408
I1031 17:46:16.432338  8381 net.cpp:228] detection_eval does not need backward computation.
I1031 17:46:16.432341  8381 net.cpp:228] detection_out does not need backward computation.
I1031 17:46:16.432344  8381 net.cpp:228] mbox_conf_flatten does not need backward computation.
I1031 17:46:16.432346  8381 net.cpp:228] mbox_conf_softmax does not need backward computation.
…
