…
      sampler {
        min_scale: 0.3
        max_scale: 1
        min_aspect_ratio: 0.5
        max_aspect_ratio: 2
      }
      sample_constraint {
        min_jaccard_overlap: 0.9
      }
      max_sample: 1
      max_trials: 50
    }
    batch_sampler {
      sampler {
        min_scale: 0.3
        max_scale: 1
        min_aspect_ratio: 0.5
        max_aspect_ratio: 2
      }
      sample_constraint {
        max_jaccard_overlap: 1
      }
      max_sample: 1
      max_trials: 50
    }
    label_map_file: "data/VOC0712/labelmap_voc.prototxt"
  }
}
layer {
  name: "conv0"
  type: "Convolution"
  bottom: "data"
  top: "conv0"
  param {
    lr_mult: 0.1
    decay_mult: 0.1
  }
  convolution_param {
    num_output: 32
    bias_term: false
    pad: 1
    kernel_size: 3
    stride: 2
    weight_filler {
      type: "msra"
    }
  }
}
layer {
  name: "conv0/bn"
  type: "BatchNorm"
  bottom: "conv0"
  top: "conv0"
}
layer {
  name: "conv0/scale"
  type: "Scale"
  bottom: "conv0"
  top: "conv0"
  param {
    lr_mult: 0.1
    decay_mult: 0
  }
  param {
    lr_mult: 0.2
    decay_mult: 0
  }
  scale_param {
    filler {
      value: 1
    }
    bias_term: true
    bias_filler {
      value: 0
    }
  }
}
layer {
  name: "conv0/relu"
  type: "ReLU"
  bottom: "conv0"
  top: "conv0"
}
layer {
  name: "conv1/dw"
  type: "Convolution"
  bottom: "conv0"
  top: "conv1/dw"
  param {
    lr_mult: 0.1
    decay_mult: 0.1
  }
  convolution_param {
    num_output: 32
    bias_term: false
    pad: 1
    kernel_size: 3
    group: 32
    weight_filler {
      type: "msra"
    }
    engine: CAFFE
  }
}
layer {
  name: "conv1/dw/bn"
  type: "BatchNorm"
  bottom: "conv1/dw"
  top: "conv1/dw"
}
layer {
  name: "conv1/dw/scale"
  type: "Scale"
  bottom: "conv1/dw"
  top: "conv1/dw"
  param {
    lr_mult: 0.1
    decay_mult: 0
  }
  param {
    lr_mult: 0.2
    decay_mult: 0
  }
  scale_param {
    filler {
      value: 1
    }
    bias_term: true
    bias_filler {
      value: 0
    }
  }
}
layer {
  name: "conv1/dw/relu"
  type: "ReLU"
  bottom: "conv1/dw"
  top: "conv1/dw"
}
layer {
  name: "conv1"
  type: "Convolution"
  bottom: "conv1/dw"
  top: "conv1"
  param {
    lr_mult: 0.1
    decay_mult: 0.1
  }
  convolution_param {
    num_output: 64
    bias_term: false
    kernel_size: 1
    weight_filler {
      type: "msra"
    }
  }
}
layer {
  name: "conv1/bn"
  type: "BatchNorm"
  bottom: "conv1"
  top: "conv1"
}
layer {
  name: "conv1/scale"
  type: "Scale"
  bottom: "conv1"
  top: "conv1"
  param {
    lr_mult: 0.1
    decay_mult: 0
  }
  param {
    lr_mult: 0.2
    decay_mult: 0
  }
  scale_param {
    filler {
      value: 1
    }
    bias_term: true
    bias_filler {
      value: 0
    }
  }
}
layer {
  name: "conv1/relu"
  type: "ReLU"
  bottom: "conv1"
  top: "conv1"
}
layer {
  name: "conv2/dw"
  type: "Convolution"
  bottom: "conv1"
  top: "conv2/dw"
  param {
    lr_mult: 0.1
    decay_mult: 0.1
  }
  convolution_param {
    num_output: 64
    bias_term: false
    pad: 1
    kernel_size: 3
    group: 64
    stride: 2
    weight_filler {
      type: "msra"
    }
    engine: CAFFE
  }
}
layer {
  name: "conv2/dw/bn"
  type: "BatchNorm"
  bottom: "conv2/dw"
  top: "conv2/dw"
}
layer {
  name: "conv2/dw/scale"
  type: "Scale"
  bottom: "conv2/dw"
  top: "conv2/dw"
  param {
    lr_mult: 0.1
    decay_mult: 0
  }
  param {
    lr_mult: 0.2
    decay_mult: 0
  }
  scale_param {
    filler {
      value: 1
    }
    bias_term: true
    bias_filler {
      value: 0
    }
  }
}
layer {
  name: "conv2/dw/relu"
  type: "ReLU"
  bottom: "conv2/dw"
  top: "conv2/dw"
}
layer {
  name: "conv2"
  type: "Convolution"
  bottom: "conv2/dw"
  top: "conv2"
  param {
    lr_mult: 0.1
    decay_mult: 0.1
  }
  convolution_param {
    num_output: 128
    bias_term: false
    kernel_size: 1
    weight_filler {
      type: "msra"
    }
  }
}
layer {
  name: "conv2/bn"
  type: "BatchNorm"
  bottom: "conv2"
  top: "conv2"
}
layer {
  name: "conv2/scale"
  type: "Scale"
  bottom: "conv2"
  top: "conv2"
  param {
    lr_mult: 0.1
    decay_mult: 0
  }
  param {
    lr_mult: 0.2
    decay_mult: 0
  }
  scale_param {
    filler {
      value: 1
    }
    bias_term: true
    bias_filler {
      value: 0
    }
  }
}
layer {
  name: "conv2/relu"
  type: "ReLU"
  bottom: "conv2"
  top: "conv2"
}
layer {
  name: "conv3/dw"
  type: "Convolution"
  bottom: "conv2"
  top: "conv3/dw"
  param {
    lr_mult: 0.1
    decay_mult: 0.1
  }
  convolution_param {
    num_output: 128
    bias_term: false
    pad: 1
    kernel_size: 3
    group: 128
    weight_filler {
      type: "msra"
    }
    engine: CAFFE
  }
}
layer {
  name: "conv3/dw/bn"
  type: "BatchNorm"
  bottom: "conv3/dw"
  top: "conv3/dw"
}
layer {
  name: "conv3/dw/scale"
  type: "Scale"
  bottom: "conv3/dw"
  top: "conv3/dw"
  param {
    lr_mult: 0.1
    decay_mult: 0
  }
  param {
    lr_mult: 0.2
    decay_mult: 0
  }
  scale_param {
    filler {
      value: 1
    }
    bias_term: true
    bias_filler {
      value: 0
    }
  }
}
layer {
  name: "conv3/dw/relu"
  type: "ReLU"
  bottom: "conv3/dw"
  top: "conv3/dw"
}
layer {
  name: "conv3"
  type: "Convolution"
  bottom: "conv3/dw"
  top: "conv3"
  param {
    lr_mult: 0.1
    decay_mult: 0.1
  }
  convolution_param {
    num_output: 128
    bias_term: false
    kernel_size: 1
    weight_filler {
      type: "msra"
    }
  }
}
layer {
  name: "conv3/bn"
  type: "BatchNorm"
  bottom: "conv3"
  top: "conv3"
}
layer {
  name: "conv3/scale"
  type: "Scale"
  bottom: "conv3"
  top: "conv3"
  param {
    lr_mult: 0.1
    decay_mult: 0
  }
  param {
    lr_mult: 0.2
    decay_mult: 0
  }
  scale_param {
    filler {
      value: 1
    }
    bias_term: true
    bias_filler {
      value: 0
    }
  }
}
layer {
  name: "conv3/relu"
  type: "ReLU"
  bottom: "conv3"
  top: "conv3"
}
layer {
  name: "conv4/dw"
  type: "Convolution"
  bottom: "conv3"
  top: "conv4/dw"
  param {
    lr_mult: 0.1
    decay_mult: 0.1
  }
  convolution_param {
    num_output: 128
    bias_term: false
    pad: 1
    kernel_size: 3
    group: 128
    stride: 2
    weight_filler {
      type: "msra"
    }
    engine: CAFFE
  }
}
layer {
  name: "conv4/dw/bn"
  type: "BatchNorm"
  bottom: "conv4/dw"
  top: "conv4/dw"
}
layer {
  name: "conv4/dw/scale"
  type: "Scale"
  bottom: "conv4/dw"
  top: "conv4/dw"
  param {
    lr_mult: 0.1
    decay_mult: 0
  }
  param {
    lr_mult: 0.2
    decay_mult: 0
  }
  scale_param {
    filler {
      value: 1
    }
    bias_term: true
    bias_filler {
      value: 0
    }
  }
}
layer {
  name: "conv4/dw/relu"
  type: "ReLU"
  bottom: "conv4/dw"
  top: "conv4/dw"
}
layer {
  name: "conv4"
  type: "Convolution"
  bottom: "conv4/dw"
  top: "conv4"
  param {
    lr_mult: 0.1
    decay_mult: 0.1
  }
  convolution_param {
    num_output: 256
    bias_term: false
    kernel_size: 1
    weight_filler {
      type: "msra"
    }
  }
}
layer {
  name: "conv4/bn"
  type: "BatchNorm"
  bottom: "conv4"
  top: "conv4"
}
layer {
  name: "conv4/scale"
  type: "Scale"
  bottom: "conv4"
  top: "conv4"
  param {
    lr_mult: 0.1
    decay_mult: 0
  }
  param {
    lr_mult: 0.2
    decay_mult: 0
  }
  scale_param {
    filler {
      value: 1
    }
    bias_term: true
    bias_filler {
      value: 0
    }
  }
}
layer {
  name: "conv4/relu"
  type: "ReLU"
  bottom: "conv4"
  top: "conv4"
}
layer {
  name: "conv5/dw"
  type: "Convolution"
  bottom: "conv4"
  top: "conv5/dw"
  param {
    lr_mult: 0.1
    decay_mult: 0.1
  }
  convolution_param {
    num_output: 256
    bias_term: false
    pad: 1
    kernel_size: 3
    group: 256
    weight_filler {
      type: "msra"
    }
    engine: CAFFE
  }
}
layer {
  name: "conv5/dw/bn"
  type: "BatchNorm"
  bottom: "conv5/dw"
  top: "conv5/dw"
}
layer {
  name: "conv5/dw/scale"
  type: "Scale"
  bottom: "conv5/dw"
  top: "conv5/dw"
  param {
    lr_mult: 0.1
    decay_mult: 0
  }
  param {
    lr_mult: 0.2
    decay_mult: 0
  }
  scale_param {
    filler {
      value: 1
    }
    bias_term: true
    bias_filler {
      value: 0
    }
  }
}
layer {
  name: "conv5/dw/relu"
  type: "ReLU"
  bottom: "conv5/dw"
  top: "conv5/dw"
}
layer {
  name: "conv5"
  type: "Convolution"
  bottom: "conv5/dw"
  top: "conv5"
  param {
    lr_mult: 0.1
    decay_mult: 0.1
  }
  convolution_param {
    num_output: 256
    bias_term: false
    kernel_size: 1
    weight_filler {
      type: "msra"
    }
  }
}
layer {
  name: "conv5/bn"
  type: "BatchNorm"
  bottom: "conv5"
  top: "conv5"
}
layer {
  name: "conv5/scale"
  type: "Scale"
  bottom: "conv5"
  top: "conv5"
  param {
    lr_mult: 0.1
    decay_mult: 0
  }
  param {
    lr_mult: 0.2
    decay_mult: 0
  }
  scale_param {
    filler {
      value: 1
    }
    bias_term: true
    bias_filler {
      value: 0
    }
  }
}
layer {
  name: "conv5/relu"
  type: "ReLU"
  bottom: "conv5"
  top: "conv5"
}
layer {
  name: "conv6/dw"
  type: "Convolution"
  bottom: "conv5"
  top: "conv6/dw"
  param {
    lr_mult: 0.1
    decay_mult: 0.1
  }
  convolution_param {
    num_output: 256
    bias_term: false
    pad: 1
    kernel_size: 3
    group: 256
    stride: 2
    weight_filler {
      type: "msra"
    }
    engine: CAFFE
  }
}
layer {
  name: "conv6/dw/bn"
  type: "BatchNorm"
  bottom: "conv6/dw"
  top: "conv6/dw"
}
layer {
  name: "conv6/dw/scale"
  type: "Scale"
  bottom: "conv6/dw"
  top: "conv6/dw"
  param {
    lr_mult: 0.1
    decay_mult: 0
  }
  param {
    lr_mult: 0.2
    decay_mult: 0
  }
  scale_param {
    filler {
      value: 1
    }
    bias_term: true
    bias_filler {
      value: 0
    }
  }
}
layer {
  name: "conv6/dw/relu"
  type: "ReLU"
  bottom: "conv6/dw"
  top: "conv6/dw"
}
layer {
  name: "conv6"
  type: "Convolution"
  bottom: "conv6/dw"
  top: "conv6"
  param {
    lr_mult: 0.1
    decay_mult: 0.1
  }
  convolution_param {
    num_output: 512
    bias_term: false
    kernel_size: 1
    weight_filler {
      type: "msra"
    }
  }
}
layer {
  name: "conv6/bn"
  type: "BatchNorm"
  bottom: "conv6"
  top: "conv6"
}
layer {
  name: "conv6/scale"
  type: "Scale"
  bottom: "conv6"
  top: "conv6"
  param {
    lr_mult: 0.1
    decay_mult: 0
  }
  param {
    lr_mult: 0.2
    decay_mult: 0
  }
  scale_param {
    filler {
      value: 1
    }
    bias_term: true
    bias_filler {
      value: 0
    }
  }
}
layer {
  name: "conv6/relu"
  type: "ReLU"
  bottom: "conv6"
  top: "conv6"
}
layer {
  name: "conv7/dw"
  type: "Convolution"
  bottom: "conv6"
  top: "conv7/dw"
  param {
    lr_mult: 0.1
    decay_mult: 0.1
  }
  convolution_param {
    num_output: 512
    bias_term: false
    pad: 1
    kernel_size: 3
    group: 512
    weight_filler {
      type: "msra"
    }
    engine: CAFFE
  }
}
layer {
  name: "conv7/dw/bn"
  type: "BatchNorm"
  bottom: "conv7/dw"
  top: "conv7/dw"
}
layer {
  name: "conv7/dw/scale"
  type: "Scale"
  bottom: "conv7/dw"
  top: "conv7/dw"
  param {
    lr_mult: 0.1
    decay_mult: 0
  }
  param {
    lr_mult: 0.2
    decay_mult: 0
  }
  scale_param {
    filler {
      value: 1
    }
    bias_term: true
    bias_filler {
      value: 0
    }
  }
}
layer {
  name: "conv7/dw/relu"
  type: "ReLU"
  bottom: "conv7/dw"
  top: "conv7/dw"
}
layer {
  name: "conv7"
  type: "Convolution"
  bottom: "conv7/dw"
  top: "conv7"
  param {
    lr_mult: 0.1
    decay_mult: 0.1
  }
  convolution_param {
    num_output: 512
    bias_term: false
    kernel_size: 1
    weight_filler {
      type: "msra"
    }
  }
}
layer {
  name: "conv7/bn"
  type: "BatchNorm"
  bottom: "conv7"
  top: "conv7"
}
layer {
  name: "conv7/scale"
  type: "Scale"
  bottom: "conv7"
  top: "conv7"
  param {
    lr_mult: 0.1
    decay_mult: 0
  }
  param {
    lr_mult: 0.2
    decay_mult: 0
  }
  scale_param {
    filler {
      value: 1
    }
    bias_term: true
    bias_filler {
      value: 0
    }
  }
}
layer {
  name: "conv7/relu"
  type: "ReLU"
  bottom: "conv7"
  top: "conv7"
}
layer {
  name: "conv8/dw"
  type: "Convolution"
  bottom: "conv7"
  top: "conv8/dw"
  param {
    lr_mult: 0.1
    decay_mult: 0.1
  }
  convolution_param {
    num_output: 512
    bias_term: false
    pad: 1
    kernel_size: 3
    group: 512
    weight_filler {
      type: "msra"
    }
    engine: CAFFE
  }
}
layer {
  name: "conv8/dw/bn"
  type: "BatchNorm"
  bottom: "conv8/dw"
  top: "conv8/dw"
}
layer {
  name: "conv8/dw/scale"
  type: "Scale"
  bottom: "conv8/dw"
  top: "conv8/dw"
  param {
    lr_mult: 0.1
    decay_mult: 0
  }
  param {
    lr_mult: 0.2
    decay_mult: 0
  }
  scale_param {
    filler {
      value: 1
    }
    bias_term: true
    bias_filler {
      value: 0
    }
  }
}
layer {
  name: "conv8/dw/relu"
  type: "ReLU"
  bottom: "conv8/dw"
  top: "conv8/dw"
}
layer {
  name: "conv8"
  type: "Convolution"
  bottom: "conv8/dw"
  top: "conv8"
  param {
    lr_mult: 0.1
    decay_mult: 0.1
  }
  convolution_param {
    num_output: 512
    bias_term: false
    kernel_size: 1
    weight_filler {
      type: "msra"
    }
  }
}
layer {
  name: "conv8/bn"
  type: "BatchNorm"
  bottom: "conv8"
  top: "conv8"
}
layer {
  name: "conv8/scale"
  type: "Scale"
  bottom: "conv8"
  top: "conv8"
  param {
    lr_mult: 0.1
    decay_mult: 0
  }
  param {
    lr_mult: 0.2
    decay_mult: 0
  }
  scale_param {
    filler {
      value: 1
    }
    bias_term: true
    bias_filler {
      value: 0
    }
  }
}
layer {
  name: "conv8/relu"
  type: "ReLU"
  bottom: "conv8"
  top: "conv8"
}
layer {
  name: "conv9/dw"
  type: "Convolution"
  bottom: "conv8"
  top: "conv9/dw"
  param {
    lr_mult: 0.1
    decay_mult: 0.1
  }
  convolution_param {
    num_output: 512
    bias_term: false
    pad: 1
    kernel_size: 3
    group: 512
    weight_filler {
      type: "msra"
    }
    engine: CAFFE
  }
}
layer {
  name: "conv9/dw/bn"
  type: "BatchNorm"
  bottom: "conv9/dw"
  top: "conv9/dw"
}
layer {
  name: "conv9/dw/scale"
  type: "Scale"
  bottom: "conv9/dw"
  top: "conv9/dw"
  param {
    lr_mult: 0.1
    decay_mult: 0
  }
  param {
    lr_mult: 0.2
    decay_mult: 0
  }
  scale_param {
    filler {
      value: 1
    }
    bias_term: true
    bias_filler {
      value: 0
    }
  }
}
layer {
  name: "conv9/dw/relu"
  type: "ReLU"
  bottom: "conv9/dw"
  top: "conv9/dw"
}
layer {
  name: "conv9"
  type: "Convolution"
  bottom: "conv9/dw"
  top: "conv9"
  param {
    lr_mult: 0.1
    decay_mult: 0.1
  }
  convolution_param {
    num_output: 512
    bias_term: false
    kernel_size: 1
    weight_filler {
      type: "msra"
    }
  }
}
layer {
  name: "conv9/bn"
  type: "BatchNorm"
  bottom: "conv9"
  top: "conv9"
}
layer {
  name: "conv9/scale"
  type: "Scale"
  bottom: "conv9"
  top: "conv9"
  param {
    lr_mult: 0.1
    decay_mult: 0
  }
  param {
    lr_mult: 0.2
    decay_mult: 0
  }
  scale_param {
    filler {
      value: 1
    }
    bias_term: true
    bias_filler {
      value: 0
    }
  }
}
layer {
  name: "conv9/relu"
  type: "ReLU"
  bottom: "conv9"
  top: "conv9"
}
layer {
  name: "conv10/dw"
  type: "Convolution"
  bottom: "conv9"
  top: "conv10/dw"
  param {
    lr_mult: 0.1
    decay_mult: 0.1
  }
  convolution_param {
    num_output: 512
    bias_term: false
    pad: 1
    kernel_size: 3
    group: 512
    weight_filler {
      type: "msra"
    }
    engine: CAFFE
  }
}
layer {
  name: "conv10/dw/bn"
  type: "BatchNorm"
  bottom: "conv10/dw"
  top: "conv10/dw"
}
layer {
  name: "conv10/dw/scale"
  type: "Scale"
  bottom: "conv10/dw"
  top: "conv10/dw"
  param {
    lr_mult: 0.1
    decay_mult: 0
  }
  param {
    lr_mult: 0.2
    decay_mult: 0
  }
  scale_param {
    filler {
      value: 1
    }
    bias_term: true
    bias_filler {
      value: 0
    }
  }
}
layer {
  name: "conv10/dw/relu"
  type: "ReLU"
  bottom: "conv10/dw"
  top: "conv10/dw"
}
layer {
  name: "conv10"
  type: "Convolution"
  bottom: "conv10/dw"
  top: "conv10"
  param {
    lr_mult: 0.1
    decay_mult: 0.1
  }
  convolution_param {
    num_output: 512
    bias_term: false
    kernel_size: 1
    weight_filler {
      type: "msra"
    }
  }
}
layer {
  name: "conv10/bn"
  type: "BatchNorm"
  bottom: "conv10"
  top: "conv10"
}
layer {
  name: "conv10/scale"
  type: "Scale"
  bottom: "conv10"
  top: "conv10"
  param {
    lr_mult: 0.1
    decay_mult: 0
  }
  param {
    lr_mult: 0.2
    decay_mult: 0
  }
  scale_param {
    filler {
      value: 1
    }
    bias_term: true
    bias_filler {
      value: 0
    }
  }
}
layer {
  name: "conv10/relu"
  type: "ReLU"
  bottom: "conv10"
  top: "conv10"
}
layer {
  name: "conv11/dw"
  type: "Convolution"
  bottom: "conv10"
  top: "conv11/dw"
  param {
    lr_mult: 0.1
    decay_mult: 0.1
  }
  convolution_param {
    num_output: 512
    bias_term: false
    pad: 1
    kernel_size: 3
    group: 512
    weight_filler {
      type: "msra"
    }
    engine: CAFFE
  }
}
layer {
  name: "conv11/dw/bn"
  type: "BatchNorm"
  bottom: "conv11/dw"
  top: "conv11/dw"
}
layer {
  name: "conv11/dw/scale"
  type: "Scale"
  bottom: "conv11/dw"
  top: "conv11/dw"
  param {
    lr_mult: 0.1
    decay_mult: 0
  }
  param {
    lr_mult: 0.2
    decay_mult: 0
  }
  scale_param {
    filler {
      value: 1
    }
    bias_term: true
    bias_filler {
      value: 0
    }
  }
}
layer {
  name: "conv11/dw/relu"
  type: "ReLU"
  bottom: "conv11/dw"
  top: "conv11/dw"
}
layer {
  name: "conv11"
  type: "Convolution"
  bottom: "conv11/dw"
  top: "conv11"
  param {
    lr_mult: 0.1
    decay_mult: 0.1
  }
  convolution_param {
    num_output: 512
    bias_term: false
    kernel_size: 1
    weight_filler {
      type: "msra"
    }
  }
}
layer {
  name: "conv11/bn"
  type: "BatchNorm"
  bottom: "conv11"
  top: "conv11"
}
layer {
  name: "conv11/scale"
  type: "Scale"
  bottom: "conv11"
  top: "conv11"
  param {
    lr_mult: 0.1
    decay_mult: 0
  }
  param {
    lr_mult: 0.2
    decay_mult: 0
  }
  scale_param {
    filler {
      value: 1
    }
    bias_term: true
    bias_filler {
      value: 0
    }
  }
}
layer {
  name: "conv11/relu"
  type: "ReLU"
  bottom: "conv11"
  top: "conv11"
}
layer {
  name: "conv12/dw"
  type: "Convolution"
  bottom: "conv11"
  top: "conv12/dw"
  param {
    lr_mult: 0.1
    decay_mult: 0.1
  }
  convolution_param {
    num_output: 512
    bias_term: false
    pad: 1
    kernel_size: 3
    group: 512
    stride: 2
    weight_filler {
      type: "msra"
    }
    engine: CAFFE
  }
}
layer {
  name: "conv12/dw/bn"
  type: "BatchNorm"
  bottom: "conv12/dw"
  top: "conv12/dw"
}
layer {
  name: "conv12/dw/scale"
  type: "Scale"
  bottom: "conv12/dw"
  top: "conv12/dw"
  param {
    lr_mult: 0.1
    decay_mult: 0
  }
  param {
    lr_mult: 0.2
    decay_mult: 0
  }
  scale_param {
    filler {
      value: 1
    }
    bias_term: true
    bias_filler {
      value: 0
    }
  }
}
layer {
  name: "conv12/dw/relu"
  type: "ReLU"
  bottom: "conv12/dw"
  top: "conv12/dw"
}
layer {
  name: "conv12"
  type: "Convolution"
  bottom: "conv12/dw"
  top: "conv12"
  param {
    lr_mult: 0.1
    decay_mult: 0.1
  }
  convolution_param {
    num_output: 1024
    bias_term: false
    kernel_size: 1
    weight_filler {
      type: "msra"
    }
  }
}
layer {
  name: "conv12/bn"
  type: "BatchNorm"
  bottom: "conv12"
  top: "conv12"
}
layer {
  name: "conv12/scale"
  type: "Scale"
  bottom: "conv12"
  top: "conv12"
  param {
    lr_mult: 0.1
    decay_mult: 0
  }
  param {
    lr_mult: 0.2
    decay_mult: 0
  }
  scale_param {
    filler {
      value: 1
    }
    bias_term: true
    bias_filler {
      value: 0
    }
  }
}
layer {
  name: "conv12/relu"
  type: "ReLU"
  bottom: "conv12"
  top: "conv12"
}
layer {
  name: "conv13/dw"
  type: "Convolution"
  bottom: "conv12"
  top: "conv13/dw"
  param {
    lr_mult: 0.1
    decay_mult: 0.1
  }
  convolution_param {
    num_output: 1024
    bias_term: false
    pad: 1
    kernel_size: 3
    group: 1024
    weight_filler {
      type: "msra"
    }
    engine: CAFFE
  }
}
layer {
  name: "conv13/dw/bn"
  type: "BatchNorm"
  bottom: "conv13/dw"
  top: "conv13/dw"
}
layer {
  name: "conv13/dw/scale"
  type: "Scale"
  bottom: "conv13/dw"
  top: "conv13/dw"
  param {
    lr_mult: 0.1
    decay_mult: 0
  }
  param {
    lr_mult: 0.2
    decay_mult: 0
  }
  scale_param {
    filler {
      value: 1
    }
    bias_term: true
    bias_filler {
      value: 0
    }
  }
}
layer {
  name: "conv13/dw/relu"
  type: "ReLU"
  bottom: "conv13/dw"
  top: "conv13/dw"
}
layer {
  name: "conv13"
  type: "Convolution"
  bottom: "conv13/dw"
  top: "conv13"
  param {
    lr_mult: 0.1
    decay_mult: 0.1
  }
  convolution_param {
    num_output: 1024
    bias_term: false
    kernel_size: 1
    weight_filler {
      type: "msra"
    }
  }
}
layer {
  name: "conv13/bn"
  type: "BatchNorm"
  bottom: "conv13"
  top: "conv13"
}
layer {
  name: "conv13/scale"
  type: "Scale"
  bottom: "conv13"
  top: "conv13"
  param {
    lr_mult: 0.1
    decay_mult: 0
  }
  param {
    lr_mult: 0.2
    decay_mult: 0
  }
  scale_param {
    filler {
      value: 1
    }
    bias_term: true
    bias_filler {
      value: 0
    }
  }
}
layer {
  name: "conv13/relu"
  type: "ReLU"
  bottom: "conv13"
  top: "conv13"
}
layer {
  name: "conv14_1"
  type: "Convolution"
  bottom: "conv13"
  top: "conv14_1"
  param {
    lr_mult: 0.1
    decay_mult: 0.1
  }
  convolution_param {
    num_output: 256
    bias_term: false
    kernel_size: 1
    weight_filler {
      type: "msra"
    }
  }
}
layer {
  name: "conv14_1/bn"
  type: "BatchNorm"
  bottom: "conv14_1"
  top: "conv14_1"
}
layer {
  name: "conv14_1/scale"
  type: "Scale"
  bottom: "conv14_1"
  top: "conv14_1"
  param {
    lr_mult: 0.1
    decay_mult: 0
  }
  param {
    lr_mult: 0.2
    decay_mult: 0
  }
  scale_param {
    filler {
      value: 1
    }
    bias_term: true
    bias_filler {
      value: 0
    }
  }
}
layer {
  name: "conv14_1/relu"
  type: "ReLU"
  bottom: "conv14_1"
  top: "conv14_1"
}
layer {
  name: "conv14_2"
  type: "Convolution"
  bottom: "conv14_1"
  top: "conv14_2"
  param {
    lr_mult: 0.1
    decay_mult: 0.1
  }
  convolution_param {
    num_output: 512
    bias_term: false
    pad: 1
    kernel_size: 3
    stride: 2
    weight_filler {
      type: "msra"
    }
  }
}
layer {
  name: "conv14_2/bn"
  type: "BatchNorm"
  bottom: "conv14_2"
  top: "conv14_2"
}
layer {
  name: "conv14_2/scale"
  type: "Scale"
  bottom: "conv14_2"
  top: "conv14_2"
  param {
    lr_mult: 0.1
    decay_mult: 0
  }
  param {
    lr_mult: 0.2
    decay_mult: 0
  }
  scale_param {
    filler {
      value: 1
    }
    bias_term: true
    bias_filler {
      value: 0
    }
  }
}
layer {
  name: "conv14_2/relu"
  type: "ReLU"
  bottom: "conv14_2"
  top: "conv14_2"
}
layer {
  name: "conv15_1"
  type: "Convolution"
  bottom: "conv14_2"
  top: "conv15_1"
  param {
    lr_mult: 0.1
    decay_mult: 0.1
  }
  convolution_param {
    num_output: 128
    bias_term: false
    kernel_size: 1
    weight_filler {
      type: "msra"
    }
  }
}
layer {
  name: "conv15_1/bn"
  type: "BatchNorm"
  bottom: "conv15_1"
  top: "conv15_1"
}
layer {
  name: "conv15_1/scale"
  type: "Scale"
  bottom: "conv15_1"
  top: "conv15_1"
  param {
    lr_mult: 0.1
    decay_mult: 0
  }
  param {
    lr_mult: 0.2
    decay_mult: 0
  }
  scale_param {
    filler {
      value: 1
    }
    bias_term: true
    bias_filler {
      value: 0
    }
  }
}
layer {
  name: "conv15_1/relu"
  type: "ReLU"
  bottom: "conv15_1"
  top: "conv15_1"
}
layer {
  name: "conv15_2"
  type: "Convolution"
  bottom: "conv15_1"
  top: "conv15_2"
  param {
    lr_mult: 0.1
    decay_mult: 0.1
  }
  convolution_param {
    num_output: 256
    bias_term: false
    pad: 1
    kernel_size: 3
    stride: 2
    weight_filler {
      type: "msra"
    }
  }
}
layer {
  name: "conv15_2/bn"
  type: "BatchNorm"
  bottom: "conv15_2"
  top: "conv15_2"
}
layer {
  name: "conv15_2/scale"
  type: "Scale"
  bottom: "conv15_2"
  top: "conv15_2"
  param {
    lr_mult: 0.1
    decay_mult: 0
  }
  param {
    lr_mult: 0.2
    decay_mult: 0
  }
  scale_param {
    filler {
      value: 1
    }
    bias_term: true
    bias_filler {
      value: 0
    }
  }
}
layer {
  name: "conv15_2/relu"
  type: "ReLU"
  bottom: "conv15_2"
  top: "conv15_2"
}
layer {
  name: "conv16_1"
  type: "Convolution"
  bottom: "conv15_2"
  top: "conv16_1"
  param {
    lr_mult: 0.1
    decay_mult: 0.1
  }
  convolution_param {
    num_output: 128
    bias_term: false
    kernel_size: 1
    weight_filler {
      type: "msra"
    }
  }
}
layer {
  name: "conv16_1/bn"
  type: "BatchNorm"
  bottom: "conv16_1"
  top: "conv16_1"
}
layer {
  name: "conv16_1/scale"
  type: "Scale"
  bottom: "conv16_1"
  top: "conv16_1"
  param {
    lr_mult: 0.1
    decay_mult: 0
  }
  param {
    lr_mult: 0.2
    decay_mult: 0
  }
  scale_param {
    filler {
      value: 1
    }
    bias_term: true
    bias_filler {
      value: 0
    }
  }
}
layer {
  name: "conv16_1/relu"
  type: "ReLU"
  bottom: "conv16_1"
  top: "conv16_1"
}
layer {
  name: "conv16_2"
  type: "Convolution"
  bottom: "conv16_1"
  top: "conv16_2"
  param {
    lr_mult: 0.1
    decay_mult: 0.1
  }
  convolution_param {
    num_output: 256
    bias_term: false
    pad: 1
    kernel_size: 3
    stride: 2
    weight_filler {
      type: "msra"
    }
  }
}
layer {
  name: "conv16_2/bn"
  type: "BatchNorm"
  bottom: "conv16_2"
  top: "conv16_2"
}
layer {
  name: "conv16_2/scale"
  type: "Scale"
  bottom: "conv16_2"
  top: "conv16_2"
  param {
    lr_mult: 0.1
    decay_mult: 0
  }
  param {
    lr_mult: 0.2
    decay_mult: 0
  }
  scale_param {
    filler {
      value: 1
    }
    bias_term: true
    bias_filler {
      value: 0
    }
  }
}
layer {
  name: "conv16_2/relu"
  type: "ReLU"
  bottom: "conv16_2"
  top: "conv16_2"
}
layer {
  name: "conv17_1"
  type: "Convolution"
  bottom: "conv16_2"
  top: "conv17_1"
  param {
    lr_mult: 0.1
    decay_mult: 0.1
  }
  convolution_param {
    num_output: 64
    bias_term: false
    kernel_size: 1
    weight_filler {
      type: "msra"
    }
  }
}
layer {
  name: "conv17_1/bn"
  type: "BatchNorm"
  bottom: "conv17_1"
  top: "conv17_1"
}
layer {
  name: "conv17_1/scale"
  type: "Scale"
  bottom: "conv17_1"
  top: "conv17_1"
  param {
    lr_mult: 0.1
    decay_mult: 0
  }
  param {
    lr_mult: 0.2
    decay_mult: 0
  }
  scale_param {
    filler {
      value: 1
    }
    bias_term: true
    bias_filler {
      value: 0
    }
  }
}
layer {
  name: "conv17_1/relu"
  type: "ReLU"
  bottom: "conv17_1"
  top: "conv17_1"
}
layer {
  name: "conv17_2"
  type: "Convolution"
  bottom: "conv17_1"
  top: "conv17_2"
  param {
    lr_mult: 0.1
    decay_mult: 0.1
  }
  convolution_param {
    num_output: 128
    bias_term: false
    pad: 1
    kernel_size: 3
    stride: 2
    weight_filler {
      type: "msra"
    }
  }
}
layer {
  name: "conv17_2/bn"
  type: "BatchNorm"
  bottom: "conv17_2"
  top: "conv17_2"
}
layer {
  name: "conv17_2/scale"
  type: "Scale"
  bottom: "conv17_2"
  top: "conv17_2"
  param {
    lr_mult: 0.1
    decay_mult: 0
  }
  param {
    lr_mult: 0.2
    decay_mult: 0
  }
  scale_param {
    filler {
      value: 1
    }
    bias_term: true
    bias_filler {
      value: 0
    }
  }
}
layer {
  name: "conv17_2/relu"
  type: "ReLU"
  bottom: "conv17_2"
  top: "conv17_2"
}
layer {
  name: "conv11_mbox_loc"
  type: "Convolution"
  bottom: "conv11"
  top: "conv11_mbox_loc"
  param {
    lr_mult: 0.1
    decay_mult: 0.1
  }
  param {
    lr_mult: 0.2
    decay_mult: 0
  }
  convolution_param {
    num_output: 12
    kernel_size: 1
    weight_filler {
      type: "msra"
    }
    bias_filler {
      type: "constant"
      value: 0
    }
  }
}
layer {
  name: "conv11_mbox_loc_perm"
  type: "Permute"
  bottom: "conv11_mbox_loc"
  top: "conv11_mbox_loc_pe
I1031 15:35:12.264375 31277 layer_factory.hpp:77] Creating layer data
I1031 15:35:12.265094 31277 net.cpp:100] Creating Layer data
I1031 15:35:12.265108 31277 net.cpp:452] data -> data
I1031 15:35:12.265141 31277 net.cpp:452] data -> label
I1031 15:35:12.268100 31298 db_lmdb.cpp:35] Opened lmdb examples/VOC0712/VOC0712_trainval_lmdb
I1031 15:35:12.284448 31277 annotated_data_layer.cpp:62] output data size: 24,3,300,300
I1031 15:35:12.334491 31277 net.cpp:150] Setting up data
I1031 15:35:12.334539 31277 net.cpp:157] Top shape: 24 3 300 300 (6480000)
I1031 15:35:12.334544 31277 net.cpp:157] Top shape: 1 1 1 8 (8)
I1031 15:35:12.334561 31277 net.cpp:165] Memory required for data: 25920032
I1031 15:35:12.334573 31277 layer_factory.hpp:77] Creating layer data_data_0_split
I1031 15:35:12.334602 31277 net.cpp:100] Creating Layer data_data_0_split
I1031 15:35:12.334609 31277 net.cpp:478] data_data_0_split <- data
I1031 15:35:12.334621 31277 net.cpp:452] data_data_0_split -> data_data_0_split_0
I1031 15:35:12.334650 31277 net.cpp:452] data_data_0_split -> data_data_0_split_1
I1031 15:35:12.334656 31277 net.cpp:452] data_data_0_split -> data_data_0_split_2
I1031 15:35:12.334663 31277 net.cpp:452] data_data_0_split -> data_data_0_split_3
I1031 15:35:12.334668 31277 net.cpp:452] data_data_0_split -> data_data_0_split_4
I1031 15:35:12.334677 31277 net.cpp:452] data_data_0_split -> data_data_0_split_5
I1031 15:35:12.334683 31277 net.cpp:452] data_data_0_split -> data_data_0_split_6
I1031 15:35:12.334802 31277 net.cpp:150] Setting up data_data_0_split
I1031 15:35:12.334843 31277 net.cpp:157] Top shape: 24 3 300 300 (6480000)
I1031 15:35:12.334851 31277 net.cpp:157] Top shape: 24 3 300 300 (6480000)
I1031 15:35:12.334853 31277 net.cpp:157] Top shape: 24 3 300 300 (6480000)
I1031 15:35:12.334856 31277 net.cpp:157] Top shape: 24 3 300 300 (6480000)
I1031 15:35:12.334859 31277 net.cpp:157] Top shape: 24 3 300 300 (6480000)
I1031 15:35:12.334862 31277 net.cpp:157] Top shape: 24 3 300 300 (6480000)
I1031 15:35:12.334867 31277 net.cpp:157] Top shape: 24 3 300 300 (6480000)
I1031 15:35:12.334868 31277 net.cpp:165] Memory required for data: 207360032
I1031 15:35:12.334872 31277 layer_factory.hpp:77] Creating layer conv0
I1031 15:35:12.334893 31277 net.cpp:100] Creating Layer conv0
I1031 15:35:12.334897 31277 net.cpp:478] conv0 <- data_data_0_split_0
I1031 15:35:12.334904 31277 net.cpp:452] conv0 -> conv0
I1031 15:35:12.337359 31277 net.cpp:150] Setting up conv0
I1031 15:35:12.337379 31277 net.cpp:157] Top shape: 24 32 150 150 (17280000)
I1031 15:35:12.337383 31277 net.cpp:165] Memory required for data: 276480032
I1031 15:35:12.337394 31277 layer_factory.hpp:77] Creating layer conv0/bn
I1031 15:35:12.337401 31277 net.cpp:100] Creating Layer conv0/bn
I1031 15:35:12.337404 31277 net.cpp:478] conv0/bn <- conv0
I1031 15:35:12.337427 31277 net.cpp:439] conv0/bn -> conv0 (in-place)
I1031 15:35:12.339540 31277 net.cpp:150] Setting up conv0/bn
I1031 15:35:12.339562 31277 net.cpp:157] Top shape: 24 32 150 150 (17280000)
I1031 15:35:12.339566 31277 net.cpp:165] Memory required for data: 345600032
I1031 15:35:12.339579 31277 layer_factory.hpp:77] Creating layer conv0/scale
I1031 15:35:12.339592 31277 net.cpp:100] Creating Layer conv0/scale
I1031 15:35:12.339598 31277 net.cpp:478] conv0/scale <- conv0
I1031 15:35:12.339607 31277 net.cpp:439] conv0/scale -> conv0 (in-place)
I1031 15:35:12.339673 31277 layer_factory.hpp:77] Creating layer conv0/scale
I1031 15:35:12.339823 31277 net.cpp:150] Setting up conv0/scale
I1031 15:35:12.339839 31277 net.cpp:157] Top shape: 24 32 150 150 (17280000)
I1031 15:35:12.339843 31277 net.cpp:165] Memory required for data: 414720032
I1031 15:35:12.339849 31277 layer_factory.hpp:77] Creating layer conv0/relu
I1031 15:35:12.339872 31277 net.cpp:100] Creating Layer conv0/relu
I1031 15:35:12.339875 31277 net.cpp:478] conv0/relu <- conv0
I1031 15:35:12.339879 31277 net.cpp:439] conv0/relu -> conv0 (in-place)
I1031 15:35:12.339885 31277 net.cpp:150] Setting up conv0/relu
I1031 15:35:12.339889 31277 net.cpp:157] Top shape: 24 32 150 150 (17280000)
I1031 15:35:12.339906 31277 net.cpp:165] Memory required for data: 483840032
I1031 15:35:12.339908 31277 layer_factory.hpp:77] Creating layer conv1/dw
I1031 15:35:12.339918 31277 net.cpp:100] Creating Layer conv1/dw
I1031 15:35:12.339921 31277 net.cpp:478] conv1/dw <- conv0
I1031 15:35:12.339941 31277 net.cpp:452] conv1/dw -> conv1/dw
I1031 15:35:12.340153 31277 net.cpp:150] Setting up conv1/dw
I1031 15:35:12.340167 31277 net.cpp:157] Top shape: 24 32 150 150 (17280000)
I1031 15:35:12.340169 31277 net.cpp:165] Memory required for data: 552960032
I1031 15:35:12.340173 31277 layer_factory.hpp:77] Creating layer conv1/dw/bn
I1031 15:35:12.340179 31277 net.cpp:100] Creating Layer conv1/dw/bn
I1031 15:35:12.340183 31277 net.cpp:478] conv1/dw/bn <- conv1/dw
I1031 15:35:12.340186 31277 net.cpp:439] conv1/dw/bn -> conv1/dw (in-place)
I1031 15:35:12.340343 31277 net.cpp:150] Setting up conv1/dw/bn
I1031 15:35:12.340355 31277 net.cpp:157] Top shape: 24 32 150 150 (17280000)
I1031 15:35:12.340358 31277 net.cpp:165] Memory required for data: 622080032
I1031 15:35:12.340365 31277 layer_factory.hpp:77] Creating layer conv1/dw/scale
I1031 15:35:12.340373 31277 net.cpp:100] Creating Layer conv1/dw/scale
I1031 15:35:12.340375 31277 net.cpp:478] conv1/dw/scale <- conv1/dw
I1031 15:35:12.340382 31277 net.cpp:439] conv1/dw/scale -> conv1/dw (in-place)
I1031 15:35:12.340416 31277 layer_factory.hpp:77] Creating layer conv1/dw/scale
I1031 15:35:12.340579 31277 net.cpp:150] Setting up conv1/dw/scale
I1031 15:35:12.340610 31277 net.cpp:157] Top shape: 24 32 150 150 (17280000)
I1031 15:35:12.340612 31277 net.cpp:165] Memory required for data: 691200032
I1031 15:35:12.340618 31277 layer_factory.hpp:77] Creating layer conv1/dw/relu
I1031 15:35:12.340626 31277 net.cpp:100] Creating Layer conv1/dw/relu
I1031 15:35:12.340627 31277 net.cpp:478] conv1/dw/relu <- conv1/dw
I1031 15:35:12.340631 31277 net.cpp:439] conv1/dw/relu -> conv1/dw (in-place)
I1031 15:35:12.340636 31277 net.cpp:150] Setting up conv1/dw/relu
I1031 15:35:12.340641 31277 net.cpp:157] Top shape: 24 32 150 150 (17280000)
I1031 15:35:12.340642 31277 net.cpp:165] Memory required for data: 760320032
I1031 15:35:12.340644 31277 layer_factory.hpp:77] Creating layer conv1
I1031 15:35:12.340651 31277 net.cpp:100] Creating Layer conv1
I1031 15:35:12.340653 31277 net.cpp:478] conv1 <- conv1/dw
I1031 15:35:12.340659 31277 net.cpp:452] conv1 -> conv1
I1031 15:35:12.341891 31277 net.cpp:150] Setting up conv1
I1031 15:35:12.341910 31277 net.cpp:157] Top shape: 24 64 150 150 (34560000)
I1031 15:35:12.341914 31277 net.cpp:165] Memory required for data: 898560032
I1031 15:35:12.341918 31277 layer_factory.hpp:77] Creating layer conv1/bn
I1031 15:35:12.341924 31277 net.cpp:100] Creating Layer conv1/bn
I1031 15:35:12.341928 31277 net.cpp:478] conv1/bn <- conv1
I1031 15:35:12.341931 31277 net.cpp:439] conv1/bn -> conv1 (in-place)
I1031 15:35:12.342175 31277 net.cpp:150] Setting up conv1/bn
I1031 15:35:12.342188 31277 net.cpp:157] Top shape: 24 64 150 150 (34560000)
I1031 15:35:12.342190 31277 net.cpp:165] Memory required for data: 1036800032
I1031 15:35:12.342197 31277 layer_factory.hpp:77] Creating layer conv1/scale
I1031 15:35:12.342206 31277 net.cpp:100] Creating Layer conv1/scale
I1031 15:35:12.342208 31277 net.cpp:478] conv1/scale <- conv1
I1031 15:35:12.342212 31277 net.cpp:439] conv1/scale -> conv1 (in-place)
I1031 15:35:12.342249 31277 layer_factory.hpp:77] Creating layer conv1/scale
I1031 15:35:12.342376 31277 net.cpp:150] Setting up conv1/scale
I1031 15:35:12.342387 31277 net.cpp:157] Top shape: 24 64 150 150 (34560000)
I1031 15:35:12.342389 31277 net.cpp:165] Memory required for data: 1175040032
I1031 15:35:12.342401 31277 layer_factory.hpp:77] Creating layer conv1/relu
I1031 15:35:12.342406 31277 net.cpp:100] Creating Layer conv1/relu
I1031 15:35:12.342407 31277 net.cpp:478] conv1/relu <- conv1
I1031 15:35:12.342411 31277 net.cpp:439] conv1/relu -> conv1 (in-place)
I1031 15:35:12.342417 31277 net.cpp:150] Setting up conv1/relu
I1031 15:35:12.342419 31277 net.cpp:157] Top shape: 24 64 150 150 (34560000)
I1031 15:35:12.342422 31277 net.cpp:165] Memory required for data: 1313280032
I1031 15:35:12.342423 31277 layer_factory.hpp:77] Creating layer conv2/dw
I1031 15:35:12.342432 31277 net.cpp:100] Creating Layer conv2/dw
I1031 15:35:12.342434 31277 net.cpp:478] conv2/dw <- conv1
I1031 15:35:12.342438 31277 net.cpp:452] conv2/dw -> conv2/dw
I1031 15:35:12.342586 31277 net.cpp:150] Setting up conv2/dw
I1031 15:35:12.342597 31277 net.cpp:157] Top shape: 24 64 75 75 (8640000)
I1031 15:35:12.342599 31277 net.cpp:165] Memory required for data: 1347840032
I1031 15:35:12.342603 31277 layer_factory.hpp:77] Creating layer conv2/dw/bn
I1031 15:35:12.342608 31277 net.cpp:100] Creating Layer conv2/dw/bn
I1031 15:35:12.342610 31277 net.cpp:478] conv2/dw/bn <- conv2/dw
I1031 15:35:12.342617 31277 net.cpp:439] conv2/dw/bn -> conv2/dw (in-place)
I1031 15:35:12.343848 31277 net.cpp:150] Setting up conv2/dw/bn
I1031 15:35:12.343864 31277 net.cpp:157] Top shape: 24 64 75 75 (8640000)
I1031 15:35:12.343868 31277 net.cpp:165] Memory required for data: 1382400032
I1031 15:35:12.343874 31277 layer_factory.hpp:77] Creating layer conv2/dw/scale
I1031 15:35:12.343883 31277 net.cpp:100] Creating Layer conv2/dw/scale
I1031 15:35:12.343886 31277 net.cpp:478] conv2/dw/scale <- conv2/dw
I1031 15:35:12.343894 31277 net.cpp:439] conv2/dw/scale -> conv2/dw (in-place)
I1031 15:35:12.347306 31277 layer_factory.hpp:77] Creating layer conv2/dw/scale
I1031 15:35:12.347445 31277 net.cpp:150] Setting up conv2/dw/scale
I1031 15:35:12.347457 31277 net.cpp:157] Top shape: 24 64 75 75 (8640000)
I1031 15:35:12.347460 31277 net.cpp:165] Memory required for data: 1416960032
I1031 15:35:12.347465 31277 layer_factory.hpp:77] Creating layer conv2/dw/relu
I1031 15:35:12.347472 31277 net.cpp:100] Creating Layer conv2/dw/relu
I1031 15:35:12.347476 31277 net.cpp:478] conv2/dw/relu <- conv2/dw
I1031 15:35:12.347479 31277 net.cpp:439] conv2/dw/relu -> conv2/dw (in-place)
I1031 15:35:12.347484 31277 net.cpp:150] Setting up conv2/dw/relu
I1031 15:35:12.347487 31277 net.cpp:157] Top shape: 24 64 75 75 (8640000)
I1031 15:35:12.347489 31277 net.cpp:165] Memory required for data: 1451520032
I1031 15:35:12.347492 31277 layer_factory.hpp:77] Creating layer conv2
I1031 15:35:12.347498 31277 net.cpp:100] Creating Layer conv2
I1031 15:35:12.347501 31277 net.cpp:478] conv2 <- conv2/dw
I1031 15:35:12.347504 31277 net.cpp:452] conv2 -> conv2
I1031 15:35:12.347738 31277 net.cpp:150] Setting up conv2
I1031 15:35:12.347749 31277 net.cpp:157] Top shape: 24 128 75 75 (17280000)
I1031 15:35:12.347753 31277 net.cpp:165] Memory required for data: 1520640032
I1031 15:35:12.347756 31277 layer_factory.hpp:77] Creating layer conv2/bn
I1031 15:35:12.347764 31277 net.cpp:100] Creating Layer conv2/bn
I1031 15:35:12.347765 31277 net.cpp:478] conv2/bn <- conv2
I1031 15:35:12.347769 31277 net.cpp:439] conv2/bn -> conv2 (in-place)
I1031 15:35:12.347977 31277 net.cpp:150] Setting up conv2/bn
I1031 15:35:12.347987 31277 net.cpp:157] Top shape: 24 128 75 75 (17280000)
I1031 15:35:12.347990 31277 net.cpp:165] Memory required for data: 1589760032
I1031 15:35:12.347995 31277 layer_factory.hpp:77] Creating layer conv2/scale
I1031 15:35:12.348002 31277 net.cpp:100] Creating Layer conv2/scale
I1031 15:35:12.348004 31277 net.cpp:478] conv2/scale <- conv2
I1031 15:35:12.348008 31277 net.cpp:439] conv2/scale -> conv2 (in-place)
I1031 15:35:12.348040 31277 layer_factory.hpp:77] Creating layer conv2/scale
I1031 15:35:12.348142 31277 net.cpp:150] Setting up conv2/scale
I1031 15:35:12.348152 31277 net.cpp:157] Top shape: 24 128 75 75 (17280000)
I1031 15:35:12.348155 31277 net.cpp:165] Memory required for data: 1658880032
I1031 15:35:12.348158 31277 layer_factory.hpp:77] Creating layer conv2/relu
I1031 15:35:12.348165 31277 net.cpp:100] Creating Layer conv2/relu
I1031 15:35:12.348167 31277 net.cpp:478] conv2/relu <- conv2
I1031 15:35:12.348170 31277 net.cpp:439] conv2/relu -> conv2 (in-place)
I1031 15:35:12.348175 31277 net.cpp:150] Setting up conv2/relu
I1031 15:35:12.348178 31277 net.cpp:157] Top shape: 24 128 75 75 (17280000)
I1031 15:35:12.348181 31277 net.cpp:165] Memory required for data: 1728000032
I1031 15:35:12.348182 31277 layer_factory.hpp:77] Creating layer conv3/dw
I1031 15:35:12.348189 31277 net.cpp:100] Creating Layer conv3/dw
I1031 15:35:12.348191 31277 net.cpp:478] conv3/dw <- conv2
I1031 15:35:12.348197 31277 net.cpp:452] conv3/dw -> conv3/dw
I1031 15:35:12.348338 31277 net.cpp:150] Setting up conv3/dw
I1031 15:35:12.348347 31277 net.cpp:157] Top shape: 24 128 75 75 (17280000)
I1031 15:35:12.348351 31277 net.cpp:165] Memory required for data: 1797120032
I1031 15:35:12.348353 31277 layer_factory.hpp:77] Creating layer conv3/dw/bn
I1031 15:35:12.348359 31277 net.cpp:100] Creating Layer conv3/dw/bn
I1031 15:35:12.348362 31277 net.cpp:478] conv3/dw/bn <- conv3/dw
I1031 15:35:12.348366 31277 net.cpp:439] conv3/dw/bn -> conv3/dw (in-place)
I1031 15:35:12.348505 31277 net.cpp:150] Setting up conv3/dw/bn
I1031 15:35:12.348515 31277 net.cpp:157] Top shape: 24 128 75 75 (17280000)
I1031 15:35:12.348517 31277 net.cpp:165] Memory required for data: 1866240032
I1031 15:35:12.348528 31277 layer_factory.hpp:77] Creating layer conv3/dw/scale
I1031 15:35:12.348534 31277 net.cpp:100] Creating Layer conv3/dw/scale
I1031 15:35:12.348536 31277 net.cpp:478] conv3/dw/scale <- conv3/dw
I1031 15:35:12.348542 31277 net.cpp:439] conv3/dw/scale -> conv3/dw (in-place)
I1031 15:35:12.348577 31277 layer_factory.hpp:77] Creating layer conv3/dw/scale
I1031 15:35:12.348682 31277 net.cpp:150] Setting up conv3/dw/scale
I1031 15:35:12.348692 31277 net.cpp:157] Top shape: 24 128 75 75 (17280000)
I1031 15:35:12.348695 31277 net.cpp:165] Memory required for data: 1935360032
I1031 15:35:12.348700 31277 layer_factory.hpp:77] Creating layer conv3/dw/relu
I1031 15:35:12.348703 31277 net.cpp:100] Creating Layer conv3/dw/relu
I1031 15:35:12.348706 31277 net.cpp:478] conv3/dw/relu <- conv3/dw
I1031 15:35:12.348711 31277 net.cpp:439] conv3/dw/relu -> conv3/dw (in-place)
I1031 15:35:12.348716 31277 net.cpp:150] Setting up conv3/dw/relu
I1031 15:35:12.348719 31277 net.cpp:157] Top shape: 24 128 75 75 (17280000)
I1031 15:35:12.348721 31277 net.cpp:165] Memory required for data: 2004480032
I1031 15:35:12.348723 31277 layer_factory.hpp:77] Creating layer conv3
I1031 15:35:12.348728 31277 net.cpp:100] Creating Layer conv3
I1031 15:35:12.348731 31277 net.cpp:478] conv3 <- conv3/dw
I1031 15:35:12.348734 31277 net.cpp:452] conv3 -> conv3
I1031 15:35:12.349019 31277 net.cpp:150] Setting up conv3
I1031 15:35:12.349030 31277 net.cpp:157] Top shape: 24 128 75 75 (17280000)
I1031 15:35:12.349032 31277 net.cpp:165] Memory required for data: 2073600032
I1031 15:35:12.349035 31277 layer_factory.hpp:77] Creating layer conv3/bn
I1031 15:35:12.349042 31277 net.cpp:100] Creating Layer conv3/bn
I1031 15:35:12.349051 31277 net.cpp:478] conv3/bn <- conv3
I1031 15:35:12.349056 31277 net.cpp:439] conv3/bn -> conv3 (in-place)
I1031 15:35:12.349189 31277 net.cpp:150] Setting up conv3/bn
I1031 15:35:12.349200 31277 net.cpp:157] Top shape: 24 128 75 75 (17280000)
I1031 15:35:12.349202 31277 net.cpp:165] Memory required for data: 2142720032
I1031 15:35:12.349207 31277 layer_factory.hpp:77] Creating layer conv3/scale
I1031 15:35:12.349212 31277 net.cpp:100] Creating Layer conv3/scale
I1031 15:35:12.349215 31277 net.cpp:478] conv3/scale <- conv3
I1031 15:35:12.349220 31277 net.cpp:439] conv3/scale -> conv3 (in-place)
I1031 15:35:12.349252 31277 layer_factory.hpp:77] Creating layer conv3/scale
I1031 15:35:12.349370 31277 net.cpp:150] Setting up conv3/scale
I1031 15:35:12.349381 31277 net.cpp:157] Top shape: 24 128 75 75 (17280000)
I1031 15:35:12.349385 31277 net.cpp:165] Memory required for data: 2211840032
I1031 15:35:12.349390 31277 layer_factory.hpp:77] Creating layer conv3/relu
I1031 15:35:12.349393 31277 net.cpp:100] Creating Layer conv3/relu
I1031 15:35:12.349396 31277 net.cpp:478] conv3/relu <- conv3
I1031 15:35:12.349401 31277 net.cpp:439] conv3/relu -> conv3 (in-place)
I1031 15:35:12.349406 31277 net.cpp:150] Setting up conv3/relu
I1031 15:35:12.349409 31277 net.cpp:157] Top shape: 24 128 75 75 (17280000)
I1031 15:35:12.349411 31277 net.cpp:165] Memory required for data: 2280960032
I1031 15:35:12.349413 31277 layer_factory.hpp:77] Creating layer conv4/dw
I1031 15:35:12.349421 31277 net.cpp:100] Creating Layer conv4/dw
I1031 15:35:12.349423 31277 net.cpp:478] conv4/dw <- conv3
I1031 15:35:12.349427 31277 net.cpp:452] conv4/dw -> conv4/dw
I1031 15:35:12.349575 31277 net.cpp:150] Setting up conv4/dw
I1031 15:35:12.349586 31277 net.cpp:157] Top shape: 24 128 38 38 (4435968)
I1031 15:35:12.349589 31277 net.cpp:165] Memory required for data: 2298703904
I1031 15:35:12.349592 31277 layer_factory.hpp:77] Creating layer conv4/dw/bn
I1031 15:35:12.349606 31277 net.cpp:100] Creating Layer conv4/dw/bn
I1031 15:35:12.349608 31277 net.cpp:478] conv4/dw/bn <- conv4/dw
I1031 15:35:12.349612 31277 net.cpp:439] conv4/dw/bn -> conv4/dw (in-place)
I1031 15:35:12.349750 31277 net.cpp:150] Setting up conv4/dw/bn
I1031 15:35:12.349759 31277 net.cpp:157] Top shape: 24 128 38 38 (4435968)
I1031 15:35:12.349761 31277 net.cpp:165] Memory required for data: 2316447776
I1031 15:35:12.349766 31277 layer_factory.hpp:77] Creating layer conv4/dw/scale
I1031 15:35:12.349778 31277 net.cpp:100] Creating Layer conv4/dw/scale
I1031 15:35:12.349781 31277 net.cpp:478] conv4/dw/scale <- conv4/dw
I1031 15:35:12.349784 31277 net.cpp:439] conv4/dw/scale -> conv4/dw (in-place)
I1031 15:35:12.349833 31277 layer_factory.hpp:77] Creating layer conv4/dw/scale
I1031 15:35:12.350015 31277 net.cpp:150] Setting up conv4/dw/scale
I1031 15:35:12.350028 31277 net.cpp:157] Top shape: 24 128 38 38 (4435968)
I1031 15:35:12.350031 31277 net.cpp:165] Memory required for data: 2334191648
I1031 15:35:12.350036 31277 layer_factory.hpp:77] Creating layer conv4/dw/relu
I1031 15:35:12.350044 31277 net.cpp:100] Creating Layer conv4/dw/relu
I1031 15:35:12.350069 31277 net.cpp:478] conv4/dw/relu <- conv4/dw
I1031 15:35:12.350085 31277 net.cpp:439] conv4/dw/relu -> conv4/dw (in-place)
I1031 15:35:12.350116 31277 net.cpp:150] Setting up conv4/dw/relu
I1031 15:35:12.350121 31277 net.cpp:157] Top shape: 24 128 38 38 (4435968)
I1031 15:35:12.350123 31277 net.cpp:165] Memory required for data: 2351935520
I1031 15:35:12.350126 31277 layer_factory.hpp:77] Creating layer conv4
I1031 15:35:12.350134 31277 net.cpp:100] Creating Layer conv4
I1031 15:35:12.350137 31277 net.cpp:478] conv4 <- conv4/dw
I1031 15:35:12.350142 31277 net.cpp:452] conv4 -> conv4
I1031 15:35:12.350581 31277 net.cpp:150] Setting up conv4
I1031 15:35:12.350595 31277 net.cpp:157] Top shape: 24 256 38 38 (8871936)
I1031 15:35:12.350597 31277 net.cpp:165] Memory required for data: 2387423264
I1031 15:35:12.350601 31277 layer_factory.hpp:77] Creating layer conv4/bn
I1031 15:35:12.350606 31277 net.cpp:100] Creating Layer conv4/bn
I1031 15:35:12.350610 31277 net.cpp:478] conv4/bn <- conv4
I1031 15:35:12.350613 31277 net.cpp:439] conv4/bn -> conv4 (in-place)
I1031 15:35:12.350796 31277 net.cpp:150] Setting up conv4/bn
I1031 15:35:12.350808 31277 net.cpp:157] Top shape: 24 256 38 38 (8871936)
I1031 15:35:12.350811 31277 net.cpp:165] Memory required for data: 2422911008
I1031 15:35:12.350817 31277 layer_factory.hpp:77] Creating layer conv4/scale
I1031 15:35:12.350822 31277 net.cpp:100] Creating Layer conv4/scale
I1031 15:35:12.350826 31277 net.cpp:478] conv4/scale <- conv4
I1031 15:35:12.350831 31277 net.cpp:439] conv4/scale -> conv4 (in-place)
I1031 15:35:12.350868 31277 layer_factory.hpp:77] Creating layer conv4/scale
I1031 15:35:12.350986 31277 net.cpp:150] Setting up conv4/scale
I1031 15:35:12.350997 31277 net.cpp:157] Top shape: 24 256 38 38 (8871936)
I1031 15:35:12.350999 31277 net.cpp:165] Memory required for data: 2458398752
I1031 15:35:12.351004 31277 layer_factory.hpp:77] Creating layer conv4/relu
I1031 15:35:12.351009 31277 net.cpp:100] Creating Layer conv4/relu
I1031 15:35:12.351027 31277 net.cpp:478] conv4/relu <- conv4
I1031 15:35:12.351034 31277 net.cpp:439] conv4/relu -> conv4 (in-place)
I1031 15:35:12.351040 31277 net.cpp:150] Setting up conv4/relu
I1031 15:35:12.351069 31277 net.cpp:157] Top shape: 24 256 38 38 (8871936)
I1031 15:35:12.351081 31277 net.cpp:165] Memory required for data: 2493886496
I1031 15:35:12.351094 31277 layer_factory.hpp:77] Creating layer conv5/dw
I1031 15:35:12.351112 31277 net.cpp:100] Creating Layer conv5/dw
I1031 15:35:12.351120 31277 net.cpp:478] conv5/dw <- conv4
I1031 15:35:12.351200 31277 net.cpp:452] conv5/dw -> conv5/dw
I1031 15:35:12.351452 31277 net.cpp:150] Setting up conv5/dw
I1031 15:35:12.351469 31277 net.cpp:157] Top shape: 24 256 38 38 (8871936)
I1031 15:35:12.351471 31277 net.cpp:165] Memory required for data: 2529374240
I1031 15:35:12.351475 31277 layer_factory.hpp:77] Creating layer conv5/dw/bn
I1031 15:35:12.351481 31277 net.cpp:100] Creating Layer conv5/dw/bn
I1031 15:35:12.351485 31277 net.cpp:478] conv5/dw/bn <- conv5/dw
I1031 15:35:12.351490 31277 net.cpp:439] conv5/dw/bn -> conv5/dw (in-place)
I1031 15:35:12.351626 31277 net.cpp:150] Setting up conv5/dw/bn
I1031 15:35:12.351636 31277 net.cpp:157] Top shape: 24 256 38 38 (8871936)
I1031 15:35:12.351639 31277 net.cpp:165] Memory required for data: 2564861984
I1031 15:35:12.351644 31277 layer_factory.hpp:77] Creating layer conv5/dw/scale
I1031 15:35:12.351649 31277 net.cpp:100] Creating Layer conv5/dw/scale
I1031 15:35:12.351652 31277 net.cpp:478] conv5/dw/scale <- conv5/dw
I1031 15:35:12.351658 31277 net.cpp:439] conv5/dw/scale -> conv5/dw (in-place)
I1031 15:35:12.351691 31277 layer_factory.hpp:77] Creating layer conv5/dw/scale
I1031 15:35:12.351794 31277 net.cpp:150] Setting up conv5/dw/scale
I1031 15:35:12.351804 31277 net.cpp:157] Top shape: 24 256 38 38 (8871936)
I1031 15:35:12.351806 31277 net.cpp:165] Memory required for data: 2600349728
I1031 15:35:12.351810 31277 layer_factory.hpp:77] Creating layer conv5/dw/relu
I1031 15:35:12.351815 31277 net.cpp:100] Creating Layer conv5/dw/relu
I1031 15:35:12.351817 31277 net.cpp:478] conv5/dw/relu <- conv5/dw
I1031 15:35:12.351824 31277 net.cpp:439] conv5/dw/relu -> conv5/dw (in-place)
I1031 15:35:12.351827 31277 net.cpp:150] Setting up conv5/dw/relu
I1031 15:35:12.351830 31277 net.cpp:157] Top shape: 24 256 38 38 (8871936)
I1031 15:35:12.351832 31277 net.cpp:165] Memory required for data: 2635837472
I1031 15:35:12.351838 31277 layer_factory.hpp:77] Creating layer conv5
I1031 15:35:12.351845 31277 net.cpp:100] Creating Layer conv5
I1031 15:35:12.351846 31277 net.cpp:478] conv5 <- conv5/dw
I1031 15:35:12.351851 31277 net.cpp:452] conv5 -> conv5
I1031 15:35:12.353552 31277 net.cpp:150] Setting up conv5
I1031 15:35:12.353586 31277 net.cpp:157] Top shape: 24 256 38 38 (8871936)
I1031 15:35:12.353600 31277 net.cpp:165] Memory required for data: 2671325216
I1031 15:35:12.353613 31277 layer_factory.hpp:77] Creating layer conv5/bn
I1031 15:35:12.353627 31277 net.cpp:100] Creating Layer conv5/bn
I1031 15:35:12.353638 31277 net.cpp:478] conv5/bn <- conv5
I1031 15:35:12.353652 31277 net.cpp:439] conv5/bn -> conv5 (in-place)
I1031 15:35:12.353814 31277 net.cpp:150] Setting up conv5/bn
I1031 15:35:12.353837 31277 net.cpp:157] Top shape: 24 256 38 38 (8871936)
I1031 15:35:12.353847 31277 net.cpp:165] Memory required for data: 2706812960
I1031 15:35:12.353862 31277 layer_factory.hpp:77] Creating layer conv5/scale
I1031 15:35:12.353876 31277 net.cpp:100] Creating Layer conv5/scale
I1031 15:35:12.353888 31277 net.cpp:478] conv5/scale <- conv5
I1031 15:35:12.353900 31277 net.cpp:439] conv5/scale -> conv5 (in-place)
I1031 15:35:12.354005 31277 layer_factory.hpp:77] Creating layer conv5/scale
I1031 15:35:12.354146 31277 net.cpp:150] Setting up conv5/scale
I1031 15:35:12.354166 31277 net.cpp:157] Top shape: 24 256 38 38 (8871936)
I1031 15:35:12.354177 31277 net.cpp:165] Memory required for data: 2742300704
I1031 15:35:12.354203 31277 layer_factory.hpp:77] Creating layer conv5/relu
I1031 15:35:12.354220 31277 net.cpp:100] Creating Layer conv5/relu
I1031 15:35:12.354246 31277 net.cpp:478] conv5/relu <- conv5
I1031 15:35:12.354252 31277 net.cpp:439] conv5/relu -> conv5 (in-place)
I1031 15:35:12.354274 31277 net.cpp:150] Setting up conv5/relu
I1031 15:35:12.354277 31277 net.cpp:157] Top shape: 24 256 38 38 (8871936)
I1031 15:35:12.354279 31277 net.cpp:165] Memory required for data: 2777788448
I1031 15:35:12.354281 31277 layer_factory.hpp:77] Creating layer conv6/dw
I1031 15:35:12.354288 31277 net.cpp:100] Creating Layer conv6/dw
I1031 15:35:12.354290 31277 net.cpp:478] conv6/dw <- conv5
I1031 15:35:12.354295 31277 net.cpp:452] conv6/dw -> conv6/dw
I1031 15:35:12.354528 31277 net.cpp:150] Setting up conv6/dw
I1031 15:35:12.354539 31277 net.cpp:157] Top shape: 24 256 19 19 (2217984)
I1031 15:35:12.354542 31277 net.cpp:165] Memory required for data: 2786660384
I1031 15:35:12.354547 31277 layer_factory.hpp:77] Creating layer conv6/dw/bn
I1031 15:35:12.354550 31277 net.cpp:100] Creating Layer conv6/dw/bn
I1031 15:35:12.354552 31277 net.cpp:478] conv6/dw/bn <- conv6/dw
I1031 15:35:12.354559 31277 net.cpp:439] conv6/dw/bn -> conv6/dw (in-place)
I1031 15:35:12.354696 31277 net.cpp:150] Setting up conv6/dw/bn
I1031 15:35:12.354706 31277 net.cpp:157] Top shape: 24 256 19 19 (2217984)
I1031 15:35:12.354707 31277 net.cpp:165] Memory required for data: 2795532320
I1031 15:35:12.354713 31277 layer_factory.hpp:77] Creating layer conv6/dw/scale
I1031 15:35:12.354718 31277 net.cpp:100] Creating Layer conv6/dw/scale
I1031 15:35:12.354720 31277 net.cpp:478] conv6/dw/scale <- conv6/dw
I1031 15:35:12.354727 31277 net.cpp:439] conv6/dw/scale -> conv6/dw (in-place)
I1031 15:35:12.354758 31277 layer_factory.hpp:77] Creating layer conv6/dw/scale
I1031 15:35:12.354878 31277 net.cpp:150] Setting up conv6/dw/scale
I1031 15:35:12.354888 31277 net.cpp:157] Top shape: 24 256 19 19 (2217984)
I1031 15:35:12.354890 31277 net.cpp:165] Memory required for data: 2804404256
I1031 15:35:12.354895 31277 layer_factory.hpp:77] Creating layer conv6/dw/relu
I1031 15:35:12.354899 31277 net.cpp:100] Creating Layer conv6/dw/relu
I1031 15:35:12.354902 31277 net.cpp:478] conv6/dw/relu <- conv6/dw
I1031 15:35:12.354907 31277 net.cpp:439] conv6/dw/relu -> conv6/dw (in-place)
I1031 15:35:12.354912 31277 net.cpp:150] Setting up conv6/dw/relu
I1031 15:35:12.354915 31277 net.cpp:157] Top shape: 24 256 19 19 (2217984)
I1031 15:35:12.354918 31277 net.cpp:165] Memory required for data: 2813276192
I1031 15:35:12.354919 31277 layer_factory.hpp:77] Creating layer conv6
I1031 15:35:12.354926 31277 net.cpp:100] Creating Layer conv6
I1031 15:35:12.354929 31277 net.cpp:478] conv6 <- conv6/dw
I1031 15:35:12.354933 31277 net.cpp:452] conv6 -> conv6
I1031 15:35:12.357245 31277 net.cpp:150] Setting up conv6
I1031 15:35:12.357264 31277 net.cpp:157] Top shape: 24 512 19 19 (4435968)
I1031 15:35:12.357267 31277 net.cpp:165] Memory required for data: 2831020064
I1031 15:35:12.357272 31277 layer_factory.hpp:77] Creating layer conv6/bn
I1031 15:35:12.357277 31277 net.cpp:100] Creating Layer conv6/bn
I1031 15:35:12.357280 31277 net.cpp:478] conv6/bn <- conv6
I1031 15:35:12.357285 31277 net.cpp:439] conv6/bn -> conv6 (in-place)
I1031 15:35:12.357440 31277 net.cpp:150] Setting up conv6/bn
I1031 15:35:12.357451 31277 net.cpp:157] Top shape: 24 512 19 19 (4435968)
I1031 15:35:12.357455 31277 net.cpp:165] Memory required for data: 2848763936
I1031 15:35:12.357460 31277 layer_factory.hpp:77] Creating layer conv6/scale
I1031 15:35:12.357466 31277 net.cpp:100] Creating Layer conv6/scale
I1031 15:35:12.357468 31277 net.cpp:478] conv6/scale <- conv6
I1031 15:35:12.357472 31277 net.cpp:439] conv6/scale -> conv6 (in-place)
I1031 15:35:12.357511 31277 layer_factory.hpp:77] Creating layer conv6/scale
I1031 15:35:12.357605 31277 net.cpp:150] Setting up conv6/scale
I1031 15:35:12.357620 31277 net.cpp:157] Top shape: 24 512 19 19 (4435968)
I1031 15:35:12.357623 31277 net.cpp:165] Memory required for data: 2866507808
I1031 15:35:12.357627 31277 layer_factory.hpp:77] Creating layer conv6/relu
I1031 15:35:12.357632 31277 net.cpp:100] Creating Layer conv6/relu
I1031 15:35:12.357635 31277 net.cpp:478] conv6/relu <- conv6
I1031 15:35:12.357638 31277 net.cpp:439] conv6/relu -> conv6 (in-place)
I1031 15:35:12.357643 31277 net.cpp:150] Setting up conv6/relu
I1031 15:35:12.357646 31277 net.cpp:157] Top shape: 24 512 19 19 (4435968)
I1031 15:35:12.357648 31277 net.cpp:165] Memory required for data: 2884251680
I1031 15:35:12.357650 31277 layer_factory.hpp:77] Creating layer conv7/dw
I1031 15:35:12.357658 31277 net.cpp:100] Creating Layer conv7/dw
I1031 15:35:12.357661 31277 net.cpp:478] conv7/dw <- conv6
I1031 15:35:12.357666 31277 net.cpp:452] conv7/dw -> conv7/dw
I1031 15:35:12.357853 31277 net.cpp:150] Setting up conv7/dw
I1031 15:35:12.357877 31277 net.cpp:157] Top shape: 24 512 19 19 (4435968)
I1031 15:35:12.357878 31277 net.cpp:165] Memory required for data: 2901995552
I1031 15:35:12.357882 31277 layer_factory.hpp:77] Creating layer conv7/dw/bn
I1031 15:35:12.357887 31277 net.cpp:100] Creating Layer conv7/dw/bn
I1031 15:35:12.357889 31277 net.cpp:478] conv7/dw/bn <- conv7/dw
I1031 15:35:12.357894 31277 net.cpp:439] conv7/dw/bn -> conv7/dw (in-place)
I1031 15:35:12.358120 31277 net.cpp:150] Setting up conv7/dw/bn
I1031 15:35:12.358132 31277 net.cpp:157] Top shape: 24 512 19 19 (4435968)
I1031 15:35:12.358134 31277 net.cpp:165] Memory required for data: 2919739424
I1031 15:35:12.358140 31277 layer_factory.hpp:77] Creating layer conv7/dw/scale
I1031 15:35:12.358146 31277 net.cpp:100] Creating Layer conv7/dw/scale
I1031 15:35:12.358150 31277 net.cpp:478] conv7/dw/scale <- conv7/dw
I1031 15:35:12.358155 31277 net.cpp:439] conv7/dw/scale -> conv7/dw (in-place)
I1031 15:35:12.358189 31277 layer_factory.hpp:77] Creating layer conv7/dw/scale
I1031 15:35:12.358314 31277 net.cpp:150] Setting up conv7/dw/scale
I1031 15:35:12.358325 31277 net.cpp:157] Top shape: 24 512 19 19 (4435968)
I1031 15:35:12.358326 31277 net.cpp:165] Memory required for data: 2937483296
I1031 15:35:12.358330 31277 layer_factory.hpp:77] Creating layer conv7/dw/relu
I1031 15:35:12.358335 31277 net.cpp:100] Creating Layer conv7/dw/relu
I1031 15:35:12.358337 31277 net.cpp:478] conv7/dw/relu <- conv7/dw
I1031 15:35:12.358342 31277 net.cpp:439] conv7/dw/relu -> conv7/dw (in-place)
I1031 15:35:12.358347 31277 net.cpp:150] Setting up conv7/dw/relu
I1031 15:35:12.358350 31277 net.cpp:157] Top shape: 24 512 19 19 (4435968)
I1031 15:35:12.358352 31277 net.cpp:165] Memory required for data: 2955227168
I1031 15:35:12.358355 31277 layer_factory.hpp:77] Creating layer conv7
I1031 15:35:12.358359 31277 net.cpp:100] Creating Layer conv7
I1031 15:35:12.358366 31277 net.cpp:478] conv7 <- conv7/dw
I1031 15:35:12.358371 31277 net.cpp:452] conv7 -> conv7
I1031 15:35:12.361781 31277 net.cpp:150] Setting up conv7
I1031 15:35:12.361816 31277 net.cpp:157] Top shape: 24 512 19 19 (4435968)
I1031 15:35:12.361819 31277 net.cpp:165] Memory required for data: 2972971040
I1031 15:35:12.361824 31277 layer_factory.hpp:77] Creating layer conv7/bn
I1031 15:35:12.361829 31277 net.cpp:100] Creating Layer conv7/bn
I1031 15:35:12.361848 31277 net.cpp:478] conv7/bn <- conv7
I1031 15:35:12.361852 31277 net.cpp:439] conv7/bn -> conv7 (in-place)
I1031 15:35:12.362102 31277 net.cpp:150] Setting up conv7/bn
I1031 15:35:12.362116 31277 net.cpp:157] Top shape: 24 512 19 19 (4435968)
I1031 15:35:12.362119 31277 net.cpp:165] Memory required for data: 2990714912
I1031 15:35:12.362141 31277 layer_factory.hpp:77] Creating layer conv7/scale
I1031 15:35:12.362148 31277 net.cpp:100] Creating Layer conv7/scale
I1031 15:35:12.362150 31277 net.cpp:478] conv7/scale <- conv7
I1031 15:35:12.362155 31277 net.cpp:439] conv7/scale -> conv7 (in-place)
I1031 15:35:12.362196 31277 layer_factory.hpp:77] Creating layer conv7/scale
I1031 15:35:12.362339 31277 net.cpp:150] Setting up conv7/scale
I1031 15:35:12.362349 31277 net.cpp:157] Top shape: 24 512 19 19 (4435968)
I1031 15:35:12.362350 31277 net.cpp:165] Memory required for data: 3008458784
I1031 15:35:12.362355 31277 layer_factory.hpp:77] Creating layer conv7/relu
I1031 15:35:12.362360 31277 net.cpp:100] Creating Layer conv7/relu
I1031 15:35:12.362362 31277 net.cpp:478] conv7/relu <- conv7
I1031 15:35:12.362367 31277 net.cpp:439] conv7/relu -> conv7 (in-place)
I1031 15:35:12.362372 31277 net.cpp:150] Setting up conv7/relu
I1031 15:35:12.362376 31277 net.cpp:157] Top shape: 24 512 19 19 (4435968)
I1031 15:35:12.362378 31277 net.cpp:165] Memory required for data: 3026202656
I1031 15:35:12.362380 31277 layer_factory.hpp:77] Creating layer conv8/dw
I1031 15:35:12.362388 31277 net.cpp:100] Creating Layer conv8/dw
I1031 15:35:12.362390 31277 net.cpp:478] conv8/dw <- conv7
I1031 15:35:12.362396 31277 net.cpp:452] conv8/dw -> conv8/dw
I1031 15:35:12.362571 31277 net.cpp:150] Setting up conv8/dw
I1031 15:35:12.362582 31277 net.cpp:157] Top shape: 24 512 19 19 (4435968)
I1031 15:35:12.362584 31277 net.cpp:165] Memory required for data: 3043946528
I1031 15:35:12.362588 31277 layer_factory.hpp:77] Creating layer conv8/dw/bn
I1031 15:35:12.362592 31277 net.cpp:100] Creating Layer conv8/dw/bn
I1031 15:35:12.362596 31277 net.cpp:478] conv8/dw/bn <- conv8/dw
I1031 15:35:12.362598 31277 net.cpp:439] conv8/dw/bn -> conv8/dw (in-place)
I1031 15:35:12.362741 31277 net.cpp:150] Setting up conv8/dw/bn
I1031 15:35:12.362751 31277 net.cpp:157] Top shape: 24 512 19 19 (4435968)
I1031 15:35:12.362752 31277 net.cpp:165] Memory required for data: 3061690400
I1031 15:35:12.362758 31277 layer_factory.hpp:77] Creating layer conv8/dw/scale
I1031 15:35:12.362773 31277 net.cpp:100] Creating Layer conv8/dw/scale
I1031 15:35:12.362778 31277 net.cpp:478] conv8/dw/scale <- conv8/dw
I1031 15:35:12.362783 31277 net.cpp:439] conv8/dw/scale -> conv8/dw (in-place)
I1031 15:35:12.362815 31277 layer_factory.hpp:77] Creating layer conv8/dw/scale
I1031 15:35:12.362952 31277 net.cpp:150] Setting up conv8/dw/scale
I1031 15:35:12.362962 31277 net.cpp:157] Top shape: 24 512 19 19 (4435968)
I1031 15:35:12.362964 31277 net.cpp:165] Memory required for data: 3079434272
I1031 15:35:12.362970 31277 layer_factory.hpp:77] Creating layer conv8/dw/relu
I1031 15:35:12.362974 31277 net.cpp:100] Creating Layer conv8/dw/relu
I1031 15:35:12.362977 31277 net.cpp:478] conv8/dw/relu <- conv8/dw
I1031 15:35:12.362982 31277 net.cpp:439] conv8/dw/relu -> conv8/dw (in-place)
I1031 15:35:12.362985 31277 net.cpp:150] Setting up conv8/dw/relu
I1031 15:35:12.362988 31277 net.cpp:157] Top shape: 24 512 19 19 (4435968)
I1031 15:35:12.362992 31277 net.cpp:165] Memory required for data: 3097178144
I1031 15:35:12.362993 31277 layer_factory.hpp:77] Creating layer conv8
I1031 15:35:12.362999 31277 net.cpp:100] Creating Layer conv8
I1031 15:35:12.363001 31277 net.cpp:478] conv8 <- conv8/dw
I1031 15:35:12.363008 31277 net.cpp:452] conv8 -> conv8
I1031 15:35:12.366603 31277 net.cpp:150] Setting up conv8
I1031 15:35:12.366622 31277 net.cpp:157] Top shape: 24 512 19 19 (4435968)
I1031 15:35:12.366626 31277 net.cpp:165] Memory required for data: 3114922016
I1031 15:35:12.366631 31277 layer_factory.hpp:77] Creating layer conv8/bn
I1031 15:35:12.366636 31277 net.cpp:100] Creating Layer conv8/bn
I1031 15:35:12.366638 31277 net.cpp:478] conv8/bn <- conv8
I1031 15:35:12.366642 31277 net.cpp:439] conv8/bn -> conv8 (in-place)
I1031 15:35:12.366796 31277 net.cpp:150] Setting up conv8/bn
I1031 15:35:12.366806 31277 net.cpp:157] Top shape: 24 512 19 19 (4435968)
I1031 15:35:12.366809 31277 net.cpp:165] Memory required for data: 3132665888
I1031 15:35:12.366816 31277 layer_factory.hpp:77] Creating layer conv8/scale
I1031 15:35:12.366821 31277 net.cpp:100] Creating Layer conv8/scale
I1031 15:35:12.366823 31277 net.cpp:478] conv8/scale <- conv8
I1031 15:35:12.366830 31277 net.cpp:439] conv8/scale -> conv8 (in-place)
I1031 15:35:12.366868 31277 layer_factory.hpp:77] Creating layer conv8/scale
I1031 15:35:12.366974 31277 net.cpp:150] Setting up conv8/scale
I1031 15:35:12.366986 31277 net.cpp:157] Top shape: 24 512 19 19 (4435968)
I1031 15:35:12.366988 31277 net.cpp:165] Memory required for data: 3150409760
I1031 15:35:12.366993 31277 layer_factory.hpp:77] Creating layer conv8/relu
I1031 15:35:12.366998 31277 net.cpp:100] Creating Layer conv8/relu
I1031 15:35:12.367002 31277 net.cpp:478] conv8/relu <- conv8
I1031 15:35:12.367004 31277 net.cpp:439] conv8/relu -> conv8 (in-place)
I1031 15:35:12.367009 31277 net.cpp:150] Setting up conv8/relu
I1031 15:35:12.367012 31277 net.cpp:157] Top shape: 24 512 19 19 (4435968)
I1031 15:35:12.367014 31277 net.cpp:165] Memory required for data: 3168153632
I1031 15:35:12.367017 31277 layer_factory.hpp:77] Creating layer conv9/dw
I1031 15:35:12.367025 31277 net.cpp:100] Creating Layer conv9/dw
I1031 15:35:12.367030 31277 net.cpp:478] conv9/dw <- conv8
I1031 15:35:12.367036 31277 net.cpp:452] conv9/dw -> conv9/dw
I1031 15:35:12.367259 31277 net.cpp:150] Setting up conv9/dw
I1031 15:35:12.367270 31277 net.cpp:157] Top shape: 24 512 19 19 (4435968)
I1031 15:35:12.367274 31277 net.cpp:165] Memory required for data: 3185897504
I1031 15:35:12.367277 31277 layer_factory.hpp:77] Creating layer conv9/dw/bn
I1031 15:35:12.367281 31277 net.cpp:100] Creating Layer conv9/dw/bn
I1031 15:35:12.367285 31277 net.cpp:478] conv9/dw/bn <- conv9/dw
I1031 15:35:12.367291 31277 net.cpp:439] conv9/dw/bn -> conv9/dw (in-place)
I1031 15:35:12.367445 31277 net.cpp:150] Setting up conv9/dw/bn
I1031 15:35:12.367455 31277 net.cpp:157] Top shape: 24 512 19 19 (4435968)
I1031 15:35:12.367458 31277 net.cpp:165] Memory required for data: 3203641376
I1031 15:35:12.367480 31277 layer_factory.hpp:77] Creating layer conv9/dw/scale
I1031 15:35:12.367485 31277 net.cpp:100] Creating Layer conv9/dw/scale
I1031 15:35:12.367487 31277 net.cpp:478] conv9/dw/scale <- conv9/dw
I1031 15:35:12.367492 31277 net.cpp:439] conv9/dw/scale -> conv9/dw (in-place)
I1031 15:35:12.367527 31277 layer_factory.hpp:77] Creating layer conv9/dw/scale
I1031 15:35:12.367643 31277 net.cpp:150] Setting up conv9/dw/scale
I1031 15:35:12.367655 31277 net.cpp:157] Top shape: 24 512 19 19 (4435968)
I1031 15:35:12.367657 31277 net.cpp:165] Memory required for data: 3221385248
I1031 15:35:12.367662 31277 layer_factory.hpp:77] Creating layer conv9/dw/relu
I1031 15:35:12.367666 31277 net.cpp:100] Creating Layer conv9/dw/relu
I1031 15:35:12.367669 31277 net.cpp:478] conv9/dw/relu <- conv9/dw
I1031 15:35:12.367674 31277 net.cpp:439] conv9/dw/relu -> conv9/dw (in-place)
I1031 15:35:12.367679 31277 net.cpp:150] Setting up conv9/dw/relu
I1031 15:35:12.367684 31277 net.cpp:157] Top shape: 24 512 19 19 (4435968)
I1031 15:35:12.367686 31277 net.cpp:165] Memory required for data: 3239129120
I1031 15:35:12.367688 31277 layer_factory.hpp:77] Creating layer conv9
I1031 15:35:12.367694 31277 net.cpp:100] Creating Layer conv9
I1031 15:35:12.367698 31277 net.cpp:478] conv9 <- conv9/dw
I1031 15:35:12.367702 31277 net.cpp:452] conv9 -> conv9
I1031 15:35:12.371136 31277 net.cpp:150] Setting up conv9
I1031 15:35:12.371155 31277 net.cpp:157] Top shape: 24 512 19 19 (4435968)
I1031 15:35:12.371158 31277 net.cpp:165] Memory required for data: 3256872992
I1031 15:35:12.371162 31277 layer_factory.hpp:77] Creating layer conv9/bn
I1031 15:35:12.371170 31277 net.cpp:100] Creating Layer conv9/bn
I1031 15:35:12.371172 31277 net.cpp:478] conv9/bn <- conv9
I1031 15:35:12.371176 31277 net.cpp:439] conv9/bn -> conv9 (in-place)
I1031 15:35:12.371343 31277 net.cpp:150] Setting up conv9/bn
I1031 15:35:12.371354 31277 net.cpp:157] Top shape: 24 512 19 19 (4435968)
I1031 15:35:12.371356 31277 net.cpp:165] Memory required for data: 3274616864
I1031 15:35:12.371362 31277 layer_factory.hpp:77] Creating layer conv9/scale
I1031 15:35:12.371371 31277 net.cpp:100] Creating Layer conv9/scale
I1031 15:35:12.371376 31277 net.cpp:478] conv9/scale <- conv9
I1031 15:35:12.371381 31277 net.cpp:439] conv9/scale -> conv9 (in-place)
I1031 15:35:12.371418 31277 layer_factory.hpp:77] Creating layer conv9/scale
I1031 15:35:12.371512 31277 net.cpp:150] Setting up conv9/scale
I1031 15:35:12.371522 31277 net.cpp:157] Top shape: 24 512 19 19 (4435968)
I1031 15:35:12.371526 31277 net.cpp:165] Memory required for data: 3292360736
I1031 15:35:12.371544 31277 layer_factory.hpp:77] Creating layer conv9/relu
I1031 15:35:12.371549 31277 net.cpp:100] Creating Layer conv9/relu
I1031 15:35:12.371551 31277 net.cpp:478] conv9/relu <- conv9
I1031 15:35:12.371556 31277 net.cpp:439] conv9/relu -> conv9 (in-place)
I1031 15:35:12.371562 31277 net.cpp:150] Setting up conv9/relu
I1031 15:35:12.371564 31277 net.cpp:157] Top shape: 24 512 19 19 (4435968)
I1031 15:35:12.371567 31277 net.cpp:165] Memory required for data: 3310104608
I1031 15:35:12.371568 31277 layer_factory.hpp:77] Creating layer conv10/dw
I1031 15:35:12.371574 31277 net.cpp:100] Creating Layer conv10/dw
I1031 15:35:12.371577 31277 net.cpp:478] conv10/dw <- conv9
I1031 15:35:12.371582 31277 net.cpp:452] conv10/dw -> conv10/dw
I1031 15:35:12.371791 31277 net.cpp:150] Setting up conv10/dw
I1031 15:35:12.371798 31277 net.cpp:157] Top shape: 24 512 19 19 (4435968)
I1031 15:35:12.371799 31277 net.cpp:165] Memory required for data: 3327848480
I1031 15:35:12.371803 31277 layer_factory.hpp:77] Creating layer conv10/dw/bn
I1031 15:35:12.371807 31277 net.cpp:100] Creating Layer conv10/dw/bn
I1031 15:35:12.371810 31277 net.cpp:478] conv10/dw/bn <- conv10/dw
I1031 15:35:12.371814 31277 net.cpp:439] conv10/dw/bn -> conv10/dw (in-place)
I1031 15:35:12.371960 31277 net.cpp:150] Setting up conv10/dw/bn
I1031 15:35:12.371966 31277 net.cpp:157] Top shape: 24 512 19 19 (4435968)
I1031 15:35:12.371969 31277 net.cpp:165] Memory required for data: 3345592352
I1031 15:35:12.371989 31277 layer_factory.hpp:77] Creating layer conv10/dw/scale
I1031 15:35:12.371994 31277 net.cpp:100] Creating Layer conv10/dw/scale
I1031 15:35:12.371997 31277 net.cpp:478] conv10/dw/scale <- conv10/dw
I1031 15:35:12.372001 31277 net.cpp:439] conv10/dw/scale -> conv10/dw (in-place)
I1031 15:35:12.372056 31277 layer_factory.hpp:77] Creating layer conv10/dw/scale
I1031 15:35:12.372155 31277 net.cpp:150] Setting up conv10/dw/scale
I1031 15:35:12.372161 31277 net.cpp:157] Top shape: 24 512 19 19 (4435968)
I1031 15:35:12.372164 31277 net.cpp:165] Memory required for data: 3363336224
I1031 15:35:12.372167 31277 layer_factory.hpp:77] Creating layer conv10/dw/relu
I1031 15:35:12.372186 31277 net.cpp:100] Creating Layer conv10/dw/relu
I1031 15:35:12.372189 31277 net.cpp:478] conv10/dw/relu <- conv10/dw
I1031 15:35:12.372195 31277 net.cpp:439] conv10/dw/relu -> conv10/dw (in-place)
I1031 15:35:12.372198 31277 net.cpp:150] Setting up conv10/dw/relu
I1031 15:35:12.372202 31277 net.cpp:157] Top shape: 24 512 19 19 (4435968)
I1031 15:35:12.372205 31277 net.cpp:165] Memory required for data: 3381080096
I1031 15:35:12.372206 31277 layer_factory.hpp:77] Creating layer conv10
I1031 15:35:12.372216 31277 net.cpp:100] Creating Layer conv10
I1031 15:35:12.372218 31277 net.cpp:478] conv10 <- conv10/dw
I1031 15:35:12.372223 31277 net.cpp:452] conv10 -> conv10
I1031 15:35:12.375820 31277 net.cpp:150] Setting up conv10
I1031 15:35:12.375833 31277 net.cpp:157] Top shape: 24 512 19 19 (4435968)
I1031 15:35:12.375835 31277 net.cpp:165] Memory required for data: 3398823968
I1031 15:35:12.375840 31277 layer_factory.hpp:77] Creating layer conv10/bn
I1031 15:35:12.375846 31277 net.cpp:100] Creating Layer conv10/bn
I1031 15:35:12.375849 31277 net.cpp:478] conv10/bn <- conv10
I1031 15:35:12.375855 31277 net.cpp:439] conv10/bn -> conv10 (in-place)
I1031 15:35:12.376011 31277 net.cpp:150] Setting up conv10/bn
I1031 15:35:12.376016 31277 net.cpp:157] Top shape: 24 512 19 19 (4435968)
I1031 15:35:12.376019 31277 net.cpp:165] Memory required for data: 3416567840
I1031 15:35:12.376024 31277 layer_factory.hpp:77] Creating layer conv10/scale
I1031 15:35:12.376030 31277 net.cpp:100] Creating Layer conv10/scale
I1031 15:35:12.376032 31277 net.cpp:478] conv10/scale <- conv10
I1031 15:35:12.376039 31277 net.cpp:439] conv10/scale -> conv10 (in-place)
I1031 15:35:12.376081 31277 layer_factory.hpp:77] Creating layer conv10/scale
I1031 15:35:12.376171 31277 net.cpp:150] Setting up conv10/scale
I1031 15:35:12.376176 31277 net.cpp:157] Top shape: 24 512 19 19 (4435968)
I1031 15:35:12.376178 31277 net.cpp:165] Memory required for data: 3434311712
I1031 15:35:12.376183 31277 layer_factory.hpp:77] Creating layer conv10/relu
I1031 15:35:12.376188 31277 net.cpp:100] Creating Layer conv10/relu
I1031 15:35:12.376190 31277 net.cpp:478] conv10/relu <- conv10
I1031 15:35:12.376194 31277 net.cpp:439] conv10/relu -> conv10 (in-place)
I1031 15:35:12.376199 31277 net.cpp:150] Setting up conv10/relu
I1031 15:35:12.376202 31277 net.cpp:157] Top shape: 24 512 19 19 (4435968)
I1031 15:35:12.376205 31277 net.cpp:165] Memory required for data: 3452055584
I1031 15:35:12.376207 31277 layer_factory.hpp:77] Creating layer conv11/dw
I1031 15:35:12.376215 31277 net.cpp:100] Creating Layer conv11/dw
I1031 15:35:12.376217 31277 net.cpp:478] conv11/dw <- conv10
I1031 15:35:12.376221 31277 net.cpp:452] conv11/dw -> conv11/dw
I1031 15:35:12.376410 31277 net.cpp:150] Setting up conv11/dw
I1031 15:35:12.376417 31277 net.cpp:157] Top shape: 24 512 19 19 (4435968)
I1031 15:35:12.376420 31277 net.cpp:165] Memory required for data: 3469799456
I1031 15:35:12.376422 31277 layer_factory.hpp:77] Creating layer conv11/dw/bn
I1031 15:35:12.376427 31277 net.cpp:100] Creating Layer conv11/dw/bn
I1031 15:35:12.376430 31277 net.cpp:478] conv11/dw/bn <- conv11/dw
I1031 15:35:12.376435 31277 net.cpp:439] conv11/dw/bn -> conv11/dw (in-place)
I1031 15:35:12.376580 31277 net.cpp:150] Setting up conv11/dw/bn
I1031 15:35:12.376586 31277 net.cpp:157] Top shape: 24 512 19 19 (4435968)
I1031 15:35:12.376588 31277 net.cpp:165] Memory required for data: 3487543328
I1031 15:35:12.376616 31277 layer_factory.hpp:77] Creating layer conv11/dw/scale
I1031 15:35:12.376621 31277 net.cpp:100] Creating Layer conv11/dw/scale
I1031 15:35:12.376624 31277 net.cpp:478] conv11/dw/scale <- conv11/dw
I1031 15:35:12.376631 31277 net.cpp:439] conv11/dw/scale -> conv11/dw (in-place)
I1031 15:35:12.376682 31277 layer_factory.hpp:77] Creating layer conv11/dw/scale
I1031 15:35:12.376768 31277 net.cpp:150] Setting up conv11/dw/scale
I1031 15:35:12.376775 31277 net.cpp:157] Top shape: 24 512 19 19 (4435968)
I1031 15:35:12.376776 31277 net.cpp:165] Memory required for data: 3505287200
I1031 15:35:12.376781 31277 layer_factory.hpp:77] Creating layer conv11/dw/relu
I1031 15:35:12.376787 31277 net.cpp:100] Creating Layer conv11/dw/relu
I1031 15:35:12.376790 31277 net.cpp:478] conv11/dw/relu <- conv11/dw
I1031 15:35:12.376793 31277 net.cpp:439] conv11/dw/relu -> conv11/dw (in-place)
I1031 15:35:12.376797 31277 net.cpp:150] Setting up conv11/dw/relu
I1031 15:35:12.376801 31277 net.cpp:157] Top shape: 24 512 19 19 (4435968)
I1031 15:35:12.376802 31277 net.cpp:165] Memory required for data: 3523031072
I1031 15:35:12.376804 31277 layer_factory.hpp:77] Creating layer conv11
I1031 15:35:12.376811 31277 net.cpp:100] Creating Layer conv11
I1031 15:35:12.376814 31277 net.cpp:478] conv11 <- conv11/dw
I1031 15:35:12.376818 31277 net.cpp:452] conv11 -> conv11
I1031 15:35:12.380501 31277 net.cpp:150] Setting up conv11
I1031 15:35:12.380513 31277 net.cpp:157] Top shape: 24 512 19 19 (4435968)
I1031 15:35:12.380517 31277 net.cpp:165] Memory required for data: 3540774944
I1031 15:35:12.380520 31277 layer_factory.hpp:77] Creating layer conv11/bn
I1031 15:35:12.380527 31277 net.cpp:100] Creating Layer conv11/bn
I1031 15:35:12.380529 31277 net.cpp:478] conv11/bn <- conv11
I1031 15:35:12.380534 31277 net.cpp:439] conv11/bn -> conv11 (in-place)
I1031 15:35:12.380690 31277 net.cpp:150] Setting up conv11/bn
I1031 15:35:12.380695 31277 net.cpp:157] Top shape: 24 512 19 19 (4435968)
I1031 15:35:12.380697 31277 net.cpp:165] Memory required for data: 3558518816
I1031 15:35:12.380703 31277 layer_factory.hpp:77] Creating layer conv11/scale
I1031 15:35:12.380708 31277 net.cpp:100] Creating Layer conv11/scale
I1031 15:35:12.380712 31277 net.cpp:478] conv11/scale <- conv11
I1031 15:35:12.380717 31277 net.cpp:439] conv11/scale -> conv11 (in-place)
I1031 15:35:12.380751 31277 layer_factory.hpp:77] Creating layer conv11/scale
I1031 15:35:12.380838 31277 net.cpp:150] Setting up conv11/scale
I1031 15:35:12.380843 31277 net.cpp:157] Top shape: 24 512 19 19 (4435968)
I1031 15:35:12.380846 31277 net.cpp:165] Memory required for data: 3576262688
I1031 15:35:12.380851 31277 layer_factory.hpp:77] Creating layer conv11/relu
I1031 15:35:12.380854 31277 net.cpp:100] Creating Layer conv11/relu
I1031 15:35:12.380856 31277 net.cpp:478] conv11/relu <- conv11
I1031 15:35:12.380861 31277 net.cpp:439] conv11/relu -> conv11 (in-place)
I1031 15:35:12.380866 31277 net.cpp:150] Setting up conv11/relu
I1031 15:35:12.380869 31277 net.cpp:157] Top shape: 24 512 19 19 (4435968)
I1031 15:35:12.380872 31277 net.cpp:165] Memory required for data: 3594006560
I1031 15:35:12.380874 31277 layer_factory.hpp:77] Creating layer conv11_conv11/relu_0_split
I1031 15:35:12.380878 31277 net.cpp:100] Creating Layer conv11_conv11/relu_0_split
I1031 15:35:12.380880 31277 net.cpp:478] conv11_conv11/relu_0_split <- conv11
I1031 15:35:12.380885 31277 net.cpp:452] conv11_conv11/relu_0_split -> conv11_conv11/relu_0_split_0
I1031 15:35:12.380895 31277 net.cpp:452] conv11_conv11/relu_0_split -> conv11_conv11/relu_0_split_1
I1031 15:35:12.380901 31277 net.cpp:452] conv11_conv11/relu_0_split -> conv11_conv11/relu_0_split_2
I1031 15:35:12.380905 31277 net.cpp:452] conv11_conv11/relu_0_split -> conv11_conv11/relu_0_split_3
I1031 15:35:12.380954 31277 net.cpp:150] Setting up conv11_conv11/relu_0_split
I1031 15:35:12.380959 31277 net.cpp:157] Top shape: 24 512 19 19 (4435968)
I1031 15:35:12.380961 31277 net.cpp:157] Top shape: 24 512 19 19 (4435968)
I1031 15:35:12.380964 31277 net.cpp:157] Top shape: 24 512 19 19 (4435968)
I1031 15:35:12.380966 31277 net.cpp:157] Top shape: 24 512 19 19 (4435968)
I1031 15:35:12.380969 31277 net.cpp:165] Memory required for data: 3664982048
I1031 15:35:12.380971 31277 layer_factory.hpp:77] Creating layer conv12/dw
I1031 15:35:12.380978 31277 net.cpp:100] Creating Layer conv12/dw
I1031 15:35:12.380991 31277 net.cpp:478] conv12/dw <- conv11_conv11/relu_0_split_0
I1031 15:35:12.380996 31277 net.cpp:452] conv12/dw -> conv12/dw
I1031 15:35:12.381202 31277 net.cpp:150] Setting up conv12/dw
I1031 15:35:12.381211 31277 net.cpp:157] Top shape: 24 512 10 10 (1228800)
I1031 15:35:12.381212 31277 net.cpp:165] Memory required for data: 3669897248
I1031 15:35:12.381217 31277 layer_factory.hpp:77] Creating layer conv12/dw/bn
I1031 15:35:12.381223 31277 net.cpp:100] Creating Layer conv12/dw/bn
I1031 15:35:12.381227 31277 net.cpp:478] conv12/dw/bn <- conv12/dw
I1031 15:35:12.381230 31277 net.cpp:439] conv12/dw/bn -> conv12/dw (in-place)
I1031 15:35:12.381386 31277 net.cpp:150] Setting up conv12/dw/bn
I1031 15:35:12.381392 31277 net.cpp:157] Top shape: 24 512 10 10 (1228800)
I1031 15:35:12.381393 31277 net.cpp:165] Memory required for data: 3674812448
I1031 15:35:12.381398 31277 layer_factory.hpp:77] Creating layer conv12/dw/scale
I1031 15:35:12.381404 31277 net.cpp:100] Creating Layer conv12/dw/scale
I1031 15:35:12.381407 31277 net.cpp:478] conv12/dw/scale <- conv12/dw
I1031 15:35:12.381412 31277 net.cpp:439] conv12/dw/scale -> conv12/dw (in-place)
I1031 15:35:12.381441 31277 layer_factory.hpp:77] Creating layer conv12/dw/scale
I1031 15:35:12.381537 31277 net.cpp:150] Setting up conv12/dw/scale
I1031 15:35:12.381542 31277 net.cpp:157] Top shape: 24 512 10 10 (1228800)
I1031 15:35:12.381544 31277 net.cpp:165] Memory required for data: 3679727648
I1031 15:35:12.381549 31277 layer_factory.hpp:77] Creating layer conv12/dw/relu
I1031 15:35:12.381553 31277 net.cpp:100] Creating Layer conv12/dw/relu
I1031 15:35:12.381556 31277 net.cpp:478] conv12/dw/relu <- conv12/dw
I1031 15:35:12.381561 31277 net.cpp:439] conv12/dw/relu -> conv12/dw (in-place)
I1031 15:35:12.381566 31277 net.cpp:150] Setting up conv12/dw/relu
I1031 15:35:12.381568 31277 net.cpp:157] Top shape: 24 512 10 10 (1228800)
I1031 15:35:12.381570 31277 net.cpp:165] Memory required for data: 3684642848
I1031 15:35:12.381573 31277 layer_factory.hpp:77] Creating layer conv12
I1031 15:35:12.381579 31277 net.cpp:100] Creating Layer conv12
I1031 15:35:12.381582 31277 net.cpp:478] conv12 <- conv12/dw
I1031 15:35:12.381587 31277 net.cpp:452] conv12 -> conv12
I1031 15:35:12.387987 31277 net.cpp:150] Setting up conv12
I1031 15:35:12.388000 31277 net.cpp:157] Top shape: 24 1024 10 10 (2457600)
I1031 15:35:12.388002 31277 net.cpp:165] Memory required for data: 3694473248
I1031 15:35:12.388007 31277 layer_factory.hpp:77] Creating layer conv12/bn
I1031 15:35:12.388013 31277 net.cpp:100] Creating Layer conv12/bn
I1031 15:35:12.388016 31277 net.cpp:478] conv12/bn <- conv12
I1031 15:35:12.388021 31277 net.cpp:439] conv12/bn -> conv12 (in-place)
I1031 15:35:12.388187 31277 net.cpp:150] Setting up conv12/bn
I1031 15:35:12.388195 31277 net.cpp:157] Top shape: 24 1024 10 10 (2457600)
I1031 15:35:12.388196 31277 net.cpp:165] Memory required for data: 3704303648
I1031 15:35:12.388201 31277 layer_factory.hpp:77] Creating layer conv12/scale
I1031 15:35:12.388207 31277 net.cpp:100] Creating Layer conv12/scale
I1031 15:35:12.388211 31277 net.cpp:478] conv12/scale <- conv12
I1031 15:35:12.388216 31277 net.cpp:439] conv12/scale -> conv12 (in-place)
I1031 15:35:12.388248 31277 layer_factory.hpp:77] Creating layer conv12/scale
I1031 15:35:12.388358 31277 net.cpp:150] Setting up conv12/scale
I1031 15:35:12.388365 31277 net.cpp:157] Top shape: 24 1024 10 10 (2457600)
I1031 15:35:12.388366 31277 net.cpp:165] Memory required for data: 3714134048
I1031 15:35:12.388371 31277 layer_factory.hpp:77] Creating layer conv12/relu
I1031 15:35:12.388375 31277 net.cpp:100] Creating Layer conv12/relu
I1031 15:35:12.388378 31277 net.cpp:478] conv12/relu <- conv12
I1031 15:35:12.388381 31277 net.cpp:439] conv12/relu -> conv12 (in-place)
I1031 15:35:12.388386 31277 net.cpp:150] Setting up conv12/relu
I1031 15:35:12.388389 31277 net.cpp:157] Top shape: 24 1024 10 10 (2457600)
I1031 15:35:12.388391 31277 net.cpp:165] Memory required for data: 3723964448
I1031 15:35:12.388393 31277 layer_factory.hpp:77] Creating layer conv13/dw
I1031 15:35:12.388417 31277 net.cpp:100] Creating Layer conv13/dw
I1031 15:35:12.388422 31277 net.cpp:478] conv13/dw <- conv12
I1031 15:35:12.388427 31277 net.cpp:452] conv13/dw -> conv13/dw
I1031 15:35:12.388674 31277 net.cpp:150] Setting up conv13/dw
I1031 15:35:12.388681 31277 net.cpp:157] Top shape: 24 1024 10 10 (2457600)
I1031 15:35:12.388684 31277 net.cpp:165] Memory required for data: 3733794848
I1031 15:35:12.388687 31277 layer_factory.hpp:77] Creating layer conv13/dw/bn
I1031 15:35:12.388692 31277 net.cpp:100] Creating Layer conv13/dw/bn
I1031 15:35:12.388695 31277 net.cpp:478] conv13/dw/bn <- conv13/dw
I1031 15:35:12.388700 31277 net.cpp:439] conv13/dw/bn -> conv13/dw (in-place)
I1031 15:35:12.388852 31277 net.cpp:150] Setting up conv13/dw/bn
I1031 15:35:12.388859 31277 net.cpp:157] Top shape: 24 1024 10 10 (2457600)
I1031 15:35:12.388860 31277 net.cpp:165] Memory required for data: 3743625248
I1031 15:35:12.388865 31277 layer_factory.hpp:77] Creating layer conv13/dw/scale
I1031 15:35:12.388870 31277 net.cpp:100] Creating Layer conv13/dw/scale
I1031 15:35:12.388873 31277 net.cpp:478] conv13/dw/scale <- conv13/dw
I1031 15:35:12.388878 31277 net.cpp:439] conv13/dw/scale -> conv13/dw (in-place)
I1031 15:35:12.388907 31277 layer_factory.hpp:77] Creating layer conv13/dw/scale
I1031 15:35:12.388998 31277 net.cpp:150] Setting up conv13/dw/scale
I1031 15:35:12.389003 31277 net.cpp:157] Top shape: 24 1024 10 10 (2457600)
I1031 15:35:12.389005 31277 net.cpp:165] Memory required for data: 3753455648
I1031 15:35:12.389010 31277 layer_factory.hpp:77] Creating layer conv13/dw/relu
I1031 15:35:12.389014 31277 net.cpp:100] Creating Layer conv13/dw/relu
I1031 15:35:12.389016 31277 net.cpp:478] conv13/dw/relu <- conv13/dw
I1031 15:35:12.389021 31277 net.cpp:439] conv13/dw/relu -> conv13/dw (in-place)
I1031 15:35:12.389026 31277 net.cpp:150] Setting up conv13/dw/relu
I1031 15:35:12.389029 31277 net.cpp:157] Top shape: 24 1024 10 10 (2457600)
I1031 15:35:12.389031 31277 net.cpp:165] Memory required for data: 3763286048
I1031 15:35:12.389034 31277 layer_factory.hpp:77] Creating layer conv13
I1031 15:35:12.389040 31277 net.cpp:100] Creating Layer conv13
I1031 15:35:12.389042 31277 net.cpp:478] conv13 <- conv13/dw
I1031 15:35:12.389052 31277 net.cpp:452] conv13 -> conv13
I1031 15:35:12.400642 31277 net.cpp:150] Setting up conv13
I1031 15:35:12.400656 31277 net.cpp:157] Top shape: 24 1024 10 10 (2457600)
I1031 15:35:12.400658 31277 net.cpp:165] Memory required for data: 3773116448
I1031 15:35:12.400663 31277 layer_factory.hpp:77] Creating layer conv13/bn
I1031 15:35:12.400671 31277 net.cpp:100] Creating Layer conv13/bn
I1031 15:35:12.400674 31277 net.cpp:478] conv13/bn <- conv13
I1031 15:35:12.400678 31277 net.cpp:439] conv13/bn -> conv13 (in-place)
I1031 15:35:12.400831 31277 net.cpp:150] Setting up conv13/bn
I1031 15:35:12.400837 31277 net.cpp:157] Top shape: 24 1024 10 10 (2457600)
I1031 15:35:12.400840 31277 net.cpp:165] Memory required for data: 3782946848
I1031 15:35:12.400845 31277 layer_factory.hpp:77] Creating layer conv13/scale
I1031 15:35:12.400854 31277 net.cpp:100] Creating Layer conv13/scale
I1031 15:35:12.400857 31277 net.cpp:478] conv13/scale <- conv13
I1031 15:35:12.400861 31277 net.cpp:439] conv13/scale -> conv13 (in-place)
I1031 15:35:12.400905 31277 layer_factory.hpp:77] Creating layer conv13/scale
I1031 15:35:12.401001 31277 net.cpp:150] Setting up conv13/scale
I1031 15:35:12.401007 31277 net.cpp:157] Top shape: 24 1024 10 10 (2457600)
I1031 15:35:12.401010 31277 net.cpp:165] Memory required for data: 3792777248
I1031 15:35:12.401013 31277 layer_factory.hpp:77] Creating layer conv13/relu
I1031 15:35:12.401017 31277 net.cpp:100] Creating Layer conv13/relu
I1031 15:35:12.401021 31277 net.cpp:478] conv13/relu <- conv13
I1031 15:35:12.401026 31277 net.cpp:439] conv13/relu -> conv13 (in-place)
I1031 15:35:12.401029 31277 net.cpp:150] Setting up conv13/relu
I1031 15:35:12.401033 31277 net.cpp:157] Top shape: 24 1024 10 10 (2457600)
I1031 15:35:12.401036 31277 net.cpp:165] Memory required for data: 3802607648
I1031 15:35:12.401054 31277 layer_factory.hpp:77] Creating layer conv13_conv13/relu_0_split
I1031 15:35:12.401060 31277 net.cpp:100] Creating Layer conv13_conv13/relu_0_split
I1031 15:35:12.401062 31277 net.cpp:478] conv13_conv13/relu_0_split <- conv13
I1031 15:35:12.401068 31277 net.cpp:452] conv13_conv13/relu_0_split -> conv13_conv13/relu_0_split_0
I1031 15:35:12.401074 31277 net.cpp:452] conv13_conv13/relu_0_split -> conv13_conv13/relu_0_split_1
I1031 15:35:12.401079 31277 net.cpp:452] conv13_conv13/relu_0_split -> conv13_conv13/relu_0_split_2
I1031 15:35:12.401084 31277 net.cpp:452] conv13_conv13/relu_0_split -> conv13_conv13/relu_0_split_3
I1031 15:35:12.401151 31277 net.cpp:150] Setting up conv13_conv13/relu_0_split
I1031 15:35:12.401156 31277 net.cpp:157] Top shape: 24 1024 10 10 (2457600)
I1031 15:35:12.401160 31277 net.cpp:157] Top shape: 24 1024 10 10 (2457600)
I1031 15:35:12.401161 31277 net.cpp:157] Top shape: 24 1024 10 10 (2457600)
I1031 15:35:12.401165 31277 net.cpp:157] Top shape: 24 1024 10 10 (2457600)
I1031 15:35:12.401166 31277 net.cpp:165] Memory required for data: 3841929248
I1031 15:35:12.401170 31277 layer_factory.hpp:77] Creating layer conv14_1
I1031 15:35:12.401175 31277 net.cpp:100] Creating Layer conv14_1
I1031 15:35:12.401178 31277 net.cpp:478] conv14_1 <- conv13_conv13/relu_0_split_0
I1031 15:35:12.401183 31277 net.cpp:452] conv14_1 -> conv14_1
I1031 15:35:12.403460 31299 blocking_queue.cpp:50] Waiting for data
I1031 15:35:12.405031 31277 net.cpp:150] Setting up conv14_1
I1031 15:35:12.405048 31277 net.cpp:157] Top shape: 24 256 10 10 (614400)
I1031 15:35:12.405051 31277 net.cpp:165] Memory required for data: 3844386848
I1031 15:35:12.405056 31277 layer_factory.hpp:77] Creating layer conv14_1/bn
I1031 15:35:12.405062 31277 net.cpp:100] Creating Layer conv14_1/bn
I1031 15:35:12.405066 31277 net.cpp:478] conv14_1/bn <- conv14_1
I1031 15:35:12.405071 31277 net.cpp:439] conv14_1/bn -> conv14_1 (in-place)
I1031 15:35:12.405236 31277 net.cpp:150] Setting up conv14_1/bn
I1031 15:35:12.405244 31277 net.cpp:157] Top shape: 24 256 10 10 (614400)
I1031 15:35:12.405246 31277 net.cpp:165] Memory required for data: 3846844448
I1031 15:35:12.405253 31277 layer_factory.hpp:77] Creating layer conv14_1/scale
I1031 15:35:12.405259 31277 net.cpp:100] Creating Layer conv14_1/scale
I1031 15:35:12.405261 31277 net.cpp:478] conv14_1/scale <- conv14_1
I1031 15:35:12.405266 31277 net.cpp:439] conv14_1/scale -> conv14_1 (in-place)
I1031 15:35:12.405303 31277 layer_factory.hpp:77] Creating layer conv14_1/scale
I1031 15:35:12.405392 31277 net.cpp:150] Setting up conv14_1/scale
I1031 15:35:12.405400 31277 net.cpp:157] Top shape: 24 256 10 10 (614400)
I1031 15:35:12.405401 31277 net.cpp:165] Memory required for data: 3849302048
I1031 15:35:12.405406 31277 layer_factory.hpp:77] Creating layer conv14_1/relu
I1031 15:35:12.405413 31277 net.cpp:100] Creating Layer conv14_1/relu
I1031 15:35:12.405416 31277 net.cpp:478] conv14_1/relu <- conv14_1
I1031 15:35:12.405419 31277 net.cpp:439] conv14_1/relu -> conv14_1 (in-place)
I1031 15:35:12.405424 31277 net.cpp:150] Setting up conv14_1/relu
I1031 15:35:12.405427 31277 net.cpp:157] Top shape: 24 256 10 10 (614400)
I1031 15:35:12.405429 31277 net.cpp:165] Memory required for data: 3851759648
I1031 15:35:12.405432 31277 layer_factory.hpp:77] Creating layer conv14_2
I1031 15:35:12.405439 31277 net.cpp:100] Creating Layer conv14_2
I1031 15:35:12.405442 31277 net.cpp:478] conv14_2 <- conv14_1
I1031 15:35:12.405447 31277 net.cpp:452] conv14_2 -> conv14_2
I1031 15:35:12.417587 31277 net.cpp:150] Setting up conv14_2
I1031 15:35:12.417598 31277 net.cpp:157] Top shape: 24 512 5 5 (307200)
I1031 15:35:12.417601 31277 net.cpp:165] Memory required for data: 3852988448
I1031 15:35:12.417605 31277 layer_factory.hpp:77] Creating layer conv14_2/bn
I1031 15:35:12.417610 31277 net.cpp:100] Creating Layer conv14_2/bn
I1031 15:35:12.417614 31277 net.cpp:478] conv14_2/bn <- conv14_2
I1031 15:35:12.417619 31277 net.cpp:439] conv14_2/bn -> conv14_2 (in-place)
I1031 15:35:12.417848 31277 net.cpp:150] Setting up conv14_2/bn
I1031 15:35:12.417865 31277 net.cpp:157] Top shape: 24 512 5 5 (307200)
I1031 15:35:12.417866 31277 net.cpp:165] Memory required for data: 3854217248
I1031 15:35:12.417873 31277 layer_factory.hpp:77] Creating layer conv14_2/scale
I1031 15:35:12.417878 31277 net.cpp:100] Creating Layer conv14_2/scale
I1031 15:35:12.417881 31277 net.cpp:478] conv14_2/scale <- conv14_2
I1031 15:35:12.417886 31277 net.cpp:439] conv14_2/scale -> conv14_2 (in-place)
I1031 15:35:12.417920 31277 layer_factory.hpp:77] Creating layer conv14_2/scale
I1031 15:35:12.418048 31277 net.cpp:150] Setting up conv14_2/scale
I1031 15:35:12.418056 31277 net.cpp:157] Top shape: 24 512 5 5 (307200)
I1031 15:35:12.418058 31277 net.cpp:165] Memory required for data: 3855446048
I1031 15:35:12.418062 31277 layer_factory.hpp:77] Creating layer conv14_2/relu
I1031 15:35:12.418067 31277 net.cpp:100] Creating Layer conv14_2/relu
I1031 15:35:12.418069 31277 net.cpp:478] conv14_2/relu <- conv14_2
I1031 15:35:12.418074 31277 net.cpp:439] conv14_2/relu -> conv14_2 (in-place)
I1031 15:35:12.418079 31277 net.cpp:150] Setting up conv14_2/relu
I1031 15:35:12.418082 31277 net.cpp:157] Top shape: 24 512 5 5 (307200)
I1031 15:35:12.418084 31277 net.cpp:165] Memory required for data: 3856674848
I1031 15:35:12.418087 31277 layer_factory.hpp:77] Creating layer conv14_2_conv14_2/relu_0_split
I1031 15:35:12.418090 31277 net.cpp:100] Creating Layer conv14_2_conv14_2/relu_0_split
I1031 15:35:12.418092 31277 net.cpp:478] conv14_2_conv14_2/relu_0_split <- conv14_2
I1031 15:35:12.418097 31277 net.cpp:452] conv14_2_conv14_2/relu_0_split -> conv14_2_conv14_2/relu_0_split_0
I1031 15:35:12.418102 31277 net.cpp:452] conv14_2_conv14_2/relu_0_split -> conv14_2_conv14_2/relu_0_split_1
I1031 15:35:12.418107 31277 net.cpp:452] conv14_2_conv14_2/relu_0_split -> conv14_2_conv14_2/relu_0_split_2
I1031 15:35:12.418112 31277 net.cpp:452] conv14_2_conv14_2/relu_0_split -> conv14_2_conv14_2/relu_0_split_3
I1031 15:35:12.418159 31277 net.cpp:150] Setting up conv14_2_conv14_2/relu_0_split
I1031 15:35:12.418164 31277 net.cpp:157] Top shape: 24 512 5 5 (307200)
I1031 15:35:12.418165 31277 net.cpp:157] Top shape: 24 512 5 5 (307200)
I1031 15:35:12.418169 31277 net.cpp:157] Top shape: 24 512 5 5 (307200)
I1031 15:35:12.418171 31277 net.cpp:157] Top shape: 24 512 5 5 (307200)
I1031 15:35:12.418172 31277 net.cpp:165] Memory required for data: 3861590048
I1031 15:35:12.418175 31277 layer_factory.hpp:77] Creating layer conv15_1
I1031 15:35:12.418181 31277 net.cpp:100] Creating Layer conv15_1
I1031 15:35:12.418185 31277 net.cpp:478] conv15_1 <- conv14_2_conv14_2/relu_0_split_0
I1031 15:35:12.418190 31277 net.cpp:452] conv15_1 -> conv15_1
I1031 15:35:12.418862 31277 net.cpp:150] Setting up conv15_1
I1031 15:35:12.418869 31277 net.cpp:157] Top shape: 24 128 5 5 (76800)
I1031 15:35:12.418871 31277 net.cpp:165] Memory required for data: 3861897248
I1031 15:35:12.418874 31277 layer_factory.hpp:77] Creating layer conv15_1/bn
I1031 15:35:12.418879 31277 net.cpp:100] Creating Layer conv15_1/bn
I1031 15:35:12.418881 31277 net.cpp:478] conv15_1/bn <- conv15_1
I1031 15:35:12.418884 31277 net.cpp:439] conv15_1/bn -> conv15_1 (in-place)
I1031 15:35:12.419020 31277 net.cpp:150] Setting up conv15_1/bn
I1031 15:35:12.419024 31277 net.cpp:157] Top shape: 24 128 5 5 (76800)
I1031 15:35:12.419026 31277 net.cpp:165] Memory required for data: 3862204448
I1031 15:35:12.419031 31277 layer_factory.hpp:77] Creating layer conv15_1/scale
I1031 15:35:12.419036 31277 net.cpp:100] Creating Layer conv15_1/scale
I1031 15:35:12.419039 31277 net.cpp:478] conv15_1/scale <- conv15_1
I1031 15:35:12.419049 31277 net.cpp:439] conv15_1/scale -> conv15_1 (in-place)
I1031 15:35:12.419082 31277 layer_factory.hpp:77] Creating layer conv15_1/scale
I1031 15:35:12.419167 31277 net.cpp:150] Setting up conv15_1/scale
I1031 15:35:12.419172 31277 net.cpp:157] Top shape: 24 128 5 5 (76800)
I1031 15:35:12.419173 31277 net.cpp:165] Memory required for data: 3862511648
I1031 15:35:12.419178 31277 layer_factory.hpp:77] Creating layer conv15_1/relu
I1031 15:35:12.419190 31277 net.cpp:100] Creating Layer conv15_1/relu
I1031 15:35:12.419193 31277 net.cpp:478] conv15_1/relu <- conv15_1
I1031 15:35:12.419198 31277 net.cpp:439] conv15_1/relu -> conv15_1 (in-place)
I1031 15:35:12.419201 31277 net.cpp:150] Setting up conv15_1/relu
I1031 15:35:12.419204 31277 net.cpp:157] Top shape: 24 128 5 5 (76800)
I1031 15:35:12.419206 31277 net.cpp:165] Memory required for data: 3862818848
I1031 15:35:12.419209 31277 layer_factory.hpp:77] Creating layer conv15_2
I1031 15:35:12.419215 31277 net.cpp:100] Creating Layer conv15_2
I1031 15:35:12.419219 31277 net.cpp:478] conv15_2 <- conv15_1
I1031 15:35:12.419224 31277 net.cpp:452] conv15_2 -> conv15_2
I1031 15:35:12.422952 31277 net.cpp:150] Setting up conv15_2
I1031 15:35:12.422965 31277 net.cpp:157] Top shape: 24 256 3 3 (55296)
I1031 15:35:12.422966 31277 net.cpp:165] Memory required for data: 3863040032
I1031 15:35:12.422971 31277 layer_factory.hpp:77] Creating layer conv15_2/bn
I1031 15:35:12.422977 31277 net.cpp:100] Creating Layer conv15_2/bn
I1031 15:35:12.422981 31277 net.cpp:478] conv15_2/bn <- conv15_2
I1031 15:35:12.422984 31277 net.cpp:439] conv15_2/bn -> conv15_2 (in-place)
I1031 15:35:12.423147 31277 net.cpp:150] Setting up conv15_2/bn
I1031 15:35:12.423153 31277 net.cpp:157] Top shape: 24 256 3 3 (55296)
I1031 15:35:12.423156 31277 net.cpp:165] Memory required for data: 3863261216
I1031 15:35:12.423161 31277 layer_factory.hpp:77] Creating layer conv15_2/scale
I1031 15:35:12.423167 31277 net.cpp:100] Creating Layer conv15_2/scale
I1031 15:35:12.423171 31277 net.cpp:478] conv15_2/scale <- conv15_2
I1031 15:35:12.423173 31277 net.cpp:439] conv15_2/scale -> conv15_2 (in-place)
I1031 15:35:12.423205 31277 layer_factory.hpp:77] Creating layer conv15_2/scale
I1031 15:35:12.423285 31277 net.cpp:150] Setting up conv15_2/scale
I1031 15:35:12.423290 31277 net.cpp:157] Top shape: 24 256 3 3 (55296)
I1031 15:35:12.423291 31277 net.cpp:165] Memory required for data: 3863482400
I1031 15:35:12.423296 31277 layer_factory.hpp:77] Creating layer conv15_2/relu
I1031 15:35:12.423310 31277 net.cpp:100] Creating Layer conv15_2/relu
I1031 15:35:12.423312 31277 net.cpp:478] conv15_2/relu <- conv15_2
I1031 15:35:12.423316 31277 net.cpp:439] conv15_2/relu -> conv15_2 (in-place)
I1031 15:35:12.423319 31277 net.cpp:150] Setting up conv15_2/relu
I1031 15:35:12.423322 31277 net.cpp:157] Top shape: 24 256 3 3 (55296)
I1031 15:35:12.423324 31277 net.cpp:165] Memory required for data: 3863703584
I1031 15:35:12.423327 31277 layer_factory.hpp:77] Creating layer conv15_2_conv15_2/relu_0_split
I1031 15:35:12.423331 31277 net.cpp:100] Creating Layer conv15_2_conv15_2/relu_0_split
I1031 15:35:12.423334 31277 net.cpp:478] conv15_2_conv15_2/relu_0_split <- conv15_2
I1031 15:35:12.423337 31277 net.cpp:452] conv15_2_conv15_2/relu_0_split -> conv15_2_conv15_2/relu_0_split_0
I1031 15:35:12.423342 31277 net.cpp:452] conv15_2_conv15_2/relu_0_split -> conv15_2_conv15_2/relu_0_split_1
I1031 15:35:12.423347 31277 net.cpp:452] conv15_2_conv15_2/relu_0_split -> conv15_2_conv15_2/relu_0_split_2
I1031 15:35:12.423352 31277 net.cpp:452] conv15_2_conv15_2/relu_0_split -> conv15_2_conv15_2/relu_0_split_3
I1031 15:35:12.423396 31277 net.cpp:150] Setting up conv15_2_conv15_2/relu_0_split
I1031 15:35:12.423403 31277 net.cpp:157] Top shape: 24 256 3 3 (55296)
I1031 15:35:12.423405 31277 net.cpp:157] Top shape: 24 256 3 3 (55296)
I1031 15:35:12.423408 31277 net.cpp:157] Top shape: 24 256 3 3 (55296)
I1031 15:35:12.423410 31277 net.cpp:157] Top shape: 24 256 3 3 (55296)
I1031 15:35:12.423413 31277 net.cpp:165] Memory required for data: 3864588320
I1031 15:35:12.423414 31277 layer_factory.hpp:77] Creating layer conv16_1
I1031 15:35:12.423421 31277 net.cpp:100] Creating Layer conv16_1
I1031 15:35:12.423424 31277 net.cpp:478] conv16_1 <- conv15_2_conv15_2/relu_0_split_0
I1031 15:35:12.423429 31277 net.cpp:452] conv16_1 -> conv16_1
I1031 15:35:12.423825 31277 net.cpp:150] Setting up conv16_1
I1031 15:35:12.423831 31277 net.cpp:157] Top shape: 24 128 3 3 (27648)
I1031 15:35:12.423842 31277 net.cpp:165] Memory required for data: 3864698912
I1031 15:35:12.423846 31277 layer_factory.hpp:77] Creating layer conv16_1/bn
I1031 15:35:12.423851 31277 net.cpp:100] Creating Layer conv16_1/bn
I1031 15:35:12.423854 31277 net.cpp:478] conv16_1/bn <- conv16_1
I1031 15:35:12.423857 31277 net.cpp:439] conv16_1/bn -> conv16_1 (in-place)
I1031 15:35:12.424079 31277 net.cpp:150] Setting up conv16_1/bn
I1031 15:35:12.424085 31277 net.cpp:157] Top shape: 24 128 3 3 (27648)
I1031 15:35:12.424088 31277 net.cpp:165] Memory required for data: 3864809504
I1031 15:35:12.424093 31277 layer_factory.hpp:77] Creating layer conv16_1/scale
I1031 15:35:12.424098 31277 net.cpp:100] Creating Layer conv16_1/scale
I1031 15:35:12.424101 31277 net.cpp:478] conv16_1/scale <- conv16_1
I1031 15:35:12.424105 31277 net.cpp:439] conv16_1/scale -> conv16_1 (in-place)
I1031 15:35:12.424139 31277 layer_factory.hpp:77] Creating layer conv16_1/scale
I1031 15:35:12.424216 31277 net.cpp:150] Setting up conv16_1/scale
I1031 15:35:12.424221 31277 net.cpp:157] Top shape: 24 128 3 3 (27648)
I1031 15:35:12.424222 31277 net.cpp:165] Memory required for data: 3864920096
I1031 15:35:12.424227 31277 layer_factory.hpp:77] Creating layer conv16_1/relu
I1031 15:35:12.424232 31277 net.cpp:100] Creating Layer conv16_1/relu
I1031 15:35:12.424234 31277 net.cpp:478] conv16_1/relu <- conv16_1
I1031 15:35:12.424237 31277 net.cpp:439] conv16_1/relu -> conv16_1 (in-place)
I1031 15:35:12.424242 31277 net.cpp:150] Setting up conv16_1/relu
I1031 15:35:12.424244 31277 net.cpp:157] Top shape: 24 128 3 3 (27648)
I1031 15:35:12.424247 31277 net.cpp:165] Memory required for data: 3865030688
I1031 15:35:12.424249 31277 layer_factory.hpp:77] Creating layer conv16_2
I1031 15:35:12.424255 31277 net.cpp:100] Creating Layer conv16_2
I1031 15:35:12.424258 31277 net.cpp:478] conv16_2 <- conv16_1
I1031 15:35:12.424262 31277 net.cpp:452] conv16_2 -> conv16_2
I1031 15:35:12.428364 31277 net.cpp:150] Setting up conv16_2
I1031 15:35:12.428375 31277 net.cpp:157] Top shape: 24 256 2 2 (24576)
I1031 15:35:12.428378 31277 net.cpp:165] Memory required for data: 3865128992
I1031 15:35:12.428382 31277 layer_factory.hpp:77] Creating layer conv16_2/bn
I1031 15:35:12.428387 31277 net.cpp:100] Creating Layer conv16_2/bn
I1031 15:35:12.428390 31277 net.cpp:478] conv16_2/bn <- conv16_2
I1031 15:35:12.428396 31277 net.cpp:439] conv16_2/bn -> conv16_2 (in-place)
I1031 15:35:12.428541 31277 net.cpp:150] Setting up conv16_2/bn
I1031 15:35:12.428547 31277 net.cpp:157] Top shape: 24 256 2 2 (24576)
I1031 15:35:12.428550 31277 net.cpp:165] Memory required for data: 3865227296
I1031 15:35:12.428555 31277 layer_factory.hpp:77] Creating layer conv16_2/scale
I1031 15:35:12.428560 31277 net.cpp:100] Creating Layer conv16_2/scale
I1031 15:35:12.428562 31277 net.cpp:478] conv16_2/scale <- conv16_2
I1031 15:35:12.428567 31277 net.cpp:439] conv16_2/scale -> conv16_2 (in-place)
I1031 15:35:12.428602 31277 layer_factory.hpp:77] Creating layer conv16_2/scale
I1031 15:35:12.428685 31277 net.cpp:150] Setting up conv16_2/scale
I1031 15:35:12.428690 31277 net.cpp:157] Top shape: 24 256 2 2 (24576)
I1031 15:35:12.428692 31277 net.cpp:165] Memory required for data: 3865325600
I1031 15:35:12.428696 31277 layer_factory.hpp:77] Creating layer conv16_2/relu
I1031 15:35:12.428700 31277 net.cpp:100] Creating Layer conv16_2/relu
I1031 15:35:12.428702 31277 net.cpp:478] conv16_2/relu <- conv16_2
I1031 15:35:12.428709 31277 net.cpp:439] conv16_2/relu -> conv16_2 (in-place)
I1031 15:35:12.428712 31277 net.cpp:150] Setting up conv16_2/relu
I1031 15:35:12.428715 31277 net.cpp:157] Top shape: 24 256 2 2 (24576)
I1031 15:35:12.428717 31277 net.cpp:165] Memory required for data: 3865423904
I1031 15:35:12.428719 31277 layer_factory.hpp:77] Creating layer conv16_2_conv16_2/relu_0_split
I1031 15:35:12.428724 31277 net.cpp:100] Creating Layer conv16_2_conv16_2/relu_0_split
I1031 15:35:12.428725 31277 net.cpp:478] conv16_2_conv16_2/relu_0_split <- conv16_2
I1031 15:35:12.428730 31277 net.cpp:452] conv16_2_conv16_2/relu_0_split -> conv16_2_conv16_2/relu_0_split_0
I1031 15:35:12.428747 31277 net.cpp:452] conv16_2_conv16_2/relu_0_split -> conv16_2_conv16_2/relu_0_split_1
I1031 15:35:12.428752 31277 net.cpp:452] conv16_2_conv16_2/relu_0_split -> conv16_2_conv16_2/relu_0_split_2
I1031 15:35:12.428758 31277 net.cpp:452] conv16_2_conv16_2/relu_0_split -> conv16_2_conv16_2/relu_0_split_3
I1031 15:35:12.428805 31277 net.cpp:150] Setting up conv16_2_conv16_2/relu_0_split
I1031 15:35:12.428810 31277 net.cpp:157] Top shape: 24 256 2 2 (24576)
I1031 15:35:12.428812 31277 net.cpp:157] Top shape: 24 256 2 2 (24576)
I1031 15:35:12.428815 31277 net.cpp:157] Top shape: 24 256 2 2 (24576)
I1031 15:35:12.428818 31277 net.cpp:157] Top shape: 24 256 2 2 (24576)
I1031 15:35:12.428820 31277 net.cpp:165] Memory required for data: 3865817120
I1031 15:35:12.428822 31277 layer_factory.hpp:77] Creating layer conv17_1
I1031 15:35:12.428829 31277 net.cpp:100] Creating Layer conv17_1
I1031 15:35:12.428833 31277 net.cpp:478] conv17_1 <- conv16_2_conv16_2/relu_0_split_0
I1031 15:35:12.428838 31277 net.cpp:452] conv17_1 -> conv17_1
I1031 15:35:12.429150 31277 net.cpp:150] Setting up conv17_1
I1031 15:35:12.429157 31277 net.cpp:157] Top shape: 24 64 2 2 (6144)
I1031 15:35:12.429160 31277 net.cpp:165] Memory required for data: 3865841696
I1031 15:35:12.429164 31277 layer_factory.hpp:77] Creating layer conv17_1/bn
I1031 15:35:12.429168 31277 net.cpp:100] Creating Layer conv17_1/bn
I1031 15:35:12.429172 31277 net.cpp:478] conv17_1/bn <- conv17_1
I1031 15:35:12.429177 31277 net.cpp:439] conv17_1/bn -> conv17_1 (in-place)
I1031 15:35:12.429395 31277 net.cpp:150] Setting up conv17_1/bn
I1031 15:35:12.429402 31277 net.cpp:157] Top shape: 24 64 2 2 (6144)
I1031 15:35:12.429404 31277 net.cpp:165] Memory required for data: 3865866272
I1031 15:35:12.429410 31277 layer_factory.hpp:77] Creating layer conv17_1/scale
I1031 15:35:12.429433 31277 net.cpp:100] Creating Layer conv17_1/scale
I1031 15:35:12.429435 31277 net.cpp:478] conv17_1/scale <- conv17_1
I1031 15:35:12.429440 31277 net.cpp:439] conv17_1/scale -> conv17_1 (in-place)
I1031 15:35:12.429474 31277 layer_factory.hpp:77] Creating layer conv17_1/scale
I1031 15:35:12.429570 31277 net.cpp:150] Setting up conv17_1/scale
I1031 15:35:12.429575 31277 net.cpp:157] Top shape: 24 64 2 2 (6144)
I1031 15:35:12.429577 31277 net.cpp:165] Memory required for data: 3865890848
I1031 15:35:12.429582 31277 layer_factory.hpp:77] Creating layer conv17_1/relu
I1031 15:35:12.429587 31277 net.cpp:100] Creating Layer conv17_1/relu
I1031 15:35:12.429589 31277 net.cpp:478] conv17_1/relu <- conv17_1
I1031 15:35:12.429594 31277 net.cpp:439] conv17_1/relu -> conv17_1 (in-place)
I1031 15:35:12.429600 31277 net.cpp:150] Setting up conv17_1/relu
I1031 15:35:12.429602 31277 net.cpp:157] Top shape: 24 64 2 2 (6144)
I1031 15:35:12.429605 31277 net.cpp:165] Memory required for data: 3865915424
I1031 15:35:12.429606 31277 layer_factory.hpp:77] Creating layer conv17_2
I1031 15:35:12.429612 31277 net.cpp:100] Creating Layer conv17_2
I1031 15:35:12.429615 31277 net.cpp:478] conv17_2 <- conv17_1
I1031 15:35:12.429621 31277 net.cpp:452] conv17_2 -> conv17_2
I1031 15:35:12.430614 31277 net.cpp:150] Setting up conv17_2
I1031 15:35:12.430622 31277 net.cpp:157] Top shape: 24 128 1 1 (3072)
I1031 15:35:12.430624 31277 net.cpp:165] Memory required for data: 3865927712
I1031 15:35:12.430627 31277 layer_factory.hpp:77] Creating layer conv17_2/bn
I1031 15:35:12.430632 31277 net.cpp:100] Creating Layer conv17_2/bn
I1031 15:35:12.430635 31277 net.cpp:478] conv17_2/bn <- conv17_2
I1031 15:35:12.430639 31277 net.cpp:439] conv17_2/bn -> conv17_2 (in-place)
I1031 15:35:12.430783 31277 net.cpp:150] Setting up conv17_2/bn
I1031 15:35:12.430788 31277 net.cpp:157] Top shape: 24 128 1 1 (3072)
I1031 15:35:12.430790 31277 net.cpp:165] Memory required for data: 3865940000
I1031 15:35:12.430795 31277 layer_factory.hpp:77] Creating layer conv17_2/scale
I1031 15:35:12.430800 31277 net.cpp:100] Creating Layer conv17_2/scale
I1031 15:35:12.430804 31277 net.cpp:478] conv17_2/scale <- conv17_2
I1031 15:35:12.430807 31277 net.cpp:439] conv17_2/scale -> conv17_2 (in-place)
I1031 15:35:12.430869 31277 layer_factory.hpp:77] Creating layer conv17_2/scale
I1031 15:35:12.430954 31277 net.cpp:150] Setting up conv17_2/scale
I1031 15:35:12.430959 31277 net.cpp:157] Top shape: 24 128 1 1 (3072)
I1031 15:35:12.430961 31277 net.cpp:165] Memory required for data: 3865952288
I1031 15:35:12.430965 31277 layer_factory.hpp:77] Creating layer conv17_2/relu
I1031 15:35:12.430969 31277 net.cpp:100] Creating Layer conv17_2/relu
I1031 15:35:12.430972 31277 net.cpp:478] conv17_2/relu <- conv17_2
I1031 15:35:12.430977 31277 net.cpp:439] conv17_2/relu -> conv17_2 (in-place)
I1031 15:35:12.430981 31277 net.cpp:150] Setting up conv17_2/relu
I1031 15:35:12.430985 31277 net.cpp:157] Top shape: 24 128 1 1 (3072)
I1031 15:35:12.430987 31277 net.cpp:165] Memory required for data: 3865964576
I1031 15:35:12.430989 31277 layer_factory.hpp:77] Creating layer conv17_2_conv17_2/relu_0_split
I1031 15:35:12.430994 31277 net.cpp:100] Creating Layer conv17_2_conv17_2/relu_0_split
I1031 15:35:12.430995 31277 net.cpp:478] conv17_2_conv17_2/relu_0_split <- conv17_2
I1031 15:35:12.431005 31277 net.cpp:452] conv17_2_conv17_2/relu_0_split -> conv17_2_conv17_2/relu_0_split_0
I1031 15:35:12.431033 31277 net.cpp:452] conv17_2_conv17_2/relu_0_split -> conv17_2_conv17_2/relu_0_split_1
I1031 15:35:12.431038 31277 net.cpp:452] conv17_2_conv17_2/relu_0_split -> conv17_2_conv17_2/relu_0_split_2
I1031 15:35:12.431089 31277 net.cpp:150] Setting up conv17_2_conv17_2/relu_0_split
I1031 15:35:12.431095 31277 net.cpp:157] Top shape: 24 128 1 1 (3072)
I1031 15:35:12.431099 31277 net.cpp:157] Top shape: 24 128 1 1 (3072)
I1031 15:35:12.431102 31277 net.cpp:157] Top shape: 24 128 1 1 (3072)
I1031 15:35:12.431104 31277 net.cpp:165] Memory required for data: 3866001440
I1031 15:35:12.431107 31277 layer_factory.hpp:77] Creating layer conv11_mbox_loc
I1031 15:35:12.431115 31277 net.cpp:100] Creating Layer conv11_mbox_loc
I1031 15:35:12.431133 31277 net.cpp:478] conv11_mbox_loc <- conv11_conv11/relu_0_split_1
I1031 15:35:12.431138 31277 net.cpp:452] conv11_mbox_loc -> conv11_mbox_loc
I1031 15:35:12.431385 31277 net.cpp:150] Setting up conv11_mbox_loc
I1031 15:35:12.431391 31277 net.cpp:157] Top shape: 24 12 19 19 (103968)
I1031 15:35:12.431393 31277 net.cpp:165] Memory required for data: 3866417312
I1031 15:35:12.431398 31277 layer_factory.hpp:77] Creating layer conv11_mbox_loc_perm
I1031 15:35:12.431406 31277 net.cpp:100] Creating Layer conv11_mbox_loc_perm
I1031 15:35:12.431409 31277 net.cpp:478] conv11_mbox_loc_perm <- conv11_mbox_loc
I1031 15:35:12.431413 31277 net.cpp:452] conv11_mbox_loc_perm -> conv11_mbox_loc_perm
I1031 15:35:12.431502 31277 net.cpp:150] Setting up conv11_mbox_loc_perm
I1031 15:35:12.431507 31277 net.cpp:157] Top shape: 24 19 19 12 (103968)
I1031 15:35:12.431509 31277 net.cpp:165] Memory required for data: 3866833184
I1031 15:35:12.431511 31277 layer_factory.hpp:77] Creating layer conv11_mbox_loc_flat
I1031 15:35:12.431519 31277 net.cpp:100] Creating Layer conv11_mbox_loc_flat
I1031 15:35:12.431521 31277 net.cpp:478] conv11_mbox_loc_flat <- conv11_mbox_loc_perm
I1031 15:35:12.431525 31277 net.cpp:452] conv11_mbox_loc_flat -> conv11_mbox_loc_flat
I1031 15:35:12.431551 31277 net.cpp:150] Setting up conv11_mbox_loc_flat
I1031 15:35:12.431556 31277 net.cpp:157] Top shape: 24 4332 (103968)
I1031 15:35:12.431558 31277 net.cpp:165] Memory required for data: 3867249056
I1031 15:35:12.431560 31277 layer_factory.hpp:77] Creating layer conv11_mbox_conf_new
I1031 15:35:12.431568 31277 net.cpp:100] Creating Layer conv11_mbox_conf_new
I1031 15:35:12.431571 31277 net.cpp:478] conv11_mbox_conf_new <- conv11_conv11/relu_0_split_2
I1031 15:35:12.431577 31277 net.cpp:452] conv11_mbox_conf_new -> conv11_mbox_conf
I1031 15:35:12.432065 31277 net.cpp:150] Setting up conv11_mbox_conf_new
I1031 15:35:12.432071 31277 net.cpp:157] Top shape: 24 63 19 19 (545832)
I1031 15:35:12.432073 31277 net.cpp:165] Memory required for data: 3869432384
I1031 15:35:12.432078 31277 layer_factory.hpp:77] Creating layer conv11_mbox_conf_perm
I1031 15:35:12.432095 31277 net.cpp:100] Creating Layer conv11_mbox_conf_perm
I1031 15:35:12.432097 31277 net.cpp:478] conv11_mbox_conf_perm <- conv11_mbox_conf
I1031 15:35:12.432101 31277 net.cpp:452] conv11_mbox_conf_perm -> conv11_mbox_conf_perm
I1031 15:35:12.432199 31277 net.cpp:150] Setting up conv11_mbox_conf_perm
I1031 15:35:12.432204 31277 net.cpp:157] Top shape: 24 19 19 63 (545832)
I1031 15:35:12.432205 31277 net.cpp:165] Memory required for data: 3871615712
I1031 15:35:12.432209 31277 layer_factory.hpp:77] Creating layer conv11_mbox_conf_flat
I1031 15:35:12.432214 31277 net.cpp:100] Creating Layer conv11_mbox_conf_flat
I1031 15:35:12.432216 31277 net.cpp:478] conv11_mbox_conf_flat <- conv11_mbox_conf_perm
I1031 15:35:12.432221 31277 net.cpp:452] conv11_mbox_conf_flat -> conv11_mbox_conf_flat
I1031 15:35:12.432242 31277 net.cpp:150] Setting up conv11_mbox_conf_flat
I1031 15:35:12.432247 31277 net.cpp:157] Top shape: 24 22743 (545832)
I1031 15:35:12.432250 31277 net.cpp:165] Memory required for data: 3873799040
I1031 15:35:12.432251 31277 layer_factory.hpp:77] Creating layer conv11_mbox_priorbox
I1031 15:35:12.432270 31277 net.cpp:100] Creating Layer conv11_mbox_priorbox
I1031 15:35:12.432272 31277 net.cpp:478] conv11_mbox_priorbox <- conv11_conv11/relu_0_split_3
I1031 15:35:12.432276 31277 net.cpp:478] conv11_mbox_priorbox <- data_data_0_split_1
I1031 15:35:12.432281 31277 net.cpp:452] conv11_mbox_priorbox -> conv11_mbox_priorbox
I1031 15:35:12.432305 31277 net.cpp:150] Setting up conv11_mbox_priorbox
I1031 15:35:12.432309 31277 net.cpp:157] Top shape: 1 2 4332 (8664)
I1031 15:35:12.432312 31277 net.cpp:165] Memory required for data: 3873833696
I1031 15:35:12.432314 31277 layer_factory.hpp:77] Creating layer conv13_mbox_loc
I1031 15:35:12.432322 31277 net.cpp:100] Creating Layer conv13_mbox_loc
I1031 15:35:12.432324 31277 net.cpp:478] conv13_mbox_loc <- conv13_conv13/relu_0_split_1
I1031 15:35:12.432330 31277 net.cpp:452] conv13_mbox_loc -> conv13_mbox_loc
I1031 15:35:12.432739 31277 net.cpp:150] Setting up conv13_mbox_loc
I1031 15:35:12.432745 31277 net.cpp:157] Top shape: 24 24 10 10 (57600)
I1031 15:35:12.432747 31277 net.cpp:165] Memory required for data: 3874064096
I1031 15:35:12.432752 31277 layer_factory.hpp:77] Creating layer conv13_mbox_loc_perm
I1031 15:35:12.432757 31277 net.cpp:100] Creating Layer conv13_mbox_loc_perm
I1031 15:35:12.432760 31277 net.cpp:478] conv13_mbox_loc_perm <- conv13_mbox_loc
I1031 15:35:12.432766 31277 net.cpp:452] conv13_mbox_loc_perm -> conv13_mbox_loc_perm
I1031 15:35:12.432848 31277 net.cpp:150] Setting up conv13_mbox_loc_perm
I1031 15:35:12.432853 31277 net.cpp:157] Top shape: 24 10 10 24 (57600)
I1031 15:35:12.432855 31277 net.cpp:165] Memory required for data: 3874294496
I1031 15:35:12.432858 31277 layer_factory.hpp:77] Creating layer conv13_mbox_loc_flat
I1031 15:35:12.432862 31277 net.cpp:100] Creating Layer conv13_mbox_loc_flat
I1031 15:35:12.432868 31277 net.cpp:478] conv13_mbox_loc_flat <- conv13_mbox_loc_perm
I1031 15:35:12.432873 31277 net.cpp:452] conv13_mbox_loc_flat -> conv13_mbox_loc_flat
I1031 15:35:12.432893 31277 net.cpp:150] Setting up conv13_mbox_loc_flat
I1031 15:35:12.432898 31277 net.cpp:157] Top shape: 24 2400 (57600)
I1031 15:35:12.432898 31277 net.cpp:165] Memory required for data: 3874524896
I1031 15:35:12.432901 31277 layer_factory.hpp:77] Creating layer conv13_mbox_conf_new
I1031 15:35:12.432909 31277 net.cpp:100] Creating Layer conv13_mbox_conf_new
I1031 15:35:12.432911 31277 net.cpp:478] conv13_mbox_conf_new <- conv13_conv13/relu_0_split_2
I1031 15:35:12.432917 31277 net.cpp:452] conv13_mbox_conf_new -> conv13_mbox_conf
I1031 15:35:12.435386 31277 net.cpp:150] Setting up conv13_mbox_conf_new
I1031 15:35:12.435398 31277 net.cpp:157] Top shape: 24 126 10 10 (302400)
I1031 15:35:12.435400 31277 net.cpp:165] Memory required for data: 3875734496
I1031 15:35:12.435406 31277 layer_factory.hpp:77] Creating layer conv13_mbox_conf_perm
I1031 15:35:12.435412 31277 net.cpp:100] Creating Layer conv13_mbox_conf_perm
I1031 15:35:12.435425 31277 net.cpp:478] conv13_mbox_conf_perm <- conv13_mbox_conf
I1031 15:35:12.435433 31277 net.cpp:452] conv13_mbox_conf_perm -> conv13_mbox_conf_perm
I1031 15:35:12.435518 31277 net.cpp:150] Setting up conv13_mbox_conf_perm
I1031 15:35:12.435523 31277 net.cpp:157] Top shape: 24 10 10 126 (302400)
I1031 15:35:12.435526 31277 net.cpp:165] Memory required for data: 3876944096
I1031 15:35:12.435528 31277 layer_factory.hpp:77] Creating layer conv13_mbox_conf_flat
I1031 15:35:12.435534 31277 net.cpp:100] Creating Layer conv13_mbox_conf_flat
I1031 15:35:12.435536 31277 net.cpp:478] conv13_mbox_conf_flat <- conv13_mbox_conf_perm
I1031 15:35:12.435542 31277 net.cpp:452] conv13_mbox_conf_flat -> conv13_mbox_conf_flat
I1031 15:35:12.435566 31277 net.cpp:150] Setting up conv13_mbox_conf_flat
I1031 15:35:12.435571 31277 net.cpp:157] Top shape: 24 12600 (302400)
I1031 15:35:12.435573 31277 net.cpp:165] Memory required for data: 3878153696
I1031 15:35:12.435576 31277 layer_factory.hpp:77] Creating layer conv13_mbox_priorbox
I1031 15:35:12.435581 31277 net.cpp:100] Creating Layer conv13_mbox_priorbox
I1031 15:35:12.435585 31277 net.cpp:478] conv13_mbox_priorbox <- conv13_conv13/relu_0_split_3
I1031 15:35:12.435588 31277 net.cpp:478] conv13_mbox_priorbox <- data_data_0_split_2
I1031 15:35:12.435595 31277 net.cpp:452] conv13_mbox_priorbox -> conv13_mbox_priorbox
I1031 15:35:12.435616 31277 net.cpp:150] Setting up conv13_mbox_priorbox
I1031 15:35:12.435621 31277 net.cpp:157] Top shape: 1 2 2400 (4800)
I1031 15:35:12.435622 31277 net.cpp:165] Memory required for data: 3878172896
I1031 15:35:12.435624 31277 layer_factory.hpp:77] Creating layer conv14_2_mbox_loc
I1031 15:35:12.435632 31277 net.cpp:100] Creating Layer conv14_2_mbox_loc
I1031 15:35:12.435636 31277 net.cpp:478] conv14_2_mbox_loc <- conv14_2_conv14_2/relu_0_split_1
I1031 15:35:12.435641 31277 net.cpp:452] conv14_2_mbox_loc -> conv14_2_mbox_loc
I1031 15:35:12.435966 31277 net.cpp:150] Setting up conv14_2_mbox_loc
I1031 15:35:12.435973 31277 net.cpp:157] Top shape: 24 24 5 5 (14400)
I1031 15:35:12.435976 31277 net.cpp:165] Memory required for data: 3878230496
I1031 15:35:12.435981 31277 layer_factory.hpp:77] Creating layer conv14_2_mbox_loc_perm
I1031 15:35:12.435986 31277 net.cpp:100] Creating Layer conv14_2_mbox_loc_perm
I1031 15:35:12.435987 31277 net.cpp:478] conv14_2_mbox_loc_perm <- conv14_2_mbox_loc
I1031 15:35:12.435994 31277 net.cpp:452] conv14_2_mbox_loc_perm -> conv14_2_mbox_loc_perm
I1031 15:35:12.436084 31277 net.cpp:150] Setting up conv14_2_mbox_loc_perm
I1031 15:35:12.436089 31277 net.cpp:157] Top shape: 24 5 5 24 (14400)
I1031 15:35:12.436091 31277 net.cpp:165] Memory required for data: 3878288096
I1031 15:35:12.436094 31277 layer_factory.hpp:77] Creating layer conv14_2_mbox_loc_flat
I1031 15:35:12.436098 31277 net.cpp:100] Creating Layer conv14_2_mbox_loc_flat
I1031 15:35:12.436101 31277 net.cpp:478] conv14_2_mbox_loc_flat <- conv14_2_mbox_loc_perm
I1031 15:35:12.436107 31277 net.cpp:452] conv14_2_mbox_loc_flat -> conv14_2_mbox_loc_flat
I1031 15:35:12.436127 31277 net.cpp:150] Setting up conv14_2_mbox_loc_flat
I1031 15:35:12.436131 31277 net.cpp:157] Top shape: 24 600 (14400)
I1031 15:35:12.436133 31277 net.cpp:165] Memory required for data: 3878345696
I1031 15:35:12.436136 31277 layer_factory.hpp:77] Creating layer conv14_2_mbox_conf_new
I1031 15:35:12.436146 31277 net.cpp:100] Creating Layer conv14_2_mbox_conf_new
I1031 15:35:12.436149 31277 net.cpp:478] conv14_2_mbox_conf_new <- conv14_2_conv14_2/relu_0_split_2
I1031 15:35:12.436156 31277 net.cpp:452] conv14_2_mbox_conf_new -> conv14_2_mbox_conf
I1031 15:35:12.437842 31277 net.cpp:150] Setting up conv14_2_mbox_conf_new
I1031 15:35:12.437853 31277 net.cpp:157] Top shape: 24 126 5 5 (75600)
I1031 15:35:12.437855 31277 net.cpp:165] Memory required for data: 3878648096
I1031 15:35:12.437861 31277 layer_factory.hpp:77] Creating layer conv14_2_mbox_conf_perm
I1031 15:35:12.437866 31277 net.cpp:100] Creating Layer conv14_2_mbox_conf_perm
I1031 15:35:12.437870 31277 net.cpp:478] conv14_2_mbox_conf_perm <- conv14_2_mbox_conf
I1031 15:35:12.437886 31277 net.cpp:452] conv14_2_mbox_conf_perm -> conv14_2_mbox_conf_perm
I1031 15:35:12.438004 31277 net.cpp:150] Setting up conv14_2_mbox_conf_perm
I1031 15:35:12.438011 31277 net.cpp:157] Top shape: 24 5 5 126 (75600)
I1031 15:35:12.438014 31277 net.cpp:165] Memory required for data: 3878950496
I1031 15:35:12.438016 31277 layer_factory.hpp:77] Creating layer conv14_2_mbox_conf_flat
I1031 15:35:12.438021 31277 net.cpp:100] Creating Layer conv14_2_mbox_conf_flat
I1031 15:35:12.438024 31277 net.cpp:478] conv14_2_mbox_conf_flat <- conv14_2_mbox_conf_perm
I1031 15:35:12.438031 31277 net.cpp:452] conv14_2_mbox_conf_flat -> conv14_2_mbox_conf_flat
I1031 15:35:12.438057 31277 net.cpp:150] Setting up conv14_2_mbox_conf_flat
I1031 15:35:12.438062 31277 net.cpp:157] Top shape: 24 3150 (75600)
I1031 15:35:12.438064 31277 net.cpp:165] Memory required for data: 3879252896
I1031 15:35:12.438066 31277 layer_factory.hpp:77] Creating layer conv14_2_mbox_priorbox
I1031 15:35:12.438073 31277 net.cpp:100] Creating Layer conv14_2_mbox_priorbox
I1031 15:35:12.438076 31277 net.cpp:478] conv14_2_mbox_priorbox <- conv14_2_conv14_2/relu_0_split_3
I1031 15:35:12.438081 31277 net.cpp:478] conv14_2_mbox_priorbox <- data_data_0_split_3
I1031 15:35:12.438086 31277 net.cpp:452] conv14_2_mbox_priorbox -> conv14_2_mbox_priorbox
I1031 15:35:12.438110 31277 net.cpp:150] Setting up conv14_2_mbox_priorbox
I1031 15:35:12.438114 31277 net.cpp:157] Top shape: 1 2 600 (1200)
I1031 15:35:12.438117 31277 net.cpp:165] Memory required for data: 3879257696
I1031 15:35:12.438118 31277 layer_factory.hpp:77] Creating layer conv15_2_mbox_loc
I1031 15:35:12.438128 31277 net.cpp:100] Creating Layer conv15_2_mbox_loc
I1031 15:35:12.438132 31277 net.cpp:478] conv15_2_mbox_loc <- conv15_2_conv15_2/relu_0_split_1
I1031 15:35:12.438138 31277 net.cpp:452] conv15_2_mbox_loc -> conv15_2_mbox_loc
I1031 15:35:12.438419 31277 net.cpp:150] Setting up conv15_2_mbox_loc
I1031 15:35:12.438426 31277 net.cpp:157] Top shape: 24 24 3 3 (5184)
I1031 15:35:12.438427 31277 net.cpp:165] Memory required for data: 3879278432
I1031 15:35:12.438431 31277 layer_factory.hpp:77] Creating layer conv15_2_mbox_loc_perm
I1031 15:35:12.438436 31277 net.cpp:100] Creating Layer conv15_2_mbox_loc_perm
I1031 15:35:12.438439 31277 net.cpp:478] conv15_2_mbox_loc_perm <- conv15_2_mbox_loc
I1031 15:35:12.438446 31277 net.cpp:452] conv15_2_mbox_loc_perm -> conv15_2_mbox_loc_perm
I1031 15:35:12.438524 31277 net.cpp:150] Setting up conv15_2_mbox_loc_perm
I1031 15:35:12.438529 31277 net.cpp:157] Top shape: 24 3 3 24 (5184)
I1031 15:35:12.438530 31277 net.cpp:165] Memory required for data: 3879299168
I1031 15:35:12.438532 31277 layer_factory.hpp:77] Creating layer conv15_2_mbox_loc_flat
I1031 15:35:12.438536 31277 net.cpp:100] Creating Layer conv15_2_mbox_loc_flat
I1031 15:35:12.438539 31277 net.cpp:478] conv15_2_mbox_loc_flat <- conv15_2_mbox_loc_perm
I1031 15:35:12.438546 31277 net.cpp:452] conv15_2_mbox_loc_flat -> conv15_2_mbox_loc_flat
I1031 15:35:12.438563 31277 net.cpp:150] Setting up conv15_2_mbox_loc_flat
I1031 15:35:12.438567 31277 net.cpp:157] Top shape: 24 216 (5184)
I1031 15:35:12.438570 31277 net.cpp:165] Memory required for data: 3879319904
I1031 15:35:12.438571 31277 layer_factory.hpp:77] Creating layer conv15_2_mbox_conf_new
I1031 15:35:12.438580 31277 net.cpp:100] Creating Layer conv15_2_mbox_conf_new
I1031 15:35:12.438583 31277 net.cpp:478] conv15_2_mbox_conf_new <- conv15_2_conv15_2/relu_0_split_2
I1031 15:35:12.438588 31277 net.cpp:452] conv15_2_mbox_conf_new -> conv15_2_mbox_conf
I1031 15:35:12.439028 31277 net.cpp:150] Setting up conv15_2_mbox_conf_new
I1031 15:35:12.439034 31277 net.cpp:157] Top shape: 24 126 3 3 (27216)
I1031 15:35:12.439036 31277 net.cpp:165] Memory required for data: 3879428768
I1031 15:35:12.439040 31277 layer_factory.hpp:77] Creating layer conv15_2_mbox_conf_perm
I1031 15:35:12.439050 31277 net.cpp:100] Creating Layer conv15_2_mbox_conf_perm
I1031 15:35:12.439054 31277 net.cpp:478] conv15_2_mbox_conf_perm <- conv15_2_mbox_conf
I1031 15:35:12.439060 31277 net.cpp:452] conv15_2_mbox_conf_perm -> conv15_2_mbox_conf_perm
I1031 15:35:12.439152 31277 net.cpp:150] Setting up conv15_2_mbox_conf_perm
I1031 15:35:12.439159 31277 net.cpp:157] Top shape: 24 3 3 126 (27216)
I1031 15:35:12.439162 31277 net.cpp:165] Memory required for data: 3879537632
I1031 15:35:12.439163 31277 layer_factory.hpp:77] Creating layer conv15_2_mbox_conf_flat
I1031 15:35:12.439168 31277 net.cpp:100] Creating Layer conv15_2_mbox_conf_flat
I1031 15:35:12.439172 31277 net.cpp:478] conv15_2_mbox_conf_flat <- conv15_2_mbox_conf_perm
I1031 15:35:12.439177 31277 net.cpp:452] conv15_2_mbox_conf_flat -> conv15_2_mbox_conf_flat
I1031 15:35:12.439195 31277 net.cpp:150] Setting up conv15_2_mbox_conf_flat
I1031 15:35:12.439199 31277 net.cpp:157] Top shape: 24 1134 (27216)
I1031 15:35:12.439201 31277 net.cpp:165] Memory required for data: 3879646496
I1031 15:35:12.439203 31277 layer_factory.hpp:77] Creating layer conv15_2_mbox_priorbox
I1031 15:35:12.439209 31277 net.cpp:100] Creating Layer conv15_2_mbox_priorbox
I1031 15:35:12.439213 31277 net.cpp:478] conv15_2_mbox_priorbox <- conv15_2_conv15_2/relu_0_split_3
I1031 15:35:12.439216 31277 net.cpp:478] conv15_2_mbox_priorbox <- data_data_0_split_4
I1031 15:35:12.439221 31277 net.cpp:452] conv15_2_mbox_priorbox -> conv15_2_mbox_priorbox
I1031 15:35:12.439244 31277 net.cpp:150] Setting up conv15_2_mbox_priorbox
I1031 15:35:12.439247 31277 net.cpp:157] Top shape: 1 2 216 (432)
I1031 15:35:12.439249 31277 net.cpp:165] Memory required for data: 3879648224
I1031 15:35:12.439251 31277 layer_factory.hpp:77] Creating layer conv16_2_mbox_loc
I1031 15:35:12.439258 31277 net.cpp:100] Creating Layer conv16_2_mbox_loc
I1031 15:35:12.439261 31277 net.cpp:478] conv16_2_mbox_loc <- conv16_2_conv16_2/relu_0_split_1
I1031 15:35:12.439266 31277 net.cpp:452] conv16_2_mbox_loc -> conv16_2_mbox_loc
I1031 15:35:12.439496 31277 net.cpp:150] Setting up conv16_2_mbox_loc
I1031 15:35:12.439502 31277 net.cpp:157] Top shape: 24 24 2 2 (2304)
I1031 15:35:12.439504 31277 net.cpp:165] Memory required for data: 3879657440
I1031 15:35:12.439509 31277 layer_factory.hpp:77] Creating layer conv16_2_mbox_loc_perm
I1031 15:35:12.439513 31277 net.cpp:100] Creating Layer conv16_2_mbox_loc_perm
I1031 15:35:12.439517 31277 net.cpp:478] conv16_2_mbox_loc_perm <- conv16_2_mbox_loc
I1031 15:35:12.439522 31277 net.cpp:452] conv16_2_mbox_loc_perm -> conv16_2_mbox_loc_perm
I1031 15:35:12.439597 31277 net.cpp:150] Setting up conv16_2_mbox_loc_perm
I1031 15:35:12.439604 31277 net.cpp:157] Top shape: 24 2 2 24 (2304)
I1031 15:35:12.439605 31277 net.cpp:165] Memory required for data: 3879666656
I1031 15:35:12.439609 31277 layer_factory.hpp:77] Creating layer conv16_2_mbox_loc_flat
I1031 15:35:12.439612 31277 net.cpp:100] Creating Layer conv16_2_mbox_loc_flat
I1031 15:35:12.439615 31277 net.cpp:478] conv16_2_mbox_loc_flat <- conv16_2_mbox_loc_perm
I1031 15:35:12.439620 31277 net.cpp:452] conv16_2_mbox_loc_flat -> conv16_2_mbox_loc_flat
I1031 15:35:12.439638 31277 net.cpp:150] Setting up conv16_2_mbox_loc_flat
I1031 15:35:12.439642 31277 net.cpp:157] Top shape: 24 96 (2304)
I1031 15:35:12.439644 31277 net.cpp:165] Memory required for data: 3879675872
I1031 15:35:12.439646 31277 layer_factory.hpp:77] Creating layer conv16_2_mbox_conf_new
I1031 15:35:12.439656 31277 net.cpp:100] Creating Layer conv16_2_mbox_conf_new
I1031 15:35:12.439657 31277 net.cpp:478] conv16_2_mbox_conf_new <- conv16_2_conv16_2/relu_0_split_2
I1031 15:35:12.439662 31277 net.cpp:452] conv16_2_mbox_conf_new -> conv16_2_mbox_conf
I1031 15:35:12.440145 31277 net.cpp:150] Setting up conv16_2_mbox_conf_new
I1031 15:35:12.440150 31277 net.cpp:157] Top shape: 24 126 2 2 (12096)
I1031 15:35:12.440152 31277 net.cpp:165] Memory required for data: 3879724256
I1031 15:35:12.440157 31277 layer_factory.hpp:77] Creating layer conv16_2_mbox_conf_perm
I1031 15:35:12.440161 31277 net.cpp:100] Creating Layer conv16_2_mbox_conf_perm
I1031 15:35:12.440165 31277 net.cpp:478] conv16_2_mbox_conf_perm <- conv16_2_mbox_conf
I1031 15:35:12.440170 31277 net.cpp:452] conv16_2_mbox_conf_perm -> conv16_2_mbox_conf_perm
I1031 15:35:12.440253 31277 net.cpp:150] Setting up conv16_2_mbox_conf_perm
I1031 15:35:12.440259 31277 net.cpp:157] Top shape: 24 2 2 126 (12096)
I1031 15:35:12.440261 31277 net.cpp:165] Memory required for data: 3879772640
I1031 15:35:12.440263 31277 layer_factory.hpp:77] Creating layer conv16_2_mbox_conf_flat
I1031 15:35:12.440268 31277 net.cpp:100] Creating Layer conv16_2_mbox_conf_flat
I1031 15:35:12.440270 31277 net.cpp:478] conv16_2_mbox_conf_flat <- conv16_2_mbox_conf_perm
I1031 15:35:12.440276 31277 net.cpp:452] conv16_2_mbox_conf_flat -> conv16_2_mbox_conf_flat
I1031 15:35:12.440294 31277 net.cpp:150] Setting up conv16_2_mbox_conf_flat
I1031 15:35:12.440297 31277 net.cpp:157] Top shape: 24 504 (12096)
I1031 15:35:12.440299 31277 net.cpp:165] Memory required for data: 3879821024
I1031 15:35:12.440301 31277 layer_factory.hpp:77] Creating layer conv16_2_mbox_priorbox
I1031 15:35:12.440307 31277 net.cpp:100] Creating Layer conv16_2_mbox_priorbox
I1031 15:35:12.440310 31277 net.cpp:478] conv16_2_mbox_priorbox <- conv16_2_conv16_2/relu_0_split_3
I1031 15:35:12.440313 31277 net.cpp:478] conv16_2_mbox_priorbox <- data_data_0_split_5
I1031 15:35:12.440318 31277 net.cpp:452] conv16_2_mbox_priorbox -> conv16_2_mbox_priorbox
I1031 15:35:12.440337 31277 net.cpp:150] Setting up conv16_2_mbox_priorbox
I1031 15:35:12.440341 31277 net.cpp:157] Top shape: 1 2 96 (192)
I1031 15:35:12.440343 31277 net.cpp:165] Memory required for data: 3879821792
I1031 15:35:12.440346 31277 layer_factory.hpp:77] Creating layer conv17_2_mbox_loc
I1031 15:35:12.440356 31277 net.cpp:100] Creating Layer conv17_2_mbox_loc
I1031 15:35:12.440359 31277 net.cpp:478] conv17_2_mbox_loc <- conv17_2_conv17_2/relu_0_split_0
I1031 15:35:12.440364 31277 net.cpp:452] conv17_2_mbox_loc -> conv17_2_mbox_loc
I1031 15:35:12.440565 31277 net.cpp:150] Setting up conv17_2_mbox_loc
I1031 15:35:12.440570 31277 net.cpp:157] Top shape: 24 24 1 1 (576)
I1031 15:35:12.440572 31277 net.cpp:165] Memory required for data: 3879824096
I1031 15:35:12.440577 31277 layer_factory.hpp:77] Creating layer conv17_2_mbox_loc_perm
I1031 15:35:12.440582 31277 net.cpp:100] Creating Layer conv17_2_mbox_loc_perm
I1031 15:35:12.440584 31277 net.cpp:478] conv17_2_mbox_loc_perm <- conv17_2_mbox_loc
I1031 15:35:12.440590 31277 net.cpp:452] conv17_2_mbox_loc_perm -> conv17_2_mbox_loc_perm
I1031 15:35:12.440665 31277 net.cpp:150] Setting up conv17_2_mbox_loc_perm
I1031 15:35:12.440670 31277 net.cpp:157] Top shape: 24 1 1 24 (576)
I1031 15:35:12.440672 31277 net.cpp:165] Memory required for data: 3879826400
I1031 15:35:12.440675 31277 layer_factory.hpp:77] Creating layer conv17_2_mbox_loc_flat
I1031 15:35:12.440680 31277 net.cpp:100] Creating Layer conv17_2_mbox_loc_flat
I1031 15:35:12.440682 31277 net.cpp:478] conv17_2_mbox_loc_flat <- conv17_2_mbox_loc_perm
I1031 15:35:12.440692 31277 net.cpp:452] conv17_2_mbox_loc_flat -> conv17_2_mbox_loc_flat
I1031 15:35:12.440709 31277 net.cpp:150] Setting up conv17_2_mbox_loc_flat
I1031 15:35:12.440713 31277 net.cpp:157] Top shape: 24 24 (576)
I1031 15:35:12.440716 31277 net.cpp:165] Memory required for data: 3879828704
I1031 15:35:12.440717 31277 layer_factory.hpp:77] Creating layer conv17_2_mbox_conf_new
I1031 15:35:12.440726 31277 net.cpp:100] Creating Layer conv17_2_mbox_conf_new
I1031 15:35:12.440728 31277 net.cpp:478] conv17_2_mbox_conf_new <- conv17_2_conv17_2/relu_0_split_1
I1031 15:35:12.440732 31277 net.cpp:452] conv17_2_mbox_conf_new -> conv17_2_mbox_conf
I1031 15:35:12.441143 31277 net.cpp:150] Setting up conv17_2_mbox_conf_new
I1031 15:35:12.441149 31277 net.cpp:157] Top shape: 24 126 1 1 (3024)
I1031 15:35:12.441153 31277 net.cpp:165] Memory required for data: 3879840800
I1031 15:35:12.441156 31277 layer_factory.hpp:77] Creating layer conv17_2_mbox_conf_perm
I1031 15:35:12.441161 31277 net.cpp:100] Creating Layer conv17_2_mbox_conf_perm
I1031 15:35:12.441164 31277 net.cpp:478] conv17_2_mbox_conf_perm <- conv17_2_mbox_conf
I1031 15:35:12.441170 31277 net.cpp:452] conv17_2_mbox_conf_perm -> conv17_2_mbox_conf_perm
I1031 15:35:12.441290 31277 net.cpp:150] Setting up conv17_2_mbox_conf_perm
I1031 15:35:12.441313 31277 net.cpp:157] Top shape: 24 1 1 126 (3024)
I1031 15:35:12.441330 31277 net.cpp:165] Memory required for data: 3879852896
I1031 15:35:12.441332 31277 layer_factory.hpp:77] Creating layer conv17_2_mbox_conf_flat
I1031 15:35:12.441336 31277 net.cpp:100] Creating Layer conv17_2_mbox_conf_flat
I1031 15:35:12.441339 31277 net.cpp:478] conv17_2_mbox_conf_flat <- conv17_2_mbox_conf_perm
I1031 15:35:12.441345 31277 net.cpp:452] conv17_2_mbox_conf_flat -> conv17_2_mbox_conf_flat
I1031 15:35:12.441364 31277 net.cpp:150] Setting up conv17_2_mbox_conf_flat
I1031 15:35:12.441367 31277 net.cpp:157] Top shape: 24 126 (3024)
I1031 15:35:12.441370 31277 net.cpp:165] Memory required for data: 3879864992
I1031 15:35:12.441371 31277 layer_factory.hpp:77] Creating layer conv17_2_mbox_priorbox
I1031 15:35:12.441377 31277 net.cpp:100] Creating Layer conv17_2_mbox_priorbox
I1031 15:35:12.441380 31277 net.cpp:478] conv17_2_mbox_priorbox <- conv17_2_conv17_2/relu_0_split_2
I1031 15:35:12.441397 31277 net.cpp:478] conv17_2_mbox_priorbox <- data_data_0_split_6
I1031 15:35:12.441403 31277 net.cpp:452] conv17_2_mbox_priorbox -> conv17_2_mbox_priorbox
I1031 15:35:12.441422 31277 net.cpp:150] Setting up conv17_2_mbox_priorbox
I1031 15:35:12.441426 31277 net.cpp:157] Top shape: 1 2 24 (48)
I1031 15:35:12.441428 31277 net.cpp:165] Memory required for data: 3879865184
I1031 15:35:12.441431 31277 layer_factory.hpp:77] Creating layer mbox_loc
I1031 15:35:12.441437 31277 net.cpp:100] Creating Layer mbox_loc
I1031 15:35:12.441440 31277 net.cpp:478] mbox_loc <- conv11_mbox_loc_flat
I1031 15:35:12.441444 31277 net.cpp:478] mbox_loc <- conv13_mbox_loc_flat
I1031 15:35:12.441447 31277 net.cpp:478] mbox_loc <- conv14_2_mbox_loc_flat
I1031 15:35:12.441467 31277 net.cpp:478] mbox_loc <- conv15_2_mbox_loc_flat
I1031 15:35:12.441468 31277 net.cpp:478] mbox_loc <- conv16_2_mbox_loc_flat
I1031 15:35:12.441471 31277 net.cpp:478] mbox_loc <- conv17_2_mbox_loc_flat
I1031 15:35:12.441476 31277 net.cpp:452] mbox_loc -> mbox_loc
I1031 15:35:12.441514 31277 net.cpp:150] Setting up mbox_loc
I1031 15:35:12.441519 31277 net.cpp:157] Top shape: 24 7668 (184032)
I1031 15:35:12.526067 31277 net.cpp:165] Memory required for data: 3880601312
I1031 15:35:12.526077 31277 layer_factory.hpp:77] Creating layer mbox_conf
I1031 15:35:12.526090 31277 net.cpp:100] Creating Layer mbox_conf
I1031 15:35:12.526094 31277 net.cpp:478] mbox_conf <- conv11_mbox_conf_flat
I1031 15:35:12.526259 31277 net.cpp:478] mbox_conf <- conv13_mbox_conf_flat
I1031 15:35:12.526268 31277 net.cpp:478] mbox_conf <- conv14_2_mbox_conf_flat
I1031 15:35:12.526273 31277 net.cpp:478] mbox_conf <- conv15_2_mbox_conf_flat
I1031 15:35:12.526275 31277 net.cpp:478] mbox_conf <- conv16_2_mbox_conf_flat
I1031 15:35:12.526279 31277 net.cpp:478] mbox_conf <- conv17_2_mbox_conf_flat
I1031 15:35:12.526285 31277 net.cpp:452] mbox_conf -> mbox_conf
I1031 15:35:12.526325 31277 net.cpp:150] Setting up mbox_conf
I1031 15:35:12.526350 31277 net.cpp:157] Top shape: 24 40257 (966168)
I1031 15:35:12.526352 31277 net.cpp:165] Memory required for data: 3884465984
I1031 15:35:12.526355 31277 layer_factory.hpp:77] Creating layer mbox_priorbox
I1031 15:35:12.526372 31277 net.cpp:100] Creating Layer mbox_priorbox
I1031 15:35:12.526376 31277 net.cpp:478] mbox_priorbox <- conv11_mbox_priorbox
I1031 15:35:12.526379 31277 net.cpp:478] mbox_priorbox <- conv13_mbox_priorbox
I1031 15:35:12.526399 31277 net.cpp:478] mbox_priorbox <- conv14_2_mbox_priorbox
I1031 15:35:12.526402 31277 net.cpp:478] mbox_priorbox <- conv15_2_mbox_priorbox
I1031 15:35:12.526406 31277 net.cpp:478] mbox_priorbox <- conv16_2_mbox_priorbox
I1031 15:35:12.526407 31277 net.cpp:478] mbox_priorbox <- conv17_2_mbox_priorbox
I1031 15:35:12.526412 31277 net.cpp:452] mbox_priorbox -> mbox_priorbox
I1031 15:35:12.526449 31277 net.cpp:150] Setting up mbox_priorbox
I1031 15:35:12.526453 31277 net.cpp:157] Top shape: 1 2 7668 (15336)
I1031 15:35:12.526455 31277 net.cpp:165] Memory required for data: 3884527328
I1031 15:35:12.526468 31277 layer_factory.hpp:77] Creating layer mbox_loss
I1031 15:35:12.526494 31277 net.cpp:100] Creating Layer mbox_loss
I1031 15:35:12.526496 31277 net.cpp:478] mbox_loss <- mbox_loc
I1031 15:35:12.526499 31277 net.cpp:478] mbox_loss <- mbox_conf
I1031 15:35:12.526502 31277 net.cpp:478] mbox_loss <- mbox_priorbox
…
layer {
  name: "data"
  type: "AnnotatedData"
  top: "data"
  top: "label"
  include {
    phase: TEST
  }
  transform_param {
    scale: 0.007843
    mean_value: 127.5
    mean_value: 127.5
    mean_value: 127.5
    resize_param {
      prob: 1
      resize_mode: WARP
      height: 300
      width: 300
      interp_mode: LINEAR
    }
  }
  data_param {
    source: "examples/VOC0712/VOC0712_test_lmdb"
    batch_size: 8
    backend: LMDB
  }
  annotated_data_param {
    batch_sampler {
    }
    label_map_file: "data/VOC0712/labelmap_voc.prototxt"
  }
}
layer {
  name: "conv0"
  type: "Convolution"
  bottom: "data"
  top: "conv0"
  param {
    lr_mult: 1
    decay_mult: 1
  }
  convolution_param {
    num_output: 32
    bias_term: false
    pad: 1
    kernel_size: 3
    stride: 2
    weight_filler {
      type: "msra"
    }
  }
}
layer {
  name: "conv0/bn"
  type: "BatchNorm"
  bottom: "conv0"
  top: "conv0"
}
layer {
  name: "conv0/scale"
  type: "Scale"
  bottom: "conv0"
  top: "conv0"
  param {
    lr_mult: 1
    decay_mult: 0
  }
  param {
    lr_mult: 2
    decay_mult: 0
  }
  scale_param {
    filler {
      value: 1
    }
    bias_term: true
    bias_filler {
      value: 0
    }
  }
}
layer {
  name: "conv0/relu"
  type: "ReLU"
  bottom: "conv0"
  top: "conv0"
}
layer {
  name: "conv1/dw"
  type: "Convolution"
  bottom: "conv0"
  top: "conv1/dw"
  param {
    lr_mult: 1
    decay_mult: 1
  }
  convolution_param {
    num_output: 32
    bias_term: false
    pad: 1
    kernel_size: 3
    group: 32
    weight_filler {
      type: "msra"
    }
    engine: CAFFE
  }
}
layer {
  name: "conv1/dw/bn"
  type: "BatchNorm"
  bottom: "conv1/dw"
  top: "conv1/dw"
}
layer {
  name: "conv1/dw/scale"
  type: "Scale"
  bottom: "conv1/dw"
  top: "conv1/dw"
  param {
    lr_mult: 1
    decay_mult: 0
  }
  param {
    lr_mult: 2
    decay_mult: 0
  }
  scale_param {
    filler {
      value: 1
    }
    bias_term: true
    bias_filler {
      value: 0
    }
  }
}
layer {
  name: "conv1/dw/relu"
  type: "ReLU"
  bottom: "conv1/dw"
  top: "conv1/dw"
}
layer {
  name: "conv1"
  type: "Convolution"
  bottom: "conv1/dw"
  top: "conv1"
  param {
    lr_mult: 1
    decay_mult: 1
  }
  convolution_param {
    num_output: 64
    bias_term: false
    kernel_size: 1
    weight_filler {
      type: "msra"
    }
  }
}
layer {
  name: "conv1/bn"
  type: "BatchNorm"
  bottom: "conv1"
  top: "conv1"
}
layer {
  name: "conv1/scale"
  type: "Scale"
  bottom: "conv1"
  top: "conv1"
  param {
    lr_mult: 1
    decay_mult: 0
  }
  param {
    lr_mult: 2
    decay_mult: 0
  }
  scale_param {
    filler {
      value: 1
    }
    bias_term: true
    bias_filler {
      value: 0
    }
  }
}
layer {
  name: "conv1/relu"
  type: "ReLU"
  bottom: "conv1"
  top: "conv1"
}
layer {
  name: "conv2/dw"
  type: "Convolution"
  bottom: "conv1"
  top: "conv2/dw"
  param {
    lr_mult: 1
    decay_mult: 1
  }
  convolution_param {
    num_output: 64
    bias_term: false
    pad: 1
    kernel_size: 3
    group: 64
    stride: 2
    weight_filler {
      type: "msra"
    }
    engine: CAFFE
  }
}
layer {
  name: "conv2/dw/bn"
  type: "BatchNorm"
  bottom: "conv2/dw"
  top: "conv2/dw"
}
layer {
  name: "conv2/dw/scale"
  type: "Scale"
  bottom: "conv2/dw"
  top: "conv2/dw"
  param {
    lr_mult: 1
    decay_mult: 0
  }
  param {
    lr_mult: 2
    decay_mult: 0
  }
  scale_param {
    filler {
      value: 1
    }
    bias_term: true
    bias_filler {
      value: 0
    }
  }
}
layer {
  name: "conv2/dw/relu"
  type: "ReLU"
  bottom: "conv2/dw"
  top: "conv2/dw"
}
layer {
  name: "conv2"
  type: "Convolution"
  bottom: "conv2/dw"
  top: "conv2"
  param {
    lr_mult: 1
    decay_mult: 1
  }
  convolution_param {
    num_output: 128
    bias_term: false
    kernel_size: 1
    weight_filler {
      type: "msra"
    }
  }
}
layer {
  name: "conv2/bn"
  type: "BatchNorm"
  bottom: "conv2"
  top: "conv2"
}
layer {
  name: "conv2/scale"
  type: "Scale"
  bottom: "conv2"
  top: "conv2"
  param {
    lr_mult: 1
    decay_mult: 0
  }
  param {
    lr_mult: 2
    decay_mult: 0
  }
  scale_param {
    filler {
      value: 1
    }
    bias_term: true
    bias_filler {
      value: 0
    }
  }
}
layer {
  name: "conv2/relu"
  type: "ReLU"
  bottom: "conv2"
  top: "conv2"
}
layer {
  name: "conv3/dw"
  type: "Convolution"
  bottom: "conv2"
  top: "conv3/dw"
  param {
    lr_mult: 1
    decay_mult: 1
  }
  convolution_param {
    num_output: 128
    bias_term: false
    pad: 1
    kernel_size: 3
    group: 128
    weight_filler {
      type: "msra"
    }
    engine: CAFFE
  }
}
layer {
  name: "conv3/dw/bn"
  type: "BatchNorm"
  bottom: "conv3/dw"
  top: "conv3/dw"
}
layer {
  name: "conv3/dw/scale"
  type: "Scale"
  bottom: "conv3/dw"
  top: "conv3/dw"
  param {
    lr_mult: 1
    decay_mult: 0
  }
  param {
    lr_mult: 2
    decay_mult: 0
  }
  scale_param {
    filler {
      value: 1
    }
    bias_term: true
    bias_filler {
      value: 0
    }
  }
}
layer {
  name: "conv3/dw/relu"
  type: "ReLU"
  bottom: "conv3/dw"
  top: "conv3/dw"
}
layer {
  name: "conv3"
  type: "Convolution"
  bottom: "conv3/dw"
  top: "conv3"
  param {
    lr_mult: 1
    decay_mult: 1
  }
  convolution_param {
    num_output: 128
    bias_term: false
    kernel_size: 1
    weight_filler {
      type: "msra"
    }
  }
}
layer {
  name: "conv3/bn"
  type: "BatchNorm"
  bottom: "conv3"
  top: "conv3"
}
layer {
  name: "conv3/scale"
  type: "Scale"
  bottom: "conv3"
  top: "conv3"
  param {
    lr_mult: 1
    decay_mult: 0
  }
  param {
    lr_mult: 2
    decay_mult: 0
  }
  scale_param {
    filler {
      value: 1
    }
    bias_term: true
    bias_filler {
      value: 0
    }
  }
}
layer {
  name: "conv3/relu"
  type: "ReLU"
  bottom: "conv3"
  top: "conv3"
}
layer {
  name: "conv4/dw"
  type: "Convolution"
  bottom: "conv3"
  top: "conv4/dw"
  param {
    lr_mult: 1
    decay_mult: 1
  }
  convolution_param {
    num_output: 128
    bias_term: false
    pad: 1
    kernel_size: 3
    group: 128
    stride: 2
    weight_filler {
      type: "msra"
    }
    engine: CAFFE
  }
}
layer {
  name: "conv4/dw/bn"
  type: "BatchNorm"
  bottom: "conv4/dw"
  top: "conv4/dw"
}
layer {
  name: "conv4/dw/scale"
  type: "Scale"
  bottom: "conv4/dw"
  top: "conv4/dw"
  param {
    lr_mult: 1
    decay_mult: 0
  }
  param {
    lr_mult: 2
    decay_mult: 0
  }
  scale_param {
    filler {
      value: 1
    }
    bias_term: true
    bias_filler {
      value: 0
    }
  }
}
layer {
  name: "conv4/dw/relu"
  type: "ReLU"
  bottom: "conv4/dw"
  top: "conv4/dw"
}
layer {
  name: "conv4"
  type: "Convolution"
  bottom: "conv4/dw"
  top: "conv4"
  param {
    lr_mult: 1
    decay_mult: 1
  }
  convolution_param {
    num_output: 256
    bias_term: false
    kernel_size: 1
    weight_filler {
      type: "msra"
    }
  }
}
layer {
  name: "conv4/bn"
  type: "BatchNorm"
  bottom: "conv4"
  top: "conv4"
}
layer {
  name: "conv4/scale"
  type: "Scale"
  bottom: "conv4"
  top: "conv4"
  param {
    lr_mult: 1
    decay_mult: 0
  }
  param {
    lr_mult: 2
    decay_mult: 0
  }
  scale_param {
    filler {
      value: 1
    }
    bias_term: true
    bias_filler {
      value: 0
    }
  }
}
layer {
  name: "conv4/relu"
  type: "ReLU"
  bottom: "conv4"
  top: "conv4"
}
layer {
  name: "conv5/dw"
  type: "Convolution"
  bottom: "conv4"
  top: "conv5/dw"
  param {
    lr_mult: 1
    decay_mult: 1
  }
  convolution_param {
    num_output: 256
    bias_term: false
    pad: 1
    kernel_size: 3
    group: 256
    weight_filler {
      type: "msra"
    }
    engine: CAFFE
  }
}
layer {
  name: "conv5/dw/bn"
  type: "BatchNorm"
  bottom: "conv5/dw"
  top: "conv5/dw"
}
layer {
  name: "conv5/dw/scale"
  type: "Scale"
  bottom: "conv5/dw"
  top: "conv5/dw"
  param {
    lr_mult: 1
    decay_mult: 0
  }
  param {
    lr_mult: 2
    decay_mult: 0
  }
  scale_param {
    filler {
      value: 1
    }
    bias_term: true
    bias_filler {
      value: 0
    }
  }
}
layer {
  name: "conv5/dw/relu"
  type: "ReLU"
  bottom: "conv5/dw"
  top: "conv5/dw"
}
layer {
  name: "conv5"
  type: "Convolution"
  bottom: "conv5/dw"
  top: "conv5"
  param {
    lr_mult: 1
    decay_mult: 1
  }
  convolution_param {
    num_output: 256
    bias_term: false
    kernel_size: 1
    weight_filler {
      type: "msra"
    }
  }
}
layer {
  name: "conv5/bn"
  type: "BatchNorm"
  bottom: "conv5"
  top: "conv5"
}
layer {
  name: "conv5/scale"
  type: "Scale"
  bottom: "conv5"
  top: "conv5"
  param {
    lr_mult: 1
    decay_mult: 0
  }
  param {
    lr_mult: 2
    decay_mult: 0
  }
  scale_param {
    filler {
      value: 1
    }
    bias_term: true
    bias_filler {
      value: 0
    }
  }
}
layer {
  name: "conv5/relu"
  type: "ReLU"
  bottom: "conv5"
  top: "conv5"
}
layer {
  name: "conv6/dw"
  type: "Convolution"
  bottom: "conv5"
  top: "conv6/dw"
  param {
    lr_mult: 1
    decay_mult: 1
  }
  convolution_param {
    num_output: 256
    bias_term: false
    pad: 1
    kernel_size: 3
    group: 256
    stride: 2
    weight_filler {
      type: "msra"
    }
    engine: CAFFE
  }
}
layer {
  name: "conv6/dw/bn"
  type: "BatchNorm"
  bottom: "conv6/dw"
  top: "conv6/dw"
}
layer {
  name: "conv6/dw/scale"
  type: "Scale"
  bottom: "conv6/dw"
  top: "conv6/dw"
  param {
    lr_mult: 1
    decay_mult: 0
  }
  param {
    lr_mult: 2
    decay_mult: 0
  }
  scale_param {
    filler {
      value: 1
    }
    bias_term: true
    bias_filler {
      value: 0
    }
  }
}
layer {
  name: "conv6/dw/relu"
  type: "ReLU"
  bottom: "conv6/dw"
  top: "conv6/dw"
}
layer {
  name: "conv6"
  type: "Convolution"
  bottom: "conv6/dw"
  top: "conv6"
  param {
    lr_mult: 1
    decay_mult: 1
  }
  convolution_param {
    num_output: 512
    bias_term: false
    kernel_size: 1
    weight_filler {
      type: "msra"
    }
  }
}
layer {
  name: "conv6/bn"
  type: "BatchNorm"
  bottom: "conv6"
  top: "conv6"
}
layer {
  name: "conv6/scale"
  type: "Scale"
  bottom: "conv6"
  top: "conv6"
  param {
    lr_mult: 1
    decay_mult: 0
  }
  param {
    lr_mult: 2
    decay_mult: 0
  }
  scale_param {
    filler {
      value: 1
    }
    bias_term: true
    bias_filler {
      value: 0
    }
  }
}
layer {
  name: "conv6/relu"
  type: "ReLU"
  bottom: "conv6"
  top: "conv6"
}
layer {
  name: "conv7/dw"
  type: "Convolution"
  bottom: "conv6"
  top: "conv7/dw"
  param {
    lr_mult: 1
    decay_mult: 1
  }
  convolution_param {
    num_output: 512
    bias_term: false
    pad: 1
    kernel_size: 3
    group: 512
    weight_filler {
      type: "msra"
    }
    engine: CAFFE
  }
}
layer {
  name: "conv7/dw/bn"
  type: "BatchNorm"
  bottom: "conv7/dw"
  top: "conv7/dw"
}
layer {
  name: "conv7/dw/scale"
  type: "Scale"
  bottom: "conv7/dw"
  top: "conv7/dw"
  param {
    lr_mult: 1
    decay_mult: 0
  }
  param {
    lr_mult: 2
    decay_mult: 0
  }
  scale_param {
    filler {
      value: 1
    }
    bias_term: true
    bias_filler {
      value: 0
    }
  }
}
layer {
  name: "conv7/dw/relu"
  type: "ReLU"
  bottom: "conv7/dw"
  top: "conv7/dw"
}
layer {
  name: "conv7"
  type: "Convolution"
  bottom: "conv7/dw"
  top: "conv7"
  param {
    lr_mult: 1
    decay_mult: 1
  }
  convolution_param {
    num_output: 512
    bias_term: false
    kernel_size: 1
    weight_filler {
      type: "msra"
    }
  }
}
layer {
  name: "conv7/bn"
  type: "BatchNorm"
  bottom: "conv7"
  top: "conv7"
}
layer {
  name: "conv7/scale"
  type: "Scale"
  bottom: "conv7"
  top: "conv7"
  param {
    lr_mult: 1
    decay_mult: 0
  }
  param {
    lr_mult: 2
    decay_mult: 0
  }
  scale_param {
    filler {
      value: 1
    }
    bias_term: true
    bias_filler {
      value: 0
    }
  }
}
layer {
  name: "conv7/relu"
  type: "ReLU"
  bottom: "conv7"
  top: "conv7"
}
layer {
  name: "conv8/dw"
  type: "Convolution"
  bottom: "conv7"
  top: "conv8/dw"
  param {
    lr_mult: 1
    decay_mult: 1
  }
  convolution_param {
    num_output: 512
    bias_term: false
    pad: 1
    kernel_size: 3
    group: 512
    weight_filler {
      type: "msra"
    }
    engine: CAFFE
  }
}
layer {
  name: "conv8/dw/bn"
  type: "BatchNorm"
  bottom: "conv8/dw"
  top: "conv8/dw"
}
layer {
  name: "conv8/dw/scale"
  type: "Scale"
  bottom: "conv8/dw"
  top: "conv8/dw"
  param {
    lr_mult: 1
    decay_mult: 0
  }
  param {
    lr_mult: 2
    decay_mult: 0
  }
  scale_param {
    filler {
      value: 1
    }
    bias_term: true
    bias_filler {
      value: 0
    }
  }
}
layer {
  name: "conv8/dw/relu"
  type: "ReLU"
  bottom: "conv8/dw"
  top: "conv8/dw"
}
layer {
  name: "conv8"
  type: "Convolution"
  bottom: "conv8/dw"
  top: "conv8"
  param {
    lr_mult: 1
    decay_mult: 1
  }
  convolution_param {
    num_output: 512
    bias_term: false
    kernel_size: 1
    weight_filler {
      type: "msra"
    }
  }
}
layer {
  name: "conv8/bn"
  type: "BatchNorm"
  bottom: "conv8"
  top: "conv8"
}
layer {
  name: "conv8/scale"
  type: "Scale"
  bottom: "conv8"
  top: "conv8"
  param {
    lr_mult: 1
    decay_mult: 0
  }
  param {
    lr_mult: 2
    decay_mult: 0
  }
  scale_param {
    filler {
      value: 1
    }
    bias_term: true
    bias_filler {
      value: 0
    }
  }
}
layer {
  name: "conv8/relu"
  type: "ReLU"
  bottom: "conv8"
  top: "conv8"
}
layer {
  name: "conv9/dw"
  type: "Convolution"
  bottom: "conv8"
  top: "conv9/dw"
  param {
    lr_mult: 1
    decay_mult: 1
  }
  convolution_param {
    num_output: 512
    bias_term: false
    pad: 1
    kernel_size: 3
    group: 512
    weight_filler {
      type: "msra"
    }
    engine: CAFFE
  }
}
layer {
  name: "conv9/dw/bn"
  type: "BatchNorm"
  bottom: "conv9/dw"
  top: "conv9/dw"
}
layer {
  name: "conv9/dw/scale"
  type: "Scale"
  bottom: "conv9/dw"
  top: "conv9/dw"
  param {
    lr_mult: 1
    decay_mult: 0
  }
  param {
    lr_mult: 2
    decay_mult: 0
  }
  scale_param {
    filler {
      value: 1
    }
    bias_term: true
    bias_filler {
      value: 0
    }
…
I1031 15:35:12.834599 31277 layer_factory.hpp:77] Creating layer conv14_1/scale
I1031 15:35:12.834604 31277 net.cpp:100] Creating Layer conv14_1/scale
I1031 15:35:12.834606 31277 net.cpp:478] conv14_1/scale <- conv14_1
I1031 15:35:12.834612 31277 net.cpp:439] conv14_1/scale -> conv14_1 (in-place)
I1031 15:35:12.834646 31277 layer_factory.hpp:77] Creating layer conv14_1/scale
I1031 15:35:12.834750 31277 net.cpp:150] Setting up conv14_1/scale
I1031 15:35:12.834756 31277 net.cpp:157] Top shape: 8 256 10 10 (204800)
I1031 15:35:12.834758 31277 net.cpp:165] Memory required for data: 1283100736
I1031 15:35:12.834764 31277 layer_factory.hpp:77] Creating layer conv14_1/relu
I1031 15:35:12.834767 31277 net.cpp:100] Creating Layer conv14_1/relu
I1031 15:35:12.834770 31277 net.cpp:478] conv14_1/relu <- conv14_1
I1031 15:35:12.834774 31277 net.cpp:439] conv14_1/relu -> conv14_1 (in-place)
I1031 15:35:12.834780 31277 net.cpp:150] Setting up conv14_1/relu
I1031 15:35:12.834784 31277 net.cpp:157] Top shape: 8 256 10 10 (204800)
I1031 15:35:12.834785 31277 net.cpp:165] Memory required for data: 1283919936
I1031 15:35:12.834787 31277 layer_factory.hpp:77] Creating layer conv14_2
I1031 15:35:12.834794 31277 net.cpp:100] Creating Layer conv14_2
I1031 15:35:12.834796 31277 net.cpp:478] conv14_2 <- conv14_1
I1031 15:35:12.834802 31277 net.cpp:452] conv14_2 -> conv14_2
I1031 15:35:12.848860 31277 net.cpp:150] Setting up conv14_2
I1031 15:35:12.848873 31277 net.cpp:157] Top shape: 8 512 5 5 (102400)
I1031 15:35:12.848876 31277 net.cpp:165] Memory required for data: 1284329536
I1031 15:35:12.848881 31277 layer_factory.hpp:77] Creating layer conv14_2/bn
I1031 15:35:12.848889 31277 net.cpp:100] Creating Layer conv14_2/bn
I1031 15:35:12.848892 31277 net.cpp:478] conv14_2/bn <- conv14_2
I1031 15:35:12.848897 31277 net.cpp:439] conv14_2/bn -> conv14_2 (in-place)
I1031 15:35:12.849090 31277 net.cpp:150] Setting up conv14_2/bn
I1031 15:35:12.849097 31277 net.cpp:157] Top shape: 8 512 5 5 (102400)
I1031 15:35:12.849098 31277 net.cpp:165] Memory required for data: 1284739136
I1031 15:35:12.849117 31277 layer_factory.hpp:77] Creating layer conv14_2/scale
I1031 15:35:12.849125 31277 net.cpp:100] Creating Layer conv14_2/scale
I1031 15:35:12.849128 31277 net.cpp:478] conv14_2/scale <- conv14_2
I1031 15:35:12.849133 31277 net.cpp:439] conv14_2/scale -> conv14_2 (in-place)
I1031 15:35:12.849171 31277 layer_factory.hpp:77] Creating layer conv14_2/scale
I1031 15:35:12.849278 31277 net.cpp:150] Setting up conv14_2/scale
I1031 15:35:12.849283 31277 net.cpp:157] Top shape: 8 512 5 5 (102400)
I1031 15:35:12.849287 31277 net.cpp:165] Memory required for data: 1285148736
I1031 15:35:12.849290 31277 layer_factory.hpp:77] Creating layer conv14_2/relu
I1031 15:35:12.849295 31277 net.cpp:100] Creating Layer conv14_2/relu
I1031 15:35:12.849298 31277 net.cpp:478] conv14_2/relu <- conv14_2
I1031 15:35:12.849303 31277 net.cpp:439] conv14_2/relu -> conv14_2 (in-place)
I1031 15:35:12.849308 31277 net.cpp:150] Setting up conv14_2/relu
I1031 15:35:12.849313 31277 net.cpp:157] Top shape: 8 512 5 5 (102400)
I1031 15:35:12.849314 31277 net.cpp:165] Memory required for data: 1285558336
I1031 15:35:12.849316 31277 layer_factory.hpp:77] Creating layer conv14_2_conv14_2/relu_0_split
I1031 15:35:12.849321 31277 net.cpp:100] Creating Layer conv14_2_conv14_2/relu_0_split
I1031 15:35:12.849323 31277 net.cpp:478] conv14_2_conv14_2/relu_0_split <- conv14_2
I1031 15:35:12.849333 31277 net.cpp:452] conv14_2_conv14_2/relu_0_split -> conv14_2_conv14_2/relu_0_split_0
I1031 15:35:12.849339 31277 net.cpp:452] conv14_2_conv14_2/relu_0_split -> conv14_2_conv14_2/relu_0_split_1
I1031 15:35:12.849344 31277 net.cpp:452] conv14_2_conv14_2/relu_0_split -> conv14_2_conv14_2/relu_0_split_2
I1031 15:35:12.849349 31277 net.cpp:452] conv14_2_conv14_2/relu_0_split -> conv14_2_conv14_2/relu_0_split_3
I1031 15:35:12.849400 31277 net.cpp:150] Setting up conv14_2_conv14_2/relu_0_split
I1031 15:35:12.849405 31277 net.cpp:157] Top shape: 8 512 5 5 (102400)
I1031 15:35:12.849407 31277 net.cpp:157] Top shape: 8 512 5 5 (102400)
I1031 15:35:12.849411 31277 net.cpp:157] Top shape: 8 512 5 5 (102400)
I1031 15:35:12.849413 31277 net.cpp:157] Top shape: 8 512 5 5 (102400)
I1031 15:35:12.849416 31277 net.cpp:165] Memory required for data: 1287196736
I1031 15:35:12.849418 31277 layer_factory.hpp:77] Creating layer conv15_1
I1031 15:35:12.849426 31277 net.cpp:100] Creating Layer conv15_1
I1031 15:35:12.849428 31277 net.cpp:478] conv15_1 <- conv14_2_conv14_2/relu_0_split_0
I1031 15:35:12.849433 31277 net.cpp:452] conv15_1 -> conv15_1
I1031 15:35:12.850275 31277 net.cpp:150] Setting up conv15_1
I1031 15:35:12.850283 31277 net.cpp:157] Top shape: 8 128 5 5 (25600)
I1031 15:35:12.850286 31277 net.cpp:165] Memory required for data: 1287299136
I1031 15:35:12.850289 31277 layer_factory.hpp:77] Creating layer conv15_1/bn
I1031 15:35:12.850296 31277 net.cpp:100] Creating Layer conv15_1/bn
I1031 15:35:12.850298 31277 net.cpp:478] conv15_1/bn <- conv15_1
I1031 15:35:12.850302 31277 net.cpp:439] conv15_1/bn -> conv15_1 (in-place)
I1031 15:35:12.850466 31277 net.cpp:150] Setting up conv15_1/bn
I1031 15:35:12.850472 31277 net.cpp:157] Top shape: 8 128 5 5 (25600)
I1031 15:35:12.850474 31277 net.cpp:165] Memory required for data: 1287401536
I1031 15:35:12.850479 31277 layer_factory.hpp:77] Creating layer conv15_1/scale
I1031 15:35:12.850486 31277 net.cpp:100] Creating Layer conv15_1/scale
I1031 15:35:12.850489 31277 net.cpp:478] conv15_1/scale <- conv15_1
I1031 15:35:12.850493 31277 net.cpp:439] conv15_1/scale -> conv15_1 (in-place)
I1031 15:35:12.850525 31277 layer_factory.hpp:77] Creating layer conv15_1/scale
I1031 15:35:12.850615 31277 net.cpp:150] Setting up conv15_1/scale
I1031 15:35:12.850620 31277 net.cpp:157] Top shape: 8 128 5 5 (25600)
I1031 15:35:12.850622 31277 net.cpp:165] Memory required for data: 1287503936
I1031 15:35:12.850626 31277 layer_factory.hpp:77] Creating layer conv15_1/relu
I1031 15:35:12.850632 31277 net.cpp:100] Creating Layer conv15_1/relu
I1031 15:35:12.850634 31277 net.cpp:478] conv15_1/relu <- conv15_1
I1031 15:35:12.850638 31277 net.cpp:439] conv15_1/relu -> conv15_1 (in-place)
I1031 15:35:12.850652 31277 net.cpp:150] Setting up conv15_1/relu
I1031 15:35:12.850656 31277 net.cpp:157] Top shape: 8 128 5 5 (25600)
I1031 15:35:12.850658 31277 net.cpp:165] Memory required for data: 1287606336
I1031 15:35:12.850661 31277 layer_factory.hpp:77] Creating layer conv15_2
I1031 15:35:12.850668 31277 net.cpp:100] Creating Layer conv15_2
I1031 15:35:12.850670 31277 net.cpp:478] conv15_2 <- conv15_1
I1031 15:35:12.850675 31277 net.cpp:452] conv15_2 -> conv15_2
I1031 15:35:12.854598 31277 net.cpp:150] Setting up conv15_2
I1031 15:35:12.854625 31277 net.cpp:157] Top shape: 8 256 3 3 (18432)
I1031 15:35:12.854629 31277 net.cpp:165] Memory required for data: 1287680064
I1031 15:35:12.854632 31277 layer_factory.hpp:77] Creating layer conv15_2/bn
I1031 15:35:12.854638 31277 net.cpp:100] Creating Layer conv15_2/bn
I1031 15:35:12.854641 31277 net.cpp:478] conv15_2/bn <- conv15_2
I1031 15:35:12.854646 31277 net.cpp:439] conv15_2/bn -> conv15_2 (in-place)
I1031 15:35:12.854827 31277 net.cpp:150] Setting up conv15_2/bn
I1031 15:35:12.854835 31277 net.cpp:157] Top shape: 8 256 3 3 (18432)
I1031 15:35:12.854836 31277 net.cpp:165] Memory required for data: 1287753792
I1031 15:35:12.854853 31277 layer_factory.hpp:77] Creating layer conv15_2/scale
I1031 15:35:12.854858 31277 net.cpp:100] Creating Layer conv15_2/scale
I1031 15:35:12.854861 31277 net.cpp:478] conv15_2/scale <- conv15_2
I1031 15:35:12.854866 31277 net.cpp:439] conv15_2/scale -> conv15_2 (in-place)
I1031 15:35:12.854908 31277 layer_factory.hpp:77] Creating layer conv15_2/scale
I1031 15:35:12.855034 31277 net.cpp:150] Setting up conv15_2/scale
I1031 15:35:12.855041 31277 net.cpp:157] Top shape: 8 256 3 3 (18432)
I1031 15:35:12.855043 31277 net.cpp:165] Memory required for data: 1287827520
I1031 15:35:12.855048 31277 layer_factory.hpp:77] Creating layer conv15_2/relu
I1031 15:35:12.855067 31277 net.cpp:100] Creating Layer conv15_2/relu
I1031 15:35:12.855070 31277 net.cpp:478] conv15_2/relu <- conv15_2
I1031 15:35:12.855075 31277 net.cpp:439] conv15_2/relu -> conv15_2 (in-place)
I1031 15:35:12.855080 31277 net.cpp:150] Setting up conv15_2/relu
I1031 15:35:12.855083 31277 net.cpp:157] Top shape: 8 256 3 3 (18432)
I1031 15:35:12.855085 31277 net.cpp:165] Memory required for data: 1287901248
I1031 15:35:12.855088 31277 layer_factory.hpp:77] Creating layer conv15_2_conv15_2/relu_0_split
I1031 15:35:12.855093 31277 net.cpp:100] Creating Layer conv15_2_conv15_2/relu_0_split
I1031 15:35:12.855095 31277 net.cpp:478] conv15_2_conv15_2/relu_0_split <- conv15_2
I1031 15:35:12.855100 31277 net.cpp:452] conv15_2_conv15_2/relu_0_split -> conv15_2_conv15_2/relu_0_split_0
I1031 15:35:12.855106 31277 net.cpp:452] conv15_2_conv15_2/relu_0_split -> conv15_2_conv15_2/relu_0_split_1
I1031 15:35:12.855111 31277 net.cpp:452] conv15_2_conv15_2/relu_0_split -> conv15_2_conv15_2/relu_0_split_2
I1031 15:35:12.855116 31277 net.cpp:452] conv15_2_conv15_2/relu_0_split -> conv15_2_conv15_2/relu_0_split_3
I1031 15:35:12.855216 31277 net.cpp:150] Setting up conv15_2_conv15_2/relu_0_split
I1031 15:35:12.855235 31277 net.cpp:157] Top shape: 8 256 3 3 (18432)
I1031 15:35:12.855238 31277 net.cpp:157] Top shape: 8 256 3 3 (18432)
I1031 15:35:12.855242 31277 net.cpp:157] Top shape: 8 256 3 3 (18432)
I1031 15:35:12.855260 31277 net.cpp:157] Top shape: 8 256 3 3 (18432)
I1031 15:35:12.855262 31277 net.cpp:165] Memory required for data: 1288196160
I1031 15:35:12.855264 31277 layer_factory.hpp:77] Creating layer conv16_1
I1031 15:35:12.855273 31277 net.cpp:100] Creating Layer conv16_1
I1031 15:35:12.855275 31277 net.cpp:478] conv16_1 <- conv15_2_conv15_2/relu_0_split_0
I1031 15:35:12.855281 31277 net.cpp:452] conv16_1 -> conv16_1
I1031 15:35:12.855798 31277 net.cpp:150] Setting up conv16_1
I1031 15:35:12.855804 31277 net.cpp:157] Top shape: 8 128 3 3 (9216)
I1031 15:35:12.855806 31277 net.cpp:165] Memory required for data: 1288233024
I1031 15:35:12.855810 31277 layer_factory.hpp:77] Creating layer conv16_1/bn
I1031 15:35:12.855814 31277 net.cpp:100] Creating Layer conv16_1/bn
I1031 15:35:12.855829 31277 net.cpp:478] conv16_1/bn <- conv16_1
I1031 15:35:12.855835 31277 net.cpp:439] conv16_1/bn -> conv16_1 (in-place)
I1031 15:35:12.856037 31277 net.cpp:150] Setting up conv16_1/bn
I1031 15:35:12.856043 31277 net.cpp:157] Top shape: 8 128 3 3 (9216)
I1031 15:35:12.856045 31277 net.cpp:165] Memory required for data: 1288269888
I1031 15:35:12.856052 31277 layer_factory.hpp:77] Creating layer conv16_1/scale
I1031 15:35:12.856057 31277 net.cpp:100] Creating Layer conv16_1/scale
I1031 15:35:12.856060 31277 net.cpp:478] conv16_1/scale <- conv16_1
I1031 15:35:12.856066 31277 net.cpp:439] conv16_1/scale -> conv16_1 (in-place)
I1031 15:35:12.856101 31277 layer_factory.hpp:77] Creating layer conv16_1/scale
I1031 15:35:12.856215 31277 net.cpp:150] Setting up conv16_1/scale
I1031 15:35:12.856236 31277 net.cpp:157] Top shape: 8 128 3 3 (9216)
I1031 15:35:12.856238 31277 net.cpp:165] Memory required for data: 1288306752
I1031 15:35:12.856259 31277 layer_factory.hpp:77] Creating layer conv16_1/relu
I1031 15:35:12.856264 31277 net.cpp:100] Creating Layer conv16_1/relu
I1031 15:35:12.856266 31277 net.cpp:478] conv16_1/relu <- conv16_1
I1031 15:35:12.856273 31277 net.cpp:439] conv16_1/relu -> conv16_1 (in-place)
I1031 15:35:12.856293 31277 net.cpp:150] Setting up conv16_1/relu
I1031 15:35:12.856297 31277 net.cpp:157] Top shape: 8 128 3 3 (9216)
I1031 15:35:12.856298 31277 net.cpp:165] Memory required for data: 1288343616
I1031 15:35:12.856302 31277 layer_factory.hpp:77] Creating layer conv16_2
I1031 15:35:12.856307 31277 net.cpp:100] Creating Layer conv16_2
I1031 15:35:12.856312 31277 net.cpp:478] conv16_2 <- conv16_1
I1031 15:35:12.856315 31277 net.cpp:452] conv16_2 -> conv16_2
I1031 15:35:12.860472 31277 net.cpp:150] Setting up conv16_2
I1031 15:35:12.860483 31277 net.cpp:157] Top shape: 8 256 2 2 (8192)
I1031 15:35:12.860486 31277 net.cpp:165] Memory required for data: 1288376384
I1031 15:35:12.860491 31277 layer_factory.hpp:77] Creating layer conv16_2/bn
I1031 15:35:12.860498 31277 net.cpp:100] Creating Layer conv16_2/bn
I1031 15:35:12.860502 31277 net.cpp:478] conv16_2/bn <- conv16_2
I1031 15:35:12.860505 31277 net.cpp:439] conv16_2/bn -> conv16_2 (in-place)
I1031 15:35:12.860724 31277 net.cpp:150] Setting up conv16_2/bn
I1031 15:35:12.860729 31277 net.cpp:157] Top shape: 8 256 2 2 (8192)
I1031 15:35:12.860731 31277 net.cpp:165] Memory required for data: 1288409152
I1031 15:35:12.860736 31277 layer_factory.hpp:77] Creating layer conv16_2/scale
I1031 15:35:12.860743 31277 net.cpp:100] Creating Layer conv16_2/scale
I1031 15:35:12.860746 31277 net.cpp:478] conv16_2/scale <- conv16_2
I1031 15:35:12.860749 31277 net.cpp:439] conv16_2/scale -> conv16_2 (in-place)
I1031 15:35:12.860785 31277 layer_factory.hpp:77] Creating layer conv16_2/scale
I1031 15:35:12.860878 31277 net.cpp:150] Setting up conv16_2/scale
I1031 15:35:12.860884 31277 net.cpp:157] Top shape: 8 256 2 2 (8192)
I1031 15:35:12.860887 31277 net.cpp:165] Memory required for data: 1288441920
I1031 15:35:12.860890 31277 layer_factory.hpp:77] Creating layer conv16_2/relu
I1031 15:35:12.860909 31277 net.cpp:100] Creating Layer conv16_2/relu
I1031 15:35:12.860913 31277 net.cpp:478] conv16_2/relu <- conv16_2
I1031 15:35:12.860918 31277 net.cpp:439] conv16_2/relu -> conv16_2 (in-place)
I1031 15:35:12.860921 31277 net.cpp:150] Setting up conv16_2/relu
I1031 15:35:12.860924 31277 net.cpp:157] Top shape: 8 256 2 2 (8192)
I1031 15:35:12.860926 31277 net.cpp:165] Memory required for data: 1288474688
I1031 15:35:12.860929 31277 layer_factory.hpp:77] Creating layer conv16_2_conv16_2/relu_0_split
I1031 15:35:12.860932 31277 net.cpp:100] Creating Layer conv16_2_conv16_2/relu_0_split
I1031 15:35:12.860934 31277 net.cpp:478] conv16_2_conv16_2/relu_0_split <- conv16_2
I1031 15:35:12.860941 31277 net.cpp:452] conv16_2_conv16_2/relu_0_split -> conv16_2_conv16_2/relu_0_split_0
I1031 15:35:12.860946 31277 net.cpp:452] conv16_2_conv16_2/relu_0_split -> conv16_2_conv16_2/relu_0_split_1
I1031 15:35:12.860951 31277 net.cpp:452] conv16_2_conv16_2/relu_0_split -> conv16_2_conv16_2/relu_0_split_2
I1031 15:35:12.860983 31277 net.cpp:452] conv16_2_conv16_2/relu_0_split -> conv16_2_conv16_2/relu_0_split_3
I1031 15:35:12.861055 31277 net.cpp:150] Setting up conv16_2_conv16_2/relu_0_split
I1031 15:35:12.861062 31277 net.cpp:157] Top shape: 8 256 2 2 (8192)
I1031 15:35:12.861064 31277 net.cpp:157] Top shape: 8 256 2 2 (8192)
I1031 15:35:12.861068 31277 net.cpp:157] Top shape: 8 256 2 2 (8192)
I1031 15:35:12.861070 31277 net.cpp:157] Top shape: 8 256 2 2 (8192)
I1031 15:35:12.861071 31277 net.cpp:165] Memory required for data: 1288605760
I1031 15:35:12.861074 31277 layer_factory.hpp:77] Creating layer conv17_1
I1031 15:35:12.861080 31277 net.cpp:100] Creating Layer conv17_1
I1031 15:35:12.861083 31277 net.cpp:478] conv17_1 <- conv16_2_conv16_2/relu_0_split_0
I1031 15:35:12.861088 31277 net.cpp:452] conv17_1 -> conv17_1
I1031 15:35:12.861435 31277 net.cpp:150] Setting up conv17_1
I1031 15:35:12.861441 31277 net.cpp:157] Top shape: 8 64 2 2 (2048)
I1031 15:35:12.861443 31277 net.cpp:165] Memory required for data: 1288613952
I1031 15:35:12.861448 31277 layer_factory.hpp:77] Creating layer conv17_1/bn
I1031 15:35:12.861454 31277 net.cpp:100] Creating Layer conv17_1/bn
I1031 15:35:12.861455 31277 net.cpp:478] conv17_1/bn <- conv17_1
I1031 15:35:12.861459 31277 net.cpp:439] conv17_1/bn -> conv17_1 (in-place)
I1031 15:35:12.861613 31277 net.cpp:150] Setting up conv17_1/bn
I1031 15:35:12.861618 31277 net.cpp:157] Top shape: 8 64 2 2 (2048)
I1031 15:35:12.861619 31277 net.cpp:165] Memory required for data: 1288622144
I1031 15:35:12.861624 31277 layer_factory.hpp:77] Creating layer conv17_1/scale
I1031 15:35:12.861630 31277 net.cpp:100] Creating Layer conv17_1/scale
I1031 15:35:12.861634 31277 net.cpp:478] conv17_1/scale <- conv17_1
I1031 15:35:12.861636 31277 net.cpp:439] conv17_1/scale -> conv17_1 (in-place)
I1031 15:35:12.861678 31277 layer_factory.hpp:77] Creating layer conv17_1/scale
I1031 15:35:12.861773 31277 net.cpp:150] Setting up conv17_1/scale
I1031 15:35:12.861778 31277 net.cpp:157] Top shape: 8 64 2 2 (2048)
I1031 15:35:12.861780 31277 net.cpp:165] Memory required for data: 1288630336
I1031 15:35:12.861784 31277 layer_factory.hpp:77] Creating layer conv17_1/relu
I1031 15:35:12.861788 31277 net.cpp:100] Creating Layer conv17_1/relu
I1031 15:35:12.861791 31277 net.cpp:478] conv17_1/relu <- conv17_1
I1031 15:35:12.861794 31277 net.cpp:439] conv17_1/relu -> conv17_1 (in-place)
I1031 15:35:12.861799 31277 net.cpp:150] Setting up conv17_1/relu
I1031 15:35:12.861801 31277 net.cpp:157] Top shape: 8 64 2 2 (2048)
I1031 15:35:12.861804 31277 net.cpp:165] Memory required for data: 1288638528
I1031 15:35:12.861805 31277 layer_factory.hpp:77] Creating layer conv17_2
I1031 15:35:12.861812 31277 net.cpp:100] Creating Layer conv17_2
I1031 15:35:12.861814 31277 net.cpp:478] conv17_2 <- conv17_1
I1031 15:35:12.861819 31277 net.cpp:452] conv17_2 -> conv17_2
I1031 15:35:12.863822 31277 net.cpp:150] Setting up conv17_2
I1031 15:35:12.863833 31277 net.cpp:157] Top shape: 8 128 1 1 (1024)
I1031 15:35:12.863837 31277 net.cpp:165] Memory required for data: 1288642624
I1031 15:35:12.863840 31277 layer_factory.hpp:77] Creating layer conv17_2/bn
I1031 15:35:12.863847 31277 net.cpp:100] Creating Layer conv17_2/bn
I1031 15:35:12.863850 31277 net.cpp:478] conv17_2/bn <- conv17_2
I1031 15:35:12.863854 31277 net.cpp:439] conv17_2/bn -> conv17_2 (in-place)
I1031 15:35:12.864045 31277 net.cpp:150] Setting up conv17_2/bn
I1031 15:35:12.864050 31277 net.cpp:157] Top shape: 8 128 1 1 (1024)
I1031 15:35:12.864053 31277 net.cpp:165] Memory required for data: 1288646720
I1031 15:35:12.864073 31277 layer_factory.hpp:77] Creating layer conv17_2/scale
I1031 15:35:12.864080 31277 net.cpp:100] Creating Layer conv17_2/scale
I1031 15:35:12.864084 31277 net.cpp:478] conv17_2/scale <- conv17_2
I1031 15:35:12.864087 31277 net.cpp:439] conv17_2/scale -> conv17_2 (in-place)
I1031 15:35:12.864120 31277 layer_factory.hpp:77] Creating layer conv17_2/scale
I1031 15:35:12.864220 31277 net.cpp:150] Setting up conv17_2/scale
I1031 15:35:12.864225 31277 net.cpp:157] Top shape: 8 128 1 1 (1024)
I1031 15:35:12.864238 31277 net.cpp:165] Memory required for data: 1288650816
I1031 15:35:12.864243 31277 layer_factory.hpp:77] Creating layer conv17_2/relu
I1031 15:35:12.864249 31277 net.cpp:100] Creating Layer conv17_2/relu
I1031 15:35:12.864251 31277 net.cpp:478] conv17_2/relu <- conv17_2
I1031 15:35:12.864255 31277 net.cpp:439] conv17_2/relu -> conv17_2 (in-place)
I1031 15:35:12.864259 31277 net.cpp:150] Setting up conv17_2/relu
I1031 15:35:12.864277 31277 net.cpp:157] Top shape: 8 128 1 1 (1024)
I1031 15:35:12.864279 31277 net.cpp:165] Memory required for data: 1288654912
I1031 15:35:12.864281 31277 layer_factory.hpp:77] Creating layer conv17_2_conv17_2/relu_0_split
I1031 15:35:12.864286 31277 net.cpp:100] Creating Layer conv17_2_conv17_2/relu_0_split
I1031 15:35:12.864289 31277 net.cpp:478] conv17_2_conv17_2/relu_0_split <- conv17_2
I1031 15:35:12.864292 31277 net.cpp:452] conv17_2_conv17_2/relu_0_split -> conv17_2_conv17_2/relu_0_split_0
I1031 15:35:12.864308 31277 net.cpp:452] conv17_2_conv17_2/relu_0_split -> conv17_2_conv17_2/relu_0_split_1
I1031 15:35:12.864313 31277 net.cpp:452] conv17_2_conv17_2/relu_0_split -> conv17_2_conv17_2/relu_0_split_2
I1031 15:35:12.864356 31277 net.cpp:150] Setting up conv17_2_conv17_2/relu_0_split
I1031 15:35:12.864361 31277 net.cpp:157] Top shape: 8 128 1 1 (1024)
I1031 15:35:12.864363 31277 net.cpp:157] Top shape: 8 128 1 1 (1024)
I1031 15:35:12.864365 31277 net.cpp:157] Top shape: 8 128 1 1 (1024)
I1031 15:35:12.864367 31277 net.cpp:165] Memory required for data: 1288667200
I1031 15:35:12.864369 31277 layer_factory.hpp:77] Creating layer conv11_mbox_loc
I1031 15:35:12.864377 31277 net.cpp:100] Creating Layer conv11_mbox_loc
I1031 15:35:12.864379 31277 net.cpp:478] conv11_mbox_loc <- conv11_conv11/relu_0_split_1
I1031 15:35:12.864385 31277 net.cpp:452] conv11_mbox_loc -> conv11_mbox_loc
I1031 15:35:12.864645 31277 net.cpp:150] Setting up conv11_mbox_loc
I1031 15:35:12.864665 31277 net.cpp:157] Top shape: 8 12 19 19 (34656)
I1031 15:35:12.864668 31277 net.cpp:165] Memory required for data: 1288805824
I1031 15:35:12.864672 31277 layer_factory.hpp:77] Creating layer conv11_mbox_loc_perm
I1031 15:35:12.864678 31277 net.cpp:100] Creating Layer conv11_mbox_loc_perm
I1031 15:35:12.864681 31277 net.cpp:478] conv11_mbox_loc_perm <- conv11_mbox_loc
I1031 15:35:12.864686 31277 net.cpp:452] conv11_mbox_loc_perm -> conv11_mbox_loc_perm
I1031 15:35:12.864778 31277 net.cpp:150] Setting up conv11_mbox_loc_perm
I1031 15:35:12.864800 31277 net.cpp:157] Top shape: 8 19 19 12 (34656)
I1031 15:35:12.864802 31277 net.cpp:165] Memory required for data: 1288944448
I1031 15:35:12.864804 31277 layer_factory.hpp:77] Creating layer conv11_mbox_loc_flat
I1031 15:35:12.864810 31277 net.cpp:100] Creating Layer conv11_mbox_loc_flat
I1031 15:35:12.864814 31277 net.cpp:478] conv11_mbox_loc_flat <- conv11_mbox_loc_perm
I1031 15:35:12.864832 31277 net.cpp:452] conv11_mbox_loc_flat -> conv11_mbox_loc_flat
I1031 15:35:12.864852 31277 net.cpp:150] Setting up conv11_mbox_loc_flat
I1031 15:35:12.864856 31277 net.cpp:157] Top shape: 8 4332 (34656)
I1031 15:35:12.864857 31277 net.cpp:165] Memory required for data: 1289083072
I1031 15:35:12.864861 31277 layer_factory.hpp:77] Creating layer conv11_mbox_conf_new
I1031 15:35:12.864869 31277 net.cpp:100] Creating Layer conv11_mbox_conf_new
I1031 15:35:12.864871 31277 net.cpp:478] conv11_mbox_conf_new <- conv11_conv11/relu_0_split_2
I1031 15:35:12.864876 31277 net.cpp:452] conv11_mbox_conf_new -> conv11_mbox_conf
I1031 15:35:12.866426 31277 net.cpp:150] Setting up conv11_mbox_conf_new
I1031 15:35:12.866437 31277 net.cpp:157] Top shape: 8 63 19 19 (181944)
I1031 15:35:12.866439 31277 net.cpp:165] Memory required for data: 1289810848
I1031 15:35:12.866444 31277 layer_factory.hpp:77] Creating layer conv11_mbox_conf_perm
I1031 15:35:12.866451 31277 net.cpp:100] Creating Layer conv11_mbox_conf_perm
I1031 15:35:12.866453 31277 net.cpp:478] conv11_mbox_conf_perm <- conv11_mbox_conf
I1031 15:35:12.866459 31277 net.cpp:452] conv11_mbox_conf_perm -> conv11_mbox_conf_perm
I1031 15:35:12.866554 31277 net.cpp:150] Setting up conv11_mbox_conf_perm
I1031 15:35:12.866559 31277 net.cpp:157] Top shape: 8 19 19 63 (181944)
I1031 15:35:12.866561 31277 net.cpp:165] Memory required for data: 1290538624
I1031 15:35:12.866564 31277 layer_factory.hpp:77] Creating layer conv11_mbox_conf_flat
I1031 15:35:12.866569 31277 net.cpp:100] Creating Layer conv11_mbox_conf_flat
I1031 15:35:12.866570 31277 net.cpp:478] conv11_mbox_conf_flat <- conv11_mbox_conf_perm
I1031 15:35:12.866577 31277 net.cpp:452] conv11_mbox_conf_flat -> conv11_mbox_conf_flat
I1031 15:35:12.866597 31277 net.cpp:150] Setting up conv11_mbox_conf_flat
I1031 15:35:12.866601 31277 net.cpp:157] Top shape: 8 22743 (181944)
I1031 15:35:12.866603 31277 net.cpp:165] Memory required for data: 1291266400
I1031 15:35:12.866605 31277 layer_factory.hpp:77] Creating layer conv11_mbox_priorbox
I1031 15:35:12.866611 31277 net.cpp:100] Creating Layer conv11_mbox_priorbox
I1031 15:35:12.866614 31277 net.cpp:478] conv11_mbox_priorbox <- conv11_conv11/relu_0_split_3
I1031 15:35:12.866618 31277 net.cpp:478] conv11_mbox_priorbox <- data_data_0_split_1
I1031 15:35:12.866623 31277 net.cpp:452] conv11_mbox_priorbox -> conv11_mbox_priorbox
I1031 15:35:12.866647 31277 net.cpp:150] Setting up conv11_mbox_priorbox
I1031 15:35:12.866650 31277 net.cpp:157] Top shape: 1 2 4332 (8664)
I1031 15:35:12.866652 31277 net.cpp:165] Memory required for data: 1291301056
I1031 15:35:12.866654 31277 layer_factory.hpp:77] Creating layer conv13_mbox_loc
I1031 15:35:12.866662 31277 net.cpp:100] Creating Layer conv13_mbox_loc
I1031 15:35:12.866665 31277 net.cpp:478] conv13_mbox_loc <- conv13_conv13/relu_0_split_1
I1031 15:35:12.866670 31277 net.cpp:452] conv13_mbox_loc -> conv13_mbox_loc
I1031 15:35:12.867075 31277 net.cpp:150] Setting up conv13_mbox_loc
I1031 15:35:12.867082 31277 net.cpp:157] Top shape: 8 24 10 10 (19200)
I1031 15:35:12.867084 31277 net.cpp:165] Memory required for data: 1291377856
I1031 15:35:12.867089 31277 layer_factory.hpp:77] Creating layer conv13_mbox_loc_perm
I1031 15:35:12.867095 31277 net.cpp:100] Creating Layer conv13_mbox_loc_perm
I1031 15:35:12.867097 31277 net.cpp:478] conv13_mbox_loc_perm <- conv13_mbox_loc
I1031 15:35:12.867103 31277 net.cpp:452] conv13_mbox_loc_perm -> conv13_mbox_loc_perm
I1031 15:35:12.867182 31277 net.cpp:150] Setting up conv13_mbox_loc_perm
I1031 15:35:12.867187 31277 net.cpp:157] Top shape: 8 10 10 24 (19200)
I1031 15:35:12.867189 31277 net.cpp:165] Memory required for data: 1291454656
I1031 15:35:12.867192 31277 layer_factory.hpp:77] Creating layer conv13_mbox_loc_flat
I1031 15:35:12.867195 31277 net.cpp:100] Creating Layer conv13_mbox_loc_flat
I1031 15:35:12.867198 31277 net.cpp:478] conv13_mbox_loc_flat <- conv13_mbox_loc_perm
I1031 15:35:12.867204 31277 net.cpp:452] conv13_mbox_loc_flat -> conv13_mbox_loc_flat
I1031 15:35:12.867221 31277 net.cpp:150] Setting up conv13_mbox_loc_flat
I1031 15:35:12.867226 31277 net.cpp:157] Top shape: 8 2400 (19200)
I1031 15:35:12.867228 31277 net.cpp:165] Memory required for data: 1291531456
I1031 15:35:12.867230 31277 layer_factory.hpp:77] Creating layer conv13_mbox_conf_new
I1031 15:35:12.867238 31277 net.cpp:100] Creating Layer conv13_mbox_conf_new
I1031 15:35:12.867240 31277 net.cpp:478] conv13_mbox_conf_new <- conv13_conv13/relu_0_split_2
I1031 15:35:12.867245 31277 net.cpp:452] conv13_mbox_conf_new -> conv13_mbox_conf
I1031 15:35:12.868661 31277 net.cpp:150] Setting up conv13_mbox_conf_new
I1031 15:35:12.868669 31277 net.cpp:157] Top shape: 8 126 10 10 (100800)
I1031 15:35:12.868670 31277 net.cpp:165] Memory required for data: 1291934656
I1031 15:35:12.868675 31277 layer_factory.hpp:77] Creating layer conv13_mbox_conf_perm
I1031 15:35:12.868681 31277 net.cpp:100] Creating Layer conv13_mbox_conf_perm
I1031 15:35:12.868685 31277 net.cpp:478] conv13_mbox_conf_perm <- conv13_mbox_conf
I1031 15:35:12.868690 31277 net.cpp:452] conv13_mbox_conf_perm -> conv13_mbox_conf_perm
I1031 15:35:12.868767 31277 net.cpp:150] Setting up conv13_mbox_conf_perm
I1031 15:35:12.868782 31277 net.cpp:157] Top shape: 8 10 10 126 (100800)
I1031 15:35:12.868793 31277 net.cpp:165] Memory required for data: 1292337856
I1031 15:35:12.868795 31277 layer_factory.hpp:77] Creating layer conv13_mbox_conf_flat
I1031 15:35:12.868808 31277 net.cpp:100] Creating Layer conv13_mbox_conf_flat
I1031 15:35:12.868810 31277 net.cpp:478] conv13_mbox_conf_flat <- conv13_mbox_conf_perm
I1031 15:35:12.868814 31277 net.cpp:452] conv13_mbox_conf_flat -> conv13_mbox_conf_flat
I1031 15:35:12.868852 31277 net.cpp:150] Setting up conv13_mbox_conf_flat
I1031 15:35:12.868857 31277 net.cpp:157] Top shape: 8 12600 (100800)
I1031 15:35:12.868860 31277 net.cpp:165] Memory required for data: 1292741056
I1031 15:35:12.868862 31277 layer_factory.hpp:77] Creating layer conv13_mbox_priorbox
I1031 15:35:12.868866 31277 net.cpp:100] Creating Layer conv13_mbox_priorbox
I1031 15:35:12.891144 31277 net.cpp:478] conv13_mbox_priorbox <- conv13_conv13/relu_0_split_3
I1031 15:35:12.891157 31277 net.cpp:478] conv13_mbox_priorbox <- data_data_0_split_2
I1031 15:35:12.891170 31277 net.cpp:452] conv13_mbox_priorbox -> conv13_mbox_priorbox
I1031 15:35:12.891211 31277 net.cpp:150] Setting up conv13_mbox_priorbox
I1031 15:35:12.891221 31277 net.cpp:157] Top shape: 1 2 2400 (4800)
I1031 15:35:12.891222 31277 net.cpp:165] Memory required for data: 1292760256
I1031 15:35:12.891225 31277 layer_factory.hpp:77] Creating layer conv14_2_mbox_loc
I1031 15:35:12.891237 31277 net.cpp:100] Creating Layer conv14_2_mbox_loc
I1031 15:35:12.891239 31277 net.cpp:478] conv14_2_mbox_loc <- conv14_2_conv14_2/relu_0_split_1
I1031 15:35:12.891245 31277 net.cpp:452] conv14_2_mbox_loc -> conv14_2_mbox_loc
I1031 15:35:12.891600 31277 net.cpp:150] Setting up conv14_2_mbox_loc
I1031 15:35:12.891607 31277 net.cpp:157] Top shape: 8 24 5 5 (4800)
I1031 15:35:12.891610 31277 net.cpp:165] Memory required for data: 1292779456
I1031 15:35:12.891615 31277 layer_factory.hpp:77] Creating layer conv14_2_mbox_loc_perm
I1031 15:35:12.891623 31277 net.cpp:100] Creating Layer conv14_2_mbox_loc_perm
I1031 15:35:12.891628 31277 net.cpp:478] conv14_2_mbox_loc_perm <- conv14_2_mbox_loc
I1031 15:35:12.891635 31277 net.cpp:452] conv14_2_mbox_loc_perm -> conv14_2_mbox_loc_perm
I1031 15:35:12.891729 31277 net.cpp:150] Setting up conv14_2_mbox_loc_perm
I1031 15:35:12.891736 31277 net.cpp:157] Top shape: 8 5 5 24 (4800)
I1031 15:35:12.891738 31277 net.cpp:165] Memory required for data: 1292798656
I1031 15:35:12.891741 31277 layer_factory.hpp:77] Creating layer conv14_2_mbox_loc_flat
I1031 15:35:12.891746 31277 net.cpp:100] Creating Layer conv14_2_mbox_loc_flat
I1031 15:35:12.891748 31277 net.cpp:478] conv14_2_mbox_loc_flat <- conv14_2_mbox_loc_perm
I1031 15:35:12.891753 31277 net.cpp:452] conv14_2_mbox_loc_flat -> conv14_2_mbox_loc_flat
I1031 15:35:12.891777 31277 net.cpp:150] Setting up conv14_2_mbox_loc_flat
I1031 15:35:12.891783 31277 net.cpp:157] Top shape: 8 600 (4800)
I1031 15:35:12.891785 31277 net.cpp:165] Memory required for data: 1292817856
I1031 15:35:12.891788 31277 layer_factory.hpp:77] Creating layer conv14_2_mbox_conf_new
I1031 15:35:12.891794 31277 net.cpp:100] Creating Layer conv14_2_mbox_conf_new
I1031 15:35:12.891798 31277 net.cpp:478] conv14_2_mbox_conf_new <- conv14_2_conv14_2/relu_0_split_2
I1031 15:35:12.891804 31277 net.cpp:452] conv14_2_mbox_conf_new -> conv14_2_mbox_conf
I1031 15:35:12.892640 31277 net.cpp:150] Setting up conv14_2_mbox_conf_new
I1031 15:35:12.892648 31277 net.cpp:157] Top shape: 8 126 5 5 (25200)
I1031 15:35:12.892650 31277 net.cpp:165] Memory required for data: 1292918656
I1031 15:35:12.892657 31277 layer_factory.hpp:77] Creating layer conv14_2_mbox_conf_perm
I1031 15:35:12.892663 31277 net.cpp:100] Creating Layer conv14_2_mbox_conf_perm
I1031 15:35:12.892666 31277 net.cpp:478] conv14_2_mbox_conf_perm <- conv14_2_mbox_conf
I1031 15:35:12.892676 31277 net.cpp:452] conv14_2_mbox_conf_perm -> conv14_2_mbox_conf_perm
I1031 15:35:12.892768 31277 net.cpp:150] Setting up conv14_2_mbox_conf_perm
I1031 15:35:12.892774 31277 net.cpp:157] Top shape: 8 5 5 126 (25200)
I1031 15:35:12.892789 31277 net.cpp:165] Memory required for data: 1293019456
I1031 15:35:12.892792 31277 layer_factory.hpp:77] Creating layer conv14_2_mbox_conf_flat
I1031 15:35:12.892797 31277 net.cpp:100] Creating Layer conv14_2_mbox_conf_flat
I1031 15:35:12.892801 31277 net.cpp:478] conv14_2_mbox_conf_flat <- conv14_2_mbox_conf_perm
I1031 15:35:12.892805 31277 net.cpp:452] conv14_2_mbox_conf_flat -> conv14_2_mbox_conf_flat
I1031 15:35:12.892839 31277 net.cpp:150] Setting up conv14_2_mbox_conf_flat
I1031 15:35:12.892845 31277 net.cpp:157] Top shape: 8 3150 (25200)
I1031 15:35:12.892848 31277 net.cpp:165] Memory required for data: 1293120256
I1031 15:35:12.892850 31277 layer_factory.hpp:77] Creating layer conv14_2_mbox_priorbox
I1031 15:35:12.892858 31277 net.cpp:100] Creating Layer conv14_2_mbox_priorbox
I1031 15:35:12.892860 31277 net.cpp:478] conv14_2_mbox_priorbox <- conv14_2_conv14_2/relu_0_split_3
I1031 15:35:12.892865 31277 net.cpp:478] conv14_2_mbox_priorbox <- data_data_0_split_3
I1031 15:35:12.892875 31277 net.cpp:452] conv14_2_mbox_priorbox -> conv14_2_mbox_priorbox
I1031 15:35:12.892899 31277 net.cpp:150] Setting up conv14_2_mbox_priorbox
I1031 15:35:12.892906 31277 net.cpp:157] Top shape: 1 2 600 (1200)
I1031 15:35:12.892909 31277 net.cpp:165] Memory required for data: 1293125056
I1031 15:35:12.892910 31277 layer_factory.hpp:77] Creating layer conv15_2_mbox_loc
I1031 15:35:12.892918 31277 net.cpp:100] Creating Layer conv15_2_mbox_loc
I1031 15:35:12.892921 31277 net.cpp:478] conv15_2_mbox_loc <- conv15_2_conv15_2/relu_0_split_1
I1031 15:35:12.892927 31277 net.cpp:452] conv15_2_mbox_loc -> conv15_2_mbox_loc
I1031 15:35:12.893209 31277 net.cpp:150] Setting up conv15_2_mbox_loc
I1031 15:35:12.893216 31277 net.cpp:157] Top shape: 8 24 3 3 (1728)
I1031 15:35:12.893218 31277 net.cpp:165] Memory required for data: 1293131968
I1031 15:35:12.893224 31277 layer_factory.hpp:77] Creating layer conv15_2_mbox_loc_perm
I1031 15:35:12.893230 31277 net.cpp:100] Creating Layer conv15_2_mbox_loc_perm
I1031 15:35:12.893234 31277 net.cpp:478] conv15_2_mbox_loc_perm <- conv15_2_mbox_loc
I1031 15:35:12.893239 31277 net.cpp:452] conv15_2_mbox_loc_perm -> conv15_2_mbox_loc_perm
I1031 15:35:12.893347 31277 net.cpp:150] Setting up conv15_2_mbox_loc_perm
I1031 15:35:12.893353 31277 net.cpp:157] Top shape: 8 3 3 24 (1728)
I1031 15:35:12.893355 31277 net.cpp:165] Memory required for data: 1293138880
I1031 15:35:12.893357 31277 layer_factory.hpp:77] Creating layer conv15_2_mbox_loc_flat
I1031 15:35:12.893376 31277 net.cpp:100] Creating Layer conv15_2_mbox_loc_flat
I1031 15:35:12.893379 31277 net.cpp:478] conv15_2_mbox_loc_flat <- conv15_2_mbox_loc_perm
I1031 15:35:12.893399 31277 net.cpp:452] conv15_2_mbox_loc_flat -> conv15_2_mbox_loc_flat
I1031 15:35:12.893420 31277 net.cpp:150] Setting up conv15_2_mbox_loc_flat
I1031 15:35:12.893424 31277 net.cpp:157] Top shape: 8 216 (1728)
I1031 15:35:12.893426 31277 net.cpp:165] Memory required for data: 1293145792
I1031 15:35:12.893429 31277 layer_factory.hpp:77] Creating layer conv15_2_mbox_conf_new
I1031 15:35:12.893436 31277 net.cpp:100] Creating Layer conv15_2_mbox_conf_new
I1031 15:35:12.893440 31277 net.cpp:478] conv15_2_mbox_conf_new <- conv15_2_conv15_2/relu_0_split_2
I1031 15:35:12.893445 31277 net.cpp:452] conv15_2_mbox_conf_new -> conv15_2_mbox_conf
I1031 15:35:12.894079 31277 net.cpp:150] Setting up conv15_2_mbox_conf_new
I1031 15:35:12.894089 31277 net.cpp:157] Top shape: 8 126 3 3 (9072)
I1031 15:35:12.894091 31277 net.cpp:165] Memory required for data: 1293182080
I1031 15:35:12.894096 31277 layer_factory.hpp:77] Creating layer conv15_2_mbox_conf_perm
I1031 15:35:12.894104 31277 net.cpp:100] Creating Layer conv15_2_mbox_conf_perm
I1031 15:35:12.894107 31277 net.cpp:478] conv15_2_mbox_conf_perm <- conv15_2_mbox_conf
I1031 15:35:12.894114 31277 net.cpp:452] conv15_2_mbox_conf_perm -> conv15_2_mbox_conf_perm
I1031 15:35:12.894202 31277 net.cpp:150] Setting up conv15_2_mbox_conf_perm
I1031 15:35:12.894208 31277 net.cpp:157] Top shape: 8 3 3 126 (9072)
I1031 15:35:12.894212 31277 net.cpp:165] Memory required for data: 1293218368
I1031 15:35:12.894224 31277 layer_factory.hpp:77] Creating layer conv15_2_mbox_conf_flat
I1031 15:35:12.894229 31277 net.cpp:100] Creating Layer conv15_2_mbox_conf_flat
I1031 15:35:12.894248 31277 net.cpp:478] conv15_2_mbox_conf_flat <- conv15_2_mbox_conf_perm
I1031 15:35:12.894253 31277 net.cpp:452] conv15_2_mbox_conf_flat -> conv15_2_mbox_conf_flat
I1031 15:35:12.894294 31277 net.cpp:150] Setting up conv15_2_mbox_conf_flat
I1031 15:35:12.894297 31277 net.cpp:157] Top shape: 8 1134 (9072)
I1031 15:35:12.894299 31277 net.cpp:165] Memory required for data: 1293254656
I1031 15:35:12.894302 31277 layer_factory.hpp:77] Creating layer conv15_2_mbox_priorbox
I1031 15:35:12.894309 31277 net.cpp:100] Creating Layer conv15_2_mbox_priorbox
I1031 15:35:12.894312 31277 net.cpp:478] conv15_2_mbox_priorbox <- conv15_2_conv15_2/relu_0_split_3
I1031 15:35:12.894316 31277 net.cpp:478] conv15_2_mbox_priorbox <- data_data_0_split_4
I1031 15:35:12.894321 31277 net.cpp:452] conv15_2_mbox_priorbox -> conv15_2_mbox_priorbox
I1031 15:35:12.894346 31277 net.cpp:150] Setting up conv15_2_mbox_priorbox
I1031 15:35:12.894352 31277 net.cpp:157] Top shape: 1 2 216 (432)
I1031 15:35:12.894354 31277 net.cpp:165] Memory required for data: 1293256384
I1031 15:35:12.894356 31277 layer_factory.hpp:77] Creating layer conv16_2_mbox_loc
I1031 15:35:12.894364 31277 net.cpp:100] Creating Layer conv16_2_mbox_loc
I1031 15:35:12.894367 31277 net.cpp:478] conv16_2_mbox_loc <- conv16_2_conv16_2/relu_0_split_1
I1031 15:35:12.894374 31277 net.cpp:452] conv16_2_mbox_loc -> conv16_2_mbox_loc
I1031 15:35:12.894706 31277 net.cpp:150] Setting up conv16_2_mbox_loc
I1031 15:35:12.894712 31277 net.cpp:157] Top shape: 8 24 2 2 (768)
I1031 15:35:12.894714 31277 net.cpp:165] Memory required for data: 1293259456
I1031 15:35:12.894719 31277 layer_factory.hpp:77] Creating layer conv16_2_mbox_loc_perm
I1031 15:35:12.894726 31277 net.cpp:100] Creating Layer conv16_2_mbox_loc_perm
I1031 15:35:12.894729 31277 net.cpp:478] conv16_2_mbox_loc_perm <- conv16_2_mbox_loc
I1031 15:35:12.894735 31277 net.cpp:452] conv16_2_mbox_loc_perm -> conv16_2_mbox_loc_perm
I1031 15:35:12.894824 31277 net.cpp:150] Setting up conv16_2_mbox_loc_perm
I1031 15:35:12.894845 31277 net.cpp:157] Top shape: 8 2 2 24 (768)
I1031 15:35:12.894847 31277 net.cpp:165] Memory required for data: 1293262528
I1031 15:35:12.894850 31277 layer_factory.hpp:77] Creating layer conv16_2_mbox_loc_flat
I1031 15:35:12.894870 31277 net.cpp:100] Creating Layer conv16_2_mbox_loc_flat
I1031 15:35:12.894873 31277 net.cpp:478] conv16_2_mbox_loc_flat <- conv16_2_mbox_loc_perm
I1031 15:35:12.894877 31277 net.cpp:452] conv16_2_mbox_loc_flat -> conv16_2_mbox_loc_flat
I1031 15:35:12.894901 31277 net.cpp:150] Setting up conv16_2_mbox_loc_flat
I1031 15:35:12.894906 31277 net.cpp:157] Top shape: 8 96 (768)
I1031 15:35:12.894908 31277 net.cpp:165] Memory required for data: 1293265600
I1031 15:35:12.894911 31277 layer_factory.hpp:77] Creating layer conv16_2_mbox_conf_new
I1031 15:35:12.894919 31277 net.cpp:100] Creating Layer conv16_2_mbox_conf_new
I1031 15:35:12.894922 31277 net.cpp:478] conv16_2_mbox_conf_new <- conv16_2_conv16_2/relu_0_split_2
I1031 15:35:12.894929 31277 net.cpp:452] conv16_2_mbox_conf_new -> conv16_2_mbox_conf
I1031 15:35:12.895470 31277 net.cpp:150] Setting up conv16_2_mbox_conf_new
I1031 15:35:12.895478 31277 net.cpp:157] Top shape: 8 126 2 2 (4032)
I1031 15:35:12.895479 31277 net.cpp:165] Memory required for data: 1293281728
I1031 15:35:12.895483 31277 layer_factory.hpp:77] Creating layer conv16_2_mbox_conf_perm
I1031 15:35:12.895490 31277 net.cpp:100] Creating Layer conv16_2_mbox_conf_perm
I1031 15:35:12.895493 31277 net.cpp:478] conv16_2_mbox_conf_perm <- conv16_2_mbox_conf
I1031 15:35:12.895498 31277 net.cpp:452] conv16_2_mbox_conf_perm -> conv16_2_mbox_conf_perm
I1031 15:35:12.895576 31277 net.cpp:150] Setting up conv16_2_mbox_conf_perm
I1031 15:35:12.895581 31277 net.cpp:157] Top shape: 8 2 2 126 (4032)
I1031 15:35:12.895583 31277 net.cpp:165] Memory required for data: 1293297856
I1031 15:35:12.895593 31277 layer_factory.hpp:77] Creating layer conv16_2_mbox_conf_flat
I1031 15:35:12.895599 31277 net.cpp:100] Creating Layer conv16_2_mbox_conf_flat
I1031 15:35:12.895602 31277 net.cpp:478] conv16_2_mbox_conf_flat <- conv16_2_mbox_conf_perm
I1031 15:35:12.895606 31277 net.cpp:452] conv16_2_mbox_conf_flat -> conv16_2_mbox_conf_flat
I1031 15:35:12.895630 31277 net.cpp:150] Setting up conv16_2_mbox_conf_flat
I1031 15:35:12.895634 31277 net.cpp:157] Top shape: 8 504 (4032)
I1031 15:35:12.895637 31277 net.cpp:165] Memory required for data: 1293313984
I1031 15:35:12.895638 31277 layer_factory.hpp:77] Creating layer conv16_2_mbox_priorbox
I1031 15:35:12.895644 31277 net.cpp:100] Creating Layer conv16_2_mbox_priorbox
I1031 15:35:12.895648 31277 net.cpp:478] conv16_2_mbox_priorbox <- conv16_2_conv16_2/relu_0_split_3
I1031 15:35:12.895651 31277 net.cpp:478] conv16_2_mbox_priorbox <- data_data_0_split_5
I1031 15:35:12.895655 31277 net.cpp:452] conv16_2_mbox_priorbox -> conv16_2_mbox_priorbox
I1031 15:35:12.895678 31277 net.cpp:150] Setting up conv16_2_mbox_priorbox
I1031 15:35:12.895681 31277 net.cpp:157] Top shape: 1 2 96 (192)
I1031 15:35:12.895684 31277 net.cpp:165] Memory required for data: 1293314752
I1031 15:35:12.895685 31277 layer_factory.hpp:77] Creating layer conv17_2_mbox_loc
I1031 15:35:12.895694 31277 net.cpp:100] Creating Layer conv17_2_mbox_loc
I1031 15:35:12.895696 31277 net.cpp:478] conv17_2_mbox_loc <- conv17_2_conv17_2/relu_0_split_0
I1031 15:35:12.895702 31277 net.cpp:452] conv17_2_mbox_loc -> conv17_2_mbox_loc
I1031 15:35:12.896044 31277 net.cpp:150] Setting up conv17_2_mbox_loc
I1031 15:35:12.896051 31277 net.cpp:157] Top shape: 8 24 1 1 (192)
I1031 15:35:12.896054 31277 net.cpp:165] Memory required for data: 1293315520
I1031 15:35:12.896073 31277 layer_factory.hpp:77] Creating layer conv17_2_mbox_loc_perm
I1031 15:35:12.896080 31277 net.cpp:100] Creating Layer conv17_2_mbox_loc_perm
I1031 15:35:12.896083 31277 net.cpp:478] conv17_2_mbox_loc_perm <- conv17_2_mbox_loc
I1031 15:35:12.896088 31277 net.cpp:452] conv17_2_mbox_loc_perm -> conv17_2_mbox_loc_perm
I1031 15:35:12.896194 31277 net.cpp:150] Setting up conv17_2_mbox_loc_perm
I1031 15:35:12.896198 31277 net.cpp:157] Top shape: 8 1 1 24 (192)
I1031 15:35:12.896201 31277 net.cpp:165] Memory required for data: 1293316288
I1031 15:35:12.896203 31277 layer_factory.hpp:77] Creating layer conv17_2_mbox_loc_flat
I1031 15:35:12.896209 31277 net.cpp:100] Creating Layer conv17_2_mbox_loc_flat
I1031 15:35:12.896212 31277 net.cpp:478] conv17_2_mbox_loc_flat <- conv17_2_mbox_loc_perm
I1031 15:35:12.896216 31277 net.cpp:452] conv17_2_mbox_loc_flat -> conv17_2_mbox_loc_flat
I1031 15:35:12.896241 31277 net.cpp:150] Setting up conv17_2_mbox_loc_flat
I1031 15:35:12.896245 31277 net.cpp:157] Top shape: 8 24 (192)
I1031 15:35:12.896247 31277 net.cpp:165] Memory required for data: 1293317056
I1031 15:35:12.896250 31277 layer_factory.hpp:77] Creating layer conv17_2_mbox_conf_new
I1031 15:35:12.896272 31277 net.cpp:100] Creating Layer conv17_2_mbox_conf_new
I1031 15:35:12.896275 31277 net.cpp:478] conv17_2_mbox_conf_new <- conv17_2_conv17_2/relu_0_split_1
I1031 15:35:12.896284 31277 net.cpp:452] conv17_2_mbox_conf_new -> conv17_2_mbox_conf
I1031 15:35:12.896651 31277 net.cpp:150] Setting up conv17_2_mbox_conf_new
I1031 15:35:12.896657 31277 net.cpp:157] Top shape: 8 126 1 1 (1008)
I1031 15:35:12.896659 31277 net.cpp:165] Memory required for data: 1293321088
I1031 15:35:12.896664 31277 layer_factory.hpp:77] Creating layer conv17_2_mbox_conf_perm
I1031 15:35:12.896670 31277 net.cpp:100] Creating Layer conv17_2_mbox_conf_perm
I1031 15:35:12.896673 31277 net.cpp:478] conv17_2_mbox_conf_perm <- conv17_2_mbox_conf
I1031 15:35:12.896677 31277 net.cpp:452] conv17_2_mbox_conf_perm -> conv17_2_mbox_conf_perm
I1031 15:35:12.896756 31277 net.cpp:150] Setting up conv17_2_mbox_conf_perm
I1031 15:35:12.896761 31277 net.cpp:157] Top shape: 8 1 1 126 (1008)
I1031 15:35:12.896764 31277 net.cpp:165] Memory required for data: 1293325120
I1031 15:35:12.896765 31277 layer_factory.hpp:77] Creating layer conv17_2_mbox_conf_flat
I1031 15:35:12.896778 31277 net.cpp:100] Creating Layer conv17_2_mbox_conf_flat
I1031 15:35:12.896782 31277 net.cpp:478] conv17_2_mbox_conf_flat <- conv17_2_mbox_conf_perm
I1031 15:35:12.896786 31277 net.cpp:452] conv17_2_mbox_conf_flat -> conv17_2_mbox_conf_flat
I1031 15:35:12.896812 31277 net.cpp:150] Setting up conv17_2_mbox_conf_flat
I1031 15:35:12.896822 31277 net.cpp:157] Top shape: 8 126 (1008)
I1031 15:35:12.896839 31277 net.cpp:165] Memory required for data: 1293329152
I1031 15:35:12.896842 31277 layer_factory.hpp:77] Creating layer conv17_2_mbox_priorbox
I1031 15:35:12.896863 31277 net.cpp:100] Creating Layer conv17_2_mbox_priorbox
I1031 15:35:12.957130 31277 net.cpp:478] conv17_2_mbox_priorbox <- conv17_2_conv17_2/relu_0_split_2
I1031 15:35:12.957142 31277 net.cpp:478] conv17_2_mbox_priorbox <- data_data_0_split_6
I1031 15:35:12.957149 31277 net.cpp:452] conv17_2_mbox_priorbox -> conv17_2_mbox_priorbox
I1031 15:35:12.957196 31277 net.cpp:150] Setting up conv17_2_mbox_priorbox
I1031 15:35:12.957202 31277 net.cpp:157] Top shape: 1 2 24 (48)
I1031 15:35:12.957204 31277 net.cpp:165] Memory required for data: 1293329344
I1031 15:35:12.957207 31277 layer_factory.hpp:77] Creating layer mbox_loc
I1031 15:35:12.957213 31277 net.cpp:100] Creating Layer mbox_loc
I1031 15:35:12.957216 31277 net.cpp:478] mbox_loc <- conv11_mbox_loc_flat
I1031 15:35:12.957221 31277 net.cpp:478] mbox_loc <- conv13_mbox_loc_flat
I1031 15:35:12.957223 31277 net.cpp:478] mbox_loc <- conv14_2_mbox_loc_flat
I1031 15:35:12.957227 31277 net.cpp:478] mbox_loc <- conv15_2_mbox_loc_flat
I1031 15:35:12.957229 31277 net.cpp:478] mbox_loc <- conv16_2_mbox_loc_flat
I1031 15:35:12.957232 31277 net.cpp:478] mbox_loc <- conv17_2_mbox_loc_flat
I1031 15:35:12.957242 31277 net.cpp:452] mbox_loc -> mbox_loc
I1031 15:35:12.957289 31277 net.cpp:150] Setting up mbox_loc
I1031 15:35:12.957295 31277 net.cpp:157] Top shape: 8 7668 (61344)
I1031 15:35:12.957298 31277 net.cpp:165] Memory required for data: 1293574720
I1031 15:35:12.957299 31277 layer_factory.hpp:77] Creating layer mbox_conf
I1031 15:35:12.957304 31277 net.cpp:100] Creating Layer mbox_conf
I1031 15:35:12.957306 31277 net.cpp:478] mbox_conf <- conv11_mbox_conf_flat
I1031 15:35:12.957310 31277 net.cpp:478] mbox_conf <- conv13_mbox_conf_flat
I1031 15:35:12.957314 31277 net.cpp:478] mbox_conf <- conv14_2_mbox_conf_flat
I1031 15:35:12.957316 31277 net.cpp:478] mbox_conf <- conv15_2_mbox_conf_flat
I1031 15:35:12.957319 31277 net.cpp:478] mbox_conf <- conv16_2_mbox_conf_flat
I1031 15:35:12.957321 31277 net.cpp:478] mbox_conf <- conv17_2_mbox_conf_flat
I1031 15:35:12.957327 31277 net.cpp:452] mbox_conf -> mbox_conf
I1031 15:35:12.957350 31277 net.cpp:150] Setting up mbox_conf
I1031 15:35:12.957355 31277 net.cpp:157] Top shape: 8 40257 (322056)
I1031 15:35:12.957356 31277 net.cpp:165] Memory required for data: 1294862944
I1031 15:35:12.957358 31277 layer_factory.hpp:77] Creating layer mbox_priorbox
I1031 15:35:12.957362 31277 net.cpp:100] Creating Layer mbox_priorbox
I1031 15:35:12.957365 31277 net.cpp:478] mbox_priorbox <- conv11_mbox_priorbox
I1031 15:35:12.957368 31277 net.cpp:478] mbox_priorbox <- conv13_mbox_priorbox
I1031 15:35:12.957370 31277 net.cpp:478] mbox_priorbox <- conv14_2_mbox_priorbox
I1031 15:35:12.957373 31277 net.cpp:478] mbox_priorbox <- conv15_2_mbox_priorbox
I1031 15:35:12.957376 31277 net.cpp:478] mbox_priorbox <- conv16_2_mbox_priorbox
I1031 15:35:12.957378 31277 net.cpp:478] mbox_priorbox <- conv17_2_mbox_priorbox
I1031 15:35:12.957381 31277 net.cpp:452] mbox_priorbox -> mbox_priorbox
I1031 15:35:12.957401 31277 net.cpp:150] Setting up mbox_priorbox
I1031 15:35:12.957406 31277 net.cpp:157] Top shape: 1 2 7668 (15336)
I1031 15:35:12.957407 31277 net.cpp:165] Memory required for data: 1294924288
I1031 15:35:12.957409 31277 layer_factory.hpp:77] Creating layer mbox_conf_reshape
I1031 15:35:12.957417 31277 net.cpp:100] Creating Layer mbox_conf_reshape
I1031 15:35:12.957418 31277 net.cpp:478] mbox_conf_reshape <- mbox_conf
I1031 15:35:12.957422 31277 net.cpp:452] mbox_conf_reshape -> mbox_conf_reshape
I1031 15:35:12.957487 31277 net.cpp:150] Setting up mbox_conf_reshape
I1031 15:35:12.957494 31277 net.cpp:157] Top shape: 8 1917 21 (322056)
I1031 15:35:12.957496 31277 net.cpp:165] Memory required for data: 1296212512
I1031 15:35:12.957499 31277 layer_factory.hpp:77] Creating layer mbox_conf_softmax
I1031 15:35:12.957504 31277 net.cpp:100] Creating Layer mbox_conf_softmax
I1031 15:35:12.957506 31277 net.cpp:478] mbox_conf_softmax <- mbox_conf_reshape
I1031 15:35:12.957528 31277 net.cpp:452] mbox_conf_softmax -> mbox_conf_softmax
I1031 15:35:12.957623 31277 net.cpp:150] Setting up mbox_conf_softmax
I1031 15:35:12.957628 31277 net.cpp:157] Top shape: 8 1917 21 (322056)
I1031 15:35:12.957631 31277 net.cpp:165] Memory required for data: 1297500736
I1031 15:35:12.957633 31277 layer_factory.hpp:77] Creating layer mbox_conf_flatten
I1031 15:35:12.957638 31277 net.cpp:100] Creating Layer mbox_conf_flatten
I1031 15:35:12.957641 31277 net.cpp:478] mbox_conf_flatten <- mbox_conf_softmax
I1031 15:35:12.957646 31277 net.cpp:452] mbox_conf_flatten -> mbox_conf_flatten
I1031 15:35:12.957669 31277 net.cpp:150] Setting up mbox_conf_flatten
I1031 15:35:12.957672 31277 net.cpp:157] Top shape: 8 40257 (322056)
I1031 15:35:12.957675 31277 net.cpp:165] Memory required for data: 1298788960
I1031 15:35:12.957677 31277 layer_factory.hpp:77] Creating layer detection_out
I1031 15:35:12.957696 31277 net.cpp:100] Creating Layer detection_out
I1031 15:35:12.957700 31277 net.cpp:478] detection_out <- mbox_loc
I1031 15:35:12.957703 31277 net.cpp:478] detection_out <- mbox_conf_flatten
I1031 15:35:12.957706 31277 net.cpp:478] detection_out <- mbox_priorbox
I1031 15:35:12.957713 31277 net.cpp:452] detection_out -> detection_out
I1031 15:35:12.957809 31277 net.cpp:150] Setting up detection_out
I1031 15:35:12.957814 31277 net.cpp:157] Top shape: 1 1 1 7 (7)
I1031 15:35:12.957816 31277 net.cpp:165] Memory required for data: 1298788988
I1031 15:35:12.957834 31277 layer_factory.hpp:77] Creating layer detection_eval
I1031 15:35:12.957839 31277 net.cpp:100] Creating Layer detection_eval
I1031 15:35:12.957856 31277 net.cpp:478] detection_eval <- detection_out
I1031 15:35:12.957859 31277 net.cpp:478] detection_eval <- label
I1031 15:35:12.957864 31277 net.cpp:452] detection_eval -> detection_eval
I1031 15:35:12.957918 31277 net.cpp:150] Setting up detection_eval
I1031 15:35:12.957922 31277 net.cpp:157] Top shape: 1 1 21 5 (105)
I1031 15:35:12.957924 31277 net.cpp:165] Memory required for data: 1298789408
I1031 15:35:12.957926 31277 net.cpp:228] detection_eval does not need backward computation.
I1031 15:35:12.957929 31277 net.cpp:228] detection_out does not need backward computation.
I1031 15:35:12.957932 31277 net.cpp:228] mbox_conf_flatten does not need backward computation.
I1031 15:35:12.957957 31277 net.cpp:228] mbox_conf_softmax does not need backward computation.
…
