MNSSD 123 - 69 MNSSDQuantised

W1102 21:09:18.503556 13472 _caffe.cpp:125] Net('examples/MobileNet-SSD/model_1000/MobileNetSSD_1000_deploy.prototxt', 1, weights='examples/MobileNet-SSD/model_1000/MobileNetSSD_1000_deploy.caffemodel')
I1102 21:09:18.506242 13472 upgrade_proto.cpp:67] Attempting to upgrade input file specified using deprecated input fields: examples/MobileNet-SSD/model_1000/MobileNetSSD_1000_deploy.prototxt
I1102 21:09:18.507218 13472 net.cpp:58] Initializing net from parameters:
name: "MobileNet-SSD"
state {
  phase: TEST
  level: 0
}
layer {
  name: "input"
  type: "Input"
  top: "data"
  input_param {
    shape {
      dim: 1
      dim: 3
      dim: 300
      dim: 300
    }
  }
}
layer {
  name: "conv0"
  type: "Convolution"
  bottom: "data"
  top: "conv0"
  param {
    lr_mult: 1
    decay_mult: 1
  }
  param {
    lr_mult: 2
    decay_mult: 0
  }
  convolution_param {
    num_output: 32
    pad: 1
    kernel_size: 3
    stride: 2
    weight_filler {
      type: "msra"
    }
    bias_filler {
      type: "constant"
      value: 0
    }
  }
}
layer {
  name: "conv0/relu"
  type: "ReLU"
  bottom: "conv0"
  top: "conv0"
}
layer {
  name: "conv1/dw"
  type: "Convolution"
  bottom: "conv0"
  top: "conv1/dw"
  param {
    lr_mult: 1
    decay_mult: 1
  }
  param {
    lr_mult: 2
    decay_mult: 0
  }
  convolution_param {
    num_output: 32
    pad: 1
    kernel_size: 3
    group: 32
    weight_filler {
      type: "msra"
    }
    bias_filler {
      type: "constant"
      value: 0
    }
    engine: CAFFE
  }
}
layer {
  name: "conv1/dw/relu"
  type: "ReLU"
  bottom: "conv1/dw"
  top: "conv1/dw"
}
layer {
  name: "conv1"
  type: "Convolution"
  bottom: "conv1/dw"
  top: "conv1"
  param {
    lr_mult: 1
    decay_mult: 1
  }
  param {
    lr_mult: 2
    decay_mult: 0
  }
  convolution_param {
    num_output: 64
    kernel_size: 1
    weight_filler {
      type: "msra"
    }
    bias_filler {
      type: "constant"
      value: 0
    }
  }
}
layer {
  name: "conv1/relu"
  type: "ReLU"
  bottom: "conv1"
  top: "conv1"
}
layer {
  name: "conv2/dw"
  type: "Convolution"
  bottom: "conv1"
  top: "conv2/dw"
  param {
    lr_mult: 1
    decay_mult: 1
  }
  param {
    lr_mult: 2
    decay_mult: 0
  }
  convolution_param {
    num_output: 64
    pad: 1
    kernel_size: 3
    group: 64
    stride: 2
    weight_filler {
      type: "msra"
    }
    bias_filler {
      type: "constant"
      value: 0
    }
    engine: CAFFE
  }
}
layer {
  name: "conv2/dw/relu"
  type: "ReLU"
  bottom: "conv2/dw"
  top: "conv2/dw"
}
layer {
  name: "conv2"
  type: "Convolution"
  bottom: "conv2/dw"
  top: "conv2"
  param {
    lr_mult: 1
    decay_mult: 1
  }
  param {
    lr_mult: 2
    decay_mult: 0
  }
  convolution_param {
    num_output: 128
    kernel_size: 1
    weight_filler {
      type: "msra"
    }
    bias_filler {
      type: "constant"
      value: 0
    }
  }
}
layer {
  name: "conv2/relu"
  type: "ReLU"
  bottom: "conv2"
  top: "conv2"
}
layer {
  name: "conv3/dw"
  type: "Convolution"
  bottom: "conv2"
  top: "conv3/dw"
  param {
    lr_mult: 1
    decay_mult: 1
  }
  param {
    lr_mult: 2
    decay_mult: 0
  }
  convolution_param {
    num_output: 128
    pad: 1
    kernel_size: 3
    group: 128
    weight_filler {
      type: "msra"
    }
    bias_filler {
      type: "constant"
      value: 0
    }
    engine: CAFFE
  }
}
layer {
  name: "conv3/dw/relu"
  type: "ReLU"
  bottom: "conv3/dw"
  top: "conv3/dw"
}
layer {
  name: "conv3"
  type: "Convolution"
  bottom: "conv3/dw"
  top: "conv3"
  param {
    lr_mult: 1
    decay_mult: 1
  }
  param {
    lr_mult: 2
    decay_mult: 0
  }
  convolution_param {
    num_output: 128
    kernel_size: 1
    weight_filler {
      type: "msra"
    }
    bias_filler {
      type: "constant"
      value: 0
    }
  }
}
layer {
  name: "conv3/relu"
  type: "ReLU"
  bottom: "conv3"
  top: "conv3"
}
layer {
  name: "conv4/dw"
  type: "Convolution"
  bottom: "conv3"
  top: "conv4/dw"
  param {
    lr_mult: 1
    decay_mult: 1
  }
  param {
    lr_mult: 2
    decay_mult: 0
  }
  convolution_param {
    num_output: 128
    pad: 1
    kernel_size: 3
    group: 128
    stride: 2
    weight_filler {
      type: "msra"
    }
    bias_filler {
      type: "constant"
      value: 0
    }
    engine: CAFFE
  }
}
layer {
  name: "conv4/dw/relu"
  type: "ReLU"
  bottom: "conv4/dw"
  top: "conv4/dw"
}
layer {
  name: "conv4"
  type: "Convolution"
  bottom: "conv4/dw"
  top: "conv4"
  param {
    lr_mult: 1
    decay_mult: 1
  }
  param {
    lr_mult: 2
    decay_mult: 0
  }
  convolution_param {
    num_output: 256
    kernel_size: 1
    weight_filler {
      type: "msra"
    }
    bias_filler {
      type: "constant"
      value: 0
    }
  }
}
layer {
  name: "conv4/relu"
  type: "ReLU"
  bottom: "conv4"
  top: "conv4"
}
layer {
  name: "conv5/dw"
  type: "Convolution"
  bottom: "conv4"
  top: "conv5/dw"
  param {
    lr_mult: 1
    decay_mult: 1
  }
  param {
    lr_mult: 2
    decay_mult: 0
  }
  convolution_param {
    num_output: 256
    pad: 1
    kernel_size: 3
    group: 256
    weight_filler {
      type: "msra"
    }
    bias_filler {
      type: "constant"
      value: 0
    }
    engine: CAFFE
  }
}
layer {
  name: "conv5/dw/relu"
  type: "ReLU"
  bottom: "conv5/dw"
  top: "conv5/dw"
}
layer {
  name: "conv5"
  type: "Convolution"
  bottom: "conv5/dw"
  top: "conv5"
  param {
    lr_mult: 1
    decay_mult: 1
  }
  param {
    lr_mult: 2
    decay_mult: 0
  }
  convolution_param {
    num_output: 256
    kernel_size: 1
    weight_filler {
      type: "msra"
    }
    bias_filler {
      type: "constant"
      value: 0
    }
  }
}
layer {
  name: "conv5/relu"
  type: "ReLU"
  bottom: "conv5"
  top: "conv5"
}
layer {
  name: "conv6/dw"
  type: "Convolution"
  bottom: "conv5"
  top: "conv6/dw"
  param {
    lr_mult: 1
    decay_mult: 1
  }
  param {
    lr_mult: 2
    decay_mult: 0
  }
  convolution_param {
    num_output: 256
    pad: 1
    kernel_size: 3
    group: 256
    stride: 2
    weight_filler {
      type: "msra"
    }
    bias_filler {
      type: "constant"
      value: 0
    }
    engine: CAFFE
  }
}
layer {
  name: "conv6/dw/relu"
  type: "ReLU"
  bottom: "conv6/dw"
  top: "conv6/dw"
}
layer {
  name: "conv6"
  type: "Convolution"
  bottom: "conv6/dw"
  top: "conv6"
  param {
    lr_mult: 1
    decay_mult: 1
  }
  param {
    lr_mult: 2
    decay_mult: 0
  }
  convolution_param {
    num_output: 512
    kernel_size: 1
    weight_filler {
      type: "msra"
    }
    bias_filler {
      type: "constant"
      value: 0
    }
  }
}
layer {
  name: "conv6/relu"
  type: "ReLU"
  bottom: "conv6"
  top: "conv6"
}
layer {
  name: "conv7/dw"
  type: "Convolution"
  bottom: "conv6"
  top: "conv7/dw"
  param {
    lr_mult: 1
    decay_mult: 1
  }
  param {
    lr_mult: 2
    decay_mult: 0
  }
  convolution_param {
    num_output: 512
    pad: 1
    kernel_size: 3
    group: 512
    weight_filler {
      type: "msra"
    }
    bias_filler {
      type: "constant"
      value: 0
    }
    engine: CAFFE
  }
}
layer {
  name: "conv7/dw/relu"
  type: "ReLU"
  bottom: "conv7/dw"
  top: "conv7/dw"
}
layer {
  name: "conv7"
  type: "Convolution"
  bottom: "conv7/dw"
  top: "conv7"
  param {
    lr_mult: 1
    decay_mult: 1
  }
  param {
    lr_mult: 2
    decay_mult: 0
  }
  convolution_param {
    num_output: 512
    kernel_size: 1
    weight_filler {
      type: "msra"
    }
    bias_filler {
      type: "constant"
      value: 0
    }
  }
}
layer {
  name: "conv7/relu"
  type: "ReLU"
  bottom: "conv7"
  top: "conv7"
}
layer {
  name: "conv8/dw"
  type: "Convolution"
  bottom: "conv7"
  top: "conv8/dw"
  param {
    lr_mult: 1
    decay_mult: 1
  }
  param {
    lr_mult: 2
    decay_mult: 0
  }
  convolution_param {
    num_output: 512
    pad: 1
    kernel_size: 3
    group: 512
    weight_filler {
      type: "msra"
    }
    bias_filler {
      type: "constant"
      value: 0
    }
    engine: CAFFE
  }
}
layer {
  name: "conv8/dw/relu"
  type: "ReLU"
  bottom: "conv8/dw"
  top: "conv8/dw"
}
layer {
  name: "conv8"
  type: "Convolution"
  bottom: "conv8/dw"
  top: "conv8"
  param {
    lr_mult: 1
    decay_mult: 1
  }
  param {
    lr_mult: 2
    decay_mult: 0
  }
  convolution_param {
    num_output: 512
    kernel_size: 1
    weight_filler {
      type: "msra"
    }
    bias_filler {
      type: "constant"
      value: 0
    }
  }
}
layer {
  name: "conv8/relu"
  type: "ReLU"
  bottom: "conv8"
  top: "conv8"
}
layer {
  name: "conv9/dw"
  type: "Convolution"
  bottom: "conv8"
  top: "conv9/dw"
  param {
    lr_mult: 1
    decay_mult: 1
  }
  param {
    lr_mult: 2
    decay_mult: 0
  }
  convolution_param {
    num_output: 512
    pad: 1
    kernel_size: 3
    group: 512
    weight_filler {
      type: "msra"
    }
    bias_filler {
      type: "constant"
      value: 0
    }
    engine: CAFFE
  }
}
layer {
  name: "conv9/dw/relu"
  type: "ReLU"
  bottom: "conv9/dw"
  top: "conv9/dw"
}
layer {
  name: "conv9"
  type: "Convolution"
  bottom: "conv9/dw"
  top: "conv9"
  param {
    lr_mult: 1
    decay_mult: 1
  }
  param {
    lr_mult: 2
    decay_mult: 0
  }
  convolution_param {
    num_output: 512
    kernel_size: 1
    weight_filler {
      type: "msra"
    }
    bias_filler {
      type: "constant"
      value: 0
    }
  }
}
layer {
  name: "conv9/relu"
  type: "ReLU"
  bottom: "conv9"
  top: "conv9"
}
layer {
  name: "conv10/dw"
  type: "Convolution"
  bottom: "conv9"
  top: "conv10/dw"
  param {
    lr_mult: 1
    decay_mult: 1
  }
  param {
    lr_mult: 2
    decay_mult: 0
  }
  convolution_param {
    num_output: 512
    pad: 1
    kernel_size: 3
    group: 512
    weight_filler {
      type: "msra"
    }
    bias_filler {
      type: "constant"
      value: 0
    }
    engine: CAFFE
  }
}
layer {
  name: "conv10/dw/relu"
  type: "ReLU"
  bottom: "conv10/dw"
  top: "conv10/dw"
}
layer {
  name: "conv10"
  type: "Convolution"
  bottom: "conv10/dw"
  top: "conv10"
  param {
    lr_mult: 1
    decay_mult: 1
  }
  param {
    lr_mult: 2
    decay_mult: 0
  }
  convolution_param {
    num_output: 512
    kernel_size: 1
    weight_filler {
      type: "msra"
    }
    bias_filler {
      type: "constant"
      value: 0
    }
  }
}
layer {
  name: "conv10/relu"
  type: "ReLU"
  bottom: "conv10"
  top: "conv10"
}
layer {
  name: "conv11/dw"
  type: "Convolution"
  bottom: "conv10"
  top: "conv11/dw"
  param {
    lr_mult: 1
    decay_mult: 1
  }
  param {
    lr_mult: 2
    decay_mult: 0
  }
  convolution_param {
    num_output: 512
    pad: 1
    kernel_size: 3
    group: 512
    weight_filler {
      type: "msra"
    }
    bias_filler {
      type: "constant"
      value: 0
    }
    engine: CAFFE
  }
}
layer {
  name: "conv11/dw/relu"
  type: "ReLU"
  bottom: "conv11/dw"
  top: "conv11/dw"
}
layer {
  name: "conv11"
  type: "Convolution"
  bottom: "conv11/dw"
  top: "conv11"
  param {
    lr_mult: 1
    decay_mult: 1
  }
  param {
    lr_mult: 2
    decay_mult: 0
  }
  convolution_param {
    num_output: 512
    kernel_size: 1
    weight_filler {
      type: "msra"
    }
    bias_filler {
      type: "constant"
      value: 0
    }
  }
}
layer {
  name: "conv11/relu"
  type: "ReLU"
  bottom: "conv11"
  top: "conv11"
}
layer {
  name: "conv12/dw"
  type: "Convolution"
  bottom: "conv11"
  top: "conv12/dw"
  param {
    lr_mult: 1
    decay_mult: 1
  }
  param {
    lr_mult: 2
    decay_mult: 0
  }
  convolution_param {
    num_output: 512
    pad: 1
    kernel_size: 3
    group: 512
    stride: 2
    weight_filler {
      type: "msra"
    }
    bias_filler {
      type: "constant"
      value: 0
    }
    engine: CAFFE
  }
}
layer {
  name: "conv12/dw/relu"
  type: "ReLU"
  bottom: "conv12/dw"
  top: "conv12/dw"
}
layer {
  name: "conv12"
  type: "Convolution"
  bottom: "conv12/dw"
  top: "conv12"
  param {
    lr_mult: 1
    decay_mult: 1
  }
  param {
    lr_mult: 2
    decay_mult: 0
  }
  convolution_param {
    num_output: 1024
    kernel_size: 1
    weight_filler {
      type: "msra"
    }
    bias_filler {
      type: "constant"
      value: 0
    }
  }
}
layer {
  name: "conv12/relu"
  type: "ReLU"
  bottom: "conv12"
  top: "conv12"
}
layer {
  name: "conv13/dw"
  type: "Convolution"
  bottom: "conv12"
  top: "conv13/dw"
  param {
    lr_mult: 1
    decay_mult: 1
  }
  param {
    lr_mult: 2
    decay_mult: 0
  }
  convolution_param {
    num_output: 1024
    pad: 1
    kernel_size: 3
    group: 1024
    weight_filler {
      type: "msra"
    }
    bias_filler {
      type: "constant"
      value: 0
    }
    engine: CAFFE
  }
}
layer {
  name: "conv13/dw/relu"
  type: "ReLU"
  bottom: "conv13/dw"
  top: "conv13/dw"
}
layer {
  name: "conv13"
  type: "Convolution"
  bottom: "conv13/dw"
  top: "conv13"
  param {
    lr_mult: 1
    decay_mult: 1
  }
  param {
    lr_mult: 2
    decay_mult: 0
  }
  convolution_param {
    num_output: 1024
    kernel_size: 1
    weight_filler {
      type: "msra"
    }
    bias_filler {
      type: "constant"
      value: 0
    }
  }
}
layer {
  name: "conv13/relu"
  type: "ReLU"
  bottom: "conv13"
  top: "conv13"
}
layer {
  name: "conv14_1"
  type: "Convolution"
  bottom: "conv13"
  top: "conv14_1"
  param {
    lr_mult: 1
    decay_mult: 1
  }
  param {
    lr_mult: 2
    decay_mult: 0
  }
  convolution_param {
    num_output: 256
    kernel_size: 1
    weight_filler {
      type: "msra"
    }
    bias_filler {
      type: "constant"
      value: 0
    }
  }
}
layer {
  name: "conv14_1/relu"
  type: "ReLU"
  bottom: "conv14_1"
  top: "conv14_1"
}
layer {
  name: "conv14_2"
  type: "Convolution"
  bottom: "conv14_1"
  top: "conv14_2"
  param {
    lr_mult: 1
    decay_mult: 1
  }
  param {
    lr_mult: 2
    decay_mult: 0
  }
  convolution_param {
    num_output: 512
    pad: 1
    kernel_size: 3
    stride: 2
    weight_filler {
      type: "msra"
    }
    bias_filler {
      type: "constant"
      value: 0
    }
  }
}
layer {
  name: "conv14_2/relu"
  type: "ReLU"
  bottom: "conv14_2"
  top: "conv14_2"
}
layer {
  name: "conv15_1"
  type: "Convolution"
  bottom: "conv14_2"
  top: "conv15_1"
  param {
    lr_mult: 1
    decay_mult: 1
  }
  param {
    lr_mult: 2
    decay_mult: 0
  }
  convolution_param {
    num_output: 128
    kernel_size: 1
    weight_filler {
      type: "msra"
    }
    bias_filler {
      type: "constant"
      value: 0
    }
  }
}
layer {
  name: "conv15_1/relu"
  type: "ReLU"
  bottom: "conv15_1"
  top: "conv15_1"
}
layer {
  name: "conv15_2"
  type: "Convolution"
  bottom: "conv15_1"
  top: "conv15_2"
  param {
    lr_mult: 1
    decay_mult: 1
  }
  param {
    lr_mult: 2
    decay_mult: 0
  }
  convolution_param {
    num_output: 256
    pad: 1
    kernel_size: 3
    stride: 2
    weight_filler {
      type: "msra"
    }
    bias_filler {
      type: "constant"
      value: 0
    }
  }
}
layer {
  name: "conv15_2/relu"
  type: "ReLU"
  bottom: "conv15_2"
  top: "conv15_2"
}
layer {
  name: "conv16_1"
  type: "Convolution"
  bottom: "conv15_2"
  top: "conv16_1"
  param {
    lr_mult: 1
    decay_mult: 1
  }
  param {
    lr_mult: 2
    decay_mult: 0
  }
  convolution_param {
    num_output: 128
    kernel_size: 1
    weight_filler {
      type: "msra"
    }
    bias_filler {
      type: "constant"
      value: 0
    }
  }
}
layer {
  name: "conv16_1/relu"
  type: "ReLU"
  bottom: "conv16_1"
  top: "conv16_1"
}
layer {
  name: "conv16_2"
  type: "Convolution"
  bottom: "conv16_1"
  top: "conv16_2"
  param {
    lr_mult: 1
    decay_mult: 1
  }
  param {
    lr_mult: 2
    decay_mult: 0
  }
  convolution_param {
    num_output: 256
    pad: 1
    kernel_size: 3
    stride: 2
    weight_filler {
      type: "msra"
    }
    bias_filler {
      type: "constant"
      value: 0
    }
  }
}
layer {
  name: "conv16_2/relu"
  type: "ReLU"
  bottom: "conv16_2"
  top: "conv16_2"
}
layer {
  name: "conv17_1"
  type: "Convolution"
  bottom: "conv16_2"
  top: "conv17_1"
  param {
    lr_mult: 1
    decay_mult: 1
  }
  param {
    lr_mult: 2
    decay_mult: 0
  }
  convolution_param {
    num_output: 64
    kernel_size: 1
    weight_filler {
      type: "msra"
    }
    bias_filler {
      type: "constant"
      value: 0
    }
  }
}
layer {
  name: "conv17_1/relu"
  type: "ReLU"
  bottom: "conv17_1"
  top: "conv17_1"
}
layer {
  name: "conv17_2"
  type: "Convolution"
  bottom: "conv17_1"
  top: "conv17_2"
  param {
    lr_mult: 1
    decay_mult: 1
  }
  param {
    lr_mult: 2
    decay_mult: 0
  }
  convolution_param {
    num_output: 128
    pad: 1
    kernel_size: 3
    stride: 2
    weight_filler {
      type: "msra"
    }
    bias_filler {
      type: "constant"
      value: 0
    }
  }
}
layer {
  name: "conv17_2/relu"
  type: "ReLU"
  bottom: "conv17_2"
  top: "conv17_2"
}
layer {
  name: "conv11_mbox_loc"
  type: "Convolution"
  bottom: "conv11"
  top: "conv11_mbox_loc"
  param {
    lr_mult: 1
    decay_mult: 1
  }
  param {
    lr_mult: 2
    decay_mult: 0
  }
  convolution_param {
    num_output: 12
    kernel_size: 1
    weight_filler {
      type: "msra"
    }
    bias_filler {
      type: "constant"
      value: 0
    }
  }
}
layer {
  name: "conv11_mbox_loc_perm"
  type: "Permute"
  bottom: "conv11_mbox_loc"
  top: "conv11_mbox_loc_perm"
  permute_param {
    order: 0
    order: 2
    order: 3
    order: 1
  }
}
layer {
  name: "conv11_mbox_loc_flat"
  type: "Flatten"
  bottom: "conv11_mbox_loc_perm"
  top: "conv11_mbox_loc_flat"
  flatten_param {
    axis: 1
  }
}
layer {
  name: "conv11_mbox_conf_new"
  type: "Convolution"
  bottom: "conv11"
  top: "conv11_mbox_conf"
  param {
    lr_mult: 1
    decay_mult: 1
  }
  param {
    lr_mult: 2
    decay_mult: 0
  }
  convolution_param {
    num_output: 63
    kernel_size: 1
    weight_filler {
      type: "msra"
    }
    bias_filler {
      type: "constant"
      value: 0
    }
  }
}
layer {
  name: "conv11_mbox_conf_perm"
  type: "Permute"
  bottom: "conv11_mbox_conf"
  top: "conv11_mbox_conf_perm"
  permute_param {
    order: 0
    order: 2
    order: 3
    order: 1
  }
}
layer {
  name: "conv11_mbox_conf_flat"
  type: "Flatten"
  bottom: "conv11_mbox_conf_perm"
  top: "conv11_mbox_conf_flat"
  flatten_param {
    axis: 1
  }
}
layer {
  name: "conv11_mbox_priorbox"
  type: "PriorBox"
  bottom: "conv11"
  bottom: "data"
  top: "conv11_mbox_priorbox"
  prior_box_param {
    min_size: 60
    aspect_ratio: 2
    flip: true
    clip: false
    variance: 0.1
    variance: 0.1
    variance: 0.2
    variance: 0.2
    offset: 0.5
  }
}
layer {
  name: "conv13_mbox_loc"
  type: "Convolution"
  bottom: "conv13"
  top: "conv13_mbox_loc"
  param {
    lr_mult: 1
    decay_mult: 1
  }
  param {
    lr_mult: 2
    decay_mult: 0
  }
  convolution_param {
    num_output: 24
    kernel_size: 1
    weight_filler {
      type: "msra"
    }
    bias_filler {
      type: "constant"
      value: 0
    }
  }
}
layer {
  name: "conv13_mbox_loc_perm"
  type: "Permute"
  bottom: "conv13_mbox_loc"
  top: "conv13_mbox_loc_perm"
  permute_param {
    order: 0
    order: 2
    order: 3
    order: 1
  }
}
layer {
  name: "conv13_mbox_loc_flat"
  type: "Flatten"
  bottom: "conv13_mbox_loc_perm"
  top: "conv13_mbox_loc_flat"
  flatten_param {
    axis: 1
  }
}
layer {
  name: "conv13_mbox_conf_new"
  type: "Convolution"
  bottom: "conv13"
  top: "conv13_mbox_conf"
  param {
    lr_mult: 1
    decay_mult: 1
  }
  param {
    lr_mult: 2
    decay_mult: 0
  }
  convolution_param {
    num_output: 126
    kernel_size: 1
    weight_filler {
      type: "msra"
    }
    bias_filler {
      type: "constant"
      value: 0
    }
  }
}
layer {
  name: "conv13_mbox_conf_perm"
  type: "Permute"
  bottom: "conv13_mbox_conf"
  top: "conv13_mbox_conf_perm"
  permute_param {
    order: 0
    order: 2
    order: 3
    order: 1
  }
}
layer {
  name: "conv13_mbox_conf_flat"
  type: "Flatten"
  bottom: "conv13_mbox_conf_perm"
  top: "conv13_mbox_conf_flat"
  flatten_param {
    axis: 1
  }
}
layer {
  name: "conv13_mbox_priorbox"
  type: "PriorBox"
  bottom: "conv13"
  bottom: "data"
  top: "conv13_mbox_priorbox"
  prior_box_param {
    min_size: 105
    max_size: 150
    aspect_ratio: 2
    aspect_ratio: 3
    flip: true
    clip: false
    variance: 0.1
    variance: 0.1
    variance: 0.2
    variance: 0.2
    offset: 0.5
  }
}
layer {
  name: "conv14_2_mbox_loc"
  type: "Convolution"
  bottom: "conv14_2"
  top: "conv14_2_mbox_loc"
  param {
    lr_mult: 1
    decay_mult: 1
  }
  param {
    lr_mult: 2
    decay_mult: 0
  }
  convolution_param {
    num_output: 24
    kernel_size: 1
    weight_filler {
      type: "msra"
    }
    bias_filler {
      type: "constant"
      value: 0
    }
  }
}
layer {
  name: "conv14_2_mbox_loc_perm"
  type: "Permute"
  bottom: "conv14_2_mbox_loc"
  top: "conv14_2_mbox_loc_perm"
  permute_param {
    order: 0
    order: 2
    order: 3
    order: 1
  }
}
layer {
  name: "conv14_2_mbox_loc_flat"
  type: "Flatten"
  bottom: "conv14_2_mbox_loc_perm"
  top: "conv14_2_mbox_loc_flat"
  flatten_param {
    axis: 1
  }
}
layer {
  name: "conv14_2_mbox_conf_new"
  type: "Convolution"
  bottom: "conv14_2"
  top: "conv14_2_mbox_conf"
  param {
    lr_mult: 1
    decay_mult: 1
  }
  param {
    lr_mult: 2
    decay_mult: 0
  }
  convolution_param {
    num_output: 126
    kernel_size: 1
    weight_filler {
      type: "msra"
    }
    bias_filler {
      type: "constant"
      value: 0
    }
  }
}
layer {
  name: "conv14_2_mbox_conf_perm"
  type: "Permute"
  bottom: "conv14_2_mbox_conf"
  top: "conv14_2_mbox_conf_perm"
  permute_param {
    order: 0
    order: 2
    order: 3
    order: 1
  }
}
layer {
  name: "conv14_2_mbox_conf_flat"
  type: "Flatten"
  bottom: "conv14_2_mbox_conf_perm"
  top: "conv14_2_mbox_conf_flat"
  flatten_param {
    axis: 1
  }
}
layer {
  name: "conv14_2_mbox_priorbox"
  type: "PriorBox"
  bottom: "conv14_2"
  bottom: "data"
  top: "conv14_2_mbox_priorbox"
  prior_box_param {
    min_size: 150
    max_size: 195
    aspect_ratio: 2
    aspect_ratio: 3
    flip: true
    clip: false
    variance: 0.1
    variance: 0.1
    variance: 0.2
    variance: 0.2
    offset: 0.5
  }
}
layer {
  name: "conv15_2_mbox_loc"
  type: "Convolution"
  bottom: "conv15_2"
  top: "conv15_2_mbox_loc"
  param {
    lr_mult: 1
    decay_mult: 1
  }
  param {
    lr_mult: 2
    decay_mult: 0
  }
  convolution_param {
    num_output: 24
    kernel_size: 1
    weight_filler {
      type: "msra"
    }
    bias_filler {
      type: "constant"
      value: 0
    }
  }
}
layer {
  name: "conv15_2_mbox_loc_perm"
  type: "Permute"
  bottom: "conv15_2_mbox_loc"
  top: "conv15_2_mbox_loc_perm"
  permute_param {
    order: 0
    order: 2
    order: 3
    order: 1
  }
}
layer {
  name: "conv15_2_mbox_loc_flat"
  type: "Flatten"
  bottom: "conv15_2_mbox_loc_perm"
  top: "conv15_2_mbox_loc_flat"
  flatten_param {
    axis: 1
  }
}
layer {
  name: "conv15_2_mbox_conf_new"
  type: "Convolution"
  bottom: "conv15_2"
  top: "conv15_2_mbox_conf"
  param {
    lr_mult: 1
    decay_mult: 1
  }
  param {
    lr_mult: 2
    decay_mult: 0
  }
  convolution_param {
    num_output: 126
    kernel_size: 1
    weight_filler {
      type: "msra"
    }
    bias_filler {
      type: "constant"
      value: 0
    }
  }
}
layer {
  name: "conv15_2_mbox_conf_perm"
  type: "Permute"
  bottom: "conv15_2_mbox_conf"
  top: "conv15_2_mbox_conf_perm"
  permute_param {
    order: 0
    order: 2
    order: 3
    order: 1
  }
}
layer {
  name: "conv15_2_mbox_conf_flat"
  type: "Flatten"
  bottom: "conv15_2_mbox_conf_perm"
  top: "conv15_2_mbox_conf_flat"
  flatten_param {
    axis: 1
  }
}
layer {
  name: "conv15_2_mbox_priorbox"
  type: "PriorBox"
  bottom: "conv15_2"
  bottom: "data"
  top: "conv15_2_mbox_priorbox"
  prior_box_param {
    min_size: 195
    max_size: 240
    aspect_ratio: 2
    aspect_ratio: 3
    flip: true
    clip: false
    variance: 0.1
    variance: 0.1
    variance: 0.2
    variance: 0.2
    offset: 0.5
  }
}
layer {
  name: "conv16_2_mbox_loc"
  type: "Convolution"
  bottom: "conv16_2"
  top: "conv16_2_mbox_loc"
  param {
    lr_mult: 1
    decay_mult: 1
  }
  param {
    lr_mult: 2
    decay_mult: 0
  }
  convolution_param {
    num_output: 24
    kernel_size: 1
    weight_filler {
      type: "msra"
    }
    bias_filler {
      type: "constant"
      value: 0
    }
  }
}
layer {
  name: "conv16_2_mbox_loc_perm"
  type: "Permute"
  bottom: "conv16_2_mbox_loc"
  top: "conv16_2_mbox_loc_perm"
  permute_param {
    order: 0
    order: 2
    order: 3
    order: 1
  }
}
layer {
  name: "conv16_2_mbox_loc_flat"
  type: "Flatten"
  bottom: "conv16_2_mbox_loc_perm"
  top: "conv16_2_mbox_loc_flat"
  flatten_param {
    axis: 1
  }
}
layer {
  name: "conv16_2_mbox_conf_new"
  type: "Convolution"
  bottom: "conv16_2"
  top: "conv16_2_mbox_conf"
  param {
    lr_mult: 1
    decay_mult: 1
  }
  param {
    lr_mult: 2
    decay_mult: 0
  }
  convolution_param {
    num_output: 126
    kernel_size: 1
    weight_filler {
      type: "msra"
    }
    bias_filler {
      type: "constant"
      value: 0
    }
  }
}
layer {
  name: "conv16_2_mbox_conf_perm"
  type: "Permute"
  bottom: "conv16_2_mbox_conf"
  top: "conv16_2_mbox_conf_perm"
  permute_param {
    order: 0
    order: 2
    order: 3
    order: 1
  }
}
layer {
  name: "conv16_2_mbox_conf_flat"
  type: "Flatten"
  bottom: "conv16_2_mbox_conf_perm"
  top: "conv16_2_mbox_conf_flat"
  flatten_param {
    axis: 1
  }
}
layer {
  name: "conv16_2_mbox_priorbox"
  type: "PriorBox"
  bottom: "conv16_2"
  bottom: "data"
  top: "conv16_2_mbox_priorbox"
  prior_box_param {
    min_size: 240
    max_size: 285
    aspect_ratio: 2
    aspect_ratio: 3
    flip: true
    clip: false
    variance: 0.1
    variance: 0.1
    variance: 0.2
    variance: 0.2
    offset: 0.5
  }
}
layer {
  name: "conv17_2_mbox_loc"
  type: "Convolution"
  bottom: "conv17_2"
  top: "conv17_2_mbox_loc"
  param {
    lr_mult: 1
    decay_mult: 1
  }
  param {
    lr_mult: 2
    decay_mult: 0
  }
  convolution_param {
    num_output: 24
    kernel_size: 1
    weight_filler {
      type: "msra"
    }
    bias_filler {
      type: "constant"
      value: 0
    }
  }
}
layer {
  name: "conv17_2_mbox_loc_perm"
  type: "Permute"
  bottom: "conv17_2_mbox_loc"
  top: "conv17_2_mbox_loc_perm"
  permute_param {
    order: 0
    order: 2
    order: 3
    order: 1
  }
}
layer {
  name: "conv17_2_mbox_loc_flat"
  type: "Flatten"
  bottom: "conv17_2_mbox_loc_perm"
  top: "conv17_2_mbox_loc_flat"
  flatten_param {
    axis: 1
  }
}
layer {
  name: "conv17_2_mbox_conf_new"
  type: "Convolution"
  bottom: "conv17_2"
  top: "conv17_2_mbox_conf"
  param {
    lr_mult: 1
    decay_mult: 1
  }
  param {
    lr_mult: 2
    decay_mult: 0
  }
  convolution_param {
    num_output: 126
    kernel_size: 1
    weight_filler {
      type: "msra"
    }
    bias_filler {
      type: "constant"
      value: 0
    }
  }
}
layer {
  name: "conv17_2_mbox_conf_perm"
  type: "Permute"
  bottom: "conv17_2_mbox_conf"
  top: "conv17_2_mbox_conf_perm"
  permute_param {
    order: 0
    order: 2
    order: 3
    order: 1
  }
}
layer {
  name: "conv17_2_mbox_conf_flat"
  type: "Flatten"
  bottom: "conv17_2_mbox_conf_perm"
  top: "conv17_2_mbox_conf_flat"
  flatten_param {
    axis: 1
  }
}
layer {
  name: "conv17_2_mbox_priorbox"
  type: "PriorBox"
  bottom: "conv17_2"
  bottom: "data"
  top: "conv17_2_mbox_priorbox"
  prior_box_param {
    min_size: 285
    max_size: 300
    aspect_ratio: 2
    aspect_ratio: 3
    flip: true
    clip: false
    variance: 0.1
    variance: 0.1
    variance: 0.2
    variance: 0.2
    offset: 0.5
  }
}
layer {
  name: "mbox_loc"
  type: "Concat"
  bottom: "conv11_mbox_loc_flat"
  bottom: "conv13_mbox_loc_flat"
  bottom: "conv14_2_mbox_loc_flat"
  bottom: "conv15_2_mbox_loc_flat"
  bottom: "conv16_2_mbox_loc_flat"
  bottom: "conv17_2_mbox_loc_flat"
  top: "mbox_loc"
  concat_param {
    axis: 1
  }
}
layer {
  name: "mbox_conf"
  type: "Concat"
  bottom: "conv11_mbox_conf_flat"
  bottom: "conv13_mbox_conf_flat"
  bottom: "conv14_2_mbox_conf_flat"
  bottom: "conv15_2_mbox_conf_flat"
  bottom: "conv16_2_mbox_conf_flat"
  bottom: "conv17_2_mbox_conf_flat"
  top: "mbox_conf"
  concat_param {
    axis: 1
  }
}
layer {
  name: "mbox_priorbox"
  type: "Concat"
  bottom: "conv11_mbox_priorbox"
  bottom: "conv13_mbox_priorbox"
  bottom: "conv14_2_mbox_priorbox"
  bottom: "conv15_2_mbox_priorbox"
  bottom: "conv16_2_mbox_priorbox"
  bottom: "conv17_2_mbox_priorbox"
  top: "mbox_priorbox"
  concat_param {
    axis: 2
  }
}
layer {
  name: "mbox_conf_reshape"
  type: "Reshape"
  bottom: "mbox_conf"
  top: "mbox_conf_reshape"
  reshape_param {
    shape {
      dim: 0
      dim: -1
      dim: 21
    }
  }
}
layer {
  name: "mbox_conf_softmax"
  type: "Softmax"
  bottom: "mbox_conf_reshape"
  top: "mbox_conf_softmax"
  softmax_param {
    axis: 2
  }
}
layer {
  name: "mbox_conf_flatten"
  type: "Flatten"
  bottom: "mbox_conf_softmax"
  top: "mbox_conf_flatten"
  flatten_param {
    axis: 1
  }
}
layer {
  name: "detection_out"
  type: "DetectionOutput"
  bottom: "mbox_loc"
  bottom: "mbox_conf_flatten"
  bottom: "mbox_priorbox"
  top: "detection_out"
  include {
    phase: TEST
  }
  detection_output_param {
    num_classes: 21
    share_location: true
    background_label_id: 0
    nms_param {
      nms_threshold: 0.45
      top_k: 100
    }
    code_type: CENTER_SIZE
    keep_top_k: 100
    confidence_threshold: 0.25
  }
}
I1102 21:09:27.138341 13472 detection_output_layer.cpp:282] Couldn't find any detections
I1102 21:09:27.497938 13472 detection_output_layer.cpp:282] Couldn't find any detections
I1102 21:09:38.273690 13472 detection_output_layer.cpp:282] Couldn't find any detections
I1102 21:09:41.367040 13472 detection_output_layer.cpp:282] Couldn't find any detections
I1102 21:09:42.085813 13472 detection_output_layer.cpp:282] Couldn't find any detections
I1102 21:09:43.525121 13472 detection_output_layer.cpp:282] Couldn't find any detections
I1102 21:09:44.256059 13472 detection_output_layer.cpp:282] Couldn't find any detections
I1102 21:09:46.060519 13472 detection_output_layer.cpp:282] Couldn't find any detections
I1102 21:10:03.090631 13472 detection_output_layer.cpp:282] Couldn't find any detections
I1102 21:10:32.133544 13472 detection_output_layer.cpp:282] Couldn't find any detections
I1102 21:10:38.833454 13472 detection_output_layer.cpp:282] Couldn't find any detections
I1102 21:10:54.580804 13472 detection_output_layer.cpp:282] Couldn't find any detections
I1102 21:11:06.953339 13472 detection_output_layer.cpp:282] Couldn't find any detections
I1102 21:11:13.354543 13472 detection_output_layer.cpp:282] Couldn't find any detections
I1102 21:11:15.083436 13472 detection_output_layer.cpp:282] Couldn't find any detections
I1102 21:11:17.143081 13472 detection_output_layer.cpp:282] Couldn't find any detections
I1102 21:11:38.742192 13472 detection_output_layer.cpp:282] Couldn't find any detections
I1102 21:11:39.426503 13472 detection_output_layer.cpp:282] Couldn't find any detections
I1102 21:12:02.109359 13472 detection_output_layer.cpp:282] Couldn't find any detections
I1102 21:12:07.225292 13472 detection_output_layer.cpp:282] Couldn't find any detections
I1102 21:12:23.662116 13472 detection_output_layer.cpp:282] Couldn't find any detections
I1102 21:12:32.007469 13472 detection_output_layer.cpp:282] Couldn't find any detections
I1102 21:12:32.175952 13472 detection_output_layer.cpp:282] Couldn't find any detections
I1102 21:12:32.518070 13472 detection_output_layer.cpp:282] Couldn't find any detections
I1102 21:12:36.093602 13472 detection_output_layer.cpp:282] Couldn't find any detections
I1102 21:12:42.004698 13472 detection_output_layer.cpp:282] Couldn't find any detections
I1102 21:12:53.150547 13472 detection_output_layer.cpp:282] Couldn't find any detections
I1102 21:12:54.658319 13472 detection_output_layer.cpp:282] Couldn't find any detections
I1102 21:13:10.199235 13472 detection_output_layer.cpp:282] Couldn't find any detections
I1102 21:13:18.128260 13472 detection_output_layer.cpp:282] Couldn't find any detections
I1102 21:13:21.411905 13472 detection_output_layer.cpp:282] Couldn't find any detections
I1102 21:13:28.029770 13472 detection_output_layer.cpp:282] Couldn't find any detections
I1102 21:13:30.564882 13472 detection_output_layer.cpp:282] Couldn't find any detections
I1102 21:13:31.748324 13472 detection_output_layer.cpp:282] Couldn't find any detections
I1102 21:13:40.393141 13472 detection_output_layer.cpp:282] Couldn't find any detections
I1102 21:13:51.924587 13472 detection_output_layer.cpp:282] Couldn't find any detections
I1102 21:13:57.022148 13472 detection_output_layer.cpp:282] Couldn't find any detections
I1102 21:13:57.524184 13472 detection_output_layer.cpp:282] Couldn't find any detections
I1102 21:13:59.024832 13472 detection_output_layer.cpp:282] Couldn't find any detections
I1102 21:13:59.362210 13472 detection_output_layer.cpp:282] Couldn't find any detections
I1102 21:14:24.595022 13472 detection_output_layer.cpp:282] Couldn't find any detections
I1102 21:14:34.728456 13472 detection_output_layer.cpp:282] Couldn't find any detections
I1102 21:14:34.897809 13472 detection_output_layer.cpp:282] Couldn't find any detections
I1102 21:14:35.747625 13472 detection_output_layer.cpp:282] Couldn't find any detections
I1102 21:14:44.787506 13472 detection_output_layer.cpp:282] Couldn't find any detections
I1102 21:14:50.369879 13472 detection_output_layer.cpp:282] Couldn't find any detections
I1102 21:14:58.613040 13472 detection_output_layer.cpp:282] Couldn't find any detections
I1102 21:14:59.112521 13472 detection_output_layer.cpp:282] Couldn't find any detections
I1102 21:15:05.422210 13472 detection_output_layer.cpp:282] Couldn't find any detections
I1102 21:15:06.744458 13472 detection_output_layer.cpp:282] Couldn't find any detections
I1102 21:15:11.050124 13472 detection_output_layer.cpp:282] Couldn't find any detections
I1102 21:15:31.301465 13472 detection_output_layer.cpp:282] Couldn't find any detections
I1102 21:15:33.175247 13472 detection_output_layer.cpp:282] Couldn't find any detections
I1102 21:15:35.232127 13472 detection_output_layer.cpp:282] Couldn't find any detections
I1102 21:15:44.431293 13472 detection_output_layer.cpp:282] Couldn't find any detections
I1102 21:15:46.942977 13472 detection_output_layer.cpp:282] Couldn't find any detections
I1102 21:15:47.442797 13472 detection_output_layer.cpp:282] Couldn't find any detections
I1102 21:15:49.438145 13472 detection_output_layer.cpp:282] Couldn't find any detections
I1102 21:15:53.192062 13472 detection_output_layer.cpp:282] Couldn't find any detections
I1102 21:15:54.190485 13472 detection_output_layer.cpp:282] Couldn't find any detections
I1102 21:16:00.200326 13472 detection_output_layer.cpp:282] Couldn't find any detections
I1102 21:16:09.760839 13472 detection_output_layer.cpp:282] Couldn't find any detections
I1102 21:16:10.103029 13472 detection_output_layer.cpp:282] Couldn't find any detections
I1102 21:16:15.737684 13472 detection_output_layer.cpp:282] Couldn't find any detections
I1102 21:16:45.821666 13472 detection_output_layer.cpp:282] Couldn't find any detections
I1102 21:16:48.208638 13472 detection_output_layer.cpp:282] Couldn't find any detections
I1102 21:16:56.514740 13472 detection_output_layer.cpp:282] Couldn't find any detections
I1102 21:16:56.682354 13472 detection_output_layer.cpp:282] Couldn't find any detections
I1102 21:16:59.227711 13472 detection_output_layer.cpp:282] Couldn't find any detections
I1102 21:17:04.893929 13472 detection_output_layer.cpp:282] Couldn't find any detections
I1102 21:17:06.425719 13472 detection_output_layer.cpp:282] Couldn't find any detections
I1102 21:17:11.008698 13472 detection_output_layer.cpp:282] Couldn't find any detections
I1102 21:17:20.382364 13472 detection_output_layer.cpp:282] Couldn't find any detections
I1102 21:17:26.305951 13472 detection_output_layer.cpp:282] Couldn't find any detections
I1102 21:17:47.311122 13472 detection_output_layer.cpp:282] Couldn't find any detections
I1102 21:17:52.382859 13472 detection_output_layer.cpp:282] Couldn't find any detections
I1102 21:17:56.925477 13472 detection_output_layer.cpp:282] Couldn't find any detections
I1102 21:17:57.600476 13472 detection_output_layer.cpp:282] Couldn't find any detections
I1102 21:18:05.098235 13472 detection_output_layer.cpp:282] Couldn't find any detections
I1102 21:18:12.829351 13472 detection_output_layer.cpp:282] Couldn't find any detections
I1102 21:18:16.080929 13472 detection_output_layer.cpp:282] Couldn't find any detections
I1102 21:18:26.872647 13472 detection_output_layer.cpp:282] Couldn't find any detections
I1102 21:18:27.369280 13472 detection_output_layer.cpp:282] Couldn't find any detections
I1102 21:18:34.489737 13472 detection_output_layer.cpp:282] Couldn't find any detections
I1102 21:18:36.927289 13472 detection_output_layer.cpp:282] Couldn't find any detections
I1102 21:18:54.155459 13472 detection_output_layer.cpp:282] Couldn't find any detections
I1102 21:18:55.702992 13472 detection_output_layer.cpp:282] Couldn't find any detections
I1102 21:19:01.302031 13472 detection_output_layer.cpp:282] Couldn't find any detections
I1102 21:19:12.113639 13472 detection_output_layer.cpp:282] Couldn't find any detections
I1102 21:19:14.516144 13472 detection_output_layer.cpp:282] Couldn't find any detections
I1102 21:19:19.284338 13472 detection_output_layer.cpp:282] Couldn't find any detections
I1102 21:19:20.320118 13472 detection_output_layer.cpp:282] Couldn't find any detections
I1102 21:19:25.961777 13472 detection_output_layer.cpp:282] Couldn't find any detections
I1102 21:19:40.101917 13472 detection_output_layer.cpp:282] Couldn't find any detections
I1102 21:19:40.781250 13472 detection_output_layer.cpp:282] Couldn't find any detections
I1102 21:19:46.620834 13472 detection_output_layer.cpp:282] Couldn't find any detections
I1102 21:19:57.183357 13472 detection_output_layer.cpp:282] Couldn't find any detections
I1102 21:19:59.524312 13472 detection_output_layer.cpp:282] Couldn't find any detections
I1102 21:20:04.542166 13472 detection_output_layer.cpp:282] Couldn't find any detections
I1102 21:20:05.370333 13472 detection_output_layer.cpp:282] Couldn't find any detections
I1102 21:20:05.700176 13472 detection_output_layer.cpp:282] Couldn't find any detections
I1102 21:20:07.208569 13472 detection_output_layer.cpp:282] Couldn't find any detections
I1102 21:20:13.708626 13472 detection_output_layer.cpp:282] Couldn't find any detections
I1102 21:20:31.764056 13472 detection_output_layer.cpp:282] Couldn't find any detections
I1102 21:20:32.403540 13472 detection_output_layer.cpp:282] Couldn't find any detections
I1102 21:20:40.762512 13472 detection_output_layer.cpp:282] Couldn't find any detections
I1102 21:20:45.252715 13472 detection_output_layer.cpp:282] Couldn't find any detections
I1102 21:20:53.930385 13472 detection_output_layer.cpp:282] Couldn't find any detections
I1102 21:20:55.392318 13472 detection_output_layer.cpp:282] Couldn't find any detections
I1102 21:21:44.238996 13472 detection_output_layer.cpp:282] Couldn't find any detections
I1102 21:21:44.563696 13472 detection_output_layer.cpp:282] Couldn't find any detections
I1102 21:21:51.071733 13472 detection_output_layer.cpp:282] Couldn't find any detections
I1102 21:22:08.681792 13472 detection_output_layer.cpp:282] Couldn't find any detections
I1102 21:22:13.202286 13472 detection_output_layer.cpp:282] Couldn't find any detections
I1102 21:22:16.857300 13472 detection_output_layer.cpp:282] Couldn't find any detections
I1102 21:22:46.095737 13472 detection_output_layer.cpp:282] Couldn't find any detections
I1102 21:22:53.737907 13472 detection_output_layer.cpp:282] Couldn't find any detections
I1102 21:22:54.248709 13472 detection_output_layer.cpp:282] Couldn't find any detections
I1102 21:22:55.255481 13472 detection_output_layer.cpp:282] Couldn't find any detections
I1102 21:23:07.732347 13472 detection_output_layer.cpp:282] Couldn't find any detections
I1102 21:23:11.674278 13472 detection_output_layer.cpp:282] Couldn't find any detections
I1102 21:23:14.039757 13472 detection_output_layer.cpp:282] Couldn't find any detections
I1102 21:23:18.189039 13472 detection_output_layer.cpp:282] Couldn't find any detections



W1102 21:23:21.662437 13472 _caffe.cpp:125] Net('examples/MobileNet-SSD/model_quantized/MobileNetSSD_quantized_deploy.prototxt', 1, weights='examples/MobileNet-SSD/model_quantized/MobileNetSSD_quantized_deploy.caffemodel')
I1102 21:23:21.663801 13472 upgrade_proto.cpp:67] Attempting to upgrade input file specified using deprecated input fields: examples/MobileNet-SSD/model_quantized/MobileNetSSD_quantized_deploy.prototxt
I1102 21:23:21.665438 13472 net.cpp:58] Initializing net from parameters:
name: "MobileNet-SSD"
state {
  phase: TEST
  level: 0
}
layer {
  name: "input"
  type: "Input"
  top: "data"
  input_param {
    shape {
      dim: 1
      dim: 3
      dim: 300
      dim: 300
    }
  }
}
layer {
  name: "conv0"
  type: "Convolution"
  bottom: "data"
  top: "conv0"
  param {
    lr_mult: 1
    decay_mult: 1
  }
  param {
    lr_mult: 2
    decay_mult: 0
  }
  convolution_param {
    num_output: 32
    pad: 1
    kernel_size: 3
    stride: 2
    weight_filler {
      type: "msra"
    }
    bias_filler {
      type: "constant"
      value: 0
    }
  }
}
layer {
  name: "conv0/relu"
  type: "ReLU"
  bottom: "conv0"
  top: "conv0"
}
layer {
  name: "conv1/dw"
  type: "Convolution"
  bottom: "conv0"
  top: "conv1/dw"
  param {
    lr_mult: 1
    decay_mult: 1
  }
  param {
    lr_mult: 2
    decay_mult: 0
  }
  convolution_param {
    num_output: 32
    pad: 1
    kernel_size: 3
    group: 32
    weight_filler {
      type: "msra"
    }
    bias_filler {
      type: "constant"
      value: 0
    }
    engine: CAFFE
  }
}
layer {
  name: "conv1/dw/relu"
  type: "ReLU"
  bottom: "conv1/dw"
  top: "conv1/dw"
}
layer {
  name: "conv1"
  type: "Convolution"
  bottom: "conv1/dw"
  top: "conv1"
  param {
    lr_mult: 1
    decay_mult: 1
  }
  param {
    lr_mult: 2
    decay_mult: 0
  }
  convolution_param {
    num_output: 64
    kernel_size: 1
    weight_filler {
      type: "msra"
    }
    bias_filler {
      type: "constant"
      value: 0
    }
  }
}
layer {
  name: "conv1/relu"
  type: "ReLU"
  bottom: "conv1"
  top: "conv1"
}
layer {
  name: "conv2/dw"
  type: "Convolution"
  bottom: "conv1"
  top: "conv2/dw"
  param {
    lr_mult: 1
    decay_mult: 1
  }
  param {
    lr_mult: 2
    decay_mult: 0
  }
  convolution_param {
    num_output: 64
    pad: 1
    kernel_size: 3
    group: 64
    stride: 2
    weight_filler {
      type: "msra"
    }
    bias_filler {
      type: "constant"
      value: 0
    }
    engine: CAFFE
  }
}
layer {
  name: "conv2/dw/relu"
  type: "ReLU"
  bottom: "conv2/dw"
  top: "conv2/dw"
}
layer {
  name: "conv2"
  type: "Convolution"
  bottom: "conv2/dw"
  top: "conv2"
  param {
    lr_mult: 1
    decay_mult: 1
  }
  param {
    lr_mult: 2
    decay_mult: 0
  }
  convolution_param {
    num_output: 128
    kernel_size: 1
    weight_filler {
      type: "msra"
    }
    bias_filler {
      type: "constant"
      value: 0
    }
  }
}
layer {
  name: "conv2/relu"
  type: "ReLU"
  bottom: "conv2"
  top: "conv2"
}
layer {
  name: "conv3/dw"
  type: "Convolution"
  bottom: "conv2"
  top: "conv3/dw"
  param {
    lr_mult: 1
    decay_mult: 1
  }
  param {
    lr_mult: 2
    decay_mult: 0
  }
  convolution_param {
    num_output: 128
    pad: 1
    kernel_size: 3
    group: 128
    weight_filler {
      type: "msra"
    }
    bias_filler {
      type: "constant"
      value: 0
    }
    engine: CAFFE
  }
}
layer {
  name: "conv3/dw/relu"
  type: "ReLU"
  bottom: "conv3/dw"
  top: "conv3/dw"
}
layer {
  name: "conv3"
  type: "Convolution"
  bottom: "conv3/dw"
  top: "conv3"
  param {
    lr_mult: 1
    decay_mult: 1
  }
  param {
    lr_mult: 2
    decay_mult: 0
  }
  convolution_param {
    num_output: 128
    kernel_size: 1
    weight_filler {
      type: "msra"
    }
    bias_filler {
      type: "constant"
      value: 0
    }
  }
}
layer {
  name: "conv3/relu"
  type: "ReLU"
  bottom: "conv3"
  top: "conv3"
}
layer {
  name: "conv4/dw"
  type: "Convolution"
  bottom: "conv3"
  top: "conv4/dw"
  param {
    lr_mult: 1
    decay_mult: 1
  }
  param {
    lr_mult: 2
    decay_mult: 0
  }
  convolution_param {
    num_output: 128
    pad: 1
    kernel_size: 3
    group: 128
    stride: 2
    weight_filler {
      type: "msra"
    }
    bias_filler {
      type: "constant"
      value: 0
    }
    engine: CAFFE
  }
}
layer {
  name: "conv4/dw/relu"
  type: "ReLU"
  bottom: "conv4/dw"
  top: "conv4/dw"
}
layer {
  name: "conv4"
  type: "Convolution"
  bottom: "conv4/dw"
  top: "conv4"
  param {
    lr_mult: 1
    decay_mult: 1
  }
  param {
    lr_mult: 2
    decay_mult: 0
  }
  convolution_param {
    num_output: 256
    kernel_size: 1
    weight_filler {
      type: "msra"
    }
    bias_filler {
      type: "constant"
      value: 0
    }
  }
}
layer {
  name: "conv4/relu"
  type: "ReLU"
  bottom: "conv4"
  top: "conv4"
}
layer {
  name: "conv5/dw"
  type: "Convolution"
  bottom: "conv4"
  top: "conv5/dw"
  param {
    lr_mult: 1
    decay_mult: 1
  }
  param {
    lr_mult: 2
    decay_mult: 0
  }
  convolution_param {
    num_output: 256
    pad: 1
    kernel_size: 3
    group: 256
    weight_filler {
      type: "msra"
    }
    bias_filler {
      type: "constant"
      value: 0
    }
    engine: CAFFE
  }
}
layer {
  name: "conv5/dw/relu"
  type: "ReLU"
  bottom: "conv5/dw"
  top: "conv5/dw"
}
layer {
  name: "conv5"
  type: "Convolution"
  bottom: "conv5/dw"
  top: "conv5"
  param {
    lr_mult: 1
    decay_mult: 1
  }
  param {
    lr_mult: 2
    decay_mult: 0
  }
  convolution_param {
    num_output: 256
    kernel_size: 1
    weight_filler {
      type: "msra"
    }
    bias_filler {
      type: "constant"
      value: 0
    }
  }
}
layer {
  name: "conv5/relu"
  type: "ReLU"
  bottom: "conv5"
  top: "conv5"
}
layer {
  name: "conv6/dw"
  type: "Convolution"
  bottom: "conv5"
  top: "conv6/dw"
  param {
    lr_mult: 1
    decay_mult: 1
  }
  param {
    lr_mult: 2
    decay_mult: 0
  }
  convolution_param {
    num_output: 256
    pad: 1
    kernel_size: 3
    group: 256
    stride: 2
    weight_filler {
      type: "msra"
    }
    bias_filler {
      type: "constant"
      value: 0
    }
    engine: CAFFE
  }
}
layer {
  name: "conv6/dw/relu"
  type: "ReLU"
  bottom: "conv6/dw"
  top: "conv6/dw"
}
layer {
  name: "conv6"
  type: "Convolution"
  bottom: "conv6/dw"
  top: "conv6"
  param {
    lr_mult: 1
    decay_mult: 1
  }
  param {
    lr_mult: 2
    decay_mult: 0
  }
  convolution_param {
    num_output: 512
    kernel_size: 1
    weight_filler {
      type: "msra"
    }
    bias_filler {
      type: "constant"
      value: 0
    }
  }
}
layer {
  name: "conv6/relu"
  type: "ReLU"
  bottom: "conv6"
  top: "conv6"
}
layer {
  name: "conv7/dw"
  type: "Convolution"
  bottom: "conv6"
  top: "conv7/dw"
  param {
    lr_mult: 1
    decay_mult: 1
  }
  param {
    lr_mult: 2
    decay_mult: 0
  }
  convolution_param {
    num_output: 512
    pad: 1
    kernel_size: 3
    group: 512
    weight_filler {
      type: "msra"
    }
    bias_filler {
      type: "constant"
      value: 0
    }
    engine: CAFFE
  }
}
layer {
  name: "conv7/dw/relu"
  type: "ReLU"
  bottom: "conv7/dw"
  top: "conv7/dw"
}
layer {
  name: "conv7"
  type: "Convolution"
  bottom: "conv7/dw"
  top: "conv7"
  param {
    lr_mult: 1
    decay_mult: 1
  }
  param {
    lr_mult: 2
    decay_mult: 0
  }
  convolution_param {
    num_output: 512
    kernel_size: 1
    weight_filler {
      type: "msra"
    }
    bias_filler {
      type: "constant"
      value: 0
    }
  }
}
layer {
  name: "conv7/relu"
  type: "ReLU"
  bottom: "conv7"
  top: "conv7"
}
layer {
  name: "conv8/dw"
  type: "Convolution"
  bottom: "conv7"
  top: "conv8/dw"
  param {
    lr_mult: 1
    decay_mult: 1
  }
  param {
    lr_mult: 2
    decay_mult: 0
  }
  convolution_param {
    num_output: 512
    pad: 1
    kernel_size: 3
    group: 512
    weight_filler {
      type: "msra"
    }
    bias_filler {
      type: "constant"
      value: 0
    }
    engine: CAFFE
  }
}
layer {
  name: "conv8/dw/relu"
  type: "ReLU"
  bottom: "conv8/dw"
  top: "conv8/dw"
}
layer {
  name: "conv8"
  type: "Convolution"
  bottom: "conv8/dw"
  top: "conv8"
  param {
    lr_mult: 1
    decay_mult: 1
  }
  param {
    lr_mult: 2
    decay_mult: 0
  }
  convolution_param {
    num_output: 512
    kernel_size: 1
    weight_filler {
      type: "msra"
    }
    bias_filler {
      type: "constant"
      value: 0
    }
  }
}
layer {
  name: "conv8/relu"
  type: "ReLU"
  bottom: "conv8"
  top: "conv8"
}
layer {
  name: "conv9/dw"
  type: "Convolution"
  bottom: "conv8"
  top: "conv9/dw"
  param {
    lr_mult: 1
    decay_mult: 1
  }
  param {
    lr_mult: 2
    decay_mult: 0
  }
  convolution_param {
    num_output: 512
    pad: 1
    kernel_size: 3
    group: 512
    weight_filler {
      type: "msra"
    }
    bias_filler {
      type: "constant"
      value: 0
    }
    engine: CAFFE
  }
}
layer {
  name: "conv9/dw/relu"
  type: "ReLU"
  bottom: "conv9/dw"
  top: "conv9/dw"
}
layer {
  name: "conv9"
  type: "Convolution"
  bottom: "conv9/dw"
  top: "conv9"
  param {
    lr_mult: 1
    decay_mult: 1
  }
  param {
    lr_mult: 2
    decay_mult: 0
  }
  convolution_param {
    num_output: 512
    kernel_size: 1
    weight_filler {
      type: "msra"
    }
    bias_filler {
      type: "constant"
      value: 0
    }
  }
}
layer {
  name: "conv9/relu"
  type: "ReLU"
  bottom: "conv9"
  top: "conv9"
}
layer {
  name: "conv10/dw"
  type: "Convolution"
  bottom: "conv9"
  top: "conv10/dw"
  param {
    lr_mult: 1
    decay_mult: 1
  }
  param {
    lr_mult: 2
    decay_mult: 0
  }
  convolution_param {
    num_output: 512
    pad: 1
    kernel_size: 3
    group: 512
    weight_filler {
      type: "msra"
    }
    bias_filler {
      type: "constant"
      value: 0
    }
    engine: CAFFE
  }
}
layer {
  name: "conv10/dw/relu"
  type: "ReLU"
  bottom: "conv10/dw"
  top: "conv10/dw"
}
layer {
  name: "conv10"
  type: "Convolution"
  bottom: "conv10/dw"
  top: "conv10"
  param {
    lr_mult: 1
    decay_mult: 1
  }
  param {
    lr_mult: 2
    decay_mult: 0
  }
  convolution_param {
    num_output: 512
    kernel_size: 1
    weight_filler {
      type: "msra"
    }
    bias_filler {
      type: "constant"
      value: 0
    }
  }
}
layer {
  name: "conv10/relu"
  type: "ReLU"
  bottom: "conv10"
  top: "conv10"
}
layer {
  name: "conv11/dw"
  type: "Convolution"
  bottom: "conv10"
  top: "conv11/dw"
  param {
    lr_mult: 1
    decay_mult: 1
  }
  param {
    lr_mult: 2
    decay_mult: 0
  }
  convolution_param {
    num_output: 512
    pad: 1
    kernel_size: 3
    group: 512
    weight_filler {
      type: "msra"
    }
    bias_filler {
      type: "constant"
      value: 0
    }
    engine: CAFFE
  }
}
layer {
  name: "conv11/dw/relu"
  type: "ReLU"
  bottom: "conv11/dw"
  top: "conv11/dw"
}
layer {
  name: "conv11"
  type: "Convolution"
  bottom: "conv11/dw"
  top: "conv11"
  param {
    lr_mult: 1
    decay_mult: 1
  }
  param {
    lr_mult: 2
    decay_mult: 0
  }
  convolution_param {
    num_output: 512
    kernel_size: 1
    weight_filler {
      type: "msra"
    }
    bias_filler {
      type: "constant"
      value: 0
    }
  }
}
layer {
  name: "conv11/relu"
  type: "ReLU"
  bottom: "conv11"
  top: "conv11"
}
layer {
  name: "conv12/dw"
  type: "Convolution"
  bottom: "conv11"
  top: "conv12/dw"
  param {
    lr_mult: 1
    decay_mult: 1
  }
  param {
    lr_mult: 2
    decay_mult: 0
  }
  convolution_param {
    num_output: 512
    pad: 1
    kernel_size: 3
    group: 512
    stride: 2
    weight_filler {
      type: "msra"
    }
    bias_filler {
      type: "constant"
      value: 0
    }
    engine: CAFFE
  }
}
layer {
  name: "conv12/dw/relu"
  type: "ReLU"
  bottom: "conv12/dw"
  top: "conv12/dw"
}
layer {
  name: "conv12"
  type: "Convolution"
  bottom: "conv12/dw"
  top: "conv12"
  param {
    lr_mult: 1
    decay_mult: 1
  }
  param {
    lr_mult: 2
    decay_mult: 0
  }
  convolution_param {
    num_output: 1024
    kernel_size: 1
    weight_filler {
      type: "msra"
    }
    bias_filler {
      type: "constant"
      value: 0
    }
  }
}
layer {
  name: "conv12/relu"
  type: "ReLU"
  bottom: "conv12"
  top: "conv12"
}
layer {
  name: "conv13/dw"
  type: "Convolution"
  bottom: "conv12"
  top: "conv13/dw"
  param {
    lr_mult: 1
    decay_mult: 1
  }
  param {
    lr_mult: 2
    decay_mult: 0
  }
  convolution_param {
    num_output: 1024
    pad: 1
    kernel_size: 3
    group: 1024
    weight_filler {
      type: "msra"
    }
    bias_filler {
      type: "constant"
      value: 0
    }
    engine: CAFFE
  }
}
layer {
  name: "conv13/dw/relu"
  type: "ReLU"
  bottom: "conv13/dw"
  top: "conv13/dw"
}
layer {
  name: "conv13"
  type: "Convolution"
  bottom: "conv13/dw"
  top: "conv13"
  param {
    lr_mult: 1
    decay_mult: 1
  }
  param {
    lr_mult: 2
    decay_mult: 0
  }
  convolution_param {
    num_output: 1024
    kernel_size: 1
    weight_filler {
      type: "msra"
    }
    bias_filler {
      type: "constant"
      value: 0
    }
  }
}
layer {
  name: "conv13/relu"
  type: "ReLU"
  bottom: "conv13"
  top: "conv13"
}
layer {
  name: "conv14_1"
  type: "Convolution"
  bottom: "conv13"
  top: "conv14_1"
  param {
    lr_mult: 1
    decay_mult: 1
  }
  param {
    lr_mult: 2
    decay_mult: 0
  }
  convolution_param {
    num_output: 256
    kernel_size: 1
    weight_filler {
      type: "msra"
    }
    bias_filler {
      type: "constant"
      value: 0
    }
  }
}
layer {
  name: "conv14_1/relu"
  type: "ReLU"
  bottom: "conv14_1"
  top: "conv14_1"
}
layer {
  name: "conv14_2"
  type: "Convolution"
  bottom: "conv14_1"
  top: "conv14_2"
  param {
    lr_mult: 1
    decay_mult: 1
  }
  param {
    lr_mult: 2
    decay_mult: 0
  }
  convolution_param {
    num_output: 512
    pad: 1
    kernel_size: 3
    stride: 2
    weight_filler {
      type: "msra"
    }
    bias_filler {
      type: "constant"
      value: 0
    }
  }
}
layer {
  name: "conv14_2/relu"
  type: "ReLU"
  bottom: "conv14_2"
  top: "conv14_2"
}
layer {
  name: "conv15_1"
  type: "Convolution"
  bottom: "conv14_2"
  top: "conv15_1"
  param {
    lr_mult: 1
    decay_mult: 1
  }
  param {
    lr_mult: 2
    decay_mult: 0
  }
  convolution_param {
    num_output: 128
    kernel_size: 1
    weight_filler {
      type: "msra"
    }
    bias_filler {
      type: "constant"
      value: 0
    }
  }
}
layer {
  name: "conv15_1/relu"
  type: "ReLU"
  bottom: "conv15_1"
  top: "conv15_1"
}
layer {
  name: "conv15_2"
  type: "Convolution"
  bottom: "conv15_1"
  top: "conv15_2"
  param {
    lr_mult: 1
    decay_mult: 1
  }
  param {
    lr_mult: 2
    decay_mult: 0
  }
  convolution_param {
    num_output: 256
    pad: 1
    kernel_size: 3
    stride: 2
    weight_filler {
      type: "msra"
    }
    bias_filler {
      type: "constant"
      value: 0
    }
  }
}
layer {
  name: "conv15_2/relu"
  type: "ReLU"
  bottom: "conv15_2"
  top: "conv15_2"
}
layer {
  name: "conv16_1"
  type: "Convolution"
  bottom: "conv15_2"
  top: "conv16_1"
  param {
    lr_mult: 1
    decay_mult: 1
  }
  param {
    lr_mult: 2
    decay_mult: 0
  }
  convolution_param {
    num_output: 128
    kernel_size: 1
    weight_filler {
      type: "msra"
    }
    bias_filler {
      type: "constant"
      value: 0
    }
  }
}
layer {
  name: "conv16_1/relu"
  type: "ReLU"
  bottom: "conv16_1"
  top: "conv16_1"
}
layer {
  name: "conv16_2"
  type: "Convolution"
  bottom: "conv16_1"
  top: "conv16_2"
  param {
    lr_mult: 1
    decay_mult: 1
  }
  param {
    lr_mult: 2
    decay_mult: 0
  }
  convolution_param {
    num_output: 256
    pad: 1
    kernel_size: 3
    stride: 2
    weight_filler {
      type: "msra"
    }
    bias_filler {
      type: "constant"
      value: 0
    }
  }
}
layer {
  name: "conv16_2/relu"
  type: "ReLU"
  bottom: "conv16_2"
  top: "conv16_2"
}
layer {
  name: "conv17_1"
  type: "Convolution"
  bottom: "conv16_2"
  top: "conv17_1"
  param {
    lr_mult: 1
    decay_mult: 1
  }
  param {
    lr_mult: 2
    decay_mult: 0
  }
  convolution_param {
    num_output: 64
    kernel_size: 1
    weight_filler {
      type: "msra"
    }
    bias_filler {
      type: "constant"
      value: 0
    }
  }
}
layer {
  name: "conv17_1/relu"
  type: "ReLU"
  bottom: "conv17_1"
  top: "conv17_1"
}
layer {
  name: "conv17_2"
  type: "Convolution"
  bottom: "conv17_1"
  top: "conv17_2"
  param {
    lr_mult: 1
    decay_mult: 1
  }
  param {
    lr_mult: 2
    decay_mult: 0
  }
  convolution_param {
    num_output: 128
    pad: 1
    kernel_size: 3
    stride: 2
    weight_filler {
      type: "msra"
    }
    bias_filler {
      type: "constant"
      value: 0
    }
  }
}
layer {
  name: "conv17_2/relu"
  type: "ReLU"
  bottom: "conv17_2"
  top: "conv17_2"
}
layer {
  name: "conv11_mbox_loc"
  type: "Convolution"
  bottom: "conv11"
  top: "conv11_mbox_loc"
  param {
    lr_mult: 1
    decay_mult: 1
  }
  param {
    lr_mult: 2
    decay_mult: 0
  }
  convolution_param {
    num_output: 12
    kernel_size: 1
    weight_filler {
      type: "msra"
    }
    bias_filler {
      type: "constant"
      value: 0
    }
  }
}
layer {
  name: "conv11_mbox_loc_perm"
  type: "Permute"
  bottom: "conv11_mbox_loc"
  top: "conv11_mbox_loc_perm"
  permute_param {
    order: 0
    order: 2
    order: 3
    order: 1
  }
}
layer {
  name: "conv11_mbox_loc_flat"
  type: "Flatten"
  bottom: "conv11_mbox_loc_perm"
  top: "conv11_mbox_loc_flat"
  flatten_param {
    axis: 1
  }
}
layer {
  name: "conv11_mbox_conf_new"
  type: "Convolution"
  bottom: "conv11"
  top: "conv11_mbox_conf"
  param {
    lr_mult: 1
    decay_mult: 1
  }
  param {
    lr_mult: 2
    decay_mult: 0
  }
  convolution_param {
    num_output: 63
    kernel_size: 1
    weight_filler {
      type: "msra"
    }
    bias_filler {
      type: "constant"
      value: 0
    }
  }
}
layer {
  name: "conv11_mbox_conf_perm"
  type: "Permute"
  bottom: "conv11_mbox_conf"
  top: "conv11_mbox_conf_perm"
  permute_param {
    order: 0
    order: 2
    order: 3
    order: 1
  }
}
layer {
  name: "conv11_mbox_conf_flat"
  type: "Flatten"
  bottom: "conv11_mbox_conf_perm"
  top: "conv11_mbox_conf_flat"
  flatten_param {
    axis: 1
  }
}
layer {
  name: "conv11_mbox_priorbox"
  type: "PriorBox"
  bottom: "conv11"
  bottom: "data"
  top: "conv11_mbox_priorbox"
  prior_box_param {
    min_size: 60
    aspect_ratio: 2
    flip: true
    clip: false
    variance: 0.1
    variance: 0.1
    variance: 0.2
    variance: 0.2
    offset: 0.5
  }
}
layer {
  name: "conv13_mbox_loc"
  type: "Convolution"
  bottom: "conv13"
  top: "conv13_mbox_loc"
  param {
    lr_mult: 1
    decay_mult: 1
  }
  param {
    lr_mult: 2
    decay_mult: 0
  }
  convolution_param {
    num_output: 24
    kernel_size: 1
    weight_filler {
      type: "msra"
    }
    bias_filler {
      type: "constant"
      value: 0
    }
  }
}
layer {
  name: "conv13_mbox_loc_perm"
  type: "Permute"
  bottom: "conv13_mbox_loc"
  top: "conv13_mbox_loc_perm"
  permute_param {
    order: 0
    order: 2
    order: 3
    order: 1
  }
}
layer {
  name: "conv13_mbox_loc_flat"
  type: "Flatten"
  bottom: "conv13_mbox_loc_perm"
  top: "conv13_mbox_loc_flat"
  flatten_param {
    axis: 1
  }
}
layer {
  name: "conv13_mbox_conf_new"
  type: "Convolution"
  bottom: "conv13"
  top: "conv13_mbox_conf"
  param {
    lr_mult: 1
    decay_mult: 1
  }
  param {
    lr_mult: 2
    decay_mult: 0
  }
  convolution_param {
    num_output: 126
    kernel_size: 1
    weight_filler {
      type: "msra"
    }
    bias_filler {
      type: "constant"
      value: 0
    }
  }
}
layer {
  name: "conv13_mbox_conf_perm"
  type: "Permute"
  bottom: "conv13_mbox_conf"
  top: "conv13_mbox_conf_perm"
  permute_param {
    order: 0
    order: 2
    order: 3
    order: 1
  }
}
layer {
  name: "conv13_mbox_conf_flat"
  type: "Flatten"
  bottom: "conv13_mbox_conf_perm"
  top: "conv13_mbox_conf_flat"
  flatten_param {
    axis: 1
  }
}
layer {
  name: "conv13_mbox_priorbox"
  type: "PriorBox"
  bottom: "conv13"
  bottom: "data"
  top: "conv13_mbox_priorbox"
  prior_box_param {
    min_size: 105
    max_size: 150
    aspect_ratio: 2
    aspect_ratio: 3
    flip: true
    clip: false
    variance: 0.1
    variance: 0.1
    variance: 0.2
    variance: 0.2
    offset: 0.5
  }
}
layer {
  name: "conv14_2_mbox_loc"
  type: "Convolution"
  bottom: "conv14_2"
  top: "conv14_2_mbox_loc"
  param {
    lr_mult: 1
    decay_mult: 1
  }
  param {
    lr_mult: 2
    decay_mult: 0
  }
  convolution_param {
    num_output: 24
    kernel_size: 1
    weight_filler {
      type: "msra"
    }
    bias_filler {
      type: "constant"
      value: 0
    }
  }
}
layer {
  name: "conv14_2_mbox_loc_perm"
  type: "Permute"
  bottom: "conv14_2_mbox_loc"
  top: "conv14_2_mbox_loc_perm"
  permute_param {
    order: 0
    order: 2
    order: 3
    order: 1
  }
}
layer {
  name: "conv14_2_mbox_loc_flat"
  type: "Flatten"
  bottom: "conv14_2_mbox_loc_perm"
  top: "conv14_2_mbox_loc_flat"
  flatten_param {
    axis: 1
  }
}
layer {
  name: "conv14_2_mbox_conf_new"
  type: "Convolution"
  bottom: "conv14_2"
  top: "conv14_2_mbox_conf"
  param {
    lr_mult: 1
    decay_mult: 1
  }
  param {
    lr_mult: 2
    decay_mult: 0
  }
  convolution_param {
    num_output: 126
    kernel_size: 1
    weight_filler {
      type: "msra"
    }
    bias_filler {
      type: "constant"
      value: 0
    }
  }
}
layer {
  name: "conv14_2_mbox_conf_perm"
  type: "Permute"
  bottom: "conv14_2_mbox_conf"
  top: "conv14_2_mbox_conf_perm"
  permute_param {
    order: 0
    order: 2
    order: 3
    order: 1
  }
}
layer {
  name: "conv14_2_mbox_conf_flat"
  type: "Flatten"
  bottom: "conv14_2_mbox_conf_perm"
  top: "conv14_2_mbox_conf_flat"
  flatten_param {
    axis: 1
  }
}
layer {
  name: "conv14_2_mbox_priorbox"
  type: "PriorBox"
  bottom: "conv14_2"
  bottom: "data"
  top: "conv14_2_mbox_priorbox"
  prior_box_param {
    min_size: 150
    max_size: 195
    aspect_ratio: 2
    aspect_ratio: 3
    flip: true
    clip: false
    variance: 0.1
    variance: 0.1
    variance: 0.2
    variance: 0.2
    offset: 0.5
  }
}
layer {
  name: "conv15_2_mbox_loc"
  type: "Convolution"
  bottom: "conv15_2"
  top: "conv15_2_mbox_loc"
  param {
    lr_mult: 1
    decay_mult: 1
  }
  param {
    lr_mult: 2
    decay_mult: 0
  }
  convolution_param {
    num_output: 24
    kernel_size: 1
    weight_filler {
      type: "msra"
    }
    bias_filler {
      type: "constant"
      value: 0
    }
  }
}
layer {
  name: "conv15_2_mbox_loc_perm"
  type: "Permute"
  bottom: "conv15_2_mbox_loc"
  top: "conv15_2_mbox_loc_perm"
  permute_param {
    order: 0
    order: 2
    order: 3
    order: 1
  }
}
layer {
  name: "conv15_2_mbox_loc_flat"
  type: "Flatten"
  bottom: "conv15_2_mbox_loc_perm"
  top: "conv15_2_mbox_loc_flat"
  flatten_param {
    axis: 1
  }
}
layer {
  name: "conv15_2_mbox_conf_new"
  type: "Convolution"
  bottom: "conv15_2"
  top: "conv15_2_mbox_conf"
  param {
    lr_mult: 1
    decay_mult: 1
  }
  param {
    lr_mult: 2
    decay_mult: 0
  }
  convolution_param {
    num_output: 126
    kernel_size: 1
    weight_filler {
      type: "msra"
    }
    bias_filler {
      type: "constant"
      value: 0
    }
  }
}
layer {
  name: "conv15_2_mbox_conf_perm"
  type: "Permute"
  bottom: "conv15_2_mbox_conf"
  top: "conv15_2_mbox_conf_perm"
  permute_param {
    order: 0
    order: 2
    order: 3
    order: 1
  }
}
layer {
  name: "conv15_2_mbox_conf_flat"
  type: "Flatten"
  bottom: "conv15_2_mbox_conf_perm"
  top: "conv15_2_mbox_conf_flat"
  flatten_param {
    axis: 1
  }
}
layer {
  name: "conv15_2_mbox_priorbox"
  type: "PriorBox"
  bottom: "conv15_2"
  bottom: "data"
  top: "conv15_2_mbox_priorbox"
  prior_box_param {
    min_size: 195
    max_size: 240
    aspect_ratio: 2
    aspect_ratio: 3
    flip: true
    clip: false
    variance: 0.1
    variance: 0.1
    variance: 0.2
    variance: 0.2
    offset: 0.5
  }
}
layer {
  name: "conv16_2_mbox_loc"
  type: "Convolution"
  bottom: "conv16_2"
  top: "conv16_2_mbox_loc"
  param {
    lr_mult: 1
    decay_mult: 1
  }
  param {
    lr_mult: 2
    decay_mult: 0
  }
  convolution_param {
    num_output: 24
    kernel_size: 1
    weight_filler {
      type: "msra"
    }
    bias_filler {
      type: "constant"
      value: 0
    }
  }
}
layer {
  name: "conv16_2_mbox_loc_perm"
  type: "Permute"
  bottom: "conv16_2_mbox_loc"
  top: "conv16_2_mbox_loc_perm"
  permute_param {
    order: 0
    order: 2
    order: 3
    order: 1
  }
}
layer {
  name: "conv16_2_mbox_loc_flat"
  type: "Flatten"
  bottom: "conv16_2_mbox_loc_perm"
  top: "conv16_2_mbox_loc_flat"
  flatten_param {
    axis: 1
  }
}
layer {
  name: "conv16_2_mbox_conf_new"
  type: "Convolution"
  bottom: "conv16_2"
  top: "conv16_2_mbox_conf"
  param {
    lr_mult: 1
    decay_mult: 1
  }
  param {
    lr_mult: 2
    decay_mult: 0
  }
  convolution_param {
    num_output: 126
    kernel_size: 1
    weight_filler {
      type: "msra"
    }
    bias_filler {
      type: "constant"
      value: 0
    }
  }
}
layer {
  name: "conv16_2_mbox_conf_perm"
  type: "Permute"
  bottom: "conv16_2_mbox_conf"
  top: "conv16_2_mbox_conf_perm"
  permute_param {
    order: 0
    order: 2
    order: 3
    order: 1
  }
}
layer {
  name: "conv16_2_mbox_conf_flat"
  type: "Flatten"
  bottom: "conv16_2_mbox_conf_perm"
  top: "conv16_2_mbox_conf_flat"
  flatten_param {
    axis: 1
  }
}
layer {
  name: "conv16_2_mbox_priorbox"
  type: "PriorBox"
  bottom: "conv16_2"
  bottom: "data"
  top: "conv16_2_mbox_priorbox"
  prior_box_param {
    min_size: 240
    max_size: 285
    aspect_ratio: 2
    aspect_ratio: 3
    flip: true
    clip: false
    variance: 0.1
    variance: 0.1
    variance: 0.2
    variance: 0.2
    offset: 0.5
  }
}
layer {
  name: "conv17_2_mbox_loc"
  type: "Convolution"
  bottom: "conv17_2"
  top: "conv17_2_mbox_loc"
  param {
    lr_mult: 1
    decay_mult: 1
  }
  param {
    lr_mult: 2
    decay_mult: 0
  }
  convolution_param {
    num_output: 24
    kernel_size: 1
    weight_filler {
      type: "msra"
    }
    bias_filler {
      type: "constant"
      value: 0
    }
  }
}
layer {
  name: "conv17_2_mbox_loc_perm"
  type: "Permute"
  bottom: "conv17_2_mbox_loc"
  top: "conv17_2_mbox_loc_perm"
  permute_param {
    order: 0
    order: 2
    order: 3
    order: 1
  }
}
layer {
  name: "conv17_2_mbox_loc_flat"
  type: "Flatten"
  bottom: "conv17_2_mbox_loc_perm"
  top: "conv17_2_mbox_loc_flat"
  flatten_param {
    axis: 1
  }
}
layer {
  name: "conv17_2_mbox_conf_new"
  type: "Convolution"
  bottom: "conv17_2"
  top: "conv17_2_mbox_conf"
  param {
    lr_mult: 1
    decay_mult: 1
  }
  param {
    lr_mult: 2
    decay_mult: 0
  }
  convolution_param {
    num_output: 126
    kernel_size: 1
    weight_filler {
      type: "msra"
    }
    bias_filler {
      type: "constant"
      value: 0
    }
  }
}
layer {
  name: "conv17_2_mbox_conf_perm"
  type: "Permute"
  bottom: "conv17_2_mbox_conf"
  top: "conv17_2_mbox_conf_perm"
  permute_param {
    order: 0
    order: 2
    order: 3
    order: 1
  }
}
layer {
  name: "conv17_2_mbox_conf_flat"
  type: "Flatten"
  bottom: "conv17_2_mbox_conf_perm"
  top: "conv17_2_mbox_conf_flat"
  flatten_param {
    axis: 1
  }
}
layer {
  name: "conv17_2_mbox_priorbox"
  type: "PriorBox"
  bottom: "conv17_2"
  bottom: "data"
  top: "conv17_2_mbox_priorbox"
  prior_box_param {
    min_size: 285
    max_size: 300
    aspect_ratio: 2
    aspect_ratio: 3
    flip: true
    clip: false
    variance: 0.1
    variance: 0.1
    variance: 0.2
    variance: 0.2
    offset: 0.5
  }
}
layer {
  name: "mbox_loc"
  type: "Concat"
  bottom: "conv11_mbox_loc_flat"
  bottom: "conv13_mbox_loc_flat"
  bottom: "conv14_2_mbox_loc_flat"
  bottom: "conv15_2_mbox_loc_flat"
  bottom: "conv16_2_mbox_loc_flat"
  bottom: "conv17_2_mbox_loc_flat"
  top: "mbox_loc"
  concat_param {
    axis: 1
  }
}
layer {
  name: "mbox_conf"
  type: "Concat"
  bottom: "conv11_mbox_conf_flat"
  bottom: "conv13_mbox_conf_flat"
  bottom: "conv14_2_mbox_conf_flat"
  bottom: "conv15_2_mbox_conf_flat"
  bottom: "conv16_2_mbox_conf_flat"
  bottom: "conv17_2_mbox_conf_flat"
  top: "mbox_conf"
  concat_param {
    axis: 1
  }
}
layer {
  name: "mbox_priorbox"
  type: "Concat"
  bottom: "conv11_mbox_priorbox"
  bottom: "conv13_mbox_priorbox"
  bottom: "conv14_2_mbox_priorbox"
  bottom: "conv15_2_mbox_priorbox"
  bottom: "conv16_2_mbox_priorbox"
  bottom: "conv17_2_mbox_priorbox"
  top: "mbox_priorbox"
  concat_param {
    axis: 2
  }
}
layer {
  name: "mbox_conf_reshape"
  type: "Reshape"
  bottom: "mbox_conf"
  top: "mbox_conf_reshape"
  reshape_param {
    shape {
      dim: 0
      dim: -1
      dim: 21
    }
  }
}
layer {
  name: "mbox_conf_softmax"
  type: "Softmax"
  bottom: "mbox_conf_reshape"
  top: "mbox_conf_softmax"
  softmax_param {
    axis: 2
  }
}
layer {
  name: "mbox_conf_flatten"
  type: "Flatten"
  bottom: "mbox_conf_softmax"
  top: "mbox_conf_flatten"
  flatten_param {
    axis: 1
  }
}
layer {
  name: "detection_out"
  type: "DetectionOutput"
  bottom: "mbox_loc"
  bottom: "mbox_conf_flatten"
  bottom: "mbox_priorbox"
  top: "detection_out"
  include {
    phase: TEST
  }
  detection_output_param {
    num_classes: 21
    share_location: true
    background_label_id: 0
    nms_param {
      nms_threshold: 0.45
      top_k: 100
    }
    code_type: CENTER_SIZE
    keep_top_k: 100
    confidence_threshold: 0.25
  }
}
I1102 21:23:29.949101 13472 detection_output_layer.cpp:282] Couldn't find any detections
I1102 21:23:43.582379 13472 detection_output_layer.cpp:282] Couldn't find any detections
I1102 21:23:44.945363 13472 detection_output_layer.cpp:282] Couldn't find any detections
I1102 21:23:45.607066 13472 detection_output_layer.cpp:282] Couldn't find any detections
I1102 21:24:02.930343 13472 detection_output_layer.cpp:282] Couldn't find any detections
I1102 21:24:50.716931 13472 detection_output_layer.cpp:282] Couldn't find any detections
I1102 21:25:12.518967 13472 detection_output_layer.cpp:282] Couldn't find any detections
I1102 21:25:33.077287 13472 detection_output_layer.cpp:282] Couldn't find any detections
I1102 21:25:33.750267 13472 detection_output_layer.cpp:282] Couldn't find any detections
I1102 21:25:55.544193 13472 detection_output_layer.cpp:282] Couldn't find any detections
I1102 21:26:00.406903 13472 detection_output_layer.cpp:282] Couldn't find any detections
I1102 21:26:16.357962 13472 detection_output_layer.cpp:282] Couldn't find any detections
I1102 21:26:24.259274 13472 detection_output_layer.cpp:282] Couldn't find any detections
I1102 21:26:33.755758 13472 detection_output_layer.cpp:282] Couldn't find any detections
I1102 21:27:08.389143 13472 detection_output_layer.cpp:282] Couldn't find any detections
I1102 21:27:18.078727 13472 detection_output_layer.cpp:282] Couldn't find any detections
I1102 21:27:20.550995 13472 detection_output_layer.cpp:282] Couldn't find any detections
I1102 21:27:21.701328 13472 detection_output_layer.cpp:282] Couldn't find any detections
I1102 21:27:22.513490 13472 detection_output_layer.cpp:282] Couldn't find any detections
I1102 21:27:41.117698 13472 detection_output_layer.cpp:282] Couldn't find any detections
I1102 21:27:46.531198 13472 detection_output_layer.cpp:282] Couldn't find any detections
I1102 21:27:48.396533 13472 detection_output_layer.cpp:282] Couldn't find any detections
I1102 21:28:09.589455 13472 detection_output_layer.cpp:282] Couldn't find any detections
I1102 21:28:12.830013 13472 detection_output_layer.cpp:282] Couldn't find any detections
I1102 21:28:22.534229 13472 detection_output_layer.cpp:282] Couldn't find any detections
I1102 21:28:22.701565 13472 detection_output_layer.cpp:282] Couldn't find any detections
I1102 21:28:32.236974 13472 detection_output_layer.cpp:282] Couldn't find any detections
I1102 21:28:37.529182 13472 detection_output_layer.cpp:282] Couldn't find any detections
I1102 21:28:45.450206 13472 detection_output_layer.cpp:282] Couldn't find any detections
I1102 21:28:45.921875 13472 detection_output_layer.cpp:282] Couldn't find any detections
I1102 21:28:57.458186 13472 detection_output_layer.cpp:282] Couldn't find any detections
I1102 21:29:17.227907 13472 detection_output_layer.cpp:282] Couldn't find any detections
I1102 21:29:19.029659 13472 detection_output_layer.cpp:282] Couldn't find any detections
I1102 21:29:30.143833 13472 detection_output_layer.cpp:282] Couldn't find any detections
I1102 21:29:33.120113 13472 detection_output_layer.cpp:282] Couldn't find any detections
I1102 21:29:35.129138 13472 detection_output_layer.cpp:282] Couldn't find any detections
I1102 21:29:39.789839 13472 detection_output_layer.cpp:282] Couldn't find any detections
I1102 21:29:55.351929 13472 detection_output_layer.cpp:282] Couldn't find any detections
I1102 21:30:00.814149 13472 detection_output_layer.cpp:282] Couldn't find any detections
I1102 21:30:30.378305 13472 detection_output_layer.cpp:282] Couldn't find any detections
I1102 21:30:40.939683 13472 detection_output_layer.cpp:282] Couldn't find any detections
I1102 21:30:43.335561 13472 detection_output_layer.cpp:282] Couldn't find any detections
I1102 21:30:48.619582 13472 detection_output_layer.cpp:282] Couldn't find any detections
I1102 21:30:50.072504 13472 detection_output_layer.cpp:282] Couldn't find any detections
I1102 21:30:54.443979 13472 detection_output_layer.cpp:282] Couldn't find any detections
I1102 21:31:08.893934 13472 detection_output_layer.cpp:282] Couldn't find any detections
I1102 21:31:28.813242 13472 detection_output_layer.cpp:282] Couldn't find any detections
I1102 21:31:33.662466 13472 detection_output_layer.cpp:282] Couldn't find any detections
I1102 21:31:37.965090 13472 detection_output_layer.cpp:282] Couldn't find any detections
I1102 21:31:38.594780 13472 detection_output_layer.cpp:282] Couldn't find any detections
I1102 21:31:45.809622 13472 detection_output_layer.cpp:282] Couldn't find any detections
I1102 21:31:56.244539 13472 detection_output_layer.cpp:282] Couldn't find any detections
I1102 21:32:07.255767 13472 detection_output_layer.cpp:282] Couldn't find any detections
I1102 21:32:16.714699 13472 detection_output_layer.cpp:282] Couldn't find any detections
I1102 21:32:41.035321 13472 detection_output_layer.cpp:282] Couldn't find any detections
I1102 21:32:51.282279 13472 detection_output_layer.cpp:282] Couldn't find any detections
I1102 21:33:04.246697 13472 detection_output_layer.cpp:282] Couldn't find any detections
I1102 21:33:42.806787 13472 detection_output_layer.cpp:282] Couldn't find any detections
I1102 21:33:44.567963 13472 detection_output_layer.cpp:282] Couldn't find any detections
I1102 21:34:10.028100 13472 detection_output_layer.cpp:282] Couldn't find any detections
I1102 21:34:23.285883 13472 detection_output_layer.cpp:282] Couldn't find any detections
I1102 21:34:33.403964 13472 detection_output_layer.cpp:282] Couldn't find any detections
I1102 21:35:22.527333 13472 detection_output_layer.cpp:282] Couldn't find any detections
I1102 21:35:46.449218 13472 detection_output_layer.cpp:282] Couldn't find any detections
I1102 21:35:50.987669 13472 detection_output_layer.cpp:282] Couldn't find any detections
I1102 21:35:54.647558 13472 detection_output_layer.cpp:282] Couldn't find any detections
I1102 21:36:31.474298 13472 detection_output_layer.cpp:282] Couldn't find any detections
I1102 21:36:45.255349 13472 detection_output_layer.cpp:282] Couldn't find any detections
I1102 21:36:55.547269 13472 detection_output_layer.cpp:282] Couldn't find any detections
