…
I1103 00:03:28.263509 14809 upgrade_proto.cpp:67] Attempting to upgrade input file specified using deprecated input fields: examples/MobileNet-SSD/model_1000/MobileNetSSD_1000_deploy.prototxt
I1103 00:03:28.263546 14809 upgrade_proto.cpp:70] Successfully upgraded file specified using deprecated input fields.
W1103 00:03:28.263550 14809 upgrade_proto.cpp:72] Note that future Caffe releases will only support input layers and not input fields.
I1103 00:03:28.264339 14809 net.cpp:58] Initializing net from parameters: 
name: "MobileNet-SSD"
state {
  phase: TEST
  level: 0
}
layer {
  name: "input"
  type: "Input"
  top: "data"
  input_param {
    shape {
      dim: 1
      dim: 3
      dim: 300
      dim: 300
    }
  }
}
layer {
  name: "conv0"
  type: "Convolution"
  bottom: "data"
  top: "conv0"
  param {
    lr_mult: 1
    decay_mult: 1
  }
  param {
    lr_mult: 2
    decay_mult: 0
  }
  convolution_param {
    num_output: 32
    pad: 1
    kernel_size: 3
    stride: 2
    weight_filler {
      type: "msra"
    }
    bias_filler {
      type: "constant"
      value: 0
    }
  }
}
layer {
  name: "conv0/relu"
  type: "ReLU"
  bottom: "conv0"
  top: "conv0"
}
layer {
  name: "conv1/dw"
  type: "Convolution"
  bottom: "conv0"
  top: "conv1/dw"
  param {
    lr_mult: 1
    decay_mult: 1
  }
  param {
    lr_mult: 2
    decay_mult: 0
  }
  convolution_param {
    num_output: 32
    pad: 1
    kernel_size: 3
    group: 32
    weight_filler {
      type: "msra"
    }
    bias_filler {
      type: "constant"
      value: 0
    }
    engine: CAFFE
  }
}
layer {
  name: "conv1/dw/relu"
  type: "ReLU"
  bottom: "conv1/dw"
  top: "conv1/dw"
}
layer {
  name: "conv1"
  type: "Convolution"
  bottom: "conv1/dw"
  top: "conv1"
  param {
    lr_mult: 1
    decay_mult: 1
  }
  param {
    lr_mult: 2
    decay_mult: 0
  }
  convolution_param {
    num_output: 64
    kernel_size: 1
    weight_filler {
      type: "msra"
    }
    bias_filler {
      type: "constant"
      value: 0
    }
  }
}
layer {
  name: "conv1/relu"
  type: "ReLU"
  bottom: "conv1"
  top: "conv1"
}
layer {
  name: "conv2/dw"
  type: "Convolution"
  bottom: "conv1"
  top: "conv2/dw"
  param {
    lr_mult: 1
    decay_mult: 1
  }
  param {
    lr_mult: 2
    decay_mult: 0
  }
  convolution_param {
    num_output: 64
    pad: 1
    kernel_size: 3
    group: 64
    stride: 2
    weight_filler {
      type: "msra"
    }
    bias_filler {
      type: "constant"
      value: 0
    }
    engine: CAFFE
  }
}
layer {
  name: "conv2/dw/relu"
  type: "ReLU"
  bottom: "conv2/dw"
  top: "conv2/dw"
}
layer {
  name: "conv2"
  type: "Convolution"
  bottom: "conv2/dw"
  top: "conv2"
  param {
    lr_mult: 1
    decay_mult: 1
  }
  param {
    lr_mult: 2
    decay_mult: 0
  }
  convolution_param {
    num_output: 128
    kernel_size: 1
    weight_filler {
      type: "msra"
    }
    bias_filler {
      type: "constant"
      value: 0
    }
  }
}
layer {
  name: "conv2/relu"
  type: "ReLU"
  bottom: "conv2"
  top: "conv2"
}
layer {
  name: "conv3/dw"
  type: "Convolution"
  bottom: "conv2"
  top: "conv3/dw"
  param {
    lr_mult: 1
    decay_mult: 1
  }
  param {
    lr_mult: 2
    decay_mult: 0
  }
  convolution_param {
    num_output: 128
    pad: 1
    kernel_size: 3
    group: 128
    weight_filler {
      type: "msra"
    }
    bias_filler {
      type: "constant"
      value: 0
    }
    engine: CAFFE
  }
}
layer {
  name: "conv3/dw/relu"
  type: "ReLU"
  bottom: "conv3/dw"
  top: "conv3/dw"
}
layer {
  name: "conv3"
  type: "Convolution"
  bottom: "conv3/dw"
  top: "conv3"
  param {
    lr_mult: 1
    decay_mult: 1
  }
  param {
    lr_mult: 2
    decay_mult: 0
  }
  convolution_param {
    num_output: 128
    kernel_size: 1
    weight_filler {
      type: "msra"
    }
    bias_filler {
      type: "constant"
      value: 0
    }
  }
}
layer {
  name: "conv3/relu"
  type: "ReLU"
  bottom: "conv3"
  top: "conv3"
}
layer {
  name: "conv4/dw"
  type: "Convolution"
  bottom: "conv3"
  top: "conv4/dw"
  param {
    lr_mult: 1
    decay_mult: 1
  }
  param {
    lr_mult: 2
    decay_mult: 0
  }
  convolution_param {
    num_output: 128
    pad: 1
    kernel_size: 3
    group: 128
    stride: 2
    weight_filler {
      type: "msra"
    }
    bias_filler {
      type: "constant"
      value: 0
    }
    engine: CAFFE
  }
}
layer {
  name: "conv4/dw/relu"
  type: "ReLU"
  bottom: "conv4/dw"
  top: "conv4/dw"
}
layer {
  name: "conv4"
  type: "Convolution"
  bottom: "conv4/dw"
  top: "conv4"
  param {
    lr_mult: 1
    decay_mult: 1
  }
  param {
    lr_mult: 2
    decay_mult: 0
  }
  convolution_param {
    num_output: 256
    kernel_size: 1
    weight_filler {
      type: "msra"
    }
    bias_filler {
      type: "constant"
      value: 0
    }
  }
}
layer {
  name: "conv4/relu"
  type: "ReLU"
  bottom: "conv4"
  top: "conv4"
}
layer {
  name: "conv5/dw"
  type: "Convolution"
  bottom: "conv4"
  top: "conv5/dw"
  param {
    lr_mult: 1
    decay_mult: 1
  }
  param {
    lr_mult: 2
    decay_mult: 0
  }
  convolution_param {
    num_output: 256
    pad: 1
    kernel_size: 3
    group: 256
    weight_filler {
      type: "msra"
    }
    bias_filler {
      type: "constant"
      value: 0
    }
    engine: CAFFE
  }
}
layer {
  name: "conv5/dw/relu"
  type: "ReLU"
  bottom: "conv5/dw"
  top: "conv5/dw"
}
layer {
  name: "conv5"
  type: "Convolution"
  bottom: "conv5/dw"
  top: "conv5"
  param {
    lr_mult: 1
    decay_mult: 1
  }
  param {
    lr_mult: 2
    decay_mult: 0
  }
  convolution_param {
    num_output: 256
    kernel_size: 1
    weight_filler {
      type: "msra"
    }
    bias_filler {
      type: "constant"
      value: 0
    }
  }
}
layer {
  name: "conv5/relu"
  type: "ReLU"
  bottom: "conv5"
  top: "conv5"
}
layer {
  name: "conv6/dw"
  type: "Convolution"
  bottom: "conv5"
  top: "conv6/dw"
  param {
    lr_mult: 1
    decay_mult: 1
  }
  param {
    lr_mult: 2
    decay_mult: 0
  }
  convolution_param {
    num_output: 256
    pad: 1
    kernel_size: 3
    group: 256
    stride: 2
    weight_filler {
      type: "msra"
    }
    bias_filler {
      type: "constant"
      value: 0
    }
    engine: CAFFE
  }
}
layer {
  name: "conv6/dw/relu"
  type: "ReLU"
  bottom: "conv6/dw"
  top: "conv6/dw"
}
layer {
  name: "conv6"
  type: "Convolution"
  bottom: "conv6/dw"
  top: "conv6"
  param {
    lr_mult: 1
    decay_mult: 1
  }
  param {
    lr_mult: 2
    decay_mult: 0
  }
  convolution_param {
    num_output: 512
    kernel_size: 1
    weight_filler {
      type: "msra"
    }
    bias_filler {
      type: "constant"
      value: 0
    }
  }
}
layer {
  name: "conv6/relu"
  type: "ReLU"
  bottom: "conv6"
  top: "conv6"
}
layer {
  name: "conv7/dw"
  type: "Convolution"
  bottom: "conv6"
  top: "conv7/dw"
  param {
    lr_mult: 1
    decay_mult: 1
  }
  param {
    lr_mult: 2
    decay_mult: 0
  }
  convolution_param {
    num_output: 512
    pad: 1
    kernel_size: 3
    group: 512
    weight_filler {
      type: "msra"
    }
    bias_filler {
      type: "constant"
      value: 0
    }
    engine: CAFFE
  }
}
layer {
  name: "conv7/dw/relu"
  type: "ReLU"
  bottom: "conv7/dw"
  top: "conv7/dw"
}
layer {
  name: "conv7"
  type: "Convolution"
  bottom: "conv7/dw"
  top: "conv7"
  param {
    lr_mult: 1
    decay_mult: 1
  }
  param {
    lr_mult: 2
    decay_mult: 0
  }
  convolution_param {
    num_output: 512
    kernel_size: 1
    weight_filler {
      type: "msra"
    }
    bias_filler {
      type: "constant"
      value: 0
    }
  }
}
layer {
  name: "conv7/relu"
  type: "ReLU"
  bottom: "conv7"
  top: "conv7"
}
layer {
  name: "conv8/dw"
  type: "Convolution"
  bottom: "conv7"
  top: "conv8/dw"
  param {
    lr_mult: 1
    decay_mult: 1
  }
  param {
    lr_mult: 2
    decay_mult: 0
  }
  convolution_param {
    num_output: 512
    pad: 1
    kernel_size: 3
    group: 512
    weight_filler {
      type: "msra"
    }
    bias_filler {
      type: "constant"
      value: 0
    }
    engine: CAFFE
  }
}
layer {
  name: "conv8/dw/relu"
  type: "ReLU"
  bottom: "conv8/dw"
  top: "conv8/dw"
}
layer {
  name: "conv8"
  type: "Convolution"
  bottom: "conv8/dw"
  top: "conv8"
  param {
    lr_mult: 1
    decay_mult: 1
  }
  param {
    lr_mult: 2
    decay_mult: 0
  }
  convolution_param {
    num_output: 512
    kernel_size: 1
    weight_filler {
      type: "msra"
    }
    bias_filler {
      type: "constant"
      value: 0
    }
  }
}
layer {
  name: "conv8/relu"
  type: "ReLU"
  bottom: "conv8"
  top: "conv8"
}
layer {
  name: "conv9/dw"
  type: "Convolution"
  bottom: "conv8"
  top: "conv9/dw"
  param {
    lr_mult: 1
    decay_mult: 1
  }
  param {
    lr_mult: 2
    decay_mult: 0
  }
  convolution_param {
    num_output: 512
    pad: 1
    kernel_size: 3
    group: 512
    weight_filler {
      type: "msra"
    }
    bias_filler {
      type: "constant"
      value: 0
    }
    engine: CAFFE
  }
}
layer {
  name: "conv9/dw/relu"
  type: "ReLU"
  bottom: "conv9/dw"
  top: "conv9/dw"
}
layer {
  name: "conv9"
  type: "Convolution"
  bottom: "conv9/dw"
  top: "conv9"
  param {
    lr_mult: 1
    decay_mult: 1
  }
  param {
    lr_mult: 2
    decay_mult: 0
  }
  convolution_param {
    num_output: 512
    kernel_size: 1
    weight_filler {
      type: "msra"
    }
    bias_filler {
      type: "constant"
      value: 0
    }
  }
}
layer {
  name: "conv9/relu"
  type: "ReLU"
  bottom: "conv9"
  top: "conv9"
}
layer {
  name: "conv10/dw"
  type: "Convolution"
  bottom: "conv9"
  top: "conv10/dw"
  param {
    lr_mult: 1
    decay_mult: 1
  }
  param {
    lr_mult: 2
    decay_mult: 0
  }
  convolution_param {
    num_output: 512
    pad: 1
    kernel_size: 3
    group: 512
    weight_filler {
      type: "msra"
    }
    bias_filler {
      type: "constant"
      value: 0
    }
    engine: CAFFE
  }
}
layer {
  name: "conv10/dw/relu"
  type: "ReLU"
  bottom: "conv10/dw"
  top: "conv10/dw"
}
layer {
  name: "conv10"
  type: "Convolution"
  bottom: "conv10/dw"
  top: "conv10"
  param {
    lr_mult: 1
    decay_mult: 1
  }
  param {
    lr_mult: 2
    decay_mult: 0
  }
  convolution_param {
    num_output: 512
    kernel_size: 1
    weight_filler {
      type: "msra"
    }
    bias_filler {
      type: "constant"
      value: 0
    }
  }
}
layer {
  name: "conv10/relu"
  type: "ReLU"
  bottom: "conv10"
  top: "conv10"
}
layer {
  name: "conv11/dw"
  type: "Convolution"
  bottom: "conv10"
  top: "conv11/dw"
  param {
    lr_mult: 1
    decay_mult: 1
  }
  param {
    lr_mult: 2
    decay_mult: 0
  }
  convolution_param {
    num_output: 512
    pad: 1
    kernel_size: 3
    group: 512
    weight_filler {
      type: "msra"
    }
    bias_filler {
      type: "constant"
      value: 0
    }
    engine: CAFFE
  }
}
layer {
  name: "conv11/dw/relu"
  type: "ReLU"
  bottom: "conv11/dw"
  top: "conv11/dw"
}
layer {
  name: "conv11"
  type: "Convolution"
  bottom: "conv11/dw"
  top: "conv11"
  param {
    lr_mult: 1
    decay_mult: 1
  }
  param {
    lr_mult: 2
    decay_mult: 0
  }
  convolution_param {
    num_output: 512
    kernel_size: 1
    weight_filler {
      type: "msra"
    }
    bias_filler {
      type: "constant"
      value: 0
    }
  }
}
layer {
  name: "conv11/relu"
  type: "ReLU"
  bottom: "conv11"
  top: "conv11"
}
layer {
  name: "conv12/dw"
  type: "Convolution"
  bottom: "conv11"
  top: "conv12/dw"
  param {
    lr_mult: 1
    decay_mult: 1
  }
  param {
    lr_mult: 2
    decay_mult: 0
  }
  convolution_param {
    num_output: 512
    pad: 1
    kernel_size: 3
    group: 512
    stride: 2
    weight_filler {
      type: "msra"
    }
    bias_filler {
      type: "constant"
      value: 0
    }
    engine: CAFFE
  }
}
layer {
  name: "conv12/dw/relu"
  type: "ReLU"
  bottom: "conv12/dw"
  top: "conv12/dw"
}
layer {
  name: "conv12"
  type: "Convolution"
  bottom: "conv12/dw"
  top: "conv12"
  param {
    lr_mult: 1
    decay_mult: 1
  }
  param {
    lr_mult: 2
    decay_mult: 0
  }
  convolution_param {
    num_output: 1024
    kernel_size: 1
    weight_filler {
      type: "msra"
    }
    bias_filler {
      type: "constant"
      value: 0
    }
  }
}
layer {
  name: "conv12/relu"
  type: "ReLU"
  bottom: "conv12"
  top: "conv12"
}
layer {
  name: "conv13/dw"
  type: "Convolution"
  bottom: "conv12"
  top: "conv13/dw"
  param {
    lr_mult: 1
    decay_mult: 1
  }
  param {
    lr_mult: 2
    decay_mult: 0
  }
  convolution_param {
    num_output: 1024
    pad: 1
    kernel_size: 3
    group: 1024
    weight_filler {
      type: "msra"
    }
    bias_filler {
      type: "constant"
      value: 0
    }
    engine: CAFFE
  }
}
layer {
  name: "conv13/dw/relu"
  type: "ReLU"
  bottom: "conv13/dw"
  top: "conv13/dw"
}
layer {
  name: "conv13"
  type: "Convolution"
  bottom: "conv13/dw"
  top: "conv13"
  param {
    lr_mult: 1
    decay_mult: 1
  }
  param {
    lr_mult: 2
    decay_mult: 0
  }
  convolution_param {
    num_output: 1024
    kernel_size: 1
    weight_filler {
      type: "msra"
    }
    bias_filler {
      type: "constant"
      value: 0
    }
  }
}
layer {
  name: "conv13/relu"
  type: "ReLU"
  bottom: "conv13"
  top: "conv13"
}
layer {
  name: "conv14_1"
  type: "Convolution"
  bottom: "conv13"
  top: "conv14_1"
  param {
    lr_mult: 1
    decay_mult: 1
  }
  param {
    lr_mult: 2
    decay_mult: 0
  }
  convolution_param {
    num_output: 256
    kernel_size: 1
    weight_filler {
      type: "msra"
    }
    bias_filler {
      type: "constant"
      value: 0
    }
  }
}
layer {
  name: "conv14_1/relu"
  type: "ReLU"
  bottom: "conv14_1"
  top: "conv14_1"
}
layer {
  name: "conv14_2"
  type: "Convolution"
  bottom: "conv14_1"
  top: "conv14_2"
  param {
    lr_mult: 1
    decay_mult: 1
  }
  param {
    lr_mult: 2
    decay_mult: 0
  }
  convolution_param {
    num_output: 512
    pad: 1
    kernel_size: 3
    stride: 2
    weight_filler {
      type: "msra"
    }
    bias_filler {
      type: "constant"
      value: 0
    }
  }
}
layer {
  name: "conv14_2/relu"
  type: "ReLU"
  bottom: "conv14_2"
  top: "conv14_2"
}
layer {
  name: "conv15_1"
  type: "Convolution"
  bottom: "conv14_2"
  top: "conv15_1"
  param {
    lr_mult: 1
    decay_mult: 1
  }
  param {
    lr_mult: 2
    decay_mult: 0
  }
  convolution_param {
    num_output: 128
    kernel_size: 1
    weight_filler {
      type: "msra"
    }
    bias_filler {
      type: "constant"
      value: 0
    }
  }
}
layer {
  name: "conv15_1/relu"
  type: "ReLU"
  bottom: "conv15_1"
  top: "conv15_1"
}
layer {
  name: "conv15_2"
  type: "Convolution"
  bottom: "conv15_1"
  top: "conv15_2"
  param {
    lr_mult: 1
    decay_mult: 1
  }
  param {
    lr_mult: 2
    decay_mult: 0
  }
  convolution_param {
    num_output: 256
    pad: 1
    kernel_size: 3
    stride: 2
    weight_filler {
      type: "msra"
    }
    bias_filler {
      type: "constant"
      value: 0
    }
  }
}
layer {
  name: "conv15_2/relu"
  type: "ReLU"
  bottom: "conv15_2"
  top: "conv15_2"
}
layer {
  name: "conv16_1"
  type: "Convolution"
  bottom: "conv15_2"
  top: "conv16_1"
  param {
    lr_mult: 1
    decay_mult: 1
  }
  param {
    lr_mult: 2
    decay_mult: 0
  }
  convolution_param {
    num_output: 128
    kernel_size: 1
    weight_filler {
      type: "msra"
    }
    bias_filler {
      type: "constant"
      value: 0
    }
  }
}
layer {
  name: "conv16_1/relu"
  type: "ReLU"
  bottom: "conv16_1"
  top: "conv16_1"
}
layer {
  name: "conv16_2"
  type: "Convolution"
  bottom: "conv16_1"
  top: "conv16_2"
  param {
    lr_mult: 1
    decay_mult: 1
  }
  param {
    lr_mult: 2
    decay_mult: 0
  }
  convolution_param {
    num_output: 256
    pad: 1
    kernel_size: 3
    stride: 2
    weight_filler {
      type: "msra"
    }
    bias_filler {
      type: "constant"
      value: 0
    }
  }
}
layer {
  name: "conv16_2/relu"
  type: "ReLU"
  bottom: "conv16_2"
  top: "conv16_2"
}
layer {
  name: "conv17_1"
  type: "Convolution"
  bottom: "conv16_2"
  top: "conv17_1"
  param {
    lr_mult: 1
    decay_mult: 1
  }
  param {
    lr_mult: 2
    decay_mult: 0
  }
  convolution_param {
    num_output: 64
    kernel_size: 1
    weight_filler {
      type: "msra"
    }
    bias_filler {
      type: "constant"
      value: 0
    }
  }
}
layer {
  name: "conv17_1/relu"
  type: "ReLU"
  bottom: "conv17_1"
  top: "conv17_1"
}
layer {
  name: "conv17_2"
  type: "Convolution"
  bottom: "conv17_1"
  top: "conv17_2"
  param {
    lr_mult: 1
    decay_mult: 1
  }
  param {
    lr_mult: 2
    decay_mult: 0
  }
  convolution_param {
    num_output: 128
    pad: 1
    kernel_size: 3
    stride: 2
    weight_filler {
      type: "msra"
    }
    bias_filler {
      type: "constant"
      value: 0
    }
  }
}
layer {
  name: "conv17_2/relu"
  type: "ReLU"
  bottom: "conv17_2"
  top: "conv17_2"
}
layer {
  name: "conv11_mbox_loc"
  type: "Convolution"
  bottom: "conv11"
  top: "conv11_mbox_loc"
  param {
    lr_mult: 1
    decay_mult: 1
  }
  param {
    lr_mult: 2
    decay_mult: 0
  }
  convolution_param {
    num_output: 12
    kernel_size: 1
    weight_filler {
      type: "msra"
    }
    bias_filler {
      type: "constant"
      value: 0
    }
  }
}
layer {
  name: "conv11_mbox_loc_perm"
  type: "Permute"
  bottom: "conv11_mbox_loc"
  top: "conv11_mbox_loc_perm"
  permute_param {
    order: 0
    order: 2
    order: 3
    order: 1
  }
}
layer {
  name: "conv11_mbox_loc_flat"
  type: "Flatten"
  bottom: "conv11_mbox_loc_perm"
  top: "conv11_mbox_loc_flat"
  flatten_param {
    axis: 1
  }
}
layer {
  name: "conv11_mbox_conf_new"
  type: "Convolution"
  bottom: "conv11"
  top: "conv11_mbox_conf"
  param {
    lr_mult: 1
    decay_mult: 1
  }
  param {
    lr_mult: 2
    decay_mult: 0
  }
  convolution_param {
    num_output: 63
    kernel_size: 1
    weight_filler {
      type: "msra"
    }
    bias_filler {
      type: "constant"
      value: 0
    }
  }
}
layer {
  name: "conv11_mbox_conf_perm"
  type: "Permute"
  bottom: "conv11_mbox_conf"
  top: "conv11_mbox_conf_perm"
  permute_param {
    order: 0
    order: 2
    order: 3
    order: 1
  }
}
layer {
  name: "conv11_mbox_conf_flat"
  type: "Flatten"
  bottom: "conv11_mbox_conf_perm"
  top: "conv11_mbox_conf_flat"
  flatten_param {
    axis: 1
  }
}
layer {
  name: "conv11_mbox_priorbox"
  type: "PriorBox"
  bottom: "conv11"
  bottom: "data"
  top: "conv11_mbox_priorbox"
  prior_box_param {
    min_size: 60
    aspect_ratio: 2
    flip: true
    clip: false
    variance: 0.1
    variance: 0.1
    variance: 0.2
    variance: 0.2
    offset: 0.5
  }
}
layer {
  name: "conv13_mbox_loc"
  type: "Convolution"
  bottom: "conv13"
  top: "conv13_mbox_loc"
  param {
    lr_mult: 1
    decay_mult: 1
  }
  param {
    lr_mult: 2
    decay_mult: 0
  }
  convolution_param {
    num_output: 24
    kernel_size: 1
    weight_filler {
      type: "msra"
    }
    bias_filler {
      type: "constant"
      value: 0
    }
  }
}
layer {
  name: "conv13_mbox_loc_perm"
  type: "Permute"
  bottom: "conv13_mbox_loc"
  top: "conv13_mbox_loc_perm"
  permute_param {
    order: 0
    order: 2
    order: 3
    order: 1
  }
}
layer {
  name: "conv13_mbox_loc_flat"
  type: "Flatten"
  bottom: "conv13_mbox_loc_perm"
  top: "conv13_mbox_loc_flat"
  flatten_param {
    axis: 1
  }
}
layer {
  name: "conv13_mbox_conf_new"
  type: "Convolution"
  bottom: "conv13"
  top: "conv13_mbox_conf"
  param {
    lr_mult: 1
    decay_mult: 1
  }
  param {
    lr_mult: 2
    decay_mult: 0
  }
  convolution_param {
    num_output: 126
    kernel_size: 1
    weight_filler {
      type: "msra"
    }
    bias_filler {
      type: "constant"
      value: 0
    }
  }
}
layer {
  name: "conv13_mbox_conf_perm"
  type: "Permute"
  bottom: "conv13_mbox_conf"
  top: "conv13_mbox_conf_perm"
  permute_param {
    order: 0
    order: 2
    order: 3
    order: 1
  }
}
layer {
  name: "conv13_mbox_conf_flat"
  type: "Flatten"
  bottom: "conv13_mbox_conf_perm"
  top: "conv13_mbox_conf_flat"
  flatten_param {
    axis: 1
  }
}
layer {
  name: "conv13_mbox_priorbox"
  type: "PriorBox"
  bottom: "conv13"
  bottom: "data"
  top: "conv13_mbox_priorbox"
  prior_box_param {
    min_size: 105
    max_size: 150
    aspect_ratio: 2
    aspect_ratio: 3
    flip: true
    clip: false
    variance: 0.1
    variance: 0.1
    variance: 0.2
    variance: 0.2
    offset: 0.5
  }
}
layer {
  name: "conv14_2_mbox_loc"
  type: "Convolution"
  bottom: "conv14_2"
  top: "conv14_2_mbox_loc"
  param {
    lr_mult: 1
    decay_mult: 1
  }
  param {
    lr_mult: 2
    decay_mult: 0
  }
  convolution_param {
    num_output: 24
    kernel_size: 1
    weight_filler {
      type: "msra"
    }
    bias_filler {
      type: "constant"
      value: 0
    }
  }
}
layer {
  name: "conv14_2_mbox_loc_perm"
  type: "Permute"
  bottom: "conv14_2_mbox_loc"
  top: "conv14_2_mbox_loc_perm"
  permute_param {
    order: 0
    order: 2
    order: 3
    order: 1
  }
}
layer {
  name: "conv14_2_mbox_loc_flat"
  type: "Flatten"
  bottom: "conv14_2_mbox_loc_perm"
  top: "conv14_2_mbox_loc_flat"
  flatten_param {
    axis: 1
  }
}
layer {
  name: "conv14_2_mbox_conf_new"
  type: "Convolution"
  bottom: "conv14_2"
  top: "conv14_2_mbox_conf"
  param {
    lr_mult: 1
    decay_mult: 1
  }
  param {
    lr_mult: 2
    decay_mult: 0
  }
  convolution_param {
    num_output: 126
    kernel_size: 1
    weight_filler {
      type: "msra"
    }
    bias_filler {
      type: "constant"
      value: 0
    }
  }
}
layer {
  name: "conv14_2_mbox_conf_perm"
  type: "Permute"
  bottom: "conv14_2_mbox_conf"
  top: "conv14_2_mbox_conf_perm"
  permute_param {
    order: 0
    order: 2
    order: 3
    order: 1
  }
}
layer {
  name: "conv14_2_mbox_conf_flat"
  type: "Flatten"
  bottom: "conv14_2_mbox_conf_perm"
  top: "conv14_2_mbox_conf_flat"
  flatten_param {
    axis: 1
  }
}
layer {
  name: "conv14_2_mbox_priorbox"
  type: "PriorBox"
  bottom: "conv14_2"
  bottom: "data"
  top: "conv14_2_mbox_priorbox"
  prior_box_param {
    min_size: 150
    max_size: 195
    aspect_ratio: 2
    aspect_ratio: 3
    flip: true
    clip: false
    variance: 0.1
    variance: 0.1
    variance: 0.2
    variance: 0.2
    offset: 0.5
  }
}
layer {
  name: "conv15_2_mbox_loc"
  type: "Convolution"
  bottom: "conv15_2"
  top: "conv15_2_mbox_loc"
  param {
    lr_mult: 1
    decay_mult: 1
  }
  param {
    lr_mult: 2
    decay_mult: 0
  }
  convolution_param {
    num_output: 24
    kernel_size: 1
    weight_filler {
      type: "msra"
    }
    bias_filler {
      type: "constant"
      value: 0
    }
  }
}
layer {
  name: "conv15_2_mbox_loc_perm"
  type: "Permute"
  bottom: "conv15_2_mbox_loc"
  top: "conv15_2_mbox_loc_perm"
  permute_param {
    order: 0
    order: 2
    order: 3
    order: 1
  }
}
layer {
  name: "conv15_2_mbox_loc_flat"
  type: "Flatten"
  bottom: "conv15_2_mbox_loc_perm"
  top: "conv15_2_mbox_loc_flat"
  flatten_param {
    axis: 1
  }
}
layer {
  name: "conv15_2_mbox_conf_new"
  type: "Convolution"
  bottom: "conv15_2"
  top: "conv15_2_mbox_conf"
  param {
    lr_mult: 1
    decay_mult: 1
  }
  param {
    lr_mult: 2
    decay_mult: 0
  }
  convolution_param {
    num_output: 126
    kernel_size: 1
    weight_filler {
      type: "msra"
    }
    bias_filler {
      type: "constant"
      value: 0
    }
  }
}
layer {
  name: "conv15_2_mbox_conf_perm"
  type: "Permute"
  bottom: "conv15_2_mbox_conf"
  top: "conv15_2_mbox_conf_perm"
  permute_param {
    order: 0
    order: 2
    order: 3
    order: 1
  }
}
layer {
  name: "conv15_2_mbox_conf_flat"
  type: "Flatten"
  bottom: "conv15_2_mbox_conf_perm"
  top: "conv15_2_mbox_conf_flat"
  flatten_param {
    axis: 1
  }
}
layer {
  name: "conv15_2_mbox_priorbox"
  type: "PriorBox"
  bottom: "conv15_2"
  bottom: "data"
  top: "conv15_2_mbox_priorbox"
  prior_box_param {
    min_size: 195
    max_size: 240
    aspect_ratio: 2
    aspect_ratio: 3
    flip: true
    clip: false
    variance: 0.1
    variance: 0.1
    variance: 0.2
    variance: 0.2
    offset: 0.5
  }
}
layer {
  name: "conv16_2_mbox_loc"
  type: "Convolution"
  bottom: "conv16_2"
  top: "conv16_2_mbox_loc"
  param {
    lr_mult: 1
    decay_mult: 1
  }
  param {
    lr_mult: 2
    decay_mult: 0
  }
  convolution_param {
    num_output: 24
    kernel_size: 1
    weight_filler {
      type: "msra"
    }
    bias_filler {
      type: "constant"
      value: 0
    }
  }
}
layer {
  name: "conv16_2_mbox_loc_perm"
  type: "Permute"
  bottom: "conv16_2_mbox_loc"
  top: "conv16_2_mbox_loc_perm"
  permute_param {
    order: 0
    order: 2
    order: 3
    order: 1
  }
}
layer {
  name: "conv16_2_mbox_loc_flat"
  type: "Flatten"
  bottom: "conv16_2_mbox_loc_perm"
  top: "conv16_2_mbox_loc_flat"
  flatten_param {
    axis: 1
  }
}
layer {
  name: "conv16_2_mbox_conf_new"
  type: "Convolution"
  bottom: "conv16_2"
  top: "conv16_2_mbox_conf"
  param {
    lr_mult: 1
    decay_mult: 1
  }
  param {
    lr_mult: 2
    decay_mult: 0
  }
  convolution_param {
    num_output: 126
    kernel_size: 1
    weight_filler {
      type: "msra"
    }
    bias_filler {
      type: "constant"
      value: 0
    }
  }
}
layer {
  name: "conv16_2_mbox_conf_perm"
  type: "Permute"
  bottom: "conv16_2_mbox_conf"
  top: "conv16_2_mbox_conf_perm"
  permute_param {
    order: 0
    order: 2
    order: 3
    order: 1
  }
}
layer {
  name: "conv16_2_mbox_conf_flat"
  type: "Flatten"
  bottom: "conv16_2_mbox_conf_perm"
  top: "conv16_2_mbox_conf_flat"
  flatten_param {
    axis: 1
  }
}
layer {
  name: "conv16_2_mbox_priorbox"
  type: "PriorBox"
  bottom: "conv16_2"
  bottom: "data"
  top: "conv16_2_mbox_priorbox"
  prior_box_param {
    min_size: 240
    max_size: 285
    aspect_ratio: 2
    aspect_ratio: 3
    flip: true
    clip: false
    variance: 0.1
    variance: 0.1
    variance: 0.2
    variance: 0.2
    offset: 0.5
  }
}
layer {
  name: "conv17_2_mbox_loc"
  type: "Convolution"
  bottom: "conv17_2"
  top: "conv17_2_mbox_loc"
  param {
    lr_mult: 1
    decay_mult: 1
  }
  param {
    lr_mult: 2
    decay_mult: 0
  }
  convolution_param {
    num_output: 24
    kernel_size: 1
    weight_filler {
      type: "msra"
    }
    bias_filler {
      type: "constant"
      value: 0
    }
  }
}
layer {
  name: "conv17_2_mbox_loc_perm"
  type: "Permute"
  bottom: "conv17_2_mbox_loc"
  top: "conv17_2_mbox_loc_perm"
  permute_param {
    order: 0
    order: 2
    order: 3
    order: 1
  }
}
layer {
  name: "conv17_2_mbox_loc_flat"
  type: "Flatten"
  bottom: "conv17_2_mbox_loc_perm"
  top: "conv17_2_mbox_loc_flat"
  flatten_param {
    axis: 1
  }
}
layer {
  name: "conv17_2_mbox_conf_new"
  type: "Convolution"
  bottom: "conv17_2"
  top: "conv17_2_mbox_conf"
  param {
    lr_mult: 1
    decay_mult: 1
  }
  param {
    lr_mult: 2
    decay_mult: 0
  }
  convolution_param {
    num_output: 126
    kernel_size: 1
    weight_filler {
      type: "msra"
    }
    bias_filler {
      type: "constant"
      value: 0
    }
  }
}
layer {
  name: "conv17_2_mbox_conf_perm"
  type: "Permute"
  bottom: "conv17_2_mbox_conf"
  top: "conv17_2_mbox_conf_perm"
  permute_param {
    order: 0
    order: 2
    order: 3
    order: 1
  }
}
layer {
  name: "conv17_2_mbox_conf_flat"
  type: "Flatten"
  bottom: "conv17_2_mbox_conf_perm"
  top: "conv17_2_mbox_conf_flat"
  flatten_param {
    axis: 1
  }
}
layer {
  name: "conv17_2_mbox_priorbox"
  type: "PriorBox"
  bottom: "conv17_2"
  bottom: "data"
  top: "conv17_2_mbox_priorbox"
  prior_box_param {
    min_size: 285
    max_size: 300
    aspect_ratio: 2
    aspect_ratio: 3
    flip: true
    clip: false
    variance: 0.1
    variance: 0.1
    variance: 0.2
    variance: 0.2
    offset: 0.5
  }
}
layer {
  name: "mbox_loc"
  type: "Concat"
  bottom: "conv11_mbox_loc_flat"
  bottom: "conv13_mbox_loc_flat"
  bottom: "conv14_2_mbox_loc_flat"
  bottom: "conv15_2_mbox_loc_flat"
  bottom: "conv16_2_mbox_loc_flat"
  bottom: "conv17_2_mbox_loc_flat"
  top: "mbox_loc"
  concat_param {
    axis: 1
  }
}
layer {
  name: "mbox_conf"
  type: "Concat"
  bottom: "conv11_mbox_conf_flat"
  bottom: "conv13_mbox_conf_flat"
  bottom: "conv14_2_mbox_conf_flat"
  bottom: "conv15_2_mbox_conf_flat"
  bottom: "conv16_2_mbox_conf_flat"
  bottom: "conv17_2_mbox_conf_flat"
  top: "mbox_conf"
  concat_param {
    axis: 1
  }
}
layer {
  name: "mbox_priorbox"
  type: "Concat"
  bottom: "conv11_mbox_priorbox"
  bottom: "conv13_mbox_priorbox"
  bottom: "conv14_2_mbox_priorbox"
  bottom: "conv15_2_mbox_priorbox"
  bottom: "conv16_2_mbox_priorbox"
  bottom: "conv17_2_mbox_priorbox"
  top: "mbox_priorbox"
  concat_param {
    axis: 2
  }
}
layer {
  name: "mbox_conf_reshape"
  type: "Reshape"
  bottom: "mbox_conf"
  top: "mbox_conf_reshape"
  reshape_param {
    shape {
      dim: 0
      dim: -1
      dim: 21
    }
  }
}
layer {
  name: "mbox_conf_softmax"
  type: "Softmax"
  bottom: "mbox_conf_reshape"
  top: "mbox_conf_softmax"
  softmax_param {
    axis: 2
  }
}
layer {
  name: "mbox_conf_flatten"
  type: "Flatten"
  bottom: "mbox_conf_softmax"
  top: "mbox_conf_flatten"
  flatten_param {
    axis: 1
  }
}
layer {
  name: "detection_out"
  type: "DetectionOutput"
  bottom: "mbox_loc"
  bottom: "mbox_conf_flatten"
  bottom: "mbox_priorbox"
  top: "detection_out"
  include {
    phase: TEST
  }
  detection_output_param {
    num_classes: 21
    share_location: true
    background_label_id: 0
    nms_param {
      nms_threshold: 0.45
      top_k: 100
    }
    code_type: CENTER_SIZE
    keep_top_k: 100
    confidence_threshold: 0.25
  }
}
I1103 00:03:28.264750 14809 layer_factory.hpp:77] Creating layer input
I1103 00:03:28.264761 14809 net.cpp:100] Creating Layer input
I1103 00:03:28.264765 14809 net.cpp:455] input -> data
I1103 00:03:28.264787 14809 net.cpp:150] Setting up input
I1103 00:03:28.264793 14809 net.cpp:157] Top shape: 1 3 300 300 (270000)
I1103 00:03:28.264796 14809 net.cpp:165] Memory required for data: 1080000
I1103 00:03:28.264797 14809 layer_factory.hpp:77] Creating layer data_input_0_split
I1103 00:03:28.264802 14809 net.cpp:100] Creating Layer data_input_0_split
I1103 00:03:28.264806 14809 net.cpp:481] data_input_0_split <- data
I1103 00:03:28.264809 14809 net.cpp:455] data_input_0_split -> data_input_0_split_0
I1103 00:03:28.264814 14809 net.cpp:455] data_input_0_split -> data_input_0_split_1
I1103 00:03:28.264819 14809 net.cpp:455] data_input_0_split -> data_input_0_split_2
I1103 00:03:28.264823 14809 net.cpp:455] data_input_0_split -> data_input_0_split_3
I1103 00:03:28.264828 14809 net.cpp:455] data_input_0_split -> data_input_0_split_4
I1103 00:03:28.264832 14809 net.cpp:455] data_input_0_split -> data_input_0_split_5
I1103 00:03:28.264837 14809 net.cpp:455] data_input_0_split -> data_input_0_split_6
I1103 00:03:28.264842 14809 net.cpp:150] Setting up data_input_0_split
I1103 00:03:28.264847 14809 net.cpp:157] Top shape: 1 3 300 300 (270000)
I1103 00:03:28.264848 14809 net.cpp:157] Top shape: 1 3 300 300 (270000)
I1103 00:03:28.264853 14809 net.cpp:157] Top shape: 1 3 300 300 (270000)
I1103 00:03:28.264855 14809 net.cpp:157] Top shape: 1 3 300 300 (270000)
I1103 00:03:28.264858 14809 net.cpp:157] Top shape: 1 3 300 300 (270000)
I1103 00:03:28.264860 14809 net.cpp:157] Top shape: 1 3 300 300 (270000)
I1103 00:03:28.264863 14809 net.cpp:157] Top shape: 1 3 300 300 (270000)
I1103 00:03:28.264864 14809 net.cpp:165] Memory required for data: 8640000
I1103 00:03:28.264866 14809 layer_factory.hpp:77] Creating layer conv0
I1103 00:03:28.264876 14809 net.cpp:100] Creating Layer conv0
I1103 00:03:28.264878 14809 net.cpp:481] conv0 <- data_input_0_split_0
I1103 00:03:28.264883 14809 net.cpp:455] conv0 -> conv0
I1103 00:03:28.814388 14809 net.cpp:150] Setting up conv0
I1103 00:03:28.814435 14809 net.cpp:157] Top shape: 1 32 150 150 (720000)
I1103 00:03:28.814440 14809 net.cpp:165] Memory required for data: 11520000
I1103 00:03:28.814456 14809 layer_factory.hpp:77] Creating layer conv0/relu
I1103 00:03:28.814467 14809 net.cpp:100] Creating Layer conv0/relu
I1103 00:03:28.814471 14809 net.cpp:481] conv0/relu <- conv0
I1103 00:03:28.814476 14809 net.cpp:442] conv0/relu -> conv0 (in-place)
I1103 00:03:28.815482 14809 net.cpp:150] Setting up conv0/relu
I1103 00:03:28.815502 14809 net.cpp:157] Top shape: 1 32 150 150 (720000)
I1103 00:03:28.815505 14809 net.cpp:165] Memory required for data: 14400000
I1103 00:03:28.815510 14809 layer_factory.hpp:77] Creating layer conv1/dw
I1103 00:03:28.815526 14809 net.cpp:100] Creating Layer conv1/dw
I1103 00:03:28.815531 14809 net.cpp:481] conv1/dw <- conv0
I1103 00:03:28.815537 14809 net.cpp:455] conv1/dw -> conv1/dw
I1103 00:03:28.815623 14809 net.cpp:150] Setting up conv1/dw
I1103 00:03:28.815639 14809 net.cpp:157] Top shape: 1 32 150 150 (720000)
I1103 00:03:28.815641 14809 net.cpp:165] Memory required for data: 17280000
I1103 00:03:28.815649 14809 layer_factory.hpp:77] Creating layer conv1/dw/relu
I1103 00:03:28.815656 14809 net.cpp:100] Creating Layer conv1/dw/relu
I1103 00:03:28.815660 14809 net.cpp:481] conv1/dw/relu <- conv1/dw
I1103 00:03:28.815665 14809 net.cpp:442] conv1/dw/relu -> conv1/dw (in-place)
I1103 00:03:28.815959 14809 net.cpp:150] Setting up conv1/dw/relu
I1103 00:03:28.815976 14809 net.cpp:157] Top shape: 1 32 150 150 (720000)
I1103 00:03:28.815980 14809 net.cpp:165] Memory required for data: 20160000
I1103 00:03:28.815984 14809 layer_factory.hpp:77] Creating layer conv1
I1103 00:03:28.815991 14809 net.cpp:100] Creating Layer conv1
I1103 00:03:28.815995 14809 net.cpp:481] conv1 <- conv1/dw
I1103 00:03:28.816002 14809 net.cpp:455] conv1 -> conv1
I1103 00:03:28.818315 14809 net.cpp:150] Setting up conv1
I1103 00:03:28.818339 14809 net.cpp:157] Top shape: 1 64 150 150 (1440000)
I1103 00:03:28.818343 14809 net.cpp:165] Memory required for data: 25920000
I1103 00:03:28.818352 14809 layer_factory.hpp:77] Creating layer conv1/relu
I1103 00:03:28.818373 14809 net.cpp:100] Creating Layer conv1/relu
I1103 00:03:28.818378 14809 net.cpp:481] conv1/relu <- conv1
I1103 00:03:28.818400 14809 net.cpp:442] conv1/relu -> conv1 (in-place)
I1103 00:03:28.819383 14809 net.cpp:150] Setting up conv1/relu
I1103 00:03:28.819401 14809 net.cpp:157] Top shape: 1 64 150 150 (1440000)
I1103 00:03:28.819404 14809 net.cpp:165] Memory required for data: 31680000
I1103 00:03:28.819408 14809 layer_factory.hpp:77] Creating layer conv2/dw
I1103 00:03:28.819435 14809 net.cpp:100] Creating Layer conv2/dw
I1103 00:03:28.819440 14809 net.cpp:481] conv2/dw <- conv1
I1103 00:03:28.819463 14809 net.cpp:455] conv2/dw -> conv2/dw
I1103 00:03:28.819509 14809 net.cpp:150] Setting up conv2/dw
I1103 00:03:28.819519 14809 net.cpp:157] Top shape: 1 64 75 75 (360000)
I1103 00:03:28.819522 14809 net.cpp:165] Memory required for data: 33120000
I1103 00:03:28.819527 14809 layer_factory.hpp:77] Creating layer conv2/dw/relu
I1103 00:03:28.819538 14809 net.cpp:100] Creating Layer conv2/dw/relu
I1103 00:03:28.819541 14809 net.cpp:481] conv2/dw/relu <- conv2/dw
I1103 00:03:28.819545 14809 net.cpp:442] conv2/dw/relu -> conv2/dw (in-place)
I1103 00:03:28.819820 14809 net.cpp:150] Setting up conv2/dw/relu
I1103 00:03:28.819849 14809 net.cpp:157] Top shape: 1 64 75 75 (360000)
I1103 00:03:28.819851 14809 net.cpp:165] Memory required for data: 34560000
I1103 00:03:28.819854 14809 layer_factory.hpp:77] Creating layer conv2
I1103 00:03:28.819865 14809 net.cpp:100] Creating Layer conv2
I1103 00:03:28.819885 14809 net.cpp:481] conv2 <- conv2/dw
I1103 00:03:28.819892 14809 net.cpp:455] conv2 -> conv2
I1103 00:03:28.822544 14809 net.cpp:150] Setting up conv2
I1103 00:03:28.822564 14809 net.cpp:157] Top shape: 1 128 75 75 (720000)
I1103 00:03:28.822567 14809 net.cpp:165] Memory required for data: 37440000
I1103 00:03:28.822579 14809 layer_factory.hpp:77] Creating layer conv2/relu
I1103 00:03:28.822585 14809 net.cpp:100] Creating Layer conv2/relu
I1103 00:03:28.822594 14809 net.cpp:481] conv2/relu <- conv2
I1103 00:03:28.822602 14809 net.cpp:442] conv2/relu -> conv2 (in-place)
I1103 00:03:28.823671 14809 net.cpp:150] Setting up conv2/relu
I1103 00:03:28.823688 14809 net.cpp:157] Top shape: 1 128 75 75 (720000)
I1103 00:03:28.823691 14809 net.cpp:165] Memory required for data: 40320000
I1103 00:03:28.823694 14809 layer_factory.hpp:77] Creating layer conv3/dw
I1103 00:03:28.823719 14809 net.cpp:100] Creating Layer conv3/dw
I1103 00:03:28.823725 14809 net.cpp:481] conv3/dw <- conv2
I1103 00:03:28.823748 14809 net.cpp:455] conv3/dw -> conv3/dw
I1103 00:03:28.823807 14809 net.cpp:150] Setting up conv3/dw
I1103 00:03:28.823815 14809 net.cpp:157] Top shape: 1 128 75 75 (720000)
I1103 00:03:28.823817 14809 net.cpp:165] Memory required for data: 43200000
I1103 00:03:28.823822 14809 layer_factory.hpp:77] Creating layer conv3/dw/relu
I1103 00:03:28.823827 14809 net.cpp:100] Creating Layer conv3/dw/relu
I1103 00:03:28.823874 14809 net.cpp:481] conv3/dw/relu <- conv3/dw
I1103 00:03:28.823879 14809 net.cpp:442] conv3/dw/relu -> conv3/dw (in-place)
I1103 00:03:28.824914 14809 net.cpp:150] Setting up conv3/dw/relu
I1103 00:03:28.824934 14809 net.cpp:157] Top shape: 1 128 75 75 (720000)
I1103 00:03:28.824936 14809 net.cpp:165] Memory required for data: 46080000
I1103 00:03:28.824954 14809 layer_factory.hpp:77] Creating layer conv3
I1103 00:03:28.824964 14809 net.cpp:100] Creating Layer conv3
I1103 00:03:28.824970 14809 net.cpp:481] conv3 <- conv3/dw
I1103 00:03:28.824975 14809 net.cpp:455] conv3 -> conv3
I1103 00:03:28.827905 14809 net.cpp:150] Setting up conv3
I1103 00:03:28.827941 14809 net.cpp:157] Top shape: 1 128 75 75 (720000)
I1103 00:03:28.827960 14809 net.cpp:165] Memory required for data: 48960000
I1103 00:03:28.827965 14809 layer_factory.hpp:77] Creating layer conv3/relu
I1103 00:03:28.827971 14809 net.cpp:100] Creating Layer conv3/relu
I1103 00:03:28.827973 14809 net.cpp:481] conv3/relu <- conv3
I1103 00:03:28.827977 14809 net.cpp:442] conv3/relu -> conv3 (in-place)
I1103 00:03:28.828301 14809 net.cpp:150] Setting up conv3/relu
I1103 00:03:28.828320 14809 net.cpp:157] Top shape: 1 128 75 75 (720000)
I1103 00:03:28.828323 14809 net.cpp:165] Memory required for data: 51840000
I1103 00:03:28.828326 14809 layer_factory.hpp:77] Creating layer conv4/dw
I1103 00:03:28.828337 14809 net.cpp:100] Creating Layer conv4/dw
I1103 00:03:28.828346 14809 net.cpp:481] conv4/dw <- conv3
I1103 00:03:28.828353 14809 net.cpp:455] conv4/dw -> conv4/dw
I1103 00:03:28.828405 14809 net.cpp:150] Setting up conv4/dw
I1103 00:03:28.828414 14809 net.cpp:157] Top shape: 1 128 38 38 (184832)
I1103 00:03:28.828416 14809 net.cpp:165] Memory required for data: 52579328
I1103 00:03:28.828421 14809 layer_factory.hpp:77] Creating layer conv4/dw/relu
I1103 00:03:28.828425 14809 net.cpp:100] Creating Layer conv4/dw/relu
I1103 00:03:28.828428 14809 net.cpp:481] conv4/dw/relu <- conv4/dw
I1103 00:03:28.828434 14809 net.cpp:442] conv4/dw/relu -> conv4/dw (in-place)
I1103 00:03:28.829510 14809 net.cpp:150] Setting up conv4/dw/relu
I1103 00:03:28.829529 14809 net.cpp:157] Top shape: 1 128 38 38 (184832)
I1103 00:03:28.829533 14809 net.cpp:165] Memory required for data: 53318656
I1103 00:03:28.829536 14809 layer_factory.hpp:77] Creating layer conv4
I1103 00:03:28.829546 14809 net.cpp:100] Creating Layer conv4
I1103 00:03:28.829550 14809 net.cpp:481] conv4 <- conv4/dw
I1103 00:03:28.829555 14809 net.cpp:455] conv4 -> conv4
I1103 00:03:28.833279 14809 net.cpp:150] Setting up conv4
I1103 00:03:28.833298 14809 net.cpp:157] Top shape: 1 256 38 38 (369664)
I1103 00:03:28.833302 14809 net.cpp:165] Memory required for data: 54797312
I1103 00:03:28.833313 14809 layer_factory.hpp:77] Creating layer conv4/relu
I1103 00:03:28.833319 14809 net.cpp:100] Creating Layer conv4/relu
I1103 00:03:28.833323 14809 net.cpp:481] conv4/relu <- conv4
I1103 00:03:28.833329 14809 net.cpp:442] conv4/relu -> conv4 (in-place)
I1103 00:03:28.833608 14809 net.cpp:150] Setting up conv4/relu
I1103 00:03:28.833626 14809 net.cpp:157] Top shape: 1 256 38 38 (369664)
I1103 00:03:28.833628 14809 net.cpp:165] Memory required for data: 56275968
I1103 00:03:28.833631 14809 layer_factory.hpp:77] Creating layer conv5/dw
I1103 00:03:28.833642 14809 net.cpp:100] Creating Layer conv5/dw
I1103 00:03:28.833648 14809 net.cpp:481] conv5/dw <- conv4
I1103 00:03:28.833655 14809 net.cpp:455] conv5/dw -> conv5/dw
I1103 00:03:28.833704 14809 net.cpp:150] Setting up conv5/dw
I1103 00:03:28.833714 14809 net.cpp:157] Top shape: 1 256 38 38 (369664)
I1103 00:03:28.833715 14809 net.cpp:165] Memory required for data: 57754624
I1103 00:03:28.833719 14809 layer_factory.hpp:77] Creating layer conv5/dw/relu
I1103 00:03:28.833724 14809 net.cpp:100] Creating Layer conv5/dw/relu
I1103 00:03:28.833726 14809 net.cpp:481] conv5/dw/relu <- conv5/dw
I1103 00:03:28.833731 14809 net.cpp:442] conv5/dw/relu -> conv5/dw (in-place)
I1103 00:03:28.834684 14809 net.cpp:150] Setting up conv5/dw/relu
I1103 00:03:28.834702 14809 net.cpp:157] Top shape: 1 256 38 38 (369664)
I1103 00:03:28.834705 14809 net.cpp:165] Memory required for data: 59233280
I1103 00:03:28.834709 14809 layer_factory.hpp:77] Creating layer conv5
I1103 00:03:28.834718 14809 net.cpp:100] Creating Layer conv5
I1103 00:03:28.834725 14809 net.cpp:481] conv5 <- conv5/dw
I1103 00:03:28.834733 14809 net.cpp:455] conv5 -> conv5
I1103 00:03:28.838579 14809 net.cpp:150] Setting up conv5
I1103 00:03:28.838598 14809 net.cpp:157] Top shape: 1 256 38 38 (369664)
I1103 00:03:28.838600 14809 net.cpp:165] Memory required for data: 60711936
I1103 00:03:28.838606 14809 layer_factory.hpp:77] Creating layer conv5/relu
I1103 00:03:28.838613 14809 net.cpp:100] Creating Layer conv5/relu
I1103 00:03:28.838615 14809 net.cpp:481] conv5/relu <- conv5
I1103 00:03:28.838623 14809 net.cpp:442] conv5/relu -> conv5 (in-place)
I1103 00:03:28.839596 14809 net.cpp:150] Setting up conv5/relu
I1103 00:03:28.839613 14809 net.cpp:157] Top shape: 1 256 38 38 (369664)
I1103 00:03:28.839617 14809 net.cpp:165] Memory required for data: 62190592
I1103 00:03:28.839619 14809 layer_factory.hpp:77] Creating layer conv6/dw
I1103 00:03:28.839629 14809 net.cpp:100] Creating Layer conv6/dw
I1103 00:03:28.839637 14809 net.cpp:481] conv6/dw <- conv5
I1103 00:03:28.839645 14809 net.cpp:455] conv6/dw -> conv6/dw
I1103 00:03:28.839690 14809 net.cpp:150] Setting up conv6/dw
I1103 00:03:28.839715 14809 net.cpp:157] Top shape: 1 256 19 19 (92416)
I1103 00:03:28.839717 14809 net.cpp:165] Memory required for data: 62560256
I1103 00:03:28.839722 14809 layer_factory.hpp:77] Creating layer conv6/dw/relu
I1103 00:03:28.839726 14809 net.cpp:100] Creating Layer conv6/dw/relu
I1103 00:03:28.839731 14809 net.cpp:481] conv6/dw/relu <- conv6/dw
I1103 00:03:28.839736 14809 net.cpp:442] conv6/dw/relu -> conv6/dw (in-place)
I1103 00:03:28.840028 14809 net.cpp:150] Setting up conv6/dw/relu
I1103 00:03:28.840042 14809 net.cpp:157] Top shape: 1 256 19 19 (92416)
I1103 00:03:28.840045 14809 net.cpp:165] Memory required for data: 62929920
I1103 00:03:28.840047 14809 layer_factory.hpp:77] Creating layer conv6
I1103 00:03:28.840056 14809 net.cpp:100] Creating Layer conv6
I1103 00:03:28.840062 14809 net.cpp:481] conv6 <- conv6/dw
I1103 00:03:28.840070 14809 net.cpp:455] conv6 -> conv6
I1103 00:03:28.844575 14809 net.cpp:150] Setting up conv6
I1103 00:03:28.844595 14809 net.cpp:157] Top shape: 1 512 19 19 (184832)
I1103 00:03:28.844599 14809 net.cpp:165] Memory required for data: 63669248
I1103 00:03:28.844604 14809 layer_factory.hpp:77] Creating layer conv6/relu
I1103 00:03:28.844625 14809 net.cpp:100] Creating Layer conv6/relu
I1103 00:03:28.844629 14809 net.cpp:481] conv6/relu <- conv6
I1103 00:03:28.844635 14809 net.cpp:442] conv6/relu -> conv6 (in-place)
I1103 00:03:28.845613 14809 net.cpp:150] Setting up conv6/relu
I1103 00:03:28.845634 14809 net.cpp:157] Top shape: 1 512 19 19 (184832)
I1103 00:03:28.845638 14809 net.cpp:165] Memory required for data: 64408576
I1103 00:03:28.845640 14809 layer_factory.hpp:77] Creating layer conv7/dw
I1103 00:03:28.845650 14809 net.cpp:100] Creating Layer conv7/dw
I1103 00:03:28.845656 14809 net.cpp:481] conv7/dw <- conv6
I1103 00:03:28.845662 14809 net.cpp:455] conv7/dw -> conv7/dw
I1103 00:03:28.845733 14809 net.cpp:150] Setting up conv7/dw
I1103 00:03:28.845757 14809 net.cpp:157] Top shape: 1 512 19 19 (184832)
I1103 00:03:28.845759 14809 net.cpp:165] Memory required for data: 65147904
I1103 00:03:28.845764 14809 layer_factory.hpp:77] Creating layer conv7/dw/relu
I1103 00:03:28.845768 14809 net.cpp:100] Creating Layer conv7/dw/relu
I1103 00:03:28.845772 14809 net.cpp:481] conv7/dw/relu <- conv7/dw
I1103 00:03:28.845775 14809 net.cpp:442] conv7/dw/relu -> conv7/dw (in-place)
I1103 00:03:28.846046 14809 net.cpp:150] Setting up conv7/dw/relu
I1103 00:03:28.846062 14809 net.cpp:157] Top shape: 1 512 19 19 (184832)
I1103 00:03:28.846065 14809 net.cpp:165] Memory required for data: 65887232
I1103 00:03:28.846067 14809 layer_factory.hpp:77] Creating layer conv7
I1103 00:03:28.846086 14809 net.cpp:100] Creating Layer conv7
I1103 00:03:28.846092 14809 net.cpp:481] conv7 <- conv7/dw
I1103 00:03:28.846097 14809 net.cpp:455] conv7 -> conv7
I1103 00:03:28.852030 14809 net.cpp:150] Setting up conv7
I1103 00:03:28.852048 14809 net.cpp:157] Top shape: 1 512 19 19 (184832)
I1103 00:03:28.852051 14809 net.cpp:165] Memory required for data: 66626560
I1103 00:03:28.852056 14809 layer_factory.hpp:77] Creating layer conv7/relu
I1103 00:03:28.852062 14809 net.cpp:100] Creating Layer conv7/relu
I1103 00:03:28.852066 14809 net.cpp:481] conv7/relu <- conv7
I1103 00:03:28.852072 14809 net.cpp:442] conv7/relu -> conv7 (in-place)
I1103 00:03:28.852988 14809 net.cpp:150] Setting up conv7/relu
I1103 00:03:28.853005 14809 net.cpp:157] Top shape: 1 512 19 19 (184832)
I1103 00:03:28.853008 14809 net.cpp:165] Memory required for data: 67365888
I1103 00:03:28.853018 14809 layer_factory.hpp:77] Creating layer conv8/dw
I1103 00:03:28.853049 14809 net.cpp:100] Creating Layer conv8/dw
I1103 00:03:28.853055 14809 net.cpp:481] conv8/dw <- conv7
I1103 00:03:28.853061 14809 net.cpp:455] conv8/dw -> conv8/dw
I1103 00:03:28.853164 14809 net.cpp:150] Setting up conv8/dw
I1103 00:03:28.853176 14809 net.cpp:157] Top shape: 1 512 19 19 (184832)
I1103 00:03:28.853178 14809 net.cpp:165] Memory required for data: 68105216
I1103 00:03:28.853183 14809 layer_factory.hpp:77] Creating layer conv8/dw/relu
I1103 00:03:28.853188 14809 net.cpp:100] Creating Layer conv8/dw/relu
I1103 00:03:28.853193 14809 net.cpp:481] conv8/dw/relu <- conv8/dw
I1103 00:03:28.853197 14809 net.cpp:442] conv8/dw/relu -> conv8/dw (in-place)
I1103 00:03:28.854218 14809 net.cpp:150] Setting up conv8/dw/relu
I1103 00:03:28.854236 14809 net.cpp:157] Top shape: 1 512 19 19 (184832)
I1103 00:03:28.854239 14809 net.cpp:165] Memory required for data: 68844544
I1103 00:03:28.854243 14809 layer_factory.hpp:77] Creating layer conv8
I1103 00:03:28.854255 14809 net.cpp:100] Creating Layer conv8
I1103 00:03:28.854262 14809 net.cpp:481] conv8 <- conv8/dw
I1103 00:03:28.854269 14809 net.cpp:455] conv8 -> conv8
I1103 00:03:28.859288 14809 net.cpp:150] Setting up conv8
I1103 00:03:28.859308 14809 net.cpp:157] Top shape: 1 512 19 19 (184832)
I1103 00:03:28.859313 14809 net.cpp:165] Memory required for data: 69583872
I1103 00:03:28.859324 14809 layer_factory.hpp:77] Creating layer conv8/relu
I1103 00:03:28.859333 14809 net.cpp:100] Creating Layer conv8/relu
I1103 00:03:28.859341 14809 net.cpp:481] conv8/relu <- conv8
I1103 00:03:28.859346 14809 net.cpp:442] conv8/relu -> conv8 (in-place)
I1103 00:03:28.859681 14809 net.cpp:150] Setting up conv8/relu
I1103 00:03:28.859697 14809 net.cpp:157] Top shape: 1 512 19 19 (184832)
I1103 00:03:28.859700 14809 net.cpp:165] Memory required for data: 70323200
I1103 00:03:28.859704 14809 layer_factory.hpp:77] Creating layer conv9/dw
I1103 00:03:28.859714 14809 net.cpp:100] Creating Layer conv9/dw
I1103 00:03:28.859720 14809 net.cpp:481] conv9/dw <- conv8
I1103 00:03:28.859727 14809 net.cpp:455] conv9/dw -> conv9/dw
I1103 00:03:28.859802 14809 net.cpp:150] Setting up conv9/dw
I1103 00:03:28.859812 14809 net.cpp:157] Top shape: 1 512 19 19 (184832)
I1103 00:03:28.859814 14809 net.cpp:165] Memory required for data: 71062528
I1103 00:03:28.859819 14809 layer_factory.hpp:77] Creating layer conv9/dw/relu
I1103 00:03:28.859823 14809 net.cpp:100] Creating Layer conv9/dw/relu
I1103 00:03:28.859827 14809 net.cpp:481] conv9/dw/relu <- conv9/dw
I1103 00:03:28.859838 14809 net.cpp:442] conv9/dw/relu -> conv9/dw (in-place)
I1103 00:03:28.860860 14809 net.cpp:150] Setting up conv9/dw/relu
I1103 00:03:28.860878 14809 net.cpp:157] Top shape: 1 512 19 19 (184832)
I1103 00:03:28.860882 14809 net.cpp:165] Memory required for data: 71801856
I1103 00:03:28.860884 14809 layer_factory.hpp:77] Creating layer conv9
I1103 00:03:28.860895 14809 net.cpp:100] Creating Layer conv9
I1103 00:03:28.860898 14809 net.cpp:481] conv9 <- conv9/dw
I1103 00:03:28.860921 14809 net.cpp:455] conv9 -> conv9
I1103 00:03:28.865955 14809 net.cpp:150] Setting up conv9
I1103 00:03:28.865974 14809 net.cpp:157] Top shape: 1 512 19 19 (184832)
I1103 00:03:28.865978 14809 net.cpp:165] Memory required for data: 72541184
I1103 00:03:28.865983 14809 layer_factory.hpp:77] Creating layer conv9/relu
I1103 00:03:28.865988 14809 net.cpp:100] Creating Layer conv9/relu
I1103 00:03:28.865991 14809 net.cpp:481] conv9/relu <- conv9
I1103 00:03:28.865995 14809 net.cpp:442] conv9/relu -> conv9 (in-place)
I1103 00:03:28.866333 14809 net.cpp:150] Setting up conv9/relu
I1103 00:03:28.866350 14809 net.cpp:157] Top shape: 1 512 19 19 (184832)
I1103 00:03:28.866369 14809 net.cpp:165] Memory required for data: 73280512
I1103 00:03:28.866372 14809 layer_factory.hpp:77] Creating layer conv10/dw
I1103 00:03:28.866382 14809 net.cpp:100] Creating Layer conv10/dw
I1103 00:03:28.866389 14809 net.cpp:481] conv10/dw <- conv9
I1103 00:03:28.866396 14809 net.cpp:455] conv10/dw -> conv10/dw
I1103 00:03:28.866490 14809 net.cpp:150] Setting up conv10/dw
I1103 00:03:28.866500 14809 net.cpp:157] Top shape: 1 512 19 19 (184832)
I1103 00:03:28.866503 14809 net.cpp:165] Memory required for data: 74019840
I1103 00:03:28.866508 14809 layer_factory.hpp:77] Creating layer conv10/dw/relu
I1103 00:03:28.866513 14809 net.cpp:100] Creating Layer conv10/dw/relu
I1103 00:03:28.866514 14809 net.cpp:481] conv10/dw/relu <- conv10/dw
I1103 00:03:28.866519 14809 net.cpp:442] conv10/dw/relu -> conv10/dw (in-place)
I1103 00:03:28.867458 14809 net.cpp:150] Setting up conv10/dw/relu
I1103 00:03:28.867475 14809 net.cpp:157] Top shape: 1 512 19 19 (184832)
I1103 00:03:28.867478 14809 net.cpp:165] Memory required for data: 74759168
I1103 00:03:28.867482 14809 layer_factory.hpp:77] Creating layer conv10
I1103 00:03:28.867491 14809 net.cpp:100] Creating Layer conv10
I1103 00:03:28.867501 14809 net.cpp:481] conv10 <- conv10/dw
I1103 00:03:28.867508 14809 net.cpp:455] conv10 -> conv10
I1103 00:03:28.872678 14809 net.cpp:150] Setting up conv10
I1103 00:03:28.872700 14809 net.cpp:157] Top shape: 1 512 19 19 (184832)
I1103 00:03:28.872719 14809 net.cpp:165] Memory required for data: 75498496
I1103 00:03:28.872725 14809 layer_factory.hpp:77] Creating layer conv10/relu
I1103 00:03:28.872731 14809 net.cpp:100] Creating Layer conv10/relu
I1103 00:03:28.872735 14809 net.cpp:481] conv10/relu <- conv10
I1103 00:03:28.872740 14809 net.cpp:442] conv10/relu -> conv10 (in-place)
I1103 00:03:28.873682 14809 net.cpp:150] Setting up conv10/relu
I1103 00:03:28.873703 14809 net.cpp:157] Top shape: 1 512 19 19 (184832)
I1103 00:03:28.873705 14809 net.cpp:165] Memory required for data: 76237824
I1103 00:03:28.873708 14809 layer_factory.hpp:77] Creating layer conv11/dw
I1103 00:03:28.873718 14809 net.cpp:100] Creating Layer conv11/dw
I1103 00:03:28.873725 14809 net.cpp:481] conv11/dw <- conv10
I1103 00:03:28.873733 14809 net.cpp:455] conv11/dw -> conv11/dw
I1103 00:03:28.873803 14809 net.cpp:150] Setting up conv11/dw
I1103 00:03:28.873812 14809 net.cpp:157] Top shape: 1 512 19 19 (184832)
I1103 00:03:28.873814 14809 net.cpp:165] Memory required for data: 76977152
I1103 00:03:28.873819 14809 layer_factory.hpp:77] Creating layer conv11/dw/relu
I1103 00:03:28.873824 14809 net.cpp:100] Creating Layer conv11/dw/relu
I1103 00:03:28.873826 14809 net.cpp:481] conv11/dw/relu <- conv11/dw
I1103 00:03:28.873836 14809 net.cpp:442] conv11/dw/relu -> conv11/dw (in-place)
I1103 00:03:28.874119 14809 net.cpp:150] Setting up conv11/dw/relu
I1103 00:03:28.874146 14809 net.cpp:157] Top shape: 1 512 19 19 (184832)
I1103 00:03:28.874153 14809 net.cpp:165] Memory required for data: 77716480
I1103 00:03:28.874156 14809 layer_factory.hpp:77] Creating layer conv11
I1103 00:03:28.874166 14809 net.cpp:100] Creating Layer conv11
I1103 00:03:28.874171 14809 net.cpp:481] conv11 <- conv11/dw
I1103 00:03:28.874178 14809 net.cpp:455] conv11 -> conv11
I1103 00:03:28.879119 14809 net.cpp:150] Setting up conv11
I1103 00:03:28.879139 14809 net.cpp:157] Top shape: 1 512 19 19 (184832)
I1103 00:03:28.879142 14809 net.cpp:165] Memory required for data: 78455808
I1103 00:03:28.879148 14809 layer_factory.hpp:77] Creating layer conv11/relu
I1103 00:03:28.879156 14809 net.cpp:100] Creating Layer conv11/relu
I1103 00:03:28.879159 14809 net.cpp:481] conv11/relu <- conv11
I1103 00:03:28.879163 14809 net.cpp:442] conv11/relu -> conv11 (in-place)
I1103 00:03:28.880120 14809 net.cpp:150] Setting up conv11/relu
I1103 00:03:28.880139 14809 net.cpp:157] Top shape: 1 512 19 19 (184832)
I1103 00:03:28.880142 14809 net.cpp:165] Memory required for data: 79195136
I1103 00:03:28.880146 14809 layer_factory.hpp:77] Creating layer conv11_conv11/relu_0_split
I1103 00:03:28.880153 14809 net.cpp:100] Creating Layer conv11_conv11/relu_0_split
I1103 00:03:28.880183 14809 net.cpp:481] conv11_conv11/relu_0_split <- conv11
I1103 00:03:28.880190 14809 net.cpp:455] conv11_conv11/relu_0_split -> conv11_conv11/relu_0_split_0
I1103 00:03:28.880213 14809 net.cpp:455] conv11_conv11/relu_0_split -> conv11_conv11/relu_0_split_1
I1103 00:03:28.880237 14809 net.cpp:455] conv11_conv11/relu_0_split -> conv11_conv11/relu_0_split_2
I1103 00:03:28.880245 14809 net.cpp:455] conv11_conv11/relu_0_split -> conv11_conv11/relu_0_split_3
I1103 00:03:28.880252 14809 net.cpp:150] Setting up conv11_conv11/relu_0_split
I1103 00:03:28.880259 14809 net.cpp:157] Top shape: 1 512 19 19 (184832)
I1103 00:03:28.880264 14809 net.cpp:157] Top shape: 1 512 19 19 (184832)
I1103 00:03:28.880267 14809 net.cpp:157] Top shape: 1 512 19 19 (184832)
I1103 00:03:28.880270 14809 net.cpp:157] Top shape: 1 512 19 19 (184832)
I1103 00:03:28.880275 14809 net.cpp:165] Memory required for data: 82152448
I1103 00:03:28.880276 14809 layer_factory.hpp:77] Creating layer conv12/dw
I1103 00:03:28.880300 14809 net.cpp:100] Creating Layer conv12/dw
I1103 00:03:28.880306 14809 net.cpp:481] conv12/dw <- conv11_conv11/relu_0_split_0
I1103 00:03:28.880327 14809 net.cpp:455] conv12/dw -> conv12/dw
I1103 00:03:28.880410 14809 net.cpp:150] Setting up conv12/dw
I1103 00:03:28.880419 14809 net.cpp:157] Top shape: 1 512 10 10 (51200)
I1103 00:03:28.880421 14809 net.cpp:165] Memory required for data: 82357248
I1103 00:03:28.880426 14809 layer_factory.hpp:77] Creating layer conv12/dw/relu
I1103 00:03:28.880429 14809 net.cpp:100] Creating Layer conv12/dw/relu
I1103 00:03:28.880432 14809 net.cpp:481] conv12/dw/relu <- conv12/dw
I1103 00:03:28.880437 14809 net.cpp:442] conv12/dw/relu -> conv12/dw (in-place)
I1103 00:03:28.880734 14809 net.cpp:150] Setting up conv12/dw/relu
I1103 00:03:28.880750 14809 net.cpp:157] Top shape: 1 512 10 10 (51200)
I1103 00:03:28.880753 14809 net.cpp:165] Memory required for data: 82562048
I1103 00:03:28.880755 14809 layer_factory.hpp:77] Creating layer conv12
I1103 00:03:28.880767 14809 net.cpp:100] Creating Layer conv12
I1103 00:03:28.880774 14809 net.cpp:481] conv12 <- conv12/dw
I1103 00:03:28.880780 14809 net.cpp:455] conv12 -> conv12
I1103 00:03:28.888711 14809 net.cpp:150] Setting up conv12
I1103 00:03:28.888732 14809 net.cpp:157] Top shape: 1 1024 10 10 (102400)
I1103 00:03:28.888736 14809 net.cpp:165] Memory required for data: 82971648
I1103 00:03:28.888741 14809 layer_factory.hpp:77] Creating layer conv12/relu
I1103 00:03:28.888747 14809 net.cpp:100] Creating Layer conv12/relu
I1103 00:03:28.888751 14809 net.cpp:481] conv12/relu <- conv12
I1103 00:03:28.888757 14809 net.cpp:442] conv12/relu -> conv12 (in-place)
I1103 00:03:28.890868 14809 net.cpp:150] Setting up conv12/relu
I1103 00:03:28.890887 14809 net.cpp:157] Top shape: 1 1024 10 10 (102400)
I1103 00:03:28.890889 14809 net.cpp:165] Memory required for data: 83381248
I1103 00:03:28.890893 14809 layer_factory.hpp:77] Creating layer conv13/dw
I1103 00:03:28.890904 14809 net.cpp:100] Creating Layer conv13/dw
I1103 00:03:28.890913 14809 net.cpp:481] conv13/dw <- conv12
I1103 00:03:28.890923 14809 net.cpp:455] conv13/dw -> conv13/dw
I1103 00:03:28.891041 14809 net.cpp:150] Setting up conv13/dw
I1103 00:03:28.891052 14809 net.cpp:157] Top shape: 1 1024 10 10 (102400)
I1103 00:03:28.891053 14809 net.cpp:165] Memory required for data: 83790848
I1103 00:03:28.891058 14809 layer_factory.hpp:77] Creating layer conv13/dw/relu
I1103 00:03:28.891065 14809 net.cpp:100] Creating Layer conv13/dw/relu
I1103 00:03:28.891067 14809 net.cpp:481] conv13/dw/relu <- conv13/dw
I1103 00:03:28.891072 14809 net.cpp:442] conv13/dw/relu -> conv13/dw (in-place)
I1103 00:03:28.892096 14809 net.cpp:150] Setting up conv13/dw/relu
I1103 00:03:28.892114 14809 net.cpp:157] Top shape: 1 1024 10 10 (102400)
I1103 00:03:28.892117 14809 net.cpp:165] Memory required for data: 84200448
I1103 00:03:28.892120 14809 layer_factory.hpp:77] Creating layer conv13
I1103 00:03:28.892132 14809 net.cpp:100] Creating Layer conv13
I1103 00:03:28.892134 14809 net.cpp:481] conv13 <- conv13/dw
I1103 00:03:28.892143 14809 net.cpp:455] conv13 -> conv13
I1103 00:03:28.906395 14809 net.cpp:150] Setting up conv13
I1103 00:03:28.906421 14809 net.cpp:157] Top shape: 1 1024 10 10 (102400)
I1103 00:03:28.906425 14809 net.cpp:165] Memory required for data: 84610048
I1103 00:03:28.906433 14809 layer_factory.hpp:77] Creating layer conv13/relu
I1103 00:03:28.906441 14809 net.cpp:100] Creating Layer conv13/relu
I1103 00:03:28.906446 14809 net.cpp:481] conv13/relu <- conv13
I1103 00:03:28.906450 14809 net.cpp:442] conv13/relu -> conv13 (in-place)
I1103 00:03:28.906867 14809 net.cpp:150] Setting up conv13/relu
I1103 00:03:28.906886 14809 net.cpp:157] Top shape: 1 1024 10 10 (102400)
I1103 00:03:28.906889 14809 net.cpp:165] Memory required for data: 85019648
I1103 00:03:28.906893 14809 layer_factory.hpp:77] Creating layer conv13_conv13/relu_0_split
I1103 00:03:28.906898 14809 net.cpp:100] Creating Layer conv13_conv13/relu_0_split
I1103 00:03:28.906903 14809 net.cpp:481] conv13_conv13/relu_0_split <- conv13
I1103 00:03:28.906910 14809 net.cpp:455] conv13_conv13/relu_0_split -> conv13_conv13/relu_0_split_0
I1103 00:03:28.906927 14809 net.cpp:455] conv13_conv13/relu_0_split -> conv13_conv13/relu_0_split_1
I1103 00:03:28.906939 14809 net.cpp:455] conv13_conv13/relu_0_split -> conv13_conv13/relu_0_split_2
I1103 00:03:28.906949 14809 net.cpp:455] conv13_conv13/relu_0_split -> conv13_conv13/relu_0_split_3
I1103 00:03:28.906958 14809 net.cpp:150] Setting up conv13_conv13/relu_0_split
I1103 00:03:28.906965 14809 net.cpp:157] Top shape: 1 1024 10 10 (102400)
I1103 00:03:28.906968 14809 net.cpp:157] Top shape: 1 1024 10 10 (102400)
I1103 00:03:28.906971 14809 net.cpp:157] Top shape: 1 1024 10 10 (102400)
I1103 00:03:28.906975 14809 net.cpp:157] Top shape: 1 1024 10 10 (102400)
I1103 00:03:28.906977 14809 net.cpp:165] Memory required for data: 86658048
I1103 00:03:28.906980 14809 layer_factory.hpp:77] Creating layer conv14_1
I1103 00:03:28.906989 14809 net.cpp:100] Creating Layer conv14_1
I1103 00:03:28.906996 14809 net.cpp:481] conv14_1 <- conv13_conv13/relu_0_split_0
I1103 00:03:28.907002 14809 net.cpp:455] conv14_1 -> conv14_1
I1103 00:03:28.912685 14809 net.cpp:150] Setting up conv14_1
I1103 00:03:28.912708 14809 net.cpp:157] Top shape: 1 256 10 10 (25600)
I1103 00:03:28.912710 14809 net.cpp:165] Memory required for data: 86760448
I1103 00:03:28.912717 14809 layer_factory.hpp:77] Creating layer conv14_1/relu
I1103 00:03:28.912722 14809 net.cpp:100] Creating Layer conv14_1/relu
I1103 00:03:28.912725 14809 net.cpp:481] conv14_1/relu <- conv14_1
I1103 00:03:28.912731 14809 net.cpp:442] conv14_1/relu -> conv14_1 (in-place)
I1103 00:03:28.913705 14809 net.cpp:150] Setting up conv14_1/relu
I1103 00:03:28.913723 14809 net.cpp:157] Top shape: 1 256 10 10 (25600)
I1103 00:03:28.913727 14809 net.cpp:165] Memory required for data: 86862848
I1103 00:03:28.913730 14809 layer_factory.hpp:77] Creating layer conv14_2
I1103 00:03:28.913741 14809 net.cpp:100] Creating Layer conv14_2
I1103 00:03:28.913748 14809 net.cpp:481] conv14_2 <- conv14_1
I1103 00:03:28.913753 14809 net.cpp:455] conv14_2 -> conv14_2
I1103 00:03:28.930927 14809 net.cpp:150] Setting up conv14_2
I1103 00:03:28.930950 14809 net.cpp:157] Top shape: 1 512 5 5 (12800)
I1103 00:03:28.930953 14809 net.cpp:165] Memory required for data: 86914048
I1103 00:03:28.930960 14809 layer_factory.hpp:77] Creating layer conv14_2/relu
I1103 00:03:28.930965 14809 net.cpp:100] Creating Layer conv14_2/relu
I1103 00:03:28.930969 14809 net.cpp:481] conv14_2/relu <- conv14_2
I1103 00:03:28.930974 14809 net.cpp:442] conv14_2/relu -> conv14_2 (in-place)
I1103 00:03:28.931403 14809 net.cpp:150] Setting up conv14_2/relu
I1103 00:03:28.931421 14809 net.cpp:157] Top shape: 1 512 5 5 (12800)
I1103 00:03:28.931424 14809 net.cpp:165] Memory required for data: 86965248
I1103 00:03:28.931427 14809 layer_factory.hpp:77] Creating layer conv14_2_conv14_2/relu_0_split
I1103 00:03:28.931433 14809 net.cpp:100] Creating Layer conv14_2_conv14_2/relu_0_split
I1103 00:03:28.931437 14809 net.cpp:481] conv14_2_conv14_2/relu_0_split <- conv14_2
I1103 00:03:28.931442 14809 net.cpp:455] conv14_2_conv14_2/relu_0_split -> conv14_2_conv14_2/relu_0_split_0
I1103 00:03:28.931449 14809 net.cpp:455] conv14_2_conv14_2/relu_0_split -> conv14_2_conv14_2/relu_0_split_1
I1103 00:03:28.931454 14809 net.cpp:455] conv14_2_conv14_2/relu_0_split -> conv14_2_conv14_2/relu_0_split_2
I1103 00:03:28.931460 14809 net.cpp:455] conv14_2_conv14_2/relu_0_split -> conv14_2_conv14_2/relu_0_split_3
I1103 00:03:28.931466 14809 net.cpp:150] Setting up conv14_2_conv14_2/relu_0_split
I1103 00:03:28.931470 14809 net.cpp:157] Top shape: 1 512 5 5 (12800)
I1103 00:03:28.931473 14809 net.cpp:157] Top shape: 1 512 5 5 (12800)
I1103 00:03:28.931476 14809 net.cpp:157] Top shape: 1 512 5 5 (12800)
I1103 00:03:28.931480 14809 net.cpp:157] Top shape: 1 512 5 5 (12800)
I1103 00:03:28.931483 14809 net.cpp:165] Memory required for data: 87170048
I1103 00:03:28.931485 14809 layer_factory.hpp:77] Creating layer conv15_1
I1103 00:03:28.931496 14809 net.cpp:100] Creating Layer conv15_1
I1103 00:03:28.931504 14809 net.cpp:481] conv15_1 <- conv14_2_conv14_2/relu_0_split_0
I1103 00:03:28.931509 14809 net.cpp:455] conv15_1 -> conv15_1
I1103 00:03:28.934774 14809 net.cpp:150] Setting up conv15_1
I1103 00:03:28.934795 14809 net.cpp:157] Top shape: 1 128 5 5 (3200)
I1103 00:03:28.934799 14809 net.cpp:165] Memory required for data: 87182848
I1103 00:03:28.934805 14809 layer_factory.hpp:77] Creating layer conv15_1/relu
I1103 00:03:28.934835 14809 net.cpp:100] Creating Layer conv15_1/relu
I1103 00:03:28.934839 14809 net.cpp:481] conv15_1/relu <- conv15_1
I1103 00:03:28.934844 14809 net.cpp:442] conv15_1/relu -> conv15_1 (in-place)
I1103 00:03:28.935876 14809 net.cpp:150] Setting up conv15_1/relu
I1103 00:03:28.935899 14809 net.cpp:157] Top shape: 1 128 5 5 (3200)
I1103 00:03:28.935901 14809 net.cpp:165] Memory required for data: 87195648
I1103 00:03:28.935905 14809 layer_factory.hpp:77] Creating layer conv15_2
I1103 00:03:28.935915 14809 net.cpp:100] Creating Layer conv15_2
I1103 00:03:28.935920 14809 net.cpp:481] conv15_2 <- conv15_1
I1103 00:03:28.935925 14809 net.cpp:455] conv15_2 -> conv15_2
I1103 00:03:28.941625 14809 net.cpp:150] Setting up conv15_2
I1103 00:03:28.941646 14809 net.cpp:157] Top shape: 1 256 3 3 (2304)
I1103 00:03:28.941649 14809 net.cpp:165] Memory required for data: 87204864
I1103 00:03:28.941655 14809 layer_factory.hpp:77] Creating layer conv15_2/relu
I1103 00:03:28.941661 14809 net.cpp:100] Creating Layer conv15_2/relu
I1103 00:03:28.941664 14809 net.cpp:481] conv15_2/relu <- conv15_2
I1103 00:03:28.941670 14809 net.cpp:442] conv15_2/relu -> conv15_2 (in-place)
I1103 00:03:28.942664 14809 net.cpp:150] Setting up conv15_2/relu
I1103 00:03:28.942698 14809 net.cpp:157] Top shape: 1 256 3 3 (2304)
I1103 00:03:28.942701 14809 net.cpp:165] Memory required for data: 87214080
I1103 00:03:28.942704 14809 layer_factory.hpp:77] Creating layer conv15_2_conv15_2/relu_0_split
I1103 00:03:28.942710 14809 net.cpp:100] Creating Layer conv15_2_conv15_2/relu_0_split
I1103 00:03:28.942713 14809 net.cpp:481] conv15_2_conv15_2/relu_0_split <- conv15_2
I1103 00:03:28.942720 14809 net.cpp:455] conv15_2_conv15_2/relu_0_split -> conv15_2_conv15_2/relu_0_split_0
I1103 00:03:28.942728 14809 net.cpp:455] conv15_2_conv15_2/relu_0_split -> conv15_2_conv15_2/relu_0_split_1
I1103 00:03:28.942734 14809 net.cpp:455] conv15_2_conv15_2/relu_0_split -> conv15_2_conv15_2/relu_0_split_2
I1103 00:03:28.942737 14809 net.cpp:455] conv15_2_conv15_2/relu_0_split -> conv15_2_conv15_2/relu_0_split_3
I1103 00:03:28.942744 14809 net.cpp:150] Setting up conv15_2_conv15_2/relu_0_split
I1103 00:03:28.942752 14809 net.cpp:157] Top shape: 1 256 3 3 (2304)
I1103 00:03:28.942755 14809 net.cpp:157] Top shape: 1 256 3 3 (2304)
I1103 00:03:28.942759 14809 net.cpp:157] Top shape: 1 256 3 3 (2304)
I1103 00:03:28.942760 14809 net.cpp:157] Top shape: 1 256 3 3 (2304)
I1103 00:03:28.942762 14809 net.cpp:165] Memory required for data: 87250944
I1103 00:03:28.942765 14809 layer_factory.hpp:77] Creating layer conv16_1
I1103 00:03:28.942776 14809 net.cpp:100] Creating Layer conv16_1
I1103 00:03:28.942781 14809 net.cpp:481] conv16_1 <- conv15_2_conv15_2/relu_0_split_0
I1103 00:03:28.942803 14809 net.cpp:455] conv16_1 -> conv16_1
I1103 00:03:28.945587 14809 net.cpp:150] Setting up conv16_1
I1103 00:03:28.945607 14809 net.cpp:157] Top shape: 1 128 3 3 (1152)
I1103 00:03:28.945611 14809 net.cpp:165] Memory required for data: 87255552
I1103 00:03:28.945616 14809 layer_factory.hpp:77] Creating layer conv16_1/relu
I1103 00:03:28.945621 14809 net.cpp:100] Creating Layer conv16_1/relu
I1103 00:03:28.945624 14809 net.cpp:481] conv16_1/relu <- conv16_1
I1103 00:03:28.945628 14809 net.cpp:442] conv16_1/relu -> conv16_1 (in-place)
I1103 00:03:28.945955 14809 net.cpp:150] Setting up conv16_1/relu
I1103 00:03:28.945972 14809 net.cpp:157] Top shape: 1 128 3 3 (1152)
I1103 00:03:28.945976 14809 net.cpp:165] Memory required for data: 87260160
I1103 00:03:28.945978 14809 layer_factory.hpp:77] Creating layer conv16_2
I1103 00:03:28.945986 14809 net.cpp:100] Creating Layer conv16_2
I1103 00:03:28.945992 14809 net.cpp:481] conv16_2 <- conv16_1
I1103 00:03:28.945999 14809 net.cpp:455] conv16_2 -> conv16_2
I1103 00:03:28.951417 14809 net.cpp:150] Setting up conv16_2
I1103 00:03:28.951436 14809 net.cpp:157] Top shape: 1 256 2 2 (1024)
I1103 00:03:28.951441 14809 net.cpp:165] Memory required for data: 87264256
I1103 00:03:28.951455 14809 layer_factory.hpp:77] Creating layer conv16_2/relu
I1103 00:03:28.951462 14809 net.cpp:100] Creating Layer conv16_2/relu
I1103 00:03:28.951467 14809 net.cpp:481] conv16_2/relu <- conv16_2
I1103 00:03:28.951470 14809 net.cpp:442] conv16_2/relu -> conv16_2 (in-place)
I1103 00:03:28.952592 14809 net.cpp:150] Setting up conv16_2/relu
I1103 00:03:28.952611 14809 net.cpp:157] Top shape: 1 256 2 2 (1024)
I1103 00:03:28.952615 14809 net.cpp:165] Memory required for data: 87268352
I1103 00:03:28.952617 14809 layer_factory.hpp:77] Creating layer conv16_2_conv16_2/relu_0_split
I1103 00:03:28.952623 14809 net.cpp:100] Creating Layer conv16_2_conv16_2/relu_0_split
I1103 00:03:28.952627 14809 net.cpp:481] conv16_2_conv16_2/relu_0_split <- conv16_2
I1103 00:03:28.952633 14809 net.cpp:455] conv16_2_conv16_2/relu_0_split -> conv16_2_conv16_2/relu_0_split_0
I1103 00:03:28.952641 14809 net.cpp:455] conv16_2_conv16_2/relu_0_split -> conv16_2_conv16_2/relu_0_split_1
I1103 00:03:28.952647 14809 net.cpp:455] conv16_2_conv16_2/relu_0_split -> conv16_2_conv16_2/relu_0_split_2
I1103 00:03:28.952651 14809 net.cpp:455] conv16_2_conv16_2/relu_0_split -> conv16_2_conv16_2/relu_0_split_3
I1103 00:03:28.952659 14809 net.cpp:150] Setting up conv16_2_conv16_2/relu_0_split
I1103 00:03:28.952667 14809 net.cpp:157] Top shape: 1 256 2 2 (1024)
I1103 00:03:28.952670 14809 net.cpp:157] Top shape: 1 256 2 2 (1024)
I1103 00:03:28.952673 14809 net.cpp:157] Top shape: 1 256 2 2 (1024)
I1103 00:03:28.952677 14809 net.cpp:157] Top shape: 1 256 2 2 (1024)
I1103 00:03:28.952678 14809 net.cpp:165] Memory required for data: 87284736
I1103 00:03:28.952680 14809 layer_factory.hpp:77] Creating layer conv17_1
I1103 00:03:28.952704 14809 net.cpp:100] Creating Layer conv17_1
I1103 00:03:28.952709 14809 net.cpp:481] conv17_1 <- conv16_2_conv16_2/relu_0_split_0
I1103 00:03:28.952715 14809 net.cpp:455] conv17_1 -> conv17_1
I1103 00:03:28.956224 14809 net.cpp:150] Setting up conv17_1
I1103 00:03:28.956248 14809 net.cpp:157] Top shape: 1 64 2 2 (256)
I1103 00:03:28.956252 14809 net.cpp:165] Memory required for data: 87285760
I1103 00:03:28.956259 14809 layer_factory.hpp:77] Creating layer conv17_1/relu
I1103 00:03:28.956266 14809 net.cpp:100] Creating Layer conv17_1/relu
I1103 00:03:28.956269 14809 net.cpp:481] conv17_1/relu <- conv17_1
I1103 00:03:28.956274 14809 net.cpp:442] conv17_1/relu -> conv17_1 (in-place)
I1103 00:03:28.956625 14809 net.cpp:150] Setting up conv17_1/relu
I1103 00:03:28.956640 14809 net.cpp:157] Top shape: 1 64 2 2 (256)
I1103 00:03:28.956643 14809 net.cpp:165] Memory required for data: 87286784
I1103 00:03:28.956646 14809 layer_factory.hpp:77] Creating layer conv17_2
I1103 00:03:28.956655 14809 net.cpp:100] Creating Layer conv17_2
I1103 00:03:28.956676 14809 net.cpp:481] conv17_2 <- conv17_1
I1103 00:03:28.956681 14809 net.cpp:455] conv17_2 -> conv17_2
I1103 00:03:28.959888 14809 net.cpp:150] Setting up conv17_2
I1103 00:03:28.959908 14809 net.cpp:157] Top shape: 1 128 1 1 (128)
I1103 00:03:28.959910 14809 net.cpp:165] Memory required for data: 87287296
I1103 00:03:28.959916 14809 layer_factory.hpp:77] Creating layer conv17_2/relu
I1103 00:03:28.959923 14809 net.cpp:100] Creating Layer conv17_2/relu
I1103 00:03:28.959925 14809 net.cpp:481] conv17_2/relu <- conv17_2
I1103 00:03:28.959931 14809 net.cpp:442] conv17_2/relu -> conv17_2 (in-place)
I1103 00:03:28.960954 14809 net.cpp:150] Setting up conv17_2/relu
I1103 00:03:28.960973 14809 net.cpp:157] Top shape: 1 128 1 1 (128)
I1103 00:03:28.960975 14809 net.cpp:165] Memory required for data: 87287808
I1103 00:03:28.960978 14809 layer_factory.hpp:77] Creating layer conv17_2_conv17_2/relu_0_split
I1103 00:03:28.960984 14809 net.cpp:100] Creating Layer conv17_2_conv17_2/relu_0_split
I1103 00:03:28.960988 14809 net.cpp:481] conv17_2_conv17_2/relu_0_split <- conv17_2
I1103 00:03:28.960994 14809 net.cpp:455] conv17_2_conv17_2/relu_0_split -> conv17_2_conv17_2/relu_0_split_0
I1103 00:03:28.961000 14809 net.cpp:455] conv17_2_conv17_2/relu_0_split -> conv17_2_conv17_2/relu_0_split_1
I1103 00:03:28.961017 14809 net.cpp:455] conv17_2_conv17_2/relu_0_split -> conv17_2_conv17_2/relu_0_split_2
I1103 00:03:28.961030 14809 net.cpp:150] Setting up conv17_2_conv17_2/relu_0_split
I1103 00:03:28.961033 14809 net.cpp:157] Top shape: 1 128 1 1 (128)
I1103 00:03:28.961036 14809 net.cpp:157] Top shape: 1 128 1 1 (128)
I1103 00:03:28.961041 14809 net.cpp:157] Top shape: 1 128 1 1 (128)
I1103 00:03:28.961043 14809 net.cpp:165] Memory required for data: 87289344
I1103 00:03:28.961045 14809 layer_factory.hpp:77] Creating layer conv11_mbox_loc
I1103 00:03:28.961053 14809 net.cpp:100] Creating Layer conv11_mbox_loc
I1103 00:03:28.961060 14809 net.cpp:481] conv11_mbox_loc <- conv11_conv11/relu_0_split_1
I1103 00:03:28.961069 14809 net.cpp:455] conv11_mbox_loc -> conv11_mbox_loc
I1103 00:03:28.963515 14809 net.cpp:150] Setting up conv11_mbox_loc
I1103 00:03:28.963536 14809 net.cpp:157] Top shape: 1 12 19 19 (4332)
I1103 00:03:28.963538 14809 net.cpp:165] Memory required for data: 87306672
I1103 00:03:28.963544 14809 layer_factory.hpp:77] Creating layer conv11_mbox_loc_perm
I1103 00:03:28.963553 14809 net.cpp:100] Creating Layer conv11_mbox_loc_perm
I1103 00:03:28.963557 14809 net.cpp:481] conv11_mbox_loc_perm <- conv11_mbox_loc
I1103 00:03:28.963565 14809 net.cpp:455] conv11_mbox_loc_perm -> conv11_mbox_loc_perm
I1103 00:03:28.963577 14809 net.cpp:150] Setting up conv11_mbox_loc_perm
I1103 00:03:28.963585 14809 net.cpp:157] Top shape: 1 19 19 12 (4332)
I1103 00:03:28.963588 14809 net.cpp:165] Memory required for data: 87324000
I1103 00:03:28.963590 14809 layer_factory.hpp:77] Creating layer conv11_mbox_loc_flat
I1103 00:03:28.963595 14809 net.cpp:100] Creating Layer conv11_mbox_loc_flat
I1103 00:03:28.963600 14809 net.cpp:481] conv11_mbox_loc_flat <- conv11_mbox_loc_perm
I1103 00:03:28.963605 14809 net.cpp:455] conv11_mbox_loc_flat -> conv11_mbox_loc_flat
I1103 00:03:28.963623 14809 net.cpp:150] Setting up conv11_mbox_loc_flat
I1103 00:03:28.963625 14809 net.cpp:157] Top shape: 1 4332 (4332)
I1103 00:03:28.963627 14809 net.cpp:165] Memory required for data: 87341328
I1103 00:03:28.963629 14809 layer_factory.hpp:77] Creating layer conv11_mbox_conf_new
I1103 00:03:28.963639 14809 net.cpp:100] Creating Layer conv11_mbox_conf_new
I1103 00:03:28.963641 14809 net.cpp:481] conv11_mbox_conf_new <- conv11_conv11/relu_0_split_2
I1103 00:03:28.963647 14809 net.cpp:455] conv11_mbox_conf_new -> conv11_mbox_conf
I1103 00:03:28.966441 14809 net.cpp:150] Setting up conv11_mbox_conf_new
I1103 00:03:28.966461 14809 net.cpp:157] Top shape: 1 63 19 19 (22743)
I1103 00:03:28.966464 14809 net.cpp:165] Memory required for data: 87432300
I1103 00:03:28.966470 14809 layer_factory.hpp:77] Creating layer conv11_mbox_conf_perm
I1103 00:03:28.966480 14809 net.cpp:100] Creating Layer conv11_mbox_conf_perm
I1103 00:03:28.966488 14809 net.cpp:481] conv11_mbox_conf_perm <- conv11_mbox_conf
I1103 00:03:28.966493 14809 net.cpp:455] conv11_mbox_conf_perm -> conv11_mbox_conf_perm
I1103 00:03:28.966506 14809 net.cpp:150] Setting up conv11_mbox_conf_perm
I1103 00:03:28.966512 14809 net.cpp:157] Top shape: 1 19 19 63 (22743)
I1103 00:03:28.966514 14809 net.cpp:165] Memory required for data: 87523272
I1103 00:03:28.966517 14809 layer_factory.hpp:77] Creating layer conv11_mbox_conf_flat
I1103 00:03:28.966521 14809 net.cpp:100] Creating Layer conv11_mbox_conf_flat
I1103 00:03:28.966526 14809 net.cpp:481] conv11_mbox_conf_flat <- conv11_mbox_conf_perm
I1103 00:03:28.966531 14809 net.cpp:455] conv11_mbox_conf_flat -> conv11_mbox_conf_flat
I1103 00:03:28.966536 14809 net.cpp:150] Setting up conv11_mbox_conf_flat
I1103 00:03:28.966542 14809 net.cpp:157] Top shape: 1 22743 (22743)
I1103 00:03:28.966544 14809 net.cpp:165] Memory required for data: 87614244
I1103 00:03:28.966547 14809 layer_factory.hpp:77] Creating layer conv11_mbox_priorbox
I1103 00:03:28.966557 14809 net.cpp:100] Creating Layer conv11_mbox_priorbox
I1103 00:03:28.966562 14809 net.cpp:481] conv11_mbox_priorbox <- conv11_conv11/relu_0_split_3
I1103 00:03:28.966567 14809 net.cpp:481] conv11_mbox_priorbox <- data_input_0_split_1
I1103 00:03:28.966574 14809 net.cpp:455] conv11_mbox_priorbox -> conv11_mbox_priorbox
I1103 00:03:28.966581 14809 net.cpp:150] Setting up conv11_mbox_priorbox
I1103 00:03:28.966586 14809 net.cpp:157] Top shape: 1 2 4332 (8664)
I1103 00:03:28.966588 14809 net.cpp:165] Memory required for data: 87648900
I1103 00:03:28.966590 14809 layer_factory.hpp:77] Creating layer conv13_mbox_loc
I1103 00:03:28.966599 14809 net.cpp:100] Creating Layer conv13_mbox_loc
I1103 00:03:28.966604 14809 net.cpp:481] conv13_mbox_loc <- conv13_conv13/relu_0_split_1
I1103 00:03:28.966611 14809 net.cpp:455] conv13_mbox_loc -> conv13_mbox_loc
I1103 00:03:28.969342 14809 net.cpp:150] Setting up conv13_mbox_loc
I1103 00:03:28.969360 14809 net.cpp:157] Top shape: 1 24 10 10 (2400)
I1103 00:03:28.969363 14809 net.cpp:165] Memory required for data: 87658500
I1103 00:03:28.969369 14809 layer_factory.hpp:77] Creating layer conv13_mbox_loc_perm
I1103 00:03:28.969377 14809 net.cpp:100] Creating Layer conv13_mbox_loc_perm
I1103 00:03:28.969380 14809 net.cpp:481] conv13_mbox_loc_perm <- conv13_mbox_loc
I1103 00:03:28.969384 14809 net.cpp:455] conv13_mbox_loc_perm -> conv13_mbox_loc_perm
I1103 00:03:28.969398 14809 net.cpp:150] Setting up conv13_mbox_loc_perm
I1103 00:03:28.969400 14809 net.cpp:157] Top shape: 1 10 10 24 (2400)
I1103 00:03:28.969404 14809 net.cpp:165] Memory required for data: 87668100
I1103 00:03:28.969406 14809 layer_factory.hpp:77] Creating layer conv13_mbox_loc_flat
I1103 00:03:28.969426 14809 net.cpp:100] Creating Layer conv13_mbox_loc_flat
I1103 00:03:28.969434 14809 net.cpp:481] conv13_mbox_loc_flat <- conv13_mbox_loc_perm
I1103 00:03:28.969439 14809 net.cpp:455] conv13_mbox_loc_flat -> conv13_mbox_loc_flat
I1103 00:03:28.969445 14809 net.cpp:150] Setting up conv13_mbox_loc_flat
I1103 00:03:28.969450 14809 net.cpp:157] Top shape: 1 2400 (2400)
I1103 00:03:28.969452 14809 net.cpp:165] Memory required for data: 87677700
I1103 00:03:28.969470 14809 layer_factory.hpp:77] Creating layer conv13_mbox_conf_new
I1103 00:03:28.969494 14809 net.cpp:100] Creating Layer conv13_mbox_conf_new
I1103 00:03:28.969497 14809 net.cpp:481] conv13_mbox_conf_new <- conv13_conv13/relu_0_split_2
I1103 00:03:28.969503 14809 net.cpp:455] conv13_mbox_conf_new -> conv13_mbox_conf
I1103 00:03:28.973471 14809 net.cpp:150] Setting up conv13_mbox_conf_new
I1103 00:03:28.973491 14809 net.cpp:157] Top shape: 1 126 10 10 (12600)
I1103 00:03:28.973495 14809 net.cpp:165] Memory required for data: 87728100
I1103 00:03:28.973500 14809 layer_factory.hpp:77] Creating layer conv13_mbox_conf_perm
I1103 00:03:28.973508 14809 net.cpp:100] Creating Layer conv13_mbox_conf_perm
I1103 00:03:28.973511 14809 net.cpp:481] conv13_mbox_conf_perm <- conv13_mbox_conf
I1103 00:03:28.973517 14809 net.cpp:455] conv13_mbox_conf_perm -> conv13_mbox_conf_perm
I1103 00:03:28.973529 14809 net.cpp:150] Setting up conv13_mbox_conf_perm
I1103 00:03:28.973532 14809 net.cpp:157] Top shape: 1 10 10 126 (12600)
I1103 00:03:28.973536 14809 net.cpp:165] Memory required for data: 87778500
I1103 00:03:28.973538 14809 layer_factory.hpp:77] Creating layer conv13_mbox_conf_flat
I1103 00:03:28.973542 14809 net.cpp:100] Creating Layer conv13_mbox_conf_flat
I1103 00:03:28.973551 14809 net.cpp:481] conv13_mbox_conf_flat <- conv13_mbox_conf_perm
I1103 00:03:28.973556 14809 net.cpp:455] conv13_mbox_conf_flat -> conv13_mbox_conf_flat
I1103 00:03:28.973562 14809 net.cpp:150] Setting up conv13_mbox_conf_flat
I1103 00:03:28.973565 14809 net.cpp:157] Top shape: 1 12600 (12600)
I1103 00:03:28.973567 14809 net.cpp:165] Memory required for data: 87828900
I1103 00:03:28.973569 14809 layer_factory.hpp:77] Creating layer conv13_mbox_priorbox
I1103 00:03:28.973575 14809 net.cpp:100] Creating Layer conv13_mbox_priorbox
I1103 00:03:28.973580 14809 net.cpp:481] conv13_mbox_priorbox <- conv13_conv13/relu_0_split_3
I1103 00:03:28.973585 14809 net.cpp:481] conv13_mbox_priorbox <- data_input_0_split_2
I1103 00:03:28.973589 14809 net.cpp:455] conv13_mbox_priorbox -> conv13_mbox_priorbox
I1103 00:03:28.973598 14809 net.cpp:150] Setting up conv13_mbox_priorbox
I1103 00:03:28.973604 14809 net.cpp:157] Top shape: 1 2 2400 (4800)
I1103 00:03:28.973606 14809 net.cpp:165] Memory required for data: 87848100
I1103 00:03:28.973608 14809 layer_factory.hpp:77] Creating layer conv14_2_mbox_loc
I1103 00:03:28.973616 14809 net.cpp:100] Creating Layer conv14_2_mbox_loc
I1103 00:03:28.973621 14809 net.cpp:481] conv14_2_mbox_loc <- conv14_2_conv14_2/relu_0_split_1
I1103 00:03:28.973626 14809 net.cpp:455] conv14_2_mbox_loc -> conv14_2_mbox_loc
I1103 00:03:28.976089 14809 net.cpp:150] Setting up conv14_2_mbox_loc
I1103 00:03:28.976114 14809 net.cpp:157] Top shape: 1 24 5 5 (600)
I1103 00:03:28.976119 14809 net.cpp:165] Memory required for data: 87850500
I1103 00:03:28.976127 14809 layer_factory.hpp:77] Creating layer conv14_2_mbox_loc_perm
I1103 00:03:28.976140 14809 net.cpp:100] Creating Layer conv14_2_mbox_loc_perm
I1103 00:03:28.976145 14809 net.cpp:481] conv14_2_mbox_loc_perm <- conv14_2_mbox_loc
I1103 00:03:28.976155 14809 net.cpp:455] conv14_2_mbox_loc_perm -> conv14_2_mbox_loc_perm
I1103 00:03:28.976178 14809 net.cpp:150] Setting up conv14_2_mbox_loc_perm
I1103 00:03:28.976188 14809 net.cpp:157] Top shape: 1 5 5 24 (600)
I1103 00:03:28.976209 14809 net.cpp:165] Memory required for data: 87852900
I1103 00:03:28.976213 14809 layer_factory.hpp:77] Creating layer conv14_2_mbox_loc_flat
I1103 00:03:28.976244 14809 net.cpp:100] Creating Layer conv14_2_mbox_loc_flat
I1103 00:03:28.976250 14809 net.cpp:481] conv14_2_mbox_loc_flat <- conv14_2_mbox_loc_perm
I1103 00:03:28.976275 14809 net.cpp:455] conv14_2_mbox_loc_flat -> conv14_2_mbox_loc_flat
I1103 00:03:28.976286 14809 net.cpp:150] Setting up conv14_2_mbox_loc_flat
I1103 00:03:28.976291 14809 net.cpp:157] Top shape: 1 600 (600)
I1103 00:03:28.976294 14809 net.cpp:165] Memory required for data: 87855300
I1103 00:03:28.976295 14809 layer_factory.hpp:77] Creating layer conv14_2_mbox_conf_new
I1103 00:03:28.976320 14809 net.cpp:100] Creating Layer conv14_2_mbox_conf_new
I1103 00:03:28.976343 14809 net.cpp:481] conv14_2_mbox_conf_new <- conv14_2_conv14_2/relu_0_split_2
I1103 00:03:28.976356 14809 net.cpp:455] conv14_2_mbox_conf_new -> conv14_2_mbox_conf
I1103 00:03:28.979485 14809 net.cpp:150] Setting up conv14_2_mbox_conf_new
I1103 00:03:28.979506 14809 net.cpp:157] Top shape: 1 126 5 5 (3150)
I1103 00:03:28.979508 14809 net.cpp:165] Memory required for data: 87867900
I1103 00:03:28.979514 14809 layer_factory.hpp:77] Creating layer conv14_2_mbox_conf_perm
I1103 00:03:28.979521 14809 net.cpp:100] Creating Layer conv14_2_mbox_conf_perm
I1103 00:03:28.979524 14809 net.cpp:481] conv14_2_mbox_conf_perm <- conv14_2_mbox_conf
I1103 00:03:28.979531 14809 net.cpp:455] conv14_2_mbox_conf_perm -> conv14_2_mbox_conf_perm
I1103 00:03:28.979542 14809 net.cpp:150] Setting up conv14_2_mbox_conf_perm
I1103 00:03:28.979545 14809 net.cpp:157] Top shape: 1 5 5 126 (3150)
I1103 00:03:28.979548 14809 net.cpp:165] Memory required for data: 87880500
I1103 00:03:28.979552 14809 layer_factory.hpp:77] Creating layer conv14_2_mbox_conf_flat
I1103 00:03:28.979557 14809 net.cpp:100] Creating Layer conv14_2_mbox_conf_flat
I1103 00:03:28.979564 14809 net.cpp:481] conv14_2_mbox_conf_flat <- conv14_2_mbox_conf_perm
I1103 00:03:28.979568 14809 net.cpp:455] conv14_2_mbox_conf_flat -> conv14_2_mbox_conf_flat
I1103 00:03:28.979574 14809 net.cpp:150] Setting up conv14_2_mbox_conf_flat
I1103 00:03:28.979578 14809 net.cpp:157] Top shape: 1 3150 (3150)
I1103 00:03:28.979579 14809 net.cpp:165] Memory required for data: 87893100
I1103 00:03:28.979581 14809 layer_factory.hpp:77] Creating layer conv14_2_mbox_priorbox
I1103 00:03:28.979588 14809 net.cpp:100] Creating Layer conv14_2_mbox_priorbox
I1103 00:03:28.979590 14809 net.cpp:481] conv14_2_mbox_priorbox <- conv14_2_conv14_2/relu_0_split_3
I1103 00:03:28.979594 14809 net.cpp:481] conv14_2_mbox_priorbox <- data_input_0_split_3
I1103 00:03:28.979600 14809 net.cpp:455] conv14_2_mbox_priorbox -> conv14_2_mbox_priorbox
I1103 00:03:28.979609 14809 net.cpp:150] Setting up conv14_2_mbox_priorbox
I1103 00:03:28.979612 14809 net.cpp:157] Top shape: 1 2 600 (1200)
I1103 00:03:28.979614 14809 net.cpp:165] Memory required for data: 87897900
I1103 00:03:28.979616 14809 layer_factory.hpp:77] Creating layer conv15_2_mbox_loc
I1103 00:03:28.979640 14809 net.cpp:100] Creating Layer conv15_2_mbox_loc
I1103 00:03:28.979645 14809 net.cpp:481] conv15_2_mbox_loc <- conv15_2_conv15_2/relu_0_split_1
I1103 00:03:28.979667 14809 net.cpp:455] conv15_2_mbox_loc -> conv15_2_mbox_loc
I1103 00:03:28.982046 14809 net.cpp:150] Setting up conv15_2_mbox_loc
I1103 00:03:28.982067 14809 net.cpp:157] Top shape: 1 24 3 3 (216)
I1103 00:03:28.982072 14809 net.cpp:165] Memory required for data: 87898764
I1103 00:03:28.982082 14809 layer_factory.hpp:77] Creating layer conv15_2_mbox_loc_perm
I1103 00:03:28.982091 14809 net.cpp:100] Creating Layer conv15_2_mbox_loc_perm
I1103 00:03:28.982096 14809 net.cpp:481] conv15_2_mbox_loc_perm <- conv15_2_mbox_loc
I1103 00:03:28.982106 14809 net.cpp:455] conv15_2_mbox_loc_perm -> conv15_2_mbox_loc_perm
I1103 00:03:28.982143 14809 net.cpp:150] Setting up conv15_2_mbox_loc_perm
I1103 00:03:28.982158 14809 net.cpp:157] Top shape: 1 3 3 24 (216)
I1103 00:03:28.982163 14809 net.cpp:165] Memory required for data: 87899628
I1103 00:03:28.982167 14809 layer_factory.hpp:77] Creating layer conv15_2_mbox_loc_flat
I1103 00:03:28.982178 14809 net.cpp:100] Creating Layer conv15_2_mbox_loc_flat
I1103 00:03:28.982187 14809 net.cpp:481] conv15_2_mbox_loc_flat <- conv15_2_mbox_loc_perm
I1103 00:03:28.982193 14809 net.cpp:455] conv15_2_mbox_loc_flat -> conv15_2_mbox_loc_flat
I1103 00:03:28.982209 14809 net.cpp:150] Setting up conv15_2_mbox_loc_flat
I1103 00:03:28.982219 14809 net.cpp:157] Top shape: 1 216 (216)
I1103 00:03:28.982223 14809 net.cpp:165] Memory required for data: 87900492
I1103 00:03:28.982229 14809 layer_factory.hpp:77] Creating layer conv15_2_mbox_conf_new
I1103 00:03:28.982239 14809 net.cpp:100] Creating Layer conv15_2_mbox_conf_new
I1103 00:03:28.982242 14809 net.cpp:481] conv15_2_mbox_conf_new <- conv15_2_conv15_2/relu_0_split_2
I1103 00:03:28.982247 14809 net.cpp:455] conv15_2_mbox_conf_new -> conv15_2_mbox_conf
I1103 00:03:28.984804 14809 net.cpp:150] Setting up conv15_2_mbox_conf_new
I1103 00:03:28.984822 14809 net.cpp:157] Top shape: 1 126 3 3 (1134)
I1103 00:03:28.984825 14809 net.cpp:165] Memory required for data: 87905028
I1103 00:03:28.984832 14809 layer_factory.hpp:77] Creating layer conv15_2_mbox_conf_perm
I1103 00:03:28.984838 14809 net.cpp:100] Creating Layer conv15_2_mbox_conf_perm
I1103 00:03:28.984840 14809 net.cpp:481] conv15_2_mbox_conf_perm <- conv15_2_mbox_conf
I1103 00:03:28.984848 14809 net.cpp:455] conv15_2_mbox_conf_perm -> conv15_2_mbox_conf_perm
I1103 00:03:28.984863 14809 net.cpp:150] Setting up conv15_2_mbox_conf_perm
I1103 00:03:28.984875 14809 net.cpp:157] Top shape: 1 3 3 126 (1134)
I1103 00:03:28.984884 14809 net.cpp:165] Memory required for data: 87909564
I1103 00:03:28.984887 14809 layer_factory.hpp:77] Creating layer conv15_2_mbox_conf_flat
I1103 00:03:28.984896 14809 net.cpp:100] Creating Layer conv15_2_mbox_conf_flat
I1103 00:03:28.984901 14809 net.cpp:481] conv15_2_mbox_conf_flat <- conv15_2_mbox_conf_perm
I1103 00:03:28.984925 14809 net.cpp:455] conv15_2_mbox_conf_flat -> conv15_2_mbox_conf_flat
I1103 00:03:28.984941 14809 net.cpp:150] Setting up conv15_2_mbox_conf_flat
I1103 00:03:28.984947 14809 net.cpp:157] Top shape: 1 1134 (1134)
I1103 00:03:28.984948 14809 net.cpp:165] Memory required for data: 87914100
I1103 00:03:28.984951 14809 layer_factory.hpp:77] Creating layer conv15_2_mbox_priorbox
I1103 00:03:28.984956 14809 net.cpp:100] Creating Layer conv15_2_mbox_priorbox
I1103 00:03:28.984961 14809 net.cpp:481] conv15_2_mbox_priorbox <- conv15_2_conv15_2/relu_0_split_3
I1103 00:03:28.984963 14809 net.cpp:481] conv15_2_mbox_priorbox <- data_input_0_split_4
I1103 00:03:28.984969 14809 net.cpp:455] conv15_2_mbox_priorbox -> conv15_2_mbox_priorbox
I1103 00:03:28.984979 14809 net.cpp:150] Setting up conv15_2_mbox_priorbox
I1103 00:03:28.984983 14809 net.cpp:157] Top shape: 1 2 216 (432)
I1103 00:03:28.984985 14809 net.cpp:165] Memory required for data: 87915828
I1103 00:03:28.984987 14809 layer_factory.hpp:77] Creating layer conv16_2_mbox_loc
I1103 00:03:28.984995 14809 net.cpp:100] Creating Layer conv16_2_mbox_loc
I1103 00:03:28.985000 14809 net.cpp:481] conv16_2_mbox_loc <- conv16_2_conv16_2/relu_0_split_1
I1103 00:03:28.985008 14809 net.cpp:455] conv16_2_mbox_loc -> conv16_2_mbox_loc
I1103 00:03:28.988440 14809 net.cpp:150] Setting up conv16_2_mbox_loc
I1103 00:03:28.988459 14809 net.cpp:157] Top shape: 1 24 2 2 (96)
I1103 00:03:28.988463 14809 net.cpp:165] Memory required for data: 87916212
I1103 00:03:28.988469 14809 layer_factory.hpp:77] Creating layer conv16_2_mbox_loc_perm
I1103 00:03:28.988477 14809 net.cpp:100] Creating Layer conv16_2_mbox_loc_perm
I1103 00:03:28.988484 14809 net.cpp:481] conv16_2_mbox_loc_perm <- conv16_2_mbox_loc
I1103 00:03:28.988490 14809 net.cpp:455] conv16_2_mbox_loc_perm -> conv16_2_mbox_loc_perm
I1103 00:03:28.988502 14809 net.cpp:150] Setting up conv16_2_mbox_loc_perm
I1103 00:03:28.988508 14809 net.cpp:157] Top shape: 1 2 2 24 (96)
I1103 00:03:28.988510 14809 net.cpp:165] Memory required for data: 87916596
I1103 00:03:28.988512 14809 layer_factory.hpp:77] Creating layer conv16_2_mbox_loc_flat
I1103 00:03:28.988533 14809 net.cpp:100] Creating Layer conv16_2_mbox_loc_flat
I1103 00:03:28.988538 14809 net.cpp:481] conv16_2_mbox_loc_flat <- conv16_2_mbox_loc_perm
I1103 00:03:28.988543 14809 net.cpp:455] conv16_2_mbox_loc_flat -> conv16_2_mbox_loc_flat
I1103 00:03:28.988548 14809 net.cpp:150] Setting up conv16_2_mbox_loc_flat
I1103 00:03:28.988554 14809 net.cpp:157] Top shape: 1 96 (96)
I1103 00:03:28.988556 14809 net.cpp:165] Memory required for data: 87916980
I1103 00:03:28.988559 14809 layer_factory.hpp:77] Creating layer conv16_2_mbox_conf_new
I1103 00:03:28.988580 14809 net.cpp:100] Creating Layer conv16_2_mbox_conf_new
I1103 00:03:28.988585 14809 net.cpp:481] conv16_2_mbox_conf_new <- conv16_2_conv16_2/relu_0_split_2
I1103 00:03:28.988592 14809 net.cpp:455] conv16_2_mbox_conf_new -> conv16_2_mbox_conf
I1103 00:03:28.991328 14809 net.cpp:150] Setting up conv16_2_mbox_conf_new
I1103 00:03:28.991353 14809 net.cpp:157] Top shape: 1 126 2 2 (504)
I1103 00:03:28.991354 14809 net.cpp:165] Memory required for data: 87918996
I1103 00:03:28.991360 14809 layer_factory.hpp:77] Creating layer conv16_2_mbox_conf_perm
I1103 00:03:28.991369 14809 net.cpp:100] Creating Layer conv16_2_mbox_conf_perm
I1103 00:03:28.991374 14809 net.cpp:481] conv16_2_mbox_conf_perm <- conv16_2_mbox_conf
I1103 00:03:28.991382 14809 net.cpp:455] conv16_2_mbox_conf_perm -> conv16_2_mbox_conf_perm
I1103 00:03:28.991397 14809 net.cpp:150] Setting up conv16_2_mbox_conf_perm
I1103 00:03:28.991403 14809 net.cpp:157] Top shape: 1 2 2 126 (504)
I1103 00:03:28.991405 14809 net.cpp:165] Memory required for data: 87921012
I1103 00:03:28.991407 14809 layer_factory.hpp:77] Creating layer conv16_2_mbox_conf_flat
I1103 00:03:28.991411 14809 net.cpp:100] Creating Layer conv16_2_mbox_conf_flat
I1103 00:03:28.991413 14809 net.cpp:481] conv16_2_mbox_conf_flat <- conv16_2_mbox_conf_perm
I1103 00:03:28.991420 14809 net.cpp:455] conv16_2_mbox_conf_flat -> conv16_2_mbox_conf_flat
I1103 00:03:28.991428 14809 net.cpp:150] Setting up conv16_2_mbox_conf_flat
I1103 00:03:28.991431 14809 net.cpp:157] Top shape: 1 504 (504)
I1103 00:03:28.991433 14809 net.cpp:165] Memory required for data: 87923028
I1103 00:03:28.991436 14809 layer_factory.hpp:77] Creating layer conv16_2_mbox_priorbox
I1103 00:03:28.991442 14809 net.cpp:100] Creating Layer conv16_2_mbox_priorbox
I1103 00:03:28.991447 14809 net.cpp:481] conv16_2_mbox_priorbox <- conv16_2_conv16_2/relu_0_split_3
I1103 00:03:28.991451 14809 net.cpp:481] conv16_2_mbox_priorbox <- data_input_0_split_5
I1103 00:03:28.991456 14809 net.cpp:455] conv16_2_mbox_priorbox -> conv16_2_mbox_priorbox
I1103 00:03:28.991466 14809 net.cpp:150] Setting up conv16_2_mbox_priorbox
I1103 00:03:28.991470 14809 net.cpp:157] Top shape: 1 2 96 (192)
I1103 00:03:28.991472 14809 net.cpp:165] Memory required for data: 87923796
I1103 00:03:28.991474 14809 layer_factory.hpp:77] Creating layer conv17_2_mbox_loc
I1103 00:03:28.991483 14809 net.cpp:100] Creating Layer conv17_2_mbox_loc
I1103 00:03:28.991487 14809 net.cpp:481] conv17_2_mbox_loc <- conv17_2_conv17_2/relu_0_split_0
I1103 00:03:28.991493 14809 net.cpp:455] conv17_2_mbox_loc -> conv17_2_mbox_loc
I1103 00:03:28.994076 14809 net.cpp:150] Setting up conv17_2_mbox_loc
I1103 00:03:28.994101 14809 net.cpp:157] Top shape: 1 24 1 1 (24)
I1103 00:03:28.994105 14809 net.cpp:165] Memory required for data: 87923892
I1103 00:03:28.994124 14809 layer_factory.hpp:77] Creating layer conv17_2_mbox_loc_perm
I1103 00:03:28.994165 14809 net.cpp:100] Creating Layer conv17_2_mbox_loc_perm
I1103 00:03:28.994191 14809 net.cpp:481] conv17_2_mbox_loc_perm <- conv17_2_mbox_loc
I1103 00:03:28.994200 14809 net.cpp:455] conv17_2_mbox_loc_perm -> conv17_2_mbox_loc_perm
I1103 00:03:28.994244 14809 net.cpp:150] Setting up conv17_2_mbox_loc_perm
I1103 00:03:28.994271 14809 net.cpp:157] Top shape: 1 1 1 24 (24)
I1103 00:03:28.994276 14809 net.cpp:165] Memory required for data: 87923988
I1103 00:03:28.994279 14809 layer_factory.hpp:77] Creating layer conv17_2_mbox_loc_flat
I1103 00:03:28.994288 14809 net.cpp:100] Creating Layer conv17_2_mbox_loc_flat
I1103 00:03:28.994297 14809 net.cpp:481] conv17_2_mbox_loc_flat <- conv17_2_mbox_loc_perm
I1103 00:03:28.994304 14809 net.cpp:455] conv17_2_mbox_loc_flat -> conv17_2_mbox_loc_flat
I1103 00:03:28.994313 14809 net.cpp:150] Setting up conv17_2_mbox_loc_flat
I1103 00:03:28.994318 14809 net.cpp:157] Top shape: 1 24 (24)
I1103 00:03:28.994319 14809 net.cpp:165] Memory required for data: 87924084
I1103 00:03:28.994321 14809 layer_factory.hpp:77] Creating layer conv17_2_mbox_conf_new
I1103 00:03:28.994329 14809 net.cpp:100] Creating Layer conv17_2_mbox_conf_new
I1103 00:03:28.994341 14809 net.cpp:481] conv17_2_mbox_conf_new <- conv17_2_conv17_2/relu_0_split_1
I1103 00:03:28.994349 14809 net.cpp:455] conv17_2_mbox_conf_new -> conv17_2_mbox_conf
I1103 00:03:28.996922 14809 net.cpp:150] Setting up conv17_2_mbox_conf_new
I1103 00:03:28.996943 14809 net.cpp:157] Top shape: 1 126 1 1 (126)
I1103 00:03:28.996947 14809 net.cpp:165] Memory required for data: 87924588
I1103 00:03:28.996953 14809 layer_factory.hpp:77] Creating layer conv17_2_mbox_conf_perm
I1103 00:03:28.996959 14809 net.cpp:100] Creating Layer conv17_2_mbox_conf_perm
I1103 00:03:28.996968 14809 net.cpp:481] conv17_2_mbox_conf_perm <- conv17_2_mbox_conf
I1103 00:03:28.996975 14809 net.cpp:455] conv17_2_mbox_conf_perm -> conv17_2_mbox_conf_perm
I1103 00:03:28.996987 14809 net.cpp:150] Setting up conv17_2_mbox_conf_perm
I1103 00:03:28.996994 14809 net.cpp:157] Top shape: 1 1 1 126 (126)
I1103 00:03:28.996995 14809 net.cpp:165] Memory required for data: 87925092
I1103 00:03:28.996997 14809 layer_factory.hpp:77] Creating layer conv17_2_mbox_conf_flat
I1103 00:03:28.997004 14809 net.cpp:100] Creating Layer conv17_2_mbox_conf_flat
I1103 00:03:28.997009 14809 net.cpp:481] conv17_2_mbox_conf_flat <- conv17_2_mbox_conf_perm
I1103 00:03:28.997012 14809 net.cpp:455] conv17_2_mbox_conf_flat -> conv17_2_mbox_conf_flat
I1103 00:03:28.997018 14809 net.cpp:150] Setting up conv17_2_mbox_conf_flat
I1103 00:03:28.997025 14809 net.cpp:157] Top shape: 1 126 (126)
I1103 00:03:28.997025 14809 net.cpp:165] Memory required for data: 87925596
I1103 00:03:28.997027 14809 layer_factory.hpp:77] Creating layer conv17_2_mbox_priorbox
I1103 00:03:28.997035 14809 net.cpp:100] Creating Layer conv17_2_mbox_priorbox
I1103 00:03:28.997041 14809 net.cpp:481] conv17_2_mbox_priorbox <- conv17_2_conv17_2/relu_0_split_2
I1103 00:03:28.997045 14809 net.cpp:481] conv17_2_mbox_priorbox <- data_input_0_split_6
I1103 00:03:28.997051 14809 net.cpp:455] conv17_2_mbox_priorbox -> conv17_2_mbox_priorbox
I1103 00:03:28.997061 14809 net.cpp:150] Setting up conv17_2_mbox_priorbox
I1103 00:03:28.997069 14809 net.cpp:157] Top shape: 1 2 24 (48)
I1103 00:03:28.997072 14809 net.cpp:165] Memory required for data: 87925788
I1103 00:03:28.997079 14809 layer_factory.hpp:77] Creating layer mbox_loc
I1103 00:03:28.997087 14809 net.cpp:100] Creating Layer mbox_loc
I1103 00:03:28.997092 14809 net.cpp:481] mbox_loc <- conv11_mbox_loc_flat
I1103 00:03:28.997097 14809 net.cpp:481] mbox_loc <- conv13_mbox_loc_flat
I1103 00:03:28.997100 14809 net.cpp:481] mbox_loc <- conv14_2_mbox_loc_flat
I1103 00:03:28.997103 14809 net.cpp:481] mbox_loc <- conv15_2_mbox_loc_flat
I1103 00:03:28.997108 14809 net.cpp:481] mbox_loc <- conv16_2_mbox_loc_flat
I1103 00:03:28.997113 14809 net.cpp:481] mbox_loc <- conv17_2_mbox_loc_flat
I1103 00:03:28.997119 14809 net.cpp:455] mbox_loc -> mbox_loc
I1103 00:03:28.997128 14809 net.cpp:150] Setting up mbox_loc
I1103 00:03:28.997133 14809 net.cpp:157] Top shape: 1 7668 (7668)
I1103 00:03:28.997134 14809 net.cpp:165] Memory required for data: 87956460
I1103 00:03:28.997136 14809 layer_factory.hpp:77] Creating layer mbox_conf
I1103 00:03:28.997141 14809 net.cpp:100] Creating Layer mbox_conf
I1103 00:03:28.997144 14809 net.cpp:481] mbox_conf <- conv11_mbox_conf_flat
I1103 00:03:28.997149 14809 net.cpp:481] mbox_conf <- conv13_mbox_conf_flat
I1103 00:03:28.997153 14809 net.cpp:481] mbox_conf <- conv14_2_mbox_conf_flat
I1103 00:03:28.997155 14809 net.cpp:481] mbox_conf <- conv15_2_mbox_conf_flat
I1103 00:03:28.997159 14809 net.cpp:481] mbox_conf <- conv16_2_mbox_conf_flat
I1103 00:03:28.997161 14809 net.cpp:481] mbox_conf <- conv17_2_mbox_conf_flat
I1103 00:03:28.997167 14809 net.cpp:455] mbox_conf -> mbox_conf
I1103 00:03:28.997174 14809 net.cpp:150] Setting up mbox_conf
I1103 00:03:28.997177 14809 net.cpp:157] Top shape: 1 40257 (40257)
I1103 00:03:28.997179 14809 net.cpp:165] Memory required for data: 88117488
I1103 00:03:28.997181 14809 layer_factory.hpp:77] Creating layer mbox_priorbox
I1103 00:03:28.997185 14809 net.cpp:100] Creating Layer mbox_priorbox
I1103 00:03:28.997189 14809 net.cpp:481] mbox_priorbox <- conv11_mbox_priorbox
I1103 00:03:28.997192 14809 net.cpp:481] mbox_priorbox <- conv13_mbox_priorbox
I1103 00:03:28.997195 14809 net.cpp:481] mbox_priorbox <- conv14_2_mbox_priorbox
I1103 00:03:28.997198 14809 net.cpp:481] mbox_priorbox <- conv15_2_mbox_priorbox
I1103 00:03:28.997200 14809 net.cpp:481] mbox_priorbox <- conv16_2_mbox_priorbox
I1103 00:03:28.997203 14809 net.cpp:481] mbox_priorbox <- conv17_2_mbox_priorbox
I1103 00:03:28.997211 14809 net.cpp:455] mbox_priorbox -> mbox_priorbox
I1103 00:03:28.997215 14809 net.cpp:150] Setting up mbox_priorbox
I1103 00:03:28.997220 14809 net.cpp:157] Top shape: 1 2 7668 (15336)
I1103 00:03:28.997222 14809 net.cpp:165] Memory required for data: 88178832
I1103 00:03:28.997225 14809 layer_factory.hpp:77] Creating layer mbox_conf_reshape
I1103 00:03:28.997231 14809 net.cpp:100] Creating Layer mbox_conf_reshape
I1103 00:03:28.997236 14809 net.cpp:481] mbox_conf_reshape <- mbox_conf
I1103 00:03:28.997241 14809 net.cpp:455] mbox_conf_reshape -> mbox_conf_reshape
I1103 00:03:28.997251 14809 net.cpp:150] Setting up mbox_conf_reshape
I1103 00:03:28.997256 14809 net.cpp:157] Top shape: 1 1917 21 (40257)
I1103 00:03:28.997258 14809 net.cpp:165] Memory required for data: 88339860
I1103 00:03:28.997261 14809 layer_factory.hpp:77] Creating layer mbox_conf_softmax
I1103 00:03:28.997265 14809 net.cpp:100] Creating Layer mbox_conf_softmax
I1103 00:03:28.997270 14809 net.cpp:481] mbox_conf_softmax <- mbox_conf_reshape
I1103 00:03:28.997277 14809 net.cpp:455] mbox_conf_softmax -> mbox_conf_softmax
I1103 00:03:28.998257 14809 net.cpp:150] Setting up mbox_conf_softmax
I1103 00:03:28.998277 14809 net.cpp:157] Top shape: 1 1917 21 (40257)
I1103 00:03:28.998281 14809 net.cpp:165] Memory required for data: 88500888
I1103 00:03:28.998283 14809 layer_factory.hpp:77] Creating layer mbox_conf_flatten
I1103 00:03:28.998291 14809 net.cpp:100] Creating Layer mbox_conf_flatten
I1103 00:03:28.998294 14809 net.cpp:481] mbox_conf_flatten <- mbox_conf_softmax
I1103 00:03:28.998299 14809 net.cpp:455] mbox_conf_flatten -> mbox_conf_flatten
I1103 00:03:28.998306 14809 net.cpp:150] Setting up mbox_conf_flatten
I1103 00:03:28.998309 14809 net.cpp:157] Top shape: 1 40257 (40257)
I1103 00:03:28.998311 14809 net.cpp:165] Memory required for data: 88661916
I1103 00:03:28.998313 14809 layer_factory.hpp:77] Creating layer detection_out
I1103 00:03:28.998345 14809 net.cpp:100] Creating Layer detection_out
I1103 00:03:28.998354 14809 net.cpp:481] detection_out <- mbox_loc
I1103 00:03:28.998358 14809 net.cpp:481] detection_out <- mbox_conf_flatten
I1103 00:03:28.998361 14809 net.cpp:481] detection_out <- mbox_priorbox
I1103 00:03:28.998368 14809 net.cpp:455] detection_out -> detection_out
I1103 00:03:28.998378 14809 net.cpp:150] Setting up detection_out
I1103 00:03:28.998383 14809 net.cpp:157] Top shape: 1 1 1 7 (7)
I1103 00:03:28.998386 14809 net.cpp:165] Memory required for data: 88661944
I1103 00:03:28.998389 14809 net.cpp:228] detection_out does not need backward computation.
I1103 00:03:28.998391 14809 net.cpp:228] mbox_conf_flatten does not need backward computation.
I1103 00:03:28.998394 14809 net.cpp:228] mbox_conf_softmax does not need backward computation.
I1103 00:03:28.998396 14809 net.cpp:228] mbox_conf_reshape does not need backward computation.
…
