…
I1103 00:54:22.657260 15069 upgrade_proto.cpp:67] Attempting to upgrade input file specified using deprecated input fields: examples/MobileNet-SSD/model_1000/MobileNetSSD_1000_deploy.prototxt
I1103 00:54:22.657306 15069 upgrade_proto.cpp:70] Successfully upgraded file specified using deprecated input fields.
W1103 00:54:22.657310 15069 upgrade_proto.cpp:72] Note that future Caffe releases will only support input layers and not input fields.
I1103 00:54:22.658287 15069 net.cpp:58] Initializing net from parameters: 
name: "MobileNet-SSD"
state {
  phase: TEST
  level: 0
}
layer {
  name: "input"
  type: "Input"
  top: "data"
  input_param {
    shape {
      dim: 1
      dim: 3
      dim: 300
      dim: 300
    }
  }
}
layer {
  name: "conv0"
  type: "Convolution"
  bottom: "data"
  top: "conv0"
  param {
    lr_mult: 1
    decay_mult: 1
  }
  param {
    lr_mult: 2
    decay_mult: 0
  }
  convolution_param {
    num_output: 32
    pad: 1
    kernel_size: 3
    stride: 2
    weight_filler {
      type: "msra"
    }
    bias_filler {
      type: "constant"
      value: 0
    }
  }
}
layer {
  name: "conv0/relu"
  type: "ReLU"
  bottom: "conv0"
  top: "conv0"
}
layer {
  name: "conv1/dw"
  type: "Convolution"
  bottom: "conv0"
  top: "conv1/dw"
  param {
    lr_mult: 1
    decay_mult: 1
  }
  param {
    lr_mult: 2
    decay_mult: 0
  }
  convolution_param {
    num_output: 32
    pad: 1
    kernel_size: 3
    group: 32
    weight_filler {
      type: "msra"
    }
    bias_filler {
      type: "constant"
      value: 0
    }
    engine: CAFFE
  }
}
layer {
  name: "conv1/dw/relu"
  type: "ReLU"
  bottom: "conv1/dw"
  top: "conv1/dw"
}
layer {
  name: "conv1"
  type: "Convolution"
  bottom: "conv1/dw"
  top: "conv1"
  param {
    lr_mult: 1
    decay_mult: 1
  }
  param {
    lr_mult: 2
    decay_mult: 0
  }
  convolution_param {
    num_output: 64
    kernel_size: 1
    weight_filler {
      type: "msra"
    }
    bias_filler {
      type: "constant"
      value: 0
    }
  }
}
layer {
  name: "conv1/relu"
  type: "ReLU"
  bottom: "conv1"
  top: "conv1"
}
layer {
  name: "conv2/dw"
  type: "Convolution"
  bottom: "conv1"
  top: "conv2/dw"
  param {
    lr_mult: 1
    decay_mult: 1
  }
  param {
    lr_mult: 2
    decay_mult: 0
  }
  convolution_param {
    num_output: 64
    pad: 1
    kernel_size: 3
    group: 64
    stride: 2
    weight_filler {
      type: "msra"
    }
    bias_filler {
      type: "constant"
      value: 0
    }
    engine: CAFFE
  }
}
layer {
  name: "conv2/dw/relu"
  type: "ReLU"
  bottom: "conv2/dw"
  top: "conv2/dw"
}
layer {
  name: "conv2"
  type: "Convolution"
  bottom: "conv2/dw"
  top: "conv2"
  param {
    lr_mult: 1
    decay_mult: 1
  }
  param {
    lr_mult: 2
    decay_mult: 0
  }
  convolution_param {
    num_output: 128
    kernel_size: 1
    weight_filler {
      type: "msra"
    }
    bias_filler {
      type: "constant"
      value: 0
    }
  }
}
layer {
  name: "conv2/relu"
  type: "ReLU"
  bottom: "conv2"
  top: "conv2"
}
layer {
  name: "conv3/dw"
  type: "Convolution"
  bottom: "conv2"
  top: "conv3/dw"
  param {
    lr_mult: 1
    decay_mult: 1
  }
  param {
    lr_mult: 2
    decay_mult: 0
  }
  convolution_param {
    num_output: 128
    pad: 1
    kernel_size: 3
    group: 128
    weight_filler {
      type: "msra"
    }
    bias_filler {
      type: "constant"
      value: 0
    }
    engine: CAFFE
  }
}
layer {
  name: "conv3/dw/relu"
  type: "ReLU"
  bottom: "conv3/dw"
  top: "conv3/dw"
}
layer {
  name: "conv3"
  type: "Convolution"
  bottom: "conv3/dw"
  top: "conv3"
  param {
    lr_mult: 1
    decay_mult: 1
  }
  param {
    lr_mult: 2
    decay_mult: 0
  }
  convolution_param {
    num_output: 128
    kernel_size: 1
    weight_filler {
      type: "msra"
    }
    bias_filler {
      type: "constant"
      value: 0
    }
  }
}
layer {
  name: "conv3/relu"
  type: "ReLU"
  bottom: "conv3"
  top: "conv3"
}
layer {
  name: "conv4/dw"
  type: "Convolution"
  bottom: "conv3"
  top: "conv4/dw"
  param {
    lr_mult: 1
    decay_mult: 1
  }
  param {
    lr_mult: 2
    decay_mult: 0
  }
  convolution_param {
    num_output: 128
    pad: 1
    kernel_size: 3
    group: 128
    stride: 2
    weight_filler {
      type: "msra"
    }
    bias_filler {
      type: "constant"
      value: 0
    }
    engine: CAFFE
  }
}
layer {
  name: "conv4/dw/relu"
  type: "ReLU"
  bottom: "conv4/dw"
  top: "conv4/dw"
}
layer {
  name: "conv4"
  type: "Convolution"
  bottom: "conv4/dw"
  top: "conv4"
  param {
    lr_mult: 1
    decay_mult: 1
  }
  param {
    lr_mult: 2
    decay_mult: 0
  }
  convolution_param {
    num_output: 256
    kernel_size: 1
    weight_filler {
      type: "msra"
    }
    bias_filler {
      type: "constant"
      value: 0
    }
  }
}
layer {
  name: "conv4/relu"
  type: "ReLU"
  bottom: "conv4"
  top: "conv4"
}
layer {
  name: "conv5/dw"
  type: "Convolution"
  bottom: "conv4"
  top: "conv5/dw"
  param {
    lr_mult: 1
    decay_mult: 1
  }
  param {
    lr_mult: 2
    decay_mult: 0
  }
  convolution_param {
    num_output: 256
    pad: 1
    kernel_size: 3
    group: 256
    weight_filler {
      type: "msra"
    }
    bias_filler {
      type: "constant"
      value: 0
    }
    engine: CAFFE
  }
}
layer {
  name: "conv5/dw/relu"
  type: "ReLU"
  bottom: "conv5/dw"
  top: "conv5/dw"
}
layer {
  name: "conv5"
  type: "Convolution"
  bottom: "conv5/dw"
  top: "conv5"
  param {
    lr_mult: 1
    decay_mult: 1
  }
  param {
    lr_mult: 2
    decay_mult: 0
  }
  convolution_param {
    num_output: 256
    kernel_size: 1
    weight_filler {
      type: "msra"
    }
    bias_filler {
      type: "constant"
      value: 0
    }
  }
}
layer {
  name: "conv5/relu"
  type: "ReLU"
  bottom: "conv5"
  top: "conv5"
}
layer {
  name: "conv6/dw"
  type: "Convolution"
  bottom: "conv5"
  top: "conv6/dw"
  param {
    lr_mult: 1
    decay_mult: 1
  }
  param {
    lr_mult: 2
    decay_mult: 0
  }
  convolution_param {
    num_output: 256
    pad: 1
    kernel_size: 3
    group: 256
    stride: 2
    weight_filler {
      type: "msra"
    }
    bias_filler {
      type: "constant"
      value: 0
    }
    engine: CAFFE
  }
}
layer {
  name: "conv6/dw/relu"
  type: "ReLU"
  bottom: "conv6/dw"
  top: "conv6/dw"
}
layer {
  name: "conv6"
  type: "Convolution"
  bottom: "conv6/dw"
  top: "conv6"
  param {
    lr_mult: 1
    decay_mult: 1
  }
  param {
    lr_mult: 2
    decay_mult: 0
  }
  convolution_param {
    num_output: 512
    kernel_size: 1
    weight_filler {
      type: "msra"
    }
    bias_filler {
      type: "constant"
      value: 0
    }
  }
}
layer {
  name: "conv6/relu"
  type: "ReLU"
  bottom: "conv6"
  top: "conv6"
}
layer {
  name: "conv7/dw"
  type: "Convolution"
  bottom: "conv6"
  top: "conv7/dw"
  param {
    lr_mult: 1
    decay_mult: 1
  }
  param {
    lr_mult: 2
    decay_mult: 0
  }
  convolution_param {
    num_output: 512
    pad: 1
    kernel_size: 3
    group: 512
    weight_filler {
      type: "msra"
    }
    bias_filler {
      type: "constant"
      value: 0
    }
    engine: CAFFE
  }
}
layer {
  name: "conv7/dw/relu"
  type: "ReLU"
  bottom: "conv7/dw"
  top: "conv7/dw"
}
layer {
  name: "conv7"
  type: "Convolution"
  bottom: "conv7/dw"
  top: "conv7"
  param {
    lr_mult: 1
    decay_mult: 1
  }
  param {
    lr_mult: 2
    decay_mult: 0
  }
  convolution_param {
    num_output: 512
    kernel_size: 1
    weight_filler {
      type: "msra"
    }
    bias_filler {
      type: "constant"
      value: 0
    }
  }
}
layer {
  name: "conv7/relu"
  type: "ReLU"
  bottom: "conv7"
  top: "conv7"
}
layer {
  name: "conv8/dw"
  type: "Convolution"
  bottom: "conv7"
  top: "conv8/dw"
  param {
    lr_mult: 1
    decay_mult: 1
  }
  param {
    lr_mult: 2
    decay_mult: 0
  }
  convolution_param {
    num_output: 512
    pad: 1
    kernel_size: 3
    group: 512
    weight_filler {
      type: "msra"
    }
    bias_filler {
      type: "constant"
      value: 0
    }
    engine: CAFFE
  }
}
layer {
  name: "conv8/dw/relu"
  type: "ReLU"
  bottom: "conv8/dw"
  top: "conv8/dw"
}
layer {
  name: "conv8"
  type: "Convolution"
  bottom: "conv8/dw"
  top: "conv8"
  param {
    lr_mult: 1
    decay_mult: 1
  }
  param {
    lr_mult: 2
    decay_mult: 0
  }
  convolution_param {
    num_output: 512
    kernel_size: 1
    weight_filler {
      type: "msra"
    }
    bias_filler {
      type: "constant"
      value: 0
    }
  }
}
layer {
  name: "conv8/relu"
  type: "ReLU"
  bottom: "conv8"
  top: "conv8"
}
layer {
  name: "conv9/dw"
  type: "Convolution"
  bottom: "conv8"
  top: "conv9/dw"
  param {
    lr_mult: 1
    decay_mult: 1
  }
  param {
    lr_mult: 2
    decay_mult: 0
  }
  convolution_param {
    num_output: 512
    pad: 1
    kernel_size: 3
    group: 512
    weight_filler {
      type: "msra"
    }
    bias_filler {
      type: "constant"
      value: 0
    }
    engine: CAFFE
  }
}
layer {
  name: "conv9/dw/relu"
  type: "ReLU"
  bottom: "conv9/dw"
  top: "conv9/dw"
}
layer {
  name: "conv9"
  type: "Convolution"
  bottom: "conv9/dw"
  top: "conv9"
  param {
    lr_mult: 1
    decay_mult: 1
  }
  param {
    lr_mult: 2
    decay_mult: 0
  }
  convolution_param {
    num_output: 512
    kernel_size: 1
    weight_filler {
      type: "msra"
    }
    bias_filler {
      type: "constant"
      value: 0
    }
  }
}
layer {
  name: "conv9/relu"
  type: "ReLU"
  bottom: "conv9"
  top: "conv9"
}
layer {
  name: "conv10/dw"
  type: "Convolution"
  bottom: "conv9"
  top: "conv10/dw"
  param {
    lr_mult: 1
    decay_mult: 1
  }
  param {
    lr_mult: 2
    decay_mult: 0
  }
  convolution_param {
    num_output: 512
    pad: 1
    kernel_size: 3
    group: 512
    weight_filler {
      type: "msra"
    }
    bias_filler {
      type: "constant"
      value: 0
    }
    engine: CAFFE
  }
}
layer {
  name: "conv10/dw/relu"
  type: "ReLU"
  bottom: "conv10/dw"
  top: "conv10/dw"
}
layer {
  name: "conv10"
  type: "Convolution"
  bottom: "conv10/dw"
  top: "conv10"
  param {
    lr_mult: 1
    decay_mult: 1
  }
  param {
    lr_mult: 2
    decay_mult: 0
  }
  convolution_param {
    num_output: 512
    kernel_size: 1
    weight_filler {
      type: "msra"
    }
    bias_filler {
      type: "constant"
      value: 0
    }
  }
}
layer {
  name: "conv10/relu"
  type: "ReLU"
  bottom: "conv10"
  top: "conv10"
}
layer {
  name: "conv11/dw"
  type: "Convolution"
  bottom: "conv10"
  top: "conv11/dw"
  param {
    lr_mult: 1
    decay_mult: 1
  }
  param {
    lr_mult: 2
    decay_mult: 0
  }
  convolution_param {
    num_output: 512
    pad: 1
    kernel_size: 3
    group: 512
    weight_filler {
      type: "msra"
    }
    bias_filler {
      type: "constant"
      value: 0
    }
    engine: CAFFE
  }
}
layer {
  name: "conv11/dw/relu"
  type: "ReLU"
  bottom: "conv11/dw"
  top: "conv11/dw"
}
layer {
  name: "conv11"
  type: "Convolution"
  bottom: "conv11/dw"
  top: "conv11"
  param {
    lr_mult: 1
    decay_mult: 1
  }
  param {
    lr_mult: 2
    decay_mult: 0
  }
  convolution_param {
    num_output: 512
    kernel_size: 1
    weight_filler {
      type: "msra"
    }
    bias_filler {
      type: "constant"
      value: 0
    }
  }
}
layer {
  name: "conv11/relu"
  type: "ReLU"
  bottom: "conv11"
  top: "conv11"
}
layer {
  name: "conv12/dw"
  type: "Convolution"
  bottom: "conv11"
  top: "conv12/dw"
  param {
    lr_mult: 1
    decay_mult: 1
  }
  param {
    lr_mult: 2
    decay_mult: 0
  }
  convolution_param {
    num_output: 512
    pad: 1
    kernel_size: 3
    group: 512
    stride: 2
    weight_filler {
      type: "msra"
    }
    bias_filler {
      type: "constant"
      value: 0
    }
    engine: CAFFE
  }
}
layer {
  name: "conv12/dw/relu"
  type: "ReLU"
  bottom: "conv12/dw"
  top: "conv12/dw"
}
layer {
  name: "conv12"
  type: "Convolution"
  bottom: "conv12/dw"
  top: "conv12"
  param {
    lr_mult: 1
    decay_mult: 1
  }
  param {
    lr_mult: 2
    decay_mult: 0
  }
  convolution_param {
    num_output: 1024
    kernel_size: 1
    weight_filler {
      type: "msra"
    }
    bias_filler {
      type: "constant"
      value: 0
    }
  }
}
layer {
  name: "conv12/relu"
  type: "ReLU"
  bottom: "conv12"
  top: "conv12"
}
layer {
  name: "conv13/dw"
  type: "Convolution"
  bottom: "conv12"
  top: "conv13/dw"
  param {
    lr_mult: 1
    decay_mult: 1
  }
  param {
    lr_mult: 2
    decay_mult: 0
  }
  convolution_param {
    num_output: 1024
    pad: 1
    kernel_size: 3
    group: 1024
    weight_filler {
      type: "msra"
    }
    bias_filler {
      type: "constant"
      value: 0
    }
    engine: CAFFE
  }
}
layer {
  name: "conv13/dw/relu"
  type: "ReLU"
  bottom: "conv13/dw"
  top: "conv13/dw"
}
layer {
  name: "conv13"
  type: "Convolution"
  bottom: "conv13/dw"
  top: "conv13"
  param {
    lr_mult: 1
    decay_mult: 1
  }
  param {
    lr_mult: 2
    decay_mult: 0
  }
  convolution_param {
    num_output: 1024
    kernel_size: 1
    weight_filler {
      type: "msra"
    }
    bias_filler {
      type: "constant"
      value: 0
    }
  }
}
layer {
  name: "conv13/relu"
  type: "ReLU"
  bottom: "conv13"
  top: "conv13"
}
layer {
  name: "conv14_1"
  type: "Convolution"
  bottom: "conv13"
  top: "conv14_1"
  param {
    lr_mult: 1
    decay_mult: 1
  }
  param {
    lr_mult: 2
    decay_mult: 0
  }
  convolution_param {
    num_output: 256
    kernel_size: 1
    weight_filler {
      type: "msra"
    }
    bias_filler {
      type: "constant"
      value: 0
    }
  }
}
layer {
  name: "conv14_1/relu"
  type: "ReLU"
  bottom: "conv14_1"
  top: "conv14_1"
}
layer {
  name: "conv14_2"
  type: "Convolution"
  bottom: "conv14_1"
  top: "conv14_2"
  param {
    lr_mult: 1
    decay_mult: 1
  }
  param {
    lr_mult: 2
    decay_mult: 0
  }
  convolution_param {
    num_output: 512
    pad: 1
    kernel_size: 3
    stride: 2
    weight_filler {
      type: "msra"
    }
    bias_filler {
      type: "constant"
      value: 0
    }
  }
}
layer {
  name: "conv14_2/relu"
  type: "ReLU"
  bottom: "conv14_2"
  top: "conv14_2"
}
layer {
  name: "conv15_1"
  type: "Convolution"
  bottom: "conv14_2"
  top: "conv15_1"
  param {
    lr_mult: 1
    decay_mult: 1
  }
  param {
    lr_mult: 2
    decay_mult: 0
  }
  convolution_param {
    num_output: 128
    kernel_size: 1
    weight_filler {
      type: "msra"
    }
    bias_filler {
      type: "constant"
      value: 0
    }
  }
}
layer {
  name: "conv15_1/relu"
  type: "ReLU"
  bottom: "conv15_1"
  top: "conv15_1"
}
layer {
  name: "conv15_2"
  type: "Convolution"
  bottom: "conv15_1"
  top: "conv15_2"
  param {
    lr_mult: 1
    decay_mult: 1
  }
  param {
    lr_mult: 2
    decay_mult: 0
  }
  convolution_param {
    num_output: 256
    pad: 1
    kernel_size: 3
    stride: 2
    weight_filler {
      type: "msra"
    }
    bias_filler {
      type: "constant"
      value: 0
    }
  }
}
layer {
  name: "conv15_2/relu"
  type: "ReLU"
  bottom: "conv15_2"
  top: "conv15_2"
}
layer {
  name: "conv16_1"
  type: "Convolution"
  bottom: "conv15_2"
  top: "conv16_1"
  param {
    lr_mult: 1
    decay_mult: 1
  }
  param {
    lr_mult: 2
    decay_mult: 0
  }
  convolution_param {
    num_output: 128
    kernel_size: 1
    weight_filler {
      type: "msra"
    }
    bias_filler {
      type: "constant"
      value: 0
    }
  }
}
layer {
  name: "conv16_1/relu"
  type: "ReLU"
  bottom: "conv16_1"
  top: "conv16_1"
}
layer {
  name: "conv16_2"
  type: "Convolution"
  bottom: "conv16_1"
  top: "conv16_2"
  param {
    lr_mult: 1
    decay_mult: 1
  }
  param {
    lr_mult: 2
    decay_mult: 0
  }
  convolution_param {
    num_output: 256
    pad: 1
    kernel_size: 3
    stride: 2
    weight_filler {
      type: "msra"
    }
    bias_filler {
      type: "constant"
      value: 0
    }
  }
}
layer {
  name: "conv16_2/relu"
  type: "ReLU"
  bottom: "conv16_2"
  top: "conv16_2"
}
layer {
  name: "conv17_1"
  type: "Convolution"
  bottom: "conv16_2"
  top: "conv17_1"
  param {
    lr_mult: 1
    decay_mult: 1
  }
  param {
    lr_mult: 2
    decay_mult: 0
  }
  convolution_param {
    num_output: 64
    kernel_size: 1
    weight_filler {
      type: "msra"
    }
    bias_filler {
      type: "constant"
      value: 0
    }
  }
}
layer {
  name: "conv17_1/relu"
  type: "ReLU"
  bottom: "conv17_1"
  top: "conv17_1"
}
layer {
  name: "conv17_2"
  type: "Convolution"
  bottom: "conv17_1"
  top: "conv17_2"
  param {
    lr_mult: 1
    decay_mult: 1
  }
  param {
    lr_mult: 2
    decay_mult: 0
  }
  convolution_param {
    num_output: 128
    pad: 1
    kernel_size: 3
    stride: 2
    weight_filler {
      type: "msra"
    }
    bias_filler {
      type: "constant"
      value: 0
    }
  }
}
layer {
  name: "conv17_2/relu"
  type: "ReLU"
  bottom: "conv17_2"
  top: "conv17_2"
}
layer {
  name: "conv11_mbox_loc"
  type: "Convolution"
  bottom: "conv11"
  top: "conv11_mbox_loc"
  param {
    lr_mult: 1
    decay_mult: 1
  }
  param {
    lr_mult: 2
    decay_mult: 0
  }
  convolution_param {
    num_output: 12
    kernel_size: 1
    weight_filler {
      type: "msra"
    }
    bias_filler {
      type: "constant"
      value: 0
    }
  }
}
layer {
  name: "conv11_mbox_loc_perm"
  type: "Permute"
  bottom: "conv11_mbox_loc"
  top: "conv11_mbox_loc_perm"
  permute_param {
    order: 0
    order: 2
    order: 3
    order: 1
  }
}
layer {
  name: "conv11_mbox_loc_flat"
  type: "Flatten"
  bottom: "conv11_mbox_loc_perm"
  top: "conv11_mbox_loc_flat"
  flatten_param {
    axis: 1
  }
}
layer {
  name: "conv11_mbox_conf_new"
  type: "Convolution"
  bottom: "conv11"
  top: "conv11_mbox_conf"
  param {
    lr_mult: 1
    decay_mult: 1
  }
  param {
    lr_mult: 2
    decay_mult: 0
  }
  convolution_param {
    num_output: 63
    kernel_size: 1
    weight_filler {
      type: "msra"
    }
    bias_filler {
      type: "constant"
      value: 0
    }
  }
}
layer {
  name: "conv11_mbox_conf_perm"
  type: "Permute"
  bottom: "conv11_mbox_conf"
  top: "conv11_mbox_conf_perm"
  permute_param {
    order: 0
    order: 2
    order: 3
    order: 1
  }
}
layer {
  name: "conv11_mbox_conf_flat"
  type: "Flatten"
  bottom: "conv11_mbox_conf_perm"
  top: "conv11_mbox_conf_flat"
  flatten_param {
    axis: 1
  }
}
layer {
  name: "conv11_mbox_priorbox"
  type: "PriorBox"
  bottom: "conv11"
  bottom: "data"
  top: "conv11_mbox_priorbox"
  prior_box_param {
    min_size: 60
    aspect_ratio: 2
    flip: true
    clip: false
    variance: 0.1
    variance: 0.1
    variance: 0.2
    variance: 0.2
    offset: 0.5
  }
}
layer {
  name: "conv13_mbox_loc"
  type: "Convolution"
  bottom: "conv13"
  top: "conv13_mbox_loc"
  param {
    lr_mult: 1
    decay_mult: 1
  }
  param {
    lr_mult: 2
    decay_mult: 0
  }
  convolution_param {
    num_output: 24
    kernel_size: 1
    weight_filler {
      type: "msra"
    }
    bias_filler {
      type: "constant"
      value: 0
    }
  }
}
layer {
  name: "conv13_mbox_loc_perm"
  type: "Permute"
  bottom: "conv13_mbox_loc"
  top: "conv13_mbox_loc_perm"
  permute_param {
    order: 0
    order: 2
    order: 3
    order: 1
  }
}
layer {
  name: "conv13_mbox_loc_flat"
  type: "Flatten"
  bottom: "conv13_mbox_loc_perm"
  top: "conv13_mbox_loc_flat"
  flatten_param {
    axis: 1
  }
}
layer {
  name: "conv13_mbox_conf_new"
  type: "Convolution"
  bottom: "conv13"
  top: "conv13_mbox_conf"
  param {
    lr_mult: 1
    decay_mult: 1
  }
  param {
    lr_mult: 2
    decay_mult: 0
  }
  convolution_param {
    num_output: 126
    kernel_size: 1
    weight_filler {
      type: "msra"
    }
    bias_filler {
      type: "constant"
      value: 0
    }
  }
}
layer {
  name: "conv13_mbox_conf_perm"
  type: "Permute"
  bottom: "conv13_mbox_conf"
  top: "conv13_mbox_conf_perm"
  permute_param {
    order: 0
    order: 2
    order: 3
    order: 1
  }
}
layer {
  name: "conv13_mbox_conf_flat"
  type: "Flatten"
  bottom: "conv13_mbox_conf_perm"
  top: "conv13_mbox_conf_flat"
  flatten_param {
    axis: 1
  }
}
layer {
  name: "conv13_mbox_priorbox"
  type: "PriorBox"
  bottom: "conv13"
  bottom: "data"
  top: "conv13_mbox_priorbox"
  prior_box_param {
    min_size: 105
    max_size: 150
    aspect_ratio: 2
    aspect_ratio: 3
    flip: true
    clip: false
    variance: 0.1
    variance: 0.1
    variance: 0.2
    variance: 0.2
    offset: 0.5
  }
}
layer {
  name: "conv14_2_mbox_loc"
  type: "Convolution"
  bottom: "conv14_2"
  top: "conv14_2_mbox_loc"
  param {
    lr_mult: 1
    decay_mult: 1
  }
  param {
    lr_mult: 2
    decay_mult: 0
  }
  convolution_param {
    num_output: 24
    kernel_size: 1
    weight_filler {
      type: "msra"
    }
    bias_filler {
      type: "constant"
      value: 0
    }
  }
}
layer {
  name: "conv14_2_mbox_loc_perm"
  type: "Permute"
  bottom: "conv14_2_mbox_loc"
  top: "conv14_2_mbox_loc_perm"
  permute_param {
    order: 0
    order: 2
    order: 3
    order: 1
  }
}
layer {
  name: "conv14_2_mbox_loc_flat"
  type: "Flatten"
  bottom: "conv14_2_mbox_loc_perm"
  top: "conv14_2_mbox_loc_flat"
  flatten_param {
    axis: 1
  }
}
layer {
  name: "conv14_2_mbox_conf_new"
  type: "Convolution"
  bottom: "conv14_2"
  top: "conv14_2_mbox_conf"
  param {
    lr_mult: 1
    decay_mult: 1
  }
  param {
    lr_mult: 2
    decay_mult: 0
  }
  convolution_param {
    num_output: 126
    kernel_size: 1
    weight_filler {
      type: "msra"
    }
    bias_filler {
      type: "constant"
      value: 0
    }
  }
}
layer {
  name: "conv14_2_mbox_conf_perm"
  type: "Permute"
  bottom: "conv14_2_mbox_conf"
  top: "conv14_2_mbox_conf_perm"
  permute_param {
    order: 0
    order: 2
    order: 3
    order: 1
  }
}
layer {
  name: "conv14_2_mbox_conf_flat"
  type: "Flatten"
  bottom: "conv14_2_mbox_conf_perm"
  top: "conv14_2_mbox_conf_flat"
  flatten_param {
    axis: 1
  }
}
layer {
  name: "conv14_2_mbox_priorbox"
  type: "PriorBox"
  bottom: "conv14_2"
  bottom: "data"
  top: "conv14_2_mbox_priorbox"
  prior_box_param {
    min_size: 150
    max_size: 195
    aspect_ratio: 2
    aspect_ratio: 3
    flip: true
    clip: false
    variance: 0.1
    variance: 0.1
    variance: 0.2
    variance: 0.2
    offset: 0.5
  }
}
layer {
  name: "conv15_2_mbox_loc"
  type: "Convolution"
  bottom: "conv15_2"
  top: "conv15_2_mbox_loc"
  param {
    lr_mult: 1
    decay_mult: 1
  }
  param {
    lr_mult: 2
    decay_mult: 0
  }
  convolution_param {
    num_output: 24
    kernel_size: 1
    weight_filler {
      type: "msra"
    }
    bias_filler {
      type: "constant"
      value: 0
    }
  }
}
layer {
  name: "conv15_2_mbox_loc_perm"
  type: "Permute"
  bottom: "conv15_2_mbox_loc"
  top: "conv15_2_mbox_loc_perm"
  permute_param {
    order: 0
    order: 2
    order: 3
    order: 1
  }
}
layer {
  name: "conv15_2_mbox_loc_flat"
  type: "Flatten"
  bottom: "conv15_2_mbox_loc_perm"
  top: "conv15_2_mbox_loc_flat"
  flatten_param {
    axis: 1
  }
}
layer {
  name: "conv15_2_mbox_conf_new"
  type: "Convolution"
  bottom: "conv15_2"
  top: "conv15_2_mbox_conf"
  param {
    lr_mult: 1
    decay_mult: 1
  }
  param {
    lr_mult: 2
    decay_mult: 0
  }
  convolution_param {
    num_output: 126
    kernel_size: 1
    weight_filler {
      type: "msra"
    }
    bias_filler {
      type: "constant"
      value: 0
    }
  }
}
layer {
  name: "conv15_2_mbox_conf_perm"
  type: "Permute"
  bottom: "conv15_2_mbox_conf"
  top: "conv15_2_mbox_conf_perm"
  permute_param {
    order: 0
    order: 2
    order: 3
    order: 1
  }
}
layer {
  name: "conv15_2_mbox_conf_flat"
  type: "Flatten"
  bottom: "conv15_2_mbox_conf_perm"
  top: "conv15_2_mbox_conf_flat"
  flatten_param {
    axis: 1
  }
}
layer {
  name: "conv15_2_mbox_priorbox"
  type: "PriorBox"
  bottom: "conv15_2"
  bottom: "data"
  top: "conv15_2_mbox_priorbox"
  prior_box_param {
    min_size: 195
    max_size: 240
    aspect_ratio: 2
    aspect_ratio: 3
    flip: true
    clip: false
    variance: 0.1
    variance: 0.1
    variance: 0.2
    variance: 0.2
    offset: 0.5
  }
}
layer {
  name: "conv16_2_mbox_loc"
  type: "Convolution"
  bottom: "conv16_2"
  top: "conv16_2_mbox_loc"
  param {
    lr_mult: 1
    decay_mult: 1
  }
  param {
    lr_mult: 2
    decay_mult: 0
  }
  convolution_param {
    num_output: 24
    kernel_size: 1
    weight_filler {
      type: "msra"
    }
    bias_filler {
      type: "constant"
      value: 0
    }
  }
}
layer {
  name: "conv16_2_mbox_loc_perm"
  type: "Permute"
  bottom: "conv16_2_mbox_loc"
  top: "conv16_2_mbox_loc_perm"
  permute_param {
    order: 0
    order: 2
    order: 3
    order: 1
  }
}
layer {
  name: "conv16_2_mbox_loc_flat"
  type: "Flatten"
  bottom: "conv16_2_mbox_loc_perm"
  top: "conv16_2_mbox_loc_flat"
  flatten_param {
    axis: 1
  }
}
layer {
  name: "conv16_2_mbox_conf_new"
  type: "Convolution"
  bottom: "conv16_2"
  top: "conv16_2_mbox_conf"
  param {
    lr_mult: 1
    decay_mult: 1
  }
  param {
    lr_mult: 2
    decay_mult: 0
  }
  convolution_param {
    num_output: 126
    kernel_size: 1
    weight_filler {
      type: "msra"
    }
    bias_filler {
      type: "constant"
      value: 0
    }
  }
}
layer {
  name: "conv16_2_mbox_conf_perm"
  type: "Permute"
  bottom: "conv16_2_mbox_conf"
  top: "conv16_2_mbox_conf_perm"
  permute_param {
    order: 0
    order: 2
    order: 3
    order: 1
  }
}
layer {
  name: "conv16_2_mbox_conf_flat"
  type: "Flatten"
  bottom: "conv16_2_mbox_conf_perm"
  top: "conv16_2_mbox_conf_flat"
  flatten_param {
    axis: 1
  }
}
layer {
  name: "conv16_2_mbox_priorbox"
  type: "PriorBox"
  bottom: "conv16_2"
  bottom: "data"
  top: "conv16_2_mbox_priorbox"
  prior_box_param {
    min_size: 240
    max_size: 285
    aspect_ratio: 2
    aspect_ratio: 3
    flip: true
    clip: false
    variance: 0.1
    variance: 0.1
    variance: 0.2
    variance: 0.2
    offset: 0.5
  }
}
layer {
  name: "conv17_2_mbox_loc"
  type: "Convolution"
  bottom: "conv17_2"
  top: "conv17_2_mbox_loc"
  param {
    lr_mult: 1
    decay_mult: 1
  }
  param {
    lr_mult: 2
    decay_mult: 0
  }
  convolution_param {
    num_output: 24
    kernel_size: 1
    weight_filler {
      type: "msra"
    }
    bias_filler {
      type: "constant"
      value: 0
    }
  }
}
layer {
  name: "conv17_2_mbox_loc_perm"
  type: "Permute"
  bottom: "conv17_2_mbox_loc"
  top: "conv17_2_mbox_loc_perm"
  permute_param {
    order: 0
    order: 2
    order: 3
    order: 1
  }
}
layer {
  name: "conv17_2_mbox_loc_flat"
  type: "Flatten"
  bottom: "conv17_2_mbox_loc_perm"
  top: "conv17_2_mbox_loc_flat"
  flatten_param {
    axis: 1
  }
}
layer {
  name: "conv17_2_mbox_conf_new"
  type: "Convolution"
  bottom: "conv17_2"
  top: "conv17_2_mbox_conf"
  param {
    lr_mult: 1
    decay_mult: 1
  }
  param {
    lr_mult: 2
    decay_mult: 0
  }
  convolution_param {
    num_output: 126
    kernel_size: 1
    weight_filler {
      type: "msra"
    }
    bias_filler {
      type: "constant"
      value: 0
    }
  }
}
layer {
  name: "conv17_2_mbox_conf_perm"
  type: "Permute"
  bottom: "conv17_2_mbox_conf"
  top: "conv17_2_mbox_conf_perm"
  permute_param {
    order: 0
    order: 2
    order: 3
    order: 1
  }
}
layer {
  name: "conv17_2_mbox_conf_flat"
  type: "Flatten"
  bottom: "conv17_2_mbox_conf_perm"
  top: "conv17_2_mbox_conf_flat"
  flatten_param {
    axis: 1
  }
}
layer {
  name: "conv17_2_mbox_priorbox"
  type: "PriorBox"
  bottom: "conv17_2"
  bottom: "data"
  top: "conv17_2_mbox_priorbox"
  prior_box_param {
    min_size: 285
    max_size: 300
    aspect_ratio: 2
    aspect_ratio: 3
    flip: true
    clip: false
    variance: 0.1
    variance: 0.1
    variance: 0.2
    variance: 0.2
    offset: 0.5
  }
}
layer {
  name: "mbox_loc"
  type: "Concat"
  bottom: "conv11_mbox_loc_flat"
  bottom: "conv13_mbox_loc_flat"
  bottom: "conv14_2_mbox_loc_flat"
  bottom: "conv15_2_mbox_loc_flat"
  bottom: "conv16_2_mbox_loc_flat"
  bottom: "conv17_2_mbox_loc_flat"
  top: "mbox_loc"
  concat_param {
    axis: 1
  }
}
layer {
  name: "mbox_conf"
  type: "Concat"
  bottom: "conv11_mbox_conf_flat"
  bottom: "conv13_mbox_conf_flat"
  bottom: "conv14_2_mbox_conf_flat"
  bottom: "conv15_2_mbox_conf_flat"
  bottom: "conv16_2_mbox_conf_flat"
  bottom: "conv17_2_mbox_conf_flat"
  top: "mbox_conf"
  concat_param {
    axis: 1
  }
}
layer {
  name: "mbox_priorbox"
  type: "Concat"
  bottom: "conv11_mbox_priorbox"
  bottom: "conv13_mbox_priorbox"
  bottom: "conv14_2_mbox_priorbox"
  bottom: "conv15_2_mbox_priorbox"
  bottom: "conv16_2_mbox_priorbox"
  bottom: "conv17_2_mbox_priorbox"
  top: "mbox_priorbox"
  concat_param {
    axis: 2
  }
}
layer {
  name: "mbox_conf_reshape"
  type: "Reshape"
  bottom: "mbox_conf"
  top: "mbox_conf_reshape"
  reshape_param {
    shape {
      dim: 0
      dim: -1
      dim: 21
    }
  }
}
layer {
  name: "mbox_conf_softmax"
  type: "Softmax"
  bottom: "mbox_conf_reshape"
  top: "mbox_conf_softmax"
  softmax_param {
    axis: 2
  }
}
layer {
  name: "mbox_conf_flatten"
  type: "Flatten"
  bottom: "mbox_conf_softmax"
  top: "mbox_conf_flatten"
  flatten_param {
    axis: 1
  }
}
layer {
  name: "detection_out"
  type: "DetectionOutput"
  bottom: "mbox_loc"
  bottom: "mbox_conf_flatten"
  bottom: "mbox_priorbox"
  top: "detection_out"
  include {
    phase: TEST
  }
  detection_output_param {
    num_classes: 21
    share_location: true
    background_label_id: 0
    nms_param {
      nms_threshold: 0.45
      top_k: 100
    }
    code_type: CENTER_SIZE
    keep_top_k: 100
    confidence_threshold: 0.25
  }
}
I1103 00:54:22.658751 15069 layer_factory.hpp:77] Creating layer input
I1103 00:54:22.658762 15069 net.cpp:100] Creating Layer input
I1103 00:54:22.658766 15069 net.cpp:455] input -> data
I1103 00:54:22.658795 15069 net.cpp:150] Setting up input
I1103 00:54:22.658800 15069 net.cpp:157] Top shape: 1 3 300 300 (270000)
I1103 00:54:22.658802 15069 net.cpp:165] Memory required for data: 1080000
I1103 00:54:22.658804 15069 layer_factory.hpp:77] Creating layer data_input_0_split
I1103 00:54:22.658809 15069 net.cpp:100] Creating Layer data_input_0_split
I1103 00:54:22.658812 15069 net.cpp:481] data_input_0_split <- data
I1103 00:54:22.658816 15069 net.cpp:455] data_input_0_split -> data_input_0_split_0
I1103 00:54:22.658821 15069 net.cpp:455] data_input_0_split -> data_input_0_split_1
I1103 00:54:22.658826 15069 net.cpp:455] data_input_0_split -> data_input_0_split_2
I1103 00:54:22.658830 15069 net.cpp:455] data_input_0_split -> data_input_0_split_3
I1103 00:54:22.658835 15069 net.cpp:455] data_input_0_split -> data_input_0_split_4
I1103 00:54:22.658839 15069 net.cpp:455] data_input_0_split -> data_input_0_split_5
I1103 00:54:22.658843 15069 net.cpp:455] data_input_0_split -> data_input_0_split_6
I1103 00:54:22.658849 15069 net.cpp:150] Setting up data_input_0_split
I1103 00:54:22.658859 15069 net.cpp:157] Top shape: 1 3 300 300 (270000)
I1103 00:54:22.658861 15069 net.cpp:157] Top shape: 1 3 300 300 (270000)
I1103 00:54:22.658864 15069 net.cpp:157] Top shape: 1 3 300 300 (270000)
I1103 00:54:22.658867 15069 net.cpp:157] Top shape: 1 3 300 300 (270000)
I1103 00:54:22.658869 15069 net.cpp:157] Top shape: 1 3 300 300 (270000)
I1103 00:54:22.658872 15069 net.cpp:157] Top shape: 1 3 300 300 (270000)
I1103 00:54:22.658874 15069 net.cpp:157] Top shape: 1 3 300 300 (270000)
I1103 00:54:22.658890 15069 net.cpp:165] Memory required for data: 8640000
I1103 00:54:22.658892 15069 layer_factory.hpp:77] Creating layer conv0
I1103 00:54:22.658900 15069 net.cpp:100] Creating Layer conv0
I1103 00:54:22.658902 15069 net.cpp:481] conv0 <- data_input_0_split_0
I1103 00:54:22.658910 15069 net.cpp:455] conv0 -> conv0
I1103 00:54:23.192751 15069 net.cpp:150] Setting up conv0
I1103 00:54:23.192800 15069 net.cpp:157] Top shape: 1 32 150 150 (720000)
I1103 00:54:23.192804 15069 net.cpp:165] Memory required for data: 11520000
I1103 00:54:23.192821 15069 layer_factory.hpp:77] Creating layer conv0/relu
I1103 00:54:23.192831 15069 net.cpp:100] Creating Layer conv0/relu
I1103 00:54:23.192834 15069 net.cpp:481] conv0/relu <- conv0
I1103 00:54:23.192840 15069 net.cpp:442] conv0/relu -> conv0 (in-place)
I1103 00:54:23.193784 15069 net.cpp:150] Setting up conv0/relu
I1103 00:54:23.193802 15069 net.cpp:157] Top shape: 1 32 150 150 (720000)
I1103 00:54:23.193805 15069 net.cpp:165] Memory required for data: 14400000
I1103 00:54:23.193822 15069 layer_factory.hpp:77] Creating layer conv1/dw
I1103 00:54:23.193835 15069 net.cpp:100] Creating Layer conv1/dw
I1103 00:54:23.193838 15069 net.cpp:481] conv1/dw <- conv0
I1103 00:54:23.193842 15069 net.cpp:455] conv1/dw -> conv1/dw
I1103 00:54:23.193914 15069 net.cpp:150] Setting up conv1/dw
I1103 00:54:23.193924 15069 net.cpp:157] Top shape: 1 32 150 150 (720000)
I1103 00:54:23.193928 15069 net.cpp:165] Memory required for data: 17280000
I1103 00:54:23.193933 15069 layer_factory.hpp:77] Creating layer conv1/dw/relu
I1103 00:54:23.193938 15069 net.cpp:100] Creating Layer conv1/dw/relu
I1103 00:54:23.193941 15069 net.cpp:481] conv1/dw/relu <- conv1/dw
I1103 00:54:23.193945 15069 net.cpp:442] conv1/dw/relu -> conv1/dw (in-place)
I1103 00:54:23.194182 15069 net.cpp:150] Setting up conv1/dw/relu
I1103 00:54:23.194197 15069 net.cpp:157] Top shape: 1 32 150 150 (720000)
I1103 00:54:23.194200 15069 net.cpp:165] Memory required for data: 20160000
I1103 00:54:23.194203 15069 layer_factory.hpp:77] Creating layer conv1
I1103 00:54:23.194211 15069 net.cpp:100] Creating Layer conv1
I1103 00:54:23.194217 15069 net.cpp:481] conv1 <- conv1/dw
I1103 00:54:23.194222 15069 net.cpp:455] conv1 -> conv1
I1103 00:54:23.196352 15069 net.cpp:150] Setting up conv1
I1103 00:54:23.196368 15069 net.cpp:157] Top shape: 1 64 150 150 (1440000)
I1103 00:54:23.196372 15069 net.cpp:165] Memory required for data: 25920000
I1103 00:54:23.196393 15069 layer_factory.hpp:77] Creating layer conv1/relu
I1103 00:54:23.196398 15069 net.cpp:100] Creating Layer conv1/relu
I1103 00:54:23.196400 15069 net.cpp:481] conv1/relu <- conv1
I1103 00:54:23.196404 15069 net.cpp:442] conv1/relu -> conv1 (in-place)
I1103 00:54:23.197464 15069 net.cpp:150] Setting up conv1/relu
I1103 00:54:23.197481 15069 net.cpp:157] Top shape: 1 64 150 150 (1440000)
I1103 00:54:23.197484 15069 net.cpp:165] Memory required for data: 31680000
I1103 00:54:23.197501 15069 layer_factory.hpp:77] Creating layer conv2/dw
I1103 00:54:23.197511 15069 net.cpp:100] Creating Layer conv2/dw
I1103 00:54:23.197515 15069 net.cpp:481] conv2/dw <- conv1
I1103 00:54:23.197520 15069 net.cpp:455] conv2/dw -> conv2/dw
I1103 00:54:23.197558 15069 net.cpp:150] Setting up conv2/dw
I1103 00:54:23.197585 15069 net.cpp:157] Top shape: 1 64 75 75 (360000)
I1103 00:54:23.197587 15069 net.cpp:165] Memory required for data: 33120000
I1103 00:54:23.197592 15069 layer_factory.hpp:77] Creating layer conv2/dw/relu
I1103 00:54:23.197597 15069 net.cpp:100] Creating Layer conv2/dw/relu
I1103 00:54:23.197613 15069 net.cpp:481] conv2/dw/relu <- conv2/dw
I1103 00:54:23.197616 15069 net.cpp:442] conv2/dw/relu -> conv2/dw (in-place)
I1103 00:54:23.197834 15069 net.cpp:150] Setting up conv2/dw/relu
I1103 00:54:23.197849 15069 net.cpp:157] Top shape: 1 64 75 75 (360000)
I1103 00:54:23.197857 15069 net.cpp:165] Memory required for data: 34560000
I1103 00:54:23.197860 15069 layer_factory.hpp:77] Creating layer conv2
I1103 00:54:23.197882 15069 net.cpp:100] Creating Layer conv2
I1103 00:54:23.197885 15069 net.cpp:481] conv2 <- conv2/dw
I1103 00:54:23.197890 15069 net.cpp:455] conv2 -> conv2
I1103 00:54:23.200032 15069 net.cpp:150] Setting up conv2
I1103 00:54:23.200050 15069 net.cpp:157] Top shape: 1 128 75 75 (720000)
I1103 00:54:23.200053 15069 net.cpp:165] Memory required for data: 37440000
I1103 00:54:23.200062 15069 layer_factory.hpp:77] Creating layer conv2/relu
I1103 00:54:23.200067 15069 net.cpp:100] Creating Layer conv2/relu
I1103 00:54:23.200089 15069 net.cpp:481] conv2/relu <- conv2
I1103 00:54:23.200109 15069 net.cpp:442] conv2/relu -> conv2 (in-place)
I1103 00:54:23.200963 15069 net.cpp:150] Setting up conv2/relu
I1103 00:54:23.200980 15069 net.cpp:157] Top shape: 1 128 75 75 (720000)
I1103 00:54:23.200984 15069 net.cpp:165] Memory required for data: 40320000
I1103 00:54:23.200986 15069 layer_factory.hpp:77] Creating layer conv3/dw
I1103 00:54:23.200994 15069 net.cpp:100] Creating Layer conv3/dw
I1103 00:54:23.200997 15069 net.cpp:481] conv3/dw <- conv2
I1103 00:54:23.201002 15069 net.cpp:455] conv3/dw -> conv3/dw
I1103 00:54:23.201036 15069 net.cpp:150] Setting up conv3/dw
I1103 00:54:23.201061 15069 net.cpp:157] Top shape: 1 128 75 75 (720000)
I1103 00:54:23.201062 15069 net.cpp:165] Memory required for data: 43200000
I1103 00:54:23.201067 15069 layer_factory.hpp:77] Creating layer conv3/dw/relu
I1103 00:54:23.201071 15069 net.cpp:100] Creating Layer conv3/dw/relu
I1103 00:54:23.201073 15069 net.cpp:481] conv3/dw/relu <- conv3/dw
I1103 00:54:23.201092 15069 net.cpp:442] conv3/dw/relu -> conv3/dw (in-place)
I1103 00:54:23.202052 15069 net.cpp:150] Setting up conv3/dw/relu
I1103 00:54:23.202071 15069 net.cpp:157] Top shape: 1 128 75 75 (720000)
I1103 00:54:23.202073 15069 net.cpp:165] Memory required for data: 46080000
I1103 00:54:23.202076 15069 layer_factory.hpp:77] Creating layer conv3
I1103 00:54:23.202085 15069 net.cpp:100] Creating Layer conv3
I1103 00:54:23.202087 15069 net.cpp:481] conv3 <- conv3/dw
I1103 00:54:23.202091 15069 net.cpp:455] conv3 -> conv3
I1103 00:54:23.204175 15069 net.cpp:150] Setting up conv3
I1103 00:54:23.204195 15069 net.cpp:157] Top shape: 1 128 75 75 (720000)
I1103 00:54:23.204197 15069 net.cpp:165] Memory required for data: 48960000
I1103 00:54:23.204202 15069 layer_factory.hpp:77] Creating layer conv3/relu
I1103 00:54:23.204226 15069 net.cpp:100] Creating Layer conv3/relu
I1103 00:54:23.204229 15069 net.cpp:481] conv3/relu <- conv3
I1103 00:54:23.204233 15069 net.cpp:442] conv3/relu -> conv3 (in-place)
I1103 00:54:23.204561 15069 net.cpp:150] Setting up conv3/relu
I1103 00:54:23.204576 15069 net.cpp:157] Top shape: 1 128 75 75 (720000)
I1103 00:54:23.204578 15069 net.cpp:165] Memory required for data: 51840000
I1103 00:54:23.204581 15069 layer_factory.hpp:77] Creating layer conv4/dw
I1103 00:54:23.204605 15069 net.cpp:100] Creating Layer conv4/dw
I1103 00:54:23.204608 15069 net.cpp:481] conv4/dw <- conv3
I1103 00:54:23.204613 15069 net.cpp:455] conv4/dw -> conv4/dw
I1103 00:54:23.204671 15069 net.cpp:150] Setting up conv4/dw
I1103 00:54:23.204680 15069 net.cpp:157] Top shape: 1 128 38 38 (184832)
I1103 00:54:23.204682 15069 net.cpp:165] Memory required for data: 52579328
I1103 00:54:23.204687 15069 layer_factory.hpp:77] Creating layer conv4/dw/relu
I1103 00:54:23.204691 15069 net.cpp:100] Creating Layer conv4/dw/relu
I1103 00:54:23.204710 15069 net.cpp:481] conv4/dw/relu <- conv4/dw
I1103 00:54:23.204715 15069 net.cpp:442] conv4/dw/relu -> conv4/dw (in-place)
I1103 00:54:23.205574 15069 net.cpp:150] Setting up conv4/dw/relu
I1103 00:54:23.205590 15069 net.cpp:157] Top shape: 1 128 38 38 (184832)
I1103 00:54:23.205592 15069 net.cpp:165] Memory required for data: 53318656
I1103 00:54:23.205595 15069 layer_factory.hpp:77] Creating layer conv4
I1103 00:54:23.205603 15069 net.cpp:100] Creating Layer conv4
I1103 00:54:23.205605 15069 net.cpp:481] conv4 <- conv4/dw
I1103 00:54:23.205610 15069 net.cpp:455] conv4 -> conv4
I1103 00:54:23.208716 15069 net.cpp:150] Setting up conv4
I1103 00:54:23.208736 15069 net.cpp:157] Top shape: 1 256 38 38 (369664)
I1103 00:54:23.208739 15069 net.cpp:165] Memory required for data: 54797312
I1103 00:54:23.208748 15069 layer_factory.hpp:77] Creating layer conv4/relu
I1103 00:54:23.208756 15069 net.cpp:100] Creating Layer conv4/relu
I1103 00:54:23.208760 15069 net.cpp:481] conv4/relu <- conv4
I1103 00:54:23.208763 15069 net.cpp:442] conv4/relu -> conv4 (in-place)
I1103 00:54:23.209041 15069 net.cpp:150] Setting up conv4/relu
I1103 00:54:23.209058 15069 net.cpp:157] Top shape: 1 256 38 38 (369664)
I1103 00:54:23.209059 15069 net.cpp:165] Memory required for data: 56275968
I1103 00:54:23.209062 15069 layer_factory.hpp:77] Creating layer conv5/dw
I1103 00:54:23.209072 15069 net.cpp:100] Creating Layer conv5/dw
I1103 00:54:23.209079 15069 net.cpp:481] conv5/dw <- conv4
I1103 00:54:23.209084 15069 net.cpp:455] conv5/dw -> conv5/dw
I1103 00:54:23.209128 15069 net.cpp:150] Setting up conv5/dw
I1103 00:54:23.209139 15069 net.cpp:157] Top shape: 1 256 38 38 (369664)
I1103 00:54:23.209141 15069 net.cpp:165] Memory required for data: 57754624
I1103 00:54:23.209146 15069 layer_factory.hpp:77] Creating layer conv5/dw/relu
I1103 00:54:23.209152 15069 net.cpp:100] Creating Layer conv5/dw/relu
I1103 00:54:23.209154 15069 net.cpp:481] conv5/dw/relu <- conv5/dw
I1103 00:54:23.209158 15069 net.cpp:442] conv5/dw/relu -> conv5/dw (in-place)
I1103 00:54:23.210052 15069 net.cpp:150] Setting up conv5/dw/relu
I1103 00:54:23.210070 15069 net.cpp:157] Top shape: 1 256 38 38 (369664)
I1103 00:54:23.210073 15069 net.cpp:165] Memory required for data: 59233280
I1103 00:54:23.210077 15069 layer_factory.hpp:77] Creating layer conv5
I1103 00:54:23.210099 15069 net.cpp:100] Creating Layer conv5
I1103 00:54:23.210121 15069 net.cpp:481] conv5 <- conv5/dw
I1103 00:54:23.210139 15069 net.cpp:455] conv5 -> conv5
I1103 00:54:23.213626 15069 net.cpp:150] Setting up conv5
I1103 00:54:23.213645 15069 net.cpp:157] Top shape: 1 256 38 38 (369664)
I1103 00:54:23.213649 15069 net.cpp:165] Memory required for data: 60711936
I1103 00:54:23.213668 15069 layer_factory.hpp:77] Creating layer conv5/relu
I1103 00:54:23.213675 15069 net.cpp:100] Creating Layer conv5/relu
I1103 00:54:23.213677 15069 net.cpp:481] conv5/relu <- conv5
I1103 00:54:23.213681 15069 net.cpp:442] conv5/relu -> conv5 (in-place)
I1103 00:54:23.214607 15069 net.cpp:150] Setting up conv5/relu
I1103 00:54:23.214624 15069 net.cpp:157] Top shape: 1 256 38 38 (369664)
I1103 00:54:23.214627 15069 net.cpp:165] Memory required for data: 62190592
I1103 00:54:23.214629 15069 layer_factory.hpp:77] Creating layer conv6/dw
I1103 00:54:23.214639 15069 net.cpp:100] Creating Layer conv6/dw
I1103 00:54:23.214643 15069 net.cpp:481] conv6/dw <- conv5
I1103 00:54:23.214648 15069 net.cpp:455] conv6/dw -> conv6/dw
I1103 00:54:23.214692 15069 net.cpp:150] Setting up conv6/dw
I1103 00:54:23.214716 15069 net.cpp:157] Top shape: 1 256 19 19 (92416)
I1103 00:54:23.214720 15069 net.cpp:165] Memory required for data: 62560256
I1103 00:54:23.214723 15069 layer_factory.hpp:77] Creating layer conv6/dw/relu
I1103 00:54:23.214730 15069 net.cpp:100] Creating Layer conv6/dw/relu
I1103 00:54:23.214733 15069 net.cpp:481] conv6/dw/relu <- conv6/dw
I1103 00:54:23.214737 15069 net.cpp:442] conv6/dw/relu -> conv6/dw (in-place)
I1103 00:54:23.215061 15069 net.cpp:150] Setting up conv6/dw/relu
I1103 00:54:23.215077 15069 net.cpp:157] Top shape: 1 256 19 19 (92416)
I1103 00:54:23.215096 15069 net.cpp:165] Memory required for data: 62929920
I1103 00:54:23.215100 15069 layer_factory.hpp:77] Creating layer conv6
I1103 00:54:23.215124 15069 net.cpp:100] Creating Layer conv6
I1103 00:54:23.215147 15069 net.cpp:481] conv6 <- conv6/dw
I1103 00:54:23.215152 15069 net.cpp:455] conv6 -> conv6
I1103 00:54:23.219246 15069 net.cpp:150] Setting up conv6
I1103 00:54:23.219265 15069 net.cpp:157] Top shape: 1 512 19 19 (184832)
I1103 00:54:23.219269 15069 net.cpp:165] Memory required for data: 63669248
I1103 00:54:23.219290 15069 layer_factory.hpp:77] Creating layer conv6/relu
I1103 00:54:23.219295 15069 net.cpp:100] Creating Layer conv6/relu
I1103 00:54:23.219297 15069 net.cpp:481] conv6/relu <- conv6
I1103 00:54:23.219303 15069 net.cpp:442] conv6/relu -> conv6 (in-place)
I1103 00:54:23.220341 15069 net.cpp:150] Setting up conv6/relu
I1103 00:54:23.220358 15069 net.cpp:157] Top shape: 1 512 19 19 (184832)
I1103 00:54:23.220361 15069 net.cpp:165] Memory required for data: 64408576
I1103 00:54:23.220365 15069 layer_factory.hpp:77] Creating layer conv7/dw
I1103 00:54:23.220373 15069 net.cpp:100] Creating Layer conv7/dw
I1103 00:54:23.220396 15069 net.cpp:481] conv7/dw <- conv6
I1103 00:54:23.220402 15069 net.cpp:455] conv7/dw -> conv7/dw
I1103 00:54:23.220517 15069 net.cpp:150] Setting up conv7/dw
I1103 00:54:23.220527 15069 net.cpp:157] Top shape: 1 512 19 19 (184832)
I1103 00:54:23.220530 15069 net.cpp:165] Memory required for data: 65147904
I1103 00:54:23.220535 15069 layer_factory.hpp:77] Creating layer conv7/dw/relu
I1103 00:54:23.220538 15069 net.cpp:100] Creating Layer conv7/dw/relu
I1103 00:54:23.220543 15069 net.cpp:481] conv7/dw/relu <- conv7/dw
I1103 00:54:23.220547 15069 net.cpp:442] conv7/dw/relu -> conv7/dw (in-place)
I1103 00:54:23.220857 15069 net.cpp:150] Setting up conv7/dw/relu
I1103 00:54:23.220902 15069 net.cpp:157] Top shape: 1 512 19 19 (184832)
I1103 00:54:23.220906 15069 net.cpp:165] Memory required for data: 65887232
I1103 00:54:23.220908 15069 layer_factory.hpp:77] Creating layer conv7
I1103 00:54:23.220932 15069 net.cpp:100] Creating Layer conv7
I1103 00:54:23.220935 15069 net.cpp:481] conv7 <- conv7/dw
I1103 00:54:23.220943 15069 net.cpp:455] conv7 -> conv7
I1103 00:54:23.226660 15069 net.cpp:150] Setting up conv7
I1103 00:54:23.226696 15069 net.cpp:157] Top shape: 1 512 19 19 (184832)
I1103 00:54:23.226698 15069 net.cpp:165] Memory required for data: 66626560
I1103 00:54:23.226704 15069 layer_factory.hpp:77] Creating layer conv7/relu
I1103 00:54:23.226709 15069 net.cpp:100] Creating Layer conv7/relu
I1103 00:54:23.226712 15069 net.cpp:481] conv7/relu <- conv7
I1103 00:54:23.226716 15069 net.cpp:442] conv7/relu -> conv7 (in-place)
I1103 00:54:23.227780 15069 net.cpp:150] Setting up conv7/relu
I1103 00:54:23.227798 15069 net.cpp:157] Top shape: 1 512 19 19 (184832)
I1103 00:54:23.227802 15069 net.cpp:165] Memory required for data: 67365888
I1103 00:54:23.227804 15069 layer_factory.hpp:77] Creating layer conv8/dw
I1103 00:54:23.227819 15069 net.cpp:100] Creating Layer conv8/dw
I1103 00:54:23.227823 15069 net.cpp:481] conv8/dw <- conv7
I1103 00:54:23.227828 15069 net.cpp:455] conv8/dw -> conv8/dw
I1103 00:54:23.227912 15069 net.cpp:150] Setting up conv8/dw
I1103 00:54:23.227923 15069 net.cpp:157] Top shape: 1 512 19 19 (184832)
I1103 00:54:23.227926 15069 net.cpp:165] Memory required for data: 68105216
I1103 00:54:23.227931 15069 layer_factory.hpp:77] Creating layer conv8/dw/relu
I1103 00:54:23.227949 15069 net.cpp:100] Creating Layer conv8/dw/relu
I1103 00:54:23.227954 15069 net.cpp:481] conv8/dw/relu <- conv8/dw
I1103 00:54:23.227960 15069 net.cpp:442] conv8/dw/relu -> conv8/dw (in-place)
I1103 00:54:23.228909 15069 net.cpp:150] Setting up conv8/dw/relu
I1103 00:54:23.228929 15069 net.cpp:157] Top shape: 1 512 19 19 (184832)
I1103 00:54:23.228931 15069 net.cpp:165] Memory required for data: 68844544
I1103 00:54:23.228935 15069 layer_factory.hpp:77] Creating layer conv8
I1103 00:54:23.228945 15069 net.cpp:100] Creating Layer conv8
I1103 00:54:23.228947 15069 net.cpp:481] conv8 <- conv8/dw
I1103 00:54:23.228953 15069 net.cpp:455] conv8 -> conv8
I1103 00:54:23.233536 15069 net.cpp:150] Setting up conv8
I1103 00:54:23.233556 15069 net.cpp:157] Top shape: 1 512 19 19 (184832)
I1103 00:54:23.233559 15069 net.cpp:165] Memory required for data: 69583872
I1103 00:54:23.233587 15069 layer_factory.hpp:77] Creating layer conv8/relu
I1103 00:54:23.233592 15069 net.cpp:100] Creating Layer conv8/relu
I1103 00:54:23.233594 15069 net.cpp:481] conv8/relu <- conv8
I1103 00:54:23.233599 15069 net.cpp:442] conv8/relu -> conv8 (in-place)
I1103 00:54:23.233930 15069 net.cpp:150] Setting up conv8/relu
I1103 00:54:23.233960 15069 net.cpp:157] Top shape: 1 512 19 19 (184832)
I1103 00:54:23.233963 15069 net.cpp:165] Memory required for data: 70323200
I1103 00:54:23.233966 15069 layer_factory.hpp:77] Creating layer conv9/dw
I1103 00:54:23.233974 15069 net.cpp:100] Creating Layer conv9/dw
I1103 00:54:23.233996 15069 net.cpp:481] conv9/dw <- conv8
I1103 00:54:23.234001 15069 net.cpp:455] conv9/dw -> conv9/dw
I1103 00:54:23.234159 15069 net.cpp:150] Setting up conv9/dw
I1103 00:54:23.234169 15069 net.cpp:157] Top shape: 1 512 19 19 (184832)
I1103 00:54:23.234171 15069 net.cpp:165] Memory required for data: 71062528
I1103 00:54:23.234177 15069 layer_factory.hpp:77] Creating layer conv9/dw/relu
I1103 00:54:23.234181 15069 net.cpp:100] Creating Layer conv9/dw/relu
I1103 00:54:23.234185 15069 net.cpp:481] conv9/dw/relu <- conv9/dw
I1103 00:54:23.234189 15069 net.cpp:442] conv9/dw/relu -> conv9/dw (in-place)
I1103 00:54:23.235177 15069 net.cpp:150] Setting up conv9/dw/relu
I1103 00:54:23.235193 15069 net.cpp:157] Top shape: 1 512 19 19 (184832)
I1103 00:54:23.235196 15069 net.cpp:165] Memory required for data: 71801856
I1103 00:54:23.235199 15069 layer_factory.hpp:77] Creating layer conv9
I1103 00:54:23.235209 15069 net.cpp:100] Creating Layer conv9
I1103 00:54:23.235232 15069 net.cpp:481] conv9 <- conv9/dw
I1103 00:54:23.235237 15069 net.cpp:455] conv9 -> conv9
I1103 00:54:23.240273 15069 net.cpp:150] Setting up conv9
I1103 00:54:23.240294 15069 net.cpp:157] Top shape: 1 512 19 19 (184832)
I1103 00:54:23.240298 15069 net.cpp:165] Memory required for data: 72541184
I1103 00:54:23.240303 15069 layer_factory.hpp:77] Creating layer conv9/relu
I1103 00:54:23.240309 15069 net.cpp:100] Creating Layer conv9/relu
I1103 00:54:23.240311 15069 net.cpp:481] conv9/relu <- conv9
I1103 00:54:23.240316 15069 net.cpp:442] conv9/relu -> conv9 (in-place)
I1103 00:54:23.240665 15069 net.cpp:150] Setting up conv9/relu
I1103 00:54:23.240695 15069 net.cpp:157] Top shape: 1 512 19 19 (184832)
I1103 00:54:23.240697 15069 net.cpp:165] Memory required for data: 73280512
I1103 00:54:23.240700 15069 layer_factory.hpp:77] Creating layer conv10/dw
I1103 00:54:23.240725 15069 net.cpp:100] Creating Layer conv10/dw
I1103 00:54:23.240728 15069 net.cpp:481] conv10/dw <- conv9
I1103 00:54:23.240734 15069 net.cpp:455] conv10/dw -> conv10/dw
I1103 00:54:23.240799 15069 net.cpp:150] Setting up conv10/dw
I1103 00:54:23.240809 15069 net.cpp:157] Top shape: 1 512 19 19 (184832)
I1103 00:54:23.240811 15069 net.cpp:165] Memory required for data: 74019840
I1103 00:54:23.240818 15069 layer_factory.hpp:77] Creating layer conv10/dw/relu
I1103 00:54:23.240824 15069 net.cpp:100] Creating Layer conv10/dw/relu
I1103 00:54:23.240829 15069 net.cpp:481] conv10/dw/relu <- conv10/dw
I1103 00:54:23.240833 15069 net.cpp:442] conv10/dw/relu -> conv10/dw (in-place)
I1103 00:54:23.241727 15069 net.cpp:150] Setting up conv10/dw/relu
I1103 00:54:23.241745 15069 net.cpp:157] Top shape: 1 512 19 19 (184832)
I1103 00:54:23.241749 15069 net.cpp:165] Memory required for data: 74759168
I1103 00:54:23.241751 15069 layer_factory.hpp:77] Creating layer conv10
I1103 00:54:23.241760 15069 net.cpp:100] Creating Layer conv10
I1103 00:54:23.241763 15069 net.cpp:481] conv10 <- conv10/dw
I1103 00:54:23.241770 15069 net.cpp:455] conv10 -> conv10
I1103 00:54:23.246562 15069 net.cpp:150] Setting up conv10
I1103 00:54:23.246582 15069 net.cpp:157] Top shape: 1 512 19 19 (184832)
I1103 00:54:23.246585 15069 net.cpp:165] Memory required for data: 75498496
I1103 00:54:23.246590 15069 layer_factory.hpp:77] Creating layer conv10/relu
I1103 00:54:23.246595 15069 net.cpp:100] Creating Layer conv10/relu
I1103 00:54:23.246598 15069 net.cpp:481] conv10/relu <- conv10
I1103 00:54:23.246603 15069 net.cpp:442] conv10/relu -> conv10 (in-place)
I1103 00:54:23.247609 15069 net.cpp:150] Setting up conv10/relu
I1103 00:54:23.247629 15069 net.cpp:157] Top shape: 1 512 19 19 (184832)
I1103 00:54:23.247632 15069 net.cpp:165] Memory required for data: 76237824
I1103 00:54:23.247635 15069 layer_factory.hpp:77] Creating layer conv11/dw
I1103 00:54:23.247645 15069 net.cpp:100] Creating Layer conv11/dw
I1103 00:54:23.247668 15069 net.cpp:481] conv11/dw <- conv10
I1103 00:54:23.247689 15069 net.cpp:455] conv11/dw -> conv11/dw
I1103 00:54:23.247789 15069 net.cpp:150] Setting up conv11/dw
I1103 00:54:23.247799 15069 net.cpp:157] Top shape: 1 512 19 19 (184832)
I1103 00:54:23.247802 15069 net.cpp:165] Memory required for data: 76977152
I1103 00:54:23.247807 15069 layer_factory.hpp:77] Creating layer conv11/dw/relu
I1103 00:54:23.247812 15069 net.cpp:100] Creating Layer conv11/dw/relu
I1103 00:54:23.247815 15069 net.cpp:481] conv11/dw/relu <- conv11/dw
I1103 00:54:23.247838 15069 net.cpp:442] conv11/dw/relu -> conv11/dw (in-place)
I1103 00:54:23.248206 15069 net.cpp:150] Setting up conv11/dw/relu
I1103 00:54:23.248237 15069 net.cpp:157] Top shape: 1 512 19 19 (184832)
I1103 00:54:23.248255 15069 net.cpp:165] Memory required for data: 77716480
I1103 00:54:23.248257 15069 layer_factory.hpp:77] Creating layer conv11
I1103 00:54:23.248265 15069 net.cpp:100] Creating Layer conv11
I1103 00:54:23.248268 15069 net.cpp:481] conv11 <- conv11/dw
I1103 00:54:23.248276 15069 net.cpp:455] conv11 -> conv11
I1103 00:54:23.252912 15069 net.cpp:150] Setting up conv11
I1103 00:54:23.252935 15069 net.cpp:157] Top shape: 1 512 19 19 (184832)
I1103 00:54:23.252938 15069 net.cpp:165] Memory required for data: 78455808
I1103 00:54:23.252943 15069 layer_factory.hpp:77] Creating layer conv11/relu
I1103 00:54:23.252957 15069 net.cpp:100] Creating Layer conv11/relu
I1103 00:54:23.252960 15069 net.cpp:481] conv11/relu <- conv11
I1103 00:54:23.252964 15069 net.cpp:442] conv11/relu -> conv11 (in-place)
I1103 00:54:23.253929 15069 net.cpp:150] Setting up conv11/relu
I1103 00:54:23.253948 15069 net.cpp:157] Top shape: 1 512 19 19 (184832)
I1103 00:54:23.253952 15069 net.cpp:165] Memory required for data: 79195136
I1103 00:54:23.253954 15069 layer_factory.hpp:77] Creating layer conv11_conv11/relu_0_split
I1103 00:54:23.253960 15069 net.cpp:100] Creating Layer conv11_conv11/relu_0_split
I1103 00:54:23.253963 15069 net.cpp:481] conv11_conv11/relu_0_split <- conv11
I1103 00:54:23.253969 15069 net.cpp:455] conv11_conv11/relu_0_split -> conv11_conv11/relu_0_split_0
I1103 00:54:23.253975 15069 net.cpp:455] conv11_conv11/relu_0_split -> conv11_conv11/relu_0_split_1
I1103 00:54:23.253988 15069 net.cpp:455] conv11_conv11/relu_0_split -> conv11_conv11/relu_0_split_2
I1103 00:54:23.254011 15069 net.cpp:455] conv11_conv11/relu_0_split -> conv11_conv11/relu_0_split_3
I1103 00:54:23.254019 15069 net.cpp:150] Setting up conv11_conv11/relu_0_split
I1103 00:54:23.254022 15069 net.cpp:157] Top shape: 1 512 19 19 (184832)
I1103 00:54:23.254025 15069 net.cpp:157] Top shape: 1 512 19 19 (184832)
I1103 00:54:23.254029 15069 net.cpp:157] Top shape: 1 512 19 19 (184832)
I1103 00:54:23.254046 15069 net.cpp:157] Top shape: 1 512 19 19 (184832)
I1103 00:54:23.254048 15069 net.cpp:165] Memory required for data: 82152448
I1103 00:54:23.254050 15069 layer_factory.hpp:77] Creating layer conv12/dw
I1103 00:54:23.254060 15069 net.cpp:100] Creating Layer conv12/dw
I1103 00:54:23.254062 15069 net.cpp:481] conv12/dw <- conv11_conv11/relu_0_split_0
I1103 00:54:23.254083 15069 net.cpp:455] conv12/dw -> conv12/dw
I1103 00:54:23.254178 15069 net.cpp:150] Setting up conv12/dw
I1103 00:54:23.254189 15069 net.cpp:157] Top shape: 1 512 10 10 (51200)
I1103 00:54:23.254190 15069 net.cpp:165] Memory required for data: 82357248
I1103 00:54:23.254196 15069 layer_factory.hpp:77] Creating layer conv12/dw/relu
I1103 00:54:23.254200 15069 net.cpp:100] Creating Layer conv12/dw/relu
I1103 00:54:23.254204 15069 net.cpp:481] conv12/dw/relu <- conv12/dw
I1103 00:54:23.254207 15069 net.cpp:442] conv12/dw/relu -> conv12/dw (in-place)
I1103 00:54:23.254547 15069 net.cpp:150] Setting up conv12/dw/relu
I1103 00:54:23.254564 15069 net.cpp:157] Top shape: 1 512 10 10 (51200)
I1103 00:54:23.254566 15069 net.cpp:165] Memory required for data: 82562048
I1103 00:54:23.254568 15069 layer_factory.hpp:77] Creating layer conv12
I1103 00:54:23.254577 15069 net.cpp:100] Creating Layer conv12
I1103 00:54:23.254582 15069 net.cpp:481] conv12 <- conv12/dw
I1103 00:54:23.254588 15069 net.cpp:455] conv12 -> conv12
I1103 00:54:23.261740 15069 net.cpp:150] Setting up conv12
I1103 00:54:23.261760 15069 net.cpp:157] Top shape: 1 1024 10 10 (102400)
I1103 00:54:23.261764 15069 net.cpp:165] Memory required for data: 82971648
I1103 00:54:23.261770 15069 layer_factory.hpp:77] Creating layer conv12/relu
I1103 00:54:23.261776 15069 net.cpp:100] Creating Layer conv12/relu
I1103 00:54:23.261780 15069 net.cpp:481] conv12/relu <- conv12
I1103 00:54:23.261801 15069 net.cpp:442] conv12/relu -> conv12 (in-place)
I1103 00:54:23.263630 15069 net.cpp:150] Setting up conv12/relu
I1103 00:54:23.263649 15069 net.cpp:157] Top shape: 1 1024 10 10 (102400)
I1103 00:54:23.263653 15069 net.cpp:165] Memory required for data: 83381248
I1103 00:54:23.263654 15069 layer_factory.hpp:77] Creating layer conv13/dw
I1103 00:54:23.263664 15069 net.cpp:100] Creating Layer conv13/dw
I1103 00:54:23.263685 15069 net.cpp:481] conv13/dw <- conv12
I1103 00:54:23.263692 15069 net.cpp:455] conv13/dw -> conv13/dw
I1103 00:54:23.263835 15069 net.cpp:150] Setting up conv13/dw
I1103 00:54:23.263846 15069 net.cpp:157] Top shape: 1 1024 10 10 (102400)
I1103 00:54:23.263849 15069 net.cpp:165] Memory required for data: 83790848
I1103 00:54:23.263859 15069 layer_factory.hpp:77] Creating layer conv13/dw/relu
I1103 00:54:23.263864 15069 net.cpp:100] Creating Layer conv13/dw/relu
I1103 00:54:23.263866 15069 net.cpp:481] conv13/dw/relu <- conv13/dw
I1103 00:54:23.263871 15069 net.cpp:442] conv13/dw/relu -> conv13/dw (in-place)
I1103 00:54:23.264755 15069 net.cpp:150] Setting up conv13/dw/relu
I1103 00:54:23.264773 15069 net.cpp:157] Top shape: 1 1024 10 10 (102400)
I1103 00:54:23.264776 15069 net.cpp:165] Memory required for data: 84200448
I1103 00:54:23.264780 15069 layer_factory.hpp:77] Creating layer conv13
I1103 00:54:23.264787 15069 net.cpp:100] Creating Layer conv13
I1103 00:54:23.264807 15069 net.cpp:481] conv13 <- conv13/dw
I1103 00:54:23.264816 15069 net.cpp:455] conv13 -> conv13
I1103 00:54:23.276760 15069 net.cpp:150] Setting up conv13
I1103 00:54:23.276779 15069 net.cpp:157] Top shape: 1 1024 10 10 (102400)
I1103 00:54:23.276798 15069 net.cpp:165] Memory required for data: 84610048
I1103 00:54:23.276803 15069 layer_factory.hpp:77] Creating layer conv13/relu
I1103 00:54:23.276808 15069 net.cpp:100] Creating Layer conv13/relu
I1103 00:54:23.276810 15069 net.cpp:481] conv13/relu <- conv13
I1103 00:54:23.276814 15069 net.cpp:442] conv13/relu -> conv13 (in-place)
I1103 00:54:23.277200 15069 net.cpp:150] Setting up conv13/relu
I1103 00:54:23.277214 15069 net.cpp:157] Top shape: 1 1024 10 10 (102400)
I1103 00:54:23.277216 15069 net.cpp:165] Memory required for data: 85019648
I1103 00:54:23.277218 15069 layer_factory.hpp:77] Creating layer conv13_conv13/relu_0_split
I1103 00:54:23.277238 15069 net.cpp:100] Creating Layer conv13_conv13/relu_0_split
I1103 00:54:23.277241 15069 net.cpp:481] conv13_conv13/relu_0_split <- conv13
I1103 00:54:23.277262 15069 net.cpp:455] conv13_conv13/relu_0_split -> conv13_conv13/relu_0_split_0
I1103 00:54:23.277283 15069 net.cpp:455] conv13_conv13/relu_0_split -> conv13_conv13/relu_0_split_1
I1103 00:54:23.277289 15069 net.cpp:455] conv13_conv13/relu_0_split -> conv13_conv13/relu_0_split_2
I1103 00:54:23.277294 15069 net.cpp:455] conv13_conv13/relu_0_split -> conv13_conv13/relu_0_split_3
I1103 00:54:23.277314 15069 net.cpp:150] Setting up conv13_conv13/relu_0_split
I1103 00:54:23.277323 15069 net.cpp:157] Top shape: 1 1024 10 10 (102400)
I1103 00:54:23.277325 15069 net.cpp:157] Top shape: 1 1024 10 10 (102400)
I1103 00:54:23.277328 15069 net.cpp:157] Top shape: 1 1024 10 10 (102400)
I1103 00:54:23.277330 15069 net.cpp:157] Top shape: 1 1024 10 10 (102400)
I1103 00:54:23.277331 15069 net.cpp:165] Memory required for data: 86658048
I1103 00:54:23.277333 15069 layer_factory.hpp:77] Creating layer conv14_1
I1103 00:54:23.277359 15069 net.cpp:100] Creating Layer conv14_1
I1103 00:54:23.277384 15069 net.cpp:481] conv14_1 <- conv13_conv13/relu_0_split_0
I1103 00:54:23.277400 15069 net.cpp:455] conv14_1 -> conv14_1
I1103 00:54:23.282061 15069 net.cpp:150] Setting up conv14_1
I1103 00:54:23.282083 15069 net.cpp:157] Top shape: 1 256 10 10 (25600)
I1103 00:54:23.282099 15069 net.cpp:165] Memory required for data: 86760448
I1103 00:54:23.282105 15069 layer_factory.hpp:77] Creating layer conv14_1/relu
I1103 00:54:23.282110 15069 net.cpp:100] Creating Layer conv14_1/relu
I1103 00:54:23.282138 15069 net.cpp:481] conv14_1/relu <- conv14_1
I1103 00:54:23.282160 15069 net.cpp:442] conv14_1/relu -> conv14_1 (in-place)
I1103 00:54:23.283231 15069 net.cpp:150] Setting up conv14_1/relu
I1103 00:54:23.283251 15069 net.cpp:157] Top shape: 1 256 10 10 (25600)
I1103 00:54:23.283253 15069 net.cpp:165] Memory required for data: 86862848
I1103 00:54:23.283270 15069 layer_factory.hpp:77] Creating layer conv14_2
I1103 00:54:23.283280 15069 net.cpp:100] Creating Layer conv14_2
I1103 00:54:23.283283 15069 net.cpp:481] conv14_2 <- conv14_1
I1103 00:54:23.283289 15069 net.cpp:455] conv14_2 -> conv14_2
I1103 00:54:23.298645 15069 net.cpp:150] Setting up conv14_2
I1103 00:54:23.298663 15069 net.cpp:157] Top shape: 1 512 5 5 (12800)
I1103 00:54:23.298666 15069 net.cpp:165] Memory required for data: 86914048
I1103 00:54:23.298686 15069 layer_factory.hpp:77] Creating layer conv14_2/relu
I1103 00:54:23.298691 15069 net.cpp:100] Creating Layer conv14_2/relu
I1103 00:54:23.298694 15069 net.cpp:481] conv14_2/relu <- conv14_2
I1103 00:54:23.298701 15069 net.cpp:442] conv14_2/relu -> conv14_2 (in-place)
I1103 00:54:23.299127 15069 net.cpp:150] Setting up conv14_2/relu
I1103 00:54:23.299173 15069 net.cpp:157] Top shape: 1 512 5 5 (12800)
I1103 00:54:23.299176 15069 net.cpp:165] Memory required for data: 86965248
I1103 00:54:23.299178 15069 layer_factory.hpp:77] Creating layer conv14_2_conv14_2/relu_0_split
I1103 00:54:23.299185 15069 net.cpp:100] Creating Layer conv14_2_conv14_2/relu_0_split
I1103 00:54:23.299187 15069 net.cpp:481] conv14_2_conv14_2/relu_0_split <- conv14_2
I1103 00:54:23.299209 15069 net.cpp:455] conv14_2_conv14_2/relu_0_split -> conv14_2_conv14_2/relu_0_split_0
I1103 00:54:23.299219 15069 net.cpp:455] conv14_2_conv14_2/relu_0_split -> conv14_2_conv14_2/relu_0_split_1
I1103 00:54:23.299226 15069 net.cpp:455] conv14_2_conv14_2/relu_0_split -> conv14_2_conv14_2/relu_0_split_2
I1103 00:54:23.299232 15069 net.cpp:455] conv14_2_conv14_2/relu_0_split -> conv14_2_conv14_2/relu_0_split_3
I1103 00:54:23.299255 15069 net.cpp:150] Setting up conv14_2_conv14_2/relu_0_split
I1103 00:54:23.299259 15069 net.cpp:157] Top shape: 1 512 5 5 (12800)
I1103 00:54:23.299264 15069 net.cpp:157] Top shape: 1 512 5 5 (12800)
I1103 00:54:23.299266 15069 net.cpp:157] Top shape: 1 512 5 5 (12800)
I1103 00:54:23.299269 15069 net.cpp:157] Top shape: 1 512 5 5 (12800)
I1103 00:54:23.299271 15069 net.cpp:165] Memory required for data: 87170048
I1103 00:54:23.299273 15069 layer_factory.hpp:77] Creating layer conv15_1
I1103 00:54:23.299283 15069 net.cpp:100] Creating Layer conv15_1
I1103 00:54:23.299285 15069 net.cpp:481] conv15_1 <- conv14_2_conv14_2/relu_0_split_0
I1103 00:54:23.299289 15069 net.cpp:455] conv15_1 -> conv15_1
I1103 00:54:23.302167 15069 net.cpp:150] Setting up conv15_1
I1103 00:54:23.302186 15069 net.cpp:157] Top shape: 1 128 5 5 (3200)
I1103 00:54:23.302189 15069 net.cpp:165] Memory required for data: 87182848
I1103 00:54:23.302194 15069 layer_factory.hpp:77] Creating layer conv15_1/relu
I1103 00:54:23.302227 15069 net.cpp:100] Creating Layer conv15_1/relu
I1103 00:54:23.302229 15069 net.cpp:481] conv15_1/relu <- conv15_1
I1103 00:54:23.302248 15069 net.cpp:442] conv15_1/relu -> conv15_1 (in-place)
I1103 00:54:23.303225 15069 net.cpp:150] Setting up conv15_1/relu
I1103 00:54:23.303242 15069 net.cpp:157] Top shape: 1 128 5 5 (3200)
I1103 00:54:23.303246 15069 net.cpp:165] Memory required for data: 87195648
I1103 00:54:23.303263 15069 layer_factory.hpp:77] Creating layer conv15_2
I1103 00:54:23.303272 15069 net.cpp:100] Creating Layer conv15_2
I1103 00:54:23.303277 15069 net.cpp:481] conv15_2 <- conv15_1
I1103 00:54:23.303282 15069 net.cpp:455] conv15_2 -> conv15_2
I1103 00:54:23.308204 15069 net.cpp:150] Setting up conv15_2
I1103 00:54:23.308224 15069 net.cpp:157] Top shape: 1 256 3 3 (2304)
I1103 00:54:23.308228 15069 net.cpp:165] Memory required for data: 87204864
I1103 00:54:23.308248 15069 layer_factory.hpp:77] Creating layer conv15_2/relu
I1103 00:54:23.308254 15069 net.cpp:100] Creating Layer conv15_2/relu
I1103 00:54:23.308257 15069 net.cpp:481] conv15_2/relu <- conv15_2
I1103 00:54:23.308261 15069 net.cpp:442] conv15_2/relu -> conv15_2 (in-place)
I1103 00:54:23.309466 15069 net.cpp:150] Setting up conv15_2/relu
I1103 00:54:23.309492 15069 net.cpp:157] Top shape: 1 256 3 3 (2304)
I1103 00:54:23.309494 15069 net.cpp:165] Memory required for data: 87214080
I1103 00:54:23.309511 15069 layer_factory.hpp:77] Creating layer conv15_2_conv15_2/relu_0_split
I1103 00:54:23.309518 15069 net.cpp:100] Creating Layer conv15_2_conv15_2/relu_0_split
I1103 00:54:23.309521 15069 net.cpp:481] conv15_2_conv15_2/relu_0_split <- conv15_2
I1103 00:54:23.309527 15069 net.cpp:455] conv15_2_conv15_2/relu_0_split -> conv15_2_conv15_2/relu_0_split_0
I1103 00:54:23.309533 15069 net.cpp:455] conv15_2_conv15_2/relu_0_split -> conv15_2_conv15_2/relu_0_split_1
I1103 00:54:23.309552 15069 net.cpp:455] conv15_2_conv15_2/relu_0_split -> conv15_2_conv15_2/relu_0_split_2
I1103 00:54:23.309558 15069 net.cpp:455] conv15_2_conv15_2/relu_0_split -> conv15_2_conv15_2/relu_0_split_3
I1103 00:54:23.309566 15069 net.cpp:150] Setting up conv15_2_conv15_2/relu_0_split
I1103 00:54:23.309573 15069 net.cpp:157] Top shape: 1 256 3 3 (2304)
I1103 00:54:23.309576 15069 net.cpp:157] Top shape: 1 256 3 3 (2304)
I1103 00:54:23.309578 15069 net.cpp:157] Top shape: 1 256 3 3 (2304)
I1103 00:54:23.309597 15069 net.cpp:157] Top shape: 1 256 3 3 (2304)
I1103 00:54:23.309597 15069 net.cpp:165] Memory required for data: 87250944
I1103 00:54:23.309600 15069 layer_factory.hpp:77] Creating layer conv16_1
I1103 00:54:23.309609 15069 net.cpp:100] Creating Layer conv16_1
I1103 00:54:23.309615 15069 net.cpp:481] conv16_1 <- conv15_2_conv15_2/relu_0_split_0
I1103 00:54:23.309624 15069 net.cpp:455] conv16_1 -> conv16_1
I1103 00:54:23.312443 15069 net.cpp:150] Setting up conv16_1
I1103 00:54:23.312463 15069 net.cpp:157] Top shape: 1 128 3 3 (1152)
I1103 00:54:23.312465 15069 net.cpp:165] Memory required for data: 87255552
I1103 00:54:23.312471 15069 layer_factory.hpp:77] Creating layer conv16_1/relu
I1103 00:54:23.312475 15069 net.cpp:100] Creating Layer conv16_1/relu
I1103 00:54:23.312479 15069 net.cpp:481] conv16_1/relu <- conv16_1
I1103 00:54:23.312484 15069 net.cpp:442] conv16_1/relu -> conv16_1 (in-place)
I1103 00:54:23.312846 15069 net.cpp:150] Setting up conv16_1/relu
I1103 00:54:23.312867 15069 net.cpp:157] Top shape: 1 128 3 3 (1152)
I1103 00:54:23.312870 15069 net.cpp:165] Memory required for data: 87260160
I1103 00:54:23.312888 15069 layer_factory.hpp:77] Creating layer conv16_2
I1103 00:54:23.312912 15069 net.cpp:100] Creating Layer conv16_2
I1103 00:54:23.312916 15069 net.cpp:481] conv16_2 <- conv16_1
I1103 00:54:23.312938 15069 net.cpp:455] conv16_2 -> conv16_2
I1103 00:54:23.318104 15069 net.cpp:150] Setting up conv16_2
I1103 00:54:23.318125 15069 net.cpp:157] Top shape: 1 256 2 2 (1024)
I1103 00:54:23.318152 15069 net.cpp:165] Memory required for data: 87264256
I1103 00:54:23.318171 15069 layer_factory.hpp:77] Creating layer conv16_2/relu
I1103 00:54:23.318197 15069 net.cpp:100] Creating Layer conv16_2/relu
I1103 00:54:23.318199 15069 net.cpp:481] conv16_2/relu <- conv16_2
I1103 00:54:23.318203 15069 net.cpp:442] conv16_2/relu -> conv16_2 (in-place)
I1103 00:54:23.319238 15069 net.cpp:150] Setting up conv16_2/relu
I1103 00:54:23.319255 15069 net.cpp:157] Top shape: 1 256 2 2 (1024)
I1103 00:54:23.319258 15069 net.cpp:165] Memory required for data: 87268352
I1103 00:54:23.319275 15069 layer_factory.hpp:77] Creating layer conv16_2_conv16_2/relu_0_split
I1103 00:54:23.319283 15069 net.cpp:100] Creating Layer conv16_2_conv16_2/relu_0_split
I1103 00:54:23.319286 15069 net.cpp:481] conv16_2_conv16_2/relu_0_split <- conv16_2
I1103 00:54:23.319291 15069 net.cpp:455] conv16_2_conv16_2/relu_0_split -> conv16_2_conv16_2/relu_0_split_0
I1103 00:54:23.319298 15069 net.cpp:455] conv16_2_conv16_2/relu_0_split -> conv16_2_conv16_2/relu_0_split_1
I1103 00:54:23.319322 15069 net.cpp:455] conv16_2_conv16_2/relu_0_split -> conv16_2_conv16_2/relu_0_split_2
I1103 00:54:23.319327 15069 net.cpp:455] conv16_2_conv16_2/relu_0_split -> conv16_2_conv16_2/relu_0_split_3
I1103 00:54:23.319334 15069 net.cpp:150] Setting up conv16_2_conv16_2/relu_0_split
I1103 00:54:23.319339 15069 net.cpp:157] Top shape: 1 256 2 2 (1024)
I1103 00:54:23.319342 15069 net.cpp:157] Top shape: 1 256 2 2 (1024)
I1103 00:54:23.319344 15069 net.cpp:157] Top shape: 1 256 2 2 (1024)
I1103 00:54:23.319361 15069 net.cpp:157] Top shape: 1 256 2 2 (1024)
I1103 00:54:23.319365 15069 net.cpp:165] Memory required for data: 87284736
I1103 00:54:23.319367 15069 layer_factory.hpp:77] Creating layer conv17_1
I1103 00:54:23.319377 15069 net.cpp:100] Creating Layer conv17_1
I1103 00:54:23.319384 15069 net.cpp:481] conv17_1 <- conv16_2_conv16_2/relu_0_split_0
I1103 00:54:23.319388 15069 net.cpp:455] conv17_1 -> conv17_1
I1103 00:54:23.322435 15069 net.cpp:150] Setting up conv17_1
I1103 00:54:23.322454 15069 net.cpp:157] Top shape: 1 64 2 2 (256)
I1103 00:54:23.322456 15069 net.cpp:165] Memory required for data: 87285760
I1103 00:54:23.322476 15069 layer_factory.hpp:77] Creating layer conv17_1/relu
I1103 00:54:23.322482 15069 net.cpp:100] Creating Layer conv17_1/relu
I1103 00:54:23.322485 15069 net.cpp:481] conv17_1/relu <- conv17_1
I1103 00:54:23.322489 15069 net.cpp:442] conv17_1/relu -> conv17_1 (in-place)
I1103 00:54:23.322849 15069 net.cpp:150] Setting up conv17_1/relu
I1103 00:54:23.322870 15069 net.cpp:157] Top shape: 1 64 2 2 (256)
I1103 00:54:23.322871 15069 net.cpp:165] Memory required for data: 87286784
I1103 00:54:23.322875 15069 layer_factory.hpp:77] Creating layer conv17_2
I1103 00:54:23.322898 15069 net.cpp:100] Creating Layer conv17_2
I1103 00:54:23.322902 15069 net.cpp:481] conv17_2 <- conv17_1
I1103 00:54:23.322908 15069 net.cpp:455] conv17_2 -> conv17_2
I1103 00:54:23.325904 15069 net.cpp:150] Setting up conv17_2
I1103 00:54:23.325923 15069 net.cpp:157] Top shape: 1 128 1 1 (128)
I1103 00:54:23.325925 15069 net.cpp:165] Memory required for data: 87287296
I1103 00:54:23.325945 15069 layer_factory.hpp:77] Creating layer conv17_2/relu
I1103 00:54:23.325950 15069 net.cpp:100] Creating Layer conv17_2/relu
I1103 00:54:23.325954 15069 net.cpp:481] conv17_2/relu <- conv17_2
I1103 00:54:23.325958 15069 net.cpp:442] conv17_2/relu -> conv17_2 (in-place)
I1103 00:54:23.326995 15069 net.cpp:150] Setting up conv17_2/relu
I1103 00:54:23.327013 15069 net.cpp:157] Top shape: 1 128 1 1 (128)
I1103 00:54:23.327015 15069 net.cpp:165] Memory required for data: 87287808
I1103 00:54:23.327018 15069 layer_factory.hpp:77] Creating layer conv17_2_conv17_2/relu_0_split
I1103 00:54:23.327025 15069 net.cpp:100] Creating Layer conv17_2_conv17_2/relu_0_split
I1103 00:54:23.327028 15069 net.cpp:481] conv17_2_conv17_2/relu_0_split <- conv17_2
I1103 00:54:23.327034 15069 net.cpp:455] conv17_2_conv17_2/relu_0_split -> conv17_2_conv17_2/relu_0_split_0
I1103 00:54:23.327041 15069 net.cpp:455] conv17_2_conv17_2/relu_0_split -> conv17_2_conv17_2/relu_0_split_1
I1103 00:54:23.327055 15069 net.cpp:455] conv17_2_conv17_2/relu_0_split -> conv17_2_conv17_2/relu_0_split_2
I1103 00:54:23.327081 15069 net.cpp:150] Setting up conv17_2_conv17_2/relu_0_split
I1103 00:54:23.327085 15069 net.cpp:157] Top shape: 1 128 1 1 (128)
I1103 00:54:23.327088 15069 net.cpp:157] Top shape: 1 128 1 1 (128)
I1103 00:54:23.327106 15069 net.cpp:157] Top shape: 1 128 1 1 (128)
I1103 00:54:23.327107 15069 net.cpp:165] Memory required for data: 87289344
I1103 00:54:23.327109 15069 layer_factory.hpp:77] Creating layer conv11_mbox_loc
I1103 00:54:23.327131 15069 net.cpp:100] Creating Layer conv11_mbox_loc
I1103 00:54:23.327144 15069 net.cpp:481] conv11_mbox_loc <- conv11_conv11/relu_0_split_1
I1103 00:54:23.327152 15069 net.cpp:455] conv11_mbox_loc -> conv11_mbox_loc
I1103 00:54:23.329488 15069 net.cpp:150] Setting up conv11_mbox_loc
I1103 00:54:23.329507 15069 net.cpp:157] Top shape: 1 12 19 19 (4332)
I1103 00:54:23.329510 15069 net.cpp:165] Memory required for data: 87306672
I1103 00:54:23.329516 15069 layer_factory.hpp:77] Creating layer conv11_mbox_loc_perm
I1103 00:54:23.329522 15069 net.cpp:100] Creating Layer conv11_mbox_loc_perm
I1103 00:54:23.329525 15069 net.cpp:481] conv11_mbox_loc_perm <- conv11_mbox_loc
I1103 00:54:23.329548 15069 net.cpp:455] conv11_mbox_loc_perm -> conv11_mbox_loc_perm
I1103 00:54:23.329560 15069 net.cpp:150] Setting up conv11_mbox_loc_perm
I1103 00:54:23.329578 15069 net.cpp:157] Top shape: 1 19 19 12 (4332)
I1103 00:54:23.329581 15069 net.cpp:165] Memory required for data: 87324000
I1103 00:54:23.329582 15069 layer_factory.hpp:77] Creating layer conv11_mbox_loc_flat
I1103 00:54:23.329604 15069 net.cpp:100] Creating Layer conv11_mbox_loc_flat
I1103 00:54:23.329612 15069 net.cpp:481] conv11_mbox_loc_flat <- conv11_mbox_loc_perm
I1103 00:54:23.329617 15069 net.cpp:455] conv11_mbox_loc_flat -> conv11_mbox_loc_flat
I1103 00:54:23.329624 15069 net.cpp:150] Setting up conv11_mbox_loc_flat
I1103 00:54:23.329627 15069 net.cpp:157] Top shape: 1 4332 (4332)
I1103 00:54:23.329629 15069 net.cpp:165] Memory required for data: 87341328
I1103 00:54:23.329632 15069 layer_factory.hpp:77] Creating layer conv11_mbox_conf_new
I1103 00:54:23.329639 15069 net.cpp:100] Creating Layer conv11_mbox_conf_new
I1103 00:54:23.329643 15069 net.cpp:481] conv11_mbox_conf_new <- conv11_conv11/relu_0_split_2
I1103 00:54:23.329648 15069 net.cpp:455] conv11_mbox_conf_new -> conv11_mbox_conf
I1103 00:54:23.332247 15069 net.cpp:150] Setting up conv11_mbox_conf_new
I1103 00:54:23.332268 15069 net.cpp:157] Top shape: 1 63 19 19 (22743)
I1103 00:54:23.332271 15069 net.cpp:165] Memory required for data: 87432300
I1103 00:54:23.332276 15069 layer_factory.hpp:77] Creating layer conv11_mbox_conf_perm
I1103 00:54:23.332283 15069 net.cpp:100] Creating Layer conv11_mbox_conf_perm
I1103 00:54:23.332285 15069 net.cpp:481] conv11_mbox_conf_perm <- conv11_mbox_conf
I1103 00:54:23.332291 15069 net.cpp:455] conv11_mbox_conf_perm -> conv11_mbox_conf_perm
I1103 00:54:23.332301 15069 net.cpp:150] Setting up conv11_mbox_conf_perm
I1103 00:54:23.332305 15069 net.cpp:157] Top shape: 1 19 19 63 (22743)
I1103 00:54:23.332309 15069 net.cpp:165] Memory required for data: 87523272
I1103 00:54:23.332325 15069 layer_factory.hpp:77] Creating layer conv11_mbox_conf_flat
I1103 00:54:23.332331 15069 net.cpp:100] Creating Layer conv11_mbox_conf_flat
I1103 00:54:23.332339 15069 net.cpp:481] conv11_mbox_conf_flat <- conv11_mbox_conf_perm
I1103 00:54:23.332356 15069 net.cpp:455] conv11_mbox_conf_flat -> conv11_mbox_conf_flat
I1103 00:54:23.332362 15069 net.cpp:150] Setting up conv11_mbox_conf_flat
I1103 00:54:23.332367 15069 net.cpp:157] Top shape: 1 22743 (22743)
I1103 00:54:23.332370 15069 net.cpp:165] Memory required for data: 87614244
I1103 00:54:23.332371 15069 layer_factory.hpp:77] Creating layer conv11_mbox_priorbox
I1103 00:54:23.332394 15069 net.cpp:100] Creating Layer conv11_mbox_priorbox
I1103 00:54:23.332397 15069 net.cpp:481] conv11_mbox_priorbox <- conv11_conv11/relu_0_split_3
I1103 00:54:23.332401 15069 net.cpp:481] conv11_mbox_priorbox <- data_input_0_split_1
I1103 00:54:23.332409 15069 net.cpp:455] conv11_mbox_priorbox -> conv11_mbox_priorbox
I1103 00:54:23.332438 15069 net.cpp:150] Setting up conv11_mbox_priorbox
I1103 00:54:23.332445 15069 net.cpp:157] Top shape: 1 2 4332 (8664)
I1103 00:54:23.332448 15069 net.cpp:165] Memory required for data: 87648900
I1103 00:54:23.332449 15069 layer_factory.hpp:77] Creating layer conv13_mbox_loc
I1103 00:54:23.332458 15069 net.cpp:100] Creating Layer conv13_mbox_loc
I1103 00:54:23.332461 15069 net.cpp:481] conv13_mbox_loc <- conv13_conv13/relu_0_split_1
I1103 00:54:23.332465 15069 net.cpp:455] conv13_mbox_loc -> conv13_mbox_loc
I1103 00:54:23.335790 15069 net.cpp:150] Setting up conv13_mbox_loc
I1103 00:54:23.335810 15069 net.cpp:157] Top shape: 1 24 10 10 (2400)
I1103 00:54:23.335813 15069 net.cpp:165] Memory required for data: 87658500
I1103 00:54:23.335819 15069 layer_factory.hpp:77] Creating layer conv13_mbox_loc_perm
I1103 00:54:23.335824 15069 net.cpp:100] Creating Layer conv13_mbox_loc_perm
I1103 00:54:23.335827 15069 net.cpp:481] conv13_mbox_loc_perm <- conv13_mbox_loc
I1103 00:54:23.335834 15069 net.cpp:455] conv13_mbox_loc_perm -> conv13_mbox_loc_perm
I1103 00:54:23.335844 15069 net.cpp:150] Setting up conv13_mbox_loc_perm
I1103 00:54:23.335847 15069 net.cpp:157] Top shape: 1 10 10 24 (2400)
I1103 00:54:23.335850 15069 net.cpp:165] Memory required for data: 87668100
I1103 00:54:23.335870 15069 layer_factory.hpp:77] Creating layer conv13_mbox_loc_flat
I1103 00:54:23.335885 15069 net.cpp:100] Creating Layer conv13_mbox_loc_flat
I1103 00:54:23.335892 15069 net.cpp:481] conv13_mbox_loc_flat <- conv13_mbox_loc_perm
I1103 00:54:23.335896 15069 net.cpp:455] conv13_mbox_loc_flat -> conv13_mbox_loc_flat
I1103 00:54:23.335918 15069 net.cpp:150] Setting up conv13_mbox_loc_flat
I1103 00:54:23.335922 15069 net.cpp:157] Top shape: 1 2400 (2400)
I1103 00:54:23.335925 15069 net.cpp:165] Memory required for data: 87677700
I1103 00:54:23.335927 15069 layer_factory.hpp:77] Creating layer conv13_mbox_conf_new
I1103 00:54:23.335935 15069 net.cpp:100] Creating Layer conv13_mbox_conf_new
I1103 00:54:23.335938 15069 net.cpp:481] conv13_mbox_conf_new <- conv13_conv13/relu_0_split_2
I1103 00:54:23.335942 15069 net.cpp:455] conv13_mbox_conf_new -> conv13_mbox_conf
I1103 00:54:23.339547 15069 net.cpp:150] Setting up conv13_mbox_conf_new
I1103 00:54:23.339567 15069 net.cpp:157] Top shape: 1 126 10 10 (12600)
I1103 00:54:23.339570 15069 net.cpp:165] Memory required for data: 87728100
I1103 00:54:23.339576 15069 layer_factory.hpp:77] Creating layer conv13_mbox_conf_perm
I1103 00:54:23.339582 15069 net.cpp:100] Creating Layer conv13_mbox_conf_perm
I1103 00:54:23.339586 15069 net.cpp:481] conv13_mbox_conf_perm <- conv13_mbox_conf
I1103 00:54:23.339591 15069 net.cpp:455] conv13_mbox_conf_perm -> conv13_mbox_conf_perm
I1103 00:54:23.339602 15069 net.cpp:150] Setting up conv13_mbox_conf_perm
I1103 00:54:23.339606 15069 net.cpp:157] Top shape: 1 10 10 126 (12600)
I1103 00:54:23.339609 15069 net.cpp:165] Memory required for data: 87778500
I1103 00:54:23.339612 15069 layer_factory.hpp:77] Creating layer conv13_mbox_conf_flat
I1103 00:54:23.339617 15069 net.cpp:100] Creating Layer conv13_mbox_conf_flat
I1103 00:54:23.339623 15069 net.cpp:481] conv13_mbox_conf_flat <- conv13_mbox_conf_perm
I1103 00:54:23.339628 15069 net.cpp:455] conv13_mbox_conf_flat -> conv13_mbox_conf_flat
I1103 00:54:23.339634 15069 net.cpp:150] Setting up conv13_mbox_conf_flat
I1103 00:54:23.339637 15069 net.cpp:157] Top shape: 1 12600 (12600)
I1103 00:54:23.339639 15069 net.cpp:165] Memory required for data: 87828900
I1103 00:54:23.339642 15069 layer_factory.hpp:77] Creating layer conv13_mbox_priorbox
I1103 00:54:23.339646 15069 net.cpp:100] Creating Layer conv13_mbox_priorbox
I1103 00:54:23.339648 15069 net.cpp:481] conv13_mbox_priorbox <- conv13_conv13/relu_0_split_3
I1103 00:54:23.339653 15069 net.cpp:481] conv13_mbox_priorbox <- data_input_0_split_2
I1103 00:54:23.339658 15069 net.cpp:455] conv13_mbox_priorbox -> conv13_mbox_priorbox
I1103 00:54:23.339664 15069 net.cpp:150] Setting up conv13_mbox_priorbox
I1103 00:54:23.339668 15069 net.cpp:157] Top shape: 1 2 2400 (4800)
I1103 00:54:23.339670 15069 net.cpp:165] Memory required for data: 87848100
I1103 00:54:23.339673 15069 layer_factory.hpp:77] Creating layer conv14_2_mbox_loc
I1103 00:54:23.339680 15069 net.cpp:100] Creating Layer conv14_2_mbox_loc
I1103 00:54:23.339689 15069 net.cpp:481] conv14_2_mbox_loc <- conv14_2_conv14_2/relu_0_split_1
I1103 00:54:23.339695 15069 net.cpp:455] conv14_2_mbox_loc -> conv14_2_mbox_loc
I1103 00:54:23.341908 15069 net.cpp:150] Setting up conv14_2_mbox_loc
I1103 00:54:23.341926 15069 net.cpp:157] Top shape: 1 24 5 5 (600)
I1103 00:54:23.341928 15069 net.cpp:165] Memory required for data: 87850500
I1103 00:54:23.341934 15069 layer_factory.hpp:77] Creating layer conv14_2_mbox_loc_perm
I1103 00:54:23.341940 15069 net.cpp:100] Creating Layer conv14_2_mbox_loc_perm
I1103 00:54:23.341943 15069 net.cpp:481] conv14_2_mbox_loc_perm <- conv14_2_mbox_loc
I1103 00:54:23.341949 15069 net.cpp:455] conv14_2_mbox_loc_perm -> conv14_2_mbox_loc_perm
I1103 00:54:23.341959 15069 net.cpp:150] Setting up conv14_2_mbox_loc_perm
I1103 00:54:23.341962 15069 net.cpp:157] Top shape: 1 5 5 24 (600)
I1103 00:54:23.341964 15069 net.cpp:165] Memory required for data: 87852900
I1103 00:54:23.341966 15069 layer_factory.hpp:77] Creating layer conv14_2_mbox_loc_flat
I1103 00:54:23.341971 15069 net.cpp:100] Creating Layer conv14_2_mbox_loc_flat
I1103 00:54:23.341979 15069 net.cpp:481] conv14_2_mbox_loc_flat <- conv14_2_mbox_loc_perm
I1103 00:54:23.341984 15069 net.cpp:455] conv14_2_mbox_loc_flat -> conv14_2_mbox_loc_flat
I1103 00:54:23.341990 15069 net.cpp:150] Setting up conv14_2_mbox_loc_flat
I1103 00:54:23.341995 15069 net.cpp:157] Top shape: 1 600 (600)
I1103 00:54:23.341996 15069 net.cpp:165] Memory required for data: 87855300
I1103 00:54:23.341998 15069 layer_factory.hpp:77] Creating layer conv14_2_mbox_conf_new
I1103 00:54:23.342021 15069 net.cpp:100] Creating Layer conv14_2_mbox_conf_new
I1103 00:54:23.342026 15069 net.cpp:481] conv14_2_mbox_conf_new <- conv14_2_conv14_2/relu_0_split_2
I1103 00:54:23.342032 15069 net.cpp:455] conv14_2_mbox_conf_new -> conv14_2_mbox_conf
I1103 00:54:23.344755 15069 net.cpp:150] Setting up conv14_2_mbox_conf_new
I1103 00:54:23.344774 15069 net.cpp:157] Top shape: 1 126 5 5 (3150)
I1103 00:54:23.344777 15069 net.cpp:165] Memory required for data: 87867900
I1103 00:54:23.344796 15069 layer_factory.hpp:77] Creating layer conv14_2_mbox_conf_perm
I1103 00:54:23.344802 15069 net.cpp:100] Creating Layer conv14_2_mbox_conf_perm
I1103 00:54:23.344805 15069 net.cpp:481] conv14_2_mbox_conf_perm <- conv14_2_mbox_conf
I1103 00:54:23.344811 15069 net.cpp:455] conv14_2_mbox_conf_perm -> conv14_2_mbox_conf_perm
I1103 00:54:23.344836 15069 net.cpp:150] Setting up conv14_2_mbox_conf_perm
I1103 00:54:23.344846 15069 net.cpp:157] Top shape: 1 5 5 126 (3150)
I1103 00:54:23.344847 15069 net.cpp:165] Memory required for data: 87880500
I1103 00:54:23.344849 15069 layer_factory.hpp:77] Creating layer conv14_2_mbox_conf_flat
I1103 00:54:23.344858 15069 net.cpp:100] Creating Layer conv14_2_mbox_conf_flat
I1103 00:54:23.344877 15069 net.cpp:481] conv14_2_mbox_conf_flat <- conv14_2_mbox_conf_perm
I1103 00:54:23.344879 15069 net.cpp:455] conv14_2_mbox_conf_flat -> conv14_2_mbox_conf_flat
I1103 00:54:23.344902 15069 net.cpp:150] Setting up conv14_2_mbox_conf_flat
I1103 00:54:23.344905 15069 net.cpp:157] Top shape: 1 3150 (3150)
I1103 00:54:23.344907 15069 net.cpp:165] Memory required for data: 87893100
I1103 00:54:23.344909 15069 layer_factory.hpp:77] Creating layer conv14_2_mbox_priorbox
I1103 00:54:23.344914 15069 net.cpp:100] Creating Layer conv14_2_mbox_priorbox
I1103 00:54:23.344918 15069 net.cpp:481] conv14_2_mbox_priorbox <- conv14_2_conv14_2/relu_0_split_3
I1103 00:54:23.344920 15069 net.cpp:481] conv14_2_mbox_priorbox <- data_input_0_split_3
I1103 00:54:23.344928 15069 net.cpp:455] conv14_2_mbox_priorbox -> conv14_2_mbox_priorbox
I1103 00:54:23.344941 15069 net.cpp:150] Setting up conv14_2_mbox_priorbox
I1103 00:54:23.344945 15069 net.cpp:157] Top shape: 1 2 600 (1200)
I1103 00:54:23.344947 15069 net.cpp:165] Memory required for data: 87897900
I1103 00:54:23.344949 15069 layer_factory.hpp:77] Creating layer conv15_2_mbox_loc
I1103 00:54:23.344957 15069 net.cpp:100] Creating Layer conv15_2_mbox_loc
I1103 00:54:23.344964 15069 net.cpp:481] conv15_2_mbox_loc <- conv15_2_conv15_2/relu_0_split_1
I1103 00:54:23.344985 15069 net.cpp:455] conv15_2_mbox_loc -> conv15_2_mbox_loc
I1103 00:54:23.347231 15069 net.cpp:150] Setting up conv15_2_mbox_loc
I1103 00:54:23.347249 15069 net.cpp:157] Top shape: 1 24 3 3 (216)
I1103 00:54:23.347251 15069 net.cpp:165] Memory required for data: 87898764
I1103 00:54:23.347271 15069 layer_factory.hpp:77] Creating layer conv15_2_mbox_loc_perm
I1103 00:54:23.347295 15069 net.cpp:100] Creating Layer conv15_2_mbox_loc_perm
I1103 00:54:23.347299 15069 net.cpp:481] conv15_2_mbox_loc_perm <- conv15_2_mbox_loc
I1103 00:54:23.347304 15069 net.cpp:455] conv15_2_mbox_loc_perm -> conv15_2_mbox_loc_perm
I1103 00:54:23.347331 15069 net.cpp:150] Setting up conv15_2_mbox_loc_perm
I1103 00:54:23.347338 15069 net.cpp:157] Top shape: 1 3 3 24 (216)
I1103 00:54:23.347340 15069 net.cpp:165] Memory required for data: 87899628
I1103 00:54:23.347342 15069 layer_factory.hpp:77] Creating layer conv15_2_mbox_loc_flat
I1103 00:54:23.347347 15069 net.cpp:100] Creating Layer conv15_2_mbox_loc_flat
I1103 00:54:23.347349 15069 net.cpp:481] conv15_2_mbox_loc_flat <- conv15_2_mbox_loc_perm
I1103 00:54:23.347354 15069 net.cpp:455] conv15_2_mbox_loc_flat -> conv15_2_mbox_loc_flat
I1103 00:54:23.347360 15069 net.cpp:150] Setting up conv15_2_mbox_loc_flat
I1103 00:54:23.347363 15069 net.cpp:157] Top shape: 1 216 (216)
I1103 00:54:23.347365 15069 net.cpp:165] Memory required for data: 87900492
I1103 00:54:23.347368 15069 layer_factory.hpp:77] Creating layer conv15_2_mbox_conf_new
I1103 00:54:23.347384 15069 net.cpp:100] Creating Layer conv15_2_mbox_conf_new
I1103 00:54:23.347388 15069 net.cpp:481] conv15_2_mbox_conf_new <- conv15_2_conv15_2/relu_0_split_2
I1103 00:54:23.347393 15069 net.cpp:455] conv15_2_mbox_conf_new -> conv15_2_mbox_conf
I1103 00:54:23.349951 15069 net.cpp:150] Setting up conv15_2_mbox_conf_new
I1103 00:54:23.349969 15069 net.cpp:157] Top shape: 1 126 3 3 (1134)
I1103 00:54:23.349972 15069 net.cpp:165] Memory required for data: 87905028
I1103 00:54:23.349977 15069 layer_factory.hpp:77] Creating layer conv15_2_mbox_conf_perm
I1103 00:54:23.349985 15069 net.cpp:100] Creating Layer conv15_2_mbox_conf_perm
I1103 00:54:23.350008 15069 net.cpp:481] conv15_2_mbox_conf_perm <- conv15_2_mbox_conf
I1103 00:54:23.350013 15069 net.cpp:455] conv15_2_mbox_conf_perm -> conv15_2_mbox_conf_perm
I1103 00:54:23.350024 15069 net.cpp:150] Setting up conv15_2_mbox_conf_perm
I1103 00:54:23.350044 15069 net.cpp:157] Top shape: 1 3 3 126 (1134)
I1103 00:54:23.350046 15069 net.cpp:165] Memory required for data: 87909564
I1103 00:54:23.350049 15069 layer_factory.hpp:77] Creating layer conv15_2_mbox_conf_flat
I1103 00:54:23.350052 15069 net.cpp:100] Creating Layer conv15_2_mbox_conf_flat
I1103 00:54:23.350054 15069 net.cpp:481] conv15_2_mbox_conf_flat <- conv15_2_mbox_conf_perm
I1103 00:54:23.350060 15069 net.cpp:455] conv15_2_mbox_conf_flat -> conv15_2_mbox_conf_flat
I1103 00:54:23.350071 15069 net.cpp:150] Setting up conv15_2_mbox_conf_flat
I1103 00:54:23.350075 15069 net.cpp:157] Top shape: 1 1134 (1134)
I1103 00:54:23.350077 15069 net.cpp:165] Memory required for data: 87914100
I1103 00:54:23.350095 15069 layer_factory.hpp:77] Creating layer conv15_2_mbox_priorbox
I1103 00:54:23.350100 15069 net.cpp:100] Creating Layer conv15_2_mbox_priorbox
I1103 00:54:23.350106 15069 net.cpp:481] conv15_2_mbox_priorbox <- conv15_2_conv15_2/relu_0_split_3
I1103 00:54:23.350111 15069 net.cpp:481] conv15_2_mbox_priorbox <- data_input_0_split_4
I1103 00:54:23.350141 15069 net.cpp:455] conv15_2_mbox_priorbox -> conv15_2_mbox_priorbox
I1103 00:54:23.350153 15069 net.cpp:150] Setting up conv15_2_mbox_priorbox
I1103 00:54:23.350157 15069 net.cpp:157] Top shape: 1 2 216 (432)
I1103 00:54:23.350159 15069 net.cpp:165] Memory required for data: 87915828
I1103 00:54:23.350162 15069 layer_factory.hpp:77] Creating layer conv16_2_mbox_loc
I1103 00:54:23.350172 15069 net.cpp:100] Creating Layer conv16_2_mbox_loc
I1103 00:54:23.350175 15069 net.cpp:481] conv16_2_mbox_loc <- conv16_2_conv16_2/relu_0_split_1
I1103 00:54:23.350183 15069 net.cpp:455] conv16_2_mbox_loc -> conv16_2_mbox_loc
I1103 00:54:23.353324 15069 net.cpp:150] Setting up conv16_2_mbox_loc
I1103 00:54:23.353343 15069 net.cpp:157] Top shape: 1 24 2 2 (96)
I1103 00:54:23.353346 15069 net.cpp:165] Memory required for data: 87916212
I1103 00:54:23.353353 15069 layer_factory.hpp:77] Creating layer conv16_2_mbox_loc_perm
I1103 00:54:23.353358 15069 net.cpp:100] Creating Layer conv16_2_mbox_loc_perm
I1103 00:54:23.353360 15069 net.cpp:481] conv16_2_mbox_loc_perm <- conv16_2_mbox_loc
I1103 00:54:23.353368 15069 net.cpp:455] conv16_2_mbox_loc_perm -> conv16_2_mbox_loc_perm
I1103 00:54:23.353377 15069 net.cpp:150] Setting up conv16_2_mbox_loc_perm
I1103 00:54:23.353395 15069 net.cpp:157] Top shape: 1 2 2 24 (96)
I1103 00:54:23.353397 15069 net.cpp:165] Memory required for data: 87916596
I1103 00:54:23.353399 15069 layer_factory.hpp:77] Creating layer conv16_2_mbox_loc_flat
I1103 00:54:23.353405 15069 net.cpp:100] Creating Layer conv16_2_mbox_loc_flat
I1103 00:54:23.353408 15069 net.cpp:481] conv16_2_mbox_loc_flat <- conv16_2_mbox_loc_perm
I1103 00:54:23.353413 15069 net.cpp:455] conv16_2_mbox_loc_flat -> conv16_2_mbox_loc_flat
I1103 00:54:23.353418 15069 net.cpp:150] Setting up conv16_2_mbox_loc_flat
I1103 00:54:23.353421 15069 net.cpp:157] Top shape: 1 96 (96)
I1103 00:54:23.353422 15069 net.cpp:165] Memory required for data: 87916980
I1103 00:54:23.353440 15069 layer_factory.hpp:77] Creating layer conv16_2_mbox_conf_new
I1103 00:54:23.353447 15069 net.cpp:100] Creating Layer conv16_2_mbox_conf_new
I1103 00:54:23.353471 15069 net.cpp:481] conv16_2_mbox_conf_new <- conv16_2_conv16_2/relu_0_split_2
I1103 00:54:23.353477 15069 net.cpp:455] conv16_2_mbox_conf_new -> conv16_2_mbox_conf
I1103 00:54:23.356113 15069 net.cpp:150] Setting up conv16_2_mbox_conf_new
I1103 00:54:23.356130 15069 net.cpp:157] Top shape: 1 126 2 2 (504)
I1103 00:54:23.356133 15069 net.cpp:165] Memory required for data: 87918996
I1103 00:54:23.356153 15069 layer_factory.hpp:77] Creating layer conv16_2_mbox_conf_perm
I1103 00:54:23.356161 15069 net.cpp:100] Creating Layer conv16_2_mbox_conf_perm
I1103 00:54:23.356164 15069 net.cpp:481] conv16_2_mbox_conf_perm <- conv16_2_mbox_conf
I1103 00:54:23.356170 15069 net.cpp:455] conv16_2_mbox_conf_perm -> conv16_2_mbox_conf_perm
I1103 00:54:23.356195 15069 net.cpp:150] Setting up conv16_2_mbox_conf_perm
I1103 00:54:23.356202 15069 net.cpp:157] Top shape: 1 2 2 126 (504)
I1103 00:54:23.356204 15069 net.cpp:165] Memory required for data: 87921012
I1103 00:54:23.356206 15069 layer_factory.hpp:77] Creating layer conv16_2_mbox_conf_flat
I1103 00:54:23.356212 15069 net.cpp:100] Creating Layer conv16_2_mbox_conf_flat
I1103 00:54:23.356215 15069 net.cpp:481] conv16_2_mbox_conf_flat <- conv16_2_mbox_conf_perm
I1103 00:54:23.356220 15069 net.cpp:455] conv16_2_mbox_conf_flat -> conv16_2_mbox_conf_flat
I1103 00:54:23.356233 15069 net.cpp:150] Setting up conv16_2_mbox_conf_flat
I1103 00:54:23.356236 15069 net.cpp:157] Top shape: 1 504 (504)
I1103 00:54:23.356238 15069 net.cpp:165] Memory required for data: 87923028
I1103 00:54:23.356240 15069 layer_factory.hpp:77] Creating layer conv16_2_mbox_priorbox
I1103 00:54:23.356245 15069 net.cpp:100] Creating Layer conv16_2_mbox_priorbox
I1103 00:54:23.356262 15069 net.cpp:481] conv16_2_mbox_priorbox <- conv16_2_conv16_2/relu_0_split_3
I1103 00:54:23.356266 15069 net.cpp:481] conv16_2_mbox_priorbox <- data_input_0_split_5
I1103 00:54:23.356272 15069 net.cpp:455] conv16_2_mbox_priorbox -> conv16_2_mbox_priorbox
I1103 00:54:23.356281 15069 net.cpp:150] Setting up conv16_2_mbox_priorbox
I1103 00:54:23.356288 15069 net.cpp:157] Top shape: 1 2 96 (192)
I1103 00:54:23.356290 15069 net.cpp:165] Memory required for data: 87923796
I1103 00:54:23.356292 15069 layer_factory.hpp:77] Creating layer conv17_2_mbox_loc
I1103 00:54:23.356300 15069 net.cpp:100] Creating Layer conv17_2_mbox_loc
I1103 00:54:23.356305 15069 net.cpp:481] conv17_2_mbox_loc <- conv17_2_conv17_2/relu_0_split_0
I1103 00:54:23.356312 15069 net.cpp:455] conv17_2_mbox_loc -> conv17_2_mbox_loc
I1103 00:54:23.358762 15069 net.cpp:150] Setting up conv17_2_mbox_loc
I1103 00:54:23.358781 15069 net.cpp:157] Top shape: 1 24 1 1 (24)
I1103 00:54:23.358798 15069 net.cpp:165] Memory required for data: 87923892
I1103 00:54:23.358804 15069 layer_factory.hpp:77] Creating layer conv17_2_mbox_loc_perm
I1103 00:54:23.358810 15069 net.cpp:100] Creating Layer conv17_2_mbox_loc_perm
I1103 00:54:23.358814 15069 net.cpp:481] conv17_2_mbox_loc_perm <- conv17_2_mbox_loc
I1103 00:54:23.358819 15069 net.cpp:455] conv17_2_mbox_loc_perm -> conv17_2_mbox_loc_perm
I1103 00:54:23.358829 15069 net.cpp:150] Setting up conv17_2_mbox_loc_perm
I1103 00:54:23.358857 15069 net.cpp:157] Top shape: 1 1 1 24 (24)
I1103 00:54:23.358860 15069 net.cpp:165] Memory required for data: 87923988
I1103 00:54:23.358862 15069 layer_factory.hpp:77] Creating layer conv17_2_mbox_loc_flat
I1103 00:54:23.358868 15069 net.cpp:100] Creating Layer conv17_2_mbox_loc_flat
I1103 00:54:23.358870 15069 net.cpp:481] conv17_2_mbox_loc_flat <- conv17_2_mbox_loc_perm
I1103 00:54:23.358875 15069 net.cpp:455] conv17_2_mbox_loc_flat -> conv17_2_mbox_loc_flat
I1103 00:54:23.358896 15069 net.cpp:150] Setting up conv17_2_mbox_loc_flat
I1103 00:54:23.358903 15069 net.cpp:157] Top shape: 1 24 (24)
I1103 00:54:23.358904 15069 net.cpp:165] Memory required for data: 87924084
I1103 00:54:23.358907 15069 layer_factory.hpp:77] Creating layer conv17_2_mbox_conf_new
I1103 00:54:23.358916 15069 net.cpp:100] Creating Layer conv17_2_mbox_conf_new
I1103 00:54:23.358919 15069 net.cpp:481] conv17_2_mbox_conf_new <- conv17_2_conv17_2/relu_0_split_1
I1103 00:54:23.358923 15069 net.cpp:455] conv17_2_mbox_conf_new -> conv17_2_mbox_conf
I1103 00:54:23.361351 15069 net.cpp:150] Setting up conv17_2_mbox_conf_new
I1103 00:54:23.361368 15069 net.cpp:157] Top shape: 1 126 1 1 (126)
I1103 00:54:23.361371 15069 net.cpp:165] Memory required for data: 87924588
I1103 00:54:23.361393 15069 layer_factory.hpp:77] Creating layer conv17_2_mbox_conf_perm
I1103 00:54:23.361398 15069 net.cpp:100] Creating Layer conv17_2_mbox_conf_perm
I1103 00:54:23.361402 15069 net.cpp:481] conv17_2_mbox_conf_perm <- conv17_2_mbox_conf
I1103 00:54:23.361416 15069 net.cpp:455] conv17_2_mbox_conf_perm -> conv17_2_mbox_conf_perm
I1103 00:54:23.361441 15069 net.cpp:150] Setting up conv17_2_mbox_conf_perm
I1103 00:54:23.361451 15069 net.cpp:157] Top shape: 1 1 1 126 (126)
I1103 00:54:23.361454 15069 net.cpp:165] Memory required for data: 87925092
I1103 00:54:23.361454 15069 layer_factory.hpp:77] Creating layer conv17_2_mbox_conf_flat
I1103 00:54:23.361459 15069 net.cpp:100] Creating Layer conv17_2_mbox_conf_flat
I1103 00:54:23.361461 15069 net.cpp:481] conv17_2_mbox_conf_flat <- conv17_2_mbox_conf_perm
I1103 00:54:23.361467 15069 net.cpp:455] conv17_2_mbox_conf_flat -> conv17_2_mbox_conf_flat
I1103 00:54:23.361487 15069 net.cpp:150] Setting up conv17_2_mbox_conf_flat
I1103 00:54:23.361490 15069 net.cpp:157] Top shape: 1 126 (126)
I1103 00:54:23.361492 15069 net.cpp:165] Memory required for data: 87925596
I1103 00:54:23.361495 15069 layer_factory.hpp:77] Creating layer conv17_2_mbox_priorbox
I1103 00:54:23.361500 15069 net.cpp:100] Creating Layer conv17_2_mbox_priorbox
I1103 00:54:23.361508 15069 net.cpp:481] conv17_2_mbox_priorbox <- conv17_2_conv17_2/relu_0_split_2
I1103 00:54:23.361512 15069 net.cpp:481] conv17_2_mbox_priorbox <- data_input_0_split_6
I1103 00:54:23.361517 15069 net.cpp:455] conv17_2_mbox_priorbox -> conv17_2_mbox_priorbox
I1103 00:54:23.361539 15069 net.cpp:150] Setting up conv17_2_mbox_priorbox
I1103 00:54:23.361560 15069 net.cpp:157] Top shape: 1 2 24 (48)
I1103 00:54:23.361562 15069 net.cpp:165] Memory required for data: 87925788
I1103 00:54:23.361564 15069 layer_factory.hpp:77] Creating layer mbox_loc
I1103 00:54:23.361573 15069 net.cpp:100] Creating Layer mbox_loc
I1103 00:54:23.361579 15069 net.cpp:481] mbox_loc <- conv11_mbox_loc_flat
I1103 00:54:23.361583 15069 net.cpp:481] mbox_loc <- conv13_mbox_loc_flat
I1103 00:54:23.361587 15069 net.cpp:481] mbox_loc <- conv14_2_mbox_loc_flat
I1103 00:54:23.361589 15069 net.cpp:481] mbox_loc <- conv15_2_mbox_loc_flat
I1103 00:54:23.361593 15069 net.cpp:481] mbox_loc <- conv16_2_mbox_loc_flat
I1103 00:54:23.361595 15069 net.cpp:481] mbox_loc <- conv17_2_mbox_loc_flat
I1103 00:54:23.361599 15069 net.cpp:455] mbox_loc -> mbox_loc
I1103 00:54:23.361606 15069 net.cpp:150] Setting up mbox_loc
I1103 00:54:23.361613 15069 net.cpp:157] Top shape: 1 7668 (7668)
I1103 00:54:23.361614 15069 net.cpp:165] Memory required for data: 87956460
I1103 00:54:23.361616 15069 layer_factory.hpp:77] Creating layer mbox_conf
I1103 00:54:23.361623 15069 net.cpp:100] Creating Layer mbox_conf
I1103 00:54:23.361625 15069 net.cpp:481] mbox_conf <- conv11_mbox_conf_flat
I1103 00:54:23.361629 15069 net.cpp:481] mbox_conf <- conv13_mbox_conf_flat
I1103 00:54:23.361631 15069 net.cpp:481] mbox_conf <- conv14_2_mbox_conf_flat
I1103 00:54:23.361634 15069 net.cpp:481] mbox_conf <- conv15_2_mbox_conf_flat
I1103 00:54:23.361637 15069 net.cpp:481] mbox_conf <- conv16_2_mbox_conf_flat
I1103 00:54:23.361640 15069 net.cpp:481] mbox_conf <- conv17_2_mbox_conf_flat
I1103 00:54:23.361644 15069 net.cpp:455] mbox_conf -> mbox_conf
I1103 00:54:23.361650 15069 net.cpp:150] Setting up mbox_conf
I1103 00:54:23.361654 15069 net.cpp:157] Top shape: 1 40257 (40257)
I1103 00:54:23.361654 15069 net.cpp:165] Memory required for data: 88117488
I1103 00:54:23.361657 15069 layer_factory.hpp:77] Creating layer mbox_priorbox
I1103 00:54:23.361662 15069 net.cpp:100] Creating Layer mbox_priorbox
I1103 00:54:23.361665 15069 net.cpp:481] mbox_priorbox <- conv11_mbox_priorbox
I1103 00:54:23.361672 15069 net.cpp:481] mbox_priorbox <- conv13_mbox_priorbox
I1103 00:54:23.361675 15069 net.cpp:481] mbox_priorbox <- conv14_2_mbox_priorbox
I1103 00:54:23.361678 15069 net.cpp:481] mbox_priorbox <- conv15_2_mbox_priorbox
I1103 00:54:23.361680 15069 net.cpp:481] mbox_priorbox <- conv16_2_mbox_priorbox
I1103 00:54:23.361683 15069 net.cpp:481] mbox_priorbox <- conv17_2_mbox_priorbox
I1103 00:54:23.361687 15069 net.cpp:455] mbox_priorbox -> mbox_priorbox
I1103 00:54:23.361692 15069 net.cpp:150] Setting up mbox_priorbox
I1103 00:54:23.361697 15069 net.cpp:157] Top shape: 1 2 7668 (15336)
I1103 00:54:23.361701 15069 net.cpp:165] Memory required for data: 88178832
I1103 00:54:23.361702 15069 layer_factory.hpp:77] Creating layer mbox_conf_reshape
I1103 00:54:23.361709 15069 net.cpp:100] Creating Layer mbox_conf_reshape
I1103 00:54:23.361711 15069 net.cpp:481] mbox_conf_reshape <- mbox_conf
I1103 00:54:23.361716 15069 net.cpp:455] mbox_conf_reshape -> mbox_conf_reshape
I1103 00:54:23.361723 15069 net.cpp:150] Setting up mbox_conf_reshape
I1103 00:54:23.361729 15069 net.cpp:157] Top shape: 1 1917 21 (40257)
I1103 00:54:23.361732 15069 net.cpp:165] Memory required for data: 88339860
I1103 00:54:23.361733 15069 layer_factory.hpp:77] Creating layer mbox_conf_softmax
I1103 00:54:23.361740 15069 net.cpp:100] Creating Layer mbox_conf_softmax
I1103 00:54:23.361742 15069 net.cpp:481] mbox_conf_softmax <- mbox_conf_reshape
I1103 00:54:23.361747 15069 net.cpp:455] mbox_conf_softmax -> mbox_conf_softmax
I1103 00:54:23.362818 15069 net.cpp:150] Setting up mbox_conf_softmax
I1103 00:54:23.362857 15069 net.cpp:157] Top shape: 1 1917 21 (40257)
I1103 00:54:23.362876 15069 net.cpp:165] Memory required for data: 88500888
I1103 00:54:23.362879 15069 layer_factory.hpp:77] Creating layer mbox_conf_flatten
I1103 00:54:23.362884 15069 net.cpp:100] Creating Layer mbox_conf_flatten
I1103 00:54:23.362888 15069 net.cpp:481] mbox_conf_flatten <- mbox_conf_softmax
I1103 00:54:23.362895 15069 net.cpp:455] mbox_conf_flatten -> mbox_conf_flatten
I1103 00:54:23.362902 15069 net.cpp:150] Setting up mbox_conf_flatten
I1103 00:54:23.362910 15069 net.cpp:157] Top shape: 1 40257 (40257)
I1103 00:54:23.362912 15069 net.cpp:165] Memory required for data: 88661916
I1103 00:54:23.362915 15069 layer_factory.hpp:77] Creating layer detection_out
I1103 00:54:23.362931 15069 net.cpp:100] Creating Layer detection_out
I1103 00:54:23.362933 15069 net.cpp:481] detection_out <- mbox_loc
I1103 00:54:23.362937 15069 net.cpp:481] detection_out <- mbox_conf_flatten
I1103 00:54:23.362939 15069 net.cpp:481] detection_out <- mbox_priorbox
I1103 00:54:23.362944 15069 net.cpp:455] detection_out -> detection_out
I1103 00:54:23.362952 15069 net.cpp:150] Setting up detection_out
I1103 00:54:23.362964 15069 net.cpp:157] Top shape: 1 1 1 7 (7)
I1103 00:54:23.362967 15069 net.cpp:165] Memory required for data: 88661944
I1103 00:54:23.362968 15069 net.cpp:228] detection_out does not need backward computation.
I1103 00:54:23.362972 15069 net.cpp:228] mbox_conf_flatten does not need backward computation.
I1103 00:54:23.362973 15069 net.cpp:228] mbox_conf_softmax does not need backward computation.
I1103 00:54:23.362977 15069 net.cpp:228] mbox_conf_reshape does not need backward computation.
…
