…
layer {
  name: "data"
  type: "AnnotatedData"
  top: "data"
  top: "label"
  include {
    phase: TEST
  }
  transform_param {
    scale: 0.007843
    mean_value: 127.5
    mean_value: 127.5
    mean_value: 127.5
    resize_param {
      prob: 1
      resize_mode: WARP
      height: 300
      width: 300
      interp_mode: LINEAR
    }
  }
  data_param {
    source: "examples/VOC0712/VOC0712_test_lmdb"
    batch_size: 8
    backend: LMDB
  }
  annotated_data_param {
    batch_sampler {
    }
    label_map_file: "data/VOC0712/labelmap_voc.prototxt"
  }
}
layer {
  name: "conv0"
  type: "Convolution"
  bottom: "data"
  top: "conv0"
  param {
    lr_mult: 1
    decay_mult: 1
  }
  include {
    phase: TEST
  }
  convolution_param {
    num_output: 32
    bias_term: false
    pad: 1
    kernel_size: 3
    stride: 2
    weight_filler {
      type: "msra"
    }
  }
}
layer {
  name: "conv0/bn"
  type: "BatchNorm"
  bottom: "conv0"
  top: "conv0"
}
layer {
  name: "conv0/scale"
  type: "Scale"
  bottom: "conv0"
  top: "conv0"
  param {
    lr_mult: 1
    decay_mult: 0
  }
  param {
    lr_mult: 2
    decay_mult: 0
  }
  include {
    phase: TEST
  }
  scale_param {
    filler {
      value: 1
    }
    bias_term: true
    bias_filler {
      value: 0
    }
  }
}
layer {
  name: "conv0/relu"
  type: "ReLU"
  bottom: "conv0"
  top: "conv0"
}
layer {
  name: "conv1/dw"
  type: "Convolution"
  bottom: "conv0"
  top: "conv1/dw"
  param {
    lr_mult: 1
    decay_mult: 1
  }
  include {
    phase: TEST
  }
  convolution_param {
    num_output: 32
    bias_term: false
    pad: 1
    kernel_size: 3
    group: 32
    weight_filler {
      type: "msra"
    }
    engine: CAFFE
  }
}
layer {
  name: "conv1/dw/bn"
  type: "BatchNorm"
  bottom: "conv1/dw"
  top: "conv1/dw"
}
layer {
  name: "conv1/dw/scale"
  type: "Scale"
  bottom: "conv1/dw"
  top: "conv1/dw"
  param {
    lr_mult: 1
    decay_mult: 0
  }
  param {
    lr_mult: 2
    decay_mult: 0
  }
  include {
    phase: TEST
  }
  scale_param {
    filler {
      value: 1
    }
    bias_term: true
    bias_filler {
      value: 0
    }
  }
}
layer {
  name: "conv1/dw/relu"
  type: "ReLU"
  bottom: "conv1/dw"
  top: "conv1/dw"
}
layer {
  name: "conv1"
  type: "Convolution"
  bottom: "conv1/dw"
  top: "conv1"
  param {
    lr_mult: 1
    decay_mult: 1
  }
  include {
    phase: TEST
  }
  convolution_param {
    num_output: 64
    bias_term: false
    kernel_size: 1
    weight_filler {
      type: "msra"
    }
  }
}
layer {
  name: "conv1/bn"
  type: "BatchNorm"
  bottom: "conv1"
  top: "conv1"
}
layer {
  name: "conv1/scale"
  type: "Scale"
  bottom: "conv1"
  top: "conv1"
  param {
    lr_mult: 1
    decay_mult: 0
  }
  param {
    lr_mult: 2
    decay_mult: 0
  }
  include {
    phase: TEST
  }
  scale_param {
    filler {
      value: 1
    }
    bias_term: true
    bias_filler {
      value: 0
    }
  }
}
layer {
  name: "conv1/relu"
  type: "ReLU"
  bottom: "conv1"
  top: "conv1"
}
layer {
  name: "conv2/dw"
  type: "Convolution"
  bottom: "conv1"
  top: "conv2/dw"
  param {
    lr_mult: 1
    decay_mult: 1
  }
  include {
    phase: TEST
  }
  convolution_param {
    num_output: 64
    bias_term: false
    pad: 1
    kernel_size: 3
    group: 64
    stride: 2
    weight_filler {
      type: "msra"
    }
    engine: CAFFE
  }
}
layer {
  name: "conv2/dw/bn"
  type: "BatchNorm"
  bottom: "conv2/dw"
  top: "conv2/dw"
}
layer {
  name: "conv2/dw/scale"
  type: "Scale"
  bottom: "conv2/dw"
  top: "conv2/dw"
  param {
    lr_mult: 1
    decay_mult: 0
  }
  param {
    lr_mult: 2
    decay_mult: 0
  }
  include {
    phase: TEST
  }
  scale_param {
    filler {
      value: 1
    }
    bias_term: true
    bias_filler {
      value: 0
    }
  }
}
layer {
  name: "conv2/dw/relu"
  type: "ReLU"
  bottom: "conv2/dw"
  top: "conv2/dw"
}
layer {
  name: "conv2"
  type: "Convolution"
  bottom: "conv2/dw"
  top: "conv2"
  param {
    lr_mult: 1
    decay_mult: 1
  }
  include {
    phase: TEST
  }
  convolution_param {
    num_output: 128
    bias_term: false
    kernel_size: 1
    weight_filler {
      type: "msra"
    }
  }
}
layer {
  name: "conv2/bn"
  type: "BatchNorm"
  bottom: "conv2"
  top: "conv2"
}
layer {
  name: "conv2/scale"
  type: "Scale"
  bottom: "conv2"
  top: "conv2"
  param {
    lr_mult: 1
    decay_mult: 0
  }
  param {
    lr_mult: 2
    decay_mult: 0
  }
  include {
    phase: TEST
  }
  scale_param {
    filler {
      value: 1
    }
    bias_term: true
    bias_filler {
      value: 0
    }
  }
}
layer {
  name: "conv2/relu"
  type: "ReLU"
  bottom: "conv2"
  top: "conv2"
}
layer {
  name: "conv3/dw"
  type: "Convolution"
  bottom: "conv2"
  top: "conv3/dw"
  param {
    lr_mult: 1
    decay_mult: 1
  }
  include {
    phase: TEST
  }
  convolution_param {
    num_output: 128
    bias_term: false
    pad: 1
    kernel_size: 3
    group: 128
    weight_filler {
      type: "msra"
    }
    engine: CAFFE
  }
}
layer {
  name: "conv3/dw/bn"
  type: "BatchNorm"
  bottom: "conv3/dw"
  top: "conv3/dw"
}
layer {
  name: "conv3/dw/scale"
  type: "Scale"
  bottom: "conv3/dw"
  top: "conv3/dw"
  param {
    lr_mult: 1
    decay_mult: 0
  }
  param {
    lr_mult: 2
    decay_mult: 0
  }
  include {
    phase: TEST
  }
  scale_param {
    filler {
      value: 1
    }
    bias_term: true
    bias_filler {
      value: 0
    }
  }
}
layer {
  name: "conv3/dw/relu"
  type: "ReLU"
  bottom: "conv3/dw"
  top: "conv3/dw"
}
layer {
  name: "conv3"
  type: "Convolution"
  bottom: "conv3/dw"
  top: "conv3"
  param {
    lr_mult: 1
    decay_mult: 1
  }
  include {
    phase: TEST
  }
  convolution_param {
    num_output: 128
    bias_term: false
    kernel_size: 1
    weight_filler {
      type: "msra"
    }
  }
}
layer {
  name: "conv3/bn"
  type: "BatchNorm"
  bottom: "conv3"
  top: "conv3"
}
layer {
  name: "conv3/scale"
  type: "Scale"
  bottom: "conv3"
  top: "conv3"
  param {
    lr_mult: 1
    decay_mult: 0
  }
  param {
    lr_mult: 2
    decay_mult: 0
  }
  include {
    phase: TEST
  }
  scale_param {
    filler {
      value: 1
    }
    bias_term: true
    bias_filler {
      value: 0
    }
  }
}
layer {
  name: "conv3/relu"
  type: "ReLU"
  bottom: "conv3"
  top: "conv3"
}
layer {
  name: "conv4/dw"
  type: "Convolution"
  bottom: "conv3"
  top: "conv4/dw"
  param {
    lr_mult: 1
    decay_mult: 1
  }
  include {
    phase: TEST
  }
  convolution_param {
    num_output: 128
    bias_term: false
    pad: 1
    kernel_size: 3
    group: 128
    stride: 2
    weight_filler {
      type: "msra"
    }
    engine: CAFFE
  }
}
layer {
  name: "conv4/dw/bn"
  type: "BatchNorm"
  bottom: "conv4/dw"
  top: "conv4/dw"
}
layer {
  name: "conv4/dw/scale"
  type: "Scale"
  bottom: "conv4/dw"
  top: "conv4/dw"
  param {
    lr_mult: 1
    decay_mult: 0
  }
  param {
    lr_mult: 2
    decay_mult: 0
  }
  include {
    phase: TEST
  }
  scale_param {
    filler {
      value: 1
    }
    bias_term: true
    bias_filler {
      value: 0
    }
  }
}
layer {
  name: "conv4/dw/relu"
  type: "ReLU"
  bottom: "conv4/dw"
  top: "conv4/dw"
}
layer {
  name: "conv4"
  type: "Convolution"
  bottom: "conv4/dw"
  top: "conv4"
  param {
    lr_mult: 1
    decay_mult: 1
  }
  include {
    phase: TEST
  }
  convolution_param {
    num_output: 256
    bias_term: false
    kernel_size: 1
    weight_filler {
      type: "msra"
    }
  }
}
layer {
  name: "conv4/bn"
  type: "BatchNorm"
  bottom: "conv4"
  top: "conv4"
}
layer {
  name: "conv4/scale"
  type: "Scale"
  bottom: "conv4"
  top: "conv4"
  param {
    lr_mult: 1
    decay_mult: 0
  }
  param {
    lr_mult: 2
    decay_mult: 0
  }
  include {
    phase: TEST
  }
  scale_param {
    filler {
      value: 1
    }
    bias_term: true
    bias_filler {
      value: 0
    }
  }
}
layer {
  name: "conv4/relu"
  type: "ReLU"
  bottom: "conv4"
  top: "conv4"
}
layer {
  name: "conv5/dw"
  type: "Convolution"
  bottom: "conv4"
  top: "conv5/dw"
  param {
    lr_mult: 1
    decay_mult: 1
  }
  include {
    phase: TEST
  }
  convolution_param {
    num_output: 256
    bias_term: false
    pad: 1
    kernel_size: 3
    group: 256
    weight_filler {
      type: "msra"
    }
    engine: CAFFE
  }
}
layer {
  name: "conv5/dw/bn"
  type: "BatchNorm"
  bottom: "conv5/dw"
  top: "conv5/dw"
}
layer {
  name: "conv5/dw/scale"
  type: "Scale"
  bottom: "conv5/dw"
  top: "conv5/dw"
  param {
    lr_mult: 1
    decay_mult: 0
  }
  param {
    lr_mult: 2
    decay_mult: 0
  }
  include {
    phase: TEST
  }
  scale_param {
    filler {
      value: 1
    }
    bias_term: true
    bias_filler {
      value: 0
    }
  }
}
layer {
  name: "conv5/dw/relu"
  type: "ReLU"
  bottom: "conv5/dw"
  top: "conv5/dw"
}
layer {
  name: "conv5"
  type: "Convolution"
  bottom: "conv5/dw"
  top: "conv5"
  param {
    lr_mult: 1
    decay_mult: 1
  }
  include {
    phase: TEST
  }
  convolution_param {
    num_output: 256
    bias_term: false
    kernel_size: 1
    weight_filler {
      type: "msra"
    }
  }
}
layer {
  name: "conv5/bn"
  type: "BatchNorm"
  bottom: "conv5"
  top: "conv5"
}
layer {
  name: "conv5/scale"
  type: "Scale"
  bottom: "conv5"
  top: "conv5"
  param {
    lr_mult: 1
    decay_mult: 0
  }
  param {
    lr_mult: 2
    decay_mult: 0
  }
  include {
    phase: TEST
  }
  scale_param {
    filler {
      value: 1
    }
    bias_term: true
    bias_filler {
      value: 0
    }
  }
}
layer {
  name: "conv5/relu"
  type: "ReLU"
  bottom: "conv5"
  top: "conv5"
}
layer {
  name: "conv6/dw"
  type: "Convolution"
  bottom: "conv5"
  top: "conv6/dw"
  param {
    lr_mult: 1
    decay_mult: 1
  }
  include {
    phase: TEST
  }
  convolution_param {
    num_output: 256
    bias_term: false
    pad: 1
    kernel_size: 3
    group: 256
    stride: 2
    weight_filler {
      type: "msra"
    }
    engine: CAFFE
  }
}
layer {
  name: "conv6/dw/bn"
  type: "BatchNorm"
  bottom: "conv6/dw"
  top: "conv6/dw"
}
layer {
  name: "conv6/dw/scale"
  type: "Scale"
  bottom: "conv6/dw"
  top: "conv6/dw"
  param {
    lr_mult: 1
    decay_mult: 0
  }
  param {
    lr_mult: 2
    decay_mult: 0
  }
  include {
    phase: TEST
  }
  scale_param {
    filler {
      value: 1
    }
    bias_term: true
    bias_filler {
      value: 0
    }
  }
}
layer {
  name: "conv6/dw/relu"
  type: "ReLU"
  bottom: "conv6/dw"
  top: "conv6/dw"
}
layer {
  name: "conv6"
  type: "Convolution"
  bottom: "conv6/dw"
  top: "conv6"
  param {
    lr_mult: 1
    decay_mult: 1
  }
  include {
    phase: TEST
  }
  convolution_param {
    num_output: 512
    bias_term: false
    kernel_size: 1
    weight_filler {
      type: "msra"
    }
  }
}
layer {
  name: "conv6/bn"
  type: "BatchNorm"
  bottom: "conv6"
  top: "conv6"
}
layer {
  name: "conv6/scale"
  type: "Scale"
  bottom: "conv6"
  top: "conv6"
  param {
    lr_mult: 1
    decay_mult: 0
  }
  param {
    lr_mult: 2
    decay_mult: 0
  }
  include {
    phase: TEST
  }
  scale_param {
    filler {
      value: 1
    }
    bias_term: true
    bias_filler {
      value: 0
    }
  }
}
layer {
  name: "conv6/relu"
  type: "ReLU"
  bottom: "conv6"
  top: "conv6"
}
layer {
  name: "conv7/dw"
  type: "Convolution"
  bottom: "conv6"
  top: "conv7/dw"
  param {
    lr_mult: 1
    decay_mult: 1
  }
  include {
    phase: TEST
  }
  convolution_param {
    num_output: 512
    bias_term: false
    pad: 1
    kernel_size: 3
    group: 512
    weight_filler {
      type: "msra"
    }
    engine: CAFFE
  }
}
layer {
  name: "conv7/dw/bn"
  type: "BatchNorm"
  bottom: "conv7/dw"
  top: "conv7/dw"
}
layer {
  name: "conv7/dw/scale"
  type: "Scale"
  bottom: "conv7/dw"
  top: "conv7/dw"
  param {
    lr_mult: 1
    decay_mult: 0
  }
  param {
    lr_mult: 2
    decay_mult: 0
  }
  include {
    phase: TEST
  }
  scale_param {
    filler {
      value: 1
    }
    bias_term: true
    bias_filler {
      value: 0
    }
  }
}
layer {
  name: "conv7/dw/relu"
  type: "ReLU"
  bottom: "conv7/dw"
  top: "conv7/dw"
}
layer {
  name: "conv7"
  type: "Convolution"
  bottom: "conv7/dw"
  top: "conv7"
  param {
    lr_mult: 1
    decay_mult: 1
  }
  include {
    phase: TEST
  }
  convolution_param {
    num_output: 512
    bias_term: false
    kernel_size: 1
    weight_filler {
      type: "msra"
    }
  }
}
layer {
  name: "conv7/bn"
  type: "BatchNorm"
  bottom: "conv7"
  top: "conv7"
}
layer {
  name: "conv7/scale"
  type: "Scale"
  bottom: "conv7"
  top: "conv7"
  param {
    lr_mult: 1
    decay_mult: 0
  }
  param {
    lr_mult: 2
    decay_mult: 0
  }
  include {
    phase: TEST
  }
  scale_param {
    filler {
      value: 1
    }
    bias_term: true
    bias_filler {
      value: 0
    }
  }
}
layer {
  name: "conv7/relu"
  type: "ReLU"
  bottom: "conv7"
  top: "conv7"
}
layer {
  name: "conv8/dw"
  type: "Convolution"
  bottom: "conv7"
  top: "conv8/dw"
  param {
    lr_mult: 1
    decay_mult: 1
  }
  include {
    phase: TEST
  }
  convolution_param {
    num_output: 512
    bias_term: false
    pad: 1
    kernel_size: 3
    group: 512
    weight_filler {
      type: "msra"
    }
    engine: CAFFE
  }
}
layer {
  name: "conv8/dw/bn"
  type: "BatchNorm"
  bottom: "conv8/dw"
  top: "conv8/dw"
}
layer {
  name: "conv8/dw/scale"
  type: "Scale"
  bottom: "conv8/dw"
  top: "conv8/dw"
  param {
    lr_mult: 1
    decay_mult: 0
  }
  param {
    lr_mult: 2
    decay_mult: 0
  }
  include {
    phase: TEST
  }
  scale_param {
    filler {
      value: 1
    }
    bias_term: true
    bias_filler {
      value: 0
    }
  }
}
layer {
  name: "conv8/dw/relu"
  type: "ReLU"
  bottom: "conv8/dw"
  top: "conv8/dw"
}
layer {
  name: "conv8"
  type: "Convolution"
  bottom: "conv8/dw"
  top: "conv8"
  param {
    lr_mult: 1
    decay_mult: 1
  }
  include {
    phase: TEST
  }
  convolution_param {
    num_output: 512
    bias_term: false
    kernel_size: 1
    weight_filler {
      type: "msra"
    }
  }
}
layer {
  name: "conv8/bn"
  type: "BatchNorm"
  bottom: "conv8"
  top: "conv8"
}
layer {
  name: "conv8/scale"
  type: "Scale"
  bottom: "conv8"
  top: "conv8"
  param {
    lr_mult: 1
    decay_mult: 0
  }
  param {
    lr_mult: 2
    decay_mult: 0
  }
  include {
    phase: TEST
  }
  scale_param {
    filler {
      value: 1
    }
    bias_term: true
    bias_filler {
      value: 0
    }
  }
}
layer {
  name: "conv8/relu"
  type: "ReLU"
  bottom: "conv8"
  top: "conv8"
}
layer {
  name: "conv9/dw"
  type: "Convolution"
  bottom: "conv8"
  top: "conv9/dw"
  param {
    lr_mult: 1
    decay_mult: 1
  }
  include {
    phase: TEST
  }
  convolution_param {
    num_output: 512
    bias_term: false
    pad: 1
    kernel_size: 3
    group: 512
    weight_filler {
      type: "msra"
    }
    engine: CAFFE
  }
}
layer {
  name: "conv9/dw/bn"
  type: "BatchNorm"
  bottom: "conv9/dw"
  top: "conv9/dw"
}
layer {
  name: "conv9/dw/scale"
  type: "Scale"
  bottom: "conv9/dw"
  top: "conv9/dw"
  param {
    lr_mult: 1
    decay_mult: 0
  }
  param {
    lr_mult: 2
    decay_mult: 0
  }
  include {
    phase: TEST
  }
  scale_param {
    filler {
      value: 1
    }
    bias_term: true
    bias_filler {
      value: 0
    }
  }
}
layer {
  name: "conv9/dw/relu"
  type: "ReLU"
  bottom: "conv9/dw"
  top: "conv9/dw"
}
layer {
  name: "conv9"
  type: "Convolution"
  bottom: "conv9/dw"
  top: "conv9"
  param {
    lr_mult: 1
    decay_mult: 1
  }
  include {
    phase: TEST
  }
  convolution_param {
    num_output: 512
    bias_term: false
    kernel_size: 1
    weight_filler {
      type: "msra"
    }
  }
}
layer {
  name: "conv9/bn"
  type: "BatchNorm"
  bottom: "conv9"
  top: "conv9"
}
layer {
  name: "conv9/scale"
  type: "Scale"
  bottom: "conv9"
  top: "conv9"
  param {
    lr_mult: 1
    decay_mult: 0
  }
  param {
    lr_mult: 2
    decay_mult: 0
  }
  include {
    phase: TEST
  }
  scale_param {
    filler {
      value: 1
    }
    bias_term: true
    bias_filler {
      value: 0
    }
  }
}
layer {
  name: "conv9/relu"
  type: "ReLU"
  bottom: "conv9"
  top: "conv9"
}
layer {
  name: "conv10/dw"
  type: "Convolution"
  bottom: "conv9"
  top: "conv10/dw"
  param {
    lr_mult: 1
    decay_mult: 1
  }
  include {
    phase: TEST
  }
  convolution_param {
    num_output: 512
    bias_term: false
    pad: 1
    kernel_size: 3
    group: 512
    weight_filler {
      type: "msra"
    }
    engine: CAFFE
  }
}
layer {
  name: "conv10/dw/bn"
  type: "BatchNorm"
  bottom: "conv10/dw"
  top: "conv10/dw"
}
layer {
  name: "conv10/dw/scale"
  type: "Scale"
  bottom: "conv10/dw"
  top: "conv10/dw"
  param {
    lr_mult: 1
    decay_mult: 0
  }
  param {
    lr_mult: 2
    decay_mult: 0
  }
  include {
    phase: TEST
  }
  scale_param {
    filler {
      value: 1
    }
    bias_term: true
    bias_filler {
      value: 0
    }
  }
}
layer {
  name: "conv10/dw/relu"
  type: "ReLU"
  bottom: "conv10/dw"
  top: "conv10/dw"
}
layer {
  name: "conv10"
  type: "Convolution"
  bottom: "conv10/dw"
  top: "conv10"
  param {
    lr_mult: 1
    decay_mult: 1
  }
  include {
    phase: TEST
  }
  convolution_param {
    num_output: 512
    bias_term: false
    kernel_size: 1
    weight_filler {
      type: "msra"
    }
  }
}
layer {
  name: "conv10/bn"
  type: "BatchNorm"
  bottom: "conv10"
  top: "conv10"
}
layer {
  name: "conv10/scale"
  type: "Scale"
  bottom: "conv10"
  top: "conv10"
  param {
    lr_mult: 1
    decay_mult: 0
  }
  param {
    lr_mult: 2
    decay_mult: 0
  }
  include {
    phase: TEST
  }
  scale_param {
    filler {
      value: 1
    }
    bias_term: true
    bias_filler {
      value: 0
    }
  }
}
layer {
  name: "conv10/relu"
  type: "ReLU"
  bottom: "conv10"
  top: "conv10"
}
layer {
  name: "conv11/dw"
  type: "Convolution"
  bottom: "conv10"
  top: "conv11/dw"
  param {
    lr_mult: 1
    decay_mult: 1
  }
  include {
    phase: TEST
  }
  convolution_param {
    num_output: 512
    bias_term: false
    pad: 1
    kernel_size: 3
    group: 512
    weight_filler {
      type: "msra"
    }
    engine: CAFFE
  }
}
layer {
  name: "conv11/dw/bn"
  type: "BatchNorm"
  bottom: "conv11/dw"
  top: "conv11/dw"
}
layer {
  name: "conv11/dw/scale"
  type: "Scale"
  bottom: "conv11/dw"
  top: "conv11/dw"
  param {
    lr_mult: 1
    decay_mult: 0
  }
  param {
    lr_mult: 2
    decay_mult: 0
  }
  include {
    phase: TEST
  }
  scale_param {
    filler {
      value: 1
    }
    bias_term: true
    bias_filler {
      value: 0
    }
  }
}
layer {
  name: "conv11/dw/relu"
  type: "ReLU"
  bottom: "conv11/dw"
  top: "conv11/dw"
}
layer {
  name: "conv11"
  type: "Convolution"
  bottom: "conv11/dw"
  top: "conv11"
  param {
    lr_mult: 1
    decay_mult: 1
  }
  include {
    phase: TEST
  }
  convolution_param {
    num_output: 512
    bias_term: false
    kernel_size: 1
    weight_filler {
      type: "msra"
    }
  }
}
layer {
  name: "conv11/bn"
  type: "BatchNorm"
  bottom: "conv11"
  top: "conv11"
}
layer {
  name: "conv11/scale"
  type: "Scale"
  bottom: "conv11"
  top: "conv11"
  param {
    lr_mult: 1
    decay_mult: 0
  }
  param {
    lr_mult: 2
    decay_mult: 0
  }
  include {
    phase: TEST
  }
  scale_param {
    filler {
      value: 1
    }
    bias_term: true
    bias_filler {
      value: 0
    }
  }
}
layer {
  name: "conv11/relu"
  type: "ReLU"
  bottom: "conv11"
  top: "conv11"
}
layer {
  name: "conv12/dw"
  type: "Convolution"
  bottom: "conv11"
  top: "conv12/dw"
  param {
    lr_mult: 1
    decay_mult: 1
  }
  include {
    phase: TEST
  }
  convolution_param {
    num_output: 512
    bias_term: false
    pad: 1
    kernel_size: 3
    group: 512
    stride: 2
    weight_filler {
      type: "msra"
    }
    engine: CAFFE
  }
}
layer {
  name: "conv12/dw/bn"
  type: "BatchNorm"
  bottom: "conv12/dw"
  top: "conv12/dw"
}
layer {
  name: "conv12/dw/scale"
  type: "Scale"
  bottom: "conv12/dw"
  top: "conv12/dw"
  param {
    lr_mult: 1
    decay_mult: 0
  }
  param {
    lr_mult: 2
    decay_mult: 0
  }
  include {
    phase: TEST
  }
  scale_param {
    filler {
      value: 1
    }
    bias_term: true
    bias_filler {
      value: 0
    }
  }
}
layer {
  name: "conv12/dw/relu"
  type: "ReLU"
  bottom: "conv12/dw"
  top: "conv12/dw"
}
layer {
  name: "conv12"
  type: "Convolution"
  bottom: "conv12/dw"
  top: "conv12"
  param {
    lr_mult: 1
    decay_mult: 1
  }
  include {
    phase: TEST
  }
  convolution_param {
    num_output: 1024
    bias_term: false
    kernel_size: 1
    weight_filler {
      type: "msra"
    }
  }
}
layer {
  name: "conv12/bn"
  type: "BatchNorm"
  bottom: "conv12"
  top: "conv12"
}
layer {
  name: "conv12/scale"
  type: "Scale"
  bottom: "conv12"
  top: "conv12"
  param {
    lr_mult: 1
    decay_mult: 0
  }
  param {
    lr_mult: 2
    decay_mult: 0
  }
  include {
    phase: TEST
  }
  scale_param {
    filler {
      value: 1
    }
    bias_term: true
    bias_filler {
      value: 0
    }
  }
}
layer {
  name: "conv12/relu"
  type: "ReLU"
  bottom: "conv12"
  top: "conv12"
}
layer {
  name: "conv13/dw"
  type: "Convolution"
  bottom: "conv12"
  top: "conv13/dw"
  param {
    lr_mult: 1
    decay_mult: 1
  }
  include {
    phase: TEST
  }
  convolution_param {
    num_output: 1024
    bias_term: false
    pad: 1
    kernel_size: 3
    group: 1024
    weight_filler {
      type: "msra"
    }
    engine: CAFFE
  }
}
layer {
  name: "conv13/dw/bn"
  type: "BatchNorm"
  bottom: "conv13/dw"
  top: "conv13/dw"
}
layer {
  name: "conv13/dw/scale"
  type: "Scale"
  bottom: "conv13/dw"
  top: "conv13/dw"
  param {
    lr_mult: 1
    decay_mult: 0
  }
  param {
    lr_mult: 2
    decay_mult: 0
  }
  include {
    phase: TEST
  }
  scale_param {
    filler {
      value: 1
    }
    bias_term: true
    bias_filler {
      value: 0
    }
  }
}
layer {
  name: "conv13/dw/relu"
  type: "ReLU"
  bottom: "conv13/dw"
  top: "conv13/dw"
}
layer {
  name: "conv13"
  type: "Convolution"
  bottom: "conv13/dw"
  top: "conv13"
  param {
    lr_mult: 1
    decay_mult: 1
  }
  include {
    phase: TEST
  }
  convolution_param {
    num_output: 1024
    bias_term: false
    kernel_size: 1
    weight_filler {
      type: "msra"
    }
  }
}
layer {
  name: "conv13/bn"
  type: "BatchNorm"
  bottom: "conv13"
  top: "conv13"
}
layer {
  name: "conv13/scale"
  type: "Scale"
  bottom: "conv13"
  top: "conv13"
  param {
    lr_mult: 1
    decay_mult: 0
  }
  param {
    lr_mult: 2
    decay_mult: 0
  }
  include {
    phase: TEST
  }
  scale_param {
    filler {
      value: 1
    }
    bias_term: true
    bias_filler {
      value: 0
    }
  }
}
layer {
  name: "conv13/relu"
  type: "ReLU"
  bottom: "conv13"
  top: "conv13"
}
layer {
  name: "conv14_1"
  type: "Convolution"
  bottom: "conv13"
  top: "conv14_1"
  param {
    lr_mult: 1
    decay_mult: 1
  }
  include {
    phase: TEST
  }
  convolution_param {
    num_output: 256
    bias_term: false
    kernel_size: 1
    weight_filler {
      type: "msra"
    }
  }
}
layer {
  name: "conv14_1/bn"
  type: "BatchNorm"
  bottom: "conv14_1"
  top: "conv14_1"
}
layer {
  name: "conv14_1/scale"
  type: "Scale"
  bottom: "conv14_1"
  top: "conv14_1"
  param {
    lr_mult: 1
    decay_mult: 0
  }
  param {
    lr_mult: 2
    decay_mult: 0
  }
  include {
    phase: TEST
  }
  scale_param {
    filler {
      value: 1
    }
    bias_term: true
    bias_filler {
      value: 0
    }
  }
}
layer {
  name: "conv14_1/relu"
  type: "ReLU"
  bottom: "conv14_1"
  top: "conv14_1"
}
layer {
  name: "conv14_2"
  type: "Convolution"
  bottom: "conv14_1"
  top: "conv14_2"
  param {
    lr_mult: 1
    decay_mult: 1
  }
  include {
    phase: TEST
  }
  convolution_param {
    num_output: 512
    bias_term: false
    pad: 1
    kernel_size: 3
    stride: 2
    weight_filler {
      type: "msra"
    }
  }
}
layer {
  name: "conv14_2/bn"
  type: "BatchNorm"
  bottom: "conv14_2"
  top: "conv14_2"
}
layer {
  name: "conv14_2/scale"
  type: "Scale"
  bottom: "conv14_2"
  top: "conv14_2"
  param {
    lr_mult: 1
    decay_mult: 0
  }
  param {
    lr_mult: 2
    decay_mult: 0
  }
  include {
    phase: TEST
  }
  scale_param {
    filler {
      value: 1
    }
    bias_term: true
    bias_filler {
      value: 0
    }
  }
}
layer {
  name: "conv14_2/relu"
  type: "ReLU"
  bottom: "conv14_2"
  top: "conv14_2"
}
layer {
  name: "conv15_1"
  type: "Convolution"
  bottom: "conv14_2"
  top: "conv15_1"
  param {
    lr_mult: 1
    decay_mult: 1
  }
  include {
    phase: TEST
  }
  convolution_param {
    num_output: 128
    bias_term: false
    kernel_size: 1
    weight_filler {
      type: "msra"
    }
  }
}
layer {
  name: "conv15_1/bn"
  type: "BatchNorm"
  bottom: "conv15_1"
  top: "conv15_1"
}
layer {
  name: "conv15_1/scale"
  type: "Scale"
  bottom: "conv15_1"
  top: "conv15_1"
  param {
    lr_mult: 1
    decay_mult: 0
  }
  param {
    lr_mult: 2
    decay_mult: 0
  }
  include {
    phase: TEST
  }
  scale_param {
    filler {
      value: 1
    }
    bias_term: true
    bias_filler {
      value: 0
    }
  }
}
layer {
  name: "conv15_1/relu"
  type: "ReLU"
  bottom: "conv15_1"
  top: "conv15_1"
}
layer {
  name: "conv15_2"
  type: "Convolution"
  bottom: "conv15_1"
  top: "conv15_2"
  param {
    lr_mult: 1
    decay_mult: 1
  }
  include {
    phase: TEST
  }
  convolution_param {
    num_output: 256
    bias_term: false
    pad: 1
    kernel_size: 3
    stride: 2
    weight_filler {
      type: "msra"
    }
  }
}
layer {
  name: "conv15_2/bn"
  type: "BatchNorm"
  bottom: "conv15_2"
  top: "conv15_2"
}
layer {
  name: "conv15_2/scale"
  type: "Scale"
  bottom: "conv15_2"
  top: "conv15_2"
  param {
    lr_mult: 1
    decay_mult: 0
  }
  param {
    lr_mult: 2
    decay_mult: 0
  }
  include {
    phase: TEST
  }
  scale_param {
    filler {
      value: 1
    }
    bias_term: true
    bias_filler {
      value: 0
    }
  }
}
layer {
  name: "conv15_2/relu"
  type: "ReLU"
  bottom: "conv15_2"
  top: "conv15_2"
}
layer {
  name: "conv16_1"
  type: "Convolution"
  bottom: "conv15_2"
  top: "conv16_1"
  param {
    lr_mult: 1
    decay_mult: 1
  }
  include {
    phase: TEST
  }
  convolution_param {
    num_output: 128
    bias_term: false
    kernel_size: 1
    weight_filler {
      type: "msra"
    }
  }
}
layer {
  name: "conv16_1/bn"
  type: "BatchNorm"
  bottom: "conv16_1"
  top: "conv16_1"
}
layer {
  name: "conv16_1/scale"
  type: "Scale"
  bottom: "conv16_1"
  top: "conv16_1"
  param {
    lr_mult: 1
    decay_mult: 0
  }
  param {
    lr_mult: 2
    decay_mult: 0
  }
  include {
    phase: TEST
  }
  scale_param {
    filler {
      value: 1
    }
    bias_term: true
    bias_filler {
      value: 0
    }
  }
}
layer {
  name: "conv16_1/relu"
  type: "ReLU"
  bottom: "conv16_1"
  top: "conv16_1"
}
layer {
  name: "conv16_2"
  type: "Convolution"
  bottom: "conv16_1"
  top: "conv16_2"
  param {
    lr_mult: 1
    decay_mult: 1
  }
  include {
    phase: TEST
  }
  convolution_param {
    num_output: 256
    bias_term: false
    pad: 1
    kernel_size: 3
    stride: 2
    weight_filler {
      type: "msra"
    }
  }
}
layer {
  name: "conv16_2/bn"
  type: "BatchNorm"
  bottom: "conv16_2"
  top: "conv16_2"
}
layer {
  name: "conv16_2/scale"
  type: "Scale"
  bottom: "conv16_2"
  top: "conv16_2"
  param {
    lr_mult: 1
    decay_mult: 0
  }
  param {
    lr_mult: 2
    decay_mult: 0
  }
  include {
    phase: TEST
  }
  scale_param {
    filler {
      value: 1
    }
    bias_term: true
    bias_filler {
      value: 0
    }
  }
}
layer {
  name: "conv16_2/relu"
  type: "ReLU"
  bottom: "conv16_2"
  top: "conv16_2"
}
layer {
  name: "conv17_1"
  type: "Convolution"
  bottom: "conv16_2"
  top: "conv17_1"
  param {
    lr_mult: 1
    decay_mult: 1
  }
  include {
    phase: TEST
  }
  convolution_param {
    num_output: 64
    bias_term: false
    kernel_size: 1
    weight_filler {
      type: "msra"
    }
  }
}
layer {
  name: "conv17_1/bn"
  type: "BatchNorm"
  bottom: "conv17_1"
  top: "conv17_1"
}
layer {
  name: "conv17_1/scale"
  type: "Scale"
  bottom: "conv17_1"
  top: "conv17_1"
  param {
    lr_mult: 1
    decay_mult: 0
  }
  param {
    lr_mult: 2
    decay_mult: 0
  }
  include {
    phase: TEST
  }
  scale_param {
    filler {
      value: 1
    }
    bias_term: true
    bias_filler {
      value: 0
    }
  }
}
layer {
  name: "conv17_1/relu"
  type: "ReLU"
  bottom: "conv17_1"
  top: "conv17_1"
}
layer {
  name: "conv17_2"
  type: "Convolution"
  bottom: "conv17_1"
  top: "conv17_2"
  param {
    lr_mult: 1
    decay_mult: 1
  }
  include {
    phase: TEST
  }
  convolution_param {
    num_output: 128
    bias_term: false
    pad: 1
    kernel_size: 3
    stride: 2
    weight_filler {
      type: "msra"
    }
  }
}
layer {
  name: "conv17_2/bn"
  type: "BatchNorm"
  bottom: "conv17_2"
  top: "conv17_2"
}
layer {
  name: "conv17_2/scale"
  type: "Scale"
  bottom: "conv17_2"
  top: "conv17_2"
  param {
    lr_mult: 1
    decay_mult: 0
  }
  param {
    lr_mult: 2
    decay_mult: 0
  }
  include {
    phase: TEST
  }
  scale_param {
    filler {
      value: 1
    }
    bias_term: true
    bias_filler {
      value: 0
    }
  }
}
layer {
  name: "conv17_2/relu"
  type: "ReLU"
  bottom: "conv17_2"
  top: "conv17_2"
}
layer {
  name: "conv11_mbox_loc"
  type: "Convolution"
  bottom: "conv11"
  top: "conv11_mbox_loc"
  param {
    lr_mult: 1
    decay_mult: 1
  }
  param {
    lr_mult: 2
    decay_mult: 0
  }
  include {
    phase: TEST
  }
  convolution_param {
    num_output: 12
    kernel_size: 1
    weight_filler {
      type: "msra"
    }
    bias_filler {
      type: "constant"
      value: 0
    }
  }
}
layer {
  name: "conv11_mbox_loc_perm"
  type: "Permute"
  bottom: "conv11_mbox_loc"
  top: "conv11_mbox_loc_perm"
  permute_param {
    order: 0
    order: 2
    order: 3
    order: 1
  }
}
layer {
  name: "conv11_mbox_loc_flat"
  type: "Flatten"
  bottom: "conv11_mbox_loc_perm"
  top: "
I1102 05:21:38.182346  2955 layer_factory.hpp:77] Creating layer data
I1102 05:21:38.182646  2955 net.cpp:100] Creating Layer data
I1102 05:21:38.182660  2955 net.cpp:455] data -> data
I1102 05:21:38.182695  2955 net.cpp:455] data -> label
I1102 05:21:38.186358  2992 db_lmdb.cpp:35] Opened lmdb examples/VOC0712/VOC0712_test_lmdb
I1102 05:21:38.202159  2955 annotated_data_layer.cpp:62] output data size: 8,3,300,300
I1102 05:21:38.222812  2955 net.cpp:150] Setting up data
I1102 05:21:38.222834  2955 net.cpp:157] Top shape: 8 3 300 300 (2160000)
I1102 05:21:38.222839  2955 net.cpp:157] Top shape: 1 1 2 8 (16)
I1102 05:21:38.222841  2955 net.cpp:165] Memory required for data: 8640064
I1102 05:21:38.222849  2955 layer_factory.hpp:77] Creating layer data_data_0_split
I1102 05:21:38.222877  2955 net.cpp:100] Creating Layer data_data_0_split
I1102 05:21:38.222882  2955 net.cpp:481] data_data_0_split <- data
I1102 05:21:38.222895  2955 net.cpp:455] data_data_0_split -> data_data_0_split_0
I1102 05:21:38.222908  2955 net.cpp:455] data_data_0_split -> data_data_0_split_1
I1102 05:21:38.222914  2955 net.cpp:455] data_data_0_split -> data_data_0_split_2
I1102 05:21:38.222921  2955 net.cpp:455] data_data_0_split -> data_data_0_split_3
I1102 05:21:38.222932  2955 net.cpp:455] data_data_0_split -> data_data_0_split_4
I1102 05:21:38.222937  2955 net.cpp:455] data_data_0_split -> data_data_0_split_5
I1102 05:21:38.222973  2955 net.cpp:455] data_data_0_split -> data_data_0_split_6
I1102 05:21:38.223506  2955 net.cpp:150] Setting up data_data_0_split
I1102 05:21:38.223521  2955 net.cpp:157] Top shape: 8 3 300 300 (2160000)
I1102 05:21:38.223526  2955 net.cpp:157] Top shape: 8 3 300 300 (2160000)
I1102 05:21:38.223527  2955 net.cpp:157] Top shape: 8 3 300 300 (2160000)
I1102 05:21:38.223531  2955 net.cpp:157] Top shape: 8 3 300 300 (2160000)
I1102 05:21:38.223533  2955 net.cpp:157] Top shape: 8 3 300 300 (2160000)
I1102 05:21:38.223536  2955 net.cpp:157] Top shape: 8 3 300 300 (2160000)
I1102 05:21:38.223538  2955 net.cpp:157] Top shape: 8 3 300 300 (2160000)
I1102 05:21:38.223541  2955 net.cpp:165] Memory required for data: 69120064
I1102 05:21:38.223543  2955 layer_factory.hpp:77] Creating layer conv0
I1102 05:21:38.223563  2955 net.cpp:100] Creating Layer conv0
I1102 05:21:38.223567  2955 net.cpp:481] conv0 <- data_data_0_split_0
I1102 05:21:38.223572  2955 net.cpp:455] conv0 -> conv0
I1102 05:21:38.774708  2955 net.cpp:150] Setting up conv0
I1102 05:21:38.774747  2955 net.cpp:157] Top shape: 8 32 150 150 (5760000)
I1102 05:21:38.774750  2955 net.cpp:165] Memory required for data: 92160064
I1102 05:21:38.774775  2955 layer_factory.hpp:77] Creating layer conv0/bn
I1102 05:21:38.774788  2955 net.cpp:100] Creating Layer conv0/bn
I1102 05:21:38.774792  2955 net.cpp:481] conv0/bn <- conv0
I1102 05:21:38.774799  2955 net.cpp:442] conv0/bn -> conv0 (in-place)
I1102 05:21:38.776124  2955 net.cpp:150] Setting up conv0/bn
I1102 05:21:38.776157  2955 net.cpp:157] Top shape: 8 32 150 150 (5760000)
I1102 05:21:38.776160  2955 net.cpp:165] Memory required for data: 115200064
I1102 05:21:38.776170  2955 layer_factory.hpp:77] Creating layer conv0/scale
I1102 05:21:38.776185  2955 net.cpp:100] Creating Layer conv0/scale
I1102 05:21:38.776191  2955 net.cpp:481] conv0/scale <- conv0
I1102 05:21:38.776196  2955 net.cpp:442] conv0/scale -> conv0 (in-place)
I1102 05:21:38.776293  2955 layer_factory.hpp:77] Creating layer conv0/scale
I1102 05:21:38.776492  2955 net.cpp:150] Setting up conv0/scale
I1102 05:21:38.776506  2955 net.cpp:157] Top shape: 8 32 150 150 (5760000)
I1102 05:21:38.776510  2955 net.cpp:165] Memory required for data: 138240064
I1102 05:21:38.776516  2955 layer_factory.hpp:77] Creating layer conv0/relu
I1102 05:21:38.776523  2955 net.cpp:100] Creating Layer conv0/relu
I1102 05:21:38.776556  2955 net.cpp:481] conv0/relu <- conv0
I1102 05:21:38.776576  2955 net.cpp:442] conv0/relu -> conv0 (in-place)
I1102 05:21:38.777597  2955 net.cpp:150] Setting up conv0/relu
I1102 05:21:38.777616  2955 net.cpp:157] Top shape: 8 32 150 150 (5760000)
I1102 05:21:38.777618  2955 net.cpp:165] Memory required for data: 161280064
I1102 05:21:38.777621  2955 layer_factory.hpp:77] Creating layer conv1/dw
I1102 05:21:38.777634  2955 net.cpp:100] Creating Layer conv1/dw
I1102 05:21:38.777637  2955 net.cpp:481] conv1/dw <- conv0
I1102 05:21:38.777642  2955 net.cpp:455] conv1/dw -> conv1/dw
I1102 05:21:38.777878  2955 net.cpp:150] Setting up conv1/dw
I1102 05:21:38.777914  2955 net.cpp:157] Top shape: 8 32 150 150 (5760000)
I1102 05:21:38.777917  2955 net.cpp:165] Memory required for data: 184320064
I1102 05:21:38.777922  2955 layer_factory.hpp:77] Creating layer conv1/dw/bn
I1102 05:21:38.777927  2955 net.cpp:100] Creating Layer conv1/dw/bn
I1102 05:21:38.777936  2955 net.cpp:481] conv1/dw/bn <- conv1/dw
I1102 05:21:38.777940  2955 net.cpp:442] conv1/dw/bn -> conv1/dw (in-place)
I1102 05:21:38.778195  2955 net.cpp:150] Setting up conv1/dw/bn
I1102 05:21:38.778223  2955 net.cpp:157] Top shape: 8 32 150 150 (5760000)
I1102 05:21:38.778225  2955 net.cpp:165] Memory required for data: 207360064
I1102 05:21:38.778249  2955 layer_factory.hpp:77] Creating layer conv1/dw/scale
I1102 05:21:38.778276  2955 net.cpp:100] Creating Layer conv1/dw/scale
I1102 05:21:38.778282  2955 net.cpp:481] conv1/dw/scale <- conv1/dw
I1102 05:21:38.778287  2955 net.cpp:442] conv1/dw/scale -> conv1/dw (in-place)
I1102 05:21:38.778329  2955 layer_factory.hpp:77] Creating layer conv1/dw/scale
I1102 05:21:38.778569  2955 net.cpp:150] Setting up conv1/dw/scale
I1102 05:21:38.778583  2955 net.cpp:157] Top shape: 8 32 150 150 (5760000)
I1102 05:21:38.778585  2955 net.cpp:165] Memory required for data: 230400064
I1102 05:21:38.778590  2955 layer_factory.hpp:77] Creating layer conv1/dw/relu
I1102 05:21:38.778596  2955 net.cpp:100] Creating Layer conv1/dw/relu
I1102 05:21:38.778600  2955 net.cpp:481] conv1/dw/relu <- conv1/dw
I1102 05:21:38.778604  2955 net.cpp:442] conv1/dw/relu -> conv1/dw (in-place)
I1102 05:21:38.778895  2955 net.cpp:150] Setting up conv1/dw/relu
I1102 05:21:38.778909  2955 net.cpp:157] Top shape: 8 32 150 150 (5760000)
I1102 05:21:38.778913  2955 net.cpp:165] Memory required for data: 253440064
I1102 05:21:38.778915  2955 layer_factory.hpp:77] Creating layer conv1
I1102 05:21:38.778941  2955 net.cpp:100] Creating Layer conv1
I1102 05:21:38.778970  2955 net.cpp:481] conv1 <- conv1/dw
I1102 05:21:38.778976  2955 net.cpp:455] conv1 -> conv1
I1102 05:21:38.782586  2955 net.cpp:150] Setting up conv1
I1102 05:21:38.782606  2955 net.cpp:157] Top shape: 8 64 150 150 (11520000)
I1102 05:21:38.782609  2955 net.cpp:165] Memory required for data: 299520064
I1102 05:21:38.782613  2955 layer_factory.hpp:77] Creating layer conv1/bn
I1102 05:21:38.782621  2955 net.cpp:100] Creating Layer conv1/bn
I1102 05:21:38.782624  2955 net.cpp:481] conv1/bn <- conv1
I1102 05:21:38.782627  2955 net.cpp:442] conv1/bn -> conv1 (in-place)
I1102 05:21:38.782832  2955 net.cpp:150] Setting up conv1/bn
I1102 05:21:38.782860  2955 net.cpp:157] Top shape: 8 64 150 150 (11520000)
I1102 05:21:38.782863  2955 net.cpp:165] Memory required for data: 345600064
I1102 05:21:38.782869  2955 layer_factory.hpp:77] Creating layer conv1/scale
I1102 05:21:38.782881  2955 net.cpp:100] Creating Layer conv1/scale
I1102 05:21:38.782884  2955 net.cpp:481] conv1/scale <- conv1
I1102 05:21:38.782888  2955 net.cpp:442] conv1/scale -> conv1 (in-place)
I1102 05:21:38.782929  2955 layer_factory.hpp:77] Creating layer conv1/scale
I1102 05:21:38.783071  2955 net.cpp:150] Setting up conv1/scale
I1102 05:21:38.783083  2955 net.cpp:157] Top shape: 8 64 150 150 (11520000)
I1102 05:21:38.783087  2955 net.cpp:165] Memory required for data: 391680064
I1102 05:21:38.783094  2955 layer_factory.hpp:77] Creating layer conv1/relu
I1102 05:21:38.783103  2955 net.cpp:100] Creating Layer conv1/relu
I1102 05:21:38.783109  2955 net.cpp:481] conv1/relu <- conv1
I1102 05:21:38.783113  2955 net.cpp:442] conv1/relu -> conv1 (in-place)
I1102 05:21:38.784252  2955 net.cpp:150] Setting up conv1/relu
I1102 05:21:38.784271  2955 net.cpp:157] Top shape: 8 64 150 150 (11520000)
I1102 05:21:38.784291  2955 net.cpp:165] Memory required for data: 437760064
I1102 05:21:38.784293  2955 layer_factory.hpp:77] Creating layer conv2/dw
I1102 05:21:38.784302  2955 net.cpp:100] Creating Layer conv2/dw
I1102 05:21:38.784306  2955 net.cpp:481] conv2/dw <- conv1
I1102 05:21:38.784312  2955 net.cpp:455] conv2/dw -> conv2/dw
I1102 05:21:38.784533  2955 net.cpp:150] Setting up conv2/dw
I1102 05:21:38.784584  2955 net.cpp:157] Top shape: 8 64 75 75 (2880000)
I1102 05:21:38.784587  2955 net.cpp:165] Memory required for data: 449280064
I1102 05:21:38.784592  2955 layer_factory.hpp:77] Creating layer conv2/dw/bn
I1102 05:21:38.784597  2955 net.cpp:100] Creating Layer conv2/dw/bn
I1102 05:21:38.784605  2955 net.cpp:481] conv2/dw/bn <- conv2/dw
I1102 05:21:38.784624  2955 net.cpp:442] conv2/dw/bn -> conv2/dw (in-place)
I1102 05:21:38.785889  2955 net.cpp:150] Setting up conv2/dw/bn
I1102 05:21:38.785909  2955 net.cpp:157] Top shape: 8 64 75 75 (2880000)
I1102 05:21:38.785914  2955 net.cpp:165] Memory required for data: 460800064
I1102 05:21:38.785924  2955 layer_factory.hpp:77] Creating layer conv2/dw/scale
I1102 05:21:38.785993  2955 net.cpp:100] Creating Layer conv2/dw/scale
I1102 05:21:38.786002  2955 net.cpp:481] conv2/dw/scale <- conv2/dw
I1102 05:21:38.786008  2955 net.cpp:442] conv2/dw/scale -> conv2/dw (in-place)
I1102 05:21:38.786120  2955 layer_factory.hpp:77] Creating layer conv2/dw/scale
I1102 05:21:38.786281  2955 net.cpp:150] Setting up conv2/dw/scale
I1102 05:21:38.786312  2955 net.cpp:157] Top shape: 8 64 75 75 (2880000)
I1102 05:21:38.786315  2955 net.cpp:165] Memory required for data: 472320064
I1102 05:21:38.786321  2955 layer_factory.hpp:77] Creating layer conv2/dw/relu
I1102 05:21:38.786356  2955 net.cpp:100] Creating Layer conv2/dw/relu
I1102 05:21:38.786360  2955 net.cpp:481] conv2/dw/relu <- conv2/dw
I1102 05:21:38.786381  2955 net.cpp:442] conv2/dw/relu -> conv2/dw (in-place)
I1102 05:21:38.786694  2955 net.cpp:150] Setting up conv2/dw/relu
I1102 05:21:38.786741  2955 net.cpp:157] Top shape: 8 64 75 75 (2880000)
I1102 05:21:38.786743  2955 net.cpp:165] Memory required for data: 483840064
I1102 05:21:38.786746  2955 layer_factory.hpp:77] Creating layer conv2
I1102 05:21:38.786757  2955 net.cpp:100] Creating Layer conv2
I1102 05:21:38.786764  2955 net.cpp:481] conv2 <- conv2/dw
I1102 05:21:38.786772  2955 net.cpp:455] conv2 -> conv2
I1102 05:21:38.789335  2955 net.cpp:150] Setting up conv2
I1102 05:21:38.789355  2955 net.cpp:157] Top shape: 8 128 75 75 (5760000)
I1102 05:21:38.789358  2955 net.cpp:165] Memory required for data: 506880064
I1102 05:21:38.789363  2955 layer_factory.hpp:77] Creating layer conv2/bn
I1102 05:21:38.789371  2955 net.cpp:100] Creating Layer conv2/bn
I1102 05:21:38.789373  2955 net.cpp:481] conv2/bn <- conv2
I1102 05:21:38.789379  2955 net.cpp:442] conv2/bn -> conv2 (in-place)
I1102 05:21:38.789599  2955 net.cpp:150] Setting up conv2/bn
I1102 05:21:38.789611  2955 net.cpp:157] Top shape: 8 128 75 75 (5760000)
I1102 05:21:38.789613  2955 net.cpp:165] Memory required for data: 529920064
I1102 05:21:38.789620  2955 layer_factory.hpp:77] Creating layer conv2/scale
I1102 05:21:38.789630  2955 net.cpp:100] Creating Layer conv2/scale
I1102 05:21:38.789638  2955 net.cpp:481] conv2/scale <- conv2
I1102 05:21:38.789643  2955 net.cpp:442] conv2/scale -> conv2 (in-place)
I1102 05:21:38.789683  2955 layer_factory.hpp:77] Creating layer conv2/scale
I1102 05:21:38.789845  2955 net.cpp:150] Setting up conv2/scale
I1102 05:21:38.789857  2955 net.cpp:157] Top shape: 8 128 75 75 (5760000)
I1102 05:21:38.789860  2955 net.cpp:165] Memory required for data: 552960064
I1102 05:21:38.789865  2955 layer_factory.hpp:77] Creating layer conv2/relu
I1102 05:21:38.789870  2955 net.cpp:100] Creating Layer conv2/relu
I1102 05:21:38.789873  2955 net.cpp:481] conv2/relu <- conv2
I1102 05:21:38.789880  2955 net.cpp:442] conv2/relu -> conv2 (in-place)
I1102 05:21:38.790763  2955 net.cpp:150] Setting up conv2/relu
I1102 05:21:38.790781  2955 net.cpp:157] Top shape: 8 128 75 75 (5760000)
I1102 05:21:38.790784  2955 net.cpp:165] Memory required for data: 576000064
I1102 05:21:38.790788  2955 layer_factory.hpp:77] Creating layer conv3/dw
I1102 05:21:38.790801  2955 net.cpp:100] Creating Layer conv3/dw
I1102 05:21:38.790808  2955 net.cpp:481] conv3/dw <- conv2
I1102 05:21:38.790817  2955 net.cpp:455] conv3/dw -> conv3/dw
I1102 05:21:38.790992  2955 net.cpp:150] Setting up conv3/dw
I1102 05:21:38.791015  2955 net.cpp:157] Top shape: 8 128 75 75 (5760000)
I1102 05:21:38.791018  2955 net.cpp:165] Memory required for data: 599040064
I1102 05:21:38.791023  2955 layer_factory.hpp:77] Creating layer conv3/dw/bn
I1102 05:21:38.791028  2955 net.cpp:100] Creating Layer conv3/dw/bn
I1102 05:21:38.791049  2955 net.cpp:481] conv3/dw/bn <- conv3/dw
I1102 05:21:38.791052  2955 net.cpp:442] conv3/dw/bn -> conv3/dw (in-place)
I1102 05:21:38.791235  2955 net.cpp:150] Setting up conv3/dw/bn
I1102 05:21:38.791246  2955 net.cpp:157] Top shape: 8 128 75 75 (5760000)
I1102 05:21:38.791249  2955 net.cpp:165] Memory required for data: 622080064
I1102 05:21:38.791260  2955 layer_factory.hpp:77] Creating layer conv3/dw/scale
I1102 05:21:38.791270  2955 net.cpp:100] Creating Layer conv3/dw/scale
I1102 05:21:38.791276  2955 net.cpp:481] conv3/dw/scale <- conv3/dw
I1102 05:21:38.791297  2955 net.cpp:442] conv3/dw/scale -> conv3/dw (in-place)
I1102 05:21:38.791357  2955 layer_factory.hpp:77] Creating layer conv3/dw/scale
I1102 05:21:38.791486  2955 net.cpp:150] Setting up conv3/dw/scale
I1102 05:21:38.791497  2955 net.cpp:157] Top shape: 8 128 75 75 (5760000)
I1102 05:21:38.791501  2955 net.cpp:165] Memory required for data: 645120064
I1102 05:21:38.791505  2955 layer_factory.hpp:77] Creating layer conv3/dw/relu
I1102 05:21:38.791510  2955 net.cpp:100] Creating Layer conv3/dw/relu
I1102 05:21:38.791515  2955 net.cpp:481] conv3/dw/relu <- conv3/dw
I1102 05:21:38.791522  2955 net.cpp:442] conv3/dw/relu -> conv3/dw (in-place)
I1102 05:21:38.792515  2955 net.cpp:150] Setting up conv3/dw/relu
I1102 05:21:38.792547  2955 net.cpp:157] Top shape: 8 128 75 75 (5760000)
I1102 05:21:38.792551  2955 net.cpp:165] Memory required for data: 668160064
I1102 05:21:38.792554  2955 layer_factory.hpp:77] Creating layer conv3
I1102 05:21:38.792577  2955 net.cpp:100] Creating Layer conv3
I1102 05:21:38.792584  2955 net.cpp:481] conv3 <- conv3/dw
I1102 05:21:38.792608  2955 net.cpp:455] conv3 -> conv3
I1102 05:21:38.795137  2955 net.cpp:150] Setting up conv3
I1102 05:21:38.795157  2955 net.cpp:157] Top shape: 8 128 75 75 (5760000)
I1102 05:21:38.795161  2955 net.cpp:165] Memory required for data: 691200064
I1102 05:21:38.795166  2955 layer_factory.hpp:77] Creating layer conv3/bn
I1102 05:21:38.795173  2955 net.cpp:100] Creating Layer conv3/bn
I1102 05:21:38.795182  2955 net.cpp:481] conv3/bn <- conv3
I1102 05:21:38.795186  2955 net.cpp:442] conv3/bn -> conv3 (in-place)
I1102 05:21:38.795389  2955 net.cpp:150] Setting up conv3/bn
I1102 05:21:38.795402  2955 net.cpp:157] Top shape: 8 128 75 75 (5760000)
I1102 05:21:38.795403  2955 net.cpp:165] Memory required for data: 714240064
I1102 05:21:38.795409  2955 layer_factory.hpp:77] Creating layer conv3/scale
I1102 05:21:38.795433  2955 net.cpp:100] Creating Layer conv3/scale
I1102 05:21:38.795439  2955 net.cpp:481] conv3/scale <- conv3
I1102 05:21:38.795444  2955 net.cpp:442] conv3/scale -> conv3 (in-place)
I1102 05:21:38.795485  2955 layer_factory.hpp:77] Creating layer conv3/scale
I1102 05:21:38.795596  2955 net.cpp:150] Setting up conv3/scale
I1102 05:21:38.795608  2955 net.cpp:157] Top shape: 8 128 75 75 (5760000)
I1102 05:21:38.795610  2955 net.cpp:165] Memory required for data: 737280064
I1102 05:21:38.795615  2955 layer_factory.hpp:77] Creating layer conv3/relu
I1102 05:21:38.795620  2955 net.cpp:100] Creating Layer conv3/relu
I1102 05:21:38.795624  2955 net.cpp:481] conv3/relu <- conv3
I1102 05:21:38.795629  2955 net.cpp:442] conv3/relu -> conv3 (in-place)
I1102 05:21:38.795903  2955 net.cpp:150] Setting up conv3/relu
I1102 05:21:38.795919  2955 net.cpp:157] Top shape: 8 128 75 75 (5760000)
I1102 05:21:38.795922  2955 net.cpp:165] Memory required for data: 760320064
I1102 05:21:38.795925  2955 layer_factory.hpp:77] Creating layer conv4/dw
I1102 05:21:38.795936  2955 net.cpp:100] Creating Layer conv4/dw
I1102 05:21:38.795943  2955 net.cpp:481] conv4/dw <- conv3
I1102 05:21:38.795956  2955 net.cpp:455] conv4/dw -> conv4/dw
I1102 05:21:38.796196  2955 net.cpp:150] Setting up conv4/dw
I1102 05:21:38.796210  2955 net.cpp:157] Top shape: 8 128 38 38 (1478656)
I1102 05:21:38.796227  2955 net.cpp:165] Memory required for data: 766234688
I1102 05:21:38.796233  2955 layer_factory.hpp:77] Creating layer conv4/dw/bn
I1102 05:21:38.796239  2955 net.cpp:100] Creating Layer conv4/dw/bn
I1102 05:21:38.796243  2955 net.cpp:481] conv4/dw/bn <- conv4/dw
I1102 05:21:38.796247  2955 net.cpp:442] conv4/dw/bn -> conv4/dw (in-place)
I1102 05:21:38.796509  2955 net.cpp:150] Setting up conv4/dw/bn
I1102 05:21:38.796521  2955 net.cpp:157] Top shape: 8 128 38 38 (1478656)
I1102 05:21:38.796524  2955 net.cpp:165] Memory required for data: 772149312
I1102 05:21:38.796530  2955 layer_factory.hpp:77] Creating layer conv4/dw/scale
I1102 05:21:38.796543  2955 net.cpp:100] Creating Layer conv4/dw/scale
I1102 05:21:38.796551  2955 net.cpp:481] conv4/dw/scale <- conv4/dw
I1102 05:21:38.796556  2955 net.cpp:442] conv4/dw/scale -> conv4/dw (in-place)
I1102 05:21:38.796600  2955 layer_factory.hpp:77] Creating layer conv4/dw/scale
I1102 05:21:38.796722  2955 net.cpp:150] Setting up conv4/dw/scale
I1102 05:21:38.796751  2955 net.cpp:157] Top shape: 8 128 38 38 (1478656)
I1102 05:21:38.796752  2955 net.cpp:165] Memory required for data: 778063936
I1102 05:21:38.796758  2955 layer_factory.hpp:77] Creating layer conv4/dw/relu
I1102 05:21:38.796763  2955 net.cpp:100] Creating Layer conv4/dw/relu
I1102 05:21:38.796778  2955 net.cpp:481] conv4/dw/relu <- conv4/dw
I1102 05:21:38.796782  2955 net.cpp:442] conv4/dw/relu -> conv4/dw (in-place)
I1102 05:21:38.797817  2955 net.cpp:150] Setting up conv4/dw/relu
I1102 05:21:38.797837  2955 net.cpp:157] Top shape: 8 128 38 38 (1478656)
I1102 05:21:38.797840  2955 net.cpp:165] Memory required for data: 783978560
I1102 05:21:38.797843  2955 layer_factory.hpp:77] Creating layer conv4
I1102 05:21:38.797854  2955 net.cpp:100] Creating Layer conv4
I1102 05:21:38.797861  2955 net.cpp:481] conv4 <- conv4/dw
I1102 05:21:38.797868  2955 net.cpp:455] conv4 -> conv4
I1102 05:21:38.800582  2955 net.cpp:150] Setting up conv4
I1102 05:21:38.800603  2955 net.cpp:157] Top shape: 8 256 38 38 (2957312)
I1102 05:21:38.800606  2955 net.cpp:165] Memory required for data: 795807808
I1102 05:21:38.800611  2955 layer_factory.hpp:77] Creating layer conv4/bn
I1102 05:21:38.800619  2955 net.cpp:100] Creating Layer conv4/bn
I1102 05:21:38.800622  2955 net.cpp:481] conv4/bn <- conv4
I1102 05:21:38.800626  2955 net.cpp:442] conv4/bn -> conv4 (in-place)
I1102 05:21:38.800884  2955 net.cpp:150] Setting up conv4/bn
I1102 05:21:38.800895  2955 net.cpp:157] Top shape: 8 256 38 38 (2957312)
I1102 05:21:38.800899  2955 net.cpp:165] Memory required for data: 807637056
I1102 05:21:38.800905  2955 layer_factory.hpp:77] Creating layer conv4/scale
I1102 05:21:38.800912  2955 net.cpp:100] Creating Layer conv4/scale
I1102 05:21:38.800920  2955 net.cpp:481] conv4/scale <- conv4
I1102 05:21:38.800940  2955 net.cpp:442] conv4/scale -> conv4 (in-place)
I1102 05:21:38.801009  2955 layer_factory.hpp:77] Creating layer conv4/scale
I1102 05:21:38.801168  2955 net.cpp:150] Setting up conv4/scale
I1102 05:21:38.801182  2955 net.cpp:157] Top shape: 8 256 38 38 (2957312)
I1102 05:21:38.801185  2955 net.cpp:165] Memory required for data: 819466304
I1102 05:21:38.801190  2955 layer_factory.hpp:77] Creating layer conv4/relu
I1102 05:21:38.801198  2955 net.cpp:100] Creating Layer conv4/relu
I1102 05:21:38.801203  2955 net.cpp:481] conv4/relu <- conv4
I1102 05:21:38.801208  2955 net.cpp:442] conv4/relu -> conv4 (in-place)
I1102 05:21:38.801477  2955 net.cpp:150] Setting up conv4/relu
I1102 05:21:38.801493  2955 net.cpp:157] Top shape: 8 256 38 38 (2957312)
I1102 05:21:38.801496  2955 net.cpp:165] Memory required for data: 831295552
I1102 05:21:38.801499  2955 layer_factory.hpp:77] Creating layer conv5/dw
I1102 05:21:38.801511  2955 net.cpp:100] Creating Layer conv5/dw
I1102 05:21:38.801533  2955 net.cpp:481] conv5/dw <- conv4
I1102 05:21:38.801556  2955 net.cpp:455] conv5/dw -> conv5/dw
I1102 05:21:38.801767  2955 net.cpp:150] Setting up conv5/dw
I1102 05:21:38.801779  2955 net.cpp:157] Top shape: 8 256 38 38 (2957312)
I1102 05:21:38.801793  2955 net.cpp:165] Memory required for data: 843124800
I1102 05:21:38.801798  2955 layer_factory.hpp:77] Creating layer conv5/dw/bn
I1102 05:21:38.801808  2955 net.cpp:100] Creating Layer conv5/dw/bn
I1102 05:21:38.801811  2955 net.cpp:481] conv5/dw/bn <- conv5/dw
I1102 05:21:38.801815  2955 net.cpp:442] conv5/dw/bn -> conv5/dw (in-place)
I1102 05:21:38.801983  2955 net.cpp:150] Setting up conv5/dw/bn
I1102 05:21:38.801997  2955 net.cpp:157] Top shape: 8 256 38 38 (2957312)
I1102 05:21:38.802000  2955 net.cpp:165] Memory required for data: 854954048
I1102 05:21:38.802006  2955 layer_factory.hpp:77] Creating layer conv5/dw/scale
I1102 05:21:38.802016  2955 net.cpp:100] Creating Layer conv5/dw/scale
I1102 05:21:38.802021  2955 net.cpp:481] conv5/dw/scale <- conv5/dw
I1102 05:21:38.802026  2955 net.cpp:442] conv5/dw/scale -> conv5/dw (in-place)
I1102 05:21:38.802086  2955 layer_factory.hpp:77] Creating layer conv5/dw/scale
I1102 05:21:38.802274  2955 net.cpp:150] Setting up conv5/dw/scale
I1102 05:21:38.802287  2955 net.cpp:157] Top shape: 8 256 38 38 (2957312)
I1102 05:21:38.802289  2955 net.cpp:165] Memory required for data: 866783296
I1102 05:21:38.802294  2955 layer_factory.hpp:77] Creating layer conv5/dw/relu
I1102 05:21:38.802301  2955 net.cpp:100] Creating Layer conv5/dw/relu
I1102 05:21:38.802307  2955 net.cpp:481] conv5/dw/relu <- conv5/dw
I1102 05:21:38.802311  2955 net.cpp:442] conv5/dw/relu -> conv5/dw (in-place)
I1102 05:21:38.803339  2955 net.cpp:150] Setting up conv5/dw/relu
I1102 05:21:38.803356  2955 net.cpp:157] Top shape: 8 256 38 38 (2957312)
I1102 05:21:38.803364  2955 net.cpp:165] Memory required for data: 878612544
I1102 05:21:38.803367  2955 layer_factory.hpp:77] Creating layer conv5
I1102 05:21:38.803377  2955 net.cpp:100] Creating Layer conv5
I1102 05:21:38.803380  2955 net.cpp:481] conv5 <- conv5/dw
I1102 05:21:38.803402  2955 net.cpp:455] conv5 -> conv5
I1102 05:21:38.808187  2955 net.cpp:150] Setting up conv5
I1102 05:21:38.808209  2955 net.cpp:157] Top shape: 8 256 38 38 (2957312)
I1102 05:21:38.808212  2955 net.cpp:165] Memory required for data: 890441792
I1102 05:21:38.808218  2955 layer_factory.hpp:77] Creating layer conv5/bn
I1102 05:21:38.808225  2955 net.cpp:100] Creating Layer conv5/bn
I1102 05:21:38.808228  2955 net.cpp:481] conv5/bn <- conv5
I1102 05:21:38.808233  2955 net.cpp:442] conv5/bn -> conv5 (in-place)
I1102 05:21:38.808434  2955 net.cpp:150] Setting up conv5/bn
I1102 05:21:38.808446  2955 net.cpp:157] Top shape: 8 256 38 38 (2957312)
I1102 05:21:38.808449  2955 net.cpp:165] Memory required for data: 902271040
I1102 05:21:38.808476  2955 layer_factory.hpp:77] Creating layer conv5/scale
I1102 05:21:38.808485  2955 net.cpp:100] Creating Layer conv5/scale
I1102 05:21:38.808488  2955 net.cpp:481] conv5/scale <- conv5
I1102 05:21:38.808492  2955 net.cpp:442] conv5/scale -> conv5 (in-place)
I1102 05:21:38.808534  2955 layer_factory.hpp:77] Creating layer conv5/scale
I1102 05:21:38.808646  2955 net.cpp:150] Setting up conv5/scale
I1102 05:21:38.808657  2955 net.cpp:157] Top shape: 8 256 38 38 (2957312)
I1102 05:21:38.808660  2955 net.cpp:165] Memory required for data: 914100288
I1102 05:21:38.808673  2955 layer_factory.hpp:77] Creating layer conv5/relu
I1102 05:21:38.808678  2955 net.cpp:100] Creating Layer conv5/relu
I1102 05:21:38.808681  2955 net.cpp:481] conv5/relu <- conv5
I1102 05:21:38.808699  2955 net.cpp:442] conv5/relu -> conv5 (in-place)
I1102 05:21:38.809553  2955 net.cpp:150] Setting up conv5/relu
I1102 05:21:38.809571  2955 net.cpp:157] Top shape: 8 256 38 38 (2957312)
I1102 05:21:38.809574  2955 net.cpp:165] Memory required for data: 925929536
I1102 05:21:38.809577  2955 layer_factory.hpp:77] Creating layer conv6/dw
I1102 05:21:38.809588  2955 net.cpp:100] Creating Layer conv6/dw
I1102 05:21:38.809595  2955 net.cpp:481] conv6/dw <- conv5
I1102 05:21:38.809603  2955 net.cpp:455] conv6/dw -> conv6/dw
I1102 05:21:38.809902  2955 net.cpp:150] Setting up conv6/dw
I1102 05:21:38.809931  2955 net.cpp:157] Top shape: 8 256 19 19 (739328)
I1102 05:21:38.809945  2955 net.cpp:165] Memory required for data: 928886848
I1102 05:21:38.809952  2955 layer_factory.hpp:77] Creating layer conv6/dw/bn
I1102 05:21:38.809957  2955 net.cpp:100] Creating Layer conv6/dw/bn
I1102 05:21:38.809959  2955 net.cpp:481] conv6/dw/bn <- conv6/dw
I1102 05:21:38.809962  2955 net.cpp:442] conv6/dw/bn -> conv6/dw (in-place)
I1102 05:21:38.810222  2955 net.cpp:150] Setting up conv6/dw/bn
I1102 05:21:38.810238  2955 net.cpp:157] Top shape: 8 256 19 19 (739328)
I1102 05:21:38.810240  2955 net.cpp:165] Memory required for data: 931844160
I1102 05:21:38.810247  2955 layer_factory.hpp:77] Creating layer conv6/dw/scale
I1102 05:21:38.810253  2955 net.cpp:100] Creating Layer conv6/dw/scale
I1102 05:21:38.810256  2955 net.cpp:481] conv6/dw/scale <- conv6/dw
I1102 05:21:38.810261  2955 net.cpp:442] conv6/dw/scale -> conv6/dw (in-place)
I1102 05:21:38.810300  2955 layer_factory.hpp:77] Creating layer conv6/dw/scale
I1102 05:21:38.810406  2955 net.cpp:150] Setting up conv6/dw/scale
I1102 05:21:38.810423  2955 net.cpp:157] Top shape: 8 256 19 19 (739328)
I1102 05:21:38.810426  2955 net.cpp:165] Memory required for data: 934801472
I1102 05:21:38.810431  2955 layer_factory.hpp:77] Creating layer conv6/dw/relu
I1102 05:21:38.810439  2955 net.cpp:100] Creating Layer conv6/dw/relu
I1102 05:21:38.810442  2955 net.cpp:481] conv6/dw/relu <- conv6/dw
I1102 05:21:38.810448  2955 net.cpp:442] conv6/dw/relu -> conv6/dw (in-place)
I1102 05:21:38.811517  2955 net.cpp:150] Setting up conv6/dw/relu
I1102 05:21:38.811535  2955 net.cpp:157] Top shape: 8 256 19 19 (739328)
I1102 05:21:38.811538  2955 net.cpp:165] Memory required for data: 937758784
I1102 05:21:38.811542  2955 layer_factory.hpp:77] Creating layer conv6
I1102 05:21:38.811553  2955 net.cpp:100] Creating Layer conv6
I1102 05:21:38.811560  2955 net.cpp:481] conv6 <- conv6/dw
I1102 05:21:38.811568  2955 net.cpp:455] conv6 -> conv6
I1102 05:21:38.816009  2955 net.cpp:150] Setting up conv6
I1102 05:21:38.816030  2955 net.cpp:157] Top shape: 8 512 19 19 (1478656)
I1102 05:21:38.816033  2955 net.cpp:165] Memory required for data: 943673408
I1102 05:21:38.816038  2955 layer_factory.hpp:77] Creating layer conv6/bn
I1102 05:21:38.816045  2955 net.cpp:100] Creating Layer conv6/bn
I1102 05:21:38.816048  2955 net.cpp:481] conv6/bn <- conv6
I1102 05:21:38.816052  2955 net.cpp:442] conv6/bn -> conv6 (in-place)
I1102 05:21:38.816252  2955 net.cpp:150] Setting up conv6/bn
I1102 05:21:38.816267  2955 net.cpp:157] Top shape: 8 512 19 19 (1478656)
I1102 05:21:38.816270  2955 net.cpp:165] Memory required for data: 949588032
I1102 05:21:38.816277  2955 layer_factory.hpp:77] Creating layer conv6/scale
I1102 05:21:38.816303  2955 net.cpp:100] Creating Layer conv6/scale
I1102 05:21:38.816308  2955 net.cpp:481] conv6/scale <- conv6
I1102 05:21:38.816329  2955 net.cpp:442] conv6/scale -> conv6 (in-place)
I1102 05:21:38.816397  2955 layer_factory.hpp:77] Creating layer conv6/scale
I1102 05:21:38.816539  2955 net.cpp:150] Setting up conv6/scale
I1102 05:21:38.816550  2955 net.cpp:157] Top shape: 8 512 19 19 (1478656)
I1102 05:21:38.816553  2955 net.cpp:165] Memory required for data: 955502656
I1102 05:21:38.816558  2955 layer_factory.hpp:77] Creating layer conv6/relu
I1102 05:21:38.816563  2955 net.cpp:100] Creating Layer conv6/relu
I1102 05:21:38.816570  2955 net.cpp:481] conv6/relu <- conv6
I1102 05:21:38.816573  2955 net.cpp:442] conv6/relu -> conv6 (in-place)
I1102 05:21:38.817505  2955 net.cpp:150] Setting up conv6/relu
I1102 05:21:38.817523  2955 net.cpp:157] Top shape: 8 512 19 19 (1478656)
I1102 05:21:38.817526  2955 net.cpp:165] Memory required for data: 961417280
I1102 05:21:38.817529  2955 layer_factory.hpp:77] Creating layer conv7/dw
I1102 05:21:38.817539  2955 net.cpp:100] Creating Layer conv7/dw
I1102 05:21:38.817543  2955 net.cpp:481] conv7/dw <- conv6
I1102 05:21:38.817549  2955 net.cpp:455] conv7/dw -> conv7/dw
I1102 05:21:38.817806  2955 net.cpp:150] Setting up conv7/dw
I1102 05:21:38.817818  2955 net.cpp:157] Top shape: 8 512 19 19 (1478656)
I1102 05:21:38.817833  2955 net.cpp:165] Memory required for data: 967331904
I1102 05:21:38.817839  2955 layer_factory.hpp:77] Creating layer conv7/dw/bn
I1102 05:21:38.817844  2955 net.cpp:100] Creating Layer conv7/dw/bn
I1102 05:21:38.817847  2955 net.cpp:481] conv7/dw/bn <- conv7/dw
I1102 05:21:38.817850  2955 net.cpp:442] conv7/dw/bn -> conv7/dw (in-place)
I1102 05:21:38.818065  2955 net.cpp:150] Setting up conv7/dw/bn
I1102 05:21:38.818078  2955 net.cpp:157] Top shape: 8 512 19 19 (1478656)
I1102 05:21:38.818079  2955 net.cpp:165] Memory required for data: 973246528
I1102 05:21:38.818086  2955 layer_factory.hpp:77] Creating layer conv7/dw/scale
I1102 05:21:38.818094  2955 net.cpp:100] Creating Layer conv7/dw/scale
I1102 05:21:38.818100  2955 net.cpp:481] conv7/dw/scale <- conv7/dw
I1102 05:21:38.818104  2955 net.cpp:442] conv7/dw/scale -> conv7/dw (in-place)
I1102 05:21:38.818184  2955 layer_factory.hpp:77] Creating layer conv7/dw/scale
I1102 05:21:38.818336  2955 net.cpp:150] Setting up conv7/dw/scale
I1102 05:21:38.818349  2955 net.cpp:157] Top shape: 8 512 19 19 (1478656)
I1102 05:21:38.818351  2955 net.cpp:165] Memory required for data: 979161152
I1102 05:21:38.818357  2955 layer_factory.hpp:77] Creating layer conv7/dw/relu
I1102 05:21:38.818363  2955 net.cpp:100] Creating Layer conv7/dw/relu
I1102 05:21:38.818369  2955 net.cpp:481] conv7/dw/relu <- conv7/dw
I1102 05:21:38.818373  2955 net.cpp:442] conv7/dw/relu -> conv7/dw (in-place)
I1102 05:21:38.818773  2955 net.cpp:150] Setting up conv7/dw/relu
I1102 05:21:38.818791  2955 net.cpp:157] Top shape: 8 512 19 19 (1478656)
I1102 05:21:38.818795  2955 net.cpp:165] Memory required for data: 985075776
I1102 05:21:38.818799  2955 layer_factory.hpp:77] Creating layer conv7
I1102 05:21:38.818807  2955 net.cpp:100] Creating Layer conv7
I1102 05:21:38.818814  2955 net.cpp:481] conv7 <- conv7/dw
I1102 05:21:38.818819  2955 net.cpp:455] conv7 -> conv7
I1102 05:21:38.825323  2955 net.cpp:150] Setting up conv7
I1102 05:21:38.825345  2955 net.cpp:157] Top shape: 8 512 19 19 (1478656)
I1102 05:21:38.825347  2955 net.cpp:165] Memory required for data: 990990400
I1102 05:21:38.825352  2955 layer_factory.hpp:77] Creating layer conv7/bn
I1102 05:21:38.825358  2955 net.cpp:100] Creating Layer conv7/bn
I1102 05:21:38.825361  2955 net.cpp:481] conv7/bn <- conv7
I1102 05:21:38.825367  2955 net.cpp:442] conv7/bn -> conv7 (in-place)
I1102 05:21:38.825636  2955 net.cpp:150] Setting up conv7/bn
I1102 05:21:38.825665  2955 net.cpp:157] Top shape: 8 512 19 19 (1478656)
I1102 05:21:38.825669  2955 net.cpp:165] Memory required for data: 996905024
I1102 05:21:38.825675  2955 layer_factory.hpp:77] Creating layer conv7/scale
I1102 05:21:38.825693  2955 net.cpp:100] Creating Layer conv7/scale
I1102 05:21:38.825700  2955 net.cpp:481] conv7/scale <- conv7
I1102 05:21:38.825707  2955 net.cpp:442] conv7/scale -> conv7 (in-place)
I1102 05:21:38.825784  2955 layer_factory.hpp:77] Creating layer conv7/scale
I1102 05:21:38.825994  2955 net.cpp:150] Setting up conv7/scale
I1102 05:21:38.826006  2955 net.cpp:157] Top shape: 8 512 19 19 (1478656)
I1102 05:21:38.826009  2955 net.cpp:165] Memory required for data: 1002819648
I1102 05:21:38.826014  2955 layer_factory.hpp:77] Creating layer conv7/relu
I1102 05:21:38.826020  2955 net.cpp:100] Creating Layer conv7/relu
I1102 05:21:38.826025  2955 net.cpp:481] conv7/relu <- conv7
I1102 05:21:38.826032  2955 net.cpp:442] conv7/relu -> conv7 (in-place)
I1102 05:21:38.827143  2955 net.cpp:150] Setting up conv7/relu
I1102 05:21:38.827163  2955 net.cpp:157] Top shape: 8 512 19 19 (1478656)
I1102 05:21:38.827167  2955 net.cpp:165] Memory required for data: 1008734272
I1102 05:21:38.827183  2955 layer_factory.hpp:77] Creating layer conv8/dw
I1102 05:21:38.827193  2955 net.cpp:100] Creating Layer conv8/dw
I1102 05:21:38.827203  2955 net.cpp:481] conv8/dw <- conv7
I1102 05:21:38.827210  2955 net.cpp:455] conv8/dw -> conv8/dw
I1102 05:21:38.827461  2955 net.cpp:150] Setting up conv8/dw
I1102 05:21:38.827473  2955 net.cpp:157] Top shape: 8 512 19 19 (1478656)
I1102 05:21:38.827488  2955 net.cpp:165] Memory required for data: 1014648896
I1102 05:21:38.827493  2955 layer_factory.hpp:77] Creating layer conv8/dw/bn
I1102 05:21:38.827502  2955 net.cpp:100] Creating Layer conv8/dw/bn
I1102 05:21:38.827504  2955 net.cpp:481] conv8/dw/bn <- conv8/dw
I1102 05:21:38.827512  2955 net.cpp:442] conv8/dw/bn -> conv8/dw (in-place)
I1102 05:21:38.827827  2955 net.cpp:150] Setting up conv8/dw/bn
I1102 05:21:38.827841  2955 net.cpp:157] Top shape: 8 512 19 19 (1478656)
I1102 05:21:38.827843  2955 net.cpp:165] Memory required for data: 1020563520
I1102 05:21:38.827849  2955 layer_factory.hpp:77] Creating layer conv8/dw/scale
I1102 05:21:38.827862  2955 net.cpp:100] Creating Layer conv8/dw/scale
I1102 05:21:38.827872  2955 net.cpp:481] conv8/dw/scale <- conv8/dw
I1102 05:21:38.827893  2955 net.cpp:442] conv8/dw/scale -> conv8/dw (in-place)
I1102 05:21:38.827972  2955 layer_factory.hpp:77] Creating layer conv8/dw/scale
I1102 05:21:38.828136  2955 net.cpp:150] Setting up conv8/dw/scale
I1102 05:21:38.828147  2955 net.cpp:157] Top shape: 8 512 19 19 (1478656)
I1102 05:21:38.828150  2955 net.cpp:165] Memory required for data: 1026478144
I1102 05:21:38.828155  2955 layer_factory.hpp:77] Creating layer conv8/dw/relu
I1102 05:21:38.828172  2955 net.cpp:100] Creating Layer conv8/dw/relu
I1102 05:21:38.828176  2955 net.cpp:481] conv8/dw/relu <- conv8/dw
I1102 05:21:38.828179  2955 net.cpp:442] conv8/dw/relu -> conv8/dw (in-place)
I1102 05:21:38.829197  2955 net.cpp:150] Setting up conv8/dw/relu
I1102 05:21:38.829234  2955 net.cpp:157] Top shape: 8 512 19 19 (1478656)
I1102 05:21:38.829237  2955 net.cpp:165] Memory required for data: 1032392768
I1102 05:21:38.829241  2955 layer_factory.hpp:77] Creating layer conv8
I1102 05:21:38.829252  2955 net.cpp:100] Creating Layer conv8
I1102 05:21:38.829262  2955 net.cpp:481] conv8 <- conv8/dw
I1102 05:21:38.829267  2955 net.cpp:455] conv8 -> conv8
I1102 05:21:38.835157  2955 net.cpp:150] Setting up conv8
I1102 05:21:38.835177  2955 net.cpp:157] Top shape: 8 512 19 19 (1478656)
I1102 05:21:38.835181  2955 net.cpp:165] Memory required for data: 1038307392
I1102 05:21:38.835186  2955 layer_factory.hpp:77] Creating layer conv8/bn
I1102 05:21:38.835193  2955 net.cpp:100] Creating Layer conv8/bn
I1102 05:21:38.835196  2955 net.cpp:481] conv8/bn <- conv8
I1102 05:21:38.835201  2955 net.cpp:442] conv8/bn -> conv8 (in-place)
I1102 05:21:38.835441  2955 net.cpp:150] Setting up conv8/bn
I1102 05:21:38.835469  2955 net.cpp:157] Top shape: 8 512 19 19 (1478656)
I1102 05:21:38.835471  2955 net.cpp:165] Memory required for data: 1044222016
I1102 05:21:38.835477  2955 layer_factory.hpp:77] Creating layer conv8/scale
I1102 05:21:38.835485  2955 net.cpp:100] Creating Layer conv8/scale
I1102 05:21:38.835491  2955 net.cpp:481] conv8/scale <- conv8
I1102 05:21:38.835500  2955 net.cpp:442] conv8/scale -> conv8 (in-place)
I1102 05:21:38.835546  2955 layer_factory.hpp:77] Creating layer conv8/scale
I1102 05:21:38.835728  2955 net.cpp:150] Setting up conv8/scale
I1102 05:21:38.835755  2955 net.cpp:157] Top shape: 8 512 19 19 (1478656)
I1102 05:21:38.835760  2955 net.cpp:165] Memory required for data: 1050136640
I1102 05:21:38.835765  2955 layer_factory.hpp:77] Creating layer conv8/relu
I1102 05:21:38.835770  2955 net.cpp:100] Creating Layer conv8/relu
I1102 05:21:38.835777  2955 net.cpp:481] conv8/relu <- conv8
I1102 05:21:38.835780  2955 net.cpp:442] conv8/relu -> conv8 (in-place)
I1102 05:21:38.836196  2955 net.cpp:150] Setting up conv8/relu
I1102 05:21:38.836212  2955 net.cpp:157] Top shape: 8 512 19 19 (1478656)
I1102 05:21:38.836215  2955 net.cpp:165] Memory required for data: 1056051264
I1102 05:21:38.836218  2955 layer_factory.hpp:77] Creating layer conv9/dw
I1102 05:21:38.836228  2955 net.cpp:100] Creating Layer conv9/dw
I1102 05:21:38.836232  2955 net.cpp:481] conv9/dw <- conv8
I1102 05:21:38.836239  2955 net.cpp:455] conv9/dw -> conv9/dw
I1102 05:21:38.836580  2955 net.cpp:150] Setting up conv9/dw
I1102 05:21:38.836592  2955 net.cpp:157] Top shape: 8 512 19 19 (1478656)
I1102 05:21:38.836596  2955 net.cpp:165] Memory required for data: 1061965888
I1102 05:21:38.836612  2955 layer_factory.hpp:77] Creating layer conv9/dw/bn
I1102 05:21:38.836618  2955 net.cpp:100] Creating Layer conv9/dw/bn
I1102 05:21:38.836621  2955 net.cpp:481] conv9/dw/bn <- conv9/dw
I1102 05:21:38.836625  2955 net.cpp:442] conv9/dw/bn -> conv9/dw (in-place)
I1102 05:21:38.836812  2955 net.cpp:150] Setting up conv9/dw/bn
I1102 05:21:38.836824  2955 net.cpp:157] Top shape: 8 512 19 19 (1478656)
I1102 05:21:38.836827  2955 net.cpp:165] Memory required for data: 1067880512
I1102 05:21:38.836833  2955 layer_factory.hpp:77] Creating layer conv9/dw/scale
I1102 05:21:38.836839  2955 net.cpp:100] Creating Layer conv9/dw/scale
I1102 05:21:38.836845  2955 net.cpp:481] conv9/dw/scale <- conv9/dw
I1102 05:21:38.836851  2955 net.cpp:442] conv9/dw/scale -> conv9/dw (in-place)
I1102 05:21:38.836899  2955 layer_factory.hpp:77] Creating layer conv9/dw/scale
I1102 05:21:38.837028  2955 net.cpp:150] Setting up conv9/dw/scale
I1102 05:21:38.837041  2955 net.cpp:157] Top shape: 8 512 19 19 (1478656)
I1102 05:21:38.837044  2955 net.cpp:165] Memory required for data: 1073795136
I1102 05:21:38.837049  2955 layer_factory.hpp:77] Creating layer conv9/dw/relu
I1102 05:21:38.837054  2955 net.cpp:100] Creating Layer conv9/dw/relu
I1102 05:21:38.837056  2955 net.cpp:481] conv9/dw/relu <- conv9/dw
I1102 05:21:38.837062  2955 net.cpp:442] conv9/dw/relu -> conv9/dw (in-place)
I1102 05:21:38.838006  2955 net.cpp:150] Setting up conv9/dw/relu
I1102 05:21:38.838027  2955 net.cpp:157] Top shape: 8 512 19 19 (1478656)
I1102 05:21:38.838029  2955 net.cpp:165] Memory required for data: 1079709760
I1102 05:21:38.838032  2955 layer_factory.hpp:77] Creating layer conv9
I1102 05:21:38.838043  2955 net.cpp:100] Creating Layer conv9
I1102 05:21:38.838047  2955 net.cpp:481] conv9 <- conv9/dw
I1102 05:21:38.838052  2955 net.cpp:455] conv9 -> conv9
I1102 05:21:38.843722  2955 net.cpp:150] Setting up conv9
I1102 05:21:38.843744  2955 net.cpp:157] Top shape: 8 512 19 19 (1478656)
I1102 05:21:38.843747  2955 net.cpp:165] Memory required for data: 1085624384
I1102 05:21:38.843752  2955 layer_factory.hpp:77] Creating layer conv9/bn
I1102 05:21:38.843760  2955 net.cpp:100] Creating Layer conv9/bn
I1102 05:21:38.843763  2955 net.cpp:481] conv9/bn <- conv9
I1102 05:21:38.843767  2955 net.cpp:442] conv9/bn -> conv9 (in-place)
I1102 05:21:38.844046  2955 net.cpp:150] Setting up conv9/bn
I1102 05:21:38.844072  2955 net.cpp:157] Top shape: 8 512 19 19 (1478656)
I1102 05:21:38.844074  2955 net.cpp:165] Memory required for data: 1091539008
I1102 05:21:38.844082  2955 layer_factory.hpp:77] Creating layer conv9/scale
I1102 05:21:38.844100  2955 net.cpp:100] Creating Layer conv9/scale
I1102 05:21:38.844103  2955 net.cpp:481] conv9/scale <- conv9
I1102 05:21:38.844112  2955 net.cpp:442] conv9/scale -> conv9 (in-place)
I1102 05:21:38.844166  2955 layer_factory.hpp:77] Creating layer conv9/scale
I1102 05:21:38.844349  2955 net.cpp:150] Setting up conv9/scale
I1102 05:21:38.844373  2955 net.cpp:157] Top shape: 8 512 19 19 (1478656)
I1102 05:21:38.844377  2955 net.cpp:165] Memory required for data: 1097453632
I1102 05:21:38.844382  2955 layer_factory.hpp:77] Creating layer conv9/relu
I1102 05:21:38.844393  2955 net.cpp:100] Creating Layer conv9/relu
I1102 05:21:38.844396  2955 net.cpp:481] conv9/relu <- conv9
I1102 05:21:38.844400  2955 net.cpp:442] conv9/relu -> conv9 (in-place)
I1102 05:21:38.844821  2955 net.cpp:150] Setting up conv9/relu
I1102 05:21:38.844837  2955 net.cpp:157] Top shape: 8 512 19 19 (1478656)
I1102 05:21:38.844841  2955 net.cpp:165] Memory required for data: 1103368256
I1102 05:21:38.844843  2955 layer_factory.hpp:77] Creating layer conv10/dw
I1102 05:21:38.844858  2955 net.cpp:100] Creating Layer conv10/dw
I1102 05:21:38.844861  2955 net.cpp:481] conv10/dw <- conv9
I1102 05:21:38.844868  2955 net.cpp:455] conv10/dw -> conv10/dw
I1102 05:21:38.845240  2955 net.cpp:150] Setting up conv10/dw
I1102 05:21:38.845255  2955 net.cpp:157] Top shape: 8 512 19 19 (1478656)
I1102 05:21:38.845258  2955 net.cpp:165] Memory required for data: 1109282880
I1102 05:21:38.845296  2955 layer_factory.hpp:77] Creating layer conv10/dw/bn
I1102 05:21:38.845319  2955 net.cpp:100] Creating Layer conv10/dw/bn
I1102 05:21:38.845331  2955 net.cpp:481] conv10/dw/bn <- conv10/dw
I1102 05:21:38.845337  2955 net.cpp:442] conv10/dw/bn -> conv10/dw (in-place)
I1102 05:21:38.845639  2955 net.cpp:150] Setting up conv10/dw/bn
I1102 05:21:38.845654  2955 net.cpp:157] Top shape: 8 512 19 19 (1478656)
I1102 05:21:38.845656  2955 net.cpp:165] Memory required for data: 1115197504
I1102 05:21:38.845662  2955 layer_factory.hpp:77] Creating layer conv10/dw/scale
I1102 05:21:38.845698  2955 net.cpp:100] Creating Layer conv10/dw/scale
I1102 05:21:38.845721  2955 net.cpp:481] conv10/dw/scale <- conv10/dw
I1102 05:21:38.845727  2955 net.cpp:442] conv10/dw/scale -> conv10/dw (in-place)
I1102 05:21:38.845790  2955 layer_factory.hpp:77] Creating layer conv10/dw/scale
I1102 05:21:38.845937  2955 net.cpp:150] Setting up conv10/dw/scale
I1102 05:21:38.845949  2955 net.cpp:157] Top shape: 8 512 19 19 (1478656)
I1102 05:21:38.845958  2955 net.cpp:165] Memory required for data: 1121112128
I1102 05:21:38.845963  2955 layer_factory.hpp:77] Creating layer conv10/dw/relu
I1102 05:21:38.845968  2955 net.cpp:100] Creating Layer conv10/dw/relu
I1102 05:21:38.845999  2955 net.cpp:481] conv10/dw/relu <- conv10/dw
I1102 05:21:38.846010  2955 net.cpp:442] conv10/dw/relu -> conv10/dw (in-place)
I1102 05:21:38.847079  2955 net.cpp:150] Setting up conv10/dw/relu
I1102 05:21:38.847110  2955 net.cpp:157] Top shape: 8 512 19 19 (1478656)
I1102 05:21:38.847112  2955 net.cpp:165] Memory required for data: 1127026752
I1102 05:21:38.847116  2955 layer_factory.hpp:77] Creating layer conv10
I1102 05:21:38.847127  2955 net.cpp:100] Creating Layer conv10
I1102 05:21:38.847151  2955 net.cpp:481] conv10 <- conv10/dw
I1102 05:21:38.847157  2955 net.cpp:455] conv10 -> conv10
I1102 05:21:38.853274  2955 net.cpp:150] Setting up conv10
I1102 05:21:38.853296  2955 net.cpp:157] Top shape: 8 512 19 19 (1478656)
I1102 05:21:38.853302  2955 net.cpp:165] Memory required for data: 1132941376
I1102 05:21:38.853307  2955 layer_factory.hpp:77] Creating layer conv10/bn
I1102 05:21:38.853312  2955 net.cpp:100] Creating Layer conv10/bn
I1102 05:21:38.853315  2955 net.cpp:481] conv10/bn <- conv10
I1102 05:21:38.853319  2955 net.cpp:442] conv10/bn -> conv10 (in-place)
I1102 05:21:38.853662  2955 net.cpp:150] Setting up conv10/bn
I1102 05:21:38.853675  2955 net.cpp:157] Top shape: 8 512 19 19 (1478656)
I1102 05:21:38.853677  2955 net.cpp:165] Memory required for data: 1138856000
I1102 05:21:38.853684  2955 layer_factory.hpp:77] Creating layer conv10/scale
I1102 05:21:38.853691  2955 net.cpp:100] Creating Layer conv10/scale
I1102 05:21:38.853694  2955 net.cpp:481] conv10/scale <- conv10
I1102 05:21:38.853700  2955 net.cpp:442] conv10/scale -> conv10 (in-place)
I1102 05:21:38.853749  2955 layer_factory.hpp:77] Creating layer conv10/scale
I1102 05:21:38.853929  2955 net.cpp:150] Setting up conv10/scale
I1102 05:21:38.853942  2955 net.cpp:157] Top shape: 8 512 19 19 (1478656)
I1102 05:21:38.853945  2955 net.cpp:165] Memory required for data: 1144770624
I1102 05:21:38.853965  2955 layer_factory.hpp:77] Creating layer conv10/relu
I1102 05:21:38.853972  2955 net.cpp:100] Creating Layer conv10/relu
I1102 05:21:38.853976  2955 net.cpp:481] conv10/relu <- conv10
I1102 05:21:38.853981  2955 net.cpp:442] conv10/relu -> conv10 (in-place)
I1102 05:21:38.854986  2955 net.cpp:150] Setting up conv10/relu
I1102 05:21:38.855023  2955 net.cpp:157] Top shape: 8 512 19 19 (1478656)
I1102 05:21:38.855027  2955 net.cpp:165] Memory required for data: 1150685248
I1102 05:21:38.855031  2955 layer_factory.hpp:77] Creating layer conv11/dw
I1102 05:21:38.855041  2955 net.cpp:100] Creating Layer conv11/dw
I1102 05:21:38.855051  2955 net.cpp:481] conv11/dw <- conv10
I1102 05:21:38.855057  2955 net.cpp:455] conv11/dw -> conv11/dw
I1102 05:21:38.855374  2955 net.cpp:150] Setting up conv11/dw
I1102 05:21:38.855388  2955 net.cpp:157] Top shape: 8 512 19 19 (1478656)
I1102 05:21:38.855408  2955 net.cpp:165] Memory required for data: 1156599872
I1102 05:21:38.855438  2955 layer_factory.hpp:77] Creating layer conv11/dw/bn
I1102 05:21:38.855450  2955 net.cpp:100] Creating Layer conv11/dw/bn
I1102 05:21:38.855456  2955 net.cpp:481] conv11/dw/bn <- conv11/dw
I1102 05:21:38.855461  2955 net.cpp:442] conv11/dw/bn -> conv11/dw (in-place)
I1102 05:21:38.855703  2955 net.cpp:150] Setting up conv11/dw/bn
I1102 05:21:38.855715  2955 net.cpp:157] Top shape: 8 512 19 19 (1478656)
I1102 05:21:38.855718  2955 net.cpp:165] Memory required for data: 1162514496
I1102 05:21:38.855737  2955 layer_factory.hpp:77] Creating layer conv11/dw/scale
I1102 05:21:38.855751  2955 net.cpp:100] Creating Layer conv11/dw/scale
I1102 05:21:38.855754  2955 net.cpp:481] conv11/dw/scale <- conv11/dw
I1102 05:21:38.855759  2955 net.cpp:442] conv11/dw/scale -> conv11/dw (in-place)
I1102 05:21:38.855815  2955 layer_factory.hpp:77] Creating layer conv11/dw/scale
I1102 05:21:38.855962  2955 net.cpp:150] Setting up conv11/dw/scale
I1102 05:21:38.855990  2955 net.cpp:157] Top shape: 8 512 19 19 (1478656)
I1102 05:21:38.855993  2955 net.cpp:165] Memory required for data: 1168429120
I1102 05:21:38.855999  2955 layer_factory.hpp:77] Creating layer conv11/dw/relu
I1102 05:21:38.856004  2955 net.cpp:100] Creating Layer conv11/dw/relu
I1102 05:21:38.856010  2955 net.cpp:481] conv11/dw/relu <- conv11/dw
I1102 05:21:38.856015  2955 net.cpp:442] conv11/dw/relu -> conv11/dw (in-place)
I1102 05:21:38.856340  2955 net.cpp:150] Setting up conv11/dw/relu
I1102 05:21:38.856356  2955 net.cpp:157] Top shape: 8 512 19 19 (1478656)
I1102 05:21:38.856359  2955 net.cpp:165] Memory required for data: 1174343744
I1102 05:21:38.856364  2955 layer_factory.hpp:77] Creating layer conv11
I1102 05:21:38.856374  2955 net.cpp:100] Creating Layer conv11
I1102 05:21:38.856381  2955 net.cpp:481] conv11 <- conv11/dw
I1102 05:21:38.856389  2955 net.cpp:455] conv11 -> conv11
I1102 05:21:38.862200  2955 net.cpp:150] Setting up conv11
I1102 05:21:38.862221  2955 net.cpp:157] Top shape: 8 512 19 19 (1478656)
I1102 05:21:38.862224  2955 net.cpp:165] Memory required for data: 1180258368
I1102 05:21:38.862231  2955 layer_factory.hpp:77] Creating layer conv11/bn
I1102 05:21:38.862249  2955 net.cpp:100] Creating Layer conv11/bn
I1102 05:21:38.862253  2955 net.cpp:481] conv11/bn <- conv11
I1102 05:21:38.862259  2955 net.cpp:442] conv11/bn -> conv11 (in-place)
I1102 05:21:38.862468  2955 net.cpp:150] Setting up conv11/bn
I1102 05:21:38.862493  2955 net.cpp:157] Top shape: 8 512 19 19 (1478656)
I1102 05:21:38.862495  2955 net.cpp:165] Memory required for data: 1186172992
I1102 05:21:38.862504  2955 layer_factory.hpp:77] Creating layer conv11/scale
I1102 05:21:38.862519  2955 net.cpp:100] Creating Layer conv11/scale
I1102 05:21:38.862524  2955 net.cpp:481] conv11/scale <- conv11
I1102 05:21:38.862527  2955 net.cpp:442] conv11/scale -> conv11 (in-place)
I1102 05:21:38.862584  2955 layer_factory.hpp:77] Creating layer conv11/scale
I1102 05:21:38.862721  2955 net.cpp:150] Setting up conv11/scale
I1102 05:21:38.862733  2955 net.cpp:157] Top shape: 8 512 19 19 (1478656)
I1102 05:21:38.862736  2955 net.cpp:165] Memory required for data: 1192087616
I1102 05:21:38.862741  2955 layer_factory.hpp:77] Creating layer conv11/relu
I1102 05:21:38.862746  2955 net.cpp:100] Creating Layer conv11/relu
I1102 05:21:38.862752  2955 net.cpp:481] conv11/relu <- conv11
I1102 05:21:38.862758  2955 net.cpp:442] conv11/relu -> conv11 (in-place)
I1102 05:21:38.863692  2955 net.cpp:150] Setting up conv11/relu
I1102 05:21:38.863711  2955 net.cpp:157] Top shape: 8 512 19 19 (1478656)
I1102 05:21:38.863714  2955 net.cpp:165] Memory required for data: 1198002240
I1102 05:21:38.863718  2955 layer_factory.hpp:77] Creating layer conv11_conv11/relu_0_split
I1102 05:21:38.863725  2955 net.cpp:100] Creating Layer conv11_conv11/relu_0_split
I1102 05:21:38.863732  2955 net.cpp:481] conv11_conv11/relu_0_split <- conv11
I1102 05:21:38.863741  2955 net.cpp:455] conv11_conv11/relu_0_split -> conv11_conv11/relu_0_split_0
I1102 05:21:38.863782  2955 net.cpp:455] conv11_conv11/relu_0_split -> conv11_conv11/relu_0_split_1
I1102 05:21:38.863792  2955 net.cpp:455] conv11_conv11/relu_0_split -> conv11_conv11/relu_0_split_2
I1102 05:21:38.863801  2955 net.cpp:455] conv11_conv11/relu_0_split -> conv11_conv11/relu_0_split_3
I1102 05:21:38.863874  2955 net.cpp:150] Setting up conv11_conv11/relu_0_split
I1102 05:21:38.863885  2955 net.cpp:157] Top shape: 8 512 19 19 (1478656)
I1102 05:21:38.863889  2955 net.cpp:157] Top shape: 8 512 19 19 (1478656)
I1102 05:21:38.863893  2955 net.cpp:157] Top shape: 8 512 19 19 (1478656)
I1102 05:21:38.863895  2955 net.cpp:157] Top shape: 8 512 19 19 (1478656)
I1102 05:21:38.863898  2955 net.cpp:165] Memory required for data: 1221660736
I1102 05:21:38.863900  2955 layer_factory.hpp:77] Creating layer conv12/dw
I1102 05:21:38.863915  2955 net.cpp:100] Creating Layer conv12/dw
I1102 05:21:38.863921  2955 net.cpp:481] conv12/dw <- conv11_conv11/relu_0_split_0
I1102 05:21:38.863929  2955 net.cpp:455] conv12/dw -> conv12/dw
I1102 05:21:38.864233  2955 net.cpp:150] Setting up conv12/dw
I1102 05:21:38.864264  2955 net.cpp:157] Top shape: 8 512 10 10 (409600)
I1102 05:21:38.864267  2955 net.cpp:165] Memory required for data: 1223299136
I1102 05:21:38.864271  2955 layer_factory.hpp:77] Creating layer conv12/dw/bn
I1102 05:21:38.864276  2955 net.cpp:100] Creating Layer conv12/dw/bn
I1102 05:21:38.864279  2955 net.cpp:481] conv12/dw/bn <- conv12/dw
I1102 05:21:38.864285  2955 net.cpp:442] conv12/dw/bn -> conv12/dw (in-place)
I1102 05:21:38.864511  2955 net.cpp:150] Setting up conv12/dw/bn
I1102 05:21:38.864522  2955 net.cpp:157] Top shape: 8 512 10 10 (409600)
I1102 05:21:38.864526  2955 net.cpp:165] Memory required for data: 1224937536
I1102 05:21:38.864531  2955 layer_factory.hpp:77] Creating layer conv12/dw/scale
I1102 05:21:38.864538  2955 net.cpp:100] Creating Layer conv12/dw/scale
I1102 05:21:38.864545  2955 net.cpp:481] conv12/dw/scale <- conv12/dw
I1102 05:21:38.864552  2955 net.cpp:442] conv12/dw/scale -> conv12/dw (in-place)
I1102 05:21:38.864610  2955 layer_factory.hpp:77] Creating layer conv12/dw/scale
I1102 05:21:38.864739  2955 net.cpp:150] Setting up conv12/dw/scale
I1102 05:21:38.864751  2955 net.cpp:157] Top shape: 8 512 10 10 (409600)
I1102 05:21:38.864754  2955 net.cpp:165] Memory required for data: 1226575936
I1102 05:21:38.864759  2955 layer_factory.hpp:77] Creating layer conv12/dw/relu
I1102 05:21:38.864766  2955 net.cpp:100] Creating Layer conv12/dw/relu
I1102 05:21:38.864773  2955 net.cpp:481] conv12/dw/relu <- conv12/dw
I1102 05:21:38.864789  2955 net.cpp:442] conv12/dw/relu -> conv12/dw (in-place)
I1102 05:21:38.865095  2955 net.cpp:150] Setting up conv12/dw/relu
I1102 05:21:38.865111  2955 net.cpp:157] Top shape: 8 512 10 10 (409600)
I1102 05:21:38.865113  2955 net.cpp:165] Memory required for data: 1228214336
I1102 05:21:38.865140  2955 layer_factory.hpp:77] Creating layer conv12
I1102 05:21:38.865161  2955 net.cpp:100] Creating Layer conv12
I1102 05:21:38.865177  2955 net.cpp:481] conv12 <- conv12/dw
I1102 05:21:38.865183  2955 net.cpp:455] conv12 -> conv12
I1102 05:21:38.874996  2955 net.cpp:150] Setting up conv12
I1102 05:21:38.875017  2955 net.cpp:157] Top shape: 8 1024 10 10 (819200)
I1102 05:21:38.875030  2955 net.cpp:165] Memory required for data: 1231491136
I1102 05:21:38.875036  2955 layer_factory.hpp:77] Creating layer conv12/bn
I1102 05:21:38.875041  2955 net.cpp:100] Creating Layer conv12/bn
I1102 05:21:38.875046  2955 net.cpp:481] conv12/bn <- conv12
I1102 05:21:38.875051  2955 net.cpp:442] conv12/bn -> conv12 (in-place)
I1102 05:21:38.875306  2955 net.cpp:150] Setting up conv12/bn
I1102 05:21:38.875334  2955 net.cpp:157] Top shape: 8 1024 10 10 (819200)
I1102 05:21:38.875337  2955 net.cpp:165] Memory required for data: 1234767936
I1102 05:21:38.875344  2955 layer_factory.hpp:77] Creating layer conv12/scale
I1102 05:21:38.875350  2955 net.cpp:100] Creating Layer conv12/scale
I1102 05:21:38.875375  2955 net.cpp:481] conv12/scale <- conv12
I1102 05:21:38.875381  2955 net.cpp:442] conv12/scale -> conv12 (in-place)
I1102 05:21:38.875459  2955 layer_factory.hpp:77] Creating layer conv12/scale
I1102 05:21:38.875609  2955 net.cpp:150] Setting up conv12/scale
I1102 05:21:38.875622  2955 net.cpp:157] Top shape: 8 1024 10 10 (819200)
I1102 05:21:38.875623  2955 net.cpp:165] Memory required for data: 1238044736
I1102 05:21:38.875628  2955 layer_factory.hpp:77] Creating layer conv12/relu
I1102 05:21:38.875634  2955 net.cpp:100] Creating Layer conv12/relu
I1102 05:21:38.875638  2955 net.cpp:481] conv12/relu <- conv12
I1102 05:21:38.875643  2955 net.cpp:442] conv12/relu -> conv12 (in-place)
I1102 05:21:38.876606  2955 net.cpp:150] Setting up conv12/relu
I1102 05:21:38.876626  2955 net.cpp:157] Top shape: 8 1024 10 10 (819200)
I1102 05:21:38.876629  2955 net.cpp:165] Memory required for data: 1241321536
I1102 05:21:38.876632  2955 layer_factory.hpp:77] Creating layer conv13/dw
I1102 05:21:38.876643  2955 net.cpp:100] Creating Layer conv13/dw
I1102 05:21:38.876647  2955 net.cpp:481] conv13/dw <- conv12
I1102 05:21:38.876654  2955 net.cpp:455] conv13/dw -> conv13/dw
I1102 05:21:38.876962  2955 net.cpp:150] Setting up conv13/dw
I1102 05:21:38.876977  2955 net.cpp:157] Top shape: 8 1024 10 10 (819200)
I1102 05:21:38.876981  2955 net.cpp:165] Memory required for data: 1244598336
I1102 05:21:38.876986  2955 layer_factory.hpp:77] Creating layer conv13/dw/bn
I1102 05:21:38.876993  2955 net.cpp:100] Creating Layer conv13/dw/bn
I1102 05:21:38.877002  2955 net.cpp:481] conv13/dw/bn <- conv13/dw
I1102 05:21:38.877005  2955 net.cpp:442] conv13/dw/bn -> conv13/dw (in-place)
I1102 05:21:38.877281  2955 net.cpp:150] Setting up conv13/dw/bn
I1102 05:21:38.877292  2955 net.cpp:157] Top shape: 8 1024 10 10 (819200)
I1102 05:21:38.877295  2955 net.cpp:165] Memory required for data: 1247875136
I1102 05:21:38.877301  2955 layer_factory.hpp:77] Creating layer conv13/dw/scale
I1102 05:21:38.877324  2955 net.cpp:100] Creating Layer conv13/dw/scale
I1102 05:21:38.877331  2955 net.cpp:481] conv13/dw/scale <- conv13/dw
I1102 05:21:38.877336  2955 net.cpp:442] conv13/dw/scale -> conv13/dw (in-place)
I1102 05:21:38.877460  2955 layer_factory.hpp:77] Creating layer conv13/dw/scale
I1102 05:21:38.877631  2955 net.cpp:150] Setting up conv13/dw/scale
I1102 05:21:38.877643  2955 net.cpp:157] Top shape: 8 1024 10 10 (819200)
I1102 05:21:38.877646  2955 net.cpp:165] Memory required for data: 1251151936
I1102 05:21:38.877652  2955 layer_factory.hpp:77] Creating layer conv13/dw/relu
I1102 05:21:38.877674  2955 net.cpp:100] Creating Layer conv13/dw/relu
I1102 05:21:38.877678  2955 net.cpp:481] conv13/dw/relu <- conv13/dw
I1102 05:21:38.877684  2955 net.cpp:442] conv13/dw/relu -> conv13/dw (in-place)
I1102 05:21:38.878729  2955 net.cpp:150] Setting up conv13/dw/relu
I1102 05:21:38.878748  2955 net.cpp:157] Top shape: 8 1024 10 10 (819200)
I1102 05:21:38.878751  2955 net.cpp:165] Memory required for data: 1254428736
I1102 05:21:38.878754  2955 layer_factory.hpp:77] Creating layer conv13
I1102 05:21:38.878767  2955 net.cpp:100] Creating Layer conv13
I1102 05:21:38.878770  2955 net.cpp:481] conv13 <- conv13/dw
I1102 05:21:38.878777  2955 net.cpp:455] conv13 -> conv13
I1102 05:21:38.892092  2955 net.cpp:150] Setting up conv13
I1102 05:21:38.892130  2955 net.cpp:157] Top shape: 8 1024 10 10 (819200)
I1102 05:21:38.892134  2955 net.cpp:165] Memory required for data: 1257705536
I1102 05:21:38.892139  2955 layer_factory.hpp:77] Creating layer conv13/bn
I1102 05:21:38.892145  2955 net.cpp:100] Creating Layer conv13/bn
I1102 05:21:38.892148  2955 net.cpp:481] conv13/bn <- conv13
I1102 05:21:38.892154  2955 net.cpp:442] conv13/bn -> conv13 (in-place)
I1102 05:21:38.892541  2955 net.cpp:150] Setting up conv13/bn
I1102 05:21:38.892554  2955 net.cpp:157] Top shape: 8 1024 10 10 (819200)
I1102 05:21:38.892556  2955 net.cpp:165] Memory required for data: 1260982336
I1102 05:21:38.892562  2955 layer_factory.hpp:77] Creating layer conv13/scale
I1102 05:21:38.892571  2955 net.cpp:100] Creating Layer conv13/scale
I1102 05:21:38.892594  2955 net.cpp:481] conv13/scale <- conv13
I1102 05:21:38.892612  2955 net.cpp:442] conv13/scale -> conv13 (in-place)
I1102 05:21:38.892663  2955 layer_factory.hpp:77] Creating layer conv13/scale
I1102 05:21:38.892841  2955 net.cpp:150] Setting up conv13/scale
I1102 05:21:38.892853  2955 net.cpp:157] Top shape: 8 1024 10 10 (819200)
I1102 05:21:38.892856  2955 net.cpp:165] Memory required for data: 1264259136
I1102 05:21:38.892860  2955 layer_factory.hpp:77] Creating layer conv13/relu
I1102 05:21:38.892865  2955 net.cpp:100] Creating Layer conv13/relu
I1102 05:21:38.892869  2955 net.cpp:481] conv13/relu <- conv13
I1102 05:21:38.892875  2955 net.cpp:442] conv13/relu -> conv13 (in-place)
I1102 05:21:38.893187  2955 net.cpp:150] Setting up conv13/relu
I1102 05:21:38.893218  2955 net.cpp:157] Top shape: 8 1024 10 10 (819200)
I1102 05:21:38.893220  2955 net.cpp:165] Memory required for data: 1267535936
I1102 05:21:38.893224  2955 layer_factory.hpp:77] Creating layer conv13_conv13/relu_0_split
I1102 05:21:38.893232  2955 net.cpp:100] Creating Layer conv13_conv13/relu_0_split
I1102 05:21:38.893240  2955 net.cpp:481] conv13_conv13/relu_0_split <- conv13
I1102 05:21:38.893245  2955 net.cpp:455] conv13_conv13/relu_0_split -> conv13_conv13/relu_0_split_0
I1102 05:21:38.893254  2955 net.cpp:455] conv13_conv13/relu_0_split -> conv13_conv13/relu_0_split_1
I1102 05:21:38.893260  2955 net.cpp:455] conv13_conv13/relu_0_split -> conv13_conv13/relu_0_split_2
I1102 05:21:38.893268  2955 net.cpp:455] conv13_conv13/relu_0_split -> conv13_conv13/relu_0_split_3
I1102 05:21:38.893358  2955 net.cpp:150] Setting up conv13_conv13/relu_0_split
I1102 05:21:38.893369  2955 net.cpp:157] Top shape: 8 1024 10 10 (819200)
I1102 05:21:38.893373  2955 net.cpp:157] Top shape: 8 1024 10 10 (819200)
I1102 05:21:38.893375  2955 net.cpp:157] Top shape: 8 1024 10 10 (819200)
I1102 05:21:38.893379  2955 net.cpp:157] Top shape: 8 1024 10 10 (819200)
I1102 05:21:38.893381  2955 net.cpp:165] Memory required for data: 1280643136
I1102 05:21:38.893384  2955 layer_factory.hpp:77] Creating layer conv14_1
I1102 05:21:38.893395  2955 net.cpp:100] Creating Layer conv14_1
I1102 05:21:38.893401  2955 net.cpp:481] conv14_1 <- conv13_conv13/relu_0_split_0
I1102 05:21:38.893415  2955 net.cpp:455] conv14_1 -> conv14_1
I1102 05:21:38.899221  2955 net.cpp:150] Setting up conv14_1
I1102 05:21:38.899241  2955 net.cpp:157] Top shape: 8 256 10 10 (204800)
I1102 05:21:38.899245  2955 net.cpp:165] Memory required for data: 1281462336
I1102 05:21:38.899250  2955 layer_factory.hpp:77] Creating layer conv14_1/bn
I1102 05:21:38.899256  2955 net.cpp:100] Creating Layer conv14_1/bn
I1102 05:21:38.899260  2955 net.cpp:481] conv14_1/bn <- conv14_1
I1102 05:21:38.899265  2955 net.cpp:442] conv14_1/bn -> conv14_1 (in-place)
I1102 05:21:38.899515  2955 net.cpp:150] Setting up conv14_1/bn
I1102 05:21:38.899528  2955 net.cpp:157] Top shape: 8 256 10 10 (204800)
I1102 05:21:38.899530  2955 net.cpp:165] Memory required for data: 1282281536
I1102 05:21:38.899536  2955 layer_factory.hpp:77] Creating layer conv14_1/scale
I1102 05:21:38.899544  2955 net.cpp:100] Creating Layer conv14_1/scale
I1102 05:21:38.899549  2955 net.cpp:481] conv14_1/scale <- conv14_1
I1102 05:21:38.899555  2955 net.cpp:442] conv14_1/scale -> conv14_1 (in-place)
I1102 05:21:38.899601  2955 layer_factory.hpp:77] Creating layer conv14_1/scale
I1102 05:21:38.899739  2955 net.cpp:150] Setting up conv14_1/scale
I1102 05:21:38.899749  2955 net.cpp:157] Top shape: 8 256 10 10 (204800)
I1102 05:21:38.899752  2955 net.cpp:165] Memory required for data: 1283100736
I1102 05:21:38.899757  2955 layer_factory.hpp:77] Creating layer conv14_1/relu
I1102 05:21:38.899762  2955 net.cpp:100] Creating Layer conv14_1/relu
I1102 05:21:38.899766  2955 net.cpp:481] conv14_1/relu <- conv14_1
I1102 05:21:38.899770  2955 net.cpp:442] conv14_1/relu -> conv14_1 (in-place)
I1102 05:21:38.900729  2955 net.cpp:150] Setting up conv14_1/relu
I1102 05:21:38.900749  2955 net.cpp:157] Top shape: 8 256 10 10 (204800)
I1102 05:21:38.900753  2955 net.cpp:165] Memory required for data: 1283919936
I1102 05:21:38.900766  2955 layer_factory.hpp:77] Creating layer conv14_2
I1102 05:21:38.900777  2955 net.cpp:100] Creating Layer conv14_2
I1102 05:21:38.900781  2955 net.cpp:481] conv14_2 <- conv14_1
I1102 05:21:38.900786  2955 net.cpp:455] conv14_2 -> conv14_2
I1102 05:21:38.918563  2955 net.cpp:150] Setting up conv14_2
I1102 05:21:38.918584  2955 net.cpp:157] Top shape: 8 512 5 5 (102400)
I1102 05:21:38.918587  2955 net.cpp:165] Memory required for data: 1284329536
I1102 05:21:38.918592  2955 layer_factory.hpp:77] Creating layer conv14_2/bn
I1102 05:21:38.918601  2955 net.cpp:100] Creating Layer conv14_2/bn
I1102 05:21:38.918603  2955 net.cpp:481] conv14_2/bn <- conv14_2
I1102 05:21:38.918609  2955 net.cpp:442] conv14_2/bn -> conv14_2 (in-place)
I1102 05:21:38.918925  2955 net.cpp:150] Setting up conv14_2/bn
I1102 05:21:38.918961  2955 net.cpp:157] Top shape: 8 512 5 5 (102400)
I1102 05:21:38.918963  2955 net.cpp:165] Memory required for data: 1284739136
I1102 05:21:38.918969  2955 layer_factory.hpp:77] Creating layer conv14_2/scale
I1102 05:21:38.918978  2955 net.cpp:100] Creating Layer conv14_2/scale
I1102 05:21:38.918982  2955 net.cpp:481] conv14_2/scale <- conv14_2
I1102 05:21:38.918985  2955 net.cpp:442] conv14_2/scale -> conv14_2 (in-place)
I1102 05:21:38.919076  2955 layer_factory.hpp:77] Creating layer conv14_2/scale
I1102 05:21:38.919224  2955 net.cpp:150] Setting up conv14_2/scale
I1102 05:21:38.919256  2955 net.cpp:157] Top shape: 8 512 5 5 (102400)
I1102 05:21:38.919260  2955 net.cpp:165] Memory required for data: 1285148736
I1102 05:21:38.919265  2955 layer_factory.hpp:77] Creating layer conv14_2/relu
I1102 05:21:38.919272  2955 net.cpp:100] Creating Layer conv14_2/relu
I1102 05:21:38.919275  2955 net.cpp:481] conv14_2/relu <- conv14_2
I1102 05:21:38.919281  2955 net.cpp:442] conv14_2/relu -> conv14_2 (in-place)
I1102 05:21:38.919664  2955 net.cpp:150] Setting up conv14_2/relu
I1102 05:21:38.919680  2955 net.cpp:157] Top shape: 8 512 5 5 (102400)
I1102 05:21:38.919683  2955 net.cpp:165] Memory required for data: 1285558336
I1102 05:21:38.919685  2955 layer_factory.hpp:77] Creating layer conv14_2_conv14_2/relu_0_split
I1102 05:21:38.919693  2955 net.cpp:100] Creating Layer conv14_2_conv14_2/relu_0_split
I1102 05:21:38.919697  2955 net.cpp:481] conv14_2_conv14_2/relu_0_split <- conv14_2
I1102 05:21:38.919701  2955 net.cpp:455] conv14_2_conv14_2/relu_0_split -> conv14_2_conv14_2/relu_0_split_0
I1102 05:21:38.919708  2955 net.cpp:455] conv14_2_conv14_2/relu_0_split -> conv14_2_conv14_2/relu_0_split_1
I1102 05:21:38.919714  2955 net.cpp:455] conv14_2_conv14_2/relu_0_split -> conv14_2_conv14_2/relu_0_split_2
I1102 05:21:38.919734  2955 net.cpp:455] conv14_2_conv14_2/relu_0_split -> conv14_2_conv14_2/relu_0_split_3
I1102 05:21:38.919888  2955 net.cpp:150] Setting up conv14_2_conv14_2/relu_0_split
I1102 05:21:38.919898  2955 net.cpp:157] Top shape: 8 512 5 5 (102400)
I1102 05:21:38.919901  2955 net.cpp:157] Top shape: 8 512 5 5 (102400)
I1102 05:21:38.919904  2955 net.cpp:157] Top shape: 8 512 5 5 (102400)
I1102 05:21:38.919906  2955 net.cpp:157] Top shape: 8 512 5 5 (102400)
I1102 05:21:38.919909  2955 net.cpp:165] Memory required for data: 1287196736
I1102 05:21:38.919912  2955 layer_factory.hpp:77] Creating layer conv15_1
I1102 05:21:38.919926  2955 net.cpp:100] Creating Layer conv15_1
I1102 05:21:38.919934  2955 net.cpp:481] conv15_1 <- conv14_2_conv14_2/relu_0_split_0
I1102 05:21:38.919939  2955 net.cpp:455] conv15_1 -> conv15_1
I1102 05:21:38.923018  2955 net.cpp:150] Setting up conv15_1
I1102 05:21:38.923054  2955 net.cpp:157] Top shape: 8 128 5 5 (25600)
I1102 05:21:38.923058  2955 net.cpp:165] Memory required for data: 1287299136
I1102 05:21:38.923063  2955 layer_factory.hpp:77] Creating layer conv15_1/bn
I1102 05:21:38.923071  2955 net.cpp:100] Creating Layer conv15_1/bn
I1102 05:21:38.923074  2955 net.cpp:481] conv15_1/bn <- conv15_1
I1102 05:21:38.923080  2955 net.cpp:442] conv15_1/bn -> conv15_1 (in-place)
I1102 05:21:38.923300  2955 net.cpp:150] Setting up conv15_1/bn
I1102 05:21:38.923311  2955 net.cpp:157] Top shape: 8 128 5 5 (25600)
I1102 05:21:38.923341  2955 net.cpp:165] Memory required for data: 1287401536
I1102 05:21:38.923364  2955 layer_factory.hpp:77] Creating layer conv15_1/scale
I1102 05:21:38.923373  2955 net.cpp:100] Creating Layer conv15_1/scale
I1102 05:21:38.923391  2955 net.cpp:481] conv15_1/scale <- conv15_1
I1102 05:21:38.923426  2955 net.cpp:442] conv15_1/scale -> conv15_1 (in-place)
I1102 05:21:38.923497  2955 layer_factory.hpp:77] Creating layer conv15_1/scale
I1102 05:21:38.923674  2955 net.cpp:150] Setting up conv15_1/scale
I1102 05:21:38.923702  2955 net.cpp:157] Top shape: 8 128 5 5 (25600)
I1102 05:21:38.923704  2955 net.cpp:165] Memory required for data: 1287503936
I1102 05:21:38.923738  2955 layer_factory.hpp:77] Creating layer conv15_1/relu
I1102 05:21:38.923743  2955 net.cpp:100] Creating Layer conv15_1/relu
I1102 05:21:38.923746  2955 net.cpp:481] conv15_1/relu <- conv15_1
I1102 05:21:38.923761  2955 net.cpp:442] conv15_1/relu -> conv15_1 (in-place)
I1102 05:21:38.924649  2955 net.cpp:150] Setting up conv15_1/relu
I1102 05:21:38.924667  2955 net.cpp:157] Top shape: 8 128 5 5 (25600)
I1102 05:21:38.924670  2955 net.cpp:165] Memory required for data: 1287606336
I1102 05:21:38.924674  2955 layer_factory.hpp:77] Creating layer conv15_2
I1102 05:21:38.924685  2955 net.cpp:100] Creating Layer conv15_2
I1102 05:21:38.924688  2955 net.cpp:481] conv15_2 <- conv15_1
I1102 05:21:38.924695  2955 net.cpp:455] conv15_2 -> conv15_2
I1102 05:21:38.930524  2955 net.cpp:150] Setting up conv15_2
I1102 05:21:38.930546  2955 net.cpp:157] Top shape: 8 256 3 3 (18432)
I1102 05:21:38.930548  2955 net.cpp:165] Memory required for data: 1287680064
I1102 05:21:38.930553  2955 layer_factory.hpp:77] Creating layer conv15_2/bn
I1102 05:21:38.930560  2955 net.cpp:100] Creating Layer conv15_2/bn
I1102 05:21:38.930564  2955 net.cpp:481] conv15_2/bn <- conv15_2
I1102 05:21:38.930569  2955 net.cpp:442] conv15_2/bn -> conv15_2 (in-place)
I1102 05:21:38.930776  2955 net.cpp:150] Setting up conv15_2/bn
I1102 05:21:38.930800  2955 net.cpp:157] Top shape: 8 256 3 3 (18432)
I1102 05:21:38.930804  2955 net.cpp:165] Memory required for data: 1287753792
I1102 05:21:38.930809  2955 layer_factory.hpp:77] Creating layer conv15_2/scale
I1102 05:21:38.930819  2955 net.cpp:100] Creating Layer conv15_2/scale
I1102 05:21:38.930826  2955 net.cpp:481] conv15_2/scale <- conv15_2
I1102 05:21:38.930831  2955 net.cpp:442] conv15_2/scale -> conv15_2 (in-place)
I1102 05:21:38.930889  2955 layer_factory.hpp:77] Creating layer conv15_2/scale
I1102 05:21:38.931061  2955 net.cpp:150] Setting up conv15_2/scale
I1102 05:21:38.931083  2955 net.cpp:157] Top shape: 8 256 3 3 (18432)
I1102 05:21:38.931085  2955 net.cpp:165] Memory required for data: 1287827520
I1102 05:21:38.931090  2955 layer_factory.hpp:77] Creating layer conv15_2/relu
I1102 05:21:38.931108  2955 net.cpp:100] Creating Layer conv15_2/relu
I1102 05:21:38.931114  2955 net.cpp:481] conv15_2/relu <- conv15_2
I1102 05:21:38.931118  2955 net.cpp:442] conv15_2/relu -> conv15_2 (in-place)
I1102 05:21:38.932073  2955 net.cpp:150] Setting up conv15_2/relu
I1102 05:21:38.932091  2955 net.cpp:157] Top shape: 8 256 3 3 (18432)
I1102 05:21:38.932095  2955 net.cpp:165] Memory required for data: 1287901248
I1102 05:21:38.932098  2955 layer_factory.hpp:77] Creating layer conv15_2_conv15_2/relu_0_split
I1102 05:21:38.932106  2955 net.cpp:100] Creating Layer conv15_2_conv15_2/relu_0_split
I1102 05:21:38.932108  2955 net.cpp:481] conv15_2_conv15_2/relu_0_split <- conv15_2
I1102 05:21:38.932114  2955 net.cpp:455] conv15_2_conv15_2/relu_0_split -> conv15_2_conv15_2/relu_0_split_0
I1102 05:21:38.932121  2955 net.cpp:455] conv15_2_conv15_2/relu_0_split -> conv15_2_conv15_2/relu_0_split_1
I1102 05:21:38.932126  2955 net.cpp:455] conv15_2_conv15_2/relu_0_split -> conv15_2_conv15_2/relu_0_split_2
I1102 05:21:38.932132  2955 net.cpp:455] conv15_2_conv15_2/relu_0_split -> conv15_2_conv15_2/relu_0_split_3
I1102 05:21:38.932207  2955 net.cpp:150] Setting up conv15_2_conv15_2/relu_0_split
I1102 05:21:38.932219  2955 net.cpp:157] Top shape: 8 256 3 3 (18432)
I1102 05:21:38.932234  2955 net.cpp:157] Top shape: 8 256 3 3 (18432)
I1102 05:21:38.932237  2955 net.cpp:157] Top shape: 8 256 3 3 (18432)
I1102 05:21:38.932240  2955 net.cpp:157] Top shape: 8 256 3 3 (18432)
I1102 05:21:38.932243  2955 net.cpp:165] Memory required for data: 1288196160
I1102 05:21:38.932246  2955 layer_factory.hpp:77] Creating layer conv16_1
I1102 05:21:38.932257  2955 net.cpp:100] Creating Layer conv16_1
I1102 05:21:38.932265  2955 net.cpp:481] conv16_1 <- conv15_2_conv15_2/relu_0_split_0
I1102 05:21:38.932272  2955 net.cpp:455] conv16_1 -> conv16_1
I1102 05:21:38.935251  2955 net.cpp:150] Setting up conv16_1
I1102 05:21:38.935273  2955 net.cpp:157] Top shape: 8 128 3 3 (9216)
I1102 05:21:38.935277  2955 net.cpp:165] Memory required for data: 1288233024
I1102 05:21:38.935282  2955 layer_factory.hpp:77] Creating layer conv16_1/bn
I1102 05:21:38.935287  2955 net.cpp:100] Creating Layer conv16_1/bn
I1102 05:21:38.935290  2955 net.cpp:481] conv16_1/bn <- conv16_1
I1102 05:21:38.935294  2955 net.cpp:442] conv16_1/bn -> conv16_1 (in-place)
I1102 05:21:38.935575  2955 net.cpp:150] Setting up conv16_1/bn
I1102 05:21:38.935588  2955 net.cpp:157] Top shape: 8 128 3 3 (9216)
I1102 05:21:38.935591  2955 net.cpp:165] Memory required for data: 1288269888
I1102 05:21:38.935597  2955 layer_factory.hpp:77] Creating layer conv16_1/scale
I1102 05:21:38.935605  2955 net.cpp:100] Creating Layer conv16_1/scale
I1102 05:21:38.935611  2955 net.cpp:481] conv16_1/scale <- conv16_1
I1102 05:21:38.935618  2955 net.cpp:442] conv16_1/scale -> conv16_1 (in-place)
I1102 05:21:38.935667  2955 layer_factory.hpp:77] Creating layer conv16_1/scale
I1102 05:21:38.935791  2955 net.cpp:150] Setting up conv16_1/scale
I1102 05:21:38.935802  2955 net.cpp:157] Top shape: 8 128 3 3 (9216)
I1102 05:21:38.935806  2955 net.cpp:165] Memory required for data: 1288306752
I1102 05:21:38.935811  2955 layer_factory.hpp:77] Creating layer conv16_1/relu
I1102 05:21:38.935814  2955 net.cpp:100] Creating Layer conv16_1/relu
I1102 05:21:38.935817  2955 net.cpp:481] conv16_1/relu <- conv16_1
I1102 05:21:38.935824  2955 net.cpp:442] conv16_1/relu -> conv16_1 (in-place)
I1102 05:21:38.936152  2955 net.cpp:150] Setting up conv16_1/relu
I1102 05:21:38.936168  2955 net.cpp:157] Top shape: 8 128 3 3 (9216)
I1102 05:21:38.936170  2955 net.cpp:165] Memory required for data: 1288343616
I1102 05:21:38.936174  2955 layer_factory.hpp:77] Creating layer conv16_2
I1102 05:21:38.936184  2955 net.cpp:100] Creating Layer conv16_2
I1102 05:21:38.936192  2955 net.cpp:481] conv16_2 <- conv16_1
I1102 05:21:38.936199  2955 net.cpp:455] conv16_2 -> conv16_2
I1102 05:21:38.942593  2955 net.cpp:150] Setting up conv16_2
I1102 05:21:38.942616  2955 net.cpp:157] Top shape: 8 256 2 2 (8192)
I1102 05:21:38.942620  2955 net.cpp:165] Memory required for data: 1288376384
I1102 05:21:38.942625  2955 layer_factory.hpp:77] Creating layer conv16_2/bn
I1102 05:21:38.942631  2955 net.cpp:100] Creating Layer conv16_2/bn
I1102 05:21:38.942634  2955 net.cpp:481] conv16_2/bn <- conv16_2
I1102 05:21:38.942641  2955 net.cpp:442] conv16_2/bn -> conv16_2 (in-place)
I1102 05:21:38.942850  2955 net.cpp:150] Setting up conv16_2/bn
I1102 05:21:38.942864  2955 net.cpp:157] Top shape: 8 256 2 2 (8192)
I1102 05:21:38.942867  2955 net.cpp:165] Memory required for data: 1288409152
I1102 05:21:38.942873  2955 layer_factory.hpp:77] Creating layer conv16_2/scale
I1102 05:21:38.942880  2955 net.cpp:100] Creating Layer conv16_2/scale
I1102 05:21:38.942886  2955 net.cpp:481] conv16_2/scale <- conv16_2
I1102 05:21:38.942891  2955 net.cpp:442] conv16_2/scale -> conv16_2 (in-place)
I1102 05:21:38.942942  2955 layer_factory.hpp:77] Creating layer conv16_2/scale
I1102 05:21:38.943112  2955 net.cpp:150] Setting up conv16_2/scale
I1102 05:21:38.943125  2955 net.cpp:157] Top shape: 8 256 2 2 (8192)
I1102 05:21:38.943127  2955 net.cpp:165] Memory required for data: 1288441920
I1102 05:21:38.943133  2955 layer_factory.hpp:77] Creating layer conv16_2/relu
I1102 05:21:38.943156  2955 net.cpp:100] Creating Layer conv16_2/relu
I1102 05:21:38.943174  2955 net.cpp:481] conv16_2/relu <- conv16_2
I1102 05:21:38.943181  2955 net.cpp:442] conv16_2/relu -> conv16_2 (in-place)
I1102 05:21:38.945108  2955 net.cpp:150] Setting up conv16_2/relu
I1102 05:21:38.945135  2955 net.cpp:157] Top shape: 8 256 2 2 (8192)
I1102 05:21:38.945138  2955 net.cpp:165] Memory required for data: 1288474688
I1102 05:21:38.945142  2955 layer_factory.hpp:77] Creating layer conv16_2_conv16_2/relu_0_split
I1102 05:21:38.945152  2955 net.cpp:100] Creating Layer conv16_2_conv16_2/relu_0_split
I1102 05:21:38.945154  2955 net.cpp:481] conv16_2_conv16_2/relu_0_split <- conv16_2
I1102 05:21:38.945159  2955 net.cpp:455] conv16_2_conv16_2/relu_0_split -> conv16_2_conv16_2/relu_0_split_0
I1102 05:21:38.945178  2955 net.cpp:455] conv16_2_conv16_2/relu_0_split -> conv16_2_conv16_2/relu_0_split_1
I1102 05:21:38.945190  2955 net.cpp:455] conv16_2_conv16_2/relu_0_split -> conv16_2_conv16_2/relu_0_split_2
I1102 05:21:38.945211  2955 net.cpp:455] conv16_2_conv16_2/relu_0_split -> conv16_2_conv16_2/relu_0_split_3
I1102 05:21:38.945344  2955 net.cpp:150] Setting up conv16_2_conv16_2/relu_0_split
I1102 05:21:38.945356  2955 net.cpp:157] Top shape: 8 256 2 2 (8192)
I1102 05:21:38.945360  2955 net.cpp:157] Top shape: 8 256 2 2 (8192)
I1102 05:21:38.945363  2955 net.cpp:157] Top shape: 8 256 2 2 (8192)
I1102 05:21:38.945367  2955 net.cpp:157] Top shape: 8 256 2 2 (8192)
I1102 05:21:38.945369  2955 net.cpp:165] Memory required for data: 1288605760
I1102 05:21:38.945372  2955 layer_factory.hpp:77] Creating layer conv17_1
I1102 05:21:38.945387  2955 net.cpp:100] Creating Layer conv17_1
I1102 05:21:38.945395  2955 net.cpp:481] conv17_1 <- conv16_2_conv16_2/relu_0_split_0
I1102 05:21:38.945415  2955 net.cpp:455] conv17_1 -> conv17_1
I1102 05:21:38.948168  2955 net.cpp:150] Setting up conv17_1
I1102 05:21:38.948204  2955 net.cpp:157] Top shape: 8 64 2 2 (2048)
I1102 05:21:38.948207  2955 net.cpp:165] Memory required for data: 1288613952
I1102 05:21:38.948212  2955 layer_factory.hpp:77] Creating layer conv17_1/bn
I1102 05:21:38.948222  2955 net.cpp:100] Creating Layer conv17_1/bn
I1102 05:21:38.948226  2955 net.cpp:481] conv17_1/bn <- conv17_1
I1102 05:21:38.948253  2955 net.cpp:442] conv17_1/bn -> conv17_1 (in-place)
I1102 05:21:38.948609  2955 net.cpp:150] Setting up conv17_1/bn
I1102 05:21:38.948621  2955 net.cpp:157] Top shape: 8 64 2 2 (2048)
I1102 05:21:38.948623  2955 net.cpp:165] Memory required for data: 1288622144
I1102 05:21:38.948629  2955 layer_factory.hpp:77] Creating layer conv17_1/scale
I1102 05:21:38.948637  2955 net.cpp:100] Creating Layer conv17_1/scale
I1102 05:21:38.948639  2955 net.cpp:481] conv17_1/scale <- conv17_1
I1102 05:21:38.948645  2955 net.cpp:442] conv17_1/scale -> conv17_1 (in-place)
I1102 05:21:38.948696  2955 layer_factory.hpp:77] Creating layer conv17_1/scale
I1102 05:21:38.948834  2955 net.cpp:150] Setting up conv17_1/scale
I1102 05:21:38.948846  2955 net.cpp:157] Top shape: 8 64 2 2 (2048)
I1102 05:21:38.948848  2955 net.cpp:165] Memory required for data: 1288630336
I1102 05:21:38.948853  2955 layer_factory.hpp:77] Creating layer conv17_1/relu
I1102 05:21:38.948860  2955 net.cpp:100] Creating Layer conv17_1/relu
I1102 05:21:38.948868  2955 net.cpp:481] conv17_1/relu <- conv17_1
I1102 05:21:38.948871  2955 net.cpp:442] conv17_1/relu -> conv17_1 (in-place)
I1102 05:21:38.949196  2955 net.cpp:150] Setting up conv17_1/relu
I1102 05:21:38.949228  2955 net.cpp:157] Top shape: 8 64 2 2 (2048)
I1102 05:21:38.949230  2955 net.cpp:165] Memory required for data: 1288638528
I1102 05:21:38.949262  2955 layer_factory.hpp:77] Creating layer conv17_2
I1102 05:21:38.949273  2955 net.cpp:100] Creating Layer conv17_2
I1102 05:21:38.949281  2955 net.cpp:481] conv17_2 <- conv17_1
I1102 05:21:38.949290  2955 net.cpp:455] conv17_2 -> conv17_2
I1102 05:21:38.952888  2955 net.cpp:150] Setting up conv17_2
I1102 05:21:38.952909  2955 net.cpp:157] Top shape: 8 128 1 1 (1024)
I1102 05:21:38.952913  2955 net.cpp:165] Memory required for data: 1288642624
I1102 05:21:38.952931  2955 layer_factory.hpp:77] Creating layer conv17_2/bn
I1102 05:21:38.952970  2955 net.cpp:100] Creating Layer conv17_2/bn
I1102 05:21:38.952975  2955 net.cpp:481] conv17_2/bn <- conv17_2
I1102 05:21:38.952980  2955 net.cpp:442] conv17_2/bn -> conv17_2 (in-place)
I1102 05:21:38.953277  2955 net.cpp:150] Setting up conv17_2/bn
I1102 05:21:38.953289  2955 net.cpp:157] Top shape: 8 128 1 1 (1024)
I1102 05:21:38.953291  2955 net.cpp:165] Memory required for data: 1288646720
I1102 05:21:38.953299  2955 layer_factory.hpp:77] Creating layer conv17_2/scale
I1102 05:21:38.953306  2955 net.cpp:100] Creating Layer conv17_2/scale
I1102 05:21:38.953310  2955 net.cpp:481] conv17_2/scale <- conv17_2
I1102 05:21:38.953313  2955 net.cpp:442] conv17_2/scale -> conv17_2 (in-place)
I1102 05:21:38.953362  2955 layer_factory.hpp:77] Creating layer conv17_2/scale
I1102 05:21:38.953506  2955 net.cpp:150] Setting up conv17_2/scale
I1102 05:21:38.953523  2955 net.cpp:157] Top shape: 8 128 1 1 (1024)
I1102 05:21:38.953526  2955 net.cpp:165] Memory required for data: 1288650816
I1102 05:21:38.953531  2955 layer_factory.hpp:77] Creating layer conv17_2/relu
I1102 05:21:38.953537  2955 net.cpp:100] Creating Layer conv17_2/relu
I1102 05:21:38.953543  2955 net.cpp:481] conv17_2/relu <- conv17_2
I1102 05:21:38.953549  2955 net.cpp:442] conv17_2/relu -> conv17_2 (in-place)
I1102 05:21:38.954545  2955 net.cpp:150] Setting up conv17_2/relu
I1102 05:21:38.954566  2955 net.cpp:157] Top shape: 8 128 1 1 (1024)
I1102 05:21:38.954569  2955 net.cpp:165] Memory required for data: 1288654912
I1102 05:21:38.954573  2955 layer_factory.hpp:77] Creating layer conv17_2_conv17_2/relu_0_split
I1102 05:21:38.954581  2955 net.cpp:100] Creating Layer conv17_2_conv17_2/relu_0_split
I1102 05:21:38.954587  2955 net.cpp:481] conv17_2_conv17_2/relu_0_split <- conv17_2
I1102 05:21:38.954596  2955 net.cpp:455] conv17_2_conv17_2/relu_0_split -> conv17_2_conv17_2/relu_0_split_0
I1102 05:21:38.954617  2955 net.cpp:455] conv17_2_conv17_2/relu_0_split -> conv17_2_conv17_2/relu_0_split_1
I1102 05:21:38.954628  2955 net.cpp:455] conv17_2_conv17_2/relu_0_split -> conv17_2_conv17_2/relu_0_split_2
I1102 05:21:38.954697  2955 net.cpp:150] Setting up conv17_2_conv17_2/relu_0_split
I1102 05:21:38.954711  2955 net.cpp:157] Top shape: 8 128 1 1 (1024)
I1102 05:21:38.954715  2955 net.cpp:157] Top shape: 8 128 1 1 (1024)
I1102 05:21:38.954718  2955 net.cpp:157] Top shape: 8 128 1 1 (1024)
I1102 05:21:38.954723  2955 net.cpp:165] Memory required for data: 1288667200
I1102 05:21:38.954726  2955 layer_factory.hpp:77] Creating layer conv11_mbox_loc
I1102 05:21:38.954738  2955 net.cpp:100] Creating Layer conv11_mbox_loc
I1102 05:21:38.954742  2955 net.cpp:481] conv11_mbox_loc <- conv11_conv11/relu_0_split_1
I1102 05:21:38.954751  2955 net.cpp:455] conv11_mbox_loc -> conv11_mbox_loc
I1102 05:21:38.957281  2955 net.cpp:150] Setting up conv11_mbox_loc
I1102 05:21:38.957301  2955 net.cpp:157] Top shape: 8 12 19 19 (34656)
I1102 05:21:38.957304  2955 net.cpp:165] Memory required for data: 1288805824
I1102 05:21:38.957311  2955 layer_factory.hpp:77] Creating layer conv11_mbox_loc_perm
I1102 05:21:38.957321  2955 net.cpp:100] Creating Layer conv11_mbox_loc_perm
I1102 05:21:38.957329  2955 net.cpp:481] conv11_mbox_loc_perm <- conv11_mbox_loc
I1102 05:21:38.957334  2955 net.cpp:455] conv11_mbox_loc_perm -> conv11_mbox_loc_perm
I1102 05:21:38.957479  2955 net.cpp:150] Setting up conv11_mbox_loc_perm
I1102 05:21:38.957491  2955 net.cpp:157] Top shape: 8 19 19 12 (34656)
I1102 05:21:38.957504  2955 net.cpp:165] Memory required for data: 1288944448
I1102 05:21:38.957507  2955 layer_factory.hpp:77] Creating layer conv11_mbox_loc_flat
I1102 05:21:38.957515  2955 net.cpp:100] Creating Layer conv11_mbox_loc_flat
I1102 05:21:38.957522  2955 net.cpp:481] conv11_mbox_loc_flat <- conv11_mbox_loc_perm
I1102 05:21:38.957526  2955 net.cpp:455] conv11_mbox_loc_flat -> conv11_mbox_loc_flat
I1102 05:21:38.957561  2955 net.cpp:150] Setting up conv11_mbox_loc_flat
I1102 05:21:38.957571  2955 net.cpp:157] Top shape: 8 4332 (34656)
I1102 05:21:38.957586  2955 net.cpp:165] Memory required for data: 1289083072
I1102 05:21:38.957588  2955 layer_factory.hpp:77] Creating layer conv11_mbox_conf_new
I1102 05:21:38.957599  2955 net.cpp:100] Creating Layer conv11_mbox_conf_new
I1102 05:21:38.957607  2955 net.cpp:481] conv11_mbox_conf_new <- conv11_conv11/relu_0_split_2
I1102 05:21:38.957615  2955 net.cpp:455] conv11_mbox_conf_new -> conv11_mbox_conf
I1102 05:21:38.960494  2955 net.cpp:150] Setting up conv11_mbox_conf_new
I1102 05:21:38.960513  2955 net.cpp:157] Top shape: 8 63 19 19 (181944)
I1102 05:21:38.960517  2955 net.cpp:165] Memory required for data: 1289810848
I1102 05:21:38.960523  2955 layer_factory.hpp:77] Creating layer conv11_mbox_conf_perm
I1102 05:21:38.960530  2955 net.cpp:100] Creating Layer conv11_mbox_conf_perm
I1102 05:21:38.960533  2955 net.cpp:481] conv11_mbox_conf_perm <- conv11_mbox_conf
I1102 05:21:38.960541  2955 net.cpp:455] conv11_mbox_conf_perm -> conv11_mbox_conf_perm
I1102 05:21:38.960675  2955 net.cpp:150] Setting up conv11_mbox_conf_perm
I1102 05:21:38.960687  2955 net.cpp:157] Top shape: 8 19 19 63 (181944)
I1102 05:21:38.960690  2955 net.cpp:165] Memory required for data: 1290538624
I1102 05:21:38.960692  2955 layer_factory.hpp:77] Creating layer conv11_mbox_conf_flat
I1102 05:21:38.960698  2955 net.cpp:100] Creating Layer conv11_mbox_conf_flat
I1102 05:21:38.960701  2955 net.cpp:481] conv11_mbox_conf_flat <- conv11_mbox_conf_perm
I1102 05:21:38.960710  2955 net.cpp:455] conv11_mbox_conf_flat -> conv11_mbox_conf_flat
I1102 05:21:38.960741  2955 net.cpp:150] Setting up conv11_mbox_conf_flat
I1102 05:21:38.960752  2955 net.cpp:157] Top shape: 8 22743 (181944)
I1102 05:21:38.960762  2955 net.cpp:165] Memory required for data: 1291266400
I1102 05:21:38.960764  2955 layer_factory.hpp:77] Creating layer conv11_mbox_priorbox
I1102 05:21:38.960772  2955 net.cpp:100] Creating Layer conv11_mbox_priorbox
I1102 05:21:38.960777  2955 net.cpp:481] conv11_mbox_priorbox <- conv11_conv11/relu_0_split_3
I1102 05:21:38.960781  2955 net.cpp:481] conv11_mbox_priorbox <- data_data_0_split_1
I1102 05:21:38.960788  2955 net.cpp:455] conv11_mbox_priorbox -> conv11_mbox_priorbox
I1102 05:21:38.960825  2955 net.cpp:150] Setting up conv11_mbox_priorbox
I1102 05:21:38.960835  2955 net.cpp:157] Top shape: 1 2 4332 (8664)
I1102 05:21:38.960837  2955 net.cpp:165] Memory required for data: 1291301056
I1102 05:21:38.960840  2955 layer_factory.hpp:77] Creating layer conv13_mbox_loc
I1102 05:21:38.960850  2955 net.cpp:100] Creating Layer conv13_mbox_loc
I1102 05:21:38.960857  2955 net.cpp:481] conv13_mbox_loc <- conv13_conv13/relu_0_split_1
I1102 05:21:38.960865  2955 net.cpp:455] conv13_mbox_loc -> conv13_mbox_loc
I1102 05:21:38.964363  2955 net.cpp:150] Setting up conv13_mbox_loc
I1102 05:21:38.964399  2955 net.cpp:157] Top shape: 8 24 10 10 (19200)
I1102 05:21:38.964402  2955 net.cpp:165] Memory required for data: 1291377856
I1102 05:21:38.964408  2955 layer_factory.hpp:77] Creating layer conv13_mbox_loc_perm
I1102 05:21:38.964423  2955 net.cpp:100] Creating Layer conv13_mbox_loc_perm
I1102 05:21:38.964427  2955 net.cpp:481] conv13_mbox_loc_perm <- conv13_mbox_loc
I1102 05:21:38.964433  2955 net.cpp:455] conv13_mbox_loc_perm -> conv13_mbox_loc_perm
I1102 05:21:38.964601  2955 net.cpp:150] Setting up conv13_mbox_loc_perm
I1102 05:21:38.964630  2955 net.cpp:157] Top shape: 8 10 10 24 (19200)
I1102 05:21:38.964633  2955 net.cpp:165] Memory required for data: 1291454656
I1102 05:21:38.964635  2955 layer_factory.hpp:77] Creating layer conv13_mbox_loc_flat
I1102 05:21:38.964642  2955 net.cpp:100] Creating Layer conv13_mbox_loc_flat
I1102 05:21:38.964648  2955 net.cpp:481] conv13_mbox_loc_flat <- conv13_mbox_loc_perm
I1102 05:21:38.964653  2955 net.cpp:455] conv13_mbox_loc_flat -> conv13_mbox_loc_flat
I1102 05:21:38.964684  2955 net.cpp:150] Setting up conv13_mbox_loc_flat
I1102 05:21:38.964694  2955 net.cpp:157] Top shape: 8 2400 (19200)
I1102 05:21:38.964712  2955 net.cpp:165] Memory required for data: 1291531456
I1102 05:21:38.964715  2955 layer_factory.hpp:77] Creating layer conv13_mbox_conf_new
I1102 05:21:38.964742  2955 net.cpp:100] Creating Layer conv13_mbox_conf_new
I1102 05:21:38.964751  2955 net.cpp:481] conv13_mbox_conf_new <- conv13_conv13/relu_0_split_2
I1102 05:21:38.964757  2955 net.cpp:455] conv13_mbox_conf_new -> conv13_mbox_conf
I1102 05:21:38.969801  2955 net.cpp:150] Setting up conv13_mbox_conf_new
I1102 05:21:38.969822  2955 net.cpp:157] Top shape: 8 126 10 10 (100800)
I1102 05:21:38.969825  2955 net.cpp:165] Memory required for data: 1291934656
I1102 05:21:38.969847  2955 layer_factory.hpp:77] Creating layer conv13_mbox_conf_perm
I1102 05:21:38.969853  2955 net.cpp:100] Creating Layer conv13_mbox_conf_perm
I1102 05:21:38.969856  2955 net.cpp:481] conv13_mbox_conf_perm <- conv13_mbox_conf
I1102 05:21:38.969863  2955 net.cpp:455] conv13_mbox_conf_perm -> conv13_mbox_conf_perm
I1102 05:21:38.970041  2955 net.cpp:150] Setting up conv13_mbox_conf_perm
I1102 05:21:38.970053  2955 net.cpp:157] Top shape: 8 10 10 126 (100800)
I1102 05:21:38.970057  2955 net.cpp:165] Memory required for data: 1292337856
I1102 05:21:38.970058  2955 layer_factory.hpp:77] Creating layer conv13_mbox_conf_flat
I1102 05:21:38.970065  2955 net.cpp:100] Creating Layer conv13_mbox_conf_flat
I1102 05:21:38.970068  2955 net.cpp:481] conv13_mbox_conf_flat <- conv13_mbox_conf_perm
I1102 05:21:38.970077  2955 net.cpp:455] conv13_mbox_conf_flat -> conv13_mbox_conf_flat
I1102 05:21:38.970124  2955 net.cpp:150] Setting up conv13_mbox_conf_flat
I1102 05:21:38.970147  2955 net.cpp:157] Top shape: 8 12600 (100800)
I1102 05:21:38.970151  2955 net.cpp:165] Memory required for data: 1292741056
I1102 05:21:38.970155  2955 layer_factory.hpp:77] Creating layer conv13_mbox_priorbox
I1102 05:21:38.970165  2955 net.cpp:100] Creating Layer conv13_mbox_priorbox
I1102 05:21:38.970170  2955 net.cpp:481] conv13_mbox_priorbox <- conv13_conv13/relu_0_split_3
I1102 05:21:38.970175  2955 net.cpp:481] conv13_mbox_priorbox <- data_data_0_split_2
I1102 05:21:38.970185  2955 net.cpp:455] conv13_mbox_priorbox -> conv13_mbox_priorbox
I1102 05:21:38.970222  2955 net.cpp:150] Setting up conv13_mbox_priorbox
I1102 05:21:38.970233  2955 net.cpp:157] Top shape: 1 2 2400 (4800)
I1102 05:21:38.970235  2955 net.cpp:165] Memory required for data: 1292760256
I1102 05:21:38.970238  2955 layer_factory.hpp:77] Creating layer conv14_2_mbox_loc
I1102 05:21:38.970249  2955 net.cpp:100] Creating Layer conv14_2_mbox_loc
I1102 05:21:38.970257  2955 net.cpp:481] conv14_2_mbox_loc <- conv14_2_conv14_2/relu_0_split_1
I1102 05:21:38.970266  2955 net.cpp:455] conv14_2_mbox_loc -> conv14_2_mbox_loc
I1102 05:21:38.973060  2955 net.cpp:150] Setting up conv14_2_mbox_loc
I1102 05:21:38.973080  2955 net.cpp:157] Top shape: 8 24 5 5 (4800)
I1102 05:21:38.973083  2955 net.cpp:165] Memory required for data: 1292779456
I1102 05:21:38.973089  2955 layer_factory.hpp:77] Creating layer conv14_2_mbox_loc_perm
I1102 05:21:38.973098  2955 net.cpp:100] Creating Layer conv14_2_mbox_loc_perm
I1102 05:21:38.973101  2955 net.cpp:481] conv14_2_mbox_loc_perm <- conv14_2_mbox_loc
I1102 05:21:38.973107  2955 net.cpp:455] conv14_2_mbox_loc_perm -> conv14_2_mbox_loc_perm
I1102 05:21:38.973242  2955 net.cpp:150] Setting up conv14_2_mbox_loc_perm
I1102 05:21:38.973255  2955 net.cpp:157] Top shape: 8 5 5 24 (4800)
I1102 05:21:38.973259  2955 net.cpp:165] Memory required for data: 1292798656
I1102 05:21:38.973261  2955 layer_factory.hpp:77] Creating layer conv14_2_mbox_loc_flat
I1102 05:21:38.973268  2955 net.cpp:100] Creating Layer conv14_2_mbox_loc_flat
I1102 05:21:38.973274  2955 net.cpp:481] conv14_2_mbox_loc_flat <- conv14_2_mbox_loc_perm
I1102 05:21:38.973284  2955 net.cpp:455] conv14_2_mbox_loc_flat -> conv14_2_mbox_loc_flat
I1102 05:21:38.973331  2955 net.cpp:150] Setting up conv14_2_mbox_loc_flat
I1102 05:21:38.973345  2955 net.cpp:157] Top shape: 8 600 (4800)
I1102 05:21:38.973346  2955 net.cpp:165] Memory required for data: 1292817856
I1102 05:21:38.973350  2955 layer_factory.hpp:77] Creating layer conv14_2_mbox_conf_new
I1102 05:21:38.973361  2955 net.cpp:100] Creating Layer conv14_2_mbox_conf_new
I1102 05:21:38.973381  2955 net.cpp:481] conv14_2_mbox_conf_new <- conv14_2_conv14_2/relu_0_split_2
I1102 05:21:38.973387  2955 net.cpp:455] conv14_2_mbox_conf_new -> conv14_2_mbox_conf
I1102 05:21:38.977516  2955 net.cpp:150] Setting up conv14_2_mbox_conf_new
I1102 05:21:38.977537  2955 net.cpp:157] Top shape: 8 126 5 5 (25200)
I1102 05:21:38.977540  2955 net.cpp:165] Memory required for data: 1292918656
I1102 05:21:38.977546  2955 layer_factory.hpp:77] Creating layer conv14_2_mbox_conf_perm
I1102 05:21:38.977555  2955 net.cpp:100] Creating Layer conv14_2_mbox_conf_perm
I1102 05:21:38.977560  2955 net.cpp:481] conv14_2_mbox_conf_perm <- conv14_2_mbox_conf
I1102 05:21:38.977579  2955 net.cpp:455] conv14_2_mbox_conf_perm -> conv14_2_mbox_conf_perm
I1102 05:21:38.977783  2955 net.cpp:150] Setting up conv14_2_mbox_conf_perm
I1102 05:21:38.977800  2955 net.cpp:157] Top shape: 8 5 5 126 (25200)
I1102 05:21:38.977803  2955 net.cpp:165] Memory required for data: 1293019456
I1102 05:21:38.977807  2955 layer_factory.hpp:77] Creating layer conv14_2_mbox_conf_flat
I1102 05:21:38.977816  2955 net.cpp:100] Creating Layer conv14_2_mbox_conf_flat
I1102 05:21:38.977823  2955 net.cpp:481] conv14_2_mbox_conf_flat <- conv14_2_mbox_conf_perm
I1102 05:21:38.977829  2955 net.cpp:455] conv14_2_mbox_conf_flat -> conv14_2_mbox_conf_flat
I1102 05:21:38.977869  2955 net.cpp:150] Setting up conv14_2_mbox_conf_flat
I1102 05:21:38.977880  2955 net.cpp:157] Top shape: 8 3150 (25200)
I1102 05:21:38.977882  2955 net.cpp:165] Memory required for data: 1293120256
I1102 05:21:38.977885  2955 layer_factory.hpp:77] Creating layer conv14_2_mbox_priorbox
I1102 05:21:38.977905  2955 net.cpp:100] Creating Layer conv14_2_mbox_priorbox
I1102 05:21:38.977910  2955 net.cpp:481] conv14_2_mbox_priorbox <- conv14_2_conv14_2/relu_0_split_3
I1102 05:21:38.977916  2955 net.cpp:481] conv14_2_mbox_priorbox <- data_data_0_split_3
I1102 05:21:38.977924  2955 net.cpp:455] conv14_2_mbox_priorbox -> conv14_2_mbox_priorbox
I1102 05:21:38.977990  2955 net.cpp:150] Setting up conv14_2_mbox_priorbox
I1102 05:21:38.978001  2955 net.cpp:157] Top shape: 1 2 600 (1200)
I1102 05:21:38.978003  2955 net.cpp:165] Memory required for data: 1293125056
I1102 05:21:38.978006  2955 layer_factory.hpp:77] Creating layer conv15_2_mbox_loc
I1102 05:21:38.978032  2955 net.cpp:100] Creating Layer conv15_2_mbox_loc
I1102 05:21:38.978039  2955 net.cpp:481] conv15_2_mbox_loc <- conv15_2_conv15_2/relu_0_split_1
I1102 05:21:38.978047  2955 net.cpp:455] conv15_2_mbox_loc -> conv15_2_mbox_loc
I1102 05:21:38.980551  2955 net.cpp:150] Setting up conv15_2_mbox_loc
I1102 05:21:38.980571  2955 net.cpp:157] Top shape: 8 24 3 3 (1728)
I1102 05:21:38.980574  2955 net.cpp:165] Memory required for data: 1293131968
I1102 05:21:38.980581  2955 layer_factory.hpp:77] Creating layer conv15_2_mbox_loc_perm
I1102 05:21:38.980589  2955 net.cpp:100] Creating Layer conv15_2_mbox_loc_perm
I1102 05:21:38.980592  2955 net.cpp:481] conv15_2_mbox_loc_perm <- conv15_2_mbox_loc
I1102 05:21:38.980597  2955 net.cpp:455] conv15_2_mbox_loc_perm -> conv15_2_mbox_loc_perm
I1102 05:21:38.980796  2955 net.cpp:150] Setting up conv15_2_mbox_loc_perm
I1102 05:21:38.980823  2955 net.cpp:157] Top shape: 8 3 3 24 (1728)
I1102 05:21:38.980825  2955 net.cpp:165] Memory required for data: 1293138880
I1102 05:21:38.980844  2955 layer_factory.hpp:77] Creating layer conv15_2_mbox_loc_flat
I1102 05:21:38.980849  2955 net.cpp:100] Creating Layer conv15_2_mbox_loc_flat
I1102 05:21:38.980876  2955 net.cpp:481] conv15_2_mbox_loc_flat <- conv15_2_mbox_loc_perm
I1102 05:21:38.980885  2955 net.cpp:455] conv15_2_mbox_loc_flat -> conv15_2_mbox_loc_flat
I1102 05:21:38.980945  2955 net.cpp:150] Setting up conv15_2_mbox_loc_flat
I1102 05:21:38.980963  2955 net.cpp:157] Top shape: 8 216 (1728)
I1102 05:21:38.980967  2955 net.cpp:165] Memory required for data: 1293145792
I1102 05:21:38.980968  2955 layer_factory.hpp:77] Creating layer conv15_2_mbox_conf_new
I1102 05:21:38.980979  2955 net.cpp:100] Creating Layer conv15_2_mbox_conf_new
I1102 05:21:38.981011  2955 net.cpp:481] conv15_2_mbox_conf_new <- conv15_2_conv15_2/relu_0_split_2
I1102 05:21:38.981021  2955 net.cpp:455] conv15_2_mbox_conf_new -> conv15_2_mbox_conf
I1102 05:21:38.984664  2955 net.cpp:150] Setting up conv15_2_mbox_conf_new
I1102 05:21:38.984684  2955 net.cpp:157] Top shape: 8 126 3 3 (9072)
I1102 05:21:38.984688  2955 net.cpp:165] Memory required for data: 1293182080
I1102 05:21:38.984694  2955 layer_factory.hpp:77] Creating layer conv15_2_mbox_conf_perm
I1102 05:21:38.984700  2955 net.cpp:100] Creating Layer conv15_2_mbox_conf_perm
I1102 05:21:38.984704  2955 net.cpp:481] conv15_2_mbox_conf_perm <- conv15_2_mbox_conf
I1102 05:21:38.984710  2955 net.cpp:455] conv15_2_mbox_conf_perm -> conv15_2_mbox_conf_perm
I1102 05:21:38.984838  2955 net.cpp:150] Setting up conv15_2_mbox_conf_perm
I1102 05:21:38.984866  2955 net.cpp:157] Top shape: 8 3 3 126 (9072)
I1102 05:21:38.984870  2955 net.cpp:165] Memory required for data: 1293218368
I1102 05:21:38.984874  2955 layer_factory.hpp:77] Creating layer conv15_2_mbox_conf_flat
I1102 05:21:38.984879  2955 net.cpp:100] Creating Layer conv15_2_mbox_conf_flat
I1102 05:21:38.984884  2955 net.cpp:481] conv15_2_mbox_conf_flat <- conv15_2_mbox_conf_perm
I1102 05:21:38.984899  2955 net.cpp:455] conv15_2_mbox_conf_flat -> conv15_2_mbox_conf_flat
I1102 05:21:38.984944  2955 net.cpp:150] Setting up conv15_2_mbox_conf_flat
I1102 05:21:38.984971  2955 net.cpp:157] Top shape: 8 1134 (9072)
I1102 05:21:38.984973  2955 net.cpp:165] Memory required for data: 1293254656
I1102 05:21:38.984977  2955 layer_factory.hpp:77] Creating layer conv15_2_mbox_priorbox
I1102 05:21:38.984985  2955 net.cpp:100] Creating Layer conv15_2_mbox_priorbox
I1102 05:21:38.984992  2955 net.cpp:481] conv15_2_mbox_priorbox <- conv15_2_conv15_2/relu_0_split_3
I1102 05:21:38.984997  2955 net.cpp:481] conv15_2_mbox_priorbox <- data_data_0_split_4
I1102 05:21:38.985002  2955 net.cpp:455] conv15_2_mbox_priorbox -> conv15_2_mbox_priorbox
I1102 05:21:38.985033  2955 net.cpp:150] Setting up conv15_2_mbox_priorbox
I1102 05:21:38.985044  2955 net.cpp:157] Top shape: 1 2 216 (432)
I1102 05:21:38.985046  2955 net.cpp:165] Memory required for data: 1293256384
I1102 05:21:38.985050  2955 layer_factory.hpp:77] Creating layer conv16_2_mbox_loc
I1102 05:21:38.985064  2955 net.cpp:100] Creating Layer conv16_2_mbox_loc
I1102 05:21:38.985070  2955 net.cpp:481] conv16_2_mbox_loc <- conv16_2_conv16_2/relu_0_split_1
I1102 05:21:38.985105  2955 net.cpp:455] conv16_2_mbox_loc -> conv16_2_mbox_loc
I1102 05:21:38.987795  2955 net.cpp:150] Setting up conv16_2_mbox_loc
I1102 05:21:38.987817  2955 net.cpp:157] Top shape: 8 24 2 2 (768)
I1102 05:21:38.987819  2955 net.cpp:165] Memory required for data: 1293259456
I1102 05:21:38.987825  2955 layer_factory.hpp:77] Creating layer conv16_2_mbox_loc_perm
I1102 05:21:38.987833  2955 net.cpp:100] Creating Layer conv16_2_mbox_loc_perm
I1102 05:21:38.987838  2955 net.cpp:481] conv16_2_mbox_loc_perm <- conv16_2_mbox_loc
I1102 05:21:38.987843  2955 net.cpp:455] conv16_2_mbox_loc_perm -> conv16_2_mbox_loc_perm
I1102 05:21:38.987962  2955 net.cpp:150] Setting up conv16_2_mbox_loc_perm
I1102 05:21:38.987987  2955 net.cpp:157] Top shape: 8 2 2 24 (768)
I1102 05:21:38.987989  2955 net.cpp:165] Memory required for data: 1293262528
I1102 05:21:38.987993  2955 layer_factory.hpp:77] Creating layer conv16_2_mbox_loc_flat
I1102 05:21:38.987998  2955 net.cpp:100] Creating Layer conv16_2_mbox_loc_flat
I1102 05:21:38.988000  2955 net.cpp:481] conv16_2_mbox_loc_flat <- conv16_2_mbox_loc_perm
I1102 05:21:38.988008  2955 net.cpp:455] conv16_2_mbox_loc_flat -> conv16_2_mbox_loc_flat
I1102 05:21:38.988039  2955 net.cpp:150] Setting up conv16_2_mbox_loc_flat
I1102 05:21:38.988049  2955 net.cpp:157] Top shape: 8 96 (768)
I1102 05:21:38.988051  2955 net.cpp:165] Memory required for data: 1293265600
I1102 05:21:38.988054  2955 layer_factory.hpp:77] Creating layer conv16_2_mbox_conf_new
I1102 05:21:38.988067  2955 net.cpp:100] Creating Layer conv16_2_mbox_conf_new
I1102 05:21:38.988073  2955 net.cpp:481] conv16_2_mbox_conf_new <- conv16_2_conv16_2/relu_0_split_2
I1102 05:21:38.988097  2955 net.cpp:455] conv16_2_mbox_conf_new -> conv16_2_mbox_conf
I1102 05:21:38.990733  2955 net.cpp:150] Setting up conv16_2_mbox_conf_new
I1102 05:21:38.990754  2955 net.cpp:157] Top shape: 8 126 2 2 (4032)
I1102 05:21:38.990757  2955 net.cpp:165] Memory required for data: 1293281728
I1102 05:21:38.990763  2955 layer_factory.hpp:77] Creating layer conv16_2_mbox_conf_perm
I1102 05:21:38.990770  2955 net.cpp:100] Creating Layer conv16_2_mbox_conf_perm
I1102 05:21:38.990773  2955 net.cpp:481] conv16_2_mbox_conf_perm <- conv16_2_mbox_conf
I1102 05:21:38.990780  2955 net.cpp:455] conv16_2_mbox_conf_perm -> conv16_2_mbox_conf_perm
I1102 05:21:38.990898  2955 net.cpp:150] Setting up conv16_2_mbox_conf_perm
I1102 05:21:38.990913  2955 net.cpp:157] Top shape: 8 2 2 126 (4032)
I1102 05:21:38.990916  2955 net.cpp:165] Memory required for data: 1293297856
I1102 05:21:38.990919  2955 layer_factory.hpp:77] Creating layer conv16_2_mbox_conf_flat
I1102 05:21:38.990924  2955 net.cpp:100] Creating Layer conv16_2_mbox_conf_flat
I1102 05:21:38.990931  2955 net.cpp:481] conv16_2_mbox_conf_flat <- conv16_2_mbox_conf_perm
I1102 05:21:38.990936  2955 net.cpp:455] conv16_2_mbox_conf_flat -> conv16_2_mbox_conf_flat
I1102 05:21:38.990969  2955 net.cpp:150] Setting up conv16_2_mbox_conf_flat
I1102 05:21:38.990979  2955 net.cpp:157] Top shape: 8 504 (4032)
I1102 05:21:38.990981  2955 net.cpp:165] Memory required for data: 1293313984
I1102 05:21:38.990983  2955 layer_factory.hpp:77] Creating layer conv16_2_mbox_priorbox
I1102 05:21:38.990993  2955 net.cpp:100] Creating Layer conv16_2_mbox_priorbox
I1102 05:21:38.990995  2955 net.cpp:481] conv16_2_mbox_priorbox <- conv16_2_conv16_2/relu_0_split_3
I1102 05:21:38.990999  2955 net.cpp:481] conv16_2_mbox_priorbox <- data_data_0_split_5
I1102 05:21:38.991005  2955 net.cpp:455] conv16_2_mbox_priorbox -> conv16_2_mbox_priorbox
I1102 05:21:38.991035  2955 net.cpp:150] Setting up conv16_2_mbox_priorbox
I1102 05:21:38.991045  2955 net.cpp:157] Top shape: 1 2 96 (192)
I1102 05:21:38.991047  2955 net.cpp:165] Memory required for data: 1293314752
I1102 05:21:38.991050  2955 layer_factory.hpp:77] Creating layer conv17_2_mbox_loc
I1102 05:21:38.991062  2955 net.cpp:100] Creating Layer conv17_2_mbox_loc
I1102 05:21:38.991068  2955 net.cpp:481] conv17_2_mbox_loc <- conv17_2_conv17_2/relu_0_split_0
I1102 05:21:38.991075  2955 net.cpp:455] conv17_2_mbox_loc -> conv17_2_mbox_loc
I1102 05:21:38.993870  2955 net.cpp:150] Setting up conv17_2_mbox_loc
I1102 05:21:38.993890  2955 net.cpp:157] Top shape: 8 24 1 1 (192)
I1102 05:21:38.993892  2955 net.cpp:165] Memory required for data: 1293315520
I1102 05:21:38.993898  2955 layer_factory.hpp:77] Creating layer conv17_2_mbox_loc_perm
I1102 05:21:38.993906  2955 net.cpp:100] Creating Layer conv17_2_mbox_loc_perm
I1102 05:21:38.993911  2955 net.cpp:481] conv17_2_mbox_loc_perm <- conv17_2_mbox_loc
I1102 05:21:38.993916  2955 net.cpp:455] conv17_2_mbox_loc_perm -> conv17_2_mbox_loc_perm
I1102 05:21:38.994086  2955 net.cpp:150] Setting up conv17_2_mbox_loc_perm
I1102 05:21:38.994097  2955 net.cpp:157] Top shape: 8 1 1 24 (192)
I1102 05:21:38.994101  2955 net.cpp:165] Memory required for data: 1293316288
I1102 05:21:38.994102  2955 layer_factory.hpp:77] Creating layer conv17_2_mbox_loc_flat
I1102 05:21:38.994108  2955 net.cpp:100] Creating Layer conv17_2_mbox_loc_flat
I1102 05:21:38.994114  2955 net.cpp:481] conv17_2_mbox_loc_flat <- conv17_2_mbox_loc_perm
I1102 05:21:38.994120  2955 net.cpp:455] conv17_2_mbox_loc_flat -> conv17_2_mbox_loc_flat
I1102 05:21:38.994168  2955 net.cpp:150] Setting up conv17_2_mbox_loc_flat
I1102 05:21:38.994180  2955 net.cpp:157] Top shape: 8 24 (192)
I1102 05:21:38.994182  2955 net.cpp:165] Memory required for data: 1293317056
I1102 05:21:38.994184  2955 layer_factory.hpp:77] Creating layer conv17_2_mbox_conf_new
I1102 05:21:38.994195  2955 net.cpp:100] Creating Layer conv17_2_mbox_conf_new
I1102 05:21:38.994201  2955 net.cpp:481] conv17_2_mbox_conf_new <- conv17_2_conv17_2/relu_0_split_1
I1102 05:21:38.994225  2955 net.cpp:455] conv17_2_mbox_conf_new -> conv17_2_mbox_conf
I1102 05:21:38.996779  2955 net.cpp:150] Setting up conv17_2_mbox_conf_new
I1102 05:21:38.996801  2955 net.cpp:157] Top shape: 8 126 1 1 (1008)
I1102 05:21:38.996804  2955 net.cpp:165] Memory required for data: 1293321088
I1102 05:21:38.996810  2955 layer_factory.hpp:77] Creating layer conv17_2_mbox_conf_perm
I1102 05:21:38.996816  2955 net.cpp:100] Creating Layer conv17_2_mbox_conf_perm
I1102 05:21:38.996820  2955 net.cpp:481] conv17_2_mbox_conf_perm <- conv17_2_mbox_conf
I1102 05:21:38.996826  2955 net.cpp:455] conv17_2_mbox_conf_perm -> conv17_2_mbox_conf_perm
I1102 05:21:38.996953  2955 net.cpp:150] Setting up conv17_2_mbox_conf_perm
I1102 05:21:38.996970  2955 net.cpp:157] Top shape: 8 1 1 126 (1008)
I1102 05:21:38.996973  2955 net.cpp:165] Memory required for data: 1293325120
I1102 05:21:38.996975  2955 layer_factory.hpp:77] Creating layer conv17_2_mbox_conf_flat
I1102 05:21:38.996980  2955 net.cpp:100] Creating Layer conv17_2_mbox_conf_flat
I1102 05:21:38.996984  2955 net.cpp:481] conv17_2_mbox_conf_flat <- conv17_2_mbox_conf_perm
I1102 05:21:38.996991  2955 net.cpp:455] conv17_2_mbox_conf_flat -> conv17_2_mbox_conf_flat
I1102 05:21:38.997038  2955 net.cpp:150] Setting up conv17_2_mbox_conf_flat
I1102 05:21:38.997054  2955 net.cpp:157] Top shape: 8 126 (1008)
I1102 05:21:38.997057  2955 net.cpp:165] Memory required for data: 1293329152
I1102 05:21:38.997059  2955 layer_factory.hpp:77] Creating layer conv17_2_mbox_priorbox
I1102 05:21:38.997068  2955 net.cpp:100] Creating Layer conv17_2_mbox_priorbox
I1102 05:21:38.997089  2955 net.cpp:481] conv17_2_mbox_priorbox <- conv17_2_conv17_2/relu_0_split_2
I1102 05:21:38.997093  2955 net.cpp:481] conv17_2_mbox_priorbox <- data_data_0_split_6
I1102 05:21:38.997102  2955 net.cpp:455] conv17_2_mbox_priorbox -> conv17_2_mbox_priorbox
I1102 05:21:38.997169  2955 net.cpp:150] Setting up conv17_2_mbox_priorbox
I1102 05:21:38.997179  2955 net.cpp:157] Top shape: 1 2 24 (48)
I1102 05:21:38.997180  2955 net.cpp:165] Memory required for data: 1293329344
I1102 05:21:38.997184  2955 layer_factory.hpp:77] Creating layer mbox_loc
I1102 05:21:38.997208  2955 net.cpp:100] Creating Layer mbox_loc
I1102 05:21:38.997226  2955 net.cpp:481] mbox_loc <- conv11_mbox_loc_flat
I1102 05:21:38.997231  2955 net.cpp:481] mbox_loc <- conv13_mbox_loc_flat
I1102 05:21:38.997234  2955 net.cpp:481] mbox_loc <- conv14_2_mbox_loc_flat
I1102 05:21:38.997249  2955 net.cpp:481] mbox_loc <- conv15_2_mbox_loc_flat
I1102 05:21:38.997256  2955 net.cpp:481] mbox_loc <- conv16_2_mbox_loc_flat
I1102 05:21:38.997258  2955 net.cpp:481] mbox_loc <- conv17_2_mbox_loc_flat
I1102 05:21:38.997265  2955 net.cpp:455] mbox_loc -> mbox_loc
I1102 05:21:38.997318  2955 net.cpp:150] Setting up mbox_loc
I1102 05:21:38.997341  2955 net.cpp:157] Top shape: 8 7668 (61344)
I1102 05:21:38.997362  2955 net.cpp:165] Memory required for data: 1293574720
I1102 05:21:38.997365  2955 layer_factory.hpp:77] Creating layer mbox_conf
I1102 05:21:38.997388  2955 net.cpp:100] Creating Layer mbox_conf
I1102 05:21:38.997395  2955 net.cpp:481] mbox_conf <- conv11_mbox_conf_flat
I1102 05:21:38.997400  2955 net.cpp:481] mbox_conf <- conv13_mbox_conf_flat
I1102 05:21:38.997440  2955 net.cpp:481] mbox_conf <- conv14_2_mbox_conf_flat
I1102 05:21:38.997447  2955 net.cpp:481] mbox_conf <- conv15_2_mbox_conf_flat
I1102 05:21:38.997449  2955 net.cpp:481] mbox_conf <- conv16_2_mbox_conf_flat
I1102 05:21:38.997452  2955 net.cpp:481] mbox_conf <- conv17_2_mbox_conf_flat
I1102 05:21:38.997457  2955 net.cpp:455] mbox_conf -> mbox_conf
I1102 05:21:38.997486  2955 net.cpp:150] Setting up mbox_conf
I1102 05:21:38.997503  2955 net.cpp:157] Top shape: 8 40257 (322056)
I1102 05:21:38.997505  2955 net.cpp:165] Memory required for data: 1294862944
I1102 05:21:38.997509  2955 layer_factory.hpp:77] Creating layer mbox_priorbox
I1102 05:21:38.997514  2955 net.cpp:100] Creating Layer mbox_priorbox
I1102 05:21:38.997517  2955 net.cpp:481] mbox_priorbox <- conv11_mbox_priorbox
I1102 05:21:38.997561  2955 net.cpp:481] mbox_priorbox <- conv13_mbox_priorbox
I1102 05:21:38.997582  2955 net.cpp:481] mbox_priorbox <- conv14_2_mbox_priorbox
I1102 05:21:38.997586  2955 net.cpp:481] mbox_priorbox <- conv15_2_mbox_priorbox
I1102 05:21:38.997589  2955 net.cpp:481] mbox_priorbox <- conv16_2_mbox_priorbox
I1102 05:21:38.997611  2955 net.cpp:481] mbox_priorbox <- conv17_2_mbox_priorbox
I1102 05:21:38.997617  2955 net.cpp:455] mbox_priorbox -> mbox_priorbox
I1102 05:21:38.997649  2955 net.cpp:150] Setting up mbox_priorbox
I1102 05:21:38.997674  2955 net.cpp:157] Top shape: 1 2 7668 (15336)
I1102 05:21:38.997676  2955 net.cpp:165] Memory required for data: 1294924288
I1102 05:21:38.997679  2955 layer_factory.hpp:77] Creating layer mbox_conf_reshape
I1102 05:21:38.997686  2955 net.cpp:100] Creating Layer mbox_conf_reshape
I1102 05:21:38.997692  2955 net.cpp:481] mbox_conf_reshape <- mbox_conf
I1102 05:21:38.997699  2955 net.cpp:455] mbox_conf_reshape -> mbox_conf_reshape
I1102 05:21:38.997759  2955 net.cpp:150] Setting up mbox_conf_reshape
I1102 05:21:38.997769  2955 net.cpp:157] Top shape: 8 1917 21 (322056)
I1102 05:21:38.997779  2955 net.cpp:165] Memory required for data: 1296212512
I1102 05:21:38.997782  2955 layer_factory.hpp:77] Creating layer mbox_conf_softmax
I1102 05:21:38.997789  2955 net.cpp:100] Creating Layer mbox_conf_softmax
I1102 05:21:38.997793  2955 net.cpp:481] mbox_conf_softmax <- mbox_conf_reshape
I1102 05:21:38.997799  2955 net.cpp:455] mbox_conf_softmax -> mbox_conf_softmax
I1102 05:21:38.998852  2955 net.cpp:150] Setting up mbox_conf_softmax
I1102 05:21:38.998872  2955 net.cpp:157] Top shape: 8 1917 21 (322056)
I1102 05:21:38.998874  2955 net.cpp:165] Memory required for data: 1297500736
I1102 05:21:38.998878  2955 layer_factory.hpp:77] Creating layer mbox_conf_flatten
I1102 05:21:38.998885  2955 net.cpp:100] Creating Layer mbox_conf_flatten
I1102 05:21:38.998889  2955 net.cpp:481] mbox_conf_flatten <- mbox_conf_softmax
I1102 05:21:38.998895  2955 net.cpp:455] mbox_conf_flatten -> mbox_conf_flatten
I1102 05:21:38.998946  2955 net.cpp:150] Setting up mbox_conf_flatten
I1102 05:21:38.998961  2955 net.cpp:157] Top shape: 8 40257 (322056)
I1102 05:21:38.998963  2955 net.cpp:165] Memory required for data: 1298788960
I1102 05:21:38.998966  2955 layer_factory.hpp:77] Creating layer detection_out
I1102 05:21:38.998981  2955 net.cpp:100] Creating Layer detection_out
I1102 05:21:38.998987  2955 net.cpp:481] detection_out <- mbox_loc
I1102 05:21:38.998992  2955 net.cpp:481] detection_out <- mbox_conf_flatten
I1102 05:21:38.998996  2955 net.cpp:481] detection_out <- mbox_priorbox
I1102 05:21:38.999002  2955 net.cpp:455] detection_out -> detection_out
I1102 05:21:38.999074  2955 net.cpp:150] Setting up detection_out
I1102 05:21:38.999084  2955 net.cpp:157] Top shape: 1 1 1 7 (7)
I1102 05:21:38.999088  2955 net.cpp:165] Memory required for data: 1298788988
I1102 05:21:38.999089  2955 layer_factory.hpp:77] Creating layer detection_eval
I1102 05:21:38.999099  2955 net.cpp:100] Creating Layer detection_eval
I1102 05:21:38.999104  2955 net.cpp:481] detection_eval <- detection_out
I1102 05:21:38.999107  2955 net.cpp:481] detection_eval <- label
I1102 05:21:38.999116  2955 net.cpp:455] detection_eval -> detection_eval
I1102 05:21:38.999173  2955 net.cpp:150] Setting up detection_eval
I1102 05:21:38.999184  2955 net.cpp:157] Top shape: 1 1 21 5 (105)
I1102 05:21:38.999186  2955 net.cpp:165] Memory required for data: 1298789408
I1102 05:21:38.999188  2955 net.cpp:228] detection_eval does not need backward computation.
I1102 05:21:38.999199  2955 net.cpp:228] detection_out does not need backward computation.
I1102 05:21:38.999203  2955 net.cpp:228] mbox_conf_flatten does not need backward computation.
I1102 05:21:38.999207  2955 net.cpp:228] mbox_conf_softmax does not need backward computation.
…
      sampler {
        min_scale: 0.3
        max_scale: 1
        min_aspect_ratio: 0.5
        max_aspect_ratio: 2
      }
      sample_constraint {
        min_jaccard_overlap: 0.9
      }
      max_sample: 1
      max_trials: 50
    }
    batch_sampler {
      sampler {
        min_scale: 0.3
        max_scale: 1
        min_aspect_ratio: 0.5
        max_aspect_ratio: 2
      }
      sample_constraint {
        max_jaccard_overlap: 1
      }
      max_sample: 1
      max_trials: 50
    }
    label_map_file: "data/VOC0712/labelmap_voc.prototxt"
  }
}
layer {
  name: "conv0"
  type: "Convolution"
  bottom: "data"
  top: "conv0"
  param {
    lr_mult: 0.1
    decay_mult: 0.1
  }
  include {
    phase: TRAIN
  }
  convolution_param {
    num_output: 32
    bias_term: false
    pad: 1
    kernel_size: 3
    stride: 2
    weight_filler {
      type: "msra"
    }
  }
}
layer {
  name: "conv0/bn"
  type: "BatchNorm"
  bottom: "conv0"
  top: "conv0"
}
layer {
  name: "conv0/scale"
  type: "Scale"
  bottom: "conv0"
  top: "conv0"
  param {
    lr_mult: 0.1
    decay_mult: 0
  }
  param {
    lr_mult: 0.2
    decay_mult: 0
  }
  include {
    phase: TRAIN
  }
  scale_param {
    filler {
      value: 1
    }
    bias_term: true
    bias_filler {
      value: 0
    }
  }
}
layer {
  name: "conv0/relu"
  type: "ReLU"
  bottom: "conv0"
  top: "conv0"
}
layer {
  name: "conv1/dw"
  type: "Convolution"
  bottom: "conv0"
  top: "conv1/dw"
  param {
    lr_mult: 0.1
    decay_mult: 0.1
  }
  include {
    phase: TRAIN
  }
  convolution_param {
    num_output: 32
    bias_term: false
    pad: 1
    kernel_size: 3
    group: 32
    weight_filler {
      type: "msra"
    }
    engine: CAFFE
  }
}
layer {
  name: "conv1/dw/bn"
  type: "BatchNorm"
  bottom: "conv1/dw"
  top: "conv1/dw"
}
layer {
  name: "conv1/dw/scale"
  type: "Scale"
  bottom: "conv1/dw"
  top: "conv1/dw"
  param {
    lr_mult: 0.1
    decay_mult: 0
  }
  param {
    lr_mult: 0.2
    decay_mult: 0
  }
  include {
    phase: TRAIN
  }
  scale_param {
    filler {
      value: 1
    }
    bias_term: true
    bias_filler {
      value: 0
    }
  }
}
layer {
  name: "conv1/dw/relu"
  type: "ReLU"
  bottom: "conv1/dw"
  top: "conv1/dw"
}
layer {
  name: "conv1"
  type: "Convolution"
  bottom: "conv1/dw"
  top: "conv1"
  param {
    lr_mult: 0.1
    decay_mult: 0.1
  }
  include {
    phase: TRAIN
  }
  convolution_param {
    num_output: 64
    bias_term: false
    kernel_size: 1
    weight_filler {
      type: "msra"
    }
  }
}
layer {
  name: "conv1/bn"
  type: "BatchNorm"
  bottom: "conv1"
  top: "conv1"
}
layer {
  name: "conv1/scale"
  type: "Scale"
  bottom: "conv1"
  top: "conv1"
  param {
    lr_mult: 0.1
    decay_mult: 0
  }
  param {
    lr_mult: 0.2
    decay_mult: 0
  }
  include {
    phase: TRAIN
  }
  scale_param {
    filler {
      value: 1
    }
    bias_term: true
    bias_filler {
      value: 0
    }
  }
}
layer {
  name: "conv1/relu"
  type: "ReLU"
  bottom: "conv1"
  top: "conv1"
}
layer {
  name: "conv2/dw"
  type: "Convolution"
  bottom: "conv1"
  top: "conv2/dw"
  param {
    lr_mult: 0.1
    decay_mult: 0.1
  }
  include {
    phase: TRAIN
  }
  convolution_param {
    num_output: 64
    bias_term: false
    pad: 1
    kernel_size: 3
    group: 64
    stride: 2
    weight_filler {
      type: "msra"
    }
    engine: CAFFE
  }
}
layer {
  name: "conv2/dw/bn"
  type: "BatchNorm"
  bottom: "conv2/dw"
  top: "conv2/dw"
}
layer {
  name: "conv2/dw/scale"
  type: "Scale"
  bottom: "conv2/dw"
  top: "conv2/dw"
  param {
    lr_mult: 0.1
    decay_mult: 0
  }
  param {
    lr_mult: 0.2
    decay_mult: 0
  }
  include {
    phase: TRAIN
  }
  scale_param {
    filler {
      value: 1
    }
    bias_term: true
    bias_filler {
      value: 0
    }
  }
}
layer {
  name: "conv2/dw/relu"
  type: "ReLU"
  bottom: "conv2/dw"
  top: "conv2/dw"
}
layer {
  name: "conv2"
  type: "Convolution"
  bottom: "conv2/dw"
  top: "conv2"
  param {
    lr_mult: 0.1
    decay_mult: 0.1
  }
  include {
    phase: TRAIN
  }
  convolution_param {
    num_output: 128
    bias_term: false
    kernel_size: 1
    weight_filler {
      type: "msra"
    }
  }
}
layer {
  name: "conv2/bn"
  type: "BatchNorm"
  bottom: "conv2"
  top: "conv2"
}
layer {
  name: "conv2/scale"
  type: "Scale"
  bottom: "conv2"
  top: "conv2"
  param {
    lr_mult: 0.1
    decay_mult: 0
  }
  param {
    lr_mult: 0.2
    decay_mult: 0
  }
  include {
    phase: TRAIN
  }
  scale_param {
    filler {
      value: 1
    }
    bias_term: true
    bias_filler {
      value: 0
    }
  }
}
layer {
  name: "conv2/relu"
  type: "ReLU"
  bottom: "conv2"
  top: "conv2"
}
layer {
  name: "conv3/dw"
  type: "Convolution"
  bottom: "conv2"
  top: "conv3/dw"
  param {
    lr_mult: 0.1
    decay_mult: 0.1
  }
  include {
    phase: TRAIN
  }
  convolution_param {
    num_output: 128
    bias_term: false
    pad: 1
    kernel_size: 3
    group: 128
    weight_filler {
      type: "msra"
    }
    engine: CAFFE
  }
}
layer {
  name: "conv3/dw/bn"
  type: "BatchNorm"
  bottom: "conv3/dw"
  top: "conv3/dw"
}
layer {
  name: "conv3/dw/scale"
  type: "Scale"
  bottom: "conv3/dw"
  top: "conv3/dw"
  param {
    lr_mult: 0.1
    decay_mult: 0
  }
  param {
    lr_mult: 0.2
    decay_mult: 0
  }
  include {
    phase: TRAIN
  }
  scale_param {
    filler {
      value: 1
    }
    bias_term: true
    bias_filler {
      value: 0
    }
  }
}
layer {
  name: "conv3/dw/relu"
  type: "ReLU"
  bottom: "conv3/dw"
  top: "conv3/dw"
}
layer {
  name: "conv3"
  type: "Convolution"
  bottom: "conv3/dw"
  top: "conv3"
  param {
    lr_mult: 0.1
    decay_mult: 0.1
  }
  include {
    phase: TRAIN
  }
  convolution_param {
    num_output: 128
    bias_term: false
    kernel_size: 1
    weight_filler {
      type: "msra"
    }
  }
}
layer {
  name: "conv3/bn"
  type: "BatchNorm"
  bottom: "conv3"
  top: "conv3"
}
layer {
  name: "conv3/scale"
  type: "Scale"
  bottom: "conv3"
  top: "conv3"
  param {
    lr_mult: 0.1
    decay_mult: 0
  }
  param {
    lr_mult: 0.2
    decay_mult: 0
  }
  include {
    phase: TRAIN
  }
  scale_param {
    filler {
      value: 1
    }
    bias_term: true
    bias_filler {
      value: 0
    }
  }
}
layer {
  name: "conv3/relu"
  type: "ReLU"
  bottom: "conv3"
  top: "conv3"
}
layer {
  name: "conv4/dw"
  type: "Convolution"
  bottom: "conv3"
  top: "conv4/dw"
  param {
    lr_mult: 0.1
    decay_mult: 0.1
  }
  include {
    phase: TRAIN
  }
  convolution_param {
    num_output: 128
    bias_term: false
    pad: 1
    kernel_size: 3
    group: 128
    stride: 2
    weight_filler {
      type: "msra"
    }
    engine: CAFFE
  }
}
layer {
  name: "conv4/dw/bn"
  type: "BatchNorm"
  bottom: "conv4/dw"
  top: "conv4/dw"
}
layer {
  name: "conv4/dw/scale"
  type: "Scale"
  bottom: "conv4/dw"
  top: "conv4/dw"
  param {
    lr_mult: 0.1
    decay_mult: 0
  }
  param {
    lr_mult: 0.2
    decay_mult: 0
  }
  include {
    phase: TRAIN
  }
  scale_param {
    filler {
      value: 1
    }
    bias_term: true
    bias_filler {
      value: 0
    }
  }
}
layer {
  name: "conv4/dw/relu"
  type: "ReLU"
  bottom: "conv4/dw"
  top: "conv4/dw"
}
layer {
  name: "conv4"
  type: "Convolution"
  bottom: "conv4/dw"
  top: "conv4"
  param {
    lr_mult: 0.1
    decay_mult: 0.1
  }
  include {
    phase: TRAIN
  }
  convolution_param {
    num_output: 256
    bias_term: false
    kernel_size: 1
    weight_filler {
      type: "msra"
    }
  }
}
layer {
  name: "conv4/bn"
  type: "BatchNorm"
  bottom: "conv4"
  top: "conv4"
}
layer {
  name: "conv4/scale"
  type: "Scale"
  bottom: "conv4"
  top: "conv4"
  param {
    lr_mult: 0.1
    decay_mult: 0
  }
  param {
    lr_mult: 0.2
    decay_mult: 0
  }
  include {
    phase: TRAIN
  }
  scale_param {
    filler {
      value: 1
    }
    bias_term: true
    bias_filler {
      value: 0
    }
  }
}
layer {
  name: "conv4/relu"
  type: "ReLU"
  bottom: "conv4"
  top: "conv4"
}
layer {
  name: "conv5/dw"
  type: "Convolution"
  bottom: "conv4"
  top: "conv5/dw"
  param {
    lr_mult: 0.1
    decay_mult: 0.1
  }
  include {
    phase: TRAIN
  }
  convolution_param {
    num_output: 256
    bias_term: false
    pad: 1
    kernel_size: 3
    group: 256
    weight_filler {
      type: "msra"
    }
    engine: CAFFE
  }
}
layer {
  name: "conv5/dw/bn"
  type: "BatchNorm"
  bottom: "conv5/dw"
  top: "conv5/dw"
}
layer {
  name: "conv5/dw/scale"
  type: "Scale"
  bottom: "conv5/dw"
  top: "conv5/dw"
  param {
    lr_mult: 0.1
    decay_mult: 0
  }
  param {
    lr_mult: 0.2
    decay_mult: 0
  }
  include {
    phase: TRAIN
  }
  scale_param {
    filler {
      value: 1
    }
    bias_term: true
    bias_filler {
      value: 0
    }
  }
}
layer {
  name: "conv5/dw/relu"
  type: "ReLU"
  bottom: "conv5/dw"
  top: "conv5/dw"
}
layer {
  name: "conv5"
  type: "Convolution"
  bottom: "conv5/dw"
  top: "conv5"
  param {
    lr_mult: 0.1
    decay_mult: 0.1
  }
  include {
    phase: TRAIN
  }
  convolution_param {
    num_output: 256
    bias_term: false
    kernel_size: 1
    weight_filler {
      type: "msra"
    }
  }
}
layer {
  name: "conv5/bn"
  type: "BatchNorm"
  bottom: "conv5"
  top: "conv5"
}
layer {
  name: "conv5/scale"
  type: "Scale"
  bottom: "conv5"
  top: "conv5"
  param {
    lr_mult: 0.1
    decay_mult: 0
  }
  param {
    lr_mult: 0.2
    decay_mult: 0
…
I1102 05:22:26.731148  2955 net.cpp:157] Top shape: 24 1024 10 10 (2457600)
I1102 05:22:26.731150  2955 net.cpp:165] Memory required for data: 3792777248
I1102 05:22:26.731156  2955 layer_factory.hpp:77] Creating layer conv13/relu
I1102 05:22:26.731163  2955 net.cpp:100] Creating Layer conv13/relu
I1102 05:22:26.731165  2955 net.cpp:481] conv13/relu <- conv13
I1102 05:22:26.731170  2955 net.cpp:442] conv13/relu -> conv13 (in-place)
I1102 05:22:26.731490  2955 net.cpp:150] Setting up conv13/relu
I1102 05:22:26.731506  2955 net.cpp:157] Top shape: 24 1024 10 10 (2457600)
I1102 05:22:26.731510  2955 net.cpp:165] Memory required for data: 3802607648
I1102 05:22:26.731513  2955 layer_factory.hpp:77] Creating layer conv13_conv13/relu_0_split
I1102 05:22:26.731520  2955 net.cpp:100] Creating Layer conv13_conv13/relu_0_split
I1102 05:22:26.731523  2955 net.cpp:481] conv13_conv13/relu_0_split <- conv13
I1102 05:22:26.731530  2955 net.cpp:455] conv13_conv13/relu_0_split -> conv13_conv13/relu_0_split_0
I1102 05:22:26.731554  2955 net.cpp:455] conv13_conv13/relu_0_split -> conv13_conv13/relu_0_split_1
I1102 05:22:26.731562  2955 net.cpp:455] conv13_conv13/relu_0_split -> conv13_conv13/relu_0_split_2
I1102 05:22:26.731568  2955 net.cpp:455] conv13_conv13/relu_0_split -> conv13_conv13/relu_0_split_3
I1102 05:22:26.731639  2955 net.cpp:150] Setting up conv13_conv13/relu_0_split
I1102 05:22:26.731650  2955 net.cpp:157] Top shape: 24 1024 10 10 (2457600)
I1102 05:22:26.731653  2955 net.cpp:157] Top shape: 24 1024 10 10 (2457600)
I1102 05:22:26.731657  2955 net.cpp:157] Top shape: 24 1024 10 10 (2457600)
I1102 05:22:26.731660  2955 net.cpp:157] Top shape: 24 1024 10 10 (2457600)
I1102 05:22:26.731662  2955 net.cpp:165] Memory required for data: 3841929248
I1102 05:22:26.731665  2955 layer_factory.hpp:77] Creating layer conv14_1
I1102 05:22:26.731684  2955 net.cpp:100] Creating Layer conv14_1
I1102 05:22:26.731695  2955 net.cpp:481] conv14_1 <- conv13_conv13/relu_0_split_0
I1102 05:22:26.731706  2955 net.cpp:455] conv14_1 -> conv14_1
I1102 05:22:26.737910  2955 net.cpp:150] Setting up conv14_1
I1102 05:22:26.737934  2955 net.cpp:157] Top shape: 24 256 10 10 (614400)
I1102 05:22:26.737938  2955 net.cpp:165] Memory required for data: 3844386848
I1102 05:22:26.737944  2955 layer_factory.hpp:77] Creating layer conv14_1/bn
I1102 05:22:26.737952  2955 net.cpp:100] Creating Layer conv14_1/bn
I1102 05:22:26.737956  2955 net.cpp:481] conv14_1/bn <- conv14_1
I1102 05:22:26.737962  2955 net.cpp:442] conv14_1/bn -> conv14_1 (in-place)
I1102 05:22:26.738204  2955 net.cpp:150] Setting up conv14_1/bn
I1102 05:22:26.738219  2955 net.cpp:157] Top shape: 24 256 10 10 (614400)
I1102 05:22:26.738222  2955 net.cpp:165] Memory required for data: 3846844448
I1102 05:22:26.738245  2955 layer_factory.hpp:77] Creating layer conv14_1/scale
I1102 05:22:26.738270  2955 net.cpp:100] Creating Layer conv14_1/scale
I1102 05:22:26.738304  2955 net.cpp:481] conv14_1/scale <- conv14_1
I1102 05:22:26.738312  2955 net.cpp:442] conv14_1/scale -> conv14_1 (in-place)
I1102 05:22:26.738366  2955 layer_factory.hpp:77] Creating layer conv14_1/scale
I1102 05:22:26.738503  2955 net.cpp:150] Setting up conv14_1/scale
I1102 05:22:26.738517  2955 net.cpp:157] Top shape: 24 256 10 10 (614400)
I1102 05:22:26.738519  2955 net.cpp:165] Memory required for data: 3849302048
I1102 05:22:26.738525  2955 layer_factory.hpp:77] Creating layer conv14_1/relu
I1102 05:22:26.738531  2955 net.cpp:100] Creating Layer conv14_1/relu
I1102 05:22:26.738534  2955 net.cpp:481] conv14_1/relu <- conv14_1
I1102 05:22:26.738539  2955 net.cpp:442] conv14_1/relu -> conv14_1 (in-place)
I1102 05:22:26.739601  2955 net.cpp:150] Setting up conv14_1/relu
I1102 05:22:26.739621  2955 net.cpp:157] Top shape: 24 256 10 10 (614400)
I1102 05:22:26.739625  2955 net.cpp:165] Memory required for data: 3851759648
I1102 05:22:26.739629  2955 layer_factory.hpp:77] Creating layer conv14_2
I1102 05:22:26.739641  2955 net.cpp:100] Creating Layer conv14_2
I1102 05:22:26.739648  2955 net.cpp:481] conv14_2 <- conv14_1
I1102 05:22:26.739655  2955 net.cpp:455] conv14_2 -> conv14_2
I1102 05:22:26.757043  2955 net.cpp:150] Setting up conv14_2
I1102 05:22:26.757066  2955 net.cpp:157] Top shape: 24 512 5 5 (307200)
I1102 05:22:26.757069  2955 net.cpp:165] Memory required for data: 3852988448
I1102 05:22:26.757074  2955 layer_factory.hpp:77] Creating layer conv14_2/bn
I1102 05:22:26.757082  2955 net.cpp:100] Creating Layer conv14_2/bn
I1102 05:22:26.757086  2955 net.cpp:481] conv14_2/bn <- conv14_2
I1102 05:22:26.757091  2955 net.cpp:442] conv14_2/bn -> conv14_2 (in-place)
I1102 05:22:26.757335  2955 net.cpp:150] Setting up conv14_2/bn
I1102 05:22:26.757349  2955 net.cpp:157] Top shape: 24 512 5 5 (307200)
I1102 05:22:26.757351  2955 net.cpp:165] Memory required for data: 3854217248
I1102 05:22:26.757359  2955 layer_factory.hpp:77] Creating layer conv14_2/scale
I1102 05:22:26.757366  2955 net.cpp:100] Creating Layer conv14_2/scale
I1102 05:22:26.757374  2955 net.cpp:481] conv14_2/scale <- conv14_2
I1102 05:22:26.757380  2955 net.cpp:442] conv14_2/scale -> conv14_2 (in-place)
I1102 05:22:26.757432  2955 layer_factory.hpp:77] Creating layer conv14_2/scale
I1102 05:22:26.757555  2955 net.cpp:150] Setting up conv14_2/scale
I1102 05:22:26.757566  2955 net.cpp:157] Top shape: 24 512 5 5 (307200)
I1102 05:22:26.757570  2955 net.cpp:165] Memory required for data: 3855446048
I1102 05:22:26.757575  2955 layer_factory.hpp:77] Creating layer conv14_2/relu
I1102 05:22:26.757580  2955 net.cpp:100] Creating Layer conv14_2/relu
I1102 05:22:26.757586  2955 net.cpp:481] conv14_2/relu <- conv14_2
I1102 05:22:26.757591  2955 net.cpp:442] conv14_2/relu -> conv14_2 (in-place)
I1102 05:22:26.757889  2955 net.cpp:150] Setting up conv14_2/relu
I1102 05:22:26.757905  2955 net.cpp:157] Top shape: 24 512 5 5 (307200)
I1102 05:22:26.757910  2955 net.cpp:165] Memory required for data: 3856674848
I1102 05:22:26.757912  2955 layer_factory.hpp:77] Creating layer conv14_2_conv14_2/relu_0_split
I1102 05:22:26.757920  2955 net.cpp:100] Creating Layer conv14_2_conv14_2/relu_0_split
I1102 05:22:26.757922  2955 net.cpp:481] conv14_2_conv14_2/relu_0_split <- conv14_2
I1102 05:22:26.757928  2955 net.cpp:455] conv14_2_conv14_2/relu_0_split -> conv14_2_conv14_2/relu_0_split_0
I1102 05:22:26.757936  2955 net.cpp:455] conv14_2_conv14_2/relu_0_split -> conv14_2_conv14_2/relu_0_split_1
I1102 05:22:26.757941  2955 net.cpp:455] conv14_2_conv14_2/relu_0_split -> conv14_2_conv14_2/relu_0_split_2
I1102 05:22:26.757947  2955 net.cpp:455] conv14_2_conv14_2/relu_0_split -> conv14_2_conv14_2/relu_0_split_3
I1102 05:22:26.758014  2955 net.cpp:150] Setting up conv14_2_conv14_2/relu_0_split
I1102 05:22:26.758024  2955 net.cpp:157] Top shape: 24 512 5 5 (307200)
I1102 05:22:26.758028  2955 net.cpp:157] Top shape: 24 512 5 5 (307200)
I1102 05:22:26.758030  2955 net.cpp:157] Top shape: 24 512 5 5 (307200)
I1102 05:22:26.758033  2955 net.cpp:157] Top shape: 24 512 5 5 (307200)
I1102 05:22:26.758050  2955 net.cpp:165] Memory required for data: 3861590048
I1102 05:22:26.758054  2955 layer_factory.hpp:77] Creating layer conv15_1
I1102 05:22:26.758064  2955 net.cpp:100] Creating Layer conv15_1
I1102 05:22:26.758070  2955 net.cpp:481] conv15_1 <- conv14_2_conv14_2/relu_0_split_0
I1102 05:22:26.758077  2955 net.cpp:455] conv15_1 -> conv15_1
I1102 05:22:26.761312  2955 net.cpp:150] Setting up conv15_1
I1102 05:22:26.761334  2955 net.cpp:157] Top shape: 24 128 5 5 (76800)
I1102 05:22:26.761338  2955 net.cpp:165] Memory required for data: 3861897248
I1102 05:22:26.761358  2955 layer_factory.hpp:77] Creating layer conv15_1/bn
I1102 05:22:26.761368  2955 net.cpp:100] Creating Layer conv15_1/bn
I1102 05:22:26.761371  2955 net.cpp:481] conv15_1/bn <- conv15_1
I1102 05:22:26.761378  2955 net.cpp:442] conv15_1/bn -> conv15_1 (in-place)
I1102 05:22:26.761626  2955 net.cpp:150] Setting up conv15_1/bn
I1102 05:22:26.761638  2955 net.cpp:157] Top shape: 24 128 5 5 (76800)
I1102 05:22:26.761641  2955 net.cpp:165] Memory required for data: 3862204448
I1102 05:22:26.761648  2955 layer_factory.hpp:77] Creating layer conv15_1/scale
I1102 05:22:26.761662  2955 net.cpp:100] Creating Layer conv15_1/scale
I1102 05:22:26.761668  2955 net.cpp:481] conv15_1/scale <- conv15_1
I1102 05:22:26.761673  2955 net.cpp:442] conv15_1/scale -> conv15_1 (in-place)
I1102 05:22:26.761739  2955 layer_factory.hpp:77] Creating layer conv15_1/scale
I1102 05:22:26.761855  2955 net.cpp:150] Setting up conv15_1/scale
I1102 05:22:26.761867  2955 net.cpp:157] Top shape: 24 128 5 5 (76800)
I1102 05:22:26.761869  2955 net.cpp:165] Memory required for data: 3862511648
I1102 05:22:26.761874  2955 layer_factory.hpp:77] Creating layer conv15_1/relu
I1102 05:22:26.761880  2955 net.cpp:100] Creating Layer conv15_1/relu
I1102 05:22:26.761885  2955 net.cpp:481] conv15_1/relu <- conv15_1
I1102 05:22:26.761890  2955 net.cpp:442] conv15_1/relu -> conv15_1 (in-place)
I1102 05:22:26.762830  2955 net.cpp:150] Setting up conv15_1/relu
I1102 05:22:26.762850  2955 net.cpp:157] Top shape: 24 128 5 5 (76800)
I1102 05:22:26.762852  2955 net.cpp:165] Memory required for data: 3862818848
I1102 05:22:26.762856  2955 layer_factory.hpp:77] Creating layer conv15_2
I1102 05:22:26.762867  2955 net.cpp:100] Creating Layer conv15_2
I1102 05:22:26.762871  2955 net.cpp:481] conv15_2 <- conv15_1
I1102 05:22:26.762877  2955 net.cpp:455] conv15_2 -> conv15_2
I1102 05:22:26.768688  2955 net.cpp:150] Setting up conv15_2
I1102 05:22:26.768713  2955 net.cpp:157] Top shape: 24 256 3 3 (55296)
I1102 05:22:26.768718  2955 net.cpp:165] Memory required for data: 3863040032
I1102 05:22:26.768723  2955 layer_factory.hpp:77] Creating layer conv15_2/bn
I1102 05:22:26.768729  2955 net.cpp:100] Creating Layer conv15_2/bn
I1102 05:22:26.768733  2955 net.cpp:481] conv15_2/bn <- conv15_2
I1102 05:22:26.768738  2955 net.cpp:442] conv15_2/bn -> conv15_2 (in-place)
I1102 05:22:26.768961  2955 net.cpp:150] Setting up conv15_2/bn
I1102 05:22:26.768973  2955 net.cpp:157] Top shape: 24 256 3 3 (55296)
I1102 05:22:26.768976  2955 net.cpp:165] Memory required for data: 3863261216
I1102 05:22:26.768983  2955 layer_factory.hpp:77] Creating layer conv15_2/scale
I1102 05:22:26.768992  2955 net.cpp:100] Creating Layer conv15_2/scale
I1102 05:22:26.768999  2955 net.cpp:481] conv15_2/scale <- conv15_2
I1102 05:22:26.769006  2955 net.cpp:442] conv15_2/scale -> conv15_2 (in-place)
I1102 05:22:26.769112  2955 layer_factory.hpp:77] Creating layer conv15_2/scale
I1102 05:22:26.769280  2955 net.cpp:150] Setting up conv15_2/scale
I1102 05:22:26.769292  2955 net.cpp:157] Top shape: 24 256 3 3 (55296)
I1102 05:22:26.769295  2955 net.cpp:165] Memory required for data: 3863482400
I1102 05:22:26.769300  2955 layer_factory.hpp:77] Creating layer conv15_2/relu
I1102 05:22:26.769337  2955 net.cpp:100] Creating Layer conv15_2/relu
I1102 05:22:26.769343  2955 net.cpp:481] conv15_2/relu <- conv15_2
I1102 05:22:26.769348  2955 net.cpp:442] conv15_2/relu -> conv15_2 (in-place)
I1102 05:22:26.770357  2955 net.cpp:150] Setting up conv15_2/relu
I1102 05:22:26.770390  2955 net.cpp:157] Top shape: 24 256 3 3 (55296)
I1102 05:22:26.770392  2955 net.cpp:165] Memory required for data: 3863703584
I1102 05:22:26.770396  2955 layer_factory.hpp:77] Creating layer conv15_2_conv15_2/relu_0_split
I1102 05:22:26.770403  2955 net.cpp:100] Creating Layer conv15_2_conv15_2/relu_0_split
I1102 05:22:26.770426  2955 net.cpp:481] conv15_2_conv15_2/relu_0_split <- conv15_2
I1102 05:22:26.770433  2955 net.cpp:455] conv15_2_conv15_2/relu_0_split -> conv15_2_conv15_2/relu_0_split_0
I1102 05:22:26.770458  2955 net.cpp:455] conv15_2_conv15_2/relu_0_split -> conv15_2_conv15_2/relu_0_split_1
I1102 05:22:26.770483  2955 net.cpp:455] conv15_2_conv15_2/relu_0_split -> conv15_2_conv15_2/relu_0_split_2
I1102 05:22:26.770490  2955 net.cpp:455] conv15_2_conv15_2/relu_0_split -> conv15_2_conv15_2/relu_0_split_3
I1102 05:22:26.770576  2955 net.cpp:150] Setting up conv15_2_conv15_2/relu_0_split
I1102 05:22:26.770587  2955 net.cpp:157] Top shape: 24 256 3 3 (55296)
I1102 05:22:26.770591  2955 net.cpp:157] Top shape: 24 256 3 3 (55296)
I1102 05:22:26.770594  2955 net.cpp:157] Top shape: 24 256 3 3 (55296)
I1102 05:22:26.770597  2955 net.cpp:157] Top shape: 24 256 3 3 (55296)
I1102 05:22:26.770599  2955 net.cpp:165] Memory required for data: 3864588320
I1102 05:22:26.770602  2955 layer_factory.hpp:77] Creating layer conv16_1
I1102 05:22:26.770612  2955 net.cpp:100] Creating Layer conv16_1
I1102 05:22:26.770618  2955 net.cpp:481] conv16_1 <- conv15_2_conv15_2/relu_0_split_0
I1102 05:22:26.770625  2955 net.cpp:455] conv16_1 -> conv16_1
I1102 05:22:26.773500  2955 net.cpp:150] Setting up conv16_1
I1102 05:22:26.773521  2955 net.cpp:157] Top shape: 24 128 3 3 (27648)
I1102 05:22:26.773524  2955 net.cpp:165] Memory required for data: 3864698912
I1102 05:22:26.773530  2955 layer_factory.hpp:77] Creating layer conv16_1/bn
I1102 05:22:26.773537  2955 net.cpp:100] Creating Layer conv16_1/bn
I1102 05:22:26.773540  2955 net.cpp:481] conv16_1/bn <- conv16_1
I1102 05:22:26.773552  2955 net.cpp:442] conv16_1/bn -> conv16_1 (in-place)
I1102 05:22:26.773847  2955 net.cpp:150] Setting up conv16_1/bn
I1102 05:22:26.773859  2955 net.cpp:157] Top shape: 24 128 3 3 (27648)
I1102 05:22:26.773862  2955 net.cpp:165] Memory required for data: 3864809504
I1102 05:22:26.773869  2955 layer_factory.hpp:77] Creating layer conv16_1/scale
I1102 05:22:26.773877  2955 net.cpp:100] Creating Layer conv16_1/scale
I1102 05:22:26.773880  2955 net.cpp:481] conv16_1/scale <- conv16_1
I1102 05:22:26.773886  2955 net.cpp:442] conv16_1/scale -> conv16_1 (in-place)
I1102 05:22:26.773929  2955 layer_factory.hpp:77] Creating layer conv16_1/scale
I1102 05:22:26.774086  2955 net.cpp:150] Setting up conv16_1/scale
I1102 05:22:26.774098  2955 net.cpp:157] Top shape: 24 128 3 3 (27648)
I1102 05:22:26.774101  2955 net.cpp:165] Memory required for data: 3864920096
I1102 05:22:26.774106  2955 layer_factory.hpp:77] Creating layer conv16_1/relu
I1102 05:22:26.774111  2955 net.cpp:100] Creating Layer conv16_1/relu
I1102 05:22:26.774116  2955 net.cpp:481] conv16_1/relu <- conv16_1
I1102 05:22:26.774122  2955 net.cpp:442] conv16_1/relu -> conv16_1 (in-place)
I1102 05:22:26.774420  2955 net.cpp:150] Setting up conv16_1/relu
I1102 05:22:26.774436  2955 net.cpp:157] Top shape: 24 128 3 3 (27648)
I1102 05:22:26.774440  2955 net.cpp:165] Memory required for data: 3865030688
I1102 05:22:26.774458  2955 layer_factory.hpp:77] Creating layer conv16_2
I1102 05:22:26.774483  2955 net.cpp:100] Creating Layer conv16_2
I1102 05:22:26.774492  2955 net.cpp:481] conv16_2 <- conv16_1
I1102 05:22:26.774498  2955 net.cpp:455] conv16_2 -> conv16_2
I1102 05:22:26.781134  2955 net.cpp:150] Setting up conv16_2
I1102 05:22:26.781157  2955 net.cpp:157] Top shape: 24 256 2 2 (24576)
I1102 05:22:26.781162  2955 net.cpp:165] Memory required for data: 3865128992
I1102 05:22:26.781167  2955 layer_factory.hpp:77] Creating layer conv16_2/bn
I1102 05:22:26.781174  2955 net.cpp:100] Creating Layer conv16_2/bn
I1102 05:22:26.781177  2955 net.cpp:481] conv16_2/bn <- conv16_2
I1102 05:22:26.781183  2955 net.cpp:442] conv16_2/bn -> conv16_2 (in-place)
I1102 05:22:26.781397  2955 net.cpp:150] Setting up conv16_2/bn
I1102 05:22:26.781410  2955 net.cpp:157] Top shape: 24 256 2 2 (24576)
I1102 05:22:26.781414  2955 net.cpp:165] Memory required for data: 3865227296
I1102 05:22:26.781421  2955 layer_factory.hpp:77] Creating layer conv16_2/scale
I1102 05:22:26.781431  2955 net.cpp:100] Creating Layer conv16_2/scale
I1102 05:22:26.781435  2955 net.cpp:481] conv16_2/scale <- conv16_2
I1102 05:22:26.781440  2955 net.cpp:442] conv16_2/scale -> conv16_2 (in-place)
I1102 05:22:26.781488  2955 layer_factory.hpp:77] Creating layer conv16_2/scale
I1102 05:22:26.781608  2955 net.cpp:150] Setting up conv16_2/scale
I1102 05:22:26.781620  2955 net.cpp:157] Top shape: 24 256 2 2 (24576)
I1102 05:22:26.781621  2955 net.cpp:165] Memory required for data: 3865325600
I1102 05:22:26.781627  2955 layer_factory.hpp:77] Creating layer conv16_2/relu
I1102 05:22:26.781633  2955 net.cpp:100] Creating Layer conv16_2/relu
I1102 05:22:26.781636  2955 net.cpp:481] conv16_2/relu <- conv16_2
I1102 05:22:26.781641  2955 net.cpp:442] conv16_2/relu -> conv16_2 (in-place)
I1102 05:22:26.783624  2955 net.cpp:150] Setting up conv16_2/relu
I1102 05:22:26.783644  2955 net.cpp:157] Top shape: 24 256 2 2 (24576)
I1102 05:22:26.783648  2955 net.cpp:165] Memory required for data: 3865423904
I1102 05:22:26.783651  2955 layer_factory.hpp:77] Creating layer conv16_2_conv16_2/relu_0_split
I1102 05:22:26.783659  2955 net.cpp:100] Creating Layer conv16_2_conv16_2/relu_0_split
I1102 05:22:26.783663  2955 net.cpp:481] conv16_2_conv16_2/relu_0_split <- conv16_2
I1102 05:22:26.783669  2955 net.cpp:455] conv16_2_conv16_2/relu_0_split -> conv16_2_conv16_2/relu_0_split_0
I1102 05:22:26.783682  2955 net.cpp:455] conv16_2_conv16_2/relu_0_split -> conv16_2_conv16_2/relu_0_split_1
I1102 05:22:26.783689  2955 net.cpp:455] conv16_2_conv16_2/relu_0_split -> conv16_2_conv16_2/relu_0_split_2
I1102 05:22:26.783737  2955 net.cpp:455] conv16_2_conv16_2/relu_0_split -> conv16_2_conv16_2/relu_0_split_3
I1102 05:22:26.783813  2955 net.cpp:150] Setting up conv16_2_conv16_2/relu_0_split
I1102 05:22:26.783823  2955 net.cpp:157] Top shape: 24 256 2 2 (24576)
I1102 05:22:26.783828  2955 net.cpp:157] Top shape: 24 256 2 2 (24576)
I1102 05:22:26.783830  2955 net.cpp:157] Top shape: 24 256 2 2 (24576)
I1102 05:22:26.783834  2955 net.cpp:157] Top shape: 24 256 2 2 (24576)
I1102 05:22:26.783836  2955 net.cpp:165] Memory required for data: 3865817120
I1102 05:22:26.783839  2955 layer_factory.hpp:77] Creating layer conv17_1
I1102 05:22:26.783849  2955 net.cpp:100] Creating Layer conv17_1
I1102 05:22:26.783854  2955 net.cpp:481] conv17_1 <- conv16_2_conv16_2/relu_0_split_0
I1102 05:22:26.783860  2955 net.cpp:455] conv17_1 -> conv17_1
I1102 05:22:26.786473  2955 net.cpp:150] Setting up conv17_1
I1102 05:22:26.786494  2955 net.cpp:157] Top shape: 24 64 2 2 (6144)
I1102 05:22:26.786497  2955 net.cpp:165] Memory required for data: 3865841696
I1102 05:22:26.786504  2955 layer_factory.hpp:77] Creating layer conv17_1/bn
I1102 05:22:26.786511  2955 net.cpp:100] Creating Layer conv17_1/bn
I1102 05:22:26.786514  2955 net.cpp:481] conv17_1/bn <- conv17_1
I1102 05:22:26.786520  2955 net.cpp:442] conv17_1/bn -> conv17_1 (in-place)
I1102 05:22:26.786743  2955 net.cpp:150] Setting up conv17_1/bn
I1102 05:22:26.786754  2955 net.cpp:157] Top shape: 24 64 2 2 (6144)
I1102 05:22:26.786757  2955 net.cpp:165] Memory required for data: 3865866272
I1102 05:22:26.786764  2955 layer_factory.hpp:77] Creating layer conv17_1/scale
I1102 05:22:26.786772  2955 net.cpp:100] Creating Layer conv17_1/scale
I1102 05:22:26.786777  2955 net.cpp:481] conv17_1/scale <- conv17_1
I1102 05:22:26.786782  2955 net.cpp:442] conv17_1/scale -> conv17_1 (in-place)
I1102 05:22:26.786828  2955 layer_factory.hpp:77] Creating layer conv17_1/scale
I1102 05:22:26.786943  2955 net.cpp:150] Setting up conv17_1/scale
I1102 05:22:26.786954  2955 net.cpp:157] Top shape: 24 64 2 2 (6144)
I1102 05:22:26.786957  2955 net.cpp:165] Memory required for data: 3865890848
I1102 05:22:26.786978  2955 layer_factory.hpp:77] Creating layer conv17_1/relu
I1102 05:22:26.786985  2955 net.cpp:100] Creating Layer conv17_1/relu
I1102 05:22:26.786988  2955 net.cpp:481] conv17_1/relu <- conv17_1
I1102 05:22:26.786993  2955 net.cpp:442] conv17_1/relu -> conv17_1 (in-place)
I1102 05:22:26.787246  2955 net.cpp:150] Setting up conv17_1/relu
I1102 05:22:26.787261  2955 net.cpp:157] Top shape: 24 64 2 2 (6144)
I1102 05:22:26.787266  2955 net.cpp:165] Memory required for data: 3865915424
I1102 05:22:26.787268  2955 layer_factory.hpp:77] Creating layer conv17_2
I1102 05:22:26.787278  2955 net.cpp:100] Creating Layer conv17_2
I1102 05:22:26.787287  2955 net.cpp:481] conv17_2 <- conv17_1
I1102 05:22:26.787294  2955 net.cpp:455] conv17_2 -> conv17_2
I1102 05:22:26.790685  2955 net.cpp:150] Setting up conv17_2
I1102 05:22:26.790711  2955 net.cpp:157] Top shape: 24 128 1 1 (3072)
I1102 05:22:26.790714  2955 net.cpp:165] Memory required for data: 3865927712
I1102 05:22:26.790719  2955 layer_factory.hpp:77] Creating layer conv17_2/bn
I1102 05:22:26.790727  2955 net.cpp:100] Creating Layer conv17_2/bn
I1102 05:22:26.790730  2955 net.cpp:481] conv17_2/bn <- conv17_2
I1102 05:22:26.790736  2955 net.cpp:442] conv17_2/bn -> conv17_2 (in-place)
I1102 05:22:26.790936  2955 net.cpp:150] Setting up conv17_2/bn
I1102 05:22:26.790948  2955 net.cpp:157] Top shape: 24 128 1 1 (3072)
I1102 05:22:26.790951  2955 net.cpp:165] Memory required for data: 3865940000
I1102 05:22:26.790958  2955 layer_factory.hpp:77] Creating layer conv17_2/scale
I1102 05:22:26.790982  2955 net.cpp:100] Creating Layer conv17_2/scale
I1102 05:22:26.790989  2955 net.cpp:481] conv17_2/scale <- conv17_2
I1102 05:22:26.790995  2955 net.cpp:442] conv17_2/scale -> conv17_2 (in-place)
I1102 05:22:26.791038  2955 layer_factory.hpp:77] Creating layer conv17_2/scale
I1102 05:22:26.791148  2955 net.cpp:150] Setting up conv17_2/scale
I1102 05:22:26.791159  2955 net.cpp:157] Top shape: 24 128 1 1 (3072)
I1102 05:22:26.791163  2955 net.cpp:165] Memory required for data: 3865952288
I1102 05:22:26.791168  2955 layer_factory.hpp:77] Creating layer conv17_2/relu
I1102 05:22:26.791174  2955 net.cpp:100] Creating Layer conv17_2/relu
I1102 05:22:26.791177  2955 net.cpp:481] conv17_2/relu <- conv17_2
I1102 05:22:26.791182  2955 net.cpp:442] conv17_2/relu -> conv17_2 (in-place)
I1102 05:22:26.792167  2955 net.cpp:150] Setting up conv17_2/relu
I1102 05:22:26.792187  2955 net.cpp:157] Top shape: 24 128 1 1 (3072)
I1102 05:22:26.792191  2955 net.cpp:165] Memory required for data: 3865964576
I1102 05:22:26.792193  2955 layer_factory.hpp:77] Creating layer conv17_2_conv17_2/relu_0_split
I1102 05:22:26.792215  2955 net.cpp:100] Creating Layer conv17_2_conv17_2/relu_0_split
I1102 05:22:26.792218  2955 net.cpp:481] conv17_2_conv17_2/relu_0_split <- conv17_2
I1102 05:22:26.792224  2955 net.cpp:455] conv17_2_conv17_2/relu_0_split -> conv17_2_conv17_2/relu_0_split_0
I1102 05:22:26.792243  2955 net.cpp:455] conv17_2_conv17_2/relu_0_split -> conv17_2_conv17_2/relu_0_split_1
I1102 05:22:26.792250  2955 net.cpp:455] conv17_2_conv17_2/relu_0_split -> conv17_2_conv17_2/relu_0_split_2
I1102 05:22:26.792341  2955 net.cpp:150] Setting up conv17_2_conv17_2/relu_0_split
I1102 05:22:26.792361  2955 net.cpp:157] Top shape: 24 128 1 1 (3072)
I1102 05:22:26.792366  2955 net.cpp:157] Top shape: 24 128 1 1 (3072)
I1102 05:22:26.792368  2955 net.cpp:157] Top shape: 24 128 1 1 (3072)
I1102 05:22:26.792371  2955 net.cpp:165] Memory required for data: 3866001440
I1102 05:22:26.792373  2955 layer_factory.hpp:77] Creating layer conv11_mbox_loc
I1102 05:22:26.792400  2955 net.cpp:100] Creating Layer conv11_mbox_loc
I1102 05:22:26.792404  2955 net.cpp:481] conv11_mbox_loc <- conv11_conv11/relu_0_split_1
I1102 05:22:26.792412  2955 net.cpp:455] conv11_mbox_loc -> conv11_mbox_loc
I1102 05:22:26.795034  2955 net.cpp:150] Setting up conv11_mbox_loc
I1102 05:22:26.795055  2955 net.cpp:157] Top shape: 24 12 19 19 (103968)
I1102 05:22:26.795058  2955 net.cpp:165] Memory required for data: 3866417312
I1102 05:22:26.795081  2955 layer_factory.hpp:77] Creating layer conv11_mbox_loc_perm
I1102 05:22:26.795092  2955 net.cpp:100] Creating Layer conv11_mbox_loc_perm
I1102 05:22:26.795096  2955 net.cpp:481] conv11_mbox_loc_perm <- conv11_mbox_loc
I1102 05:22:26.795102  2955 net.cpp:455] conv11_mbox_loc_perm -> conv11_mbox_loc_perm
I1102 05:22:26.795209  2955 net.cpp:150] Setting up conv11_mbox_loc_perm
I1102 05:22:26.795220  2955 net.cpp:157] Top shape: 24 19 19 12 (103968)
I1102 05:22:26.795223  2955 net.cpp:165] Memory required for data: 3866833184
I1102 05:22:26.795243  2955 layer_factory.hpp:77] Creating layer conv11_mbox_loc_flat
I1102 05:22:26.795249  2955 net.cpp:100] Creating Layer conv11_mbox_loc_flat
I1102 05:22:26.795267  2955 net.cpp:481] conv11_mbox_loc_flat <- conv11_mbox_loc_perm
I1102 05:22:26.795274  2955 net.cpp:455] conv11_mbox_loc_flat -> conv11_mbox_loc_flat
I1102 05:22:26.795300  2955 net.cpp:150] Setting up conv11_mbox_loc_flat
I1102 05:22:26.795310  2955 net.cpp:157] Top shape: 24 4332 (103968)
I1102 05:22:26.795313  2955 net.cpp:165] Memory required for data: 3867249056
I1102 05:22:26.795316  2955 layer_factory.hpp:77] Creating layer conv11_mbox_conf_new
I1102 05:22:26.795326  2955 net.cpp:100] Creating Layer conv11_mbox_conf_new
I1102 05:22:26.795331  2955 net.cpp:481] conv11_mbox_conf_new <- conv11_conv11/relu_0_split_2
I1102 05:22:26.795338  2955 net.cpp:455] conv11_mbox_conf_new -> conv11_mbox_conf
I1102 05:22:26.798092  2955 net.cpp:150] Setting up conv11_mbox_conf_new
I1102 05:22:26.798113  2955 net.cpp:157] Top shape: 24 63 19 19 (545832)
I1102 05:22:26.798116  2955 net.cpp:165] Memory required for data: 3869432384
I1102 05:22:26.798123  2955 layer_factory.hpp:77] Creating layer conv11_mbox_conf_perm
I1102 05:22:26.798141  2955 net.cpp:100] Creating Layer conv11_mbox_conf_perm
I1102 05:22:26.798151  2955 net.cpp:481] conv11_mbox_conf_perm <- conv11_mbox_conf
I1102 05:22:26.798157  2955 net.cpp:455] conv11_mbox_conf_perm -> conv11_mbox_conf_perm
I1102 05:22:26.798276  2955 net.cpp:150] Setting up conv11_mbox_conf_perm
I1102 05:22:26.798288  2955 net.cpp:157] Top shape: 24 19 19 63 (545832)
I1102 05:22:26.798290  2955 net.cpp:165] Memory required for data: 3871615712
I1102 05:22:26.798293  2955 layer_factory.hpp:77] Creating layer conv11_mbox_conf_flat
I1102 05:22:26.798315  2955 net.cpp:100] Creating Layer conv11_mbox_conf_flat
I1102 05:22:26.798317  2955 net.cpp:481] conv11_mbox_conf_flat <- conv11_mbox_conf_perm
I1102 05:22:26.798322  2955 net.cpp:455] conv11_mbox_conf_flat -> conv11_mbox_conf_flat
I1102 05:22:26.798347  2955 net.cpp:150] Setting up conv11_mbox_conf_flat
I1102 05:22:26.798357  2955 net.cpp:157] Top shape: 24 22743 (545832)
I1102 05:22:26.798359  2955 net.cpp:165] Memory required for data: 3873799040
I1102 05:22:26.798377  2955 layer_factory.hpp:77] Creating layer conv11_mbox_priorbox
I1102 05:22:26.798385  2955 net.cpp:100] Creating Layer conv11_mbox_priorbox
I1102 05:22:26.798390  2955 net.cpp:481] conv11_mbox_priorbox <- conv11_conv11/relu_0_split_3
I1102 05:22:26.798395  2955 net.cpp:481] conv11_mbox_priorbox <- data_data_0_split_1
I1102 05:22:26.798401  2955 net.cpp:455] conv11_mbox_priorbox -> conv11_mbox_priorbox
I1102 05:22:26.798431  2955 net.cpp:150] Setting up conv11_mbox_priorbox
I1102 05:22:26.798455  2955 net.cpp:157] Top shape: 1 2 4332 (8664)
I1102 05:22:26.798457  2955 net.cpp:165] Memory required for data: 3873833696
I1102 05:22:26.798460  2955 layer_factory.hpp:77] Creating layer conv13_mbox_loc
I1102 05:22:26.798471  2955 net.cpp:100] Creating Layer conv13_mbox_loc
I1102 05:22:26.798477  2955 net.cpp:481] conv13_mbox_loc <- conv13_conv13/relu_0_split_1
I1102 05:22:26.798485  2955 net.cpp:455] conv13_mbox_loc -> conv13_mbox_loc
I1102 05:22:26.801048  2955 net.cpp:150] Setting up conv13_mbox_loc
I1102 05:22:26.801069  2955 net.cpp:157] Top shape: 24 24 10 10 (57600)
I1102 05:22:26.801071  2955 net.cpp:165] Memory required for data: 3874064096
I1102 05:22:26.801077  2955 layer_factory.hpp:77] Creating layer conv13_mbox_loc_perm
I1102 05:22:26.801086  2955 net.cpp:100] Creating Layer conv13_mbox_loc_perm
I1102 05:22:26.801101  2955 net.cpp:481] conv13_mbox_loc_perm <- conv13_mbox_loc
I1102 05:22:26.801108  2955 net.cpp:455] conv13_mbox_loc_perm -> conv13_mbox_loc_perm
I1102 05:22:26.801259  2955 net.cpp:150] Setting up conv13_mbox_loc_perm
I1102 05:22:26.801271  2955 net.cpp:157] Top shape: 24 10 10 24 (57600)
I1102 05:22:26.801275  2955 net.cpp:165] Memory required for data: 3874294496
I1102 05:22:26.801277  2955 layer_factory.hpp:77] Creating layer conv13_mbox_loc_flat
I1102 05:22:26.801285  2955 net.cpp:100] Creating Layer conv13_mbox_loc_flat
I1102 05:22:26.801287  2955 net.cpp:481] conv13_mbox_loc_flat <- conv13_mbox_loc_perm
I1102 05:22:26.801292  2955 net.cpp:455] conv13_mbox_loc_flat -> conv13_mbox_loc_flat
I1102 05:22:26.801336  2955 net.cpp:150] Setting up conv13_mbox_loc_flat
I1102 05:22:26.801344  2955 net.cpp:157] Top shape: 24 2400 (57600)
I1102 05:22:26.801362  2955 net.cpp:165] Memory required for data: 3874524896
I1102 05:22:26.801365  2955 layer_factory.hpp:77] Creating layer conv13_mbox_conf_new
I1102 05:22:26.801390  2955 net.cpp:100] Creating Layer conv13_mbox_conf_new
I1102 05:22:26.801398  2955 net.cpp:481] conv13_mbox_conf_new <- conv13_conv13/relu_0_split_2
I1102 05:22:26.801404  2955 net.cpp:455] conv13_mbox_conf_new -> conv13_mbox_conf
I1102 05:22:26.806061  2955 net.cpp:150] Setting up conv13_mbox_conf_new
I1102 05:22:26.806083  2955 net.cpp:157] Top shape: 24 126 10 10 (302400)
I1102 05:22:26.806087  2955 net.cpp:165] Memory required for data: 3875734496
I1102 05:22:26.806092  2955 layer_factory.hpp:77] Creating layer conv13_mbox_conf_perm
I1102 05:22:26.806100  2955 net.cpp:100] Creating Layer conv13_mbox_conf_perm
I1102 05:22:26.806104  2955 net.cpp:481] conv13_mbox_conf_perm <- conv13_mbox_conf
I1102 05:22:26.806110  2955 net.cpp:455] conv13_mbox_conf_perm -> conv13_mbox_conf_perm
I1102 05:22:26.806262  2955 net.cpp:150] Setting up conv13_mbox_conf_perm
I1102 05:22:26.806275  2955 net.cpp:157] Top shape: 24 10 10 126 (302400)
I1102 05:22:26.806278  2955 net.cpp:165] Memory required for data: 3876944096
I1102 05:22:26.806282  2955 layer_factory.hpp:77] Creating layer conv13_mbox_conf_flat
I1102 05:22:26.806288  2955 net.cpp:100] Creating Layer conv13_mbox_conf_flat
I1102 05:22:26.806291  2955 net.cpp:481] conv13_mbox_conf_flat <- conv13_mbox_conf_perm
I1102 05:22:26.806298  2955 net.cpp:455] conv13_mbox_conf_flat -> conv13_mbox_conf_flat
I1102 05:22:26.806325  2955 net.cpp:150] Setting up conv13_mbox_conf_flat
I1102 05:22:26.806335  2955 net.cpp:157] Top shape: 24 12600 (302400)
I1102 05:22:26.806339  2955 net.cpp:165] Memory required for data: 3878153696
I1102 05:22:26.806340  2955 layer_factory.hpp:77] Creating layer conv13_mbox_priorbox
I1102 05:22:26.806362  2955 net.cpp:100] Creating Layer conv13_mbox_priorbox
I1102 05:22:26.806366  2955 net.cpp:481] conv13_mbox_priorbox <- conv13_conv13/relu_0_split_3
I1102 05:22:26.806371  2955 net.cpp:481] conv13_mbox_priorbox <- data_data_0_split_2
I1102 05:22:26.806377  2955 net.cpp:455] conv13_mbox_priorbox -> conv13_mbox_priorbox
I1102 05:22:26.806406  2955 net.cpp:150] Setting up conv13_mbox_priorbox
I1102 05:22:26.806416  2955 net.cpp:157] Top shape: 1 2 2400 (4800)
I1102 05:22:26.806418  2955 net.cpp:165] Memory required for data: 3878172896
I1102 05:22:26.806421  2955 layer_factory.hpp:77] Creating layer conv14_2_mbox_loc
I1102 05:22:26.806432  2955 net.cpp:100] Creating Layer conv14_2_mbox_loc
I1102 05:22:26.806437  2955 net.cpp:481] conv14_2_mbox_loc <- conv14_2_conv14_2/relu_0_split_1
I1102 05:22:26.806443  2955 net.cpp:455] conv14_2_mbox_loc -> conv14_2_mbox_loc
I1102 05:22:26.809401  2955 net.cpp:150] Setting up conv14_2_mbox_loc
I1102 05:22:26.809422  2955 net.cpp:157] Top shape: 24 24 5 5 (14400)
I1102 05:22:26.809424  2955 net.cpp:165] Memory required for data: 3878230496
I1102 05:22:26.809432  2955 layer_factory.hpp:77] Creating layer conv14_2_mbox_loc_perm
I1102 05:22:26.809440  2955 net.cpp:100] Creating Layer conv14_2_mbox_loc_perm
I1102 05:22:26.809444  2955 net.cpp:481] conv14_2_mbox_loc_perm <- conv14_2_mbox_loc
I1102 05:22:26.809485  2955 net.cpp:455] conv14_2_mbox_loc_perm -> conv14_2_mbox_loc_perm
I1102 05:22:26.809667  2955 net.cpp:150] Setting up conv14_2_mbox_loc_perm
I1102 05:22:26.809680  2955 net.cpp:157] Top shape: 24 5 5 24 (14400)
I1102 05:22:26.809684  2955 net.cpp:165] Memory required for data: 3878288096
I1102 05:22:26.809685  2955 layer_factory.hpp:77] Creating layer conv14_2_mbox_loc_flat
I1102 05:22:26.809697  2955 net.cpp:100] Creating Layer conv14_2_mbox_loc_flat
I1102 05:22:26.809701  2955 net.cpp:481] conv14_2_mbox_loc_flat <- conv14_2_mbox_loc_perm
I1102 05:22:26.809707  2955 net.cpp:455] conv14_2_mbox_loc_flat -> conv14_2_mbox_loc_flat
I1102 05:22:26.809734  2955 net.cpp:150] Setting up conv14_2_mbox_loc_flat
I1102 05:22:26.809744  2955 net.cpp:157] Top shape: 24 600 (14400)
I1102 05:22:26.809746  2955 net.cpp:165] Memory required for data: 3878345696
I1102 05:22:26.809749  2955 layer_factory.hpp:77] Creating layer conv14_2_mbox_conf_new
I1102 05:22:26.809762  2955 net.cpp:100] Creating Layer conv14_2_mbox_conf_new
I1102 05:22:26.809765  2955 net.cpp:481] conv14_2_mbox_conf_new <- conv14_2_conv14_2/relu_0_split_2
I1102 05:22:26.809772  2955 net.cpp:455] conv14_2_mbox_conf_new -> conv14_2_mbox_conf
I1102 05:22:26.814391  2955 net.cpp:150] Setting up conv14_2_mbox_conf_new
I1102 05:22:26.814414  2955 net.cpp:157] Top shape: 24 126 5 5 (75600)
I1102 05:22:26.814417  2955 net.cpp:165] Memory required for data: 3878648096
I1102 05:22:26.814424  2955 layer_factory.hpp:77] Creating layer conv14_2_mbox_conf_perm
I1102 05:22:26.814433  2955 net.cpp:100] Creating Layer conv14_2_mbox_conf_perm
I1102 05:22:26.814436  2955 net.cpp:481] conv14_2_mbox_conf_perm <- conv14_2_mbox_conf
I1102 05:22:26.814445  2955 net.cpp:455] conv14_2_mbox_conf_perm -> conv14_2_mbox_conf_perm
I1102 05:22:26.814560  2955 net.cpp:150] Setting up conv14_2_mbox_conf_perm
I1102 05:22:26.814573  2955 net.cpp:157] Top shape: 24 5 5 126 (75600)
I1102 05:22:26.814576  2955 net.cpp:165] Memory required for data: 3878950496
I1102 05:22:26.814579  2955 layer_factory.hpp:77] Creating layer conv14_2_mbox_conf_flat
I1102 05:22:26.814585  2955 net.cpp:100] Creating Layer conv14_2_mbox_conf_flat
I1102 05:22:26.814589  2955 net.cpp:481] conv14_2_mbox_conf_flat <- conv14_2_mbox_conf_perm
I1102 05:22:26.814596  2955 net.cpp:455] conv14_2_mbox_conf_flat -> conv14_2_mbox_conf_flat
I1102 05:22:26.814625  2955 net.cpp:150] Setting up conv14_2_mbox_conf_flat
I1102 05:22:26.814635  2955 net.cpp:157] Top shape: 24 3150 (75600)
I1102 05:22:26.814637  2955 net.cpp:165] Memory required for data: 3879252896
I1102 05:22:26.814640  2955 layer_factory.hpp:77] Creating layer conv14_2_mbox_priorbox
I1102 05:22:26.814648  2955 net.cpp:100] Creating Layer conv14_2_mbox_priorbox
I1102 05:22:26.814651  2955 net.cpp:481] conv14_2_mbox_priorbox <- conv14_2_conv14_2/relu_0_split_3
I1102 05:22:26.814656  2955 net.cpp:481] conv14_2_mbox_priorbox <- data_data_0_split_3
I1102 05:22:26.814662  2955 net.cpp:455] conv14_2_mbox_priorbox -> conv14_2_mbox_priorbox
I1102 05:22:26.814697  2955 net.cpp:150] Setting up conv14_2_mbox_priorbox
I1102 05:22:26.814707  2955 net.cpp:157] Top shape: 1 2 600 (1200)
I1102 05:22:26.814710  2955 net.cpp:165] Memory required for data: 3879257696
I1102 05:22:26.814713  2955 layer_factory.hpp:77] Creating layer conv15_2_mbox_loc
I1102 05:22:26.814725  2955 net.cpp:100] Creating Layer conv15_2_mbox_loc
I1102 05:22:26.814730  2955 net.cpp:481] conv15_2_mbox_loc <- conv15_2_conv15_2/relu_0_split_1
I1102 05:22:26.814738  2955 net.cpp:455] conv15_2_mbox_loc -> conv15_2_mbox_loc
I1102 05:22:26.817293  2955 net.cpp:150] Setting up conv15_2_mbox_loc
I1102 05:22:26.817315  2955 net.cpp:157] Top shape: 24 24 3 3 (5184)
I1102 05:22:26.817319  2955 net.cpp:165] Memory required for data: 3879278432
I1102 05:22:26.817325  2955 layer_factory.hpp:77] Creating layer conv15_2_mbox_loc_perm
I1102 05:22:26.817334  2955 net.cpp:100] Creating Layer conv15_2_mbox_loc_perm
I1102 05:22:26.817337  2955 net.cpp:481] conv15_2_mbox_loc_perm <- conv15_2_mbox_loc
I1102 05:22:26.817363  2955 net.cpp:455] conv15_2_mbox_loc_perm -> conv15_2_mbox_loc_perm
I1102 05:22:26.817476  2955 net.cpp:150] Setting up conv15_2_mbox_loc_perm
I1102 05:22:26.817489  2955 net.cpp:157] Top shape: 24 3 3 24 (5184)
I1102 05:22:26.817492  2955 net.cpp:165] Memory required for data: 3879299168
I1102 05:22:26.817495  2955 layer_factory.hpp:77] Creating layer conv15_2_mbox_loc_flat
I1102 05:22:26.817502  2955 net.cpp:100] Creating Layer conv15_2_mbox_loc_flat
I1102 05:22:26.817504  2955 net.cpp:481] conv15_2_mbox_loc_flat <- conv15_2_mbox_loc_perm
I1102 05:22:26.817509  2955 net.cpp:455] conv15_2_mbox_loc_flat -> conv15_2_mbox_loc_flat
I1102 05:22:26.817538  2955 net.cpp:150] Setting up conv15_2_mbox_loc_flat
I1102 05:22:26.817548  2955 net.cpp:157] Top shape: 24 216 (5184)
I1102 05:22:26.817550  2955 net.cpp:165] Memory required for data: 3879319904
I1102 05:22:26.817553  2955 layer_factory.hpp:77] Creating layer conv15_2_mbox_conf_new
I1102 05:22:26.817564  2955 net.cpp:100] Creating Layer conv15_2_mbox_conf_new
I1102 05:22:26.817569  2955 net.cpp:481] conv15_2_mbox_conf_new <- conv15_2_conv15_2/relu_0_split_2
I1102 05:22:26.817574  2955 net.cpp:455] conv15_2_mbox_conf_new -> conv15_2_mbox_conf
I1102 05:22:26.821530  2955 net.cpp:150] Setting up conv15_2_mbox_conf_new
I1102 05:22:26.821552  2955 net.cpp:157] Top shape: 24 126 3 3 (27216)
I1102 05:22:26.821555  2955 net.cpp:165] Memory required for data: 3879428768
I1102 05:22:26.821561  2955 layer_factory.hpp:77] Creating layer conv15_2_mbox_conf_perm
I1102 05:22:26.821570  2955 net.cpp:100] Creating Layer conv15_2_mbox_conf_perm
I1102 05:22:26.821574  2955 net.cpp:481] conv15_2_mbox_conf_perm <- conv15_2_mbox_conf
I1102 05:22:26.821580  2955 net.cpp:455] conv15_2_mbox_conf_perm -> conv15_2_mbox_conf_perm
I1102 05:22:26.821686  2955 net.cpp:150] Setting up conv15_2_mbox_conf_perm
I1102 05:22:26.821702  2955 net.cpp:157] Top shape: 24 3 3 126 (27216)
I1102 05:22:26.821704  2955 net.cpp:165] Memory required for data: 3879537632
I1102 05:22:26.821707  2955 layer_factory.hpp:77] Creating layer conv15_2_mbox_conf_flat
I1102 05:22:26.821714  2955 net.cpp:100] Creating Layer conv15_2_mbox_conf_flat
I1102 05:22:26.821717  2955 net.cpp:481] conv15_2_mbox_conf_flat <- conv15_2_mbox_conf_perm
I1102 05:22:26.821723  2955 net.cpp:455] conv15_2_mbox_conf_flat -> conv15_2_mbox_conf_flat
I1102 05:22:26.821753  2955 net.cpp:150] Setting up conv15_2_mbox_conf_flat
I1102 05:22:26.821763  2955 net.cpp:157] Top shape: 24 1134 (27216)
I1102 05:22:26.821764  2955 net.cpp:165] Memory required for data: 3879646496
I1102 05:22:26.821768  2955 layer_factory.hpp:77] Creating layer conv15_2_mbox_priorbox
I1102 05:22:26.821774  2955 net.cpp:100] Creating Layer conv15_2_mbox_priorbox
I1102 05:22:26.821779  2955 net.cpp:481] conv15_2_mbox_priorbox <- conv15_2_conv15_2/relu_0_split_3
I1102 05:22:26.821781  2955 net.cpp:481] conv15_2_mbox_priorbox <- data_data_0_split_4
I1102 05:22:26.821789  2955 net.cpp:455] conv15_2_mbox_priorbox -> conv15_2_mbox_priorbox
I1102 05:22:26.821821  2955 net.cpp:150] Setting up conv15_2_mbox_priorbox
I1102 05:22:26.821842  2955 net.cpp:157] Top shape: 1 2 216 (432)
I1102 05:22:26.821844  2955 net.cpp:165] Memory required for data: 3879648224
I1102 05:22:26.821847  2955 layer_factory.hpp:77] Creating layer conv16_2_mbox_loc
I1102 05:22:26.821858  2955 net.cpp:100] Creating Layer conv16_2_mbox_loc
I1102 05:22:26.821866  2955 net.cpp:481] conv16_2_mbox_loc <- conv16_2_conv16_2/relu_0_split_1
I1102 05:22:26.821873  2955 net.cpp:455] conv16_2_mbox_loc -> conv16_2_mbox_loc
I1102 05:22:26.824342  2955 net.cpp:150] Setting up conv16_2_mbox_loc
I1102 05:22:26.824362  2955 net.cpp:157] Top shape: 24 24 2 2 (2304)
I1102 05:22:26.824365  2955 net.cpp:165] Memory required for data: 3879657440
I1102 05:22:26.824371  2955 layer_factory.hpp:77] Creating layer conv16_2_mbox_loc_perm
I1102 05:22:26.824379  2955 net.cpp:100] Creating Layer conv16_2_mbox_loc_perm
I1102 05:22:26.824383  2955 net.cpp:481] conv16_2_mbox_loc_perm <- conv16_2_mbox_loc
I1102 05:22:26.824389  2955 net.cpp:455] conv16_2_mbox_loc_perm -> conv16_2_mbox_loc_perm
I1102 05:22:26.824501  2955 net.cpp:150] Setting up conv16_2_mbox_loc_perm
I1102 05:22:26.824514  2955 net.cpp:157] Top shape: 24 2 2 24 (2304)
I1102 05:22:26.824517  2955 net.cpp:165] Memory required for data: 3879666656
I1102 05:22:26.824520  2955 layer_factory.hpp:77] Creating layer conv16_2_mbox_loc_flat
I1102 05:22:26.824527  2955 net.cpp:100] Creating Layer conv16_2_mbox_loc_flat
I1102 05:22:26.824529  2955 net.cpp:481] conv16_2_mbox_loc_flat <- conv16_2_mbox_loc_perm
I1102 05:22:26.824534  2955 net.cpp:455] conv16_2_mbox_loc_flat -> conv16_2_mbox_loc_flat
I1102 05:22:26.824559  2955 net.cpp:150] Setting up conv16_2_mbox_loc_flat
I1102 05:22:26.824568  2955 net.cpp:157] Top shape: 24 96 (2304)
I1102 05:22:26.824570  2955 net.cpp:165] Memory required for data: 3879675872
I1102 05:22:26.824573  2955 layer_factory.hpp:77] Creating layer conv16_2_mbox_conf_new
I1102 05:22:26.824581  2955 net.cpp:100] Creating Layer conv16_2_mbox_conf_new
I1102 05:22:26.824585  2955 net.cpp:481] conv16_2_mbox_conf_new <- conv16_2_conv16_2/relu_0_split_2
I1102 05:22:26.824590  2955 net.cpp:455] conv16_2_mbox_conf_new -> conv16_2_mbox_conf
I1102 05:22:26.827531  2955 net.cpp:150] Setting up conv16_2_mbox_conf_new
I1102 05:22:26.827551  2955 net.cpp:157] Top shape: 24 126 2 2 (12096)
I1102 05:22:26.827555  2955 net.cpp:165] Memory required for data: 3879724256
I1102 05:22:26.827576  2955 layer_factory.hpp:77] Creating layer conv16_2_mbox_conf_perm
I1102 05:22:26.827584  2955 net.cpp:100] Creating Layer conv16_2_mbox_conf_perm
I1102 05:22:26.827589  2955 net.cpp:481] conv16_2_mbox_conf_perm <- conv16_2_mbox_conf
I1102 05:22:26.827595  2955 net.cpp:455] conv16_2_mbox_conf_perm -> conv16_2_mbox_conf_perm
I1102 05:22:26.827755  2955 net.cpp:150] Setting up conv16_2_mbox_conf_perm
I1102 05:22:26.827767  2955 net.cpp:157] Top shape: 24 2 2 126 (12096)
I1102 05:22:26.827770  2955 net.cpp:165] Memory required for data: 3879772640
I1102 05:22:26.827774  2955 layer_factory.hpp:77] Creating layer conv16_2_mbox_conf_flat
I1102 05:22:26.827780  2955 net.cpp:100] Creating Layer conv16_2_mbox_conf_flat
I1102 05:22:26.827783  2955 net.cpp:481] conv16_2_mbox_conf_flat <- conv16_2_mbox_conf_perm
I1102 05:22:26.827790  2955 net.cpp:455] conv16_2_mbox_conf_flat -> conv16_2_mbox_conf_flat
I1102 05:22:26.827831  2955 net.cpp:150] Setting up conv16_2_mbox_conf_flat
I1102 05:22:26.827850  2955 net.cpp:157] Top shape: 24 504 (12096)
I1102 05:22:26.827853  2955 net.cpp:165] Memory required for data: 3879821024
I1102 05:22:26.827855  2955 layer_factory.hpp:77] Creating layer conv16_2_mbox_priorbox
I1102 05:22:26.827864  2955 net.cpp:100] Creating Layer conv16_2_mbox_priorbox
I1102 05:22:26.827867  2955 net.cpp:481] conv16_2_mbox_priorbox <- conv16_2_conv16_2/relu_0_split_3
I1102 05:22:26.827872  2955 net.cpp:481] conv16_2_mbox_priorbox <- data_data_0_split_5
I1102 05:22:26.827877  2955 net.cpp:455] conv16_2_mbox_priorbox -> conv16_2_mbox_priorbox
I1102 05:22:26.827903  2955 net.cpp:150] Setting up conv16_2_mbox_priorbox
I1102 05:22:26.827908  2955 net.cpp:157] Top shape: 1 2 96 (192)
I1102 05:22:26.827911  2955 net.cpp:165] Memory required for data: 3879821792
I1102 05:22:26.827913  2955 layer_factory.hpp:77] Creating layer conv17_2_mbox_loc
I1102 05:22:26.827924  2955 net.cpp:100] Creating Layer conv17_2_mbox_loc
I1102 05:22:26.827929  2955 net.cpp:481] conv17_2_mbox_loc <- conv17_2_conv17_2/relu_0_split_0
I1102 05:22:26.827935  2955 net.cpp:455] conv17_2_mbox_loc -> conv17_2_mbox_loc
I1102 05:22:26.830649  2955 net.cpp:150] Setting up conv17_2_mbox_loc
I1102 05:22:26.830662  2955 net.cpp:157] Top shape: 24 24 1 1 (576)
I1102 05:22:26.830663  2955 net.cpp:165] Memory required for data: 3879824096
I1102 05:22:26.830684  2955 layer_factory.hpp:77] Creating layer conv17_2_mbox_loc_perm
I1102 05:22:26.830699  2955 net.cpp:100] Creating Layer conv17_2_mbox_loc_perm
I1102 05:22:26.830703  2955 net.cpp:481] conv17_2_mbox_loc_perm <- conv17_2_mbox_loc
I1102 05:22:26.830710  2955 net.cpp:455] conv17_2_mbox_loc_perm -> conv17_2_mbox_loc_perm
I1102 05:22:26.830853  2955 net.cpp:150] Setting up conv17_2_mbox_loc_perm
I1102 05:22:26.830860  2955 net.cpp:157] Top shape: 24 1 1 24 (576)
I1102 05:22:26.830862  2955 net.cpp:165] Memory required for data: 3879826400
I1102 05:22:26.830865  2955 layer_factory.hpp:77] Creating layer conv17_2_mbox_loc_flat
I1102 05:22:26.830873  2955 net.cpp:100] Creating Layer conv17_2_mbox_loc_flat
I1102 05:22:26.830875  2955 net.cpp:481] conv17_2_mbox_loc_flat <- conv17_2_mbox_loc_perm
I1102 05:22:26.830880  2955 net.cpp:455] conv17_2_mbox_loc_flat -> conv17_2_mbox_loc_flat
I1102 05:22:26.830909  2955 net.cpp:150] Setting up conv17_2_mbox_loc_flat
I1102 05:22:26.830914  2955 net.cpp:157] Top shape: 24 24 (576)
I1102 05:22:26.830916  2955 net.cpp:165] Memory required for data: 3879828704
I1102 05:22:26.830919  2955 layer_factory.hpp:77] Creating layer conv17_2_mbox_conf_new
I1102 05:22:26.830930  2955 net.cpp:100] Creating Layer conv17_2_mbox_conf_new
I1102 05:22:26.830934  2955 net.cpp:481] conv17_2_mbox_conf_new <- conv17_2_conv17_2/relu_0_split_1
I1102 05:22:26.830940  2955 net.cpp:455] conv17_2_mbox_conf_new -> conv17_2_mbox_conf
I1102 05:22:26.833920  2955 net.cpp:150] Setting up conv17_2_mbox_conf_new
I1102 05:22:26.833933  2955 net.cpp:157] Top shape: 24 126 1 1 (3024)
I1102 05:22:26.833936  2955 net.cpp:165] Memory required for data: 3879840800
I1102 05:22:26.833942  2955 layer_factory.hpp:77] Creating layer conv17_2_mbox_conf_perm
I1102 05:22:26.833950  2955 net.cpp:100] Creating Layer conv17_2_mbox_conf_perm
I1102 05:22:26.833955  2955 net.cpp:481] conv17_2_mbox_conf_perm <- conv17_2_mbox_conf
I1102 05:22:26.833961  2955 net.cpp:455] conv17_2_mbox_conf_perm -> conv17_2_mbox_conf_perm
I1102 05:22:26.834079  2955 net.cpp:150] Setting up conv17_2_mbox_conf_perm
I1102 05:22:26.834086  2955 net.cpp:157] Top shape: 24 1 1 126 (3024)
I1102 05:22:26.834089  2955 net.cpp:165] Memory required for data: 3879852896
I1102 05:22:26.834091  2955 layer_factory.hpp:77] Creating layer conv17_2_mbox_conf_flat
I1102 05:22:26.834100  2955 net.cpp:100] Creating Layer conv17_2_mbox_conf_flat
I1102 05:22:26.834103  2955 net.cpp:481] conv17_2_mbox_conf_flat <- conv17_2_mbox_conf_perm
I1102 05:22:26.834108  2955 net.cpp:455] conv17_2_mbox_conf_flat -> conv17_2_mbox_conf_flat
I1102 05:22:26.834172  2955 net.cpp:150] Setting up conv17_2_mbox_conf_flat
I1102 05:22:26.834180  2955 net.cpp:157] Top shape: 24 126 (3024)
I1102 05:22:26.834198  2955 net.cpp:165] Memory required for data: 3879864992
I1102 05:22:26.834201  2955 layer_factory.hpp:77] Creating layer conv17_2_mbox_priorbox
I1102 05:22:26.834209  2955 net.cpp:100] Creating Layer conv17_2_mbox_priorbox
I1102 05:22:26.834213  2955 net.cpp:481] conv17_2_mbox_priorbox <- conv17_2_conv17_2/relu_0_split_2
I1102 05:22:26.834231  2955 net.cpp:481] conv17_2_mbox_priorbox <- data_data_0_split_6
I1102 05:22:26.834237  2955 net.cpp:455] conv17_2_mbox_priorbox -> conv17_2_mbox_priorbox
I1102 05:22:26.834269  2955 net.cpp:150] Setting up conv17_2_mbox_priorbox
I1102 05:22:26.834273  2955 net.cpp:157] Top shape: 1 2 24 (48)
I1102 05:22:26.834275  2955 net.cpp:165] Memory required for data: 3879865184
I1102 05:22:26.834277  2955 layer_factory.hpp:77] Creating layer mbox_loc
I1102 05:22:26.834286  2955 net.cpp:100] Creating Layer mbox_loc
I1102 05:22:26.834290  2955 net.cpp:481] mbox_loc <- conv11_mbox_loc_flat
I1102 05:22:26.834293  2955 net.cpp:481] mbox_loc <- conv13_mbox_loc_flat
I1102 05:22:26.834296  2955 net.cpp:481] mbox_loc <- conv14_2_mbox_loc_flat
I1102 05:22:26.834300  2955 net.cpp:481] mbox_loc <- conv15_2_mbox_loc_flat
I1102 05:22:26.834302  2955 net.cpp:481] mbox_loc <- conv16_2_mbox_loc_flat
I1102 05:22:26.834306  2955 net.cpp:481] mbox_loc <- conv17_2_mbox_loc_flat
I1102 05:22:26.834311  2955 net.cpp:455] mbox_loc -> mbox_loc
I1102 05:22:26.834339  2955 net.cpp:150] Setting up mbox_loc
I1102 05:22:26.834345  2955 net.cpp:157] Top shape: 24 7668 (184032)
I1102 05:22:26.834347  2955 net.cpp:165] Memory required for data: 3880601312
I1102 05:22:26.834349  2955 layer_factory.hpp:77] Creating layer mbox_conf
I1102 05:22:26.834367  2955 net.cpp:100] Creating Layer mbox_conf
I1102 05:22:26.834372  2955 net.cpp:481] mbox_conf <- conv11_mbox_conf_flat
I1102 05:22:26.834375  2955 net.cpp:481] mbox_conf <- conv13_mbox_conf_flat
I1102 05:22:26.834379  2955 net.cpp:481] mbox_conf <- conv14_2_mbox_conf_flat
I1102 05:22:26.834383  2955 net.cpp:481] mbox_conf <- conv15_2_mbox_conf_flat
I1102 05:22:26.834385  2955 net.cpp:481] mbox_conf <- conv16_2_mbox_conf_flat
I1102 05:22:26.834388  2955 net.cpp:481] mbox_conf <- conv17_2_mbox_conf_flat
I1102 05:22:26.834393  2955 net.cpp:455] mbox_conf -> mbox_conf
I1102 05:22:26.834420  2955 net.cpp:150] Setting up mbox_conf
I1102 05:22:26.834426  2955 net.cpp:157] Top shape: 24 40257 (966168)
I1102 05:22:26.834429  2955 net.cpp:165] Memory required for data: 3884465984
I1102 05:22:26.834431  2955 layer_factory.hpp:77] Creating layer mbox_priorbox
I1102 05:22:26.834436  2955 net.cpp:100] Creating Layer mbox_priorbox
I1102 05:22:26.834439  2955 net.cpp:481] mbox_priorbox <- conv11_mbox_priorbox
I1102 05:22:26.834444  2955 net.cpp:481] mbox_priorbox <- conv13_mbox_priorbox
I1102 05:22:26.834446  2955 net.cpp:481] mbox_priorbox <- conv14_2_mbox_priorbox
I1102 05:22:26.834450  2955 net.cpp:481] mbox_priorbox <- conv15_2_mbox_priorbox
I1102 05:22:26.834451  2955 net.cpp:481] mbox_priorbox <- conv16_2_mbox_priorbox
I1102 05:22:26.834455  2955 net.cpp:481] mbox_priorbox <- conv17_2_mbox_priorbox
I1102 05:22:26.834460  2955 net.cpp:455] mbox_priorbox -> mbox_priorbox
I1102 05:22:26.834483  2955 net.cpp:150] Setting up mbox_priorbox
I1102 05:22:26.834489  2955 net.cpp:157] Top shape: 1 2 7668 (15336)
I1102 05:22:26.834491  2955 net.cpp:165] Memory required for data: 3884527328
I1102 05:22:26.834494  2955 layer_factory.hpp:77] Creating layer mbox_loss
I1102 05:22:26.834506  2955 net.cpp:100] Creating Layer mbox_loss
I1102 05:22:26.834509  2955 net.cpp:481] mbox_loss <- mbox_loc
I1102 05:22:26.834512  2955 net.cpp:481] mbox_loss <- mbox_conf
I1102 05:22:26.834517  2955 net.cpp:481] mbox_loss <- mbox_priorbox
…
