…
I1102 21:09:18.506242 13472 upgrade_proto.cpp:67] Attempting to upgrade input file specified using deprecated input fields: examples/MobileNet-SSD/model_1000/MobileNetSSD_1000_deploy.prototxt
I1102 21:09:18.506274 13472 upgrade_proto.cpp:70] Successfully upgraded file specified using deprecated input fields.
W1102 21:09:18.506279 13472 upgrade_proto.cpp:72] Note that future Caffe releases will only support input layers and not input fields.
I1102 21:09:18.507218 13472 net.cpp:58] Initializing net from parameters: 
name: "MobileNet-SSD"
state {
  phase: TEST
  level: 0
}
layer {
  name: "input"
  type: "Input"
  top: "data"
  input_param {
    shape {
      dim: 1
      dim: 3
      dim: 300
      dim: 300
    }
  }
}
layer {
  name: "conv0"
  type: "Convolution"
  bottom: "data"
  top: "conv0"
  param {
    lr_mult: 1
    decay_mult: 1
  }
  param {
    lr_mult: 2
    decay_mult: 0
  }
  convolution_param {
    num_output: 32
    pad: 1
    kernel_size: 3
    stride: 2
    weight_filler {
      type: "msra"
    }
    bias_filler {
      type: "constant"
      value: 0
    }
  }
}
layer {
  name: "conv0/relu"
  type: "ReLU"
  bottom: "conv0"
  top: "conv0"
}
layer {
  name: "conv1/dw"
  type: "Convolution"
  bottom: "conv0"
  top: "conv1/dw"
  param {
    lr_mult: 1
    decay_mult: 1
  }
  param {
    lr_mult: 2
    decay_mult: 0
  }
  convolution_param {
    num_output: 32
    pad: 1
    kernel_size: 3
    group: 32
    weight_filler {
      type: "msra"
    }
    bias_filler {
      type: "constant"
      value: 0
    }
    engine: CAFFE
  }
}
layer {
  name: "conv1/dw/relu"
  type: "ReLU"
  bottom: "conv1/dw"
  top: "conv1/dw"
}
layer {
  name: "conv1"
  type: "Convolution"
  bottom: "conv1/dw"
  top: "conv1"
  param {
    lr_mult: 1
    decay_mult: 1
  }
  param {
    lr_mult: 2
    decay_mult: 0
  }
  convolution_param {
    num_output: 64
    kernel_size: 1
    weight_filler {
      type: "msra"
    }
    bias_filler {
      type: "constant"
      value: 0
    }
  }
}
layer {
  name: "conv1/relu"
  type: "ReLU"
  bottom: "conv1"
  top: "conv1"
}
layer {
  name: "conv2/dw"
  type: "Convolution"
  bottom: "conv1"
  top: "conv2/dw"
  param {
    lr_mult: 1
    decay_mult: 1
  }
  param {
    lr_mult: 2
    decay_mult: 0
  }
  convolution_param {
    num_output: 64
    pad: 1
    kernel_size: 3
    group: 64
    stride: 2
    weight_filler {
      type: "msra"
    }
    bias_filler {
      type: "constant"
      value: 0
    }
    engine: CAFFE
  }
}
layer {
  name: "conv2/dw/relu"
  type: "ReLU"
  bottom: "conv2/dw"
  top: "conv2/dw"
}
layer {
  name: "conv2"
  type: "Convolution"
  bottom: "conv2/dw"
  top: "conv2"
  param {
    lr_mult: 1
    decay_mult: 1
  }
  param {
    lr_mult: 2
    decay_mult: 0
  }
  convolution_param {
    num_output: 128
    kernel_size: 1
    weight_filler {
      type: "msra"
    }
    bias_filler {
      type: "constant"
      value: 0
    }
  }
}
layer {
  name: "conv2/relu"
  type: "ReLU"
  bottom: "conv2"
  top: "conv2"
}
layer {
  name: "conv3/dw"
  type: "Convolution"
  bottom: "conv2"
  top: "conv3/dw"
  param {
    lr_mult: 1
    decay_mult: 1
  }
  param {
    lr_mult: 2
    decay_mult: 0
  }
  convolution_param {
    num_output: 128
    pad: 1
    kernel_size: 3
    group: 128
    weight_filler {
      type: "msra"
    }
    bias_filler {
      type: "constant"
      value: 0
    }
    engine: CAFFE
  }
}
layer {
  name: "conv3/dw/relu"
  type: "ReLU"
  bottom: "conv3/dw"
  top: "conv3/dw"
}
layer {
  name: "conv3"
  type: "Convolution"
  bottom: "conv3/dw"
  top: "conv3"
  param {
    lr_mult: 1
    decay_mult: 1
  }
  param {
    lr_mult: 2
    decay_mult: 0
  }
  convolution_param {
    num_output: 128
    kernel_size: 1
    weight_filler {
      type: "msra"
    }
    bias_filler {
      type: "constant"
      value: 0
    }
  }
}
layer {
  name: "conv3/relu"
  type: "ReLU"
  bottom: "conv3"
  top: "conv3"
}
layer {
  name: "conv4/dw"
  type: "Convolution"
  bottom: "conv3"
  top: "conv4/dw"
  param {
    lr_mult: 1
    decay_mult: 1
  }
  param {
    lr_mult: 2
    decay_mult: 0
  }
  convolution_param {
    num_output: 128
    pad: 1
    kernel_size: 3
    group: 128
    stride: 2
    weight_filler {
      type: "msra"
    }
    bias_filler {
      type: "constant"
      value: 0
    }
    engine: CAFFE
  }
}
layer {
  name: "conv4/dw/relu"
  type: "ReLU"
  bottom: "conv4/dw"
  top: "conv4/dw"
}
layer {
  name: "conv4"
  type: "Convolution"
  bottom: "conv4/dw"
  top: "conv4"
  param {
    lr_mult: 1
    decay_mult: 1
  }
  param {
    lr_mult: 2
    decay_mult: 0
  }
  convolution_param {
    num_output: 256
    kernel_size: 1
    weight_filler {
      type: "msra"
    }
    bias_filler {
      type: "constant"
      value: 0
    }
  }
}
layer {
  name: "conv4/relu"
  type: "ReLU"
  bottom: "conv4"
  top: "conv4"
}
layer {
  name: "conv5/dw"
  type: "Convolution"
  bottom: "conv4"
  top: "conv5/dw"
  param {
    lr_mult: 1
    decay_mult: 1
  }
  param {
    lr_mult: 2
    decay_mult: 0
  }
  convolution_param {
    num_output: 256
    pad: 1
    kernel_size: 3
    group: 256
    weight_filler {
      type: "msra"
    }
    bias_filler {
      type: "constant"
      value: 0
    }
    engine: CAFFE
  }
}
layer {
  name: "conv5/dw/relu"
  type: "ReLU"
  bottom: "conv5/dw"
  top: "conv5/dw"
}
layer {
  name: "conv5"
  type: "Convolution"
  bottom: "conv5/dw"
  top: "conv5"
  param {
    lr_mult: 1
    decay_mult: 1
  }
  param {
    lr_mult: 2
    decay_mult: 0
  }
  convolution_param {
    num_output: 256
    kernel_size: 1
    weight_filler {
      type: "msra"
    }
    bias_filler {
      type: "constant"
      value: 0
    }
  }
}
layer {
  name: "conv5/relu"
  type: "ReLU"
  bottom: "conv5"
  top: "conv5"
}
layer {
  name: "conv6/dw"
  type: "Convolution"
  bottom: "conv5"
  top: "conv6/dw"
  param {
    lr_mult: 1
    decay_mult: 1
  }
  param {
    lr_mult: 2
    decay_mult: 0
  }
  convolution_param {
    num_output: 256
    pad: 1
    kernel_size: 3
    group: 256
    stride: 2
    weight_filler {
      type: "msra"
    }
    bias_filler {
      type: "constant"
      value: 0
    }
    engine: CAFFE
  }
}
layer {
  name: "conv6/dw/relu"
  type: "ReLU"
  bottom: "conv6/dw"
  top: "conv6/dw"
}
layer {
  name: "conv6"
  type: "Convolution"
  bottom: "conv6/dw"
  top: "conv6"
  param {
    lr_mult: 1
    decay_mult: 1
  }
  param {
    lr_mult: 2
    decay_mult: 0
  }
  convolution_param {
    num_output: 512
    kernel_size: 1
    weight_filler {
      type: "msra"
    }
    bias_filler {
      type: "constant"
      value: 0
    }
  }
}
layer {
  name: "conv6/relu"
  type: "ReLU"
  bottom: "conv6"
  top: "conv6"
}
layer {
  name: "conv7/dw"
  type: "Convolution"
  bottom: "conv6"
  top: "conv7/dw"
  param {
    lr_mult: 1
    decay_mult: 1
  }
  param {
    lr_mult: 2
    decay_mult: 0
  }
  convolution_param {
    num_output: 512
    pad: 1
    kernel_size: 3
    group: 512
    weight_filler {
      type: "msra"
    }
    bias_filler {
      type: "constant"
      value: 0
    }
    engine: CAFFE
  }
}
layer {
  name: "conv7/dw/relu"
  type: "ReLU"
  bottom: "conv7/dw"
  top: "conv7/dw"
}
layer {
  name: "conv7"
  type: "Convolution"
  bottom: "conv7/dw"
  top: "conv7"
  param {
    lr_mult: 1
    decay_mult: 1
  }
  param {
    lr_mult: 2
    decay_mult: 0
  }
  convolution_param {
    num_output: 512
    kernel_size: 1
    weight_filler {
      type: "msra"
    }
    bias_filler {
      type: "constant"
      value: 0
    }
  }
}
layer {
  name: "conv7/relu"
  type: "ReLU"
  bottom: "conv7"
  top: "conv7"
}
layer {
  name: "conv8/dw"
  type: "Convolution"
  bottom: "conv7"
  top: "conv8/dw"
  param {
    lr_mult: 1
    decay_mult: 1
  }
  param {
    lr_mult: 2
    decay_mult: 0
  }
  convolution_param {
    num_output: 512
    pad: 1
    kernel_size: 3
    group: 512
    weight_filler {
      type: "msra"
    }
    bias_filler {
      type: "constant"
      value: 0
    }
    engine: CAFFE
  }
}
layer {
  name: "conv8/dw/relu"
  type: "ReLU"
  bottom: "conv8/dw"
  top: "conv8/dw"
}
layer {
  name: "conv8"
  type: "Convolution"
  bottom: "conv8/dw"
  top: "conv8"
  param {
    lr_mult: 1
    decay_mult: 1
  }
  param {
    lr_mult: 2
    decay_mult: 0
  }
  convolution_param {
    num_output: 512
    kernel_size: 1
    weight_filler {
      type: "msra"
    }
    bias_filler {
      type: "constant"
      value: 0
    }
  }
}
layer {
  name: "conv8/relu"
  type: "ReLU"
  bottom: "conv8"
  top: "conv8"
}
layer {
  name: "conv9/dw"
  type: "Convolution"
  bottom: "conv8"
  top: "conv9/dw"
  param {
    lr_mult: 1
    decay_mult: 1
  }
  param {
    lr_mult: 2
    decay_mult: 0
  }
  convolution_param {
    num_output: 512
    pad: 1
    kernel_size: 3
    group: 512
    weight_filler {
      type: "msra"
    }
    bias_filler {
      type: "constant"
      value: 0
    }
    engine: CAFFE
  }
}
layer {
  name: "conv9/dw/relu"
  type: "ReLU"
  bottom: "conv9/dw"
  top: "conv9/dw"
}
layer {
  name: "conv9"
  type: "Convolution"
  bottom: "conv9/dw"
  top: "conv9"
  param {
    lr_mult: 1
    decay_mult: 1
  }
  param {
    lr_mult: 2
    decay_mult: 0
  }
  convolution_param {
    num_output: 512
    kernel_size: 1
    weight_filler {
      type: "msra"
    }
    bias_filler {
      type: "constant"
      value: 0
    }
  }
}
layer {
  name: "conv9/relu"
  type: "ReLU"
  bottom: "conv9"
  top: "conv9"
}
layer {
  name: "conv10/dw"
  type: "Convolution"
  bottom: "conv9"
  top: "conv10/dw"
  param {
    lr_mult: 1
    decay_mult: 1
  }
  param {
    lr_mult: 2
    decay_mult: 0
  }
  convolution_param {
    num_output: 512
    pad: 1
    kernel_size: 3
    group: 512
    weight_filler {
      type: "msra"
    }
    bias_filler {
      type: "constant"
      value: 0
    }
    engine: CAFFE
  }
}
layer {
  name: "conv10/dw/relu"
  type: "ReLU"
  bottom: "conv10/dw"
  top: "conv10/dw"
}
layer {
  name: "conv10"
  type: "Convolution"
  bottom: "conv10/dw"
  top: "conv10"
  param {
    lr_mult: 1
    decay_mult: 1
  }
  param {
    lr_mult: 2
    decay_mult: 0
  }
  convolution_param {
    num_output: 512
    kernel_size: 1
    weight_filler {
      type: "msra"
    }
    bias_filler {
      type: "constant"
      value: 0
    }
  }
}
layer {
  name: "conv10/relu"
  type: "ReLU"
  bottom: "conv10"
  top: "conv10"
}
layer {
  name: "conv11/dw"
  type: "Convolution"
  bottom: "conv10"
  top: "conv11/dw"
  param {
    lr_mult: 1
    decay_mult: 1
  }
  param {
    lr_mult: 2
    decay_mult: 0
  }
  convolution_param {
    num_output: 512
    pad: 1
    kernel_size: 3
    group: 512
    weight_filler {
      type: "msra"
    }
    bias_filler {
      type: "constant"
      value: 0
    }
    engine: CAFFE
  }
}
layer {
  name: "conv11/dw/relu"
  type: "ReLU"
  bottom: "conv11/dw"
  top: "conv11/dw"
}
layer {
  name: "conv11"
  type: "Convolution"
  bottom: "conv11/dw"
  top: "conv11"
  param {
    lr_mult: 1
    decay_mult: 1
  }
  param {
    lr_mult: 2
    decay_mult: 0
  }
  convolution_param {
    num_output: 512
    kernel_size: 1
    weight_filler {
      type: "msra"
    }
    bias_filler {
      type: "constant"
      value: 0
    }
  }
}
layer {
  name: "conv11/relu"
  type: "ReLU"
  bottom: "conv11"
  top: "conv11"
}
layer {
  name: "conv12/dw"
  type: "Convolution"
  bottom: "conv11"
  top: "conv12/dw"
  param {
    lr_mult: 1
    decay_mult: 1
  }
  param {
    lr_mult: 2
    decay_mult: 0
  }
  convolution_param {
    num_output: 512
    pad: 1
    kernel_size: 3
    group: 512
    stride: 2
    weight_filler {
      type: "msra"
    }
    bias_filler {
      type: "constant"
      value: 0
    }
    engine: CAFFE
  }
}
layer {
  name: "conv12/dw/relu"
  type: "ReLU"
  bottom: "conv12/dw"
  top: "conv12/dw"
}
layer {
  name: "conv12"
  type: "Convolution"
  bottom: "conv12/dw"
  top: "conv12"
  param {
    lr_mult: 1
    decay_mult: 1
  }
  param {
    lr_mult: 2
    decay_mult: 0
  }
  convolution_param {
    num_output: 1024
    kernel_size: 1
    weight_filler {
      type: "msra"
    }
    bias_filler {
      type: "constant"
      value: 0
    }
  }
}
layer {
  name: "conv12/relu"
  type: "ReLU"
  bottom: "conv12"
  top: "conv12"
}
layer {
  name: "conv13/dw"
  type: "Convolution"
  bottom: "conv12"
  top: "conv13/dw"
  param {
    lr_mult: 1
    decay_mult: 1
  }
  param {
    lr_mult: 2
    decay_mult: 0
  }
  convolution_param {
    num_output: 1024
    pad: 1
    kernel_size: 3
    group: 1024
    weight_filler {
      type: "msra"
    }
    bias_filler {
      type: "constant"
      value: 0
    }
    engine: CAFFE
  }
}
layer {
  name: "conv13/dw/relu"
  type: "ReLU"
  bottom: "conv13/dw"
  top: "conv13/dw"
}
layer {
  name: "conv13"
  type: "Convolution"
  bottom: "conv13/dw"
  top: "conv13"
  param {
    lr_mult: 1
    decay_mult: 1
  }
  param {
    lr_mult: 2
    decay_mult: 0
  }
  convolution_param {
    num_output: 1024
    kernel_size: 1
    weight_filler {
      type: "msra"
    }
    bias_filler {
      type: "constant"
      value: 0
    }
  }
}
layer {
  name: "conv13/relu"
  type: "ReLU"
  bottom: "conv13"
  top: "conv13"
}
layer {
  name: "conv14_1"
  type: "Convolution"
  bottom: "conv13"
  top: "conv14_1"
  param {
    lr_mult: 1
    decay_mult: 1
  }
  param {
    lr_mult: 2
    decay_mult: 0
  }
  convolution_param {
    num_output: 256
    kernel_size: 1
    weight_filler {
      type: "msra"
    }
    bias_filler {
      type: "constant"
      value: 0
    }
  }
}
layer {
  name: "conv14_1/relu"
  type: "ReLU"
  bottom: "conv14_1"
  top: "conv14_1"
}
layer {
  name: "conv14_2"
  type: "Convolution"
  bottom: "conv14_1"
  top: "conv14_2"
  param {
    lr_mult: 1
    decay_mult: 1
  }
  param {
    lr_mult: 2
    decay_mult: 0
  }
  convolution_param {
    num_output: 512
    pad: 1
    kernel_size: 3
    stride: 2
    weight_filler {
      type: "msra"
    }
    bias_filler {
      type: "constant"
      value: 0
    }
  }
}
layer {
  name: "conv14_2/relu"
  type: "ReLU"
  bottom: "conv14_2"
  top: "conv14_2"
}
layer {
  name: "conv15_1"
  type: "Convolution"
  bottom: "conv14_2"
  top: "conv15_1"
  param {
    lr_mult: 1
    decay_mult: 1
  }
  param {
    lr_mult: 2
    decay_mult: 0
  }
  convolution_param {
    num_output: 128
    kernel_size: 1
    weight_filler {
      type: "msra"
    }
    bias_filler {
      type: "constant"
      value: 0
    }
  }
}
layer {
  name: "conv15_1/relu"
  type: "ReLU"
  bottom: "conv15_1"
  top: "conv15_1"
}
layer {
  name: "conv15_2"
  type: "Convolution"
  bottom: "conv15_1"
  top: "conv15_2"
  param {
    lr_mult: 1
    decay_mult: 1
  }
  param {
    lr_mult: 2
    decay_mult: 0
  }
  convolution_param {
    num_output: 256
    pad: 1
    kernel_size: 3
    stride: 2
    weight_filler {
      type: "msra"
    }
    bias_filler {
      type: "constant"
      value: 0
    }
  }
}
layer {
  name: "conv15_2/relu"
  type: "ReLU"
  bottom: "conv15_2"
  top: "conv15_2"
}
layer {
  name: "conv16_1"
  type: "Convolution"
  bottom: "conv15_2"
  top: "conv16_1"
  param {
    lr_mult: 1
    decay_mult: 1
  }
  param {
    lr_mult: 2
    decay_mult: 0
  }
  convolution_param {
    num_output: 128
    kernel_size: 1
    weight_filler {
      type: "msra"
    }
    bias_filler {
      type: "constant"
      value: 0
    }
  }
}
layer {
  name: "conv16_1/relu"
  type: "ReLU"
  bottom: "conv16_1"
  top: "conv16_1"
}
layer {
  name: "conv16_2"
  type: "Convolution"
  bottom: "conv16_1"
  top: "conv16_2"
  param {
    lr_mult: 1
    decay_mult: 1
  }
  param {
    lr_mult: 2
    decay_mult: 0
  }
  convolution_param {
    num_output: 256
    pad: 1
    kernel_size: 3
    stride: 2
    weight_filler {
      type: "msra"
    }
    bias_filler {
      type: "constant"
      value: 0
    }
  }
}
layer {
  name: "conv16_2/relu"
  type: "ReLU"
  bottom: "conv16_2"
  top: "conv16_2"
}
layer {
  name: "conv17_1"
  type: "Convolution"
  bottom: "conv16_2"
  top: "conv17_1"
  param {
    lr_mult: 1
    decay_mult: 1
  }
  param {
    lr_mult: 2
    decay_mult: 0
  }
  convolution_param {
    num_output: 64
    kernel_size: 1
    weight_filler {
      type: "msra"
    }
    bias_filler {
      type: "constant"
      value: 0
    }
  }
}
layer {
  name: "conv17_1/relu"
  type: "ReLU"
  bottom: "conv17_1"
  top: "conv17_1"
}
layer {
  name: "conv17_2"
  type: "Convolution"
  bottom: "conv17_1"
  top: "conv17_2"
  param {
    lr_mult: 1
    decay_mult: 1
  }
  param {
    lr_mult: 2
    decay_mult: 0
  }
  convolution_param {
    num_output: 128
    pad: 1
    kernel_size: 3
    stride: 2
    weight_filler {
      type: "msra"
    }
    bias_filler {
      type: "constant"
      value: 0
    }
  }
}
layer {
  name: "conv17_2/relu"
  type: "ReLU"
  bottom: "conv17_2"
  top: "conv17_2"
}
layer {
  name: "conv11_mbox_loc"
  type: "Convolution"
  bottom: "conv11"
  top: "conv11_mbox_loc"
  param {
    lr_mult: 1
    decay_mult: 1
  }
  param {
    lr_mult: 2
    decay_mult: 0
  }
  convolution_param {
    num_output: 12
    kernel_size: 1
    weight_filler {
      type: "msra"
    }
    bias_filler {
      type: "constant"
      value: 0
    }
  }
}
layer {
  name: "conv11_mbox_loc_perm"
  type: "Permute"
  bottom: "conv11_mbox_loc"
  top: "conv11_mbox_loc_perm"
  permute_param {
    order: 0
    order: 2
    order: 3
    order: 1
  }
}
layer {
  name: "conv11_mbox_loc_flat"
  type: "Flatten"
  bottom: "conv11_mbox_loc_perm"
  top: "conv11_mbox_loc_flat"
  flatten_param {
    axis: 1
  }
}
layer {
  name: "conv11_mbox_conf_new"
  type: "Convolution"
  bottom: "conv11"
  top: "conv11_mbox_conf"
  param {
    lr_mult: 1
    decay_mult: 1
  }
  param {
    lr_mult: 2
    decay_mult: 0
  }
  convolution_param {
    num_output: 63
    kernel_size: 1
    weight_filler {
      type: "msra"
    }
    bias_filler {
      type: "constant"
      value: 0
    }
  }
}
layer {
  name: "conv11_mbox_conf_perm"
  type: "Permute"
  bottom: "conv11_mbox_conf"
  top: "conv11_mbox_conf_perm"
  permute_param {
    order: 0
    order: 2
    order: 3
    order: 1
  }
}
layer {
  name: "conv11_mbox_conf_flat"
  type: "Flatten"
  bottom: "conv11_mbox_conf_perm"
  top: "conv11_mbox_conf_flat"
  flatten_param {
    axis: 1
  }
}
layer {
  name: "conv11_mbox_priorbox"
  type: "PriorBox"
  bottom: "conv11"
  bottom: "data"
  top: "conv11_mbox_priorbox"
  prior_box_param {
    min_size: 60
    aspect_ratio: 2
    flip: true
    clip: false
    variance: 0.1
    variance: 0.1
    variance: 0.2
    variance: 0.2
    offset: 0.5
  }
}
layer {
  name: "conv13_mbox_loc"
  type: "Convolution"
  bottom: "conv13"
  top: "conv13_mbox_loc"
  param {
    lr_mult: 1
    decay_mult: 1
  }
  param {
    lr_mult: 2
    decay_mult: 0
  }
  convolution_param {
    num_output: 24
    kernel_size: 1
    weight_filler {
      type: "msra"
    }
    bias_filler {
      type: "constant"
      value: 0
    }
  }
}
layer {
  name: "conv13_mbox_loc_perm"
  type: "Permute"
  bottom: "conv13_mbox_loc"
  top: "conv13_mbox_loc_perm"
  permute_param {
    order: 0
    order: 2
    order: 3
    order: 1
  }
}
layer {
  name: "conv13_mbox_loc_flat"
  type: "Flatten"
  bottom: "conv13_mbox_loc_perm"
  top: "conv13_mbox_loc_flat"
  flatten_param {
    axis: 1
  }
}
layer {
  name: "conv13_mbox_conf_new"
  type: "Convolution"
  bottom: "conv13"
  top: "conv13_mbox_conf"
  param {
    lr_mult: 1
    decay_mult: 1
  }
  param {
    lr_mult: 2
    decay_mult: 0
  }
  convolution_param {
    num_output: 126
    kernel_size: 1
    weight_filler {
      type: "msra"
    }
    bias_filler {
      type: "constant"
      value: 0
    }
  }
}
layer {
  name: "conv13_mbox_conf_perm"
  type: "Permute"
  bottom: "conv13_mbox_conf"
  top: "conv13_mbox_conf_perm"
  permute_param {
    order: 0
    order: 2
    order: 3
    order: 1
  }
}
layer {
  name: "conv13_mbox_conf_flat"
  type: "Flatten"
  bottom: "conv13_mbox_conf_perm"
  top: "conv13_mbox_conf_flat"
  flatten_param {
    axis: 1
  }
}
layer {
  name: "conv13_mbox_priorbox"
  type: "PriorBox"
  bottom: "conv13"
  bottom: "data"
  top: "conv13_mbox_priorbox"
  prior_box_param {
    min_size: 105
    max_size: 150
    aspect_ratio: 2
    aspect_ratio: 3
    flip: true
    clip: false
    variance: 0.1
    variance: 0.1
    variance: 0.2
    variance: 0.2
    offset: 0.5
  }
}
layer {
  name: "conv14_2_mbox_loc"
  type: "Convolution"
  bottom: "conv14_2"
  top: "conv14_2_mbox_loc"
  param {
    lr_mult: 1
    decay_mult: 1
  }
  param {
    lr_mult: 2
    decay_mult: 0
  }
  convolution_param {
    num_output: 24
    kernel_size: 1
    weight_filler {
      type: "msra"
    }
    bias_filler {
      type: "constant"
      value: 0
    }
  }
}
layer {
  name: "conv14_2_mbox_loc_perm"
  type: "Permute"
  bottom: "conv14_2_mbox_loc"
  top: "conv14_2_mbox_loc_perm"
  permute_param {
    order: 0
    order: 2
    order: 3
    order: 1
  }
}
layer {
  name: "conv14_2_mbox_loc_flat"
  type: "Flatten"
  bottom: "conv14_2_mbox_loc_perm"
  top: "conv14_2_mbox_loc_flat"
  flatten_param {
    axis: 1
  }
}
layer {
  name: "conv14_2_mbox_conf_new"
  type: "Convolution"
  bottom: "conv14_2"
  top: "conv14_2_mbox_conf"
  param {
    lr_mult: 1
    decay_mult: 1
  }
  param {
    lr_mult: 2
    decay_mult: 0
  }
  convolution_param {
    num_output: 126
    kernel_size: 1
    weight_filler {
      type: "msra"
    }
    bias_filler {
      type: "constant"
      value: 0
    }
  }
}
layer {
  name: "conv14_2_mbox_conf_perm"
  type: "Permute"
  bottom: "conv14_2_mbox_conf"
  top: "conv14_2_mbox_conf_perm"
  permute_param {
    order: 0
    order: 2
    order: 3
    order: 1
  }
}
layer {
  name: "conv14_2_mbox_conf_flat"
  type: "Flatten"
  bottom: "conv14_2_mbox_conf_perm"
  top: "conv14_2_mbox_conf_flat"
  flatten_param {
    axis: 1
  }
}
layer {
  name: "conv14_2_mbox_priorbox"
  type: "PriorBox"
  bottom: "conv14_2"
  bottom: "data"
  top: "conv14_2_mbox_priorbox"
  prior_box_param {
    min_size: 150
    max_size: 195
    aspect_ratio: 2
    aspect_ratio: 3
    flip: true
    clip: false
    variance: 0.1
    variance: 0.1
    variance: 0.2
    variance: 0.2
    offset: 0.5
  }
}
layer {
  name: "conv15_2_mbox_loc"
  type: "Convolution"
  bottom: "conv15_2"
  top: "conv15_2_mbox_loc"
  param {
    lr_mult: 1
    decay_mult: 1
  }
  param {
    lr_mult: 2
    decay_mult: 0
  }
  convolution_param {
    num_output: 24
    kernel_size: 1
    weight_filler {
      type: "msra"
    }
    bias_filler {
      type: "constant"
      value: 0
    }
  }
}
layer {
  name: "conv15_2_mbox_loc_perm"
  type: "Permute"
  bottom: "conv15_2_mbox_loc"
  top: "conv15_2_mbox_loc_perm"
  permute_param {
    order: 0
    order: 2
    order: 3
    order: 1
  }
}
layer {
  name: "conv15_2_mbox_loc_flat"
  type: "Flatten"
  bottom: "conv15_2_mbox_loc_perm"
  top: "conv15_2_mbox_loc_flat"
  flatten_param {
    axis: 1
  }
}
layer {
  name: "conv15_2_mbox_conf_new"
  type: "Convolution"
  bottom: "conv15_2"
  top: "conv15_2_mbox_conf"
  param {
    lr_mult: 1
    decay_mult: 1
  }
  param {
    lr_mult: 2
    decay_mult: 0
  }
  convolution_param {
    num_output: 126
    kernel_size: 1
    weight_filler {
      type: "msra"
    }
    bias_filler {
      type: "constant"
      value: 0
    }
  }
}
layer {
  name: "conv15_2_mbox_conf_perm"
  type: "Permute"
  bottom: "conv15_2_mbox_conf"
  top: "conv15_2_mbox_conf_perm"
  permute_param {
    order: 0
    order: 2
    order: 3
    order: 1
  }
}
layer {
  name: "conv15_2_mbox_conf_flat"
  type: "Flatten"
  bottom: "conv15_2_mbox_conf_perm"
  top: "conv15_2_mbox_conf_flat"
  flatten_param {
    axis: 1
  }
}
layer {
  name: "conv15_2_mbox_priorbox"
  type: "PriorBox"
  bottom: "conv15_2"
  bottom: "data"
  top: "conv15_2_mbox_priorbox"
  prior_box_param {
    min_size: 195
    max_size: 240
    aspect_ratio: 2
    aspect_ratio: 3
    flip: true
    clip: false
    variance: 0.1
    variance: 0.1
    variance: 0.2
    variance: 0.2
    offset: 0.5
  }
}
layer {
  name: "conv16_2_mbox_loc"
  type: "Convolution"
  bottom: "conv16_2"
  top: "conv16_2_mbox_loc"
  param {
    lr_mult: 1
    decay_mult: 1
  }
  param {
    lr_mult: 2
    decay_mult: 0
  }
  convolution_param {
    num_output: 24
    kernel_size: 1
    weight_filler {
      type: "msra"
    }
    bias_filler {
      type: "constant"
      value: 0
    }
  }
}
layer {
  name: "conv16_2_mbox_loc_perm"
  type: "Permute"
  bottom: "conv16_2_mbox_loc"
  top: "conv16_2_mbox_loc_perm"
  permute_param {
    order: 0
    order: 2
    order: 3
    order: 1
  }
}
layer {
  name: "conv16_2_mbox_loc_flat"
  type: "Flatten"
  bottom: "conv16_2_mbox_loc_perm"
  top: "conv16_2_mbox_loc_flat"
  flatten_param {
    axis: 1
  }
}
layer {
  name: "conv16_2_mbox_conf_new"
  type: "Convolution"
  bottom: "conv16_2"
  top: "conv16_2_mbox_conf"
  param {
    lr_mult: 1
    decay_mult: 1
  }
  param {
    lr_mult: 2
    decay_mult: 0
  }
  convolution_param {
    num_output: 126
    kernel_size: 1
    weight_filler {
      type: "msra"
    }
    bias_filler {
      type: "constant"
      value: 0
    }
  }
}
layer {
  name: "conv16_2_mbox_conf_perm"
  type: "Permute"
  bottom: "conv16_2_mbox_conf"
  top: "conv16_2_mbox_conf_perm"
  permute_param {
    order: 0
    order: 2
    order: 3
    order: 1
  }
}
layer {
  name: "conv16_2_mbox_conf_flat"
  type: "Flatten"
  bottom: "conv16_2_mbox_conf_perm"
  top: "conv16_2_mbox_conf_flat"
  flatten_param {
    axis: 1
  }
}
layer {
  name: "conv16_2_mbox_priorbox"
  type: "PriorBox"
  bottom: "conv16_2"
  bottom: "data"
  top: "conv16_2_mbox_priorbox"
  prior_box_param {
    min_size: 240
    max_size: 285
    aspect_ratio: 2
    aspect_ratio: 3
    flip: true
    clip: false
    variance: 0.1
    variance: 0.1
    variance: 0.2
    variance: 0.2
    offset: 0.5
  }
}
layer {
  name: "conv17_2_mbox_loc"
  type: "Convolution"
  bottom: "conv17_2"
  top: "conv17_2_mbox_loc"
  param {
    lr_mult: 1
    decay_mult: 1
  }
  param {
    lr_mult: 2
    decay_mult: 0
  }
  convolution_param {
    num_output: 24
    kernel_size: 1
    weight_filler {
      type: "msra"
    }
    bias_filler {
      type: "constant"
      value: 0
    }
  }
}
layer {
  name: "conv17_2_mbox_loc_perm"
  type: "Permute"
  bottom: "conv17_2_mbox_loc"
  top: "conv17_2_mbox_loc_perm"
  permute_param {
    order: 0
    order: 2
    order: 3
    order: 1
  }
}
layer {
  name: "conv17_2_mbox_loc_flat"
  type: "Flatten"
  bottom: "conv17_2_mbox_loc_perm"
  top: "conv17_2_mbox_loc_flat"
  flatten_param {
    axis: 1
  }
}
layer {
  name: "conv17_2_mbox_conf_new"
  type: "Convolution"
  bottom: "conv17_2"
  top: "conv17_2_mbox_conf"
  param {
    lr_mult: 1
    decay_mult: 1
  }
  param {
    lr_mult: 2
    decay_mult: 0
  }
  convolution_param {
    num_output: 126
    kernel_size: 1
    weight_filler {
      type: "msra"
    }
    bias_filler {
      type: "constant"
      value: 0
    }
  }
}
layer {
  name: "conv17_2_mbox_conf_perm"
  type: "Permute"
  bottom: "conv17_2_mbox_conf"
  top: "conv17_2_mbox_conf_perm"
  permute_param {
    order: 0
    order: 2
    order: 3
    order: 1
  }
}
layer {
  name: "conv17_2_mbox_conf_flat"
  type: "Flatten"
  bottom: "conv17_2_mbox_conf_perm"
  top: "conv17_2_mbox_conf_flat"
  flatten_param {
    axis: 1
  }
}
layer {
  name: "conv17_2_mbox_priorbox"
  type: "PriorBox"
  bottom: "conv17_2"
  bottom: "data"
  top: "conv17_2_mbox_priorbox"
  prior_box_param {
    min_size: 285
    max_size: 300
    aspect_ratio: 2
    aspect_ratio: 3
    flip: true
    clip: false
    variance: 0.1
    variance: 0.1
    variance: 0.2
    variance: 0.2
    offset: 0.5
  }
}
layer {
  name: "mbox_loc"
  type: "Concat"
  bottom: "conv11_mbox_loc_flat"
  bottom: "conv13_mbox_loc_flat"
  bottom: "conv14_2_mbox_loc_flat"
  bottom: "conv15_2_mbox_loc_flat"
  bottom: "conv16_2_mbox_loc_flat"
  bottom: "conv17_2_mbox_loc_flat"
  top: "mbox_loc"
  concat_param {
    axis: 1
  }
}
layer {
  name: "mbox_conf"
  type: "Concat"
  bottom: "conv11_mbox_conf_flat"
  bottom: "conv13_mbox_conf_flat"
  bottom: "conv14_2_mbox_conf_flat"
  bottom: "conv15_2_mbox_conf_flat"
  bottom: "conv16_2_mbox_conf_flat"
  bottom: "conv17_2_mbox_conf_flat"
  top: "mbox_conf"
  concat_param {
    axis: 1
  }
}
layer {
  name: "mbox_priorbox"
  type: "Concat"
  bottom: "conv11_mbox_priorbox"
  bottom: "conv13_mbox_priorbox"
  bottom: "conv14_2_mbox_priorbox"
  bottom: "conv15_2_mbox_priorbox"
  bottom: "conv16_2_mbox_priorbox"
  bottom: "conv17_2_mbox_priorbox"
  top: "mbox_priorbox"
  concat_param {
    axis: 2
  }
}
layer {
  name: "mbox_conf_reshape"
  type: "Reshape"
  bottom: "mbox_conf"
  top: "mbox_conf_reshape"
  reshape_param {
    shape {
      dim: 0
      dim: -1
      dim: 21
    }
  }
}
layer {
  name: "mbox_conf_softmax"
  type: "Softmax"
  bottom: "mbox_conf_reshape"
  top: "mbox_conf_softmax"
  softmax_param {
    axis: 2
  }
}
layer {
  name: "mbox_conf_flatten"
  type: "Flatten"
  bottom: "mbox_conf_softmax"
  top: "mbox_conf_flatten"
  flatten_param {
    axis: 1
  }
}
layer {
  name: "detection_out"
  type: "DetectionOutput"
  bottom: "mbox_loc"
  bottom: "mbox_conf_flatten"
  bottom: "mbox_priorbox"
  top: "detection_out"
  include {
    phase: TEST
  }
  detection_output_param {
    num_classes: 21
    share_location: true
    background_label_id: 0
    nms_param {
      nms_threshold: 0.45
      top_k: 100
    }
    code_type: CENTER_SIZE
    keep_top_k: 100
    confidence_threshold: 0.25
  }
}
I1102 21:09:18.507689 13472 layer_factory.hpp:77] Creating layer input
I1102 21:09:18.507704 13472 net.cpp:100] Creating Layer input
I1102 21:09:18.507707 13472 net.cpp:455] input -> data
I1102 21:09:18.507725 13472 net.cpp:150] Setting up input
I1102 21:09:18.507730 13472 net.cpp:157] Top shape: 1 3 300 300 (270000)
I1102 21:09:18.507732 13472 net.cpp:165] Memory required for data: 1080000
I1102 21:09:18.507735 13472 layer_factory.hpp:77] Creating layer data_input_0_split
I1102 21:09:18.507750 13472 net.cpp:100] Creating Layer data_input_0_split
I1102 21:09:18.507752 13472 net.cpp:481] data_input_0_split <- data
I1102 21:09:18.507757 13472 net.cpp:455] data_input_0_split -> data_input_0_split_0
I1102 21:09:18.507763 13472 net.cpp:455] data_input_0_split -> data_input_0_split_1
I1102 21:09:18.507768 13472 net.cpp:455] data_input_0_split -> data_input_0_split_2
I1102 21:09:18.507773 13472 net.cpp:455] data_input_0_split -> data_input_0_split_3
I1102 21:09:18.507778 13472 net.cpp:455] data_input_0_split -> data_input_0_split_4
I1102 21:09:18.507783 13472 net.cpp:455] data_input_0_split -> data_input_0_split_5
I1102 21:09:18.507787 13472 net.cpp:455] data_input_0_split -> data_input_0_split_6
I1102 21:09:18.507800 13472 net.cpp:150] Setting up data_input_0_split
I1102 21:09:18.507804 13472 net.cpp:157] Top shape: 1 3 300 300 (270000)
I1102 21:09:18.507807 13472 net.cpp:157] Top shape: 1 3 300 300 (270000)
I1102 21:09:18.507810 13472 net.cpp:157] Top shape: 1 3 300 300 (270000)
I1102 21:09:18.507813 13472 net.cpp:157] Top shape: 1 3 300 300 (270000)
I1102 21:09:18.507817 13472 net.cpp:157] Top shape: 1 3 300 300 (270000)
I1102 21:09:18.507819 13472 net.cpp:157] Top shape: 1 3 300 300 (270000)
I1102 21:09:18.507822 13472 net.cpp:157] Top shape: 1 3 300 300 (270000)
I1102 21:09:18.507823 13472 net.cpp:165] Memory required for data: 8640000
I1102 21:09:18.507827 13472 layer_factory.hpp:77] Creating layer conv0
I1102 21:09:18.507838 13472 net.cpp:100] Creating Layer conv0
I1102 21:09:18.507840 13472 net.cpp:481] conv0 <- data_input_0_split_0
I1102 21:09:18.507848 13472 net.cpp:455] conv0 -> conv0
I1102 21:09:19.062818 13472 net.cpp:150] Setting up conv0
I1102 21:09:19.062857 13472 net.cpp:157] Top shape: 1 32 150 150 (720000)
I1102 21:09:19.062860 13472 net.cpp:165] Memory required for data: 11520000
I1102 21:09:19.062880 13472 layer_factory.hpp:77] Creating layer conv0/relu
I1102 21:09:19.062909 13472 net.cpp:100] Creating Layer conv0/relu
I1102 21:09:19.062913 13472 net.cpp:481] conv0/relu <- conv0
I1102 21:09:19.062919 13472 net.cpp:442] conv0/relu -> conv0 (in-place)
I1102 21:09:19.063812 13472 net.cpp:150] Setting up conv0/relu
I1102 21:09:19.063829 13472 net.cpp:157] Top shape: 1 32 150 150 (720000)
I1102 21:09:19.063832 13472 net.cpp:165] Memory required for data: 14400000
I1102 21:09:19.063835 13472 layer_factory.hpp:77] Creating layer conv1/dw
I1102 21:09:19.063853 13472 net.cpp:100] Creating Layer conv1/dw
I1102 21:09:19.063855 13472 net.cpp:481] conv1/dw <- conv0
I1102 21:09:19.063860 13472 net.cpp:455] conv1/dw -> conv1/dw
I1102 21:09:19.063932 13472 net.cpp:150] Setting up conv1/dw
I1102 21:09:19.063943 13472 net.cpp:157] Top shape: 1 32 150 150 (720000)
I1102 21:09:19.063946 13472 net.cpp:165] Memory required for data: 17280000
I1102 21:09:19.063952 13472 layer_factory.hpp:77] Creating layer conv1/dw/relu
I1102 21:09:19.063956 13472 net.cpp:100] Creating Layer conv1/dw/relu
I1102 21:09:19.063959 13472 net.cpp:481] conv1/dw/relu <- conv1/dw
I1102 21:09:19.063964 13472 net.cpp:442] conv1/dw/relu -> conv1/dw (in-place)
I1102 21:09:19.064241 13472 net.cpp:150] Setting up conv1/dw/relu
I1102 21:09:19.064254 13472 net.cpp:157] Top shape: 1 32 150 150 (720000)
I1102 21:09:19.064257 13472 net.cpp:165] Memory required for data: 20160000
I1102 21:09:19.064260 13472 layer_factory.hpp:77] Creating layer conv1
I1102 21:09:19.064268 13472 net.cpp:100] Creating Layer conv1
I1102 21:09:19.064271 13472 net.cpp:481] conv1 <- conv1/dw
I1102 21:09:19.064277 13472 net.cpp:455] conv1 -> conv1
I1102 21:09:19.066507 13472 net.cpp:150] Setting up conv1
I1102 21:09:19.066557 13472 net.cpp:157] Top shape: 1 64 150 150 (1440000)
I1102 21:09:19.066560 13472 net.cpp:165] Memory required for data: 25920000
I1102 21:09:19.066568 13472 layer_factory.hpp:77] Creating layer conv1/relu
I1102 21:09:19.066576 13472 net.cpp:100] Creating Layer conv1/relu
I1102 21:09:19.066578 13472 net.cpp:481] conv1/relu <- conv1
I1102 21:09:19.066582 13472 net.cpp:442] conv1/relu -> conv1 (in-place)
I1102 21:09:19.067457 13472 net.cpp:150] Setting up conv1/relu
I1102 21:09:19.067488 13472 net.cpp:157] Top shape: 1 64 150 150 (1440000)
I1102 21:09:19.067492 13472 net.cpp:165] Memory required for data: 31680000
I1102 21:09:19.067494 13472 layer_factory.hpp:77] Creating layer conv2/dw
I1102 21:09:19.067507 13472 net.cpp:100] Creating Layer conv2/dw
I1102 21:09:19.067509 13472 net.cpp:481] conv2/dw <- conv1
I1102 21:09:19.067518 13472 net.cpp:455] conv2/dw -> conv2/dw
I1102 21:09:19.067553 13472 net.cpp:150] Setting up conv2/dw
I1102 21:09:19.067562 13472 net.cpp:157] Top shape: 1 64 75 75 (360000)
I1102 21:09:19.067565 13472 net.cpp:165] Memory required for data: 33120000
I1102 21:09:19.067569 13472 layer_factory.hpp:77] Creating layer conv2/dw/relu
I1102 21:09:19.067574 13472 net.cpp:100] Creating Layer conv2/dw/relu
I1102 21:09:19.067576 13472 net.cpp:481] conv2/dw/relu <- conv2/dw
I1102 21:09:19.067580 13472 net.cpp:442] conv2/dw/relu -> conv2/dw (in-place)
I1102 21:09:19.067879 13472 net.cpp:150] Setting up conv2/dw/relu
I1102 21:09:19.067894 13472 net.cpp:157] Top shape: 1 64 75 75 (360000)
I1102 21:09:19.067896 13472 net.cpp:165] Memory required for data: 34560000
I1102 21:09:19.067899 13472 layer_factory.hpp:77] Creating layer conv2
I1102 21:09:19.067909 13472 net.cpp:100] Creating Layer conv2
I1102 21:09:19.067910 13472 net.cpp:481] conv2 <- conv2/dw
I1102 21:09:19.067915 13472 net.cpp:455] conv2 -> conv2
I1102 21:09:19.069969 13472 net.cpp:150] Setting up conv2
I1102 21:09:19.069988 13472 net.cpp:157] Top shape: 1 128 75 75 (720000)
I1102 21:09:19.069991 13472 net.cpp:165] Memory required for data: 37440000
I1102 21:09:19.069999 13472 layer_factory.hpp:77] Creating layer conv2/relu
I1102 21:09:19.070004 13472 net.cpp:100] Creating Layer conv2/relu
I1102 21:09:19.070008 13472 net.cpp:481] conv2/relu <- conv2
I1102 21:09:19.070011 13472 net.cpp:442] conv2/relu -> conv2 (in-place)
I1102 21:09:19.070982 13472 net.cpp:150] Setting up conv2/relu
I1102 21:09:19.071000 13472 net.cpp:157] Top shape: 1 128 75 75 (720000)
I1102 21:09:19.071003 13472 net.cpp:165] Memory required for data: 40320000
I1102 21:09:19.071007 13472 layer_factory.hpp:77] Creating layer conv3/dw
I1102 21:09:19.071017 13472 net.cpp:100] Creating Layer conv3/dw
I1102 21:09:19.071019 13472 net.cpp:481] conv3/dw <- conv2
I1102 21:09:19.071024 13472 net.cpp:455] conv3/dw -> conv3/dw
I1102 21:09:19.071077 13472 net.cpp:150] Setting up conv3/dw
I1102 21:09:19.071099 13472 net.cpp:157] Top shape: 1 128 75 75 (720000)
I1102 21:09:19.071101 13472 net.cpp:165] Memory required for data: 43200000
I1102 21:09:19.071105 13472 layer_factory.hpp:77] Creating layer conv3/dw/relu
I1102 21:09:19.071110 13472 net.cpp:100] Creating Layer conv3/dw/relu
I1102 21:09:19.071112 13472 net.cpp:481] conv3/dw/relu <- conv3/dw
I1102 21:09:19.071115 13472 net.cpp:442] conv3/dw/relu -> conv3/dw (in-place)
I1102 21:09:19.072039 13472 net.cpp:150] Setting up conv3/dw/relu
I1102 21:09:19.072055 13472 net.cpp:157] Top shape: 1 128 75 75 (720000)
I1102 21:09:19.072058 13472 net.cpp:165] Memory required for data: 46080000
I1102 21:09:19.072060 13472 layer_factory.hpp:77] Creating layer conv3
I1102 21:09:19.072072 13472 net.cpp:100] Creating Layer conv3
I1102 21:09:19.072078 13472 net.cpp:481] conv3 <- conv3/dw
I1102 21:09:19.072083 13472 net.cpp:455] conv3 -> conv3
I1102 21:09:19.074558 13472 net.cpp:150] Setting up conv3
I1102 21:09:19.074592 13472 net.cpp:157] Top shape: 1 128 75 75 (720000)
I1102 21:09:19.074595 13472 net.cpp:165] Memory required for data: 48960000
I1102 21:09:19.074600 13472 layer_factory.hpp:77] Creating layer conv3/relu
I1102 21:09:19.074606 13472 net.cpp:100] Creating Layer conv3/relu
I1102 21:09:19.074609 13472 net.cpp:481] conv3/relu <- conv3
I1102 21:09:19.074615 13472 net.cpp:442] conv3/relu -> conv3 (in-place)
I1102 21:09:19.074870 13472 net.cpp:150] Setting up conv3/relu
I1102 21:09:19.074883 13472 net.cpp:157] Top shape: 1 128 75 75 (720000)
I1102 21:09:19.074887 13472 net.cpp:165] Memory required for data: 51840000
I1102 21:09:19.074888 13472 layer_factory.hpp:77] Creating layer conv4/dw
I1102 21:09:19.074901 13472 net.cpp:100] Creating Layer conv4/dw
I1102 21:09:19.074910 13472 net.cpp:481] conv4/dw <- conv3
I1102 21:09:19.074916 13472 net.cpp:455] conv4/dw -> conv4/dw
I1102 21:09:19.074947 13472 net.cpp:150] Setting up conv4/dw
I1102 21:09:19.074964 13472 net.cpp:157] Top shape: 1 128 38 38 (184832)
I1102 21:09:19.074965 13472 net.cpp:165] Memory required for data: 52579328
I1102 21:09:19.074970 13472 layer_factory.hpp:77] Creating layer conv4/dw/relu
I1102 21:09:19.074975 13472 net.cpp:100] Creating Layer conv4/dw/relu
I1102 21:09:19.074981 13472 net.cpp:481] conv4/dw/relu <- conv4/dw
I1102 21:09:19.074985 13472 net.cpp:442] conv4/dw/relu -> conv4/dw (in-place)
I1102 21:09:19.075783 13472 net.cpp:150] Setting up conv4/dw/relu
I1102 21:09:19.075799 13472 net.cpp:157] Top shape: 1 128 38 38 (184832)
I1102 21:09:19.075803 13472 net.cpp:165] Memory required for data: 53318656
I1102 21:09:19.075804 13472 layer_factory.hpp:77] Creating layer conv4
I1102 21:09:19.075814 13472 net.cpp:100] Creating Layer conv4
I1102 21:09:19.075816 13472 net.cpp:481] conv4 <- conv4/dw
I1102 21:09:19.075822 13472 net.cpp:455] conv4 -> conv4
I1102 21:09:19.079044 13472 net.cpp:150] Setting up conv4
I1102 21:09:19.079064 13472 net.cpp:157] Top shape: 1 256 38 38 (369664)
I1102 21:09:19.079067 13472 net.cpp:165] Memory required for data: 54797312
I1102 21:09:19.079077 13472 layer_factory.hpp:77] Creating layer conv4/relu
I1102 21:09:19.079082 13472 net.cpp:100] Creating Layer conv4/relu
I1102 21:09:19.079085 13472 net.cpp:481] conv4/relu <- conv4
I1102 21:09:19.079089 13472 net.cpp:442] conv4/relu -> conv4 (in-place)
I1102 21:09:19.079354 13472 net.cpp:150] Setting up conv4/relu
I1102 21:09:19.079370 13472 net.cpp:157] Top shape: 1 256 38 38 (369664)
I1102 21:09:19.079372 13472 net.cpp:165] Memory required for data: 56275968
I1102 21:09:19.079375 13472 layer_factory.hpp:77] Creating layer conv5/dw
I1102 21:09:19.079385 13472 net.cpp:100] Creating Layer conv5/dw
I1102 21:09:19.079398 13472 net.cpp:481] conv5/dw <- conv4
I1102 21:09:19.079403 13472 net.cpp:455] conv5/dw -> conv5/dw
I1102 21:09:19.079488 13472 net.cpp:150] Setting up conv5/dw
I1102 21:09:19.079497 13472 net.cpp:157] Top shape: 1 256 38 38 (369664)
I1102 21:09:19.079499 13472 net.cpp:165] Memory required for data: 57754624
I1102 21:09:19.079504 13472 layer_factory.hpp:77] Creating layer conv5/dw/relu
I1102 21:09:19.079509 13472 net.cpp:100] Creating Layer conv5/dw/relu
I1102 21:09:19.079511 13472 net.cpp:481] conv5/dw/relu <- conv5/dw
I1102 21:09:19.079516 13472 net.cpp:442] conv5/dw/relu -> conv5/dw (in-place)
I1102 21:09:19.080590 13472 net.cpp:150] Setting up conv5/dw/relu
I1102 21:09:19.080608 13472 net.cpp:157] Top shape: 1 256 38 38 (369664)
I1102 21:09:19.080611 13472 net.cpp:165] Memory required for data: 59233280
I1102 21:09:19.080615 13472 layer_factory.hpp:77] Creating layer conv5
I1102 21:09:19.080626 13472 net.cpp:100] Creating Layer conv5
I1102 21:09:19.080628 13472 net.cpp:481] conv5 <- conv5/dw
I1102 21:09:19.080633 13472 net.cpp:455] conv5 -> conv5
I1102 21:09:19.084316 13472 net.cpp:150] Setting up conv5
I1102 21:09:19.084367 13472 net.cpp:157] Top shape: 1 256 38 38 (369664)
I1102 21:09:19.084370 13472 net.cpp:165] Memory required for data: 60711936
I1102 21:09:19.084377 13472 layer_factory.hpp:77] Creating layer conv5/relu
I1102 21:09:19.084381 13472 net.cpp:100] Creating Layer conv5/relu
I1102 21:09:19.084384 13472 net.cpp:481] conv5/relu <- conv5
I1102 21:09:19.084389 13472 net.cpp:442] conv5/relu -> conv5 (in-place)
I1102 21:09:19.085377 13472 net.cpp:150] Setting up conv5/relu
I1102 21:09:19.085394 13472 net.cpp:157] Top shape: 1 256 38 38 (369664)
I1102 21:09:19.085397 13472 net.cpp:165] Memory required for data: 62190592
I1102 21:09:19.085399 13472 layer_factory.hpp:77] Creating layer conv6/dw
I1102 21:09:19.085409 13472 net.cpp:100] Creating Layer conv6/dw
I1102 21:09:19.085412 13472 net.cpp:481] conv6/dw <- conv5
I1102 21:09:19.085418 13472 net.cpp:455] conv6/dw -> conv6/dw
I1102 21:09:19.085476 13472 net.cpp:150] Setting up conv6/dw
I1102 21:09:19.085486 13472 net.cpp:157] Top shape: 1 256 19 19 (92416)
I1102 21:09:19.085489 13472 net.cpp:165] Memory required for data: 62560256
I1102 21:09:19.085492 13472 layer_factory.hpp:77] Creating layer conv6/dw/relu
I1102 21:09:19.085496 13472 net.cpp:100] Creating Layer conv6/dw/relu
I1102 21:09:19.085499 13472 net.cpp:481] conv6/dw/relu <- conv6/dw
I1102 21:09:19.085503 13472 net.cpp:442] conv6/dw/relu -> conv6/dw (in-place)
I1102 21:09:19.085779 13472 net.cpp:150] Setting up conv6/dw/relu
I1102 21:09:19.085793 13472 net.cpp:157] Top shape: 1 256 19 19 (92416)
I1102 21:09:19.085795 13472 net.cpp:165] Memory required for data: 62929920
I1102 21:09:19.085798 13472 layer_factory.hpp:77] Creating layer conv6
I1102 21:09:19.085806 13472 net.cpp:100] Creating Layer conv6
I1102 21:09:19.085808 13472 net.cpp:481] conv6 <- conv6/dw
I1102 21:09:19.085814 13472 net.cpp:455] conv6 -> conv6
I1102 21:09:19.089815 13472 net.cpp:150] Setting up conv6
I1102 21:09:19.089849 13472 net.cpp:157] Top shape: 1 512 19 19 (184832)
I1102 21:09:19.089854 13472 net.cpp:165] Memory required for data: 63669248
I1102 21:09:19.089875 13472 layer_factory.hpp:77] Creating layer conv6/relu
I1102 21:09:19.089880 13472 net.cpp:100] Creating Layer conv6/relu
I1102 21:09:19.089884 13472 net.cpp:481] conv6/relu <- conv6
I1102 21:09:19.089890 13472 net.cpp:442] conv6/relu -> conv6 (in-place)
I1102 21:09:19.090875 13472 net.cpp:150] Setting up conv6/relu
I1102 21:09:19.090891 13472 net.cpp:157] Top shape: 1 512 19 19 (184832)
I1102 21:09:19.090894 13472 net.cpp:165] Memory required for data: 64408576
I1102 21:09:19.090898 13472 layer_factory.hpp:77] Creating layer conv7/dw
I1102 21:09:19.090906 13472 net.cpp:100] Creating Layer conv7/dw
I1102 21:09:19.090909 13472 net.cpp:481] conv7/dw <- conv6
I1102 21:09:19.090916 13472 net.cpp:455] conv7/dw -> conv7/dw
I1102 21:09:19.090976 13472 net.cpp:150] Setting up conv7/dw
I1102 21:09:19.091002 13472 net.cpp:157] Top shape: 1 512 19 19 (184832)
I1102 21:09:19.091004 13472 net.cpp:165] Memory required for data: 65147904
I1102 21:09:19.091008 13472 layer_factory.hpp:77] Creating layer conv7/dw/relu
I1102 21:09:19.091012 13472 net.cpp:100] Creating Layer conv7/dw/relu
I1102 21:09:19.091015 13472 net.cpp:481] conv7/dw/relu <- conv7/dw
I1102 21:09:19.091020 13472 net.cpp:442] conv7/dw/relu -> conv7/dw (in-place)
I1102 21:09:19.091315 13472 net.cpp:150] Setting up conv7/dw/relu
I1102 21:09:19.091329 13472 net.cpp:157] Top shape: 1 512 19 19 (184832)
I1102 21:09:19.091331 13472 net.cpp:165] Memory required for data: 65887232
I1102 21:09:19.091334 13472 layer_factory.hpp:77] Creating layer conv7
I1102 21:09:19.091343 13472 net.cpp:100] Creating Layer conv7
I1102 21:09:19.091346 13472 net.cpp:481] conv7 <- conv7/dw
I1102 21:09:19.091351 13472 net.cpp:455] conv7 -> conv7
I1102 21:09:19.096751 13472 net.cpp:150] Setting up conv7
I1102 21:09:19.096770 13472 net.cpp:157] Top shape: 1 512 19 19 (184832)
I1102 21:09:19.096772 13472 net.cpp:165] Memory required for data: 66626560
I1102 21:09:19.096777 13472 layer_factory.hpp:77] Creating layer conv7/relu
I1102 21:09:19.096782 13472 net.cpp:100] Creating Layer conv7/relu
I1102 21:09:19.096786 13472 net.cpp:481] conv7/relu <- conv7
I1102 21:09:19.096791 13472 net.cpp:442] conv7/relu -> conv7 (in-place)
I1102 21:09:19.097649 13472 net.cpp:150] Setting up conv7/relu
I1102 21:09:19.097666 13472 net.cpp:157] Top shape: 1 512 19 19 (184832)
I1102 21:09:19.097669 13472 net.cpp:165] Memory required for data: 67365888
I1102 21:09:19.097672 13472 layer_factory.hpp:77] Creating layer conv8/dw
I1102 21:09:19.097688 13472 net.cpp:100] Creating Layer conv8/dw
I1102 21:09:19.097692 13472 net.cpp:481] conv8/dw <- conv7
I1102 21:09:19.097720 13472 net.cpp:455] conv8/dw -> conv8/dw
I1102 21:09:19.097779 13472 net.cpp:150] Setting up conv8/dw
I1102 21:09:19.097801 13472 net.cpp:157] Top shape: 1 512 19 19 (184832)
I1102 21:09:19.097803 13472 net.cpp:165] Memory required for data: 68105216
I1102 21:09:19.097808 13472 layer_factory.hpp:77] Creating layer conv8/dw/relu
I1102 21:09:19.097811 13472 net.cpp:100] Creating Layer conv8/dw/relu
I1102 21:09:19.097815 13472 net.cpp:481] conv8/dw/relu <- conv8/dw
I1102 21:09:19.097817 13472 net.cpp:442] conv8/dw/relu -> conv8/dw (in-place)
I1102 21:09:19.098804 13472 net.cpp:150] Setting up conv8/dw/relu
I1102 21:09:19.098821 13472 net.cpp:157] Top shape: 1 512 19 19 (184832)
I1102 21:09:19.098824 13472 net.cpp:165] Memory required for data: 68844544
I1102 21:09:19.098827 13472 layer_factory.hpp:77] Creating layer conv8
I1102 21:09:19.098836 13472 net.cpp:100] Creating Layer conv8
I1102 21:09:19.098839 13472 net.cpp:481] conv8 <- conv8/dw
I1102 21:09:19.098845 13472 net.cpp:455] conv8 -> conv8
I1102 21:09:19.103813 13472 net.cpp:150] Setting up conv8
I1102 21:09:19.103834 13472 net.cpp:157] Top shape: 1 512 19 19 (184832)
I1102 21:09:19.103837 13472 net.cpp:165] Memory required for data: 69583872
I1102 21:09:19.103848 13472 layer_factory.hpp:77] Creating layer conv8/relu
I1102 21:09:19.103854 13472 net.cpp:100] Creating Layer conv8/relu
I1102 21:09:19.103857 13472 net.cpp:481] conv8/relu <- conv8
I1102 21:09:19.103862 13472 net.cpp:442] conv8/relu -> conv8 (in-place)
I1102 21:09:19.104140 13472 net.cpp:150] Setting up conv8/relu
I1102 21:09:19.104153 13472 net.cpp:157] Top shape: 1 512 19 19 (184832)
I1102 21:09:19.104156 13472 net.cpp:165] Memory required for data: 70323200
I1102 21:09:19.104158 13472 layer_factory.hpp:77] Creating layer conv9/dw
I1102 21:09:19.104168 13472 net.cpp:100] Creating Layer conv9/dw
I1102 21:09:19.104173 13472 net.cpp:481] conv9/dw <- conv8
I1102 21:09:19.104179 13472 net.cpp:455] conv9/dw -> conv9/dw
I1102 21:09:19.104254 13472 net.cpp:150] Setting up conv9/dw
I1102 21:09:19.104264 13472 net.cpp:157] Top shape: 1 512 19 19 (184832)
I1102 21:09:19.104265 13472 net.cpp:165] Memory required for data: 71062528
I1102 21:09:19.104269 13472 layer_factory.hpp:77] Creating layer conv9/dw/relu
I1102 21:09:19.104274 13472 net.cpp:100] Creating Layer conv9/dw/relu
I1102 21:09:19.104275 13472 net.cpp:481] conv9/dw/relu <- conv9/dw
I1102 21:09:19.104280 13472 net.cpp:442] conv9/dw/relu -> conv9/dw (in-place)
I1102 21:09:19.105110 13472 net.cpp:150] Setting up conv9/dw/relu
I1102 21:09:19.105126 13472 net.cpp:157] Top shape: 1 512 19 19 (184832)
I1102 21:09:19.105129 13472 net.cpp:165] Memory required for data: 71801856
I1102 21:09:19.105131 13472 layer_factory.hpp:77] Creating layer conv9
I1102 21:09:19.105140 13472 net.cpp:100] Creating Layer conv9
I1102 21:09:19.105142 13472 net.cpp:481] conv9 <- conv9/dw
I1102 21:09:19.105149 13472 net.cpp:455] conv9 -> conv9
I1102 21:09:19.110071 13472 net.cpp:150] Setting up conv9
I1102 21:09:19.110091 13472 net.cpp:157] Top shape: 1 512 19 19 (184832)
I1102 21:09:19.110095 13472 net.cpp:165] Memory required for data: 72541184
I1102 21:09:19.110100 13472 layer_factory.hpp:77] Creating layer conv9/relu
I1102 21:09:19.110105 13472 net.cpp:100] Creating Layer conv9/relu
I1102 21:09:19.110106 13472 net.cpp:481] conv9/relu <- conv9
I1102 21:09:19.110110 13472 net.cpp:442] conv9/relu -> conv9 (in-place)
I1102 21:09:19.110419 13472 net.cpp:150] Setting up conv9/relu
I1102 21:09:19.110435 13472 net.cpp:157] Top shape: 1 512 19 19 (184832)
I1102 21:09:19.110438 13472 net.cpp:165] Memory required for data: 73280512
I1102 21:09:19.110441 13472 layer_factory.hpp:77] Creating layer conv10/dw
I1102 21:09:19.110450 13472 net.cpp:100] Creating Layer conv10/dw
I1102 21:09:19.110456 13472 net.cpp:481] conv10/dw <- conv9
I1102 21:09:19.110463 13472 net.cpp:455] conv10/dw -> conv10/dw
I1102 21:09:19.110530 13472 net.cpp:150] Setting up conv10/dw
I1102 21:09:19.110540 13472 net.cpp:157] Top shape: 1 512 19 19 (184832)
I1102 21:09:19.110543 13472 net.cpp:165] Memory required for data: 74019840
I1102 21:09:19.110548 13472 layer_factory.hpp:77] Creating layer conv10/dw/relu
I1102 21:09:19.110553 13472 net.cpp:100] Creating Layer conv10/dw/relu
I1102 21:09:19.110558 13472 net.cpp:481] conv10/dw/relu <- conv10/dw
I1102 21:09:19.110561 13472 net.cpp:442] conv10/dw/relu -> conv10/dw (in-place)
I1102 21:09:19.111398 13472 net.cpp:150] Setting up conv10/dw/relu
I1102 21:09:19.111416 13472 net.cpp:157] Top shape: 1 512 19 19 (184832)
I1102 21:09:19.111419 13472 net.cpp:165] Memory required for data: 74759168
I1102 21:09:19.111423 13472 layer_factory.hpp:77] Creating layer conv10
I1102 21:09:19.111430 13472 net.cpp:100] Creating Layer conv10
I1102 21:09:19.111433 13472 net.cpp:481] conv10 <- conv10/dw
I1102 21:09:19.111439 13472 net.cpp:455] conv10 -> conv10
I1102 21:09:19.116338 13472 net.cpp:150] Setting up conv10
I1102 21:09:19.116355 13472 net.cpp:157] Top shape: 1 512 19 19 (184832)
I1102 21:09:19.116358 13472 net.cpp:165] Memory required for data: 75498496
I1102 21:09:19.116364 13472 layer_factory.hpp:77] Creating layer conv10/relu
I1102 21:09:19.116370 13472 net.cpp:100] Creating Layer conv10/relu
I1102 21:09:19.116374 13472 net.cpp:481] conv10/relu <- conv10
I1102 21:09:19.116377 13472 net.cpp:442] conv10/relu -> conv10 (in-place)
I1102 21:09:19.117269 13472 net.cpp:150] Setting up conv10/relu
I1102 21:09:19.117307 13472 net.cpp:157] Top shape: 1 512 19 19 (184832)
I1102 21:09:19.117311 13472 net.cpp:165] Memory required for data: 76237824
I1102 21:09:19.117312 13472 layer_factory.hpp:77] Creating layer conv11/dw
I1102 21:09:19.117323 13472 net.cpp:100] Creating Layer conv11/dw
I1102 21:09:19.117326 13472 net.cpp:481] conv11/dw <- conv10
I1102 21:09:19.117331 13472 net.cpp:455] conv11/dw -> conv11/dw
I1102 21:09:19.117393 13472 net.cpp:150] Setting up conv11/dw
I1102 21:09:19.117419 13472 net.cpp:157] Top shape: 1 512 19 19 (184832)
I1102 21:09:19.117421 13472 net.cpp:165] Memory required for data: 76977152
I1102 21:09:19.117425 13472 layer_factory.hpp:77] Creating layer conv11/dw/relu
I1102 21:09:19.117441 13472 net.cpp:100] Creating Layer conv11/dw/relu
I1102 21:09:19.117444 13472 net.cpp:481] conv11/dw/relu <- conv11/dw
I1102 21:09:19.117446 13472 net.cpp:442] conv11/dw/relu -> conv11/dw (in-place)
I1102 21:09:19.117736 13472 net.cpp:150] Setting up conv11/dw/relu
I1102 21:09:19.117750 13472 net.cpp:157] Top shape: 1 512 19 19 (184832)
I1102 21:09:19.117753 13472 net.cpp:165] Memory required for data: 77716480
I1102 21:09:19.117755 13472 layer_factory.hpp:77] Creating layer conv11
I1102 21:09:19.117765 13472 net.cpp:100] Creating Layer conv11
I1102 21:09:19.117769 13472 net.cpp:481] conv11 <- conv11/dw
I1102 21:09:19.117774 13472 net.cpp:455] conv11 -> conv11
I1102 21:09:19.122434 13472 net.cpp:150] Setting up conv11
I1102 21:09:19.122452 13472 net.cpp:157] Top shape: 1 512 19 19 (184832)
I1102 21:09:19.122455 13472 net.cpp:165] Memory required for data: 78455808
I1102 21:09:19.122475 13472 layer_factory.hpp:77] Creating layer conv11/relu
I1102 21:09:19.122480 13472 net.cpp:100] Creating Layer conv11/relu
I1102 21:09:19.122483 13472 net.cpp:481] conv11/relu <- conv11
I1102 21:09:19.122489 13472 net.cpp:442] conv11/relu -> conv11 (in-place)
I1102 21:09:19.123330 13472 net.cpp:150] Setting up conv11/relu
I1102 21:09:19.123347 13472 net.cpp:157] Top shape: 1 512 19 19 (184832)
I1102 21:09:19.123350 13472 net.cpp:165] Memory required for data: 79195136
I1102 21:09:19.123353 13472 layer_factory.hpp:77] Creating layer conv11_conv11/relu_0_split
I1102 21:09:19.123361 13472 net.cpp:100] Creating Layer conv11_conv11/relu_0_split
I1102 21:09:19.123364 13472 net.cpp:481] conv11_conv11/relu_0_split <- conv11
I1102 21:09:19.123368 13472 net.cpp:455] conv11_conv11/relu_0_split -> conv11_conv11/relu_0_split_0
I1102 21:09:19.123376 13472 net.cpp:455] conv11_conv11/relu_0_split -> conv11_conv11/relu_0_split_1
I1102 21:09:19.123385 13472 net.cpp:455] conv11_conv11/relu_0_split -> conv11_conv11/relu_0_split_2
I1102 21:09:19.123390 13472 net.cpp:455] conv11_conv11/relu_0_split -> conv11_conv11/relu_0_split_3
I1102 21:09:19.123397 13472 net.cpp:150] Setting up conv11_conv11/relu_0_split
I1102 21:09:19.123400 13472 net.cpp:157] Top shape: 1 512 19 19 (184832)
I1102 21:09:19.123404 13472 net.cpp:157] Top shape: 1 512 19 19 (184832)
I1102 21:09:19.123407 13472 net.cpp:157] Top shape: 1 512 19 19 (184832)
I1102 21:09:19.123409 13472 net.cpp:157] Top shape: 1 512 19 19 (184832)
I1102 21:09:19.123411 13472 net.cpp:165] Memory required for data: 82152448
I1102 21:09:19.123414 13472 layer_factory.hpp:77] Creating layer conv12/dw
I1102 21:09:19.123423 13472 net.cpp:100] Creating Layer conv12/dw
I1102 21:09:19.123425 13472 net.cpp:481] conv12/dw <- conv11_conv11/relu_0_split_0
I1102 21:09:19.123431 13472 net.cpp:455] conv12/dw -> conv12/dw
I1102 21:09:19.123491 13472 net.cpp:150] Setting up conv12/dw
I1102 21:09:19.123502 13472 net.cpp:157] Top shape: 1 512 10 10 (51200)
I1102 21:09:19.123503 13472 net.cpp:165] Memory required for data: 82357248
I1102 21:09:19.123507 13472 layer_factory.hpp:77] Creating layer conv12/dw/relu
I1102 21:09:19.123512 13472 net.cpp:100] Creating Layer conv12/dw/relu
I1102 21:09:19.123514 13472 net.cpp:481] conv12/dw/relu <- conv12/dw
I1102 21:09:19.123519 13472 net.cpp:442] conv12/dw/relu -> conv12/dw (in-place)
I1102 21:09:19.123816 13472 net.cpp:150] Setting up conv12/dw/relu
I1102 21:09:19.123844 13472 net.cpp:157] Top shape: 1 512 10 10 (51200)
I1102 21:09:19.123847 13472 net.cpp:165] Memory required for data: 82562048
I1102 21:09:19.123850 13472 layer_factory.hpp:77] Creating layer conv12
I1102 21:09:19.123860 13472 net.cpp:100] Creating Layer conv12
I1102 21:09:19.123864 13472 net.cpp:481] conv12 <- conv12/dw
I1102 21:09:19.123870 13472 net.cpp:455] conv12 -> conv12
I1102 21:09:19.131700 13472 net.cpp:150] Setting up conv12
I1102 21:09:19.131719 13472 net.cpp:157] Top shape: 1 1024 10 10 (102400)
I1102 21:09:19.131722 13472 net.cpp:165] Memory required for data: 82971648
I1102 21:09:19.131727 13472 layer_factory.hpp:77] Creating layer conv12/relu
I1102 21:09:19.131736 13472 net.cpp:100] Creating Layer conv12/relu
I1102 21:09:19.131738 13472 net.cpp:481] conv12/relu <- conv12
I1102 21:09:19.131742 13472 net.cpp:442] conv12/relu -> conv12 (in-place)
I1102 21:09:19.133462 13472 net.cpp:150] Setting up conv12/relu
I1102 21:09:19.133479 13472 net.cpp:157] Top shape: 1 1024 10 10 (102400)
I1102 21:09:19.133482 13472 net.cpp:165] Memory required for data: 83381248
I1102 21:09:19.133484 13472 layer_factory.hpp:77] Creating layer conv13/dw
I1102 21:09:19.133496 13472 net.cpp:100] Creating Layer conv13/dw
I1102 21:09:19.133498 13472 net.cpp:481] conv13/dw <- conv12
I1102 21:09:19.133503 13472 net.cpp:455] conv13/dw -> conv13/dw
I1102 21:09:19.133627 13472 net.cpp:150] Setting up conv13/dw
I1102 21:09:19.133636 13472 net.cpp:157] Top shape: 1 1024 10 10 (102400)
I1102 21:09:19.133638 13472 net.cpp:165] Memory required for data: 83790848
I1102 21:09:19.133642 13472 layer_factory.hpp:77] Creating layer conv13/dw/relu
I1102 21:09:19.133646 13472 net.cpp:100] Creating Layer conv13/dw/relu
I1102 21:09:19.133651 13472 net.cpp:481] conv13/dw/relu <- conv13/dw
I1102 21:09:19.133653 13472 net.cpp:442] conv13/dw/relu -> conv13/dw (in-place)
I1102 21:09:19.134521 13472 net.cpp:150] Setting up conv13/dw/relu
I1102 21:09:19.134538 13472 net.cpp:157] Top shape: 1 1024 10 10 (102400)
I1102 21:09:19.134541 13472 net.cpp:165] Memory required for data: 84200448
I1102 21:09:19.134543 13472 layer_factory.hpp:77] Creating layer conv13
I1102 21:09:19.134553 13472 net.cpp:100] Creating Layer conv13
I1102 21:09:19.134557 13472 net.cpp:481] conv13 <- conv13/dw
I1102 21:09:19.134565 13472 net.cpp:455] conv13 -> conv13
I1102 21:09:19.147517 13472 net.cpp:150] Setting up conv13
I1102 21:09:19.147536 13472 net.cpp:157] Top shape: 1 1024 10 10 (102400)
I1102 21:09:19.147539 13472 net.cpp:165] Memory required for data: 84610048
I1102 21:09:19.147544 13472 layer_factory.hpp:77] Creating layer conv13/relu
I1102 21:09:19.147549 13472 net.cpp:100] Creating Layer conv13/relu
I1102 21:09:19.147552 13472 net.cpp:481] conv13/relu <- conv13
I1102 21:09:19.147557 13472 net.cpp:442] conv13/relu -> conv13 (in-place)
I1102 21:09:19.147861 13472 net.cpp:150] Setting up conv13/relu
I1102 21:09:19.147878 13472 net.cpp:157] Top shape: 1 1024 10 10 (102400)
I1102 21:09:19.147881 13472 net.cpp:165] Memory required for data: 85019648
I1102 21:09:19.147883 13472 layer_factory.hpp:77] Creating layer conv13_conv13/relu_0_split
I1102 21:09:19.147907 13472 net.cpp:100] Creating Layer conv13_conv13/relu_0_split
I1102 21:09:19.147930 13472 net.cpp:481] conv13_conv13/relu_0_split <- conv13
I1102 21:09:19.147938 13472 net.cpp:455] conv13_conv13/relu_0_split -> conv13_conv13/relu_0_split_0
I1102 21:09:19.147960 13472 net.cpp:455] conv13_conv13/relu_0_split -> conv13_conv13/relu_0_split_1
I1102 21:09:19.147967 13472 net.cpp:455] conv13_conv13/relu_0_split -> conv13_conv13/relu_0_split_2
I1102 21:09:19.147991 13472 net.cpp:455] conv13_conv13/relu_0_split -> conv13_conv13/relu_0_split_3
I1102 21:09:19.147997 13472 net.cpp:150] Setting up conv13_conv13/relu_0_split
I1102 21:09:19.148000 13472 net.cpp:157] Top shape: 1 1024 10 10 (102400)
I1102 21:09:19.148003 13472 net.cpp:157] Top shape: 1 1024 10 10 (102400)
I1102 21:09:19.148007 13472 net.cpp:157] Top shape: 1 1024 10 10 (102400)
I1102 21:09:19.148010 13472 net.cpp:157] Top shape: 1 1024 10 10 (102400)
I1102 21:09:19.148011 13472 net.cpp:165] Memory required for data: 86658048
I1102 21:09:19.148013 13472 layer_factory.hpp:77] Creating layer conv14_1
I1102 21:09:19.148025 13472 net.cpp:100] Creating Layer conv14_1
I1102 21:09:19.148030 13472 net.cpp:481] conv14_1 <- conv13_conv13/relu_0_split_0
I1102 21:09:19.148035 13472 net.cpp:455] conv14_1 -> conv14_1
I1102 21:09:19.152662 13472 net.cpp:150] Setting up conv14_1
I1102 21:09:19.152680 13472 net.cpp:157] Top shape: 1 256 10 10 (25600)
I1102 21:09:19.152683 13472 net.cpp:165] Memory required for data: 86760448
I1102 21:09:19.152688 13472 layer_factory.hpp:77] Creating layer conv14_1/relu
I1102 21:09:19.152693 13472 net.cpp:100] Creating Layer conv14_1/relu
I1102 21:09:19.152696 13472 net.cpp:481] conv14_1/relu <- conv14_1
I1102 21:09:19.152703 13472 net.cpp:442] conv14_1/relu -> conv14_1 (in-place)
I1102 21:09:19.153698 13472 net.cpp:150] Setting up conv14_1/relu
I1102 21:09:19.153715 13472 net.cpp:157] Top shape: 1 256 10 10 (25600)
I1102 21:09:19.153718 13472 net.cpp:165] Memory required for data: 86862848
I1102 21:09:19.153722 13472 layer_factory.hpp:77] Creating layer conv14_2
I1102 21:09:19.153729 13472 net.cpp:100] Creating Layer conv14_2
I1102 21:09:19.153733 13472 net.cpp:481] conv14_2 <- conv14_1
I1102 21:09:19.153739 13472 net.cpp:455] conv14_2 -> conv14_2
I1102 21:09:19.168843 13472 net.cpp:150] Setting up conv14_2
I1102 21:09:19.168864 13472 net.cpp:157] Top shape: 1 512 5 5 (12800)
I1102 21:09:19.168867 13472 net.cpp:165] Memory required for data: 86914048
I1102 21:09:19.168874 13472 layer_factory.hpp:77] Creating layer conv14_2/relu
I1102 21:09:19.168879 13472 net.cpp:100] Creating Layer conv14_2/relu
I1102 21:09:19.168882 13472 net.cpp:481] conv14_2/relu <- conv14_2
I1102 21:09:19.168889 13472 net.cpp:442] conv14_2/relu -> conv14_2 (in-place)
I1102 21:09:19.169235 13472 net.cpp:150] Setting up conv14_2/relu
I1102 21:09:19.169251 13472 net.cpp:157] Top shape: 1 512 5 5 (12800)
I1102 21:09:19.169253 13472 net.cpp:165] Memory required for data: 86965248
I1102 21:09:19.169256 13472 layer_factory.hpp:77] Creating layer conv14_2_conv14_2/relu_0_split
I1102 21:09:19.169265 13472 net.cpp:100] Creating Layer conv14_2_conv14_2/relu_0_split
I1102 21:09:19.169268 13472 net.cpp:481] conv14_2_conv14_2/relu_0_split <- conv14_2
I1102 21:09:19.169275 13472 net.cpp:455] conv14_2_conv14_2/relu_0_split -> conv14_2_conv14_2/relu_0_split_0
I1102 21:09:19.169304 13472 net.cpp:455] conv14_2_conv14_2/relu_0_split -> conv14_2_conv14_2/relu_0_split_1
I1102 21:09:19.169319 13472 net.cpp:455] conv14_2_conv14_2/relu_0_split -> conv14_2_conv14_2/relu_0_split_2
I1102 21:09:19.169324 13472 net.cpp:455] conv14_2_conv14_2/relu_0_split -> conv14_2_conv14_2/relu_0_split_3
I1102 21:09:19.169330 13472 net.cpp:150] Setting up conv14_2_conv14_2/relu_0_split
I1102 21:09:19.169334 13472 net.cpp:157] Top shape: 1 512 5 5 (12800)
I1102 21:09:19.169337 13472 net.cpp:157] Top shape: 1 512 5 5 (12800)
I1102 21:09:19.169339 13472 net.cpp:157] Top shape: 1 512 5 5 (12800)
I1102 21:09:19.169347 13472 net.cpp:157] Top shape: 1 512 5 5 (12800)
I1102 21:09:19.169349 13472 net.cpp:165] Memory required for data: 87170048
I1102 21:09:19.169351 13472 layer_factory.hpp:77] Creating layer conv15_1
I1102 21:09:19.169363 13472 net.cpp:100] Creating Layer conv15_1
I1102 21:09:19.169368 13472 net.cpp:481] conv15_1 <- conv14_2_conv14_2/relu_0_split_0
I1102 21:09:19.169374 13472 net.cpp:455] conv15_1 -> conv15_1
I1102 21:09:19.172193 13472 net.cpp:150] Setting up conv15_1
I1102 21:09:19.172210 13472 net.cpp:157] Top shape: 1 128 5 5 (3200)
I1102 21:09:19.172214 13472 net.cpp:165] Memory required for data: 87182848
I1102 21:09:19.172219 13472 layer_factory.hpp:77] Creating layer conv15_1/relu
I1102 21:09:19.172235 13472 net.cpp:100] Creating Layer conv15_1/relu
I1102 21:09:19.172246 13472 net.cpp:481] conv15_1/relu <- conv15_1
I1102 21:09:19.172250 13472 net.cpp:442] conv15_1/relu -> conv15_1 (in-place)
I1102 21:09:19.173179 13472 net.cpp:150] Setting up conv15_1/relu
I1102 21:09:19.173197 13472 net.cpp:157] Top shape: 1 128 5 5 (3200)
I1102 21:09:19.173199 13472 net.cpp:165] Memory required for data: 87195648
I1102 21:09:19.173203 13472 layer_factory.hpp:77] Creating layer conv15_2
I1102 21:09:19.173214 13472 net.cpp:100] Creating Layer conv15_2
I1102 21:09:19.173218 13472 net.cpp:481] conv15_2 <- conv15_1
I1102 21:09:19.173223 13472 net.cpp:455] conv15_2 -> conv15_2
I1102 21:09:19.178453 13472 net.cpp:150] Setting up conv15_2
I1102 21:09:19.178472 13472 net.cpp:157] Top shape: 1 256 3 3 (2304)
I1102 21:09:19.178474 13472 net.cpp:165] Memory required for data: 87204864
I1102 21:09:19.178479 13472 layer_factory.hpp:77] Creating layer conv15_2/relu
I1102 21:09:19.178484 13472 net.cpp:100] Creating Layer conv15_2/relu
I1102 21:09:19.178486 13472 net.cpp:481] conv15_2/relu <- conv15_2
I1102 21:09:19.178493 13472 net.cpp:442] conv15_2/relu -> conv15_2 (in-place)
I1102 21:09:19.179370 13472 net.cpp:150] Setting up conv15_2/relu
I1102 21:09:19.179389 13472 net.cpp:157] Top shape: 1 256 3 3 (2304)
I1102 21:09:19.179392 13472 net.cpp:165] Memory required for data: 87214080
I1102 21:09:19.179394 13472 layer_factory.hpp:77] Creating layer conv15_2_conv15_2/relu_0_split
I1102 21:09:19.179400 13472 net.cpp:100] Creating Layer conv15_2_conv15_2/relu_0_split
I1102 21:09:19.179404 13472 net.cpp:481] conv15_2_conv15_2/relu_0_split <- conv15_2
I1102 21:09:19.179409 13472 net.cpp:455] conv15_2_conv15_2/relu_0_split -> conv15_2_conv15_2/relu_0_split_0
I1102 21:09:19.179416 13472 net.cpp:455] conv15_2_conv15_2/relu_0_split -> conv15_2_conv15_2/relu_0_split_1
I1102 21:09:19.179420 13472 net.cpp:455] conv15_2_conv15_2/relu_0_split -> conv15_2_conv15_2/relu_0_split_2
I1102 21:09:19.179426 13472 net.cpp:455] conv15_2_conv15_2/relu_0_split -> conv15_2_conv15_2/relu_0_split_3
I1102 21:09:19.179447 13472 net.cpp:150] Setting up conv15_2_conv15_2/relu_0_split
I1102 21:09:19.179450 13472 net.cpp:157] Top shape: 1 256 3 3 (2304)
I1102 21:09:19.179453 13472 net.cpp:157] Top shape: 1 256 3 3 (2304)
I1102 21:09:19.179456 13472 net.cpp:157] Top shape: 1 256 3 3 (2304)
I1102 21:09:19.179458 13472 net.cpp:157] Top shape: 1 256 3 3 (2304)
I1102 21:09:19.179461 13472 net.cpp:165] Memory required for data: 87250944
I1102 21:09:19.179462 13472 layer_factory.hpp:77] Creating layer conv16_1
I1102 21:09:19.179486 13472 net.cpp:100] Creating Layer conv16_1
I1102 21:09:19.179492 13472 net.cpp:481] conv16_1 <- conv15_2_conv15_2/relu_0_split_0
I1102 21:09:19.179498 13472 net.cpp:455] conv16_1 -> conv16_1
I1102 21:09:19.182236 13472 net.cpp:150] Setting up conv16_1
I1102 21:09:19.182255 13472 net.cpp:157] Top shape: 1 128 3 3 (1152)
I1102 21:09:19.182257 13472 net.cpp:165] Memory required for data: 87255552
I1102 21:09:19.182262 13472 layer_factory.hpp:77] Creating layer conv16_1/relu
I1102 21:09:19.182272 13472 net.cpp:100] Creating Layer conv16_1/relu
I1102 21:09:19.182276 13472 net.cpp:481] conv16_1/relu <- conv16_1
I1102 21:09:19.182279 13472 net.cpp:442] conv16_1/relu -> conv16_1 (in-place)
I1102 21:09:19.182579 13472 net.cpp:150] Setting up conv16_1/relu
I1102 21:09:19.182593 13472 net.cpp:157] Top shape: 1 128 3 3 (1152)
I1102 21:09:19.182595 13472 net.cpp:165] Memory required for data: 87260160
I1102 21:09:19.182598 13472 layer_factory.hpp:77] Creating layer conv16_2
I1102 21:09:19.182610 13472 net.cpp:100] Creating Layer conv16_2
I1102 21:09:19.182615 13472 net.cpp:481] conv16_2 <- conv16_1
I1102 21:09:19.182621 13472 net.cpp:455] conv16_2 -> conv16_2
I1102 21:09:19.188132 13472 net.cpp:150] Setting up conv16_2
I1102 21:09:19.188150 13472 net.cpp:157] Top shape: 1 256 2 2 (1024)
I1102 21:09:19.188153 13472 net.cpp:165] Memory required for data: 87264256
I1102 21:09:19.188177 13472 layer_factory.hpp:77] Creating layer conv16_2/relu
I1102 21:09:19.188185 13472 net.cpp:100] Creating Layer conv16_2/relu
I1102 21:09:19.188191 13472 net.cpp:481] conv16_2/relu <- conv16_2
I1102 21:09:19.188195 13472 net.cpp:442] conv16_2/relu -> conv16_2 (in-place)
I1102 21:09:19.189311 13472 net.cpp:150] Setting up conv16_2/relu
I1102 21:09:19.189344 13472 net.cpp:157] Top shape: 1 256 2 2 (1024)
I1102 21:09:19.189347 13472 net.cpp:165] Memory required for data: 87268352
I1102 21:09:19.189350 13472 layer_factory.hpp:77] Creating layer conv16_2_conv16_2/relu_0_split
I1102 21:09:19.189355 13472 net.cpp:100] Creating Layer conv16_2_conv16_2/relu_0_split
I1102 21:09:19.189358 13472 net.cpp:481] conv16_2_conv16_2/relu_0_split <- conv16_2
I1102 21:09:19.189364 13472 net.cpp:455] conv16_2_conv16_2/relu_0_split -> conv16_2_conv16_2/relu_0_split_0
I1102 21:09:19.189371 13472 net.cpp:455] conv16_2_conv16_2/relu_0_split -> conv16_2_conv16_2/relu_0_split_1
I1102 21:09:19.189376 13472 net.cpp:455] conv16_2_conv16_2/relu_0_split -> conv16_2_conv16_2/relu_0_split_2
I1102 21:09:19.189380 13472 net.cpp:455] conv16_2_conv16_2/relu_0_split -> conv16_2_conv16_2/relu_0_split_3
I1102 21:09:19.189388 13472 net.cpp:150] Setting up conv16_2_conv16_2/relu_0_split
I1102 21:09:19.189399 13472 net.cpp:157] Top shape: 1 256 2 2 (1024)
I1102 21:09:19.189402 13472 net.cpp:157] Top shape: 1 256 2 2 (1024)
I1102 21:09:19.189404 13472 net.cpp:157] Top shape: 1 256 2 2 (1024)
I1102 21:09:19.189407 13472 net.cpp:157] Top shape: 1 256 2 2 (1024)
I1102 21:09:19.189409 13472 net.cpp:165] Memory required for data: 87284736
I1102 21:09:19.189411 13472 layer_factory.hpp:77] Creating layer conv17_1
I1102 21:09:19.189420 13472 net.cpp:100] Creating Layer conv17_1
I1102 21:09:19.189424 13472 net.cpp:481] conv17_1 <- conv16_2_conv16_2/relu_0_split_0
I1102 21:09:19.189431 13472 net.cpp:455] conv17_1 -> conv17_1
I1102 21:09:19.192879 13472 net.cpp:150] Setting up conv17_1
I1102 21:09:19.192898 13472 net.cpp:157] Top shape: 1 64 2 2 (256)
I1102 21:09:19.192899 13472 net.cpp:165] Memory required for data: 87285760
I1102 21:09:19.192905 13472 layer_factory.hpp:77] Creating layer conv17_1/relu
I1102 21:09:19.192910 13472 net.cpp:100] Creating Layer conv17_1/relu
I1102 21:09:19.192914 13472 net.cpp:481] conv17_1/relu <- conv17_1
I1102 21:09:19.192919 13472 net.cpp:442] conv17_1/relu -> conv17_1 (in-place)
I1102 21:09:19.193184 13472 net.cpp:150] Setting up conv17_1/relu
I1102 21:09:19.193197 13472 net.cpp:157] Top shape: 1 64 2 2 (256)
I1102 21:09:19.193200 13472 net.cpp:165] Memory required for data: 87286784
I1102 21:09:19.193202 13472 layer_factory.hpp:77] Creating layer conv17_2
I1102 21:09:19.193212 13472 net.cpp:100] Creating Layer conv17_2
I1102 21:09:19.193218 13472 net.cpp:481] conv17_2 <- conv17_1
I1102 21:09:19.193225 13472 net.cpp:455] conv17_2 -> conv17_2
I1102 21:09:19.195993 13472 net.cpp:150] Setting up conv17_2
I1102 21:09:19.196012 13472 net.cpp:157] Top shape: 1 128 1 1 (128)
I1102 21:09:19.196013 13472 net.cpp:165] Memory required for data: 87287296
I1102 21:09:19.196019 13472 layer_factory.hpp:77] Creating layer conv17_2/relu
I1102 21:09:19.196024 13472 net.cpp:100] Creating Layer conv17_2/relu
I1102 21:09:19.196027 13472 net.cpp:481] conv17_2/relu <- conv17_2
I1102 21:09:19.196033 13472 net.cpp:442] conv17_2/relu -> conv17_2 (in-place)
I1102 21:09:19.196900 13472 net.cpp:150] Setting up conv17_2/relu
I1102 21:09:19.196918 13472 net.cpp:157] Top shape: 1 128 1 1 (128)
I1102 21:09:19.196919 13472 net.cpp:165] Memory required for data: 87287808
I1102 21:09:19.196923 13472 layer_factory.hpp:77] Creating layer conv17_2_conv17_2/relu_0_split
I1102 21:09:19.196929 13472 net.cpp:100] Creating Layer conv17_2_conv17_2/relu_0_split
I1102 21:09:19.196933 13472 net.cpp:481] conv17_2_conv17_2/relu_0_split <- conv17_2
I1102 21:09:19.196939 13472 net.cpp:455] conv17_2_conv17_2/relu_0_split -> conv17_2_conv17_2/relu_0_split_0
I1102 21:09:19.196945 13472 net.cpp:455] conv17_2_conv17_2/relu_0_split -> conv17_2_conv17_2/relu_0_split_1
I1102 21:09:19.196961 13472 net.cpp:455] conv17_2_conv17_2/relu_0_split -> conv17_2_conv17_2/relu_0_split_2
I1102 21:09:19.196967 13472 net.cpp:150] Setting up conv17_2_conv17_2/relu_0_split
I1102 21:09:19.196975 13472 net.cpp:157] Top shape: 1 128 1 1 (128)
I1102 21:09:19.197001 13472 net.cpp:157] Top shape: 1 128 1 1 (128)
I1102 21:09:19.197003 13472 net.cpp:157] Top shape: 1 128 1 1 (128)
I1102 21:09:19.197005 13472 net.cpp:165] Memory required for data: 87289344
I1102 21:09:19.197008 13472 layer_factory.hpp:77] Creating layer conv11_mbox_loc
I1102 21:09:19.197018 13472 net.cpp:100] Creating Layer conv11_mbox_loc
I1102 21:09:19.197021 13472 net.cpp:481] conv11_mbox_loc <- conv11_conv11/relu_0_split_1
I1102 21:09:19.197026 13472 net.cpp:455] conv11_mbox_loc -> conv11_mbox_loc
I1102 21:09:19.199636 13472 net.cpp:150] Setting up conv11_mbox_loc
I1102 21:09:19.199654 13472 net.cpp:157] Top shape: 1 12 19 19 (4332)
I1102 21:09:19.199673 13472 net.cpp:165] Memory required for data: 87306672
I1102 21:09:19.199678 13472 layer_factory.hpp:77] Creating layer conv11_mbox_loc_perm
I1102 21:09:19.199688 13472 net.cpp:100] Creating Layer conv11_mbox_loc_perm
I1102 21:09:19.199692 13472 net.cpp:481] conv11_mbox_loc_perm <- conv11_mbox_loc
I1102 21:09:19.199697 13472 net.cpp:455] conv11_mbox_loc_perm -> conv11_mbox_loc_perm
I1102 21:09:19.199712 13472 net.cpp:150] Setting up conv11_mbox_loc_perm
I1102 21:09:19.199718 13472 net.cpp:157] Top shape: 1 19 19 12 (4332)
I1102 21:09:19.199720 13472 net.cpp:165] Memory required for data: 87324000
I1102 21:09:19.199723 13472 layer_factory.hpp:77] Creating layer conv11_mbox_loc_flat
I1102 21:09:19.199729 13472 net.cpp:100] Creating Layer conv11_mbox_loc_flat
I1102 21:09:19.199731 13472 net.cpp:481] conv11_mbox_loc_flat <- conv11_mbox_loc_perm
I1102 21:09:19.199736 13472 net.cpp:455] conv11_mbox_loc_flat -> conv11_mbox_loc_flat
I1102 21:09:19.199743 13472 net.cpp:150] Setting up conv11_mbox_loc_flat
I1102 21:09:19.199745 13472 net.cpp:157] Top shape: 1 4332 (4332)
I1102 21:09:19.199748 13472 net.cpp:165] Memory required for data: 87341328
I1102 21:09:19.199749 13472 layer_factory.hpp:77] Creating layer conv11_mbox_conf_new
I1102 21:09:19.199757 13472 net.cpp:100] Creating Layer conv11_mbox_conf_new
I1102 21:09:19.199769 13472 net.cpp:481] conv11_mbox_conf_new <- conv11_conv11/relu_0_split_2
I1102 21:09:19.199791 13472 net.cpp:455] conv11_mbox_conf_new -> conv11_mbox_conf
I1102 21:09:19.202476 13472 net.cpp:150] Setting up conv11_mbox_conf_new
I1102 21:09:19.202493 13472 net.cpp:157] Top shape: 1 63 19 19 (22743)
I1102 21:09:19.202497 13472 net.cpp:165] Memory required for data: 87432300
I1102 21:09:19.202502 13472 layer_factory.hpp:77] Creating layer conv11_mbox_conf_perm
I1102 21:09:19.202507 13472 net.cpp:100] Creating Layer conv11_mbox_conf_perm
I1102 21:09:19.202510 13472 net.cpp:481] conv11_mbox_conf_perm <- conv11_mbox_conf
I1102 21:09:19.202517 13472 net.cpp:455] conv11_mbox_conf_perm -> conv11_mbox_conf_perm
I1102 21:09:19.202527 13472 net.cpp:150] Setting up conv11_mbox_conf_perm
I1102 21:09:19.202533 13472 net.cpp:157] Top shape: 1 19 19 63 (22743)
I1102 21:09:19.202533 13472 net.cpp:165] Memory required for data: 87523272
I1102 21:09:19.202535 13472 layer_factory.hpp:77] Creating layer conv11_mbox_conf_flat
I1102 21:09:19.202540 13472 net.cpp:100] Creating Layer conv11_mbox_conf_flat
I1102 21:09:19.202543 13472 net.cpp:481] conv11_mbox_conf_flat <- conv11_mbox_conf_perm
I1102 21:09:19.202548 13472 net.cpp:455] conv11_mbox_conf_flat -> conv11_mbox_conf_flat
I1102 21:09:19.202553 13472 net.cpp:150] Setting up conv11_mbox_conf_flat
I1102 21:09:19.202558 13472 net.cpp:157] Top shape: 1 22743 (22743)
I1102 21:09:19.202559 13472 net.cpp:165] Memory required for data: 87614244
I1102 21:09:19.202561 13472 layer_factory.hpp:77] Creating layer conv11_mbox_priorbox
I1102 21:09:19.202569 13472 net.cpp:100] Creating Layer conv11_mbox_priorbox
I1102 21:09:19.202577 13472 net.cpp:481] conv11_mbox_priorbox <- conv11_conv11/relu_0_split_3
I1102 21:09:19.202581 13472 net.cpp:481] conv11_mbox_priorbox <- data_input_0_split_1
I1102 21:09:19.202587 13472 net.cpp:455] conv11_mbox_priorbox -> conv11_mbox_priorbox
I1102 21:09:19.202595 13472 net.cpp:150] Setting up conv11_mbox_priorbox
I1102 21:09:19.202600 13472 net.cpp:157] Top shape: 1 2 4332 (8664)
I1102 21:09:19.202601 13472 net.cpp:165] Memory required for data: 87648900
I1102 21:09:19.202603 13472 layer_factory.hpp:77] Creating layer conv13_mbox_loc
I1102 21:09:19.202611 13472 net.cpp:100] Creating Layer conv13_mbox_loc
I1102 21:09:19.202615 13472 net.cpp:481] conv13_mbox_loc <- conv13_conv13/relu_0_split_1
I1102 21:09:19.202621 13472 net.cpp:455] conv13_mbox_loc -> conv13_mbox_loc
I1102 21:09:19.204993 13472 net.cpp:150] Setting up conv13_mbox_loc
I1102 21:09:19.205011 13472 net.cpp:157] Top shape: 1 24 10 10 (2400)
I1102 21:09:19.205013 13472 net.cpp:165] Memory required for data: 87658500
I1102 21:09:19.205018 13472 layer_factory.hpp:77] Creating layer conv13_mbox_loc_perm
I1102 21:09:19.205026 13472 net.cpp:100] Creating Layer conv13_mbox_loc_perm
I1102 21:09:19.205029 13472 net.cpp:481] conv13_mbox_loc_perm <- conv13_mbox_loc
I1102 21:09:19.205040 13472 net.cpp:455] conv13_mbox_loc_perm -> conv13_mbox_loc_perm
I1102 21:09:19.205060 13472 net.cpp:150] Setting up conv13_mbox_loc_perm
I1102 21:09:19.205068 13472 net.cpp:157] Top shape: 1 10 10 24 (2400)
I1102 21:09:19.205070 13472 net.cpp:165] Memory required for data: 87668100
I1102 21:09:19.205072 13472 layer_factory.hpp:77] Creating layer conv13_mbox_loc_flat
I1102 21:09:19.205076 13472 net.cpp:100] Creating Layer conv13_mbox_loc_flat
I1102 21:09:19.205078 13472 net.cpp:481] conv13_mbox_loc_flat <- conv13_mbox_loc_perm
I1102 21:09:19.205083 13472 net.cpp:455] conv13_mbox_loc_flat -> conv13_mbox_loc_flat
I1102 21:09:19.205088 13472 net.cpp:150] Setting up conv13_mbox_loc_flat
I1102 21:09:19.205091 13472 net.cpp:157] Top shape: 1 2400 (2400)
I1102 21:09:19.205093 13472 net.cpp:165] Memory required for data: 87677700
I1102 21:09:19.205096 13472 layer_factory.hpp:77] Creating layer conv13_mbox_conf_new
I1102 21:09:19.205103 13472 net.cpp:100] Creating Layer conv13_mbox_conf_new
I1102 21:09:19.205106 13472 net.cpp:481] conv13_mbox_conf_new <- conv13_conv13/relu_0_split_2
I1102 21:09:19.205111 13472 net.cpp:455] conv13_mbox_conf_new -> conv13_mbox_conf
I1102 21:09:19.208582 13472 net.cpp:150] Setting up conv13_mbox_conf_new
I1102 21:09:19.208601 13472 net.cpp:157] Top shape: 1 126 10 10 (12600)
I1102 21:09:19.208604 13472 net.cpp:165] Memory required for data: 87728100
I1102 21:09:19.208611 13472 layer_factory.hpp:77] Creating layer conv13_mbox_conf_perm
I1102 21:09:19.208618 13472 net.cpp:100] Creating Layer conv13_mbox_conf_perm
I1102 21:09:19.208621 13472 net.cpp:481] conv13_mbox_conf_perm <- conv13_mbox_conf
I1102 21:09:19.208626 13472 net.cpp:455] conv13_mbox_conf_perm -> conv13_mbox_conf_perm
I1102 21:09:19.208636 13472 net.cpp:150] Setting up conv13_mbox_conf_perm
I1102 21:09:19.208640 13472 net.cpp:157] Top shape: 1 10 10 126 (12600)
I1102 21:09:19.208643 13472 net.cpp:165] Memory required for data: 87778500
I1102 21:09:19.208645 13472 layer_factory.hpp:77] Creating layer conv13_mbox_conf_flat
I1102 21:09:19.208650 13472 net.cpp:100] Creating Layer conv13_mbox_conf_flat
I1102 21:09:19.208658 13472 net.cpp:481] conv13_mbox_conf_flat <- conv13_mbox_conf_perm
I1102 21:09:19.208664 13472 net.cpp:455] conv13_mbox_conf_flat -> conv13_mbox_conf_flat
I1102 21:09:19.208670 13472 net.cpp:150] Setting up conv13_mbox_conf_flat
I1102 21:09:19.208673 13472 net.cpp:157] Top shape: 1 12600 (12600)
I1102 21:09:19.208675 13472 net.cpp:165] Memory required for data: 87828900
I1102 21:09:19.208678 13472 layer_factory.hpp:77] Creating layer conv13_mbox_priorbox
I1102 21:09:19.208684 13472 net.cpp:100] Creating Layer conv13_mbox_priorbox
I1102 21:09:19.208686 13472 net.cpp:481] conv13_mbox_priorbox <- conv13_conv13/relu_0_split_3
I1102 21:09:19.208690 13472 net.cpp:481] conv13_mbox_priorbox <- data_input_0_split_2
I1102 21:09:19.208695 13472 net.cpp:455] conv13_mbox_priorbox -> conv13_mbox_priorbox
I1102 21:09:19.208717 13472 net.cpp:150] Setting up conv13_mbox_priorbox
I1102 21:09:19.208729 13472 net.cpp:157] Top shape: 1 2 2400 (4800)
I1102 21:09:19.208731 13472 net.cpp:165] Memory required for data: 87848100
I1102 21:09:19.208734 13472 layer_factory.hpp:77] Creating layer conv14_2_mbox_loc
I1102 21:09:19.208741 13472 net.cpp:100] Creating Layer conv14_2_mbox_loc
I1102 21:09:19.208747 13472 net.cpp:481] conv14_2_mbox_loc <- conv14_2_conv14_2/relu_0_split_1
I1102 21:09:19.208751 13472 net.cpp:455] conv14_2_mbox_loc -> conv14_2_mbox_loc
I1102 21:09:19.211246 13472 net.cpp:150] Setting up conv14_2_mbox_loc
I1102 21:09:19.211263 13472 net.cpp:157] Top shape: 1 24 5 5 (600)
I1102 21:09:19.211266 13472 net.cpp:165] Memory required for data: 87850500
I1102 21:09:19.211271 13472 layer_factory.hpp:77] Creating layer conv14_2_mbox_loc_perm
I1102 21:09:19.211278 13472 net.cpp:100] Creating Layer conv14_2_mbox_loc_perm
I1102 21:09:19.211282 13472 net.cpp:481] conv14_2_mbox_loc_perm <- conv14_2_mbox_loc
I1102 21:09:19.211292 13472 net.cpp:455] conv14_2_mbox_loc_perm -> conv14_2_mbox_loc_perm
I1102 21:09:19.211303 13472 net.cpp:150] Setting up conv14_2_mbox_loc_perm
I1102 21:09:19.211310 13472 net.cpp:157] Top shape: 1 5 5 24 (600)
I1102 21:09:19.211313 13472 net.cpp:165] Memory required for data: 87852900
I1102 21:09:19.211315 13472 layer_factory.hpp:77] Creating layer conv14_2_mbox_loc_flat
I1102 21:09:19.211319 13472 net.cpp:100] Creating Layer conv14_2_mbox_loc_flat
I1102 21:09:19.211328 13472 net.cpp:481] conv14_2_mbox_loc_flat <- conv14_2_mbox_loc_perm
I1102 21:09:19.211333 13472 net.cpp:455] conv14_2_mbox_loc_flat -> conv14_2_mbox_loc_flat
I1102 21:09:19.211338 13472 net.cpp:150] Setting up conv14_2_mbox_loc_flat
I1102 21:09:19.211341 13472 net.cpp:157] Top shape: 1 600 (600)
I1102 21:09:19.211344 13472 net.cpp:165] Memory required for data: 87855300
I1102 21:09:19.211345 13472 layer_factory.hpp:77] Creating layer conv14_2_mbox_conf_new
I1102 21:09:19.211356 13472 net.cpp:100] Creating Layer conv14_2_mbox_conf_new
I1102 21:09:19.211359 13472 net.cpp:481] conv14_2_mbox_conf_new <- conv14_2_conv14_2/relu_0_split_2
I1102 21:09:19.211364 13472 net.cpp:455] conv14_2_mbox_conf_new -> conv14_2_mbox_conf
I1102 21:09:19.214140 13472 net.cpp:150] Setting up conv14_2_mbox_conf_new
I1102 21:09:19.214157 13472 net.cpp:157] Top shape: 1 126 5 5 (3150)
I1102 21:09:19.214160 13472 net.cpp:165] Memory required for data: 87867900
I1102 21:09:19.214166 13472 layer_factory.hpp:77] Creating layer conv14_2_mbox_conf_perm
I1102 21:09:19.214174 13472 net.cpp:100] Creating Layer conv14_2_mbox_conf_perm
I1102 21:09:19.214179 13472 net.cpp:481] conv14_2_mbox_conf_perm <- conv14_2_mbox_conf
I1102 21:09:19.214182 13472 net.cpp:455] conv14_2_mbox_conf_perm -> conv14_2_mbox_conf_perm
I1102 21:09:19.214195 13472 net.cpp:150] Setting up conv14_2_mbox_conf_perm
I1102 21:09:19.214201 13472 net.cpp:157] Top shape: 1 5 5 126 (3150)
I1102 21:09:19.214203 13472 net.cpp:165] Memory required for data: 87880500
I1102 21:09:19.214205 13472 layer_factory.hpp:77] Creating layer conv14_2_mbox_conf_flat
I1102 21:09:19.214210 13472 net.cpp:100] Creating Layer conv14_2_mbox_conf_flat
I1102 21:09:19.214215 13472 net.cpp:481] conv14_2_mbox_conf_flat <- conv14_2_mbox_conf_perm
I1102 21:09:19.214220 13472 net.cpp:455] conv14_2_mbox_conf_flat -> conv14_2_mbox_conf_flat
I1102 21:09:19.214224 13472 net.cpp:150] Setting up conv14_2_mbox_conf_flat
I1102 21:09:19.214231 13472 net.cpp:157] Top shape: 1 3150 (3150)
I1102 21:09:19.214234 13472 net.cpp:165] Memory required for data: 87893100
I1102 21:09:19.214236 13472 layer_factory.hpp:77] Creating layer conv14_2_mbox_priorbox
I1102 21:09:19.214243 13472 net.cpp:100] Creating Layer conv14_2_mbox_priorbox
I1102 21:09:19.214247 13472 net.cpp:481] conv14_2_mbox_priorbox <- conv14_2_conv14_2/relu_0_split_3
I1102 21:09:19.214251 13472 net.cpp:481] conv14_2_mbox_priorbox <- data_input_0_split_3
I1102 21:09:19.214256 13472 net.cpp:455] conv14_2_mbox_priorbox -> conv14_2_mbox_priorbox
I1102 21:09:19.214262 13472 net.cpp:150] Setting up conv14_2_mbox_priorbox
I1102 21:09:19.214269 13472 net.cpp:157] Top shape: 1 2 600 (1200)
I1102 21:09:19.214272 13472 net.cpp:165] Memory required for data: 87897900
I1102 21:09:19.214273 13472 layer_factory.hpp:77] Creating layer conv15_2_mbox_loc
I1102 21:09:19.214288 13472 net.cpp:100] Creating Layer conv15_2_mbox_loc
I1102 21:09:19.214294 13472 net.cpp:481] conv15_2_mbox_loc <- conv15_2_conv15_2/relu_0_split_1
I1102 21:09:19.214299 13472 net.cpp:455] conv15_2_mbox_loc -> conv15_2_mbox_loc
I1102 21:09:19.216433 13472 net.cpp:150] Setting up conv15_2_mbox_loc
I1102 21:09:19.216450 13472 net.cpp:157] Top shape: 1 24 3 3 (216)
I1102 21:09:19.216452 13472 net.cpp:165] Memory required for data: 87898764
I1102 21:09:19.216457 13472 layer_factory.hpp:77] Creating layer conv15_2_mbox_loc_perm
I1102 21:09:19.216465 13472 net.cpp:100] Creating Layer conv15_2_mbox_loc_perm
I1102 21:09:19.216469 13472 net.cpp:481] conv15_2_mbox_loc_perm <- conv15_2_mbox_loc
I1102 21:09:19.216475 13472 net.cpp:455] conv15_2_mbox_loc_perm -> conv15_2_mbox_loc_perm
I1102 21:09:19.216483 13472 net.cpp:150] Setting up conv15_2_mbox_loc_perm
I1102 21:09:19.216486 13472 net.cpp:157] Top shape: 1 3 3 24 (216)
I1102 21:09:19.216488 13472 net.cpp:165] Memory required for data: 87899628
I1102 21:09:19.216490 13472 layer_factory.hpp:77] Creating layer conv15_2_mbox_loc_flat
I1102 21:09:19.216496 13472 net.cpp:100] Creating Layer conv15_2_mbox_loc_flat
I1102 21:09:19.216505 13472 net.cpp:481] conv15_2_mbox_loc_flat <- conv15_2_mbox_loc_perm
I1102 21:09:19.216508 13472 net.cpp:455] conv15_2_mbox_loc_flat -> conv15_2_mbox_loc_flat
I1102 21:09:19.216513 13472 net.cpp:150] Setting up conv15_2_mbox_loc_flat
I1102 21:09:19.216516 13472 net.cpp:157] Top shape: 1 216 (216)
I1102 21:09:19.216517 13472 net.cpp:165] Memory required for data: 87900492
I1102 21:09:19.216519 13472 layer_factory.hpp:77] Creating layer conv15_2_mbox_conf_new
I1102 21:09:19.216528 13472 net.cpp:100] Creating Layer conv15_2_mbox_conf_new
I1102 21:09:19.216531 13472 net.cpp:481] conv15_2_mbox_conf_new <- conv15_2_conv15_2/relu_0_split_2
I1102 21:09:19.216552 13472 net.cpp:455] conv15_2_mbox_conf_new -> conv15_2_mbox_conf
I1102 21:09:19.218945 13472 net.cpp:150] Setting up conv15_2_mbox_conf_new
I1102 21:09:19.218963 13472 net.cpp:157] Top shape: 1 126 3 3 (1134)
I1102 21:09:19.218966 13472 net.cpp:165] Memory required for data: 87905028
I1102 21:09:19.218971 13472 layer_factory.hpp:77] Creating layer conv15_2_mbox_conf_perm
I1102 21:09:19.218978 13472 net.cpp:100] Creating Layer conv15_2_mbox_conf_perm
I1102 21:09:19.218981 13472 net.cpp:481] conv15_2_mbox_conf_perm <- conv15_2_mbox_conf
I1102 21:09:19.218987 13472 net.cpp:455] conv15_2_mbox_conf_perm -> conv15_2_mbox_conf_perm
I1102 21:09:19.218997 13472 net.cpp:150] Setting up conv15_2_mbox_conf_perm
I1102 21:09:19.219002 13472 net.cpp:157] Top shape: 1 3 3 126 (1134)
I1102 21:09:19.219004 13472 net.cpp:165] Memory required for data: 87909564
I1102 21:09:19.219007 13472 layer_factory.hpp:77] Creating layer conv15_2_mbox_conf_flat
I1102 21:09:19.219010 13472 net.cpp:100] Creating Layer conv15_2_mbox_conf_flat
I1102 21:09:19.219012 13472 net.cpp:481] conv15_2_mbox_conf_flat <- conv15_2_mbox_conf_perm
I1102 21:09:19.219017 13472 net.cpp:455] conv15_2_mbox_conf_flat -> conv15_2_mbox_conf_flat
I1102 21:09:19.219022 13472 net.cpp:150] Setting up conv15_2_mbox_conf_flat
I1102 21:09:19.219030 13472 net.cpp:157] Top shape: 1 1134 (1134)
I1102 21:09:19.219033 13472 net.cpp:165] Memory required for data: 87914100
I1102 21:09:19.219034 13472 layer_factory.hpp:77] Creating layer conv15_2_mbox_priorbox
I1102 21:09:19.219041 13472 net.cpp:100] Creating Layer conv15_2_mbox_priorbox
I1102 21:09:19.219044 13472 net.cpp:481] conv15_2_mbox_priorbox <- conv15_2_conv15_2/relu_0_split_3
I1102 21:09:19.219048 13472 net.cpp:481] conv15_2_mbox_priorbox <- data_input_0_split_4
I1102 21:09:19.219051 13472 net.cpp:455] conv15_2_mbox_priorbox -> conv15_2_mbox_priorbox
I1102 21:09:19.219059 13472 net.cpp:150] Setting up conv15_2_mbox_priorbox
I1102 21:09:19.219063 13472 net.cpp:157] Top shape: 1 2 216 (432)
I1102 21:09:19.219064 13472 net.cpp:165] Memory required for data: 87915828
I1102 21:09:19.219066 13472 layer_factory.hpp:77] Creating layer conv16_2_mbox_loc
I1102 21:09:19.219075 13472 net.cpp:100] Creating Layer conv16_2_mbox_loc
I1102 21:09:19.219085 13472 net.cpp:481] conv16_2_mbox_loc <- conv16_2_conv16_2/relu_0_split_1
I1102 21:09:19.219089 13472 net.cpp:455] conv16_2_mbox_loc -> conv16_2_mbox_loc
I1102 21:09:19.222091 13472 net.cpp:150] Setting up conv16_2_mbox_loc
I1102 21:09:19.222110 13472 net.cpp:157] Top shape: 1 24 2 2 (96)
I1102 21:09:19.222111 13472 net.cpp:165] Memory required for data: 87916212
I1102 21:09:19.222117 13472 layer_factory.hpp:77] Creating layer conv16_2_mbox_loc_perm
I1102 21:09:19.222124 13472 net.cpp:100] Creating Layer conv16_2_mbox_loc_perm
I1102 21:09:19.222127 13472 net.cpp:481] conv16_2_mbox_loc_perm <- conv16_2_mbox_loc
I1102 21:09:19.222144 13472 net.cpp:455] conv16_2_mbox_loc_perm -> conv16_2_mbox_loc_perm
I1102 21:09:19.222157 13472 net.cpp:150] Setting up conv16_2_mbox_loc_perm
I1102 21:09:19.222164 13472 net.cpp:157] Top shape: 1 2 2 24 (96)
I1102 21:09:19.222167 13472 net.cpp:165] Memory required for data: 87916596
I1102 21:09:19.222169 13472 layer_factory.hpp:77] Creating layer conv16_2_mbox_loc_flat
I1102 21:09:19.222173 13472 net.cpp:100] Creating Layer conv16_2_mbox_loc_flat
I1102 21:09:19.222177 13472 net.cpp:481] conv16_2_mbox_loc_flat <- conv16_2_mbox_loc_perm
I1102 21:09:19.222182 13472 net.cpp:455] conv16_2_mbox_loc_flat -> conv16_2_mbox_loc_flat
I1102 21:09:19.222187 13472 net.cpp:150] Setting up conv16_2_mbox_loc_flat
I1102 21:09:19.222189 13472 net.cpp:157] Top shape: 1 96 (96)
I1102 21:09:19.222192 13472 net.cpp:165] Memory required for data: 87916980
I1102 21:09:19.222193 13472 layer_factory.hpp:77] Creating layer conv16_2_mbox_conf_new
I1102 21:09:19.222201 13472 net.cpp:100] Creating Layer conv16_2_mbox_conf_new
I1102 21:09:19.222208 13472 net.cpp:481] conv16_2_mbox_conf_new <- conv16_2_conv16_2/relu_0_split_2
I1102 21:09:19.222213 13472 net.cpp:455] conv16_2_mbox_conf_new -> conv16_2_mbox_conf
I1102 21:09:19.224766 13472 net.cpp:150] Setting up conv16_2_mbox_conf_new
I1102 21:09:19.224783 13472 net.cpp:157] Top shape: 1 126 2 2 (504)
I1102 21:09:19.224786 13472 net.cpp:165] Memory required for data: 87918996
I1102 21:09:19.224792 13472 layer_factory.hpp:77] Creating layer conv16_2_mbox_conf_perm
I1102 21:09:19.224798 13472 net.cpp:100] Creating Layer conv16_2_mbox_conf_perm
I1102 21:09:19.224802 13472 net.cpp:481] conv16_2_mbox_conf_perm <- conv16_2_mbox_conf
I1102 21:09:19.224807 13472 net.cpp:455] conv16_2_mbox_conf_perm -> conv16_2_mbox_conf_perm
I1102 21:09:19.224819 13472 net.cpp:150] Setting up conv16_2_mbox_conf_perm
I1102 21:09:19.224822 13472 net.cpp:157] Top shape: 1 2 2 126 (504)
I1102 21:09:19.224824 13472 net.cpp:165] Memory required for data: 87921012
I1102 21:09:19.224826 13472 layer_factory.hpp:77] Creating layer conv16_2_mbox_conf_flat
I1102 21:09:19.224831 13472 net.cpp:100] Creating Layer conv16_2_mbox_conf_flat
I1102 21:09:19.224839 13472 net.cpp:481] conv16_2_mbox_conf_flat <- conv16_2_mbox_conf_perm
I1102 21:09:19.224844 13472 net.cpp:455] conv16_2_mbox_conf_flat -> conv16_2_mbox_conf_flat
I1102 21:09:19.224851 13472 net.cpp:150] Setting up conv16_2_mbox_conf_flat
I1102 21:09:19.224855 13472 net.cpp:157] Top shape: 1 504 (504)
I1102 21:09:19.224858 13472 net.cpp:165] Memory required for data: 87923028
I1102 21:09:19.224859 13472 layer_factory.hpp:77] Creating layer conv16_2_mbox_priorbox
I1102 21:09:19.224865 13472 net.cpp:100] Creating Layer conv16_2_mbox_priorbox
I1102 21:09:19.224886 13472 net.cpp:481] conv16_2_mbox_priorbox <- conv16_2_conv16_2/relu_0_split_3
I1102 21:09:19.224902 13472 net.cpp:481] conv16_2_mbox_priorbox <- data_input_0_split_5
I1102 21:09:19.224907 13472 net.cpp:455] conv16_2_mbox_priorbox -> conv16_2_mbox_priorbox
I1102 21:09:19.224913 13472 net.cpp:150] Setting up conv16_2_mbox_priorbox
I1102 21:09:19.224917 13472 net.cpp:157] Top shape: 1 2 96 (192)
I1102 21:09:19.224920 13472 net.cpp:165] Memory required for data: 87923796
I1102 21:09:19.224921 13472 layer_factory.hpp:77] Creating layer conv17_2_mbox_loc
I1102 21:09:19.224930 13472 net.cpp:100] Creating Layer conv17_2_mbox_loc
I1102 21:09:19.224939 13472 net.cpp:481] conv17_2_mbox_loc <- conv17_2_conv17_2/relu_0_split_0
I1102 21:09:19.224946 13472 net.cpp:455] conv17_2_mbox_loc -> conv17_2_mbox_loc
I1102 21:09:19.227593 13472 net.cpp:150] Setting up conv17_2_mbox_loc
I1102 21:09:19.227612 13472 net.cpp:157] Top shape: 1 24 1 1 (24)
I1102 21:09:19.227615 13472 net.cpp:165] Memory required for data: 87923892
I1102 21:09:19.227622 13472 layer_factory.hpp:77] Creating layer conv17_2_mbox_loc_perm
I1102 21:09:19.227627 13472 net.cpp:100] Creating Layer conv17_2_mbox_loc_perm
I1102 21:09:19.227630 13472 net.cpp:481] conv17_2_mbox_loc_perm <- conv17_2_mbox_loc
I1102 21:09:19.227638 13472 net.cpp:455] conv17_2_mbox_loc_perm -> conv17_2_mbox_loc_perm
I1102 21:09:19.227648 13472 net.cpp:150] Setting up conv17_2_mbox_loc_perm
I1102 21:09:19.227653 13472 net.cpp:157] Top shape: 1 1 1 24 (24)
I1102 21:09:19.227654 13472 net.cpp:165] Memory required for data: 87923988
I1102 21:09:19.227658 13472 layer_factory.hpp:77] Creating layer conv17_2_mbox_loc_flat
I1102 21:09:19.227663 13472 net.cpp:100] Creating Layer conv17_2_mbox_loc_flat
I1102 21:09:19.227666 13472 net.cpp:481] conv17_2_mbox_loc_flat <- conv17_2_mbox_loc_perm
I1102 21:09:19.227672 13472 net.cpp:455] conv17_2_mbox_loc_flat -> conv17_2_mbox_loc_flat
I1102 21:09:19.227694 13472 net.cpp:150] Setting up conv17_2_mbox_loc_flat
I1102 21:09:19.227705 13472 net.cpp:157] Top shape: 1 24 (24)
I1102 21:09:19.227705 13472 net.cpp:165] Memory required for data: 87924084
I1102 21:09:19.227707 13472 layer_factory.hpp:77] Creating layer conv17_2_mbox_conf_new
I1102 21:09:19.227716 13472 net.cpp:100] Creating Layer conv17_2_mbox_conf_new
I1102 21:09:19.227720 13472 net.cpp:481] conv17_2_mbox_conf_new <- conv17_2_conv17_2/relu_0_split_1
I1102 21:09:19.227727 13472 net.cpp:455] conv17_2_mbox_conf_new -> conv17_2_mbox_conf
I1102 21:09:19.230016 13472 net.cpp:150] Setting up conv17_2_mbox_conf_new
I1102 21:09:19.230034 13472 net.cpp:157] Top shape: 1 126 1 1 (126)
I1102 21:09:19.230036 13472 net.cpp:165] Memory required for data: 87924588
I1102 21:09:19.230041 13472 layer_factory.hpp:77] Creating layer conv17_2_mbox_conf_perm
I1102 21:09:19.230049 13472 net.cpp:100] Creating Layer conv17_2_mbox_conf_perm
I1102 21:09:19.230052 13472 net.cpp:481] conv17_2_mbox_conf_perm <- conv17_2_mbox_conf
I1102 21:09:19.230058 13472 net.cpp:455] conv17_2_mbox_conf_perm -> conv17_2_mbox_conf_perm
I1102 21:09:19.230068 13472 net.cpp:150] Setting up conv17_2_mbox_conf_perm
I1102 21:09:19.230072 13472 net.cpp:157] Top shape: 1 1 1 126 (126)
I1102 21:09:19.230073 13472 net.cpp:165] Memory required for data: 87925092
I1102 21:09:19.230075 13472 layer_factory.hpp:77] Creating layer conv17_2_mbox_conf_flat
I1102 21:09:19.230079 13472 net.cpp:100] Creating Layer conv17_2_mbox_conf_flat
I1102 21:09:19.230083 13472 net.cpp:481] conv17_2_mbox_conf_flat <- conv17_2_mbox_conf_perm
I1102 21:09:19.230088 13472 net.cpp:455] conv17_2_mbox_conf_flat -> conv17_2_mbox_conf_flat
I1102 21:09:19.230099 13472 net.cpp:150] Setting up conv17_2_mbox_conf_flat
I1102 21:09:19.230103 13472 net.cpp:157] Top shape: 1 126 (126)
I1102 21:09:19.230104 13472 net.cpp:165] Memory required for data: 87925596
I1102 21:09:19.230106 13472 layer_factory.hpp:77] Creating layer conv17_2_mbox_priorbox
I1102 21:09:19.230113 13472 net.cpp:100] Creating Layer conv17_2_mbox_priorbox
I1102 21:09:19.230116 13472 net.cpp:481] conv17_2_mbox_priorbox <- conv17_2_conv17_2/relu_0_split_2
I1102 21:09:19.230119 13472 net.cpp:481] conv17_2_mbox_priorbox <- data_input_0_split_6
I1102 21:09:19.230123 13472 net.cpp:455] conv17_2_mbox_priorbox -> conv17_2_mbox_priorbox
I1102 21:09:19.230141 13472 net.cpp:150] Setting up conv17_2_mbox_priorbox
I1102 21:09:19.230146 13472 net.cpp:157] Top shape: 1 2 24 (48)
I1102 21:09:19.230149 13472 net.cpp:165] Memory required for data: 87925788
I1102 21:09:19.230150 13472 layer_factory.hpp:77] Creating layer mbox_loc
I1102 21:09:19.230157 13472 net.cpp:100] Creating Layer mbox_loc
I1102 21:09:19.230159 13472 net.cpp:481] mbox_loc <- conv11_mbox_loc_flat
I1102 21:09:19.230163 13472 net.cpp:481] mbox_loc <- conv13_mbox_loc_flat
I1102 21:09:19.230166 13472 net.cpp:481] mbox_loc <- conv14_2_mbox_loc_flat
I1102 21:09:19.230170 13472 net.cpp:481] mbox_loc <- conv15_2_mbox_loc_flat
I1102 21:09:19.230171 13472 net.cpp:481] mbox_loc <- conv16_2_mbox_loc_flat
I1102 21:09:19.230175 13472 net.cpp:481] mbox_loc <- conv17_2_mbox_loc_flat
I1102 21:09:19.230180 13472 net.cpp:455] mbox_loc -> mbox_loc
I1102 21:09:19.230185 13472 net.cpp:150] Setting up mbox_loc
I1102 21:09:19.230188 13472 net.cpp:157] Top shape: 1 7668 (7668)
I1102 21:09:19.230190 13472 net.cpp:165] Memory required for data: 87956460
I1102 21:09:19.230192 13472 layer_factory.hpp:77] Creating layer mbox_conf
I1102 21:09:19.230196 13472 net.cpp:100] Creating Layer mbox_conf
I1102 21:09:19.230199 13472 net.cpp:481] mbox_conf <- conv11_mbox_conf_flat
I1102 21:09:19.230202 13472 net.cpp:481] mbox_conf <- conv13_mbox_conf_flat
I1102 21:09:19.230204 13472 net.cpp:481] mbox_conf <- conv14_2_mbox_conf_flat
I1102 21:09:19.230207 13472 net.cpp:481] mbox_conf <- conv15_2_mbox_conf_flat
I1102 21:09:19.230211 13472 net.cpp:481] mbox_conf <- conv16_2_mbox_conf_flat
I1102 21:09:19.230212 13472 net.cpp:481] mbox_conf <- conv17_2_mbox_conf_flat
I1102 21:09:19.230216 13472 net.cpp:455] mbox_conf -> mbox_conf
I1102 21:09:19.230223 13472 net.cpp:150] Setting up mbox_conf
I1102 21:09:19.230232 13472 net.cpp:157] Top shape: 1 40257 (40257)
I1102 21:09:19.230234 13472 net.cpp:165] Memory required for data: 88117488
I1102 21:09:19.230235 13472 layer_factory.hpp:77] Creating layer mbox_priorbox
I1102 21:09:19.230239 13472 net.cpp:100] Creating Layer mbox_priorbox
I1102 21:09:19.230242 13472 net.cpp:481] mbox_priorbox <- conv11_mbox_priorbox
I1102 21:09:19.230244 13472 net.cpp:481] mbox_priorbox <- conv13_mbox_priorbox
I1102 21:09:19.230247 13472 net.cpp:481] mbox_priorbox <- conv14_2_mbox_priorbox
I1102 21:09:19.230249 13472 net.cpp:481] mbox_priorbox <- conv15_2_mbox_priorbox
I1102 21:09:19.230252 13472 net.cpp:481] mbox_priorbox <- conv16_2_mbox_priorbox
I1102 21:09:19.230254 13472 net.cpp:481] mbox_priorbox <- conv17_2_mbox_priorbox
I1102 21:09:19.230258 13472 net.cpp:455] mbox_priorbox -> mbox_priorbox
I1102 21:09:19.230262 13472 net.cpp:150] Setting up mbox_priorbox
I1102 21:09:19.230265 13472 net.cpp:157] Top shape: 1 2 7668 (15336)
I1102 21:09:19.230268 13472 net.cpp:165] Memory required for data: 88178832
I1102 21:09:19.230269 13472 layer_factory.hpp:77] Creating layer mbox_conf_reshape
I1102 21:09:19.230275 13472 net.cpp:100] Creating Layer mbox_conf_reshape
I1102 21:09:19.230278 13472 net.cpp:481] mbox_conf_reshape <- mbox_conf
I1102 21:09:19.230281 13472 net.cpp:455] mbox_conf_reshape -> mbox_conf_reshape
I1102 21:09:19.230298 13472 net.cpp:150] Setting up mbox_conf_reshape
I1102 21:09:19.230300 13472 net.cpp:157] Top shape: 1 1917 21 (40257)
I1102 21:09:19.230303 13472 net.cpp:165] Memory required for data: 88339860
I1102 21:09:19.230304 13472 layer_factory.hpp:77] Creating layer mbox_conf_softmax
I1102 21:09:19.230309 13472 net.cpp:100] Creating Layer mbox_conf_softmax
I1102 21:09:19.230311 13472 net.cpp:481] mbox_conf_softmax <- mbox_conf_reshape
I1102 21:09:19.230316 13472 net.cpp:455] mbox_conf_softmax -> mbox_conf_softmax
I1102 21:09:19.231309 13472 net.cpp:150] Setting up mbox_conf_softmax
I1102 21:09:19.231326 13472 net.cpp:157] Top shape: 1 1917 21 (40257)
I1102 21:09:19.231329 13472 net.cpp:165] Memory required for data: 88500888
I1102 21:09:19.231333 13472 layer_factory.hpp:77] Creating layer mbox_conf_flatten
I1102 21:09:19.231338 13472 net.cpp:100] Creating Layer mbox_conf_flatten
I1102 21:09:19.231339 13472 net.cpp:481] mbox_conf_flatten <- mbox_conf_softmax
I1102 21:09:19.231344 13472 net.cpp:455] mbox_conf_flatten -> mbox_conf_flatten
I1102 21:09:19.231350 13472 net.cpp:150] Setting up mbox_conf_flatten
I1102 21:09:19.231353 13472 net.cpp:157] Top shape: 1 40257 (40257)
I1102 21:09:19.231354 13472 net.cpp:165] Memory required for data: 88661916
I1102 21:09:19.231356 13472 layer_factory.hpp:77] Creating layer detection_out
I1102 21:09:19.231377 13472 net.cpp:100] Creating Layer detection_out
I1102 21:09:19.231384 13472 net.cpp:481] detection_out <- mbox_loc
I1102 21:09:19.231387 13472 net.cpp:481] detection_out <- mbox_conf_flatten
I1102 21:09:19.231389 13472 net.cpp:481] detection_out <- mbox_priorbox
I1102 21:09:19.231393 13472 net.cpp:455] detection_out -> detection_out
I1102 21:09:19.231402 13472 net.cpp:150] Setting up detection_out
I1102 21:09:19.231405 13472 net.cpp:157] Top shape: 1 1 1 7 (7)
I1102 21:09:19.231406 13472 net.cpp:165] Memory required for data: 88661944
I1102 21:09:19.231410 13472 net.cpp:228] detection_out does not need backward computation.
I1102 21:09:19.231412 13472 net.cpp:228] mbox_conf_flatten does not need backward computation.
I1102 21:09:19.231415 13472 net.cpp:228] mbox_conf_softmax does not need backward computation.
I1102 21:09:19.231416 13472 net.cpp:228] mbox_conf_reshape does not need backward computation.
…
