…
      sampler {
        min_scale: 0.3
        max_scale: 1
        min_aspect_ratio: 0.5
        max_aspect_ratio: 2
      }
      sample_constraint {
        min_jaccard_overlap: 0.9
      }
      max_sample: 1
      max_trials: 50
    }
    batch_sampler {
      sampler {
        min_scale: 0.3
        max_scale: 1
        min_aspect_ratio: 0.5
        max_aspect_ratio: 2
      }
      sample_constraint {
        max_jaccard_overlap: 1
      }
      max_sample: 1
      max_trials: 50
    }
    label_map_file: "data/VOC0712/labelmap_voc.prototxt"
  }
}
layer {
  name: "conv0"
  type: "Convolution"
  bottom: "data"
  top: "conv0"
  param {
    lr_mult: 0.1
    decay_mult: 0.1
  }
  include {
    phase: TRAIN
  }
  convolution_param {
    num_output: 32
    bias_term: false
    pad: 1
    kernel_size: 3
    stride: 2
    weight_filler {
      type: "msra"
    }
  }
}
layer {
  name: "conv0/bn"
  type: "BatchNorm"
  bottom: "conv0"
  top: "conv0"
}
layer {
  name: "conv0/scale"
  type: "Scale"
  bottom: "conv0"
  top: "conv0"
  param {
    lr_mult: 0.1
    decay_mult: 0
  }
  param {
    lr_mult: 0.2
    decay_mult: 0
  }
  include {
    phase: TRAIN
  }
  scale_param {
    filler {
      value: 1
    }
    bias_term: true
    bias_filler {
      value: 0
    }
  }
}
layer {
  name: "conv0/relu"
  type: "ReLU"
  bottom: "conv0"
  top: "conv0"
}
layer {
  name: "conv1/dw"
  type: "Convolution"
  bottom: "conv0"
  top: "conv1/dw"
  param {
    lr_mult: 0.1
    decay_mult: 0.1
  }
  include {
    phase: TRAIN
  }
  convolution_param {
    num_output: 32
    bias_term: false
    pad: 1
    kernel_size: 3
    group: 32
    weight_filler {
      type: "msra"
    }
    engine: CAFFE
  }
}
layer {
  name: "conv1/dw/bn"
  type: "BatchNorm"
  bottom: "conv1/dw"
  top: "conv1/dw"
}
layer {
  name: "conv1/dw/scale"
  type: "Scale"
  bottom: "conv1/dw"
  top: "conv1/dw"
  param {
    lr_mult: 0.1
    decay_mult: 0
  }
  param {
    lr_mult: 0.2
    decay_mult: 0
  }
  include {
    phase: TRAIN
  }
  scale_param {
    filler {
      value: 1
    }
    bias_term: true
    bias_filler {
      value: 0
    }
  }
}
layer {
  name: "conv1/dw/relu"
  type: "ReLU"
  bottom: "conv1/dw"
  top: "conv1/dw"
}
layer {
  name: "conv1"
  type: "Convolution"
  bottom: "conv1/dw"
  top: "conv1"
  param {
    lr_mult: 0.1
    decay_mult: 0.1
  }
  include {
    phase: TRAIN
  }
  convolution_param {
    num_output: 64
    bias_term: false
    kernel_size: 1
    weight_filler {
      type: "msra"
    }
  }
}
layer {
  name: "conv1/bn"
  type: "BatchNorm"
  bottom: "conv1"
  top: "conv1"
}
layer {
  name: "conv1/scale"
  type: "Scale"
  bottom: "conv1"
  top: "conv1"
  param {
    lr_mult: 0.1
    decay_mult: 0
  }
  param {
    lr_mult: 0.2
    decay_mult: 0
  }
  include {
    phase: TRAIN
  }
  scale_param {
    filler {
      value: 1
    }
    bias_term: true
    bias_filler {
      value: 0
    }
  }
}
layer {
  name: "conv1/relu"
  type: "ReLU"
  bottom: "conv1"
  top: "conv1"
}
layer {
  name: "conv2/dw"
  type: "Convolution"
  bottom: "conv1"
  top: "conv2/dw"
  param {
    lr_mult: 0.1
    decay_mult: 0.1
  }
  include {
    phase: TRAIN
  }
  convolution_param {
    num_output: 64
    bias_term: false
    pad: 1
    kernel_size: 3
    group: 64
    stride: 2
    weight_filler {
      type: "msra"
    }
    engine: CAFFE
  }
}
layer {
  name: "conv2/dw/bn"
  type: "BatchNorm"
  bottom: "conv2/dw"
  top: "conv2/dw"
}
layer {
  name: "conv2/dw/scale"
  type: "Scale"
  bottom: "conv2/dw"
  top: "conv2/dw"
  param {
    lr_mult: 0.1
    decay_mult: 0
  }
  param {
    lr_mult: 0.2
    decay_mult: 0
  }
  include {
    phase: TRAIN
  }
  scale_param {
    filler {
      value: 1
    }
    bias_term: true
    bias_filler {
      value: 0
    }
  }
}
layer {
  name: "conv2/dw/relu"
  type: "ReLU"
  bottom: "conv2/dw"
  top: "conv2/dw"
}
layer {
  name: "conv2"
  type: "Convolution"
  bottom: "conv2/dw"
  top: "conv2"
  param {
    lr_mult: 0.1
    decay_mult: 0.1
  }
  include {
    phase: TRAIN
  }
  convolution_param {
    num_output: 128
    bias_term: false
    kernel_size: 1
    weight_filler {
      type: "msra"
    }
  }
}
layer {
  name: "conv2/bn"
  type: "BatchNorm"
  bottom: "conv2"
  top: "conv2"
}
layer {
  name: "conv2/scale"
  type: "Scale"
  bottom: "conv2"
  top: "conv2"
  param {
    lr_mult: 0.1
    decay_mult: 0
  }
  param {
    lr_mult: 0.2
    decay_mult: 0
  }
  include {
    phase: TRAIN
  }
  scale_param {
    filler {
      value: 1
    }
    bias_term: true
    bias_filler {
      value: 0
    }
  }
}
layer {
  name: "conv2/relu"
  type: "ReLU"
  bottom: "conv2"
  top: "conv2"
}
layer {
  name: "conv3/dw"
  type: "Convolution"
  bottom: "conv2"
  top: "conv3/dw"
  param {
    lr_mult: 0.1
    decay_mult: 0.1
  }
  include {
    phase: TRAIN
  }
  convolution_param {
    num_output: 128
    bias_term: false
    pad: 1
    kernel_size: 3
    group: 128
    weight_filler {
      type: "msra"
    }
    engine: CAFFE
  }
}
layer {
  name: "conv3/dw/bn"
  type: "BatchNorm"
  bottom: "conv3/dw"
  top: "conv3/dw"
}
layer {
  name: "conv3/dw/scale"
  type: "Scale"
  bottom: "conv3/dw"
  top: "conv3/dw"
  param {
    lr_mult: 0.1
    decay_mult: 0
  }
  param {
    lr_mult: 0.2
    decay_mult: 0
  }
  include {
    phase: TRAIN
  }
  scale_param {
    filler {
      value: 1
    }
    bias_term: true
    bias_filler {
      value: 0
    }
  }
}
layer {
  name: "conv3/dw/relu"
  type: "ReLU"
  bottom: "conv3/dw"
  top: "conv3/dw"
}
layer {
  name: "conv3"
  type: "Convolution"
  bottom: "conv3/dw"
  top: "conv3"
  param {
    lr_mult: 0.1
    decay_mult: 0.1
  }
  include {
    phase: TRAIN
  }
  convolution_param {
    num_output: 128
    bias_term: false
    kernel_size: 1
    weight_filler {
      type: "msra"
    }
  }
}
layer {
  name: "conv3/bn"
  type: "BatchNorm"
  bottom: "conv3"
  top: "conv3"
}
layer {
  name: "conv3/scale"
  type: "Scale"
  bottom: "conv3"
  top: "conv3"
  param {
    lr_mult: 0.1
    decay_mult: 0
  }
  param {
    lr_mult: 0.2
    decay_mult: 0
  }
  include {
    phase: TRAIN
  }
  scale_param {
    filler {
      value: 1
    }
    bias_term: true
    bias_filler {
      value: 0
    }
  }
}
layer {
  name: "conv3/relu"
  type: "ReLU"
  bottom: "conv3"
  top: "conv3"
}
layer {
  name: "conv4/dw"
  type: "Convolution"
  bottom: "conv3"
  top: "conv4/dw"
  param {
    lr_mult: 0.1
    decay_mult: 0.1
  }
  include {
    phase: TRAIN
  }
  convolution_param {
    num_output: 128
    bias_term: false
    pad: 1
    kernel_size: 3
    group: 128
    stride: 2
    weight_filler {
      type: "msra"
    }
    engine: CAFFE
  }
}
layer {
  name: "conv4/dw/bn"
  type: "BatchNorm"
  bottom: "conv4/dw"
  top: "conv4/dw"
}
layer {
  name: "conv4/dw/scale"
  type: "Scale"
  bottom: "conv4/dw"
  top: "conv4/dw"
  param {
    lr_mult: 0.1
    decay_mult: 0
  }
  param {
    lr_mult: 0.2
    decay_mult: 0
  }
  include {
    phase: TRAIN
  }
  scale_param {
    filler {
      value: 1
    }
    bias_term: true
    bias_filler {
      value: 0
    }
  }
}
layer {
  name: "conv4/dw/relu"
  type: "ReLU"
  bottom: "conv4/dw"
  top: "conv4/dw"
}
layer {
  name: "conv4"
  type: "Convolution"
  bottom: "conv4/dw"
  top: "conv4"
  param {
    lr_mult: 0.1
    decay_mult: 0.1
  }
  include {
    phase: TRAIN
  }
  convolution_param {
    num_output: 256
    bias_term: false
    kernel_size: 1
    weight_filler {
      type: "msra"
    }
  }
}
layer {
  name: "conv4/bn"
  type: "BatchNorm"
  bottom: "conv4"
  top: "conv4"
}
layer {
  name: "conv4/scale"
  type: "Scale"
  bottom: "conv4"
  top: "conv4"
  param {
    lr_mult: 0.1
    decay_mult: 0
  }
  param {
    lr_mult: 0.2
    decay_mult: 0
  }
  include {
    phase: TRAIN
  }
  scale_param {
    filler {
      value: 1
    }
    bias_term: true
    bias_filler {
      value: 0
    }
  }
}
layer {
  name: "conv4/relu"
  type: "ReLU"
  bottom: "conv4"
  top: "conv4"
}
layer {
  name: "conv5/dw"
  type: "Convolution"
  bottom: "conv4"
  top: "conv5/dw"
  param {
    lr_mult: 0.1
    decay_mult: 0.1
  }
  include {
    phase: TRAIN
  }
  convolution_param {
    num_output: 256
    bias_term: false
    pad: 1
    kernel_size: 3
    group: 256
    weight_filler {
      type: "msra"
    }
    engine: CAFFE
  }
}
layer {
  name: "conv5/dw/bn"
  type: "BatchNorm"
  bottom: "conv5/dw"
  top: "conv5/dw"
}
layer {
  name: "conv5/dw/scale"
  type: "Scale"
  bottom: "conv5/dw"
  top: "conv5/dw"
  param {
    lr_mult: 0.1
    decay_mult: 0
  }
  param {
    lr_mult: 0.2
    decay_mult: 0
  }
  include {
    phase: TRAIN
  }
  scale_param {
    filler {
      value: 1
    }
    bias_term: true
    bias_filler {
      value: 0
    }
  }
}
layer {
  name: "conv5/dw/relu"
  type: "ReLU"
  bottom: "conv5/dw"
  top: "conv5/dw"
}
layer {
  name: "conv5"
  type: "Convolution"
  bottom: "conv5/dw"
  top: "conv5"
  param {
    lr_mult: 0.1
    decay_mult: 0.1
  }
  include {
    phase: TRAIN
  }
  convolution_param {
    num_output: 256
    bias_term: false
    kernel_size: 1
    weight_filler {
      type: "msra"
    }
  }
}
layer {
  name: "conv5/bn"
  type: "BatchNorm"
  bottom: "conv5"
  top: "conv5"
}
layer {
  name: "conv5/scale"
  type: "Scale"
  bottom: "conv5"
  top: "conv5"
  param {
    lr_mult: 0.1
    decay_mult: 0
  }
  param {
    lr_mult: 0.2
    decay_mult: 0
  }
  include {
    phase: TRAIN
  }
  scale_param {
    filler {
      value: 1
    }
    bias_term: true
    bias_filler {
      value: 0
    }
  }
}
layer {
  name: "conv5/relu"
  type: "ReLU"
  bottom: "conv5"
  top: "conv5"
}
layer {
  name: "conv6/dw"
  type: "Convolution"
  bottom: "conv5"
  top: "conv6/dw"
  param {
    lr_mult: 0.1
    decay_mult: 0.1
  }
  include {
    phase: TRAIN
  }
  convolution_param {
    num_output: 256
    bias_term: false
    pad: 1
    kernel_size: 3
    group: 256
    stride: 2
    weight_filler {
      type: "msra"
    }
    engine: CAFFE
  }
}
layer {
  name: "conv6/dw/bn"
  type: "BatchNorm"
  bottom: "conv6/dw"
  top: "conv6/dw"
}
layer {
  name: "conv6/dw/scale"
  type: "Scale"
  bottom: "conv6/dw"
  top: "conv6/dw"
  param {
    lr_mult: 0.1
    decay_mult: 0
  }
  param {
    lr_mult: 0.2
    decay_mult: 0
  }
  include {
    phase: TRAIN
  }
  scale_param {
    filler {
      value: 1
    }
    bias_term: true
    bias_filler {
      value: 0
    }
  }
}
layer {
  name: "conv6/dw/relu"
  type: "ReLU"
  bottom: "conv6/dw"
  top: "conv6/dw"
}
layer {
  name: "conv6"
  type: "Convolution"
  bottom: "conv6/dw"
  top: "conv6"
  param {
    lr_mult: 0.1
    decay_mult: 0.1
  }
  include {
    phase: TRAIN
  }
  convolution_param {
    num_output: 512
    bias_term: false
    kernel_size: 1
    weight_filler {
      type: "msra"
    }
  }
}
layer {
  name: "conv6/bn"
  type: "BatchNorm"
  bottom: "conv6"
  top: "conv6"
}
layer {
  name: "conv6/scale"
  type: "Scale"
  bottom: "conv6"
  top: "conv6"
  param {
    lr_mult: 0.1
    decay_mult: 0
  }
  param {
    lr_mult: 0.2
    decay_mult: 0
  }
  include {
    phase: TRAIN
  }
  scale_param {
    filler {
      value: 1
    }
    bias_term: true
    bias_filler {
      value: 0
    }
  }
}
layer {
  name: "conv6/relu"
  type: "ReLU"
  bottom: "conv6"
  top: "conv6"
}
layer {
  name: "conv7/dw"
  type: "Convolution"
  bottom: "conv6"
  top: "conv7/dw"
  param {
    lr_mult: 0.1
    decay_mult: 0.1
  }
  include {
    phase: TRAIN
  }
  convolution_param {
    num_output: 512
    bias_term: false
    pad: 1
    kernel_size: 3
    group: 512
    weight_filler {
      type: "msra"
    }
    engine: CAFFE
  }
}
layer {
  name: "conv7/dw/bn"
  type: "BatchNorm"
  bottom: "conv7/dw"
  top: "conv7/dw"
}
layer {
  name: "conv7/dw/scale"
  type: "Scale"
  bottom: "conv7/dw"
  top: "conv7/dw"
  param {
    lr_mult: 0.1
    decay_mult: 0
  }
  param {
    lr_mult: 0.2
    decay_mult: 0
  }
  include {
    phase: TRAIN
  }
  scale_param {
    filler {
      value: 1
    }
    bias_term: true
    bias_filler {
      value: 0
    }
  }
}
layer {
  name: "conv7/dw/relu"
  type: "ReLU"
  bottom: "conv7/dw"
  top: "conv7/dw"
}
layer {
  name: "conv7"
  type: "Convolution"
  bottom: "conv7/dw"
  top: "conv7"
  param {
    lr_mult: 0.1
    decay_mult: 0.1
  }
  include {
    phase: TRAIN
  }
  convolution_param {
    num_output: 512
    bias_term: false
    kernel_size: 1
    weight_filler {
      type: "msra"
    }
  }
}
layer {
  name: "conv7/bn"
  type: "BatchNorm"
  bottom: "conv7"
  top: "conv7"
}
layer {
  name: "conv7/scale"
  type: "Scale"
  bottom: "conv7"
  top: "conv7"
  param {
    lr_mult: 0.1
    decay_mult: 0
  }
  param {
    lr_mult: 0.2
    decay_mult: 0
  }
  include {
    phase: TRAIN
  }
  scale_param {
    filler {
      value: 1
    }
    bias_term: true
    bias_filler {
      value: 0
    }
  }
}
layer {
  name: "conv7/relu"
  type: "ReLU"
  bottom: "conv7"
  top: "conv7"
}
layer {
  name: "conv8/dw"
  type: "Convolution"
  bottom: "conv7"
  top: "conv8/dw"
  param {
    lr_mult: 0.1
    decay_mult: 0.1
  }
  include {
    phase: TRAIN
  }
  convolution_param {
    num_output: 512
    bias_term: false
    pad: 1
    kernel_size: 3
    group: 512
    weight_filler {
      type: "msra"
    }
    engine: CAFFE
  }
}
layer {
  name: "conv8/dw/bn"
  type: "BatchNorm"
  bottom: "conv8/dw"
  top: "conv8/dw"
}
layer {
  name: "conv8/dw/scale"
  type: "Scale"
  bottom: "conv8/dw"
  top: "conv8/dw"
  param {
    lr_mult: 0.1
    decay_mult: 0
  }
  param {
    lr_mult: 0.2
    decay_mult: 0
  }
  include {
    phase: TRAIN
  }
  scale_param {
    filler {
      value: 1
    }
    bias_term: true
    bias_filler {
      value: 0
    }
  }
}
layer {
  name: "conv8/dw/relu"
  type: "ReLU"
  bottom: "conv8/dw"
  top: "conv8/dw"
}
layer {
  name: "conv8"
  type: "Convolution"
  bottom: "conv8/dw"
  top: "conv8"
  param {
    lr_mult: 0.1
    decay_mult: 0.1
  }
  include {
    phase: TRAIN
  }
  convolution_param {
    num_output: 512
    bias_term: false
    kernel_size: 1
    weight_filler {
      type: "msra"
    }
  }
}
layer {
  name: "conv8/bn"
  type: "BatchNorm"
  bottom: "conv8"
  top: "conv8"
}
layer {
  name: "conv8/scale"
  type: "Scale"
  bottom: "conv8"
  top: "conv8"
  param {
    lr_mult: 0.1
    decay_mult: 0
  }
  param {
    lr_mult: 0.2
    decay_mult: 0
  }
  include {
    phase: TRAIN
  }
  scale_param {
    filler {
      value: 1
    }
    bias_term: true
    bias_filler {
      value: 0
    }
  }
}
layer {
  name: "conv8/relu"
  type: "ReLU"
  bottom: "conv8"
  top: "conv8"
}
layer {
  name: "conv9/dw"
  type: "Convolution"
  bottom: "conv8"
  top: "conv9/dw"
  param {
    lr_mult: 0.1
    decay_mult: 0.1
  }
  include {
    phase: TRAIN
  }
  convolution_param {
    num_output: 512
    bias_term: false
    pad: 1
    kernel_size: 3
    group: 512
    weight_filler {
      type: "msra"
    }
    engine: CAFFE
  }
}
layer {
  name: "conv9/dw/bn"
  type: "BatchNorm"
  bottom: "conv9/dw"
  top: "conv9/dw"
}
layer {
  name: "conv9/dw/scale"
  type: "Scale"
  bottom: "conv9/dw"
  top: "conv9/dw"
  param {
    lr_mult: 0.1
    decay_mult: 0
  }
  param {
    lr_mult: 0.2
    decay_mult: 0
  }
  include {
    phase: TRAIN
  }
  scale_param {
    filler {
      value: 1
    }
    bias_term: true
    bias_filler {
      value: 0
    }
  }
}
layer {
  name: "conv9/dw/relu"
  type: "ReLU"
  bottom: "conv9/dw"
  top: "conv9/dw"
}
layer {
  name: "conv9"
  type: "Convolution"
  bottom: "conv9/dw"
  top: "conv9"
  param {
    lr_mult: 0.1
    decay_mult: 0.1
  }
  include {
    phase: TRAIN
  }
  convolution_param {
    num_output: 512
    bias_term: false
    kernel_size: 1
    weight_filler {
      type: "msra"
    }
  }
}
layer {
  name: "conv9/bn"
  type: "BatchNorm"
  bottom: "conv9"
  top: "conv9"
}
layer {
  name: "conv9/scale"
  type: "Scale"
  bottom: "conv9"
  top: "conv9"
  param {
    lr_mult: 0.1
    decay_mult: 0
  }
  param {
    lr_mult: 0.2
    decay_mult: 0
  }
  include {
    phase: TRAIN
  }
  scale_param {
    filler {
      value: 1
    }
    bias_term: true
    bias_filler {
      value: 0
    }
  }
}
layer {
  name: "conv9/relu"
  type: "ReLU"
  bottom: "conv9"
  top: "conv9"
}
layer {
  name: "conv10/dw"
  type: "Convolution"
  bottom: "conv9"
  top: "conv10/dw"
  param {
    lr_mult: 0.1
    decay_mult: 0.1
  }
  include {
    phase: TRAIN
  }
  convolution_param {
    num_output: 512
    bias_term: false
    pad: 1
    kernel_size: 3
    group: 512
    weight_filler {
      type: "msra"
    }
    engine: CAFFE
  }
}
layer {
  name: "conv10/dw/bn"
  type: "BatchNorm"
  bottom: "conv10/dw"
  top: "conv10/dw"
}
layer {
  name: "conv10/dw/scale"
  type: "Scale"
  bottom: "conv10/dw"
  top: "conv10/dw"
  param {
    lr_mult: 0.1
    decay_mult: 0
  }
  param {
    lr_mult: 0.2
    decay_mult: 0
  }
  include {
    phase: TRAIN
  }
  scale_param {
    filler {
      value: 1
    }
    bias_term: true
    bias_filler {
      value: 0
    }
  }
}
layer {
  name: "conv10/dw/relu"
  type: "ReLU"
  bottom: "conv10/dw"
  top: "conv10/dw"
}
layer {
  name: "conv10"
  type: "Convolution"
  bottom: "conv10/dw"
  top: "conv10"
  param {
    lr_mult: 0.1
    decay_mult: 0.1
  }
  include {
    phase: TRAIN
  }
  convolution_param {
    num_output: 512
    bias_term: false
    kernel_size: 1
    weight_filler {
      type: "msra"
    }
  }
}
layer {
  name: "conv10/bn"
  type: "BatchNorm"
  bottom: "conv10"
  top: "conv10"
}
layer {
  name: "conv10/scale"
  type: "Scale"
  bottom: "conv10"
  top: "conv10"
  param {
    lr_mult: 0.1
    decay_mult: 0
  }
  param {
    lr_mult: 0.2
    decay_mult: 0
  }
  include {
    phase: TRAIN
  }
  scale_param {
    filler {
      value: 1
    }
    bias_term: true
    bias_filler {
      value: 0
    }
  }
}
layer {
  name: "conv10/relu"
  type: "ReLU"
  bottom: "conv10"
  top: "conv10"
}
layer {
  name: "conv11/dw"
  type: "Convolution"
  bottom: "conv10"
  top: "conv11/dw"
  param {
    lr_mult: 0.1
    decay_mult: 0.1
  }
  include {
    phase: TRAIN
  }
  convolution_param {
    num_output: 512
    bias_term: false
    pad: 1
    kernel_size: 3
    group: 512
    weight_filler {
      type: "msra"
    }
    engine: CAFFE
  }
}
layer {
  name: "conv11/dw/bn"
  type: "BatchNorm"
  bottom: "conv11/dw"
  top: "conv11/dw"
}
layer {
  name: "conv11/dw/scale"
  type: "Scale"
  bottom: "conv11/dw"
  top: "conv11/dw"
  param {
    lr_mult: 0.1
    decay_mult: 0
  }
  param {
    lr_mult: 0.2
    decay_mult: 0
  }
  include {
    phase: TRAIN
  }
  scale_param {
    filler {
      value: 1
    }
    bias_term: true
    bias_filler {
      value: 0
    }
  }
}
layer {
  name: "conv11/dw/relu"
  type: "ReLU"
  bottom: "conv11/dw"
  top: "conv11/dw"
}
layer {
  name: "conv11"
  type: "Convolution"
  bottom: "conv11/dw"
  top: "conv11"
  param {
    lr_mult: 0.1
    decay_mult: 0.1
  }
  include {
    phase: TRAIN
  }
  convolution_param {
    num_output: 512
    bias_term: false
    kernel_size: 1
    weight_filler {
      type: "msra"
    }
  }
}
layer {
  name: "conv11/bn"
  type: "BatchNorm"
  bottom: "conv11"
  top: "conv11"
}
layer {
  name: "conv11/scale"
  type: "Scale"
  bottom: "conv11"
  top: "conv11"
  param {
    lr_mult: 0.1
    decay_mult: 0
  }
  param {
    lr_mult: 0.2
    decay_mult: 0
  }
  include {
    phase: TRAIN
  }
  scale_param {
    filler {
      value: 1
    }
    bias_term: true
    bias_filler {
      value: 0
    }
  }
}
layer {
  name: "conv11/relu"
  type: "ReLU"
  bottom: "conv11"
  top: "conv11"
}
layer {
  name: "conv12/dw"
  type: "Convolution"
  bottom: "conv11"
  top: "conv12/dw"
  param {
    lr_mult: 0.1
    decay_mult: 0.1
  }
  include {
    phase: TRAIN
  }
  convolution_param {
    num_output: 512
    bias_term: false
    pad: 1
    kernel_size: 3
    group: 512
    stride: 2
    weight_filler {
      type: "msra"
    }
    engine: CAFFE
  }
}
layer {
  name: "conv12/dw/bn"
  type: "BatchNorm"
  bottom: "conv12/dw"
  top: "conv12/dw"
}
layer {
  name: "conv12/dw/scale"
  type: "Scale"
  bottom: "conv12/dw"
  top: "conv12/dw"
  param {
    lr_mult: 0.1
    decay_mult: 0
  }
  param {
    lr_mult: 0.2
    decay_mult: 0
  }
  include {
    phase: TRAIN
  }
  scale_param {
    filler {
      value: 1
    }
    bias_term: true
    bias_filler {
      value: 0
    }
  }
}
layer {
  name: "conv12/dw/relu"
  type: "ReLU"
  bottom: "conv12/dw"
  top: "conv12/dw"
}
layer {
  name: "conv12"
  type: "Convolution"
  bottom: "conv12/dw"
  top: "conv12"
  param {
    lr_mult: 0.1
    decay_mult: 0.1
  }
  include {
    phase: TRAIN
  }
  convolution_param {
    num_output: 1024
    bias_term: false
    kernel_size: 1
    weight_filler {
      type: "msra"
    }
  }
}
layer {
  name: "conv12/bn"
  type: "BatchNorm"
  bottom: "conv12"
  top: "conv12"
}
layer {
  name: "conv12/scale"
  type: "Scale"
  bottom: "conv12"
  top: "conv12"
  param {
    lr_mult: 0.1
    decay_mult: 0
  }
  param {
    lr_mult: 0.2
    decay_mult: 0
  }
  include {
    phase: TRAIN
  }
  scale_param {
    filler {
      value: 1
    }
    bias_term: true
    bias_filler {
      value: 0
    }
  }
}
layer {
  name: "conv12/relu"
  type: "ReLU"
  bottom: "conv12"
  top: "conv12"
}
layer {
  name: "conv13/dw"
  type: "Convolution"
  bottom: "conv12"
  top: "conv13/dw"
  param {
    lr_mult: 0.1
    decay_mult: 0.1
  }
  include {
    phase: TRAIN
  }
  convolution_param {
    num_output: 1024
    bias_term: false
    pad: 1
    kernel_size: 3
    group: 1024
    weight_filler {
      type: "msra"
    }
    engine: CAFFE
  }
}
layer {
  name: "conv13/dw/bn"
  type: "BatchNorm"
  bottom: "conv13/dw"
  top: "conv13/dw"
}
layer {
  name: "conv13/dw/scale"
  type: "Scale"
  bottom: "conv13/dw"
  top: "conv13/dw"
  param {
    lr_mult: 0.1
    decay_mult: 0
  }
  param {
    lr_mult: 0.2
    decay_mult: 0
  }
  include {
    phase: TRAIN
  }
  scale_param {
    filler {
      value: 1
    }
    bias_term: true
    bias_filler {
      value: 0
    }
  }
}
layer {
  name: "conv13/dw/relu"
  type: "ReLU"
  bottom: "conv13/dw"
  top: "conv13/dw"
}
layer {
  name: "conv13"
  type: "Convolution"
  bottom: "conv13/dw"
  top: "conv13"
  param {
    lr_mult: 0.1
    decay_mult: 0.1
  }
  include {
    phase: TRAIN
  }
  convolution_param {
    num_output: 1024
    bias_term: false
    kernel_size: 1
    weight_filler {
      type: "msra"
    }
  }
}
layer {
  name: "conv13/bn"
  type: "BatchNorm"
  bottom: "conv13"
  top: "conv13"
}
layer {
  name: "conv13/scale"
  type: "Scale"
  bottom: "conv13"
  top: "conv13"
  param {
    lr_mult: 0.1
    decay_mult: 0
  }
  param {
    lr_mult: 0.2
    decay_mult: 0
  }
  include {
    phase: TRAIN
  }
  scale_param {
    filler {
      value: 1
    }
    bias_term: true
    bias_filler {
      value: 0
    }
  }
}
layer {
  name: "conv13/relu"
  type: "ReLU"
  bottom: "conv13"
  top: "conv13"
}
layer {
  name: "conv14_1"
  type: "Convolution"
  bottom: "conv13"
  top: "conv14_1"
  param {
    lr_mult: 0.1
    decay_mult: 0.1
  }
  include {
    phase: TRAIN
  }
  convolution_param {
    num_output: 256
    bias_term: false
    kernel_size: 1
    weight_filler {
      type: "msra"
    }
  }
}
layer {
  name: "conv14_1/bn"
  type: "BatchNorm"
  bottom: "conv14_1"
  top: "conv14_1"
}
layer {
  name: "conv14_1/scale"
  type: "Scale"
  bottom: "conv14_1"
  top: "conv14_1"
  param {
    lr_mult: 0.1
    decay_mult: 0
  }
  param {
    lr_mult: 0.2
    decay_mult: 0
  }
  include {
    phase: TRAIN
  }
  scale_param {
    filler {
      value: 1
    }
    bias_term: true
    bias_filler {
      value: 0
    }
  }
}
layer {
  name: "conv14_1/relu"
  type: "ReLU"
  bottom: "conv14_1"
  top: "conv14_1"
}
layer {
  name: "conv14_2"
  type: "Convolution"
  bottom: "conv14_1"
  top: "conv14_2"
  param {
    lr_mult: 0.1
    decay_mult: 0.1
  }
  include {
    phase: TRAIN
  }
  convolution_param {
    num_output: 512
    bias_term: false
    pad: 1
    kernel_size: 3
    stride: 2
    weight_filler {
      type: "msra"
    }
  }
}
layer {
  name: "conv14_2/bn"
  type: "BatchNorm"
  bottom: "conv14_2"
  top: "conv14_2"
}
layer {
  name: "conv14_2/scale"
  type: "Scale"
  bottom: "conv14_2"
  top: "conv14_2"
  param {
    lr_mult: 0.1
    decay_mult: 0
  }
  param {
    lr_mult: 0.2
    decay_mult: 0
  }
  include {
    phase: TRAIN
  }
  scale_param {
    filler {
      value: 1
    }
    bias_term: true
    bias_filler {
      value: 0
    }
  }
}
layer {
  name: "conv14_2/relu"
  type: "ReLU"
  bottom: "conv14_2"
  top: "conv14_2"
}
layer {
  name: "conv15_1"
  type: "Convolution"
  bottom: "conv14_2"
  top: "conv15_1"
  param {
    lr_mult: 0.1
    decay_mult: 0.1
  }
  include {
    phase: TRAIN
  }
  convolution_param {
    num_output: 128
    bias_term: false
    kernel_size: 1
    weight_filler {
      type: "msra"
    }
  }
}
layer {
  name: "conv15_1/bn"
  type: "BatchNorm"
  bottom: "conv15_1"
  top: "conv15_1"
}
layer {
  name: "conv15_1/scale"
  type: "Scale"
  bottom: "conv15_1"
  top: "conv15_1"
  param {
    lr_mult: 0.1
    decay_mult: 0
  }
  param {
    lr_mult: 0.2
    decay_mult: 0
  }
  include {
    phase: TRAIN
  }
  scale_param {
    filler {
      value: 1
    }
    bias_term: true
    bias_filler {
      value: 0
    }
  }
}
layer {
  name: "conv15_1/relu"
  type: "ReLU"
  bottom: "conv15_1"
  top: "conv15_1"
}
layer {
  name: "conv15_2"
  type: "Convolution"
  bottom: "conv15_1"
  top: "conv15_2"
  param {
    lr_mult: 0.1
    decay_mult: 0.1
  }
  include {
    phase: TRAIN
  }
  convolution_param {
    num_output: 256
    bias_term: false
    pad: 1
    kernel_size: 3
    stride: 2
    weight_filler {
      type: "msra"
    }
  }
}
layer {
  name: "conv15_2/bn"
  type: "BatchNorm"
  bottom: "conv15_2"
  top: "conv15_2"
}
layer {
  name: "conv15_2/scale"
  type: "Scale"
  bottom: "conv15_2"
  top: "conv15_2"
  param {
    lr_mult: 0.1
    decay_mult: 0
  }
  param {
    lr_mult: 0.2
    decay_mult: 0
  }
  include {
    phase: TRAIN
  }
  scale_param {
    filler {
      value: 1
    }
    bias_term: true
    bias_filler {
      value: 0
    }
  }
}
layer {
  name: "conv15_2/relu"
  type: "ReLU"
  bottom: "conv15_2"
  top: "conv15_2"
}
layer {
  name: "conv16_1"
  type: "Convolution"
  bottom: "conv15_2"
  top: "conv16_1"
  param {
    lr_mult: 0.1
    decay_mult: 0.1
  }
  include {
    phase: TRAIN
  }
  convolution_param {
    num_output: 128
    bias_term: false
    kernel_size: 1
    weight_filler {
      type: "msra"
    }
  }
}
layer {
  name: "conv16_1/bn"
  type: "BatchNorm"
  bottom: "conv16_1"
  top: "conv16_1"
}
layer {
  name: "conv16_1/scale"
  type: "Scale"
  bottom: "conv16_1"
  top: "conv16_1"
  param {
    lr_mult: 0.1
    decay_mult: 0
  }
  param {
    lr_mult: 0.2
    decay_mult: 0
  }
  include {
    phase: TRAIN
  }
  scale_param {
    filler {
      value: 1
    }
    bias_term: true
    bias_filler {
      value: 0
    }
  }
}
layer {
  name: "conv16_1/relu"
  type: "ReLU"
  bottom: "conv16_1"
  top: "conv16_1"
}
layer {
  name: "conv16_2"
  type: "Convolution"
  bottom: "conv16_1"
  top: "conv16_2"
  param {
    lr_mult: 0.1
    decay_mult: 0.1
  }
  include {
    phase: TRAIN
  }
  convolution_param {
    num_output: 256
    bias_term: false
    pad: 1
    kernel_size: 3
    stride: 2
    weight_filler {
      type: "msra"
    }
  }
}
layer {
  name: "conv16_2/bn"
  type: "BatchNorm"
  bottom: "conv16_2"
  top: "conv16_2"
}
layer {
  name: "conv16_2/scale"
  type: "Scale"
  bottom: "conv16_2"
  top: "conv16_2"
  param {
    lr_mult: 0.1
    decay_mult: 0
  }
  param {
    lr_mult: 0.2
    decay_mult: 0
  }
  include {
    phase: TRAIN
  }
  scale_param {
    filler {
      va
I1101 20:58:27.624727 20537 layer_factory.hpp:77] Creating layer data
I1101 20:58:27.624904 20537 net.cpp:100] Creating Layer data
I1101 20:58:27.624918 20537 net.cpp:455] data -> data
I1101 20:58:27.624963 20537 net.cpp:455] data -> label
I1101 20:58:27.628201 20575 db_lmdb.cpp:35] Opened lmdb examples/VOC0712/VOC0712_trainval_lmdb
I1101 20:58:27.645027 20537 annotated_data_layer.cpp:62] output data size: 24,3,300,300
I1101 20:58:27.700105 20537 net.cpp:150] Setting up data
I1101 20:58:27.700155 20537 net.cpp:157] Top shape: 24 3 300 300 (6480000)
I1101 20:58:27.700161 20537 net.cpp:157] Top shape: 1 1 1 8 (8)
I1101 20:58:27.700165 20537 net.cpp:165] Memory required for data: 25920032
I1101 20:58:27.700181 20537 layer_factory.hpp:77] Creating layer data_data_0_split
I1101 20:58:27.700203 20537 net.cpp:100] Creating Layer data_data_0_split
I1101 20:58:27.700211 20537 net.cpp:481] data_data_0_split <- data
I1101 20:58:27.700225 20537 net.cpp:455] data_data_0_split -> data_data_0_split_0
I1101 20:58:27.700245 20537 net.cpp:455] data_data_0_split -> data_data_0_split_1
I1101 20:58:27.700251 20537 net.cpp:455] data_data_0_split -> data_data_0_split_2
I1101 20:58:27.700302 20537 net.cpp:455] data_data_0_split -> data_data_0_split_3
I1101 20:58:27.700317 20537 net.cpp:455] data_data_0_split -> data_data_0_split_4
I1101 20:58:27.700323 20537 net.cpp:455] data_data_0_split -> data_data_0_split_5
I1101 20:58:27.700328 20537 net.cpp:455] data_data_0_split -> data_data_0_split_6
I1101 20:58:27.700425 20537 net.cpp:150] Setting up data_data_0_split
I1101 20:58:27.700440 20537 net.cpp:157] Top shape: 24 3 300 300 (6480000)
I1101 20:58:27.700444 20537 net.cpp:157] Top shape: 24 3 300 300 (6480000)
I1101 20:58:27.700448 20537 net.cpp:157] Top shape: 24 3 300 300 (6480000)
I1101 20:58:27.700451 20537 net.cpp:157] Top shape: 24 3 300 300 (6480000)
I1101 20:58:27.700454 20537 net.cpp:157] Top shape: 24 3 300 300 (6480000)
I1101 20:58:27.700458 20537 net.cpp:157] Top shape: 24 3 300 300 (6480000)
I1101 20:58:27.700461 20537 net.cpp:157] Top shape: 24 3 300 300 (6480000)
I1101 20:58:27.700464 20537 net.cpp:165] Memory required for data: 207360032
I1101 20:58:27.700466 20537 layer_factory.hpp:77] Creating layer conv0
I1101 20:58:27.700492 20537 net.cpp:100] Creating Layer conv0
I1101 20:58:27.700498 20537 net.cpp:481] conv0 <- data_data_0_split_0
I1101 20:58:27.700505 20537 net.cpp:455] conv0 -> conv0
I1101 20:58:27.784070 20576 blocking_queue.cpp:50] Waiting for data
I1101 20:58:28.249519 20537 net.cpp:150] Setting up conv0
I1101 20:58:28.249569 20537 net.cpp:157] Top shape: 24 32 150 150 (17280000)
I1101 20:58:28.249573 20537 net.cpp:165] Memory required for data: 276480032
I1101 20:58:28.249598 20537 layer_factory.hpp:77] Creating layer conv0/bn
I1101 20:58:28.249611 20537 net.cpp:100] Creating Layer conv0/bn
I1101 20:58:28.249617 20537 net.cpp:481] conv0/bn <- conv0
I1101 20:58:28.249665 20537 net.cpp:442] conv0/bn -> conv0 (in-place)
I1101 20:58:28.251135 20537 net.cpp:150] Setting up conv0/bn
I1101 20:58:28.251155 20537 net.cpp:157] Top shape: 24 32 150 150 (17280000)
I1101 20:58:28.251159 20537 net.cpp:165] Memory required for data: 345600032
I1101 20:58:28.251173 20537 layer_factory.hpp:77] Creating layer conv0/scale
I1101 20:58:28.251188 20537 net.cpp:100] Creating Layer conv0/scale
I1101 20:58:28.251195 20537 net.cpp:481] conv0/scale <- conv0
I1101 20:58:28.251201 20537 net.cpp:442] conv0/scale -> conv0 (in-place)
I1101 20:58:28.251252 20537 layer_factory.hpp:77] Creating layer conv0/scale
I1101 20:58:28.251400 20537 net.cpp:150] Setting up conv0/scale
I1101 20:58:28.251412 20537 net.cpp:157] Top shape: 24 32 150 150 (17280000)
I1101 20:58:28.251415 20537 net.cpp:165] Memory required for data: 414720032
I1101 20:58:28.251422 20537 layer_factory.hpp:77] Creating layer conv0/relu
I1101 20:58:28.251430 20537 net.cpp:100] Creating Layer conv0/relu
I1101 20:58:28.251435 20537 net.cpp:481] conv0/relu <- conv0
I1101 20:58:28.251440 20537 net.cpp:442] conv0/relu -> conv0 (in-place)
I1101 20:58:28.252382 20537 net.cpp:150] Setting up conv0/relu
I1101 20:58:28.252403 20537 net.cpp:157] Top shape: 24 32 150 150 (17280000)
I1101 20:58:28.252406 20537 net.cpp:165] Memory required for data: 483840032
I1101 20:58:28.252409 20537 layer_factory.hpp:77] Creating layer conv1/dw
I1101 20:58:28.252421 20537 net.cpp:100] Creating Layer conv1/dw
I1101 20:58:28.252424 20537 net.cpp:481] conv1/dw <- conv0
I1101 20:58:28.252430 20537 net.cpp:455] conv1/dw -> conv1/dw
I1101 20:58:28.252681 20537 net.cpp:150] Setting up conv1/dw
I1101 20:58:28.252694 20537 net.cpp:157] Top shape: 24 32 150 150 (17280000)
I1101 20:58:28.252697 20537 net.cpp:165] Memory required for data: 552960032
I1101 20:58:28.252701 20537 layer_factory.hpp:77] Creating layer conv1/dw/bn
I1101 20:58:28.252707 20537 net.cpp:100] Creating Layer conv1/dw/bn
I1101 20:58:28.252709 20537 net.cpp:481] conv1/dw/bn <- conv1/dw
I1101 20:58:28.252713 20537 net.cpp:442] conv1/dw/bn -> conv1/dw (in-place)
I1101 20:58:28.252884 20537 net.cpp:150] Setting up conv1/dw/bn
I1101 20:58:28.252895 20537 net.cpp:157] Top shape: 24 32 150 150 (17280000)
I1101 20:58:28.252898 20537 net.cpp:165] Memory required for data: 622080032
I1101 20:58:28.252907 20537 layer_factory.hpp:77] Creating layer conv1/dw/scale
I1101 20:58:28.252918 20537 net.cpp:100] Creating Layer conv1/dw/scale
I1101 20:58:28.252923 20537 net.cpp:481] conv1/dw/scale <- conv1/dw
I1101 20:58:28.252928 20537 net.cpp:442] conv1/dw/scale -> conv1/dw (in-place)
I1101 20:58:28.252980 20537 layer_factory.hpp:77] Creating layer conv1/dw/scale
I1101 20:58:28.253111 20537 net.cpp:150] Setting up conv1/dw/scale
I1101 20:58:28.253123 20537 net.cpp:157] Top shape: 24 32 150 150 (17280000)
I1101 20:58:28.253125 20537 net.cpp:165] Memory required for data: 691200032
I1101 20:58:28.253130 20537 layer_factory.hpp:77] Creating layer conv1/dw/relu
I1101 20:58:28.253135 20537 net.cpp:100] Creating Layer conv1/dw/relu
I1101 20:58:28.253139 20537 net.cpp:481] conv1/dw/relu <- conv1/dw
I1101 20:58:28.253141 20537 net.cpp:442] conv1/dw/relu -> conv1/dw (in-place)
I1101 20:58:28.253374 20537 net.cpp:150] Setting up conv1/dw/relu
I1101 20:58:28.253389 20537 net.cpp:157] Top shape: 24 32 150 150 (17280000)
I1101 20:58:28.253392 20537 net.cpp:165] Memory required for data: 760320032
I1101 20:58:28.253396 20537 layer_factory.hpp:77] Creating layer conv1
I1101 20:58:28.253404 20537 net.cpp:100] Creating Layer conv1
I1101 20:58:28.253407 20537 net.cpp:481] conv1 <- conv1/dw
I1101 20:58:28.253412 20537 net.cpp:455] conv1 -> conv1
I1101 20:58:28.256901 20537 net.cpp:150] Setting up conv1
I1101 20:58:28.256922 20537 net.cpp:157] Top shape: 24 64 150 150 (34560000)
I1101 20:58:28.256927 20537 net.cpp:165] Memory required for data: 898560032
I1101 20:58:28.256932 20537 layer_factory.hpp:77] Creating layer conv1/bn
I1101 20:58:28.256938 20537 net.cpp:100] Creating Layer conv1/bn
I1101 20:58:28.256942 20537 net.cpp:481] conv1/bn <- conv1
I1101 20:58:28.256965 20537 net.cpp:442] conv1/bn -> conv1 (in-place)
I1101 20:58:28.257174 20537 net.cpp:150] Setting up conv1/bn
I1101 20:58:28.257186 20537 net.cpp:157] Top shape: 24 64 150 150 (34560000)
I1101 20:58:28.257189 20537 net.cpp:165] Memory required for data: 1036800032
I1101 20:58:28.257196 20537 layer_factory.hpp:77] Creating layer conv1/scale
I1101 20:58:28.257205 20537 net.cpp:100] Creating Layer conv1/scale
I1101 20:58:28.257207 20537 net.cpp:481] conv1/scale <- conv1
I1101 20:58:28.257211 20537 net.cpp:442] conv1/scale -> conv1 (in-place)
I1101 20:58:28.257270 20537 layer_factory.hpp:77] Creating layer conv1/scale
I1101 20:58:28.257423 20537 net.cpp:150] Setting up conv1/scale
I1101 20:58:28.257436 20537 net.cpp:157] Top shape: 24 64 150 150 (34560000)
I1101 20:58:28.257438 20537 net.cpp:165] Memory required for data: 1175040032
I1101 20:58:28.257447 20537 layer_factory.hpp:77] Creating layer conv1/relu
I1101 20:58:28.257455 20537 net.cpp:100] Creating Layer conv1/relu
I1101 20:58:28.257458 20537 net.cpp:481] conv1/relu <- conv1
I1101 20:58:28.257462 20537 net.cpp:442] conv1/relu -> conv1 (in-place)
I1101 20:58:28.258388 20537 net.cpp:150] Setting up conv1/relu
I1101 20:58:28.258410 20537 net.cpp:157] Top shape: 24 64 150 150 (34560000)
I1101 20:58:28.258414 20537 net.cpp:165] Memory required for data: 1313280032
I1101 20:58:28.258419 20537 layer_factory.hpp:77] Creating layer conv2/dw
I1101 20:58:28.258429 20537 net.cpp:100] Creating Layer conv2/dw
I1101 20:58:28.258432 20537 net.cpp:481] conv2/dw <- conv1
I1101 20:58:28.258438 20537 net.cpp:455] conv2/dw -> conv2/dw
I1101 20:58:28.258637 20537 net.cpp:150] Setting up conv2/dw
I1101 20:58:28.258651 20537 net.cpp:157] Top shape: 24 64 75 75 (8640000)
I1101 20:58:28.258654 20537 net.cpp:165] Memory required for data: 1347840032
I1101 20:58:28.258659 20537 layer_factory.hpp:77] Creating layer conv2/dw/bn
I1101 20:58:28.258666 20537 net.cpp:100] Creating Layer conv2/dw/bn
I1101 20:58:28.258668 20537 net.cpp:481] conv2/dw/bn <- conv2/dw
I1101 20:58:28.258672 20537 net.cpp:442] conv2/dw/bn -> conv2/dw (in-place)
I1101 20:58:28.260006 20537 net.cpp:150] Setting up conv2/dw/bn
I1101 20:58:28.260027 20537 net.cpp:157] Top shape: 24 64 75 75 (8640000)
I1101 20:58:28.260030 20537 net.cpp:165] Memory required for data: 1382400032
I1101 20:58:28.260040 20537 layer_factory.hpp:77] Creating layer conv2/dw/scale
I1101 20:58:28.260051 20537 net.cpp:100] Creating Layer conv2/dw/scale
I1101 20:58:28.260058 20537 net.cpp:481] conv2/dw/scale <- conv2/dw
I1101 20:58:28.260066 20537 net.cpp:442] conv2/dw/scale -> conv2/dw (in-place)
I1101 20:58:28.260109 20537 layer_factory.hpp:77] Creating layer conv2/dw/scale
I1101 20:58:28.260224 20537 net.cpp:150] Setting up conv2/dw/scale
I1101 20:58:28.260236 20537 net.cpp:157] Top shape: 24 64 75 75 (8640000)
I1101 20:58:28.260238 20537 net.cpp:165] Memory required for data: 1416960032
I1101 20:58:28.260243 20537 layer_factory.hpp:77] Creating layer conv2/dw/relu
I1101 20:58:28.260248 20537 net.cpp:100] Creating Layer conv2/dw/relu
I1101 20:58:28.260251 20537 net.cpp:481] conv2/dw/relu <- conv2/dw
I1101 20:58:28.260255 20537 net.cpp:442] conv2/dw/relu -> conv2/dw (in-place)
I1101 20:58:28.260506 20537 net.cpp:150] Setting up conv2/dw/relu
I1101 20:58:28.260524 20537 net.cpp:157] Top shape: 24 64 75 75 (8640000)
I1101 20:58:28.260526 20537 net.cpp:165] Memory required for data: 1451520032
I1101 20:58:28.260529 20537 layer_factory.hpp:77] Creating layer conv2
I1101 20:58:28.260540 20537 net.cpp:100] Creating Layer conv2
I1101 20:58:28.260543 20537 net.cpp:481] conv2 <- conv2/dw
I1101 20:58:28.260550 20537 net.cpp:455] conv2 -> conv2
I1101 20:58:28.263039 20537 net.cpp:150] Setting up conv2
I1101 20:58:28.263062 20537 net.cpp:157] Top shape: 24 128 75 75 (17280000)
I1101 20:58:28.263067 20537 net.cpp:165] Memory required for data: 1520640032
I1101 20:58:28.263072 20537 layer_factory.hpp:77] Creating layer conv2/bn
I1101 20:58:28.263078 20537 net.cpp:100] Creating Layer conv2/bn
I1101 20:58:28.263082 20537 net.cpp:481] conv2/bn <- conv2
I1101 20:58:28.263099 20537 net.cpp:442] conv2/bn -> conv2 (in-place)
I1101 20:58:28.263268 20537 net.cpp:150] Setting up conv2/bn
I1101 20:58:28.263281 20537 net.cpp:157] Top shape: 24 128 75 75 (17280000)
I1101 20:58:28.263284 20537 net.cpp:165] Memory required for data: 1589760032
I1101 20:58:28.263291 20537 layer_factory.hpp:77] Creating layer conv2/scale
I1101 20:58:28.263299 20537 net.cpp:100] Creating Layer conv2/scale
I1101 20:58:28.263303 20537 net.cpp:481] conv2/scale <- conv2
I1101 20:58:28.263309 20537 net.cpp:442] conv2/scale -> conv2 (in-place)
I1101 20:58:28.263346 20537 layer_factory.hpp:77] Creating layer conv2/scale
I1101 20:58:28.263453 20537 net.cpp:150] Setting up conv2/scale
I1101 20:58:28.263463 20537 net.cpp:157] Top shape: 24 128 75 75 (17280000)
I1101 20:58:28.263466 20537 net.cpp:165] Memory required for data: 1658880032
I1101 20:58:28.263471 20537 layer_factory.hpp:77] Creating layer conv2/relu
I1101 20:58:28.263481 20537 net.cpp:100] Creating Layer conv2/relu
I1101 20:58:28.263489 20537 net.cpp:481] conv2/relu <- conv2
I1101 20:58:28.263494 20537 net.cpp:442] conv2/relu -> conv2 (in-place)
I1101 20:58:28.264456 20537 net.cpp:150] Setting up conv2/relu
I1101 20:58:28.264482 20537 net.cpp:157] Top shape: 24 128 75 75 (17280000)
I1101 20:58:28.264485 20537 net.cpp:165] Memory required for data: 1728000032
I1101 20:58:28.264488 20537 layer_factory.hpp:77] Creating layer conv3/dw
I1101 20:58:28.264498 20537 net.cpp:100] Creating Layer conv3/dw
I1101 20:58:28.264523 20537 net.cpp:481] conv3/dw <- conv2
I1101 20:58:28.264544 20537 net.cpp:455] conv3/dw -> conv3/dw
I1101 20:58:28.264783 20537 net.cpp:150] Setting up conv3/dw
I1101 20:58:28.264796 20537 net.cpp:157] Top shape: 24 128 75 75 (17280000)
I1101 20:58:28.264798 20537 net.cpp:165] Memory required for data: 1797120032
I1101 20:58:28.264803 20537 layer_factory.hpp:77] Creating layer conv3/dw/bn
I1101 20:58:28.264808 20537 net.cpp:100] Creating Layer conv3/dw/bn
I1101 20:58:28.264832 20537 net.cpp:481] conv3/dw/bn <- conv3/dw
I1101 20:58:28.264837 20537 net.cpp:442] conv3/dw/bn -> conv3/dw (in-place)
I1101 20:58:28.265027 20537 net.cpp:150] Setting up conv3/dw/bn
I1101 20:58:28.265039 20537 net.cpp:157] Top shape: 24 128 75 75 (17280000)
I1101 20:58:28.265043 20537 net.cpp:165] Memory required for data: 1866240032
I1101 20:58:28.265053 20537 layer_factory.hpp:77] Creating layer conv3/dw/scale
I1101 20:58:28.265064 20537 net.cpp:100] Creating Layer conv3/dw/scale
I1101 20:58:28.265069 20537 net.cpp:481] conv3/dw/scale <- conv3/dw
I1101 20:58:28.265074 20537 net.cpp:442] conv3/dw/scale -> conv3/dw (in-place)
I1101 20:58:28.265113 20537 layer_factory.hpp:77] Creating layer conv3/dw/scale
I1101 20:58:28.265220 20537 net.cpp:150] Setting up conv3/dw/scale
I1101 20:58:28.265233 20537 net.cpp:157] Top shape: 24 128 75 75 (17280000)
I1101 20:58:28.265234 20537 net.cpp:165] Memory required for data: 1935360032
I1101 20:58:28.265240 20537 layer_factory.hpp:77] Creating layer conv3/dw/relu
I1101 20:58:28.265245 20537 net.cpp:100] Creating Layer conv3/dw/relu
I1101 20:58:28.265247 20537 net.cpp:481] conv3/dw/relu <- conv3/dw
I1101 20:58:28.265252 20537 net.cpp:442] conv3/dw/relu -> conv3/dw (in-place)
I1101 20:58:28.266228 20537 net.cpp:150] Setting up conv3/dw/relu
I1101 20:58:28.266249 20537 net.cpp:157] Top shape: 24 128 75 75 (17280000)
I1101 20:58:28.266252 20537 net.cpp:165] Memory required for data: 2004480032
I1101 20:58:28.266257 20537 layer_factory.hpp:77] Creating layer conv3
I1101 20:58:28.266278 20537 net.cpp:100] Creating Layer conv3
I1101 20:58:28.266310 20537 net.cpp:481] conv3 <- conv3/dw
I1101 20:58:28.266316 20537 net.cpp:455] conv3 -> conv3
I1101 20:58:28.268885 20537 net.cpp:150] Setting up conv3
I1101 20:58:28.268908 20537 net.cpp:157] Top shape: 24 128 75 75 (17280000)
I1101 20:58:28.268911 20537 net.cpp:165] Memory required for data: 2073600032
I1101 20:58:28.268918 20537 layer_factory.hpp:77] Creating layer conv3/bn
I1101 20:58:28.268923 20537 net.cpp:100] Creating Layer conv3/bn
I1101 20:58:28.268932 20537 net.cpp:481] conv3/bn <- conv3
I1101 20:58:28.268973 20537 net.cpp:442] conv3/bn -> conv3 (in-place)
I1101 20:58:28.269170 20537 net.cpp:150] Setting up conv3/bn
I1101 20:58:28.269181 20537 net.cpp:157] Top shape: 24 128 75 75 (17280000)
I1101 20:58:28.269184 20537 net.cpp:165] Memory required for data: 2142720032
I1101 20:58:28.269191 20537 layer_factory.hpp:77] Creating layer conv3/scale
I1101 20:58:28.269199 20537 net.cpp:100] Creating Layer conv3/scale
I1101 20:58:28.269202 20537 net.cpp:481] conv3/scale <- conv3
I1101 20:58:28.269207 20537 net.cpp:442] conv3/scale -> conv3 (in-place)
I1101 20:58:28.269253 20537 layer_factory.hpp:77] Creating layer conv3/scale
I1101 20:58:28.269392 20537 net.cpp:150] Setting up conv3/scale
I1101 20:58:28.269404 20537 net.cpp:157] Top shape: 24 128 75 75 (17280000)
I1101 20:58:28.269423 20537 net.cpp:165] Memory required for data: 2211840032
I1101 20:58:28.269428 20537 layer_factory.hpp:77] Creating layer conv3/relu
I1101 20:58:28.269433 20537 net.cpp:100] Creating Layer conv3/relu
I1101 20:58:28.269436 20537 net.cpp:481] conv3/relu <- conv3
I1101 20:58:28.269443 20537 net.cpp:442] conv3/relu -> conv3 (in-place)
I1101 20:58:28.269739 20537 net.cpp:150] Setting up conv3/relu
I1101 20:58:28.269757 20537 net.cpp:157] Top shape: 24 128 75 75 (17280000)
I1101 20:58:28.269759 20537 net.cpp:165] Memory required for data: 2280960032
I1101 20:58:28.269762 20537 layer_factory.hpp:77] Creating layer conv4/dw
I1101 20:58:28.269776 20537 net.cpp:100] Creating Layer conv4/dw
I1101 20:58:28.269783 20537 net.cpp:481] conv4/dw <- conv3
I1101 20:58:28.269790 20537 net.cpp:455] conv4/dw -> conv4/dw
I1101 20:58:28.269996 20537 net.cpp:150] Setting up conv4/dw
I1101 20:58:28.270009 20537 net.cpp:157] Top shape: 24 128 38 38 (4435968)
I1101 20:58:28.270012 20537 net.cpp:165] Memory required for data: 2298703904
I1101 20:58:28.270017 20537 layer_factory.hpp:77] Creating layer conv4/dw/bn
I1101 20:58:28.270022 20537 net.cpp:100] Creating Layer conv4/dw/bn
I1101 20:58:28.270025 20537 net.cpp:481] conv4/dw/bn <- conv4/dw
I1101 20:58:28.270028 20537 net.cpp:442] conv4/dw/bn -> conv4/dw (in-place)
I1101 20:58:28.270210 20537 net.cpp:150] Setting up conv4/dw/bn
I1101 20:58:28.270220 20537 net.cpp:157] Top shape: 24 128 38 38 (4435968)
I1101 20:58:28.270223 20537 net.cpp:165] Memory required for data: 2316447776
I1101 20:58:28.270229 20537 layer_factory.hpp:77] Creating layer conv4/dw/scale
I1101 20:58:28.270239 20537 net.cpp:100] Creating Layer conv4/dw/scale
I1101 20:58:28.270246 20537 net.cpp:481] conv4/dw/scale <- conv4/dw
I1101 20:58:28.270251 20537 net.cpp:442] conv4/dw/scale -> conv4/dw (in-place)
I1101 20:58:28.270310 20537 layer_factory.hpp:77] Creating layer conv4/dw/scale
I1101 20:58:28.270426 20537 net.cpp:150] Setting up conv4/dw/scale
I1101 20:58:28.270436 20537 net.cpp:157] Top shape: 24 128 38 38 (4435968)
I1101 20:58:28.270438 20537 net.cpp:165] Memory required for data: 2334191648
I1101 20:58:28.270443 20537 layer_factory.hpp:77] Creating layer conv4/dw/relu
I1101 20:58:28.270447 20537 net.cpp:100] Creating Layer conv4/dw/relu
I1101 20:58:28.270450 20537 net.cpp:481] conv4/dw/relu <- conv4/dw
I1101 20:58:28.270454 20537 net.cpp:442] conv4/dw/relu -> conv4/dw (in-place)
I1101 20:58:28.271461 20537 net.cpp:150] Setting up conv4/dw/relu
I1101 20:58:28.271486 20537 net.cpp:157] Top shape: 24 128 38 38 (4435968)
I1101 20:58:28.271489 20537 net.cpp:165] Memory required for data: 2351935520
I1101 20:58:28.271492 20537 layer_factory.hpp:77] Creating layer conv4
I1101 20:58:28.271507 20537 net.cpp:100] Creating Layer conv4
I1101 20:58:28.271514 20537 net.cpp:481] conv4 <- conv4/dw
I1101 20:58:28.271520 20537 net.cpp:455] conv4 -> conv4
I1101 20:58:28.274245 20537 net.cpp:150] Setting up conv4
I1101 20:58:28.274269 20537 net.cpp:157] Top shape: 24 256 38 38 (8871936)
I1101 20:58:28.274273 20537 net.cpp:165] Memory required for data: 2387423264
I1101 20:58:28.274278 20537 layer_factory.hpp:77] Creating layer conv4/bn
I1101 20:58:28.274286 20537 net.cpp:100] Creating Layer conv4/bn
I1101 20:58:28.274289 20537 net.cpp:481] conv4/bn <- conv4
I1101 20:58:28.274322 20537 net.cpp:442] conv4/bn -> conv4 (in-place)
I1101 20:58:28.274544 20537 net.cpp:150] Setting up conv4/bn
I1101 20:58:28.274556 20537 net.cpp:157] Top shape: 24 256 38 38 (8871936)
I1101 20:58:28.274559 20537 net.cpp:165] Memory required for data: 2422911008
I1101 20:58:28.274565 20537 layer_factory.hpp:77] Creating layer conv4/scale
I1101 20:58:28.274574 20537 net.cpp:100] Creating Layer conv4/scale
I1101 20:58:28.274580 20537 net.cpp:481] conv4/scale <- conv4
I1101 20:58:28.274585 20537 net.cpp:442] conv4/scale -> conv4 (in-place)
I1101 20:58:28.274627 20537 layer_factory.hpp:77] Creating layer conv4/scale
I1101 20:58:28.274744 20537 net.cpp:150] Setting up conv4/scale
I1101 20:58:28.274757 20537 net.cpp:157] Top shape: 24 256 38 38 (8871936)
I1101 20:58:28.274760 20537 net.cpp:165] Memory required for data: 2458398752
I1101 20:58:28.274765 20537 layer_factory.hpp:77] Creating layer conv4/relu
I1101 20:58:28.274770 20537 net.cpp:100] Creating Layer conv4/relu
I1101 20:58:28.274772 20537 net.cpp:481] conv4/relu <- conv4
I1101 20:58:28.274775 20537 net.cpp:442] conv4/relu -> conv4 (in-place)
I1101 20:58:28.275200 20537 net.cpp:150] Setting up conv4/relu
I1101 20:58:28.275216 20537 net.cpp:157] Top shape: 24 256 38 38 (8871936)
I1101 20:58:28.275220 20537 net.cpp:165] Memory required for data: 2493886496
I1101 20:58:28.275223 20537 layer_factory.hpp:77] Creating layer conv5/dw
I1101 20:58:28.275234 20537 net.cpp:100] Creating Layer conv5/dw
I1101 20:58:28.275240 20537 net.cpp:481] conv5/dw <- conv4
I1101 20:58:28.275249 20537 net.cpp:455] conv5/dw -> conv5/dw
I1101 20:58:28.275490 20537 net.cpp:150] Setting up conv5/dw
I1101 20:58:28.275502 20537 net.cpp:157] Top shape: 24 256 38 38 (8871936)
I1101 20:58:28.275506 20537 net.cpp:165] Memory required for data: 2529374240
I1101 20:58:28.275527 20537 layer_factory.hpp:77] Creating layer conv5/dw/bn
I1101 20:58:28.275532 20537 net.cpp:100] Creating Layer conv5/dw/bn
I1101 20:58:28.275557 20537 net.cpp:481] conv5/dw/bn <- conv5/dw
I1101 20:58:28.275562 20537 net.cpp:442] conv5/dw/bn -> conv5/dw (in-place)
I1101 20:58:28.275766 20537 net.cpp:150] Setting up conv5/dw/bn
I1101 20:58:28.275776 20537 net.cpp:157] Top shape: 24 256 38 38 (8871936)
I1101 20:58:28.275779 20537 net.cpp:165] Memory required for data: 2564861984
I1101 20:58:28.275785 20537 layer_factory.hpp:77] Creating layer conv5/dw/scale
I1101 20:58:28.275794 20537 net.cpp:100] Creating Layer conv5/dw/scale
I1101 20:58:28.275799 20537 net.cpp:481] conv5/dw/scale <- conv5/dw
I1101 20:58:28.275804 20537 net.cpp:442] conv5/dw/scale -> conv5/dw (in-place)
I1101 20:58:28.275847 20537 layer_factory.hpp:77] Creating layer conv5/dw/scale
I1101 20:58:28.275960 20537 net.cpp:150] Setting up conv5/dw/scale
I1101 20:58:28.275969 20537 net.cpp:157] Top shape: 24 256 38 38 (8871936)
I1101 20:58:28.275972 20537 net.cpp:165] Memory required for data: 2600349728
I1101 20:58:28.275977 20537 layer_factory.hpp:77] Creating layer conv5/dw/relu
I1101 20:58:28.275981 20537 net.cpp:100] Creating Layer conv5/dw/relu
I1101 20:58:28.275985 20537 net.cpp:481] conv5/dw/relu <- conv5/dw
I1101 20:58:28.275990 20537 net.cpp:442] conv5/dw/relu -> conv5/dw (in-place)
I1101 20:58:28.276924 20537 net.cpp:150] Setting up conv5/dw/relu
I1101 20:58:28.276944 20537 net.cpp:157] Top shape: 24 256 38 38 (8871936)
I1101 20:58:28.276947 20537 net.cpp:165] Memory required for data: 2635837472
I1101 20:58:28.276950 20537 layer_factory.hpp:77] Creating layer conv5
I1101 20:58:28.276960 20537 net.cpp:100] Creating Layer conv5
I1101 20:58:28.276963 20537 net.cpp:481] conv5 <- conv5/dw
I1101 20:58:28.276971 20537 net.cpp:455] conv5 -> conv5
I1101 20:58:28.282265 20537 net.cpp:150] Setting up conv5
I1101 20:58:28.282289 20537 net.cpp:157] Top shape: 24 256 38 38 (8871936)
I1101 20:58:28.282292 20537 net.cpp:165] Memory required for data: 2671325216
I1101 20:58:28.282299 20537 layer_factory.hpp:77] Creating layer conv5/bn
I1101 20:58:28.282306 20537 net.cpp:100] Creating Layer conv5/bn
I1101 20:58:28.282315 20537 net.cpp:481] conv5/bn <- conv5
I1101 20:58:28.282335 20537 net.cpp:442] conv5/bn -> conv5 (in-place)
I1101 20:58:28.282552 20537 net.cpp:150] Setting up conv5/bn
I1101 20:58:28.282563 20537 net.cpp:157] Top shape: 24 256 38 38 (8871936)
I1101 20:58:28.282565 20537 net.cpp:165] Memory required for data: 2706812960
I1101 20:58:28.282573 20537 layer_factory.hpp:77] Creating layer conv5/scale
I1101 20:58:28.282582 20537 net.cpp:100] Creating Layer conv5/scale
I1101 20:58:28.282586 20537 net.cpp:481] conv5/scale <- conv5
I1101 20:58:28.282591 20537 net.cpp:442] conv5/scale -> conv5 (in-place)
I1101 20:58:28.282635 20537 layer_factory.hpp:77] Creating layer conv5/scale
I1101 20:58:28.282759 20537 net.cpp:150] Setting up conv5/scale
I1101 20:58:28.282769 20537 net.cpp:157] Top shape: 24 256 38 38 (8871936)
I1101 20:58:28.282773 20537 net.cpp:165] Memory required for data: 2742300704
I1101 20:58:28.282788 20537 layer_factory.hpp:77] Creating layer conv5/relu
I1101 20:58:28.282795 20537 net.cpp:100] Creating Layer conv5/relu
I1101 20:58:28.282799 20537 net.cpp:481] conv5/relu <- conv5
I1101 20:58:28.282802 20537 net.cpp:442] conv5/relu -> conv5 (in-place)
I1101 20:58:28.283810 20537 net.cpp:150] Setting up conv5/relu
I1101 20:58:28.283833 20537 net.cpp:157] Top shape: 24 256 38 38 (8871936)
I1101 20:58:28.283836 20537 net.cpp:165] Memory required for data: 2777788448
I1101 20:58:28.283840 20537 layer_factory.hpp:77] Creating layer conv6/dw
I1101 20:58:28.283851 20537 net.cpp:100] Creating Layer conv6/dw
I1101 20:58:28.283859 20537 net.cpp:481] conv6/dw <- conv5
I1101 20:58:28.283865 20537 net.cpp:455] conv6/dw -> conv6/dw
I1101 20:58:28.284108 20537 net.cpp:150] Setting up conv6/dw
I1101 20:58:28.284121 20537 net.cpp:157] Top shape: 24 256 19 19 (2217984)
I1101 20:58:28.284123 20537 net.cpp:165] Memory required for data: 2786660384
I1101 20:58:28.284127 20537 layer_factory.hpp:77] Creating layer conv6/dw/bn
I1101 20:58:28.284133 20537 net.cpp:100] Creating Layer conv6/dw/bn
I1101 20:58:28.284142 20537 net.cpp:481] conv6/dw/bn <- conv6/dw
I1101 20:58:28.284145 20537 net.cpp:442] conv6/dw/bn -> conv6/dw (in-place)
I1101 20:58:28.284332 20537 net.cpp:150] Setting up conv6/dw/bn
I1101 20:58:28.284345 20537 net.cpp:157] Top shape: 24 256 19 19 (2217984)
I1101 20:58:28.284348 20537 net.cpp:165] Memory required for data: 2795532320
I1101 20:58:28.284354 20537 layer_factory.hpp:77] Creating layer conv6/dw/scale
I1101 20:58:28.284360 20537 net.cpp:100] Creating Layer conv6/dw/scale
I1101 20:58:28.284365 20537 net.cpp:481] conv6/dw/scale <- conv6/dw
I1101 20:58:28.284371 20537 net.cpp:442] conv6/dw/scale -> conv6/dw (in-place)
I1101 20:58:28.284413 20537 layer_factory.hpp:77] Creating layer conv6/dw/scale
I1101 20:58:28.284543 20537 net.cpp:150] Setting up conv6/dw/scale
I1101 20:58:28.284552 20537 net.cpp:157] Top shape: 24 256 19 19 (2217984)
I1101 20:58:28.284555 20537 net.cpp:165] Memory required for data: 2804404256
I1101 20:58:28.284560 20537 layer_factory.hpp:77] Creating layer conv6/dw/relu
I1101 20:58:28.284569 20537 net.cpp:100] Creating Layer conv6/dw/relu
I1101 20:58:28.284571 20537 net.cpp:481] conv6/dw/relu <- conv6/dw
I1101 20:58:28.284575 20537 net.cpp:442] conv6/dw/relu -> conv6/dw (in-place)
I1101 20:58:28.285773 20537 net.cpp:150] Setting up conv6/dw/relu
I1101 20:58:28.285792 20537 net.cpp:157] Top shape: 24 256 19 19 (2217984)
I1101 20:58:28.285795 20537 net.cpp:165] Memory required for data: 2813276192
I1101 20:58:28.285799 20537 layer_factory.hpp:77] Creating layer conv6
I1101 20:58:28.285809 20537 net.cpp:100] Creating Layer conv6
I1101 20:58:28.285817 20537 net.cpp:481] conv6 <- conv6/dw
I1101 20:58:28.285825 20537 net.cpp:455] conv6 -> conv6
I1101 20:58:28.290452 20537 net.cpp:150] Setting up conv6
I1101 20:58:28.290473 20537 net.cpp:157] Top shape: 24 512 19 19 (4435968)
I1101 20:58:28.290482 20537 net.cpp:165] Memory required for data: 2831020064
I1101 20:58:28.290488 20537 layer_factory.hpp:77] Creating layer conv6/bn
I1101 20:58:28.290496 20537 net.cpp:100] Creating Layer conv6/bn
I1101 20:58:28.290499 20537 net.cpp:481] conv6/bn <- conv6
I1101 20:58:28.290516 20537 net.cpp:442] conv6/bn -> conv6 (in-place)
I1101 20:58:28.290710 20537 net.cpp:150] Setting up conv6/bn
I1101 20:58:28.290724 20537 net.cpp:157] Top shape: 24 512 19 19 (4435968)
I1101 20:58:28.290726 20537 net.cpp:165] Memory required for data: 2848763936
I1101 20:58:28.290733 20537 layer_factory.hpp:77] Creating layer conv6/scale
I1101 20:58:28.290741 20537 net.cpp:100] Creating Layer conv6/scale
I1101 20:58:28.290750 20537 net.cpp:481] conv6/scale <- conv6
I1101 20:58:28.290755 20537 net.cpp:442] conv6/scale -> conv6 (in-place)
I1101 20:58:28.290801 20537 layer_factory.hpp:77] Creating layer conv6/scale
I1101 20:58:28.290922 20537 net.cpp:150] Setting up conv6/scale
I1101 20:58:28.290932 20537 net.cpp:157] Top shape: 24 512 19 19 (4435968)
I1101 20:58:28.290935 20537 net.cpp:165] Memory required for data: 2866507808
I1101 20:58:28.290940 20537 layer_factory.hpp:77] Creating layer conv6/relu
I1101 20:58:28.290946 20537 net.cpp:100] Creating Layer conv6/relu
I1101 20:58:28.290948 20537 net.cpp:481] conv6/relu <- conv6
I1101 20:58:28.290952 20537 net.cpp:442] conv6/relu -> conv6 (in-place)
I1101 20:58:28.291935 20537 net.cpp:150] Setting up conv6/relu
I1101 20:58:28.291954 20537 net.cpp:157] Top shape: 24 512 19 19 (4435968)
I1101 20:58:28.291957 20537 net.cpp:165] Memory required for data: 2884251680
I1101 20:58:28.291960 20537 layer_factory.hpp:77] Creating layer conv7/dw
I1101 20:58:28.291972 20537 net.cpp:100] Creating Layer conv7/dw
I1101 20:58:28.291980 20537 net.cpp:481] conv7/dw <- conv6
I1101 20:58:28.291987 20537 net.cpp:455] conv7/dw -> conv7/dw
I1101 20:58:28.292244 20537 net.cpp:150] Setting up conv7/dw
I1101 20:58:28.292256 20537 net.cpp:157] Top shape: 24 512 19 19 (4435968)
I1101 20:58:28.292258 20537 net.cpp:165] Memory required for data: 2901995552
I1101 20:58:28.292263 20537 layer_factory.hpp:77] Creating layer conv7/dw/bn
I1101 20:58:28.292268 20537 net.cpp:100] Creating Layer conv7/dw/bn
I1101 20:58:28.292270 20537 net.cpp:481] conv7/dw/bn <- conv7/dw
I1101 20:58:28.292274 20537 net.cpp:442] conv7/dw/bn -> conv7/dw (in-place)
I1101 20:58:28.292474 20537 net.cpp:150] Setting up conv7/dw/bn
I1101 20:58:28.292490 20537 net.cpp:157] Top shape: 24 512 19 19 (4435968)
I1101 20:58:28.292493 20537 net.cpp:165] Memory required for data: 2919739424
I1101 20:58:28.292500 20537 layer_factory.hpp:77] Creating layer conv7/dw/scale
I1101 20:58:28.292507 20537 net.cpp:100] Creating Layer conv7/dw/scale
I1101 20:58:28.292512 20537 net.cpp:481] conv7/dw/scale <- conv7/dw
I1101 20:58:28.292532 20537 net.cpp:442] conv7/dw/scale -> conv7/dw (in-place)
I1101 20:58:28.292582 20537 layer_factory.hpp:77] Creating layer conv7/dw/scale
I1101 20:58:28.292737 20537 net.cpp:150] Setting up conv7/dw/scale
I1101 20:58:28.292749 20537 net.cpp:157] Top shape: 24 512 19 19 (4435968)
I1101 20:58:28.292752 20537 net.cpp:165] Memory required for data: 2937483296
I1101 20:58:28.292757 20537 layer_factory.hpp:77] Creating layer conv7/dw/relu
I1101 20:58:28.292778 20537 net.cpp:100] Creating Layer conv7/dw/relu
I1101 20:58:28.292780 20537 net.cpp:481] conv7/dw/relu <- conv7/dw
I1101 20:58:28.292785 20537 net.cpp:442] conv7/dw/relu -> conv7/dw (in-place)
I1101 20:58:28.293110 20537 net.cpp:150] Setting up conv7/dw/relu
I1101 20:58:28.293130 20537 net.cpp:157] Top shape: 24 512 19 19 (4435968)
I1101 20:58:28.293133 20537 net.cpp:165] Memory required for data: 2955227168
I1101 20:58:28.293136 20537 layer_factory.hpp:77] Creating layer conv7
I1101 20:58:28.293146 20537 net.cpp:100] Creating Layer conv7
I1101 20:58:28.293153 20537 net.cpp:481] conv7 <- conv7/dw
I1101 20:58:28.293159 20537 net.cpp:455] conv7 -> conv7
I1101 20:58:28.300091 20537 net.cpp:150] Setting up conv7
I1101 20:58:28.300113 20537 net.cpp:157] Top shape: 24 512 19 19 (4435968)
I1101 20:58:28.300117 20537 net.cpp:165] Memory required for data: 2972971040
I1101 20:58:28.300122 20537 layer_factory.hpp:77] Creating layer conv7/bn
I1101 20:58:28.300143 20537 net.cpp:100] Creating Layer conv7/bn
I1101 20:58:28.300146 20537 net.cpp:481] conv7/bn <- conv7
I1101 20:58:28.300165 20537 net.cpp:442] conv7/bn -> conv7 (in-place)
I1101 20:58:28.300432 20537 net.cpp:150] Setting up conv7/bn
I1101 20:58:28.300446 20537 net.cpp:157] Top shape: 24 512 19 19 (4435968)
I1101 20:58:28.300448 20537 net.cpp:165] Memory required for data: 2990714912
I1101 20:58:28.300456 20537 layer_factory.hpp:77] Creating layer conv7/scale
I1101 20:58:28.300462 20537 net.cpp:100] Creating Layer conv7/scale
I1101 20:58:28.300467 20537 net.cpp:481] conv7/scale <- conv7
I1101 20:58:28.300472 20537 net.cpp:442] conv7/scale -> conv7 (in-place)
I1101 20:58:28.300526 20537 layer_factory.hpp:77] Creating layer conv7/scale
I1101 20:58:28.300652 20537 net.cpp:150] Setting up conv7/scale
I1101 20:58:28.300664 20537 net.cpp:157] Top shape: 24 512 19 19 (4435968)
I1101 20:58:28.300668 20537 net.cpp:165] Memory required for data: 3008458784
I1101 20:58:28.300671 20537 layer_factory.hpp:77] Creating layer conv7/relu
I1101 20:58:28.300676 20537 net.cpp:100] Creating Layer conv7/relu
I1101 20:58:28.300678 20537 net.cpp:481] conv7/relu <- conv7
I1101 20:58:28.300684 20537 net.cpp:442] conv7/relu -> conv7 (in-place)
I1101 20:58:28.301614 20537 net.cpp:150] Setting up conv7/relu
I1101 20:58:28.301635 20537 net.cpp:157] Top shape: 24 512 19 19 (4435968)
I1101 20:58:28.301637 20537 net.cpp:165] Memory required for data: 3026202656
I1101 20:58:28.301641 20537 layer_factory.hpp:77] Creating layer conv8/dw
I1101 20:58:28.301661 20537 net.cpp:100] Creating Layer conv8/dw
I1101 20:58:28.301664 20537 net.cpp:481] conv8/dw <- conv7
I1101 20:58:28.301674 20537 net.cpp:455] conv8/dw -> conv8/dw
I1101 20:58:28.301903 20537 net.cpp:150] Setting up conv8/dw
I1101 20:58:28.301914 20537 net.cpp:157] Top shape: 24 512 19 19 (4435968)
I1101 20:58:28.301918 20537 net.cpp:165] Memory required for data: 3043946528
I1101 20:58:28.301923 20537 layer_factory.hpp:77] Creating layer conv8/dw/bn
I1101 20:58:28.301928 20537 net.cpp:100] Creating Layer conv8/dw/bn
I1101 20:58:28.301929 20537 net.cpp:481] conv8/dw/bn <- conv8/dw
I1101 20:58:28.301934 20537 net.cpp:442] conv8/dw/bn -> conv8/dw (in-place)
I1101 20:58:28.302232 20537 net.cpp:150] Setting up conv8/dw/bn
I1101 20:58:28.302259 20537 net.cpp:157] Top shape: 24 512 19 19 (4435968)
I1101 20:58:28.302278 20537 net.cpp:165] Memory required for data: 3061690400
I1101 20:58:28.302284 20537 layer_factory.hpp:77] Creating layer conv8/dw/scale
I1101 20:58:28.302296 20537 net.cpp:100] Creating Layer conv8/dw/scale
I1101 20:58:28.302305 20537 net.cpp:481] conv8/dw/scale <- conv8/dw
I1101 20:58:28.302310 20537 net.cpp:442] conv8/dw/scale -> conv8/dw (in-place)
I1101 20:58:28.302359 20537 layer_factory.hpp:77] Creating layer conv8/dw/scale
I1101 20:58:28.302569 20537 net.cpp:150] Setting up conv8/dw/scale
I1101 20:58:28.302580 20537 net.cpp:157] Top shape: 24 512 19 19 (4435968)
I1101 20:58:28.302582 20537 net.cpp:165] Memory required for data: 3079434272
I1101 20:58:28.302587 20537 layer_factory.hpp:77] Creating layer conv8/dw/relu
I1101 20:58:28.302592 20537 net.cpp:100] Creating Layer conv8/dw/relu
I1101 20:58:28.302595 20537 net.cpp:481] conv8/dw/relu <- conv8/dw
I1101 20:58:28.302598 20537 net.cpp:442] conv8/dw/relu -> conv8/dw (in-place)
I1101 20:58:28.303505 20537 net.cpp:150] Setting up conv8/dw/relu
I1101 20:58:28.303527 20537 net.cpp:157] Top shape: 24 512 19 19 (4435968)
I1101 20:58:28.303531 20537 net.cpp:165] Memory required for data: 3097178144
I1101 20:58:28.303534 20537 layer_factory.hpp:77] Creating layer conv8
I1101 20:58:28.303544 20537 net.cpp:100] Creating Layer conv8
I1101 20:58:28.303547 20537 net.cpp:481] conv8 <- conv8/dw
I1101 20:58:28.303553 20537 net.cpp:455] conv8 -> conv8
I1101 20:58:28.309669 20537 net.cpp:150] Setting up conv8
I1101 20:58:28.309691 20537 net.cpp:157] Top shape: 24 512 19 19 (4435968)
I1101 20:58:28.309695 20537 net.cpp:165] Memory required for data: 3114922016
I1101 20:58:28.309700 20537 layer_factory.hpp:77] Creating layer conv8/bn
I1101 20:58:28.309707 20537 net.cpp:100] Creating Layer conv8/bn
I1101 20:58:28.309710 20537 net.cpp:481] conv8/bn <- conv8
I1101 20:58:28.309733 20537 net.cpp:442] conv8/bn -> conv8 (in-place)
I1101 20:58:28.309934 20537 net.cpp:150] Setting up conv8/bn
I1101 20:58:28.309945 20537 net.cpp:157] Top shape: 24 512 19 19 (4435968)
I1101 20:58:28.309947 20537 net.cpp:165] Memory required for data: 3132665888
I1101 20:58:28.309954 20537 layer_factory.hpp:77] Creating layer conv8/scale
I1101 20:58:28.309964 20537 net.cpp:100] Creating Layer conv8/scale
I1101 20:58:28.309969 20537 net.cpp:481] conv8/scale <- conv8
I1101 20:58:28.309976 20537 net.cpp:442] conv8/scale -> conv8 (in-place)
I1101 20:58:28.310042 20537 layer_factory.hpp:77] Creating layer conv8/scale
I1101 20:58:28.310184 20537 net.cpp:150] Setting up conv8/scale
I1101 20:58:28.310195 20537 net.cpp:157] Top shape: 24 512 19 19 (4435968)
I1101 20:58:28.310199 20537 net.cpp:165] Memory required for data: 3150409760
I1101 20:58:28.310204 20537 layer_factory.hpp:77] Creating layer conv8/relu
I1101 20:58:28.310207 20537 net.cpp:100] Creating Layer conv8/relu
I1101 20:58:28.310210 20537 net.cpp:481] conv8/relu <- conv8
I1101 20:58:28.310214 20537 net.cpp:442] conv8/relu -> conv8 (in-place)
I1101 20:58:28.310559 20537 net.cpp:150] Setting up conv8/relu
I1101 20:58:28.310575 20537 net.cpp:157] Top shape: 24 512 19 19 (4435968)
I1101 20:58:28.310595 20537 net.cpp:165] Memory required for data: 3168153632
I1101 20:58:28.310598 20537 layer_factory.hpp:77] Creating layer conv9/dw
I1101 20:58:28.310626 20537 net.cpp:100] Creating Layer conv9/dw
I1101 20:58:28.310648 20537 net.cpp:481] conv9/dw <- conv8
I1101 20:58:28.310658 20537 net.cpp:455] conv9/dw -> conv9/dw
I1101 20:58:28.310956 20537 net.cpp:150] Setting up conv9/dw
I1101 20:58:28.310967 20537 net.cpp:157] Top shape: 24 512 19 19 (4435968)
I1101 20:58:28.310971 20537 net.cpp:165] Memory required for data: 3185897504
I1101 20:58:28.310974 20537 layer_factory.hpp:77] Creating layer conv9/dw/bn
I1101 20:58:28.310981 20537 net.cpp:100] Creating Layer conv9/dw/bn
I1101 20:58:28.310984 20537 net.cpp:481] conv9/dw/bn <- conv9/dw
I1101 20:58:28.310988 20537 net.cpp:442] conv9/dw/bn -> conv9/dw (in-place)
I1101 20:58:28.311209 20537 net.cpp:150] Setting up conv9/dw/bn
I1101 20:58:28.311219 20537 net.cpp:157] Top shape: 24 512 19 19 (4435968)
I1101 20:58:28.311223 20537 net.cpp:165] Memory required for data: 3203641376
I1101 20:58:28.311228 20537 layer_factory.hpp:77] Creating layer conv9/dw/scale
I1101 20:58:28.311233 20537 net.cpp:100] Creating Layer conv9/dw/scale
I1101 20:58:28.311241 20537 net.cpp:481] conv9/dw/scale <- conv9/dw
I1101 20:58:28.311245 20537 net.cpp:442] conv9/dw/scale -> conv9/dw (in-place)
I1101 20:58:28.311295 20537 layer_factory.hpp:77] Creating layer conv9/dw/scale
I1101 20:58:28.311416 20537 net.cpp:150] Setting up conv9/dw/scale
I1101 20:58:28.311441 20537 net.cpp:157] Top shape: 24 512 19 19 (4435968)
I1101 20:58:28.311444 20537 net.cpp:165] Memory required for data: 3221385248
I1101 20:58:28.311448 20537 layer_factory.hpp:77] Creating layer conv9/dw/relu
I1101 20:58:28.311453 20537 net.cpp:100] Creating Layer conv9/dw/relu
I1101 20:58:28.311455 20537 net.cpp:481] conv9/dw/relu <- conv9/dw
I1101 20:58:28.311460 20537 net.cpp:442] conv9/dw/relu -> conv9/dw (in-place)
I1101 20:58:28.312525 20537 net.cpp:150] Setting up conv9/dw/relu
I1101 20:58:28.312547 20537 net.cpp:157] Top shape: 24 512 19 19 (4435968)
I1101 20:58:28.312551 20537 net.cpp:165] Memory required for data: 3239129120
I1101 20:58:28.312553 20537 layer_factory.hpp:77] Creating layer conv9
I1101 20:58:28.312564 20537 net.cpp:100] Creating Layer conv9
I1101 20:58:28.312567 20537 net.cpp:481] conv9 <- conv9/dw
I1101 20:58:28.312573 20537 net.cpp:455] conv9 -> conv9
I1101 20:58:28.318871 20537 net.cpp:150] Setting up conv9
I1101 20:58:28.318894 20537 net.cpp:157] Top shape: 24 512 19 19 (4435968)
I1101 20:58:28.318897 20537 net.cpp:165] Memory required for data: 3256872992
I1101 20:58:28.318903 20537 layer_factory.hpp:77] Creating layer conv9/bn
I1101 20:58:28.318912 20537 net.cpp:100] Creating Layer conv9/bn
I1101 20:58:28.318914 20537 net.cpp:481] conv9/bn <- conv9
I1101 20:58:28.318933 20537 net.cpp:442] conv9/bn -> conv9 (in-place)
I1101 20:58:28.319157 20537 net.cpp:150] Setting up conv9/bn
I1101 20:58:28.319169 20537 net.cpp:157] Top shape: 24 512 19 19 (4435968)
I1101 20:58:28.319171 20537 net.cpp:165] Memory required for data: 3274616864
I1101 20:58:28.319178 20537 layer_factory.hpp:77] Creating layer conv9/scale
I1101 20:58:28.319186 20537 net.cpp:100] Creating Layer conv9/scale
I1101 20:58:28.319192 20537 net.cpp:481] conv9/scale <- conv9
I1101 20:58:28.319200 20537 net.cpp:442] conv9/scale -> conv9 (in-place)
I1101 20:58:28.319264 20537 layer_factory.hpp:77] Creating layer conv9/scale
I1101 20:58:28.319387 20537 net.cpp:150] Setting up conv9/scale
I1101 20:58:28.319397 20537 net.cpp:157] Top shape: 24 512 19 19 (4435968)
I1101 20:58:28.319401 20537 net.cpp:165] Memory required for data: 3292360736
I1101 20:58:28.319406 20537 layer_factory.hpp:77] Creating layer conv9/relu
I1101 20:58:28.319411 20537 net.cpp:100] Creating Layer conv9/relu
I1101 20:58:28.319412 20537 net.cpp:481] conv9/relu <- conv9
I1101 20:58:28.319416 20537 net.cpp:442] conv9/relu -> conv9 (in-place)
I1101 20:58:28.319792 20537 net.cpp:150] Setting up conv9/relu
I1101 20:58:28.319806 20537 net.cpp:157] Top shape: 24 512 19 19 (4435968)
I1101 20:58:28.319809 20537 net.cpp:165] Memory required for data: 3310104608
I1101 20:58:28.319813 20537 layer_factory.hpp:77] Creating layer conv10/dw
I1101 20:58:28.319824 20537 net.cpp:100] Creating Layer conv10/dw
I1101 20:58:28.319830 20537 net.cpp:481] conv10/dw <- conv9
I1101 20:58:28.319840 20537 net.cpp:455] conv10/dw -> conv10/dw
I1101 20:58:28.320102 20537 net.cpp:150] Setting up conv10/dw
I1101 20:58:28.320116 20537 net.cpp:157] Top shape: 24 512 19 19 (4435968)
I1101 20:58:28.320118 20537 net.cpp:165] Memory required for data: 3327848480
I1101 20:58:28.320122 20537 layer_factory.hpp:77] Creating layer conv10/dw/bn
I1101 20:58:28.320128 20537 net.cpp:100] Creating Layer conv10/dw/bn
I1101 20:58:28.320130 20537 net.cpp:481] conv10/dw/bn <- conv10/dw
I1101 20:58:28.320134 20537 net.cpp:442] conv10/dw/bn -> conv10/dw (in-place)
I1101 20:58:28.320353 20537 net.cpp:150] Setting up conv10/dw/bn
I1101 20:58:28.320366 20537 net.cpp:157] Top shape: 24 512 19 19 (4435968)
I1101 20:58:28.320369 20537 net.cpp:165] Memory required for data: 3345592352
I1101 20:58:28.320374 20537 layer_factory.hpp:77] Creating layer conv10/dw/scale
I1101 20:58:28.320382 20537 net.cpp:100] Creating Layer conv10/dw/scale
I1101 20:58:28.320384 20537 net.cpp:481] conv10/dw/scale <- conv10/dw
I1101 20:58:28.320389 20537 net.cpp:442] conv10/dw/scale -> conv10/dw (in-place)
I1101 20:58:28.320439 20537 layer_factory.hpp:77] Creating layer conv10/dw/scale
I1101 20:58:28.320605 20537 net.cpp:150] Setting up conv10/dw/scale
I1101 20:58:28.320616 20537 net.cpp:157] Top shape: 24 512 19 19 (4435968)
I1101 20:58:28.320618 20537 net.cpp:165] Memory required for data: 3363336224
I1101 20:58:28.320623 20537 layer_factory.hpp:77] Creating layer conv10/dw/relu
I1101 20:58:28.320629 20537 net.cpp:100] Creating Layer conv10/dw/relu
I1101 20:58:28.320631 20537 net.cpp:481] conv10/dw/relu <- conv10/dw
I1101 20:58:28.320636 20537 net.cpp:442] conv10/dw/relu -> conv10/dw (in-place)
I1101 20:58:28.321616 20537 net.cpp:150] Setting up conv10/dw/relu
I1101 20:58:28.321652 20537 net.cpp:157] Top shape: 24 512 19 19 (4435968)
I1101 20:58:28.321656 20537 net.cpp:165] Memory required for data: 3381080096
I1101 20:58:28.321660 20537 layer_factory.hpp:77] Creating layer conv10
I1101 20:58:28.321672 20537 net.cpp:100] Creating Layer conv10
I1101 20:58:28.321676 20537 net.cpp:481] conv10 <- conv10/dw
I1101 20:58:28.321701 20537 net.cpp:455] conv10 -> conv10
I1101 20:58:28.327852 20537 net.cpp:150] Setting up conv10
I1101 20:58:28.327872 20537 net.cpp:157] Top shape: 24 512 19 19 (4435968)
I1101 20:58:28.327877 20537 net.cpp:165] Memory required for data: 3398823968
I1101 20:58:28.327883 20537 layer_factory.hpp:77] Creating layer conv10/bn
I1101 20:58:28.327906 20537 net.cpp:100] Creating Layer conv10/bn
I1101 20:58:28.327909 20537 net.cpp:481] conv10/bn <- conv10
I1101 20:58:28.327934 20537 net.cpp:442] conv10/bn -> conv10 (in-place)
I1101 20:58:28.328153 20537 net.cpp:150] Setting up conv10/bn
I1101 20:58:28.328166 20537 net.cpp:157] Top shape: 24 512 19 19 (4435968)
I1101 20:58:28.328168 20537 net.cpp:165] Memory required for data: 3416567840
I1101 20:58:28.328174 20537 layer_factory.hpp:77] Creating layer conv10/scale
I1101 20:58:28.328182 20537 net.cpp:100] Creating Layer conv10/scale
I1101 20:58:28.328191 20537 net.cpp:481] conv10/scale <- conv10
I1101 20:58:28.328198 20537 net.cpp:442] conv10/scale -> conv10 (in-place)
I1101 20:58:28.328248 20537 layer_factory.hpp:77] Creating layer conv10/scale
I1101 20:58:28.328377 20537 net.cpp:150] Setting up conv10/scale
I1101 20:58:28.328387 20537 net.cpp:157] Top shape: 24 512 19 19 (4435968)
I1101 20:58:28.328390 20537 net.cpp:165] Memory required for data: 3434311712
I1101 20:58:28.328395 20537 layer_factory.hpp:77] Creating layer conv10/relu
I1101 20:58:28.328400 20537 net.cpp:100] Creating Layer conv10/relu
I1101 20:58:28.328403 20537 net.cpp:481] conv10/relu <- conv10
I1101 20:58:28.328408 20537 net.cpp:442] conv10/relu -> conv10 (in-place)
I1101 20:58:28.329399 20537 net.cpp:150] Setting up conv10/relu
I1101 20:58:28.329432 20537 net.cpp:157] Top shape: 24 512 19 19 (4435968)
I1101 20:58:28.329437 20537 net.cpp:165] Memory required for data: 3452055584
I1101 20:58:28.329439 20537 layer_factory.hpp:77] Creating layer conv11/dw
I1101 20:58:28.329450 20537 net.cpp:100] Creating Layer conv11/dw
I1101 20:58:28.329453 20537 net.cpp:481] conv11/dw <- conv10
I1101 20:58:28.329459 20537 net.cpp:455] conv11/dw -> conv11/dw
I1101 20:58:28.329725 20537 net.cpp:150] Setting up conv11/dw
I1101 20:58:28.329740 20537 net.cpp:157] Top shape: 24 512 19 19 (4435968)
I1101 20:58:28.329741 20537 net.cpp:165] Memory required for data: 3469799456
I1101 20:58:28.329746 20537 layer_factory.hpp:77] Creating layer conv11/dw/bn
I1101 20:58:28.329753 20537 net.cpp:100] Creating Layer conv11/dw/bn
I1101 20:58:28.329756 20537 net.cpp:481] conv11/dw/bn <- conv11/dw
I1101 20:58:28.329759 20537 net.cpp:442] conv11/dw/bn -> conv11/dw (in-place)
I1101 20:58:28.329957 20537 net.cpp:150] Setting up conv11/dw/bn
I1101 20:58:28.329967 20537 net.cpp:157] Top shape: 24 512 19 19 (4435968)
I1101 20:58:28.329970 20537 net.cpp:165] Memory required for data: 3487543328
I1101 20:58:28.329990 20537 layer_factory.hpp:77] Creating layer conv11/dw/scale
I1101 20:58:28.330003 20537 net.cpp:100] Creating Layer conv11/dw/scale
I1101 20:58:28.330005 20537 net.cpp:481] conv11/dw/scale <- conv11/dw
I1101 20:58:28.330009 20537 net.cpp:442] conv11/dw/scale -> conv11/dw (in-place)
I1101 20:58:28.330061 20537 layer_factory.hpp:77] Creating layer conv11/dw/scale
I1101 20:58:28.330202 20537 net.cpp:150] Setting up conv11/dw/scale
I1101 20:58:28.330211 20537 net.cpp:157] Top shape: 24 512 19 19 (4435968)
I1101 20:58:28.330214 20537 net.cpp:165] Memory required for data: 3505287200
I1101 20:58:28.330219 20537 layer_factory.hpp:77] Creating layer conv11/dw/relu
I1101 20:58:28.330224 20537 net.cpp:100] Creating Layer conv11/dw/relu
I1101 20:58:28.330226 20537 net.cpp:481] conv11/dw/relu <- conv11/dw
I1101 20:58:28.330230 20537 net.cpp:442] conv11/dw/relu -> conv11/dw (in-place)
I1101 20:58:28.330540 20537 net.cpp:150] Setting up conv11/dw/relu
I1101 20:58:28.330557 20537 net.cpp:157] Top shape: 24 512 19 19 (4435968)
I1101 20:58:28.330559 20537 net.cpp:165] Memory required for data: 3523031072
I1101 20:58:28.330562 20537 layer_factory.hpp:77] Creating layer conv11
I1101 20:58:28.330572 20537 net.cpp:100] Creating Layer conv11
I1101 20:58:28.330579 20537 net.cpp:481] conv11 <- conv11/dw
I1101 20:58:28.330585 20537 net.cpp:455] conv11 -> conv11
I1101 20:58:28.336738 20537 net.cpp:150] Setting up conv11
I1101 20:58:28.336760 20537 net.cpp:157] Top shape: 24 512 19 19 (4435968)
I1101 20:58:28.336763 20537 net.cpp:165] Memory required for data: 3540774944
I1101 20:58:28.336768 20537 layer_factory.hpp:77] Creating layer conv11/bn
I1101 20:58:28.336776 20537 net.cpp:100] Creating Layer conv11/bn
I1101 20:58:28.336812 20537 net.cpp:481] conv11/bn <- conv11
I1101 20:58:28.336818 20537 net.cpp:442] conv11/bn -> conv11 (in-place)
I1101 20:58:28.337098 20537 net.cpp:150] Setting up conv11/bn
I1101 20:58:28.337111 20537 net.cpp:157] Top shape: 24 512 19 19 (4435968)
I1101 20:58:28.337113 20537 net.cpp:165] Memory required for data: 3558518816
I1101 20:58:28.337121 20537 layer_factory.hpp:77] Creating layer conv11/scale
I1101 20:58:28.337129 20537 net.cpp:100] Creating Layer conv11/scale
I1101 20:58:28.337136 20537 net.cpp:481] conv11/scale <- conv11
I1101 20:58:28.337141 20537 net.cpp:442] conv11/scale -> conv11 (in-place)
I1101 20:58:28.337235 20537 layer_factory.hpp:77] Creating layer conv11/scale
I1101 20:58:28.337357 20537 net.cpp:150] Setting up conv11/scale
I1101 20:58:28.337368 20537 net.cpp:157] Top shape: 24 512 19 19 (4435968)
I1101 20:58:28.337370 20537 net.cpp:165] Memory required for data: 3576262688
I1101 20:58:28.337375 20537 layer_factory.hpp:77] Creating layer conv11/relu
I1101 20:58:28.337379 20537 net.cpp:100] Creating Layer conv11/relu
I1101 20:58:28.337383 20537 net.cpp:481] conv11/relu <- conv11
I1101 20:58:28.337388 20537 net.cpp:442] conv11/relu -> conv11 (in-place)
I1101 20:58:28.338367 20537 net.cpp:150] Setting up conv11/relu
I1101 20:58:28.338387 20537 net.cpp:157] Top shape: 24 512 19 19 (4435968)
I1101 20:58:28.338390 20537 net.cpp:165] Memory required for data: 3594006560
I1101 20:58:28.338393 20537 layer_factory.hpp:77] Creating layer conv11_conv11/relu_0_split
I1101 20:58:28.338400 20537 net.cpp:100] Creating Layer conv11_conv11/relu_0_split
I1101 20:58:28.338403 20537 net.cpp:481] conv11_conv11/relu_0_split <- conv11
I1101 20:58:28.338428 20537 net.cpp:455] conv11_conv11/relu_0_split -> conv11_conv11/relu_0_split_0
I1101 20:58:28.338464 20537 net.cpp:455] conv11_conv11/relu_0_split -> conv11_conv11/relu_0_split_1
I1101 20:58:28.338471 20537 net.cpp:455] conv11_conv11/relu_0_split -> conv11_conv11/relu_0_split_2
I1101 20:58:28.338496 20537 net.cpp:455] conv11_conv11/relu_0_split -> conv11_conv11/relu_0_split_3
I1101 20:58:28.338610 20537 net.cpp:150] Setting up conv11_conv11/relu_0_split
I1101 20:58:28.338620 20537 net.cpp:157] Top shape: 24 512 19 19 (4435968)
I1101 20:58:28.338624 20537 net.cpp:157] Top shape: 24 512 19 19 (4435968)
I1101 20:58:28.338626 20537 net.cpp:157] Top shape: 24 512 19 19 (4435968)
I1101 20:58:28.338629 20537 net.cpp:157] Top shape: 24 512 19 19 (4435968)
I1101 20:58:28.338631 20537 net.cpp:165] Memory required for data: 3664982048
I1101 20:58:28.338634 20537 layer_factory.hpp:77] Creating layer conv12/dw
I1101 20:58:28.338644 20537 net.cpp:100] Creating Layer conv12/dw
I1101 20:58:28.338649 20537 net.cpp:481] conv12/dw <- conv11_conv11/relu_0_split_0
I1101 20:58:28.338656 20537 net.cpp:455] conv12/dw -> conv12/dw
I1101 20:58:28.338937 20537 net.cpp:150] Setting up conv12/dw
I1101 20:58:28.338948 20537 net.cpp:157] Top shape: 24 512 10 10 (1228800)
I1101 20:58:28.338949 20537 net.cpp:165] Memory required for data: 3669897248
I1101 20:58:28.338954 20537 layer_factory.hpp:77] Creating layer conv12/dw/bn
I1101 20:58:28.338959 20537 net.cpp:100] Creating Layer conv12/dw/bn
I1101 20:58:28.338963 20537 net.cpp:481] conv12/dw/bn <- conv12/dw
I1101 20:58:28.338981 20537 net.cpp:442] conv12/dw/bn -> conv12/dw (in-place)
I1101 20:58:28.339181 20537 net.cpp:150] Setting up conv12/dw/bn
I1101 20:58:28.339190 20537 net.cpp:157] Top shape: 24 512 10 10 (1228800)
I1101 20:58:28.339192 20537 net.cpp:165] Memory required for data: 3674812448
I1101 20:58:28.339198 20537 layer_factory.hpp:77] Creating layer conv12/dw/scale
I1101 20:58:28.339205 20537 net.cpp:100] Creating Layer conv12/dw/scale
I1101 20:58:28.339208 20537 net.cpp:481] conv12/dw/scale <- conv12/dw
I1101 20:58:28.339213 20537 net.cpp:442] conv12/dw/scale -> conv12/dw (in-place)
I1101 20:58:28.339257 20537 layer_factory.hpp:77] Creating layer conv12/dw/scale
I1101 20:58:28.339421 20537 net.cpp:150] Setting up conv12/dw/scale
I1101 20:58:28.339432 20537 net.cpp:157] Top shape: 24 512 10 10 (1228800)
I1101 20:58:28.339452 20537 net.cpp:165] Memory required for data: 3679727648
I1101 20:58:28.339459 20537 layer_factory.hpp:77] Creating layer conv12/dw/relu
I1101 20:58:28.339464 20537 net.cpp:100] Creating Layer conv12/dw/relu
I1101 20:58:28.339468 20537 net.cpp:481] conv12/dw/relu <- conv12/dw
I1101 20:58:28.339473 20537 net.cpp:442] conv12/dw/relu -> conv12/dw (in-place)
I1101 20:58:28.339854 20537 net.cpp:150] Setting up conv12/dw/relu
I1101 20:58:28.339872 20537 net.cpp:157] Top shape: 24 512 10 10 (1228800)
I1101 20:58:28.339874 20537 net.cpp:165] Memory required for data: 3684642848
I1101 20:58:28.339879 20537 layer_factory.hpp:77] Creating layer conv12
I1101 20:58:28.339889 20537 net.cpp:100] Creating Layer conv12
I1101 20:58:28.339896 20537 net.cpp:481] conv12 <- conv12/dw
I1101 20:58:28.339903 20537 net.cpp:455] conv12 -> conv12
I1101 20:58:28.349964 20537 net.cpp:150] Setting up conv12
I1101 20:58:28.350003 20537 net.cpp:157] Top shape: 24 1024 10 10 (2457600)
I1101 20:58:28.350008 20537 net.cpp:165] Memory required for data: 3694473248
I1101 20:58:28.350013 20537 layer_factory.hpp:77] Creating layer conv12/bn
I1101 20:58:28.350018 20537 net.cpp:100] Creating Layer conv12/bn
I1101 20:58:28.350021 20537 net.cpp:481] conv12/bn <- conv12
I1101 20:58:28.350028 20537 net.cpp:442] conv12/bn -> conv12 (in-place)
I1101 20:58:28.350306 20537 net.cpp:150] Setting up conv12/bn
I1101 20:58:28.350319 20537 net.cpp:157] Top shape: 24 1024 10 10 (2457600)
I1101 20:58:28.350322 20537 net.cpp:165] Memory required for data: 3704303648
I1101 20:58:28.350328 20537 layer_factory.hpp:77] Creating layer conv12/scale
I1101 20:58:28.350335 20537 net.cpp:100] Creating Layer conv12/scale
I1101 20:58:28.350343 20537 net.cpp:481] conv12/scale <- conv12
I1101 20:58:28.350349 20537 net.cpp:442] conv12/scale -> conv12 (in-place)
I1101 20:58:28.350412 20537 layer_factory.hpp:77] Creating layer conv12/scale
I1101 20:58:28.350589 20537 net.cpp:150] Setting up conv12/scale
I1101 20:58:28.350600 20537 net.cpp:157] Top shape: 24 1024 10 10 (2457600)
I1101 20:58:28.350602 20537 net.cpp:165] Memory required for data: 3714134048
I1101 20:58:28.350608 20537 layer_factory.hpp:77] Creating layer conv12/relu
I1101 20:58:28.350613 20537 net.cpp:100] Creating Layer conv12/relu
I1101 20:58:28.350615 20537 net.cpp:481] conv12/relu <- conv12
I1101 20:58:28.350621 20537 net.cpp:442] conv12/relu -> conv12 (in-place)
I1101 20:58:28.351634 20537 net.cpp:150] Setting up conv12/relu
I1101 20:58:28.351655 20537 net.cpp:157] Top shape: 24 1024 10 10 (2457600)
I1101 20:58:28.351658 20537 net.cpp:165] Memory required for data: 3723964448
I1101 20:58:28.351661 20537 layer_factory.hpp:77] Creating layer conv13/dw
I1101 20:58:28.351672 20537 net.cpp:100] Creating Layer conv13/dw
I1101 20:58:28.351680 20537 net.cpp:481] conv13/dw <- conv12
I1101 20:58:28.351688 20537 net.cpp:455] conv13/dw -> conv13/dw
I1101 20:58:28.352010 20537 net.cpp:150] Setting up conv13/dw
I1101 20:58:28.352039 20537 net.cpp:157] Top shape: 24 1024 10 10 (2457600)
I1101 20:58:28.352042 20537 net.cpp:165] Memory required for data: 3733794848
I1101 20:58:28.352047 20537 layer_factory.hpp:77] Creating layer conv13/dw/bn
I1101 20:58:28.352054 20537 net.cpp:100] Creating Layer conv13/dw/bn
I1101 20:58:28.352058 20537 net.cpp:481] conv13/dw/bn <- conv13/dw
I1101 20:58:28.352062 20537 net.cpp:442] conv13/dw/bn -> conv13/dw (in-place)
I1101 20:58:28.352416 20537 net.cpp:150] Setting up conv13/dw/bn
I1101 20:58:28.352427 20537 net.cpp:157] Top shape: 24 1024 10 10 (2457600)
I1101 20:58:28.352429 20537 net.cpp:165] Memory required for data: 3743625248
I1101 20:58:28.352437 20537 layer_factory.hpp:77] Creating layer conv13/dw/scale
I1101 20:58:28.352444 20537 net.cpp:100] Creating Layer conv13/dw/scale
I1101 20:58:28.352448 20537 net.cpp:481] conv13/dw/scale <- conv13/dw
I1101 20:58:28.352468 20537 net.cpp:442] conv13/dw/scale -> conv13/dw (in-place)
I1101 20:58:28.352537 20537 layer_factory.hpp:77] Creating layer conv13/dw/scale
I1101 20:58:28.352686 20537 net.cpp:150] Setting up conv13/dw/scale
I1101 20:58:28.352711 20537 net.cpp:157] Top shape: 24 1024 10 10 (2457600)
I1101 20:58:28.352715 20537 net.cpp:165] Memory required for data: 3753455648
I1101 20:58:28.352720 20537 layer_factory.hpp:77] Creating layer conv13/dw/relu
I1101 20:58:28.352725 20537 net.cpp:100] Creating Layer conv13/dw/relu
I1101 20:58:28.352728 20537 net.cpp:481] conv13/dw/relu <- conv13/dw
I1101 20:58:28.352735 20537 net.cpp:442] conv13/dw/relu -> conv13/dw (in-place)
I1101 20:58:28.353749 20537 net.cpp:150] Setting up conv13/dw/relu
I1101 20:58:28.353770 20537 net.cpp:157] Top shape: 24 1024 10 10 (2457600)
I1101 20:58:28.353772 20537 net.cpp:165] Memory required for data: 3763286048
I1101 20:58:28.353776 20537 layer_factory.hpp:77] Creating layer conv13
I1101 20:58:28.353788 20537 net.cpp:100] Creating Layer conv13
I1101 20:58:28.353796 20537 net.cpp:481] conv13 <- conv13/dw
I1101 20:58:28.353804 20537 net.cpp:455] conv13 -> conv13
I1101 20:58:28.368861 20537 net.cpp:150] Setting up conv13
I1101 20:58:28.368885 20537 net.cpp:157] Top shape: 24 1024 10 10 (2457600)
I1101 20:58:28.368887 20537 net.cpp:165] Memory required for data: 3773116448
I1101 20:58:28.368893 20537 layer_factory.hpp:77] Creating layer conv13/bn
I1101 20:58:28.368901 20537 net.cpp:100] Creating Layer conv13/bn
I1101 20:58:28.368906 20537 net.cpp:481] conv13/bn <- conv13
I1101 20:58:28.368911 20537 net.cpp:442] conv13/bn -> conv13 (in-place)
I1101 20:58:28.369205 20537 net.cpp:150] Setting up conv13/bn
I1101 20:58:28.369217 20537 net.cpp:157] Top shape: 24 1024 10 10 (2457600)
I1101 20:58:28.369220 20537 net.cpp:165] Memory required for data: 3782946848
I1101 20:58:28.369226 20537 layer_factory.hpp:77] Creating layer conv13/scale
I1101 20:58:28.369236 20537 net.cpp:100] Creating Layer conv13/scale
I1101 20:58:28.369240 20537 net.cpp:481] conv13/scale <- conv13
I1101 20:58:28.369243 20537 net.cpp:442] conv13/scale -> conv13 (in-place)
I1101 20:58:28.369293 20537 layer_factory.hpp:77] Creating layer conv13/scale
I1101 20:58:28.369439 20537 net.cpp:150] Setting up conv13/scale
I1101 20:58:28.369451 20537 net.cpp:157] Top shape: 24 1024 10 10 (2457600)
I1101 20:58:28.369453 20537 net.cpp:165] Memory required for data: 3792777248
I1101 20:58:28.369458 20537 layer_factory.hpp:77] Creating layer conv13/relu
I1101 20:58:28.369463 20537 net.cpp:100] Creating Layer conv13/relu
I1101 20:58:28.369467 20537 net.cpp:481] conv13/relu <- conv13
I1101 20:58:28.369472 20537 net.cpp:442] conv13/relu -> conv13 (in-place)
I1101 20:58:28.369810 20537 net.cpp:150] Setting up conv13/relu
I1101 20:58:28.369827 20537 net.cpp:157] Top shape: 24 1024 10 10 (2457600)
I1101 20:58:28.369829 20537 net.cpp:165] Memory required for data: 3802607648
I1101 20:58:28.369832 20537 layer_factory.hpp:77] Creating layer conv13_conv13/relu_0_split
I1101 20:58:28.369840 20537 net.cpp:100] Creating Layer conv13_conv13/relu_0_split
I1101 20:58:28.369849 20537 net.cpp:481] conv13_conv13/relu_0_split <- conv13
I1101 20:58:28.369854 20537 net.cpp:455] conv13_conv13/relu_0_split -> conv13_conv13/relu_0_split_0
I1101 20:58:28.369861 20537 net.cpp:455] conv13_conv13/relu_0_split -> conv13_conv13/relu_0_split_1
I1101 20:58:28.369869 20537 net.cpp:455] conv13_conv13/relu_0_split -> conv13_conv13/relu_0_split_2
I1101 20:58:28.369876 20537 net.cpp:455] conv13_conv13/relu_0_split -> conv13_conv13/relu_0_split_3
I1101 20:58:28.369953 20537 net.cpp:150] Setting up conv13_conv13/relu_0_split
I1101 20:58:28.369963 20537 net.cpp:157] Top shape: 24 1024 10 10 (2457600)
I1101 20:58:28.369966 20537 net.cpp:157] Top shape: 24 1024 10 10 (2457600)
I1101 20:58:28.369968 20537 net.cpp:157] Top shape: 24 1024 10 10 (2457600)
I1101 20:58:28.369971 20537 net.cpp:157] Top shape: 24 1024 10 10 (2457600)
I1101 20:58:28.369973 20537 net.cpp:165] Memory required for data: 3841929248
I1101 20:58:28.369976 20537 layer_factory.hpp:77] Creating layer conv14_1
I1101 20:58:28.369987 20537 net.cpp:100] Creating Layer conv14_1
I1101 20:58:28.369993 20537 net.cpp:481] conv14_1 <- conv13_conv13/relu_0_split_0
I1101 20:58:28.369998 20537 net.cpp:455] conv14_1 -> conv14_1
I1101 20:58:28.376103 20537 net.cpp:150] Setting up conv14_1
I1101 20:58:28.376127 20537 net.cpp:157] Top shape: 24 256 10 10 (614400)
I1101 20:58:28.376129 20537 net.cpp:165] Memory required for data: 3844386848
I1101 20:58:28.376135 20537 layer_factory.hpp:77] Creating layer conv14_1/bn
I1101 20:58:28.376143 20537 net.cpp:100] Creating Layer conv14_1/bn
I1101 20:58:28.376148 20537 net.cpp:481] conv14_1/bn <- conv14_1
I1101 20:58:28.376153 20537 net.cpp:442] conv14_1/bn -> conv14_1 (in-place)
I1101 20:58:28.376451 20537 net.cpp:150] Setting up conv14_1/bn
I1101 20:58:28.376462 20537 net.cpp:157] Top shape: 24 256 10 10 (614400)
I1101 20:58:28.376466 20537 net.cpp:165] Memory required for data: 3846844448
I1101 20:58:28.376472 20537 layer_factory.hpp:77] Creating layer conv14_1/scale
I1101 20:58:28.376484 20537 net.cpp:100] Creating Layer conv14_1/scale
I1101 20:58:28.376492 20537 net.cpp:481] conv14_1/scale <- conv14_1
I1101 20:58:28.376497 20537 net.cpp:442] conv14_1/scale -> conv14_1 (in-place)
I1101 20:58:28.376582 20537 layer_factory.hpp:77] Creating layer conv14_1/scale
I1101 20:58:28.376757 20537 net.cpp:150] Setting up conv14_1/scale
I1101 20:58:28.376768 20537 net.cpp:157] Top shape: 24 256 10 10 (614400)
I1101 20:58:28.376771 20537 net.cpp:165] Memory required for data: 3849302048
I1101 20:58:28.376776 20537 layer_factory.hpp:77] Creating layer conv14_1/relu
I1101 20:58:28.376781 20537 net.cpp:100] Creating Layer conv14_1/relu
I1101 20:58:28.376783 20537 net.cpp:481] conv14_1/relu <- conv14_1
I1101 20:58:28.376787 20537 net.cpp:442] conv14_1/relu -> conv14_1 (in-place)
I1101 20:58:28.377792 20537 net.cpp:150] Setting up conv14_1/relu
I1101 20:58:28.377813 20537 net.cpp:157] Top shape: 24 256 10 10 (614400)
I1101 20:58:28.377816 20537 net.cpp:165] Memory required for data: 3851759648
I1101 20:58:28.377820 20537 layer_factory.hpp:77] Creating layer conv14_2
I1101 20:58:28.377852 20537 net.cpp:100] Creating Layer conv14_2
I1101 20:58:28.377856 20537 net.cpp:481] conv14_2 <- conv14_1
I1101 20:58:28.377878 20537 net.cpp:455] conv14_2 -> conv14_2
I1101 20:58:28.395766 20537 net.cpp:150] Setting up conv14_2
I1101 20:58:28.395789 20537 net.cpp:157] Top shape: 24 512 5 5 (307200)
I1101 20:58:28.395793 20537 net.cpp:165] Memory required for data: 3852988448
I1101 20:58:28.395799 20537 layer_factory.hpp:77] Creating layer conv14_2/bn
I1101 20:58:28.395805 20537 net.cpp:100] Creating Layer conv14_2/bn
I1101 20:58:28.395809 20537 net.cpp:481] conv14_2/bn <- conv14_2
I1101 20:58:28.395813 20537 net.cpp:442] conv14_2/bn -> conv14_2 (in-place)
I1101 20:58:28.396070 20537 net.cpp:150] Setting up conv14_2/bn
I1101 20:58:28.396083 20537 net.cpp:157] Top shape: 24 512 5 5 (307200)
I1101 20:58:28.396086 20537 net.cpp:165] Memory required for data: 3854217248
I1101 20:58:28.396093 20537 layer_factory.hpp:77] Creating layer conv14_2/scale
I1101 20:58:28.396102 20537 net.cpp:100] Creating Layer conv14_2/scale
I1101 20:58:28.396106 20537 net.cpp:481] conv14_2/scale <- conv14_2
I1101 20:58:28.396112 20537 net.cpp:442] conv14_2/scale -> conv14_2 (in-place)
I1101 20:58:28.396195 20537 layer_factory.hpp:77] Creating layer conv14_2/scale
I1101 20:58:28.396350 20537 net.cpp:150] Setting up conv14_2/scale
I1101 20:58:28.396361 20537 net.cpp:157] Top shape: 24 512 5 5 (307200)
I1101 20:58:28.396363 20537 net.cpp:165] Memory required for data: 3855446048
I1101 20:58:28.396368 20537 layer_factory.hpp:77] Creating layer conv14_2/relu
I1101 20:58:28.396373 20537 net.cpp:100] Creating Layer conv14_2/relu
I1101 20:58:28.396376 20537 net.cpp:481] conv14_2/relu <- conv14_2
I1101 20:58:28.396399 20537 net.cpp:442] conv14_2/relu -> conv14_2 (in-place)
I1101 20:58:28.396744 20537 net.cpp:150] Setting up conv14_2/relu
I1101 20:58:28.396759 20537 net.cpp:157] Top shape: 24 512 5 5 (307200)
I1101 20:58:28.396762 20537 net.cpp:165] Memory required for data: 3856674848
I1101 20:58:28.396766 20537 layer_factory.hpp:77] Creating layer conv14_2_conv14_2/relu_0_split
I1101 20:58:28.396775 20537 net.cpp:100] Creating Layer conv14_2_conv14_2/relu_0_split
I1101 20:58:28.396795 20537 net.cpp:481] conv14_2_conv14_2/relu_0_split <- conv14_2
I1101 20:58:28.396802 20537 net.cpp:455] conv14_2_conv14_2/relu_0_split -> conv14_2_conv14_2/relu_0_split_0
I1101 20:58:28.396812 20537 net.cpp:455] conv14_2_conv14_2/relu_0_split -> conv14_2_conv14_2/relu_0_split_1
I1101 20:58:28.396822 20537 net.cpp:455] conv14_2_conv14_2/relu_0_split -> conv14_2_conv14_2/relu_0_split_2
I1101 20:58:28.396828 20537 net.cpp:455] conv14_2_conv14_2/relu_0_split -> conv14_2_conv14_2/relu_0_split_3
I1101 20:58:28.396929 20537 net.cpp:150] Setting up conv14_2_conv14_2/relu_0_split
I1101 20:58:28.396939 20537 net.cpp:157] Top shape: 24 512 5 5 (307200)
I1101 20:58:28.396942 20537 net.cpp:157] Top shape: 24 512 5 5 (307200)
I1101 20:58:28.396945 20537 net.cpp:157] Top shape: 24 512 5 5 (307200)
I1101 20:58:28.396948 20537 net.cpp:157] Top shape: 24 512 5 5 (307200)
I1101 20:58:28.396952 20537 net.cpp:165] Memory required for data: 3861590048
I1101 20:58:28.396955 20537 layer_factory.hpp:77] Creating layer conv15_1
I1101 20:58:28.396966 20537 net.cpp:100] Creating Layer conv15_1
I1101 20:58:28.396973 20537 net.cpp:481] conv15_1 <- conv14_2_conv14_2/relu_0_split_0
I1101 20:58:28.396978 20537 net.cpp:455] conv15_1 -> conv15_1
I1101 20:58:28.400238 20537 net.cpp:150] Setting up conv15_1
I1101 20:58:28.400259 20537 net.cpp:157] Top shape: 24 128 5 5 (76800)
I1101 20:58:28.400264 20537 net.cpp:165] Memory required for data: 3861897248
I1101 20:58:28.400285 20537 layer_factory.hpp:77] Creating layer conv15_1/bn
I1101 20:58:28.400292 20537 net.cpp:100] Creating Layer conv15_1/bn
I1101 20:58:28.400295 20537 net.cpp:481] conv15_1/bn <- conv15_1
I1101 20:58:28.400300 20537 net.cpp:442] conv15_1/bn -> conv15_1 (in-place)
I1101 20:58:28.400581 20537 net.cpp:150] Setting up conv15_1/bn
I1101 20:58:28.400593 20537 net.cpp:157] Top shape: 24 128 5 5 (76800)
I1101 20:58:28.400596 20537 net.cpp:165] Memory required for data: 3862204448
I1101 20:58:28.400604 20537 layer_factory.hpp:77] Creating layer conv15_1/scale
I1101 20:58:28.400612 20537 net.cpp:100] Creating Layer conv15_1/scale
I1101 20:58:28.400616 20537 net.cpp:481] conv15_1/scale <- conv15_1
I1101 20:58:28.400620 20537 net.cpp:442] conv15_1/scale -> conv15_1 (in-place)
I1101 20:58:28.400672 20537 layer_factory.hpp:77] Creating layer conv15_1/scale
I1101 20:58:28.400826 20537 net.cpp:150] Setting up conv15_1/scale
I1101 20:58:28.400837 20537 net.cpp:157] Top shape: 24 128 5 5 (76800)
I1101 20:58:28.400840 20537 net.cpp:165] Memory required for data: 3862511648
I1101 20:58:28.400846 20537 layer_factory.hpp:77] Creating layer conv15_1/relu
I1101 20:58:28.400851 20537 net.cpp:100] Creating Layer conv15_1/relu
I1101 20:58:28.400852 20537 net.cpp:481] conv15_1/relu <- conv15_1
I1101 20:58:28.400858 20537 net.cpp:442] conv15_1/relu -> conv15_1 (in-place)
I1101 20:58:28.401919 20537 net.cpp:150] Setting up conv15_1/relu
I1101 20:58:28.401942 20537 net.cpp:157] Top shape: 24 128 5 5 (76800)
I1101 20:58:28.401944 20537 net.cpp:165] Memory required for data: 3862818848
I1101 20:58:28.401947 20537 layer_factory.hpp:77] Creating layer conv15_2
I1101 20:58:28.401959 20537 net.cpp:100] Creating Layer conv15_2
I1101 20:58:28.401963 20537 net.cpp:481] conv15_2 <- conv15_1
I1101 20:58:28.401971 20537 net.cpp:455] conv15_2 -> conv15_2
I1101 20:58:28.408697 20537 net.cpp:150] Setting up conv15_2
I1101 20:58:28.408720 20537 net.cpp:157] Top shape: 24 256 3 3 (55296)
I1101 20:58:28.408723 20537 net.cpp:165] Memory required for data: 3863040032
I1101 20:58:28.408730 20537 layer_factory.hpp:77] Creating layer conv15_2/bn
I1101 20:58:28.408736 20537 net.cpp:100] Creating Layer conv15_2/bn
I1101 20:58:28.408740 20537 net.cpp:481] conv15_2/bn <- conv15_2
I1101 20:58:28.408747 20537 net.cpp:442] conv15_2/bn -> conv15_2 (in-place)
I1101 20:58:28.408993 20537 net.cpp:150] Setting up conv15_2/bn
I1101 20:58:28.409004 20537 net.cpp:157] Top shape: 24 256 3 3 (55296)
I1101 20:58:28.409008 20537 net.cpp:165] Memory required for data: 3863261216
I1101 20:58:28.409014 20537 layer_factory.hpp:77] Creating layer conv15_2/scale
I1101 20:58:28.409040 20537 net.cpp:100] Creating Layer conv15_2/scale
I1101 20:58:28.409045 20537 net.cpp:481] conv15_2/scale <- conv15_2
I1101 20:58:28.409052 20537 net.cpp:442] conv15_2/scale -> conv15_2 (in-place)
I1101 20:58:28.409111 20537 layer_factory.hpp:77] Creating layer conv15_2/scale
I1101 20:58:28.409248 20537 net.cpp:150] Setting up conv15_2/scale
I1101 20:58:28.409260 20537 net.cpp:157] Top shape: 24 256 3 3 (55296)
I1101 20:58:28.409261 20537 net.cpp:165] Memory required for data: 3863482400
I1101 20:58:28.409267 20537 layer_factory.hpp:77] Creating layer conv15_2/relu
I1101 20:58:28.409296 20537 net.cpp:100] Creating Layer conv15_2/relu
I1101 20:58:28.409301 20537 net.cpp:481] conv15_2/relu <- conv15_2
I1101 20:58:28.409307 20537 net.cpp:442] conv15_2/relu -> conv15_2 (in-place)
I1101 20:58:28.410354 20537 net.cpp:150] Setting up conv15_2/relu
I1101 20:58:28.410375 20537 net.cpp:157] Top shape: 24 256 3 3 (55296)
I1101 20:58:28.410379 20537 net.cpp:165] Memory required for data: 3863703584
I1101 20:58:28.410383 20537 layer_factory.hpp:77] Creating layer conv15_2_conv15_2/relu_0_split
I1101 20:58:28.410392 20537 net.cpp:100] Creating Layer conv15_2_conv15_2/relu_0_split
I1101 20:58:28.410403 20537 net.cpp:481] conv15_2_conv15_2/relu_0_split <- conv15_2
I1101 20:58:28.410409 20537 net.cpp:455] conv15_2_conv15_2/relu_0_split -> conv15_2_conv15_2/relu_0_split_0
I1101 20:58:28.410423 20537 net.cpp:455] conv15_2_conv15_2/relu_0_split -> conv15_2_conv15_2/relu_0_split_1
I1101 20:58:28.410429 20537 net.cpp:455] conv15_2_conv15_2/relu_0_split -> conv15_2_conv15_2/relu_0_split_2
I1101 20:58:28.410434 20537 net.cpp:455] conv15_2_conv15_2/relu_0_split -> conv15_2_conv15_2/relu_0_split_3
I1101 20:58:28.410529 20537 net.cpp:150] Setting up conv15_2_conv15_2/relu_0_split
I1101 20:58:28.410540 20537 net.cpp:157] Top shape: 24 256 3 3 (55296)
I1101 20:58:28.410544 20537 net.cpp:157] Top shape: 24 256 3 3 (55296)
I1101 20:58:28.410547 20537 net.cpp:157] Top shape: 24 256 3 3 (55296)
I1101 20:58:28.410550 20537 net.cpp:157] Top shape: 24 256 3 3 (55296)
I1101 20:58:28.410552 20537 net.cpp:165] Memory required for data: 3864588320
I1101 20:58:28.410555 20537 layer_factory.hpp:77] Creating layer conv16_1
I1101 20:58:28.410565 20537 net.cpp:100] Creating Layer conv16_1
I1101 20:58:28.410571 20537 net.cpp:481] conv16_1 <- conv15_2_conv15_2/relu_0_split_0
I1101 20:58:28.410578 20537 net.cpp:455] conv16_1 -> conv16_1
I1101 20:58:28.413758 20537 net.cpp:150] Setting up conv16_1
I1101 20:58:28.413779 20537 net.cpp:157] Top shape: 24 128 3 3 (27648)
I1101 20:58:28.413784 20537 net.cpp:165] Memory required for data: 3864698912
I1101 20:58:28.413789 20537 layer_factory.hpp:77] Creating layer conv16_1/bn
I1101 20:58:28.413797 20537 net.cpp:100] Creating Layer conv16_1/bn
I1101 20:58:28.413801 20537 net.cpp:481] conv16_1/bn <- conv16_1
I1101 20:58:28.413806 20537 net.cpp:442] conv16_1/bn -> conv16_1 (in-place)
I1101 20:58:28.414054 20537 net.cpp:150] Setting up conv16_1/bn
I1101 20:58:28.414067 20537 net.cpp:157] Top shape: 24 128 3 3 (27648)
I1101 20:58:28.414070 20537 net.cpp:165] Memory required for data: 3864809504
I1101 20:58:28.414078 20537 layer_factory.hpp:77] Creating layer conv16_1/scale
I1101 20:58:28.414085 20537 net.cpp:100] Creating Layer conv16_1/scale
I1101 20:58:28.414093 20537 net.cpp:481] conv16_1/scale <- conv16_1
I1101 20:58:28.414098 20537 net.cpp:442] conv16_1/scale -> conv16_1 (in-place)
I1101 20:58:28.414181 20537 layer_factory.hpp:77] Creating layer conv16_1/scale
I1101 20:58:28.414348 20537 net.cpp:150] Setting up conv16_1/scale
I1101 20:58:28.414361 20537 net.cpp:157] Top shape: 24 128 3 3 (27648)
I1101 20:58:28.414363 20537 net.cpp:165] Memory required for data: 3864920096
I1101 20:58:28.414368 20537 layer_factory.hpp:77] Creating layer conv16_1/relu
I1101 20:58:28.414374 20537 net.cpp:100] Creating Layer conv16_1/relu
I1101 20:58:28.414378 20537 net.cpp:481] conv16_1/relu <- conv16_1
I1101 20:58:28.414382 20537 net.cpp:442] conv16_1/relu -> conv16_1 (in-place)
I1101 20:58:28.414732 20537 net.cpp:150] Setting up conv16_1/relu
I1101 20:58:28.414750 20537 net.cpp:157] Top shape: 24 128 3 3 (27648)
I1101 20:58:28.414753 20537 net.cpp:165] Memory required for data: 3865030688
I1101 20:58:28.414757 20537 layer_factory.hpp:77] Creating layer conv16_2
I1101 20:58:28.414767 20537 net.cpp:100] Creating Layer conv16_2
I1101 20:58:28.414774 20537 net.cpp:481] conv16_2 <- conv16_1
I1101 20:58:28.414783 20537 net.cpp:455] conv16_2 -> conv16_2
I1101 20:58:28.421239 20537 net.cpp:150] Setting up conv16_2
I1101 20:58:28.421262 20537 net.cpp:157] Top shape: 24 256 2 2 (24576)
I1101 20:58:28.421265 20537 net.cpp:165] Memory required for data: 3865128992
I1101 20:58:28.421272 20537 layer_factory.hpp:77] Creating layer conv16_2/bn
I1101 20:58:28.421277 20537 net.cpp:100] Creating Layer conv16_2/bn
I1101 20:58:28.421280 20537 net.cpp:481] conv16_2/bn <- conv16_2
I1101 20:58:28.421294 20537 net.cpp:442] conv16_2/bn -> conv16_2 (in-place)
I1101 20:58:28.421526 20537 net.cpp:150] Setting up conv16_2/bn
I1101 20:58:28.421537 20537 net.cpp:157] Top shape: 24 256 2 2 (24576)
I1101 20:58:28.421540 20537 net.cpp:165] Memory required for data: 3865227296
I1101 20:58:28.421547 20537 layer_factory.hpp:77] Creating layer conv16_2/scale
I1101 20:58:28.421555 20537 net.cpp:100] Creating Layer conv16_2/scale
I1101 20:58:28.421557 20537 net.cpp:481] conv16_2/scale <- conv16_2
I1101 20:58:28.421563 20537 net.cpp:442] conv16_2/scale -> conv16_2 (in-place)
I1101 20:58:28.421614 20537 layer_factory.hpp:77] Creating layer conv16_2/scale
I1101 20:58:28.421746 20537 net.cpp:150] Setting up conv16_2/scale
I1101 20:58:28.421756 20537 net.cpp:157] Top shape: 24 256 2 2 (24576)
I1101 20:58:28.421757 20537 net.cpp:165] Memory required for data: 3865325600
I1101 20:58:28.421762 20537 layer_factory.hpp:77] Creating layer conv16_2/relu
I1101 20:58:28.421767 20537 net.cpp:100] Creating Layer conv16_2/relu
I1101 20:58:28.421771 20537 net.cpp:481] conv16_2/relu <- conv16_2
I1101 20:58:28.421777 20537 net.cpp:442] conv16_2/relu -> conv16_2 (in-place)
I1101 20:58:28.423794 20537 net.cpp:150] Setting up conv16_2/relu
I1101 20:58:28.423815 20537 net.cpp:157] Top shape: 24 256 2 2 (24576)
I1101 20:58:28.423817 20537 net.cpp:165] Memory required for data: 3865423904
I1101 20:58:28.423820 20537 layer_factory.hpp:77] Creating layer conv16_2_conv16_2/relu_0_split
I1101 20:58:28.423827 20537 net.cpp:100] Creating Layer conv16_2_conv16_2/relu_0_split
I1101 20:58:28.423830 20537 net.cpp:481] conv16_2_conv16_2/relu_0_split <- conv16_2
I1101 20:58:28.423838 20537 net.cpp:455] conv16_2_conv16_2/relu_0_split -> conv16_2_conv16_2/relu_0_split_0
I1101 20:58:28.423851 20537 net.cpp:455] conv16_2_conv16_2/relu_0_split -> conv16_2_conv16_2/relu_0_split_1
I1101 20:58:28.423857 20537 net.cpp:455] conv16_2_conv16_2/relu_0_split -> conv16_2_conv16_2/relu_0_split_2
I1101 20:58:28.423862 20537 net.cpp:455] conv16_2_conv16_2/relu_0_split -> conv16_2_conv16_2/relu_0_split_3
I1101 20:58:28.423966 20537 net.cpp:150] Setting up conv16_2_conv16_2/relu_0_split
I1101 20:58:28.423977 20537 net.cpp:157] Top shape: 24 256 2 2 (24576)
I1101 20:58:28.423980 20537 net.cpp:157] Top shape: 24 256 2 2 (24576)
I1101 20:58:28.423984 20537 net.cpp:157] Top shape: 24 256 2 2 (24576)
I1101 20:58:28.423986 20537 net.cpp:157] Top shape: 24 256 2 2 (24576)
I1101 20:58:28.423988 20537 net.cpp:165] Memory required for data: 3865817120
I1101 20:58:28.423991 20537 layer_factory.hpp:77] Creating layer conv17_1
I1101 20:58:28.424001 20537 net.cpp:100] Creating Layer conv17_1
I1101 20:58:28.424021 20537 net.cpp:481] conv17_1 <- conv16_2_conv16_2/relu_0_split_0
I1101 20:58:28.424029 20537 net.cpp:455] conv17_1 -> conv17_1
I1101 20:58:28.426859 20537 net.cpp:150] Setting up conv17_1
I1101 20:58:28.426882 20537 net.cpp:157] Top shape: 24 64 2 2 (6144)
I1101 20:58:28.426887 20537 net.cpp:165] Memory required for data: 3865841696
I1101 20:58:28.426892 20537 layer_factory.hpp:77] Creating layer conv17_1/bn
I1101 20:58:28.426898 20537 net.cpp:100] Creating Layer conv17_1/bn
I1101 20:58:28.426906 20537 net.cpp:481] conv17_1/bn <- conv17_1
I1101 20:58:28.426926 20537 net.cpp:442] conv17_1/bn -> conv17_1 (in-place)
I1101 20:58:28.427292 20537 net.cpp:150] Setting up conv17_1/bn
I1101 20:58:28.427304 20537 net.cpp:157] Top shape: 24 64 2 2 (6144)
I1101 20:58:28.427306 20537 net.cpp:165] Memory required for data: 3865866272
I1101 20:58:28.427314 20537 layer_factory.hpp:77] Creating layer conv17_1/scale
I1101 20:58:28.427322 20537 net.cpp:100] Creating Layer conv17_1/scale
I1101 20:58:28.427328 20537 net.cpp:481] conv17_1/scale <- conv17_1
I1101 20:58:28.427333 20537 net.cpp:442] conv17_1/scale -> conv17_1 (in-place)
I1101 20:58:28.427386 20537 layer_factory.hpp:77] Creating layer conv17_1/scale
I1101 20:58:28.427532 20537 net.cpp:150] Setting up conv17_1/scale
I1101 20:58:28.427542 20537 net.cpp:157] Top shape: 24 64 2 2 (6144)
I1101 20:58:28.427544 20537 net.cpp:165] Memory required for data: 3865890848
I1101 20:58:28.427549 20537 layer_factory.hpp:77] Creating layer conv17_1/relu
I1101 20:58:28.427554 20537 net.cpp:100] Creating Layer conv17_1/relu
I1101 20:58:28.427557 20537 net.cpp:481] conv17_1/relu <- conv17_1
I1101 20:58:28.427562 20537 net.cpp:442] conv17_1/relu -> conv17_1 (in-place)
I1101 20:58:28.427973 20537 net.cpp:150] Setting up conv17_1/relu
I1101 20:58:28.427991 20537 net.cpp:157] Top shape: 24 64 2 2 (6144)
I1101 20:58:28.427994 20537 net.cpp:165] Memory required for data: 3865915424
I1101 20:58:28.427997 20537 layer_factory.hpp:77] Creating layer conv17_2
I1101 20:58:28.428009 20537 net.cpp:100] Creating Layer conv17_2
I1101 20:58:28.428015 20537 net.cpp:481] conv17_2 <- conv17_1
I1101 20:58:28.428022 20537 net.cpp:455] conv17_2 -> conv17_2
I1101 20:58:28.431367 20537 net.cpp:150] Setting up conv17_2
I1101 20:58:28.431403 20537 net.cpp:157] Top shape: 24 128 1 1 (3072)
I1101 20:58:28.431407 20537 net.cpp:165] Memory required for data: 3865927712
I1101 20:58:28.431429 20537 layer_factory.hpp:77] Creating layer conv17_2/bn
I1101 20:58:28.431438 20537 net.cpp:100] Creating Layer conv17_2/bn
I1101 20:58:28.431447 20537 net.cpp:481] conv17_2/bn <- conv17_2
I1101 20:58:28.431453 20537 net.cpp:442] conv17_2/bn -> conv17_2 (in-place)
I1101 20:58:28.431694 20537 net.cpp:150] Setting up conv17_2/bn
I1101 20:58:28.431705 20537 net.cpp:157] Top shape: 24 128 1 1 (3072)
I1101 20:58:28.431708 20537 net.cpp:165] Memory required for data: 3865940000
I1101 20:58:28.431715 20537 layer_factory.hpp:77] Creating layer conv17_2/scale
I1101 20:58:28.431738 20537 net.cpp:100] Creating Layer conv17_2/scale
I1101 20:58:28.431757 20537 net.cpp:481] conv17_2/scale <- conv17_2
I1101 20:58:28.431762 20537 net.cpp:442] conv17_2/scale -> conv17_2 (in-place)
I1101 20:58:28.431823 20537 layer_factory.hpp:77] Creating layer conv17_2/scale
I1101 20:58:28.432009 20537 net.cpp:150] Setting up conv17_2/scale
I1101 20:58:28.432019 20537 net.cpp:157] Top shape: 24 128 1 1 (3072)
I1101 20:58:28.432021 20537 net.cpp:165] Memory required for data: 3865952288
I1101 20:58:28.432027 20537 layer_factory.hpp:77] Creating layer conv17_2/relu
I1101 20:58:28.432031 20537 net.cpp:100] Creating Layer conv17_2/relu
I1101 20:58:28.432034 20537 net.cpp:481] conv17_2/relu <- conv17_2
I1101 20:58:28.432040 20537 net.cpp:442] conv17_2/relu -> conv17_2 (in-place)
I1101 20:58:28.433117 20537 net.cpp:150] Setting up conv17_2/relu
I1101 20:58:28.433137 20537 net.cpp:157] Top shape: 24 128 1 1 (3072)
I1101 20:58:28.433140 20537 net.cpp:165] Memory required for data: 3865964576
I1101 20:58:28.433145 20537 layer_factory.hpp:77] Creating layer conv17_2_conv17_2/relu_0_split
I1101 20:58:28.433151 20537 net.cpp:100] Creating Layer conv17_2_conv17_2/relu_0_split
I1101 20:58:28.433154 20537 net.cpp:481] conv17_2_conv17_2/relu_0_split <- conv17_2
I1101 20:58:28.433161 20537 net.cpp:455] conv17_2_conv17_2/relu_0_split -> conv17_2_conv17_2/relu_0_split_0
I1101 20:58:28.433189 20537 net.cpp:455] conv17_2_conv17_2/relu_0_split -> conv17_2_conv17_2/relu_0_split_1
I1101 20:58:28.433202 20537 net.cpp:455] conv17_2_conv17_2/relu_0_split -> conv17_2_conv17_2/relu_0_split_2
I1101 20:58:28.433288 20537 net.cpp:150] Setting up conv17_2_conv17_2/relu_0_split
I1101 20:58:28.433300 20537 net.cpp:157] Top shape: 24 128 1 1 (3072)
I1101 20:58:28.433305 20537 net.cpp:157] Top shape: 24 128 1 1 (3072)
I1101 20:58:28.433306 20537 net.cpp:157] Top shape: 24 128 1 1 (3072)
I1101 20:58:28.433308 20537 net.cpp:165] Memory required for data: 3866001440
I1101 20:58:28.433311 20537 layer_factory.hpp:77] Creating layer conv11_mbox_loc
I1101 20:58:28.433324 20537 net.cpp:100] Creating Layer conv11_mbox_loc
I1101 20:58:28.433331 20537 net.cpp:481] conv11_mbox_loc <- conv11_conv11/relu_0_split_1
I1101 20:58:28.433337 20537 net.cpp:455] conv11_mbox_loc -> conv11_mbox_loc
I1101 20:58:28.436179 20537 net.cpp:150] Setting up conv11_mbox_loc
I1101 20:58:28.436200 20537 net.cpp:157] Top shape: 24 12 19 19 (103968)
I1101 20:58:28.436203 20537 net.cpp:165] Memory required for data: 3866417312
I1101 20:58:28.436210 20537 layer_factory.hpp:77] Creating layer conv11_mbox_loc_perm
I1101 20:58:28.436223 20537 net.cpp:100] Creating Layer conv11_mbox_loc_perm
I1101 20:58:28.436226 20537 net.cpp:481] conv11_mbox_loc_perm <- conv11_mbox_loc
I1101 20:58:28.436231 20537 net.cpp:455] conv11_mbox_loc_perm -> conv11_mbox_loc_perm
I1101 20:58:28.436369 20537 net.cpp:150] Setting up conv11_mbox_loc_perm
I1101 20:58:28.436381 20537 net.cpp:157] Top shape: 24 19 19 12 (103968)
I1101 20:58:28.436384 20537 net.cpp:165] Memory required for data: 3866833184
I1101 20:58:28.436386 20537 layer_factory.hpp:77] Creating layer conv11_mbox_loc_flat
I1101 20:58:28.436393 20537 net.cpp:100] Creating Layer conv11_mbox_loc_flat
I1101 20:58:28.436396 20537 net.cpp:481] conv11_mbox_loc_flat <- conv11_mbox_loc_perm
I1101 20:58:28.436404 20537 net.cpp:455] conv11_mbox_loc_flat -> conv11_mbox_loc_flat
I1101 20:58:28.436460 20537 net.cpp:150] Setting up conv11_mbox_loc_flat
I1101 20:58:28.436470 20537 net.cpp:157] Top shape: 24 4332 (103968)
I1101 20:58:28.436472 20537 net.cpp:165] Memory required for data: 3867249056
I1101 20:58:28.436475 20537 layer_factory.hpp:77] Creating layer conv11_mbox_conf_new
I1101 20:58:28.436508 20537 net.cpp:100] Creating Layer conv11_mbox_conf_new
I1101 20:58:28.436514 20537 net.cpp:481] conv11_mbox_conf_new <- conv11_conv11/relu_0_split_2
I1101 20:58:28.436523 20537 net.cpp:455] conv11_mbox_conf_new -> conv11_mbox_conf
I1101 20:58:28.439738 20537 net.cpp:150] Setting up conv11_mbox_conf_new
I1101 20:58:28.439759 20537 net.cpp:157] Top shape: 24 63 19 19 (545832)
I1101 20:58:28.439762 20537 net.cpp:165] Memory required for data: 3869432384
I1101 20:58:28.439769 20537 layer_factory.hpp:77] Creating layer conv11_mbox_conf_perm
I1101 20:58:28.439776 20537 net.cpp:100] Creating Layer conv11_mbox_conf_perm
I1101 20:58:28.439779 20537 net.cpp:481] conv11_mbox_conf_perm <- conv11_mbox_conf
I1101 20:58:28.439787 20537 net.cpp:455] conv11_mbox_conf_perm -> conv11_mbox_conf_perm
I1101 20:58:28.439918 20537 net.cpp:150] Setting up conv11_mbox_conf_perm
I1101 20:58:28.439930 20537 net.cpp:157] Top shape: 24 19 19 63 (545832)
I1101 20:58:28.439934 20537 net.cpp:165] Memory required for data: 3871615712
I1101 20:58:28.439936 20537 layer_factory.hpp:77] Creating layer conv11_mbox_conf_flat
I1101 20:58:28.439944 20537 net.cpp:100] Creating Layer conv11_mbox_conf_flat
I1101 20:58:28.439949 20537 net.cpp:481] conv11_mbox_conf_flat <- conv11_mbox_conf_perm
I1101 20:58:28.439970 20537 net.cpp:455] conv11_mbox_conf_flat -> conv11_mbox_conf_flat
I1101 20:58:28.440001 20537 net.cpp:150] Setting up conv11_mbox_conf_flat
I1101 20:58:28.440011 20537 net.cpp:157] Top shape: 24 22743 (545832)
I1101 20:58:28.440013 20537 net.cpp:165] Memory required for data: 3873799040
I1101 20:58:28.440016 20537 layer_factory.hpp:77] Creating layer conv11_mbox_priorbox
I1101 20:58:28.440026 20537 net.cpp:100] Creating Layer conv11_mbox_priorbox
I1101 20:58:28.440032 20537 net.cpp:481] conv11_mbox_priorbox <- conv11_conv11/relu_0_split_3
I1101 20:58:28.440037 20537 net.cpp:481] conv11_mbox_priorbox <- data_data_0_split_1
I1101 20:58:28.440042 20537 net.cpp:455] conv11_mbox_priorbox -> conv11_mbox_priorbox
I1101 20:58:28.440099 20537 net.cpp:150] Setting up conv11_mbox_priorbox
I1101 20:58:28.440126 20537 net.cpp:157] Top shape: 1 2 4332 (8664)
I1101 20:58:28.440129 20537 net.cpp:165] Memory required for data: 3873833696
I1101 20:58:28.440131 20537 layer_factory.hpp:77] Creating layer conv13_mbox_loc
I1101 20:58:28.440145 20537 net.cpp:100] Creating Layer conv13_mbox_loc
I1101 20:58:28.440148 20537 net.cpp:481] conv13_mbox_loc <- conv13_conv13/relu_0_split_1
I1101 20:58:28.440155 20537 net.cpp:455] conv13_mbox_loc -> conv13_mbox_loc
I1101 20:58:28.443179 20537 net.cpp:150] Setting up conv13_mbox_loc
I1101 20:58:28.443202 20537 net.cpp:157] Top shape: 24 24 10 10 (57600)
I1101 20:58:28.443205 20537 net.cpp:165] Memory required for data: 3874064096
I1101 20:58:28.443212 20537 layer_factory.hpp:77] Creating layer conv13_mbox_loc_perm
I1101 20:58:28.443219 20537 net.cpp:100] Creating Layer conv13_mbox_loc_perm
I1101 20:58:28.443230 20537 net.cpp:481] conv13_mbox_loc_perm <- conv13_mbox_loc
I1101 20:58:28.443239 20537 net.cpp:455] conv13_mbox_loc_perm -> conv13_mbox_loc_perm
I1101 20:58:28.443374 20537 net.cpp:150] Setting up conv13_mbox_loc_perm
I1101 20:58:28.443385 20537 net.cpp:157] Top shape: 24 10 10 24 (57600)
I1101 20:58:28.443388 20537 net.cpp:165] Memory required for data: 3874294496
I1101 20:58:28.443392 20537 layer_factory.hpp:77] Creating layer conv13_mbox_loc_flat
I1101 20:58:28.443397 20537 net.cpp:100] Creating Layer conv13_mbox_loc_flat
I1101 20:58:28.443403 20537 net.cpp:481] conv13_mbox_loc_flat <- conv13_mbox_loc_perm
I1101 20:58:28.443406 20537 net.cpp:455] conv13_mbox_loc_flat -> conv13_mbox_loc_flat
I1101 20:58:28.443441 20537 net.cpp:150] Setting up conv13_mbox_loc_flat
I1101 20:58:28.443451 20537 net.cpp:157] Top shape: 24 2400 (57600)
I1101 20:58:28.443454 20537 net.cpp:165] Memory required for data: 3874524896
I1101 20:58:28.443456 20537 layer_factory.hpp:77] Creating layer conv13_mbox_conf_new
I1101 20:58:28.443467 20537 net.cpp:100] Creating Layer conv13_mbox_conf_new
I1101 20:58:28.443473 20537 net.cpp:481] conv13_mbox_conf_new <- conv13_conv13/relu_0_split_2
I1101 20:58:28.443486 20537 net.cpp:455] conv13_mbox_conf_new -> conv13_mbox_conf
I1101 20:58:28.448432 20537 net.cpp:150] Setting up conv13_mbox_conf_new
I1101 20:58:28.448454 20537 net.cpp:157] Top shape: 24 126 10 10 (302400)
I1101 20:58:28.448458 20537 net.cpp:165] Memory required for data: 3875734496
I1101 20:58:28.448464 20537 layer_factory.hpp:77] Creating layer conv13_mbox_conf_perm
I1101 20:58:28.448473 20537 net.cpp:100] Creating Layer conv13_mbox_conf_perm
I1101 20:58:28.448483 20537 net.cpp:481] conv13_mbox_conf_perm <- conv13_mbox_conf
I1101 20:58:28.448489 20537 net.cpp:455] conv13_mbox_conf_perm -> conv13_mbox_conf_perm
I1101 20:58:28.448619 20537 net.cpp:150] Setting up conv13_mbox_conf_perm
I1101 20:58:28.448632 20537 net.cpp:157] Top shape: 24 10 10 126 (302400)
I1101 20:58:28.448634 20537 net.cpp:165] Memory required for data: 3876944096
I1101 20:58:28.448637 20537 layer_factory.hpp:77] Creating layer conv13_mbox_conf_flat
I1101 20:58:28.448644 20537 net.cpp:100] Creating Layer conv13_mbox_conf_flat
I1101 20:58:28.448647 20537 net.cpp:481] conv13_mbox_conf_flat <- conv13_mbox_conf_perm
I1101 20:58:28.448653 20537 net.cpp:455] conv13_mbox_conf_flat -> conv13_mbox_conf_flat
I1101 20:58:28.448683 20537 net.cpp:150] Setting up conv13_mbox_conf_flat
I1101 20:58:28.448693 20537 net.cpp:157] Top shape: 24 12600 (302400)
I1101 20:58:28.448695 20537 net.cpp:165] Memory required for data: 3878153696
I1101 20:58:28.448698 20537 layer_factory.hpp:77] Creating layer conv13_mbox_priorbox
I1101 20:58:28.448709 20537 net.cpp:100] Creating Layer conv13_mbox_priorbox
I1101 20:58:28.448714 20537 net.cpp:481] conv13_mbox_priorbox <- conv13_conv13/relu_0_split_3
I1101 20:58:28.448719 20537 net.cpp:481] conv13_mbox_priorbox <- data_data_0_split_2
I1101 20:58:28.448724 20537 net.cpp:455] conv13_mbox_priorbox -> conv13_mbox_priorbox
I1101 20:58:28.448760 20537 net.cpp:150] Setting up conv13_mbox_priorbox
I1101 20:58:28.448768 20537 net.cpp:157] Top shape: 1 2 2400 (4800)
I1101 20:58:28.448786 20537 net.cpp:165] Memory required for data: 3878172896
I1101 20:58:28.448789 20537 layer_factory.hpp:77] Creating layer conv14_2_mbox_loc
I1101 20:58:28.448803 20537 net.cpp:100] Creating Layer conv14_2_mbox_loc
I1101 20:58:28.448810 20537 net.cpp:481] conv14_2_mbox_loc <- conv14_2_conv14_2/relu_0_split_1
I1101 20:58:28.448817 20537 net.cpp:455] conv14_2_mbox_loc -> conv14_2_mbox_loc
I1101 20:58:28.451649 20537 net.cpp:150] Setting up conv14_2_mbox_loc
I1101 20:58:28.451670 20537 net.cpp:157] Top shape: 24 24 5 5 (14400)
I1101 20:58:28.451673 20537 net.cpp:165] Memory required for data: 3878230496
I1101 20:58:28.451680 20537 layer_factory.hpp:77] Creating layer conv14_2_mbox_loc_perm
I1101 20:58:28.451691 20537 net.cpp:100] Creating Layer conv14_2_mbox_loc_perm
I1101 20:58:28.451701 20537 net.cpp:481] conv14_2_mbox_loc_perm <- conv14_2_mbox_loc
I1101 20:58:28.451706 20537 net.cpp:455] conv14_2_mbox_loc_perm -> conv14_2_mbox_loc_perm
I1101 20:58:28.451886 20537 net.cpp:150] Setting up conv14_2_mbox_loc_perm
I1101 20:58:28.451900 20537 net.cpp:157] Top shape: 24 5 5 24 (14400)
I1101 20:58:28.451901 20537 net.cpp:165] Memory required for data: 3878288096
I1101 20:58:28.451905 20537 layer_factory.hpp:77] Creating layer conv14_2_mbox_loc_flat
I1101 20:58:28.451912 20537 net.cpp:100] Creating Layer conv14_2_mbox_loc_flat
I1101 20:58:28.451915 20537 net.cpp:481] conv14_2_mbox_loc_flat <- conv14_2_mbox_loc_perm
I1101 20:58:28.451920 20537 net.cpp:455] conv14_2_mbox_loc_flat -> conv14_2_mbox_loc_flat
I1101 20:58:28.451956 20537 net.cpp:150] Setting up conv14_2_mbox_loc_flat
I1101 20:58:28.451967 20537 net.cpp:157] Top shape: 24 600 (14400)
I1101 20:58:28.451968 20537 net.cpp:165] Memory required for data: 3878345696
I1101 20:58:28.451972 20537 layer_factory.hpp:77] Creating layer conv14_2_mbox_conf_new
I1101 20:58:28.451983 20537 net.cpp:100] Creating Layer conv14_2_mbox_conf_new
I1101 20:58:28.451989 20537 net.cpp:481] conv14_2_mbox_conf_new <- conv14_2_conv14_2/relu_0_split_2
I1101 20:58:28.451997 20537 net.cpp:455] conv14_2_mbox_conf_new -> conv14_2_mbox_conf
I1101 20:58:28.456441 20537 net.cpp:150] Setting up conv14_2_mbox_conf_new
I1101 20:58:28.456466 20537 net.cpp:157] Top shape: 24 126 5 5 (75600)
I1101 20:58:28.456470 20537 net.cpp:165] Memory required for data: 3878648096
I1101 20:58:28.456481 20537 layer_factory.hpp:77] Creating layer conv14_2_mbox_conf_perm
I1101 20:58:28.456496 20537 net.cpp:100] Creating Layer conv14_2_mbox_conf_perm
I1101 20:58:28.456501 20537 net.cpp:481] conv14_2_mbox_conf_perm <- conv14_2_mbox_conf
I1101 20:58:28.456507 20537 net.cpp:455] conv14_2_mbox_conf_perm -> conv14_2_mbox_conf_perm
I1101 20:58:28.456640 20537 net.cpp:150] Setting up conv14_2_mbox_conf_perm
I1101 20:58:28.456653 20537 net.cpp:157] Top shape: 24 5 5 126 (75600)
I1101 20:58:28.456655 20537 net.cpp:165] Memory required for data: 3878950496
I1101 20:58:28.456658 20537 layer_factory.hpp:77] Creating layer conv14_2_mbox_conf_flat
I1101 20:58:28.456665 20537 net.cpp:100] Creating Layer conv14_2_mbox_conf_flat
I1101 20:58:28.456667 20537 net.cpp:481] conv14_2_mbox_conf_flat <- conv14_2_mbox_conf_perm
I1101 20:58:28.456674 20537 net.cpp:455] conv14_2_mbox_conf_flat -> conv14_2_mbox_conf_flat
I1101 20:58:28.456707 20537 net.cpp:150] Setting up conv14_2_mbox_conf_flat
I1101 20:58:28.456715 20537 net.cpp:157] Top shape: 24 3150 (75600)
I1101 20:58:28.456718 20537 net.cpp:165] Memory required for data: 3879252896
I1101 20:58:28.456720 20537 layer_factory.hpp:77] Creating layer conv14_2_mbox_priorbox
I1101 20:58:28.456729 20537 net.cpp:100] Creating Layer conv14_2_mbox_priorbox
I1101 20:58:28.456733 20537 net.cpp:481] conv14_2_mbox_priorbox <- conv14_2_conv14_2/relu_0_split_3
I1101 20:58:28.456738 20537 net.cpp:481] conv14_2_mbox_priorbox <- data_data_0_split_3
I1101 20:58:28.456745 20537 net.cpp:455] conv14_2_mbox_priorbox -> conv14_2_mbox_priorbox
I1101 20:58:28.456781 20537 net.cpp:150] Setting up conv14_2_mbox_priorbox
I1101 20:58:28.456789 20537 net.cpp:157] Top shape: 1 2 600 (1200)
I1101 20:58:28.456807 20537 net.cpp:165] Memory required for data: 3879257696
I1101 20:58:28.456811 20537 layer_factory.hpp:77] Creating layer conv15_2_mbox_loc
I1101 20:58:28.456823 20537 net.cpp:100] Creating Layer conv15_2_mbox_loc
I1101 20:58:28.456830 20537 net.cpp:481] conv15_2_mbox_loc <- conv15_2_conv15_2/relu_0_split_1
I1101 20:58:28.456837 20537 net.cpp:455] conv15_2_mbox_loc -> conv15_2_mbox_loc
I1101 20:58:28.459658 20537 net.cpp:150] Setting up conv15_2_mbox_loc
I1101 20:58:28.459682 20537 net.cpp:157] Top shape: 24 24 3 3 (5184)
I1101 20:58:28.459686 20537 net.cpp:165] Memory required for data: 3879278432
I1101 20:58:28.459692 20537 layer_factory.hpp:77] Creating layer conv15_2_mbox_loc_perm
I1101 20:58:28.459700 20537 net.cpp:100] Creating Layer conv15_2_mbox_loc_perm
I1101 20:58:28.459710 20537 net.cpp:481] conv15_2_mbox_loc_perm <- conv15_2_mbox_loc
I1101 20:58:28.459717 20537 net.cpp:455] conv15_2_mbox_loc_perm -> conv15_2_mbox_loc_perm
I1101 20:58:28.459875 20537 net.cpp:150] Setting up conv15_2_mbox_loc_perm
I1101 20:58:28.459892 20537 net.cpp:157] Top shape: 24 3 3 24 (5184)
I1101 20:58:28.459895 20537 net.cpp:165] Memory required for data: 3879299168
I1101 20:58:28.459898 20537 layer_factory.hpp:77] Creating layer conv15_2_mbox_loc_flat
I1101 20:58:28.459905 20537 net.cpp:100] Creating Layer conv15_2_mbox_loc_flat
I1101 20:58:28.459909 20537 net.cpp:481] conv15_2_mbox_loc_flat <- conv15_2_mbox_loc_perm
I1101 20:58:28.459916 20537 net.cpp:455] conv15_2_mbox_loc_flat -> conv15_2_mbox_loc_flat
I1101 20:58:28.459949 20537 net.cpp:150] Setting up conv15_2_mbox_loc_flat
I1101 20:58:28.459961 20537 net.cpp:157] Top shape: 24 216 (5184)
I1101 20:58:28.459964 20537 net.cpp:165] Memory required for data: 3879319904
I1101 20:58:28.459966 20537 layer_factory.hpp:77] Creating layer conv15_2_mbox_conf_new
I1101 20:58:28.459976 20537 net.cpp:100] Creating Layer conv15_2_mbox_conf_new
I1101 20:58:28.459982 20537 net.cpp:481] conv15_2_mbox_conf_new <- conv15_2_conv15_2/relu_0_split_2
I1101 20:58:28.459990 20537 net.cpp:455] conv15_2_mbox_conf_new -> conv15_2_mbox_conf
I1101 20:58:28.463938 20537 net.cpp:150] Setting up conv15_2_mbox_conf_new
I1101 20:58:28.463960 20537 net.cpp:157] Top shape: 24 126 3 3 (27216)
I1101 20:58:28.463964 20537 net.cpp:165] Memory required for data: 3879428768
I1101 20:58:28.463971 20537 layer_factory.hpp:77] Creating layer conv15_2_mbox_conf_perm
I1101 20:58:28.463979 20537 net.cpp:100] Creating Layer conv15_2_mbox_conf_perm
I1101 20:58:28.463985 20537 net.cpp:481] conv15_2_mbox_conf_perm <- conv15_2_mbox_conf
I1101 20:58:28.463994 20537 net.cpp:455] conv15_2_mbox_conf_perm -> conv15_2_mbox_conf_perm
I1101 20:58:28.464133 20537 net.cpp:150] Setting up conv15_2_mbox_conf_perm
I1101 20:58:28.464144 20537 net.cpp:157] Top shape: 24 3 3 126 (27216)
I1101 20:58:28.464148 20537 net.cpp:165] Memory required for data: 3879537632
I1101 20:58:28.464150 20537 layer_factory.hpp:77] Creating layer conv15_2_mbox_conf_flat
I1101 20:58:28.464156 20537 net.cpp:100] Creating Layer conv15_2_mbox_conf_flat
I1101 20:58:28.464159 20537 net.cpp:481] conv15_2_mbox_conf_flat <- conv15_2_mbox_conf_perm
I1101 20:58:28.464167 20537 net.cpp:455] conv15_2_mbox_conf_flat -> conv15_2_mbox_conf_flat
I1101 20:58:28.464205 20537 net.cpp:150] Setting up conv15_2_mbox_conf_flat
I1101 20:58:28.464213 20537 net.cpp:157] Top shape: 24 1134 (27216)
I1101 20:58:28.464216 20537 net.cpp:165] Memory required for data: 3879646496
I1101 20:58:28.464218 20537 layer_factory.hpp:77] Creating layer conv15_2_mbox_priorbox
I1101 20:58:28.464228 20537 net.cpp:100] Creating Layer conv15_2_mbox_priorbox
I1101 20:58:28.464233 20537 net.cpp:481] conv15_2_mbox_priorbox <- conv15_2_conv15_2/relu_0_split_3
I1101 20:58:28.464237 20537 net.cpp:481] conv15_2_mbox_priorbox <- data_data_0_split_4
I1101 20:58:28.464242 20537 net.cpp:455] conv15_2_mbox_priorbox -> conv15_2_mbox_priorbox
I1101 20:58:28.464279 20537 net.cpp:150] Setting up conv15_2_mbox_priorbox
I1101 20:58:28.464289 20537 net.cpp:157] Top shape: 1 2 216 (432)
I1101 20:58:28.464305 20537 net.cpp:165] Memory required for data: 3879648224
I1101 20:58:28.464309 20537 layer_factory.hpp:77] Creating layer conv16_2_mbox_loc
I1101 20:58:28.464321 20537 net.cpp:100] Creating Layer conv16_2_mbox_loc
I1101 20:58:28.464329 20537 net.cpp:481] conv16_2_mbox_loc <- conv16_2_conv16_2/relu_0_split_1
I1101 20:58:28.464337 20537 net.cpp:455] conv16_2_mbox_loc -> conv16_2_mbox_loc
I1101 20:58:28.467273 20537 net.cpp:150] Setting up conv16_2_mbox_loc
I1101 20:58:28.467298 20537 net.cpp:157] Top shape: 24 24 2 2 (2304)
I1101 20:58:28.467301 20537 net.cpp:165] Memory required for data: 3879657440
I1101 20:58:28.467308 20537 layer_factory.hpp:77] Creating layer conv16_2_mbox_loc_perm
I1101 20:58:28.467316 20537 net.cpp:100] Creating Layer conv16_2_mbox_loc_perm
I1101 20:58:28.467319 20537 net.cpp:481] conv16_2_mbox_loc_perm <- conv16_2_mbox_loc
I1101 20:58:28.467326 20537 net.cpp:455] conv16_2_mbox_loc_perm -> conv16_2_mbox_loc_perm
I1101 20:58:28.467463 20537 net.cpp:150] Setting up conv16_2_mbox_loc_perm
I1101 20:58:28.467483 20537 net.cpp:157] Top shape: 24 2 2 24 (2304)
I1101 20:58:28.467486 20537 net.cpp:165] Memory required for data: 3879666656
I1101 20:58:28.467489 20537 layer_factory.hpp:77] Creating layer conv16_2_mbox_loc_flat
I1101 20:58:28.467495 20537 net.cpp:100] Creating Layer conv16_2_mbox_loc_flat
I1101 20:58:28.467499 20537 net.cpp:481] conv16_2_mbox_loc_flat <- conv16_2_mbox_loc_perm
I1101 20:58:28.467504 20537 net.cpp:455] conv16_2_mbox_loc_flat -> conv16_2_mbox_loc_flat
I1101 20:58:28.467538 20537 net.cpp:150] Setting up conv16_2_mbox_loc_flat
I1101 20:58:28.467550 20537 net.cpp:157] Top shape: 24 96 (2304)
I1101 20:58:28.467553 20537 net.cpp:165] Memory required for data: 3879675872
I1101 20:58:28.467556 20537 layer_factory.hpp:77] Creating layer conv16_2_mbox_conf_new
I1101 20:58:28.467567 20537 net.cpp:100] Creating Layer conv16_2_mbox_conf_new
I1101 20:58:28.467574 20537 net.cpp:481] conv16_2_mbox_conf_new <- conv16_2_conv16_2/relu_0_split_2
I1101 20:58:28.467581 20537 net.cpp:455] conv16_2_mbox_conf_new -> conv16_2_mbox_conf
I1101 20:58:28.470829 20537 net.cpp:150] Setting up conv16_2_mbox_conf_new
I1101 20:58:28.470849 20537 net.cpp:157] Top shape: 24 126 2 2 (12096)
I1101 20:58:28.470852 20537 net.cpp:165] Memory required for data: 3879724256
I1101 20:58:28.470860 20537 layer_factory.hpp:77] Creating layer conv16_2_mbox_conf_perm
I1101 20:58:28.470868 20537 net.cpp:100] Creating Layer conv16_2_mbox_conf_perm
I1101 20:58:28.470892 20537 net.cpp:481] conv16_2_mbox_conf_perm <- conv16_2_mbox_conf
I1101 20:58:28.470913 20537 net.cpp:455] conv16_2_mbox_conf_perm -> conv16_2_mbox_conf_perm
I1101 20:58:28.471082 20537 net.cpp:150] Setting up conv16_2_mbox_conf_perm
I1101 20:58:28.471096 20537 net.cpp:157] Top shape: 24 2 2 126 (12096)
I1101 20:58:28.471097 20537 net.cpp:165] Memory required for data: 3879772640
I1101 20:58:28.471101 20537 layer_factory.hpp:77] Creating layer conv16_2_mbox_conf_flat
I1101 20:58:28.471108 20537 net.cpp:100] Creating Layer conv16_2_mbox_conf_flat
I1101 20:58:28.471112 20537 net.cpp:481] conv16_2_mbox_conf_flat <- conv16_2_mbox_conf_perm
I1101 20:58:28.471115 20537 net.cpp:455] conv16_2_mbox_conf_flat -> conv16_2_mbox_conf_flat
I1101 20:58:28.471151 20537 net.cpp:150] Setting up conv16_2_mbox_conf_flat
I1101 20:58:28.471156 20537 net.cpp:157] Top shape: 24 504 (12096)
I1101 20:58:28.471158 20537 net.cpp:165] Memory required for data: 3879821024
I1101 20:58:28.471161 20537 layer_factory.hpp:77] Creating layer conv16_2_mbox_priorbox
I1101 20:58:28.471169 20537 net.cpp:100] Creating Layer conv16_2_mbox_priorbox
I1101 20:58:28.471174 20537 net.cpp:481] conv16_2_mbox_priorbox <- conv16_2_conv16_2/relu_0_split_3
I1101 20:58:28.471177 20537 net.cpp:481] conv16_2_mbox_priorbox <- data_data_0_split_5
I1101 20:58:28.471182 20537 net.cpp:455] conv16_2_mbox_priorbox -> conv16_2_mbox_priorbox
I1101 20:58:28.471216 20537 net.cpp:150] Setting up conv16_2_mbox_priorbox
I1101 20:58:28.471227 20537 net.cpp:157] Top shape: 1 2 96 (192)
I1101 20:58:28.471230 20537 net.cpp:165] Memory required for data: 3879821792
I1101 20:58:28.471251 20537 layer_factory.hpp:77] Creating layer conv17_2_mbox_loc
I1101 20:58:28.471267 20537 net.cpp:100] Creating Layer conv17_2_mbox_loc
I1101 20:58:28.471277 20537 net.cpp:481] conv17_2_mbox_loc <- conv17_2_conv17_2/relu_0_split_0
I1101 20:58:28.471283 20537 net.cpp:455] conv17_2_mbox_loc -> conv17_2_mbox_loc
I1101 20:58:28.474594 20537 net.cpp:150] Setting up conv17_2_mbox_loc
I1101 20:58:28.474630 20537 net.cpp:157] Top shape: 24 24 1 1 (576)
I1101 20:58:28.474633 20537 net.cpp:165] Memory required for data: 3879824096
I1101 20:58:28.474639 20537 layer_factory.hpp:77] Creating layer conv17_2_mbox_loc_perm
I1101 20:58:28.474648 20537 net.cpp:100] Creating Layer conv17_2_mbox_loc_perm
I1101 20:58:28.474651 20537 net.cpp:481] conv17_2_mbox_loc_perm <- conv17_2_mbox_loc
I1101 20:58:28.474658 20537 net.cpp:455] conv17_2_mbox_loc_perm -> conv17_2_mbox_loc_perm
I1101 20:58:28.474824 20537 net.cpp:150] Setting up conv17_2_mbox_loc_perm
I1101 20:58:28.474853 20537 net.cpp:157] Top shape: 24 1 1 24 (576)
I1101 20:58:28.474854 20537 net.cpp:165] Memory required for data: 3879826400
I1101 20:58:28.474858 20537 layer_factory.hpp:77] Creating layer conv17_2_mbox_loc_flat
I1101 20:58:28.474864 20537 net.cpp:100] Creating Layer conv17_2_mbox_loc_flat
I1101 20:58:28.474866 20537 net.cpp:481] conv17_2_mbox_loc_flat <- conv17_2_mbox_loc_perm
I1101 20:58:28.474886 20537 net.cpp:455] conv17_2_mbox_loc_flat -> conv17_2_mbox_loc_flat
I1101 20:58:28.474923 20537 net.cpp:150] Setting up conv17_2_mbox_loc_flat
I1101 20:58:28.474934 20537 net.cpp:157] Top shape: 24 24 (576)
I1101 20:58:28.474936 20537 net.cpp:165] Memory required for data: 3879828704
I1101 20:58:28.474939 20537 layer_factory.hpp:77] Creating layer conv17_2_mbox_conf_new
I1101 20:58:28.474951 20537 net.cpp:100] Creating Layer conv17_2_mbox_conf_new
I1101 20:58:28.474956 20537 net.cpp:481] conv17_2_mbox_conf_new <- conv17_2_conv17_2/relu_0_split_1
I1101 20:58:28.474961 20537 net.cpp:455] conv17_2_mbox_conf_new -> conv17_2_mbox_conf
I1101 20:58:28.478312 20537 net.cpp:150] Setting up conv17_2_mbox_conf_new
I1101 20:58:28.478333 20537 net.cpp:157] Top shape: 24 126 1 1 (3024)
I1101 20:58:28.478337 20537 net.cpp:165] Memory required for data: 3879840800
I1101 20:58:28.478343 20537 layer_factory.hpp:77] Creating layer conv17_2_mbox_conf_perm
I1101 20:58:28.478353 20537 net.cpp:100] Creating Layer conv17_2_mbox_conf_perm
I1101 20:58:28.478361 20537 net.cpp:481] conv17_2_mbox_conf_perm <- conv17_2_mbox_conf
I1101 20:58:28.478368 20537 net.cpp:455] conv17_2_mbox_conf_perm -> conv17_2_mbox_conf_perm
I1101 20:58:28.478914 20537 net.cpp:150] Setting up conv17_2_mbox_conf_perm
I1101 20:58:28.478931 20537 net.cpp:157] Top shape: 24 1 1 126 (3024)
I1101 20:58:28.478935 20537 net.cpp:165] Memory required for data: 3879852896
I1101 20:58:28.478937 20537 layer_factory.hpp:77] Creating layer conv17_2_mbox_conf_flat
I1101 20:58:28.478943 20537 net.cpp:100] Creating Layer conv17_2_mbox_conf_flat
I1101 20:58:28.478947 20537 net.cpp:481] conv17_2_mbox_conf_flat <- conv17_2_mbox_conf_perm
I1101 20:58:28.478955 20537 net.cpp:455] conv17_2_mbox_conf_flat -> conv17_2_mbox_conf_flat
I1101 20:58:28.479008 20537 net.cpp:150] Setting up conv17_2_mbox_conf_flat
I1101 20:58:28.479013 20537 net.cpp:157] Top shape: 24 126 (3024)
I1101 20:58:28.479015 20537 net.cpp:165] Memory required for data: 3879864992
I1101 20:58:28.479018 20537 layer_factory.hpp:77] Creating layer conv17_2_mbox_priorbox
I1101 20:58:28.479027 20537 net.cpp:100] Creating Layer conv17_2_mbox_priorbox
I1101 20:58:28.479037 20537 net.cpp:481] conv17_2_mbox_priorbox <- conv17_2_conv17_2/relu_0_split_2
I1101 20:58:28.479040 20537 net.cpp:481] conv17_2_mbox_priorbox <- data_data_0_split_6
I1101 20:58:28.479045 20537 net.cpp:455] conv17_2_mbox_priorbox -> conv17_2_mbox_priorbox
I1101 20:58:28.479079 20537 net.cpp:150] Setting up conv17_2_mbox_priorbox
I1101 20:58:28.479084 20537 net.cpp:157] Top shape: 1 2 24 (48)
I1101 20:58:28.479086 20537 net.cpp:165] Memory required for data: 3879865184
I1101 20:58:28.479101 20537 layer_factory.hpp:77] Creating layer mbox_loc
I1101 20:58:28.479111 20537 net.cpp:100] Creating Layer mbox_loc
I1101 20:58:28.479115 20537 net.cpp:481] mbox_loc <- conv11_mbox_loc_flat
I1101 20:58:28.479120 20537 net.cpp:481] mbox_loc <- conv13_mbox_loc_flat
I1101 20:58:28.479122 20537 net.cpp:481] mbox_loc <- conv14_2_mbox_loc_flat
I1101 20:58:28.479126 20537 net.cpp:481] mbox_loc <- conv15_2_mbox_loc_flat
I1101 20:58:28.479130 20537 net.cpp:481] mbox_loc <- conv16_2_mbox_loc_flat
I1101 20:58:28.479132 20537 net.cpp:481] mbox_loc <- conv17_2_mbox_loc_flat
I1101 20:58:28.479136 20537 net.cpp:455] mbox_loc -> mbox_loc
I1101 20:58:28.479173 20537 net.cpp:150] Setting up mbox_loc
I1101 20:58:28.479178 20537 net.cpp:157] Top shape: 24 7668 (184032)
I1101 20:58:28.479180 20537 net.cpp:165] Memory required for data: 3880601312
I1101 20:58:28.479182 20537 layer_factory.hpp:77] Creating layer mbox_conf
I1101 20:58:28.479187 20537 net.cpp:100] Creating Layer mbox_conf
I1101 20:58:28.479190 20537 net.cpp:481] mbox_conf <- conv11_mbox_conf_flat
I1101 20:58:28.479194 20537 net.cpp:481] mbox_conf <- conv13_mbox_conf_flat
I1101 20:58:28.479197 20537 net.cpp:481] mbox_conf <- conv14_2_mbox_conf_flat
I1101 20:58:28.479200 20537 net.cpp:481] mbox_conf <- conv15_2_mbox_conf_flat
I1101 20:58:28.479203 20537 net.cpp:481] mbox_conf <- conv16_2_mbox_conf_flat
I1101 20:58:28.479207 20537 net.cpp:481] mbox_conf <- conv17_2_mbox_conf_flat
I1101 20:58:28.479212 20537 net.cpp:455] mbox_conf -> mbox_conf
I1101 20:58:28.479241 20537 net.cpp:150] Setting up mbox_conf
I1101 20:58:28.479245 20537 net.cpp:157] Top shape: 24 40257 (966168)
I1101 20:58:28.479248 20537 net.cpp:165] Memory required for data: 3884465984
I1101 20:58:28.479265 20537 layer_factory.hpp:77] Creating layer mbox_priorbox
I1101 20:58:28.479270 20537 net.cpp:100] Creating Layer mbox_priorbox
I1101 20:58:28.479272 20537 net.cpp:481] mbox_priorbox <- conv11_mbox_priorbox
I1101 20:58:28.479276 20537 net.cpp:481] mbox_priorbox <- conv13_mbox_priorbox
I1101 20:58:28.479279 20537 net.cpp:481] mbox_priorbox <- conv14_2_mbox_priorbox
I1101 20:58:28.479282 20537 net.cpp:481] mbox_priorbox <- conv15_2_mbox_priorbox
I1101 20:58:28.479285 20537 net.cpp:481] mbox_priorbox <- conv16_2_mbox_priorbox
I1101 20:58:28.479288 20537 net.cpp:481] mbox_priorbox <- conv17_2_mbox_priorbox
I1101 20:58:28.479295 20537 net.cpp:455] mbox_priorbox -> mbox_priorbox
I1101 20:58:28.479322 20537 net.cpp:150] Setting up mbox_priorbox
I1101 20:58:28.479328 20537 net.cpp:157] Top shape: 1 2 7668 (15336)
I1101 20:58:28.479331 20537 net.cpp:165] Memory required for data: 3884527328
I1101 20:58:28.479333 20537 layer_factory.hpp:77] Creating layer mbox_loss
I1101 20:58:28.479358 20537 net.cpp:100] Creating Layer mbox_loss
I1101 20:58:28.479362 20537 net.cpp:481] mbox_loss <- mbox_loc
I1101 20:58:28.479365 20537 net.cpp:481] mbox_loss <- mbox_conf
I1101 20:58:28.479388 20537 net.cpp:481] mbox_loss <- mbox_priorbox
…
layer {
  name: "data"
  type: "AnnotatedData"
  top: "data"
  top: "label"
  include {
    phase: TEST
  }
  transform_param {
    scale: 0.007843
    mean_value: 127.5
    mean_value: 127.5
    mean_value: 127.5
    resize_param {
      prob: 1
      resize_mode: WARP
      height: 300
      width: 300
      interp_mode: LINEAR
    }
  }
  data_param {
    source: "examples/VOC0712/VOC0712_test_lmdb"
    batch_size: 8
    backend: LMDB
  }
  annotated_data_param {
    batch_sampler {
    }
    label_map_file: "data/VOC0712/labelmap_voc.prototxt"
  }
}
layer {
  name: "conv0"
  type: "Convolution"
  bottom: "data"
  top: "conv0"
  param {
    lr_mult: 1
    decay_mult: 1
  }
  include {
    phase: TEST
  }
  convolution_param {
    num_output: 32
    bias_term: false
    pad: 1
    kernel_size: 3
    stride: 2
    weight_filler {
      type: "msra"
    }
  }
}
layer {
  name: "conv0/bn"
  type: "BatchNorm"
  bottom: "conv0"
  top: "conv0"
}
layer {
  name: "conv0/scale"
  type: "Scale"
  bottom: "conv0"
  top: "conv0"
  param {
    lr_mult: 1
    decay_mult: 0
  }
  param {
    lr_mult: 2
    decay_mult: 0
  }
  include {
    phase: TEST
  }
  scale_param {
    filler {
      value: 1
    }
    bias_term: true
    bias_filler {
      value: 0
    }
  }
}
layer {
  name: "conv0/relu"
  type: "ReLU"
  bottom: "conv0"
  top: "conv0"
}
layer {
  name: "conv1/dw"
  type: "Convolution"
  bottom: "conv0"
  top: "conv1/dw"
  param {
    lr_mult: 1
    decay_mult: 1
  }
  include {
    phase: TEST
  }
  convolution_param {
    num_output: 32
    bias_term: false
    pad: 1
    kernel_size: 3
    group: 32
    weight_filler {
      type: "msra"
    }
    engine: CAFFE
  }
}
layer {
  name: "conv1/dw/bn"
  type: "BatchNorm"
  bottom: "conv1/dw"
  top: "conv1/dw"
}
layer {
  name: "conv1/dw/scale"
  type: "Scale"
  bottom: "conv1/dw"
  top: "conv1/dw"
  param {
    lr_mult: 1
    decay_mult: 0
  }
  param {
    lr_mult: 2
    decay_mult: 0
  }
  include {
    phase: TEST
  }
  scale_param {
    filler {
      value: 1
    }
    bias_term: true
    bias_filler {
      value: 0
    }
  }
}
layer {
  name: "conv1/dw/relu"
  type: "ReLU"
  bottom: "conv1/dw"
  top: "conv1/dw"
}
layer {
  name: "conv1"
  type: "Convolution"
  bottom: "conv1/dw"
  top: "conv1"
  param {
    lr_mult: 1
    decay_mult: 1
  }
  include {
    phase: TEST
  }
  convolution_param {
    num_output: 64
    bias_term: false
    kernel_size: 1
    weight_filler {
      type: "msra"
    }
  }
}
layer {
  name: "conv1/bn"
  type: "BatchNorm"
  bottom: "conv1"
  top: "conv1"
}
layer {
  name: "conv1/scale"
  type: "Scale"
  bottom: "conv1"
  top: "conv1"
  param {
    lr_mult: 1
    decay_mult: 0
  }
  param {
    lr_mult: 2
    decay_mult: 0
  }
  include {
    phase: TEST
  }
  scale_param {
    filler {
      value: 1
    }
    bias_term: true
    bias_filler {
      value: 0
    }
  }
}
layer {
  name: "conv1/relu"
  type: "ReLU"
  bottom: "conv1"
  top: "conv1"
}
layer {
  name: "conv2/dw"
  type: "Convolution"
  bottom: "conv1"
  top: "conv2/dw"
  param {
    lr_mult: 1
    decay_mult: 1
  }
  include {
    phase: TEST
  }
  convolution_param {
    num_output: 64
    bias_term: false
    pad: 1
    kernel_size: 3
    group: 64
    stride: 2
    weight_filler {
      type: "msra"
    }
    engine: CAFFE
  }
}
layer {
  name: "conv2/dw/bn"
  type: "BatchNorm"
  bottom: "conv2/dw"
  top: "conv2/dw"
}
layer {
  name: "conv2/dw/scale"
  type: "Scale"
  bottom: "conv2/dw"
  top: "conv2/dw"
  param {
    lr_mult: 1
    decay_mult: 0
  }
  param {
    lr_mult: 2
    decay_mult: 0
  }
  include {
    phase: TEST
  }
  scale_param {
    filler {
      value: 1
    }
    bias_term: true
    bias_filler {
      value: 0
    }
  }
}
layer {
  name: "conv2/dw/relu"
  type: "ReLU"
  bottom: "conv2/dw"
  top: "conv2/dw"
}
layer {
  name: "conv2"
  type: "Convolution"
  bottom: "conv2/dw"
  top: "conv2"
  param {
    lr_mult: 1
    decay_mult: 1
  }
  include {
    phase: TEST
  }
  convolution_param {
    num_output: 128
    bias_term: false
    kernel_size: 1
    weight_filler {
      type: "msra"
    }
  }
}
layer {
  name: "conv2/bn"
  type: "BatchNorm"
  bottom: "conv2"
  top: "conv2"
}
layer {
  name: "conv2/scale"
  type: "Scale"
  bottom: "conv2"
  top: "conv2"
  param {
    lr_mult: 1
    decay_mult: 0
  }
  param {
    lr_mult: 2
    decay_mult: 0
  }
  include {
    phase: TEST
  }
  scale_param {
    filler {
      value: 1
    }
    bias_term: true
    bias_filler {
      value: 0
    }
  }
}
layer {
  name: "conv2/relu"
  type: "ReLU"
  bottom: "conv2"
  top: "conv2"
}
layer {
  name: "conv3/dw"
  type: "Convolution"
  bottom: "conv2"
  top: "conv3/dw"
  param {
    lr_mult: 1
    decay_mult: 1
  }
  include {
    phase: TEST
  }
  convolution_param {
    num_output: 128
    bias_term: false
    pad: 1
    kernel_size: 3
    group: 128
    weight_filler {
      type: "msra"
    }
    engine: CAFFE
  }
}
layer {
  name: "conv3/dw/bn"
  type: "BatchNorm"
  bottom: "conv3/dw"
  top: "conv3/dw"
}
layer {
  name: "conv3/dw/scale"
  type: "Scale"
  bottom: "conv3/dw"
  top: "conv3/dw"
  param {
    lr_mult: 1
    decay_mult: 0
  }
  param {
    lr_mult: 2
    decay_mult: 0
  }
  include {
    phase: TEST
  }
  scale_param {
    filler {
      value: 1
    }
    bias_term: true
    bias_filler {
      value: 0
    }
  }
}
layer {
  name: "conv3/dw/relu"
  type: "ReLU"
  bottom: "conv3/dw"
  top: "conv3/dw"
}
layer {
  name: "conv3"
  type: "Convolution"
  bottom: "conv3/dw"
  top: "conv3"
  param {
    lr_mult: 1
    decay_mult: 1
  }
  include {
    phase: TEST
  }
  convolution_param {
    num_output: 128
    bias_term: false
    kernel_size: 1
    weight_filler {
      type: "msra"
    }
  }
}
layer {
  name: "conv3/bn"
  type: "BatchNorm"
  bottom: "conv3"
  top: "conv3"
}
layer {
  name: "conv3/scale"
  type: "Scale"
  bottom: "conv3"
  top: "conv3"
  param {
    lr_mult: 1
    decay_mult: 0
  }
  param {
    lr_mult: 2
    decay_mult: 0
  }
  include {
    phase: TEST
  }
  scale_param {
    filler {
      value: 1
    }
    bias_term: true
    bias_filler {
      value: 0
    }
  }
}
layer {
  name: "conv3/relu"
  type: "ReLU"
  bottom: "conv3"
  top: "conv3"
}
layer {
  name: "conv4/dw"
  type: "Convolution"
  bottom: "conv3"
  top: "conv4/dw"
  param {
    lr_mult: 1
    decay_mult: 1
  }
  include {
    phase: TEST
  }
  convolution_param {
    num_output: 128
    bias_term: false
    pad: 1
    kernel_size: 3
    group: 128
    stride: 2
    weight_filler {
      type: "msra"
    }
    engine: CAFFE
  }
}
layer {
  name: "conv4/dw/bn"
  type: "BatchNorm"
  bottom: "conv4/dw"
  top: "conv4/dw"
}
layer {
  name: "conv4/dw/scale"
  type: "Scale"
  bottom: "conv4/dw"
  top: "conv4/dw"
  param {
    lr_mult: 1
    decay_mult: 0
  }
  param {
    lr_mult: 2
    decay_mult: 0
  }
  include {
    phase: TEST
  }
  scale_param {
    filler {
      value: 1
    }
    bias_term: true
    bias_filler {
      value: 0
    }
  }
}
layer {
  name: "conv4/dw/relu"
  type: "ReLU"
  bottom: "conv4/dw"
  top: "conv4/dw"
}
layer {
  name: "conv4"
  type: "Convolution"
  bottom: "conv4/dw"
  top: "conv4"
  param {
    lr_mult: 1
    decay_mult: 1
  }
  include {
    phase: TEST
  }
  convolution_param {
    num_output: 256
    bias_term: false
    kernel_size: 1
    weight_filler {
      type: "msra"
    }
  }
}
layer {
  name: "conv4/bn"
  type: "BatchNorm"
  bottom: "conv4"
  top: "conv4"
}
layer {
  name: "conv4/scale"
  type: "Scale"
  bottom: "conv4"
  top: "conv4"
  param {
    lr_mult: 1
    decay_mult: 0
  }
  param {
    lr_mult: 2
    decay_mult: 0
  }
  include {
    phase: TEST
  }
  scale_param {
    filler {
      value: 1
    }
    bias_term: true
    bias_filler {
      value: 0
    }
  }
}
layer {
  name: "conv4/relu"
  type: "ReLU"
  bottom: "conv4"
  top: "conv4"
}
layer {
  name: "conv5/dw"
  type: "Convolution"
  bottom: "conv4"
  top: "conv5/dw"
  param {
    lr_mult: 1
    decay_mult: 1
  }
  include {
    phase: TEST
  }
  convolution_param {
    num_output: 256
    bias_term: false
    pad: 1
    kernel_size: 3
    group: 256
    weight_filler {
      type: "msra"
    }
    engine: CAFFE
  }
}
layer {
  name: "conv5/dw/bn"
  type: "BatchNorm"
  bottom: "conv5/dw"
  top: "conv5/dw"
}
layer {
  name: "conv5/dw/scale"
  type: "Scale"
  bottom: "conv5/dw"
  top: "conv5/dw"
  param {
    lr_mult: 1
    decay_mult: 0
  }
  param {
    lr_mult: 2
    decay_mult: 0
  }
  include {
    phase: TEST
  }
  scale_param {
    filler {
      value: 1
    }
    bias_term: true
    bias_filler {
      value: 0
    }
  }
}
layer {
  name: "conv5/dw/relu"
  type: "ReLU"
  bottom: "conv5/dw"
  top: "conv5/dw"
}
layer {
  name: "conv5"
  type: "Convolution"
  bottom: "conv5/dw"
  top: "conv5"
  param {
    lr_mult: 1
    decay_mult: 1
  }
  include {
    phase: TEST
  }
  convolution_param {
    num_output: 256
    bias_term: false
    kernel_size: 1
    weight_filler {
      type: "msra"
    }
  }
}
layer {
  name: "conv5/bn"
  type: "BatchNorm"
  bottom: "conv5"
  top: "conv5"
}
layer {
  name: "conv5/scale"
  type: "Scale"
  bottom: "conv5"
  top: "conv5"
  param {
    lr_mult: 1
    decay_mult: 0
  }
  param {
    lr_mult: 2
    decay_mult: 0
  }
  include {
    phase: TEST
  }
  scale_param {
    filler {
      value: 1
    }
    bias_term: true
    bias_filler {
      value: 0
    }
  }
}
layer {
  name: "conv5/relu"
  type: "ReLU"
  bottom: "conv5"
  top: "conv5"
}
layer {
  name: "conv6/dw"
  type: "Convolution"
  bottom: "conv5"
  top: "conv6/dw"
  param {
    lr_mult: 1
    decay_mult: 1
  }
  include {
    phase: TEST
  }
  convolution_param {
    num_output: 256
    bias_term: false
    pad: 1
    kernel_size: 3
    group: 256
    stride: 2
    weight_filler {
      type: "msra"
    }
    engine: CAFFE
  }
}
layer {
  name: "conv6/dw/bn"
  type: "BatchNorm"
  bottom: "conv6/dw"
  top: "conv6/dw"
}
layer {
  name: "conv6/dw/scale"
  type: "Scale"
  bottom: "conv6/dw"
  top: "conv6/dw"
  param {
    lr_mult: 1
    decay_mult: 0
  }
  param {
    lr_mult: 2
    decay_mult: 0
  }
  include {
    phase: TEST
  }
  scale_param {
    filler {
      value: 1
    }
    bias_term: true
    bias_filler {
      value: 0
    }
  }
}
layer {
  name: "conv6/dw/relu"
  type: "ReLU"
  bottom: "conv6/dw"
  top: "conv6/dw"
}
layer {
  name: "conv6"
  type: "Convolution"
  bottom: "conv6/dw"
  top: "conv6"
  param {
    lr_mult: 1
    decay_mult: 1
  }
  include {
    phase: TEST
  }
  convolution_param {
    num_output: 512
    bias_term: false
    kernel_size: 1
    weight_filler {
      type: "msra"
    }
  }
}
layer {
  name: "conv6/bn"
  type: "BatchNorm"
  bottom: "conv6"
  top: "conv6"
}
layer {
  name: "conv6/scale"
  type: "Scale"
  bottom: "conv6"
  top: "conv6"
  param {
    lr_mult: 1
    decay_mult: 0
  }
  param {
    lr_mult: 2
    decay_mult: 0
  }
  include {
    phase: TEST
  }
  scale_param {
    filler {
      value: 1
    }
    bias_term: true
    bias_filler {
      value: 0
    }
  }
}
layer {
  name: "conv6/relu"
  type: "ReLU"
  bottom: "conv6"
  top: "conv6"
}
layer {
  name: "conv7/dw"
  type: "Convolution"
  bottom: "conv6"
  top: "conv7/dw"
  param {
    lr_mult: 1
    decay_mult: 1
  }
  include {
    phase: TEST
  }
  convolution_param {
    num_output: 512
    bias_term: false
    pad: 1
    kernel_size: 3
    group: 512
    weight_filler {
      type: "msra"
    }
    engine: CAFFE
  }
}
layer {
  name: "conv7/dw/bn"
  type: "BatchNorm"
  bottom: "conv7/dw"
  top: "conv7/dw"
}
layer {
  name: "conv7/dw/scale"
  type: "Scale"
  bottom: "conv7/dw"
  top: "conv7/dw"
  param {
    lr_mult: 1
    decay_mult: 0
  }
  param {
    lr_mult: 2
    decay_mult: 0
  }
  include {
    phase: TEST
  }
  scale_param {
    filler {
      value: 1
    }
    bias_term: true
    bias_filler {
      value: 0
    }
  }
}
layer {
  name: "conv7/dw/relu"
  type: "ReLU"
  bottom: "conv7/dw"
  top: "conv7/dw"
}
layer {
  name: "conv7"
  type: "Convolution"
  bottom: "conv7/dw"
  top: "conv7"
  param {
    lr_mult: 1
    decay_mult: 1
  }
  include {
    phase: TEST
  }
  convolution_param {
    num_output: 512
    bias_term: false
    kernel_size: 1
    weight_filler {
      type: "msra"
    }
  }
}
layer {
  name: "conv7/bn"
  type: "BatchNorm"
  bottom: "conv7"
  top: "conv7"
}
layer {
  name: "conv7/scale"
  type: "Scale"
  bottom: "conv7"
  top: "conv7"
  param {
    lr_mult: 1
    decay_mult: 0
  }
  param {
    lr_mult: 2
    decay_mult: 0
  }
  include {
    phase: TEST
  }
  scale_param {
    filler {
      value: 1
    }
    bias_term: true
    bias_filler {
      value: 0
    }
  }
}
layer {
  name: "conv7/relu"
  type: "ReLU"
  bottom: "conv7"
  top: "conv7"
}
layer {
  name: "conv8/dw"
  type: "Convolution"
  bottom: "conv7"
  top: "conv8/dw"
  param {
    lr_mult: 1
    decay_mult: 1
  }
  include {
    phase: TEST
  }
  convolution_param {
    num_output: 512
    bias_term: false
    pad: 1
    kernel_size: 3
    group: 512
    weight_filler {
      type: "msra"
    }
    engine: CAFFE
  }
}
layer {
  name: "conv8/dw/bn"
  type: "BatchNorm"
  bottom: "conv8/dw"
  top: "conv8/dw"
}
layer {
  name: "conv8/dw/scale"
  type: "Scale"
  bottom: "conv8/dw"
  top: "conv8/dw"
  param {
    lr_mult: 1
    decay_mult: 0
  }
  param {
    lr_mult: 2
    decay_mult: 0
  }
  include {
    phase: TEST
  }
  scale_param {
    filler {
      value: 1
    }
    bias_term: true
    bias_filler {
      value: 0
    }
  }
}
layer {
  name: "conv8/dw/relu"
  type: "ReLU"
  bottom: "conv8/dw"
  top: "conv8/dw"
}
layer {
  name: "conv8"
  type: "Convolution"
  bottom: "conv8/dw"
  top: "conv8"
  param {
    lr_mult: 1
    decay_mult: 1
  }
  include {
    phase: TEST
  }
  convolution_param {
    num_output: 512
    bias_term: false
    kernel_size: 1
    weight_filler {
      type: "msra"
    }
  }
}
layer {
  name: "conv8/bn"
  type: "BatchNorm"
  bottom: "conv8"
  top: "conv8"
}
…
I1101 20:58:28.859661 20537 layer_factory.hpp:77] Creating layer conv14_1/scale
I1101 20:58:28.859670 20537 net.cpp:100] Creating Layer conv14_1/scale
I1101 20:58:28.859673 20537 net.cpp:481] conv14_1/scale <- conv14_1
I1101 20:58:28.859678 20537 net.cpp:442] conv14_1/scale -> conv14_1 (in-place)
I1101 20:58:28.859737 20537 layer_factory.hpp:77] Creating layer conv14_1/scale
I1101 20:58:28.859853 20537 net.cpp:150] Setting up conv14_1/scale
I1101 20:58:28.859859 20537 net.cpp:157] Top shape: 8 256 10 10 (204800)
I1101 20:58:28.859861 20537 net.cpp:165] Memory required for data: 1283100736
I1101 20:58:28.859866 20537 layer_factory.hpp:77] Creating layer conv14_1/relu
I1101 20:58:28.859871 20537 net.cpp:100] Creating Layer conv14_1/relu
I1101 20:58:28.859874 20537 net.cpp:481] conv14_1/relu <- conv14_1
I1101 20:58:28.859879 20537 net.cpp:442] conv14_1/relu -> conv14_1 (in-place)
I1101 20:58:28.860276 20537 net.cpp:150] Setting up conv14_1/relu
I1101 20:58:28.860286 20537 net.cpp:157] Top shape: 8 256 10 10 (204800)
I1101 20:58:28.860288 20537 net.cpp:165] Memory required for data: 1283919936
I1101 20:58:28.860292 20537 layer_factory.hpp:77] Creating layer conv14_2
I1101 20:58:28.860301 20537 net.cpp:100] Creating Layer conv14_2
I1101 20:58:28.860304 20537 net.cpp:481] conv14_2 <- conv14_1
I1101 20:58:28.860312 20537 net.cpp:455] conv14_2 -> conv14_2
I1101 20:58:28.877218 20537 net.cpp:150] Setting up conv14_2
I1101 20:58:28.877250 20537 net.cpp:157] Top shape: 8 512 5 5 (102400)
I1101 20:58:28.877254 20537 net.cpp:165] Memory required for data: 1284329536
I1101 20:58:28.877259 20537 layer_factory.hpp:77] Creating layer conv14_2/bn
I1101 20:58:28.877265 20537 net.cpp:100] Creating Layer conv14_2/bn
I1101 20:58:28.877269 20537 net.cpp:481] conv14_2/bn <- conv14_2
I1101 20:58:28.877274 20537 net.cpp:442] conv14_2/bn -> conv14_2 (in-place)
I1101 20:58:28.877560 20537 net.cpp:150] Setting up conv14_2/bn
I1101 20:58:28.877569 20537 net.cpp:157] Top shape: 8 512 5 5 (102400)
I1101 20:58:28.877588 20537 net.cpp:165] Memory required for data: 1284739136
I1101 20:58:28.877600 20537 layer_factory.hpp:77] Creating layer conv14_2/scale
I1101 20:58:28.877609 20537 net.cpp:100] Creating Layer conv14_2/scale
I1101 20:58:28.877611 20537 net.cpp:481] conv14_2/scale <- conv14_2
I1101 20:58:28.877615 20537 net.cpp:442] conv14_2/scale -> conv14_2 (in-place)
I1101 20:58:28.877691 20537 layer_factory.hpp:77] Creating layer conv14_2/scale
I1101 20:58:28.877861 20537 net.cpp:150] Setting up conv14_2/scale
I1101 20:58:28.877883 20537 net.cpp:157] Top shape: 8 512 5 5 (102400)
I1101 20:58:28.877885 20537 net.cpp:165] Memory required for data: 1285148736
I1101 20:58:28.877890 20537 layer_factory.hpp:77] Creating layer conv14_2/relu
I1101 20:58:28.877912 20537 net.cpp:100] Creating Layer conv14_2/relu
I1101 20:58:28.877915 20537 net.cpp:481] conv14_2/relu <- conv14_2
I1101 20:58:28.877919 20537 net.cpp:442] conv14_2/relu -> conv14_2 (in-place)
I1101 20:58:28.878934 20537 net.cpp:150] Setting up conv14_2/relu
I1101 20:58:28.878947 20537 net.cpp:157] Top shape: 8 512 5 5 (102400)
I1101 20:58:28.878949 20537 net.cpp:165] Memory required for data: 1285558336
I1101 20:58:28.878952 20537 layer_factory.hpp:77] Creating layer conv14_2_conv14_2/relu_0_split
I1101 20:58:28.878962 20537 net.cpp:100] Creating Layer conv14_2_conv14_2/relu_0_split
I1101 20:58:28.878964 20537 net.cpp:481] conv14_2_conv14_2/relu_0_split <- conv14_2
I1101 20:58:28.878969 20537 net.cpp:455] conv14_2_conv14_2/relu_0_split -> conv14_2_conv14_2/relu_0_split_0
I1101 20:58:28.878988 20537 net.cpp:455] conv14_2_conv14_2/relu_0_split -> conv14_2_conv14_2/relu_0_split_1
I1101 20:58:28.878993 20537 net.cpp:455] conv14_2_conv14_2/relu_0_split -> conv14_2_conv14_2/relu_0_split_2
I1101 20:58:28.878998 20537 net.cpp:455] conv14_2_conv14_2/relu_0_split -> conv14_2_conv14_2/relu_0_split_3
I1101 20:58:28.879079 20537 net.cpp:150] Setting up conv14_2_conv14_2/relu_0_split
I1101 20:58:28.879086 20537 net.cpp:157] Top shape: 8 512 5 5 (102400)
I1101 20:58:28.879088 20537 net.cpp:157] Top shape: 8 512 5 5 (102400)
I1101 20:58:28.879091 20537 net.cpp:157] Top shape: 8 512 5 5 (102400)
I1101 20:58:28.879093 20537 net.cpp:157] Top shape: 8 512 5 5 (102400)
I1101 20:58:28.879096 20537 net.cpp:165] Memory required for data: 1287196736
I1101 20:58:28.879098 20537 layer_factory.hpp:77] Creating layer conv15_1
I1101 20:58:28.879107 20537 net.cpp:100] Creating Layer conv15_1
I1101 20:58:28.879112 20537 net.cpp:481] conv15_1 <- conv14_2_conv14_2/relu_0_split_0
I1101 20:58:28.879117 20537 net.cpp:455] conv15_1 -> conv15_1
I1101 20:58:28.884407 20537 net.cpp:150] Setting up conv15_1
I1101 20:58:28.884428 20537 net.cpp:157] Top shape: 8 128 5 5 (25600)
I1101 20:58:28.884433 20537 net.cpp:165] Memory required for data: 1287299136
I1101 20:58:28.884438 20537 layer_factory.hpp:77] Creating layer conv15_1/bn
I1101 20:58:28.884445 20537 net.cpp:100] Creating Layer conv15_1/bn
I1101 20:58:28.884449 20537 net.cpp:481] conv15_1/bn <- conv15_1
I1101 20:58:28.884455 20537 net.cpp:442] conv15_1/bn -> conv15_1 (in-place)
I1101 20:58:28.884656 20537 net.cpp:150] Setting up conv15_1/bn
I1101 20:58:28.884662 20537 net.cpp:157] Top shape: 8 128 5 5 (25600)
I1101 20:58:28.884665 20537 net.cpp:165] Memory required for data: 1287401536
I1101 20:58:28.884670 20537 layer_factory.hpp:77] Creating layer conv15_1/scale
I1101 20:58:28.884680 20537 net.cpp:100] Creating Layer conv15_1/scale
I1101 20:58:28.884682 20537 net.cpp:481] conv15_1/scale <- conv15_1
I1101 20:58:28.884701 20537 net.cpp:442] conv15_1/scale -> conv15_1 (in-place)
I1101 20:58:28.884757 20537 layer_factory.hpp:77] Creating layer conv15_1/scale
I1101 20:58:28.884873 20537 net.cpp:150] Setting up conv15_1/scale
I1101 20:58:28.884879 20537 net.cpp:157] Top shape: 8 128 5 5 (25600)
I1101 20:58:28.884881 20537 net.cpp:165] Memory required for data: 1287503936
I1101 20:58:28.884887 20537 layer_factory.hpp:77] Creating layer conv15_1/relu
I1101 20:58:28.884892 20537 net.cpp:100] Creating Layer conv15_1/relu
I1101 20:58:28.884894 20537 net.cpp:481] conv15_1/relu <- conv15_1
I1101 20:58:28.884901 20537 net.cpp:442] conv15_1/relu -> conv15_1 (in-place)
I1101 20:58:28.885905 20537 net.cpp:150] Setting up conv15_1/relu
I1101 20:58:28.885918 20537 net.cpp:157] Top shape: 8 128 5 5 (25600)
I1101 20:58:28.885921 20537 net.cpp:165] Memory required for data: 1287606336
I1101 20:58:28.885924 20537 layer_factory.hpp:77] Creating layer conv15_2
I1101 20:58:28.885951 20537 net.cpp:100] Creating Layer conv15_2
I1101 20:58:28.885956 20537 net.cpp:481] conv15_2 <- conv15_1
I1101 20:58:28.885980 20537 net.cpp:455] conv15_2 -> conv15_2
I1101 20:58:28.892418 20537 net.cpp:150] Setting up conv15_2
I1101 20:58:28.892439 20537 net.cpp:157] Top shape: 8 256 3 3 (18432)
I1101 20:58:28.892442 20537 net.cpp:165] Memory required for data: 1287680064
I1101 20:58:28.892447 20537 layer_factory.hpp:77] Creating layer conv15_2/bn
I1101 20:58:28.892455 20537 net.cpp:100] Creating Layer conv15_2/bn
I1101 20:58:28.892458 20537 net.cpp:481] conv15_2/bn <- conv15_2
I1101 20:58:28.892463 20537 net.cpp:442] conv15_2/bn -> conv15_2 (in-place)
I1101 20:58:28.892765 20537 net.cpp:150] Setting up conv15_2/bn
I1101 20:58:28.892771 20537 net.cpp:157] Top shape: 8 256 3 3 (18432)
I1101 20:58:28.892774 20537 net.cpp:165] Memory required for data: 1287753792
I1101 20:58:28.892781 20537 layer_factory.hpp:77] Creating layer conv15_2/scale
I1101 20:58:28.892804 20537 net.cpp:100] Creating Layer conv15_2/scale
I1101 20:58:28.892807 20537 net.cpp:481] conv15_2/scale <- conv15_2
I1101 20:58:28.892829 20537 net.cpp:442] conv15_2/scale -> conv15_2 (in-place)
I1101 20:58:28.892871 20537 layer_factory.hpp:77] Creating layer conv15_2/scale
I1101 20:58:28.892990 20537 net.cpp:150] Setting up conv15_2/scale
I1101 20:58:28.892995 20537 net.cpp:157] Top shape: 8 256 3 3 (18432)
I1101 20:58:28.892998 20537 net.cpp:165] Memory required for data: 1287827520
I1101 20:58:28.893003 20537 layer_factory.hpp:77] Creating layer conv15_2/relu
I1101 20:58:28.893028 20537 net.cpp:100] Creating Layer conv15_2/relu
I1101 20:58:28.893031 20537 net.cpp:481] conv15_2/relu <- conv15_2
I1101 20:58:28.893035 20537 net.cpp:442] conv15_2/relu -> conv15_2 (in-place)
I1101 20:58:28.893369 20537 net.cpp:150] Setting up conv15_2/relu
I1101 20:58:28.893381 20537 net.cpp:157] Top shape: 8 256 3 3 (18432)
I1101 20:58:28.893383 20537 net.cpp:165] Memory required for data: 1287901248
I1101 20:58:28.893388 20537 layer_factory.hpp:77] Creating layer conv15_2_conv15_2/relu_0_split
I1101 20:58:28.893394 20537 net.cpp:100] Creating Layer conv15_2_conv15_2/relu_0_split
I1101 20:58:28.893398 20537 net.cpp:481] conv15_2_conv15_2/relu_0_split <- conv15_2
I1101 20:58:28.893404 20537 net.cpp:455] conv15_2_conv15_2/relu_0_split -> conv15_2_conv15_2/relu_0_split_0
I1101 20:58:28.893410 20537 net.cpp:455] conv15_2_conv15_2/relu_0_split -> conv15_2_conv15_2/relu_0_split_1
I1101 20:58:28.893416 20537 net.cpp:455] conv15_2_conv15_2/relu_0_split -> conv15_2_conv15_2/relu_0_split_2
I1101 20:58:28.893429 20537 net.cpp:455] conv15_2_conv15_2/relu_0_split -> conv15_2_conv15_2/relu_0_split_3
I1101 20:58:28.893501 20537 net.cpp:150] Setting up conv15_2_conv15_2/relu_0_split
I1101 20:58:28.893507 20537 net.cpp:157] Top shape: 8 256 3 3 (18432)
I1101 20:58:28.893510 20537 net.cpp:157] Top shape: 8 256 3 3 (18432)
I1101 20:58:28.893513 20537 net.cpp:157] Top shape: 8 256 3 3 (18432)
I1101 20:58:28.893517 20537 net.cpp:157] Top shape: 8 256 3 3 (18432)
I1101 20:58:28.893518 20537 net.cpp:165] Memory required for data: 1288196160
I1101 20:58:28.893533 20537 layer_factory.hpp:77] Creating layer conv16_1
I1101 20:58:28.893545 20537 net.cpp:100] Creating Layer conv16_1
I1101 20:58:28.893548 20537 net.cpp:481] conv16_1 <- conv15_2_conv15_2/relu_0_split_0
I1101 20:58:28.893555 20537 net.cpp:455] conv16_1 -> conv16_1
I1101 20:58:28.896577 20537 net.cpp:150] Setting up conv16_1
I1101 20:58:28.896591 20537 net.cpp:157] Top shape: 8 128 3 3 (9216)
I1101 20:58:28.896595 20537 net.cpp:165] Memory required for data: 1288233024
I1101 20:58:28.896600 20537 layer_factory.hpp:77] Creating layer conv16_1/bn
I1101 20:58:28.896607 20537 net.cpp:100] Creating Layer conv16_1/bn
I1101 20:58:28.896611 20537 net.cpp:481] conv16_1/bn <- conv16_1
I1101 20:58:28.896615 20537 net.cpp:442] conv16_1/bn -> conv16_1 (in-place)
I1101 20:58:28.896816 20537 net.cpp:150] Setting up conv16_1/bn
I1101 20:58:28.896822 20537 net.cpp:157] Top shape: 8 128 3 3 (9216)
I1101 20:58:28.896824 20537 net.cpp:165] Memory required for data: 1288269888
I1101 20:58:28.896831 20537 layer_factory.hpp:77] Creating layer conv16_1/scale
I1101 20:58:28.896841 20537 net.cpp:100] Creating Layer conv16_1/scale
I1101 20:58:28.896843 20537 net.cpp:481] conv16_1/scale <- conv16_1
I1101 20:58:28.896848 20537 net.cpp:442] conv16_1/scale -> conv16_1 (in-place)
I1101 20:58:28.896890 20537 layer_factory.hpp:77] Creating layer conv16_1/scale
I1101 20:58:28.897019 20537 net.cpp:150] Setting up conv16_1/scale
I1101 20:58:28.897024 20537 net.cpp:157] Top shape: 8 128 3 3 (9216)
I1101 20:58:28.897027 20537 net.cpp:165] Memory required for data: 1288306752
I1101 20:58:28.897032 20537 layer_factory.hpp:77] Creating layer conv16_1/relu
I1101 20:58:28.897037 20537 net.cpp:100] Creating Layer conv16_1/relu
I1101 20:58:28.897039 20537 net.cpp:481] conv16_1/relu <- conv16_1
I1101 20:58:28.897045 20537 net.cpp:442] conv16_1/relu -> conv16_1 (in-place)
I1101 20:58:28.898030 20537 net.cpp:150] Setting up conv16_1/relu
I1101 20:58:28.898044 20537 net.cpp:157] Top shape: 8 128 3 3 (9216)
I1101 20:58:28.898046 20537 net.cpp:165] Memory required for data: 1288343616
I1101 20:58:28.898051 20537 layer_factory.hpp:77] Creating layer conv16_2
I1101 20:58:28.898061 20537 net.cpp:100] Creating Layer conv16_2
I1101 20:58:28.898064 20537 net.cpp:481] conv16_2 <- conv16_1
I1101 20:58:28.898071 20537 net.cpp:455] conv16_2 -> conv16_2
I1101 20:58:28.904373 20537 net.cpp:150] Setting up conv16_2
I1101 20:58:28.904386 20537 net.cpp:157] Top shape: 8 256 2 2 (8192)
I1101 20:58:28.904388 20537 net.cpp:165] Memory required for data: 1288376384
I1101 20:58:28.904394 20537 layer_factory.hpp:77] Creating layer conv16_2/bn
I1101 20:58:28.904402 20537 net.cpp:100] Creating Layer conv16_2/bn
I1101 20:58:28.904404 20537 net.cpp:481] conv16_2/bn <- conv16_2
I1101 20:58:28.904410 20537 net.cpp:442] conv16_2/bn -> conv16_2 (in-place)
I1101 20:58:28.904655 20537 net.cpp:150] Setting up conv16_2/bn
I1101 20:58:28.904661 20537 net.cpp:157] Top shape: 8 256 2 2 (8192)
I1101 20:58:28.904664 20537 net.cpp:165] Memory required for data: 1288409152
I1101 20:58:28.904670 20537 layer_factory.hpp:77] Creating layer conv16_2/scale
I1101 20:58:28.904678 20537 net.cpp:100] Creating Layer conv16_2/scale
I1101 20:58:28.904681 20537 net.cpp:481] conv16_2/scale <- conv16_2
I1101 20:58:28.904685 20537 net.cpp:442] conv16_2/scale -> conv16_2 (in-place)
I1101 20:58:28.904742 20537 layer_factory.hpp:77] Creating layer conv16_2/scale
I1101 20:58:28.904844 20537 net.cpp:150] Setting up conv16_2/scale
I1101 20:58:28.904850 20537 net.cpp:157] Top shape: 8 256 2 2 (8192)
I1101 20:58:28.904852 20537 net.cpp:165] Memory required for data: 1288441920
I1101 20:58:28.904856 20537 layer_factory.hpp:77] Creating layer conv16_2/relu
I1101 20:58:28.904861 20537 net.cpp:100] Creating Layer conv16_2/relu
I1101 20:58:28.904863 20537 net.cpp:481] conv16_2/relu <- conv16_2
I1101 20:58:28.904868 20537 net.cpp:442] conv16_2/relu -> conv16_2 (in-place)
I1101 20:58:28.905185 20537 net.cpp:150] Setting up conv16_2/relu
I1101 20:58:28.905194 20537 net.cpp:157] Top shape: 8 256 2 2 (8192)
I1101 20:58:28.905208 20537 net.cpp:165] Memory required for data: 1288474688
I1101 20:58:28.905212 20537 layer_factory.hpp:77] Creating layer conv16_2_conv16_2/relu_0_split
I1101 20:58:28.905220 20537 net.cpp:100] Creating Layer conv16_2_conv16_2/relu_0_split
I1101 20:58:28.905225 20537 net.cpp:481] conv16_2_conv16_2/relu_0_split <- conv16_2
I1101 20:58:28.905230 20537 net.cpp:455] conv16_2_conv16_2/relu_0_split -> conv16_2_conv16_2/relu_0_split_0
I1101 20:58:28.905251 20537 net.cpp:455] conv16_2_conv16_2/relu_0_split -> conv16_2_conv16_2/relu_0_split_1
I1101 20:58:28.905257 20537 net.cpp:455] conv16_2_conv16_2/relu_0_split -> conv16_2_conv16_2/relu_0_split_2
I1101 20:58:28.905262 20537 net.cpp:455] conv16_2_conv16_2/relu_0_split -> conv16_2_conv16_2/relu_0_split_3
I1101 20:58:28.905361 20537 net.cpp:150] Setting up conv16_2_conv16_2/relu_0_split
I1101 20:58:28.905366 20537 net.cpp:157] Top shape: 8 256 2 2 (8192)
I1101 20:58:28.905369 20537 net.cpp:157] Top shape: 8 256 2 2 (8192)
I1101 20:58:28.905372 20537 net.cpp:157] Top shape: 8 256 2 2 (8192)
I1101 20:58:28.905375 20537 net.cpp:157] Top shape: 8 256 2 2 (8192)
I1101 20:58:28.905376 20537 net.cpp:165] Memory required for data: 1288605760
I1101 20:58:28.905378 20537 layer_factory.hpp:77] Creating layer conv17_1
I1101 20:58:28.905388 20537 net.cpp:100] Creating Layer conv17_1
I1101 20:58:28.905391 20537 net.cpp:481] conv17_1 <- conv16_2_conv16_2/relu_0_split_0
I1101 20:58:28.905397 20537 net.cpp:455] conv17_1 -> conv17_1
I1101 20:58:28.908632 20537 net.cpp:150] Setting up conv17_1
I1101 20:58:28.908645 20537 net.cpp:157] Top shape: 8 64 2 2 (2048)
I1101 20:58:28.908648 20537 net.cpp:165] Memory required for data: 1288613952
I1101 20:58:28.908653 20537 layer_factory.hpp:77] Creating layer conv17_1/bn
I1101 20:58:28.908660 20537 net.cpp:100] Creating Layer conv17_1/bn
I1101 20:58:28.908663 20537 net.cpp:481] conv17_1/bn <- conv17_1
I1101 20:58:28.908669 20537 net.cpp:442] conv17_1/bn -> conv17_1 (in-place)
I1101 20:58:28.908891 20537 net.cpp:150] Setting up conv17_1/bn
I1101 20:58:28.908897 20537 net.cpp:157] Top shape: 8 64 2 2 (2048)
I1101 20:58:28.908900 20537 net.cpp:165] Memory required for data: 1288622144
I1101 20:58:28.908905 20537 layer_factory.hpp:77] Creating layer conv17_1/scale
I1101 20:58:28.908912 20537 net.cpp:100] Creating Layer conv17_1/scale
I1101 20:58:28.908916 20537 net.cpp:481] conv17_1/scale <- conv17_1
I1101 20:58:28.908920 20537 net.cpp:442] conv17_1/scale -> conv17_1 (in-place)
I1101 20:58:28.908982 20537 layer_factory.hpp:77] Creating layer conv17_1/scale
I1101 20:58:28.909107 20537 net.cpp:150] Setting up conv17_1/scale
I1101 20:58:28.909112 20537 net.cpp:157] Top shape: 8 64 2 2 (2048)
I1101 20:58:28.909114 20537 net.cpp:165] Memory required for data: 1288630336
I1101 20:58:28.909118 20537 layer_factory.hpp:77] Creating layer conv17_1/relu
I1101 20:58:28.909123 20537 net.cpp:100] Creating Layer conv17_1/relu
I1101 20:58:28.909126 20537 net.cpp:481] conv17_1/relu <- conv17_1
I1101 20:58:28.909132 20537 net.cpp:442] conv17_1/relu -> conv17_1 (in-place)
I1101 20:58:28.910212 20537 net.cpp:150] Setting up conv17_1/relu
I1101 20:58:28.910223 20537 net.cpp:157] Top shape: 8 64 2 2 (2048)
I1101 20:58:28.910225 20537 net.cpp:165] Memory required for data: 1288638528
I1101 20:58:28.910229 20537 layer_factory.hpp:77] Creating layer conv17_2
I1101 20:58:28.910241 20537 net.cpp:100] Creating Layer conv17_2
I1101 20:58:28.910244 20537 net.cpp:481] conv17_2 <- conv17_1
I1101 20:58:28.910251 20537 net.cpp:455] conv17_2 -> conv17_2
I1101 20:58:28.914810 20537 net.cpp:150] Setting up conv17_2
I1101 20:58:28.914824 20537 net.cpp:157] Top shape: 8 128 1 1 (1024)
I1101 20:58:28.914827 20537 net.cpp:165] Memory required for data: 1288642624
I1101 20:58:28.914832 20537 layer_factory.hpp:77] Creating layer conv17_2/bn
I1101 20:58:28.914839 20537 net.cpp:100] Creating Layer conv17_2/bn
I1101 20:58:28.914842 20537 net.cpp:481] conv17_2/bn <- conv17_2
I1101 20:58:28.914849 20537 net.cpp:442] conv17_2/bn -> conv17_2 (in-place)
I1101 20:58:28.915060 20537 net.cpp:150] Setting up conv17_2/bn
I1101 20:58:28.915066 20537 net.cpp:157] Top shape: 8 128 1 1 (1024)
I1101 20:58:28.915068 20537 net.cpp:165] Memory required for data: 1288646720
I1101 20:58:28.915076 20537 layer_factory.hpp:77] Creating layer conv17_2/scale
I1101 20:58:28.915097 20537 net.cpp:100] Creating Layer conv17_2/scale
I1101 20:58:28.915100 20537 net.cpp:481] conv17_2/scale <- conv17_2
I1101 20:58:28.915107 20537 net.cpp:442] conv17_2/scale -> conv17_2 (in-place)
I1101 20:58:28.915150 20537 layer_factory.hpp:77] Creating layer conv17_2/scale
I1101 20:58:28.915276 20537 net.cpp:150] Setting up conv17_2/scale
I1101 20:58:28.915282 20537 net.cpp:157] Top shape: 8 128 1 1 (1024)
I1101 20:58:28.915283 20537 net.cpp:165] Memory required for data: 1288650816
I1101 20:58:28.915288 20537 layer_factory.hpp:77] Creating layer conv17_2/relu
I1101 20:58:28.915293 20537 net.cpp:100] Creating Layer conv17_2/relu
I1101 20:58:28.915297 20537 net.cpp:481] conv17_2/relu <- conv17_2
I1101 20:58:28.915302 20537 net.cpp:442] conv17_2/relu -> conv17_2 (in-place)
I1101 20:58:28.916718 20537 net.cpp:150] Setting up conv17_2/relu
I1101 20:58:28.916730 20537 net.cpp:157] Top shape: 8 128 1 1 (1024)
I1101 20:58:28.916733 20537 net.cpp:165] Memory required for data: 1288654912
I1101 20:58:28.916736 20537 layer_factory.hpp:77] Creating layer conv17_2_conv17_2/relu_0_split
I1101 20:58:28.916744 20537 net.cpp:100] Creating Layer conv17_2_conv17_2/relu_0_split
I1101 20:58:28.916749 20537 net.cpp:481] conv17_2_conv17_2/relu_0_split <- conv17_2
I1101 20:58:28.916754 20537 net.cpp:455] conv17_2_conv17_2/relu_0_split -> conv17_2_conv17_2/relu_0_split_0
I1101 20:58:28.916776 20537 net.cpp:455] conv17_2_conv17_2/relu_0_split -> conv17_2_conv17_2/relu_0_split_1
I1101 20:58:28.916782 20537 net.cpp:455] conv17_2_conv17_2/relu_0_split -> conv17_2_conv17_2/relu_0_split_2
I1101 20:58:28.916839 20537 net.cpp:150] Setting up conv17_2_conv17_2/relu_0_split
I1101 20:58:28.916847 20537 net.cpp:157] Top shape: 8 128 1 1 (1024)
I1101 20:58:28.916851 20537 net.cpp:157] Top shape: 8 128 1 1 (1024)
I1101 20:58:28.916853 20537 net.cpp:157] Top shape: 8 128 1 1 (1024)
I1101 20:58:28.916856 20537 net.cpp:165] Memory required for data: 1288667200
I1101 20:58:28.916858 20537 layer_factory.hpp:77] Creating layer conv11_mbox_loc
I1101 20:58:28.916868 20537 net.cpp:100] Creating Layer conv11_mbox_loc
I1101 20:58:28.916872 20537 net.cpp:481] conv11_mbox_loc <- conv11_conv11/relu_0_split_1
I1101 20:58:28.916877 20537 net.cpp:455] conv11_mbox_loc -> conv11_mbox_loc
I1101 20:58:28.920109 20537 net.cpp:150] Setting up conv11_mbox_loc
I1101 20:58:28.920123 20537 net.cpp:157] Top shape: 8 12 19 19 (34656)
I1101 20:58:28.920125 20537 net.cpp:165] Memory required for data: 1288805824
I1101 20:58:28.920131 20537 layer_factory.hpp:77] Creating layer conv11_mbox_loc_perm
I1101 20:58:28.920141 20537 net.cpp:100] Creating Layer conv11_mbox_loc_perm
I1101 20:58:28.920145 20537 net.cpp:481] conv11_mbox_loc_perm <- conv11_mbox_loc
I1101 20:58:28.920151 20537 net.cpp:455] conv11_mbox_loc_perm -> conv11_mbox_loc_perm
I1101 20:58:28.920258 20537 net.cpp:150] Setting up conv11_mbox_loc_perm
I1101 20:58:28.920265 20537 net.cpp:157] Top shape: 8 19 19 12 (34656)
I1101 20:58:28.920267 20537 net.cpp:165] Memory required for data: 1288944448
I1101 20:58:28.920269 20537 layer_factory.hpp:77] Creating layer conv11_mbox_loc_flat
I1101 20:58:28.920276 20537 net.cpp:100] Creating Layer conv11_mbox_loc_flat
I1101 20:58:28.920279 20537 net.cpp:481] conv11_mbox_loc_flat <- conv11_mbox_loc_perm
I1101 20:58:28.920284 20537 net.cpp:455] conv11_mbox_loc_flat -> conv11_mbox_loc_flat
I1101 20:58:28.920310 20537 net.cpp:150] Setting up conv11_mbox_loc_flat
I1101 20:58:28.920315 20537 net.cpp:157] Top shape: 8 4332 (34656)
I1101 20:58:28.920317 20537 net.cpp:165] Memory required for data: 1289083072
I1101 20:58:28.920320 20537 layer_factory.hpp:77] Creating layer conv11_mbox_conf_new
I1101 20:58:28.920328 20537 net.cpp:100] Creating Layer conv11_mbox_conf_new
I1101 20:58:28.920331 20537 net.cpp:481] conv11_mbox_conf_new <- conv11_conv11/relu_0_split_2
I1101 20:58:28.920351 20537 net.cpp:455] conv11_mbox_conf_new -> conv11_mbox_conf
I1101 20:58:28.924664 20537 net.cpp:150] Setting up conv11_mbox_conf_new
I1101 20:58:28.924677 20537 net.cpp:157] Top shape: 8 63 19 19 (181944)
I1101 20:58:28.924679 20537 net.cpp:165] Memory required for data: 1289810848
I1101 20:58:28.924686 20537 layer_factory.hpp:77] Creating layer conv11_mbox_conf_perm
I1101 20:58:28.924695 20537 net.cpp:100] Creating Layer conv11_mbox_conf_perm
I1101 20:58:28.924698 20537 net.cpp:481] conv11_mbox_conf_perm <- conv11_mbox_conf
I1101 20:58:28.924703 20537 net.cpp:455] conv11_mbox_conf_perm -> conv11_mbox_conf_perm
I1101 20:58:28.924815 20537 net.cpp:150] Setting up conv11_mbox_conf_perm
I1101 20:58:28.924821 20537 net.cpp:157] Top shape: 8 19 19 63 (181944)
I1101 20:58:28.924823 20537 net.cpp:165] Memory required for data: 1290538624
I1101 20:58:28.924826 20537 layer_factory.hpp:77] Creating layer conv11_mbox_conf_flat
I1101 20:58:28.924834 20537 net.cpp:100] Creating Layer conv11_mbox_conf_flat
I1101 20:58:28.924836 20537 net.cpp:481] conv11_mbox_conf_flat <- conv11_mbox_conf_perm
I1101 20:58:28.924841 20537 net.cpp:455] conv11_mbox_conf_flat -> conv11_mbox_conf_flat
I1101 20:58:28.924867 20537 net.cpp:150] Setting up conv11_mbox_conf_flat
I1101 20:58:28.924872 20537 net.cpp:157] Top shape: 8 22743 (181944)
I1101 20:58:28.924875 20537 net.cpp:165] Memory required for data: 1291266400
I1101 20:58:28.924877 20537 layer_factory.hpp:77] Creating layer conv11_mbox_priorbox
I1101 20:58:28.924887 20537 net.cpp:100] Creating Layer conv11_mbox_priorbox
I1101 20:58:28.924890 20537 net.cpp:481] conv11_mbox_priorbox <- conv11_conv11/relu_0_split_3
I1101 20:58:28.924896 20537 net.cpp:481] conv11_mbox_priorbox <- data_data_0_split_1
I1101 20:58:28.924901 20537 net.cpp:455] conv11_mbox_priorbox -> conv11_mbox_priorbox
I1101 20:58:28.924932 20537 net.cpp:150] Setting up conv11_mbox_priorbox
I1101 20:58:28.924937 20537 net.cpp:157] Top shape: 1 2 4332 (8664)
I1101 20:58:28.924938 20537 net.cpp:165] Memory required for data: 1291301056
I1101 20:58:28.924940 20537 layer_factory.hpp:77] Creating layer conv13_mbox_loc
I1101 20:58:28.924952 20537 net.cpp:100] Creating Layer conv13_mbox_loc
I1101 20:58:28.924954 20537 net.cpp:481] conv13_mbox_loc <- conv13_conv13/relu_0_split_1
I1101 20:58:28.924962 20537 net.cpp:455] conv13_mbox_loc -> conv13_mbox_loc
I1101 20:58:28.927875 20537 net.cpp:150] Setting up conv13_mbox_loc
I1101 20:58:28.927891 20537 net.cpp:157] Top shape: 8 24 10 10 (19200)
I1101 20:58:28.927892 20537 net.cpp:165] Memory required for data: 1291377856
I1101 20:58:28.927899 20537 layer_factory.hpp:77] Creating layer conv13_mbox_loc_perm
I1101 20:58:28.927906 20537 net.cpp:100] Creating Layer conv13_mbox_loc_perm
I1101 20:58:28.927908 20537 net.cpp:481] conv13_mbox_loc_perm <- conv13_mbox_loc
I1101 20:58:28.927914 20537 net.cpp:455] conv13_mbox_loc_perm -> conv13_mbox_loc_perm
I1101 20:58:28.928022 20537 net.cpp:150] Setting up conv13_mbox_loc_perm
I1101 20:58:28.928028 20537 net.cpp:157] Top shape: 8 10 10 24 (19200)
I1101 20:58:28.928030 20537 net.cpp:165] Memory required for data: 1291454656
I1101 20:58:28.928033 20537 layer_factory.hpp:77] Creating layer conv13_mbox_loc_flat
I1101 20:58:28.928038 20537 net.cpp:100] Creating Layer conv13_mbox_loc_flat
I1101 20:58:28.928040 20537 net.cpp:481] conv13_mbox_loc_flat <- conv13_mbox_loc_perm
I1101 20:58:28.928047 20537 net.cpp:455] conv13_mbox_loc_flat -> conv13_mbox_loc_flat
I1101 20:58:28.928073 20537 net.cpp:150] Setting up conv13_mbox_loc_flat
I1101 20:58:28.928093 20537 net.cpp:157] Top shape: 8 2400 (19200)
I1101 20:58:28.928095 20537 net.cpp:165] Memory required for data: 1291531456
I1101 20:58:28.928097 20537 layer_factory.hpp:77] Creating layer conv13_mbox_conf_new
I1101 20:58:28.928107 20537 net.cpp:100] Creating Layer conv13_mbox_conf_new
I1101 20:58:28.928110 20537 net.cpp:481] conv13_mbox_conf_new <- conv13_conv13/relu_0_split_2
I1101 20:58:28.928117 20537 net.cpp:455] conv13_mbox_conf_new -> conv13_mbox_conf
I1101 20:58:28.933192 20537 net.cpp:150] Setting up conv13_mbox_conf_new
I1101 20:58:28.933207 20537 net.cpp:157] Top shape: 8 126 10 10 (100800)
I1101 20:58:28.933208 20537 net.cpp:165] Memory required for data: 1291934656
I1101 20:58:28.933214 20537 layer_factory.hpp:77] Creating layer conv13_mbox_conf_perm
I1101 20:58:28.933221 20537 net.cpp:100] Creating Layer conv13_mbox_conf_perm
I1101 20:58:28.933224 20537 net.cpp:481] conv13_mbox_conf_perm <- conv13_mbox_conf
I1101 20:58:28.933231 20537 net.cpp:455] conv13_mbox_conf_perm -> conv13_mbox_conf_perm
I1101 20:58:28.933336 20537 net.cpp:150] Setting up conv13_mbox_conf_perm
I1101 20:58:28.933342 20537 net.cpp:157] Top shape: 8 10 10 126 (100800)
I1101 20:58:28.933344 20537 net.cpp:165] Memory required for data: 1292337856
I1101 20:58:28.933347 20537 layer_factory.hpp:77] Creating layer conv13_mbox_conf_flat
I1101 20:58:28.933353 20537 net.cpp:100] Creating Layer conv13_mbox_conf_flat
I1101 20:58:28.933357 20537 net.cpp:481] conv13_mbox_conf_flat <- conv13_mbox_conf_perm
I1101 20:58:28.933360 20537 net.cpp:455] conv13_mbox_conf_flat -> conv13_mbox_conf_flat
I1101 20:58:28.933387 20537 net.cpp:150] Setting up conv13_mbox_conf_flat
I1101 20:58:28.933390 20537 net.cpp:157] Top shape: 8 12600 (100800)
I1101 20:58:28.933393 20537 net.cpp:165] Memory required for data: 1292741056
I1101 20:58:28.933395 20537 layer_factory.hpp:77] Creating layer conv13_mbox_priorbox
I1101 20:58:28.933403 20537 net.cpp:100] Creating Layer conv13_mbox_priorbox
I1101 20:58:28.933409 20537 net.cpp:481] conv13_mbox_priorbox <- conv13_conv13/relu_0_split_3
I1101 20:58:28.933413 20537 net.cpp:481] conv13_mbox_priorbox <- data_data_0_split_2
I1101 20:58:28.933418 20537 net.cpp:455] conv13_mbox_priorbox -> conv13_mbox_priorbox
I1101 20:58:28.933454 20537 net.cpp:150] Setting up conv13_mbox_priorbox
I1101 20:58:28.933459 20537 net.cpp:157] Top shape: 1 2 2400 (4800)
I1101 20:58:28.933461 20537 net.cpp:165] Memory required for data: 1292760256
I1101 20:58:28.933464 20537 layer_factory.hpp:77] Creating layer conv14_2_mbox_loc
I1101 20:58:28.933473 20537 net.cpp:100] Creating Layer conv14_2_mbox_loc
I1101 20:58:28.933476 20537 net.cpp:481] conv14_2_mbox_loc <- conv14_2_conv14_2/relu_0_split_1
I1101 20:58:28.933483 20537 net.cpp:455] conv14_2_mbox_loc -> conv14_2_mbox_loc
I1101 20:58:28.936399 20537 net.cpp:150] Setting up conv14_2_mbox_loc
I1101 20:58:28.936411 20537 net.cpp:157] Top shape: 8 24 5 5 (4800)
I1101 20:58:28.936414 20537 net.cpp:165] Memory required for data: 1292779456
I1101 20:58:28.936426 20537 layer_factory.hpp:77] Creating layer conv14_2_mbox_loc_perm
I1101 20:58:28.936435 20537 net.cpp:100] Creating Layer conv14_2_mbox_loc_perm
I1101 20:58:28.936439 20537 net.cpp:481] conv14_2_mbox_loc_perm <- conv14_2_mbox_loc
I1101 20:58:28.936444 20537 net.cpp:455] conv14_2_mbox_loc_perm -> conv14_2_mbox_loc_perm
I1101 20:58:28.936549 20537 net.cpp:150] Setting up conv14_2_mbox_loc_perm
I1101 20:58:28.936555 20537 net.cpp:157] Top shape: 8 5 5 24 (4800)
I1101 20:58:28.936558 20537 net.cpp:165] Memory required for data: 1292798656
I1101 20:58:28.936559 20537 layer_factory.hpp:77] Creating layer conv14_2_mbox_loc_flat
I1101 20:58:28.936565 20537 net.cpp:100] Creating Layer conv14_2_mbox_loc_flat
I1101 20:58:28.936568 20537 net.cpp:481] conv14_2_mbox_loc_flat <- conv14_2_mbox_loc_perm
I1101 20:58:28.936574 20537 net.cpp:455] conv14_2_mbox_loc_flat -> conv14_2_mbox_loc_flat
I1101 20:58:28.936599 20537 net.cpp:150] Setting up conv14_2_mbox_loc_flat
I1101 20:58:28.936604 20537 net.cpp:157] Top shape: 8 600 (4800)
I1101 20:58:28.936606 20537 net.cpp:165] Memory required for data: 1292817856
I1101 20:58:28.936609 20537 layer_factory.hpp:77] Creating layer conv14_2_mbox_conf_new
I1101 20:58:28.936619 20537 net.cpp:100] Creating Layer conv14_2_mbox_conf_new
I1101 20:58:28.936621 20537 net.cpp:481] conv14_2_mbox_conf_new <- conv14_2_conv14_2/relu_0_split_2
I1101 20:58:28.936627 20537 net.cpp:455] conv14_2_mbox_conf_new -> conv14_2_mbox_conf
I1101 20:58:28.939903 20537 net.cpp:150] Setting up conv14_2_mbox_conf_new
I1101 20:58:28.939927 20537 net.cpp:157] Top shape: 8 126 5 5 (25200)
I1101 20:58:28.939930 20537 net.cpp:165] Memory required for data: 1292918656
I1101 20:58:28.939937 20537 layer_factory.hpp:77] Creating layer conv14_2_mbox_conf_perm
I1101 20:58:28.939945 20537 net.cpp:100] Creating Layer conv14_2_mbox_conf_perm
I1101 20:58:28.939949 20537 net.cpp:481] conv14_2_mbox_conf_perm <- conv14_2_mbox_conf
I1101 20:58:28.939954 20537 net.cpp:455] conv14_2_mbox_conf_perm -> conv14_2_mbox_conf_perm
I1101 20:58:28.940060 20537 net.cpp:150] Setting up conv14_2_mbox_conf_perm
I1101 20:58:28.940066 20537 net.cpp:157] Top shape: 8 5 5 126 (25200)
I1101 20:58:28.940068 20537 net.cpp:165] Memory required for data: 1293019456
I1101 20:58:28.940070 20537 layer_factory.hpp:77] Creating layer conv14_2_mbox_conf_flat
I1101 20:58:28.940078 20537 net.cpp:100] Creating Layer conv14_2_mbox_conf_flat
I1101 20:58:28.940080 20537 net.cpp:481] conv14_2_mbox_conf_flat <- conv14_2_mbox_conf_perm
I1101 20:58:28.940084 20537 net.cpp:455] conv14_2_mbox_conf_flat -> conv14_2_mbox_conf_flat
I1101 20:58:28.940110 20537 net.cpp:150] Setting up conv14_2_mbox_conf_flat
I1101 20:58:28.940114 20537 net.cpp:157] Top shape: 8 3150 (25200)
I1101 20:58:28.940116 20537 net.cpp:165] Memory required for data: 1293120256
I1101 20:58:28.940119 20537 layer_factory.hpp:77] Creating layer conv14_2_mbox_priorbox
I1101 20:58:28.940127 20537 net.cpp:100] Creating Layer conv14_2_mbox_priorbox
I1101 20:58:28.940130 20537 net.cpp:481] conv14_2_mbox_priorbox <- conv14_2_conv14_2/relu_0_split_3
I1101 20:58:28.940135 20537 net.cpp:481] conv14_2_mbox_priorbox <- data_data_0_split_3
I1101 20:58:28.940141 20537 net.cpp:455] conv14_2_mbox_priorbox -> conv14_2_mbox_priorbox
I1101 20:58:28.940167 20537 net.cpp:150] Setting up conv14_2_mbox_priorbox
I1101 20:58:28.940171 20537 net.cpp:157] Top shape: 1 2 600 (1200)
I1101 20:58:28.940173 20537 net.cpp:165] Memory required for data: 1293125056
I1101 20:58:28.940176 20537 layer_factory.hpp:77] Creating layer conv15_2_mbox_loc
I1101 20:58:28.940187 20537 net.cpp:100] Creating Layer conv15_2_mbox_loc
I1101 20:58:28.940191 20537 net.cpp:481] conv15_2_mbox_loc <- conv15_2_conv15_2/relu_0_split_1
I1101 20:58:28.940196 20537 net.cpp:455] conv15_2_mbox_loc -> conv15_2_mbox_loc
I1101 20:58:28.943015 20537 net.cpp:150] Setting up conv15_2_mbox_loc
I1101 20:58:28.943027 20537 net.cpp:157] Top shape: 8 24 3 3 (1728)
I1101 20:58:28.943030 20537 net.cpp:165] Memory required for data: 1293131968
I1101 20:58:28.943051 20537 layer_factory.hpp:77] Creating layer conv15_2_mbox_loc_perm
I1101 20:58:28.943059 20537 net.cpp:100] Creating Layer conv15_2_mbox_loc_perm
I1101 20:58:28.943063 20537 net.cpp:481] conv15_2_mbox_loc_perm <- conv15_2_mbox_loc
I1101 20:58:28.943068 20537 net.cpp:455] conv15_2_mbox_loc_perm -> conv15_2_mbox_loc_perm
I1101 20:58:28.943203 20537 net.cpp:150] Setting up conv15_2_mbox_loc_perm
I1101 20:58:28.943209 20537 net.cpp:157] Top shape: 8 3 3 24 (1728)
I1101 20:58:28.943212 20537 net.cpp:165] Memory required for data: 1293138880
I1101 20:58:28.943213 20537 layer_factory.hpp:77] Creating layer conv15_2_mbox_loc_flat
I1101 20:58:28.943222 20537 net.cpp:100] Creating Layer conv15_2_mbox_loc_flat
I1101 20:58:28.943224 20537 net.cpp:481] conv15_2_mbox_loc_flat <- conv15_2_mbox_loc_perm
I1101 20:58:28.943228 20537 net.cpp:455] conv15_2_mbox_loc_flat -> conv15_2_mbox_loc_flat
I1101 20:58:28.943269 20537 net.cpp:150] Setting up conv15_2_mbox_loc_flat
I1101 20:58:28.943290 20537 net.cpp:157] Top shape: 8 216 (1728)
I1101 20:58:28.943292 20537 net.cpp:165] Memory required for data: 1293145792
I1101 20:58:28.943295 20537 layer_factory.hpp:77] Creating layer conv15_2_mbox_conf_new
I1101 20:58:28.943305 20537 net.cpp:100] Creating Layer conv15_2_mbox_conf_new
I1101 20:58:28.943308 20537 net.cpp:481] conv15_2_mbox_conf_new <- conv15_2_conv15_2/relu_0_split_2
I1101 20:58:28.943315 20537 net.cpp:455] conv15_2_mbox_conf_new -> conv15_2_mbox_conf
I1101 20:58:28.946383 20537 net.cpp:150] Setting up conv15_2_mbox_conf_new
I1101 20:58:28.946410 20537 net.cpp:157] Top shape: 8 126 3 3 (9072)
I1101 20:58:28.946413 20537 net.cpp:165] Memory required for data: 1293182080
I1101 20:58:28.946425 20537 layer_factory.hpp:77] Creating layer conv15_2_mbox_conf_perm
I1101 20:58:28.946434 20537 net.cpp:100] Creating Layer conv15_2_mbox_conf_perm
I1101 20:58:28.946436 20537 net.cpp:481] conv15_2_mbox_conf_perm <- conv15_2_mbox_conf
I1101 20:58:28.946444 20537 net.cpp:455] conv15_2_mbox_conf_perm -> conv15_2_mbox_conf_perm
I1101 20:58:28.946553 20537 net.cpp:150] Setting up conv15_2_mbox_conf_perm
I1101 20:58:28.946575 20537 net.cpp:157] Top shape: 8 3 3 126 (9072)
I1101 20:58:28.946578 20537 net.cpp:165] Memory required for data: 1293218368
I1101 20:58:28.946580 20537 layer_factory.hpp:77] Creating layer conv15_2_mbox_conf_flat
I1101 20:58:28.946585 20537 net.cpp:100] Creating Layer conv15_2_mbox_conf_flat
I1101 20:58:28.946588 20537 net.cpp:481] conv15_2_mbox_conf_flat <- conv15_2_mbox_conf_perm
I1101 20:58:28.946594 20537 net.cpp:455] conv15_2_mbox_conf_flat -> conv15_2_mbox_conf_flat
I1101 20:58:28.946621 20537 net.cpp:150] Setting up conv15_2_mbox_conf_flat
I1101 20:58:28.946625 20537 net.cpp:157] Top shape: 8 1134 (9072)
I1101 20:58:28.946627 20537 net.cpp:165] Memory required for data: 1293254656
I1101 20:58:28.946630 20537 layer_factory.hpp:77] Creating layer conv15_2_mbox_priorbox
I1101 20:58:28.946636 20537 net.cpp:100] Creating Layer conv15_2_mbox_priorbox
I1101 20:58:28.946640 20537 net.cpp:481] conv15_2_mbox_priorbox <- conv15_2_conv15_2/relu_0_split_3
I1101 20:58:28.946645 20537 net.cpp:481] conv15_2_mbox_priorbox <- data_data_0_split_4
I1101 20:58:28.946650 20537 net.cpp:455] conv15_2_mbox_priorbox -> conv15_2_mbox_priorbox
I1101 20:58:28.946696 20537 net.cpp:150] Setting up conv15_2_mbox_priorbox
I1101 20:58:28.946701 20537 net.cpp:157] Top shape: 1 2 216 (432)
I1101 20:58:28.946702 20537 net.cpp:165] Memory required for data: 1293256384
I1101 20:58:28.946704 20537 layer_factory.hpp:77] Creating layer conv16_2_mbox_loc
I1101 20:58:28.946730 20537 net.cpp:100] Creating Layer conv16_2_mbox_loc
I1101 20:58:28.946733 20537 net.cpp:481] conv16_2_mbox_loc <- conv16_2_conv16_2/relu_0_split_1
I1101 20:58:28.946753 20537 net.cpp:455] conv16_2_mbox_loc -> conv16_2_mbox_loc
I1101 20:58:28.949803 20537 net.cpp:150] Setting up conv16_2_mbox_loc
I1101 20:58:28.949816 20537 net.cpp:157] Top shape: 8 24 2 2 (768)
I1101 20:58:28.949820 20537 net.cpp:165] Memory required for data: 1293259456
I1101 20:58:28.949826 20537 layer_factory.hpp:77] Creating layer conv16_2_mbox_loc_perm
I1101 20:58:28.949833 20537 net.cpp:100] Creating Layer conv16_2_mbox_loc_perm
I1101 20:58:28.949837 20537 net.cpp:481] conv16_2_mbox_loc_perm <- conv16_2_mbox_loc
I1101 20:58:28.949842 20537 net.cpp:455] conv16_2_mbox_loc_perm -> conv16_2_mbox_loc_perm
I1101 20:58:28.949951 20537 net.cpp:150] Setting up conv16_2_mbox_loc_perm
I1101 20:58:28.949957 20537 net.cpp:157] Top shape: 8 2 2 24 (768)
I1101 20:58:28.949959 20537 net.cpp:165] Memory required for data: 1293262528
I1101 20:58:28.949962 20537 layer_factory.hpp:77] Creating layer conv16_2_mbox_loc_flat
I1101 20:58:28.949970 20537 net.cpp:100] Creating Layer conv16_2_mbox_loc_flat
I1101 20:58:28.949972 20537 net.cpp:481] conv16_2_mbox_loc_flat <- conv16_2_mbox_loc_perm
I1101 20:58:28.949978 20537 net.cpp:455] conv16_2_mbox_loc_flat -> conv16_2_mbox_loc_flat
I1101 20:58:28.950002 20537 net.cpp:150] Setting up conv16_2_mbox_loc_flat
I1101 20:58:28.950007 20537 net.cpp:157] Top shape: 8 96 (768)
I1101 20:58:28.950024 20537 net.cpp:165] Memory required for data: 1293265600
I1101 20:58:28.950027 20537 layer_factory.hpp:77] Creating layer conv16_2_mbox_conf_new
I1101 20:58:28.950038 20537 net.cpp:100] Creating Layer conv16_2_mbox_conf_new
I1101 20:58:28.950042 20537 net.cpp:481] conv16_2_mbox_conf_new <- conv16_2_conv16_2/relu_0_split_2
I1101 20:58:28.950047 20537 net.cpp:455] conv16_2_mbox_conf_new -> conv16_2_mbox_conf
I1101 20:58:28.953228 20537 net.cpp:150] Setting up conv16_2_mbox_conf_new
I1101 20:58:28.953241 20537 net.cpp:157] Top shape: 8 126 2 2 (4032)
I1101 20:58:28.953256 20537 net.cpp:165] Memory required for data: 1293281728
I1101 20:58:28.953264 20537 layer_factory.hpp:77] Creating layer conv16_2_mbox_conf_perm
I1101 20:58:28.953271 20537 net.cpp:100] Creating Layer conv16_2_mbox_conf_perm
I1101 20:58:28.953274 20537 net.cpp:481] conv16_2_mbox_conf_perm <- conv16_2_mbox_conf
I1101 20:58:28.953282 20537 net.cpp:455] conv16_2_mbox_conf_perm -> conv16_2_mbox_conf_perm
I1101 20:58:28.953472 20537 net.cpp:150] Setting up conv16_2_mbox_conf_perm
I1101 20:58:28.953495 20537 net.cpp:157] Top shape: 8 2 2 126 (4032)
I1101 20:58:28.953496 20537 net.cpp:165] Memory required for data: 1293297856
I1101 20:58:28.953500 20537 layer_factory.hpp:77] Creating layer conv16_2_mbox_conf_flat
I1101 20:58:28.953505 20537 net.cpp:100] Creating Layer conv16_2_mbox_conf_flat
I1101 20:58:28.953508 20537 net.cpp:481] conv16_2_mbox_conf_flat <- conv16_2_mbox_conf_perm
I1101 20:58:28.953514 20537 net.cpp:455] conv16_2_mbox_conf_flat -> conv16_2_mbox_conf_flat
I1101 20:58:28.953542 20537 net.cpp:150] Setting up conv16_2_mbox_conf_flat
I1101 20:58:28.953547 20537 net.cpp:157] Top shape: 8 504 (4032)
I1101 20:58:28.953548 20537 net.cpp:165] Memory required for data: 1293313984
I1101 20:58:28.953550 20537 layer_factory.hpp:77] Creating layer conv16_2_mbox_priorbox
I1101 20:58:28.953557 20537 net.cpp:100] Creating Layer conv16_2_mbox_priorbox
I1101 20:58:29.049553 20537 net.cpp:481] conv16_2_mbox_priorbox <- conv16_2_conv16_2/relu_0_split_3
I1101 20:58:29.049582 20537 net.cpp:481] conv16_2_mbox_priorbox <- data_data_0_split_5
I1101 20:58:29.049590 20537 net.cpp:455] conv16_2_mbox_priorbox -> conv16_2_mbox_priorbox
I1101 20:58:29.049643 20537 net.cpp:150] Setting up conv16_2_mbox_priorbox
I1101 20:58:29.049649 20537 net.cpp:157] Top shape: 1 2 96 (192)
I1101 20:58:29.049651 20537 net.cpp:165] Memory required for data: 1293314752
I1101 20:58:29.049654 20537 layer_factory.hpp:77] Creating layer conv17_2_mbox_loc
I1101 20:58:29.049666 20537 net.cpp:100] Creating Layer conv17_2_mbox_loc
I1101 20:58:29.049669 20537 net.cpp:481] conv17_2_mbox_loc <- conv17_2_conv17_2/relu_0_split_0
I1101 20:58:29.049684 20537 net.cpp:455] conv17_2_mbox_loc -> conv17_2_mbox_loc
I1101 20:58:29.052800 20537 net.cpp:150] Setting up conv17_2_mbox_loc
I1101 20:58:29.052814 20537 net.cpp:157] Top shape: 8 24 1 1 (192)
I1101 20:58:29.052816 20537 net.cpp:165] Memory required for data: 1293315520
I1101 20:58:29.052824 20537 layer_factory.hpp:77] Creating layer conv17_2_mbox_loc_perm
I1101 20:58:29.052831 20537 net.cpp:100] Creating Layer conv17_2_mbox_loc_perm
I1101 20:58:29.052835 20537 net.cpp:481] conv17_2_mbox_loc_perm <- conv17_2_mbox_loc
I1101 20:58:29.052842 20537 net.cpp:455] conv17_2_mbox_loc_perm -> conv17_2_mbox_loc_perm
I1101 20:58:29.052968 20537 net.cpp:150] Setting up conv17_2_mbox_loc_perm
I1101 20:58:29.052978 20537 net.cpp:157] Top shape: 8 1 1 24 (192)
I1101 20:58:29.052979 20537 net.cpp:165] Memory required for data: 1293316288
I1101 20:58:29.052981 20537 layer_factory.hpp:77] Creating layer conv17_2_mbox_loc_flat
I1101 20:58:29.052987 20537 net.cpp:100] Creating Layer conv17_2_mbox_loc_flat
I1101 20:58:29.052990 20537 net.cpp:481] conv17_2_mbox_loc_flat <- conv17_2_mbox_loc_perm
I1101 20:58:29.052995 20537 net.cpp:455] conv17_2_mbox_loc_flat -> conv17_2_mbox_loc_flat
I1101 20:58:29.053035 20537 net.cpp:150] Setting up conv17_2_mbox_loc_flat
I1101 20:58:29.053040 20537 net.cpp:157] Top shape: 8 24 (192)
I1101 20:58:29.053042 20537 net.cpp:165] Memory required for data: 1293317056
I1101 20:58:29.053045 20537 layer_factory.hpp:77] Creating layer conv17_2_mbox_conf_new
I1101 20:58:29.053055 20537 net.cpp:100] Creating Layer conv17_2_mbox_conf_new
I1101 20:58:29.053057 20537 net.cpp:481] conv17_2_mbox_conf_new <- conv17_2_conv17_2/relu_0_split_1
I1101 20:58:29.053063 20537 net.cpp:455] conv17_2_mbox_conf_new -> conv17_2_mbox_conf
I1101 20:58:29.055968 20537 net.cpp:150] Setting up conv17_2_mbox_conf_new
I1101 20:58:29.055981 20537 net.cpp:157] Top shape: 8 126 1 1 (1008)
I1101 20:58:29.055984 20537 net.cpp:165] Memory required for data: 1293321088
I1101 20:58:29.056002 20537 layer_factory.hpp:77] Creating layer conv17_2_mbox_conf_perm
I1101 20:58:29.056011 20537 net.cpp:100] Creating Layer conv17_2_mbox_conf_perm
I1101 20:58:29.056015 20537 net.cpp:481] conv17_2_mbox_conf_perm <- conv17_2_mbox_conf
I1101 20:58:29.056020 20537 net.cpp:455] conv17_2_mbox_conf_perm -> conv17_2_mbox_conf_perm
I1101 20:58:29.056130 20537 net.cpp:150] Setting up conv17_2_mbox_conf_perm
I1101 20:58:29.056136 20537 net.cpp:157] Top shape: 8 1 1 126 (1008)
I1101 20:58:29.056138 20537 net.cpp:165] Memory required for data: 1293325120
I1101 20:58:29.056140 20537 layer_factory.hpp:77] Creating layer conv17_2_mbox_conf_flat
I1101 20:58:29.056147 20537 net.cpp:100] Creating Layer conv17_2_mbox_conf_flat
I1101 20:58:29.056150 20537 net.cpp:481] conv17_2_mbox_conf_flat <- conv17_2_mbox_conf_perm
I1101 20:58:29.056154 20537 net.cpp:455] conv17_2_mbox_conf_flat -> conv17_2_mbox_conf_flat
I1101 20:58:29.056181 20537 net.cpp:150] Setting up conv17_2_mbox_conf_flat
I1101 20:58:29.056185 20537 net.cpp:157] Top shape: 8 126 (1008)
I1101 20:58:29.056187 20537 net.cpp:165] Memory required for data: 1293329152
I1101 20:58:29.056190 20537 layer_factory.hpp:77] Creating layer conv17_2_mbox_priorbox
I1101 20:58:29.056197 20537 net.cpp:100] Creating Layer conv17_2_mbox_priorbox
I1101 20:58:29.056200 20537 net.cpp:481] conv17_2_mbox_priorbox <- conv17_2_conv17_2/relu_0_split_2
I1101 20:58:29.056203 20537 net.cpp:481] conv17_2_mbox_priorbox <- data_data_0_split_6
I1101 20:58:29.056208 20537 net.cpp:455] conv17_2_mbox_priorbox -> conv17_2_mbox_priorbox
I1101 20:58:29.056236 20537 net.cpp:150] Setting up conv17_2_mbox_priorbox
I1101 20:58:29.056241 20537 net.cpp:157] Top shape: 1 2 24 (48)
I1101 20:58:29.056242 20537 net.cpp:165] Memory required for data: 1293329344
I1101 20:58:29.056244 20537 layer_factory.hpp:77] Creating layer mbox_loc
I1101 20:58:29.056270 20537 net.cpp:100] Creating Layer mbox_loc
I1101 20:58:29.056273 20537 net.cpp:481] mbox_loc <- conv11_mbox_loc_flat
I1101 20:58:29.056277 20537 net.cpp:481] mbox_loc <- conv13_mbox_loc_flat
I1101 20:58:29.056280 20537 net.cpp:481] mbox_loc <- conv14_2_mbox_loc_flat
I1101 20:58:29.056283 20537 net.cpp:481] mbox_loc <- conv15_2_mbox_loc_flat
I1101 20:58:29.056287 20537 net.cpp:481] mbox_loc <- conv16_2_mbox_loc_flat
I1101 20:58:29.056304 20537 net.cpp:481] mbox_loc <- conv17_2_mbox_loc_flat
I1101 20:58:29.056308 20537 net.cpp:455] mbox_loc -> mbox_loc
I1101 20:58:29.056351 20537 net.cpp:150] Setting up mbox_loc
I1101 20:58:29.056356 20537 net.cpp:157] Top shape: 8 7668 (61344)
I1101 20:58:29.056357 20537 net.cpp:165] Memory required for data: 1293574720
I1101 20:58:29.056360 20537 layer_factory.hpp:77] Creating layer mbox_conf
I1101 20:58:29.056381 20537 net.cpp:100] Creating Layer mbox_conf
I1101 20:58:29.056385 20537 net.cpp:481] mbox_conf <- conv11_mbox_conf_flat
I1101 20:58:29.056387 20537 net.cpp:481] mbox_conf <- conv13_mbox_conf_flat
I1101 20:58:29.056391 20537 net.cpp:481] mbox_conf <- conv14_2_mbox_conf_flat
I1101 20:58:29.056394 20537 net.cpp:481] mbox_conf <- conv15_2_mbox_conf_flat
I1101 20:58:29.056397 20537 net.cpp:481] mbox_conf <- conv16_2_mbox_conf_flat
I1101 20:58:29.056401 20537 net.cpp:481] mbox_conf <- conv17_2_mbox_conf_flat
I1101 20:58:29.056406 20537 net.cpp:455] mbox_conf -> mbox_conf
I1101 20:58:29.056428 20537 net.cpp:150] Setting up mbox_conf
I1101 20:58:29.056433 20537 net.cpp:157] Top shape: 8 40257 (322056)
I1101 20:58:29.056435 20537 net.cpp:165] Memory required for data: 1294862944
I1101 20:58:29.056437 20537 layer_factory.hpp:77] Creating layer mbox_priorbox
I1101 20:58:29.056458 20537 net.cpp:100] Creating Layer mbox_priorbox
I1101 20:58:29.056462 20537 net.cpp:481] mbox_priorbox <- conv11_mbox_priorbox
I1101 20:58:29.056465 20537 net.cpp:481] mbox_priorbox <- conv13_mbox_priorbox
I1101 20:58:29.056468 20537 net.cpp:481] mbox_priorbox <- conv14_2_mbox_priorbox
I1101 20:58:29.056471 20537 net.cpp:481] mbox_priorbox <- conv15_2_mbox_priorbox
I1101 20:58:29.056473 20537 net.cpp:481] mbox_priorbox <- conv16_2_mbox_priorbox
I1101 20:58:29.056494 20537 net.cpp:481] mbox_priorbox <- conv17_2_mbox_priorbox
I1101 20:58:29.056502 20537 net.cpp:455] mbox_priorbox -> mbox_priorbox
I1101 20:58:29.056556 20537 net.cpp:150] Setting up mbox_priorbox
I1101 20:58:29.056562 20537 net.cpp:157] Top shape: 1 2 7668 (15336)
I1101 20:58:29.056565 20537 net.cpp:165] Memory required for data: 1294924288
I1101 20:58:29.056582 20537 layer_factory.hpp:77] Creating layer mbox_conf_reshape
I1101 20:58:29.056591 20537 net.cpp:100] Creating Layer mbox_conf_reshape
I1101 20:58:29.056592 20537 net.cpp:481] mbox_conf_reshape <- mbox_conf
I1101 20:58:29.056598 20537 net.cpp:455] mbox_conf_reshape -> mbox_conf_reshape
I1101 20:58:29.056645 20537 net.cpp:150] Setting up mbox_conf_reshape
I1101 20:58:29.056650 20537 net.cpp:157] Top shape: 8 1917 21 (322056)
I1101 20:58:29.056653 20537 net.cpp:165] Memory required for data: 1296212512
I1101 20:58:29.056654 20537 layer_factory.hpp:77] Creating layer mbox_conf_softmax
I1101 20:58:29.056663 20537 net.cpp:100] Creating Layer mbox_conf_softmax
I1101 20:58:29.056665 20537 net.cpp:481] mbox_conf_softmax <- mbox_conf_reshape
I1101 20:58:29.056669 20537 net.cpp:455] mbox_conf_softmax -> mbox_conf_softmax
I1101 20:58:29.057056 20537 net.cpp:150] Setting up mbox_conf_softmax
I1101 20:58:29.057066 20537 net.cpp:157] Top shape: 8 1917 21 (322056)
I1101 20:58:29.057068 20537 net.cpp:165] Memory required for data: 1297500736
I1101 20:58:29.057071 20537 layer_factory.hpp:77] Creating layer mbox_conf_flatten
I1101 20:58:29.057095 20537 net.cpp:100] Creating Layer mbox_conf_flatten
I1101 20:58:29.057097 20537 net.cpp:481] mbox_conf_flatten <- mbox_conf_softmax
I1101 20:58:29.057102 20537 net.cpp:455] mbox_conf_flatten -> mbox_conf_flatten
I1101 20:58:29.057148 20537 net.cpp:150] Setting up mbox_conf_flatten
I1101 20:58:29.057153 20537 net.cpp:157] Top shape: 8 40257 (322056)
I1101 20:58:29.057155 20537 net.cpp:165] Memory required for data: 1298788960
I1101 20:58:29.057158 20537 layer_factory.hpp:77] Creating layer detection_out
I1101 20:58:29.057195 20537 net.cpp:100] Creating Layer detection_out
I1101 20:58:29.057199 20537 net.cpp:481] detection_out <- mbox_loc
I1101 20:58:29.057202 20537 net.cpp:481] detection_out <- mbox_conf_flatten
I1101 20:58:29.057205 20537 net.cpp:481] detection_out <- mbox_priorbox
I1101 20:58:29.057211 20537 net.cpp:455] detection_out -> detection_out
I1101 20:58:29.057304 20537 net.cpp:150] Setting up detection_out
I1101 20:58:29.057309 20537 net.cpp:157] Top shape: 1 1 1 7 (7)
I1101 20:58:29.057328 20537 net.cpp:165] Memory required for data: 1298788988
I1101 20:58:29.057332 20537 layer_factory.hpp:77] Creating layer detection_eval
I1101 20:58:29.057354 20537 net.cpp:100] Creating Layer detection_eval
I1101 20:58:29.057358 20537 net.cpp:481] detection_eval <- detection_out
I1101 20:58:29.057361 20537 net.cpp:481] detection_eval <- label
I1101 20:58:29.057365 20537 net.cpp:455] detection_eval -> detection_eval
I1101 20:58:29.057430 20537 net.cpp:150] Setting up detection_eval
I1101 20:58:29.057435 20537 net.cpp:157] Top shape: 1 1 21 5 (105)
I1101 20:58:29.057436 20537 net.cpp:165] Memory required for data: 1298789408
I1101 20:58:29.057440 20537 net.cpp:228] detection_eval does not need backward computation.
I1101 20:58:29.057442 20537 net.cpp:228] detection_out does not need backward computation.
I1101 20:58:29.057446 20537 net.cpp:228] mbox_conf_flatten does not need backward computation.
I1101 20:58:29.057464 20537 net.cpp:228] mbox_conf_softmax does not need backward computation.
…
