…
layer {
  name: "data"
  type: "AnnotatedData"
  top: "data"
  top: "label"
  include {
    phase: TEST
  }
  transform_param {
    scale: 0.007843
    mean_value: 127.5
    mean_value: 127.5
    mean_value: 127.5
    resize_param {
      prob: 1
      resize_mode: WARP
      height: 300
      width: 300
      interp_mode: LINEAR
    }
  }
  data_param {
    source: "examples/VOC0712/VOC0712_test_lmdb"
    batch_size: 8
    backend: LMDB
  }
  annotated_data_param {
    batch_sampler {
    }
    label_map_file: "data/VOC0712/labelmap_voc.prototxt"
  }
}
layer {
  name: "conv0"
  type: "Convolution"
  bottom: "data"
  top: "conv0"
  param {
    lr_mult: 1
    decay_mult: 1
  }
  include {
    phase: TEST
  }
  convolution_param {
    num_output: 32
    bias_term: false
    pad: 1
    kernel_size: 3
    stride: 2
    weight_filler {
      type: "msra"
    }
  }
}
layer {
  name: "conv0/bn"
  type: "BatchNorm"
  bottom: "conv0"
  top: "conv0"
}
layer {
  name: "conv0/scale"
  type: "Scale"
  bottom: "conv0"
  top: "conv0"
  param {
    lr_mult: 1
    decay_mult: 0
  }
  param {
    lr_mult: 2
    decay_mult: 0
  }
  include {
    phase: TEST
  }
  scale_param {
    filler {
      value: 1
    }
    bias_term: true
    bias_filler {
      value: 0
    }
  }
}
layer {
  name: "conv0/relu"
  type: "ReLU"
  bottom: "conv0"
  top: "conv0"
}
layer {
  name: "conv1/dw"
  type: "Convolution"
  bottom: "conv0"
  top: "conv1/dw"
  param {
    lr_mult: 1
    decay_mult: 1
  }
  include {
    phase: TEST
  }
  convolution_param {
    num_output: 32
    bias_term: false
    pad: 1
    kernel_size: 3
    group: 32
    weight_filler {
      type: "msra"
    }
    engine: CAFFE
  }
}
layer {
  name: "conv1/dw/bn"
  type: "BatchNorm"
  bottom: "conv1/dw"
  top: "conv1/dw"
}
layer {
  name: "conv1/dw/scale"
  type: "Scale"
  bottom: "conv1/dw"
  top: "conv1/dw"
  param {
    lr_mult: 1
    decay_mult: 0
  }
  param {
    lr_mult: 2
    decay_mult: 0
  }
  include {
    phase: TEST
  }
  scale_param {
    filler {
      value: 1
    }
    bias_term: true
    bias_filler {
      value: 0
    }
  }
}
layer {
  name: "conv1/dw/relu"
  type: "ReLU"
  bottom: "conv1/dw"
  top: "conv1/dw"
}
layer {
  name: "conv1"
  type: "Convolution"
  bottom: "conv1/dw"
  top: "conv1"
  param {
    lr_mult: 1
    decay_mult: 1
  }
  include {
    phase: TEST
  }
  convolution_param {
    num_output: 64
    bias_term: false
    kernel_size: 1
    weight_filler {
      type: "msra"
    }
  }
}
layer {
  name: "conv1/bn"
  type: "BatchNorm"
  bottom: "conv1"
  top: "conv1"
}
layer {
  name: "conv1/scale"
  type: "Scale"
  bottom: "conv1"
  top: "conv1"
  param {
    lr_mult: 1
    decay_mult: 0
  }
  param {
    lr_mult: 2
    decay_mult: 0
  }
  include {
    phase: TEST
  }
  scale_param {
    filler {
      value: 1
    }
    bias_term: true
    bias_filler {
      value: 0
    }
  }
}
layer {
  name: "conv1/relu"
  type: "ReLU"
  bottom: "conv1"
  top: "conv1"
}
layer {
  name: "conv2/dw"
  type: "Convolution"
  bottom: "conv1"
  top: "conv2/dw"
  param {
    lr_mult: 1
    decay_mult: 1
  }
  include {
    phase: TEST
  }
  convolution_param {
    num_output: 64
    bias_term: false
    pad: 1
    kernel_size: 3
    group: 64
    stride: 2
    weight_filler {
      type: "msra"
    }
    engine: CAFFE
  }
}
layer {
  name: "conv2/dw/bn"
  type: "BatchNorm"
  bottom: "conv2/dw"
  top: "conv2/dw"
}
layer {
  name: "conv2/dw/scale"
  type: "Scale"
  bottom: "conv2/dw"
  top: "conv2/dw"
  param {
    lr_mult: 1
    decay_mult: 0
  }
  param {
    lr_mult: 2
    decay_mult: 0
  }
  include {
    phase: TEST
  }
  scale_param {
    filler {
      value: 1
    }
    bias_term: true
    bias_filler {
      value: 0
    }
  }
}
layer {
  name: "conv2/dw/relu"
  type: "ReLU"
  bottom: "conv2/dw"
  top: "conv2/dw"
}
layer {
  name: "conv2"
  type: "Convolution"
  bottom: "conv2/dw"
  top: "conv2"
  param {
    lr_mult: 1
    decay_mult: 1
  }
  include {
    phase: TEST
  }
  convolution_param {
    num_output: 128
    bias_term: false
    kernel_size: 1
    weight_filler {
      type: "msra"
    }
  }
}
layer {
  name: "conv2/bn"
  type: "BatchNorm"
  bottom: "conv2"
  top: "conv2"
}
layer {
  name: "conv2/scale"
  type: "Scale"
  bottom: "conv2"
  top: "conv2"
  param {
    lr_mult: 1
    decay_mult: 0
  }
  param {
    lr_mult: 2
    decay_mult: 0
  }
  include {
    phase: TEST
  }
  scale_param {
    filler {
      value: 1
    }
    bias_term: true
    bias_filler {
      value: 0
    }
  }
}
layer {
  name: "conv2/relu"
  type: "ReLU"
  bottom: "conv2"
  top: "conv2"
}
layer {
  name: "conv3/dw"
  type: "Convolution"
  bottom: "conv2"
  top: "conv3/dw"
  param {
    lr_mult: 1
    decay_mult: 1
  }
  include {
    phase: TEST
  }
  convolution_param {
    num_output: 128
    bias_term: false
    pad: 1
    kernel_size: 3
    group: 128
    weight_filler {
      type: "msra"
    }
    engine: CAFFE
  }
}
layer {
  name: "conv3/dw/bn"
  type: "BatchNorm"
  bottom: "conv3/dw"
  top: "conv3/dw"
}
layer {
  name: "conv3/dw/scale"
  type: "Scale"
  bottom: "conv3/dw"
  top: "conv3/dw"
  param {
    lr_mult: 1
    decay_mult: 0
  }
  param {
    lr_mult: 2
    decay_mult: 0
  }
  include {
    phase: TEST
  }
  scale_param {
    filler {
      value: 1
    }
    bias_term: true
    bias_filler {
      value: 0
    }
  }
}
layer {
  name: "conv3/dw/relu"
  type: "ReLU"
  bottom: "conv3/dw"
  top: "conv3/dw"
}
layer {
  name: "conv3"
  type: "Convolution"
  bottom: "conv3/dw"
  top: "conv3"
  param {
    lr_mult: 1
    decay_mult: 1
  }
  include {
    phase: TEST
  }
  convolution_param {
    num_output: 128
    bias_term: false
    kernel_size: 1
    weight_filler {
      type: "msra"
    }
  }
}
layer {
  name: "conv3/bn"
  type: "BatchNorm"
  bottom: "conv3"
  top: "conv3"
}
layer {
  name: "conv3/scale"
  type: "Scale"
  bottom: "conv3"
  top: "conv3"
  param {
    lr_mult: 1
    decay_mult: 0
  }
  param {
    lr_mult: 2
    decay_mult: 0
  }
  include {
    phase: TEST
  }
  scale_param {
    filler {
      value: 1
    }
    bias_term: true
    bias_filler {
      value: 0
    }
  }
}
layer {
  name: "conv3/relu"
  type: "ReLU"
  bottom: "conv3"
  top: "conv3"
}
layer {
  name: "conv4/dw"
  type: "Convolution"
  bottom: "conv3"
  top: "conv4/dw"
  param {
    lr_mult: 1
    decay_mult: 1
  }
  include {
    phase: TEST
  }
  convolution_param {
    num_output: 128
    bias_term: false
    pad: 1
    kernel_size: 3
    group: 128
    stride: 2
    weight_filler {
      type: "msra"
    }
    engine: CAFFE
  }
}
layer {
  name: "conv4/dw/bn"
  type: "BatchNorm"
  bottom: "conv4/dw"
  top: "conv4/dw"
}
layer {
  name: "conv4/dw/scale"
  type: "Scale"
  bottom: "conv4/dw"
  top: "conv4/dw"
  param {
    lr_mult: 1
    decay_mult: 0
  }
  param {
    lr_mult: 2
    decay_mult: 0
  }
  include {
    phase: TEST
  }
  scale_param {
    filler {
      value: 1
    }
    bias_term: true
    bias_filler {
      value: 0
    }
  }
}
layer {
  name: "conv4/dw/relu"
  type: "ReLU"
  bottom: "conv4/dw"
  top: "conv4/dw"
}
layer {
  name: "conv4"
  type: "Convolution"
  bottom: "conv4/dw"
  top: "conv4"
  param {
    lr_mult: 1
    decay_mult: 1
  }
  include {
    phase: TEST
  }
  convolution_param {
    num_output: 256
    bias_term: false
    kernel_size: 1
    weight_filler {
      type: "msra"
    }
  }
}
layer {
  name: "conv4/bn"
  type: "BatchNorm"
  bottom: "conv4"
  top: "conv4"
}
layer {
  name: "conv4/scale"
  type: "Scale"
  bottom: "conv4"
  top: "conv4"
  param {
    lr_mult: 1
    decay_mult: 0
  }
  param {
    lr_mult: 2
    decay_mult: 0
  }
  include {
    phase: TEST
  }
  scale_param {
    filler {
      value: 1
    }
    bias_term: true
    bias_filler {
      value: 0
    }
  }
}
layer {
  name: "conv4/relu"
  type: "ReLU"
  bottom: "conv4"
  top: "conv4"
}
layer {
  name: "conv5/dw"
  type: "Convolution"
  bottom: "conv4"
  top: "conv5/dw"
  param {
    lr_mult: 1
    decay_mult: 1
  }
  include {
    phase: TEST
  }
  convolution_param {
    num_output: 256
    bias_term: false
    pad: 1
    kernel_size: 3
    group: 256
    weight_filler {
      type: "msra"
    }
    engine: CAFFE
  }
}
layer {
  name: "conv5/dw/bn"
  type: "BatchNorm"
  bottom: "conv5/dw"
  top: "conv5/dw"
}
layer {
  name: "conv5/dw/scale"
  type: "Scale"
  bottom: "conv5/dw"
  top: "conv5/dw"
  param {
    lr_mult: 1
    decay_mult: 0
  }
  param {
    lr_mult: 2
    decay_mult: 0
  }
  include {
    phase: TEST
  }
  scale_param {
    filler {
      value: 1
    }
    bias_term: true
    bias_filler {
      value: 0
    }
  }
}
layer {
  name: "conv5/dw/relu"
  type: "ReLU"
  bottom: "conv5/dw"
  top: "conv5/dw"
}
layer {
  name: "conv5"
  type: "Convolution"
  bottom: "conv5/dw"
  top: "conv5"
  param {
    lr_mult: 1
    decay_mult: 1
  }
  include {
    phase: TEST
  }
  convolution_param {
    num_output: 256
    bias_term: false
    kernel_size: 1
    weight_filler {
      type: "msra"
    }
  }
}
layer {
  name: "conv5/bn"
  type: "BatchNorm"
  bottom: "conv5"
  top: "conv5"
}
layer {
  name: "conv5/scale"
  type: "Scale"
  bottom: "conv5"
  top: "conv5"
  param {
    lr_mult: 1
    decay_mult: 0
  }
  param {
    lr_mult: 2
    decay_mult: 0
  }
  include {
    phase: TEST
  }
  scale_param {
    filler {
      value: 1
    }
    bias_term: true
    bias_filler {
      value: 0
    }
  }
}
layer {
  name: "conv5/relu"
  type: "ReLU"
  bottom: "conv5"
  top: "conv5"
}
layer {
  name: "conv6/dw"
  type: "Convolution"
  bottom: "conv5"
  top: "conv6/dw"
  param {
    lr_mult: 1
    decay_mult: 1
  }
  include {
    phase: TEST
  }
  convolution_param {
    num_output: 256
    bias_term: false
    pad: 1
    kernel_size: 3
    group: 256
    stride: 2
    weight_filler {
      type: "msra"
    }
    engine: CAFFE
  }
}
layer {
  name: "conv6/dw/bn"
  type: "BatchNorm"
  bottom: "conv6/dw"
  top: "conv6/dw"
}
layer {
  name: "conv6/dw/scale"
  type: "Scale"
  bottom: "conv6/dw"
  top: "conv6/dw"
  param {
    lr_mult: 1
    decay_mult: 0
  }
  param {
    lr_mult: 2
    decay_mult: 0
  }
  include {
    phase: TEST
  }
  scale_param {
    filler {
      value: 1
    }
    bias_term: true
    bias_filler {
      value: 0
    }
  }
}
layer {
  name: "conv6/dw/relu"
  type: "ReLU"
  bottom: "conv6/dw"
  top: "conv6/dw"
}
layer {
  name: "conv6"
  type: "Convolution"
  bottom: "conv6/dw"
  top: "conv6"
  param {
    lr_mult: 1
    decay_mult: 1
  }
  include {
    phase: TEST
  }
  convolution_param {
    num_output: 512
    bias_term: false
    kernel_size: 1
    weight_filler {
      type: "msra"
    }
  }
}
layer {
  name: "conv6/bn"
  type: "BatchNorm"
  bottom: "conv6"
  top: "conv6"
}
layer {
  name: "conv6/scale"
  type: "Scale"
  bottom: "conv6"
  top: "conv6"
  param {
    lr_mult: 1
    decay_mult: 0
  }
  param {
    lr_mult: 2
    decay_mult: 0
  }
  include {
    phase: TEST
  }
  scale_param {
    filler {
      value: 1
    }
    bias_term: true
    bias_filler {
      value: 0
    }
  }
}
layer {
  name: "conv6/relu"
  type: "ReLU"
  bottom: "conv6"
  top: "conv6"
}
layer {
  name: "conv7/dw"
  type: "Convolution"
  bottom: "conv6"
  top: "conv7/dw"
  param {
    lr_mult: 1
    decay_mult: 1
  }
  include {
    phase: TEST
  }
  convolution_param {
    num_output: 512
    bias_term: false
    pad: 1
    kernel_size: 3
    group: 512
    weight_filler {
      type: "msra"
    }
    engine: CAFFE
  }
}
layer {
  name: "conv7/dw/bn"
  type: "BatchNorm"
  bottom: "conv7/dw"
  top: "conv7/dw"
}
layer {
  name: "conv7/dw/scale"
  type: "Scale"
  bottom: "conv7/dw"
  top: "conv7/dw"
  param {
    lr_mult: 1
    decay_mult: 0
  }
  param {
    lr_mult: 2
    decay_mult: 0
  }
  include {
    phase: TEST
  }
  scale_param {
    filler {
      value: 1
    }
    bias_term: true
    bias_filler {
      value: 0
    }
  }
}
layer {
  name: "conv7/dw/relu"
  type: "ReLU"
  bottom: "conv7/dw"
  top: "conv7/dw"
}
layer {
  name: "conv7"
  type: "Convolution"
  bottom: "conv7/dw"
  top: "conv7"
  param {
    lr_mult: 1
    decay_mult: 1
  }
  include {
    phase: TEST
  }
  convolution_param {
    num_output: 512
    bias_term: false
    kernel_size: 1
    weight_filler {
      type: "msra"
    }
  }
}
layer {
  name: "conv7/bn"
  type: "BatchNorm"
  bottom: "conv7"
  top: "conv7"
}
layer {
  name: "conv7/scale"
  type: "Scale"
  bottom: "conv7"
  top: "conv7"
  param {
    lr_mult: 1
    decay_mult: 0
  }
  param {
    lr_mult: 2
    decay_mult: 0
  }
  include {
    phase: TEST
  }
  scale_param {
    filler {
      value: 1
    }
    bias_term: true
    bias_filler {
      value: 0
    }
  }
}
layer {
  name: "conv7/relu"
  type: "ReLU"
  bottom: "conv7"
  top: "conv7"
}
layer {
  name: "conv8/dw"
  type: "Convolution"
  bottom: "conv7"
  top: "conv8/dw"
  param {
    lr_mult: 1
    decay_mult: 1
  }
  include {
    phase: TEST
  }
  convolution_param {
    num_output: 512
    bias_term: false
    pad: 1
    kernel_size: 3
    group: 512
    weight_filler {
      type: "msra"
    }
    engine: CAFFE
  }
}
layer {
  name: "conv8/dw/bn"
  type: "BatchNorm"
  bottom: "conv8/dw"
  top: "conv8/dw"
}
layer {
  name: "conv8/dw/scale"
  type: "Scale"
  bottom: "conv8/dw"
  top: "conv8/dw"
  param {
    lr_mult: 1
    decay_mult: 0
  }
  param {
    lr_mult: 2
    decay_mult: 0
  }
  include {
    phase: TEST
  }
  scale_param {
    filler {
      value: 1
    }
    bias_term: true
    bias_filler {
      value: 0
    }
  }
}
layer {
  name: "conv8/dw/relu"
  type: "ReLU"
  bottom: "conv8/dw"
  top: "conv8/dw"
}
layer {
  name: "conv8"
  type: "Convolution"
  bottom: "conv8/dw"
  top: "conv8"
  param {
    lr_mult: 1
    decay_mult: 1
  }
  include {
    phase: TEST
  }
  convolution_param {
    num_output: 512
    bias_term: false
    kernel_size: 1
    weight_filler {
      type: "msra"
    }
  }
}
layer {
  name: "conv8/bn"
  type: "BatchNorm"
  bottom: "conv8"
  top: "conv8"
}
layer {
  name: "conv8/scale"
  type: "Scale"
  bottom: "conv8"
  top: "conv8"
  param {
    lr_mult: 1
    decay_mult: 0
  }
  param {
    lr_mult: 2
    decay_mult: 0
  }
  include {
    phase: TEST
  }
  scale_param {
    filler {
      value: 1
    }
    bias_term: true
    bias_filler {
      value: 0
    }
  }
}
layer {
  name: "conv8/relu"
  type: "ReLU"
  bottom: "conv8"
  top: "conv8"
}
layer {
  name: "conv9/dw"
  type: "Convolution"
  bottom: "conv8"
  top: "conv9/dw"
  param {
    lr_mult: 1
    decay_mult: 1
  }
  include {
    phase: TEST
  }
  convolution_param {
    num_output: 512
    bias_term: false
    pad: 1
    kernel_size: 3
    group: 512
    weight_filler {
      type: "msra"
    }
    engine: CAFFE
  }
}
layer {
  name: "conv9/dw/bn"
  type: "BatchNorm"
  bottom: "conv9/dw"
  top: "conv9/dw"
}
layer {
  name: "conv9/dw/scale"
  type: "Scale"
  bottom: "conv9/dw"
  top: "conv9/dw"
  param {
    lr_mult: 1
    decay_mult: 0
  }
  param {
    lr_mult: 2
    decay_mult: 0
  }
  include {
    phase: TEST
  }
  scale_param {
    filler {
      value: 1
    }
    bias_term: true
    bias_filler {
      value: 0
    }
  }
}
layer {
  name: "conv9/dw/relu"
  type: "ReLU"
  bottom: "conv9/dw"
  top: "conv9/dw"
}
layer {
  name: "conv9"
  type: "Convolution"
  bottom: "conv9/dw"
  top: "conv9"
  param {
    lr_mult: 1
    decay_mult: 1
  }
  include {
    phase: TEST
  }
  convolution_param {
    num_output: 512
    bias_term: false
    kernel_size: 1
    weight_filler {
      type: "msra"
    }
  }
}
layer {
  name: "conv9/bn"
  type: "BatchNorm"
  bottom: "conv9"
  top: "conv9"
}
layer {
  name: "conv9/scale"
  type: "Scale"
  bottom: "conv9"
  top: "conv9"
  param {
    lr_mult: 1
    decay_mult: 0
  }
  param {
    lr_mult: 2
    decay_mult: 0
  }
  include {
    phase: TEST
  }
  scale_param {
    filler {
      value: 1
    }
    bias_term: true
    bias_filler {
      value: 0
    }
  }
}
layer {
  name: "conv9/relu"
  type: "ReLU"
  bottom: "conv9"
  top: "conv9"
}
layer {
  name: "conv10/dw"
  type: "Convolution"
  bottom: "conv9"
  top: "conv10/dw"
  param {
    lr_mult: 1
    decay_mult: 1
  }
  include {
    phase: TEST
  }
  convolution_param {
    num_output: 512
    bias_term: false
    pad: 1
    kernel_size: 3
    group: 512
    weight_filler {
      type: "msra"
    }
    engine: CAFFE
  }
}
layer {
  name: "conv10/dw/bn"
  type: "BatchNorm"
  bottom: "conv10/dw"
  top: "conv10/dw"
}
layer {
  name: "conv10/dw/scale"
  type: "Scale"
  bottom: "conv10/dw"
  top: "conv10/dw"
  param {
    lr_mult: 1
    decay_mult: 0
  }
  param {
    lr_mult: 2
    decay_mult: 0
  }
  include {
    phase: TEST
  }
  scale_param {
    filler {
      value: 1
    }
    bias_term: true
    bias_filler {
      value: 0
    }
  }
}
layer {
  name: "conv10/dw/relu"
  type: "ReLU"
  bottom: "conv10/dw"
  top: "conv10/dw"
}
layer {
  name: "conv10"
  type: "Convolution"
  bottom: "conv10/dw"
  top: "conv10"
  param {
    lr_mult: 1
    decay_mult: 1
  }
  include {
    phase: TEST
  }
  convolution_param {
    num_output: 512
    bias_term: false
    kernel_size: 1
    weight_filler {
      type: "msra"
    }
  }
}
layer {
  name: "conv10/bn"
  type: "BatchNorm"
  bottom: "conv10"
  top: "conv10"
}
layer {
  name: "conv10/scale"
  type: "Scale"
  bottom: "conv10"
  top: "conv10"
  param {
    lr_mult: 1
    decay_mult: 0
  }
  param {
    lr_mult: 2
    decay_mult: 0
  }
  include {
    phase: TEST
  }
  scale_param {
    filler {
      value: 1
    }
    bias_term: true
    bias_filler {
      value: 0
    }
  }
}
layer {
  name: "conv10/relu"
  type: "ReLU"
  bottom: "conv10"
  top: "conv10"
}
layer {
  name: "conv11/dw"
  type: "Convolution"
  bottom: "conv10"
  top: "conv11/dw"
  param {
    lr_mult: 1
    decay_mult: 1
  }
  include {
    phase: TEST
  }
  convolution_param {
    num_output: 512
    bias_term: false
    pad: 1
    kernel_size: 3
    group: 512
    weight_filler {
      type: "msra"
    }
    engine: CAFFE
  }
}
layer {
  name: "conv11/dw/bn"
  type: "BatchNorm"
  bottom: "conv11/dw"
  top: "conv11/dw"
}
layer {
  name: "conv11/dw/scale"
  type: "Scale"
  bottom: "conv11/dw"
  top: "conv11/dw"
  param {
    lr_mult: 1
    decay_mult: 0
  }
  param {
    lr_mult: 2
    decay_mult: 0
  }
  include {
    phase: TEST
  }
  scale_param {
    filler {
      value: 1
    }
    bias_term: true
    bias_filler {
      value: 0
    }
  }
}
layer {
  name: "conv11/dw/relu"
  type: "ReLU"
  bottom: "conv11/dw"
  top: "conv11/dw"
}
layer {
  name: "conv11"
  type: "Convolution"
  bottom: "conv11/dw"
  top: "conv11"
  param {
    lr_mult: 1
    decay_mult: 1
  }
  include {
    phase: TEST
  }
  convolution_param {
    num_output: 512
    bias_term: false
    kernel_size: 1
    weight_filler {
      type: "msra"
    }
  }
}
layer {
  name: "conv11/bn"
  type: "BatchNorm"
  bottom: "conv11"
  top: "conv11"
}
layer {
  name: "conv11/scale"
  type: "Scale"
  bottom: "conv11"
  top: "conv11"
  param {
    lr_mult: 1
    decay_mult: 0
  }
  param {
    lr_mult: 2
    decay_mult: 0
  }
  include {
    phase: TEST
  }
  scale_param {
    filler {
      value: 1
    }
    bias_term: true
    bias_filler {
      value: 0
    }
  }
}
layer {
  name: "conv11/relu"
  type: "ReLU"
  bottom: "conv11"
  top: "conv11"
}
layer {
  name: "conv12/dw"
  type: "Convolution"
  bottom: "conv11"
  top: "conv12/dw"
  param {
    lr_mult: 1
    decay_mult: 1
  }
  include {
    phase: TEST
  }
  convolution_param {
    num_output: 512
    bias_term: false
    pad: 1
    kernel_size: 3
    group: 512
    stride: 2
    weight_filler {
      type: "msra"
    }
    engine: CAFFE
  }
}
layer {
  name: "conv12/dw/bn"
  type: "BatchNorm"
  bottom: "conv12/dw"
  top: "conv12/dw"
}
layer {
  name: "conv12/dw/scale"
  type: "Scale"
  bottom: "conv12/dw"
  top: "conv12/dw"
  param {
    lr_mult: 1
    decay_mult: 0
  }
  param {
    lr_mult: 2
    decay_mult: 0
  }
  include {
    phase: TEST
  }
  scale_param {
    filler {
      value: 1
    }
    bias_term: true
    bias_filler {
      value: 0
    }
  }
}
layer {
  name: "conv12/dw/relu"
  type: "ReLU"
  bottom: "conv12/dw"
  top: "conv12/dw"
}
layer {
  name: "conv12"
  type: "Convolution"
  bottom: "conv12/dw"
  top: "conv12"
  param {
    lr_mult: 1
    decay_mult: 1
  }
  include {
    phase: TEST
  }
  convolution_param {
    num_output: 1024
    bias_term: false
    kernel_size: 1
    weight_filler {
      type: "msra"
    }
  }
}
layer {
  name: "conv12/bn"
  type: "BatchNorm"
  bottom: "conv12"
  top: "conv12"
}
layer {
  name: "conv12/scale"
  type: "Scale"
  bottom: "conv12"
  top: "conv12"
  param {
    lr_mult: 1
    decay_mult: 0
  }
  param {
    lr_mult: 2
    decay_mult: 0
  }
  include {
    phase: TEST
  }
  scale_param {
    filler {
      value: 1
    }
    bias_term: true
    bias_filler {
      value: 0
    }
  }
}
layer {
  name: "conv12/relu"
  type: "ReLU"
  bottom: "conv12"
  top: "conv12"
}
layer {
  name: "conv13/dw"
  type: "Convolution"
  bottom: "conv12"
  top: "conv13/dw"
  param {
    lr_mult: 1
    decay_mult: 1
  }
  include {
    phase: TEST
  }
  convolution_param {
    num_output: 1024
    bias_term: false
    pad: 1
    kernel_size: 3
    group: 1024
    weight_filler {
      type: "msra"
    }
    engine: CAFFE
  }
}
layer {
  name: "conv13/dw/bn"
  type: "BatchNorm"
  bottom: "conv13/dw"
  top: "conv13/dw"
}
layer {
  name: "conv13/dw/scale"
  type: "Scale"
  bottom: "conv13/dw"
  top: "conv13/dw"
  param {
    lr_mult: 1
    decay_mult: 0
  }
  param {
    lr_mult: 2
    decay_mult: 0
  }
  include {
    phase: TEST
  }
  scale_param {
    filler {
      value: 1
    }
    bias_term: true
    bias_filler {
      value: 0
    }
  }
}
layer {
  name: "conv13/dw/relu"
  type: "ReLU"
  bottom: "conv13/dw"
  top: "conv13/dw"
}
layer {
  name: "conv13"
  type: "Convolution"
  bottom: "conv13/dw"
  top: "conv13"
  param {
    lr_mult: 1
    decay_mult: 1
  }
  include {
    phase: TEST
  }
  convolution_param {
    num_output: 1024
    bias_term: false
    kernel_size: 1
    weight_filler {
      type: "msra"
    }
  }
}
layer {
  name: "conv13/bn"
  type: "BatchNorm"
  bottom: "conv13"
  top: "conv13"
}
layer {
  name: "conv13/scale"
  type: "Scale"
  bottom: "conv13"
  top: "conv13"
  param {
    lr_mult: 1
    decay_mult: 0
  }
  param {
    lr_mult: 2
    decay_mult: 0
  }
  include {
    phase: TEST
  }
  scale_param {
    filler {
      value: 1
    }
    bias_term: true
    bias_filler {
      value: 0
    }
  }
}
layer {
  name: "conv13/relu"
  type: "ReLU"
  bottom: "conv13"
  top: "conv13"
}
layer {
  name: "conv14_1"
  type: "Convolution"
  bottom: "conv13"
  top: "conv14_1"
  param {
    lr_mult: 1
    decay_mult: 1
  }
  include {
    phase: TEST
  }
  convolution_param {
    num_output: 256
    bias_term: false
    kernel_size: 1
    weight_filler {
      type: "msra"
    }
  }
}
layer {
  name: "conv14_1/bn"
  type: "BatchNorm"
  bottom: "conv14_1"
  top: "conv14_1"
}
layer {
  name: "conv14_1/scale"
  type: "Scale"
  bottom: "conv14_1"
  top: "conv14_1"
  param {
    lr_mult: 1
    decay_mult: 0
  }
  param {
    lr_mult: 2
    decay_mult: 0
  }
  include {
    phase: TEST
  }
  scale_param {
    filler {
      value: 1
    }
    bias_term: true
    bias_filler {
      value: 0
    }
  }
}
layer {
  name: "conv14_1/relu"
  type: "ReLU"
  bottom: "conv14_1"
  top: "conv14_1"
}
layer {
  name: "conv14_2"
  type: "Convolution"
  bottom: "conv14_1"
  top: "conv14_2"
  param {
    lr_mult: 1
    decay_mult: 1
  }
  include {
    phase: TEST
  }
  convolution_param {
    num_output: 512
    bias_term: false
    pad: 1
    kernel_size: 3
    stride: 2
    weight_filler {
      type: "msra"
    }
  }
}
layer {
  name: "conv14_2/bn"
  type: "BatchNorm"
  bottom: "conv14_2"
  top: "conv14_2"
}
layer {
  name: "conv14_2/scale"
  type: "Scale"
  bottom: "conv14_2"
  top: "conv14_2"
  param {
    lr_mult: 1
    decay_mult: 0
  }
  param {
    lr_mult: 2
    decay_mult: 0
  }
  include {
    phase: TEST
  }
  scale_param {
    filler {
      value: 1
    }
    bias_term: true
    bias_filler {
      value: 0
    }
  }
}
layer {
  name: "conv14_2/relu"
  type: "ReLU"
  bottom: "conv14_2"
  top: "conv14_2"
}
layer {
  name: "conv15_1"
  type: "Convolution"
  bottom: "conv14_2"
  top: "conv15_1"
  param {
    lr_mult: 1
    decay_mult: 1
  }
  include {
    phase: TEST
  }
  convolution_param {
    num_output: 128
    bias_term: false
    kernel_size: 1
    weight_filler {
      type: "msra"
    }
  }
}
layer {
  name: "conv15_1/bn"
  type: "BatchNorm"
  bottom: "conv15_1"
  top: "conv15_1"
}
layer {
  name: "conv15_1/scale"
  type: "Scale"
  bottom: "conv15_1"
  top: "conv15_1"
  param {
    lr_mult: 1
    decay_mult: 0
  }
  param {
    lr_mult: 2
    decay_mult: 0
  }
  include {
    phase: TEST
  }
  scale_param {
    filler {
      value: 1
    }
    bias_term: true
    bias_filler {
      value: 0
    }
  }
}
layer {
  name: "conv15_1/relu"
  type: "ReLU"
  bottom: "conv15_1"
  top: "conv15_1"
}
layer {
  name: "conv15_2"
  type: "Convolution"
  bottom: "conv15_1"
  top: "conv15_2"
  param {
    lr_mult: 1
    decay_mult: 1
  }
  include {
    phase: TEST
  }
  convolution_param {
    num_output: 256
    bias_term: false
    pad: 1
    kernel_size: 3
    stride: 2
    weight_filler {
      type: "msra"
    }
  }
}
layer {
  name: "conv15_2/bn"
  type: "BatchNorm"
  bottom: "conv15_2"
  top: "conv15_2"
}
layer {
  name: "conv15_2/scale"
  type: "Scale"
  bottom: "conv15_2"
  top: "conv15_2"
  param {
    lr_mult: 1
    decay_mult: 0
  }
  param {
    lr_mult: 2
    decay_mult: 0
  }
  include {
    phase: TEST
  }
  scale_param {
    filler {
      value: 1
    }
    bias_term: true
    bias_filler {
      value: 0
    }
  }
}
layer {
  name: "conv15_2/relu"
  type: "ReLU"
  bottom: "conv15_2"
  top: "conv15_2"
}
layer {
  name: "conv16_1"
  type: "Convolution"
  bottom: "conv15_2"
  top: "conv16_1"
  param {
    lr_mult: 1
    decay_mult: 1
  }
  include {
    phase: TEST
  }
  convolution_param {
    num_output: 128
    bias_term: false
    kernel_size: 1
    weight_filler {
      type: "msra"
    }
  }
}
layer {
  name: "conv16_1/bn"
  type: "BatchNorm"
  bottom: "conv16_1"
  top: "conv16_1"
}
layer {
  name: "conv16_1/scale"
  type: "Scale"
  bottom: "conv16_1"
  top: "conv16_1"
  param {
    lr_mult: 1
    decay_mult: 0
  }
  param {
    lr_mult: 2
    decay_mult: 0
  }
  include {
    phase: TEST
  }
  scale_param {
    filler {
      value: 1
    }
    bias_term: true
    bias_filler {
      value: 0
    }
  }
}
layer {
  name: "conv16_1/relu"
  type: "ReLU"
  bottom: "conv16_1"
  top: "conv16_1"
}
layer {
  name: "conv16_2"
  type: "Convolution"
  bottom: "conv16_1"
  top: "conv16_2"
  param {
    lr_mult: 1
    decay_mult: 1
  }
  include {
    phase: TEST
  }
  convolution_param {
    num_output: 256
    bias_term: false
    pad: 1
    kernel_size: 3
    stride: 2
    weight_filler {
      type: "msra"
    }
  }
}
layer {
  name: "conv16_2/bn"
  type: "BatchNorm"
  bottom: "conv16_2"
  top: "conv16_2"
}
layer {
  name: "conv16_2/scale"
  type: "Scale"
  bottom: "conv16_2"
  top: "conv16_2"
  param {
    lr_mult: 1
    decay_mult: 0
  }
  param {
    lr_mult: 2
    decay_mult: 0
  }
  include {
    phase: TEST
  }
  scale_param {
    filler {
      value: 1
    }
    bias_term: true
    bias_filler {
      value: 0
    }
  }
}
layer {
  name: "conv16_2/relu"
  type: "ReLU"
  bottom: "conv16_2"
  top: "conv16_2"
}
layer {
  name: "conv17_1"
  type: "Convolution"
  bottom: "conv16_2"
  top: "conv17_1"
  param {
    lr_mult: 1
    decay_mult: 1
  }
  include {
    phase: TEST
  }
  convolution_param {
    num_output: 64
    bias_term: false
    kernel_size: 1
    weight_filler {
      type: "msra"
    }
  }
}
layer {
  name: "conv17_1/bn"
  type: "BatchNorm"
  bottom: "conv17_1"
  top: "conv17_1"
}
layer {
  name: "conv17_1/scale"
  type: "Scale"
  bottom: "conv17_1"
  top: "conv17_1"
  param {
    lr_mult: 1
    decay_mult: 0
  }
  param {
    lr_mult: 2
    decay_mult: 0
  }
  include {
    phase: TEST
  }
  scale_param {
    filler {
      value: 1
    }
    bias_term: true
    bias_filler {
      value: 0
    }
  }
}
layer {
  name: "conv17_1/relu"
  type: "ReLU"
  bottom: "conv17_1"
  top: "conv17_1"
}
layer {
  name: "conv17_2"
  type: "Convolution"
  bottom: "conv17_1"
  top: "conv17_2"
  param {
    lr_mult: 1
    decay_mult: 1
  }
  include {
    phase: TEST
  }
  convolution_param {
    num_output: 128
    bias_term: false
    pad: 1
    kernel_size: 3
    stride: 2
    weight_filler {
      type: "msra"
    }
  }
}
layer {
  name: "conv17_2/bn"
  type: "BatchNorm"
  bottom: "conv17_2"
  top: "conv17_2"
}
layer {
  name: "conv17_2/scale"
  type: "Scale"
  bottom: "conv17_2"
  top: "conv17_2"
  param {
    lr_mult: 1
    decay_mult: 0
  }
  param {
    lr_mult: 2
    decay_mult: 0
  }
  include {
    phase: TEST
  }
  scale_param {
    filler {
      value: 1
    }
    bias_term: true
    bias_filler {
      value: 0
    }
  }
}
layer {
  name: "conv17_2/relu"
  type: "ReLU"
  bottom: "conv17_2"
  top: "conv17_2"
}
layer {
  name: "conv11_mbox_loc"
  type: "Convolution"
  bottom: "conv11"
  top: "conv11_mbox_loc"
  param {
    lr_mult: 1
    decay_mult: 1
  }
  param {
    lr_mult: 2
    decay_mult: 0
  }
  include {
    phase: TEST
  }
  convolution_param {
    num_output: 12
    kernel_size: 1
    weight_filler {
      type: "msra"
    }
    bias_filler {
      type: "constant"
      value: 0
    }
  }
}
layer {
  name: "conv11_mbox_loc_perm"
  type: "Permute"
  bottom: "conv11_mbox_loc"
  top: "conv11_mbox_loc_perm"
  permute_param {
    order: 0
    order: 2
    order: 3
    order: 1
  }
}
layer {
  name: "conv11_mbox_loc_flat"
  type: "Flatten"
  bottom: "conv11_mbox_loc_perm"
  top: "
I1102 11:56:32.837873 10862 layer_factory.hpp:77] Creating layer data
I1102 11:56:32.838073 10862 net.cpp:100] Creating Layer data
I1102 11:56:32.838116 10862 net.cpp:455] data -> data
I1102 11:56:32.838171 10862 net.cpp:455] data -> label
I1102 11:56:32.841310 10894 db_lmdb.cpp:35] Opened lmdb examples/VOC0712/VOC0712_test_lmdb
I1102 11:56:32.856667 10862 annotated_data_layer.cpp:62] output data size: 8,3,300,300
I1102 11:56:32.876160 10862 net.cpp:150] Setting up data
I1102 11:56:32.876183 10862 net.cpp:157] Top shape: 8 3 300 300 (2160000)
I1102 11:56:32.876188 10862 net.cpp:157] Top shape: 1 1 2 8 (16)
I1102 11:56:32.876190 10862 net.cpp:165] Memory required for data: 8640064
I1102 11:56:32.876199 10862 layer_factory.hpp:77] Creating layer data_data_0_split
I1102 11:56:32.876209 10862 net.cpp:100] Creating Layer data_data_0_split
I1102 11:56:32.876214 10862 net.cpp:481] data_data_0_split <- data
I1102 11:56:32.876225 10862 net.cpp:455] data_data_0_split -> data_data_0_split_0
I1102 11:56:32.876233 10862 net.cpp:455] data_data_0_split -> data_data_0_split_1
I1102 11:56:32.876240 10862 net.cpp:455] data_data_0_split -> data_data_0_split_2
I1102 11:56:32.876255 10862 net.cpp:455] data_data_0_split -> data_data_0_split_3
I1102 11:56:32.876260 10862 net.cpp:455] data_data_0_split -> data_data_0_split_4
I1102 11:56:32.876266 10862 net.cpp:455] data_data_0_split -> data_data_0_split_5
I1102 11:56:32.876276 10862 net.cpp:455] data_data_0_split -> data_data_0_split_6
I1102 11:56:32.876401 10862 net.cpp:150] Setting up data_data_0_split
I1102 11:56:32.876415 10862 net.cpp:157] Top shape: 8 3 300 300 (2160000)
I1102 11:56:32.876418 10862 net.cpp:157] Top shape: 8 3 300 300 (2160000)
I1102 11:56:32.876430 10862 net.cpp:157] Top shape: 8 3 300 300 (2160000)
I1102 11:56:32.876437 10862 net.cpp:157] Top shape: 8 3 300 300 (2160000)
I1102 11:56:32.876441 10862 net.cpp:157] Top shape: 8 3 300 300 (2160000)
I1102 11:56:32.876456 10862 net.cpp:157] Top shape: 8 3 300 300 (2160000)
I1102 11:56:32.876461 10862 net.cpp:157] Top shape: 8 3 300 300 (2160000)
I1102 11:56:32.876463 10862 net.cpp:165] Memory required for data: 69120064
I1102 11:56:32.876469 10862 layer_factory.hpp:77] Creating layer conv0
I1102 11:56:32.876498 10862 net.cpp:100] Creating Layer conv0
I1102 11:56:32.876505 10862 net.cpp:481] conv0 <- data_data_0_split_0
I1102 11:56:32.876519 10862 net.cpp:455] conv0 -> conv0
I1102 11:56:33.492630 10862 net.cpp:150] Setting up conv0
I1102 11:56:33.492667 10862 net.cpp:157] Top shape: 8 32 150 150 (5760000)
I1102 11:56:33.492672 10862 net.cpp:165] Memory required for data: 92160064
I1102 11:56:33.492691 10862 layer_factory.hpp:77] Creating layer conv0/bn
I1102 11:56:33.492702 10862 net.cpp:100] Creating Layer conv0/bn
I1102 11:56:33.492705 10862 net.cpp:481] conv0/bn <- conv0
I1102 11:56:33.492713 10862 net.cpp:442] conv0/bn -> conv0 (in-place)
I1102 11:56:33.495645 10862 net.cpp:150] Setting up conv0/bn
I1102 11:56:33.495667 10862 net.cpp:157] Top shape: 8 32 150 150 (5760000)
I1102 11:56:33.495671 10862 net.cpp:165] Memory required for data: 115200064
I1102 11:56:33.495684 10862 layer_factory.hpp:77] Creating layer conv0/scale
I1102 11:56:33.495697 10862 net.cpp:100] Creating Layer conv0/scale
I1102 11:56:33.495700 10862 net.cpp:481] conv0/scale <- conv0
I1102 11:56:33.495709 10862 net.cpp:442] conv0/scale -> conv0 (in-place)
I1102 11:56:33.495784 10862 layer_factory.hpp:77] Creating layer conv0/scale
I1102 11:56:33.496337 10862 net.cpp:150] Setting up conv0/scale
I1102 11:56:33.496368 10862 net.cpp:157] Top shape: 8 32 150 150 (5760000)
I1102 11:56:33.496387 10862 net.cpp:165] Memory required for data: 138240064
I1102 11:56:33.496395 10862 layer_factory.hpp:77] Creating layer conv0/relu
I1102 11:56:33.496402 10862 net.cpp:100] Creating Layer conv0/relu
I1102 11:56:33.496404 10862 net.cpp:481] conv0/relu <- conv0
I1102 11:56:33.496412 10862 net.cpp:442] conv0/relu -> conv0 (in-place)
I1102 11:56:33.498203 10862 net.cpp:150] Setting up conv0/relu
I1102 11:56:33.498224 10862 net.cpp:157] Top shape: 8 32 150 150 (5760000)
I1102 11:56:33.498227 10862 net.cpp:165] Memory required for data: 161280064
I1102 11:56:33.498230 10862 layer_factory.hpp:77] Creating layer conv1/dw
I1102 11:56:33.498242 10862 net.cpp:100] Creating Layer conv1/dw
I1102 11:56:33.498250 10862 net.cpp:481] conv1/dw <- conv0
I1102 11:56:33.498255 10862 net.cpp:455] conv1/dw -> conv1/dw
I1102 11:56:33.498453 10862 net.cpp:150] Setting up conv1/dw
I1102 11:56:33.498481 10862 net.cpp:157] Top shape: 8 32 150 150 (5760000)
I1102 11:56:33.498483 10862 net.cpp:165] Memory required for data: 184320064
I1102 11:56:33.498488 10862 layer_factory.hpp:77] Creating layer conv1/dw/bn
I1102 11:56:33.498493 10862 net.cpp:100] Creating Layer conv1/dw/bn
I1102 11:56:33.498502 10862 net.cpp:481] conv1/dw/bn <- conv1/dw
I1102 11:56:33.498505 10862 net.cpp:442] conv1/dw/bn -> conv1/dw (in-place)
I1102 11:56:33.498730 10862 net.cpp:150] Setting up conv1/dw/bn
I1102 11:56:33.498744 10862 net.cpp:157] Top shape: 8 32 150 150 (5760000)
I1102 11:56:33.498746 10862 net.cpp:165] Memory required for data: 207360064
I1102 11:56:33.498755 10862 layer_factory.hpp:77] Creating layer conv1/dw/scale
I1102 11:56:33.498767 10862 net.cpp:100] Creating Layer conv1/dw/scale
I1102 11:56:33.498775 10862 net.cpp:481] conv1/dw/scale <- conv1/dw
I1102 11:56:33.498781 10862 net.cpp:442] conv1/dw/scale -> conv1/dw (in-place)
I1102 11:56:33.498823 10862 layer_factory.hpp:77] Creating layer conv1/dw/scale
I1102 11:56:33.499346 10862 net.cpp:150] Setting up conv1/dw/scale
I1102 11:56:33.499361 10862 net.cpp:157] Top shape: 8 32 150 150 (5760000)
I1102 11:56:33.499364 10862 net.cpp:165] Memory required for data: 230400064
I1102 11:56:33.499369 10862 layer_factory.hpp:77] Creating layer conv1/dw/relu
I1102 11:56:33.499374 10862 net.cpp:100] Creating Layer conv1/dw/relu
I1102 11:56:33.499380 10862 net.cpp:481] conv1/dw/relu <- conv1/dw
I1102 11:56:33.499384 10862 net.cpp:442] conv1/dw/relu -> conv1/dw (in-place)
I1102 11:56:33.499671 10862 net.cpp:150] Setting up conv1/dw/relu
I1102 11:56:33.499691 10862 net.cpp:157] Top shape: 8 32 150 150 (5760000)
I1102 11:56:33.499693 10862 net.cpp:165] Memory required for data: 253440064
I1102 11:56:33.499696 10862 layer_factory.hpp:77] Creating layer conv1
I1102 11:56:33.499704 10862 net.cpp:100] Creating Layer conv1
I1102 11:56:33.499711 10862 net.cpp:481] conv1 <- conv1/dw
I1102 11:56:33.499718 10862 net.cpp:455] conv1 -> conv1
I1102 11:56:33.505376 10862 net.cpp:150] Setting up conv1
I1102 11:56:33.505398 10862 net.cpp:157] Top shape: 8 64 150 150 (11520000)
I1102 11:56:33.505400 10862 net.cpp:165] Memory required for data: 299520064
I1102 11:56:33.505406 10862 layer_factory.hpp:77] Creating layer conv1/bn
I1102 11:56:33.505412 10862 net.cpp:100] Creating Layer conv1/bn
I1102 11:56:33.505415 10862 net.cpp:481] conv1/bn <- conv1
I1102 11:56:33.505422 10862 net.cpp:442] conv1/bn -> conv1 (in-place)
I1102 11:56:33.505673 10862 net.cpp:150] Setting up conv1/bn
I1102 11:56:33.505686 10862 net.cpp:157] Top shape: 8 64 150 150 (11520000)
I1102 11:56:33.505688 10862 net.cpp:165] Memory required for data: 345600064
I1102 11:56:33.505695 10862 layer_factory.hpp:77] Creating layer conv1/scale
I1102 11:56:33.505733 10862 net.cpp:100] Creating Layer conv1/scale
I1102 11:56:33.505741 10862 net.cpp:481] conv1/scale <- conv1
I1102 11:56:33.505748 10862 net.cpp:442] conv1/scale -> conv1 (in-place)
I1102 11:56:33.505806 10862 layer_factory.hpp:77] Creating layer conv1/scale
I1102 11:56:33.506342 10862 net.cpp:150] Setting up conv1/scale
I1102 11:56:33.506356 10862 net.cpp:157] Top shape: 8 64 150 150 (11520000)
I1102 11:56:33.506359 10862 net.cpp:165] Memory required for data: 391680064
I1102 11:56:33.506371 10862 layer_factory.hpp:77] Creating layer conv1/relu
I1102 11:56:33.506377 10862 net.cpp:100] Creating Layer conv1/relu
I1102 11:56:33.506381 10862 net.cpp:481] conv1/relu <- conv1
I1102 11:56:33.506386 10862 net.cpp:442] conv1/relu -> conv1 (in-place)
I1102 11:56:33.507691 10862 net.cpp:150] Setting up conv1/relu
I1102 11:56:33.507712 10862 net.cpp:157] Top shape: 8 64 150 150 (11520000)
I1102 11:56:33.507715 10862 net.cpp:165] Memory required for data: 437760064
I1102 11:56:33.507719 10862 layer_factory.hpp:77] Creating layer conv2/dw
I1102 11:56:33.507738 10862 net.cpp:100] Creating Layer conv2/dw
I1102 11:56:33.507746 10862 net.cpp:481] conv2/dw <- conv1
I1102 11:56:33.507752 10862 net.cpp:455] conv2/dw -> conv2/dw
I1102 11:56:33.508038 10862 net.cpp:150] Setting up conv2/dw
I1102 11:56:33.508072 10862 net.cpp:157] Top shape: 8 64 75 75 (2880000)
I1102 11:56:33.508076 10862 net.cpp:165] Memory required for data: 449280064
I1102 11:56:33.508082 10862 layer_factory.hpp:77] Creating layer conv2/dw/bn
I1102 11:56:33.508096 10862 net.cpp:100] Creating Layer conv2/dw/bn
I1102 11:56:33.508100 10862 net.cpp:481] conv2/dw/bn <- conv2/dw
I1102 11:56:33.508105 10862 net.cpp:442] conv2/dw/bn -> conv2/dw (in-place)
I1102 11:56:33.509402 10862 net.cpp:150] Setting up conv2/dw/bn
I1102 11:56:33.509420 10862 net.cpp:157] Top shape: 8 64 75 75 (2880000)
I1102 11:56:33.509424 10862 net.cpp:165] Memory required for data: 460800064
I1102 11:56:33.509435 10862 layer_factory.hpp:77] Creating layer conv2/dw/scale
I1102 11:56:33.509465 10862 net.cpp:100] Creating Layer conv2/dw/scale
I1102 11:56:33.509469 10862 net.cpp:481] conv2/dw/scale <- conv2/dw
I1102 11:56:33.509475 10862 net.cpp:442] conv2/dw/scale -> conv2/dw (in-place)
I1102 11:56:33.509521 10862 layer_factory.hpp:77] Creating layer conv2/dw/scale
I1102 11:56:33.509660 10862 net.cpp:150] Setting up conv2/dw/scale
I1102 11:56:33.509671 10862 net.cpp:157] Top shape: 8 64 75 75 (2880000)
I1102 11:56:33.509673 10862 net.cpp:165] Memory required for data: 472320064
I1102 11:56:33.509678 10862 layer_factory.hpp:77] Creating layer conv2/dw/relu
I1102 11:56:33.509686 10862 net.cpp:100] Creating Layer conv2/dw/relu
I1102 11:56:33.509690 10862 net.cpp:481] conv2/dw/relu <- conv2/dw
I1102 11:56:33.509694 10862 net.cpp:442] conv2/dw/relu -> conv2/dw (in-place)
I1102 11:56:33.509984 10862 net.cpp:150] Setting up conv2/dw/relu
I1102 11:56:33.510000 10862 net.cpp:157] Top shape: 8 64 75 75 (2880000)
I1102 11:56:33.510004 10862 net.cpp:165] Memory required for data: 483840064
I1102 11:56:33.510007 10862 layer_factory.hpp:77] Creating layer conv2
I1102 11:56:33.510017 10862 net.cpp:100] Creating Layer conv2
I1102 11:56:33.510026 10862 net.cpp:481] conv2 <- conv2/dw
I1102 11:56:33.510033 10862 net.cpp:455] conv2 -> conv2
I1102 11:56:33.512607 10862 net.cpp:150] Setting up conv2
I1102 11:56:33.512630 10862 net.cpp:157] Top shape: 8 128 75 75 (5760000)
I1102 11:56:33.512634 10862 net.cpp:165] Memory required for data: 506880064
I1102 11:56:33.512640 10862 layer_factory.hpp:77] Creating layer conv2/bn
I1102 11:56:33.512645 10862 net.cpp:100] Creating Layer conv2/bn
I1102 11:56:33.512648 10862 net.cpp:481] conv2/bn <- conv2
I1102 11:56:33.512652 10862 net.cpp:442] conv2/bn -> conv2 (in-place)
I1102 11:56:33.512876 10862 net.cpp:150] Setting up conv2/bn
I1102 11:56:33.512888 10862 net.cpp:157] Top shape: 8 128 75 75 (5760000)
I1102 11:56:33.512892 10862 net.cpp:165] Memory required for data: 529920064
I1102 11:56:33.512897 10862 layer_factory.hpp:77] Creating layer conv2/scale
I1102 11:56:33.512904 10862 net.cpp:100] Creating Layer conv2/scale
I1102 11:56:33.512907 10862 net.cpp:481] conv2/scale <- conv2
I1102 11:56:33.512926 10862 net.cpp:442] conv2/scale -> conv2 (in-place)
I1102 11:56:33.512967 10862 layer_factory.hpp:77] Creating layer conv2/scale
I1102 11:56:33.513131 10862 net.cpp:150] Setting up conv2/scale
I1102 11:56:33.513144 10862 net.cpp:157] Top shape: 8 128 75 75 (5760000)
I1102 11:56:33.513145 10862 net.cpp:165] Memory required for data: 552960064
I1102 11:56:33.513151 10862 layer_factory.hpp:77] Creating layer conv2/relu
I1102 11:56:33.513156 10862 net.cpp:100] Creating Layer conv2/relu
I1102 11:56:33.513159 10862 net.cpp:481] conv2/relu <- conv2
I1102 11:56:33.513164 10862 net.cpp:442] conv2/relu -> conv2 (in-place)
I1102 11:56:33.514144 10862 net.cpp:150] Setting up conv2/relu
I1102 11:56:33.514163 10862 net.cpp:157] Top shape: 8 128 75 75 (5760000)
I1102 11:56:33.514166 10862 net.cpp:165] Memory required for data: 576000064
I1102 11:56:33.514169 10862 layer_factory.hpp:77] Creating layer conv3/dw
I1102 11:56:33.514180 10862 net.cpp:100] Creating Layer conv3/dw
I1102 11:56:33.514183 10862 net.cpp:481] conv3/dw <- conv2
I1102 11:56:33.514192 10862 net.cpp:455] conv3/dw -> conv3/dw
I1102 11:56:33.514391 10862 net.cpp:150] Setting up conv3/dw
I1102 11:56:33.514416 10862 net.cpp:157] Top shape: 8 128 75 75 (5760000)
I1102 11:56:33.514420 10862 net.cpp:165] Memory required for data: 599040064
I1102 11:56:33.514425 10862 layer_factory.hpp:77] Creating layer conv3/dw/bn
I1102 11:56:33.514431 10862 net.cpp:100] Creating Layer conv3/dw/bn
I1102 11:56:33.514438 10862 net.cpp:481] conv3/dw/bn <- conv3/dw
I1102 11:56:33.514442 10862 net.cpp:442] conv3/dw/bn -> conv3/dw (in-place)
I1102 11:56:33.514621 10862 net.cpp:150] Setting up conv3/dw/bn
I1102 11:56:33.514632 10862 net.cpp:157] Top shape: 8 128 75 75 (5760000)
I1102 11:56:33.514634 10862 net.cpp:165] Memory required for data: 622080064
I1102 11:56:33.514647 10862 layer_factory.hpp:77] Creating layer conv3/dw/scale
I1102 11:56:33.514657 10862 net.cpp:100] Creating Layer conv3/dw/scale
I1102 11:56:33.514659 10862 net.cpp:481] conv3/dw/scale <- conv3/dw
I1102 11:56:33.514664 10862 net.cpp:442] conv3/dw/scale -> conv3/dw (in-place)
I1102 11:56:33.514714 10862 layer_factory.hpp:77] Creating layer conv3/dw/scale
I1102 11:56:33.514878 10862 net.cpp:150] Setting up conv3/dw/scale
I1102 11:56:33.514889 10862 net.cpp:157] Top shape: 8 128 75 75 (5760000)
I1102 11:56:33.514891 10862 net.cpp:165] Memory required for data: 645120064
I1102 11:56:33.514896 10862 layer_factory.hpp:77] Creating layer conv3/dw/relu
I1102 11:56:33.514904 10862 net.cpp:100] Creating Layer conv3/dw/relu
I1102 11:56:33.514906 10862 net.cpp:481] conv3/dw/relu <- conv3/dw
I1102 11:56:33.514909 10862 net.cpp:442] conv3/dw/relu -> conv3/dw (in-place)
I1102 11:56:33.515866 10862 net.cpp:150] Setting up conv3/dw/relu
I1102 11:56:33.515884 10862 net.cpp:157] Top shape: 8 128 75 75 (5760000)
I1102 11:56:33.515888 10862 net.cpp:165] Memory required for data: 668160064
I1102 11:56:33.515905 10862 layer_factory.hpp:77] Creating layer conv3
I1102 11:56:33.515916 10862 net.cpp:100] Creating Layer conv3
I1102 11:56:33.515923 10862 net.cpp:481] conv3 <- conv3/dw
I1102 11:56:33.515931 10862 net.cpp:455] conv3 -> conv3
I1102 11:56:33.518419 10862 net.cpp:150] Setting up conv3
I1102 11:56:33.518438 10862 net.cpp:157] Top shape: 8 128 75 75 (5760000)
I1102 11:56:33.518442 10862 net.cpp:165] Memory required for data: 691200064
I1102 11:56:33.518447 10862 layer_factory.hpp:77] Creating layer conv3/bn
I1102 11:56:33.518455 10862 net.cpp:100] Creating Layer conv3/bn
I1102 11:56:33.518462 10862 net.cpp:481] conv3/bn <- conv3
I1102 11:56:33.518467 10862 net.cpp:442] conv3/bn -> conv3 (in-place)
I1102 11:56:33.518641 10862 net.cpp:150] Setting up conv3/bn
I1102 11:56:33.518651 10862 net.cpp:157] Top shape: 8 128 75 75 (5760000)
I1102 11:56:33.518654 10862 net.cpp:165] Memory required for data: 714240064
I1102 11:56:33.518661 10862 layer_factory.hpp:77] Creating layer conv3/scale
I1102 11:56:33.518666 10862 net.cpp:100] Creating Layer conv3/scale
I1102 11:56:33.518671 10862 net.cpp:481] conv3/scale <- conv3
I1102 11:56:33.518676 10862 net.cpp:442] conv3/scale -> conv3 (in-place)
I1102 11:56:33.518714 10862 layer_factory.hpp:77] Creating layer conv3/scale
I1102 11:56:33.518856 10862 net.cpp:150] Setting up conv3/scale
I1102 11:56:33.518870 10862 net.cpp:157] Top shape: 8 128 75 75 (5760000)
I1102 11:56:33.518873 10862 net.cpp:165] Memory required for data: 737280064
I1102 11:56:33.518878 10862 layer_factory.hpp:77] Creating layer conv3/relu
I1102 11:56:33.518884 10862 net.cpp:100] Creating Layer conv3/relu
I1102 11:56:33.518887 10862 net.cpp:481] conv3/relu <- conv3
I1102 11:56:33.518890 10862 net.cpp:442] conv3/relu -> conv3 (in-place)
I1102 11:56:33.519148 10862 net.cpp:150] Setting up conv3/relu
I1102 11:56:33.519163 10862 net.cpp:157] Top shape: 8 128 75 75 (5760000)
I1102 11:56:33.519166 10862 net.cpp:165] Memory required for data: 760320064
I1102 11:56:33.519170 10862 layer_factory.hpp:77] Creating layer conv4/dw
I1102 11:56:33.519178 10862 net.cpp:100] Creating Layer conv4/dw
I1102 11:56:33.519186 10862 net.cpp:481] conv4/dw <- conv3
I1102 11:56:33.519196 10862 net.cpp:455] conv4/dw -> conv4/dw
I1102 11:56:33.519438 10862 net.cpp:150] Setting up conv4/dw
I1102 11:56:33.519449 10862 net.cpp:157] Top shape: 8 128 38 38 (1478656)
I1102 11:56:33.519467 10862 net.cpp:165] Memory required for data: 766234688
I1102 11:56:33.519474 10862 layer_factory.hpp:77] Creating layer conv4/dw/bn
I1102 11:56:33.519480 10862 net.cpp:100] Creating Layer conv4/dw/bn
I1102 11:56:33.519487 10862 net.cpp:481] conv4/dw/bn <- conv4/dw
I1102 11:56:33.519491 10862 net.cpp:442] conv4/dw/bn -> conv4/dw (in-place)
I1102 11:56:33.519672 10862 net.cpp:150] Setting up conv4/dw/bn
I1102 11:56:33.519682 10862 net.cpp:157] Top shape: 8 128 38 38 (1478656)
I1102 11:56:33.519685 10862 net.cpp:165] Memory required for data: 772149312
I1102 11:56:33.519690 10862 layer_factory.hpp:77] Creating layer conv4/dw/scale
I1102 11:56:33.519701 10862 net.cpp:100] Creating Layer conv4/dw/scale
I1102 11:56:33.519706 10862 net.cpp:481] conv4/dw/scale <- conv4/dw
I1102 11:56:33.519711 10862 net.cpp:442] conv4/dw/scale -> conv4/dw (in-place)
I1102 11:56:33.519749 10862 layer_factory.hpp:77] Creating layer conv4/dw/scale
I1102 11:56:33.519853 10862 net.cpp:150] Setting up conv4/dw/scale
I1102 11:56:33.519867 10862 net.cpp:157] Top shape: 8 128 38 38 (1478656)
I1102 11:56:33.519870 10862 net.cpp:165] Memory required for data: 778063936
I1102 11:56:33.519876 10862 layer_factory.hpp:77] Creating layer conv4/dw/relu
I1102 11:56:33.519879 10862 net.cpp:100] Creating Layer conv4/dw/relu
I1102 11:56:33.519881 10862 net.cpp:481] conv4/dw/relu <- conv4/dw
I1102 11:56:33.519886 10862 net.cpp:442] conv4/dw/relu -> conv4/dw (in-place)
I1102 11:56:33.520781 10862 net.cpp:150] Setting up conv4/dw/relu
I1102 11:56:33.520799 10862 net.cpp:157] Top shape: 8 128 38 38 (1478656)
I1102 11:56:33.520802 10862 net.cpp:165] Memory required for data: 783978560
I1102 11:56:33.520807 10862 layer_factory.hpp:77] Creating layer conv4
I1102 11:56:33.520814 10862 net.cpp:100] Creating Layer conv4
I1102 11:56:33.520822 10862 net.cpp:481] conv4 <- conv4/dw
I1102 11:56:33.520828 10862 net.cpp:455] conv4 -> conv4
I1102 11:56:33.523599 10862 net.cpp:150] Setting up conv4
I1102 11:56:33.523619 10862 net.cpp:157] Top shape: 8 256 38 38 (2957312)
I1102 11:56:33.523622 10862 net.cpp:165] Memory required for data: 795807808
I1102 11:56:33.523627 10862 layer_factory.hpp:77] Creating layer conv4/bn
I1102 11:56:33.523635 10862 net.cpp:100] Creating Layer conv4/bn
I1102 11:56:33.523639 10862 net.cpp:481] conv4/bn <- conv4
I1102 11:56:33.523644 10862 net.cpp:442] conv4/bn -> conv4 (in-place)
I1102 11:56:33.523826 10862 net.cpp:150] Setting up conv4/bn
I1102 11:56:33.523838 10862 net.cpp:157] Top shape: 8 256 38 38 (2957312)
I1102 11:56:33.523839 10862 net.cpp:165] Memory required for data: 807637056
I1102 11:56:33.523845 10862 layer_factory.hpp:77] Creating layer conv4/scale
I1102 11:56:33.523854 10862 net.cpp:100] Creating Layer conv4/scale
I1102 11:56:33.523855 10862 net.cpp:481] conv4/scale <- conv4
I1102 11:56:33.523859 10862 net.cpp:442] conv4/scale -> conv4 (in-place)
I1102 11:56:33.523906 10862 layer_factory.hpp:77] Creating layer conv4/scale
I1102 11:56:33.524024 10862 net.cpp:150] Setting up conv4/scale
I1102 11:56:33.524029 10862 net.cpp:157] Top shape: 8 256 38 38 (2957312)
I1102 11:56:33.524031 10862 net.cpp:165] Memory required for data: 819466304
I1102 11:56:33.524035 10862 layer_factory.hpp:77] Creating layer conv4/relu
I1102 11:56:33.524039 10862 net.cpp:100] Creating Layer conv4/relu
I1102 11:56:33.524042 10862 net.cpp:481] conv4/relu <- conv4
I1102 11:56:33.524047 10862 net.cpp:442] conv4/relu -> conv4 (in-place)
I1102 11:56:33.524370 10862 net.cpp:150] Setting up conv4/relu
I1102 11:56:33.524387 10862 net.cpp:157] Top shape: 8 256 38 38 (2957312)
I1102 11:56:33.524390 10862 net.cpp:165] Memory required for data: 831295552
I1102 11:56:33.524394 10862 layer_factory.hpp:77] Creating layer conv5/dw
I1102 11:56:33.524404 10862 net.cpp:100] Creating Layer conv5/dw
I1102 11:56:33.524410 10862 net.cpp:481] conv5/dw <- conv4
I1102 11:56:33.524415 10862 net.cpp:455] conv5/dw -> conv5/dw
I1102 11:56:33.524655 10862 net.cpp:150] Setting up conv5/dw
I1102 11:56:33.524665 10862 net.cpp:157] Top shape: 8 256 38 38 (2957312)
I1102 11:56:33.524680 10862 net.cpp:165] Memory required for data: 843124800
I1102 11:56:33.524686 10862 layer_factory.hpp:77] Creating layer conv5/dw/bn
I1102 11:56:33.524693 10862 net.cpp:100] Creating Layer conv5/dw/bn
I1102 11:56:33.524698 10862 net.cpp:481] conv5/dw/bn <- conv5/dw
I1102 11:56:33.524703 10862 net.cpp:442] conv5/dw/bn -> conv5/dw (in-place)
I1102 11:56:33.524921 10862 net.cpp:150] Setting up conv5/dw/bn
I1102 11:56:33.524931 10862 net.cpp:157] Top shape: 8 256 38 38 (2957312)
I1102 11:56:33.524935 10862 net.cpp:165] Memory required for data: 854954048
I1102 11:56:33.524940 10862 layer_factory.hpp:77] Creating layer conv5/dw/scale
I1102 11:56:33.524950 10862 net.cpp:100] Creating Layer conv5/dw/scale
I1102 11:56:33.524953 10862 net.cpp:481] conv5/dw/scale <- conv5/dw
I1102 11:56:33.524957 10862 net.cpp:442] conv5/dw/scale -> conv5/dw (in-place)
I1102 11:56:33.524998 10862 layer_factory.hpp:77] Creating layer conv5/dw/scale
I1102 11:56:33.525138 10862 net.cpp:150] Setting up conv5/dw/scale
I1102 11:56:33.525143 10862 net.cpp:157] Top shape: 8 256 38 38 (2957312)
I1102 11:56:33.525149 10862 net.cpp:165] Memory required for data: 866783296
I1102 11:56:33.525154 10862 layer_factory.hpp:77] Creating layer conv5/dw/relu
I1102 11:56:33.525161 10862 net.cpp:100] Creating Layer conv5/dw/relu
I1102 11:56:33.525163 10862 net.cpp:481] conv5/dw/relu <- conv5/dw
I1102 11:56:33.525167 10862 net.cpp:442] conv5/dw/relu -> conv5/dw (in-place)
I1102 11:56:33.526314 10862 net.cpp:150] Setting up conv5/dw/relu
I1102 11:56:33.526334 10862 net.cpp:157] Top shape: 8 256 38 38 (2957312)
I1102 11:56:33.526337 10862 net.cpp:165] Memory required for data: 878612544
I1102 11:56:33.526340 10862 layer_factory.hpp:77] Creating layer conv5
I1102 11:56:33.526355 10862 net.cpp:100] Creating Layer conv5
I1102 11:56:33.526365 10862 net.cpp:481] conv5 <- conv5/dw
I1102 11:56:33.526387 10862 net.cpp:455] conv5 -> conv5
I1102 11:56:33.530824 10862 net.cpp:150] Setting up conv5
I1102 11:56:33.530848 10862 net.cpp:157] Top shape: 8 256 38 38 (2957312)
I1102 11:56:33.530851 10862 net.cpp:165] Memory required for data: 890441792
I1102 11:56:33.530858 10862 layer_factory.hpp:77] Creating layer conv5/bn
I1102 11:56:33.530875 10862 net.cpp:100] Creating Layer conv5/bn
I1102 11:56:33.530879 10862 net.cpp:481] conv5/bn <- conv5
I1102 11:56:33.530886 10862 net.cpp:442] conv5/bn -> conv5 (in-place)
I1102 11:56:33.531085 10862 net.cpp:150] Setting up conv5/bn
I1102 11:56:33.531091 10862 net.cpp:157] Top shape: 8 256 38 38 (2957312)
I1102 11:56:33.531095 10862 net.cpp:165] Memory required for data: 902271040
I1102 11:56:33.531101 10862 layer_factory.hpp:77] Creating layer conv5/scale
I1102 11:56:33.531107 10862 net.cpp:100] Creating Layer conv5/scale
I1102 11:56:33.531111 10862 net.cpp:481] conv5/scale <- conv5
I1102 11:56:33.531116 10862 net.cpp:442] conv5/scale -> conv5 (in-place)
I1102 11:56:33.531157 10862 layer_factory.hpp:77] Creating layer conv5/scale
I1102 11:56:33.531270 10862 net.cpp:150] Setting up conv5/scale
I1102 11:56:33.531282 10862 net.cpp:157] Top shape: 8 256 38 38 (2957312)
I1102 11:56:33.531286 10862 net.cpp:165] Memory required for data: 914100288
I1102 11:56:33.531299 10862 layer_factory.hpp:77] Creating layer conv5/relu
I1102 11:56:33.531307 10862 net.cpp:100] Creating Layer conv5/relu
I1102 11:56:33.531311 10862 net.cpp:481] conv5/relu <- conv5
I1102 11:56:33.531314 10862 net.cpp:442] conv5/relu -> conv5 (in-place)
I1102 11:56:33.532272 10862 net.cpp:150] Setting up conv5/relu
I1102 11:56:33.532292 10862 net.cpp:157] Top shape: 8 256 38 38 (2957312)
I1102 11:56:33.532295 10862 net.cpp:165] Memory required for data: 925929536
I1102 11:56:33.532299 10862 layer_factory.hpp:77] Creating layer conv6/dw
I1102 11:56:33.532310 10862 net.cpp:100] Creating Layer conv6/dw
I1102 11:56:33.532315 10862 net.cpp:481] conv6/dw <- conv5
I1102 11:56:33.532323 10862 net.cpp:455] conv6/dw -> conv6/dw
I1102 11:56:33.532558 10862 net.cpp:150] Setting up conv6/dw
I1102 11:56:33.532569 10862 net.cpp:157] Top shape: 8 256 19 19 (739328)
I1102 11:56:33.532585 10862 net.cpp:165] Memory required for data: 928886848
I1102 11:56:33.532591 10862 layer_factory.hpp:77] Creating layer conv6/dw/bn
I1102 11:56:33.532598 10862 net.cpp:100] Creating Layer conv6/dw/bn
I1102 11:56:33.532605 10862 net.cpp:481] conv6/dw/bn <- conv6/dw
I1102 11:56:33.532610 10862 net.cpp:442] conv6/dw/bn -> conv6/dw (in-place)
I1102 11:56:33.532819 10862 net.cpp:150] Setting up conv6/dw/bn
I1102 11:56:33.532829 10862 net.cpp:157] Top shape: 8 256 19 19 (739328)
I1102 11:56:33.532832 10862 net.cpp:165] Memory required for data: 931844160
I1102 11:56:33.532838 10862 layer_factory.hpp:77] Creating layer conv6/dw/scale
I1102 11:56:33.532845 10862 net.cpp:100] Creating Layer conv6/dw/scale
I1102 11:56:33.532847 10862 net.cpp:481] conv6/dw/scale <- conv6/dw
I1102 11:56:33.532851 10862 net.cpp:442] conv6/dw/scale -> conv6/dw (in-place)
I1102 11:56:33.532902 10862 layer_factory.hpp:77] Creating layer conv6/dw/scale
I1102 11:56:33.533015 10862 net.cpp:150] Setting up conv6/dw/scale
I1102 11:56:33.533021 10862 net.cpp:157] Top shape: 8 256 19 19 (739328)
I1102 11:56:33.533025 10862 net.cpp:165] Memory required for data: 934801472
I1102 11:56:33.533028 10862 layer_factory.hpp:77] Creating layer conv6/dw/relu
I1102 11:56:33.533033 10862 net.cpp:100] Creating Layer conv6/dw/relu
I1102 11:56:33.533037 10862 net.cpp:481] conv6/dw/relu <- conv6/dw
I1102 11:56:33.533041 10862 net.cpp:442] conv6/dw/relu -> conv6/dw (in-place)
I1102 11:56:33.534255 10862 net.cpp:150] Setting up conv6/dw/relu
I1102 11:56:33.534276 10862 net.cpp:157] Top shape: 8 256 19 19 (739328)
I1102 11:56:33.534279 10862 net.cpp:165] Memory required for data: 937758784
I1102 11:56:33.534282 10862 layer_factory.hpp:77] Creating layer conv6
I1102 11:56:33.534294 10862 net.cpp:100] Creating Layer conv6
I1102 11:56:33.534299 10862 net.cpp:481] conv6 <- conv6/dw
I1102 11:56:33.534307 10862 net.cpp:455] conv6 -> conv6
I1102 11:56:33.539041 10862 net.cpp:150] Setting up conv6
I1102 11:56:33.539064 10862 net.cpp:157] Top shape: 8 512 19 19 (1478656)
I1102 11:56:33.539068 10862 net.cpp:165] Memory required for data: 943673408
I1102 11:56:33.539073 10862 layer_factory.hpp:77] Creating layer conv6/bn
I1102 11:56:33.539079 10862 net.cpp:100] Creating Layer conv6/bn
I1102 11:56:33.539083 10862 net.cpp:481] conv6/bn <- conv6
I1102 11:56:33.539088 10862 net.cpp:442] conv6/bn -> conv6 (in-place)
I1102 11:56:33.539340 10862 net.cpp:150] Setting up conv6/bn
I1102 11:56:33.539351 10862 net.cpp:157] Top shape: 8 512 19 19 (1478656)
I1102 11:56:33.539355 10862 net.cpp:165] Memory required for data: 949588032
I1102 11:56:33.539361 10862 layer_factory.hpp:77] Creating layer conv6/scale
I1102 11:56:33.539367 10862 net.cpp:100] Creating Layer conv6/scale
I1102 11:56:33.539372 10862 net.cpp:481] conv6/scale <- conv6
I1102 11:56:33.539379 10862 net.cpp:442] conv6/scale -> conv6 (in-place)
I1102 11:56:33.539427 10862 layer_factory.hpp:77] Creating layer conv6/scale
I1102 11:56:33.539564 10862 net.cpp:150] Setting up conv6/scale
I1102 11:56:33.539574 10862 net.cpp:157] Top shape: 8 512 19 19 (1478656)
I1102 11:56:33.539577 10862 net.cpp:165] Memory required for data: 955502656
I1102 11:56:33.539582 10862 layer_factory.hpp:77] Creating layer conv6/relu
I1102 11:56:33.539602 10862 net.cpp:100] Creating Layer conv6/relu
I1102 11:56:33.539605 10862 net.cpp:481] conv6/relu <- conv6
I1102 11:56:33.539610 10862 net.cpp:442] conv6/relu -> conv6 (in-place)
I1102 11:56:33.540585 10862 net.cpp:150] Setting up conv6/relu
I1102 11:56:33.540614 10862 net.cpp:157] Top shape: 8 512 19 19 (1478656)
I1102 11:56:33.540623 10862 net.cpp:165] Memory required for data: 961417280
I1102 11:56:33.540627 10862 layer_factory.hpp:77] Creating layer conv7/dw
I1102 11:56:33.540638 10862 net.cpp:100] Creating Layer conv7/dw
I1102 11:56:33.540645 10862 net.cpp:481] conv7/dw <- conv6
I1102 11:56:33.540652 10862 net.cpp:455] conv7/dw -> conv7/dw
I1102 11:56:33.540915 10862 net.cpp:150] Setting up conv7/dw
I1102 11:56:33.540926 10862 net.cpp:157] Top shape: 8 512 19 19 (1478656)
I1102 11:56:33.540941 10862 net.cpp:165] Memory required for data: 967331904
I1102 11:56:33.540946 10862 layer_factory.hpp:77] Creating layer conv7/dw/bn
I1102 11:56:33.540951 10862 net.cpp:100] Creating Layer conv7/dw/bn
I1102 11:56:33.540954 10862 net.cpp:481] conv7/dw/bn <- conv7/dw
I1102 11:56:33.540958 10862 net.cpp:442] conv7/dw/bn -> conv7/dw (in-place)
I1102 11:56:33.541170 10862 net.cpp:150] Setting up conv7/dw/bn
I1102 11:56:33.541177 10862 net.cpp:157] Top shape: 8 512 19 19 (1478656)
I1102 11:56:33.541180 10862 net.cpp:165] Memory required for data: 973246528
I1102 11:56:33.541188 10862 layer_factory.hpp:77] Creating layer conv7/dw/scale
I1102 11:56:33.541200 10862 net.cpp:100] Creating Layer conv7/dw/scale
I1102 11:56:33.541204 10862 net.cpp:481] conv7/dw/scale <- conv7/dw
I1102 11:56:33.541208 10862 net.cpp:442] conv7/dw/scale -> conv7/dw (in-place)
I1102 11:56:33.541254 10862 layer_factory.hpp:77] Creating layer conv7/dw/scale
I1102 11:56:33.541378 10862 net.cpp:150] Setting up conv7/dw/scale
I1102 11:56:33.541388 10862 net.cpp:157] Top shape: 8 512 19 19 (1478656)
I1102 11:56:33.541391 10862 net.cpp:165] Memory required for data: 979161152
I1102 11:56:33.541396 10862 layer_factory.hpp:77] Creating layer conv7/dw/relu
I1102 11:56:33.541401 10862 net.cpp:100] Creating Layer conv7/dw/relu
I1102 11:56:33.541404 10862 net.cpp:481] conv7/dw/relu <- conv7/dw
I1102 11:56:33.541410 10862 net.cpp:442] conv7/dw/relu -> conv7/dw (in-place)
I1102 11:56:33.541699 10862 net.cpp:150] Setting up conv7/dw/relu
I1102 11:56:33.541713 10862 net.cpp:157] Top shape: 8 512 19 19 (1478656)
I1102 11:56:33.541716 10862 net.cpp:165] Memory required for data: 985075776
I1102 11:56:33.541719 10862 layer_factory.hpp:77] Creating layer conv7
I1102 11:56:33.541731 10862 net.cpp:100] Creating Layer conv7
I1102 11:56:33.541738 10862 net.cpp:481] conv7 <- conv7/dw
I1102 11:56:33.541745 10862 net.cpp:455] conv7 -> conv7
I1102 11:56:33.548537 10862 net.cpp:150] Setting up conv7
I1102 11:56:33.548557 10862 net.cpp:157] Top shape: 8 512 19 19 (1478656)
I1102 11:56:33.548560 10862 net.cpp:165] Memory required for data: 990990400
I1102 11:56:33.548565 10862 layer_factory.hpp:77] Creating layer conv7/bn
I1102 11:56:33.548573 10862 net.cpp:100] Creating Layer conv7/bn
I1102 11:56:33.548578 10862 net.cpp:481] conv7/bn <- conv7
I1102 11:56:33.548581 10862 net.cpp:442] conv7/bn -> conv7 (in-place)
I1102 11:56:33.548781 10862 net.cpp:150] Setting up conv7/bn
I1102 11:56:33.548795 10862 net.cpp:157] Top shape: 8 512 19 19 (1478656)
I1102 11:56:33.548797 10862 net.cpp:165] Memory required for data: 996905024
I1102 11:56:33.548804 10862 layer_factory.hpp:77] Creating layer conv7/scale
I1102 11:56:33.548811 10862 net.cpp:100] Creating Layer conv7/scale
I1102 11:56:33.548821 10862 net.cpp:481] conv7/scale <- conv7
I1102 11:56:33.548826 10862 net.cpp:442] conv7/scale -> conv7 (in-place)
I1102 11:56:33.548879 10862 layer_factory.hpp:77] Creating layer conv7/scale
I1102 11:56:33.549027 10862 net.cpp:150] Setting up conv7/scale
I1102 11:56:33.549034 10862 net.cpp:157] Top shape: 8 512 19 19 (1478656)
I1102 11:56:33.549037 10862 net.cpp:165] Memory required for data: 1002819648
I1102 11:56:33.549041 10862 layer_factory.hpp:77] Creating layer conv7/relu
I1102 11:56:33.549046 10862 net.cpp:100] Creating Layer conv7/relu
I1102 11:56:33.549048 10862 net.cpp:481] conv7/relu <- conv7
I1102 11:56:33.549052 10862 net.cpp:442] conv7/relu -> conv7 (in-place)
I1102 11:56:33.550151 10862 net.cpp:150] Setting up conv7/relu
I1102 11:56:33.550173 10862 net.cpp:157] Top shape: 8 512 19 19 (1478656)
I1102 11:56:33.550175 10862 net.cpp:165] Memory required for data: 1008734272
I1102 11:56:33.550179 10862 layer_factory.hpp:77] Creating layer conv8/dw
I1102 11:56:33.550189 10862 net.cpp:100] Creating Layer conv8/dw
I1102 11:56:33.550199 10862 net.cpp:481] conv8/dw <- conv7
I1102 11:56:33.550204 10862 net.cpp:455] conv8/dw -> conv8/dw
I1102 11:56:33.550441 10862 net.cpp:150] Setting up conv8/dw
I1102 11:56:33.550454 10862 net.cpp:157] Top shape: 8 512 19 19 (1478656)
I1102 11:56:33.550468 10862 net.cpp:165] Memory required for data: 1014648896
I1102 11:56:33.550473 10862 layer_factory.hpp:77] Creating layer conv8/dw/bn
I1102 11:56:33.550478 10862 net.cpp:100] Creating Layer conv8/dw/bn
I1102 11:56:33.550483 10862 net.cpp:481] conv8/dw/bn <- conv8/dw
I1102 11:56:33.550487 10862 net.cpp:442] conv8/dw/bn -> conv8/dw (in-place)
I1102 11:56:33.550683 10862 net.cpp:150] Setting up conv8/dw/bn
I1102 11:56:33.550693 10862 net.cpp:157] Top shape: 8 512 19 19 (1478656)
I1102 11:56:33.550695 10862 net.cpp:165] Memory required for data: 1020563520
I1102 11:56:33.550701 10862 layer_factory.hpp:77] Creating layer conv8/dw/scale
I1102 11:56:33.550714 10862 net.cpp:100] Creating Layer conv8/dw/scale
I1102 11:56:33.550720 10862 net.cpp:481] conv8/dw/scale <- conv8/dw
I1102 11:56:33.550724 10862 net.cpp:442] conv8/dw/scale -> conv8/dw (in-place)
I1102 11:56:33.550771 10862 layer_factory.hpp:77] Creating layer conv8/dw/scale
I1102 11:56:33.550894 10862 net.cpp:150] Setting up conv8/dw/scale
I1102 11:56:33.550904 10862 net.cpp:157] Top shape: 8 512 19 19 (1478656)
I1102 11:56:33.550907 10862 net.cpp:165] Memory required for data: 1026478144
I1102 11:56:33.550912 10862 layer_factory.hpp:77] Creating layer conv8/dw/relu
I1102 11:56:33.550916 10862 net.cpp:100] Creating Layer conv8/dw/relu
I1102 11:56:33.550920 10862 net.cpp:481] conv8/dw/relu <- conv8/dw
I1102 11:56:33.550922 10862 net.cpp:442] conv8/dw/relu -> conv8/dw (in-place)
I1102 11:56:33.551950 10862 net.cpp:150] Setting up conv8/dw/relu
I1102 11:56:33.551970 10862 net.cpp:157] Top shape: 8 512 19 19 (1478656)
I1102 11:56:33.551972 10862 net.cpp:165] Memory required for data: 1032392768
I1102 11:56:33.551975 10862 layer_factory.hpp:77] Creating layer conv8
I1102 11:56:33.551985 10862 net.cpp:100] Creating Layer conv8
I1102 11:56:33.551988 10862 net.cpp:481] conv8 <- conv8/dw
I1102 11:56:33.551995 10862 net.cpp:455] conv8 -> conv8
I1102 11:56:33.558024 10862 net.cpp:150] Setting up conv8
I1102 11:56:33.558048 10862 net.cpp:157] Top shape: 8 512 19 19 (1478656)
I1102 11:56:33.558050 10862 net.cpp:165] Memory required for data: 1038307392
I1102 11:56:33.558055 10862 layer_factory.hpp:77] Creating layer conv8/bn
I1102 11:56:33.558060 10862 net.cpp:100] Creating Layer conv8/bn
I1102 11:56:33.558063 10862 net.cpp:481] conv8/bn <- conv8
I1102 11:56:33.558069 10862 net.cpp:442] conv8/bn -> conv8 (in-place)
I1102 11:56:33.558282 10862 net.cpp:150] Setting up conv8/bn
I1102 11:56:33.558295 10862 net.cpp:157] Top shape: 8 512 19 19 (1478656)
I1102 11:56:33.558297 10862 net.cpp:165] Memory required for data: 1044222016
I1102 11:56:33.558305 10862 layer_factory.hpp:77] Creating layer conv8/scale
I1102 11:56:33.558313 10862 net.cpp:100] Creating Layer conv8/scale
I1102 11:56:33.558320 10862 net.cpp:481] conv8/scale <- conv8
I1102 11:56:33.558324 10862 net.cpp:442] conv8/scale -> conv8 (in-place)
I1102 11:56:33.558372 10862 layer_factory.hpp:77] Creating layer conv8/scale
I1102 11:56:33.558495 10862 net.cpp:150] Setting up conv8/scale
I1102 11:56:33.558506 10862 net.cpp:157] Top shape: 8 512 19 19 (1478656)
I1102 11:56:33.558507 10862 net.cpp:165] Memory required for data: 1050136640
I1102 11:56:33.558512 10862 layer_factory.hpp:77] Creating layer conv8/relu
I1102 11:56:33.558516 10862 net.cpp:100] Creating Layer conv8/relu
I1102 11:56:33.558519 10862 net.cpp:481] conv8/relu <- conv8
I1102 11:56:33.558524 10862 net.cpp:442] conv8/relu -> conv8 (in-place)
I1102 11:56:33.558889 10862 net.cpp:150] Setting up conv8/relu
I1102 11:56:33.558904 10862 net.cpp:157] Top shape: 8 512 19 19 (1478656)
I1102 11:56:33.558907 10862 net.cpp:165] Memory required for data: 1056051264
I1102 11:56:33.558909 10862 layer_factory.hpp:77] Creating layer conv9/dw
I1102 11:56:33.558919 10862 net.cpp:100] Creating Layer conv9/dw
I1102 11:56:33.558923 10862 net.cpp:481] conv9/dw <- conv8
I1102 11:56:33.558928 10862 net.cpp:455] conv9/dw -> conv9/dw
I1102 11:56:33.559211 10862 net.cpp:150] Setting up conv9/dw
I1102 11:56:33.559217 10862 net.cpp:157] Top shape: 8 512 19 19 (1478656)
I1102 11:56:33.559219 10862 net.cpp:165] Memory required for data: 1061965888
I1102 11:56:33.559236 10862 layer_factory.hpp:77] Creating layer conv9/dw/bn
I1102 11:56:33.559242 10862 net.cpp:100] Creating Layer conv9/dw/bn
I1102 11:56:33.559252 10862 net.cpp:481] conv9/dw/bn <- conv9/dw
I1102 11:56:33.559257 10862 net.cpp:442] conv9/dw/bn -> conv9/dw (in-place)
I1102 11:56:33.559438 10862 net.cpp:150] Setting up conv9/dw/bn
I1102 11:56:33.559449 10862 net.cpp:157] Top shape: 8 512 19 19 (1478656)
I1102 11:56:33.559451 10862 net.cpp:165] Memory required for data: 1067880512
I1102 11:56:33.559458 10862 layer_factory.hpp:77] Creating layer conv9/dw/scale
I1102 11:56:33.559466 10862 net.cpp:100] Creating Layer conv9/dw/scale
I1102 11:56:33.559471 10862 net.cpp:481] conv9/dw/scale <- conv9/dw
I1102 11:56:33.559476 10862 net.cpp:442] conv9/dw/scale -> conv9/dw (in-place)
I1102 11:56:33.559520 10862 layer_factory.hpp:77] Creating layer conv9/dw/scale
I1102 11:56:33.559695 10862 net.cpp:150] Setting up conv9/dw/scale
I1102 11:56:33.559705 10862 net.cpp:157] Top shape: 8 512 19 19 (1478656)
I1102 11:56:33.559706 10862 net.cpp:165] Memory required for data: 1073795136
I1102 11:56:33.559711 10862 layer_factory.hpp:77] Creating layer conv9/dw/relu
I1102 11:56:33.559725 10862 net.cpp:100] Creating Layer conv9/dw/relu
I1102 11:56:33.559731 10862 net.cpp:481] conv9/dw/relu <- conv9/dw
I1102 11:56:33.559736 10862 net.cpp:442] conv9/dw/relu -> conv9/dw (in-place)
I1102 11:56:33.560781 10862 net.cpp:150] Setting up conv9/dw/relu
I1102 11:56:33.560799 10862 net.cpp:157] Top shape: 8 512 19 19 (1478656)
I1102 11:56:33.560802 10862 net.cpp:165] Memory required for data: 1079709760
I1102 11:56:33.560806 10862 layer_factory.hpp:77] Creating layer conv9
I1102 11:56:33.560816 10862 net.cpp:100] Creating Layer conv9
I1102 11:56:33.560823 10862 net.cpp:481] conv9 <- conv9/dw
I1102 11:56:33.560830 10862 net.cpp:455] conv9 -> conv9
I1102 11:56:33.566644 10862 net.cpp:150] Setting up conv9
I1102 11:56:33.566666 10862 net.cpp:157] Top shape: 8 512 19 19 (1478656)
I1102 11:56:33.566669 10862 net.cpp:165] Memory required for data: 1085624384
I1102 11:56:33.566674 10862 layer_factory.hpp:77] Creating layer conv9/bn
I1102 11:56:33.566680 10862 net.cpp:100] Creating Layer conv9/bn
I1102 11:56:33.566684 10862 net.cpp:481] conv9/bn <- conv9
I1102 11:56:33.566696 10862 net.cpp:442] conv9/bn -> conv9 (in-place)
I1102 11:56:33.566970 10862 net.cpp:150] Setting up conv9/bn
I1102 11:56:33.566982 10862 net.cpp:157] Top shape: 8 512 19 19 (1478656)
I1102 11:56:33.566984 10862 net.cpp:165] Memory required for data: 1091539008
I1102 11:56:33.566990 10862 layer_factory.hpp:77] Creating layer conv9/scale
I1102 11:56:33.566999 10862 net.cpp:100] Creating Layer conv9/scale
I1102 11:56:33.567003 10862 net.cpp:481] conv9/scale <- conv9
I1102 11:56:33.567008 10862 net.cpp:442] conv9/scale -> conv9 (in-place)
I1102 11:56:33.567070 10862 layer_factory.hpp:77] Creating layer conv9/scale
I1102 11:56:33.567243 10862 net.cpp:150] Setting up conv9/scale
I1102 11:56:33.567270 10862 net.cpp:157] Top shape: 8 512 19 19 (1478656)
I1102 11:56:33.567272 10862 net.cpp:165] Memory required for data: 1097453632
I1102 11:56:33.567277 10862 layer_factory.hpp:77] Creating layer conv9/relu
I1102 11:56:33.567282 10862 net.cpp:100] Creating Layer conv9/relu
I1102 11:56:33.567287 10862 net.cpp:481] conv9/relu <- conv9
I1102 11:56:33.567293 10862 net.cpp:442] conv9/relu -> conv9 (in-place)
I1102 11:56:33.567673 10862 net.cpp:150] Setting up conv9/relu
I1102 11:56:33.567704 10862 net.cpp:157] Top shape: 8 512 19 19 (1478656)
I1102 11:56:33.567708 10862 net.cpp:165] Memory required for data: 1103368256
I1102 11:56:33.567710 10862 layer_factory.hpp:77] Creating layer conv10/dw
I1102 11:56:33.567720 10862 net.cpp:100] Creating Layer conv10/dw
I1102 11:56:33.567725 10862 net.cpp:481] conv10/dw <- conv9
I1102 11:56:33.567746 10862 net.cpp:455] conv10/dw -> conv10/dw
I1102 11:56:33.568047 10862 net.cpp:150] Setting up conv10/dw
I1102 11:56:33.568056 10862 net.cpp:157] Top shape: 8 512 19 19 (1478656)
I1102 11:56:33.568059 10862 net.cpp:165] Memory required for data: 1109282880
I1102 11:56:33.568074 10862 layer_factory.hpp:77] Creating layer conv10/dw/bn
I1102 11:56:33.568083 10862 net.cpp:100] Creating Layer conv10/dw/bn
I1102 11:56:33.568085 10862 net.cpp:481] conv10/dw/bn <- conv10/dw
I1102 11:56:33.568091 10862 net.cpp:442] conv10/dw/bn -> conv10/dw (in-place)
I1102 11:56:33.568279 10862 net.cpp:150] Setting up conv10/dw/bn
I1102 11:56:33.568289 10862 net.cpp:157] Top shape: 8 512 19 19 (1478656)
I1102 11:56:33.568291 10862 net.cpp:165] Memory required for data: 1115197504
I1102 11:56:33.568297 10862 layer_factory.hpp:77] Creating layer conv10/dw/scale
I1102 11:56:33.568305 10862 net.cpp:100] Creating Layer conv10/dw/scale
I1102 11:56:33.568310 10862 net.cpp:481] conv10/dw/scale <- conv10/dw
I1102 11:56:33.568315 10862 net.cpp:442] conv10/dw/scale -> conv10/dw (in-place)
I1102 11:56:33.568359 10862 layer_factory.hpp:77] Creating layer conv10/dw/scale
I1102 11:56:33.568473 10862 net.cpp:150] Setting up conv10/dw/scale
I1102 11:56:33.568482 10862 net.cpp:157] Top shape: 8 512 19 19 (1478656)
I1102 11:56:33.568485 10862 net.cpp:165] Memory required for data: 1121112128
I1102 11:56:33.568490 10862 layer_factory.hpp:77] Creating layer conv10/dw/relu
I1102 11:56:33.568493 10862 net.cpp:100] Creating Layer conv10/dw/relu
I1102 11:56:33.568498 10862 net.cpp:481] conv10/dw/relu <- conv10/dw
I1102 11:56:33.568505 10862 net.cpp:442] conv10/dw/relu -> conv10/dw (in-place)
I1102 11:56:33.569425 10862 net.cpp:150] Setting up conv10/dw/relu
I1102 11:56:33.569443 10862 net.cpp:157] Top shape: 8 512 19 19 (1478656)
I1102 11:56:33.569447 10862 net.cpp:165] Memory required for data: 1127026752
I1102 11:56:33.569450 10862 layer_factory.hpp:77] Creating layer conv10
I1102 11:56:33.569460 10862 net.cpp:100] Creating Layer conv10
I1102 11:56:33.569468 10862 net.cpp:481] conv10 <- conv10/dw
I1102 11:56:33.569476 10862 net.cpp:455] conv10 -> conv10
I1102 11:56:33.575850 10862 net.cpp:150] Setting up conv10
I1102 11:56:33.575876 10862 net.cpp:157] Top shape: 8 512 19 19 (1478656)
I1102 11:56:33.575881 10862 net.cpp:165] Memory required for data: 1132941376
I1102 11:56:33.575886 10862 layer_factory.hpp:77] Creating layer conv10/bn
I1102 11:56:33.575891 10862 net.cpp:100] Creating Layer conv10/bn
I1102 11:56:33.575893 10862 net.cpp:481] conv10/bn <- conv10
I1102 11:56:33.575899 10862 net.cpp:442] conv10/bn -> conv10 (in-place)
I1102 11:56:33.576102 10862 net.cpp:150] Setting up conv10/bn
I1102 11:56:33.576110 10862 net.cpp:157] Top shape: 8 512 19 19 (1478656)
I1102 11:56:33.576112 10862 net.cpp:165] Memory required for data: 1138856000
I1102 11:56:33.576118 10862 layer_factory.hpp:77] Creating layer conv10/scale
I1102 11:56:33.576124 10862 net.cpp:100] Creating Layer conv10/scale
I1102 11:56:33.576128 10862 net.cpp:481] conv10/scale <- conv10
I1102 11:56:33.576131 10862 net.cpp:442] conv10/scale -> conv10 (in-place)
I1102 11:56:33.576181 10862 layer_factory.hpp:77] Creating layer conv10/scale
I1102 11:56:33.576304 10862 net.cpp:150] Setting up conv10/scale
I1102 11:56:33.576315 10862 net.cpp:157] Top shape: 8 512 19 19 (1478656)
I1102 11:56:33.576318 10862 net.cpp:165] Memory required for data: 1144770624
I1102 11:56:33.576323 10862 layer_factory.hpp:77] Creating layer conv10/relu
I1102 11:56:33.576328 10862 net.cpp:100] Creating Layer conv10/relu
I1102 11:56:33.576334 10862 net.cpp:481] conv10/relu <- conv10
I1102 11:56:33.576339 10862 net.cpp:442] conv10/relu -> conv10 (in-place)
I1102 11:56:33.577270 10862 net.cpp:150] Setting up conv10/relu
I1102 11:56:33.577289 10862 net.cpp:157] Top shape: 8 512 19 19 (1478656)
I1102 11:56:33.577292 10862 net.cpp:165] Memory required for data: 1150685248
I1102 11:56:33.577296 10862 layer_factory.hpp:77] Creating layer conv11/dw
I1102 11:56:33.577306 10862 net.cpp:100] Creating Layer conv11/dw
I1102 11:56:33.577312 10862 net.cpp:481] conv11/dw <- conv10
I1102 11:56:33.577320 10862 net.cpp:455] conv11/dw -> conv11/dw
I1102 11:56:33.577589 10862 net.cpp:150] Setting up conv11/dw
I1102 11:56:33.577612 10862 net.cpp:157] Top shape: 8 512 19 19 (1478656)
I1102 11:56:33.577641 10862 net.cpp:165] Memory required for data: 1156599872
I1102 11:56:33.577647 10862 layer_factory.hpp:77] Creating layer conv11/dw/bn
I1102 11:56:33.577659 10862 net.cpp:100] Creating Layer conv11/dw/bn
I1102 11:56:33.577662 10862 net.cpp:481] conv11/dw/bn <- conv11/dw
I1102 11:56:33.577666 10862 net.cpp:442] conv11/dw/bn -> conv11/dw (in-place)
I1102 11:56:33.577913 10862 net.cpp:150] Setting up conv11/dw/bn
I1102 11:56:33.577924 10862 net.cpp:157] Top shape: 8 512 19 19 (1478656)
I1102 11:56:33.577926 10862 net.cpp:165] Memory required for data: 1162514496
I1102 11:56:33.577945 10862 layer_factory.hpp:77] Creating layer conv11/dw/scale
I1102 11:56:33.577953 10862 net.cpp:100] Creating Layer conv11/dw/scale
I1102 11:56:33.577956 10862 net.cpp:481] conv11/dw/scale <- conv11/dw
I1102 11:56:33.577960 10862 net.cpp:442] conv11/dw/scale -> conv11/dw (in-place)
I1102 11:56:33.578042 10862 layer_factory.hpp:77] Creating layer conv11/dw/scale
I1102 11:56:33.578169 10862 net.cpp:150] Setting up conv11/dw/scale
I1102 11:56:33.578177 10862 net.cpp:157] Top shape: 8 512 19 19 (1478656)
I1102 11:56:33.578179 10862 net.cpp:165] Memory required for data: 1168429120
I1102 11:56:33.578184 10862 layer_factory.hpp:77] Creating layer conv11/dw/relu
I1102 11:56:33.578188 10862 net.cpp:100] Creating Layer conv11/dw/relu
I1102 11:56:33.578191 10862 net.cpp:481] conv11/dw/relu <- conv11/dw
I1102 11:56:33.578197 10862 net.cpp:442] conv11/dw/relu -> conv11/dw (in-place)
I1102 11:56:33.578485 10862 net.cpp:150] Setting up conv11/dw/relu
I1102 11:56:33.578502 10862 net.cpp:157] Top shape: 8 512 19 19 (1478656)
I1102 11:56:33.578505 10862 net.cpp:165] Memory required for data: 1174343744
I1102 11:56:33.578508 10862 layer_factory.hpp:77] Creating layer conv11
I1102 11:56:33.578517 10862 net.cpp:100] Creating Layer conv11
I1102 11:56:33.578524 10862 net.cpp:481] conv11 <- conv11/dw
I1102 11:56:33.578531 10862 net.cpp:455] conv11 -> conv11
I1102 11:56:33.584312 10862 net.cpp:150] Setting up conv11
I1102 11:56:33.584336 10862 net.cpp:157] Top shape: 8 512 19 19 (1478656)
I1102 11:56:33.584338 10862 net.cpp:165] Memory required for data: 1180258368
I1102 11:56:33.584343 10862 layer_factory.hpp:77] Creating layer conv11/bn
I1102 11:56:33.584349 10862 net.cpp:100] Creating Layer conv11/bn
I1102 11:56:33.584358 10862 net.cpp:481] conv11/bn <- conv11
I1102 11:56:33.584364 10862 net.cpp:442] conv11/bn -> conv11 (in-place)
I1102 11:56:33.584565 10862 net.cpp:150] Setting up conv11/bn
I1102 11:56:33.584576 10862 net.cpp:157] Top shape: 8 512 19 19 (1478656)
I1102 11:56:33.584578 10862 net.cpp:165] Memory required for data: 1186172992
I1102 11:56:33.584584 10862 layer_factory.hpp:77] Creating layer conv11/scale
I1102 11:56:33.584590 10862 net.cpp:100] Creating Layer conv11/scale
I1102 11:56:33.584597 10862 net.cpp:481] conv11/scale <- conv11
I1102 11:56:33.584604 10862 net.cpp:442] conv11/scale -> conv11 (in-place)
I1102 11:56:33.584650 10862 layer_factory.hpp:77] Creating layer conv11/scale
I1102 11:56:33.584770 10862 net.cpp:150] Setting up conv11/scale
I1102 11:56:33.584780 10862 net.cpp:157] Top shape: 8 512 19 19 (1478656)
I1102 11:56:33.584784 10862 net.cpp:165] Memory required for data: 1192087616
I1102 11:56:33.584789 10862 layer_factory.hpp:77] Creating layer conv11/relu
I1102 11:56:33.584792 10862 net.cpp:100] Creating Layer conv11/relu
I1102 11:56:33.584795 10862 net.cpp:481] conv11/relu <- conv11
I1102 11:56:33.584800 10862 net.cpp:442] conv11/relu -> conv11 (in-place)
I1102 11:56:33.585840 10862 net.cpp:150] Setting up conv11/relu
I1102 11:56:33.585860 10862 net.cpp:157] Top shape: 8 512 19 19 (1478656)
I1102 11:56:33.585880 10862 net.cpp:165] Memory required for data: 1198002240
I1102 11:56:33.585882 10862 layer_factory.hpp:77] Creating layer conv11_conv11/relu_0_split
I1102 11:56:33.585891 10862 net.cpp:100] Creating Layer conv11_conv11/relu_0_split
I1102 11:56:33.585893 10862 net.cpp:481] conv11_conv11/relu_0_split <- conv11
I1102 11:56:33.585898 10862 net.cpp:455] conv11_conv11/relu_0_split -> conv11_conv11/relu_0_split_0
I1102 11:56:33.585923 10862 net.cpp:455] conv11_conv11/relu_0_split -> conv11_conv11/relu_0_split_1
I1102 11:56:33.585929 10862 net.cpp:455] conv11_conv11/relu_0_split -> conv11_conv11/relu_0_split_2
I1102 11:56:33.585934 10862 net.cpp:455] conv11_conv11/relu_0_split -> conv11_conv11/relu_0_split_3
I1102 11:56:33.586004 10862 net.cpp:150] Setting up conv11_conv11/relu_0_split
I1102 11:56:33.586009 10862 net.cpp:157] Top shape: 8 512 19 19 (1478656)
I1102 11:56:33.586011 10862 net.cpp:157] Top shape: 8 512 19 19 (1478656)
I1102 11:56:33.586014 10862 net.cpp:157] Top shape: 8 512 19 19 (1478656)
I1102 11:56:33.586017 10862 net.cpp:157] Top shape: 8 512 19 19 (1478656)
I1102 11:56:33.586019 10862 net.cpp:165] Memory required for data: 1221660736
I1102 11:56:33.586021 10862 layer_factory.hpp:77] Creating layer conv12/dw
I1102 11:56:33.586031 10862 net.cpp:100] Creating Layer conv12/dw
I1102 11:56:33.586035 10862 net.cpp:481] conv12/dw <- conv11_conv11/relu_0_split_0
I1102 11:56:33.586040 10862 net.cpp:455] conv12/dw -> conv12/dw
I1102 11:56:33.586315 10862 net.cpp:150] Setting up conv12/dw
I1102 11:56:33.586329 10862 net.cpp:157] Top shape: 8 512 10 10 (409600)
I1102 11:56:33.586347 10862 net.cpp:165] Memory required for data: 1223299136
I1102 11:56:33.586352 10862 layer_factory.hpp:77] Creating layer conv12/dw/bn
I1102 11:56:33.586357 10862 net.cpp:100] Creating Layer conv12/dw/bn
I1102 11:56:33.586364 10862 net.cpp:481] conv12/dw/bn <- conv12/dw
I1102 11:56:33.586367 10862 net.cpp:442] conv12/dw/bn -> conv12/dw (in-place)
I1102 11:56:33.586609 10862 net.cpp:150] Setting up conv12/dw/bn
I1102 11:56:33.586633 10862 net.cpp:157] Top shape: 8 512 10 10 (409600)
I1102 11:56:33.586637 10862 net.cpp:165] Memory required for data: 1224937536
I1102 11:56:33.586642 10862 layer_factory.hpp:77] Creating layer conv12/dw/scale
I1102 11:56:33.586649 10862 net.cpp:100] Creating Layer conv12/dw/scale
I1102 11:56:33.586654 10862 net.cpp:481] conv12/dw/scale <- conv12/dw
I1102 11:56:33.586658 10862 net.cpp:442] conv12/dw/scale -> conv12/dw (in-place)
I1102 11:56:33.586701 10862 layer_factory.hpp:77] Creating layer conv12/dw/scale
I1102 11:56:33.586829 10862 net.cpp:150] Setting up conv12/dw/scale
I1102 11:56:33.586841 10862 net.cpp:157] Top shape: 8 512 10 10 (409600)
I1102 11:56:33.586844 10862 net.cpp:165] Memory required for data: 1226575936
I1102 11:56:33.586849 10862 layer_factory.hpp:77] Creating layer conv12/dw/relu
I1102 11:56:33.586853 10862 net.cpp:100] Creating Layer conv12/dw/relu
I1102 11:56:33.586856 10862 net.cpp:481] conv12/dw/relu <- conv12/dw
I1102 11:56:33.586859 10862 net.cpp:442] conv12/dw/relu -> conv12/dw (in-place)
I1102 11:56:33.587160 10862 net.cpp:150] Setting up conv12/dw/relu
I1102 11:56:33.587172 10862 net.cpp:157] Top shape: 8 512 10 10 (409600)
I1102 11:56:33.587174 10862 net.cpp:165] Memory required for data: 1228214336
I1102 11:56:33.587177 10862 layer_factory.hpp:77] Creating layer conv12
I1102 11:56:33.587185 10862 net.cpp:100] Creating Layer conv12
I1102 11:56:33.587189 10862 net.cpp:481] conv12 <- conv12/dw
I1102 11:56:33.587194 10862 net.cpp:455] conv12 -> conv12
I1102 11:56:33.596858 10862 net.cpp:150] Setting up conv12
I1102 11:56:33.596892 10862 net.cpp:157] Top shape: 8 1024 10 10 (819200)
I1102 11:56:33.596895 10862 net.cpp:165] Memory required for data: 1231491136
I1102 11:56:33.596901 10862 layer_factory.hpp:77] Creating layer conv12/bn
I1102 11:56:33.596906 10862 net.cpp:100] Creating Layer conv12/bn
I1102 11:56:33.596909 10862 net.cpp:481] conv12/bn <- conv12
I1102 11:56:33.596917 10862 net.cpp:442] conv12/bn -> conv12 (in-place)
I1102 11:56:33.597157 10862 net.cpp:150] Setting up conv12/bn
I1102 11:56:33.597162 10862 net.cpp:157] Top shape: 8 1024 10 10 (819200)
I1102 11:56:33.597163 10862 net.cpp:165] Memory required for data: 1234767936
I1102 11:56:33.597175 10862 layer_factory.hpp:77] Creating layer conv12/scale
I1102 11:56:33.597182 10862 net.cpp:100] Creating Layer conv12/scale
I1102 11:56:33.597199 10862 net.cpp:481] conv12/scale <- conv12
I1102 11:56:33.597203 10862 net.cpp:442] conv12/scale -> conv12 (in-place)
I1102 11:56:33.597316 10862 layer_factory.hpp:77] Creating layer conv12/scale
I1102 11:56:33.597494 10862 net.cpp:150] Setting up conv12/scale
I1102 11:56:33.597507 10862 net.cpp:157] Top shape: 8 1024 10 10 (819200)
I1102 11:56:33.597510 10862 net.cpp:165] Memory required for data: 1238044736
I1102 11:56:33.597515 10862 layer_factory.hpp:77] Creating layer conv12/relu
I1102 11:56:33.597522 10862 net.cpp:100] Creating Layer conv12/relu
I1102 11:56:33.597525 10862 net.cpp:481] conv12/relu <- conv12
I1102 11:56:33.597529 10862 net.cpp:442] conv12/relu -> conv12 (in-place)
I1102 11:56:33.599265 10862 net.cpp:150] Setting up conv12/relu
I1102 11:56:33.599284 10862 net.cpp:157] Top shape: 8 1024 10 10 (819200)
I1102 11:56:33.599303 10862 net.cpp:165] Memory required for data: 1241321536
I1102 11:56:33.599305 10862 layer_factory.hpp:77] Creating layer conv13/dw
I1102 11:56:33.599315 10862 net.cpp:100] Creating Layer conv13/dw
I1102 11:56:33.599319 10862 net.cpp:481] conv13/dw <- conv12
I1102 11:56:33.599342 10862 net.cpp:455] conv13/dw -> conv13/dw
I1102 11:56:33.599640 10862 net.cpp:150] Setting up conv13/dw
I1102 11:56:33.599651 10862 net.cpp:157] Top shape: 8 1024 10 10 (819200)
I1102 11:56:33.599654 10862 net.cpp:165] Memory required for data: 1244598336
I1102 11:56:33.599658 10862 layer_factory.hpp:77] Creating layer conv13/dw/bn
I1102 11:56:33.599663 10862 net.cpp:100] Creating Layer conv13/dw/bn
I1102 11:56:33.599668 10862 net.cpp:481] conv13/dw/bn <- conv13/dw
I1102 11:56:33.599673 10862 net.cpp:442] conv13/dw/bn -> conv13/dw (in-place)
I1102 11:56:33.599869 10862 net.cpp:150] Setting up conv13/dw/bn
I1102 11:56:33.599879 10862 net.cpp:157] Top shape: 8 1024 10 10 (819200)
I1102 11:56:33.599880 10862 net.cpp:165] Memory required for data: 1247875136
I1102 11:56:33.599886 10862 layer_factory.hpp:77] Creating layer conv13/dw/scale
I1102 11:56:33.599892 10862 net.cpp:100] Creating Layer conv13/dw/scale
I1102 11:56:33.599895 10862 net.cpp:481] conv13/dw/scale <- conv13/dw
I1102 11:56:33.599900 10862 net.cpp:442] conv13/dw/scale -> conv13/dw (in-place)
I1102 11:56:33.599941 10862 layer_factory.hpp:77] Creating layer conv13/dw/scale
I1102 11:56:33.600090 10862 net.cpp:150] Setting up conv13/dw/scale
I1102 11:56:33.600096 10862 net.cpp:157] Top shape: 8 1024 10 10 (819200)
I1102 11:56:33.600098 10862 net.cpp:165] Memory required for data: 1251151936
I1102 11:56:33.600103 10862 layer_factory.hpp:77] Creating layer conv13/dw/relu
I1102 11:56:33.600107 10862 net.cpp:100] Creating Layer conv13/dw/relu
I1102 11:56:33.600111 10862 net.cpp:481] conv13/dw/relu <- conv13/dw
I1102 11:56:33.600116 10862 net.cpp:442] conv13/dw/relu -> conv13/dw (in-place)
I1102 11:56:33.601282 10862 net.cpp:150] Setting up conv13/dw/relu
I1102 11:56:33.601317 10862 net.cpp:157] Top shape: 8 1024 10 10 (819200)
I1102 11:56:33.601320 10862 net.cpp:165] Memory required for data: 1254428736
I1102 11:56:33.601323 10862 layer_factory.hpp:77] Creating layer conv13
I1102 11:56:33.601361 10862 net.cpp:100] Creating Layer conv13
I1102 11:56:33.601384 10862 net.cpp:481] conv13 <- conv13/dw
I1102 11:56:33.601392 10862 net.cpp:455] conv13 -> conv13
I1102 11:56:33.616133 10862 net.cpp:150] Setting up conv13
I1102 11:56:33.616154 10862 net.cpp:157] Top shape: 8 1024 10 10 (819200)
I1102 11:56:33.616158 10862 net.cpp:165] Memory required for data: 1257705536
I1102 11:56:33.616163 10862 layer_factory.hpp:77] Creating layer conv13/bn
I1102 11:56:33.616168 10862 net.cpp:100] Creating Layer conv13/bn
I1102 11:56:33.616173 10862 net.cpp:481] conv13/bn <- conv13
I1102 11:56:33.616178 10862 net.cpp:442] conv13/bn -> conv13 (in-place)
I1102 11:56:33.616439 10862 net.cpp:150] Setting up conv13/bn
I1102 11:56:33.616451 10862 net.cpp:157] Top shape: 8 1024 10 10 (819200)
I1102 11:56:33.616453 10862 net.cpp:165] Memory required for data: 1260982336
I1102 11:56:33.616474 10862 layer_factory.hpp:77] Creating layer conv13/scale
I1102 11:56:33.616482 10862 net.cpp:100] Creating Layer conv13/scale
I1102 11:56:33.616484 10862 net.cpp:481] conv13/scale <- conv13
I1102 11:56:33.616504 10862 net.cpp:442] conv13/scale -> conv13 (in-place)
I1102 11:56:33.616554 10862 layer_factory.hpp:77] Creating layer conv13/scale
I1102 11:56:33.616683 10862 net.cpp:150] Setting up conv13/scale
I1102 11:56:33.616695 10862 net.cpp:157] Top shape: 8 1024 10 10 (819200)
I1102 11:56:33.616698 10862 net.cpp:165] Memory required for data: 1264259136
I1102 11:56:33.616703 10862 layer_factory.hpp:77] Creating layer conv13/relu
I1102 11:56:33.616710 10862 net.cpp:100] Creating Layer conv13/relu
I1102 11:56:33.616715 10862 net.cpp:481] conv13/relu <- conv13
I1102 11:56:33.616720 10862 net.cpp:442] conv13/relu -> conv13 (in-place)
I1102 11:56:33.617024 10862 net.cpp:150] Setting up conv13/relu
I1102 11:56:33.617039 10862 net.cpp:157] Top shape: 8 1024 10 10 (819200)
I1102 11:56:33.617043 10862 net.cpp:165] Memory required for data: 1267535936
I1102 11:56:33.617045 10862 layer_factory.hpp:77] Creating layer conv13_conv13/relu_0_split
I1102 11:56:33.617054 10862 net.cpp:100] Creating Layer conv13_conv13/relu_0_split
I1102 11:56:33.617060 10862 net.cpp:481] conv13_conv13/relu_0_split <- conv13
I1102 11:56:33.617067 10862 net.cpp:455] conv13_conv13/relu_0_split -> conv13_conv13/relu_0_split_0
I1102 11:56:33.617077 10862 net.cpp:455] conv13_conv13/relu_0_split -> conv13_conv13/relu_0_split_1
I1102 11:56:33.617085 10862 net.cpp:455] conv13_conv13/relu_0_split -> conv13_conv13/relu_0_split_2
I1102 11:56:33.617091 10862 net.cpp:455] conv13_conv13/relu_0_split -> conv13_conv13/relu_0_split_3
I1102 11:56:33.617172 10862 net.cpp:150] Setting up conv13_conv13/relu_0_split
I1102 11:56:33.617180 10862 net.cpp:157] Top shape: 8 1024 10 10 (819200)
I1102 11:56:33.617183 10862 net.cpp:157] Top shape: 8 1024 10 10 (819200)
I1102 11:56:33.617187 10862 net.cpp:157] Top shape: 8 1024 10 10 (819200)
I1102 11:56:33.617190 10862 net.cpp:157] Top shape: 8 1024 10 10 (819200)
I1102 11:56:33.617193 10862 net.cpp:165] Memory required for data: 1280643136
I1102 11:56:33.617195 10862 layer_factory.hpp:77] Creating layer conv14_1
I1102 11:56:33.617205 10862 net.cpp:100] Creating Layer conv14_1
I1102 11:56:33.617211 10862 net.cpp:481] conv14_1 <- conv13_conv13/relu_0_split_0
I1102 11:56:33.617218 10862 net.cpp:455] conv14_1 -> conv14_1
I1102 11:56:33.623234 10862 net.cpp:150] Setting up conv14_1
I1102 11:56:33.623255 10862 net.cpp:157] Top shape: 8 256 10 10 (204800)
I1102 11:56:33.623258 10862 net.cpp:165] Memory required for data: 1281462336
I1102 11:56:33.623263 10862 layer_factory.hpp:77] Creating layer conv14_1/bn
I1102 11:56:33.623270 10862 net.cpp:100] Creating Layer conv14_1/bn
I1102 11:56:33.623273 10862 net.cpp:481] conv14_1/bn <- conv14_1
I1102 11:56:33.623280 10862 net.cpp:442] conv14_1/bn -> conv14_1 (in-place)
I1102 11:56:33.623508 10862 net.cpp:150] Setting up conv14_1/bn
I1102 11:56:33.623519 10862 net.cpp:157] Top shape: 8 256 10 10 (204800)
I1102 11:56:33.623522 10862 net.cpp:165] Memory required for data: 1282281536
I1102 11:56:33.623528 10862 layer_factory.hpp:77] Creating layer conv14_1/scale
I1102 11:56:33.623553 10862 net.cpp:100] Creating Layer conv14_1/scale
I1102 11:56:33.623559 10862 net.cpp:481] conv14_1/scale <- conv14_1
I1102 11:56:33.623564 10862 net.cpp:442] conv14_1/scale -> conv14_1 (in-place)
I1102 11:56:33.623610 10862 layer_factory.hpp:77] Creating layer conv14_1/scale
I1102 11:56:33.623770 10862 net.cpp:150] Setting up conv14_1/scale
I1102 11:56:33.623780 10862 net.cpp:157] Top shape: 8 256 10 10 (204800)
I1102 11:56:33.623783 10862 net.cpp:165] Memory required for data: 1283100736
I1102 11:56:33.623788 10862 layer_factory.hpp:77] Creating layer conv14_1/relu
I1102 11:56:33.623795 10862 net.cpp:100] Creating Layer conv14_1/relu
I1102 11:56:33.623797 10862 net.cpp:481] conv14_1/relu <- conv14_1
I1102 11:56:33.623803 10862 net.cpp:442] conv14_1/relu -> conv14_1 (in-place)
I1102 11:56:33.624773 10862 net.cpp:150] Setting up conv14_1/relu
I1102 11:56:33.624791 10862 net.cpp:157] Top shape: 8 256 10 10 (204800)
I1102 11:56:33.624795 10862 net.cpp:165] Memory required for data: 1283919936
I1102 11:56:33.624827 10862 layer_factory.hpp:77] Creating layer conv14_2
I1102 11:56:33.624845 10862 net.cpp:100] Creating Layer conv14_2
I1102 11:56:33.624850 10862 net.cpp:481] conv14_2 <- conv14_1
I1102 11:56:33.624858 10862 net.cpp:455] conv14_2 -> conv14_2
I1102 11:56:33.641888 10862 net.cpp:150] Setting up conv14_2
I1102 11:56:33.641909 10862 net.cpp:157] Top shape: 8 512 5 5 (102400)
I1102 11:56:33.641913 10862 net.cpp:165] Memory required for data: 1284329536
I1102 11:56:33.641918 10862 layer_factory.hpp:77] Creating layer conv14_2/bn
I1102 11:56:33.641924 10862 net.cpp:100] Creating Layer conv14_2/bn
I1102 11:56:33.641927 10862 net.cpp:481] conv14_2/bn <- conv14_2
I1102 11:56:33.641935 10862 net.cpp:442] conv14_2/bn -> conv14_2 (in-place)
I1102 11:56:33.642207 10862 net.cpp:150] Setting up conv14_2/bn
I1102 11:56:33.642220 10862 net.cpp:157] Top shape: 8 512 5 5 (102400)
I1102 11:56:33.642223 10862 net.cpp:165] Memory required for data: 1284739136
I1102 11:56:33.642230 10862 layer_factory.hpp:77] Creating layer conv14_2/scale
I1102 11:56:33.642246 10862 net.cpp:100] Creating Layer conv14_2/scale
I1102 11:56:33.642253 10862 net.cpp:481] conv14_2/scale <- conv14_2
I1102 11:56:33.642261 10862 net.cpp:442] conv14_2/scale -> conv14_2 (in-place)
I1102 11:56:33.642321 10862 layer_factory.hpp:77] Creating layer conv14_2/scale
I1102 11:56:33.642470 10862 net.cpp:150] Setting up conv14_2/scale
I1102 11:56:33.642479 10862 net.cpp:157] Top shape: 8 512 5 5 (102400)
I1102 11:56:33.642482 10862 net.cpp:165] Memory required for data: 1285148736
I1102 11:56:33.642488 10862 layer_factory.hpp:77] Creating layer conv14_2/relu
I1102 11:56:33.642493 10862 net.cpp:100] Creating Layer conv14_2/relu
I1102 11:56:33.642496 10862 net.cpp:481] conv14_2/relu <- conv14_2
I1102 11:56:33.642503 10862 net.cpp:442] conv14_2/relu -> conv14_2 (in-place)
I1102 11:56:33.642823 10862 net.cpp:150] Setting up conv14_2/relu
I1102 11:56:33.642839 10862 net.cpp:157] Top shape: 8 512 5 5 (102400)
I1102 11:56:33.642843 10862 net.cpp:165] Memory required for data: 1285558336
I1102 11:56:33.642845 10862 layer_factory.hpp:77] Creating layer conv14_2_conv14_2/relu_0_split
I1102 11:56:33.642876 10862 net.cpp:100] Creating Layer conv14_2_conv14_2/relu_0_split
I1102 11:56:33.642884 10862 net.cpp:481] conv14_2_conv14_2/relu_0_split <- conv14_2
I1102 11:56:33.642890 10862 net.cpp:455] conv14_2_conv14_2/relu_0_split -> conv14_2_conv14_2/relu_0_split_0
I1102 11:56:33.642897 10862 net.cpp:455] conv14_2_conv14_2/relu_0_split -> conv14_2_conv14_2/relu_0_split_1
I1102 11:56:33.642906 10862 net.cpp:455] conv14_2_conv14_2/relu_0_split -> conv14_2_conv14_2/relu_0_split_2
I1102 11:56:33.642911 10862 net.cpp:455] conv14_2_conv14_2/relu_0_split -> conv14_2_conv14_2/relu_0_split_3
I1102 11:56:33.642992 10862 net.cpp:150] Setting up conv14_2_conv14_2/relu_0_split
I1102 11:56:33.643002 10862 net.cpp:157] Top shape: 8 512 5 5 (102400)
I1102 11:56:33.643007 10862 net.cpp:157] Top shape: 8 512 5 5 (102400)
I1102 11:56:33.643009 10862 net.cpp:157] Top shape: 8 512 5 5 (102400)
I1102 11:56:33.643013 10862 net.cpp:157] Top shape: 8 512 5 5 (102400)
I1102 11:56:33.643015 10862 net.cpp:165] Memory required for data: 1287196736
I1102 11:56:33.643018 10862 layer_factory.hpp:77] Creating layer conv15_1
I1102 11:56:33.643028 10862 net.cpp:100] Creating Layer conv15_1
I1102 11:56:33.643033 10862 net.cpp:481] conv15_1 <- conv14_2_conv14_2/relu_0_split_0
I1102 11:56:33.643041 10862 net.cpp:455] conv15_1 -> conv15_1
I1102 11:56:33.646330 10862 net.cpp:150] Setting up conv15_1
I1102 11:56:33.646354 10862 net.cpp:157] Top shape: 8 128 5 5 (25600)
I1102 11:56:33.646358 10862 net.cpp:165] Memory required for data: 1287299136
I1102 11:56:33.646363 10862 layer_factory.hpp:77] Creating layer conv15_1/bn
I1102 11:56:33.646369 10862 net.cpp:100] Creating Layer conv15_1/bn
I1102 11:56:33.646373 10862 net.cpp:481] conv15_1/bn <- conv15_1
I1102 11:56:33.646380 10862 net.cpp:442] conv15_1/bn -> conv15_1 (in-place)
I1102 11:56:33.646608 10862 net.cpp:150] Setting up conv15_1/bn
I1102 11:56:33.646620 10862 net.cpp:157] Top shape: 8 128 5 5 (25600)
I1102 11:56:33.646634 10862 net.cpp:165] Memory required for data: 1287401536
I1102 11:56:33.646641 10862 layer_factory.hpp:77] Creating layer conv15_1/scale
I1102 11:56:33.646654 10862 net.cpp:100] Creating Layer conv15_1/scale
I1102 11:56:33.646658 10862 net.cpp:481] conv15_1/scale <- conv15_1
I1102 11:56:33.646664 10862 net.cpp:442] conv15_1/scale -> conv15_1 (in-place)
I1102 11:56:33.646715 10862 layer_factory.hpp:77] Creating layer conv15_1/scale
I1102 11:56:33.646849 10862 net.cpp:150] Setting up conv15_1/scale
I1102 11:56:33.646860 10862 net.cpp:157] Top shape: 8 128 5 5 (25600)
I1102 11:56:33.646868 10862 net.cpp:165] Memory required for data: 1287503936
I1102 11:56:33.646873 10862 layer_factory.hpp:77] Creating layer conv15_1/relu
I1102 11:56:33.646878 10862 net.cpp:100] Creating Layer conv15_1/relu
I1102 11:56:33.646881 10862 net.cpp:481] conv15_1/relu <- conv15_1
I1102 11:56:33.646888 10862 net.cpp:442] conv15_1/relu -> conv15_1 (in-place)
I1102 11:56:33.647897 10862 net.cpp:150] Setting up conv15_1/relu
I1102 11:56:33.647915 10862 net.cpp:157] Top shape: 8 128 5 5 (25600)
I1102 11:56:33.647919 10862 net.cpp:165] Memory required for data: 1287606336
I1102 11:56:33.647922 10862 layer_factory.hpp:77] Creating layer conv15_2
I1102 11:56:33.647933 10862 net.cpp:100] Creating Layer conv15_2
I1102 11:56:33.647940 10862 net.cpp:481] conv15_2 <- conv15_1
I1102 11:56:33.647949 10862 net.cpp:455] conv15_2 -> conv15_2
I1102 11:56:33.654270 10862 net.cpp:150] Setting up conv15_2
I1102 11:56:33.654292 10862 net.cpp:157] Top shape: 8 256 3 3 (18432)
I1102 11:56:33.654296 10862 net.cpp:165] Memory required for data: 1287680064
I1102 11:56:33.654301 10862 layer_factory.hpp:77] Creating layer conv15_2/bn
I1102 11:56:33.654307 10862 net.cpp:100] Creating Layer conv15_2/bn
I1102 11:56:33.654310 10862 net.cpp:481] conv15_2/bn <- conv15_2
I1102 11:56:33.654316 10862 net.cpp:442] conv15_2/bn -> conv15_2 (in-place)
I1102 11:56:33.654530 10862 net.cpp:150] Setting up conv15_2/bn
I1102 11:56:33.654541 10862 net.cpp:157] Top shape: 8 256 3 3 (18432)
I1102 11:56:33.654543 10862 net.cpp:165] Memory required for data: 1287753792
I1102 11:56:33.654549 10862 layer_factory.hpp:77] Creating layer conv15_2/scale
I1102 11:56:33.654556 10862 net.cpp:100] Creating Layer conv15_2/scale
I1102 11:56:33.654567 10862 net.cpp:481] conv15_2/scale <- conv15_2
I1102 11:56:33.654575 10862 net.cpp:442] conv15_2/scale -> conv15_2 (in-place)
I1102 11:56:33.654623 10862 layer_factory.hpp:77] Creating layer conv15_2/scale
I1102 11:56:33.654747 10862 net.cpp:150] Setting up conv15_2/scale
I1102 11:56:33.654757 10862 net.cpp:157] Top shape: 8 256 3 3 (18432)
I1102 11:56:33.654759 10862 net.cpp:165] Memory required for data: 1287827520
I1102 11:56:33.654764 10862 layer_factory.hpp:77] Creating layer conv15_2/relu
I1102 11:56:33.654780 10862 net.cpp:100] Creating Layer conv15_2/relu
I1102 11:56:33.654786 10862 net.cpp:481] conv15_2/relu <- conv15_2
I1102 11:56:33.654790 10862 net.cpp:442] conv15_2/relu -> conv15_2 (in-place)
I1102 11:56:33.655725 10862 net.cpp:150] Setting up conv15_2/relu
I1102 11:56:33.655757 10862 net.cpp:157] Top shape: 8 256 3 3 (18432)
I1102 11:56:33.655761 10862 net.cpp:165] Memory required for data: 1287901248
I1102 11:56:33.655764 10862 layer_factory.hpp:77] Creating layer conv15_2_conv15_2/relu_0_split
I1102 11:56:33.655772 10862 net.cpp:100] Creating Layer conv15_2_conv15_2/relu_0_split
I1102 11:56:33.655776 10862 net.cpp:481] conv15_2_conv15_2/relu_0_split <- conv15_2
I1102 11:56:33.655781 10862 net.cpp:455] conv15_2_conv15_2/relu_0_split -> conv15_2_conv15_2/relu_0_split_0
I1102 11:56:33.655788 10862 net.cpp:455] conv15_2_conv15_2/relu_0_split -> conv15_2_conv15_2/relu_0_split_1
I1102 11:56:33.655793 10862 net.cpp:455] conv15_2_conv15_2/relu_0_split -> conv15_2_conv15_2/relu_0_split_2
I1102 11:56:33.655800 10862 net.cpp:455] conv15_2_conv15_2/relu_0_split -> conv15_2_conv15_2/relu_0_split_3
I1102 11:56:33.655884 10862 net.cpp:150] Setting up conv15_2_conv15_2/relu_0_split
I1102 11:56:33.655896 10862 net.cpp:157] Top shape: 8 256 3 3 (18432)
I1102 11:56:33.655915 10862 net.cpp:157] Top shape: 8 256 3 3 (18432)
I1102 11:56:33.655920 10862 net.cpp:157] Top shape: 8 256 3 3 (18432)
I1102 11:56:33.655922 10862 net.cpp:157] Top shape: 8 256 3 3 (18432)
I1102 11:56:33.655925 10862 net.cpp:165] Memory required for data: 1288196160
I1102 11:56:33.655927 10862 layer_factory.hpp:77] Creating layer conv16_1
I1102 11:56:33.655936 10862 net.cpp:100] Creating Layer conv16_1
I1102 11:56:33.655942 10862 net.cpp:481] conv16_1 <- conv15_2_conv15_2/relu_0_split_0
I1102 11:56:33.655962 10862 net.cpp:455] conv16_1 -> conv16_1
I1102 11:56:33.658978 10862 net.cpp:150] Setting up conv16_1
I1102 11:56:33.659001 10862 net.cpp:157] Top shape: 8 128 3 3 (9216)
I1102 11:56:33.659004 10862 net.cpp:165] Memory required for data: 1288233024
I1102 11:56:33.659010 10862 layer_factory.hpp:77] Creating layer conv16_1/bn
I1102 11:56:33.659015 10862 net.cpp:100] Creating Layer conv16_1/bn
I1102 11:56:33.659019 10862 net.cpp:481] conv16_1/bn <- conv16_1
I1102 11:56:33.659026 10862 net.cpp:442] conv16_1/bn -> conv16_1 (in-place)
I1102 11:56:33.659250 10862 net.cpp:150] Setting up conv16_1/bn
I1102 11:56:33.659261 10862 net.cpp:157] Top shape: 8 128 3 3 (9216)
I1102 11:56:33.659263 10862 net.cpp:165] Memory required for data: 1288269888
I1102 11:56:33.659274 10862 layer_factory.hpp:77] Creating layer conv16_1/scale
I1102 11:56:33.659281 10862 net.cpp:100] Creating Layer conv16_1/scale
I1102 11:56:33.659284 10862 net.cpp:481] conv16_1/scale <- conv16_1
I1102 11:56:33.659289 10862 net.cpp:442] conv16_1/scale -> conv16_1 (in-place)
I1102 11:56:33.659337 10862 layer_factory.hpp:77] Creating layer conv16_1/scale
I1102 11:56:33.659483 10862 net.cpp:150] Setting up conv16_1/scale
I1102 11:56:33.659494 10862 net.cpp:157] Top shape: 8 128 3 3 (9216)
I1102 11:56:33.659497 10862 net.cpp:165] Memory required for data: 1288306752
I1102 11:56:33.659502 10862 layer_factory.hpp:77] Creating layer conv16_1/relu
I1102 11:56:33.659508 10862 net.cpp:100] Creating Layer conv16_1/relu
I1102 11:56:33.659514 10862 net.cpp:481] conv16_1/relu <- conv16_1
I1102 11:56:33.659518 10862 net.cpp:442] conv16_1/relu -> conv16_1 (in-place)
I1102 11:56:33.659875 10862 net.cpp:150] Setting up conv16_1/relu
I1102 11:56:33.659891 10862 net.cpp:157] Top shape: 8 128 3 3 (9216)
I1102 11:56:33.659894 10862 net.cpp:165] Memory required for data: 1288343616
I1102 11:56:33.659898 10862 layer_factory.hpp:77] Creating layer conv16_2
I1102 11:56:33.659922 10862 net.cpp:100] Creating Layer conv16_2
I1102 11:56:33.659945 10862 net.cpp:481] conv16_2 <- conv16_1
I1102 11:56:33.659952 10862 net.cpp:455] conv16_2 -> conv16_2
I1102 11:56:33.666606 10862 net.cpp:150] Setting up conv16_2
I1102 11:56:33.666628 10862 net.cpp:157] Top shape: 8 256 2 2 (8192)
I1102 11:56:33.666631 10862 net.cpp:165] Memory required for data: 1288376384
I1102 11:56:33.666636 10862 layer_factory.hpp:77] Creating layer conv16_2/bn
I1102 11:56:33.666642 10862 net.cpp:100] Creating Layer conv16_2/bn
I1102 11:56:33.666646 10862 net.cpp:481] conv16_2/bn <- conv16_2
I1102 11:56:33.666652 10862 net.cpp:442] conv16_2/bn -> conv16_2 (in-place)
I1102 11:56:33.666905 10862 net.cpp:150] Setting up conv16_2/bn
I1102 11:56:33.666918 10862 net.cpp:157] Top shape: 8 256 2 2 (8192)
I1102 11:56:33.666920 10862 net.cpp:165] Memory required for data: 1288409152
I1102 11:56:33.666927 10862 layer_factory.hpp:77] Creating layer conv16_2/scale
I1102 11:56:33.666935 10862 net.cpp:100] Creating Layer conv16_2/scale
I1102 11:56:33.666942 10862 net.cpp:481] conv16_2/scale <- conv16_2
I1102 11:56:33.666947 10862 net.cpp:442] conv16_2/scale -> conv16_2 (in-place)
I1102 11:56:33.666997 10862 layer_factory.hpp:77] Creating layer conv16_2/scale
I1102 11:56:33.667153 10862 net.cpp:150] Setting up conv16_2/scale
I1102 11:56:33.667162 10862 net.cpp:157] Top shape: 8 256 2 2 (8192)
I1102 11:56:33.667165 10862 net.cpp:165] Memory required for data: 1288441920
I1102 11:56:33.667171 10862 layer_factory.hpp:77] Creating layer conv16_2/relu
I1102 11:56:33.667178 10862 net.cpp:100] Creating Layer conv16_2/relu
I1102 11:56:33.667196 10862 net.cpp:481] conv16_2/relu <- conv16_2
I1102 11:56:33.667201 10862 net.cpp:442] conv16_2/relu -> conv16_2 (in-place)
I1102 11:56:33.669181 10862 net.cpp:150] Setting up conv16_2/relu
I1102 11:56:33.669200 10862 net.cpp:157] Top shape: 8 256 2 2 (8192)
I1102 11:56:33.669203 10862 net.cpp:165] Memory required for data: 1288474688
I1102 11:56:33.669208 10862 layer_factory.hpp:77] Creating layer conv16_2_conv16_2/relu_0_split
I1102 11:56:33.669214 10862 net.cpp:100] Creating Layer conv16_2_conv16_2/relu_0_split
I1102 11:56:33.669216 10862 net.cpp:481] conv16_2_conv16_2/relu_0_split <- conv16_2
I1102 11:56:33.669224 10862 net.cpp:455] conv16_2_conv16_2/relu_0_split -> conv16_2_conv16_2/relu_0_split_0
I1102 11:56:33.669231 10862 net.cpp:455] conv16_2_conv16_2/relu_0_split -> conv16_2_conv16_2/relu_0_split_1
I1102 11:56:33.669237 10862 net.cpp:455] conv16_2_conv16_2/relu_0_split -> conv16_2_conv16_2/relu_0_split_2
I1102 11:56:33.669242 10862 net.cpp:455] conv16_2_conv16_2/relu_0_split -> conv16_2_conv16_2/relu_0_split_3
I1102 11:56:33.669337 10862 net.cpp:150] Setting up conv16_2_conv16_2/relu_0_split
I1102 11:56:33.669348 10862 net.cpp:157] Top shape: 8 256 2 2 (8192)
I1102 11:56:33.669351 10862 net.cpp:157] Top shape: 8 256 2 2 (8192)
I1102 11:56:33.669355 10862 net.cpp:157] Top shape: 8 256 2 2 (8192)
I1102 11:56:33.669358 10862 net.cpp:157] Top shape: 8 256 2 2 (8192)
I1102 11:56:33.669360 10862 net.cpp:165] Memory required for data: 1288605760
I1102 11:56:33.669363 10862 layer_factory.hpp:77] Creating layer conv17_1
I1102 11:56:33.669371 10862 net.cpp:100] Creating Layer conv17_1
I1102 11:56:33.669375 10862 net.cpp:481] conv17_1 <- conv16_2_conv16_2/relu_0_split_0
I1102 11:56:33.669384 10862 net.cpp:455] conv17_1 -> conv17_1
I1102 11:56:33.672644 10862 net.cpp:150] Setting up conv17_1
I1102 11:56:33.672665 10862 net.cpp:157] Top shape: 8 64 2 2 (2048)
I1102 11:56:33.672668 10862 net.cpp:165] Memory required for data: 1288613952
I1102 11:56:33.672674 10862 layer_factory.hpp:77] Creating layer conv17_1/bn
I1102 11:56:33.672679 10862 net.cpp:100] Creating Layer conv17_1/bn
I1102 11:56:33.672683 10862 net.cpp:481] conv17_1/bn <- conv17_1
I1102 11:56:33.672691 10862 net.cpp:442] conv17_1/bn -> conv17_1 (in-place)
I1102 11:56:33.672933 10862 net.cpp:150] Setting up conv17_1/bn
I1102 11:56:33.672945 10862 net.cpp:157] Top shape: 8 64 2 2 (2048)
I1102 11:56:33.672947 10862 net.cpp:165] Memory required for data: 1288622144
I1102 11:56:33.672953 10862 layer_factory.hpp:77] Creating layer conv17_1/scale
I1102 11:56:33.672962 10862 net.cpp:100] Creating Layer conv17_1/scale
I1102 11:56:33.672969 10862 net.cpp:481] conv17_1/scale <- conv17_1
I1102 11:56:33.672974 10862 net.cpp:442] conv17_1/scale -> conv17_1 (in-place)
I1102 11:56:33.673027 10862 layer_factory.hpp:77] Creating layer conv17_1/scale
I1102 11:56:33.673166 10862 net.cpp:150] Setting up conv17_1/scale
I1102 11:56:33.673177 10862 net.cpp:157] Top shape: 8 64 2 2 (2048)
I1102 11:56:33.673179 10862 net.cpp:165] Memory required for data: 1288630336
I1102 11:56:33.673184 10862 layer_factory.hpp:77] Creating layer conv17_1/relu
I1102 11:56:33.673189 10862 net.cpp:100] Creating Layer conv17_1/relu
I1102 11:56:33.673192 10862 net.cpp:481] conv17_1/relu <- conv17_1
I1102 11:56:33.673197 10862 net.cpp:442] conv17_1/relu -> conv17_1 (in-place)
I1102 11:56:33.673527 10862 net.cpp:150] Setting up conv17_1/relu
I1102 11:56:33.673542 10862 net.cpp:157] Top shape: 8 64 2 2 (2048)
I1102 11:56:33.673544 10862 net.cpp:165] Memory required for data: 1288638528
I1102 11:56:33.673547 10862 layer_factory.hpp:77] Creating layer conv17_2
I1102 11:56:33.673558 10862 net.cpp:100] Creating Layer conv17_2
I1102 11:56:33.673564 10862 net.cpp:481] conv17_2 <- conv17_1
I1102 11:56:33.673571 10862 net.cpp:455] conv17_2 -> conv17_2
I1102 11:56:33.676929 10862 net.cpp:150] Setting up conv17_2
I1102 11:56:33.676954 10862 net.cpp:157] Top shape: 8 128 1 1 (1024)
I1102 11:56:33.676957 10862 net.cpp:165] Memory required for data: 1288642624
I1102 11:56:33.676991 10862 layer_factory.hpp:77] Creating layer conv17_2/bn
I1102 11:56:33.676997 10862 net.cpp:100] Creating Layer conv17_2/bn
I1102 11:56:33.677001 10862 net.cpp:481] conv17_2/bn <- conv17_2
I1102 11:56:33.677007 10862 net.cpp:442] conv17_2/bn -> conv17_2 (in-place)
I1102 11:56:33.677269 10862 net.cpp:150] Setting up conv17_2/bn
I1102 11:56:33.677295 10862 net.cpp:157] Top shape: 8 128 1 1 (1024)
I1102 11:56:33.677299 10862 net.cpp:165] Memory required for data: 1288646720
I1102 11:56:33.677305 10862 layer_factory.hpp:77] Creating layer conv17_2/scale
I1102 11:56:33.677311 10862 net.cpp:100] Creating Layer conv17_2/scale
I1102 11:56:33.677319 10862 net.cpp:481] conv17_2/scale <- conv17_2
I1102 11:56:33.677325 10862 net.cpp:442] conv17_2/scale -> conv17_2 (in-place)
I1102 11:56:33.677417 10862 layer_factory.hpp:77] Creating layer conv17_2/scale
I1102 11:56:33.677561 10862 net.cpp:150] Setting up conv17_2/scale
I1102 11:56:33.677572 10862 net.cpp:157] Top shape: 8 128 1 1 (1024)
I1102 11:56:33.677575 10862 net.cpp:165] Memory required for data: 1288650816
I1102 11:56:33.677580 10862 layer_factory.hpp:77] Creating layer conv17_2/relu
I1102 11:56:33.677585 10862 net.cpp:100] Creating Layer conv17_2/relu
I1102 11:56:33.677590 10862 net.cpp:481] conv17_2/relu <- conv17_2
I1102 11:56:33.677597 10862 net.cpp:442] conv17_2/relu -> conv17_2 (in-place)
I1102 11:56:33.678671 10862 net.cpp:150] Setting up conv17_2/relu
I1102 11:56:33.678691 10862 net.cpp:157] Top shape: 8 128 1 1 (1024)
I1102 11:56:33.678694 10862 net.cpp:165] Memory required for data: 1288654912
I1102 11:56:33.678697 10862 layer_factory.hpp:77] Creating layer conv17_2_conv17_2/relu_0_split
I1102 11:56:33.678704 10862 net.cpp:100] Creating Layer conv17_2_conv17_2/relu_0_split
I1102 11:56:33.678707 10862 net.cpp:481] conv17_2_conv17_2/relu_0_split <- conv17_2
I1102 11:56:33.678714 10862 net.cpp:455] conv17_2_conv17_2/relu_0_split -> conv17_2_conv17_2/relu_0_split_0
I1102 11:56:33.678731 10862 net.cpp:455] conv17_2_conv17_2/relu_0_split -> conv17_2_conv17_2/relu_0_split_1
I1102 11:56:33.678741 10862 net.cpp:455] conv17_2_conv17_2/relu_0_split -> conv17_2_conv17_2/relu_0_split_2
I1102 11:56:33.678825 10862 net.cpp:150] Setting up conv17_2_conv17_2/relu_0_split
I1102 11:56:33.678835 10862 net.cpp:157] Top shape: 8 128 1 1 (1024)
I1102 11:56:33.678839 10862 net.cpp:157] Top shape: 8 128 1 1 (1024)
I1102 11:56:33.678843 10862 net.cpp:157] Top shape: 8 128 1 1 (1024)
I1102 11:56:33.678844 10862 net.cpp:165] Memory required for data: 1288667200
I1102 11:56:33.678848 10862 layer_factory.hpp:77] Creating layer conv11_mbox_loc
I1102 11:56:33.678879 10862 net.cpp:100] Creating Layer conv11_mbox_loc
I1102 11:56:33.678886 10862 net.cpp:481] conv11_mbox_loc <- conv11_conv11/relu_0_split_1
I1102 11:56:33.678894 10862 net.cpp:455] conv11_mbox_loc -> conv11_mbox_loc
I1102 11:56:33.681747 10862 net.cpp:150] Setting up conv11_mbox_loc
I1102 11:56:33.681768 10862 net.cpp:157] Top shape: 8 12 19 19 (34656)
I1102 11:56:33.681771 10862 net.cpp:165] Memory required for data: 1288805824
I1102 11:56:33.681793 10862 layer_factory.hpp:77] Creating layer conv11_mbox_loc_perm
I1102 11:56:33.681802 10862 net.cpp:100] Creating Layer conv11_mbox_loc_perm
I1102 11:56:33.681807 10862 net.cpp:481] conv11_mbox_loc_perm <- conv11_mbox_loc
I1102 11:56:33.681812 10862 net.cpp:455] conv11_mbox_loc_perm -> conv11_mbox_loc_perm
I1102 11:56:33.681951 10862 net.cpp:150] Setting up conv11_mbox_loc_perm
I1102 11:56:33.681962 10862 net.cpp:157] Top shape: 8 19 19 12 (34656)
I1102 11:56:33.681965 10862 net.cpp:165] Memory required for data: 1288944448
I1102 11:56:33.681968 10862 layer_factory.hpp:77] Creating layer conv11_mbox_loc_flat
I1102 11:56:33.681975 10862 net.cpp:100] Creating Layer conv11_mbox_loc_flat
I1102 11:56:33.681980 10862 net.cpp:481] conv11_mbox_loc_flat <- conv11_mbox_loc_perm
I1102 11:56:33.681984 10862 net.cpp:455] conv11_mbox_loc_flat -> conv11_mbox_loc_flat
I1102 11:56:33.682032 10862 net.cpp:150] Setting up conv11_mbox_loc_flat
I1102 11:56:33.682041 10862 net.cpp:157] Top shape: 8 4332 (34656)
I1102 11:56:33.682056 10862 net.cpp:165] Memory required for data: 1289083072
I1102 11:56:33.682060 10862 layer_factory.hpp:77] Creating layer conv11_mbox_conf_new
I1102 11:56:33.682070 10862 net.cpp:100] Creating Layer conv11_mbox_conf_new
I1102 11:56:33.682076 10862 net.cpp:481] conv11_mbox_conf_new <- conv11_conv11/relu_0_split_2
I1102 11:56:33.682085 10862 net.cpp:455] conv11_mbox_conf_new -> conv11_mbox_conf
I1102 11:56:33.685173 10862 net.cpp:150] Setting up conv11_mbox_conf_new
I1102 11:56:33.685195 10862 net.cpp:157] Top shape: 8 63 19 19 (181944)
I1102 11:56:33.685199 10862 net.cpp:165] Memory required for data: 1289810848
I1102 11:56:33.685205 10862 layer_factory.hpp:77] Creating layer conv11_mbox_conf_perm
I1102 11:56:33.685214 10862 net.cpp:100] Creating Layer conv11_mbox_conf_perm
I1102 11:56:33.685220 10862 net.cpp:481] conv11_mbox_conf_perm <- conv11_mbox_conf
I1102 11:56:33.685226 10862 net.cpp:455] conv11_mbox_conf_perm -> conv11_mbox_conf_perm
I1102 11:56:33.685356 10862 net.cpp:150] Setting up conv11_mbox_conf_perm
I1102 11:56:33.685367 10862 net.cpp:157] Top shape: 8 19 19 63 (181944)
I1102 11:56:33.685370 10862 net.cpp:165] Memory required for data: 1290538624
I1102 11:56:33.685372 10862 layer_factory.hpp:77] Creating layer conv11_mbox_conf_flat
I1102 11:56:33.685379 10862 net.cpp:100] Creating Layer conv11_mbox_conf_flat
I1102 11:56:33.685384 10862 net.cpp:481] conv11_mbox_conf_flat <- conv11_mbox_conf_perm
I1102 11:56:33.685389 10862 net.cpp:455] conv11_mbox_conf_flat -> conv11_mbox_conf_flat
I1102 11:56:33.685420 10862 net.cpp:150] Setting up conv11_mbox_conf_flat
I1102 11:56:33.685431 10862 net.cpp:157] Top shape: 8 22743 (181944)
I1102 11:56:33.685432 10862 net.cpp:165] Memory required for data: 1291266400
I1102 11:56:33.685436 10862 layer_factory.hpp:77] Creating layer conv11_mbox_priorbox
I1102 11:56:33.685444 10862 net.cpp:100] Creating Layer conv11_mbox_priorbox
I1102 11:56:33.685449 10862 net.cpp:481] conv11_mbox_priorbox <- conv11_conv11/relu_0_split_3
I1102 11:56:33.685453 10862 net.cpp:481] conv11_mbox_priorbox <- data_data_0_split_1
I1102 11:56:33.685459 10862 net.cpp:455] conv11_mbox_priorbox -> conv11_mbox_priorbox
I1102 11:56:33.685497 10862 net.cpp:150] Setting up conv11_mbox_priorbox
I1102 11:56:33.685508 10862 net.cpp:157] Top shape: 1 2 4332 (8664)
I1102 11:56:33.685509 10862 net.cpp:165] Memory required for data: 1291301056
I1102 11:56:33.685513 10862 layer_factory.hpp:77] Creating layer conv13_mbox_loc
I1102 11:56:33.685523 10862 net.cpp:100] Creating Layer conv13_mbox_loc
I1102 11:56:33.685529 10862 net.cpp:481] conv13_mbox_loc <- conv13_conv13/relu_0_split_1
I1102 11:56:33.685537 10862 net.cpp:455] conv13_mbox_loc -> conv13_mbox_loc
I1102 11:56:33.688482 10862 net.cpp:150] Setting up conv13_mbox_loc
I1102 11:56:33.688503 10862 net.cpp:157] Top shape: 8 24 10 10 (19200)
I1102 11:56:33.688508 10862 net.cpp:165] Memory required for data: 1291377856
I1102 11:56:33.688513 10862 layer_factory.hpp:77] Creating layer conv13_mbox_loc_perm
I1102 11:56:33.688520 10862 net.cpp:100] Creating Layer conv13_mbox_loc_perm
I1102 11:56:33.688524 10862 net.cpp:481] conv13_mbox_loc_perm <- conv13_mbox_loc
I1102 11:56:33.688531 10862 net.cpp:455] conv13_mbox_loc_perm -> conv13_mbox_loc_perm
I1102 11:56:33.688679 10862 net.cpp:150] Setting up conv13_mbox_loc_perm
I1102 11:56:33.688693 10862 net.cpp:157] Top shape: 8 10 10 24 (19200)
I1102 11:56:33.688695 10862 net.cpp:165] Memory required for data: 1291454656
I1102 11:56:33.688697 10862 layer_factory.hpp:77] Creating layer conv13_mbox_loc_flat
I1102 11:56:33.688704 10862 net.cpp:100] Creating Layer conv13_mbox_loc_flat
I1102 11:56:33.688709 10862 net.cpp:481] conv13_mbox_loc_flat <- conv13_mbox_loc_perm
I1102 11:56:33.688714 10862 net.cpp:455] conv13_mbox_loc_flat -> conv13_mbox_loc_flat
I1102 11:56:33.688745 10862 net.cpp:150] Setting up conv13_mbox_loc_flat
I1102 11:56:33.688753 10862 net.cpp:157] Top shape: 8 2400 (19200)
I1102 11:56:33.688756 10862 net.cpp:165] Memory required for data: 1291531456
I1102 11:56:33.688760 10862 layer_factory.hpp:77] Creating layer conv13_mbox_conf_new
I1102 11:56:33.688786 10862 net.cpp:100] Creating Layer conv13_mbox_conf_new
I1102 11:56:33.688793 10862 net.cpp:481] conv13_mbox_conf_new <- conv13_conv13/relu_0_split_2
I1102 11:56:33.688799 10862 net.cpp:455] conv13_mbox_conf_new -> conv13_mbox_conf
I1102 11:56:33.693635 10862 net.cpp:150] Setting up conv13_mbox_conf_new
I1102 11:56:33.693656 10862 net.cpp:157] Top shape: 8 126 10 10 (100800)
I1102 11:56:33.693660 10862 net.cpp:165] Memory required for data: 1291934656
I1102 11:56:33.693665 10862 layer_factory.hpp:77] Creating layer conv13_mbox_conf_perm
I1102 11:56:33.693681 10862 net.cpp:100] Creating Layer conv13_mbox_conf_perm
I1102 11:56:33.693684 10862 net.cpp:481] conv13_mbox_conf_perm <- conv13_mbox_conf
I1102 11:56:33.693689 10862 net.cpp:455] conv13_mbox_conf_perm -> conv13_mbox_conf_perm
I1102 11:56:33.693859 10862 net.cpp:150] Setting up conv13_mbox_conf_perm
I1102 11:56:33.693876 10862 net.cpp:157] Top shape: 8 10 10 126 (100800)
I1102 11:56:33.693879 10862 net.cpp:165] Memory required for data: 1292337856
I1102 11:56:33.693881 10862 layer_factory.hpp:77] Creating layer conv13_mbox_conf_flat
I1102 11:56:33.693887 10862 net.cpp:100] Creating Layer conv13_mbox_conf_flat
I1102 11:56:33.693891 10862 net.cpp:481] conv13_mbox_conf_flat <- conv13_mbox_conf_perm
I1102 11:56:33.693897 10862 net.cpp:455] conv13_mbox_conf_flat -> conv13_mbox_conf_flat
I1102 11:56:33.693935 10862 net.cpp:150] Setting up conv13_mbox_conf_flat
I1102 11:56:33.693946 10862 net.cpp:157] Top shape: 8 12600 (100800)
I1102 11:56:33.693964 10862 net.cpp:165] Memory required for data: 1292741056
I1102 11:56:33.693966 10862 layer_factory.hpp:77] Creating layer conv13_mbox_priorbox
I1102 11:56:33.693974 10862 net.cpp:100] Creating Layer conv13_mbox_priorbox
I1102 11:56:33.693979 10862 net.cpp:481] conv13_mbox_priorbox <- conv13_conv13/relu_0_split_3
I1102 11:56:33.693998 10862 net.cpp:481] conv13_mbox_priorbox <- data_data_0_split_2
I1102 11:56:33.694003 10862 net.cpp:455] conv13_mbox_priorbox -> conv13_mbox_priorbox
I1102 11:56:33.694067 10862 net.cpp:150] Setting up conv13_mbox_priorbox
I1102 11:56:33.694077 10862 net.cpp:157] Top shape: 1 2 2400 (4800)
I1102 11:56:33.694080 10862 net.cpp:165] Memory required for data: 1292760256
I1102 11:56:33.694082 10862 layer_factory.hpp:77] Creating layer conv14_2_mbox_loc
I1102 11:56:33.694093 10862 net.cpp:100] Creating Layer conv14_2_mbox_loc
I1102 11:56:33.694097 10862 net.cpp:481] conv14_2_mbox_loc <- conv14_2_conv14_2/relu_0_split_1
I1102 11:56:33.694103 10862 net.cpp:455] conv14_2_mbox_loc -> conv14_2_mbox_loc
I1102 11:56:33.697475 10862 net.cpp:150] Setting up conv14_2_mbox_loc
I1102 11:56:33.697496 10862 net.cpp:157] Top shape: 8 24 5 5 (4800)
I1102 11:56:33.697499 10862 net.cpp:165] Memory required for data: 1292779456
I1102 11:56:33.697505 10862 layer_factory.hpp:77] Creating layer conv14_2_mbox_loc_perm
I1102 11:56:33.697512 10862 net.cpp:100] Creating Layer conv14_2_mbox_loc_perm
I1102 11:56:33.697520 10862 net.cpp:481] conv14_2_mbox_loc_perm <- conv14_2_mbox_loc
I1102 11:56:33.697527 10862 net.cpp:455] conv14_2_mbox_loc_perm -> conv14_2_mbox_loc_perm
I1102 11:56:33.697677 10862 net.cpp:150] Setting up conv14_2_mbox_loc_perm
I1102 11:56:33.697688 10862 net.cpp:157] Top shape: 8 5 5 24 (4800)
I1102 11:56:33.697690 10862 net.cpp:165] Memory required for data: 1292798656
I1102 11:56:33.697693 10862 layer_factory.hpp:77] Creating layer conv14_2_mbox_loc_flat
I1102 11:56:33.697700 10862 net.cpp:100] Creating Layer conv14_2_mbox_loc_flat
I1102 11:56:33.697705 10862 net.cpp:481] conv14_2_mbox_loc_flat <- conv14_2_mbox_loc_perm
I1102 11:56:33.697713 10862 net.cpp:455] conv14_2_mbox_loc_flat -> conv14_2_mbox_loc_flat
I1102 11:56:33.697746 10862 net.cpp:150] Setting up conv14_2_mbox_loc_flat
I1102 11:56:33.697755 10862 net.cpp:157] Top shape: 8 600 (4800)
I1102 11:56:33.697757 10862 net.cpp:165] Memory required for data: 1292817856
I1102 11:56:33.697760 10862 layer_factory.hpp:77] Creating layer conv14_2_mbox_conf_new
I1102 11:56:33.697772 10862 net.cpp:100] Creating Layer conv14_2_mbox_conf_new
I1102 11:56:33.697793 10862 net.cpp:481] conv14_2_mbox_conf_new <- conv14_2_conv14_2/relu_0_split_2
I1102 11:56:33.697801 10862 net.cpp:455] conv14_2_mbox_conf_new -> conv14_2_mbox_conf
I1102 11:56:33.702111 10862 net.cpp:150] Setting up conv14_2_mbox_conf_new
I1102 11:56:33.702142 10862 net.cpp:157] Top shape: 8 126 5 5 (25200)
I1102 11:56:33.702147 10862 net.cpp:165] Memory required for data: 1292918656
I1102 11:56:33.702153 10862 layer_factory.hpp:77] Creating layer conv14_2_mbox_conf_perm
I1102 11:56:33.702167 10862 net.cpp:100] Creating Layer conv14_2_mbox_conf_perm
I1102 11:56:33.702172 10862 net.cpp:481] conv14_2_mbox_conf_perm <- conv14_2_mbox_conf
I1102 11:56:33.702178 10862 net.cpp:455] conv14_2_mbox_conf_perm -> conv14_2_mbox_conf_perm
I1102 11:56:33.702368 10862 net.cpp:150] Setting up conv14_2_mbox_conf_perm
I1102 11:56:33.702380 10862 net.cpp:157] Top shape: 8 5 5 126 (25200)
I1102 11:56:33.702383 10862 net.cpp:165] Memory required for data: 1293019456
I1102 11:56:33.702386 10862 layer_factory.hpp:77] Creating layer conv14_2_mbox_conf_flat
I1102 11:56:33.702394 10862 net.cpp:100] Creating Layer conv14_2_mbox_conf_flat
I1102 11:56:33.702397 10862 net.cpp:481] conv14_2_mbox_conf_flat <- conv14_2_mbox_conf_perm
I1102 11:56:33.702404 10862 net.cpp:455] conv14_2_mbox_conf_flat -> conv14_2_mbox_conf_flat
I1102 11:56:33.702450 10862 net.cpp:150] Setting up conv14_2_mbox_conf_flat
I1102 11:56:33.702458 10862 net.cpp:157] Top shape: 8 3150 (25200)
I1102 11:56:33.702461 10862 net.cpp:165] Memory required for data: 1293120256
I1102 11:56:33.702463 10862 layer_factory.hpp:77] Creating layer conv14_2_mbox_priorbox
I1102 11:56:33.702471 10862 net.cpp:100] Creating Layer conv14_2_mbox_priorbox
I1102 11:56:33.702476 10862 net.cpp:481] conv14_2_mbox_priorbox <- conv14_2_conv14_2/relu_0_split_3
I1102 11:56:33.702481 10862 net.cpp:481] conv14_2_mbox_priorbox <- data_data_0_split_3
I1102 11:56:33.702488 10862 net.cpp:455] conv14_2_mbox_priorbox -> conv14_2_mbox_priorbox
I1102 11:56:33.702522 10862 net.cpp:150] Setting up conv14_2_mbox_priorbox
I1102 11:56:33.702545 10862 net.cpp:157] Top shape: 1 2 600 (1200)
I1102 11:56:33.702548 10862 net.cpp:165] Memory required for data: 1293125056
I1102 11:56:33.702550 10862 layer_factory.hpp:77] Creating layer conv15_2_mbox_loc
I1102 11:56:33.702561 10862 net.cpp:100] Creating Layer conv15_2_mbox_loc
I1102 11:56:33.702567 10862 net.cpp:481] conv15_2_mbox_loc <- conv15_2_conv15_2/relu_0_split_1
I1102 11:56:33.702572 10862 net.cpp:455] conv15_2_mbox_loc -> conv15_2_mbox_loc
I1102 11:56:33.705364 10862 net.cpp:150] Setting up conv15_2_mbox_loc
I1102 11:56:33.705384 10862 net.cpp:157] Top shape: 8 24 3 3 (1728)
I1102 11:56:33.705387 10862 net.cpp:165] Memory required for data: 1293131968
I1102 11:56:33.705394 10862 layer_factory.hpp:77] Creating layer conv15_2_mbox_loc_perm
I1102 11:56:33.705404 10862 net.cpp:100] Creating Layer conv15_2_mbox_loc_perm
I1102 11:56:33.705406 10862 net.cpp:481] conv15_2_mbox_loc_perm <- conv15_2_mbox_loc
I1102 11:56:33.705411 10862 net.cpp:455] conv15_2_mbox_loc_perm -> conv15_2_mbox_loc_perm
I1102 11:56:33.705551 10862 net.cpp:150] Setting up conv15_2_mbox_loc_perm
I1102 11:56:33.705561 10862 net.cpp:157] Top shape: 8 3 3 24 (1728)
I1102 11:56:33.705564 10862 net.cpp:165] Memory required for data: 1293138880
I1102 11:56:33.705567 10862 layer_factory.hpp:77] Creating layer conv15_2_mbox_loc_flat
I1102 11:56:33.705574 10862 net.cpp:100] Creating Layer conv15_2_mbox_loc_flat
I1102 11:56:33.705579 10862 net.cpp:481] conv15_2_mbox_loc_flat <- conv15_2_mbox_loc_perm
I1102 11:56:33.705582 10862 net.cpp:455] conv15_2_mbox_loc_flat -> conv15_2_mbox_loc_flat
I1102 11:56:33.705615 10862 net.cpp:150] Setting up conv15_2_mbox_loc_flat
I1102 11:56:33.705624 10862 net.cpp:157] Top shape: 8 216 (1728)
I1102 11:56:33.705626 10862 net.cpp:165] Memory required for data: 1293145792
I1102 11:56:33.705629 10862 layer_factory.hpp:77] Creating layer conv15_2_mbox_conf_new
I1102 11:56:33.705639 10862 net.cpp:100] Creating Layer conv15_2_mbox_conf_new
I1102 11:56:33.705658 10862 net.cpp:481] conv15_2_mbox_conf_new <- conv15_2_conv15_2/relu_0_split_2
I1102 11:56:33.705667 10862 net.cpp:455] conv15_2_mbox_conf_new -> conv15_2_mbox_conf
I1102 11:56:33.709565 10862 net.cpp:150] Setting up conv15_2_mbox_conf_new
I1102 11:56:33.709589 10862 net.cpp:157] Top shape: 8 126 3 3 (9072)
I1102 11:56:33.709592 10862 net.cpp:165] Memory required for data: 1293182080
I1102 11:56:33.709599 10862 layer_factory.hpp:77] Creating layer conv15_2_mbox_conf_perm
I1102 11:56:33.709604 10862 net.cpp:100] Creating Layer conv15_2_mbox_conf_perm
I1102 11:56:33.709614 10862 net.cpp:481] conv15_2_mbox_conf_perm <- conv15_2_mbox_conf
I1102 11:56:33.709621 10862 net.cpp:455] conv15_2_mbox_conf_perm -> conv15_2_mbox_conf_perm
I1102 11:56:33.709755 10862 net.cpp:150] Setting up conv15_2_mbox_conf_perm
I1102 11:56:33.709767 10862 net.cpp:157] Top shape: 8 3 3 126 (9072)
I1102 11:56:33.709770 10862 net.cpp:165] Memory required for data: 1293218368
I1102 11:56:33.709774 10862 layer_factory.hpp:77] Creating layer conv15_2_mbox_conf_flat
I1102 11:56:33.709779 10862 net.cpp:100] Creating Layer conv15_2_mbox_conf_flat
I1102 11:56:33.709784 10862 net.cpp:481] conv15_2_mbox_conf_flat <- conv15_2_mbox_conf_perm
I1102 11:56:33.709790 10862 net.cpp:455] conv15_2_mbox_conf_flat -> conv15_2_mbox_conf_flat
I1102 11:56:33.709823 10862 net.cpp:150] Setting up conv15_2_mbox_conf_flat
I1102 11:56:33.709832 10862 net.cpp:157] Top shape: 8 1134 (9072)
I1102 11:56:33.709834 10862 net.cpp:165] Memory required for data: 1293254656
I1102 11:56:33.709837 10862 layer_factory.hpp:77] Creating layer conv15_2_mbox_priorbox
I1102 11:56:33.709846 10862 net.cpp:100] Creating Layer conv15_2_mbox_priorbox
I1102 11:56:33.709852 10862 net.cpp:481] conv15_2_mbox_priorbox <- conv15_2_conv15_2/relu_0_split_3
I1102 11:56:33.709856 10862 net.cpp:481] conv15_2_mbox_priorbox <- data_data_0_split_4
I1102 11:56:33.709868 10862 net.cpp:455] conv15_2_mbox_priorbox -> conv15_2_mbox_priorbox
I1102 11:56:33.709905 10862 net.cpp:150] Setting up conv15_2_mbox_priorbox
I1102 11:56:33.709919 10862 net.cpp:157] Top shape: 1 2 216 (432)
I1102 11:56:33.709923 10862 net.cpp:165] Memory required for data: 1293256384
I1102 11:56:33.709924 10862 layer_factory.hpp:77] Creating layer conv16_2_mbox_loc
I1102 11:56:33.709936 10862 net.cpp:100] Creating Layer conv16_2_mbox_loc
I1102 11:56:33.709944 10862 net.cpp:481] conv16_2_mbox_loc <- conv16_2_conv16_2/relu_0_split_1
I1102 11:56:33.709951 10862 net.cpp:455] conv16_2_mbox_loc -> conv16_2_mbox_loc
I1102 11:56:33.712731 10862 net.cpp:150] Setting up conv16_2_mbox_loc
I1102 11:56:33.712751 10862 net.cpp:157] Top shape: 8 24 2 2 (768)
I1102 11:56:33.712754 10862 net.cpp:165] Memory required for data: 1293259456
I1102 11:56:33.712760 10862 layer_factory.hpp:77] Creating layer conv16_2_mbox_loc_perm
I1102 11:56:33.712769 10862 net.cpp:100] Creating Layer conv16_2_mbox_loc_perm
I1102 11:56:33.712777 10862 net.cpp:481] conv16_2_mbox_loc_perm <- conv16_2_mbox_loc
I1102 11:56:33.712782 10862 net.cpp:455] conv16_2_mbox_loc_perm -> conv16_2_mbox_loc_perm
I1102 11:56:33.712929 10862 net.cpp:150] Setting up conv16_2_mbox_loc_perm
I1102 11:56:33.712940 10862 net.cpp:157] Top shape: 8 2 2 24 (768)
I1102 11:56:33.712944 10862 net.cpp:165] Memory required for data: 1293262528
I1102 11:56:33.712945 10862 layer_factory.hpp:77] Creating layer conv16_2_mbox_loc_flat
I1102 11:56:33.712952 10862 net.cpp:100] Creating Layer conv16_2_mbox_loc_flat
I1102 11:56:33.712958 10862 net.cpp:481] conv16_2_mbox_loc_flat <- conv16_2_mbox_loc_perm
I1102 11:56:33.712962 10862 net.cpp:455] conv16_2_mbox_loc_flat -> conv16_2_mbox_loc_flat
I1102 11:56:33.712996 10862 net.cpp:150] Setting up conv16_2_mbox_loc_flat
I1102 11:56:33.713006 10862 net.cpp:157] Top shape: 8 96 (768)
I1102 11:56:33.713007 10862 net.cpp:165] Memory required for data: 1293265600
I1102 11:56:33.713012 10862 layer_factory.hpp:77] Creating layer conv16_2_mbox_conf_new
I1102 11:56:33.713023 10862 net.cpp:100] Creating Layer conv16_2_mbox_conf_new
I1102 11:56:33.713029 10862 net.cpp:481] conv16_2_mbox_conf_new <- conv16_2_conv16_2/relu_0_split_2
I1102 11:56:33.713054 10862 net.cpp:455] conv16_2_mbox_conf_new -> conv16_2_mbox_conf
I1102 11:56:33.716148 10862 net.cpp:150] Setting up conv16_2_mbox_conf_new
I1102 11:56:33.716171 10862 net.cpp:157] Top shape: 8 126 2 2 (4032)
I1102 11:56:33.716174 10862 net.cpp:165] Memory required for data: 1293281728
I1102 11:56:33.716181 10862 layer_factory.hpp:77] Creating layer conv16_2_mbox_conf_perm
I1102 11:56:33.716192 10862 net.cpp:100] Creating Layer conv16_2_mbox_conf_perm
I1102 11:56:33.716197 10862 net.cpp:481] conv16_2_mbox_conf_perm <- conv16_2_mbox_conf
I1102 11:56:33.716203 10862 net.cpp:455] conv16_2_mbox_conf_perm -> conv16_2_mbox_conf_perm
I1102 11:56:33.716363 10862 net.cpp:150] Setting up conv16_2_mbox_conf_perm
I1102 11:56:33.716373 10862 net.cpp:157] Top shape: 8 2 2 126 (4032)
I1102 11:56:33.716377 10862 net.cpp:165] Memory required for data: 1293297856
I1102 11:56:33.716378 10862 layer_factory.hpp:77] Creating layer conv16_2_mbox_conf_flat
I1102 11:56:33.716383 10862 net.cpp:100] Creating Layer conv16_2_mbox_conf_flat
I1102 11:56:33.716401 10862 net.cpp:481] conv16_2_mbox_conf_flat <- conv16_2_mbox_conf_perm
I1102 11:56:33.716408 10862 net.cpp:455] conv16_2_mbox_conf_flat -> conv16_2_mbox_conf_flat
I1102 11:56:33.716459 10862 net.cpp:150] Setting up conv16_2_mbox_conf_flat
I1102 11:56:33.716469 10862 net.cpp:157] Top shape: 8 504 (4032)
I1102 11:56:33.716470 10862 net.cpp:165] Memory required for data: 1293313984
I1102 11:56:33.716473 10862 layer_factory.hpp:77] Creating layer conv16_2_mbox_priorbox
I1102 11:56:33.716480 10862 net.cpp:100] Creating Layer conv16_2_mbox_priorbox
I1102 11:56:33.716482 10862 net.cpp:481] conv16_2_mbox_priorbox <- conv16_2_conv16_2/relu_0_split_3
I1102 11:56:33.716486 10862 net.cpp:481] conv16_2_mbox_priorbox <- data_data_0_split_5
I1102 11:56:33.716492 10862 net.cpp:455] conv16_2_mbox_priorbox -> conv16_2_mbox_priorbox
I1102 11:56:33.716574 10862 net.cpp:150] Setting up conv16_2_mbox_priorbox
I1102 11:56:33.716584 10862 net.cpp:157] Top shape: 1 2 96 (192)
I1102 11:56:33.716586 10862 net.cpp:165] Memory required for data: 1293314752
I1102 11:56:33.716589 10862 layer_factory.hpp:77] Creating layer conv17_2_mbox_loc
I1102 11:56:33.716599 10862 net.cpp:100] Creating Layer conv17_2_mbox_loc
I1102 11:56:33.716605 10862 net.cpp:481] conv17_2_mbox_loc <- conv17_2_conv17_2/relu_0_split_0
I1102 11:56:33.716627 10862 net.cpp:455] conv17_2_mbox_loc -> conv17_2_mbox_loc
I1102 11:56:33.719576 10862 net.cpp:150] Setting up conv17_2_mbox_loc
I1102 11:56:33.719597 10862 net.cpp:157] Top shape: 8 24 1 1 (192)
I1102 11:56:33.719600 10862 net.cpp:165] Memory required for data: 1293315520
I1102 11:56:33.719607 10862 layer_factory.hpp:77] Creating layer conv17_2_mbox_loc_perm
I1102 11:56:33.719616 10862 net.cpp:100] Creating Layer conv17_2_mbox_loc_perm
I1102 11:56:33.719625 10862 net.cpp:481] conv17_2_mbox_loc_perm <- conv17_2_mbox_loc
I1102 11:56:33.719631 10862 net.cpp:455] conv17_2_mbox_loc_perm -> conv17_2_mbox_loc_perm
I1102 11:56:33.719769 10862 net.cpp:150] Setting up conv17_2_mbox_loc_perm
I1102 11:56:33.719779 10862 net.cpp:157] Top shape: 8 1 1 24 (192)
I1102 11:56:33.719782 10862 net.cpp:165] Memory required for data: 1293316288
I1102 11:56:33.719785 10862 layer_factory.hpp:77] Creating layer conv17_2_mbox_loc_flat
I1102 11:56:33.719792 10862 net.cpp:100] Creating Layer conv17_2_mbox_loc_flat
I1102 11:56:33.719799 10862 net.cpp:481] conv17_2_mbox_loc_flat <- conv17_2_mbox_loc_perm
I1102 11:56:33.719802 10862 net.cpp:455] conv17_2_mbox_loc_flat -> conv17_2_mbox_loc_flat
I1102 11:56:33.719836 10862 net.cpp:150] Setting up conv17_2_mbox_loc_flat
I1102 11:56:33.719846 10862 net.cpp:157] Top shape: 8 24 (192)
I1102 11:56:33.719848 10862 net.cpp:165] Memory required for data: 1293317056
I1102 11:56:33.719851 10862 layer_factory.hpp:77] Creating layer conv17_2_mbox_conf_new
I1102 11:56:33.719866 10862 net.cpp:100] Creating Layer conv17_2_mbox_conf_new
I1102 11:56:33.719872 10862 net.cpp:481] conv17_2_mbox_conf_new <- conv17_2_conv17_2/relu_0_split_1
I1102 11:56:33.719892 10862 net.cpp:455] conv17_2_mbox_conf_new -> conv17_2_mbox_conf
I1102 11:56:33.722910 10862 net.cpp:150] Setting up conv17_2_mbox_conf_new
I1102 11:56:33.722934 10862 net.cpp:157] Top shape: 8 126 1 1 (1008)
I1102 11:56:33.722936 10862 net.cpp:165] Memory required for data: 1293321088
I1102 11:56:33.722944 10862 layer_factory.hpp:77] Creating layer conv17_2_mbox_conf_perm
I1102 11:56:33.722950 10862 net.cpp:100] Creating Layer conv17_2_mbox_conf_perm
I1102 11:56:33.722954 10862 net.cpp:481] conv17_2_mbox_conf_perm <- conv17_2_mbox_conf
I1102 11:56:33.722961 10862 net.cpp:455] conv17_2_mbox_conf_perm -> conv17_2_mbox_conf_perm
I1102 11:56:33.723109 10862 net.cpp:150] Setting up conv17_2_mbox_conf_perm
I1102 11:56:33.723119 10862 net.cpp:157] Top shape: 8 1 1 126 (1008)
I1102 11:56:33.723122 10862 net.cpp:165] Memory required for data: 1293325120
I1102 11:56:33.723125 10862 layer_factory.hpp:77] Creating layer conv17_2_mbox_conf_flat
I1102 11:56:33.723131 10862 net.cpp:100] Creating Layer conv17_2_mbox_conf_flat
I1102 11:56:33.723134 10862 net.cpp:481] conv17_2_mbox_conf_flat <- conv17_2_mbox_conf_perm
I1102 11:56:33.723140 10862 net.cpp:455] conv17_2_mbox_conf_flat -> conv17_2_mbox_conf_flat
I1102 11:56:33.723178 10862 net.cpp:150] Setting up conv17_2_mbox_conf_flat
I1102 11:56:33.723187 10862 net.cpp:157] Top shape: 8 126 (1008)
I1102 11:56:33.723191 10862 net.cpp:165] Memory required for data: 1293329152
I1102 11:56:33.723193 10862 layer_factory.hpp:77] Creating layer conv17_2_mbox_priorbox
I1102 11:56:33.723199 10862 net.cpp:100] Creating Layer conv17_2_mbox_priorbox
I1102 11:56:33.723202 10862 net.cpp:481] conv17_2_mbox_priorbox <- conv17_2_conv17_2/relu_0_split_2
I1102 11:56:33.723206 10862 net.cpp:481] conv17_2_mbox_priorbox <- data_data_0_split_6
I1102 11:56:33.723212 10862 net.cpp:455] conv17_2_mbox_priorbox -> conv17_2_mbox_priorbox
I1102 11:56:33.723251 10862 net.cpp:150] Setting up conv17_2_mbox_priorbox
I1102 11:56:33.723261 10862 net.cpp:157] Top shape: 1 2 24 (48)
I1102 11:56:33.723263 10862 net.cpp:165] Memory required for data: 1293329344
I1102 11:56:33.723266 10862 layer_factory.hpp:77] Creating layer mbox_loc
I1102 11:56:33.723273 10862 net.cpp:100] Creating Layer mbox_loc
I1102 11:56:33.723278 10862 net.cpp:481] mbox_loc <- conv11_mbox_loc_flat
I1102 11:56:33.723282 10862 net.cpp:481] mbox_loc <- conv13_mbox_loc_flat
I1102 11:56:33.723285 10862 net.cpp:481] mbox_loc <- conv14_2_mbox_loc_flat
I1102 11:56:33.723289 10862 net.cpp:481] mbox_loc <- conv15_2_mbox_loc_flat
I1102 11:56:33.723292 10862 net.cpp:481] mbox_loc <- conv16_2_mbox_loc_flat
I1102 11:56:33.723295 10862 net.cpp:481] mbox_loc <- conv17_2_mbox_loc_flat
I1102 11:56:33.723301 10862 net.cpp:455] mbox_loc -> mbox_loc
I1102 11:56:33.723340 10862 net.cpp:150] Setting up mbox_loc
I1102 11:56:33.723347 10862 net.cpp:157] Top shape: 8 7668 (61344)
I1102 11:56:33.723351 10862 net.cpp:165] Memory required for data: 1293574720
I1102 11:56:33.723353 10862 layer_factory.hpp:77] Creating layer mbox_conf
I1102 11:56:33.723358 10862 net.cpp:100] Creating Layer mbox_conf
I1102 11:56:33.723361 10862 net.cpp:481] mbox_conf <- conv11_mbox_conf_flat
I1102 11:56:33.723366 10862 net.cpp:481] mbox_conf <- conv13_mbox_conf_flat
I1102 11:56:33.723368 10862 net.cpp:481] mbox_conf <- conv14_2_mbox_conf_flat
I1102 11:56:33.723372 10862 net.cpp:481] mbox_conf <- conv15_2_mbox_conf_flat
I1102 11:56:33.723376 10862 net.cpp:481] mbox_conf <- conv16_2_mbox_conf_flat
I1102 11:56:33.723378 10862 net.cpp:481] mbox_conf <- conv17_2_mbox_conf_flat
I1102 11:56:33.723384 10862 net.cpp:455] mbox_conf -> mbox_conf
I1102 11:56:33.723415 10862 net.cpp:150] Setting up mbox_conf
I1102 11:56:33.723424 10862 net.cpp:157] Top shape: 8 40257 (322056)
I1102 11:56:33.723428 10862 net.cpp:165] Memory required for data: 1294862944
I1102 11:56:33.723429 10862 layer_factory.hpp:77] Creating layer mbox_priorbox
I1102 11:56:33.723434 10862 net.cpp:100] Creating Layer mbox_priorbox
I1102 11:56:33.723439 10862 net.cpp:481] mbox_priorbox <- conv11_mbox_priorbox
I1102 11:56:33.723457 10862 net.cpp:481] mbox_priorbox <- conv13_mbox_priorbox
I1102 11:56:33.723462 10862 net.cpp:481] mbox_priorbox <- conv14_2_mbox_priorbox
I1102 11:56:33.723465 10862 net.cpp:481] mbox_priorbox <- conv15_2_mbox_priorbox
I1102 11:56:33.723469 10862 net.cpp:481] mbox_priorbox <- conv16_2_mbox_priorbox
I1102 11:56:33.723471 10862 net.cpp:481] mbox_priorbox <- conv17_2_mbox_priorbox
I1102 11:56:33.723475 10862 net.cpp:455] mbox_priorbox -> mbox_priorbox
I1102 11:56:33.723511 10862 net.cpp:150] Setting up mbox_priorbox
I1102 11:56:33.723520 10862 net.cpp:157] Top shape: 1 2 7668 (15336)
I1102 11:56:33.723523 10862 net.cpp:165] Memory required for data: 1294924288
I1102 11:56:33.723526 10862 layer_factory.hpp:77] Creating layer mbox_conf_reshape
I1102 11:56:33.723536 10862 net.cpp:100] Creating Layer mbox_conf_reshape
I1102 11:56:33.723541 10862 net.cpp:481] mbox_conf_reshape <- mbox_conf
I1102 11:56:33.723546 10862 net.cpp:455] mbox_conf_reshape -> mbox_conf_reshape
I1102 11:56:33.723587 10862 net.cpp:150] Setting up mbox_conf_reshape
I1102 11:56:33.723597 10862 net.cpp:157] Top shape: 8 1917 21 (322056)
I1102 11:56:33.723599 10862 net.cpp:165] Memory required for data: 1296212512
I1102 11:56:33.723601 10862 layer_factory.hpp:77] Creating layer mbox_conf_softmax
I1102 11:56:33.723608 10862 net.cpp:100] Creating Layer mbox_conf_softmax
I1102 11:56:33.723614 10862 net.cpp:481] mbox_conf_softmax <- mbox_conf_reshape
I1102 11:56:33.723619 10862 net.cpp:455] mbox_conf_softmax -> mbox_conf_softmax
I1102 11:56:33.724727 10862 net.cpp:150] Setting up mbox_conf_softmax
I1102 11:56:33.724748 10862 net.cpp:157] Top shape: 8 1917 21 (322056)
I1102 11:56:33.724752 10862 net.cpp:165] Memory required for data: 1297500736
I1102 11:56:33.724756 10862 layer_factory.hpp:77] Creating layer mbox_conf_flatten
I1102 11:56:33.724761 10862 net.cpp:100] Creating Layer mbox_conf_flatten
I1102 11:56:33.724766 10862 net.cpp:481] mbox_conf_flatten <- mbox_conf_softmax
I1102 11:56:33.724771 10862 net.cpp:455] mbox_conf_flatten -> mbox_conf_flatten
I1102 11:56:33.724824 10862 net.cpp:150] Setting up mbox_conf_flatten
I1102 11:56:33.724835 10862 net.cpp:157] Top shape: 8 40257 (322056)
I1102 11:56:33.724838 10862 net.cpp:165] Memory required for data: 1298788960
I1102 11:56:33.724840 10862 layer_factory.hpp:77] Creating layer detection_out
I1102 11:56:33.724851 10862 net.cpp:100] Creating Layer detection_out
I1102 11:56:33.724858 10862 net.cpp:481] detection_out <- mbox_loc
I1102 11:56:33.724867 10862 net.cpp:481] detection_out <- mbox_conf_flatten
I1102 11:56:33.724874 10862 net.cpp:481] detection_out <- mbox_priorbox
I1102 11:56:33.724879 10862 net.cpp:455] detection_out -> detection_out
I1102 11:56:33.724957 10862 net.cpp:150] Setting up detection_out
I1102 11:56:33.724967 10862 net.cpp:157] Top shape: 1 1 1 7 (7)
I1102 11:56:33.724970 10862 net.cpp:165] Memory required for data: 1298788988
I1102 11:56:33.724973 10862 layer_factory.hpp:77] Creating layer detection_eval
I1102 11:56:33.724979 10862 net.cpp:100] Creating Layer detection_eval
I1102 11:56:33.724982 10862 net.cpp:481] detection_eval <- detection_out
I1102 11:56:33.724987 10862 net.cpp:481] detection_eval <- label
I1102 11:56:33.724993 10862 net.cpp:455] detection_eval -> detection_eval
I1102 11:56:33.725054 10862 net.cpp:150] Setting up detection_eval
I1102 11:56:33.725062 10862 net.cpp:157] Top shape: 1 1 21 5 (105)
I1102 11:56:33.725065 10862 net.cpp:165] Memory required for data: 1298789408
I1102 11:56:33.725069 10862 net.cpp:228] detection_eval does not need backward computation.
I1102 11:56:33.725075 10862 net.cpp:228] detection_out does not need backward computation.
I1102 11:56:33.725078 10862 net.cpp:228] mbox_conf_flatten does not need backward computation.
I1102 11:56:33.725081 10862 net.cpp:228] mbox_conf_softmax does not need backward computation.
…
      sampler {
        min_scale: 0.3
        max_scale: 1
        min_aspect_ratio: 0.5
        max_aspect_ratio: 2
      }
      sample_constraint {
        min_jaccard_overlap: 0.9
      }
      max_sample: 1
      max_trials: 50
    }
    batch_sampler {
      sampler {
        min_scale: 0.3
        max_scale: 1
        min_aspect_ratio: 0.5
        max_aspect_ratio: 2
      }
      sample_constraint {
        max_jaccard_overlap: 1
      }
      max_sample: 1
      max_trials: 50
    }
    label_map_file: "data/VOC0712/labelmap_voc.prototxt"
  }
}
layer {
  name: "conv0"
  type: "Convolution"
  bottom: "data"
  top: "conv0"
  param {
    lr_mult: 0.1
    decay_mult: 0.1
  }
  include {
    phase: TRAIN
  }
  convolution_param {
    num_output: 32
    bias_term: false
    pad: 1
    kernel_size: 3
    stride: 2
    weight_filler {
      type: "msra"
    }
  }
}
layer {
  name: "conv0/bn"
  type: "BatchNorm"
  bottom: "conv0"
  top: "conv0"
}
layer {
  name: "conv0/scale"
  type: "Scale"
  bottom: "conv0"
  top: "conv0"
  param {
    lr_mult: 0.1
    decay_mult: 0
  }
  param {
    lr_mult: 0.2
    decay_mult: 0
  }
  include {
    phase: TRAIN
  }
  scale_param {
    filler {
      value: 1
    }
    bias_term: true
    bias_filler {
      value: 0
    }
  }
}
layer {
  name: "conv0/relu"
  type: "ReLU"
  bottom: "conv0"
  top: "conv0"
}
layer {
  name: "conv1/dw"
  type: "Convolution"
  bottom: "conv0"
  top: "conv1/dw"
  param {
    lr_mult: 0.1
    decay_mult: 0.1
  }
  include {
    phase: TRAIN
  }
  convolution_param {
    num_output: 32
    bias_term: false
    pad: 1
    kernel_size: 3
    group: 32
    weight_filler {
      type: "msra"
    }
    engine: CAFFE
  }
}
layer {
  name: "conv1/dw/bn"
  type: "BatchNorm"
  bottom: "conv1/dw"
  top: "conv1/dw"
}
layer {
  name: "conv1/dw/scale"
  type: "Scale"
  bottom: "conv1/dw"
  top: "conv1/dw"
  param {
    lr_mult: 0.1
    decay_mult: 0
  }
  param {
    lr_mult: 0.2
    decay_mult: 0
  }
  include {
    phase: TRAIN
  }
  scale_param {
    filler {
      value: 1
    }
    bias_term: true
    bias_filler {
      value: 0
    }
  }
}
layer {
  name: "conv1/dw/relu"
  type: "ReLU"
  bottom: "conv1/dw"
  top: "conv1/dw"
}
layer {
  name: "conv1"
  type: "Convolution"
  bottom: "conv1/dw"
  top: "conv1"
  param {
    lr_mult: 0.1
    decay_mult: 0.1
  }
  include {
    phase: TRAIN
  }
  convolution_param {
    num_output: 64
    bias_term: false
    kernel_size: 1
    weight_filler {
      type: "msra"
    }
  }
}
layer {
  name: "conv1/bn"
  type: "BatchNorm"
  bottom: "conv1"
  top: "conv1"
}
layer {
  name: "conv1/scale"
  type: "Scale"
  bottom: "conv1"
  top: "conv1"
  param {
    lr_mult: 0.1
    decay_mult: 0
  }
  param {
    lr_mult: 0.2
    decay_mult: 0
  }
  include {
    phase: TRAIN
  }
  scale_param {
    filler {
      value: 1
    }
    bias_term: true
    bias_filler {
      value: 0
    }
  }
}
layer {
  name: "conv1/relu"
  type: "ReLU"
  bottom: "conv1"
  top: "conv1"
}
layer {
  name: "conv2/dw"
  type: "Convolution"
  bottom: "conv1"
  top: "conv2/dw"
  param {
    lr_mult: 0.1
    decay_mult: 0.1
  }
  include {
    phase: TRAIN
  }
  convolution_param {
    num_output: 64
    bias_term: false
    pad: 1
    kernel_size: 3
    group: 64
    stride: 2
    weight_filler {
      type: "msra"
    }
    engine: CAFFE
  }
}
layer {
  name: "conv2/dw/bn"
  type: "BatchNorm"
  bottom: "conv2/dw"
  top: "conv2/dw"
}
layer {
  name: "conv2/dw/scale"
  type: "Scale"
  bottom: "conv2/dw"
  top: "conv2/dw"
  param {
    lr_mult: 0.1
    decay_mult: 0
  }
  param {
    lr_mult: 0.2
    decay_mult: 0
  }
  include {
    phase: TRAIN
  }
  scale_param {
    filler {
      value: 1
    }
    bias_term: true
    bias_filler {
      value: 0
    }
  }
}
layer {
  name: "conv2/dw/relu"
  type: "ReLU"
  bottom: "conv2/dw"
  top: "conv2/dw"
}
layer {
  name: "conv2"
  type: "Convolution"
  bottom: "conv2/dw"
  top: "conv2"
  param {
    lr_mult: 0.1
    decay_mult: 0.1
  }
  include {
    phase: TRAIN
  }
  convolution_param {
    num_output: 128
    bias_term: false
    kernel_size: 1
    weight_filler {
      type: "msra"
    }
  }
}
layer {
  name: "conv2/bn"
  type: "BatchNorm"
  bottom: "conv2"
  top: "conv2"
}
layer {
  name: "conv2/scale"
  type: "Scale"
  bottom: "conv2"
  top: "conv2"
  param {
    lr_mult: 0.1
    decay_mult: 0
  }
  param {
    lr_mult: 0.2
    decay_mult: 0
  }
  include {
    phase: TRAIN
  }
  scale_param {
    filler {
      value: 1
    }
    bias_term: true
    bias_filler {
      value: 0
    }
  }
}
layer {
  name: "conv2/relu"
  type: "ReLU"
  bottom: "conv2"
  top: "conv2"
}
layer {
  name: "conv3/dw"
  type: "Convolution"
  bottom: "conv2"
  top: "conv3/dw"
  param {
    lr_mult: 0.1
    decay_mult: 0.1
  }
  include {
    phase: TRAIN
  }
  convolution_param {
    num_output: 128
    bias_term: false
    pad: 1
    kernel_size: 3
    group: 128
    weight_filler {
      type: "msra"
    }
    engine: CAFFE
  }
}
layer {
  name: "conv3/dw/bn"
  type: "BatchNorm"
  bottom: "conv3/dw"
  top: "conv3/dw"
}
layer {
  name: "conv3/dw/scale"
  type: "Scale"
  bottom: "conv3/dw"
  top: "conv3/dw"
  param {
    lr_mult: 0.1
    decay_mult: 0
  }
  param {
    lr_mult: 0.2
    decay_mult: 0
  }
  include {
    phase: TRAIN
  }
  scale_param {
    filler {
      value: 1
    }
    bias_term: true
    bias_filler {
      value: 0
    }
  }
}
layer {
  name: "conv3/dw/relu"
  type: "ReLU"
  bottom: "conv3/dw"
  top: "conv3/dw"
}
layer {
  name: "conv3"
  type: "Convolution"
  bottom: "conv3/dw"
  top: "conv3"
  param {
    lr_mult: 0.1
    decay_mult: 0.1
  }
  include {
    phase: TRAIN
  }
  convolution_param {
    num_output: 128
    bias_term: false
    kernel_size: 1
    weight_filler {
      type: "msra"
    }
  }
}
layer {
  name: "conv3/bn"
  type: "BatchNorm"
  bottom: "conv3"
  top: "conv3"
}
layer {
  name: "conv3/scale"
  type: "Scale"
  bottom: "conv3"
  top: "conv3"
  param {
    lr_mult: 0.1
    decay_mult: 0
  }
  param {
    lr_mult: 0.2
    decay_mult: 0
  }
  include {
    phase: TRAIN
  }
  scale_param {
    filler {
      value: 1
    }
    bias_term: true
    bias_filler {
      value: 0
    }
  }
}
layer {
  name: "conv3/relu"
  type: "ReLU"
  bottom: "conv3"
  top: "conv3"
}
layer {
  name: "conv4/dw"
  type: "Convolution"
  bottom: "conv3"
  top: "conv4/dw"
  param {
    lr_mult: 0.1
    decay_mult: 0.1
  }
  include {
    phase: TRAIN
  }
  convolution_param {
    num_output: 128
    bias_term: false
    pad: 1
    kernel_size: 3
    group: 128
    stride: 2
    weight_filler {
      type: "msra"
    }
    engine: CAFFE
  }
}
layer {
  name: "conv4/dw/bn"
  type: "BatchNorm"
  bottom: "conv4/dw"
  top: "conv4/dw"
}
layer {
  name: "conv4/dw/scale"
  type: "Scale"
  bottom: "conv4/dw"
  top: "conv4/dw"
  param {
    lr_mult: 0.1
    decay_mult: 0
  }
  param {
    lr_mult: 0.2
    decay_mult: 0
  }
  include {
    phase: TRAIN
  }
  scale_param {
    filler {
      value: 1
    }
    bias_term: true
    bias_filler {
      value: 0
    }
  }
}
layer {
  name: "conv4/dw/relu"
  type: "ReLU"
  bottom: "conv4/dw"
  top: "conv4/dw"
}
layer {
  name: "conv4"
  type: "Convolution"
  bottom: "conv4/dw"
  top: "conv4"
  param {
    lr_mult: 0.1
    decay_mult: 0.1
  }
  include {
    phase: TRAIN
  }
  convolution_param {
    num_output: 256
    bias_term: false
    kernel_size: 1
    weight_filler {
      type: "msra"
    }
  }
}
layer {
  name: "conv4/bn"
  type: "BatchNorm"
  bottom: "conv4"
  top: "conv4"
}
layer {
  name: "conv4/scale"
  type: "Scale"
  bottom: "conv4"
  top: "conv4"
  param {
    lr_mult: 0.1
    decay_mult: 0
  }
  param {
    lr_mult: 0.2
    decay_mult: 0
  }
  include {
    phase: TRAIN
  }
  scale_param {
    filler {
      value: 1
    }
    bias_term: true
    bias_filler {
      value: 0
    }
  }
}
layer {
  name: "conv4/relu"
  type: "ReLU"
  bottom: "conv4"
  top: "conv4"
}
layer {
  name: "conv5/dw"
  type: "Convolution"
  bottom: "conv4"
  top: "conv5/dw"
  param {
    lr_mult: 0.1
    decay_mult: 0.1
  }
  include {
    phase: TRAIN
  }
  convolution_param {
    num_output: 256
    bias_term: false
    pad: 1
    kernel_size: 3
    group: 256
    weight_filler {
      type: "msra"
    }
    engine: CAFFE
  }
}
layer {
  name: "conv5/dw/bn"
  type: "BatchNorm"
  bottom: "conv5/dw"
  top: "conv5/dw"
}
layer {
  name: "conv5/dw/scale"
  type: "Scale"
  bottom: "conv5/dw"
  top: "conv5/dw"
  param {
    lr_mult: 0.1
    decay_mult: 0
  }
  param {
    lr_mult: 0.2
    decay_mult: 0
  }
  include {
    phase: TRAIN
  }
  scale_param {
    filler {
      value: 1
    }
    bias_term: true
    bias_filler {
      value: 0
    }
  }
}
layer {
  name: "conv5/dw/relu"
  type: "ReLU"
  bottom: "conv5/dw"
  top: "conv5/dw"
}
layer {
  name: "conv5"
  type: "Convolution"
  bottom: "conv5/dw"
  top: "conv5"
  param {
    lr_mult: 0.1
    decay_mult: 0.1
  }
  include {
    phase: TRAIN
  }
  convolution_param {
    num_output: 256
    bias_term: false
    kernel_size: 1
    weight_filler {
      type: "msra"
    }
  }
}
layer {
  name: "conv5/bn"
  type: "BatchNorm"
  bottom: "conv5"
  top: "conv5"
}
layer {
  name: "conv5/scale"
  type: "Scale"
  bottom: "conv5"
  top: "conv5"
  param {
    lr_mult: 0.1
    decay_mult: 0
  }
  param {
    lr_mult: 0.2
    decay_mult: 0
…
I1102 11:57:20.399521 10862 net.cpp:157] Top shape: 24 1024 10 10 (2457600)
I1102 11:57:20.399523 10862 net.cpp:165] Memory required for data: 3792777248
I1102 11:57:20.399528 10862 layer_factory.hpp:77] Creating layer conv13/relu
I1102 11:57:20.399533 10862 net.cpp:100] Creating Layer conv13/relu
I1102 11:57:20.399535 10862 net.cpp:481] conv13/relu <- conv13
I1102 11:57:20.399539 10862 net.cpp:442] conv13/relu -> conv13 (in-place)
I1102 11:57:20.399788 10862 net.cpp:150] Setting up conv13/relu
I1102 11:57:20.399797 10862 net.cpp:157] Top shape: 24 1024 10 10 (2457600)
I1102 11:57:20.399799 10862 net.cpp:165] Memory required for data: 3802607648
I1102 11:57:20.399802 10862 layer_factory.hpp:77] Creating layer conv13_conv13/relu_0_split
I1102 11:57:20.399808 10862 net.cpp:100] Creating Layer conv13_conv13/relu_0_split
I1102 11:57:20.399811 10862 net.cpp:481] conv13_conv13/relu_0_split <- conv13
I1102 11:57:20.399817 10862 net.cpp:455] conv13_conv13/relu_0_split -> conv13_conv13/relu_0_split_0
I1102 11:57:20.399823 10862 net.cpp:455] conv13_conv13/relu_0_split -> conv13_conv13/relu_0_split_1
I1102 11:57:20.399830 10862 net.cpp:455] conv13_conv13/relu_0_split -> conv13_conv13/relu_0_split_2
I1102 11:57:20.399835 10862 net.cpp:455] conv13_conv13/relu_0_split -> conv13_conv13/relu_0_split_3
I1102 11:57:20.399896 10862 net.cpp:150] Setting up conv13_conv13/relu_0_split
I1102 11:57:20.399900 10862 net.cpp:157] Top shape: 24 1024 10 10 (2457600)
I1102 11:57:20.399904 10862 net.cpp:157] Top shape: 24 1024 10 10 (2457600)
I1102 11:57:20.399906 10862 net.cpp:157] Top shape: 24 1024 10 10 (2457600)
I1102 11:57:20.399909 10862 net.cpp:157] Top shape: 24 1024 10 10 (2457600)
I1102 11:57:20.399911 10862 net.cpp:165] Memory required for data: 3841929248
I1102 11:57:20.399914 10862 layer_factory.hpp:77] Creating layer conv14_1
I1102 11:57:20.399922 10862 net.cpp:100] Creating Layer conv14_1
I1102 11:57:20.399925 10862 net.cpp:481] conv14_1 <- conv13_conv13/relu_0_split_0
I1102 11:57:20.399936 10862 net.cpp:455] conv14_1 -> conv14_1
I1102 11:57:20.406075 10862 net.cpp:150] Setting up conv14_1
I1102 11:57:20.406096 10862 net.cpp:157] Top shape: 24 256 10 10 (614400)
I1102 11:57:20.406100 10862 net.cpp:165] Memory required for data: 3844386848
I1102 11:57:20.406105 10862 layer_factory.hpp:77] Creating layer conv14_1/bn
I1102 11:57:20.406110 10862 net.cpp:100] Creating Layer conv14_1/bn
I1102 11:57:20.406113 10862 net.cpp:481] conv14_1/bn <- conv14_1
I1102 11:57:20.406118 10862 net.cpp:442] conv14_1/bn -> conv14_1 (in-place)
I1102 11:57:20.406369 10862 net.cpp:150] Setting up conv14_1/bn
I1102 11:57:20.406378 10862 net.cpp:157] Top shape: 24 256 10 10 (614400)
I1102 11:57:20.406380 10862 net.cpp:165] Memory required for data: 3846844448
I1102 11:57:20.406388 10862 layer_factory.hpp:77] Creating layer conv14_1/scale
I1102 11:57:20.406395 10862 net.cpp:100] Creating Layer conv14_1/scale
I1102 11:57:20.406399 10862 net.cpp:481] conv14_1/scale <- conv14_1
I1102 11:57:20.406404 10862 net.cpp:442] conv14_1/scale -> conv14_1 (in-place)
I1102 11:57:20.406445 10862 layer_factory.hpp:77] Creating layer conv14_1/scale
I1102 11:57:20.406611 10862 net.cpp:150] Setting up conv14_1/scale
I1102 11:57:20.406617 10862 net.cpp:157] Top shape: 24 256 10 10 (614400)
I1102 11:57:20.406620 10862 net.cpp:165] Memory required for data: 3849302048
I1102 11:57:20.406625 10862 layer_factory.hpp:77] Creating layer conv14_1/relu
I1102 11:57:20.406630 10862 net.cpp:100] Creating Layer conv14_1/relu
I1102 11:57:20.406632 10862 net.cpp:481] conv14_1/relu <- conv14_1
I1102 11:57:20.406636 10862 net.cpp:442] conv14_1/relu -> conv14_1 (in-place)
I1102 11:57:20.407626 10862 net.cpp:150] Setting up conv14_1/relu
I1102 11:57:20.407639 10862 net.cpp:157] Top shape: 24 256 10 10 (614400)
I1102 11:57:20.407640 10862 net.cpp:165] Memory required for data: 3851759648
I1102 11:57:20.407644 10862 layer_factory.hpp:77] Creating layer conv14_2
I1102 11:57:20.407654 10862 net.cpp:100] Creating Layer conv14_2
I1102 11:57:20.407657 10862 net.cpp:481] conv14_2 <- conv14_1
I1102 11:57:20.407663 10862 net.cpp:455] conv14_2 -> conv14_2
I1102 11:57:20.424244 10862 net.cpp:150] Setting up conv14_2
I1102 11:57:20.424257 10862 net.cpp:157] Top shape: 24 512 5 5 (307200)
I1102 11:57:20.424260 10862 net.cpp:165] Memory required for data: 3852988448
I1102 11:57:20.424265 10862 layer_factory.hpp:77] Creating layer conv14_2/bn
I1102 11:57:20.424271 10862 net.cpp:100] Creating Layer conv14_2/bn
I1102 11:57:20.424275 10862 net.cpp:481] conv14_2/bn <- conv14_2
I1102 11:57:20.424280 10862 net.cpp:442] conv14_2/bn -> conv14_2 (in-place)
I1102 11:57:20.424460 10862 net.cpp:150] Setting up conv14_2/bn
I1102 11:57:20.424487 10862 net.cpp:157] Top shape: 24 512 5 5 (307200)
I1102 11:57:20.424490 10862 net.cpp:165] Memory required for data: 3854217248
I1102 11:57:20.424496 10862 layer_factory.hpp:77] Creating layer conv14_2/scale
I1102 11:57:20.424512 10862 net.cpp:100] Creating Layer conv14_2/scale
I1102 11:57:20.424515 10862 net.cpp:481] conv14_2/scale <- conv14_2
I1102 11:57:20.424520 10862 net.cpp:442] conv14_2/scale -> conv14_2 (in-place)
I1102 11:57:20.424558 10862 layer_factory.hpp:77] Creating layer conv14_2/scale
I1102 11:57:20.424707 10862 net.cpp:150] Setting up conv14_2/scale
I1102 11:57:20.424713 10862 net.cpp:157] Top shape: 24 512 5 5 (307200)
I1102 11:57:20.424715 10862 net.cpp:165] Memory required for data: 3855446048
I1102 11:57:20.424721 10862 layer_factory.hpp:77] Creating layer conv14_2/relu
I1102 11:57:20.424726 10862 net.cpp:100] Creating Layer conv14_2/relu
I1102 11:57:20.424729 10862 net.cpp:481] conv14_2/relu <- conv14_2
I1102 11:57:20.424733 10862 net.cpp:442] conv14_2/relu -> conv14_2 (in-place)
I1102 11:57:20.424999 10862 net.cpp:150] Setting up conv14_2/relu
I1102 11:57:20.425009 10862 net.cpp:157] Top shape: 24 512 5 5 (307200)
I1102 11:57:20.425010 10862 net.cpp:165] Memory required for data: 3856674848
I1102 11:57:20.425014 10862 layer_factory.hpp:77] Creating layer conv14_2_conv14_2/relu_0_split
I1102 11:57:20.425019 10862 net.cpp:100] Creating Layer conv14_2_conv14_2/relu_0_split
I1102 11:57:20.425022 10862 net.cpp:481] conv14_2_conv14_2/relu_0_split <- conv14_2
I1102 11:57:20.425029 10862 net.cpp:455] conv14_2_conv14_2/relu_0_split -> conv14_2_conv14_2/relu_0_split_0
I1102 11:57:20.425035 10862 net.cpp:455] conv14_2_conv14_2/relu_0_split -> conv14_2_conv14_2/relu_0_split_1
I1102 11:57:20.425040 10862 net.cpp:455] conv14_2_conv14_2/relu_0_split -> conv14_2_conv14_2/relu_0_split_2
I1102 11:57:20.425045 10862 net.cpp:455] conv14_2_conv14_2/relu_0_split -> conv14_2_conv14_2/relu_0_split_3
I1102 11:57:20.425104 10862 net.cpp:150] Setting up conv14_2_conv14_2/relu_0_split
I1102 11:57:20.425109 10862 net.cpp:157] Top shape: 24 512 5 5 (307200)
I1102 11:57:20.425112 10862 net.cpp:157] Top shape: 24 512 5 5 (307200)
I1102 11:57:20.425114 10862 net.cpp:157] Top shape: 24 512 5 5 (307200)
I1102 11:57:20.425117 10862 net.cpp:157] Top shape: 24 512 5 5 (307200)
I1102 11:57:20.425119 10862 net.cpp:165] Memory required for data: 3861590048
I1102 11:57:20.425122 10862 layer_factory.hpp:77] Creating layer conv15_1
I1102 11:57:20.425148 10862 net.cpp:100] Creating Layer conv15_1
I1102 11:57:20.425150 10862 net.cpp:481] conv15_1 <- conv14_2_conv14_2/relu_0_split_0
I1102 11:57:20.425156 10862 net.cpp:455] conv15_1 -> conv15_1
I1102 11:57:20.428351 10862 net.cpp:150] Setting up conv15_1
I1102 11:57:20.428378 10862 net.cpp:157] Top shape: 24 128 5 5 (76800)
I1102 11:57:20.428381 10862 net.cpp:165] Memory required for data: 3861897248
I1102 11:57:20.428386 10862 layer_factory.hpp:77] Creating layer conv15_1/bn
I1102 11:57:20.428392 10862 net.cpp:100] Creating Layer conv15_1/bn
I1102 11:57:20.428395 10862 net.cpp:481] conv15_1/bn <- conv15_1
I1102 11:57:20.428400 10862 net.cpp:442] conv15_1/bn -> conv15_1 (in-place)
I1102 11:57:20.428570 10862 net.cpp:150] Setting up conv15_1/bn
I1102 11:57:20.428576 10862 net.cpp:157] Top shape: 24 128 5 5 (76800)
I1102 11:57:20.428578 10862 net.cpp:165] Memory required for data: 3862204448
I1102 11:57:20.428584 10862 layer_factory.hpp:77] Creating layer conv15_1/scale
I1102 11:57:20.428591 10862 net.cpp:100] Creating Layer conv15_1/scale
I1102 11:57:20.428594 10862 net.cpp:481] conv15_1/scale <- conv15_1
I1102 11:57:20.428599 10862 net.cpp:442] conv15_1/scale -> conv15_1 (in-place)
I1102 11:57:20.428633 10862 layer_factory.hpp:77] Creating layer conv15_1/scale
I1102 11:57:20.428730 10862 net.cpp:150] Setting up conv15_1/scale
I1102 11:57:20.428735 10862 net.cpp:157] Top shape: 24 128 5 5 (76800)
I1102 11:57:20.428736 10862 net.cpp:165] Memory required for data: 3862511648
I1102 11:57:20.428741 10862 layer_factory.hpp:77] Creating layer conv15_1/relu
I1102 11:57:20.428745 10862 net.cpp:100] Creating Layer conv15_1/relu
I1102 11:57:20.428748 10862 net.cpp:481] conv15_1/relu <- conv15_1
I1102 11:57:20.428752 10862 net.cpp:442] conv15_1/relu -> conv15_1 (in-place)
I1102 11:57:20.429628 10862 net.cpp:150] Setting up conv15_1/relu
I1102 11:57:20.429638 10862 net.cpp:157] Top shape: 24 128 5 5 (76800)
I1102 11:57:20.429641 10862 net.cpp:165] Memory required for data: 3862818848
I1102 11:57:20.429646 10862 layer_factory.hpp:77] Creating layer conv15_2
I1102 11:57:20.429656 10862 net.cpp:100] Creating Layer conv15_2
I1102 11:57:20.429658 10862 net.cpp:481] conv15_2 <- conv15_1
I1102 11:57:20.429664 10862 net.cpp:455] conv15_2 -> conv15_2
I1102 11:57:20.436000 10862 net.cpp:150] Setting up conv15_2
I1102 11:57:20.436012 10862 net.cpp:157] Top shape: 24 256 3 3 (55296)
I1102 11:57:20.436015 10862 net.cpp:165] Memory required for data: 3863040032
I1102 11:57:20.436020 10862 layer_factory.hpp:77] Creating layer conv15_2/bn
I1102 11:57:20.436027 10862 net.cpp:100] Creating Layer conv15_2/bn
I1102 11:57:20.436030 10862 net.cpp:481] conv15_2/bn <- conv15_2
I1102 11:57:20.436035 10862 net.cpp:442] conv15_2/bn -> conv15_2 (in-place)
I1102 11:57:20.436224 10862 net.cpp:150] Setting up conv15_2/bn
I1102 11:57:20.436230 10862 net.cpp:157] Top shape: 24 256 3 3 (55296)
I1102 11:57:20.436233 10862 net.cpp:165] Memory required for data: 3863261216
I1102 11:57:20.436239 10862 layer_factory.hpp:77] Creating layer conv15_2/scale
I1102 11:57:20.436247 10862 net.cpp:100] Creating Layer conv15_2/scale
I1102 11:57:20.436249 10862 net.cpp:481] conv15_2/scale <- conv15_2
I1102 11:57:20.436254 10862 net.cpp:442] conv15_2/scale -> conv15_2 (in-place)
I1102 11:57:20.436292 10862 layer_factory.hpp:77] Creating layer conv15_2/scale
I1102 11:57:20.436391 10862 net.cpp:150] Setting up conv15_2/scale
I1102 11:57:20.436396 10862 net.cpp:157] Top shape: 24 256 3 3 (55296)
I1102 11:57:20.436399 10862 net.cpp:165] Memory required for data: 3863482400
I1102 11:57:20.436403 10862 layer_factory.hpp:77] Creating layer conv15_2/relu
I1102 11:57:20.436421 10862 net.cpp:100] Creating Layer conv15_2/relu
I1102 11:57:20.436424 10862 net.cpp:481] conv15_2/relu <- conv15_2
I1102 11:57:20.436429 10862 net.cpp:442] conv15_2/relu -> conv15_2 (in-place)
I1102 11:57:20.437336 10862 net.cpp:150] Setting up conv15_2/relu
I1102 11:57:20.437348 10862 net.cpp:157] Top shape: 24 256 3 3 (55296)
I1102 11:57:20.437350 10862 net.cpp:165] Memory required for data: 3863703584
I1102 11:57:20.437366 10862 layer_factory.hpp:77] Creating layer conv15_2_conv15_2/relu_0_split
I1102 11:57:20.437372 10862 net.cpp:100] Creating Layer conv15_2_conv15_2/relu_0_split
I1102 11:57:20.437376 10862 net.cpp:481] conv15_2_conv15_2/relu_0_split <- conv15_2
I1102 11:57:20.437382 10862 net.cpp:455] conv15_2_conv15_2/relu_0_split -> conv15_2_conv15_2/relu_0_split_0
I1102 11:57:20.437388 10862 net.cpp:455] conv15_2_conv15_2/relu_0_split -> conv15_2_conv15_2/relu_0_split_1
I1102 11:57:20.437394 10862 net.cpp:455] conv15_2_conv15_2/relu_0_split -> conv15_2_conv15_2/relu_0_split_2
I1102 11:57:20.437399 10862 net.cpp:455] conv15_2_conv15_2/relu_0_split -> conv15_2_conv15_2/relu_0_split_3
I1102 11:57:20.437461 10862 net.cpp:150] Setting up conv15_2_conv15_2/relu_0_split
I1102 11:57:20.437466 10862 net.cpp:157] Top shape: 24 256 3 3 (55296)
I1102 11:57:20.437469 10862 net.cpp:157] Top shape: 24 256 3 3 (55296)
I1102 11:57:20.437472 10862 net.cpp:157] Top shape: 24 256 3 3 (55296)
I1102 11:57:20.437475 10862 net.cpp:157] Top shape: 24 256 3 3 (55296)
I1102 11:57:20.437477 10862 net.cpp:165] Memory required for data: 3864588320
I1102 11:57:20.437479 10862 layer_factory.hpp:77] Creating layer conv16_1
I1102 11:57:20.437487 10862 net.cpp:100] Creating Layer conv16_1
I1102 11:57:20.437490 10862 net.cpp:481] conv16_1 <- conv15_2_conv15_2/relu_0_split_0
I1102 11:57:20.437495 10862 net.cpp:455] conv16_1 -> conv16_1
I1102 11:57:20.440390 10862 net.cpp:150] Setting up conv16_1
I1102 11:57:20.440403 10862 net.cpp:157] Top shape: 24 128 3 3 (27648)
I1102 11:57:20.440407 10862 net.cpp:165] Memory required for data: 3864698912
I1102 11:57:20.440412 10862 layer_factory.hpp:77] Creating layer conv16_1/bn
I1102 11:57:20.440418 10862 net.cpp:100] Creating Layer conv16_1/bn
I1102 11:57:20.440421 10862 net.cpp:481] conv16_1/bn <- conv16_1
I1102 11:57:20.440426 10862 net.cpp:442] conv16_1/bn -> conv16_1 (in-place)
I1102 11:57:20.440601 10862 net.cpp:150] Setting up conv16_1/bn
I1102 11:57:20.440608 10862 net.cpp:157] Top shape: 24 128 3 3 (27648)
I1102 11:57:20.440610 10862 net.cpp:165] Memory required for data: 3864809504
I1102 11:57:20.440618 10862 layer_factory.hpp:77] Creating layer conv16_1/scale
I1102 11:57:20.440623 10862 net.cpp:100] Creating Layer conv16_1/scale
I1102 11:57:20.440626 10862 net.cpp:481] conv16_1/scale <- conv16_1
I1102 11:57:20.440630 10862 net.cpp:442] conv16_1/scale -> conv16_1 (in-place)
I1102 11:57:20.440667 10862 layer_factory.hpp:77] Creating layer conv16_1/scale
I1102 11:57:20.440764 10862 net.cpp:150] Setting up conv16_1/scale
I1102 11:57:20.440770 10862 net.cpp:157] Top shape: 24 128 3 3 (27648)
I1102 11:57:20.440773 10862 net.cpp:165] Memory required for data: 3864920096
I1102 11:57:20.440778 10862 layer_factory.hpp:77] Creating layer conv16_1/relu
I1102 11:57:20.440783 10862 net.cpp:100] Creating Layer conv16_1/relu
I1102 11:57:20.440784 10862 net.cpp:481] conv16_1/relu <- conv16_1
I1102 11:57:20.440788 10862 net.cpp:442] conv16_1/relu -> conv16_1 (in-place)
I1102 11:57:20.441045 10862 net.cpp:150] Setting up conv16_1/relu
I1102 11:57:20.441054 10862 net.cpp:157] Top shape: 24 128 3 3 (27648)
I1102 11:57:20.441057 10862 net.cpp:165] Memory required for data: 3865030688
I1102 11:57:20.441059 10862 layer_factory.hpp:77] Creating layer conv16_2
I1102 11:57:20.441068 10862 net.cpp:100] Creating Layer conv16_2
I1102 11:57:20.441071 10862 net.cpp:481] conv16_2 <- conv16_1
I1102 11:57:20.441077 10862 net.cpp:455] conv16_2 -> conv16_2
I1102 11:57:20.447523 10862 net.cpp:150] Setting up conv16_2
I1102 11:57:20.447536 10862 net.cpp:157] Top shape: 24 256 2 2 (24576)
I1102 11:57:20.447540 10862 net.cpp:165] Memory required for data: 3865128992
I1102 11:57:20.447544 10862 layer_factory.hpp:77] Creating layer conv16_2/bn
I1102 11:57:20.447551 10862 net.cpp:100] Creating Layer conv16_2/bn
I1102 11:57:20.447553 10862 net.cpp:481] conv16_2/bn <- conv16_2
I1102 11:57:20.447559 10862 net.cpp:442] conv16_2/bn -> conv16_2 (in-place)
I1102 11:57:20.447736 10862 net.cpp:150] Setting up conv16_2/bn
I1102 11:57:20.447742 10862 net.cpp:157] Top shape: 24 256 2 2 (24576)
I1102 11:57:20.447757 10862 net.cpp:165] Memory required for data: 3865227296
I1102 11:57:20.447763 10862 layer_factory.hpp:77] Creating layer conv16_2/scale
I1102 11:57:20.447770 10862 net.cpp:100] Creating Layer conv16_2/scale
I1102 11:57:20.447773 10862 net.cpp:481] conv16_2/scale <- conv16_2
I1102 11:57:20.447778 10862 net.cpp:442] conv16_2/scale -> conv16_2 (in-place)
I1102 11:57:20.447850 10862 layer_factory.hpp:77] Creating layer conv16_2/scale
I1102 11:57:20.448000 10862 net.cpp:150] Setting up conv16_2/scale
I1102 11:57:20.448009 10862 net.cpp:157] Top shape: 24 256 2 2 (24576)
I1102 11:57:20.448012 10862 net.cpp:165] Memory required for data: 3865325600
I1102 11:57:20.448017 10862 layer_factory.hpp:77] Creating layer conv16_2/relu
I1102 11:57:20.448022 10862 net.cpp:100] Creating Layer conv16_2/relu
I1102 11:57:20.448025 10862 net.cpp:481] conv16_2/relu <- conv16_2
I1102 11:57:20.448035 10862 net.cpp:442] conv16_2/relu -> conv16_2 (in-place)
I1102 11:57:20.450045 10862 net.cpp:150] Setting up conv16_2/relu
I1102 11:57:20.450057 10862 net.cpp:157] Top shape: 24 256 2 2 (24576)
I1102 11:57:20.450060 10862 net.cpp:165] Memory required for data: 3865423904
I1102 11:57:20.450063 10862 layer_factory.hpp:77] Creating layer conv16_2_conv16_2/relu_0_split
I1102 11:57:20.450069 10862 net.cpp:100] Creating Layer conv16_2_conv16_2/relu_0_split
I1102 11:57:20.450088 10862 net.cpp:481] conv16_2_conv16_2/relu_0_split <- conv16_2
I1102 11:57:20.450094 10862 net.cpp:455] conv16_2_conv16_2/relu_0_split -> conv16_2_conv16_2/relu_0_split_0
I1102 11:57:20.450103 10862 net.cpp:455] conv16_2_conv16_2/relu_0_split -> conv16_2_conv16_2/relu_0_split_1
I1102 11:57:20.450107 10862 net.cpp:455] conv16_2_conv16_2/relu_0_split -> conv16_2_conv16_2/relu_0_split_2
I1102 11:57:20.450114 10862 net.cpp:455] conv16_2_conv16_2/relu_0_split -> conv16_2_conv16_2/relu_0_split_3
I1102 11:57:20.450201 10862 net.cpp:150] Setting up conv16_2_conv16_2/relu_0_split
I1102 11:57:20.450208 10862 net.cpp:157] Top shape: 24 256 2 2 (24576)
I1102 11:57:20.450212 10862 net.cpp:157] Top shape: 24 256 2 2 (24576)
I1102 11:57:20.450214 10862 net.cpp:157] Top shape: 24 256 2 2 (24576)
I1102 11:57:20.450217 10862 net.cpp:157] Top shape: 24 256 2 2 (24576)
I1102 11:57:20.450219 10862 net.cpp:165] Memory required for data: 3865817120
I1102 11:57:20.450222 10862 layer_factory.hpp:77] Creating layer conv17_1
I1102 11:57:20.450232 10862 net.cpp:100] Creating Layer conv17_1
I1102 11:57:20.450235 10862 net.cpp:481] conv17_1 <- conv16_2_conv16_2/relu_0_split_0
I1102 11:57:20.450242 10862 net.cpp:455] conv17_1 -> conv17_1
I1102 11:57:20.452780 10862 net.cpp:150] Setting up conv17_1
I1102 11:57:20.452792 10862 net.cpp:157] Top shape: 24 64 2 2 (6144)
I1102 11:57:20.452795 10862 net.cpp:165] Memory required for data: 3865841696
I1102 11:57:20.452801 10862 layer_factory.hpp:77] Creating layer conv17_1/bn
I1102 11:57:20.452807 10862 net.cpp:100] Creating Layer conv17_1/bn
I1102 11:57:20.452811 10862 net.cpp:481] conv17_1/bn <- conv17_1
I1102 11:57:20.452816 10862 net.cpp:442] conv17_1/bn -> conv17_1 (in-place)
I1102 11:57:20.453035 10862 net.cpp:150] Setting up conv17_1/bn
I1102 11:57:20.453042 10862 net.cpp:157] Top shape: 24 64 2 2 (6144)
I1102 11:57:20.453044 10862 net.cpp:165] Memory required for data: 3865866272
I1102 11:57:20.453050 10862 layer_factory.hpp:77] Creating layer conv17_1/scale
I1102 11:57:20.453058 10862 net.cpp:100] Creating Layer conv17_1/scale
I1102 11:57:20.453060 10862 net.cpp:481] conv17_1/scale <- conv17_1
I1102 11:57:20.453065 10862 net.cpp:442] conv17_1/scale -> conv17_1 (in-place)
I1102 11:57:20.453107 10862 layer_factory.hpp:77] Creating layer conv17_1/scale
I1102 11:57:20.453243 10862 net.cpp:150] Setting up conv17_1/scale
I1102 11:57:20.453248 10862 net.cpp:157] Top shape: 24 64 2 2 (6144)
I1102 11:57:20.453250 10862 net.cpp:165] Memory required for data: 3865890848
I1102 11:57:20.453254 10862 layer_factory.hpp:77] Creating layer conv17_1/relu
I1102 11:57:20.453259 10862 net.cpp:100] Creating Layer conv17_1/relu
I1102 11:57:20.453275 10862 net.cpp:481] conv17_1/relu <- conv17_1
I1102 11:57:20.453287 10862 net.cpp:442] conv17_1/relu -> conv17_1 (in-place)
I1102 11:57:20.453543 10862 net.cpp:150] Setting up conv17_1/relu
I1102 11:57:20.453552 10862 net.cpp:157] Top shape: 24 64 2 2 (6144)
I1102 11:57:20.453554 10862 net.cpp:165] Memory required for data: 3865915424
I1102 11:57:20.453557 10862 layer_factory.hpp:77] Creating layer conv17_2
I1102 11:57:20.453567 10862 net.cpp:100] Creating Layer conv17_2
I1102 11:57:20.453570 10862 net.cpp:481] conv17_2 <- conv17_1
I1102 11:57:20.453577 10862 net.cpp:455] conv17_2 -> conv17_2
I1102 11:57:20.457000 10862 net.cpp:150] Setting up conv17_2
I1102 11:57:20.457011 10862 net.cpp:157] Top shape: 24 128 1 1 (3072)
I1102 11:57:20.457015 10862 net.cpp:165] Memory required for data: 3865927712
I1102 11:57:20.457020 10862 layer_factory.hpp:77] Creating layer conv17_2/bn
I1102 11:57:20.457026 10862 net.cpp:100] Creating Layer conv17_2/bn
I1102 11:57:20.457029 10862 net.cpp:481] conv17_2/bn <- conv17_2
I1102 11:57:20.457036 10862 net.cpp:442] conv17_2/bn -> conv17_2 (in-place)
I1102 11:57:20.457232 10862 net.cpp:150] Setting up conv17_2/bn
I1102 11:57:20.457238 10862 net.cpp:157] Top shape: 24 128 1 1 (3072)
I1102 11:57:20.457240 10862 net.cpp:165] Memory required for data: 3865940000
I1102 11:57:20.457262 10862 layer_factory.hpp:77] Creating layer conv17_2/scale
I1102 11:57:20.457269 10862 net.cpp:100] Creating Layer conv17_2/scale
I1102 11:57:20.457273 10862 net.cpp:481] conv17_2/scale <- conv17_2
I1102 11:57:20.457276 10862 net.cpp:442] conv17_2/scale -> conv17_2 (in-place)
I1102 11:57:20.457314 10862 layer_factory.hpp:77] Creating layer conv17_2/scale
I1102 11:57:20.457446 10862 net.cpp:150] Setting up conv17_2/scale
I1102 11:57:20.457451 10862 net.cpp:157] Top shape: 24 128 1 1 (3072)
I1102 11:57:20.457454 10862 net.cpp:165] Memory required for data: 3865952288
I1102 11:57:20.457460 10862 layer_factory.hpp:77] Creating layer conv17_2/relu
I1102 11:57:20.457465 10862 net.cpp:100] Creating Layer conv17_2/relu
I1102 11:57:20.457468 10862 net.cpp:481] conv17_2/relu <- conv17_2
I1102 11:57:20.457473 10862 net.cpp:442] conv17_2/relu -> conv17_2 (in-place)
I1102 11:57:20.458426 10862 net.cpp:150] Setting up conv17_2/relu
I1102 11:57:20.458439 10862 net.cpp:157] Top shape: 24 128 1 1 (3072)
I1102 11:57:20.458442 10862 net.cpp:165] Memory required for data: 3865964576
I1102 11:57:20.458446 10862 layer_factory.hpp:77] Creating layer conv17_2_conv17_2/relu_0_split
I1102 11:57:20.458452 10862 net.cpp:100] Creating Layer conv17_2_conv17_2/relu_0_split
I1102 11:57:20.458456 10862 net.cpp:481] conv17_2_conv17_2/relu_0_split <- conv17_2
I1102 11:57:20.458461 10862 net.cpp:455] conv17_2_conv17_2/relu_0_split -> conv17_2_conv17_2/relu_0_split_0
I1102 11:57:20.458477 10862 net.cpp:455] conv17_2_conv17_2/relu_0_split -> conv17_2_conv17_2/relu_0_split_1
I1102 11:57:20.458483 10862 net.cpp:455] conv17_2_conv17_2/relu_0_split -> conv17_2_conv17_2/relu_0_split_2
I1102 11:57:20.458539 10862 net.cpp:150] Setting up conv17_2_conv17_2/relu_0_split
I1102 11:57:20.458545 10862 net.cpp:157] Top shape: 24 128 1 1 (3072)
I1102 11:57:20.458549 10862 net.cpp:157] Top shape: 24 128 1 1 (3072)
I1102 11:57:20.458552 10862 net.cpp:157] Top shape: 24 128 1 1 (3072)
I1102 11:57:20.458554 10862 net.cpp:165] Memory required for data: 3866001440
I1102 11:57:20.458556 10862 layer_factory.hpp:77] Creating layer conv11_mbox_loc
I1102 11:57:20.458566 10862 net.cpp:100] Creating Layer conv11_mbox_loc
I1102 11:57:20.458570 10862 net.cpp:481] conv11_mbox_loc <- conv11_conv11/relu_0_split_1
I1102 11:57:20.458576 10862 net.cpp:455] conv11_mbox_loc -> conv11_mbox_loc
I1102 11:57:20.461073 10862 net.cpp:150] Setting up conv11_mbox_loc
I1102 11:57:20.461086 10862 net.cpp:157] Top shape: 24 12 19 19 (103968)
I1102 11:57:20.461087 10862 net.cpp:165] Memory required for data: 3866417312
I1102 11:57:20.461093 10862 layer_factory.hpp:77] Creating layer conv11_mbox_loc_perm
I1102 11:57:20.461102 10862 net.cpp:100] Creating Layer conv11_mbox_loc_perm
I1102 11:57:20.461115 10862 net.cpp:481] conv11_mbox_loc_perm <- conv11_mbox_loc
I1102 11:57:20.461122 10862 net.cpp:455] conv11_mbox_loc_perm -> conv11_mbox_loc_perm
I1102 11:57:20.461227 10862 net.cpp:150] Setting up conv11_mbox_loc_perm
I1102 11:57:20.461233 10862 net.cpp:157] Top shape: 24 19 19 12 (103968)
I1102 11:57:20.461236 10862 net.cpp:165] Memory required for data: 3866833184
I1102 11:57:20.461237 10862 layer_factory.hpp:77] Creating layer conv11_mbox_loc_flat
I1102 11:57:20.461243 10862 net.cpp:100] Creating Layer conv11_mbox_loc_flat
I1102 11:57:20.461246 10862 net.cpp:481] conv11_mbox_loc_flat <- conv11_mbox_loc_perm
I1102 11:57:20.461251 10862 net.cpp:455] conv11_mbox_loc_flat -> conv11_mbox_loc_flat
I1102 11:57:20.461274 10862 net.cpp:150] Setting up conv11_mbox_loc_flat
I1102 11:57:20.461278 10862 net.cpp:157] Top shape: 24 4332 (103968)
I1102 11:57:20.461280 10862 net.cpp:165] Memory required for data: 3867249056
I1102 11:57:20.461283 10862 layer_factory.hpp:77] Creating layer conv11_mbox_conf_new
I1102 11:57:20.461314 10862 net.cpp:100] Creating Layer conv11_mbox_conf_new
I1102 11:57:20.461318 10862 net.cpp:481] conv11_mbox_conf_new <- conv11_conv11/relu_0_split_2
I1102 11:57:20.461323 10862 net.cpp:455] conv11_mbox_conf_new -> conv11_mbox_conf
I1102 11:57:20.464200 10862 net.cpp:150] Setting up conv11_mbox_conf_new
I1102 11:57:20.464212 10862 net.cpp:157] Top shape: 24 63 19 19 (545832)
I1102 11:57:20.464215 10862 net.cpp:165] Memory required for data: 3869432384
I1102 11:57:20.464221 10862 layer_factory.hpp:77] Creating layer conv11_mbox_conf_perm
I1102 11:57:20.464228 10862 net.cpp:100] Creating Layer conv11_mbox_conf_perm
I1102 11:57:20.464231 10862 net.cpp:481] conv11_mbox_conf_perm <- conv11_mbox_conf
I1102 11:57:20.464237 10862 net.cpp:455] conv11_mbox_conf_perm -> conv11_mbox_conf_perm
I1102 11:57:20.464336 10862 net.cpp:150] Setting up conv11_mbox_conf_perm
I1102 11:57:20.464344 10862 net.cpp:157] Top shape: 24 19 19 63 (545832)
I1102 11:57:20.464346 10862 net.cpp:165] Memory required for data: 3871615712
I1102 11:57:20.464349 10862 layer_factory.hpp:77] Creating layer conv11_mbox_conf_flat
I1102 11:57:20.464354 10862 net.cpp:100] Creating Layer conv11_mbox_conf_flat
I1102 11:57:20.464357 10862 net.cpp:481] conv11_mbox_conf_flat <- conv11_mbox_conf_perm
I1102 11:57:20.464362 10862 net.cpp:455] conv11_mbox_conf_flat -> conv11_mbox_conf_flat
I1102 11:57:20.464385 10862 net.cpp:150] Setting up conv11_mbox_conf_flat
I1102 11:57:20.464391 10862 net.cpp:157] Top shape: 24 22743 (545832)
I1102 11:57:20.464393 10862 net.cpp:165] Memory required for data: 3873799040
I1102 11:57:20.464395 10862 layer_factory.hpp:77] Creating layer conv11_mbox_priorbox
I1102 11:57:20.464402 10862 net.cpp:100] Creating Layer conv11_mbox_priorbox
I1102 11:57:20.464406 10862 net.cpp:481] conv11_mbox_priorbox <- conv11_conv11/relu_0_split_3
I1102 11:57:20.464409 10862 net.cpp:481] conv11_mbox_priorbox <- data_data_0_split_1
I1102 11:57:20.464414 10862 net.cpp:455] conv11_mbox_priorbox -> conv11_mbox_priorbox
I1102 11:57:20.464439 10862 net.cpp:150] Setting up conv11_mbox_priorbox
I1102 11:57:20.464444 10862 net.cpp:157] Top shape: 1 2 4332 (8664)
I1102 11:57:20.464447 10862 net.cpp:165] Memory required for data: 3873833696
I1102 11:57:20.464448 10862 layer_factory.hpp:77] Creating layer conv13_mbox_loc
I1102 11:57:20.464457 10862 net.cpp:100] Creating Layer conv13_mbox_loc
I1102 11:57:20.464460 10862 net.cpp:481] conv13_mbox_loc <- conv13_conv13/relu_0_split_1
I1102 11:57:20.464467 10862 net.cpp:455] conv13_mbox_loc -> conv13_mbox_loc
I1102 11:57:20.467228 10862 net.cpp:150] Setting up conv13_mbox_loc
I1102 11:57:20.467241 10862 net.cpp:157] Top shape: 24 24 10 10 (57600)
I1102 11:57:20.467243 10862 net.cpp:165] Memory required for data: 3874064096
I1102 11:57:20.467249 10862 layer_factory.hpp:77] Creating layer conv13_mbox_loc_perm
I1102 11:57:20.467257 10862 net.cpp:100] Creating Layer conv13_mbox_loc_perm
I1102 11:57:20.467260 10862 net.cpp:481] conv13_mbox_loc_perm <- conv13_mbox_loc
I1102 11:57:20.467267 10862 net.cpp:455] conv13_mbox_loc_perm -> conv13_mbox_loc_perm
I1102 11:57:20.467440 10862 net.cpp:150] Setting up conv13_mbox_loc_perm
I1102 11:57:20.467461 10862 net.cpp:157] Top shape: 24 10 10 24 (57600)
I1102 11:57:20.467464 10862 net.cpp:165] Memory required for data: 3874294496
I1102 11:57:20.467466 10862 layer_factory.hpp:77] Creating layer conv13_mbox_loc_flat
I1102 11:57:20.467473 10862 net.cpp:100] Creating Layer conv13_mbox_loc_flat
I1102 11:57:20.467474 10862 net.cpp:481] conv13_mbox_loc_flat <- conv13_mbox_loc_perm
I1102 11:57:20.467479 10862 net.cpp:455] conv13_mbox_loc_flat -> conv13_mbox_loc_flat
I1102 11:57:20.467515 10862 net.cpp:150] Setting up conv13_mbox_loc_flat
I1102 11:57:20.467520 10862 net.cpp:157] Top shape: 24 2400 (57600)
I1102 11:57:20.467522 10862 net.cpp:165] Memory required for data: 3874524896
I1102 11:57:20.467525 10862 layer_factory.hpp:77] Creating layer conv13_mbox_conf_new
I1102 11:57:20.467533 10862 net.cpp:100] Creating Layer conv13_mbox_conf_new
I1102 11:57:20.467536 10862 net.cpp:481] conv13_mbox_conf_new <- conv13_conv13/relu_0_split_2
I1102 11:57:20.467542 10862 net.cpp:455] conv13_mbox_conf_new -> conv13_mbox_conf
I1102 11:57:20.472319 10862 net.cpp:150] Setting up conv13_mbox_conf_new
I1102 11:57:20.472332 10862 net.cpp:157] Top shape: 24 126 10 10 (302400)
I1102 11:57:20.472335 10862 net.cpp:165] Memory required for data: 3875734496
I1102 11:57:20.472342 10862 layer_factory.hpp:77] Creating layer conv13_mbox_conf_perm
I1102 11:57:20.472348 10862 net.cpp:100] Creating Layer conv13_mbox_conf_perm
I1102 11:57:20.472352 10862 net.cpp:481] conv13_mbox_conf_perm <- conv13_mbox_conf
I1102 11:57:20.472357 10862 net.cpp:455] conv13_mbox_conf_perm -> conv13_mbox_conf_perm
I1102 11:57:20.472455 10862 net.cpp:150] Setting up conv13_mbox_conf_perm
I1102 11:57:20.472461 10862 net.cpp:157] Top shape: 24 10 10 126 (302400)
I1102 11:57:20.472465 10862 net.cpp:165] Memory required for data: 3876944096
I1102 11:57:20.472467 10862 layer_factory.hpp:77] Creating layer conv13_mbox_conf_flat
I1102 11:57:20.472472 10862 net.cpp:100] Creating Layer conv13_mbox_conf_flat
I1102 11:57:20.472476 10862 net.cpp:481] conv13_mbox_conf_flat <- conv13_mbox_conf_perm
I1102 11:57:20.472481 10862 net.cpp:455] conv13_mbox_conf_flat -> conv13_mbox_conf_flat
I1102 11:57:20.472503 10862 net.cpp:150] Setting up conv13_mbox_conf_flat
I1102 11:57:20.472507 10862 net.cpp:157] Top shape: 24 12600 (302400)
I1102 11:57:20.472509 10862 net.cpp:165] Memory required for data: 3878153696
I1102 11:57:20.472512 10862 layer_factory.hpp:77] Creating layer conv13_mbox_priorbox
I1102 11:57:20.472518 10862 net.cpp:100] Creating Layer conv13_mbox_priorbox
I1102 11:57:20.472522 10862 net.cpp:481] conv13_mbox_priorbox <- conv13_conv13/relu_0_split_3
I1102 11:57:20.472525 10862 net.cpp:481] conv13_mbox_priorbox <- data_data_0_split_2
I1102 11:57:20.472529 10862 net.cpp:455] conv13_mbox_priorbox -> conv13_mbox_priorbox
I1102 11:57:20.472553 10862 net.cpp:150] Setting up conv13_mbox_priorbox
I1102 11:57:20.472558 10862 net.cpp:157] Top shape: 1 2 2400 (4800)
I1102 11:57:20.472560 10862 net.cpp:165] Memory required for data: 3878172896
I1102 11:57:20.472563 10862 layer_factory.hpp:77] Creating layer conv14_2_mbox_loc
I1102 11:57:20.472571 10862 net.cpp:100] Creating Layer conv14_2_mbox_loc
I1102 11:57:20.472574 10862 net.cpp:481] conv14_2_mbox_loc <- conv14_2_conv14_2/relu_0_split_1
I1102 11:57:20.472581 10862 net.cpp:455] conv14_2_mbox_loc -> conv14_2_mbox_loc
I1102 11:57:20.475332 10862 net.cpp:150] Setting up conv14_2_mbox_loc
I1102 11:57:20.475374 10862 net.cpp:157] Top shape: 24 24 5 5 (14400)
I1102 11:57:20.475378 10862 net.cpp:165] Memory required for data: 3878230496
I1102 11:57:20.475399 10862 layer_factory.hpp:77] Creating layer conv14_2_mbox_loc_perm
I1102 11:57:20.475406 10862 net.cpp:100] Creating Layer conv14_2_mbox_loc_perm
I1102 11:57:20.475409 10862 net.cpp:481] conv14_2_mbox_loc_perm <- conv14_2_mbox_loc
I1102 11:57:20.475415 10862 net.cpp:455] conv14_2_mbox_loc_perm -> conv14_2_mbox_loc_perm
I1102 11:57:20.475528 10862 net.cpp:150] Setting up conv14_2_mbox_loc_perm
I1102 11:57:20.475543 10862 net.cpp:157] Top shape: 24 5 5 24 (14400)
I1102 11:57:20.475546 10862 net.cpp:165] Memory required for data: 3878288096
I1102 11:57:20.475549 10862 layer_factory.hpp:77] Creating layer conv14_2_mbox_loc_flat
I1102 11:57:20.475554 10862 net.cpp:100] Creating Layer conv14_2_mbox_loc_flat
I1102 11:57:20.475558 10862 net.cpp:481] conv14_2_mbox_loc_flat <- conv14_2_mbox_loc_perm
I1102 11:57:20.475563 10862 net.cpp:455] conv14_2_mbox_loc_flat -> conv14_2_mbox_loc_flat
I1102 11:57:20.475589 10862 net.cpp:150] Setting up conv14_2_mbox_loc_flat
I1102 11:57:20.475594 10862 net.cpp:157] Top shape: 24 600 (14400)
I1102 11:57:20.475595 10862 net.cpp:165] Memory required for data: 3878345696
I1102 11:57:20.475597 10862 layer_factory.hpp:77] Creating layer conv14_2_mbox_conf_new
I1102 11:57:20.475606 10862 net.cpp:100] Creating Layer conv14_2_mbox_conf_new
I1102 11:57:20.475610 10862 net.cpp:481] conv14_2_mbox_conf_new <- conv14_2_conv14_2/relu_0_split_2
I1102 11:57:20.475615 10862 net.cpp:455] conv14_2_mbox_conf_new -> conv14_2_mbox_conf
I1102 11:57:20.479732 10862 net.cpp:150] Setting up conv14_2_mbox_conf_new
I1102 11:57:20.479744 10862 net.cpp:157] Top shape: 24 126 5 5 (75600)
I1102 11:57:20.479748 10862 net.cpp:165] Memory required for data: 3878648096
I1102 11:57:20.479753 10862 layer_factory.hpp:77] Creating layer conv14_2_mbox_conf_perm
I1102 11:57:20.479760 10862 net.cpp:100] Creating Layer conv14_2_mbox_conf_perm
I1102 11:57:20.479763 10862 net.cpp:481] conv14_2_mbox_conf_perm <- conv14_2_mbox_conf
I1102 11:57:20.479769 10862 net.cpp:455] conv14_2_mbox_conf_perm -> conv14_2_mbox_conf_perm
I1102 11:57:20.479866 10862 net.cpp:150] Setting up conv14_2_mbox_conf_perm
I1102 11:57:20.479871 10862 net.cpp:157] Top shape: 24 5 5 126 (75600)
I1102 11:57:20.479876 10862 net.cpp:165] Memory required for data: 3878950496
I1102 11:57:20.479877 10862 layer_factory.hpp:77] Creating layer conv14_2_mbox_conf_flat
I1102 11:57:20.479883 10862 net.cpp:100] Creating Layer conv14_2_mbox_conf_flat
I1102 11:57:20.479885 10862 net.cpp:481] conv14_2_mbox_conf_flat <- conv14_2_mbox_conf_perm
I1102 11:57:20.479890 10862 net.cpp:455] conv14_2_mbox_conf_flat -> conv14_2_mbox_conf_flat
I1102 11:57:20.479913 10862 net.cpp:150] Setting up conv14_2_mbox_conf_flat
I1102 11:57:20.479918 10862 net.cpp:157] Top shape: 24 3150 (75600)
I1102 11:57:20.479919 10862 net.cpp:165] Memory required for data: 3879252896
I1102 11:57:20.479921 10862 layer_factory.hpp:77] Creating layer conv14_2_mbox_priorbox
I1102 11:57:20.479934 10862 net.cpp:100] Creating Layer conv14_2_mbox_priorbox
I1102 11:57:20.479938 10862 net.cpp:481] conv14_2_mbox_priorbox <- conv14_2_conv14_2/relu_0_split_3
I1102 11:57:20.479943 10862 net.cpp:481] conv14_2_mbox_priorbox <- data_data_0_split_3
I1102 11:57:20.479948 10862 net.cpp:455] conv14_2_mbox_priorbox -> conv14_2_mbox_priorbox
I1102 11:57:20.479974 10862 net.cpp:150] Setting up conv14_2_mbox_priorbox
I1102 11:57:20.479979 10862 net.cpp:157] Top shape: 1 2 600 (1200)
I1102 11:57:20.479980 10862 net.cpp:165] Memory required for data: 3879257696
I1102 11:57:20.479982 10862 layer_factory.hpp:77] Creating layer conv15_2_mbox_loc
I1102 11:57:20.479992 10862 net.cpp:100] Creating Layer conv15_2_mbox_loc
I1102 11:57:20.480011 10862 net.cpp:481] conv15_2_mbox_loc <- conv15_2_conv15_2/relu_0_split_1
I1102 11:57:20.480018 10862 net.cpp:455] conv15_2_mbox_loc -> conv15_2_mbox_loc
I1102 11:57:20.482643 10862 net.cpp:150] Setting up conv15_2_mbox_loc
I1102 11:57:20.482656 10862 net.cpp:157] Top shape: 24 24 3 3 (5184)
I1102 11:57:20.482659 10862 net.cpp:165] Memory required for data: 3879278432
I1102 11:57:20.482666 10862 layer_factory.hpp:77] Creating layer conv15_2_mbox_loc_perm
I1102 11:57:20.482673 10862 net.cpp:100] Creating Layer conv15_2_mbox_loc_perm
I1102 11:57:20.482676 10862 net.cpp:481] conv15_2_mbox_loc_perm <- conv15_2_mbox_loc
I1102 11:57:20.482682 10862 net.cpp:455] conv15_2_mbox_loc_perm -> conv15_2_mbox_loc_perm
I1102 11:57:20.482781 10862 net.cpp:150] Setting up conv15_2_mbox_loc_perm
I1102 11:57:20.482798 10862 net.cpp:157] Top shape: 24 3 3 24 (5184)
I1102 11:57:20.482801 10862 net.cpp:165] Memory required for data: 3879299168
I1102 11:57:20.482803 10862 layer_factory.hpp:77] Creating layer conv15_2_mbox_loc_flat
I1102 11:57:20.482810 10862 net.cpp:100] Creating Layer conv15_2_mbox_loc_flat
I1102 11:57:20.482812 10862 net.cpp:481] conv15_2_mbox_loc_flat <- conv15_2_mbox_loc_perm
I1102 11:57:20.482817 10862 net.cpp:455] conv15_2_mbox_loc_flat -> conv15_2_mbox_loc_flat
I1102 11:57:20.482859 10862 net.cpp:150] Setting up conv15_2_mbox_loc_flat
I1102 11:57:20.482863 10862 net.cpp:157] Top shape: 24 216 (5184)
I1102 11:57:20.482866 10862 net.cpp:165] Memory required for data: 3879319904
I1102 11:57:20.482867 10862 layer_factory.hpp:77] Creating layer conv15_2_mbox_conf_new
I1102 11:57:20.482877 10862 net.cpp:100] Creating Layer conv15_2_mbox_conf_new
I1102 11:57:20.482879 10862 net.cpp:481] conv15_2_mbox_conf_new <- conv15_2_conv15_2/relu_0_split_2
I1102 11:57:20.482885 10862 net.cpp:455] conv15_2_mbox_conf_new -> conv15_2_mbox_conf
I1102 11:57:20.486616 10862 net.cpp:150] Setting up conv15_2_mbox_conf_new
I1102 11:57:20.486629 10862 net.cpp:157] Top shape: 24 126 3 3 (27216)
I1102 11:57:20.486632 10862 net.cpp:165] Memory required for data: 3879428768
I1102 11:57:20.486639 10862 layer_factory.hpp:77] Creating layer conv15_2_mbox_conf_perm
I1102 11:57:20.486645 10862 net.cpp:100] Creating Layer conv15_2_mbox_conf_perm
I1102 11:57:20.486649 10862 net.cpp:481] conv15_2_mbox_conf_perm <- conv15_2_mbox_conf
I1102 11:57:20.486654 10862 net.cpp:455] conv15_2_mbox_conf_perm -> conv15_2_mbox_conf_perm
I1102 11:57:20.486771 10862 net.cpp:150] Setting up conv15_2_mbox_conf_perm
I1102 11:57:20.486776 10862 net.cpp:157] Top shape: 24 3 3 126 (27216)
I1102 11:57:20.486780 10862 net.cpp:165] Memory required for data: 3879537632
I1102 11:57:20.486783 10862 layer_factory.hpp:77] Creating layer conv15_2_mbox_conf_flat
I1102 11:57:20.486788 10862 net.cpp:100] Creating Layer conv15_2_mbox_conf_flat
I1102 11:57:20.486790 10862 net.cpp:481] conv15_2_mbox_conf_flat <- conv15_2_mbox_conf_perm
I1102 11:57:20.486795 10862 net.cpp:455] conv15_2_mbox_conf_flat -> conv15_2_mbox_conf_flat
I1102 11:57:20.486819 10862 net.cpp:150] Setting up conv15_2_mbox_conf_flat
I1102 11:57:20.486824 10862 net.cpp:157] Top shape: 24 1134 (27216)
I1102 11:57:20.486825 10862 net.cpp:165] Memory required for data: 3879646496
I1102 11:57:20.486827 10862 layer_factory.hpp:77] Creating layer conv15_2_mbox_priorbox
I1102 11:57:20.486834 10862 net.cpp:100] Creating Layer conv15_2_mbox_priorbox
I1102 11:57:20.486835 10862 net.cpp:481] conv15_2_mbox_priorbox <- conv15_2_conv15_2/relu_0_split_3
I1102 11:57:20.486840 10862 net.cpp:481] conv15_2_mbox_priorbox <- data_data_0_split_4
I1102 11:57:20.486845 10862 net.cpp:455] conv15_2_mbox_priorbox -> conv15_2_mbox_priorbox
I1102 11:57:20.486868 10862 net.cpp:150] Setting up conv15_2_mbox_priorbox
I1102 11:57:20.486872 10862 net.cpp:157] Top shape: 1 2 216 (432)
I1102 11:57:20.486876 10862 net.cpp:165] Memory required for data: 3879648224
I1102 11:57:20.486877 10862 layer_factory.hpp:77] Creating layer conv16_2_mbox_loc
I1102 11:57:20.486886 10862 net.cpp:100] Creating Layer conv16_2_mbox_loc
I1102 11:57:20.486888 10862 net.cpp:481] conv16_2_mbox_loc <- conv16_2_conv16_2/relu_0_split_1
I1102 11:57:20.486894 10862 net.cpp:455] conv16_2_mbox_loc -> conv16_2_mbox_loc
I1102 11:57:20.489361 10862 net.cpp:150] Setting up conv16_2_mbox_loc
I1102 11:57:20.489372 10862 net.cpp:157] Top shape: 24 24 2 2 (2304)
I1102 11:57:20.489374 10862 net.cpp:165] Memory required for data: 3879657440
I1102 11:57:20.489380 10862 layer_factory.hpp:77] Creating layer conv16_2_mbox_loc_perm
I1102 11:57:20.489387 10862 net.cpp:100] Creating Layer conv16_2_mbox_loc_perm
I1102 11:57:20.489390 10862 net.cpp:481] conv16_2_mbox_loc_perm <- conv16_2_mbox_loc
I1102 11:57:20.489397 10862 net.cpp:455] conv16_2_mbox_loc_perm -> conv16_2_mbox_loc_perm
I1102 11:57:20.489495 10862 net.cpp:150] Setting up conv16_2_mbox_loc_perm
I1102 11:57:20.489500 10862 net.cpp:157] Top shape: 24 2 2 24 (2304)
I1102 11:57:20.489513 10862 net.cpp:165] Memory required for data: 3879666656
I1102 11:57:20.489516 10862 layer_factory.hpp:77] Creating layer conv16_2_mbox_loc_flat
I1102 11:57:20.489522 10862 net.cpp:100] Creating Layer conv16_2_mbox_loc_flat
I1102 11:57:20.489526 10862 net.cpp:481] conv16_2_mbox_loc_flat <- conv16_2_mbox_loc_perm
I1102 11:57:20.489531 10862 net.cpp:455] conv16_2_mbox_loc_flat -> conv16_2_mbox_loc_flat
I1102 11:57:20.489557 10862 net.cpp:150] Setting up conv16_2_mbox_loc_flat
I1102 11:57:20.489562 10862 net.cpp:157] Top shape: 24 96 (2304)
I1102 11:57:20.489563 10862 net.cpp:165] Memory required for data: 3879675872
I1102 11:57:20.489565 10862 layer_factory.hpp:77] Creating layer conv16_2_mbox_conf_new
I1102 11:57:20.489574 10862 net.cpp:100] Creating Layer conv16_2_mbox_conf_new
I1102 11:57:20.489578 10862 net.cpp:481] conv16_2_mbox_conf_new <- conv16_2_conv16_2/relu_0_split_2
I1102 11:57:20.489583 10862 net.cpp:455] conv16_2_mbox_conf_new -> conv16_2_mbox_conf
I1102 11:57:20.492532 10862 net.cpp:150] Setting up conv16_2_mbox_conf_new
I1102 11:57:20.492543 10862 net.cpp:157] Top shape: 24 126 2 2 (12096)
I1102 11:57:20.492547 10862 net.cpp:165] Memory required for data: 3879724256
I1102 11:57:20.492552 10862 layer_factory.hpp:77] Creating layer conv16_2_mbox_conf_perm
I1102 11:57:20.492559 10862 net.cpp:100] Creating Layer conv16_2_mbox_conf_perm
I1102 11:57:20.492563 10862 net.cpp:481] conv16_2_mbox_conf_perm <- conv16_2_mbox_conf
I1102 11:57:20.492569 10862 net.cpp:455] conv16_2_mbox_conf_perm -> conv16_2_mbox_conf_perm
I1102 11:57:20.492666 10862 net.cpp:150] Setting up conv16_2_mbox_conf_perm
I1102 11:57:20.492672 10862 net.cpp:157] Top shape: 24 2 2 126 (12096)
I1102 11:57:20.492676 10862 net.cpp:165] Memory required for data: 3879772640
I1102 11:57:20.492678 10862 layer_factory.hpp:77] Creating layer conv16_2_mbox_conf_flat
I1102 11:57:20.492683 10862 net.cpp:100] Creating Layer conv16_2_mbox_conf_flat
I1102 11:57:20.492686 10862 net.cpp:481] conv16_2_mbox_conf_flat <- conv16_2_mbox_conf_perm
I1102 11:57:20.492691 10862 net.cpp:455] conv16_2_mbox_conf_flat -> conv16_2_mbox_conf_flat
I1102 11:57:20.492714 10862 net.cpp:150] Setting up conv16_2_mbox_conf_flat
I1102 11:57:20.492719 10862 net.cpp:157] Top shape: 24 504 (12096)
I1102 11:57:20.492722 10862 net.cpp:165] Memory required for data: 3879821024
I1102 11:57:20.492723 10862 layer_factory.hpp:77] Creating layer conv16_2_mbox_priorbox
I1102 11:57:20.492730 10862 net.cpp:100] Creating Layer conv16_2_mbox_priorbox
I1102 11:57:20.492733 10862 net.cpp:481] conv16_2_mbox_priorbox <- conv16_2_conv16_2/relu_0_split_3
I1102 11:57:20.492736 10862 net.cpp:481] conv16_2_mbox_priorbox <- data_data_0_split_5
I1102 11:57:20.492743 10862 net.cpp:455] conv16_2_mbox_priorbox -> conv16_2_mbox_priorbox
I1102 11:57:20.492766 10862 net.cpp:150] Setting up conv16_2_mbox_priorbox
I1102 11:57:20.492770 10862 net.cpp:157] Top shape: 1 2 96 (192)
I1102 11:57:20.492772 10862 net.cpp:165] Memory required for data: 3879821792
I1102 11:57:20.492774 10862 layer_factory.hpp:77] Creating layer conv17_2_mbox_loc
I1102 11:57:20.492784 10862 net.cpp:100] Creating Layer conv17_2_mbox_loc
I1102 11:57:20.492786 10862 net.cpp:481] conv17_2_mbox_loc <- conv17_2_conv17_2/relu_0_split_0
I1102 11:57:20.492792 10862 net.cpp:455] conv17_2_mbox_loc -> conv17_2_mbox_loc
I1102 11:57:20.495359 10862 net.cpp:150] Setting up conv17_2_mbox_loc
I1102 11:57:20.495371 10862 net.cpp:157] Top shape: 24 24 1 1 (576)
I1102 11:57:20.495373 10862 net.cpp:165] Memory required for data: 3879824096
I1102 11:57:20.495379 10862 layer_factory.hpp:77] Creating layer conv17_2_mbox_loc_perm
I1102 11:57:20.495386 10862 net.cpp:100] Creating Layer conv17_2_mbox_loc_perm
I1102 11:57:20.495390 10862 net.cpp:481] conv17_2_mbox_loc_perm <- conv17_2_mbox_loc
I1102 11:57:20.495395 10862 net.cpp:455] conv17_2_mbox_loc_perm -> conv17_2_mbox_loc_perm
I1102 11:57:20.495493 10862 net.cpp:150] Setting up conv17_2_mbox_loc_perm
I1102 11:57:20.495498 10862 net.cpp:157] Top shape: 24 1 1 24 (576)
I1102 11:57:20.495512 10862 net.cpp:165] Memory required for data: 3879826400
I1102 11:57:20.495514 10862 layer_factory.hpp:77] Creating layer conv17_2_mbox_loc_flat
I1102 11:57:20.495520 10862 net.cpp:100] Creating Layer conv17_2_mbox_loc_flat
I1102 11:57:20.495523 10862 net.cpp:481] conv17_2_mbox_loc_flat <- conv17_2_mbox_loc_perm
I1102 11:57:20.495527 10862 net.cpp:455] conv17_2_mbox_loc_flat -> conv17_2_mbox_loc_flat
I1102 11:57:20.495554 10862 net.cpp:150] Setting up conv17_2_mbox_loc_flat
I1102 11:57:20.495558 10862 net.cpp:157] Top shape: 24 24 (576)
I1102 11:57:20.495560 10862 net.cpp:165] Memory required for data: 3879828704
I1102 11:57:20.495563 10862 layer_factory.hpp:77] Creating layer conv17_2_mbox_conf_new
I1102 11:57:20.495570 10862 net.cpp:100] Creating Layer conv17_2_mbox_conf_new
I1102 11:57:20.495573 10862 net.cpp:481] conv17_2_mbox_conf_new <- conv17_2_conv17_2/relu_0_split_1
I1102 11:57:20.495579 10862 net.cpp:455] conv17_2_mbox_conf_new -> conv17_2_mbox_conf
I1102 11:57:20.498172 10862 net.cpp:150] Setting up conv17_2_mbox_conf_new
I1102 11:57:20.498184 10862 net.cpp:157] Top shape: 24 126 1 1 (3024)
I1102 11:57:20.498188 10862 net.cpp:165] Memory required for data: 3879840800
I1102 11:57:20.498193 10862 layer_factory.hpp:77] Creating layer conv17_2_mbox_conf_perm
I1102 11:57:20.498200 10862 net.cpp:100] Creating Layer conv17_2_mbox_conf_perm
I1102 11:57:20.498203 10862 net.cpp:481] conv17_2_mbox_conf_perm <- conv17_2_mbox_conf
I1102 11:57:20.498210 10862 net.cpp:455] conv17_2_mbox_conf_perm -> conv17_2_mbox_conf_perm
I1102 11:57:20.498308 10862 net.cpp:150] Setting up conv17_2_mbox_conf_perm
I1102 11:57:20.498313 10862 net.cpp:157] Top shape: 24 1 1 126 (3024)
I1102 11:57:20.498317 10862 net.cpp:165] Memory required for data: 3879852896
I1102 11:57:20.498319 10862 layer_factory.hpp:77] Creating layer conv17_2_mbox_conf_flat
I1102 11:57:20.498324 10862 net.cpp:100] Creating Layer conv17_2_mbox_conf_flat
I1102 11:57:20.498327 10862 net.cpp:481] conv17_2_mbox_conf_flat <- conv17_2_mbox_conf_perm
I1102 11:57:20.498333 10862 net.cpp:455] conv17_2_mbox_conf_flat -> conv17_2_mbox_conf_flat
I1102 11:57:20.498371 10862 net.cpp:150] Setting up conv17_2_mbox_conf_flat
I1102 11:57:20.498376 10862 net.cpp:157] Top shape: 24 126 (3024)
I1102 11:57:20.498378 10862 net.cpp:165] Memory required for data: 3879864992
I1102 11:57:20.498380 10862 layer_factory.hpp:77] Creating layer conv17_2_mbox_priorbox
I1102 11:57:20.498386 10862 net.cpp:100] Creating Layer conv17_2_mbox_priorbox
I1102 11:57:20.498389 10862 net.cpp:481] conv17_2_mbox_priorbox <- conv17_2_conv17_2/relu_0_split_2
I1102 11:57:20.498392 10862 net.cpp:481] conv17_2_mbox_priorbox <- data_data_0_split_6
I1102 11:57:20.498397 10862 net.cpp:455] conv17_2_mbox_priorbox -> conv17_2_mbox_priorbox
I1102 11:57:20.498423 10862 net.cpp:150] Setting up conv17_2_mbox_priorbox
I1102 11:57:20.498427 10862 net.cpp:157] Top shape: 1 2 24 (48)
I1102 11:57:20.498430 10862 net.cpp:165] Memory required for data: 3879865184
I1102 11:57:20.498431 10862 layer_factory.hpp:77] Creating layer mbox_loc
I1102 11:57:20.498437 10862 net.cpp:100] Creating Layer mbox_loc
I1102 11:57:20.498456 10862 net.cpp:481] mbox_loc <- conv11_mbox_loc_flat
I1102 11:57:20.498458 10862 net.cpp:481] mbox_loc <- conv13_mbox_loc_flat
I1102 11:57:20.498461 10862 net.cpp:481] mbox_loc <- conv14_2_mbox_loc_flat
I1102 11:57:20.498466 10862 net.cpp:481] mbox_loc <- conv15_2_mbox_loc_flat
I1102 11:57:20.498468 10862 net.cpp:481] mbox_loc <- conv16_2_mbox_loc_flat
I1102 11:57:20.498471 10862 net.cpp:481] mbox_loc <- conv17_2_mbox_loc_flat
I1102 11:57:20.498476 10862 net.cpp:455] mbox_loc -> mbox_loc
I1102 11:57:20.498498 10862 net.cpp:150] Setting up mbox_loc
I1102 11:57:20.498503 10862 net.cpp:157] Top shape: 24 7668 (184032)
I1102 11:57:20.498505 10862 net.cpp:165] Memory required for data: 3880601312
I1102 11:57:20.498507 10862 layer_factory.hpp:77] Creating layer mbox_conf
I1102 11:57:20.498512 10862 net.cpp:100] Creating Layer mbox_conf
I1102 11:57:20.498515 10862 net.cpp:481] mbox_conf <- conv11_mbox_conf_flat
I1102 11:57:20.498529 10862 net.cpp:481] mbox_conf <- conv13_mbox_conf_flat
I1102 11:57:20.498533 10862 net.cpp:481] mbox_conf <- conv14_2_mbox_conf_flat
I1102 11:57:20.498536 10862 net.cpp:481] mbox_conf <- conv15_2_mbox_conf_flat
I1102 11:57:20.498539 10862 net.cpp:481] mbox_conf <- conv16_2_mbox_conf_flat
I1102 11:57:20.498541 10862 net.cpp:481] mbox_conf <- conv17_2_mbox_conf_flat
I1102 11:57:20.498546 10862 net.cpp:455] mbox_conf -> mbox_conf
I1102 11:57:20.498571 10862 net.cpp:150] Setting up mbox_conf
I1102 11:57:20.498576 10862 net.cpp:157] Top shape: 24 40257 (966168)
I1102 11:57:20.498579 10862 net.cpp:165] Memory required for data: 3884465984
I1102 11:57:20.498580 10862 layer_factory.hpp:77] Creating layer mbox_priorbox
I1102 11:57:20.498600 10862 net.cpp:100] Creating Layer mbox_priorbox
I1102 11:57:20.498603 10862 net.cpp:481] mbox_priorbox <- conv11_mbox_priorbox
I1102 11:57:20.498606 10862 net.cpp:481] mbox_priorbox <- conv13_mbox_priorbox
I1102 11:57:20.498610 10862 net.cpp:481] mbox_priorbox <- conv14_2_mbox_priorbox
I1102 11:57:20.498612 10862 net.cpp:481] mbox_priorbox <- conv15_2_mbox_priorbox
I1102 11:57:20.498615 10862 net.cpp:481] mbox_priorbox <- conv16_2_mbox_priorbox
I1102 11:57:20.498617 10862 net.cpp:481] mbox_priorbox <- conv17_2_mbox_priorbox
I1102 11:57:20.498638 10862 net.cpp:455] mbox_priorbox -> mbox_priorbox
I1102 11:57:20.498659 10862 net.cpp:150] Setting up mbox_priorbox
I1102 11:57:20.498664 10862 net.cpp:157] Top shape: 1 2 7668 (15336)
I1102 11:57:20.498667 10862 net.cpp:165] Memory required for data: 3884527328
I1102 11:57:20.498669 10862 layer_factory.hpp:77] Creating layer mbox_loss
I1102 11:57:20.498679 10862 net.cpp:100] Creating Layer mbox_loss
I1102 11:57:20.498682 10862 net.cpp:481] mbox_loss <- mbox_loc
I1102 11:57:20.498684 10862 net.cpp:481] mbox_loss <- mbox_conf
I1102 11:57:20.498687 10862 net.cpp:481] mbox_loss <- mbox_priorbox
…
