…
      sampler {
        min_scale: 0.3
        max_scale: 1
        min_aspect_ratio: 0.5
        max_aspect_ratio: 2
      }
      sample_constraint {
        min_jaccard_overlap: 0.9
      }
      max_sample: 1
      max_trials: 50
    }
    batch_sampler {
      sampler {
        min_scale: 0.3
        max_scale: 1
        min_aspect_ratio: 0.5
        max_aspect_ratio: 2
      }
      sample_constraint {
        max_jaccard_overlap: 1
      }
      max_sample: 1
      max_trials: 50
    }
    label_map_file: "data/VOC0712/labelmap_voc.prototxt"
  }
}
layer {
  name: "conv1_1"
  type: "Convolution"
  bottom: "data"
  top: "conv1_1"
  param {
    lr_mult: 1
    decay_mult: 1
  }
  param {
    lr_mult: 2
    decay_mult: 0
  }
  convolution_param {
    num_output: 64
    pad: 1
    kernel_size: 3
    weight_filler {
      type: "xavier"
    }
    bias_filler {
      type: "constant"
      value: 0
    }
  }
}
layer {
  name: "relu1_1"
  type: "ReLU"
  bottom: "conv1_1"
  top: "conv1_1"
}
layer {
  name: "conv1_2"
  type: "Convolution"
  bottom: "conv1_1"
  top: "conv1_2"
  param {
    lr_mult: 1
    decay_mult: 1
  }
  param {
    lr_mult: 2
    decay_mult: 0
  }
  convolution_param {
    num_output: 64
    pad: 1
    kernel_size: 3
    weight_filler {
      type: "xavier"
    }
    bias_filler {
      type: "constant"
      value: 0
    }
  }
}
layer {
  name: "relu1_2"
  type: "ReLU"
  bottom: "conv1_2"
  top: "conv1_2"
}
layer {
  name: "pool1"
  type: "Pooling"
  bottom: "conv1_2"
  top: "pool1"
  pooling_param {
    pool: MAX
    kernel_size: 2
    stride: 2
  }
}
layer {
  name: "conv2_1"
  type: "Convolution"
  bottom: "pool1"
  top: "conv2_1"
  param {
    lr_mult: 1
    decay_mult: 1
  }
  param {
    lr_mult: 2
    decay_mult: 0
  }
  convolution_param {
    num_output: 128
    pad: 1
    kernel_size: 3
    weight_filler {
      type: "xavier"
    }
    bias_filler {
      type: "constant"
      value: 0
    }
  }
}
layer {
  name: "relu2_1"
  type: "ReLU"
  bottom: "conv2_1"
  top: "conv2_1"
}
layer {
  name: "conv2_2"
  type: "Convolution"
  bottom: "conv2_1"
  top: "conv2_2"
  param {
    lr_mult: 1
    decay_mult: 1
  }
  param {
    lr_mult: 2
    decay_mult: 0
  }
  convolution_param {
    num_output: 128
    pad: 1
    kernel_size: 3
    weight_filler {
      type: "xavier"
    }
    bias_filler {
      type: "constant"
      value: 0
    }
  }
}
layer {
  name: "relu2_2"
  type: "ReLU"
  bottom: "conv2_2"
  top: "conv2_2"
}
layer {
  name: "pool2"
  type: "Pooling"
  bottom: "conv2_2"
  top: "pool2"
  pooling_param {
    pool: MAX
    kernel_size: 2
    stride: 2
  }
}
layer {
  name: "conv3_1"
  type: "Convolution"
  bottom: "pool2"
  top: "conv3_1"
  param {
    lr_mult: 1
    decay_mult: 1
  }
  param {
    lr_mult: 2
    decay_mult: 0
  }
  convolution_param {
    num_output: 256
    pad: 1
    kernel_size: 3
    weight_filler {
      type: "xavier"
    }
    bias_filler {
      type: "constant"
      value: 0
    }
  }
}
layer {
  name: "relu3_1"
  type: "ReLU"
  bottom: "conv3_1"
  top: "conv3_1"
}
layer {
  name: "conv3_2"
  type: "Convolution"
  bottom: "conv3_1"
  top: "conv3_2"
  param {
    lr_mult: 1
    decay_mult: 1
  }
  param {
    lr_mult: 2
    decay_mult: 0
  }
  convolution_param {
    num_output: 256
    pad: 1
    kernel_size: 3
    weight_filler {
      type: "xavier"
    }
    bias_filler {
      type: "constant"
      value: 0
    }
  }
}
layer {
  name: "relu3_2"
  type: "ReLU"
  bottom: "conv3_2"
  top: "conv3_2"
}
layer {
  name: "conv3_3"
  type: "Convolution"
  bottom: "conv3_2"
  top: "conv3_3"
  param {
    lr_mult: 1
    decay_mult: 1
  }
  param {
    lr_mult: 2
    decay_mult: 0
  }
  convolution_param {
    num_output: 256
    pad: 1
    kernel_size: 3
    weight_filler {
      type: "xavier"
    }
    bias_filler {
      type: "constant"
      value: 0
    }
  }
}
layer {
  name: "relu3_3"
  type: "ReLU"
  bottom: "conv3_3"
  top: "conv3_3"
}
layer {
  name: "pool3"
  type: "Pooling"
  bottom: "conv3_3"
  top: "pool3"
  pooling_param {
    pool: MAX
    kernel_size: 2
    stride: 2
  }
}
layer {
  name: "conv4_1"
  type: "Convolution"
  bottom: "pool3"
  top: "conv4_1"
  param {
    lr_mult: 1
    decay_mult: 1
  }
  param {
    lr_mult: 2
    decay_mult: 0
  }
  convolution_param {
    num_output: 512
    pad: 1
    kernel_size: 3
    weight_filler {
      type: "xavier"
    }
    bias_filler {
      type: "constant"
      value: 0
    }
  }
}
layer {
  name: "relu4_1"
  type: "ReLU"
  bottom: "conv4_1"
  top: "conv4_1"
}
layer {
  name: "conv4_2"
  type: "Convolution"
  bottom: "conv4_1"
  top: "conv4_2"
  param {
    lr_mult: 1
    decay_mult: 1
  }
  param {
    lr_mult: 2
    decay_mult: 0
  }
  convolution_param {
    num_output: 512
    pad: 1
    kernel_size: 3
    weight_filler {
      type: "xavier"
    }
    bias_filler {
      type: "constant"
      value: 0
    }
  }
}
layer {
  name: "relu4_2"
  type: "ReLU"
  bottom: "conv4_2"
  top: "conv4_2"
}
layer {
  name: "conv4_3"
  type: "Convolution"
  bottom: "conv4_2"
  top: "conv4_3"
  param {
    lr_mult: 1
    decay_mult: 1
  }
  param {
    lr_mult: 2
    decay_mult: 0
  }
  convolution_param {
    num_output: 512
    pad: 1
    kernel_size: 3
    weight_filler {
      type: "xavier"
    }
    bias_filler {
      type: "constant"
      value: 0
    }
  }
}
layer {
  name: "relu4_3"
  type: "ReLU"
  bottom: "conv4_3"
  top: "conv4_3"
}
layer {
  name: "pool4"
  type: "Pooling"
  bottom: "conv4_3"
  top: "pool4"
  pooling_param {
    pool: MAX
    kernel_size: 2
    stride: 2
  }
}
layer {
  name: "conv5_1"
  type: "Convolution"
  bottom: "pool4"
  top: "conv5_1"
  param {
    lr_mult: 1
    decay_mult: 1
  }
  param {
    lr_mult: 2
    decay_mult: 0
  }
  convolution_param {
    num_output: 512
    pad: 1
    kernel_size: 3
    weight_filler {
      type: "xavier"
    }
    bias_filler {
      type: "constant"
      value: 0
    }
    dilation: 1
  }
}
layer {
  name: "relu5_1"
  type: "ReLU"
  bottom: "conv5_1"
  top: "conv5_1"
}
layer {
  name: "conv5_2"
  type: "Convolution"
  bottom: "conv5_1"
  top: "conv5_2"
  param {
    lr_mult: 1
    decay_mult: 1
  }
  param {
    lr_mult: 2
    decay_mult: 0
  }
  convolution_param {
    num_output: 512
    pad: 1
    kernel_size: 3
    weight_filler {
      type: "xavier"
    }
    bias_filler {
      type: "constant"
      value: 0
    }
    dilation: 1
  }
}
layer {
  name: "relu5_2"
  type: "ReLU"
  bottom: "conv5_2"
  top: "conv5_2"
}
layer {
  name: "conv5_3"
  type: "Convolution"
  bottom: "conv5_2"
  top: "conv5_3"
  param {
    lr_mult: 1
    decay_mult: 1
  }
  param {
    lr_mult: 2
    decay_mult: 0
  }
  convolution_param {
    num_output: 512
    pad: 1
    kernel_size: 3
    weight_filler {
      type: "xavier"
    }
    bias_filler {
      type: "constant"
      value: 0
    }
    dilation: 1
  }
}
layer {
  name: "relu5_3"
  type: "ReLU"
  bottom: "conv5_3"
  top: "conv5_3"
}
layer {
  name: "pool5"
  type: "Pooling"
  bottom: "conv5_3"
  top: "pool5"
  pooling_param {
    pool: MAX
    kernel_size: 3
    stride: 1
    pad: 1
  }
}
layer {
  name: "fc6"
  type: "Convolution"
  bottom: "pool5"
  top: "fc6"
  param {
    lr_mult: 1
    decay_mult: 1
  }
  param {
    lr_mult: 2
    decay_mult: 0
  }
  convolution_param {
    num_output: 1024
    pad: 6
    kernel_size: 3
    weight_filler {
      type: "xavier"
    }
    bias_filler {
      type: "constant"
      value: 0
    }
    dilation: 6
  }
}
layer {
  name: "relu6"
  type: "ReLU"
  bottom: "fc6"
  top: "fc6"
}
layer {
  name: "fc7"
  type: "Convolution"
  bottom: "fc6"
  top: "fc7"
  param {
    lr_mult: 1
    decay_mult: 1
  }
  param {
    lr_mult: 2
    decay_mult: 0
  }
  convolution_param {
    num_output: 1024
    kernel_size: 1
    weight_filler {
      type: "xavier"
    }
    bias_filler {
      type: "constant"
      value: 0
    }
  }
}
layer {
  name: "relu7"
  type: "ReLU"
  bottom: "fc7"
  top: "fc7"
}
layer {
  name: "conv6_1"
  type: "Convolution"
  bottom: "fc7"
  top: "conv6_1"
  param {
    lr_mult: 1
    decay_mult: 1
  }
  param {
    lr_mult: 2
    decay_mult: 0
  }
  convolution_param {
    num_output: 256
    pad: 0
    kernel_size: 1
    stride: 1
    weight_filler {
      type: "xavier"
    }
    bias_filler {
      type: "constant"
      value: 0
    }
  }
}
layer {
  name: "conv6_1_relu"
  type: "ReLU"
  bottom: "conv6_1"
  top: "conv6_1"
}
layer {
  name: "conv6_2"
  type: "Convolution"
  bottom: "conv6_1"
  top: "conv6_2"
  param {
    lr_mult: 1
    decay_mult: 1
  }
  param {
    lr_mult: 2
    decay_mult: 0
  }
  convolution_param {
    num_output: 512
    pad: 1
    kernel_size: 3
    stride: 2
    weight_filler {
      type: "xavier"
    }
    bias_filler {
      type: "constant"
      value: 0
    }
  }
}
layer {
  name: "conv6_2_relu"
  type: "ReLU"
  bottom: "conv6_2"
  top: "conv6_2"
}
layer {
  name: "conv7_1"
  type: "Convolution"
  bottom: "conv6_2"
  top: "conv7_1"
  param {
    lr_mult: 1
    decay_mult: 1
  }
  param {
    lr_mult: 2
    decay_mult: 0
  }
  convolution_param {
    num_output: 128
    pad: 0
    kernel_size: 1
    stride: 1
    weight_filler {
      type: "xavier"
    }
    bias_filler {
      type: "constant"
      value: 0
    }
  }
}
layer {
  name: "conv7_1_relu"
  type: "ReLU"
  bottom: "conv7_1"
  top: "conv7_1"
}
layer {
  name: "conv7_2"
  type: "Convolution"
  bottom: "conv7_1"
  top: "conv7_2"
  param {
    lr_mult: 1
    decay_mult: 1
  }
  param {
    lr_mult: 2
    decay_mult: 0
  }
  convolution_param {
    num_output: 256
    pad: 1
    kernel_size: 3
    stride: 2
    weight_filler {
      type: "xavier"
    }
    bias_filler {
      type: "constant"
      value: 0
    }
  }
}
layer {
  name: "conv7_2_relu"
  type: "ReLU"
  bottom: "conv7_2"
  top: "conv7_2"
}
layer {
  name: "conv8_1"
  type: "Convolution"
  bottom: "conv7_2"
  top: "conv8_1"
  param {
    lr_mult: 1
    decay_mult: 1
  }
  param {
    lr_mult: 2
    decay_mult: 0
  }
  convolution_param {
    num_output: 128
    pad: 0
    kernel_size: 1
    stride: 1
    weight_filler {
      type: "xavier"
    }
    bias_filler {
      type: "constant"
      value: 0
    }
  }
}
layer {
  name: "conv8_1_relu"
  type: "ReLU"
  bottom: "conv8_1"
  top: "conv8_1"
}
layer {
  name: "conv8_2"
  type: "Convolution"
  bottom: "conv8_1"
  top: "conv8_2"
  param {
    lr_mult: 1
    decay_mult: 1
  }
  param {
    lr_mult: 2
    decay_mult: 0
  }
  convolution_param {
    num_output: 256
    pad: 0
    kernel_size: 3
    stride: 1
    weight_filler {
      type: "xavier"
    }
    bias_filler {
      type: "constant"
      value: 0
    }
  }
}
layer {
  name: "conv8_2_relu"
  type: "ReLU"
  bottom: "conv8_2"
  top: "conv8_2"
}
layer {
  name: "conv9_1"
  type: "Convolution"
  bottom: "conv8_2"
  top: "conv9_1"
  param {
    lr_mult: 1
    decay_mult: 1
  }
  param {
    lr_mult: 2
    decay_mult: 0
  }
  convolution_param {
    num_output: 128
    pad: 0
    kernel_size: 1
    stride: 1
    weight_filler {
      type: "xavier"
    }
    bias_filler {
      type: "constant"
      value: 0
    }
  }
}
layer {
  name: "conv9_1_relu"
  type: "ReLU"
  bottom: "conv9_1"
  top: "conv9_1"
}
layer {
  name: "conv9_2"
  type: "Convolution"
  bottom: "conv9_1"
  top: "conv9_2"
  param {
    lr_mult: 1
    decay_mult: 1
  }
  param {
    lr_mult: 2
    decay_mult: 0
  }
  convolution_param {
    num_output: 256
    pad: 0
    kernel_size: 3
    stride: 1
    weight_filler {
      type: "xavier"
    }
    bias_filler {
      type: "constant"
      value: 0
    }
  }
}
layer {
  name: "conv9_2_relu"
  type: "ReLU"
  bottom: "conv9_2"
  top: "conv9_2"
}
layer {
  name: "conv4_3_norm"
  type: "Normalize"
  bottom: "conv4_3"
  top: "conv4_3_norm"
  norm_param {
    across_spatial: false
    scale_filler {
      type: "constant"
      value: 20
    }
    channel_shared: false
  }
}
layer {
  name: "conv4_3_norm_mbox_loc"
  type: "Convolution"
  bottom: "conv4_3_norm"
  top: "conv4_3_norm_mbox_loc"
  param {
    lr_mult: 1
    decay_mult: 1
  }
  param {
    lr_mult: 2
    decay_mult: 0
  }
  convolution_param {
    num_output: 16
    pad: 1
    kernel_size: 3
    stride: 1
    weight_filler {
      type: "xavier"
    }
    bias_filler {
      type: "constant"
      value: 0
    }
  }
}
layer {
  name: "conv4_3_norm_mbox_loc_perm"
  type: "Permute"
  bottom: "conv4_3_norm_mbox_loc"
  top: "conv4_3_norm_mbox_loc_perm"
  permute_param {
    order: 0
    order: 2
    order: 3
    order: 1
  }
}
layer {
  name: "conv4_3_norm_mbox_loc_flat"
  type: "Flatten"
  bottom: "conv4_3_norm_mbox_loc_perm"
  top: "conv4_3_norm_mbox_loc_flat"
  flatten_param {
    axis: 1
  }
}
layer {
  name: "conv4_3_norm_mbox_conf"
  type: "Convolution"
  bottom: "conv4_3_norm"
  top: "conv4_3_norm_mbox_conf"
  param {
    lr_mult: 1
    decay_mult: 1
  }
  param {
    lr_mult: 2
    decay_mult: 0
  }
  convolution_param {
    num_output: 84
    pad: 1
    kernel_size: 3
    stride: 1
    weight_filler {
      type: "xavier"
    }
    bias_filler {
      type: "constant"
      value: 0
    }
  }
}
layer {
  name: "conv4_3_norm_mbox_conf_perm"
  type: "Permute"
  bottom: "conv4_3_norm_mbox_conf"
  top: "conv4_3_norm_mbox_conf_perm"
  permute_param {
    order: 0
    order: 2
    order: 3
    order: 1
  }
}
layer {
  name: "conv4_3_norm_mbox_conf_flat"
  type: "Flatten"
  bottom: "conv4_3_norm_mbox_conf_perm"
  top: "conv4_3_norm_mbox_conf_flat"
  flatten_param {
    axis: 1
  }
}
layer {
  name: "conv4_3_norm_mbox_priorbox"
  type: "PriorBox"
  bottom: "conv4_3_norm"
  bottom: "data"
  top: "conv4_3_norm_mbox_priorbox"
  prior_box_param {
    min_size: 30
    max_size: 60
    aspect_ratio: 2
    flip: true
    clip: false
    variance: 0.1
    variance: 0.1
    variance: 0.2
    variance: 0.2
    step: 8
    offset: 0.5
  }
}
layer {
  name: "fc7_mbox_loc"
  type: "Convolution"
  bottom: "fc7"
  top: "fc7_mbox_loc"
  param {
    lr_mult: 1
    decay_mult: 1
  }
  param {
    lr_mult: 2
    decay_mult: 0
  }
  convolution_param {
    num_output: 24
    pad: 1
    kernel_size: 3
    stride: 1
    weight_filler {
      type: "xavier"
    }
    bias_filler {
      type: "constant"
      value: 0
    }
  }
}
layer {
  name: "fc7_mbox_loc_perm"
  type: "Permute"
  bottom: "fc7_mbox_loc"
  top: "fc7_mbox_loc_perm"
  permute_param {
    order: 0
    order: 2
    order: 3
    order: 1
  }
}
layer {
  name: "fc7_mbox_loc_flat"
  type: "Flatten"
  bottom: "fc7_mbox_loc_perm"
  top: "fc7_mbox_loc_flat"
  flatten_param {
    axis: 1
  }
}
layer {
  name: "fc7_mbox_conf"
  type: "Convolution"
  bottom: "fc7"
  top: "fc7_mbox_conf"
  param {
    lr_mult: 1
    decay_mult: 1
  }
  param {
    lr_mult: 2
    decay_mult: 0
  }
  convolution_param {
    num_output: 126
    pad: 1
    kernel_size: 3
    stride: 1
    weight_filler {
      type: "xavier"
    }
    bias_filler {
      type: "constant"
      value: 0
    }
  }
}
layer {
  name: "fc7_mbox_conf_perm"
  type: "Permute"
  bottom: "fc7_mbox_conf"
  top: "fc7_mbox_conf_perm"
  permute_param {
    order: 0
    order: 2
    order: 3
    order: 1
  }
}
layer {
  name: "fc7_mbox_conf_flat"
  type: "Flatten"
  bottom: "fc7_mbox_conf_perm"
  top: "fc7_mbox_conf_flat"
  flatten_param {
    axis: 1
  }
}
layer {
  name: "fc7_mbox_priorbox"
  type: "PriorBox"
  bottom: "fc7"
  bottom: "data"
  top: "fc7_mbox_priorbox"
  prior_box_param {
    min_size: 60
    max_size: 111
    aspect_ratio: 2
    aspect_ratio: 3
    flip: true
    clip: false
    variance: 0.1
    variance: 0.1
    variance: 0.2
    variance: 0.2
    step: 16
    offset: 0.5
  }
}
layer {
  name: "conv6_2_mbox_loc"
  type: "Convolution"
  bottom: "conv6_2"
  top: "conv6_2_mbox_loc"
  param {
    lr_mult: 1
    decay_mult: 1
  }
  param {
    lr_mult: 2
    decay_mult: 0
  }
  convolution_param {
    num_output: 24
    pad: 1
    kernel_size: 3
    stride: 1
    weight_filler {
      type: "xavier"
    }
    bias_filler {
      type: "constant"
      value: 0
    }
  }
}
layer {
  name: "conv6_2_mbox_loc_perm"
  type: "Permute"
  bottom: "conv6_2_mbox_loc"
  top: "conv6_2_mbox_loc_perm"
  permute_param {
    order: 0
    order: 2
    order: 3
    order: 1
  }
}
layer {
  name: "conv6_2_mbox_loc_flat"
  type: "Flatten"
  bottom: "conv6_2_mbox_loc_perm"
  top: "conv6_2_mbox_loc_flat"
  flatten_param {
    axis: 1
  }
}
layer {
  name: "conv6_2_mbox_conf"
  type: "Convolution"
  bottom: "conv6_2"
  top: "conv6_2_mbox_conf"
  param {
    lr_mult: 1
    decay_mult: 1
  }
  param {
    lr_mult: 2
    decay_mult: 0
  }
  convolution_param {
    num_output: 126
    pad: 1
    kernel_size: 3
    stride: 1
    weight_filler {
      type: "xavier"
    }
    bias_filler {
      type: "constant"
      value: 0
    }
  }
}
layer {
  name: "conv6_2_mbox_conf_perm"
  type: "Permute"
  bottom: "conv6_2_mbox_conf"
  top: "conv6_2_mbox_conf_perm"
  permute_param {
    order: 0
    order: 2
    order: 3
    order: 1
  }
}
layer {
  name: "conv6_2_mbox_conf_flat"
  type: "Flatten"
  bottom: "conv6_2_mbox_conf_perm"
  top: "conv6_2_mbox_conf_flat"
  flatten_param {
    axis: 1
  }
}
layer {
  name: "conv6_2_mbox_priorbox"
  type: "PriorBox"
  bottom: "conv6_2"
  bottom: "data"
  top: "conv6_2_mbox_priorbox"
  prior_box_param {
    min_size: 111
    max_size: 162
    aspect_ratio: 2
    aspect_ratio: 3
    flip: true
    clip: false
    variance: 0.1
    variance: 0.1
    variance: 0.2
    variance: 0.2
    step: 32
    offset: 0.5
  }
}
layer {
  name: "conv7_2_mbox_loc"
  type: "Convolution"
  bottom: "conv7_2"
  top: "conv7_2_mbox_loc"
  param {
    lr_mult: 1
    decay_mult: 1
  }
  param {
    lr_mult: 2
    decay_mult: 0
  }
  convolution_param {
    num_output: 24
    pad: 1
    kernel_size: 3
    stride: 1
    weight_filler {
      type: "xavier"
    }
    bias_filler {
      type: "constant"
      value: 0
    }
  }
}
layer {
  name: "conv7_2_mbox_loc_perm"
  type: "Permute"
  bottom: "conv7_2_mbox_loc"
  top: "conv7_2_mbox_loc_perm"
  permute_param {
    order: 0
    order: 2
    order: 3
    order: 1
  }
}
layer {
  name: "conv7_2_mbox_loc_flat"
  type: "Flatten"
  bottom: "conv7_2_mbox_loc_perm"
  top: "conv7_2_mbox_loc_flat"
  flatten_param {
    axis: 1
  }
}
layer {
  name: "conv7_2_mbox_conf"
  type: "Convolution"
  bottom: "conv7_2"
  top: "conv7_2_mbox_conf"
  param {
    lr_mult: 1
    decay_mult: 1
  }
  param {
    lr_mult: 2
    decay_mult: 0
  }
  convolution_param {
    num_output: 126
    pad: 1
    kernel_size: 3
    stride: 1
    weight_filler {
      type: "xavier"
    }
    bias_filler {
      type: "constant"
      value: 0
    }
  }
}
layer {
  name: "conv7_2_mbox_conf_perm"
  type: "Permute"
  bottom: "conv7_2_mbox_conf"
  top: "conv7_2_mbox_conf_perm"
  permute_param {
    order: 0
    order: 2
    order: 3
    order: 1
  }
}
layer {
  name: "conv7_2_mbox_conf_flat"
  type: "Flatten"
  bottom: "conv7_2_mbox_conf_perm"
  top: "conv7_2_mbox_conf_flat"
  flatten_param {
    axis: 1
  }
}
layer {
  name: "conv7_2_mbox_priorbox"
  type: "PriorBox"
  bottom: "conv7_2"
  bottom: "data"
  top: "conv7_2_mbox_priorbox"
  prior_box_param {
    min_size: 162
    max_size: 213
    aspect_ratio: 2
    aspect_ratio: 3
    flip: true
    clip: false
    variance: 0.1
    variance: 0.1
    variance: 0.2
    variance: 0.2
    step: 64
    offset: 0.5
  }
}
layer {
  name: "conv8_2_mbox_loc"
  type: "Convolution"
  bottom: "conv8_2"
  top: "conv8_2_mbox_loc"
  param {
    lr_mult: 1
    decay_mult: 1
  }
  param {
    lr_mult: 2
    decay_mult: 0
  }
  convolution_param {
    num_output: 16
    pad: 1
    kernel_size: 3
    stride: 1
    weight_filler {
      type: "xavier"
    }
    bias_filler {
      type: "constant"
      value: 0
    }
  }
}
layer {
  name: "conv8_2_mbox_loc_perm"
  type: "Permute"
  bottom: "conv8_2_mbox_loc"
  top: "conv8_2_mbox_loc_perm"
  permute_param {
    order: 0
    order: 2
    order: 3
    order: 1
  }
}
layer {
  name: "conv8_2_mbox_loc_flat"
  type: "Flatten"
  bottom: "conv8_2_mbox_loc_perm"
  top: "conv8_2_mbox_loc_flat"
  flatten_param {
    axis: 1
  }
}
layer {
  name: "conv8_2_mbox_conf"
  type: "Convolution"
  bottom: "conv8_2"
  top: "conv8_2_mbox_conf"
  param {
    lr_mult: 1
    decay_mult: 1
  }
  param {
    lr_mult: 2
    decay_mult: 0
  }
  convolution_param {
    num_output: 84
    pad: 1
    kernel_size: 3
    stride: 1
    weight_filler {
      type: "xavier"
    }
    bias_filler {
      type: "constant"
      value: 0
    }
  }
}
layer {
  name: "conv8_2_mbox_conf_perm"
  type: "Permute"
  bottom: "conv8_2_mbox_conf"
  top: "conv8_2_mbox_conf_perm"
  permute_param {
    order: 0
    order: 2
    order: 3
    order: 1
  }
}
layer {
  name: "conv8_2_mbox_conf_flat"
  type: "Flatten"
  bottom: "conv8_2_mbox_conf_perm"
  top: "conv8_2_mbox_conf_flat"
  flatten_param {
    axis: 1
  }
}
layer {
  name: "conv8_2_mbox_priorbox"
  type: "PriorBox"
  bottom: "conv8_2"
  bottom: "data"
  top: "conv8_2_mbox_priorbox"
  prior_box_param {
    min_size: 213
    max_size: 264
    aspect_ratio: 2
    flip: true
    clip: false
    variance: 0.1
    variance: 0.1
    variance: 0.2
    variance: 0.2
    step: 100
    offset: 0.5
  }
}
layer {
  name: "conv9_2_mbox_loc"
  type: "Convolution"
  bottom: "conv9_2"
  top: "conv9_2_mbox_loc"
  param {
    lr_mult: 1
    decay_mult: 1
  }
  param {
    lr_mult: 2
    decay_mult: 0
  }
  convolution_param {
    num_output: 16
    pad: 1
    kernel_size: 3
    stride: 1
    weight_filler {
      type: "xavier"
    }
    bias_filler {
      type: "constant"
      value: 0
    }
  }
}
layer {
  name: "conv9_2_mbox_loc_perm"
  type: "Permute"
  bottom: "conv9_2_mbox_loc"
  top: "conv9_2_mbox_loc_perm"
  permute_param {
    order: 0
    order: 2
    order: 3
    order: 1
  }
}
layer {
  name: "conv9_2_mbox_loc_flat"
  type: "Flatten"
  bottom: "conv9_2_mbox_loc_perm"
  top: "conv9_2_mbox_loc_flat"
  flatten_param {
    axis: 1
  }
}
layer {
  name: "conv9_2_mbox_conf"
  type: "Convolution"
  bottom: "conv9_2"
  top: "conv9_2_mbox_conf"
  param {
    lr_mult: 1
    decay_mult: 1
  }
  param {
    lr_mult: 2
    decay_mult: 0
  }
  convolution_param {
    num_output: 84
    pad: 1
    kernel_size: 3
    stride: 1
    weight_filler {
      type: "xavier"
    }
    bias_filler {
      type: "constant"
      value: 0
    }
  }
}
layer {
  name: "conv9_2_mbox_conf_perm"
  type: "Permute"
  bottom: "conv9_2_mbox_conf"
  top: "conv9_2_mbox_conf_perm"
  permute_param {
    order: 0
    order: 2
    order: 3
    order: 1
  }
}
layer {
  name: "conv9_2_mbox_conf_flat"
  type: "Flatten"
  bottom: "conv9_2_mbox_conf_perm"
  top: "conv9_2_mbox_conf_flat"
  flatten_param {
    axis: 1
  }
}
layer {
  name: "conv9_2_mbox_priorbox"
  type: "PriorBox"
  bottom: "conv9_2"
  bottom: "data"
  top: "conv9_2_mbox_priorbox"
  prior_box_param {
    min_size: 264
    max_size: 315
    aspect_ratio: 2
    flip: true
    clip: false
    variance: 0.1
    variance: 0.1
    variance: 0.2
    variance: 0.2
    step: 300
    offset: 0.5
  }
}
layer {
  name: "mbox_loc"
  type: "Concat"
  bottom: "conv4_3_norm_mbox_loc_flat"
  bottom: "fc7_mbox_loc_flat"
  bottom: "conv6_2_mbox_loc_flat"
  bottom: "conv7_2_mbox_loc_flat"
  bottom: "conv8_2_mbox_loc_flat"
  bottom: "conv9_2_mbox_loc_flat"
  top: "mbox_loc"
  concat_param {
    axis: 1
  }
}
layer {
  name: "mbox_conf"
  type: "Concat"
  bottom: "conv4_3_norm_mbox_conf_flat"
  bottom: "fc7_mbox_conf_flat"
  bottom: "conv6_2_mbox_conf_flat"
  bottom: "conv7_2_mbox_conf_flat"
  bottom: "conv8_2_mbox_conf_flat"
  bottom: "conv9_2_mbox_conf_flat"
  top: "mbox_conf"
  concat_param {
    axis: 1
  }
}
layer {
  name: "mbox_priorbox"
  type: "Concat"
  bottom: "conv4_3_norm_mbox_priorbox"
  bottom: "fc7_mbox_priorbox"
  bottom: "conv6_2_mbox_priorbox"
  bottom: "conv7_2_mbox_priorbox"
  bottom: "conv8_2_mbox_priorbox"
  bottom: "conv9_2_mbox_priorbox"
  top: "mbox_priorbox"
  concat_param {
    axis: 2
  }
}
layer {
  name: "mbox_loss"
  type: "MultiBoxLoss"
  bottom: "mbox_loc"
  bottom: "mbox_conf"
  bottom: "mbox_priorbox"
  bottom: "label"
  top: "mbox_loss"
  include {
    phase: TRAIN
  }
  propagate_down: true
  propagate_down: true
  propagate_down: false
  propagate_down: false
  loss_param {
    normalization: VALID
  }
  multibox_loss_param {
    loc_loss_type: SMOOTH_L1
    conf_loss_type: SOFTMAX
    loc_weight: 1
    num_classes: 21
    share_location: true
    match_type: PER_PREDICTION
    overlap_threshold: 0.5
    use_prior_for_matching: true
    background_label_id: 0
    use_difficult_gt: true
    neg_pos_ratio: 3
    neg_overlap: 0.5
    code_type: CENTER_SIZE
    ignore_cross_boundary_bbox: false
    mining_type: MAX_NEGATIVE
  }
}
I1028 18:40:19.768792 21896 layer_factory.hpp:77] Creating layer data
I1028 18:40:19.769157 21896 net.cpp:100] Creating Layer data
I1028 18:40:19.769167 21896 net.cpp:452] data -> data
I1028 18:40:19.769193 21896 net.cpp:452] data -> label
I1028 18:40:19.770148 21903 db_lmdb.cpp:35] Opened lmdb examples/VOC0712/VOC0712_trainval_lmdb
I1028 18:40:19.786257 21896 annotated_data_layer.cpp:62] output data size: 1,3,300,300
I1028 18:40:19.789587 21896 net.cpp:150] Setting up data
I1028 18:40:19.789608 21896 net.cpp:157] Top shape: 1 3 300 300 (270000)
I1028 18:40:19.789611 21896 net.cpp:157] Top shape: 1 1 1 8 (8)
I1028 18:40:19.789613 21896 net.cpp:165] Memory required for data: 1080032
I1028 18:40:19.789641 21896 layer_factory.hpp:77] Creating layer data_data_0_split
I1028 18:40:19.789659 21896 net.cpp:100] Creating Layer data_data_0_split
I1028 18:40:19.789666 21896 net.cpp:478] data_data_0_split <- data
I1028 18:40:19.789680 21896 net.cpp:452] data_data_0_split -> data_data_0_split_0
I1028 18:40:19.789691 21896 net.cpp:452] data_data_0_split -> data_data_0_split_1
I1028 18:40:19.789700 21896 net.cpp:452] data_data_0_split -> data_data_0_split_2
I1028 18:40:19.789713 21896 net.cpp:452] data_data_0_split -> data_data_0_split_3
I1028 18:40:19.789721 21896 net.cpp:452] data_data_0_split -> data_data_0_split_4
I1028 18:40:19.789729 21896 net.cpp:452] data_data_0_split -> data_data_0_split_5
I1028 18:40:19.789737 21896 net.cpp:452] data_data_0_split -> data_data_0_split_6
I1028 18:40:19.789811 21896 net.cpp:150] Setting up data_data_0_split
I1028 18:40:19.789819 21896 net.cpp:157] Top shape: 1 3 300 300 (270000)
I1028 18:40:19.789826 21896 net.cpp:157] Top shape: 1 3 300 300 (270000)
I1028 18:40:19.789831 21896 net.cpp:157] Top shape: 1 3 300 300 (270000)
I1028 18:40:19.789837 21896 net.cpp:157] Top shape: 1 3 300 300 (270000)
I1028 18:40:19.789844 21896 net.cpp:157] Top shape: 1 3 300 300 (270000)
I1028 18:40:19.789849 21896 net.cpp:157] Top shape: 1 3 300 300 (270000)
I1028 18:40:19.789855 21896 net.cpp:157] Top shape: 1 3 300 300 (270000)
I1028 18:40:19.789860 21896 net.cpp:165] Memory required for data: 8640032
I1028 18:40:19.789862 21896 layer_factory.hpp:77] Creating layer conv1_1
I1028 18:40:19.789880 21896 net.cpp:100] Creating Layer conv1_1
I1028 18:40:19.789883 21896 net.cpp:478] conv1_1 <- data_data_0_split_0
I1028 18:40:19.789891 21896 net.cpp:452] conv1_1 -> conv1_1
I1028 18:40:19.790946 21896 net.cpp:150] Setting up conv1_1
I1028 18:40:19.790958 21896 net.cpp:157] Top shape: 1 64 300 300 (5760000)
I1028 18:40:19.790962 21896 net.cpp:165] Memory required for data: 31680032
I1028 18:40:19.790984 21896 layer_factory.hpp:77] Creating layer relu1_1
I1028 18:40:19.790993 21896 net.cpp:100] Creating Layer relu1_1
I1028 18:40:19.790999 21896 net.cpp:478] relu1_1 <- conv1_1
I1028 18:40:19.791007 21896 net.cpp:439] relu1_1 -> conv1_1 (in-place)
I1028 18:40:19.791015 21896 net.cpp:150] Setting up relu1_1
I1028 18:40:19.791021 21896 net.cpp:157] Top shape: 1 64 300 300 (5760000)
I1028 18:40:19.791025 21896 net.cpp:165] Memory required for data: 54720032
I1028 18:40:19.791029 21896 layer_factory.hpp:77] Creating layer conv1_2
I1028 18:40:19.791040 21896 net.cpp:100] Creating Layer conv1_2
I1028 18:40:19.791044 21896 net.cpp:478] conv1_2 <- conv1_1
I1028 18:40:19.791051 21896 net.cpp:452] conv1_2 -> conv1_2
I1028 18:40:19.791821 21896 net.cpp:150] Setting up conv1_2
I1028 18:40:19.791832 21896 net.cpp:157] Top shape: 1 64 300 300 (5760000)
I1028 18:40:19.791836 21896 net.cpp:165] Memory required for data: 77760032
I1028 18:40:19.791846 21896 layer_factory.hpp:77] Creating layer relu1_2
I1028 18:40:19.791852 21896 net.cpp:100] Creating Layer relu1_2
I1028 18:40:19.791857 21896 net.cpp:478] relu1_2 <- conv1_2
I1028 18:40:19.791863 21896 net.cpp:439] relu1_2 -> conv1_2 (in-place)
I1028 18:40:19.791872 21896 net.cpp:150] Setting up relu1_2
I1028 18:40:19.791877 21896 net.cpp:157] Top shape: 1 64 300 300 (5760000)
I1028 18:40:19.791882 21896 net.cpp:165] Memory required for data: 100800032
I1028 18:40:19.791885 21896 layer_factory.hpp:77] Creating layer pool1
I1028 18:40:19.791894 21896 net.cpp:100] Creating Layer pool1
I1028 18:40:19.791898 21896 net.cpp:478] pool1 <- conv1_2
I1028 18:40:19.791904 21896 net.cpp:452] pool1 -> pool1
I1028 18:40:19.791946 21896 net.cpp:150] Setting up pool1
I1028 18:40:19.791954 21896 net.cpp:157] Top shape: 1 64 150 150 (1440000)
I1028 18:40:19.791956 21896 net.cpp:165] Memory required for data: 106560032
I1028 18:40:19.791960 21896 layer_factory.hpp:77] Creating layer conv2_1
I1028 18:40:19.791970 21896 net.cpp:100] Creating Layer conv2_1
I1028 18:40:19.791975 21896 net.cpp:478] conv2_1 <- pool1
I1028 18:40:19.791982 21896 net.cpp:452] conv2_1 -> conv2_1
I1028 18:40:19.792475 21896 net.cpp:150] Setting up conv2_1
I1028 18:40:19.792484 21896 net.cpp:157] Top shape: 1 128 150 150 (2880000)
I1028 18:40:19.792487 21896 net.cpp:165] Memory required for data: 118080032
I1028 18:40:19.792495 21896 layer_factory.hpp:77] Creating layer relu2_1
I1028 18:40:19.792506 21896 net.cpp:100] Creating Layer relu2_1
I1028 18:40:19.792510 21896 net.cpp:478] relu2_1 <- conv2_1
I1028 18:40:19.792516 21896 net.cpp:439] relu2_1 -> conv2_1 (in-place)
I1028 18:40:19.792523 21896 net.cpp:150] Setting up relu2_1
I1028 18:40:19.792529 21896 net.cpp:157] Top shape: 1 128 150 150 (2880000)
I1028 18:40:19.792533 21896 net.cpp:165] Memory required for data: 129600032
I1028 18:40:19.792536 21896 layer_factory.hpp:77] Creating layer conv2_2
I1028 18:40:19.792547 21896 net.cpp:100] Creating Layer conv2_2
I1028 18:40:19.792551 21896 net.cpp:478] conv2_2 <- conv2_1
I1028 18:40:19.792557 21896 net.cpp:452] conv2_2 -> conv2_2
I1028 18:40:19.793778 21896 net.cpp:150] Setting up conv2_2
I1028 18:40:19.793789 21896 net.cpp:157] Top shape: 1 128 150 150 (2880000)
I1028 18:40:19.793793 21896 net.cpp:165] Memory required for data: 141120032
I1028 18:40:19.793800 21896 layer_factory.hpp:77] Creating layer relu2_2
I1028 18:40:19.793810 21896 net.cpp:100] Creating Layer relu2_2
I1028 18:40:19.793815 21896 net.cpp:478] relu2_2 <- conv2_2
I1028 18:40:19.793822 21896 net.cpp:439] relu2_2 -> conv2_2 (in-place)
I1028 18:40:19.793829 21896 net.cpp:150] Setting up relu2_2
I1028 18:40:19.793835 21896 net.cpp:157] Top shape: 1 128 150 150 (2880000)
I1028 18:40:19.793840 21896 net.cpp:165] Memory required for data: 152640032
I1028 18:40:19.793843 21896 layer_factory.hpp:77] Creating layer pool2
I1028 18:40:19.793851 21896 net.cpp:100] Creating Layer pool2
I1028 18:40:19.793855 21896 net.cpp:478] pool2 <- conv2_2
I1028 18:40:19.793861 21896 net.cpp:452] pool2 -> pool2
I1028 18:40:19.793891 21896 net.cpp:150] Setting up pool2
I1028 18:40:19.793897 21896 net.cpp:157] Top shape: 1 128 75 75 (720000)
I1028 18:40:19.793901 21896 net.cpp:165] Memory required for data: 155520032
I1028 18:40:19.793905 21896 layer_factory.hpp:77] Creating layer conv3_1
I1028 18:40:19.793915 21896 net.cpp:100] Creating Layer conv3_1
I1028 18:40:19.793920 21896 net.cpp:478] conv3_1 <- pool2
I1028 18:40:19.793927 21896 net.cpp:452] conv3_1 -> conv3_1
I1028 18:40:19.797206 21896 net.cpp:150] Setting up conv3_1
I1028 18:40:19.797232 21896 net.cpp:157] Top shape: 1 256 75 75 (1440000)
I1028 18:40:19.797235 21896 net.cpp:165] Memory required for data: 161280032
I1028 18:40:19.797255 21896 layer_factory.hpp:77] Creating layer relu3_1
I1028 18:40:19.797267 21896 net.cpp:100] Creating Layer relu3_1
I1028 18:40:19.797274 21896 net.cpp:478] relu3_1 <- conv3_1
I1028 18:40:19.797281 21896 net.cpp:439] relu3_1 -> conv3_1 (in-place)
I1028 18:40:19.797289 21896 net.cpp:150] Setting up relu3_1
I1028 18:40:19.797292 21896 net.cpp:157] Top shape: 1 256 75 75 (1440000)
I1028 18:40:19.797294 21896 net.cpp:165] Memory required for data: 167040032
I1028 18:40:19.797297 21896 layer_factory.hpp:77] Creating layer conv3_2
I1028 18:40:19.797305 21896 net.cpp:100] Creating Layer conv3_2
I1028 18:40:19.797308 21896 net.cpp:478] conv3_2 <- conv3_1
I1028 18:40:19.797313 21896 net.cpp:452] conv3_2 -> conv3_2
I1028 18:40:19.801107 21896 net.cpp:150] Setting up conv3_2
I1028 18:40:19.801148 21896 net.cpp:157] Top shape: 1 256 75 75 (1440000)
I1028 18:40:19.801151 21896 net.cpp:165] Memory required for data: 172800032
I1028 18:40:19.801162 21896 layer_factory.hpp:77] Creating layer relu3_2
I1028 18:40:19.801173 21896 net.cpp:100] Creating Layer relu3_2
I1028 18:40:19.801179 21896 net.cpp:478] relu3_2 <- conv3_2
I1028 18:40:19.801190 21896 net.cpp:439] relu3_2 -> conv3_2 (in-place)
I1028 18:40:19.801200 21896 net.cpp:150] Setting up relu3_2
I1028 18:40:19.801203 21896 net.cpp:157] Top shape: 1 256 75 75 (1440000)
I1028 18:40:19.801206 21896 net.cpp:165] Memory required for data: 178560032
I1028 18:40:19.801208 21896 layer_factory.hpp:77] Creating layer conv3_3
I1028 18:40:19.801228 21896 net.cpp:100] Creating Layer conv3_3
I1028 18:40:19.801251 21896 net.cpp:478] conv3_3 <- conv3_2
I1028 18:40:19.801259 21896 net.cpp:452] conv3_3 -> conv3_3
I1028 18:40:19.804882 21896 net.cpp:150] Setting up conv3_3
I1028 18:40:19.804899 21896 net.cpp:157] Top shape: 1 256 75 75 (1440000)
I1028 18:40:19.804903 21896 net.cpp:165] Memory required for data: 184320032
I1028 18:40:19.804921 21896 layer_factory.hpp:77] Creating layer relu3_3
I1028 18:40:19.804929 21896 net.cpp:100] Creating Layer relu3_3
I1028 18:40:19.804941 21896 net.cpp:478] relu3_3 <- conv3_3
I1028 18:40:19.804950 21896 net.cpp:439] relu3_3 -> conv3_3 (in-place)
I1028 18:40:19.804960 21896 net.cpp:150] Setting up relu3_3
I1028 18:40:19.804965 21896 net.cpp:157] Top shape: 1 256 75 75 (1440000)
I1028 18:40:19.804968 21896 net.cpp:165] Memory required for data: 190080032
I1028 18:40:19.804972 21896 layer_factory.hpp:77] Creating layer pool3
I1028 18:40:19.804981 21896 net.cpp:100] Creating Layer pool3
I1028 18:40:19.804986 21896 net.cpp:478] pool3 <- conv3_3
I1028 18:40:19.804991 21896 net.cpp:452] pool3 -> pool3
I1028 18:40:19.805027 21896 net.cpp:150] Setting up pool3
I1028 18:40:19.805032 21896 net.cpp:157] Top shape: 1 256 38 38 (369664)
I1028 18:40:19.805037 21896 net.cpp:165] Memory required for data: 191558688
I1028 18:40:19.805039 21896 layer_factory.hpp:77] Creating layer conv4_1
I1028 18:40:19.805052 21896 net.cpp:100] Creating Layer conv4_1
I1028 18:40:19.805055 21896 net.cpp:478] conv4_1 <- pool3
I1028 18:40:19.805063 21896 net.cpp:452] conv4_1 -> conv4_1
I1028 18:40:19.812423 21896 net.cpp:150] Setting up conv4_1
I1028 18:40:19.812455 21896 net.cpp:157] Top shape: 1 512 38 38 (739328)
I1028 18:40:19.812458 21896 net.cpp:165] Memory required for data: 194516000
I1028 18:40:19.812474 21896 layer_factory.hpp:77] Creating layer relu4_1
I1028 18:40:19.812490 21896 net.cpp:100] Creating Layer relu4_1
I1028 18:40:19.812499 21896 net.cpp:478] relu4_1 <- conv4_1
I1028 18:40:19.812510 21896 net.cpp:439] relu4_1 -> conv4_1 (in-place)
I1028 18:40:19.812523 21896 net.cpp:150] Setting up relu4_1
I1028 18:40:19.812530 21896 net.cpp:157] Top shape: 1 512 38 38 (739328)
I1028 18:40:19.812533 21896 net.cpp:165] Memory required for data: 197473312
I1028 18:40:19.812537 21896 layer_factory.hpp:77] Creating layer conv4_2
I1028 18:40:19.812549 21896 net.cpp:100] Creating Layer conv4_2
I1028 18:40:19.812553 21896 net.cpp:478] conv4_2 <- conv4_1
I1028 18:40:19.812561 21896 net.cpp:452] conv4_2 -> conv4_2
I1028 18:40:19.826170 21896 net.cpp:150] Setting up conv4_2
I1028 18:40:19.826200 21896 net.cpp:157] Top shape: 1 512 38 38 (739328)
I1028 18:40:19.826205 21896 net.cpp:165] Memory required for data: 200430624
I1028 18:40:19.826222 21896 layer_factory.hpp:77] Creating layer relu4_2
I1028 18:40:19.826231 21896 net.cpp:100] Creating Layer relu4_2
I1028 18:40:19.826238 21896 net.cpp:478] relu4_2 <- conv4_2
I1028 18:40:19.826248 21896 net.cpp:439] relu4_2 -> conv4_2 (in-place)
I1028 18:40:19.826259 21896 net.cpp:150] Setting up relu4_2
I1028 18:40:19.826266 21896 net.cpp:157] Top shape: 1 512 38 38 (739328)
I1028 18:40:19.826269 21896 net.cpp:165] Memory required for data: 203387936
I1028 18:40:19.826272 21896 layer_factory.hpp:77] Creating layer conv4_3
I1028 18:40:19.826284 21896 net.cpp:100] Creating Layer conv4_3
I1028 18:40:19.826292 21896 net.cpp:478] conv4_3 <- conv4_2
I1028 18:40:19.826297 21896 net.cpp:452] conv4_3 -> conv4_3
I1028 18:40:19.840317 21896 net.cpp:150] Setting up conv4_3
I1028 18:40:19.840355 21896 net.cpp:157] Top shape: 1 512 38 38 (739328)
I1028 18:40:19.840358 21896 net.cpp:165] Memory required for data: 206345248
I1028 18:40:19.840365 21896 layer_factory.hpp:77] Creating layer relu4_3
I1028 18:40:19.840374 21896 net.cpp:100] Creating Layer relu4_3
I1028 18:40:19.840378 21896 net.cpp:478] relu4_3 <- conv4_3
I1028 18:40:19.840386 21896 net.cpp:439] relu4_3 -> conv4_3 (in-place)
I1028 18:40:19.840395 21896 net.cpp:150] Setting up relu4_3
I1028 18:40:19.840397 21896 net.cpp:157] Top shape: 1 512 38 38 (739328)
I1028 18:40:19.840411 21896 net.cpp:165] Memory required for data: 209302560
I1028 18:40:19.840433 21896 layer_factory.hpp:77] Creating layer conv4_3_relu4_3_0_split
I1028 18:40:19.840441 21896 net.cpp:100] Creating Layer conv4_3_relu4_3_0_split
I1028 18:40:19.840445 21896 net.cpp:478] conv4_3_relu4_3_0_split <- conv4_3
I1028 18:40:19.840453 21896 net.cpp:452] conv4_3_relu4_3_0_split -> conv4_3_relu4_3_0_split_0
I1028 18:40:19.840463 21896 net.cpp:452] conv4_3_relu4_3_0_split -> conv4_3_relu4_3_0_split_1
I1028 18:40:19.840497 21896 net.cpp:150] Setting up conv4_3_relu4_3_0_split
I1028 18:40:19.840505 21896 net.cpp:157] Top shape: 1 512 38 38 (739328)
I1028 18:40:19.840510 21896 net.cpp:157] Top shape: 1 512 38 38 (739328)
I1028 18:40:19.840514 21896 net.cpp:165] Memory required for data: 215217184
I1028 18:40:19.840518 21896 layer_factory.hpp:77] Creating layer pool4
I1028 18:40:19.840525 21896 net.cpp:100] Creating Layer pool4
I1028 18:40:19.840530 21896 net.cpp:478] pool4 <- conv4_3_relu4_3_0_split_0
I1028 18:40:19.840536 21896 net.cpp:452] pool4 -> pool4
I1028 18:40:19.840567 21896 net.cpp:150] Setting up pool4
I1028 18:40:19.840574 21896 net.cpp:157] Top shape: 1 512 19 19 (184832)
I1028 18:40:19.840577 21896 net.cpp:165] Memory required for data: 215956512
I1028 18:40:19.840581 21896 layer_factory.hpp:77] Creating layer conv5_1
I1028 18:40:19.840592 21896 net.cpp:100] Creating Layer conv5_1
I1028 18:40:19.840596 21896 net.cpp:478] conv5_1 <- pool4
I1028 18:40:19.840605 21896 net.cpp:452] conv5_1 -> conv5_1
I1028 18:40:19.853824 21896 net.cpp:150] Setting up conv5_1
I1028 18:40:19.853854 21896 net.cpp:157] Top shape: 1 512 19 19 (184832)
I1028 18:40:19.853857 21896 net.cpp:165] Memory required for data: 216695840
I1028 18:40:19.853873 21896 layer_factory.hpp:77] Creating layer relu5_1
I1028 18:40:19.853883 21896 net.cpp:100] Creating Layer relu5_1
I1028 18:40:19.853889 21896 net.cpp:478] relu5_1 <- conv5_1
I1028 18:40:19.853899 21896 net.cpp:439] relu5_1 -> conv5_1 (in-place)
I1028 18:40:19.853909 21896 net.cpp:150] Setting up relu5_1
I1028 18:40:19.853915 21896 net.cpp:157] Top shape: 1 512 19 19 (184832)
I1028 18:40:19.853919 21896 net.cpp:165] Memory required for data: 217435168
I1028 18:40:19.853922 21896 layer_factory.hpp:77] Creating layer conv5_2
I1028 18:40:19.853935 21896 net.cpp:100] Creating Layer conv5_2
I1028 18:40:19.853938 21896 net.cpp:478] conv5_2 <- conv5_1
I1028 18:40:19.853946 21896 net.cpp:452] conv5_2 -> conv5_2
I1028 18:40:19.868094 21896 net.cpp:150] Setting up conv5_2
I1028 18:40:19.868152 21896 net.cpp:157] Top shape: 1 512 19 19 (184832)
I1028 18:40:19.868161 21896 net.cpp:165] Memory required for data: 218174496
I1028 18:40:19.868185 21896 layer_factory.hpp:77] Creating layer relu5_2
I1028 18:40:19.868209 21896 net.cpp:100] Creating Layer relu5_2
I1028 18:40:19.868221 21896 net.cpp:478] relu5_2 <- conv5_2
I1028 18:40:19.868233 21896 net.cpp:439] relu5_2 -> conv5_2 (in-place)
I1028 18:40:19.868249 21896 net.cpp:150] Setting up relu5_2
I1028 18:40:19.868257 21896 net.cpp:157] Top shape: 1 512 19 19 (184832)
I1028 18:40:19.868260 21896 net.cpp:165] Memory required for data: 218913824
I1028 18:40:19.868263 21896 layer_factory.hpp:77] Creating layer conv5_3
I1028 18:40:19.868281 21896 net.cpp:100] Creating Layer conv5_3
I1028 18:40:19.868286 21896 net.cpp:478] conv5_3 <- conv5_2
I1028 18:40:19.868294 21896 net.cpp:452] conv5_3 -> conv5_3
I1028 18:40:19.882469 21896 net.cpp:150] Setting up conv5_3
I1028 18:40:19.882496 21896 net.cpp:157] Top shape: 1 512 19 19 (184832)
I1028 18:40:19.882499 21896 net.cpp:165] Memory required for data: 219653152
I1028 18:40:19.882519 21896 layer_factory.hpp:77] Creating layer relu5_3
I1028 18:40:19.882536 21896 net.cpp:100] Creating Layer relu5_3
I1028 18:40:19.882544 21896 net.cpp:478] relu5_3 <- conv5_3
I1028 18:40:19.882551 21896 net.cpp:439] relu5_3 -> conv5_3 (in-place)
I1028 18:40:19.882561 21896 net.cpp:150] Setting up relu5_3
I1028 18:40:19.882567 21896 net.cpp:157] Top shape: 1 512 19 19 (184832)
I1028 18:40:19.882571 21896 net.cpp:165] Memory required for data: 220392480
I1028 18:40:19.882591 21896 layer_factory.hpp:77] Creating layer pool5
I1028 18:40:19.882601 21896 net.cpp:100] Creating Layer pool5
I1028 18:40:19.882606 21896 net.cpp:478] pool5 <- conv5_3
I1028 18:40:19.882612 21896 net.cpp:452] pool5 -> pool5
I1028 18:40:19.882647 21896 net.cpp:150] Setting up pool5
I1028 18:40:19.882655 21896 net.cpp:157] Top shape: 1 512 19 19 (184832)
I1028 18:40:19.882660 21896 net.cpp:165] Memory required for data: 221131808
I1028 18:40:19.882664 21896 layer_factory.hpp:77] Creating layer fc6
I1028 18:40:19.882675 21896 net.cpp:100] Creating Layer fc6
I1028 18:40:19.882679 21896 net.cpp:478] fc6 <- pool5
I1028 18:40:19.882686 21896 net.cpp:452] fc6 -> fc6
I1028 18:40:19.911542 21896 net.cpp:150] Setting up fc6
I1028 18:40:19.911576 21896 net.cpp:157] Top shape: 1 1024 19 19 (369664)
I1028 18:40:19.911581 21896 net.cpp:165] Memory required for data: 222610464
I1028 18:40:19.911594 21896 layer_factory.hpp:77] Creating layer relu6
I1028 18:40:19.911607 21896 net.cpp:100] Creating Layer relu6
I1028 18:40:19.911614 21896 net.cpp:478] relu6 <- fc6
I1028 18:40:19.911625 21896 net.cpp:439] relu6 -> fc6 (in-place)
I1028 18:40:19.911636 21896 net.cpp:150] Setting up relu6
I1028 18:40:19.911643 21896 net.cpp:157] Top shape: 1 1024 19 19 (369664)
I1028 18:40:19.911646 21896 net.cpp:165] Memory required for data: 224089120
I1028 18:40:19.911650 21896 layer_factory.hpp:77] Creating layer fc7
I1028 18:40:19.911664 21896 net.cpp:100] Creating Layer fc7
I1028 18:40:19.911667 21896 net.cpp:478] fc7 <- fc6
I1028 18:40:19.911675 21896 net.cpp:452] fc7 -> fc7
I1028 18:40:19.918198 21896 net.cpp:150] Setting up fc7
I1028 18:40:19.918231 21896 net.cpp:157] Top shape: 1 1024 19 19 (369664)
I1028 18:40:19.918236 21896 net.cpp:165] Memory required for data: 225567776
I1028 18:40:19.918247 21896 layer_factory.hpp:77] Creating layer relu7
I1028 18:40:19.918259 21896 net.cpp:100] Creating Layer relu7
I1028 18:40:19.918268 21896 net.cpp:478] relu7 <- fc7
I1028 18:40:19.918280 21896 net.cpp:439] relu7 -> fc7 (in-place)
I1028 18:40:19.918294 21896 net.cpp:150] Setting up relu7
I1028 18:40:19.918301 21896 net.cpp:157] Top shape: 1 1024 19 19 (369664)
I1028 18:40:19.918306 21896 net.cpp:165] Memory required for data: 227046432
I1028 18:40:19.918310 21896 layer_factory.hpp:77] Creating layer fc7_relu7_0_split
I1028 18:40:19.918323 21896 net.cpp:100] Creating Layer fc7_relu7_0_split
I1028 18:40:19.918329 21896 net.cpp:478] fc7_relu7_0_split <- fc7
I1028 18:40:19.918336 21896 net.cpp:452] fc7_relu7_0_split -> fc7_relu7_0_split_0
I1028 18:40:19.918345 21896 net.cpp:452] fc7_relu7_0_split -> fc7_relu7_0_split_1
I1028 18:40:19.918360 21896 net.cpp:452] fc7_relu7_0_split -> fc7_relu7_0_split_2
I1028 18:40:19.918368 21896 net.cpp:452] fc7_relu7_0_split -> fc7_relu7_0_split_3
I1028 18:40:19.918427 21896 net.cpp:150] Setting up fc7_relu7_0_split
I1028 18:40:19.918434 21896 net.cpp:157] Top shape: 1 1024 19 19 (369664)
I1028 18:40:19.918439 21896 net.cpp:157] Top shape: 1 1024 19 19 (369664)
I1028 18:40:19.918445 21896 net.cpp:157] Top shape: 1 1024 19 19 (369664)
I1028 18:40:19.918450 21896 net.cpp:157] Top shape: 1 1024 19 19 (369664)
I1028 18:40:19.918454 21896 net.cpp:165] Memory required for data: 232961056
I1028 18:40:19.918458 21896 layer_factory.hpp:77] Creating layer conv6_1
I1028 18:40:19.918471 21896 net.cpp:100] Creating Layer conv6_1
I1028 18:40:19.918476 21896 net.cpp:478] conv6_1 <- fc7_relu7_0_split_0
I1028 18:40:19.918484 21896 net.cpp:452] conv6_1 -> conv6_1
I1028 18:40:19.920444 21896 net.cpp:150] Setting up conv6_1
I1028 18:40:19.920455 21896 net.cpp:157] Top shape: 1 256 19 19 (92416)
I1028 18:40:19.920459 21896 net.cpp:165] Memory required for data: 233330720
I1028 18:40:19.920469 21896 layer_factory.hpp:77] Creating layer conv6_1_relu
I1028 18:40:19.920477 21896 net.cpp:100] Creating Layer conv6_1_relu
I1028 18:40:19.920482 21896 net.cpp:478] conv6_1_relu <- conv6_1
I1028 18:40:19.920490 21896 net.cpp:439] conv6_1_relu -> conv6_1 (in-place)
I1028 18:40:19.920498 21896 net.cpp:150] Setting up conv6_1_relu
I1028 18:40:19.920505 21896 net.cpp:157] Top shape: 1 256 19 19 (92416)
I1028 18:40:19.920522 21896 net.cpp:165] Memory required for data: 233700384
I1028 18:40:19.920527 21896 layer_factory.hpp:77] Creating layer conv6_2
I1028 18:40:19.920538 21896 net.cpp:100] Creating Layer conv6_2
I1028 18:40:19.920542 21896 net.cpp:478] conv6_2 <- conv6_1
I1028 18:40:19.920549 21896 net.cpp:452] conv6_2 -> conv6_2
I1028 18:40:19.927974 21896 net.cpp:150] Setting up conv6_2
I1028 18:40:19.928001 21896 net.cpp:157] Top shape: 1 512 10 10 (51200)
I1028 18:40:19.928005 21896 net.cpp:165] Memory required for data: 233905184
I1028 18:40:19.928023 21896 layer_factory.hpp:77] Creating layer conv6_2_relu
I1028 18:40:19.928035 21896 net.cpp:100] Creating Layer conv6_2_relu
I1028 18:40:19.928040 21896 net.cpp:478] conv6_2_relu <- conv6_2
I1028 18:40:19.928050 21896 net.cpp:439] conv6_2_relu -> conv6_2 (in-place)
I1028 18:40:19.928059 21896 net.cpp:150] Setting up conv6_2_relu
I1028 18:40:19.928064 21896 net.cpp:157] Top shape: 1 512 10 10 (51200)
I1028 18:40:19.928069 21896 net.cpp:165] Memory required for data: 234109984
I1028 18:40:19.928073 21896 layer_factory.hpp:77] Creating layer conv6_2_conv6_2_relu_0_split
I1028 18:40:19.928082 21896 net.cpp:100] Creating Layer conv6_2_conv6_2_relu_0_split
I1028 18:40:19.928086 21896 net.cpp:478] conv6_2_conv6_2_relu_0_split <- conv6_2
I1028 18:40:19.928097 21896 net.cpp:452] conv6_2_conv6_2_relu_0_split -> conv6_2_conv6_2_relu_0_split_0
I1028 18:40:19.928104 21896 net.cpp:452] conv6_2_conv6_2_relu_0_split -> conv6_2_conv6_2_relu_0_split_1
I1028 18:40:19.928113 21896 net.cpp:452] conv6_2_conv6_2_relu_0_split -> conv6_2_conv6_2_relu_0_split_2
I1028 18:40:19.928120 21896 net.cpp:452] conv6_2_conv6_2_relu_0_split -> conv6_2_conv6_2_relu_0_split_3
I1028 18:40:19.928169 21896 net.cpp:150] Setting up conv6_2_conv6_2_relu_0_split
I1028 18:40:19.928174 21896 net.cpp:157] Top shape: 1 512 10 10 (51200)
I1028 18:40:19.928179 21896 net.cpp:157] Top shape: 1 512 10 10 (51200)
I1028 18:40:19.928185 21896 net.cpp:157] Top shape: 1 512 10 10 (51200)
I1028 18:40:19.928191 21896 net.cpp:157] Top shape: 1 512 10 10 (51200)
I1028 18:40:19.928195 21896 net.cpp:165] Memory required for data: 234929184
I1028 18:40:19.928200 21896 layer_factory.hpp:77] Creating layer conv7_1
I1028 18:40:19.928210 21896 net.cpp:100] Creating Layer conv7_1
I1028 18:40:19.928215 21896 net.cpp:478] conv7_1 <- conv6_2_conv6_2_relu_0_split_0
I1028 18:40:19.928225 21896 net.cpp:452] conv7_1 -> conv7_1
I1028 18:40:19.928689 21896 net.cpp:150] Setting up conv7_1
I1028 18:40:19.928695 21896 net.cpp:157] Top shape: 1 128 10 10 (12800)
I1028 18:40:19.928699 21896 net.cpp:165] Memory required for data: 234980384
I1028 18:40:19.928706 21896 layer_factory.hpp:77] Creating layer conv7_1_relu
I1028 18:40:19.928714 21896 net.cpp:100] Creating Layer conv7_1_relu
I1028 18:40:19.928719 21896 net.cpp:478] conv7_1_relu <- conv7_1
I1028 18:40:19.928725 21896 net.cpp:439] conv7_1_relu -> conv7_1 (in-place)
I1028 18:40:19.928731 21896 net.cpp:150] Setting up conv7_1_relu
I1028 18:40:19.928737 21896 net.cpp:157] Top shape: 1 128 10 10 (12800)
I1028 18:40:19.928741 21896 net.cpp:165] Memory required for data: 235031584
I1028 18:40:19.928745 21896 layer_factory.hpp:77] Creating layer conv7_2
I1028 18:40:19.928755 21896 net.cpp:100] Creating Layer conv7_2
I1028 18:40:19.928758 21896 net.cpp:478] conv7_2 <- conv7_1
I1028 18:40:19.928766 21896 net.cpp:452] conv7_2 -> conv7_2
I1028 18:40:19.930771 21896 net.cpp:150] Setting up conv7_2
I1028 18:40:19.930784 21896 net.cpp:157] Top shape: 1 256 5 5 (6400)
I1028 18:40:19.930788 21896 net.cpp:165] Memory required for data: 235057184
I1028 18:40:19.930795 21896 layer_factory.hpp:77] Creating layer conv7_2_relu
I1028 18:40:19.930805 21896 net.cpp:100] Creating Layer conv7_2_relu
I1028 18:40:19.930810 21896 net.cpp:478] conv7_2_relu <- conv7_2
I1028 18:40:19.930817 21896 net.cpp:439] conv7_2_relu -> conv7_2 (in-place)
I1028 18:40:19.930824 21896 net.cpp:150] Setting up conv7_2_relu
I1028 18:40:19.930831 21896 net.cpp:157] Top shape: 1 256 5 5 (6400)
I1028 18:40:19.930850 21896 net.cpp:165] Memory required for data: 235082784
I1028 18:40:19.930855 21896 layer_factory.hpp:77] Creating layer conv7_2_conv7_2_relu_0_split
I1028 18:40:19.930862 21896 net.cpp:100] Creating Layer conv7_2_conv7_2_relu_0_split
I1028 18:40:19.930867 21896 net.cpp:478] conv7_2_conv7_2_relu_0_split <- conv7_2
I1028 18:40:19.930873 21896 net.cpp:452] conv7_2_conv7_2_relu_0_split -> conv7_2_conv7_2_relu_0_split_0
I1028 18:40:19.930882 21896 net.cpp:452] conv7_2_conv7_2_relu_0_split -> conv7_2_conv7_2_relu_0_split_1
I1028 18:40:19.930894 21896 net.cpp:452] conv7_2_conv7_2_relu_0_split -> conv7_2_conv7_2_relu_0_split_2
I1028 18:40:19.930902 21896 net.cpp:452] conv7_2_conv7_2_relu_0_split -> conv7_2_conv7_2_relu_0_split_3
I1028 18:40:19.930951 21896 net.cpp:150] Setting up conv7_2_conv7_2_relu_0_split
I1028 18:40:19.930958 21896 net.cpp:157] Top shape: 1 256 5 5 (6400)
I1028 18:40:19.930963 21896 net.cpp:157] Top shape: 1 256 5 5 (6400)
I1028 18:40:19.930969 21896 net.cpp:157] Top shape: 1 256 5 5 (6400)
I1028 18:40:19.930974 21896 net.cpp:157] Top shape: 1 256 5 5 (6400)
I1028 18:40:19.930979 21896 net.cpp:165] Memory required for data: 235185184
I1028 18:40:19.930981 21896 layer_factory.hpp:77] Creating layer conv8_1
I1028 18:40:19.930994 21896 net.cpp:100] Creating Layer conv8_1
I1028 18:40:19.930997 21896 net.cpp:478] conv8_1 <- conv7_2_conv7_2_relu_0_split_0
I1028 18:40:19.931005 21896 net.cpp:452] conv8_1 -> conv8_1
I1028 18:40:19.931305 21896 net.cpp:150] Setting up conv8_1
I1028 18:40:19.931313 21896 net.cpp:157] Top shape: 1 128 5 5 (3200)
I1028 18:40:19.931318 21896 net.cpp:165] Memory required for data: 235197984
I1028 18:40:19.931324 21896 layer_factory.hpp:77] Creating layer conv8_1_relu
I1028 18:40:19.931330 21896 net.cpp:100] Creating Layer conv8_1_relu
I1028 18:40:19.931335 21896 net.cpp:478] conv8_1_relu <- conv8_1
I1028 18:40:19.931342 21896 net.cpp:439] conv8_1_relu -> conv8_1 (in-place)
I1028 18:40:19.931349 21896 net.cpp:150] Setting up conv8_1_relu
I1028 18:40:19.931354 21896 net.cpp:157] Top shape: 1 128 5 5 (3200)
I1028 18:40:19.931358 21896 net.cpp:165] Memory required for data: 235210784
I1028 18:40:19.931362 21896 layer_factory.hpp:77] Creating layer conv8_2
I1028 18:40:19.931371 21896 net.cpp:100] Creating Layer conv8_2
I1028 18:40:19.931375 21896 net.cpp:478] conv8_2 <- conv8_1
I1028 18:40:19.931381 21896 net.cpp:452] conv8_2 -> conv8_2
I1028 18:40:19.933290 21896 net.cpp:150] Setting up conv8_2
I1028 18:40:19.933301 21896 net.cpp:157] Top shape: 1 256 3 3 (2304)
I1028 18:40:19.933305 21896 net.cpp:165] Memory required for data: 235220000
I1028 18:40:19.933312 21896 layer_factory.hpp:77] Creating layer conv8_2_relu
I1028 18:40:19.933320 21896 net.cpp:100] Creating Layer conv8_2_relu
I1028 18:40:19.933326 21896 net.cpp:478] conv8_2_relu <- conv8_2
I1028 18:40:19.933333 21896 net.cpp:439] conv8_2_relu -> conv8_2 (in-place)
I1028 18:40:19.933341 21896 net.cpp:150] Setting up conv8_2_relu
I1028 18:40:19.933346 21896 net.cpp:157] Top shape: 1 256 3 3 (2304)
I1028 18:40:19.933351 21896 net.cpp:165] Memory required for data: 235229216
I1028 18:40:19.933354 21896 layer_factory.hpp:77] Creating layer conv8_2_conv8_2_relu_0_split
I1028 18:40:19.933362 21896 net.cpp:100] Creating Layer conv8_2_conv8_2_relu_0_split
I1028 18:40:19.933365 21896 net.cpp:478] conv8_2_conv8_2_relu_0_split <- conv8_2
I1028 18:40:19.933373 21896 net.cpp:452] conv8_2_conv8_2_relu_0_split -> conv8_2_conv8_2_relu_0_split_0
I1028 18:40:19.933382 21896 net.cpp:452] conv8_2_conv8_2_relu_0_split -> conv8_2_conv8_2_relu_0_split_1
I1028 18:40:19.933390 21896 net.cpp:452] conv8_2_conv8_2_relu_0_split -> conv8_2_conv8_2_relu_0_split_2
I1028 18:40:19.933399 21896 net.cpp:452] conv8_2_conv8_2_relu_0_split -> conv8_2_conv8_2_relu_0_split_3
I1028 18:40:19.933447 21896 net.cpp:150] Setting up conv8_2_conv8_2_relu_0_split
I1028 18:40:19.933454 21896 net.cpp:157] Top shape: 1 256 3 3 (2304)
I1028 18:40:19.933459 21896 net.cpp:157] Top shape: 1 256 3 3 (2304)
I1028 18:40:19.933464 21896 net.cpp:157] Top shape: 1 256 3 3 (2304)
I1028 18:40:19.933478 21896 net.cpp:157] Top shape: 1 256 3 3 (2304)
I1028 18:40:19.933482 21896 net.cpp:165] Memory required for data: 235266080
I1028 18:40:19.933486 21896 layer_factory.hpp:77] Creating layer conv9_1
I1028 18:40:19.933497 21896 net.cpp:100] Creating Layer conv9_1
I1028 18:40:19.933501 21896 net.cpp:478] conv9_1 <- conv8_2_conv8_2_relu_0_split_0
I1028 18:40:19.933511 21896 net.cpp:452] conv9_1 -> conv9_1
I1028 18:40:19.933812 21896 net.cpp:150] Setting up conv9_1
I1028 18:40:19.933820 21896 net.cpp:157] Top shape: 1 128 3 3 (1152)
I1028 18:40:19.933825 21896 net.cpp:165] Memory required for data: 235270688
I1028 18:40:19.933830 21896 layer_factory.hpp:77] Creating layer conv9_1_relu
I1028 18:40:19.933837 21896 net.cpp:100] Creating Layer conv9_1_relu
I1028 18:40:19.933842 21896 net.cpp:478] conv9_1_relu <- conv9_1
I1028 18:40:19.933851 21896 net.cpp:439] conv9_1_relu -> conv9_1 (in-place)
I1028 18:40:19.933857 21896 net.cpp:150] Setting up conv9_1_relu
I1028 18:40:19.933862 21896 net.cpp:157] Top shape: 1 128 3 3 (1152)
I1028 18:40:19.933867 21896 net.cpp:165] Memory required for data: 235275296
I1028 18:40:19.933871 21896 layer_factory.hpp:77] Creating layer conv9_2
I1028 18:40:19.933881 21896 net.cpp:100] Creating Layer conv9_2
I1028 18:40:19.933884 21896 net.cpp:478] conv9_2 <- conv9_1
I1028 18:40:19.933892 21896 net.cpp:452] conv9_2 -> conv9_2
I1028 18:40:19.935792 21896 net.cpp:150] Setting up conv9_2
I1028 18:40:19.935804 21896 net.cpp:157] Top shape: 1 256 1 1 (256)
I1028 18:40:19.935807 21896 net.cpp:165] Memory required for data: 235276320
I1028 18:40:19.935814 21896 layer_factory.hpp:77] Creating layer conv9_2_relu
I1028 18:40:19.935823 21896 net.cpp:100] Creating Layer conv9_2_relu
I1028 18:40:19.935828 21896 net.cpp:478] conv9_2_relu <- conv9_2
I1028 18:40:19.935837 21896 net.cpp:439] conv9_2_relu -> conv9_2 (in-place)
I1028 18:40:19.935844 21896 net.cpp:150] Setting up conv9_2_relu
I1028 18:40:19.935850 21896 net.cpp:157] Top shape: 1 256 1 1 (256)
I1028 18:40:19.935854 21896 net.cpp:165] Memory required for data: 235277344
I1028 18:40:19.935858 21896 layer_factory.hpp:77] Creating layer conv9_2_conv9_2_relu_0_split
I1028 18:40:19.935864 21896 net.cpp:100] Creating Layer conv9_2_conv9_2_relu_0_split
I1028 18:40:19.935868 21896 net.cpp:478] conv9_2_conv9_2_relu_0_split <- conv9_2
I1028 18:40:19.935876 21896 net.cpp:452] conv9_2_conv9_2_relu_0_split -> conv9_2_conv9_2_relu_0_split_0
I1028 18:40:19.935884 21896 net.cpp:452] conv9_2_conv9_2_relu_0_split -> conv9_2_conv9_2_relu_0_split_1
I1028 18:40:19.935894 21896 net.cpp:452] conv9_2_conv9_2_relu_0_split -> conv9_2_conv9_2_relu_0_split_2
I1028 18:40:19.935931 21896 net.cpp:150] Setting up conv9_2_conv9_2_relu_0_split
I1028 18:40:19.935938 21896 net.cpp:157] Top shape: 1 256 1 1 (256)
I1028 18:40:19.935943 21896 net.cpp:157] Top shape: 1 256 1 1 (256)
I1028 18:40:19.935948 21896 net.cpp:157] Top shape: 1 256 1 1 (256)
I1028 18:40:19.935951 21896 net.cpp:165] Memory required for data: 235280416
I1028 18:40:19.935956 21896 layer_factory.hpp:77] Creating layer conv4_3_norm
I1028 18:40:19.935968 21896 net.cpp:100] Creating Layer conv4_3_norm
I1028 18:40:19.935973 21896 net.cpp:478] conv4_3_norm <- conv4_3_relu4_3_0_split_1
I1028 18:40:19.935981 21896 net.cpp:452] conv4_3_norm -> conv4_3_norm
I1028 18:40:19.936090 21896 net.cpp:150] Setting up conv4_3_norm
I1028 18:40:19.936097 21896 net.cpp:157] Top shape: 1 512 38 38 (739328)
I1028 18:40:19.936100 21896 net.cpp:165] Memory required for data: 238237728
I1028 18:40:19.936106 21896 layer_factory.hpp:77] Creating layer conv4_3_norm_conv4_3_norm_0_split
I1028 18:40:19.936113 21896 net.cpp:100] Creating Layer conv4_3_norm_conv4_3_norm_0_split
I1028 18:40:19.936118 21896 net.cpp:478] conv4_3_norm_conv4_3_norm_0_split <- conv4_3_norm
I1028 18:40:19.936125 21896 net.cpp:452] conv4_3_norm_conv4_3_norm_0_split -> conv4_3_norm_conv4_3_norm_0_split_0
I1028 18:40:19.936132 21896 net.cpp:452] conv4_3_norm_conv4_3_norm_0_split -> conv4_3_norm_conv4_3_norm_0_split_1
I1028 18:40:19.936141 21896 net.cpp:452] conv4_3_norm_conv4_3_norm_0_split -> conv4_3_norm_conv4_3_norm_0_split_2
I1028 18:40:19.936187 21896 net.cpp:150] Setting up conv4_3_norm_conv4_3_norm_0_split
I1028 18:40:19.936194 21896 net.cpp:157] Top shape: 1 512 38 38 (739328)
I1028 18:40:19.936199 21896 net.cpp:157] Top shape: 1 512 38 38 (739328)
I1028 18:40:19.936205 21896 net.cpp:157] Top shape: 1 512 38 38 (739328)
I1028 18:40:19.936208 21896 net.cpp:165] Memory required for data: 247109664
I1028 18:40:19.936213 21896 layer_factory.hpp:77] Creating layer conv4_3_norm_mbox_loc
I1028 18:40:19.936221 21896 net.cpp:100] Creating Layer conv4_3_norm_mbox_loc
I1028 18:40:19.936225 21896 net.cpp:478] conv4_3_norm_mbox_loc <- conv4_3_norm_conv4_3_norm_0_split_0
I1028 18:40:19.936234 21896 net.cpp:452] conv4_3_norm_mbox_loc -> conv4_3_norm_mbox_loc
I1028 18:40:19.936731 21896 net.cpp:150] Setting up conv4_3_norm_mbox_loc
I1028 18:40:19.936739 21896 net.cpp:157] Top shape: 1 16 38 38 (23104)
I1028 18:40:19.936743 21896 net.cpp:165] Memory required for data: 247202080
I1028 18:40:19.936749 21896 layer_factory.hpp:77] Creating layer conv4_3_norm_mbox_loc_perm
I1028 18:40:19.936760 21896 net.cpp:100] Creating Layer conv4_3_norm_mbox_loc_perm
I1028 18:40:19.936764 21896 net.cpp:478] conv4_3_norm_mbox_loc_perm <- conv4_3_norm_mbox_loc
I1028 18:40:19.936771 21896 net.cpp:452] conv4_3_norm_mbox_loc_perm -> conv4_3_norm_mbox_loc_perm
I1028 18:40:19.936846 21896 net.cpp:150] Setting up conv4_3_norm_mbox_loc_perm
I1028 18:40:19.936852 21896 net.cpp:157] Top shape: 1 38 38 16 (23104)
I1028 18:40:19.936856 21896 net.cpp:165] Memory required for data: 247294496
I1028 18:40:19.936859 21896 layer_factory.hpp:77] Creating layer conv4_3_norm_mbox_loc_flat
I1028 18:40:19.936867 21896 net.cpp:100] Creating Layer conv4_3_norm_mbox_loc_flat
I1028 18:40:19.936872 21896 net.cpp:478] conv4_3_norm_mbox_loc_flat <- conv4_3_norm_mbox_loc_perm
I1028 18:40:19.936878 21896 net.cpp:452] conv4_3_norm_mbox_loc_flat -> conv4_3_norm_mbox_loc_flat
I1028 18:40:19.936910 21896 net.cpp:150] Setting up conv4_3_norm_mbox_loc_flat
I1028 18:40:19.936918 21896 net.cpp:157] Top shape: 1 23104 (23104)
I1028 18:40:19.936920 21896 net.cpp:165] Memory required for data: 247386912
I1028 18:40:19.936924 21896 layer_factory.hpp:77] Creating layer conv4_3_norm_mbox_conf
I1028 18:40:19.936941 21896 net.cpp:100] Creating Layer conv4_3_norm_mbox_conf
I1028 18:40:19.936945 21896 net.cpp:478] conv4_3_norm_mbox_conf <- conv4_3_norm_conv4_3_norm_0_split_1
I1028 18:40:19.936954 21896 net.cpp:452] conv4_3_norm_mbox_conf -> conv4_3_norm_mbox_conf
I1028 18:40:19.939342 21896 net.cpp:150] Setting up conv4_3_norm_mbox_conf
I1028 18:40:19.939354 21896 net.cpp:157] Top shape: 1 84 38 38 (121296)
I1028 18:40:19.939358 21896 net.cpp:165] Memory required for data: 247872096
I1028 18:40:19.939366 21896 layer_factory.hpp:77] Creating layer conv4_3_norm_mbox_conf_perm
I1028 18:40:19.939376 21896 net.cpp:100] Creating Layer conv4_3_norm_mbox_conf_perm
I1028 18:40:19.939381 21896 net.cpp:478] conv4_3_norm_mbox_conf_perm <- conv4_3_norm_mbox_conf
I1028 18:40:19.939388 21896 net.cpp:452] conv4_3_norm_mbox_conf_perm -> conv4_3_norm_mbox_conf_perm
I1028 18:40:19.939461 21896 net.cpp:150] Setting up conv4_3_norm_mbox_conf_perm
I1028 18:40:19.939468 21896 net.cpp:157] Top shape: 1 38 38 84 (121296)
I1028 18:40:19.939471 21896 net.cpp:165] Memory required for data: 248357280
I1028 18:40:19.939476 21896 layer_factory.hpp:77] Creating layer conv4_3_norm_mbox_conf_flat
I1028 18:40:19.939483 21896 net.cpp:100] Creating Layer conv4_3_norm_mbox_conf_flat
I1028 18:40:19.939488 21896 net.cpp:478] conv4_3_norm_mbox_conf_flat <- conv4_3_norm_mbox_conf_perm
I1028 18:40:19.939494 21896 net.cpp:452] conv4_3_norm_mbox_conf_flat -> conv4_3_norm_mbox_conf_flat
I1028 18:40:19.939517 21896 net.cpp:150] Setting up conv4_3_norm_mbox_conf_flat
I1028 18:40:19.939523 21896 net.cpp:157] Top shape: 1 121296 (121296)
I1028 18:40:19.939527 21896 net.cpp:165] Memory required for data: 248842464
I1028 18:40:19.939530 21896 layer_factory.hpp:77] Creating layer conv4_3_norm_mbox_priorbox
I1028 18:40:19.939551 21896 net.cpp:100] Creating Layer conv4_3_norm_mbox_priorbox
I1028 18:40:19.939558 21896 net.cpp:478] conv4_3_norm_mbox_priorbox <- conv4_3_norm_conv4_3_norm_0_split_2
I1028 18:40:19.939563 21896 net.cpp:478] conv4_3_norm_mbox_priorbox <- data_data_0_split_1
I1028 18:40:19.939570 21896 net.cpp:452] conv4_3_norm_mbox_priorbox -> conv4_3_norm_mbox_priorbox
I1028 18:40:19.939597 21896 net.cpp:150] Setting up conv4_3_norm_mbox_priorbox
I1028 18:40:19.939604 21896 net.cpp:157] Top shape: 1 2 23104 (46208)
I1028 18:40:19.939609 21896 net.cpp:165] Memory required for data: 249027296
I1028 18:40:19.939611 21896 layer_factory.hpp:77] Creating layer fc7_mbox_loc
I1028 18:40:19.939621 21896 net.cpp:100] Creating Layer fc7_mbox_loc
I1028 18:40:19.939626 21896 net.cpp:478] fc7_mbox_loc <- fc7_relu7_0_split_1
I1028 18:40:19.939636 21896 net.cpp:452] fc7_mbox_loc -> fc7_mbox_loc
I1028 18:40:19.941197 21896 net.cpp:150] Setting up fc7_mbox_loc
I1028 18:40:19.941207 21896 net.cpp:157] Top shape: 1 24 19 19 (8664)
I1028 18:40:19.941211 21896 net.cpp:165] Memory required for data: 249061952
I1028 18:40:19.941218 21896 layer_factory.hpp:77] Creating layer fc7_mbox_loc_perm
I1028 18:40:19.941228 21896 net.cpp:100] Creating Layer fc7_mbox_loc_perm
I1028 18:40:19.941234 21896 net.cpp:478] fc7_mbox_loc_perm <- fc7_mbox_loc
I1028 18:40:19.941241 21896 net.cpp:452] fc7_mbox_loc_perm -> fc7_mbox_loc_perm
I1028 18:40:19.941314 21896 net.cpp:150] Setting up fc7_mbox_loc_perm
I1028 18:40:19.941321 21896 net.cpp:157] Top shape: 1 19 19 24 (8664)
I1028 18:40:19.941325 21896 net.cpp:165] Memory required for data: 249096608
I1028 18:40:19.941329 21896 layer_factory.hpp:77] Creating layer fc7_mbox_loc_flat
I1028 18:40:19.941334 21896 net.cpp:100] Creating Layer fc7_mbox_loc_flat
I1028 18:40:19.941339 21896 net.cpp:478] fc7_mbox_loc_flat <- fc7_mbox_loc_perm
I1028 18:40:19.941347 21896 net.cpp:452] fc7_mbox_loc_flat -> fc7_mbox_loc_flat
I1028 18:40:19.941370 21896 net.cpp:150] Setting up fc7_mbox_loc_flat
I1028 18:40:19.941375 21896 net.cpp:157] Top shape: 1 8664 (8664)
I1028 18:40:19.941378 21896 net.cpp:165] Memory required for data: 249131264
I1028 18:40:19.941381 21896 layer_factory.hpp:77] Creating layer fc7_mbox_conf
I1028 18:40:19.941391 21896 net.cpp:100] Creating Layer fc7_mbox_conf
I1028 18:40:19.941396 21896 net.cpp:478] fc7_mbox_conf <- fc7_relu7_0_split_2
I1028 18:40:19.941406 21896 net.cpp:452] fc7_mbox_conf -> fc7_mbox_conf
I1028 18:40:19.947903 21896 net.cpp:150] Setting up fc7_mbox_conf
I1028 18:40:19.947926 21896 net.cpp:157] Top shape: 1 126 19 19 (45486)
I1028 18:40:19.947930 21896 net.cpp:165] Memory required for data: 249313208
I1028 18:40:19.947940 21896 layer_factory.hpp:77] Creating layer fc7_mbox_conf_perm
I1028 18:40:19.947952 21896 net.cpp:100] Creating Layer fc7_mbox_conf_perm
I1028 18:40:19.947959 21896 net.cpp:478] fc7_mbox_conf_perm <- fc7_mbox_conf
I1028 18:40:19.947970 21896 net.cpp:452] fc7_mbox_conf_perm -> fc7_mbox_conf_perm
I1028 18:40:19.948050 21896 net.cpp:150] Setting up fc7_mbox_conf_perm
I1028 18:40:19.948057 21896 net.cpp:157] Top shape: 1 19 19 126 (45486)
I1028 18:40:19.948061 21896 net.cpp:165] Memory required for data: 249495152
I1028 18:40:19.948065 21896 layer_factory.hpp:77] Creating layer fc7_mbox_conf_flat
I1028 18:40:19.948072 21896 net.cpp:100] Creating Layer fc7_mbox_conf_flat
I1028 18:40:19.948077 21896 net.cpp:478] fc7_mbox_conf_flat <- fc7_mbox_conf_perm
I1028 18:40:19.948084 21896 net.cpp:452] fc7_mbox_conf_flat -> fc7_mbox_conf_flat
I1028 18:40:19.948110 21896 net.cpp:150] Setting up fc7_mbox_conf_flat
I1028 18:40:19.948117 21896 net.cpp:157] Top shape: 1 45486 (45486)
I1028 18:40:19.948120 21896 net.cpp:165] Memory required for data: 249677096
I1028 18:40:19.948123 21896 layer_factory.hpp:77] Creating layer fc7_mbox_priorbox
I1028 18:40:19.948132 21896 net.cpp:100] Creating Layer fc7_mbox_priorbox
I1028 18:40:19.948137 21896 net.cpp:478] fc7_mbox_priorbox <- fc7_relu7_0_split_3
I1028 18:40:19.948141 21896 net.cpp:478] fc7_mbox_priorbox <- data_data_0_split_2
I1028 18:40:19.948151 21896 net.cpp:452] fc7_mbox_priorbox -> fc7_mbox_priorbox
I1028 18:40:19.948192 21896 net.cpp:150] Setting up fc7_mbox_priorbox
I1028 18:40:19.948199 21896 net.cpp:157] Top shape: 1 2 8664 (17328)
I1028 18:40:19.948204 21896 net.cpp:165] Memory required for data: 249746408
I1028 18:40:19.948206 21896 layer_factory.hpp:77] Creating layer conv6_2_mbox_loc
I1028 18:40:19.948220 21896 net.cpp:100] Creating Layer conv6_2_mbox_loc
I1028 18:40:19.948225 21896 net.cpp:478] conv6_2_mbox_loc <- conv6_2_conv6_2_relu_0_split_1
I1028 18:40:19.948235 21896 net.cpp:452] conv6_2_mbox_loc -> conv6_2_mbox_loc
I1028 18:40:19.949384 21896 net.cpp:150] Setting up conv6_2_mbox_loc
I1028 18:40:19.949395 21896 net.cpp:157] Top shape: 1 24 10 10 (2400)
I1028 18:40:19.949398 21896 net.cpp:165] Memory required for data: 249756008
I1028 18:40:19.949405 21896 layer_factory.hpp:77] Creating layer conv6_2_mbox_loc_perm
I1028 18:40:19.949416 21896 net.cpp:100] Creating Layer conv6_2_mbox_loc_perm
I1028 18:40:19.949421 21896 net.cpp:478] conv6_2_mbox_loc_perm <- conv6_2_mbox_loc
I1028 18:40:19.949429 21896 net.cpp:452] conv6_2_mbox_loc_perm -> conv6_2_mbox_loc_perm
I1028 18:40:19.949503 21896 net.cpp:150] Setting up conv6_2_mbox_loc_perm
I1028 18:40:19.949510 21896 net.cpp:157] Top shape: 1 10 10 24 (2400)
I1028 18:40:19.949514 21896 net.cpp:165] Memory required for data: 249765608
I1028 18:40:19.949517 21896 layer_factory.hpp:77] Creating layer conv6_2_mbox_loc_flat
I1028 18:40:19.949523 21896 net.cpp:100] Creating Layer conv6_2_mbox_loc_flat
I1028 18:40:19.949529 21896 net.cpp:478] conv6_2_mbox_loc_flat <- conv6_2_mbox_loc_perm
I1028 18:40:19.949537 21896 net.cpp:452] conv6_2_mbox_loc_flat -> conv6_2_mbox_loc_flat
I1028 18:40:19.949560 21896 net.cpp:150] Setting up conv6_2_mbox_loc_flat
I1028 18:40:19.949566 21896 net.cpp:157] Top shape: 1 2400 (2400)
I1028 18:40:19.949569 21896 net.cpp:165] Memory required for data: 249775208
I1028 18:40:19.949573 21896 layer_factory.hpp:77] Creating layer conv6_2_mbox_conf
I1028 18:40:19.949584 21896 net.cpp:100] Creating Layer conv6_2_mbox_conf
I1028 18:40:19.949589 21896 net.cpp:478] conv6_2_mbox_conf <- conv6_2_conv6_2_relu_0_split_2
I1028 18:40:19.949596 21896 net.cpp:452] conv6_2_mbox_conf -> conv6_2_mbox_conf
I1028 18:40:19.952972 21896 net.cpp:150] Setting up conv6_2_mbox_conf
I1028 18:40:19.952987 21896 net.cpp:157] Top shape: 1 126 10 10 (12600)
I1028 18:40:19.952991 21896 net.cpp:165] Memory required for data: 249825608
I1028 18:40:19.952998 21896 layer_factory.hpp:77] Creating layer conv6_2_mbox_conf_perm
I1028 18:40:19.953007 21896 net.cpp:100] Creating Layer conv6_2_mbox_conf_perm
I1028 18:40:19.953013 21896 net.cpp:478] conv6_2_mbox_conf_perm <- conv6_2_mbox_conf
I1028 18:40:19.953022 21896 net.cpp:452] conv6_2_mbox_conf_perm -> conv6_2_mbox_conf_perm
I1028 18:40:19.953099 21896 net.cpp:150] Setting up conv6_2_mbox_conf_perm
I1028 18:40:19.953104 21896 net.cpp:157] Top shape: 1 10 10 126 (12600)
I1028 18:40:19.953109 21896 net.cpp:165] Memory required for data: 249876008
I1028 18:40:19.953112 21896 layer_factory.hpp:77] Creating layer conv6_2_mbox_conf_flat
I1028 18:40:19.953120 21896 net.cpp:100] Creating Layer conv6_2_mbox_conf_flat
I1028 18:40:19.953125 21896 net.cpp:478] conv6_2_mbox_conf_flat <- conv6_2_mbox_conf_perm
I1028 18:40:19.953131 21896 net.cpp:452] conv6_2_mbox_conf_flat -> conv6_2_mbox_conf_flat
I1028 18:40:19.953157 21896 net.cpp:150] Setting up conv6_2_mbox_conf_flat
I1028 18:40:19.953163 21896 net.cpp:157] Top shape: 1 12600 (12600)
I1028 18:40:19.953167 21896 net.cpp:165] Memory required for data: 249926408
I1028 18:40:19.953171 21896 layer_factory.hpp:77] Creating layer conv6_2_mbox_priorbox
I1028 18:40:19.953179 21896 net.cpp:100] Creating Layer conv6_2_mbox_priorbox
I1028 18:40:19.953184 21896 net.cpp:478] conv6_2_mbox_priorbox <- conv6_2_conv6_2_relu_0_split_3
I1028 18:40:19.953191 21896 net.cpp:478] conv6_2_mbox_priorbox <- data_data_0_split_3
I1028 18:40:19.953197 21896 net.cpp:452] conv6_2_mbox_priorbox -> conv6_2_mbox_priorbox
I1028 18:40:19.953223 21896 net.cpp:150] Setting up conv6_2_mbox_priorbox
I1028 18:40:19.953240 21896 net.cpp:157] Top shape: 1 2 2400 (4800)
I1028 18:40:19.953244 21896 net.cpp:165] Memory required for data: 249945608
I1028 18:40:19.953248 21896 layer_factory.hpp:77] Creating layer conv7_2_mbox_loc
I1028 18:40:19.953258 21896 net.cpp:100] Creating Layer conv7_2_mbox_loc
I1028 18:40:19.953263 21896 net.cpp:478] conv7_2_mbox_loc <- conv7_2_conv7_2_relu_0_split_1
I1028 18:40:19.953272 21896 net.cpp:452] conv7_2_mbox_loc -> conv7_2_mbox_loc
I1028 18:40:19.954125 21896 net.cpp:150] Setting up conv7_2_mbox_loc
I1028 18:40:19.954138 21896 net.cpp:157] Top shape: 1 24 5 5 (600)
I1028 18:40:19.954140 21896 net.cpp:165] Memory required for data: 249948008
I1028 18:40:19.954149 21896 layer_factory.hpp:77] Creating layer conv7_2_mbox_loc_perm
I1028 18:40:19.954159 21896 net.cpp:100] Creating Layer conv7_2_mbox_loc_perm
I1028 18:40:19.954164 21896 net.cpp:478] conv7_2_mbox_loc_perm <- conv7_2_mbox_loc
I1028 18:40:19.954171 21896 net.cpp:452] conv7_2_mbox_loc_perm -> conv7_2_mbox_loc_perm
I1028 18:40:19.954246 21896 net.cpp:150] Setting up conv7_2_mbox_loc_perm
I1028 18:40:19.954252 21896 net.cpp:157] Top shape: 1 5 5 24 (600)
I1028 18:40:19.954255 21896 net.cpp:165] Memory required for data: 249950408
I1028 18:40:19.954259 21896 layer_factory.hpp:77] Creating layer conv7_2_mbox_loc_flat
I1028 18:40:19.954267 21896 net.cpp:100] Creating Layer conv7_2_mbox_loc_flat
I1028 18:40:19.954272 21896 net.cpp:478] conv7_2_mbox_loc_flat <- conv7_2_mbox_loc_perm
I1028 18:40:19.954278 21896 net.cpp:452] conv7_2_mbox_loc_flat -> conv7_2_mbox_loc_flat
I1028 18:40:19.954301 21896 net.cpp:150] Setting up conv7_2_mbox_loc_flat
I1028 18:40:19.954308 21896 net.cpp:157] Top shape: 1 600 (600)
I1028 18:40:19.954310 21896 net.cpp:165] Memory required for data: 249952808
I1028 18:40:19.954313 21896 layer_factory.hpp:77] Creating layer conv7_2_mbox_conf
I1028 18:40:19.954324 21896 net.cpp:100] Creating Layer conv7_2_mbox_conf
I1028 18:40:19.954329 21896 net.cpp:478] conv7_2_mbox_conf <- conv7_2_conv7_2_relu_0_split_2
I1028 18:40:19.954336 21896 net.cpp:452] conv7_2_mbox_conf -> conv7_2_mbox_conf
I1028 18:40:19.956246 21896 net.cpp:150] Setting up conv7_2_mbox_conf
I1028 18:40:19.956257 21896 net.cpp:157] Top shape: 1 126 5 5 (3150)
I1028 18:40:19.956261 21896 net.cpp:165] Memory required for data: 249965408
I1028 18:40:19.956269 21896 layer_factory.hpp:77] Creating layer conv7_2_mbox_conf_perm
I1028 18:40:19.956279 21896 net.cpp:100] Creating Layer conv7_2_mbox_conf_perm
I1028 18:40:19.956284 21896 net.cpp:478] conv7_2_mbox_conf_perm <- conv7_2_mbox_conf
I1028 18:40:19.956291 21896 net.cpp:452] conv7_2_mbox_conf_perm -> conv7_2_mbox_conf_perm
I1028 18:40:19.956377 21896 net.cpp:150] Setting up conv7_2_mbox_conf_perm
I1028 18:40:19.956383 21896 net.cpp:157] Top shape: 1 5 5 126 (3150)
I1028 18:40:19.956387 21896 net.cpp:165] Memory required for data: 249978008
I1028 18:40:19.956389 21896 layer_factory.hpp:77] Creating layer conv7_2_mbox_conf_flat
I1028 18:40:19.956398 21896 net.cpp:100] Creating Layer conv7_2_mbox_conf_flat
I1028 18:40:19.956403 21896 net.cpp:478] conv7_2_mbox_conf_flat <- conv7_2_mbox_conf_perm
I1028 18:40:19.956408 21896 net.cpp:452] conv7_2_mbox_conf_flat -> conv7_2_mbox_conf_flat
I1028 18:40:19.956432 21896 net.cpp:150] Setting up conv7_2_mbox_conf_flat
I1028 18:40:19.956439 21896 net.cpp:157] Top shape: 1 3150 (3150)
I1028 18:40:19.956442 21896 net.cpp:165] Memory required for data: 249990608
I1028 18:40:19.956446 21896 layer_factory.hpp:77] Creating layer conv7_2_mbox_priorbox
I1028 18:40:19.956455 21896 net.cpp:100] Creating Layer conv7_2_mbox_priorbox
I1028 18:40:19.956459 21896 net.cpp:478] conv7_2_mbox_priorbox <- conv7_2_conv7_2_relu_0_split_3
I1028 18:40:19.956465 21896 net.cpp:478] conv7_2_mbox_priorbox <- data_data_0_split_4
I1028 18:40:19.956472 21896 net.cpp:452] conv7_2_mbox_priorbox -> conv7_2_mbox_priorbox
I1028 18:40:19.956498 21896 net.cpp:150] Setting up conv7_2_mbox_priorbox
I1028 18:40:19.956504 21896 net.cpp:157] Top shape: 1 2 600 (1200)
I1028 18:40:19.956508 21896 net.cpp:165] Memory required for data: 249995408
I1028 18:40:19.956535 21896 layer_factory.hpp:77] Creating layer conv8_2_mbox_loc
I1028 18:40:19.956553 21896 net.cpp:100] Creating Layer conv8_2_mbox_loc
I1028 18:40:19.956559 21896 net.cpp:478] conv8_2_mbox_loc <- conv8_2_conv8_2_relu_0_split_1
I1028 18:40:19.956571 21896 net.cpp:452] conv8_2_mbox_loc -> conv8_2_mbox_loc
I1028 18:40:19.957003 21896 net.cpp:150] Setting up conv8_2_mbox_loc
I1028 18:40:19.957013 21896 net.cpp:157] Top shape: 1 16 3 3 (144)
I1028 18:40:19.957016 21896 net.cpp:165] Memory required for data: 249995984
I1028 18:40:19.957033 21896 layer_factory.hpp:77] Creating layer conv8_2_mbox_loc_perm
I1028 18:40:19.957042 21896 net.cpp:100] Creating Layer conv8_2_mbox_loc_perm
I1028 18:40:19.957047 21896 net.cpp:478] conv8_2_mbox_loc_perm <- conv8_2_mbox_loc
I1028 18:40:19.957056 21896 net.cpp:452] conv8_2_mbox_loc_perm -> conv8_2_mbox_loc_perm
I1028 18:40:19.957132 21896 net.cpp:150] Setting up conv8_2_mbox_loc_perm
I1028 18:40:19.957139 21896 net.cpp:157] Top shape: 1 3 3 16 (144)
I1028 18:40:19.957142 21896 net.cpp:165] Memory required for data: 249996560
I1028 18:40:19.957146 21896 layer_factory.hpp:77] Creating layer conv8_2_mbox_loc_flat
I1028 18:40:19.957152 21896 net.cpp:100] Creating Layer conv8_2_mbox_loc_flat
I1028 18:40:19.957157 21896 net.cpp:478] conv8_2_mbox_loc_flat <- conv8_2_mbox_loc_perm
I1028 18:40:19.957167 21896 net.cpp:452] conv8_2_mbox_loc_flat -> conv8_2_mbox_loc_flat
I1028 18:40:19.957190 21896 net.cpp:150] Setting up conv8_2_mbox_loc_flat
I1028 18:40:19.957195 21896 net.cpp:157] Top shape: 1 144 (144)
I1028 18:40:19.957198 21896 net.cpp:165] Memory required for data: 249997136
I1028 18:40:19.957201 21896 layer_factory.hpp:77] Creating layer conv8_2_mbox_conf
I1028 18:40:19.957212 21896 net.cpp:100] Creating Layer conv8_2_mbox_conf
I1028 18:40:19.957216 21896 net.cpp:478] conv8_2_mbox_conf <- conv8_2_conv8_2_relu_0_split_2
I1028 18:40:19.957224 21896 net.cpp:452] conv8_2_mbox_conf -> conv8_2_mbox_conf
I1028 18:40:19.958863 21896 net.cpp:150] Setting up conv8_2_mbox_conf
I1028 18:40:19.958879 21896 net.cpp:157] Top shape: 1 84 3 3 (756)
I1028 18:40:19.958884 21896 net.cpp:165] Memory required for data: 250000160
I1028 18:40:19.958900 21896 layer_factory.hpp:77] Creating layer conv8_2_mbox_conf_perm
I1028 18:40:19.958909 21896 net.cpp:100] Creating Layer conv8_2_mbox_conf_perm
I1028 18:40:19.958914 21896 net.cpp:478] conv8_2_mbox_conf_perm <- conv8_2_mbox_conf
I1028 18:40:19.958923 21896 net.cpp:452] conv8_2_mbox_conf_perm -> conv8_2_mbox_conf_perm
I1028 18:40:19.959010 21896 net.cpp:150] Setting up conv8_2_mbox_conf_perm
I1028 18:40:19.959017 21896 net.cpp:157] Top shape: 1 3 3 84 (756)
I1028 18:40:19.959020 21896 net.cpp:165] Memory required for data: 250003184
I1028 18:40:19.959033 21896 layer_factory.hpp:77] Creating layer conv8_2_mbox_conf_flat
I1028 18:40:19.959040 21896 net.cpp:100] Creating Layer conv8_2_mbox_conf_flat
I1028 18:40:19.959046 21896 net.cpp:478] conv8_2_mbox_conf_flat <- conv8_2_mbox_conf_perm
I1028 18:40:19.959053 21896 net.cpp:452] conv8_2_mbox_conf_flat -> conv8_2_mbox_conf_flat
I1028 18:40:19.959076 21896 net.cpp:150] Setting up conv8_2_mbox_conf_flat
I1028 18:40:19.959082 21896 net.cpp:157] Top shape: 1 756 (756)
I1028 18:40:19.959085 21896 net.cpp:165] Memory required for data: 250006208
I1028 18:40:19.959089 21896 layer_factory.hpp:77] Creating layer conv8_2_mbox_priorbox
I1028 18:40:19.959100 21896 net.cpp:100] Creating Layer conv8_2_mbox_priorbox
I1028 18:40:19.959105 21896 net.cpp:478] conv8_2_mbox_priorbox <- conv8_2_conv8_2_relu_0_split_3
I1028 18:40:19.959110 21896 net.cpp:478] conv8_2_mbox_priorbox <- data_data_0_split_5
I1028 18:40:19.959117 21896 net.cpp:452] conv8_2_mbox_priorbox -> conv8_2_mbox_priorbox
I1028 18:40:19.959144 21896 net.cpp:150] Setting up conv8_2_mbox_priorbox
I1028 18:40:19.959151 21896 net.cpp:157] Top shape: 1 2 144 (288)
I1028 18:40:19.959154 21896 net.cpp:165] Memory required for data: 250007360
I1028 18:40:19.959158 21896 layer_factory.hpp:77] Creating layer conv9_2_mbox_loc
I1028 18:40:19.959184 21896 net.cpp:100] Creating Layer conv9_2_mbox_loc
I1028 18:40:19.959190 21896 net.cpp:478] conv9_2_mbox_loc <- conv9_2_conv9_2_relu_0_split_0
I1028 18:40:19.959199 21896 net.cpp:452] conv9_2_mbox_loc -> conv9_2_mbox_loc
I1028 18:40:19.959542 21896 net.cpp:150] Setting up conv9_2_mbox_loc
I1028 18:40:19.959549 21896 net.cpp:157] Top shape: 1 16 1 1 (16)
I1028 18:40:19.959553 21896 net.cpp:165] Memory required for data: 250007424
I1028 18:40:19.959559 21896 layer_factory.hpp:77] Creating layer conv9_2_mbox_loc_perm
I1028 18:40:19.959566 21896 net.cpp:100] Creating Layer conv9_2_mbox_loc_perm
I1028 18:40:19.959573 21896 net.cpp:478] conv9_2_mbox_loc_perm <- conv9_2_mbox_loc
I1028 18:40:19.959580 21896 net.cpp:452] conv9_2_mbox_loc_perm -> conv9_2_mbox_loc_perm
I1028 18:40:19.959656 21896 net.cpp:150] Setting up conv9_2_mbox_loc_perm
I1028 18:40:19.959663 21896 net.cpp:157] Top shape: 1 1 1 16 (16)
I1028 18:40:19.959666 21896 net.cpp:165] Memory required for data: 250007488
I1028 18:40:19.959671 21896 layer_factory.hpp:77] Creating layer conv9_2_mbox_loc_flat
I1028 18:40:19.959676 21896 net.cpp:100] Creating Layer conv9_2_mbox_loc_flat
I1028 18:40:19.959682 21896 net.cpp:478] conv9_2_mbox_loc_flat <- conv9_2_mbox_loc_perm
I1028 18:40:19.959688 21896 net.cpp:452] conv9_2_mbox_loc_flat -> conv9_2_mbox_loc_flat
I1028 18:40:19.959712 21896 net.cpp:150] Setting up conv9_2_mbox_loc_flat
I1028 18:40:19.959718 21896 net.cpp:157] Top shape: 1 16 (16)
I1028 18:40:19.959722 21896 net.cpp:165] Memory required for data: 250007552
I1028 18:40:19.959725 21896 layer_factory.hpp:77] Creating layer conv9_2_mbox_conf
I1028 18:40:19.959735 21896 net.cpp:100] Creating Layer conv9_2_mbox_conf
I1028 18:40:19.959739 21896 net.cpp:478] conv9_2_mbox_conf <- conv9_2_conv9_2_relu_0_split_1
I1028 18:40:19.959748 21896 net.cpp:452] conv9_2_mbox_conf -> conv9_2_mbox_conf
I1028 18:40:19.961233 21896 net.cpp:150] Setting up conv9_2_mbox_conf
I1028 18:40:19.961243 21896 net.cpp:157] Top shape: 1 84 1 1 (84)
I1028 18:40:19.961247 21896 net.cpp:165] Memory required for data: 250007888
I1028 18:40:19.961254 21896 layer_factory.hpp:77] Creating layer conv9_2_mbox_conf_perm
I1028 18:40:19.961264 21896 net.cpp:100] Creating Layer conv9_2_mbox_conf_perm
I1028 18:40:19.961269 21896 net.cpp:478] conv9_2_mbox_conf_perm <- conv9_2_mbox_conf
I1028 18:40:19.961277 21896 net.cpp:452] conv9_2_mbox_conf_perm -> conv9_2_mbox_conf_perm
I1028 18:40:19.961352 21896 net.cpp:150] Setting up conv9_2_mbox_conf_perm
I1028 18:40:19.961359 21896 net.cpp:157] Top shape: 1 1 1 84 (84)
I1028 18:40:19.961364 21896 net.cpp:165] Memory required for data: 250008224
I1028 18:40:19.961366 21896 layer_factory.hpp:77] Creating layer conv9_2_mbox_conf_flat
I1028 18:40:19.961372 21896 net.cpp:100] Creating Layer conv9_2_mbox_conf_flat
I1028 18:40:19.961378 21896 net.cpp:478] conv9_2_mbox_conf_flat <- conv9_2_mbox_conf_perm
I1028 18:40:19.961386 21896 net.cpp:452] conv9_2_mbox_conf_flat -> conv9_2_mbox_conf_flat
I1028 18:40:19.961410 21896 net.cpp:150] Setting up conv9_2_mbox_conf_flat
I1028 18:40:19.961416 21896 net.cpp:157] Top shape: 1 84 (84)
I1028 18:40:19.961418 21896 net.cpp:165] Memory required for data: 250008560
I1028 18:40:19.961422 21896 layer_factory.hpp:77] Creating layer conv9_2_mbox_priorbox
I1028 18:40:19.961431 21896 net.cpp:100] Creating Layer conv9_2_mbox_priorbox
I1028 18:40:19.961434 21896 net.cpp:478] conv9_2_mbox_priorbox <- conv9_2_conv9_2_relu_0_split_2
I1028 18:40:19.961441 21896 net.cpp:478] conv9_2_mbox_priorbox <- data_data_0_split_6
I1028 18:40:19.961449 21896 net.cpp:452] conv9_2_mbox_priorbox -> conv9_2_mbox_priorbox
I1028 18:40:19.961473 21896 net.cpp:150] Setting up conv9_2_mbox_priorbox
I1028 18:40:19.961479 21896 net.cpp:157] Top shape: 1 2 16 (32)
I1028 18:40:19.961483 21896 net.cpp:165] Memory required for data: 250008688
I1028 18:40:19.961486 21896 layer_factory.hpp:77] Creating layer mbox_loc
I1028 18:40:19.961495 21896 net.cpp:100] Creating Layer mbox_loc
I1028 18:40:19.961500 21896 net.cpp:478] mbox_loc <- conv4_3_norm_mbox_loc_flat
I1028 18:40:19.961519 21896 net.cpp:478] mbox_loc <- fc7_mbox_loc_flat
I1028 18:40:19.961526 21896 net.cpp:478] mbox_loc <- conv6_2_mbox_loc_flat
I1028 18:40:19.961534 21896 net.cpp:478] mbox_loc <- conv7_2_mbox_loc_flat
I1028 18:40:19.961539 21896 net.cpp:478] mbox_loc <- conv8_2_mbox_loc_flat
I1028 18:40:19.961545 21896 net.cpp:478] mbox_loc <- conv9_2_mbox_loc_flat
I1028 18:40:19.961554 21896 net.cpp:452] mbox_loc -> mbox_loc
I1028 18:40:19.961581 21896 net.cpp:150] Setting up mbox_loc
I1028 18:40:19.961588 21896 net.cpp:157] Top shape: 1 34928 (34928)
I1028 18:40:19.961591 21896 net.cpp:165] Memory required for data: 250148400
I1028 18:40:19.961594 21896 layer_factory.hpp:77] Creating layer mbox_conf
I1028 18:40:19.961601 21896 net.cpp:100] Creating Layer mbox_conf
I1028 18:40:19.961606 21896 net.cpp:478] mbox_conf <- conv4_3_norm_mbox_conf_flat
I1028 18:40:19.961612 21896 net.cpp:478] mbox_conf <- fc7_mbox_conf_flat
I1028 18:40:19.961618 21896 net.cpp:478] mbox_conf <- conv6_2_mbox_conf_flat
I1028 18:40:19.961624 21896 net.cpp:478] mbox_conf <- conv7_2_mbox_conf_flat
I1028 18:40:19.961630 21896 net.cpp:478] mbox_conf <- conv8_2_mbox_conf_flat
I1028 18:40:19.961635 21896 net.cpp:478] mbox_conf <- conv9_2_mbox_conf_flat
I1028 18:40:19.961643 21896 net.cpp:452] mbox_conf -> mbox_conf
I1028 18:40:19.961665 21896 net.cpp:150] Setting up mbox_conf
I1028 18:40:19.961671 21896 net.cpp:157] Top shape: 1 183372 (183372)
I1028 18:40:19.961674 21896 net.cpp:165] Memory required for data: 250881888
I1028 18:40:19.961678 21896 layer_factory.hpp:77] Creating layer mbox_priorbox
I1028 18:40:19.961684 21896 net.cpp:100] Creating Layer mbox_priorbox
I1028 18:40:19.961689 21896 net.cpp:478] mbox_priorbox <- conv4_3_norm_mbox_priorbox
I1028 18:40:19.961694 21896 net.cpp:478] mbox_priorbox <- fc7_mbox_priorbox
I1028 18:40:19.961700 21896 net.cpp:478] mbox_priorbox <- conv6_2_mbox_priorbox
I1028 18:40:19.961705 21896 net.cpp:478] mbox_priorbox <- conv7_2_mbox_priorbox
I1028 18:40:19.961711 21896 net.cpp:478] mbox_priorbox <- conv8_2_mbox_priorbox
I1028 18:40:19.961715 21896 net.cpp:478] mbox_priorbox <- conv9_2_mbox_priorbox
I1028 18:40:19.961724 21896 net.cpp:452] mbox_priorbox -> mbox_priorbox
I1028 18:40:19.961745 21896 net.cpp:150] Setting up mbox_priorbox
I1028 18:40:19.961752 21896 net.cpp:157] Top shape: 1 2 34928 (69856)
I1028 18:40:19.961756 21896 net.cpp:165] Memory required for data: 251161312
I1028 18:40:19.961760 21896 layer_factory.hpp:77] Creating layer mbox_loss
I1028 18:40:19.961772 21896 net.cpp:100] Creating Layer mbox_loss
I1028 18:40:19.961776 21896 net.cpp:478] mbox_loss <- mbox_loc
I1028 18:40:19.961781 21896 net.cpp:478] mbox_loss <- mbox_conf
I1028 18:40:19.961787 21896 net.cpp:478] mbox_loss <- mbox_priorbox
…
state {
  phase: TEST
}
layer {
  name: "data"
  type: "AnnotatedData"
  top: "data"
  top: "label"
  include {
    phase: TEST
  }
  transform_param {
    mean_value: 104
    mean_value: 117
    mean_value: 123
    resize_param {
      prob: 1
      resize_mode: WARP
      height: 300
      width: 300
      interp_mode: LINEAR
    }
  }
  data_param {
    source: "examples/VOC0712/VOC0712_test_lmdb"
    batch_size: 8
    backend: LMDB
  }
  annotated_data_param {
    batch_sampler {
    }
    label_map_file: "data/VOC0712/labelmap_voc.prototxt"
  }
}
layer {
  name: "conv1_1"
  type: "Convolution"
  bottom: "data"
  top: "conv1_1"
  param {
    lr_mult: 1
    decay_mult: 1
  }
  param {
    lr_mult: 2
    decay_mult: 0
  }
  convolution_param {
    num_output: 64
    pad: 1
    kernel_size: 3
    weight_filler {
      type: "xavier"
    }
    bias_filler {
      type: "constant"
      value: 0
    }
  }
}
layer {
  name: "relu1_1"
  type: "ReLU"
  bottom: "conv1_1"
  top: "conv1_1"
}
layer {
  name: "conv1_2"
  type: "Convolution"
  bottom: "conv1_1"
  top: "conv1_2"
  param {
    lr_mult: 1
    decay_mult: 1
  }
  param {
    lr_mult: 2
    decay_mult: 0
  }
  convolution_param {
    num_output: 64
    pad: 1
    kernel_size: 3
    weight_filler {
      type: "xavier"
    }
    bias_filler {
      type: "constant"
      value: 0
    }
  }
}
layer {
  name: "relu1_2"
  type: "ReLU"
  bottom: "conv1_2"
  top: "conv1_2"
}
layer {
  name: "pool1"
  type: "Pooling"
  bottom: "conv1_2"
  top: "pool1"
  pooling_param {
    pool: MAX
    kernel_size: 2
    stride: 2
  }
}
layer {
  name: "conv2_1"
  type: "Convolution"
  bottom: "pool1"
  top: "conv2_1"
  param {
    lr_mult: 1
    decay_mult: 1
  }
  param {
    lr_mult: 2
    decay_mult: 0
  }
  convolution_param {
    num_output: 128
    pad: 1
    kernel_size: 3
    weight_filler {
      type: "xavier"
    }
    bias_filler {
      type: "constant"
      value: 0
    }
  }
}
layer {
  name: "relu2_1"
  type: "ReLU"
  bottom: "conv2_1"
  top: "conv2_1"
}
layer {
  name: "conv2_2"
  type: "Convolution"
  bottom: "conv2_1"
  top: "conv2_2"
  param {
    lr_mult: 1
    decay_mult: 1
  }
  param {
    lr_mult: 2
    decay_mult: 0
  }
  convolution_param {
    num_output: 128
    pad: 1
    kernel_size: 3
    weight_filler {
      type: "xavier"
    }
    bias_filler {
      type: "constant"
      value: 0
    }
  }
}
layer {
  name: "relu2_2"
  type: "ReLU"
  bottom: "conv2_2"
  top: "conv2_2"
}
layer {
  name: "pool2"
  type: "Pooling"
  bottom: "conv2_2"
  top: "pool2"
  pooling_param {
    pool: MAX
    kernel_size: 2
    stride: 2
  }
}
layer {
  name: "conv3_1"
  type: "Convolution"
  bottom: "pool2"
  top: "conv3_1"
  param {
    lr_mult: 1
    decay_mult: 1
  }
  param {
    lr_mult: 2
    decay_mult: 0
  }
  convolution_param {
    num_output: 256
    pad: 1
    kernel_size: 3
    weight_filler {
      type: "xavier"
    }
    bias_filler {
      type: "constant"
      value: 0
    }
  }
}
layer {
  name: "relu3_1"
  type: "ReLU"
  bottom: "conv3_1"
  top: "conv3_1"
}
layer {
  name: "conv3_2"
  type: "Convolution"
  bottom: "conv3_1"
  top: "conv3_2"
  param {
    lr_mult: 1
    decay_mult: 1
  }
  param {
    lr_mult: 2
    decay_mult: 0
  }
  convolution_param {
    num_output: 256
    pad: 1
    kernel_size: 3
    weight_filler {
      type: "xavier"
    }
    bias_filler {
      type: "constant"
      value: 0
    }
  }
}
layer {
  name: "relu3_2"
  type: "ReLU"
  bottom: "conv3_2"
  top: "conv3_2"
}
layer {
  name: "conv3_3"
  type: "Convolution"
  bottom: "conv3_2"
  top: "conv3_3"
  param {
    lr_mult: 1
    decay_mult: 1
  }
  param {
    lr_mult: 2
    decay_mult: 0
  }
  convolution_param {
    num_output: 256
    pad: 1
    kernel_size: 3
    weight_filler {
      type: "xavier"
    }
    bias_filler {
      type: "constant"
      value: 0
    }
  }
}
layer {
  name: "relu3_3"
  type: "ReLU"
  bottom: "conv3_3"
  top: "conv3_3"
}
layer {
  name: "pool3"
  type: "Pooling"
  bottom: "conv3_3"
  top: "pool3"
  pooling_param {
    pool: MAX
    kernel_size: 2
    stride: 2
  }
}
layer {
  name: "conv4_1"
  type: "Convolution"
  bottom: "pool3"
  top: "conv4_1"
  param {
    lr_mult: 1
    decay_mult: 1
  }
  param {
    lr_mult: 2
    decay_mult: 0
  }
  convolution_param {
    num_output: 512
    pad: 1
    kernel_size: 3
    weight_filler {
      type: "xavier"
    }
    bias_filler {
      type: "constant"
      value: 0
    }
  }
}
layer {
  name: "relu4_1"
  type: "ReLU"
  bottom: "conv4_1"
  top: "conv4_1"
}
layer {
  name: "conv4_2"
  type: "Convolution"
  bottom: "conv4_1"
  top: "conv4_2"
  param {
    lr_mult: 1
    decay_mult: 1
  }
  param {
    lr_mult: 2
    decay_mult: 0
  }
  convolution_param {
    num_output: 512
    pad: 1
    kernel_size: 3
    weight_filler {
      type: "xavier"
    }
    bias_filler {
      type: "constant"
      value: 0
    }
  }
}
layer {
  name: "relu4_2"
  type: "ReLU"
  bottom: "conv4_2"
  top: "conv4_2"
}
layer {
  name: "conv4_3"
  type: "Convolution"
  bottom: "conv4_2"
  top: "conv4_3"
  param {
    lr_mult: 1
    decay_mult: 1
  }
  param {
    lr_mult: 2
    decay_mult: 0
  }
  convolution_param {
    num_output: 512
    pad: 1
    kernel_size: 3
    weight_filler {
      type: "xavier"
    }
    bias_filler {
      type: "constant"
      value: 0
    }
  }
}
layer {
  name: "relu4_3"
  type: "ReLU"
  bottom: "conv4_3"
  top: "conv4_3"
}
layer {
  name: "pool4"
  type: "Pooling"
  bottom: "conv4_3"
  top: "pool4"
  pooling_param {
    pool: MAX
    kernel_size: 2
    stride: 2
  }
}
layer {
  name: "conv5_1"
  type: "Convolution"
  bottom: "pool4"
  top: "conv5_1"
  param {
    lr_mult: 1
    decay_mult: 1
  }
  param {
    lr_mult: 2
    decay_mult: 0
  }
  convolution_param {
    num_output: 512
    pad: 1
    kernel_size: 3
    weight_filler {
      type: "xavier"
    }
    bias_filler {
      type: "constant"
      value: 0
    }
    dilation: 1
  }
}
layer {
  name: "relu5_1"
  type: "ReLU"
  bottom: "conv5_1"
  top: "conv5_1"
}
layer {
  name: "conv5_2"
  type: "Convolution"
  bottom: "conv5_1"
  top: "conv5_2"
  param {
    lr_mult: 1
    decay_mult: 1
  }
  param {
    lr_mult: 2
    decay_mult: 0
  }
  convolution_param {
    num_output: 512
    pad: 1
    kernel_size: 3
    weight_filler {
      type: "xavier"
    }
    bias_filler {
      type: "constant"
      value: 0
    }
    dilation: 1
  }
}
layer {
  name: "relu5_2"
  type: "ReLU"
  bottom: "conv5_2"
  top: "conv5_2"
}
layer {
  name: "conv5_3"
  type: "Convolution"
  bottom: "conv5_2"
  top: "conv5_3"
  param {
    lr_mult: 1
    decay_mult: 1
  }
  param {
    lr_mult: 2
    decay_mult: 0
  }
  convolution_param {
    num_output: 512
    pad: 1
    kernel_size: 3
    weight_filler {
      type: "xavier"
    }
    bias_filler {
      type: "constant"
      value: 0
    }
    dilation: 1
  }
}
layer {
  name: "relu5_3"
  type: "ReLU"
  bottom: "conv5_3"
  top: "conv5_3"
}
layer {
  name: "pool5"
  type: "Pooling"
  bottom: "conv5_3"
  top: "pool5"
  pooling_param {
    pool: MAX
    kernel_size: 3
    stride: 1
    pad: 1
  }
}
layer {
  name: "fc6"
  type: "Convolution"
  bottom: "pool5"
  top: "fc6"
  param {
    lr_mult: 1
    decay_mult: 1
  }
  param {
    lr_mult: 2
    decay_mult: 0
  }
  convolution_param {
    num_output: 1024
    pad: 6
    kernel_size: 3
    weight_filler {
      type: "xavier"
    }
    bias_filler {
      type: "constant"
      value: 0
    }
    dilation: 6
  }
}
layer {
  name: "relu6"
  type: "ReLU"
  bottom: "fc6"
  top: "fc6"
}
layer {
  name: "fc7"
  type: "Convolution"
  bottom: "fc6"
  top: "fc7"
  param {
    lr_mult: 1
    decay_mult: 1
  }
  param {
    lr_mult: 2
    decay_mult: 0
  }
  convolution_param {
    num_output: 1024
    kernel_size: 1
    weight_filler {
      type: "xavier"
    }
    bias_filler {
      type: "constant"
      value: 0
    }
  }
}
layer {
  name: "relu7"
  type: "ReLU"
  bottom: "fc7"
  top: "fc7"
}
layer {
  name: "conv6_1"
  type: "Convolution"
  bottom: "fc7"
  top: "conv6_1"
  param {
    lr_mult: 1
    decay_mult: 1
  }
  param {
    lr_mult: 2
    decay_mult: 0
  }
  convolution_param {
    num_output: 256
    pad: 0
    kernel_size: 1
    stride: 1
    weight_filler {
      type: "xavier"
    }
    bias_filler {
      type: "constant"
      value: 0
    }
  }
}
layer {
  name: "conv6_1_relu"
  type: "ReLU"
  bottom: "conv6_1"
  top: "conv6_1"
}
layer {
  name: "conv6_2"
  type: "Convolution"
  bottom: "conv6_1"
  top: "conv6_2"
  param {
    lr_mult: 1
    decay_mult: 1
  }
  param {
    lr_mult: 2
    decay_mult: 0
  }
  convolution_param {
    num_output: 512
    pad: 1
    kernel_size: 3
    stride: 2
    weight_filler {
      type: "xavier"
    }
    bias_filler {
      type: "constant"
      value: 0
    }
  }
}
layer {
  name: "conv6_2_relu"
  type: "ReLU"
  bottom: "conv6_2"
  top: "conv6_2"
}
layer {
  name: "conv7_1"
  type: "Convolution"
  bottom: "conv6_2"
  top: "conv7_1"
  param {
    lr_mult: 1
    decay_mult: 1
  }
  param {
    lr_mult: 2
    decay_mult: 0
  }
  convolution_param {
    num_output: 128
    pad: 0
    kernel_size: 1
    stride: 1
    weight_filler {
      type: "xavier"
    }
    bias_filler {
      type: "constant"
      value: 0
    }
  }
}
layer {
  name: "conv7_1_relu"
  type: "ReLU"
  bottom: "conv7_1"
  top: "conv7_1"
}
layer {
  name: "conv7_2"
  type: "Convolution"
  bottom: "conv7_1"
  top: "conv7_2"
  param {
    lr_mult: 1
    decay_mult: 1
  }
  param {
    lr_mult: 2
    decay_mult: 0
  }
  convolution_param {
    num_output: 256
    pad: 1
    kernel_size: 3
    stride: 2
    weight_filler {
      type: "xavier"
    }
    bias_filler {
      type: "constant"
      value: 0
    }
  }
}
layer {
  name: "conv7_2_relu"
  type: "ReLU"
  bottom: "conv7_2"
  top: "conv7_2"
}
layer {
  name: "conv8_1"
  type: "Convolution"
  bottom: "conv7_2"
  top: "conv8_1"
  param {
    lr_mult: 1
    decay_mult: 1
  }
  param {
    lr_mult: 2
    decay_mult: 0
  }
  convolution_param {
    num_output: 128
    pad: 0
    kernel_size: 1
    stride: 1
    weight_filler {
      type: "xavier"
    }
    bias_filler {
      type: "constant"
      value: 0
    }
  }
}
layer {
  name: "conv8_1_relu"
  type: "ReLU"
  bottom: "conv8_1"
  top: "conv8_1"
}
layer {
  name: "conv8_2"
  type: "Convolution"
  bottom: "conv8_1"
  top: "conv8_2"
  param {
    lr_mult: 1
    decay_mult: 1
  }
  param {
    lr_mult: 2
    decay_mult: 0
  }
  convolution_param {
    num_output: 256
    pad: 0
    kernel_size: 3
    stride: 1
    weight_filler {
      type: "xavier"
    }
    bias_filler {
      type: "constant"
      value: 0
    }
  }
}
layer {
  name: "conv8_2_relu"
  type: "ReLU"
  bottom: "conv8_2"
  top: "conv8_2"
}
layer {
  name: "conv9_1"
  type: "Convolution"
  bottom: "conv8_2"
  top: "conv9_1"
  param {
    lr_mult: 1
    decay_mult: 1
  }
  param {
    lr_mult: 2
    decay_mult: 0
  }
  convolution_param {
    num_output: 128
    pad: 0
    kernel_size: 1
    stride: 1
    weight_filler {
      type: "xavier"
    }
    bias_filler {
      type: "constant"
      value: 0
    }
  }
}
layer {
  name: "conv9_1_relu"
  type: "ReLU"
  bottom: "conv9_1"
  top: "conv9_1"
}
layer {
  name: "conv9_2"
  type: "Convolution"
  bottom: "conv9_1"
  top: "conv9_2"
  param {
    lr_mult: 1
    decay_mult: 1
  }
  param {
    lr_mult: 2
    decay_mult: 0
  }
  convolution_param {
    num_output: 256
    pad: 0
    kernel_size: 3
    stride: 1
    weight_filler {
      type: "xavier"
    }
    bias_filler {
      type: "constant"
      value: 0
    }
  }
}
layer {
  name: "conv9_2_relu"
  type: "ReLU"
  bottom: "conv9_2"
  top: "conv9_2"
}
layer {
  name: "conv4_3_norm"
  type: "Normalize"
  bottom: "conv4_3"
  top: "conv4_3_norm"
  norm_param {
    across_spatial: false
    scale_filler {
      type: "constant"
      value: 20
    }
    channel_shared: false
  }
}
layer {
  name: "conv4_3_norm_mbox_loc"
  type: "Convolution"
  bottom: "conv4_3_norm"
  top: "conv4_3_norm_mbox_loc"
  param {
    lr_mult: 1
    decay_mult: 1
  }
  param {
    lr_mult: 2
    decay_mult: 0
  }
  convolution_param {
    num_output: 16
    pad: 1
    kernel_size: 3
    stride: 1
    weight_filler {
      type: "xavier"
    }
    bias_filler {
      type: "constant"
      value: 0
    }
  }
}
layer {
  name: "conv4_3_norm_mbox_loc_perm"
  type: "Permute"
  bottom: "conv4_3_norm_mbox_loc"
  top: "conv4_3_norm_mbox_loc_perm"
  permute_param {
    order: 0
    order: 2
    order: 3
    order: 1
  }
}
layer {
  name: "conv4_3_norm_mbox_loc_flat"
  type: "Flatten"
  bottom: "conv4_3_norm_mbox_loc_perm"
  top: "conv4_3_norm_mbox_loc_flat"
  flatten_param {
    axis: 1
  }
}
layer {
  name: "conv4_3_norm_mbox_conf"
  type: "Convolution"
  bottom: "conv4_3_norm"
  top: "conv4_3_norm_mbox_conf"
  param {
    lr_mult: 1
    decay_mult: 1
  }
  param {
    lr_mult: 2
    decay_mult: 0
  }
  convolution_param {
    num_output: 84
    pad: 1
    kernel_size: 3
    stride: 1
    weight_filler {
      type: "xavier"
    }
    bias_filler {
      type: "constant"
      value: 0
    }
  }
}
layer {
  name: "conv4_3_norm_mbox_conf_perm"
  type: "Permute"
  bottom: "conv4_3_norm_mbox_conf"
  top: "conv4_3_norm_mbox_conf_perm"
  permute_param {
    order: 0
    order: 2
    order: 3
    order: 1
  }
}
layer {
  name: "conv4_3_norm_mbox_conf_flat"
  type: "Flatten"
  bottom: "conv4_3_norm_mbox_conf_perm"
  top: "conv4_3_norm_mbox_conf_flat"
  flatten_param {
    axis: 1
  }
}
layer {
  name: "conv4_3_norm_mbox_priorbox"
  type: "PriorBox"
  bottom: "conv4_3_norm"
  bottom: "data"
  top: "conv4_3_norm_mbox_priorbox"
  prior_box_param {
    min_size: 30
    max_size: 60
    aspect_ratio: 2
    flip: true
    clip: false
    variance: 0.1
    variance: 0.1
    variance: 0.2
    variance: 0.2
    step: 8
    offset: 0.5
  }
}
layer {
  name: "fc7_mbox_loc"
  type: "Convolution"
  bottom: "fc7"
  top: "fc7_mbox_loc"
  param {
    lr_mult: 1
    decay_mult: 1
  }
  param {
    lr_mult: 2
    decay_mult: 0
  }
  convolution_param {
    num_output: 24
    pad: 1
    kernel_size: 3
    stride: 1
    weight_filler {
      type: "xavier"
    }
    bias_filler {
      type: "constant"
      value: 0
    }
  }
}
layer {
  name: "fc7_mbox_loc_perm"
  type: "Permute"
  bottom: "fc7_mbox_loc"
  top: "fc7_mbox_loc_perm"
  permute_param {
    order: 0
    order: 2
    order: 3
    order: 1
  }
}
layer {
  name: "fc7_mbox_loc_flat"
  type: "Flatten"
  bottom: "fc7_mbox_loc_perm"
  top: "fc7_mbox_loc_flat"
  flatten_param {
    axis: 1
  }
}
layer {
  name: "fc7_mbox_conf"
  type: "Convolution"
  bottom: "fc7"
  top: "fc7_mbox_conf"
  param {
    lr_mult: 1
    decay_mult: 1
  }
  param {
    lr_mult: 2
    decay_mult: 0
  }
  convolution_param {
    num_output: 126
    pad: 1
    kernel_size: 3
    stride: 1
    weight_filler {
      type: "xavier"
    }
    bias_filler {
      type: "constant"
      value: 0
    }
  }
}
layer {
  name: "fc7_mbox_conf_perm"
  type: "Permute"
  bottom: "fc7_mbox_conf"
  top: "fc7_mbox_conf_perm"
  permute_param {
    order: 0
    order: 2
    order: 3
    order: 1
  }
}
layer {
  name: "fc7_mbox_conf_flat"
  type: "Flatten"
  bottom: "fc7_mbox_conf_perm"
  top: "fc7_mbox_conf_flat"
  flatten_param {
    axis: 1
  }
}
layer {
  name: "fc7_mbox_priorbox"
  type: "PriorBox"
  bottom: "fc7"
  bottom: "data"
  top: "fc7_mbox_priorbox"
  prior_box_param {
    min_size: 60
    max_size: 111
    aspect_ratio: 2
    aspect_ratio: 3
    flip: true
    clip: false
    variance: 0.1
    variance: 0.1
    variance: 0.2
    variance: 0.2
    step: 16
    offset: 0.5
  }
}
layer {
  name: "conv6_2_mbox_loc"
  type: "Convolution"
  bottom: "conv6_2"
  top: "conv6_2_mbox_loc"
  param {
    lr_mult: 1
    decay_mult: 1
  }
  param {
    lr_mult: 2
    decay_mult: 0
  }
  convolution_param {
    num_output: 24
    pad: 1
    kernel_size: 3
    stride: 1
    weight_filler {
      type: "xavier"
    }
    bias_filler {
      type: "constant"
      value: 0
    }
  }
}
layer {
  name: "conv6_2_mbox_loc_perm"
  type: "Permute"
  bottom: "conv6_2_mbox_loc"
  top: "conv6_2_mbox_loc_perm"
  permute_param {
    order: 0
    order: 2
    order: 3
    order: 1
  }
}
layer {
  name: "conv6_2_mbox_loc_flat"
  type: "Flatten"
  bottom: "conv6_2_mbox_loc_perm"
  top: "conv6_2_mbox_loc_flat"
  flatten_param {
    axis: 1
  }
}
layer {
  name: "conv6_2_mbox_conf"
  type: "Convolution"
  bottom: "conv6_2"
  top: "conv6_2_mbox_conf"
  param {
    lr_mult: 1
    decay_mult: 1
  }
  param {
    lr_mult: 2
    decay_mult: 0
  }
  convolution_param {
    num_output: 126
    pad: 1
    kernel_size: 3
    stride: 1
    weight_filler {
      type: "xavier"
    }
    bias_filler {
      type: "constant"
      value: 0
    }
  }
}
layer {
  name: "conv6_2_mbox_conf_perm"
  type: "Permute"
  bottom: "conv6_2_mbox_conf"
  top: "conv6_2_mbox_conf_perm"
  permute_param {
    order: 0
    order: 2
    order: 3
    order: 1
  }
}
layer {
  name: "conv6_2_mbox_conf_flat"
  type: "Flatten"
  bottom: "conv6_2_mbox_conf_perm"
  top: "conv6_2_mbox_conf_flat"
  flatten_param {
    axis: 1
  }
}
layer {
  name: "conv6_2_mbox_priorbox"
  type: "PriorBox"
  bottom: "conv6_2"
  bottom: "data"
  top: "conv6_2_mbox_priorbox"
  prior_box_param {
    min_size: 111
    max_size: 162
    aspect_ratio: 2
    aspect_ratio: 3
    flip: true
    clip: false
    variance: 0.1
    variance: 0.1
    variance: 0.2
    variance: 0.2
    step: 32
    offset: 0.5
  }
}
layer {
  name: "conv7_2_mbox_loc"
  type: "Convolution"
  bottom: "conv7_2"
  top: "conv7_2_mbox_loc"
  param {
    lr_mult: 1
    decay_mult: 1
  }
  param {
    lr_mult: 2
    decay_mult: 0
  }
  convolution_param {
    num_output: 24
    pad: 1
    kernel_size: 3
    stride: 1
    weight_filler {
      type: "xavier"
    }
    bias_filler {
      type: "constant"
      value: 0
    }
  }
}
layer {
  name: "conv7_2_mbox_loc_perm"
  type: "Permute"
  bottom: "conv7_2_mbox_loc"
  top: "conv7_2_mbox_loc_perm"
  permute_param {
    order: 0
    order: 2
    order: 3
    order: 1
  }
}
layer {
  name: "conv7_2_mbox_loc_flat"
  type: "Flatten"
  bottom: "conv7_2_mbox_loc_perm"
  top: "conv7_2_mbox_loc_flat"
  flatten_param {
    axis: 1
  }
}
layer {
  name: "conv7_2_mbox_conf"
  type: "Convolution"
  bottom: "conv7_2"
  top: "conv7_2_mbox_conf"
  param {
    lr_mult: 1
    decay_mult: 1
  }
  param {
    lr_mult: 2
    decay_mult: 0
  }
  convolution_param {
    num_output: 126
    pad: 1
    kernel_size: 3
    stride: 1
    weight_filler {
      type: "xavier"
    }
    bias_filler {
      type: "constant"
      value: 0
    }
  }
}
layer {
  name: "conv7_2_mbox_conf_perm"
  type: "Permute"
  bottom: "conv7_2_mbox_conf"
  top: "conv7_2_mbox_conf_perm"
  permute_param {
    order: 0
    order: 2
    order: 3
    order: 1
  }
}
layer {
  name: "conv7_2_mbox_conf_flat"
  type: "Flatten"
  bottom: "conv7_2_mbox_conf_perm"
  top: "conv7_2_mbox_conf_flat"
  flatten_param {
    axis: 1
  }
}
layer {
  name: "conv7_2_mbox_priorbox"
  type: "PriorBox"
  bottom: "conv7_2"
  bottom: "data"
  top: "conv7_2_mbox_priorbox"
  prior_box_param {
    min_size: 162
    max_size: 213
    aspect_ratio: 2
    aspect_ratio: 3
    flip: true
    clip: false
    variance: 0.1
    variance: 0.1
    variance: 0.2
    variance: 0.2
    step: 64
    offset: 0.5
  }
}
layer {
  name: "conv8_2_mbox_loc"
  type: "Convolution"
  bottom: "conv8_2"
  top: "conv8_2_mbox_loc"
  param {
    lr_mult: 1
    decay_mult: 1
  }
  param {
    lr_mult: 2
    decay_mult: 0
  }
  convolution_param {
    num_output: 16
    pad: 1
    kernel_size: 3
    stride: 1
    weight_filler {
      type: "xavier"
    }
    bias_filler {
      type: "constant"
      value: 0
    }
  }
}
layer {
  name: "conv8_2_mbox_loc_perm"
  type: "Permute"
  bottom: "conv8_2_mbox_loc"
  top: "conv8_2_mbox_loc_perm"
  permute_param {
    order: 0
    order: 2
    order: 3
    order: 1
  }
}
layer {
  name: "conv8_2_mbox_loc_flat"
  type: "Flatten"
  bottom: "conv8_2_mbox_loc_perm"
  top: "conv8_2_mbox_loc_flat"
  flatten_param {
    axis: 1
  }
}
layer {
  name: "conv8_2_mbox_conf"
  type: "Convolution"
  bottom: "conv8_2"
  top: "conv8_2_mbox_conf"
  param {
    lr_mult: 1
    decay_mult: 1
  }
  param {
    lr_mult: 2
    decay_mult: 0
  }
  convolution_param {
    num_output: 84
    pad: 1
    kernel_size: 3
    stride: 1
    weight_filler {
      type: "xavier"
    }
    bias_filler {
      type: "constant"
      value: 0
    }
  }
}
layer {
  name: "conv8_2_mbox_conf_perm"
  type: "Permute"
  bottom: "conv8_2_mbox_conf"
  top: "conv8_2_mbox_conf_perm"
  permute_param {
    order: 0
    order: 2
    order: 3
    order: 1
  }
}
layer {
  name: "conv8_2_mbox_conf_flat"
  type: "Flatten"
  bottom: "conv8_2_mbox_conf_perm"
  top: "conv8_2_mbox_conf_flat"
  flatten_param {
    axis: 1
  }
}
layer {
  name: "conv8_2_mbox_priorbox"
  type: "PriorBox"
  bottom: "conv8_2"
  bottom: "data"
  top: "conv8_2_mbox_priorbox"
  prior_box_param {
    min_size: 213
    max_size: 264
    aspect_ratio: 2
    flip: true
    clip: false
    variance: 0.1
    variance: 0.1
    variance: 0.2
    variance: 0.2
    step: 100
    offset: 0.5
  }
}
layer {
  name: "conv9_2_mbox_loc"
  type: "Convolution"
  bottom: "conv9_2"
  top: "conv9_2_mbox_loc"
  param {
    lr_mult: 1
    decay_mult: 1
  }
  param {
    lr_mult: 2
    decay_mult: 0
  }
  convolution_param {
    num_output: 16
    pad: 1
    kernel_size: 3
    stride: 1
    weight_filler {
      type: "xavier"
    }
    bias_filler {
      type: "constant"
      value: 0
    }
  }
}
layer {
  name: "conv9_2_mbox_loc_perm"
  type: "Permute"
  bottom: "conv9_2_mbox_loc"
  top: "conv9_2_mbox_loc_perm"
  permute_param {
    order: 0
    order: 2
    order: 3
    order: 1
  }
}
layer {
  name: "conv9_2_mbox_loc_flat"
  type: "Flatten"
  bottom: "conv9_2_mbox_loc_perm"
  top: "conv9_2_mbox_loc_flat"
  flatten_param {
    axis: 1
  }
}
layer {
  name: "conv9_2_mbox_conf"
  type: "Convolution"
  bottom: "conv9_2"
  top: "conv9_2_mbox_conf"
  param {
    lr_mult: 1
    decay_mult: 1
  }
  param {
    lr_mult: 2
    decay_mult: 0
  }
  convolution_param {
    num_output: 84
    pad: 1
    kernel_size: 3
    stride: 1
    weight_filler {
      type: "xavier"
    }
    bias_filler {
      type: "constant"
      value: 0
    }
  }
}
layer {
  name: "conv9_2_mbox_conf_perm"
  type: "Permute"
  bottom: "conv9_2_mbox_conf"
  top: "conv9_2_mbox_conf_perm"
  permute_param {
    order: 0
    order: 2
    order: 3
    order: 1
  }
}
layer {
  name: "conv9_2_mbox_conf_flat"
  type: "Flatten"
  bottom: "conv9_2_mbox_conf_perm"
  top: "conv9_2_mbox_conf_flat"
  flatten_param {
    axis: 1
  }
}
layer {
  name: "conv9_2_mbox_priorbox"
  type: "PriorBox"
  bottom: "conv9_2"
  bottom: "data"
  top: "conv9_2_mbox_priorbox"
  prior_box_param {
    min_size: 264
    max_size: 315
    aspect_ratio: 2
    flip: true
    clip: false
    variance: 0.1
    variance: 0.1
    variance: 0.2
    variance: 0.2
    step: 300
    offset: 0.5
  }
}
layer {
  name: "mbox_loc"
  type: "Concat"
  bottom: "conv4_3_norm_mbox_loc_flat"
  bottom: "fc7_mbox_loc_flat"
  bottom: "conv6_2_mbox_loc_flat"
  bottom: "conv7_2_mbox_loc_flat"
  bottom: "conv8_2_mbox_loc_flat"
  bottom: "conv9_2_mbox_loc_flat"
  top: "mbox_loc"
  concat_param {
    axis: 1
  }
}
layer {
  name: "mbox_conf"
  type: "Concat"
  bottom: "conv4_3_norm_mbox_conf_flat"
  bottom: "fc7_mbox_conf_flat"
  bottom: "conv6_2_mbox_conf_flat"
  bottom: "conv7_2_mbox_conf_flat"
  bottom: "conv8_2_mbox_conf_flat"
  bottom: "conv9_2_mbox_conf_flat"
  top: "mbox_conf"
  concat_param {
    axis: 1
  }
}
layer {
  name: "mbox_priorbox"
  type: "Concat"
  bottom: "conv4_3_norm_mbox_priorbox"
  bottom: "fc7_mbox_priorbox"
  bottom: "conv6_2_mbox_priorbox"
  bottom: "conv7_2_mbox_priorbox"
  bottom: "conv8_2_mbox_priorbox"
  bottom: "conv9_2_mbox_priorbox"
  top: "mbox_priorbox"
  concat_param {
    axis: 2
  }
}
layer {
  name: "mbox_conf_reshape"
  type: "Reshape"
  bottom: "mbox_conf"
  top: "mbox_conf_reshape"
  reshape_param {
    shape {
      dim: 0
      dim: -1
      dim: 21
    }
  }
}
layer {
  name: "mbox_conf_softmax"
  type: "Softmax"
  bottom: "mbox_conf_reshape"
  top: "mbox_conf_softmax"
  softmax_param {
    axis: 2
  }
}
layer {
  name: "mbox_conf_flatten"
  type: "Flatten"
  bottom: "mbox_conf_softmax"
  top: "mbox_conf_flatten"
  flatten_param {
    axis: 1
  }
}
layer {
  name: "detection_out"
  type: "DetectionOutput"
  bottom: "mbox_loc"
  bottom: "mbox_conf_flatten"
  bottom: "mbox_priorbox"
  top: "detection_out"
  include {
    phase: TEST
  }
  detection_output_param {
    num_classes: 21
    share_location: true
    background_label_id: 0
    nms_param {
      nms_threshold: 0.45
      top_k: 400
    }
    save_output_param {
      output_name_prefix: "comp4_det_test_"
      output_format: "VOC"
      label_map_file: "data/VOC0712/labelmap_voc.prototxt"
      name_size_file: "data/VOC0712/test_name_size.txt"
      num_test_image: 4952
    }
    code_type: CENTER_SIZE
    keep_top_k: 200
    confidence_threshold: 0.01
  }
}
layer {
  name: "detection_eval"
  type: "DetectionEvaluate"
  bottom: "detection_out"
  bottom: "label"
  top: "detection_eval"
  include {
    phase: TEST
  }
  detection_evaluate_param {
    num_classes: 21
    background_label_id: 0
    overlap_threshold: 0.5
    evaluate_difficult_gt: false
    name_size_file: "data/VOC0712/test_name_size.txt"
  }
}
I1028 18:40:19.964557 21896 layer_factory.hpp:77] Creating layer data
I1028 18:40:19.964622 21896 net.cpp:100] Creating Layer data
I1028 18:40:19.964630 21896 net.cpp:452] data -> data
I1028 18:40:19.964642 21896 net.cpp:452] data -> label
I1028 18:40:19.965587 21912 db_lmdb.cpp:35] Opened lmdb examples/VOC0712/VOC0712_test_lmdb
I1028 18:40:19.967569 21896 annotated_data_layer.cpp:62] output data size: 8,3,300,300
I1028 18:40:19.979218 21896 net.cpp:150] Setting up data
I1028 18:40:19.979240 21896 net.cpp:157] Top shape: 8 3 300 300 (2160000)
I1028 18:40:19.979248 21896 net.cpp:157] Top shape: 1 1 2 8 (16)
I1028 18:40:19.979250 21896 net.cpp:165] Memory required for data: 8640064
I1028 18:40:19.979257 21896 layer_factory.hpp:77] Creating layer data_data_0_split
I1028 18:40:19.979274 21896 net.cpp:100] Creating Layer data_data_0_split
I1028 18:40:19.979280 21896 net.cpp:478] data_data_0_split <- data
I1028 18:40:19.979290 21896 net.cpp:452] data_data_0_split -> data_data_0_split_0
I1028 18:40:19.979305 21896 net.cpp:452] data_data_0_split -> data_data_0_split_1
I1028 18:40:19.979313 21896 net.cpp:452] data_data_0_split -> data_data_0_split_2
I1028 18:40:19.979323 21896 net.cpp:452] data_data_0_split -> data_data_0_split_3
I1028 18:40:19.979332 21896 net.cpp:452] data_data_0_split -> data_data_0_split_4
I1028 18:40:19.979341 21896 net.cpp:452] data_data_0_split -> data_data_0_split_5
I1028 18:40:19.979348 21896 net.cpp:452] data_data_0_split -> data_data_0_split_6
I1028 18:40:19.979445 21896 net.cpp:150] Setting up data_data_0_split
I1028 18:40:19.979452 21896 net.cpp:157] Top shape: 8 3 300 300 (2160000)
I1028 18:40:19.979457 21896 net.cpp:157] Top shape: 8 3 300 300 (2160000)
I1028 18:40:19.979473 21896 net.cpp:157] Top shape: 8 3 300 300 (2160000)
I1028 18:40:19.979480 21896 net.cpp:157] Top shape: 8 3 300 300 (2160000)
I1028 18:40:19.979483 21896 net.cpp:157] Top shape: 8 3 300 300 (2160000)
I1028 18:40:19.979488 21896 net.cpp:157] Top shape: 8 3 300 300 (2160000)
I1028 18:40:19.979495 21896 net.cpp:157] Top shape: 8 3 300 300 (2160000)
I1028 18:40:19.979498 21896 net.cpp:165] Memory required for data: 69120064
I1028 18:40:19.979502 21896 layer_factory.hpp:77] Creating layer conv1_1
I1028 18:40:19.979516 21896 net.cpp:100] Creating Layer conv1_1
I1028 18:40:19.979519 21896 net.cpp:478] conv1_1 <- data_data_0_split_0
I1028 18:40:19.979526 21896 net.cpp:452] conv1_1 -> conv1_1
I1028 18:40:19.979785 21896 net.cpp:150] Setting up conv1_1
I1028 18:40:19.979794 21896 net.cpp:157] Top shape: 8 64 300 300 (46080000)
I1028 18:40:19.979815 21896 net.cpp:165] Memory required for data: 253440064
I1028 18:40:19.979827 21896 layer_factory.hpp:77] Creating layer relu1_1
I1028 18:40:19.979833 21896 net.cpp:100] Creating Layer relu1_1
I1028 18:40:19.979838 21896 net.cpp:478] relu1_1 <- conv1_1
I1028 18:40:19.979845 21896 net.cpp:439] relu1_1 -> conv1_1 (in-place)
I1028 18:40:19.979852 21896 net.cpp:150] Setting up relu1_1
I1028 18:40:19.979858 21896 net.cpp:157] Top shape: 8 64 300 300 (46080000)
I1028 18:40:19.979863 21896 net.cpp:165] Memory required for data: 437760064
I1028 18:40:19.979866 21896 layer_factory.hpp:77] Creating layer conv1_2
I1028 18:40:19.979876 21896 net.cpp:100] Creating Layer conv1_2
I1028 18:40:19.979881 21896 net.cpp:478] conv1_2 <- conv1_1
I1028 18:40:19.979887 21896 net.cpp:452] conv1_2 -> conv1_2
I1028 18:40:19.980808 21896 net.cpp:150] Setting up conv1_2
I1028 18:40:19.980818 21896 net.cpp:157] Top shape: 8 64 300 300 (46080000)
I1028 18:40:19.980821 21896 net.cpp:165] Memory required for data: 622080064
I1028 18:40:19.980832 21896 layer_factory.hpp:77] Creating layer relu1_2
I1028 18:40:19.980840 21896 net.cpp:100] Creating Layer relu1_2
I1028 18:40:19.980845 21896 net.cpp:478] relu1_2 <- conv1_2
I1028 18:40:19.980851 21896 net.cpp:439] relu1_2 -> conv1_2 (in-place)
I1028 18:40:19.980859 21896 net.cpp:150] Setting up relu1_2
I1028 18:40:19.980865 21896 net.cpp:157] Top shape: 8 64 300 300 (46080000)
I1028 18:40:19.980870 21896 net.cpp:165] Memory required for data: 806400064
I1028 18:40:19.980875 21896 layer_factory.hpp:77] Creating layer pool1
I1028 18:40:19.980880 21896 net.cpp:100] Creating Layer pool1
I1028 18:40:19.980885 21896 net.cpp:478] pool1 <- conv1_2
I1028 18:40:19.980890 21896 net.cpp:452] pool1 -> pool1
I1028 18:40:19.980928 21896 net.cpp:150] Setting up pool1
I1028 18:40:19.980936 21896 net.cpp:157] Top shape: 8 64 150 150 (11520000)
I1028 18:40:19.980938 21896 net.cpp:165] Memory required for data: 852480064
I1028 18:40:19.980942 21896 layer_factory.hpp:77] Creating layer conv2_1
I1028 18:40:19.980952 21896 net.cpp:100] Creating Layer conv2_1
I1028 18:40:19.980955 21896 net.cpp:478] conv2_1 <- pool1
I1028 18:40:19.980962 21896 net.cpp:452] conv2_1 -> conv2_1
I1028 18:40:19.981489 21896 net.cpp:150] Setting up conv2_1
I1028 18:40:19.981498 21896 net.cpp:157] Top shape: 8 128 150 150 (23040000)
I1028 18:40:19.981500 21896 net.cpp:165] Memory required for data: 944640064
I1028 18:40:19.981509 21896 layer_factory.hpp:77] Creating layer relu2_1
I1028 18:40:19.981518 21896 net.cpp:100] Creating Layer relu2_1
I1028 18:40:19.981523 21896 net.cpp:478] relu2_1 <- conv2_1
I1028 18:40:19.981528 21896 net.cpp:439] relu2_1 -> conv2_1 (in-place)
I1028 18:40:19.981535 21896 net.cpp:150] Setting up relu2_1
I1028 18:40:19.981541 21896 net.cpp:157] Top shape: 8 128 150 150 (23040000)
I1028 18:40:19.981546 21896 net.cpp:165] Memory required for data: 1036800064
I1028 18:40:19.981549 21896 layer_factory.hpp:77] Creating layer conv2_2
I1028 18:40:19.981559 21896 net.cpp:100] Creating Layer conv2_2
I1028 18:40:19.981562 21896 net.cpp:478] conv2_2 <- conv2_1
I1028 18:40:19.981570 21896 net.cpp:452] conv2_2 -> conv2_2
I1028 18:40:19.983355 21896 net.cpp:150] Setting up conv2_2
I1028 18:40:19.983366 21896 net.cpp:157] Top shape: 8 128 150 150 (23040000)
I1028 18:40:19.983371 21896 net.cpp:165] Memory required for data: 1128960064
I1028 18:40:19.983377 21896 layer_factory.hpp:77] Creating layer relu2_2
I1028 18:40:19.983386 21896 net.cpp:100] Creating Layer relu2_2
I1028 18:40:19.983392 21896 net.cpp:478] relu2_2 <- conv2_2
I1028 18:40:19.983397 21896 net.cpp:439] relu2_2 -> conv2_2 (in-place)
I1028 18:40:19.983404 21896 net.cpp:150] Setting up relu2_2
I1028 18:40:19.983412 21896 net.cpp:157] Top shape: 8 128 150 150 (23040000)
I1028 18:40:19.983415 21896 net.cpp:165] Memory required for data: 1221120064
I1028 18:40:19.983418 21896 layer_factory.hpp:77] Creating layer pool2
I1028 18:40:19.983424 21896 net.cpp:100] Creating Layer pool2
I1028 18:40:19.983428 21896 net.cpp:478] pool2 <- conv2_2
I1028 18:40:19.983446 21896 net.cpp:452] pool2 -> pool2
I1028 18:40:19.983484 21896 net.cpp:150] Setting up pool2
I1028 18:40:19.983489 21896 net.cpp:157] Top shape: 8 128 75 75 (5760000)
I1028 18:40:19.983494 21896 net.cpp:165] Memory required for data: 1244160064
I1028 18:40:19.983496 21896 layer_factory.hpp:77] Creating layer conv3_1
I1028 18:40:19.983506 21896 net.cpp:100] Creating Layer conv3_1
I1028 18:40:19.983510 21896 net.cpp:478] conv3_1 <- pool2
I1028 18:40:19.983516 21896 net.cpp:452] conv3_1 -> conv3_1
I1028 18:40:19.985508 21896 net.cpp:150] Setting up conv3_1
I1028 18:40:19.985519 21896 net.cpp:157] Top shape: 8 256 75 75 (11520000)
I1028 18:40:19.985523 21896 net.cpp:165] Memory required for data: 1290240064
I1028 18:40:19.985533 21896 layer_factory.hpp:77] Creating layer relu3_1
I1028 18:40:19.985540 21896 net.cpp:100] Creating Layer relu3_1
I1028 18:40:19.985545 21896 net.cpp:478] relu3_1 <- conv3_1
I1028 18:40:19.985553 21896 net.cpp:439] relu3_1 -> conv3_1 (in-place)
I1028 18:40:19.985560 21896 net.cpp:150] Setting up relu3_1
I1028 18:40:19.985566 21896 net.cpp:157] Top shape: 8 256 75 75 (11520000)
I1028 18:40:19.985569 21896 net.cpp:165] Memory required for data: 1336320064
I1028 18:40:19.985574 21896 layer_factory.hpp:77] Creating layer conv3_2
I1028 18:40:19.985582 21896 net.cpp:100] Creating Layer conv3_2
I1028 18:40:19.985587 21896 net.cpp:478] conv3_2 <- conv3_1
I1028 18:40:19.985594 21896 net.cpp:452] conv3_2 -> conv3_2
I1028 18:40:19.989186 21896 net.cpp:150] Setting up conv3_2
I1028 18:40:19.989199 21896 net.cpp:157] Top shape: 8 256 75 75 (11520000)
I1028 18:40:19.989203 21896 net.cpp:165] Memory required for data: 1382400064
I1028 18:40:19.989212 21896 layer_factory.hpp:77] Creating layer relu3_2
I1028 18:40:19.989218 21896 net.cpp:100] Creating Layer relu3_2
I1028 18:40:19.989224 21896 net.cpp:478] relu3_2 <- conv3_2
I1028 18:40:19.989230 21896 net.cpp:439] relu3_2 -> conv3_2 (in-place)
I1028 18:40:19.989238 21896 net.cpp:150] Setting up relu3_2
I1028 18:40:19.989244 21896 net.cpp:157] Top shape: 8 256 75 75 (11520000)
I1028 18:40:19.989249 21896 net.cpp:165] Memory required for data: 1428480064
I1028 18:40:19.989253 21896 layer_factory.hpp:77] Creating layer conv3_3
I1028 18:40:19.989264 21896 net.cpp:100] Creating Layer conv3_3
I1028 18:40:19.989267 21896 net.cpp:478] conv3_3 <- conv3_2
I1028 18:40:19.989274 21896 net.cpp:452] conv3_3 -> conv3_3
I1028 18:40:19.992887 21896 net.cpp:150] Setting up conv3_3
I1028 18:40:19.992907 21896 net.cpp:157] Top shape: 8 256 75 75 (11520000)
I1028 18:40:19.992909 21896 net.cpp:165] Memory required for data: 1474560064
I1028 18:40:19.992918 21896 layer_factory.hpp:77] Creating layer relu3_3
I1028 18:40:19.992926 21896 net.cpp:100] Creating Layer relu3_3
I1028 18:40:19.992933 21896 net.cpp:478] relu3_3 <- conv3_3
I1028 18:40:19.992939 21896 net.cpp:439] relu3_3 -> conv3_3 (in-place)
I1028 18:40:19.992949 21896 net.cpp:150] Setting up relu3_3
I1028 18:40:19.992954 21896 net.cpp:157] Top shape: 8 256 75 75 (11520000)
I1028 18:40:19.992959 21896 net.cpp:165] Memory required for data: 1520640064
I1028 18:40:19.992964 21896 layer_factory.hpp:77] Creating layer pool3
I1028 18:40:19.992970 21896 net.cpp:100] Creating Layer pool3
I1028 18:40:19.992974 21896 net.cpp:478] pool3 <- conv3_3
I1028 18:40:19.992980 21896 net.cpp:452] pool3 -> pool3
I1028 18:40:19.993016 21896 net.cpp:150] Setting up pool3
I1028 18:40:19.993022 21896 net.cpp:157] Top shape: 8 256 38 38 (2957312)
I1028 18:40:19.993026 21896 net.cpp:165] Memory required for data: 1532469312
I1028 18:40:19.993029 21896 layer_factory.hpp:77] Creating layer conv4_1
I1028 18:40:19.993041 21896 net.cpp:100] Creating Layer conv4_1
I1028 18:40:19.993044 21896 net.cpp:478] conv4_1 <- pool3
I1028 18:40:19.993052 21896 net.cpp:452] conv4_1 -> conv4_1
I1028 18:40:20.000013 21896 net.cpp:150] Setting up conv4_1
I1028 18:40:20.000041 21896 net.cpp:157] Top shape: 8 512 38 38 (5914624)
I1028 18:40:20.000046 21896 net.cpp:165] Memory required for data: 1556127808
I1028 18:40:20.000056 21896 layer_factory.hpp:77] Creating layer relu4_1
I1028 18:40:20.000098 21896 net.cpp:100] Creating Layer relu4_1
I1028 18:40:20.000105 21896 net.cpp:478] relu4_1 <- conv4_1
I1028 18:40:20.000114 21896 net.cpp:439] relu4_1 -> conv4_1 (in-place)
I1028 18:40:20.000124 21896 net.cpp:150] Setting up relu4_1
I1028 18:40:20.000130 21896 net.cpp:157] Top shape: 8 512 38 38 (5914624)
I1028 18:40:20.000133 21896 net.cpp:165] Memory required for data: 1579786304
I1028 18:40:20.000138 21896 layer_factory.hpp:77] Creating layer conv4_2
I1028 18:40:20.000149 21896 net.cpp:100] Creating Layer conv4_2
I1028 18:40:20.000152 21896 net.cpp:478] conv4_2 <- conv4_1
I1028 18:40:20.000159 21896 net.cpp:452] conv4_2 -> conv4_2
I1028 18:40:20.013609 21896 net.cpp:150] Setting up conv4_2
I1028 18:40:20.013633 21896 net.cpp:157] Top shape: 8 512 38 38 (5914624)
I1028 18:40:20.013638 21896 net.cpp:165] Memory required for data: 1603444800
I1028 18:40:20.013665 21896 layer_factory.hpp:77] Creating layer relu4_2
I1028 18:40:20.013674 21896 net.cpp:100] Creating Layer relu4_2
I1028 18:40:20.013680 21896 net.cpp:478] relu4_2 <- conv4_2
I1028 18:40:20.013689 21896 net.cpp:439] relu4_2 -> conv4_2 (in-place)
I1028 18:40:20.013700 21896 net.cpp:150] Setting up relu4_2
I1028 18:40:20.013706 21896 net.cpp:157] Top shape: 8 512 38 38 (5914624)
I1028 18:40:20.013710 21896 net.cpp:165] Memory required for data: 1627103296
I1028 18:40:20.013713 21896 layer_factory.hpp:77] Creating layer conv4_3
I1028 18:40:20.013725 21896 net.cpp:100] Creating Layer conv4_3
I1028 18:40:20.013728 21896 net.cpp:478] conv4_3 <- conv4_2
I1028 18:40:20.013736 21896 net.cpp:452] conv4_3 -> conv4_3
I1028 18:40:20.027009 21896 net.cpp:150] Setting up conv4_3
I1028 18:40:20.027034 21896 net.cpp:157] Top shape: 8 512 38 38 (5914624)
I1028 18:40:20.027037 21896 net.cpp:165] Memory required for data: 1650761792
I1028 18:40:20.027060 21896 layer_factory.hpp:77] Creating layer relu4_3
I1028 18:40:20.027070 21896 net.cpp:100] Creating Layer relu4_3
I1028 18:40:20.027076 21896 net.cpp:478] relu4_3 <- conv4_3
I1028 18:40:20.027084 21896 net.cpp:439] relu4_3 -> conv4_3 (in-place)
I1028 18:40:20.027094 21896 net.cpp:150] Setting up relu4_3
I1028 18:40:20.027101 21896 net.cpp:157] Top shape: 8 512 38 38 (5914624)
I1028 18:40:20.027106 21896 net.cpp:165] Memory required for data: 1674420288
I1028 18:40:20.027108 21896 layer_factory.hpp:77] Creating layer conv4_3_relu4_3_0_split
I1028 18:40:20.027115 21896 net.cpp:100] Creating Layer conv4_3_relu4_3_0_split
I1028 18:40:20.027120 21896 net.cpp:478] conv4_3_relu4_3_0_split <- conv4_3
I1028 18:40:20.027127 21896 net.cpp:452] conv4_3_relu4_3_0_split -> conv4_3_relu4_3_0_split_0
I1028 18:40:20.027135 21896 net.cpp:452] conv4_3_relu4_3_0_split -> conv4_3_relu4_3_0_split_1
I1028 18:40:20.027178 21896 net.cpp:150] Setting up conv4_3_relu4_3_0_split
I1028 18:40:20.027184 21896 net.cpp:157] Top shape: 8 512 38 38 (5914624)
I1028 18:40:20.027189 21896 net.cpp:157] Top shape: 8 512 38 38 (5914624)
I1028 18:40:20.027194 21896 net.cpp:165] Memory required for data: 1721737280
I1028 18:40:20.027196 21896 layer_factory.hpp:77] Creating layer pool4
I1028 18:40:20.027204 21896 net.cpp:100] Creating Layer pool4
I1028 18:40:20.027207 21896 net.cpp:478] pool4 <- conv4_3_relu4_3_0_split_0
I1028 18:40:20.027214 21896 net.cpp:452] pool4 -> pool4
I1028 18:40:20.027248 21896 net.cpp:150] Setting up pool4
I1028 18:40:20.027254 21896 net.cpp:157] Top shape: 8 512 19 19 (1478656)
I1028 18:40:20.027258 21896 net.cpp:165] Memory required for data: 1727651904
I1028 18:40:20.027261 21896 layer_factory.hpp:77] Creating layer conv5_1
I1028 18:40:20.027272 21896 net.cpp:100] Creating Layer conv5_1
I1028 18:40:20.027276 21896 net.cpp:478] conv5_1 <- pool4
I1028 18:40:20.027282 21896 net.cpp:452] conv5_1 -> conv5_1
I1028 18:40:20.041100 21896 net.cpp:150] Setting up conv5_1
I1028 18:40:20.041134 21896 net.cpp:157] Top shape: 8 512 19 19 (1478656)
I1028 18:40:20.041141 21896 net.cpp:165] Memory required for data: 1733566528
I1028 18:40:20.041153 21896 layer_factory.hpp:77] Creating layer relu5_1
I1028 18:40:20.041167 21896 net.cpp:100] Creating Layer relu5_1
I1028 18:40:20.041204 21896 net.cpp:478] relu5_1 <- conv5_1
I1028 18:40:20.041220 21896 net.cpp:439] relu5_1 -> conv5_1 (in-place)
I1028 18:40:20.041234 21896 net.cpp:150] Setting up relu5_1
I1028 18:40:20.041240 21896 net.cpp:157] Top shape: 8 512 19 19 (1478656)
I1028 18:40:20.041244 21896 net.cpp:165] Memory required for data: 1739481152
I1028 18:40:20.041249 21896 layer_factory.hpp:77] Creating layer conv5_2
I1028 18:40:20.041260 21896 net.cpp:100] Creating Layer conv5_2
I1028 18:40:20.041265 21896 net.cpp:478] conv5_2 <- conv5_1
I1028 18:40:20.041272 21896 net.cpp:452] conv5_2 -> conv5_2
I1028 18:40:20.055131 21896 net.cpp:150] Setting up conv5_2
I1028 18:40:20.055173 21896 net.cpp:157] Top shape: 8 512 19 19 (1478656)
I1028 18:40:20.055179 21896 net.cpp:165] Memory required for data: 1745395776
I1028 18:40:20.055191 21896 layer_factory.hpp:77] Creating layer relu5_2
I1028 18:40:20.055202 21896 net.cpp:100] Creating Layer relu5_2
I1028 18:40:20.055209 21896 net.cpp:478] relu5_2 <- conv5_2
I1028 18:40:20.055217 21896 net.cpp:439] relu5_2 -> conv5_2 (in-place)
I1028 18:40:20.055229 21896 net.cpp:150] Setting up relu5_2
I1028 18:40:20.055235 21896 net.cpp:157] Top shape: 8 512 19 19 (1478656)
I1028 18:40:20.055240 21896 net.cpp:165] Memory required for data: 1751310400
I1028 18:40:20.055243 21896 layer_factory.hpp:77] Creating layer conv5_3
I1028 18:40:20.055254 21896 net.cpp:100] Creating Layer conv5_3
I1028 18:40:20.055258 21896 net.cpp:478] conv5_3 <- conv5_2
I1028 18:40:20.055265 21896 net.cpp:452] conv5_3 -> conv5_3
I1028 18:40:20.069007 21896 net.cpp:150] Setting up conv5_3
I1028 18:40:20.069043 21896 net.cpp:157] Top shape: 8 512 19 19 (1478656)
I1028 18:40:20.069049 21896 net.cpp:165] Memory required for data: 1757225024
I1028 18:40:20.069075 21896 layer_factory.hpp:77] Creating layer relu5_3
I1028 18:40:20.069095 21896 net.cpp:100] Creating Layer relu5_3
I1028 18:40:20.069105 21896 net.cpp:478] relu5_3 <- conv5_3
I1028 18:40:20.069118 21896 net.cpp:439] relu5_3 -> conv5_3 (in-place)
I1028 18:40:20.069129 21896 net.cpp:150] Setting up relu5_3
I1028 18:40:20.069135 21896 net.cpp:157] Top shape: 8 512 19 19 (1478656)
I1028 18:40:20.069139 21896 net.cpp:165] Memory required for data: 1763139648
I1028 18:40:20.069144 21896 layer_factory.hpp:77] Creating layer pool5
I1028 18:40:20.069154 21896 net.cpp:100] Creating Layer pool5
I1028 18:40:20.069159 21896 net.cpp:478] pool5 <- conv5_3
I1028 18:40:20.069165 21896 net.cpp:452] pool5 -> pool5
I1028 18:40:20.069216 21896 net.cpp:150] Setting up pool5
I1028 18:40:20.069224 21896 net.cpp:157] Top shape: 8 512 19 19 (1478656)
I1028 18:40:20.069227 21896 net.cpp:165] Memory required for data: 1769054272
I1028 18:40:20.069231 21896 layer_factory.hpp:77] Creating layer fc6
I1028 18:40:20.069242 21896 net.cpp:100] Creating Layer fc6
I1028 18:40:20.069247 21896 net.cpp:478] fc6 <- pool5
I1028 18:40:20.069254 21896 net.cpp:452] fc6 -> fc6
I1028 18:40:20.095569 21896 net.cpp:150] Setting up fc6
I1028 18:40:20.095597 21896 net.cpp:157] Top shape: 8 1024 19 19 (2957312)
I1028 18:40:20.095602 21896 net.cpp:165] Memory required for data: 1780883520
I1028 18:40:20.095623 21896 layer_factory.hpp:77] Creating layer relu6
I1028 18:40:20.095635 21896 net.cpp:100] Creating Layer relu6
I1028 18:40:20.095643 21896 net.cpp:478] relu6 <- fc6
I1028 18:40:20.095654 21896 net.cpp:439] relu6 -> fc6 (in-place)
I1028 18:40:20.095664 21896 net.cpp:150] Setting up relu6
I1028 18:40:20.095670 21896 net.cpp:157] Top shape: 8 1024 19 19 (2957312)
I1028 18:40:20.095675 21896 net.cpp:165] Memory required for data: 1792712768
I1028 18:40:20.095681 21896 layer_factory.hpp:77] Creating layer fc7
I1028 18:40:20.095691 21896 net.cpp:100] Creating Layer fc7
I1028 18:40:20.095695 21896 net.cpp:478] fc7 <- fc6
I1028 18:40:20.095705 21896 net.cpp:452] fc7 -> fc7
I1028 18:40:20.101894 21896 net.cpp:150] Setting up fc7
I1028 18:40:20.101913 21896 net.cpp:157] Top shape: 8 1024 19 19 (2957312)
I1028 18:40:20.101917 21896 net.cpp:165] Memory required for data: 1804542016
I1028 18:40:20.101951 21896 layer_factory.hpp:77] Creating layer relu7
I1028 18:40:20.101963 21896 net.cpp:100] Creating Layer relu7
I1028 18:40:20.101976 21896 net.cpp:478] relu7 <- fc7
I1028 18:40:20.101985 21896 net.cpp:439] relu7 -> fc7 (in-place)
I1028 18:40:20.101999 21896 net.cpp:150] Setting up relu7
I1028 18:40:20.102005 21896 net.cpp:157] Top shape: 8 1024 19 19 (2957312)
I1028 18:40:20.102010 21896 net.cpp:165] Memory required for data: 1816371264
I1028 18:40:20.102013 21896 layer_factory.hpp:77] Creating layer fc7_relu7_0_split
I1028 18:40:20.102020 21896 net.cpp:100] Creating Layer fc7_relu7_0_split
I1028 18:40:20.102025 21896 net.cpp:478] fc7_relu7_0_split <- fc7
I1028 18:40:20.102030 21896 net.cpp:452] fc7_relu7_0_split -> fc7_relu7_0_split_0
I1028 18:40:20.102041 21896 net.cpp:452] fc7_relu7_0_split -> fc7_relu7_0_split_1
I1028 18:40:20.102054 21896 net.cpp:452] fc7_relu7_0_split -> fc7_relu7_0_split_2
I1028 18:40:20.102062 21896 net.cpp:452] fc7_relu7_0_split -> fc7_relu7_0_split_3
I1028 18:40:20.102124 21896 net.cpp:150] Setting up fc7_relu7_0_split
I1028 18:40:20.102131 21896 net.cpp:157] Top shape: 8 1024 19 19 (2957312)
I1028 18:40:20.102138 21896 net.cpp:157] Top shape: 8 1024 19 19 (2957312)
I1028 18:40:20.102144 21896 net.cpp:157] Top shape: 8 1024 19 19 (2957312)
I1028 18:40:20.102149 21896 net.cpp:157] Top shape: 8 1024 19 19 (2957312)
I1028 18:40:20.102152 21896 net.cpp:165] Memory required for data: 1863688256
I1028 18:40:20.102156 21896 layer_factory.hpp:77] Creating layer conv6_1
I1028 18:40:20.102166 21896 net.cpp:100] Creating Layer conv6_1
I1028 18:40:20.102170 21896 net.cpp:478] conv6_1 <- fc7_relu7_0_split_0
I1028 18:40:20.102180 21896 net.cpp:452] conv6_1 -> conv6_1
I1028 18:40:20.104074 21896 net.cpp:150] Setting up conv6_1
I1028 18:40:20.104085 21896 net.cpp:157] Top shape: 8 256 19 19 (739328)
I1028 18:40:20.104089 21896 net.cpp:165] Memory required for data: 1866645568
I1028 18:40:20.104096 21896 layer_factory.hpp:77] Creating layer conv6_1_relu
I1028 18:40:20.104104 21896 net.cpp:100] Creating Layer conv6_1_relu
I1028 18:40:20.104110 21896 net.cpp:478] conv6_1_relu <- conv6_1
I1028 18:40:20.104117 21896 net.cpp:439] conv6_1_relu -> conv6_1 (in-place)
I1028 18:40:20.104125 21896 net.cpp:150] Setting up conv6_1_relu
I1028 18:40:20.104130 21896 net.cpp:157] Top shape: 8 256 19 19 (739328)
I1028 18:40:20.104135 21896 net.cpp:165] Memory required for data: 1869602880
I1028 18:40:20.104140 21896 layer_factory.hpp:77] Creating layer conv6_2
I1028 18:40:20.104147 21896 net.cpp:100] Creating Layer conv6_2
I1028 18:40:20.104151 21896 net.cpp:478] conv6_2 <- conv6_1
I1028 18:40:20.104159 21896 net.cpp:452] conv6_2 -> conv6_2
I1028 18:40:20.111021 21896 net.cpp:150] Setting up conv6_2
I1028 18:40:20.111039 21896 net.cpp:157] Top shape: 8 512 10 10 (409600)
I1028 18:40:20.111043 21896 net.cpp:165] Memory required for data: 1871241280
I1028 18:40:20.111063 21896 layer_factory.hpp:77] Creating layer conv6_2_relu
I1028 18:40:20.111073 21896 net.cpp:100] Creating Layer conv6_2_relu
I1028 18:40:20.111081 21896 net.cpp:478] conv6_2_relu <- conv6_2
I1028 18:40:20.111089 21896 net.cpp:439] conv6_2_relu -> conv6_2 (in-place)
I1028 18:40:20.111099 21896 net.cpp:150] Setting up conv6_2_relu
I1028 18:40:20.111105 21896 net.cpp:157] Top shape: 8 512 10 10 (409600)
I1028 18:40:20.111110 21896 net.cpp:165] Memory required for data: 1872879680
I1028 18:40:20.111114 21896 layer_factory.hpp:77] Creating layer conv6_2_conv6_2_relu_0_split
I1028 18:40:20.111122 21896 net.cpp:100] Creating Layer conv6_2_conv6_2_relu_0_split
I1028 18:40:20.111127 21896 net.cpp:478] conv6_2_conv6_2_relu_0_split <- conv6_2
I1028 18:40:20.111133 21896 net.cpp:452] conv6_2_conv6_2_relu_0_split -> conv6_2_conv6_2_relu_0_split_0
I1028 18:40:20.111142 21896 net.cpp:452] conv6_2_conv6_2_relu_0_split -> conv6_2_conv6_2_relu_0_split_1
I1028 18:40:20.111151 21896 net.cpp:452] conv6_2_conv6_2_relu_0_split -> conv6_2_conv6_2_relu_0_split_2
I1028 18:40:20.111160 21896 net.cpp:452] conv6_2_conv6_2_relu_0_split -> conv6_2_conv6_2_relu_0_split_3
I1028 18:40:20.111244 21896 net.cpp:150] Setting up conv6_2_conv6_2_relu_0_split
I1028 18:40:20.111253 21896 net.cpp:157] Top shape: 8 512 10 10 (409600)
I1028 18:40:20.111258 21896 net.cpp:157] Top shape: 8 512 10 10 (409600)
I1028 18:40:20.111263 21896 net.cpp:157] Top shape: 8 512 10 10 (409600)
I1028 18:40:20.111268 21896 net.cpp:157] Top shape: 8 512 10 10 (409600)
I1028 18:40:20.111273 21896 net.cpp:165] Memory required for data: 1879433280
I1028 18:40:20.111276 21896 layer_factory.hpp:77] Creating layer conv7_1
I1028 18:40:20.111289 21896 net.cpp:100] Creating Layer conv7_1
I1028 18:40:20.111294 21896 net.cpp:478] conv7_1 <- conv6_2_conv6_2_relu_0_split_0
I1028 18:40:20.111301 21896 net.cpp:452] conv7_1 -> conv7_1
I1028 18:40:20.112308 21896 net.cpp:150] Setting up conv7_1
I1028 18:40:20.112318 21896 net.cpp:157] Top shape: 8 128 10 10 (102400)
I1028 18:40:20.112323 21896 net.cpp:165] Memory required for data: 1879842880
I1028 18:40:20.112329 21896 layer_factory.hpp:77] Creating layer conv7_1_relu
I1028 18:40:20.112337 21896 net.cpp:100] Creating Layer conv7_1_relu
I1028 18:40:20.112342 21896 net.cpp:478] conv7_1_relu <- conv7_1
I1028 18:40:20.112350 21896 net.cpp:439] conv7_1_relu -> conv7_1 (in-place)
I1028 18:40:20.112357 21896 net.cpp:150] Setting up conv7_1_relu
I1028 18:40:20.112363 21896 net.cpp:157] Top shape: 8 128 10 10 (102400)
I1028 18:40:20.112368 21896 net.cpp:165] Memory required for data: 1880252480
I1028 18:40:20.112371 21896 layer_factory.hpp:77] Creating layer conv7_2
I1028 18:40:20.112381 21896 net.cpp:100] Creating Layer conv7_2
I1028 18:40:20.112385 21896 net.cpp:478] conv7_2 <- conv7_1
I1028 18:40:20.112392 21896 net.cpp:452] conv7_2 -> conv7_2
I1028 18:40:20.114423 21896 net.cpp:150] Setting up conv7_2
I1028 18:40:20.114435 21896 net.cpp:157] Top shape: 8 256 5 5 (51200)
I1028 18:40:20.114439 21896 net.cpp:165] Memory required for data: 1880457280
I1028 18:40:20.114446 21896 layer_factory.hpp:77] Creating layer conv7_2_relu
I1028 18:40:20.114454 21896 net.cpp:100] Creating Layer conv7_2_relu
I1028 18:40:20.114459 21896 net.cpp:478] conv7_2_relu <- conv7_2
I1028 18:40:20.114466 21896 net.cpp:439] conv7_2_relu -> conv7_2 (in-place)
I1028 18:40:20.114472 21896 net.cpp:150] Setting up conv7_2_relu
I1028 18:40:20.114480 21896 net.cpp:157] Top shape: 8 256 5 5 (51200)
I1028 18:40:20.114485 21896 net.cpp:165] Memory required for data: 1880662080
I1028 18:40:20.114488 21896 layer_factory.hpp:77] Creating layer conv7_2_conv7_2_relu_0_split
I1028 18:40:20.114496 21896 net.cpp:100] Creating Layer conv7_2_conv7_2_relu_0_split
I1028 18:40:20.114500 21896 net.cpp:478] conv7_2_conv7_2_relu_0_split <- conv7_2
I1028 18:40:20.114508 21896 net.cpp:452] conv7_2_conv7_2_relu_0_split -> conv7_2_conv7_2_relu_0_split_0
I1028 18:40:20.114517 21896 net.cpp:452] conv7_2_conv7_2_relu_0_split -> conv7_2_conv7_2_relu_0_split_1
I1028 18:40:20.114526 21896 net.cpp:452] conv7_2_conv7_2_relu_0_split -> conv7_2_conv7_2_relu_0_split_2
I1028 18:40:20.114534 21896 net.cpp:452] conv7_2_conv7_2_relu_0_split -> conv7_2_conv7_2_relu_0_split_3
I1028 18:40:20.114591 21896 net.cpp:150] Setting up conv7_2_conv7_2_relu_0_split
I1028 18:40:20.114598 21896 net.cpp:157] Top shape: 8 256 5 5 (51200)
I1028 18:40:20.114603 21896 net.cpp:157] Top shape: 8 256 5 5 (51200)
I1028 18:40:20.114609 21896 net.cpp:157] Top shape: 8 256 5 5 (51200)
I1028 18:40:20.114614 21896 net.cpp:157] Top shape: 8 256 5 5 (51200)
I1028 18:40:20.114619 21896 net.cpp:165] Memory required for data: 1881481280
I1028 18:40:20.114622 21896 layer_factory.hpp:77] Creating layer conv8_1
I1028 18:40:20.114631 21896 net.cpp:100] Creating Layer conv8_1
I1028 18:40:20.114636 21896 net.cpp:478] conv8_1 <- conv7_2_conv7_2_relu_0_split_0
I1028 18:40:20.114645 21896 net.cpp:452] conv8_1 -> conv8_1
I1028 18:40:20.114981 21896 net.cpp:150] Setting up conv8_1
I1028 18:40:20.114989 21896 net.cpp:157] Top shape: 8 128 5 5 (25600)
I1028 18:40:20.114994 21896 net.cpp:165] Memory required for data: 1881583680
I1028 18:40:20.115000 21896 layer_factory.hpp:77] Creating layer conv8_1_relu
I1028 18:40:20.115017 21896 net.cpp:100] Creating Layer conv8_1_relu
I1028 18:40:20.115022 21896 net.cpp:478] conv8_1_relu <- conv8_1
I1028 18:40:20.115031 21896 net.cpp:439] conv8_1_relu -> conv8_1 (in-place)
I1028 18:40:20.115037 21896 net.cpp:150] Setting up conv8_1_relu
I1028 18:40:20.115043 21896 net.cpp:157] Top shape: 8 128 5 5 (25600)
I1028 18:40:20.115048 21896 net.cpp:165] Memory required for data: 1881686080
I1028 18:40:20.115051 21896 layer_factory.hpp:77] Creating layer conv8_2
I1028 18:40:20.115061 21896 net.cpp:100] Creating Layer conv8_2
I1028 18:40:20.115065 21896 net.cpp:478] conv8_2 <- conv8_1
I1028 18:40:20.115072 21896 net.cpp:452] conv8_2 -> conv8_2
I1028 18:40:20.117046 21896 net.cpp:150] Setting up conv8_2
I1028 18:40:20.117074 21896 net.cpp:157] Top shape: 8 256 3 3 (18432)
I1028 18:40:20.117077 21896 net.cpp:165] Memory required for data: 1881759808
I1028 18:40:20.117087 21896 layer_factory.hpp:77] Creating layer conv8_2_relu
I1028 18:40:20.117100 21896 net.cpp:100] Creating Layer conv8_2_relu
I1028 18:40:20.117106 21896 net.cpp:478] conv8_2_relu <- conv8_2
I1028 18:40:20.117120 21896 net.cpp:439] conv8_2_relu -> conv8_2 (in-place)
I1028 18:40:20.117136 21896 net.cpp:150] Setting up conv8_2_relu
I1028 18:40:20.117141 21896 net.cpp:157] Top shape: 8 256 3 3 (18432)
I1028 18:40:20.117146 21896 net.cpp:165] Memory required for data: 1881833536
I1028 18:40:20.117149 21896 layer_factory.hpp:77] Creating layer conv8_2_conv8_2_relu_0_split
I1028 18:40:20.117159 21896 net.cpp:100] Creating Layer conv8_2_conv8_2_relu_0_split
I1028 18:40:20.117164 21896 net.cpp:478] conv8_2_conv8_2_relu_0_split <- conv8_2
I1028 18:40:20.117175 21896 net.cpp:452] conv8_2_conv8_2_relu_0_split -> conv8_2_conv8_2_relu_0_split_0
I1028 18:40:20.117185 21896 net.cpp:452] conv8_2_conv8_2_relu_0_split -> conv8_2_conv8_2_relu_0_split_1
I1028 18:40:20.117194 21896 net.cpp:452] conv8_2_conv8_2_relu_0_split -> conv8_2_conv8_2_relu_0_split_2
I1028 18:40:20.117204 21896 net.cpp:452] conv8_2_conv8_2_relu_0_split -> conv8_2_conv8_2_relu_0_split_3
I1028 18:40:20.117281 21896 net.cpp:150] Setting up conv8_2_conv8_2_relu_0_split
I1028 18:40:20.117290 21896 net.cpp:157] Top shape: 8 256 3 3 (18432)
I1028 18:40:20.117293 21896 net.cpp:157] Top shape: 8 256 3 3 (18432)
I1028 18:40:20.117298 21896 net.cpp:157] Top shape: 8 256 3 3 (18432)
I1028 18:40:20.117302 21896 net.cpp:157] Top shape: 8 256 3 3 (18432)
I1028 18:40:20.117305 21896 net.cpp:165] Memory required for data: 1882128448
I1028 18:40:20.117308 21896 layer_factory.hpp:77] Creating layer conv9_1
I1028 18:40:20.117321 21896 net.cpp:100] Creating Layer conv9_1
I1028 18:40:20.117326 21896 net.cpp:478] conv9_1 <- conv8_2_conv8_2_relu_0_split_0
I1028 18:40:20.117333 21896 net.cpp:452] conv9_1 -> conv9_1
I1028 18:40:20.117699 21896 net.cpp:150] Setting up conv9_1
I1028 18:40:20.117709 21896 net.cpp:157] Top shape: 8 128 3 3 (9216)
I1028 18:40:20.117712 21896 net.cpp:165] Memory required for data: 1882165312
I1028 18:40:20.117720 21896 layer_factory.hpp:77] Creating layer conv9_1_relu
I1028 18:40:20.117727 21896 net.cpp:100] Creating Layer conv9_1_relu
I1028 18:40:20.117730 21896 net.cpp:478] conv9_1_relu <- conv9_1
I1028 18:40:20.117736 21896 net.cpp:439] conv9_1_relu -> conv9_1 (in-place)
I1028 18:40:20.117743 21896 net.cpp:150] Setting up conv9_1_relu
I1028 18:40:20.117748 21896 net.cpp:157] Top shape: 8 128 3 3 (9216)
I1028 18:40:20.117750 21896 net.cpp:165] Memory required for data: 1882202176
I1028 18:40:20.117754 21896 layer_factory.hpp:77] Creating layer conv9_2
I1028 18:40:20.117763 21896 net.cpp:100] Creating Layer conv9_2
I1028 18:40:20.117769 21896 net.cpp:478] conv9_2 <- conv9_1
I1028 18:40:20.117775 21896 net.cpp:452] conv9_2 -> conv9_2
I1028 18:40:20.119812 21896 net.cpp:150] Setting up conv9_2
I1028 18:40:20.119827 21896 net.cpp:157] Top shape: 8 256 1 1 (2048)
I1028 18:40:20.119832 21896 net.cpp:165] Memory required for data: 1882210368
I1028 18:40:20.119839 21896 layer_factory.hpp:77] Creating layer conv9_2_relu
I1028 18:40:20.119846 21896 net.cpp:100] Creating Layer conv9_2_relu
I1028 18:40:20.119868 21896 net.cpp:478] conv9_2_relu <- conv9_2
I1028 18:40:20.119874 21896 net.cpp:439] conv9_2_relu -> conv9_2 (in-place)
I1028 18:40:20.119882 21896 net.cpp:150] Setting up conv9_2_relu
I1028 18:40:20.119889 21896 net.cpp:157] Top shape: 8 256 1 1 (2048)
I1028 18:40:20.119894 21896 net.cpp:165] Memory required for data: 1882218560
I1028 18:40:20.119896 21896 layer_factory.hpp:77] Creating layer conv9_2_conv9_2_relu_0_split
I1028 18:40:20.119904 21896 net.cpp:100] Creating Layer conv9_2_conv9_2_relu_0_split
I1028 18:40:20.119910 21896 net.cpp:478] conv9_2_conv9_2_relu_0_split <- conv9_2
I1028 18:40:20.119915 21896 net.cpp:452] conv9_2_conv9_2_relu_0_split -> conv9_2_conv9_2_relu_0_split_0
I1028 18:40:20.119926 21896 net.cpp:452] conv9_2_conv9_2_relu_0_split -> conv9_2_conv9_2_relu_0_split_1
I1028 18:40:20.119935 21896 net.cpp:452] conv9_2_conv9_2_relu_0_split -> conv9_2_conv9_2_relu_0_split_2
I1028 18:40:20.119981 21896 net.cpp:150] Setting up conv9_2_conv9_2_relu_0_split
I1028 18:40:20.119987 21896 net.cpp:157] Top shape: 8 256 1 1 (2048)
I1028 18:40:20.119992 21896 net.cpp:157] Top shape: 8 256 1 1 (2048)
I1028 18:40:20.119997 21896 net.cpp:157] Top shape: 8 256 1 1 (2048)
I1028 18:40:20.120000 21896 net.cpp:165] Memory required for data: 1882243136
I1028 18:40:20.120005 21896 layer_factory.hpp:77] Creating layer conv4_3_norm
I1028 18:40:20.120019 21896 net.cpp:100] Creating Layer conv4_3_norm
I1028 18:40:20.120024 21896 net.cpp:478] conv4_3_norm <- conv4_3_relu4_3_0_split_1
I1028 18:40:20.120031 21896 net.cpp:452] conv4_3_norm -> conv4_3_norm
I1028 18:40:20.120165 21896 net.cpp:150] Setting up conv4_3_norm
I1028 18:40:20.120172 21896 net.cpp:157] Top shape: 8 512 38 38 (5914624)
I1028 18:40:20.120177 21896 net.cpp:165] Memory required for data: 1905901632
I1028 18:40:20.120182 21896 layer_factory.hpp:77] Creating layer conv4_3_norm_conv4_3_norm_0_split
I1028 18:40:20.120190 21896 net.cpp:100] Creating Layer conv4_3_norm_conv4_3_norm_0_split
I1028 18:40:20.120195 21896 net.cpp:478] conv4_3_norm_conv4_3_norm_0_split <- conv4_3_norm
I1028 18:40:20.120201 21896 net.cpp:452] conv4_3_norm_conv4_3_norm_0_split -> conv4_3_norm_conv4_3_norm_0_split_0
I1028 18:40:20.120209 21896 net.cpp:452] conv4_3_norm_conv4_3_norm_0_split -> conv4_3_norm_conv4_3_norm_0_split_1
I1028 18:40:20.120218 21896 net.cpp:452] conv4_3_norm_conv4_3_norm_0_split -> conv4_3_norm_conv4_3_norm_0_split_2
I1028 18:40:20.120260 21896 net.cpp:150] Setting up conv4_3_norm_conv4_3_norm_0_split
I1028 18:40:20.120267 21896 net.cpp:157] Top shape: 8 512 38 38 (5914624)
I1028 18:40:20.120271 21896 net.cpp:157] Top shape: 8 512 38 38 (5914624)
I1028 18:40:20.120277 21896 net.cpp:157] Top shape: 8 512 38 38 (5914624)
I1028 18:40:20.120282 21896 net.cpp:165] Memory required for data: 1976877120
I1028 18:40:20.120285 21896 layer_factory.hpp:77] Creating layer conv4_3_norm_mbox_loc
I1028 18:40:20.120295 21896 net.cpp:100] Creating Layer conv4_3_norm_mbox_loc
I1028 18:40:20.120298 21896 net.cpp:478] conv4_3_norm_mbox_loc <- conv4_3_norm_conv4_3_norm_0_split_0
I1028 18:40:20.120307 21896 net.cpp:452] conv4_3_norm_mbox_loc -> conv4_3_norm_mbox_loc
I1028 18:40:20.120841 21896 net.cpp:150] Setting up conv4_3_norm_mbox_loc
I1028 18:40:20.120849 21896 net.cpp:157] Top shape: 8 16 38 38 (184832)
I1028 18:40:20.120852 21896 net.cpp:165] Memory required for data: 1977616448
I1028 18:40:20.120859 21896 layer_factory.hpp:77] Creating layer conv4_3_norm_mbox_loc_perm
I1028 18:40:20.120869 21896 net.cpp:100] Creating Layer conv4_3_norm_mbox_loc_perm
I1028 18:40:20.120873 21896 net.cpp:478] conv4_3_norm_mbox_loc_perm <- conv4_3_norm_mbox_loc
I1028 18:40:20.120879 21896 net.cpp:452] conv4_3_norm_mbox_loc_perm -> conv4_3_norm_mbox_loc_perm
I1028 18:40:20.120962 21896 net.cpp:150] Setting up conv4_3_norm_mbox_loc_perm
I1028 18:40:20.120970 21896 net.cpp:157] Top shape: 8 38 38 16 (184832)
I1028 18:40:20.120972 21896 net.cpp:165] Memory required for data: 1978355776
I1028 18:40:20.120976 21896 layer_factory.hpp:77] Creating layer conv4_3_norm_mbox_loc_flat
I1028 18:40:20.120985 21896 net.cpp:100] Creating Layer conv4_3_norm_mbox_loc_flat
I1028 18:40:20.120997 21896 net.cpp:478] conv4_3_norm_mbox_loc_flat <- conv4_3_norm_mbox_loc_perm
I1028 18:40:20.121004 21896 net.cpp:452] conv4_3_norm_mbox_loc_flat -> conv4_3_norm_mbox_loc_flat
I1028 18:40:20.121038 21896 net.cpp:150] Setting up conv4_3_norm_mbox_loc_flat
I1028 18:40:20.121048 21896 net.cpp:157] Top shape: 8 23104 (184832)
I1028 18:40:20.121053 21896 net.cpp:165] Memory required for data: 1979095104
I1028 18:40:20.121057 21896 layer_factory.hpp:77] Creating layer conv4_3_norm_mbox_conf
I1028 18:40:20.121073 21896 net.cpp:100] Creating Layer conv4_3_norm_mbox_conf
I1028 18:40:20.121076 21896 net.cpp:478] conv4_3_norm_mbox_conf <- conv4_3_norm_conv4_3_norm_0_split_1
I1028 18:40:20.121083 21896 net.cpp:452] conv4_3_norm_mbox_conf -> conv4_3_norm_mbox_conf
I1028 18:40:20.123634 21896 net.cpp:150] Setting up conv4_3_norm_mbox_conf
I1028 18:40:20.123654 21896 net.cpp:157] Top shape: 8 84 38 38 (970368)
I1028 18:40:20.123658 21896 net.cpp:165] Memory required for data: 1982976576
I1028 18:40:20.123668 21896 layer_factory.hpp:77] Creating layer conv4_3_norm_mbox_conf_perm
I1028 18:40:20.123678 21896 net.cpp:100] Creating Layer conv4_3_norm_mbox_conf_perm
I1028 18:40:20.123684 21896 net.cpp:478] conv4_3_norm_mbox_conf_perm <- conv4_3_norm_mbox_conf
I1028 18:40:20.123694 21896 net.cpp:452] conv4_3_norm_mbox_conf_perm -> conv4_3_norm_mbox_conf_perm
I1028 18:40:20.123783 21896 net.cpp:150] Setting up conv4_3_norm_mbox_conf_perm
I1028 18:40:20.123790 21896 net.cpp:157] Top shape: 8 38 38 84 (970368)
I1028 18:40:20.123793 21896 net.cpp:165] Memory required for data: 1986858048
I1028 18:40:20.123797 21896 layer_factory.hpp:77] Creating layer conv4_3_norm_mbox_conf_flat
I1028 18:40:20.123805 21896 net.cpp:100] Creating Layer conv4_3_norm_mbox_conf_flat
I1028 18:40:20.123811 21896 net.cpp:478] conv4_3_norm_mbox_conf_flat <- conv4_3_norm_mbox_conf_perm
I1028 18:40:20.123819 21896 net.cpp:452] conv4_3_norm_mbox_conf_flat -> conv4_3_norm_mbox_conf_flat
I1028 18:40:20.123844 21896 net.cpp:150] Setting up conv4_3_norm_mbox_conf_flat
I1028 18:40:20.123850 21896 net.cpp:157] Top shape: 8 121296 (970368)
I1028 18:40:20.123854 21896 net.cpp:165] Memory required for data: 1990739520
I1028 18:40:20.123858 21896 layer_factory.hpp:77] Creating layer conv4_3_norm_mbox_priorbox
I1028 18:40:20.123868 21896 net.cpp:100] Creating Layer conv4_3_norm_mbox_priorbox
I1028 18:40:20.123873 21896 net.cpp:478] conv4_3_norm_mbox_priorbox <- conv4_3_norm_conv4_3_norm_0_split_2
I1028 18:40:20.123879 21896 net.cpp:478] conv4_3_norm_mbox_priorbox <- data_data_0_split_1
I1028 18:40:20.123886 21896 net.cpp:452] conv4_3_norm_mbox_priorbox -> conv4_3_norm_mbox_priorbox
I1028 18:40:20.123917 21896 net.cpp:150] Setting up conv4_3_norm_mbox_priorbox
I1028 18:40:20.123924 21896 net.cpp:157] Top shape: 1 2 23104 (46208)
I1028 18:40:20.123927 21896 net.cpp:165] Memory required for data: 1990924352
I1028 18:40:20.123930 21896 layer_factory.hpp:77] Creating layer fc7_mbox_loc
I1028 18:40:20.123941 21896 net.cpp:100] Creating Layer fc7_mbox_loc
I1028 18:40:20.123946 21896 net.cpp:478] fc7_mbox_loc <- fc7_relu7_0_split_1
I1028 18:40:20.123960 21896 net.cpp:452] fc7_mbox_loc -> fc7_mbox_loc
I1028 18:40:20.125685 21896 net.cpp:150] Setting up fc7_mbox_loc
I1028 18:40:20.125696 21896 net.cpp:157] Top shape: 8 24 19 19 (69312)
I1028 18:40:20.125700 21896 net.cpp:165] Memory required for data: 1991201600
I1028 18:40:20.125708 21896 layer_factory.hpp:77] Creating layer fc7_mbox_loc_perm
I1028 18:40:20.125716 21896 net.cpp:100] Creating Layer fc7_mbox_loc_perm
I1028 18:40:20.125722 21896 net.cpp:478] fc7_mbox_loc_perm <- fc7_mbox_loc
I1028 18:40:20.125730 21896 net.cpp:452] fc7_mbox_loc_perm -> fc7_mbox_loc_perm
I1028 18:40:20.125816 21896 net.cpp:150] Setting up fc7_mbox_loc_perm
I1028 18:40:20.125823 21896 net.cpp:157] Top shape: 8 19 19 24 (69312)
I1028 18:40:20.125828 21896 net.cpp:165] Memory required for data: 1991478848
I1028 18:40:20.125830 21896 layer_factory.hpp:77] Creating layer fc7_mbox_loc_flat
I1028 18:40:20.125854 21896 net.cpp:100] Creating Layer fc7_mbox_loc_flat
I1028 18:40:20.125859 21896 net.cpp:478] fc7_mbox_loc_flat <- fc7_mbox_loc_perm
I1028 18:40:20.125866 21896 net.cpp:452] fc7_mbox_loc_flat -> fc7_mbox_loc_flat
I1028 18:40:20.125893 21896 net.cpp:150] Setting up fc7_mbox_loc_flat
I1028 18:40:20.125900 21896 net.cpp:157] Top shape: 8 8664 (69312)
I1028 18:40:20.125903 21896 net.cpp:165] Memory required for data: 1991756096
I1028 18:40:20.125906 21896 layer_factory.hpp:77] Creating layer fc7_mbox_conf
I1028 18:40:20.125917 21896 net.cpp:100] Creating Layer fc7_mbox_conf
I1028 18:40:20.125922 21896 net.cpp:478] fc7_mbox_conf <- fc7_relu7_0_split_2
I1028 18:40:20.125931 21896 net.cpp:452] fc7_mbox_conf -> fc7_mbox_conf
I1028 18:40:20.133024 21896 net.cpp:150] Setting up fc7_mbox_conf
I1028 18:40:20.133046 21896 net.cpp:157] Top shape: 8 126 19 19 (363888)
I1028 18:40:20.133051 21896 net.cpp:165] Memory required for data: 1993211648
I1028 18:40:20.133061 21896 layer_factory.hpp:77] Creating layer fc7_mbox_conf_perm
I1028 18:40:20.133074 21896 net.cpp:100] Creating Layer fc7_mbox_conf_perm
I1028 18:40:20.133081 21896 net.cpp:478] fc7_mbox_conf_perm <- fc7_mbox_conf
I1028 18:40:20.133095 21896 net.cpp:452] fc7_mbox_conf_perm -> fc7_mbox_conf_perm
I1028 18:40:20.133191 21896 net.cpp:150] Setting up fc7_mbox_conf_perm
I1028 18:40:20.133199 21896 net.cpp:157] Top shape: 8 19 19 126 (363888)
I1028 18:40:20.133203 21896 net.cpp:165] Memory required for data: 1994667200
I1028 18:40:20.133206 21896 layer_factory.hpp:77] Creating layer fc7_mbox_conf_flat
I1028 18:40:20.133214 21896 net.cpp:100] Creating Layer fc7_mbox_conf_flat
I1028 18:40:20.133219 21896 net.cpp:478] fc7_mbox_conf_flat <- fc7_mbox_conf_perm
I1028 18:40:20.133225 21896 net.cpp:452] fc7_mbox_conf_flat -> fc7_mbox_conf_flat
I1028 18:40:20.133251 21896 net.cpp:150] Setting up fc7_mbox_conf_flat
I1028 18:40:20.133258 21896 net.cpp:157] Top shape: 8 45486 (363888)
I1028 18:40:20.133261 21896 net.cpp:165] Memory required for data: 1996122752
I1028 18:40:20.133265 21896 layer_factory.hpp:77] Creating layer fc7_mbox_priorbox
I1028 18:40:20.133275 21896 net.cpp:100] Creating Layer fc7_mbox_priorbox
I1028 18:40:20.133278 21896 net.cpp:478] fc7_mbox_priorbox <- fc7_relu7_0_split_3
I1028 18:40:20.133285 21896 net.cpp:478] fc7_mbox_priorbox <- data_data_0_split_2
I1028 18:40:20.133291 21896 net.cpp:452] fc7_mbox_priorbox -> fc7_mbox_priorbox
I1028 18:40:20.133321 21896 net.cpp:150] Setting up fc7_mbox_priorbox
I1028 18:40:20.133327 21896 net.cpp:157] Top shape: 1 2 8664 (17328)
I1028 18:40:20.133330 21896 net.cpp:165] Memory required for data: 1996192064
I1028 18:40:20.133334 21896 layer_factory.hpp:77] Creating layer conv6_2_mbox_loc
I1028 18:40:20.133345 21896 net.cpp:100] Creating Layer conv6_2_mbox_loc
I1028 18:40:20.133350 21896 net.cpp:478] conv6_2_mbox_loc <- conv6_2_conv6_2_relu_0_split_1
I1028 18:40:20.133359 21896 net.cpp:452] conv6_2_mbox_loc -> conv6_2_mbox_loc
I1028 18:40:20.134588 21896 net.cpp:150] Setting up conv6_2_mbox_loc
I1028 18:40:20.134600 21896 net.cpp:157] Top shape: 8 24 10 10 (19200)
I1028 18:40:20.134604 21896 net.cpp:165] Memory required for data: 1996268864
I1028 18:40:20.134613 21896 layer_factory.hpp:77] Creating layer conv6_2_mbox_loc_perm
I1028 18:40:20.134621 21896 net.cpp:100] Creating Layer conv6_2_mbox_loc_perm
I1028 18:40:20.134627 21896 net.cpp:478] conv6_2_mbox_loc_perm <- conv6_2_mbox_loc
I1028 18:40:20.134634 21896 net.cpp:452] conv6_2_mbox_loc_perm -> conv6_2_mbox_loc_perm
I1028 18:40:20.134721 21896 net.cpp:150] Setting up conv6_2_mbox_loc_perm
I1028 18:40:20.134727 21896 net.cpp:157] Top shape: 8 10 10 24 (19200)
I1028 18:40:20.134732 21896 net.cpp:165] Memory required for data: 1996345664
I1028 18:40:20.134735 21896 layer_factory.hpp:77] Creating layer conv6_2_mbox_loc_flat
I1028 18:40:20.134743 21896 net.cpp:100] Creating Layer conv6_2_mbox_loc_flat
I1028 18:40:20.134747 21896 net.cpp:478] conv6_2_mbox_loc_flat <- conv6_2_mbox_loc_perm
I1028 18:40:20.134753 21896 net.cpp:452] conv6_2_mbox_loc_flat -> conv6_2_mbox_loc_flat
I1028 18:40:20.134800 21896 net.cpp:150] Setting up conv6_2_mbox_loc_flat
I1028 18:40:20.134807 21896 net.cpp:157] Top shape: 8 2400 (19200)
I1028 18:40:20.134811 21896 net.cpp:165] Memory required for data: 1996422464
I1028 18:40:20.134815 21896 layer_factory.hpp:77] Creating layer conv6_2_mbox_conf
I1028 18:40:20.134826 21896 net.cpp:100] Creating Layer conv6_2_mbox_conf
I1028 18:40:20.134832 21896 net.cpp:478] conv6_2_mbox_conf <- conv6_2_conv6_2_relu_0_split_2
I1028 18:40:20.134842 21896 net.cpp:452] conv6_2_mbox_conf -> conv6_2_mbox_conf
I1028 18:40:20.138430 21896 net.cpp:150] Setting up conv6_2_mbox_conf
I1028 18:40:20.138443 21896 net.cpp:157] Top shape: 8 126 10 10 (100800)
I1028 18:40:20.138447 21896 net.cpp:165] Memory required for data: 1996825664
I1028 18:40:20.138455 21896 layer_factory.hpp:77] Creating layer conv6_2_mbox_conf_perm
I1028 18:40:20.138466 21896 net.cpp:100] Creating Layer conv6_2_mbox_conf_perm
I1028 18:40:20.138471 21896 net.cpp:478] conv6_2_mbox_conf_perm <- conv6_2_mbox_conf
I1028 18:40:20.138480 21896 net.cpp:452] conv6_2_mbox_conf_perm -> conv6_2_mbox_conf_perm
I1028 18:40:20.138568 21896 net.cpp:150] Setting up conv6_2_mbox_conf_perm
I1028 18:40:20.138576 21896 net.cpp:157] Top shape: 8 10 10 126 (100800)
I1028 18:40:20.138579 21896 net.cpp:165] Memory required for data: 1997228864
I1028 18:40:20.138583 21896 layer_factory.hpp:77] Creating layer conv6_2_mbox_conf_flat
I1028 18:40:20.138592 21896 net.cpp:100] Creating Layer conv6_2_mbox_conf_flat
I1028 18:40:20.138597 21896 net.cpp:478] conv6_2_mbox_conf_flat <- conv6_2_mbox_conf_perm
I1028 18:40:20.138602 21896 net.cpp:452] conv6_2_mbox_conf_flat -> conv6_2_mbox_conf_flat
I1028 18:40:20.138630 21896 net.cpp:150] Setting up conv6_2_mbox_conf_flat
I1028 18:40:20.138636 21896 net.cpp:157] Top shape: 8 12600 (100800)
I1028 18:40:20.138639 21896 net.cpp:165] Memory required for data: 1997632064
I1028 18:40:20.138643 21896 layer_factory.hpp:77] Creating layer conv6_2_mbox_priorbox
I1028 18:40:20.138653 21896 net.cpp:100] Creating Layer conv6_2_mbox_priorbox
I1028 18:40:20.138656 21896 net.cpp:478] conv6_2_mbox_priorbox <- conv6_2_conv6_2_relu_0_split_3
I1028 18:40:20.138662 21896 net.cpp:478] conv6_2_mbox_priorbox <- data_data_0_split_3
I1028 18:40:20.138670 21896 net.cpp:452] conv6_2_mbox_priorbox -> conv6_2_mbox_priorbox
I1028 18:40:20.138696 21896 net.cpp:150] Setting up conv6_2_mbox_priorbox
I1028 18:40:20.138703 21896 net.cpp:157] Top shape: 1 2 2400 (4800)
I1028 18:40:20.138706 21896 net.cpp:165] Memory required for data: 1997651264
I1028 18:40:20.138710 21896 layer_factory.hpp:77] Creating layer conv7_2_mbox_loc
I1028 18:40:20.138720 21896 net.cpp:100] Creating Layer conv7_2_mbox_loc
I1028 18:40:20.138725 21896 net.cpp:478] conv7_2_mbox_loc <- conv7_2_conv7_2_relu_0_split_1
I1028 18:40:20.138734 21896 net.cpp:452] conv7_2_mbox_loc -> conv7_2_mbox_loc
I1028 18:40:20.139191 21896 net.cpp:150] Setting up conv7_2_mbox_loc
I1028 18:40:20.139199 21896 net.cpp:157] Top shape: 8 24 5 5 (4800)
I1028 18:40:20.139202 21896 net.cpp:165] Memory required for data: 1997670464
I1028 18:40:20.139210 21896 layer_factory.hpp:77] Creating layer conv7_2_mbox_loc_perm
I1028 18:40:20.139219 21896 net.cpp:100] Creating Layer conv7_2_mbox_loc_perm
I1028 18:40:20.139223 21896 net.cpp:478] conv7_2_mbox_loc_perm <- conv7_2_mbox_loc
I1028 18:40:20.139231 21896 net.cpp:452] conv7_2_mbox_loc_perm -> conv7_2_mbox_loc_perm
I1028 18:40:20.139314 21896 net.cpp:150] Setting up conv7_2_mbox_loc_perm
I1028 18:40:20.139320 21896 net.cpp:157] Top shape: 8 5 5 24 (4800)
I1028 18:40:20.139324 21896 net.cpp:165] Memory required for data: 1997689664
I1028 18:40:20.139328 21896 layer_factory.hpp:77] Creating layer conv7_2_mbox_loc_flat
I1028 18:40:20.139336 21896 net.cpp:100] Creating Layer conv7_2_mbox_loc_flat
I1028 18:40:20.139340 21896 net.cpp:478] conv7_2_mbox_loc_flat <- conv7_2_mbox_loc_perm
I1028 18:40:20.139346 21896 net.cpp:452] conv7_2_mbox_loc_flat -> conv7_2_mbox_loc_flat
I1028 18:40:20.139371 21896 net.cpp:150] Setting up conv7_2_mbox_loc_flat
I1028 18:40:20.139389 21896 net.cpp:157] Top shape: 8 600 (4800)
I1028 18:40:20.139392 21896 net.cpp:165] Memory required for data: 1997708864
I1028 18:40:20.139395 21896 layer_factory.hpp:77] Creating layer conv7_2_mbox_conf
I1028 18:40:20.139406 21896 net.cpp:100] Creating Layer conv7_2_mbox_conf
I1028 18:40:20.139410 21896 net.cpp:478] conv7_2_mbox_conf <- conv7_2_conv7_2_relu_0_split_2
I1028 18:40:20.139422 21896 net.cpp:452] conv7_2_mbox_conf -> conv7_2_mbox_conf
I1028 18:40:20.141582 21896 net.cpp:150] Setting up conv7_2_mbox_conf
I1028 18:40:20.141594 21896 net.cpp:157] Top shape: 8 126 5 5 (25200)
I1028 18:40:20.141598 21896 net.cpp:165] Memory required for data: 1997809664
I1028 18:40:20.141607 21896 layer_factory.hpp:77] Creating layer conv7_2_mbox_conf_perm
I1028 18:40:20.141615 21896 net.cpp:100] Creating Layer conv7_2_mbox_conf_perm
I1028 18:40:20.141621 21896 net.cpp:478] conv7_2_mbox_conf_perm <- conv7_2_mbox_conf
I1028 18:40:20.141629 21896 net.cpp:452] conv7_2_mbox_conf_perm -> conv7_2_mbox_conf_perm
I1028 18:40:20.141719 21896 net.cpp:150] Setting up conv7_2_mbox_conf_perm
I1028 18:40:20.141726 21896 net.cpp:157] Top shape: 8 5 5 126 (25200)
I1028 18:40:20.141729 21896 net.cpp:165] Memory required for data: 1997910464
I1028 18:40:20.141733 21896 layer_factory.hpp:77] Creating layer conv7_2_mbox_conf_flat
I1028 18:40:20.141741 21896 net.cpp:100] Creating Layer conv7_2_mbox_conf_flat
I1028 18:40:20.141746 21896 net.cpp:478] conv7_2_mbox_conf_flat <- conv7_2_mbox_conf_perm
I1028 18:40:20.141753 21896 net.cpp:452] conv7_2_mbox_conf_flat -> conv7_2_mbox_conf_flat
I1028 18:40:20.141778 21896 net.cpp:150] Setting up conv7_2_mbox_conf_flat
I1028 18:40:20.141784 21896 net.cpp:157] Top shape: 8 3150 (25200)
I1028 18:40:20.141788 21896 net.cpp:165] Memory required for data: 1998011264
I1028 18:40:20.141791 21896 layer_factory.hpp:77] Creating layer conv7_2_mbox_priorbox
I1028 18:40:20.141801 21896 net.cpp:100] Creating Layer conv7_2_mbox_priorbox
I1028 18:40:20.141805 21896 net.cpp:478] conv7_2_mbox_priorbox <- conv7_2_conv7_2_relu_0_split_3
I1028 18:40:20.141811 21896 net.cpp:478] conv7_2_mbox_priorbox <- data_data_0_split_4
I1028 18:40:20.141820 21896 net.cpp:452] conv7_2_mbox_priorbox -> conv7_2_mbox_priorbox
I1028 18:40:20.141846 21896 net.cpp:150] Setting up conv7_2_mbox_priorbox
I1028 18:40:20.141852 21896 net.cpp:157] Top shape: 1 2 600 (1200)
I1028 18:40:20.141855 21896 net.cpp:165] Memory required for data: 1998016064
I1028 18:40:20.141860 21896 layer_factory.hpp:77] Creating layer conv8_2_mbox_loc
I1028 18:40:20.141870 21896 net.cpp:100] Creating Layer conv8_2_mbox_loc
I1028 18:40:20.141875 21896 net.cpp:478] conv8_2_mbox_loc <- conv8_2_conv8_2_relu_0_split_1
I1028 18:40:20.141883 21896 net.cpp:452] conv8_2_mbox_loc -> conv8_2_mbox_loc
I1028 18:40:20.142259 21896 net.cpp:150] Setting up conv8_2_mbox_loc
I1028 18:40:20.142267 21896 net.cpp:157] Top shape: 8 16 3 3 (1152)
I1028 18:40:20.142271 21896 net.cpp:165] Memory required for data: 1998020672
I1028 18:40:20.142287 21896 layer_factory.hpp:77] Creating layer conv8_2_mbox_loc_perm
I1028 18:40:20.142295 21896 net.cpp:100] Creating Layer conv8_2_mbox_loc_perm
I1028 18:40:20.142300 21896 net.cpp:478] conv8_2_mbox_loc_perm <- conv8_2_mbox_loc
I1028 18:40:20.142307 21896 net.cpp:452] conv8_2_mbox_loc_perm -> conv8_2_mbox_loc_perm
I1028 18:40:20.142395 21896 net.cpp:150] Setting up conv8_2_mbox_loc_perm
I1028 18:40:20.142402 21896 net.cpp:157] Top shape: 8 3 3 16 (1152)
I1028 18:40:20.142405 21896 net.cpp:165] Memory required for data: 1998025280
I1028 18:40:20.142410 21896 layer_factory.hpp:77] Creating layer conv8_2_mbox_loc_flat
I1028 18:40:20.142415 21896 net.cpp:100] Creating Layer conv8_2_mbox_loc_flat
I1028 18:40:20.142422 21896 net.cpp:478] conv8_2_mbox_loc_flat <- conv8_2_mbox_loc_perm
I1028 18:40:20.142428 21896 net.cpp:452] conv8_2_mbox_loc_flat -> conv8_2_mbox_loc_flat
I1028 18:40:20.142452 21896 net.cpp:150] Setting up conv8_2_mbox_loc_flat
I1028 18:40:20.142458 21896 net.cpp:157] Top shape: 8 144 (1152)
I1028 18:40:20.142462 21896 net.cpp:165] Memory required for data: 1998029888
I1028 18:40:20.142477 21896 layer_factory.hpp:77] Creating layer conv8_2_mbox_conf
I1028 18:40:20.142488 21896 net.cpp:100] Creating Layer conv8_2_mbox_conf
I1028 18:40:20.142493 21896 net.cpp:478] conv8_2_mbox_conf <- conv8_2_conv8_2_relu_0_split_2
I1028 18:40:20.142500 21896 net.cpp:452] conv8_2_mbox_conf -> conv8_2_mbox_conf
I1028 18:40:20.144021 21896 net.cpp:150] Setting up conv8_2_mbox_conf
I1028 18:40:20.144032 21896 net.cpp:157] Top shape: 8 84 3 3 (6048)
I1028 18:40:20.144035 21896 net.cpp:165] Memory required for data: 1998054080
I1028 18:40:20.144043 21896 layer_factory.hpp:77] Creating layer conv8_2_mbox_conf_perm
I1028 18:40:20.144053 21896 net.cpp:100] Creating Layer conv8_2_mbox_conf_perm
I1028 18:40:20.144058 21896 net.cpp:478] conv8_2_mbox_conf_perm <- conv8_2_mbox_conf
I1028 18:40:20.144065 21896 net.cpp:452] conv8_2_mbox_conf_perm -> conv8_2_mbox_conf_perm
I1028 18:40:20.144152 21896 net.cpp:150] Setting up conv8_2_mbox_conf_perm
I1028 18:40:20.144160 21896 net.cpp:157] Top shape: 8 3 3 84 (6048)
I1028 18:40:20.144162 21896 net.cpp:165] Memory required for data: 1998078272
I1028 18:40:20.144166 21896 layer_factory.hpp:77] Creating layer conv8_2_mbox_conf_flat
I1028 18:40:20.144173 21896 net.cpp:100] Creating Layer conv8_2_mbox_conf_flat
I1028 18:40:20.144179 21896 net.cpp:478] conv8_2_mbox_conf_flat <- conv8_2_mbox_conf_perm
I1028 18:40:20.144186 21896 net.cpp:452] conv8_2_mbox_conf_flat -> conv8_2_mbox_conf_flat
I1028 18:40:20.144210 21896 net.cpp:150] Setting up conv8_2_mbox_conf_flat
I1028 18:40:20.144217 21896 net.cpp:157] Top shape: 8 756 (6048)
I1028 18:40:20.144220 21896 net.cpp:165] Memory required for data: 1998102464
I1028 18:40:20.144224 21896 layer_factory.hpp:77] Creating layer conv8_2_mbox_priorbox
I1028 18:40:20.144232 21896 net.cpp:100] Creating Layer conv8_2_mbox_priorbox
I1028 18:40:20.144237 21896 net.cpp:478] conv8_2_mbox_priorbox <- conv8_2_conv8_2_relu_0_split_3
I1028 18:40:20.144243 21896 net.cpp:478] conv8_2_mbox_priorbox <- data_data_0_split_5
I1028 18:40:20.144251 21896 net.cpp:452] conv8_2_mbox_priorbox -> conv8_2_mbox_priorbox
I1028 18:40:20.144279 21896 net.cpp:150] Setting up conv8_2_mbox_priorbox
I1028 18:40:20.144284 21896 net.cpp:157] Top shape: 1 2 144 (288)
I1028 18:40:20.144287 21896 net.cpp:165] Memory required for data: 1998103616
I1028 18:40:20.144291 21896 layer_factory.hpp:77] Creating layer conv9_2_mbox_loc
I1028 18:40:20.144302 21896 net.cpp:100] Creating Layer conv9_2_mbox_loc
I1028 18:40:20.144306 21896 net.cpp:478] conv9_2_mbox_loc <- conv9_2_conv9_2_relu_0_split_0
I1028 18:40:20.144315 21896 net.cpp:452] conv9_2_mbox_loc -> conv9_2_mbox_loc
I1028 18:40:20.144680 21896 net.cpp:150] Setting up conv9_2_mbox_loc
I1028 18:40:20.144686 21896 net.cpp:157] Top shape: 8 16 1 1 (128)
I1028 18:40:20.144690 21896 net.cpp:165] Memory required for data: 1998104128
I1028 18:40:20.144696 21896 layer_factory.hpp:77] Creating layer conv9_2_mbox_loc_perm
I1028 18:40:20.144706 21896 net.cpp:100] Creating Layer conv9_2_mbox_loc_perm
I1028 18:40:20.144711 21896 net.cpp:478] conv9_2_mbox_loc_perm <- conv9_2_mbox_loc
I1028 18:40:20.144717 21896 net.cpp:452] conv9_2_mbox_loc_perm -> conv9_2_mbox_loc_perm
I1028 18:40:20.144800 21896 net.cpp:150] Setting up conv9_2_mbox_loc_perm
I1028 18:40:20.144806 21896 net.cpp:157] Top shape: 8 1 1 16 (128)
I1028 18:40:20.144809 21896 net.cpp:165] Memory required for data: 1998104640
I1028 18:40:20.144814 21896 layer_factory.hpp:77] Creating layer conv9_2_mbox_loc_flat
I1028 18:40:20.144820 21896 net.cpp:100] Creating Layer conv9_2_mbox_loc_flat
I1028 18:40:20.144825 21896 net.cpp:478] conv9_2_mbox_loc_flat <- conv9_2_mbox_loc_perm
I1028 18:40:20.144831 21896 net.cpp:452] conv9_2_mbox_loc_flat -> conv9_2_mbox_loc_flat
I1028 18:40:20.144856 21896 net.cpp:150] Setting up conv9_2_mbox_loc_flat
I1028 18:40:20.144862 21896 net.cpp:157] Top shape: 8 16 (128)
I1028 18:40:20.144865 21896 net.cpp:165] Memory required for data: 1998105152
I1028 18:40:20.144870 21896 layer_factory.hpp:77] Creating layer conv9_2_mbox_conf
I1028 18:40:20.144891 21896 net.cpp:100] Creating Layer conv9_2_mbox_conf
I1028 18:40:20.144896 21896 net.cpp:478] conv9_2_mbox_conf <- conv9_2_conv9_2_relu_0_split_1
I1028 18:40:20.144906 21896 net.cpp:452] conv9_2_mbox_conf -> conv9_2_mbox_conf
I1028 18:40:20.146391 21896 net.cpp:150] Setting up conv9_2_mbox_conf
I1028 18:40:20.146402 21896 net.cpp:157] Top shape: 8 84 1 1 (672)
I1028 18:40:20.146406 21896 net.cpp:165] Memory required for data: 1998107840
I1028 18:40:20.146414 21896 layer_factory.hpp:77] Creating layer conv9_2_mbox_conf_perm
I1028 18:40:20.146423 21896 net.cpp:100] Creating Layer conv9_2_mbox_conf_perm
I1028 18:40:20.146430 21896 net.cpp:478] conv9_2_mbox_conf_perm <- conv9_2_mbox_conf
I1028 18:40:20.146436 21896 net.cpp:452] conv9_2_mbox_conf_perm -> conv9_2_mbox_conf_perm
I1028 18:40:20.146522 21896 net.cpp:150] Setting up conv9_2_mbox_conf_perm
I1028 18:40:20.146529 21896 net.cpp:157] Top shape: 8 1 1 84 (672)
I1028 18:40:20.146533 21896 net.cpp:165] Memory required for data: 1998110528
I1028 18:40:20.146536 21896 layer_factory.hpp:77] Creating layer conv9_2_mbox_conf_flat
I1028 18:40:20.146544 21896 net.cpp:100] Creating Layer conv9_2_mbox_conf_flat
I1028 18:40:20.146549 21896 net.cpp:478] conv9_2_mbox_conf_flat <- conv9_2_mbox_conf_perm
I1028 18:40:20.146555 21896 net.cpp:452] conv9_2_mbox_conf_flat -> conv9_2_mbox_conf_flat
I1028 18:40:20.146580 21896 net.cpp:150] Setting up conv9_2_mbox_conf_flat
I1028 18:40:20.146586 21896 net.cpp:157] Top shape: 8 84 (672)
I1028 18:40:20.146589 21896 net.cpp:165] Memory required for data: 1998113216
I1028 18:40:20.146594 21896 layer_factory.hpp:77] Creating layer conv9_2_mbox_priorbox
I1028 18:40:20.146602 21896 net.cpp:100] Creating Layer conv9_2_mbox_priorbox
I1028 18:40:20.146606 21896 net.cpp:478] conv9_2_mbox_priorbox <- conv9_2_conv9_2_relu_0_split_2
I1028 18:40:20.146611 21896 net.cpp:478] conv9_2_mbox_priorbox <- data_data_0_split_6
I1028 18:40:20.146618 21896 net.cpp:452] conv9_2_mbox_priorbox -> conv9_2_mbox_priorbox
I1028 18:40:20.146648 21896 net.cpp:150] Setting up conv9_2_mbox_priorbox
I1028 18:40:20.146654 21896 net.cpp:157] Top shape: 1 2 16 (32)
I1028 18:40:20.146657 21896 net.cpp:165] Memory required for data: 1998113344
I1028 18:40:20.146661 21896 layer_factory.hpp:77] Creating layer mbox_loc
I1028 18:40:20.146670 21896 net.cpp:100] Creating Layer mbox_loc
I1028 18:40:20.146677 21896 net.cpp:478] mbox_loc <- conv4_3_norm_mbox_loc_flat
I1028 18:40:20.146683 21896 net.cpp:478] mbox_loc <- fc7_mbox_loc_flat
I1028 18:40:20.146689 21896 net.cpp:478] mbox_loc <- conv6_2_mbox_loc_flat
I1028 18:40:20.146695 21896 net.cpp:478] mbox_loc <- conv7_2_mbox_loc_flat
I1028 18:40:20.146701 21896 net.cpp:478] mbox_loc <- conv8_2_mbox_loc_flat
I1028 18:40:20.146708 21896 net.cpp:478] mbox_loc <- conv9_2_mbox_loc_flat
I1028 18:40:20.146714 21896 net.cpp:452] mbox_loc -> mbox_loc
I1028 18:40:20.146741 21896 net.cpp:150] Setting up mbox_loc
I1028 18:40:20.146747 21896 net.cpp:157] Top shape: 8 34928 (279424)
I1028 18:40:20.146750 21896 net.cpp:165] Memory required for data: 1999231040
I1028 18:40:20.146754 21896 layer_factory.hpp:77] Creating layer mbox_conf
I1028 18:40:20.146760 21896 net.cpp:100] Creating Layer mbox_conf
I1028 18:40:20.146765 21896 net.cpp:478] mbox_conf <- conv4_3_norm_mbox_conf_flat
I1028 18:40:20.146771 21896 net.cpp:478] mbox_conf <- fc7_mbox_conf_flat
I1028 18:40:20.146776 21896 net.cpp:478] mbox_conf <- conv6_2_mbox_conf_flat
I1028 18:40:20.146782 21896 net.cpp:478] mbox_conf <- conv7_2_mbox_conf_flat
I1028 18:40:20.146787 21896 net.cpp:478] mbox_conf <- conv8_2_mbox_conf_flat
I1028 18:40:20.146792 21896 net.cpp:478] mbox_conf <- conv9_2_mbox_conf_flat
I1028 18:40:20.146800 21896 net.cpp:452] mbox_conf -> mbox_conf
I1028 18:40:20.146823 21896 net.cpp:150] Setting up mbox_conf
I1028 18:40:20.146831 21896 net.cpp:157] Top shape: 8 183372 (1466976)
I1028 18:40:20.146833 21896 net.cpp:165] Memory required for data: 2005098944
I1028 18:40:20.146837 21896 layer_factory.hpp:77] Creating layer mbox_priorbox
I1028 18:40:20.146843 21896 net.cpp:100] Creating Layer mbox_priorbox
I1028 18:40:20.146857 21896 net.cpp:478] mbox_priorbox <- conv4_3_norm_mbox_priorbox
I1028 18:40:20.146865 21896 net.cpp:478] mbox_priorbox <- fc7_mbox_priorbox
I1028 18:40:20.146870 21896 net.cpp:478] mbox_priorbox <- conv6_2_mbox_priorbox
I1028 18:40:20.146877 21896 net.cpp:478] mbox_priorbox <- conv7_2_mbox_priorbox
I1028 18:40:20.146883 21896 net.cpp:478] mbox_priorbox <- conv8_2_mbox_priorbox
I1028 18:40:20.146888 21896 net.cpp:478] mbox_priorbox <- conv9_2_mbox_priorbox
I1028 18:40:20.146893 21896 net.cpp:452] mbox_priorbox -> mbox_priorbox
I1028 18:40:20.146919 21896 net.cpp:150] Setting up mbox_priorbox
I1028 18:40:20.146924 21896 net.cpp:157] Top shape: 1 2 34928 (69856)
I1028 18:40:20.146927 21896 net.cpp:165] Memory required for data: 2005378368
I1028 18:40:20.146931 21896 layer_factory.hpp:77] Creating layer mbox_conf_reshape
I1028 18:40:20.146942 21896 net.cpp:100] Creating Layer mbox_conf_reshape
I1028 18:40:20.146946 21896 net.cpp:478] mbox_conf_reshape <- mbox_conf
I1028 18:40:20.146955 21896 net.cpp:452] mbox_conf_reshape -> mbox_conf_reshape
I1028 18:40:20.146984 21896 net.cpp:150] Setting up mbox_conf_reshape
I1028 18:40:20.146991 21896 net.cpp:157] Top shape: 8 8732 21 (1466976)
I1028 18:40:20.146994 21896 net.cpp:165] Memory required for data: 2011246272
I1028 18:40:20.146997 21896 layer_factory.hpp:77] Creating layer mbox_conf_softmax
I1028 18:40:20.147006 21896 net.cpp:100] Creating Layer mbox_conf_softmax
I1028 18:40:20.147011 21896 net.cpp:478] mbox_conf_softmax <- mbox_conf_reshape
I1028 18:40:20.147017 21896 net.cpp:452] mbox_conf_softmax -> mbox_conf_softmax
I1028 18:40:20.147075 21896 net.cpp:150] Setting up mbox_conf_softmax
I1028 18:40:20.147083 21896 net.cpp:157] Top shape: 8 8732 21 (1466976)
I1028 18:40:20.147085 21896 net.cpp:165] Memory required for data: 2017114176
I1028 18:40:20.147089 21896 layer_factory.hpp:77] Creating layer mbox_conf_flatten
I1028 18:40:20.147096 21896 net.cpp:100] Creating Layer mbox_conf_flatten
I1028 18:40:20.147101 21896 net.cpp:478] mbox_conf_flatten <- mbox_conf_softmax
I1028 18:40:20.147107 21896 net.cpp:452] mbox_conf_flatten -> mbox_conf_flatten
I1028 18:40:20.147130 21896 net.cpp:150] Setting up mbox_conf_flatten
I1028 18:40:20.147136 21896 net.cpp:157] Top shape: 8 183372 (1466976)
I1028 18:40:20.147140 21896 net.cpp:165] Memory required for data: 2022982080
I1028 18:40:20.147145 21896 layer_factory.hpp:77] Creating layer detection_out
I1028 18:40:20.147162 21896 net.cpp:100] Creating Layer detection_out
I1028 18:40:20.147167 21896 net.cpp:478] detection_out <- mbox_loc
I1028 18:40:20.147172 21896 net.cpp:478] detection_out <- mbox_conf_flatten
I1028 18:40:20.147177 21896 net.cpp:478] detection_out <- mbox_priorbox
I1028 18:40:20.147187 21896 net.cpp:452] detection_out -> detection_out
I1028 18:40:20.148288 21896 net.cpp:150] Setting up detection_out
I1028 18:40:20.148298 21896 net.cpp:157] Top shape: 1 1 1 7 (7)
I1028 18:40:20.148301 21896 net.cpp:165] Memory required for data: 2022982108
I1028 18:40:20.148305 21896 layer_factory.hpp:77] Creating layer detection_eval
I1028 18:40:20.148313 21896 net.cpp:100] Creating Layer detection_eval
I1028 18:40:20.148319 21896 net.cpp:478] detection_eval <- detection_out
I1028 18:40:20.148324 21896 net.cpp:478] detection_eval <- label
I1028 18:40:20.148330 21896 net.cpp:452] detection_eval -> detection_eval
I1028 18:40:20.149128 21896 net.cpp:150] Setting up detection_eval
I1028 18:40:20.149137 21896 net.cpp:157] Top shape: 1 1 21 5 (105)
I1028 18:40:20.149140 21896 net.cpp:165] Memory required for data: 2022982528
I1028 18:40:20.149144 21896 net.cpp:228] detection_eval does not need backward computation.
I1028 18:40:20.149148 21896 net.cpp:228] detection_out does not need backward computation.
I1028 18:40:20.149153 21896 net.cpp:228] mbox_conf_flatten does not need backward computation.
I1028 18:40:20.149158 21896 net.cpp:228] mbox_conf_softmax does not need backward computation.
…
