…
      sampler {
        min_scale: 0.3
        max_scale: 1
        min_aspect_ratio: 0.5
        max_aspect_ratio: 2
      }
      sample_constraint {
        min_jaccard_overlap: 0.9
      }
      max_sample: 1
      max_trials: 50
    }
    batch_sampler {
      sampler {
        min_scale: 0.3
        max_scale: 1
        min_aspect_ratio: 0.5
        max_aspect_ratio: 2
      }
      sample_constraint {
        max_jaccard_overlap: 1
      }
      max_sample: 1
      max_trials: 50
    }
    label_map_file: "data/VOC0712/labelmap_voc.prototxt"
  }
}
layer {
  name: "conv1_1"
  type: "Convolution"
  bottom: "data"
  top: "conv1_1"
  param {
    lr_mult: 1
    decay_mult: 1
  }
  param {
    lr_mult: 2
    decay_mult: 0
  }
  convolution_param {
    num_output: 64
    pad: 1
    kernel_size: 3
    weight_filler {
      type: "xavier"
    }
    bias_filler {
      type: "constant"
      value: 0
    }
  }
}
layer {
  name: "relu1_1"
  type: "ReLU"
  bottom: "conv1_1"
  top: "conv1_1"
}
layer {
  name: "conv1_2"
  type: "Convolution"
  bottom: "conv1_1"
  top: "conv1_2"
  param {
    lr_mult: 1
    decay_mult: 1
  }
  param {
    lr_mult: 2
    decay_mult: 0
  }
  convolution_param {
    num_output: 64
    pad: 1
    kernel_size: 3
    weight_filler {
      type: "xavier"
    }
    bias_filler {
      type: "constant"
      value: 0
    }
  }
}
layer {
  name: "relu1_2"
  type: "ReLU"
  bottom: "conv1_2"
  top: "conv1_2"
}
layer {
  name: "pool1"
  type: "Pooling"
  bottom: "conv1_2"
  top: "pool1"
  pooling_param {
    pool: MAX
    kernel_size: 2
    stride: 2
  }
}
layer {
  name: "conv2_1"
  type: "Convolution"
  bottom: "pool1"
  top: "conv2_1"
  param {
    lr_mult: 1
    decay_mult: 1
  }
  param {
    lr_mult: 2
    decay_mult: 0
  }
  convolution_param {
    num_output: 128
    pad: 1
    kernel_size: 3
    weight_filler {
      type: "xavier"
    }
    bias_filler {
      type: "constant"
      value: 0
    }
  }
}
layer {
  name: "relu2_1"
  type: "ReLU"
  bottom: "conv2_1"
  top: "conv2_1"
}
layer {
  name: "conv2_2"
  type: "Convolution"
  bottom: "conv2_1"
  top: "conv2_2"
  param {
    lr_mult: 1
    decay_mult: 1
  }
  param {
    lr_mult: 2
    decay_mult: 0
  }
  convolution_param {
    num_output: 128
    pad: 1
    kernel_size: 3
    weight_filler {
      type: "xavier"
    }
    bias_filler {
      type: "constant"
      value: 0
    }
  }
}
layer {
  name: "relu2_2"
  type: "ReLU"
  bottom: "conv2_2"
  top: "conv2_2"
}
layer {
  name: "pool2"
  type: "Pooling"
  bottom: "conv2_2"
  top: "pool2"
  pooling_param {
    pool: MAX
    kernel_size: 2
    stride: 2
  }
}
layer {
  name: "conv3_1"
  type: "Convolution"
  bottom: "pool2"
  top: "conv3_1"
  param {
    lr_mult: 1
    decay_mult: 1
  }
  param {
    lr_mult: 2
    decay_mult: 0
  }
  convolution_param {
    num_output: 256
    pad: 1
    kernel_size: 3
    weight_filler {
      type: "xavier"
    }
    bias_filler {
      type: "constant"
      value: 0
    }
  }
}
layer {
  name: "relu3_1"
  type: "ReLU"
  bottom: "conv3_1"
  top: "conv3_1"
}
layer {
  name: "conv3_2"
  type: "Convolution"
  bottom: "conv3_1"
  top: "conv3_2"
  param {
    lr_mult: 1
    decay_mult: 1
  }
  param {
    lr_mult: 2
    decay_mult: 0
  }
  convolution_param {
    num_output: 256
    pad: 1
    kernel_size: 3
    weight_filler {
      type: "xavier"
    }
    bias_filler {
      type: "constant"
      value: 0
    }
  }
}
layer {
  name: "relu3_2"
  type: "ReLU"
  bottom: "conv3_2"
  top: "conv3_2"
}
layer {
  name: "conv3_3"
  type: "Convolution"
  bottom: "conv3_2"
  top: "conv3_3"
  param {
    lr_mult: 1
    decay_mult: 1
  }
  param {
    lr_mult: 2
    decay_mult: 0
  }
  convolution_param {
    num_output: 256
    pad: 1
    kernel_size: 3
    weight_filler {
      type: "xavier"
    }
    bias_filler {
      type: "constant"
      value: 0
    }
  }
}
layer {
  name: "relu3_3"
  type: "ReLU"
  bottom: "conv3_3"
  top: "conv3_3"
}
layer {
  name: "pool3"
  type: "Pooling"
  bottom: "conv3_3"
  top: "pool3"
  pooling_param {
    pool: MAX
    kernel_size: 2
    stride: 2
  }
}
layer {
  name: "conv4_1"
  type: "Convolution"
  bottom: "pool3"
  top: "conv4_1"
  param {
    lr_mult: 1
    decay_mult: 1
  }
  param {
    lr_mult: 2
    decay_mult: 0
  }
  convolution_param {
    num_output: 512
    pad: 1
    kernel_size: 3
    weight_filler {
      type: "xavier"
    }
    bias_filler {
      type: "constant"
      value: 0
    }
  }
}
layer {
  name: "relu4_1"
  type: "ReLU"
  bottom: "conv4_1"
  top: "conv4_1"
}
layer {
  name: "conv4_2"
  type: "Convolution"
  bottom: "conv4_1"
  top: "conv4_2"
  param {
    lr_mult: 1
    decay_mult: 1
  }
  param {
    lr_mult: 2
    decay_mult: 0
  }
  convolution_param {
    num_output: 512
    pad: 1
    kernel_size: 3
    weight_filler {
      type: "xavier"
    }
    bias_filler {
      type: "constant"
      value: 0
    }
  }
}
layer {
  name: "relu4_2"
  type: "ReLU"
  bottom: "conv4_2"
  top: "conv4_2"
}
layer {
  name: "conv4_3"
  type: "Convolution"
  bottom: "conv4_2"
  top: "conv4_3"
  param {
    lr_mult: 1
    decay_mult: 1
  }
  param {
    lr_mult: 2
    decay_mult: 0
  }
  convolution_param {
    num_output: 512
    pad: 1
    kernel_size: 3
    weight_filler {
      type: "xavier"
    }
    bias_filler {
      type: "constant"
      value: 0
    }
  }
}
layer {
  name: "relu4_3"
  type: "ReLU"
  bottom: "conv4_3"
  top: "conv4_3"
}
layer {
  name: "pool4"
  type: "Pooling"
  bottom: "conv4_3"
  top: "pool4"
  pooling_param {
    pool: MAX
    kernel_size: 2
    stride: 2
  }
}
layer {
  name: "conv5_1"
  type: "Convolution"
  bottom: "pool4"
  top: "conv5_1"
  param {
    lr_mult: 1
    decay_mult: 1
  }
  param {
    lr_mult: 2
    decay_mult: 0
  }
  convolution_param {
    num_output: 512
    pad: 1
    kernel_size: 3
    weight_filler {
      type: "xavier"
    }
    bias_filler {
      type: "constant"
      value: 0
    }
    dilation: 1
  }
}
layer {
  name: "relu5_1"
  type: "ReLU"
  bottom: "conv5_1"
  top: "conv5_1"
}
layer {
  name: "conv5_2"
  type: "Convolution"
  bottom: "conv5_1"
  top: "conv5_2"
  param {
    lr_mult: 1
    decay_mult: 1
  }
  param {
    lr_mult: 2
    decay_mult: 0
  }
  convolution_param {
    num_output: 512
    pad: 1
    kernel_size: 3
    weight_filler {
      type: "xavier"
    }
    bias_filler {
      type: "constant"
      value: 0
    }
    dilation: 1
  }
}
layer {
  name: "relu5_2"
  type: "ReLU"
  bottom: "conv5_2"
  top: "conv5_2"
}
layer {
  name: "conv5_3"
  type: "Convolution"
  bottom: "conv5_2"
  top: "conv5_3"
  param {
    lr_mult: 1
    decay_mult: 1
  }
  param {
    lr_mult: 2
    decay_mult: 0
  }
  convolution_param {
    num_output: 512
    pad: 1
    kernel_size: 3
    weight_filler {
      type: "xavier"
    }
    bias_filler {
      type: "constant"
      value: 0
    }
    dilation: 1
  }
}
layer {
  name: "relu5_3"
  type: "ReLU"
  bottom: "conv5_3"
  top: "conv5_3"
}
layer {
  name: "pool5"
  type: "Pooling"
  bottom: "conv5_3"
  top: "pool5"
  pooling_param {
    pool: MAX
    kernel_size: 3
    stride: 1
    pad: 1
  }
}
layer {
  name: "fc6"
  type: "Convolution"
  bottom: "pool5"
  top: "fc6"
  param {
    lr_mult: 1
    decay_mult: 1
  }
  param {
    lr_mult: 2
    decay_mult: 0
  }
  convolution_param {
    num_output: 1024
    pad: 6
    kernel_size: 3
    weight_filler {
      type: "xavier"
    }
    bias_filler {
      type: "constant"
      value: 0
    }
    dilation: 6
  }
}
layer {
  name: "relu6"
  type: "ReLU"
  bottom: "fc6"
  top: "fc6"
}
layer {
  name: "fc7"
  type: "Convolution"
  bottom: "fc6"
  top: "fc7"
  param {
    lr_mult: 1
    decay_mult: 1
  }
  param {
    lr_mult: 2
    decay_mult: 0
  }
  convolution_param {
    num_output: 1024
    kernel_size: 1
    weight_filler {
      type: "xavier"
    }
    bias_filler {
      type: "constant"
      value: 0
    }
  }
}
layer {
  name: "relu7"
  type: "ReLU"
  bottom: "fc7"
  top: "fc7"
}
layer {
  name: "conv6_1"
  type: "Convolution"
  bottom: "fc7"
  top: "conv6_1"
  param {
    lr_mult: 1
    decay_mult: 1
  }
  param {
    lr_mult: 2
    decay_mult: 0
  }
  convolution_param {
    num_output: 256
    pad: 0
    kernel_size: 1
    stride: 1
    weight_filler {
      type: "xavier"
    }
    bias_filler {
      type: "constant"
      value: 0
    }
  }
}
layer {
  name: "conv6_1_relu"
  type: "ReLU"
  bottom: "conv6_1"
  top: "conv6_1"
}
layer {
  name: "conv6_2"
  type: "Convolution"
  bottom: "conv6_1"
  top: "conv6_2"
  param {
    lr_mult: 1
    decay_mult: 1
  }
  param {
    lr_mult: 2
    decay_mult: 0
  }
  convolution_param {
    num_output: 512
    pad: 1
    kernel_size: 3
    stride: 2
    weight_filler {
      type: "xavier"
    }
    bias_filler {
      type: "constant"
      value: 0
    }
  }
}
layer {
  name: "conv6_2_relu"
  type: "ReLU"
  bottom: "conv6_2"
  top: "conv6_2"
}
layer {
  name: "conv7_1"
  type: "Convolution"
  bottom: "conv6_2"
  top: "conv7_1"
  param {
    lr_mult: 1
    decay_mult: 1
  }
  param {
    lr_mult: 2
    decay_mult: 0
  }
  convolution_param {
    num_output: 128
    pad: 0
    kernel_size: 1
    stride: 1
    weight_filler {
      type: "xavier"
    }
    bias_filler {
      type: "constant"
      value: 0
    }
  }
}
layer {
  name: "conv7_1_relu"
  type: "ReLU"
  bottom: "conv7_1"
  top: "conv7_1"
}
layer {
  name: "conv7_2"
  type: "Convolution"
  bottom: "conv7_1"
  top: "conv7_2"
  param {
    lr_mult: 1
    decay_mult: 1
  }
  param {
    lr_mult: 2
    decay_mult: 0
  }
  convolution_param {
    num_output: 256
    pad: 1
    kernel_size: 3
    stride: 2
    weight_filler {
      type: "xavier"
    }
    bias_filler {
      type: "constant"
      value: 0
    }
  }
}
layer {
  name: "conv7_2_relu"
  type: "ReLU"
  bottom: "conv7_2"
  top: "conv7_2"
}
layer {
  name: "conv8_1"
  type: "Convolution"
  bottom: "conv7_2"
  top: "conv8_1"
  param {
    lr_mult: 1
    decay_mult: 1
  }
  param {
    lr_mult: 2
    decay_mult: 0
  }
  convolution_param {
    num_output: 128
    pad: 0
    kernel_size: 1
    stride: 1
    weight_filler {
      type: "xavier"
    }
    bias_filler {
      type: "constant"
      value: 0
    }
  }
}
layer {
  name: "conv8_1_relu"
  type: "ReLU"
  bottom: "conv8_1"
  top: "conv8_1"
}
layer {
  name: "conv8_2"
  type: "Convolution"
  bottom: "conv8_1"
  top: "conv8_2"
  param {
    lr_mult: 1
    decay_mult: 1
  }
  param {
    lr_mult: 2
    decay_mult: 0
  }
  convolution_param {
    num_output: 256
    pad: 0
    kernel_size: 3
    stride: 1
    weight_filler {
      type: "xavier"
    }
    bias_filler {
      type: "constant"
      value: 0
    }
  }
}
layer {
  name: "conv8_2_relu"
  type: "ReLU"
  bottom: "conv8_2"
  top: "conv8_2"
}
layer {
  name: "conv9_1"
  type: "Convolution"
  bottom: "conv8_2"
  top: "conv9_1"
  param {
    lr_mult: 1
    decay_mult: 1
  }
  param {
    lr_mult: 2
    decay_mult: 0
  }
  convolution_param {
    num_output: 128
    pad: 0
    kernel_size: 1
    stride: 1
    weight_filler {
      type: "xavier"
    }
    bias_filler {
      type: "constant"
      value: 0
    }
  }
}
layer {
  name: "conv9_1_relu"
  type: "ReLU"
  bottom: "conv9_1"
  top: "conv9_1"
}
layer {
  name: "conv9_2"
  type: "Convolution"
  bottom: "conv9_1"
  top: "conv9_2"
  param {
    lr_mult: 1
    decay_mult: 1
  }
  param {
    lr_mult: 2
    decay_mult: 0
  }
  convolution_param {
    num_output: 256
    pad: 0
    kernel_size: 3
    stride: 1
    weight_filler {
      type: "xavier"
    }
    bias_filler {
      type: "constant"
      value: 0
    }
  }
}
layer {
  name: "conv9_2_relu"
  type: "ReLU"
  bottom: "conv9_2"
  top: "conv9_2"
}
layer {
  name: "conv4_3_norm"
  type: "Normalize"
  bottom: "conv4_3"
  top: "conv4_3_norm"
  norm_param {
    across_spatial: false
    scale_filler {
      type: "constant"
      value: 20
    }
    channel_shared: false
  }
}
layer {
  name: "conv4_3_norm_mbox_loc"
  type: "Convolution"
  bottom: "conv4_3_norm"
  top: "conv4_3_norm_mbox_loc"
  param {
    lr_mult: 1
    decay_mult: 1
  }
  param {
    lr_mult: 2
    decay_mult: 0
  }
  convolution_param {
    num_output: 16
    pad: 1
    kernel_size: 3
    stride: 1
    weight_filler {
      type: "xavier"
    }
    bias_filler {
      type: "constant"
      value: 0
    }
  }
}
layer {
  name: "conv4_3_norm_mbox_loc_perm"
  type: "Permute"
  bottom: "conv4_3_norm_mbox_loc"
  top: "conv4_3_norm_mbox_loc_perm"
  permute_param {
    order: 0
    order: 2
    order: 3
    order: 1
  }
}
layer {
  name: "conv4_3_norm_mbox_loc_flat"
  type: "Flatten"
  bottom: "conv4_3_norm_mbox_loc_perm"
  top: "conv4_3_norm_mbox_loc_flat"
  flatten_param {
    axis: 1
  }
}
layer {
  name: "conv4_3_norm_mbox_conf"
  type: "Convolution"
  bottom: "conv4_3_norm"
  top: "conv4_3_norm_mbox_conf"
  param {
    lr_mult: 1
    decay_mult: 1
  }
  param {
    lr_mult: 2
    decay_mult: 0
  }
  convolution_param {
    num_output: 84
    pad: 1
    kernel_size: 3
    stride: 1
    weight_filler {
      type: "xavier"
    }
    bias_filler {
      type: "constant"
      value: 0
    }
  }
}
layer {
  name: "conv4_3_norm_mbox_conf_perm"
  type: "Permute"
  bottom: "conv4_3_norm_mbox_conf"
  top: "conv4_3_norm_mbox_conf_perm"
  permute_param {
    order: 0
    order: 2
    order: 3
    order: 1
  }
}
layer {
  name: "conv4_3_norm_mbox_conf_flat"
  type: "Flatten"
  bottom: "conv4_3_norm_mbox_conf_perm"
  top: "conv4_3_norm_mbox_conf_flat"
  flatten_param {
    axis: 1
  }
}
layer {
  name: "conv4_3_norm_mbox_priorbox"
  type: "PriorBox"
  bottom: "conv4_3_norm"
  bottom: "data"
  top: "conv4_3_norm_mbox_priorbox"
  prior_box_param {
    min_size: 30
    max_size: 60
    aspect_ratio: 2
    flip: true
    clip: false
    variance: 0.1
    variance: 0.1
    variance: 0.2
    variance: 0.2
    step: 8
    offset: 0.5
  }
}
layer {
  name: "fc7_mbox_loc"
  type: "Convolution"
  bottom: "fc7"
  top: "fc7_mbox_loc"
  param {
    lr_mult: 1
    decay_mult: 1
  }
  param {
    lr_mult: 2
    decay_mult: 0
  }
  convolution_param {
    num_output: 24
    pad: 1
    kernel_size: 3
    stride: 1
    weight_filler {
      type: "xavier"
    }
    bias_filler {
      type: "constant"
      value: 0
    }
  }
}
layer {
  name: "fc7_mbox_loc_perm"
  type: "Permute"
  bottom: "fc7_mbox_loc"
  top: "fc7_mbox_loc_perm"
  permute_param {
    order: 0
    order: 2
    order: 3
    order: 1
  }
}
layer {
  name: "fc7_mbox_loc_flat"
  type: "Flatten"
  bottom: "fc7_mbox_loc_perm"
  top: "fc7_mbox_loc_flat"
  flatten_param {
    axis: 1
  }
}
layer {
  name: "fc7_mbox_conf"
  type: "Convolution"
  bottom: "fc7"
  top: "fc7_mbox_conf"
  param {
    lr_mult: 1
    decay_mult: 1
  }
  param {
    lr_mult: 2
    decay_mult: 0
  }
  convolution_param {
    num_output: 126
    pad: 1
    kernel_size: 3
    stride: 1
    weight_filler {
      type: "xavier"
    }
    bias_filler {
      type: "constant"
      value: 0
    }
  }
}
layer {
  name: "fc7_mbox_conf_perm"
  type: "Permute"
  bottom: "fc7_mbox_conf"
  top: "fc7_mbox_conf_perm"
  permute_param {
    order: 0
    order: 2
    order: 3
    order: 1
  }
}
layer {
  name: "fc7_mbox_conf_flat"
  type: "Flatten"
  bottom: "fc7_mbox_conf_perm"
  top: "fc7_mbox_conf_flat"
  flatten_param {
    axis: 1
  }
}
layer {
  name: "fc7_mbox_priorbox"
  type: "PriorBox"
  bottom: "fc7"
  bottom: "data"
  top: "fc7_mbox_priorbox"
  prior_box_param {
    min_size: 60
    max_size: 111
    aspect_ratio: 2
    aspect_ratio: 3
    flip: true
    clip: false
    variance: 0.1
    variance: 0.1
    variance: 0.2
    variance: 0.2
    step: 16
    offset: 0.5
  }
}
layer {
  name: "conv6_2_mbox_loc"
  type: "Convolution"
  bottom: "conv6_2"
  top: "conv6_2_mbox_loc"
  param {
    lr_mult: 1
    decay_mult: 1
  }
  param {
    lr_mult: 2
    decay_mult: 0
  }
  convolution_param {
    num_output: 24
    pad: 1
    kernel_size: 3
    stride: 1
    weight_filler {
      type: "xavier"
    }
    bias_filler {
      type: "constant"
      value: 0
    }
  }
}
layer {
  name: "conv6_2_mbox_loc_perm"
  type: "Permute"
  bottom: "conv6_2_mbox_loc"
  top: "conv6_2_mbox_loc_perm"
  permute_param {
    order: 0
    order: 2
    order: 3
    order: 1
  }
}
layer {
  name: "conv6_2_mbox_loc_flat"
  type: "Flatten"
  bottom: "conv6_2_mbox_loc_perm"
  top: "conv6_2_mbox_loc_flat"
  flatten_param {
    axis: 1
  }
}
layer {
  name: "conv6_2_mbox_conf"
  type: "Convolution"
  bottom: "conv6_2"
  top: "conv6_2_mbox_conf"
  param {
    lr_mult: 1
    decay_mult: 1
  }
  param {
    lr_mult: 2
    decay_mult: 0
  }
  convolution_param {
    num_output: 126
    pad: 1
    kernel_size: 3
    stride: 1
    weight_filler {
      type: "xavier"
    }
    bias_filler {
      type: "constant"
      value: 0
    }
  }
}
layer {
  name: "conv6_2_mbox_conf_perm"
  type: "Permute"
  bottom: "conv6_2_mbox_conf"
  top: "conv6_2_mbox_conf_perm"
  permute_param {
    order: 0
    order: 2
    order: 3
    order: 1
  }
}
layer {
  name: "conv6_2_mbox_conf_flat"
  type: "Flatten"
  bottom: "conv6_2_mbox_conf_perm"
  top: "conv6_2_mbox_conf_flat"
  flatten_param {
    axis: 1
  }
}
layer {
  name: "conv6_2_mbox_priorbox"
  type: "PriorBox"
  bottom: "conv6_2"
  bottom: "data"
  top: "conv6_2_mbox_priorbox"
  prior_box_param {
    min_size: 111
    max_size: 162
    aspect_ratio: 2
    aspect_ratio: 3
    flip: true
    clip: false
    variance: 0.1
    variance: 0.1
    variance: 0.2
    variance: 0.2
    step: 32
    offset: 0.5
  }
}
layer {
  name: "conv7_2_mbox_loc"
  type: "Convolution"
  bottom: "conv7_2"
  top: "conv7_2_mbox_loc"
  param {
    lr_mult: 1
    decay_mult: 1
  }
  param {
    lr_mult: 2
    decay_mult: 0
  }
  convolution_param {
    num_output: 24
    pad: 1
    kernel_size: 3
    stride: 1
    weight_filler {
      type: "xavier"
    }
    bias_filler {
      type: "constant"
      value: 0
    }
  }
}
layer {
  name: "conv7_2_mbox_loc_perm"
  type: "Permute"
  bottom: "conv7_2_mbox_loc"
  top: "conv7_2_mbox_loc_perm"
  permute_param {
    order: 0
    order: 2
    order: 3
    order: 1
  }
}
layer {
  name: "conv7_2_mbox_loc_flat"
  type: "Flatten"
  bottom: "conv7_2_mbox_loc_perm"
  top: "conv7_2_mbox_loc_flat"
  flatten_param {
    axis: 1
  }
}
layer {
  name: "conv7_2_mbox_conf"
  type: "Convolution"
  bottom: "conv7_2"
  top: "conv7_2_mbox_conf"
  param {
    lr_mult: 1
    decay_mult: 1
  }
  param {
    lr_mult: 2
    decay_mult: 0
  }
  convolution_param {
    num_output: 126
    pad: 1
    kernel_size: 3
    stride: 1
    weight_filler {
      type: "xavier"
    }
    bias_filler {
      type: "constant"
      value: 0
    }
  }
}
layer {
  name: "conv7_2_mbox_conf_perm"
  type: "Permute"
  bottom: "conv7_2_mbox_conf"
  top: "conv7_2_mbox_conf_perm"
  permute_param {
    order: 0
    order: 2
    order: 3
    order: 1
  }
}
layer {
  name: "conv7_2_mbox_conf_flat"
  type: "Flatten"
  bottom: "conv7_2_mbox_conf_perm"
  top: "conv7_2_mbox_conf_flat"
  flatten_param {
    axis: 1
  }
}
layer {
  name: "conv7_2_mbox_priorbox"
  type: "PriorBox"
  bottom: "conv7_2"
  bottom: "data"
  top: "conv7_2_mbox_priorbox"
  prior_box_param {
    min_size: 162
    max_size: 213
    aspect_ratio: 2
    aspect_ratio: 3
    flip: true
    clip: false
    variance: 0.1
    variance: 0.1
    variance: 0.2
    variance: 0.2
    step: 64
    offset: 0.5
  }
}
layer {
  name: "conv8_2_mbox_loc"
  type: "Convolution"
  bottom: "conv8_2"
  top: "conv8_2_mbox_loc"
  param {
    lr_mult: 1
    decay_mult: 1
  }
  param {
    lr_mult: 2
    decay_mult: 0
  }
  convolution_param {
    num_output: 16
    pad: 1
    kernel_size: 3
    stride: 1
    weight_filler {
      type: "xavier"
    }
    bias_filler {
      type: "constant"
      value: 0
    }
  }
}
layer {
  name: "conv8_2_mbox_loc_perm"
  type: "Permute"
  bottom: "conv8_2_mbox_loc"
  top: "conv8_2_mbox_loc_perm"
  permute_param {
    order: 0
    order: 2
    order: 3
    order: 1
  }
}
layer {
  name: "conv8_2_mbox_loc_flat"
  type: "Flatten"
  bottom: "conv8_2_mbox_loc_perm"
  top: "conv8_2_mbox_loc_flat"
  flatten_param {
    axis: 1
  }
}
layer {
  name: "conv8_2_mbox_conf"
  type: "Convolution"
  bottom: "conv8_2"
  top: "conv8_2_mbox_conf"
  param {
    lr_mult: 1
    decay_mult: 1
  }
  param {
    lr_mult: 2
    decay_mult: 0
  }
  convolution_param {
    num_output: 84
    pad: 1
    kernel_size: 3
    stride: 1
    weight_filler {
      type: "xavier"
    }
    bias_filler {
      type: "constant"
      value: 0
    }
  }
}
layer {
  name: "conv8_2_mbox_conf_perm"
  type: "Permute"
  bottom: "conv8_2_mbox_conf"
  top: "conv8_2_mbox_conf_perm"
  permute_param {
    order: 0
    order: 2
    order: 3
    order: 1
  }
}
layer {
  name: "conv8_2_mbox_conf_flat"
  type: "Flatten"
  bottom: "conv8_2_mbox_conf_perm"
  top: "conv8_2_mbox_conf_flat"
  flatten_param {
    axis: 1
  }
}
layer {
  name: "conv8_2_mbox_priorbox"
  type: "PriorBox"
  bottom: "conv8_2"
  bottom: "data"
  top: "conv8_2_mbox_priorbox"
  prior_box_param {
    min_size: 213
    max_size: 264
    aspect_ratio: 2
    flip: true
    clip: false
    variance: 0.1
    variance: 0.1
    variance: 0.2
    variance: 0.2
    step: 100
    offset: 0.5
  }
}
layer {
  name: "conv9_2_mbox_loc"
  type: "Convolution"
  bottom: "conv9_2"
  top: "conv9_2_mbox_loc"
  param {
    lr_mult: 1
    decay_mult: 1
  }
  param {
    lr_mult: 2
    decay_mult: 0
  }
  convolution_param {
    num_output: 16
    pad: 1
    kernel_size: 3
    stride: 1
    weight_filler {
      type: "xavier"
    }
    bias_filler {
      type: "constant"
      value: 0
    }
  }
}
layer {
  name: "conv9_2_mbox_loc_perm"
  type: "Permute"
  bottom: "conv9_2_mbox_loc"
  top: "conv9_2_mbox_loc_perm"
  permute_param {
    order: 0
    order: 2
    order: 3
    order: 1
  }
}
layer {
  name: "conv9_2_mbox_loc_flat"
  type: "Flatten"
  bottom: "conv9_2_mbox_loc_perm"
  top: "conv9_2_mbox_loc_flat"
  flatten_param {
    axis: 1
  }
}
layer {
  name: "conv9_2_mbox_conf"
  type: "Convolution"
  bottom: "conv9_2"
  top: "conv9_2_mbox_conf"
  param {
    lr_mult: 1
    decay_mult: 1
  }
  param {
    lr_mult: 2
    decay_mult: 0
  }
  convolution_param {
    num_output: 84
    pad: 1
    kernel_size: 3
    stride: 1
    weight_filler {
      type: "xavier"
    }
    bias_filler {
      type: "constant"
      value: 0
    }
  }
}
layer {
  name: "conv9_2_mbox_conf_perm"
  type: "Permute"
  bottom: "conv9_2_mbox_conf"
  top: "conv9_2_mbox_conf_perm"
  permute_param {
    order: 0
    order: 2
    order: 3
    order: 1
  }
}
layer {
  name: "conv9_2_mbox_conf_flat"
  type: "Flatten"
  bottom: "conv9_2_mbox_conf_perm"
  top: "conv9_2_mbox_conf_flat"
  flatten_param {
    axis: 1
  }
}
layer {
  name: "conv9_2_mbox_priorbox"
  type: "PriorBox"
  bottom: "conv9_2"
  bottom: "data"
  top: "conv9_2_mbox_priorbox"
  prior_box_param {
    min_size: 264
    max_size: 315
    aspect_ratio: 2
    flip: true
    clip: false
    variance: 0.1
    variance: 0.1
    variance: 0.2
    variance: 0.2
    step: 300
    offset: 0.5
  }
}
layer {
  name: "mbox_loc"
  type: "Concat"
  bottom: "conv4_3_norm_mbox_loc_flat"
  bottom: "fc7_mbox_loc_flat"
  bottom: "conv6_2_mbox_loc_flat"
  bottom: "conv7_2_mbox_loc_flat"
  bottom: "conv8_2_mbox_loc_flat"
  bottom: "conv9_2_mbox_loc_flat"
  top: "mbox_loc"
  concat_param {
    axis: 1
  }
}
layer {
  name: "mbox_conf"
  type: "Concat"
  bottom: "conv4_3_norm_mbox_conf_flat"
  bottom: "fc7_mbox_conf_flat"
  bottom: "conv6_2_mbox_conf_flat"
  bottom: "conv7_2_mbox_conf_flat"
  bottom: "conv8_2_mbox_conf_flat"
  bottom: "conv9_2_mbox_conf_flat"
  top: "mbox_conf"
  concat_param {
    axis: 1
  }
}
layer {
  name: "mbox_priorbox"
  type: "Concat"
  bottom: "conv4_3_norm_mbox_priorbox"
  bottom: "fc7_mbox_priorbox"
  bottom: "conv6_2_mbox_priorbox"
  bottom: "conv7_2_mbox_priorbox"
  bottom: "conv8_2_mbox_priorbox"
  bottom: "conv9_2_mbox_priorbox"
  top: "mbox_priorbox"
  concat_param {
    axis: 2
  }
}
layer {
  name: "mbox_loss"
  type: "MultiBoxLoss"
  bottom: "mbox_loc"
  bottom: "mbox_conf"
  bottom: "mbox_priorbox"
  bottom: "label"
  top: "mbox_loss"
  include {
    phase: TRAIN
  }
  propagate_down: true
  propagate_down: true
  propagate_down: false
  propagate_down: false
  loss_param {
    normalization: VALID
  }
  multibox_loss_param {
    loc_loss_type: SMOOTH_L1
    conf_loss_type: SOFTMAX
    loc_weight: 1
    num_classes: 21
    share_location: true
    match_type: PER_PREDICTION
    overlap_threshold: 0.5
    use_prior_for_matching: true
    background_label_id: 0
    use_difficult_gt: true
    neg_pos_ratio: 3
    neg_overlap: 0.5
    code_type: CENTER_SIZE
    ignore_cross_boundary_bbox: false
    mining_type: MAX_NEGATIVE
  }
}
I1028 18:48:05.758795 22103 layer_factory.hpp:77] Creating layer data
I1028 18:48:05.760717 22103 net.cpp:100] Creating Layer data
I1028 18:48:05.760751 22103 net.cpp:452] data -> data
I1028 18:48:05.760803 22103 net.cpp:452] data -> label
I1028 18:48:05.762333 22111 db_lmdb.cpp:35] Opened lmdb examples/VOC0712/VOC0712_trainval_lmdb
I1028 18:48:05.768702 22103 annotated_data_layer.cpp:62] output data size: 1,3,300,300
I1028 18:48:05.770390 22103 net.cpp:150] Setting up data
I1028 18:48:05.770493 22103 net.cpp:157] Top shape: 1 3 300 300 (270000)
I1028 18:48:05.770507 22103 net.cpp:157] Top shape: 1 1 1 8 (8)
I1028 18:48:05.770514 22103 net.cpp:165] Memory required for data: 1080032
I1028 18:48:05.770537 22103 layer_factory.hpp:77] Creating layer data_data_0_split
I1028 18:48:05.770653 22103 net.cpp:100] Creating Layer data_data_0_split
I1028 18:48:05.770670 22103 net.cpp:478] data_data_0_split <- data
I1028 18:48:05.770699 22103 net.cpp:452] data_data_0_split -> data_data_0_split_0
I1028 18:48:05.770730 22103 net.cpp:452] data_data_0_split -> data_data_0_split_1
I1028 18:48:05.770745 22103 net.cpp:452] data_data_0_split -> data_data_0_split_2
I1028 18:48:05.770761 22103 net.cpp:452] data_data_0_split -> data_data_0_split_3
I1028 18:48:05.770773 22103 net.cpp:452] data_data_0_split -> data_data_0_split_4
I1028 18:48:05.770792 22103 net.cpp:452] data_data_0_split -> data_data_0_split_5
I1028 18:48:05.770810 22103 net.cpp:452] data_data_0_split -> data_data_0_split_6
I1028 18:48:05.770844 22103 net.cpp:150] Setting up data_data_0_split
I1028 18:48:05.770856 22103 net.cpp:157] Top shape: 1 3 300 300 (270000)
I1028 18:48:05.770865 22103 net.cpp:157] Top shape: 1 3 300 300 (270000)
I1028 18:48:05.770875 22103 net.cpp:157] Top shape: 1 3 300 300 (270000)
I1028 18:48:05.770882 22103 net.cpp:157] Top shape: 1 3 300 300 (270000)
I1028 18:48:05.770889 22103 net.cpp:157] Top shape: 1 3 300 300 (270000)
I1028 18:48:05.770897 22103 net.cpp:157] Top shape: 1 3 300 300 (270000)
I1028 18:48:05.770905 22103 net.cpp:157] Top shape: 1 3 300 300 (270000)
I1028 18:48:05.770911 22103 net.cpp:165] Memory required for data: 8640032
I1028 18:48:05.770917 22103 layer_factory.hpp:77] Creating layer conv1_1
I1028 18:48:05.770961 22103 net.cpp:100] Creating Layer conv1_1
I1028 18:48:05.770970 22103 net.cpp:478] conv1_1 <- data_data_0_split_0
I1028 18:48:05.770984 22103 net.cpp:452] conv1_1 -> conv1_1
I1028 18:48:05.771410 22103 net.cpp:150] Setting up conv1_1
I1028 18:48:05.771435 22103 net.cpp:157] Top shape: 1 64 300 300 (5760000)
I1028 18:48:05.771442 22103 net.cpp:165] Memory required for data: 31680032
I1028 18:48:05.771491 22103 layer_factory.hpp:77] Creating layer relu1_1
I1028 18:48:05.771507 22103 net.cpp:100] Creating Layer relu1_1
I1028 18:48:05.771514 22103 net.cpp:478] relu1_1 <- conv1_1
I1028 18:48:05.771525 22103 net.cpp:439] relu1_1 -> conv1_1 (in-place)
I1028 18:48:05.771539 22103 net.cpp:150] Setting up relu1_1
I1028 18:48:05.771549 22103 net.cpp:157] Top shape: 1 64 300 300 (5760000)
I1028 18:48:05.771555 22103 net.cpp:165] Memory required for data: 54720032
I1028 18:48:05.771562 22103 layer_factory.hpp:77] Creating layer conv1_2
I1028 18:48:05.771584 22103 net.cpp:100] Creating Layer conv1_2
I1028 18:48:05.771595 22103 net.cpp:478] conv1_2 <- conv1_1
I1028 18:48:05.771610 22103 net.cpp:452] conv1_2 -> conv1_2
I1028 18:48:05.772830 22103 net.cpp:150] Setting up conv1_2
I1028 18:48:05.772887 22103 net.cpp:157] Top shape: 1 64 300 300 (5760000)
I1028 18:48:05.772894 22103 net.cpp:165] Memory required for data: 77760032
I1028 18:48:05.772934 22103 layer_factory.hpp:77] Creating layer relu1_2
I1028 18:48:05.772953 22103 net.cpp:100] Creating Layer relu1_2
I1028 18:48:05.772961 22103 net.cpp:478] relu1_2 <- conv1_2
I1028 18:48:05.772974 22103 net.cpp:439] relu1_2 -> conv1_2 (in-place)
I1028 18:48:05.772990 22103 net.cpp:150] Setting up relu1_2
I1028 18:48:05.773000 22103 net.cpp:157] Top shape: 1 64 300 300 (5760000)
I1028 18:48:05.773005 22103 net.cpp:165] Memory required for data: 100800032
I1028 18:48:05.773011 22103 layer_factory.hpp:77] Creating layer pool1
I1028 18:48:05.773023 22103 net.cpp:100] Creating Layer pool1
I1028 18:48:05.773030 22103 net.cpp:478] pool1 <- conv1_2
I1028 18:48:05.773211 22103 net.cpp:452] pool1 -> pool1
I1028 18:48:05.773254 22103 net.cpp:150] Setting up pool1
I1028 18:48:05.773262 22103 net.cpp:157] Top shape: 1 64 150 150 (1440000)
I1028 18:48:05.773265 22103 net.cpp:165] Memory required for data: 106560032
I1028 18:48:05.773272 22103 layer_factory.hpp:77] Creating layer conv2_1
I1028 18:48:05.773290 22103 net.cpp:100] Creating Layer conv2_1
I1028 18:48:05.773295 22103 net.cpp:478] conv2_1 <- pool1
I1028 18:48:05.773305 22103 net.cpp:452] conv2_1 -> conv2_1
I1028 18:48:05.774226 22103 net.cpp:150] Setting up conv2_1
I1028 18:48:05.774274 22103 net.cpp:157] Top shape: 1 128 150 150 (2880000)
I1028 18:48:05.774279 22103 net.cpp:165] Memory required for data: 118080032
I1028 18:48:05.774294 22103 layer_factory.hpp:77] Creating layer relu2_1
I1028 18:48:05.774307 22103 net.cpp:100] Creating Layer relu2_1
I1028 18:48:05.774312 22103 net.cpp:478] relu2_1 <- conv2_1
I1028 18:48:05.774319 22103 net.cpp:439] relu2_1 -> conv2_1 (in-place)
I1028 18:48:05.774328 22103 net.cpp:150] Setting up relu2_1
I1028 18:48:05.774333 22103 net.cpp:157] Top shape: 1 128 150 150 (2880000)
I1028 18:48:05.774336 22103 net.cpp:165] Memory required for data: 129600032
I1028 18:48:05.774340 22103 layer_factory.hpp:77] Creating layer conv2_2
I1028 18:48:05.774351 22103 net.cpp:100] Creating Layer conv2_2
I1028 18:48:05.774355 22103 net.cpp:478] conv2_2 <- conv2_1
I1028 18:48:05.774361 22103 net.cpp:452] conv2_2 -> conv2_2
I1028 18:48:05.775987 22103 net.cpp:150] Setting up conv2_2
I1028 18:48:05.776015 22103 net.cpp:157] Top shape: 1 128 150 150 (2880000)
I1028 18:48:05.776020 22103 net.cpp:165] Memory required for data: 141120032
I1028 18:48:05.776031 22103 layer_factory.hpp:77] Creating layer relu2_2
I1028 18:48:05.776046 22103 net.cpp:100] Creating Layer relu2_2
I1028 18:48:05.776053 22103 net.cpp:478] relu2_2 <- conv2_2
I1028 18:48:05.776069 22103 net.cpp:439] relu2_2 -> conv2_2 (in-place)
I1028 18:48:05.776082 22103 net.cpp:150] Setting up relu2_2
I1028 18:48:05.776091 22103 net.cpp:157] Top shape: 1 128 150 150 (2880000)
I1028 18:48:05.776098 22103 net.cpp:165] Memory required for data: 152640032
I1028 18:48:05.776103 22103 layer_factory.hpp:77] Creating layer pool2
I1028 18:48:05.776115 22103 net.cpp:100] Creating Layer pool2
I1028 18:48:05.776123 22103 net.cpp:478] pool2 <- conv2_2
I1028 18:48:05.776135 22103 net.cpp:452] pool2 -> pool2
I1028 18:48:05.776160 22103 net.cpp:150] Setting up pool2
I1028 18:48:05.776170 22103 net.cpp:157] Top shape: 1 128 75 75 (720000)
I1028 18:48:05.776175 22103 net.cpp:165] Memory required for data: 155520032
I1028 18:48:05.776182 22103 layer_factory.hpp:77] Creating layer conv3_1
I1028 18:48:05.776202 22103 net.cpp:100] Creating Layer conv3_1
I1028 18:48:05.776211 22103 net.cpp:478] conv3_1 <- pool2
I1028 18:48:05.776226 22103 net.cpp:452] conv3_1 -> conv3_1
I1028 18:48:05.779681 22103 net.cpp:150] Setting up conv3_1
I1028 18:48:05.779722 22103 net.cpp:157] Top shape: 1 256 75 75 (1440000)
I1028 18:48:05.779726 22103 net.cpp:165] Memory required for data: 161280032
I1028 18:48:05.779750 22103 layer_factory.hpp:77] Creating layer relu3_1
I1028 18:48:05.779762 22103 net.cpp:100] Creating Layer relu3_1
I1028 18:48:05.779772 22103 net.cpp:478] relu3_1 <- conv3_1
I1028 18:48:05.779783 22103 net.cpp:439] relu3_1 -> conv3_1 (in-place)
I1028 18:48:05.779798 22103 net.cpp:150] Setting up relu3_1
I1028 18:48:05.779805 22103 net.cpp:157] Top shape: 1 256 75 75 (1440000)
I1028 18:48:05.779809 22103 net.cpp:165] Memory required for data: 167040032
I1028 18:48:05.779812 22103 layer_factory.hpp:77] Creating layer conv3_2
I1028 18:48:05.779826 22103 net.cpp:100] Creating Layer conv3_2
I1028 18:48:05.779829 22103 net.cpp:478] conv3_2 <- conv3_1
I1028 18:48:05.779836 22103 net.cpp:452] conv3_2 -> conv3_2
I1028 18:48:05.786119 22103 net.cpp:150] Setting up conv3_2
I1028 18:48:05.786188 22103 net.cpp:157] Top shape: 1 256 75 75 (1440000)
I1028 18:48:05.786195 22103 net.cpp:165] Memory required for data: 172800032
I1028 18:48:05.786216 22103 layer_factory.hpp:77] Creating layer relu3_2
I1028 18:48:05.786237 22103 net.cpp:100] Creating Layer relu3_2
I1028 18:48:05.786248 22103 net.cpp:478] relu3_2 <- conv3_2
I1028 18:48:05.786262 22103 net.cpp:439] relu3_2 -> conv3_2 (in-place)
I1028 18:48:05.786278 22103 net.cpp:150] Setting up relu3_2
I1028 18:48:05.786283 22103 net.cpp:157] Top shape: 1 256 75 75 (1440000)
I1028 18:48:05.786285 22103 net.cpp:165] Memory required for data: 178560032
I1028 18:48:05.786289 22103 layer_factory.hpp:77] Creating layer conv3_3
I1028 18:48:05.786314 22103 net.cpp:100] Creating Layer conv3_3
I1028 18:48:05.786319 22103 net.cpp:478] conv3_3 <- conv3_2
I1028 18:48:05.786365 22103 net.cpp:452] conv3_3 -> conv3_3
I1028 18:48:05.796883 22103 net.cpp:150] Setting up conv3_3
I1028 18:48:05.796936 22103 net.cpp:157] Top shape: 1 256 75 75 (1440000)
I1028 18:48:05.796939 22103 net.cpp:165] Memory required for data: 184320032
I1028 18:48:05.796957 22103 layer_factory.hpp:77] Creating layer relu3_3
I1028 18:48:05.796972 22103 net.cpp:100] Creating Layer relu3_3
I1028 18:48:05.796979 22103 net.cpp:478] relu3_3 <- conv3_3
I1028 18:48:05.796989 22103 net.cpp:439] relu3_3 -> conv3_3 (in-place)
I1028 18:48:05.797003 22103 net.cpp:150] Setting up relu3_3
I1028 18:48:05.797008 22103 net.cpp:157] Top shape: 1 256 75 75 (1440000)
I1028 18:48:05.797011 22103 net.cpp:165] Memory required for data: 190080032
I1028 18:48:05.797014 22103 layer_factory.hpp:77] Creating layer pool3
I1028 18:48:05.797024 22103 net.cpp:100] Creating Layer pool3
I1028 18:48:05.797027 22103 net.cpp:478] pool3 <- conv3_3
I1028 18:48:05.797034 22103 net.cpp:452] pool3 -> pool3
I1028 18:48:05.797049 22103 net.cpp:150] Setting up pool3
I1028 18:48:05.797055 22103 net.cpp:157] Top shape: 1 256 38 38 (369664)
I1028 18:48:05.797057 22103 net.cpp:165] Memory required for data: 191558688
I1028 18:48:05.797060 22103 layer_factory.hpp:77] Creating layer conv4_1
I1028 18:48:05.797075 22103 net.cpp:100] Creating Layer conv4_1
I1028 18:48:05.797080 22103 net.cpp:478] conv4_1 <- pool3
I1028 18:48:05.797088 22103 net.cpp:452] conv4_1 -> conv4_1
I1028 18:48:05.814929 22103 net.cpp:150] Setting up conv4_1
I1028 18:48:05.815043 22103 net.cpp:157] Top shape: 1 512 38 38 (739328)
I1028 18:48:05.815074 22103 net.cpp:165] Memory required for data: 194516000
I1028 18:48:05.815115 22103 layer_factory.hpp:77] Creating layer relu4_1
I1028 18:48:05.815157 22103 net.cpp:100] Creating Layer relu4_1
I1028 18:48:05.815188 22103 net.cpp:478] relu4_1 <- conv4_1
I1028 18:48:05.815223 22103 net.cpp:439] relu4_1 -> conv4_1 (in-place)
I1028 18:48:05.815258 22103 net.cpp:150] Setting up relu4_1
I1028 18:48:05.815285 22103 net.cpp:157] Top shape: 1 512 38 38 (739328)
I1028 18:48:05.815310 22103 net.cpp:165] Memory required for data: 197473312
I1028 18:48:05.815332 22103 layer_factory.hpp:77] Creating layer conv4_2
I1028 18:48:05.815387 22103 net.cpp:100] Creating Layer conv4_2
I1028 18:48:05.815425 22103 net.cpp:478] conv4_2 <- conv4_1
I1028 18:48:05.815474 22103 net.cpp:452] conv4_2 -> conv4_2
I1028 18:48:05.853145 22103 net.cpp:150] Setting up conv4_2
I1028 18:48:05.853193 22103 net.cpp:157] Top shape: 1 512 38 38 (739328)
I1028 18:48:05.853204 22103 net.cpp:165] Memory required for data: 200430624
I1028 18:48:05.853240 22103 layer_factory.hpp:77] Creating layer relu4_2
I1028 18:48:05.853258 22103 net.cpp:100] Creating Layer relu4_2
I1028 18:48:05.853276 22103 net.cpp:478] relu4_2 <- conv4_2
I1028 18:48:05.853289 22103 net.cpp:439] relu4_2 -> conv4_2 (in-place)
I1028 18:48:05.853307 22103 net.cpp:150] Setting up relu4_2
I1028 18:48:05.853315 22103 net.cpp:157] Top shape: 1 512 38 38 (739328)
I1028 18:48:05.853322 22103 net.cpp:165] Memory required for data: 203387936
I1028 18:48:05.853328 22103 layer_factory.hpp:77] Creating layer conv4_3
I1028 18:48:05.853345 22103 net.cpp:100] Creating Layer conv4_3
I1028 18:48:05.853355 22103 net.cpp:478] conv4_3 <- conv4_2
I1028 18:48:05.853374 22103 net.cpp:452] conv4_3 -> conv4_3
I1028 18:48:05.883412 22103 net.cpp:150] Setting up conv4_3
I1028 18:48:05.883561 22103 net.cpp:157] Top shape: 1 512 38 38 (739328)
I1028 18:48:05.883572 22103 net.cpp:165] Memory required for data: 206345248
I1028 18:48:05.883610 22103 layer_factory.hpp:77] Creating layer relu4_3
I1028 18:48:05.883656 22103 net.cpp:100] Creating Layer relu4_3
I1028 18:48:05.883673 22103 net.cpp:478] relu4_3 <- conv4_3
I1028 18:48:05.883697 22103 net.cpp:439] relu4_3 -> conv4_3 (in-place)
I1028 18:48:05.883728 22103 net.cpp:150] Setting up relu4_3
I1028 18:48:05.883739 22103 net.cpp:157] Top shape: 1 512 38 38 (739328)
I1028 18:48:05.883750 22103 net.cpp:165] Memory required for data: 209302560
I1028 18:48:05.883757 22103 layer_factory.hpp:77] Creating layer conv4_3_relu4_3_0_split
I1028 18:48:05.883837 22103 net.cpp:100] Creating Layer conv4_3_relu4_3_0_split
I1028 18:48:05.883847 22103 net.cpp:478] conv4_3_relu4_3_0_split <- conv4_3
I1028 18:48:05.883862 22103 net.cpp:452] conv4_3_relu4_3_0_split -> conv4_3_relu4_3_0_split_0
I1028 18:48:05.883882 22103 net.cpp:452] conv4_3_relu4_3_0_split -> conv4_3_relu4_3_0_split_1
I1028 18:48:05.883903 22103 net.cpp:150] Setting up conv4_3_relu4_3_0_split
I1028 18:48:05.883915 22103 net.cpp:157] Top shape: 1 512 38 38 (739328)
I1028 18:48:05.883924 22103 net.cpp:157] Top shape: 1 512 38 38 (739328)
I1028 18:48:05.883931 22103 net.cpp:165] Memory required for data: 215217184
I1028 18:48:05.883939 22103 layer_factory.hpp:77] Creating layer pool4
I1028 18:48:05.883960 22103 net.cpp:100] Creating Layer pool4
I1028 18:48:05.883970 22103 net.cpp:478] pool4 <- conv4_3_relu4_3_0_split_0
I1028 18:48:05.883985 22103 net.cpp:452] pool4 -> pool4
I1028 18:48:05.884012 22103 net.cpp:150] Setting up pool4
I1028 18:48:05.884035 22103 net.cpp:157] Top shape: 1 512 19 19 (184832)
I1028 18:48:05.884045 22103 net.cpp:165] Memory required for data: 215956512
I1028 18:48:05.884053 22103 layer_factory.hpp:77] Creating layer conv5_1
I1028 18:48:05.884086 22103 net.cpp:100] Creating Layer conv5_1
I1028 18:48:05.884097 22103 net.cpp:478] conv5_1 <- pool4
I1028 18:48:05.884111 22103 net.cpp:452] conv5_1 -> conv5_1
I1028 18:48:05.920599 22103 net.cpp:150] Setting up conv5_1
I1028 18:48:05.920724 22103 net.cpp:157] Top shape: 1 512 19 19 (184832)
I1028 18:48:05.920756 22103 net.cpp:165] Memory required for data: 216695840
I1028 18:48:05.920797 22103 layer_factory.hpp:77] Creating layer relu5_1
I1028 18:48:05.920848 22103 net.cpp:100] Creating Layer relu5_1
I1028 18:48:05.920881 22103 net.cpp:478] relu5_1 <- conv5_1
I1028 18:48:05.920912 22103 net.cpp:439] relu5_1 -> conv5_1 (in-place)
I1028 18:48:05.920948 22103 net.cpp:150] Setting up relu5_1
I1028 18:48:05.920976 22103 net.cpp:157] Top shape: 1 512 19 19 (184832)
I1028 18:48:05.921000 22103 net.cpp:165] Memory required for data: 217435168
I1028 18:48:05.921023 22103 layer_factory.hpp:77] Creating layer conv5_2
I1028 18:48:05.921062 22103 net.cpp:100] Creating Layer conv5_2
I1028 18:48:05.921088 22103 net.cpp:478] conv5_2 <- conv5_1
I1028 18:48:05.921124 22103 net.cpp:452] conv5_2 -> conv5_2
I1028 18:48:05.953819 22103 net.cpp:150] Setting up conv5_2
I1028 18:48:05.953877 22103 net.cpp:157] Top shape: 1 512 19 19 (184832)
I1028 18:48:05.953887 22103 net.cpp:165] Memory required for data: 218174496
I1028 18:48:05.953907 22103 layer_factory.hpp:77] Creating layer relu5_2
I1028 18:48:05.953928 22103 net.cpp:100] Creating Layer relu5_2
I1028 18:48:05.953940 22103 net.cpp:478] relu5_2 <- conv5_2
I1028 18:48:05.953959 22103 net.cpp:439] relu5_2 -> conv5_2 (in-place)
I1028 18:48:05.953992 22103 net.cpp:150] Setting up relu5_2
I1028 18:48:05.954005 22103 net.cpp:157] Top shape: 1 512 19 19 (184832)
I1028 18:48:05.954012 22103 net.cpp:165] Memory required for data: 218913824
I1028 18:48:05.954020 22103 layer_factory.hpp:77] Creating layer conv5_3
I1028 18:48:05.954046 22103 net.cpp:100] Creating Layer conv5_3
I1028 18:48:05.954088 22103 net.cpp:478] conv5_3 <- conv5_2
I1028 18:48:05.954124 22103 net.cpp:452] conv5_3 -> conv5_3
I1028 18:48:05.987498 22103 net.cpp:150] Setting up conv5_3
I1028 18:48:05.987684 22103 net.cpp:157] Top shape: 1 512 19 19 (184832)
I1028 18:48:05.987713 22103 net.cpp:165] Memory required for data: 219653152
I1028 18:48:05.987752 22103 layer_factory.hpp:77] Creating layer relu5_3
I1028 18:48:05.987813 22103 net.cpp:100] Creating Layer relu5_3
I1028 18:48:05.987854 22103 net.cpp:478] relu5_3 <- conv5_3
I1028 18:48:05.987895 22103 net.cpp:439] relu5_3 -> conv5_3 (in-place)
I1028 18:48:05.987941 22103 net.cpp:150] Setting up relu5_3
I1028 18:48:05.987977 22103 net.cpp:157] Top shape: 1 512 19 19 (184832)
I1028 18:48:05.988004 22103 net.cpp:165] Memory required for data: 220392480
I1028 18:48:05.988034 22103 layer_factory.hpp:77] Creating layer pool5
I1028 18:48:05.988145 22103 net.cpp:100] Creating Layer pool5
I1028 18:48:05.988178 22103 net.cpp:478] pool5 <- conv5_3
I1028 18:48:05.988210 22103 net.cpp:452] pool5 -> pool5
I1028 18:48:05.988266 22103 net.cpp:150] Setting up pool5
I1028 18:48:05.988303 22103 net.cpp:157] Top shape: 1 512 19 19 (184832)
I1028 18:48:05.988329 22103 net.cpp:165] Memory required for data: 221131808
I1028 18:48:05.988355 22103 layer_factory.hpp:77] Creating layer fc6
I1028 18:48:05.988407 22103 net.cpp:100] Creating Layer fc6
I1028 18:48:05.988440 22103 net.cpp:478] fc6 <- pool5
I1028 18:48:05.988473 22103 net.cpp:452] fc6 -> fc6
I1028 18:48:06.046443 22103 net.cpp:150] Setting up fc6
I1028 18:48:06.046551 22103 net.cpp:157] Top shape: 1 1024 19 19 (369664)
I1028 18:48:06.046581 22103 net.cpp:165] Memory required for data: 222610464
I1028 18:48:06.046618 22103 layer_factory.hpp:77] Creating layer relu6
I1028 18:48:06.046654 22103 net.cpp:100] Creating Layer relu6
I1028 18:48:06.046682 22103 net.cpp:478] relu6 <- fc6
I1028 18:48:06.046717 22103 net.cpp:439] relu6 -> fc6 (in-place)
I1028 18:48:06.046756 22103 net.cpp:150] Setting up relu6
I1028 18:48:06.046787 22103 net.cpp:157] Top shape: 1 1024 19 19 (369664)
I1028 18:48:06.046809 22103 net.cpp:165] Memory required for data: 224089120
I1028 18:48:06.046833 22103 layer_factory.hpp:77] Creating layer fc7
I1028 18:48:06.046870 22103 net.cpp:100] Creating Layer fc7
I1028 18:48:06.046897 22103 net.cpp:478] fc7 <- fc6
I1028 18:48:06.046931 22103 net.cpp:452] fc7 -> fc7
I1028 18:48:06.059592 22103 net.cpp:150] Setting up fc7
I1028 18:48:06.059646 22103 net.cpp:157] Top shape: 1 1024 19 19 (369664)
I1028 18:48:06.059653 22103 net.cpp:165] Memory required for data: 225567776
I1028 18:48:06.059674 22103 layer_factory.hpp:77] Creating layer relu7
I1028 18:48:06.059690 22103 net.cpp:100] Creating Layer relu7
I1028 18:48:06.059732 22103 net.cpp:478] relu7 <- fc7
I1028 18:48:06.059747 22103 net.cpp:439] relu7 -> fc7 (in-place)
I1028 18:48:06.059767 22103 net.cpp:150] Setting up relu7
I1028 18:48:06.059782 22103 net.cpp:157] Top shape: 1 1024 19 19 (369664)
I1028 18:48:06.059788 22103 net.cpp:165] Memory required for data: 227046432
I1028 18:48:06.059795 22103 layer_factory.hpp:77] Creating layer fc7_relu7_0_split
I1028 18:48:06.059808 22103 net.cpp:100] Creating Layer fc7_relu7_0_split
I1028 18:48:06.059816 22103 net.cpp:478] fc7_relu7_0_split <- fc7
I1028 18:48:06.059833 22103 net.cpp:452] fc7_relu7_0_split -> fc7_relu7_0_split_0
I1028 18:48:06.059852 22103 net.cpp:452] fc7_relu7_0_split -> fc7_relu7_0_split_1
I1028 18:48:06.059880 22103 net.cpp:452] fc7_relu7_0_split -> fc7_relu7_0_split_2
I1028 18:48:06.059897 22103 net.cpp:452] fc7_relu7_0_split -> fc7_relu7_0_split_3
I1028 18:48:06.059917 22103 net.cpp:150] Setting up fc7_relu7_0_split
I1028 18:48:06.059931 22103 net.cpp:157] Top shape: 1 1024 19 19 (369664)
I1028 18:48:06.059942 22103 net.cpp:157] Top shape: 1 1024 19 19 (369664)
I1028 18:48:06.059953 22103 net.cpp:157] Top shape: 1 1024 19 19 (369664)
I1028 18:48:06.059995 22103 net.cpp:157] Top shape: 1 1024 19 19 (369664)
I1028 18:48:06.060008 22103 net.cpp:165] Memory required for data: 232961056
I1028 18:48:06.060016 22103 layer_factory.hpp:77] Creating layer conv6_1
I1028 18:48:06.060044 22103 net.cpp:100] Creating Layer conv6_1
I1028 18:48:06.060053 22103 net.cpp:478] conv6_1 <- fc7_relu7_0_split_0
I1028 18:48:06.060068 22103 net.cpp:452] conv6_1 -> conv6_1
I1028 18:48:06.062839 22103 net.cpp:150] Setting up conv6_1
I1028 18:48:06.062872 22103 net.cpp:157] Top shape: 1 256 19 19 (92416)
I1028 18:48:06.062876 22103 net.cpp:165] Memory required for data: 233330720
I1028 18:48:06.062891 22103 layer_factory.hpp:77] Creating layer conv6_1_relu
I1028 18:48:06.062901 22103 net.cpp:100] Creating Layer conv6_1_relu
I1028 18:48:06.062914 22103 net.cpp:478] conv6_1_relu <- conv6_1
I1028 18:48:06.062932 22103 net.cpp:439] conv6_1_relu -> conv6_1 (in-place)
I1028 18:48:06.062948 22103 net.cpp:150] Setting up conv6_1_relu
I1028 18:48:06.062959 22103 net.cpp:157] Top shape: 1 256 19 19 (92416)
I1028 18:48:06.062965 22103 net.cpp:165] Memory required for data: 233700384
I1028 18:48:06.063007 22103 layer_factory.hpp:77] Creating layer conv6_2
I1028 18:48:06.063050 22103 net.cpp:100] Creating Layer conv6_2
I1028 18:48:06.063060 22103 net.cpp:478] conv6_2 <- conv6_1
I1028 18:48:06.063072 22103 net.cpp:452] conv6_2 -> conv6_2
I1028 18:48:06.077599 22103 net.cpp:150] Setting up conv6_2
I1028 18:48:06.077658 22103 net.cpp:157] Top shape: 1 512 10 10 (51200)
I1028 18:48:06.077666 22103 net.cpp:165] Memory required for data: 233905184
I1028 18:48:06.077706 22103 layer_factory.hpp:77] Creating layer conv6_2_relu
I1028 18:48:06.077728 22103 net.cpp:100] Creating Layer conv6_2_relu
I1028 18:48:06.077739 22103 net.cpp:478] conv6_2_relu <- conv6_2
I1028 18:48:06.077756 22103 net.cpp:439] conv6_2_relu -> conv6_2 (in-place)
I1028 18:48:06.077776 22103 net.cpp:150] Setting up conv6_2_relu
I1028 18:48:06.077786 22103 net.cpp:157] Top shape: 1 512 10 10 (51200)
I1028 18:48:06.077795 22103 net.cpp:165] Memory required for data: 234109984
I1028 18:48:06.077802 22103 layer_factory.hpp:77] Creating layer conv6_2_conv6_2_relu_0_split
I1028 18:48:06.077817 22103 net.cpp:100] Creating Layer conv6_2_conv6_2_relu_0_split
I1028 18:48:06.077826 22103 net.cpp:478] conv6_2_conv6_2_relu_0_split <- conv6_2
I1028 18:48:06.077841 22103 net.cpp:452] conv6_2_conv6_2_relu_0_split -> conv6_2_conv6_2_relu_0_split_0
I1028 18:48:06.077862 22103 net.cpp:452] conv6_2_conv6_2_relu_0_split -> conv6_2_conv6_2_relu_0_split_1
I1028 18:48:06.077880 22103 net.cpp:452] conv6_2_conv6_2_relu_0_split -> conv6_2_conv6_2_relu_0_split_2
I1028 18:48:06.077896 22103 net.cpp:452] conv6_2_conv6_2_relu_0_split -> conv6_2_conv6_2_relu_0_split_3
I1028 18:48:06.077916 22103 net.cpp:150] Setting up conv6_2_conv6_2_relu_0_split
I1028 18:48:06.077929 22103 net.cpp:157] Top shape: 1 512 10 10 (51200)
I1028 18:48:06.077941 22103 net.cpp:157] Top shape: 1 512 10 10 (51200)
I1028 18:48:06.077952 22103 net.cpp:157] Top shape: 1 512 10 10 (51200)
I1028 18:48:06.077963 22103 net.cpp:157] Top shape: 1 512 10 10 (51200)
I1028 18:48:06.077983 22103 net.cpp:165] Memory required for data: 234929184
I1028 18:48:06.077991 22103 layer_factory.hpp:77] Creating layer conv7_1
I1028 18:48:06.078017 22103 net.cpp:100] Creating Layer conv7_1
I1028 18:48:06.078027 22103 net.cpp:478] conv7_1 <- conv6_2_conv6_2_relu_0_split_0
I1028 18:48:06.078047 22103 net.cpp:452] conv7_1 -> conv7_1
I1028 18:48:06.079344 22103 net.cpp:150] Setting up conv7_1
I1028 18:48:06.079365 22103 net.cpp:157] Top shape: 1 128 10 10 (12800)
I1028 18:48:06.079372 22103 net.cpp:165] Memory required for data: 234980384
I1028 18:48:06.079385 22103 layer_factory.hpp:77] Creating layer conv7_1_relu
I1028 18:48:06.079432 22103 net.cpp:100] Creating Layer conv7_1_relu
I1028 18:48:06.079459 22103 net.cpp:478] conv7_1_relu <- conv7_1
I1028 18:48:06.079490 22103 net.cpp:439] conv7_1_relu -> conv7_1 (in-place)
I1028 18:48:06.079510 22103 net.cpp:150] Setting up conv7_1_relu
I1028 18:48:06.079522 22103 net.cpp:157] Top shape: 1 128 10 10 (12800)
I1028 18:48:06.079531 22103 net.cpp:165] Memory required for data: 235031584
I1028 18:48:06.079538 22103 layer_factory.hpp:77] Creating layer conv7_2
I1028 18:48:06.079562 22103 net.cpp:100] Creating Layer conv7_2
I1028 18:48:06.079572 22103 net.cpp:478] conv7_2 <- conv7_1
I1028 18:48:06.079584 22103 net.cpp:452] conv7_2 -> conv7_2
I1028 18:48:06.085220 22103 net.cpp:150] Setting up conv7_2
I1028 18:48:06.085291 22103 net.cpp:157] Top shape: 1 256 5 5 (6400)
I1028 18:48:06.085299 22103 net.cpp:165] Memory required for data: 235057184
I1028 18:48:06.085324 22103 layer_factory.hpp:77] Creating layer conv7_2_relu
I1028 18:48:06.085348 22103 net.cpp:100] Creating Layer conv7_2_relu
I1028 18:48:06.085382 22103 net.cpp:478] conv7_2_relu <- conv7_2
I1028 18:48:06.085403 22103 net.cpp:439] conv7_2_relu -> conv7_2 (in-place)
I1028 18:48:06.085423 22103 net.cpp:150] Setting up conv7_2_relu
I1028 18:48:06.085436 22103 net.cpp:157] Top shape: 1 256 5 5 (6400)
I1028 18:48:06.085443 22103 net.cpp:165] Memory required for data: 235082784
I1028 18:48:06.085501 22103 layer_factory.hpp:77] Creating layer conv7_2_conv7_2_relu_0_split
I1028 18:48:06.085520 22103 net.cpp:100] Creating Layer conv7_2_conv7_2_relu_0_split
I1028 18:48:06.085526 22103 net.cpp:478] conv7_2_conv7_2_relu_0_split <- conv7_2
I1028 18:48:06.085578 22103 net.cpp:452] conv7_2_conv7_2_relu_0_split -> conv7_2_conv7_2_relu_0_split_0
I1028 18:48:06.085618 22103 net.cpp:452] conv7_2_conv7_2_relu_0_split -> conv7_2_conv7_2_relu_0_split_1
I1028 18:48:06.085652 22103 net.cpp:452] conv7_2_conv7_2_relu_0_split -> conv7_2_conv7_2_relu_0_split_2
I1028 18:48:06.085675 22103 net.cpp:452] conv7_2_conv7_2_relu_0_split -> conv7_2_conv7_2_relu_0_split_3
I1028 18:48:06.085697 22103 net.cpp:150] Setting up conv7_2_conv7_2_relu_0_split
I1028 18:48:06.085711 22103 net.cpp:157] Top shape: 1 256 5 5 (6400)
I1028 18:48:06.085723 22103 net.cpp:157] Top shape: 1 256 5 5 (6400)
I1028 18:48:06.085734 22103 net.cpp:157] Top shape: 1 256 5 5 (6400)
I1028 18:48:06.085746 22103 net.cpp:157] Top shape: 1 256 5 5 (6400)
I1028 18:48:06.085754 22103 net.cpp:165] Memory required for data: 235185184
I1028 18:48:06.085764 22103 layer_factory.hpp:77] Creating layer conv8_1
I1028 18:48:06.085790 22103 net.cpp:100] Creating Layer conv8_1
I1028 18:48:06.085803 22103 net.cpp:478] conv8_1 <- conv7_2_conv7_2_relu_0_split_0
I1028 18:48:06.085821 22103 net.cpp:452] conv8_1 -> conv8_1
I1028 18:48:06.086526 22103 net.cpp:150] Setting up conv8_1
I1028 18:48:06.086578 22103 net.cpp:157] Top shape: 1 128 5 5 (3200)
I1028 18:48:06.086606 22103 net.cpp:165] Memory required for data: 235197984
I1028 18:48:06.086638 22103 layer_factory.hpp:77] Creating layer conv8_1_relu
I1028 18:48:06.086670 22103 net.cpp:100] Creating Layer conv8_1_relu
I1028 18:48:06.086683 22103 net.cpp:478] conv8_1_relu <- conv8_1
I1028 18:48:06.086699 22103 net.cpp:439] conv8_1_relu -> conv8_1 (in-place)
I1028 18:48:06.086715 22103 net.cpp:150] Setting up conv8_1_relu
I1028 18:48:06.086729 22103 net.cpp:157] Top shape: 1 128 5 5 (3200)
I1028 18:48:06.086737 22103 net.cpp:165] Memory required for data: 235210784
I1028 18:48:06.086745 22103 layer_factory.hpp:77] Creating layer conv8_2
I1028 18:48:06.086762 22103 net.cpp:100] Creating Layer conv8_2
I1028 18:48:06.086792 22103 net.cpp:478] conv8_2 <- conv8_1
I1028 18:48:06.086815 22103 net.cpp:452] conv8_2 -> conv8_2
I1028 18:48:06.090028 22103 net.cpp:150] Setting up conv8_2
I1028 18:48:06.090062 22103 net.cpp:157] Top shape: 1 256 3 3 (2304)
I1028 18:48:06.090066 22103 net.cpp:165] Memory required for data: 235220000
I1028 18:48:06.090080 22103 layer_factory.hpp:77] Creating layer conv8_2_relu
I1028 18:48:06.090095 22103 net.cpp:100] Creating Layer conv8_2_relu
I1028 18:48:06.090102 22103 net.cpp:478] conv8_2_relu <- conv8_2
I1028 18:48:06.090109 22103 net.cpp:439] conv8_2_relu -> conv8_2 (in-place)
I1028 18:48:06.090121 22103 net.cpp:150] Setting up conv8_2_relu
I1028 18:48:06.090134 22103 net.cpp:157] Top shape: 1 256 3 3 (2304)
I1028 18:48:06.090140 22103 net.cpp:165] Memory required for data: 235229216
I1028 18:48:06.090147 22103 layer_factory.hpp:77] Creating layer conv8_2_conv8_2_relu_0_split
I1028 18:48:06.090159 22103 net.cpp:100] Creating Layer conv8_2_conv8_2_relu_0_split
I1028 18:48:06.090167 22103 net.cpp:478] conv8_2_conv8_2_relu_0_split <- conv8_2
I1028 18:48:06.090185 22103 net.cpp:452] conv8_2_conv8_2_relu_0_split -> conv8_2_conv8_2_relu_0_split_0
I1028 18:48:06.090211 22103 net.cpp:452] conv8_2_conv8_2_relu_0_split -> conv8_2_conv8_2_relu_0_split_1
I1028 18:48:06.090261 22103 net.cpp:452] conv8_2_conv8_2_relu_0_split -> conv8_2_conv8_2_relu_0_split_2
I1028 18:48:06.090291 22103 net.cpp:452] conv8_2_conv8_2_relu_0_split -> conv8_2_conv8_2_relu_0_split_3
I1028 18:48:06.090335 22103 net.cpp:150] Setting up conv8_2_conv8_2_relu_0_split
I1028 18:48:06.090369 22103 net.cpp:157] Top shape: 1 256 3 3 (2304)
I1028 18:48:06.090399 22103 net.cpp:157] Top shape: 1 256 3 3 (2304)
I1028 18:48:06.090430 22103 net.cpp:157] Top shape: 1 256 3 3 (2304)
I1028 18:48:06.090461 22103 net.cpp:157] Top shape: 1 256 3 3 (2304)
I1028 18:48:06.090498 22103 net.cpp:165] Memory required for data: 235266080
I1028 18:48:06.090507 22103 layer_factory.hpp:77] Creating layer conv9_1
I1028 18:48:06.090533 22103 net.cpp:100] Creating Layer conv9_1
I1028 18:48:06.090545 22103 net.cpp:478] conv9_1 <- conv8_2_conv8_2_relu_0_split_0
I1028 18:48:06.090564 22103 net.cpp:452] conv9_1 -> conv9_1
I1028 18:48:06.090962 22103 net.cpp:150] Setting up conv9_1
I1028 18:48:06.090978 22103 net.cpp:157] Top shape: 1 128 3 3 (1152)
I1028 18:48:06.090986 22103 net.cpp:165] Memory required for data: 235270688
I1028 18:48:06.090998 22103 layer_factory.hpp:77] Creating layer conv9_1_relu
I1028 18:48:06.091033 22103 net.cpp:100] Creating Layer conv9_1_relu
I1028 18:48:06.091063 22103 net.cpp:478] conv9_1_relu <- conv9_1
I1028 18:48:06.091094 22103 net.cpp:439] conv9_1_relu -> conv9_1 (in-place)
I1028 18:48:06.091125 22103 net.cpp:150] Setting up conv9_1_relu
I1028 18:48:06.091156 22103 net.cpp:157] Top shape: 1 128 3 3 (1152)
I1028 18:48:06.091181 22103 net.cpp:165] Memory required for data: 235275296
I1028 18:48:06.091207 22103 layer_factory.hpp:77] Creating layer conv9_2
I1028 18:48:06.091248 22103 net.cpp:100] Creating Layer conv9_2
I1028 18:48:06.091259 22103 net.cpp:478] conv9_2 <- conv9_1
I1028 18:48:06.091275 22103 net.cpp:452] conv9_2 -> conv9_2
I1028 18:48:06.094506 22103 net.cpp:150] Setting up conv9_2
I1028 18:48:06.094544 22103 net.cpp:157] Top shape: 1 256 1 1 (256)
I1028 18:48:06.094552 22103 net.cpp:165] Memory required for data: 235276320
I1028 18:48:06.094571 22103 layer_factory.hpp:77] Creating layer conv9_2_relu
I1028 18:48:06.094588 22103 net.cpp:100] Creating Layer conv9_2_relu
I1028 18:48:06.094599 22103 net.cpp:478] conv9_2_relu <- conv9_2
I1028 18:48:06.094617 22103 net.cpp:439] conv9_2_relu -> conv9_2 (in-place)
I1028 18:48:06.094632 22103 net.cpp:150] Setting up conv9_2_relu
I1028 18:48:06.094641 22103 net.cpp:157] Top shape: 1 256 1 1 (256)
I1028 18:48:06.094647 22103 net.cpp:165] Memory required for data: 235277344
I1028 18:48:06.094655 22103 layer_factory.hpp:77] Creating layer conv9_2_conv9_2_relu_0_split
I1028 18:48:06.094668 22103 net.cpp:100] Creating Layer conv9_2_conv9_2_relu_0_split
I1028 18:48:06.094676 22103 net.cpp:478] conv9_2_conv9_2_relu_0_split <- conv9_2
I1028 18:48:06.094691 22103 net.cpp:452] conv9_2_conv9_2_relu_0_split -> conv9_2_conv9_2_relu_0_split_0
I1028 18:48:06.094707 22103 net.cpp:452] conv9_2_conv9_2_relu_0_split -> conv9_2_conv9_2_relu_0_split_1
I1028 18:48:06.094719 22103 net.cpp:452] conv9_2_conv9_2_relu_0_split -> conv9_2_conv9_2_relu_0_split_2
I1028 18:48:06.094738 22103 net.cpp:150] Setting up conv9_2_conv9_2_relu_0_split
I1028 18:48:06.094748 22103 net.cpp:157] Top shape: 1 256 1 1 (256)
I1028 18:48:06.094758 22103 net.cpp:157] Top shape: 1 256 1 1 (256)
I1028 18:48:06.094765 22103 net.cpp:157] Top shape: 1 256 1 1 (256)
I1028 18:48:06.094771 22103 net.cpp:165] Memory required for data: 235280416
I1028 18:48:06.094779 22103 layer_factory.hpp:77] Creating layer conv4_3_norm
I1028 18:48:06.094804 22103 net.cpp:100] Creating Layer conv4_3_norm
I1028 18:48:06.094813 22103 net.cpp:478] conv4_3_norm <- conv4_3_relu4_3_0_split_1
I1028 18:48:06.094830 22103 net.cpp:452] conv4_3_norm -> conv4_3_norm
I1028 18:48:06.094883 22103 net.cpp:150] Setting up conv4_3_norm
I1028 18:48:06.094897 22103 net.cpp:157] Top shape: 1 512 38 38 (739328)
I1028 18:48:06.094903 22103 net.cpp:165] Memory required for data: 238237728
I1028 18:48:06.094914 22103 layer_factory.hpp:77] Creating layer conv4_3_norm_conv4_3_norm_0_split
I1028 18:48:06.094928 22103 net.cpp:100] Creating Layer conv4_3_norm_conv4_3_norm_0_split
I1028 18:48:06.094936 22103 net.cpp:478] conv4_3_norm_conv4_3_norm_0_split <- conv4_3_norm
I1028 18:48:06.094950 22103 net.cpp:452] conv4_3_norm_conv4_3_norm_0_split -> conv4_3_norm_conv4_3_norm_0_split_0
I1028 18:48:06.094966 22103 net.cpp:452] conv4_3_norm_conv4_3_norm_0_split -> conv4_3_norm_conv4_3_norm_0_split_1
I1028 18:48:06.094982 22103 net.cpp:452] conv4_3_norm_conv4_3_norm_0_split -> conv4_3_norm_conv4_3_norm_0_split_2
I1028 18:48:06.095054 22103 net.cpp:150] Setting up conv4_3_norm_conv4_3_norm_0_split
I1028 18:48:06.095068 22103 net.cpp:157] Top shape: 1 512 38 38 (739328)
I1028 18:48:06.095078 22103 net.cpp:157] Top shape: 1 512 38 38 (739328)
I1028 18:48:06.095088 22103 net.cpp:157] Top shape: 1 512 38 38 (739328)
I1028 18:48:06.095093 22103 net.cpp:165] Memory required for data: 247109664
I1028 18:48:06.095100 22103 layer_factory.hpp:77] Creating layer conv4_3_norm_mbox_loc
I1028 18:48:06.095124 22103 net.cpp:100] Creating Layer conv4_3_norm_mbox_loc
I1028 18:48:06.095134 22103 net.cpp:478] conv4_3_norm_mbox_loc <- conv4_3_norm_conv4_3_norm_0_split_0
I1028 18:48:06.095149 22103 net.cpp:452] conv4_3_norm_mbox_loc -> conv4_3_norm_mbox_loc
I1028 18:48:06.096137 22103 net.cpp:150] Setting up conv4_3_norm_mbox_loc
I1028 18:48:06.096158 22103 net.cpp:157] Top shape: 1 16 38 38 (23104)
I1028 18:48:06.096165 22103 net.cpp:165] Memory required for data: 247202080
I1028 18:48:06.096179 22103 layer_factory.hpp:77] Creating layer conv4_3_norm_mbox_loc_perm
I1028 18:48:06.096201 22103 net.cpp:100] Creating Layer conv4_3_norm_mbox_loc_perm
I1028 18:48:06.096212 22103 net.cpp:478] conv4_3_norm_mbox_loc_perm <- conv4_3_norm_mbox_loc
I1028 18:48:06.096230 22103 net.cpp:452] conv4_3_norm_mbox_loc_perm -> conv4_3_norm_mbox_loc_perm
I1028 18:48:06.096259 22103 net.cpp:150] Setting up conv4_3_norm_mbox_loc_perm
I1028 18:48:06.096271 22103 net.cpp:157] Top shape: 1 38 38 16 (23104)
I1028 18:48:06.096279 22103 net.cpp:165] Memory required for data: 247294496
I1028 18:48:06.096287 22103 layer_factory.hpp:77] Creating layer conv4_3_norm_mbox_loc_flat
I1028 18:48:06.096302 22103 net.cpp:100] Creating Layer conv4_3_norm_mbox_loc_flat
I1028 18:48:06.096309 22103 net.cpp:478] conv4_3_norm_mbox_loc_flat <- conv4_3_norm_mbox_loc_perm
I1028 18:48:06.096316 22103 net.cpp:452] conv4_3_norm_mbox_loc_flat -> conv4_3_norm_mbox_loc_flat
I1028 18:48:06.096359 22103 net.cpp:150] Setting up conv4_3_norm_mbox_loc_flat
I1028 18:48:06.096369 22103 net.cpp:157] Top shape: 1 23104 (23104)
I1028 18:48:06.096376 22103 net.cpp:165] Memory required for data: 247386912
I1028 18:48:06.096382 22103 layer_factory.hpp:77] Creating layer conv4_3_norm_mbox_conf
I1028 18:48:06.096415 22103 net.cpp:100] Creating Layer conv4_3_norm_mbox_conf
I1028 18:48:06.096421 22103 net.cpp:478] conv4_3_norm_mbox_conf <- conv4_3_norm_conv4_3_norm_0_split_1
I1028 18:48:06.096432 22103 net.cpp:452] conv4_3_norm_mbox_conf -> conv4_3_norm_mbox_conf
I1028 18:48:06.100536 22103 net.cpp:150] Setting up conv4_3_norm_mbox_conf
I1028 18:48:06.100611 22103 net.cpp:157] Top shape: 1 84 38 38 (121296)
I1028 18:48:06.100615 22103 net.cpp:165] Memory required for data: 247872096
I1028 18:48:06.100638 22103 layer_factory.hpp:77] Creating layer conv4_3_norm_mbox_conf_perm
I1028 18:48:06.100658 22103 net.cpp:100] Creating Layer conv4_3_norm_mbox_conf_perm
I1028 18:48:06.100669 22103 net.cpp:478] conv4_3_norm_mbox_conf_perm <- conv4_3_norm_mbox_conf
I1028 18:48:06.100682 22103 net.cpp:452] conv4_3_norm_mbox_conf_perm -> conv4_3_norm_mbox_conf_perm
I1028 18:48:06.100714 22103 net.cpp:150] Setting up conv4_3_norm_mbox_conf_perm
I1028 18:48:06.100720 22103 net.cpp:157] Top shape: 1 38 38 84 (121296)
I1028 18:48:06.100723 22103 net.cpp:165] Memory required for data: 248357280
I1028 18:48:06.100728 22103 layer_factory.hpp:77] Creating layer conv4_3_norm_mbox_conf_flat
I1028 18:48:06.100739 22103 net.cpp:100] Creating Layer conv4_3_norm_mbox_conf_flat
I1028 18:48:06.100755 22103 net.cpp:478] conv4_3_norm_mbox_conf_flat <- conv4_3_norm_mbox_conf_perm
I1028 18:48:06.100769 22103 net.cpp:452] conv4_3_norm_mbox_conf_flat -> conv4_3_norm_mbox_conf_flat
I1028 18:48:06.100790 22103 net.cpp:150] Setting up conv4_3_norm_mbox_conf_flat
I1028 18:48:06.100906 22103 net.cpp:157] Top shape: 1 121296 (121296)
I1028 18:48:06.100936 22103 net.cpp:165] Memory required for data: 248842464
I1028 18:48:06.100962 22103 layer_factory.hpp:77] Creating layer conv4_3_norm_mbox_priorbox
I1028 18:48:06.101017 22103 net.cpp:100] Creating Layer conv4_3_norm_mbox_priorbox
I1028 18:48:06.101096 22103 net.cpp:478] conv4_3_norm_mbox_priorbox <- conv4_3_norm_conv4_3_norm_0_split_2
I1028 18:48:06.101133 22103 net.cpp:478] conv4_3_norm_mbox_priorbox <- data_data_0_split_1
I1028 18:48:06.101171 22103 net.cpp:452] conv4_3_norm_mbox_priorbox -> conv4_3_norm_mbox_priorbox
I1028 18:48:06.101229 22103 net.cpp:150] Setting up conv4_3_norm_mbox_priorbox
I1028 18:48:06.101250 22103 net.cpp:157] Top shape: 1 2 23104 (46208)
I1028 18:48:06.101258 22103 net.cpp:165] Memory required for data: 249027296
I1028 18:48:06.101266 22103 layer_factory.hpp:77] Creating layer fc7_mbox_loc
I1028 18:48:06.101302 22103 net.cpp:100] Creating Layer fc7_mbox_loc
I1028 18:48:06.101315 22103 net.cpp:478] fc7_mbox_loc <- fc7_relu7_0_split_1
I1028 18:48:06.101335 22103 net.cpp:452] fc7_mbox_loc -> fc7_mbox_loc
I1028 18:48:06.103862 22103 net.cpp:150] Setting up fc7_mbox_loc
I1028 18:48:06.103905 22103 net.cpp:157] Top shape: 1 24 19 19 (8664)
I1028 18:48:06.103911 22103 net.cpp:165] Memory required for data: 249061952
I1028 18:48:06.103931 22103 layer_factory.hpp:77] Creating layer fc7_mbox_loc_perm
I1028 18:48:06.103952 22103 net.cpp:100] Creating Layer fc7_mbox_loc_perm
I1028 18:48:06.103962 22103 net.cpp:478] fc7_mbox_loc_perm <- fc7_mbox_loc
I1028 18:48:06.103978 22103 net.cpp:452] fc7_mbox_loc_perm -> fc7_mbox_loc_perm
I1028 18:48:06.104017 22103 net.cpp:150] Setting up fc7_mbox_loc_perm
I1028 18:48:06.104028 22103 net.cpp:157] Top shape: 1 19 19 24 (8664)
I1028 18:48:06.104033 22103 net.cpp:165] Memory required for data: 249096608
I1028 18:48:06.104039 22103 layer_factory.hpp:77] Creating layer fc7_mbox_loc_flat
I1028 18:48:06.104053 22103 net.cpp:100] Creating Layer fc7_mbox_loc_flat
I1028 18:48:06.104061 22103 net.cpp:478] fc7_mbox_loc_flat <- fc7_mbox_loc_perm
I1028 18:48:06.104076 22103 net.cpp:452] fc7_mbox_loc_flat -> fc7_mbox_loc_flat
I1028 18:48:06.104095 22103 net.cpp:150] Setting up fc7_mbox_loc_flat
I1028 18:48:06.104107 22103 net.cpp:157] Top shape: 1 8664 (8664)
I1028 18:48:06.104113 22103 net.cpp:165] Memory required for data: 249131264
I1028 18:48:06.104120 22103 layer_factory.hpp:77] Creating layer fc7_mbox_conf
I1028 18:48:06.104142 22103 net.cpp:100] Creating Layer fc7_mbox_conf
I1028 18:48:06.104152 22103 net.cpp:478] fc7_mbox_conf <- fc7_relu7_0_split_2
I1028 18:48:06.104168 22103 net.cpp:452] fc7_mbox_conf -> fc7_mbox_conf
I1028 18:48:06.125952 22103 net.cpp:150] Setting up fc7_mbox_conf
I1028 18:48:06.126015 22103 net.cpp:157] Top shape: 1 126 19 19 (45486)
I1028 18:48:06.126026 22103 net.cpp:165] Memory required for data: 249313208
I1028 18:48:06.126049 22103 layer_factory.hpp:77] Creating layer fc7_mbox_conf_perm
I1028 18:48:06.126077 22103 net.cpp:100] Creating Layer fc7_mbox_conf_perm
I1028 18:48:06.126091 22103 net.cpp:478] fc7_mbox_conf_perm <- fc7_mbox_conf
I1028 18:48:06.126118 22103 net.cpp:452] fc7_mbox_conf_perm -> fc7_mbox_conf_perm
I1028 18:48:06.126155 22103 net.cpp:150] Setting up fc7_mbox_conf_perm
I1028 18:48:06.126169 22103 net.cpp:157] Top shape: 1 19 19 126 (45486)
I1028 18:48:06.126176 22103 net.cpp:165] Memory required for data: 249495152
I1028 18:48:06.126186 22103 layer_factory.hpp:77] Creating layer fc7_mbox_conf_flat
I1028 18:48:06.126202 22103 net.cpp:100] Creating Layer fc7_mbox_conf_flat
I1028 18:48:06.126243 22103 net.cpp:478] fc7_mbox_conf_flat <- fc7_mbox_conf_perm
I1028 18:48:06.126278 22103 net.cpp:452] fc7_mbox_conf_flat -> fc7_mbox_conf_flat
I1028 18:48:06.126319 22103 net.cpp:150] Setting up fc7_mbox_conf_flat
I1028 18:48:06.126334 22103 net.cpp:157] Top shape: 1 45486 (45486)
I1028 18:48:06.126344 22103 net.cpp:165] Memory required for data: 249677096
I1028 18:48:06.126351 22103 layer_factory.hpp:77] Creating layer fc7_mbox_priorbox
I1028 18:48:06.126366 22103 net.cpp:100] Creating Layer fc7_mbox_priorbox
I1028 18:48:06.126377 22103 net.cpp:478] fc7_mbox_priorbox <- fc7_relu7_0_split_3
I1028 18:48:06.126389 22103 net.cpp:478] fc7_mbox_priorbox <- data_data_0_split_2
I1028 18:48:06.126408 22103 net.cpp:452] fc7_mbox_priorbox -> fc7_mbox_priorbox
I1028 18:48:06.126466 22103 net.cpp:150] Setting up fc7_mbox_priorbox
I1028 18:48:06.126480 22103 net.cpp:157] Top shape: 1 2 8664 (17328)
I1028 18:48:06.126487 22103 net.cpp:165] Memory required for data: 249746408
I1028 18:48:06.126494 22103 layer_factory.hpp:77] Creating layer conv6_2_mbox_loc
I1028 18:48:06.126521 22103 net.cpp:100] Creating Layer conv6_2_mbox_loc
I1028 18:48:06.126535 22103 net.cpp:478] conv6_2_mbox_loc <- conv6_2_conv6_2_relu_0_split_1
I1028 18:48:06.126556 22103 net.cpp:452] conv6_2_mbox_loc -> conv6_2_mbox_loc
I1028 18:48:06.128244 22103 net.cpp:150] Setting up conv6_2_mbox_loc
I1028 18:48:06.128264 22103 net.cpp:157] Top shape: 1 24 10 10 (2400)
I1028 18:48:06.128268 22103 net.cpp:165] Memory required for data: 249756008
I1028 18:48:06.128278 22103 layer_factory.hpp:77] Creating layer conv6_2_mbox_loc_perm
I1028 18:48:06.128289 22103 net.cpp:100] Creating Layer conv6_2_mbox_loc_perm
I1028 18:48:06.128298 22103 net.cpp:478] conv6_2_mbox_loc_perm <- conv6_2_mbox_loc
I1028 18:48:06.128306 22103 net.cpp:452] conv6_2_mbox_loc_perm -> conv6_2_mbox_loc_perm
I1028 18:48:06.128322 22103 net.cpp:150] Setting up conv6_2_mbox_loc_perm
I1028 18:48:06.128332 22103 net.cpp:157] Top shape: 1 10 10 24 (2400)
I1028 18:48:06.128340 22103 net.cpp:165] Memory required for data: 249765608
I1028 18:48:06.128345 22103 layer_factory.hpp:77] Creating layer conv6_2_mbox_loc_flat
I1028 18:48:06.128360 22103 net.cpp:100] Creating Layer conv6_2_mbox_loc_flat
I1028 18:48:06.128372 22103 net.cpp:478] conv6_2_mbox_loc_flat <- conv6_2_mbox_loc_perm
I1028 18:48:06.128384 22103 net.cpp:452] conv6_2_mbox_loc_flat -> conv6_2_mbox_loc_flat
I1028 18:48:06.128409 22103 net.cpp:150] Setting up conv6_2_mbox_loc_flat
I1028 18:48:06.128422 22103 net.cpp:157] Top shape: 1 2400 (2400)
I1028 18:48:06.128427 22103 net.cpp:165] Memory required for data: 249775208
I1028 18:48:06.128434 22103 layer_factory.hpp:77] Creating layer conv6_2_mbox_conf
I1028 18:48:06.128453 22103 net.cpp:100] Creating Layer conv6_2_mbox_conf
I1028 18:48:06.128461 22103 net.cpp:478] conv6_2_mbox_conf <- conv6_2_conv6_2_relu_0_split_2
I1028 18:48:06.128479 22103 net.cpp:452] conv6_2_mbox_conf -> conv6_2_mbox_conf
I1028 18:48:06.134580 22103 net.cpp:150] Setting up conv6_2_mbox_conf
I1028 18:48:06.134660 22103 net.cpp:157] Top shape: 1 126 10 10 (12600)
I1028 18:48:06.134667 22103 net.cpp:165] Memory required for data: 249825608
I1028 18:48:06.134690 22103 layer_factory.hpp:77] Creating layer conv6_2_mbox_conf_perm
I1028 18:48:06.134721 22103 net.cpp:100] Creating Layer conv6_2_mbox_conf_perm
I1028 18:48:06.134740 22103 net.cpp:478] conv6_2_mbox_conf_perm <- conv6_2_mbox_conf
I1028 18:48:06.134763 22103 net.cpp:452] conv6_2_mbox_conf_perm -> conv6_2_mbox_conf_perm
I1028 18:48:06.134798 22103 net.cpp:150] Setting up conv6_2_mbox_conf_perm
I1028 18:48:06.134809 22103 net.cpp:157] Top shape: 1 10 10 126 (12600)
I1028 18:48:06.134816 22103 net.cpp:165] Memory required for data: 249876008
I1028 18:48:06.134824 22103 layer_factory.hpp:77] Creating layer conv6_2_mbox_conf_flat
I1028 18:48:06.134841 22103 net.cpp:100] Creating Layer conv6_2_mbox_conf_flat
I1028 18:48:06.134850 22103 net.cpp:478] conv6_2_mbox_conf_flat <- conv6_2_mbox_conf_perm
I1028 18:48:06.134863 22103 net.cpp:452] conv6_2_mbox_conf_flat -> conv6_2_mbox_conf_flat
I1028 18:48:06.134883 22103 net.cpp:150] Setting up conv6_2_mbox_conf_flat
I1028 18:48:06.134893 22103 net.cpp:157] Top shape: 1 12600 (12600)
I1028 18:48:06.134901 22103 net.cpp:165] Memory required for data: 249926408
I1028 18:48:06.134907 22103 layer_factory.hpp:77] Creating layer conv6_2_mbox_priorbox
I1028 18:48:06.134922 22103 net.cpp:100] Creating Layer conv6_2_mbox_priorbox
I1028 18:48:06.134932 22103 net.cpp:478] conv6_2_mbox_priorbox <- conv6_2_conv6_2_relu_0_split_3
I1028 18:48:06.134944 22103 net.cpp:478] conv6_2_mbox_priorbox <- data_data_0_split_3
I1028 18:48:06.134961 22103 net.cpp:452] conv6_2_mbox_priorbox -> conv6_2_mbox_priorbox
I1028 18:48:06.134990 22103 net.cpp:150] Setting up conv6_2_mbox_priorbox
I1028 18:48:06.135002 22103 net.cpp:157] Top shape: 1 2 2400 (4800)
I1028 18:48:06.135052 22103 net.cpp:165] Memory required for data: 249945608
I1028 18:48:06.135089 22103 layer_factory.hpp:77] Creating layer conv7_2_mbox_loc
I1028 18:48:06.135118 22103 net.cpp:100] Creating Layer conv7_2_mbox_loc
I1028 18:48:06.135128 22103 net.cpp:478] conv7_2_mbox_loc <- conv7_2_conv7_2_relu_0_split_1
I1028 18:48:06.135145 22103 net.cpp:452] conv7_2_mbox_loc -> conv7_2_mbox_loc
I1028 18:48:06.135756 22103 net.cpp:150] Setting up conv7_2_mbox_loc
I1028 18:48:06.135771 22103 net.cpp:157] Top shape: 1 24 5 5 (600)
I1028 18:48:06.135777 22103 net.cpp:165] Memory required for data: 249948008
I1028 18:48:06.135790 22103 layer_factory.hpp:77] Creating layer conv7_2_mbox_loc_perm
I1028 18:48:06.135808 22103 net.cpp:100] Creating Layer conv7_2_mbox_loc_perm
I1028 18:48:06.135818 22103 net.cpp:478] conv7_2_mbox_loc_perm <- conv7_2_mbox_loc
I1028 18:48:06.135831 22103 net.cpp:452] conv7_2_mbox_loc_perm -> conv7_2_mbox_loc_perm
I1028 18:48:06.135855 22103 net.cpp:150] Setting up conv7_2_mbox_loc_perm
I1028 18:48:06.135866 22103 net.cpp:157] Top shape: 1 5 5 24 (600)
I1028 18:48:06.135872 22103 net.cpp:165] Memory required for data: 249950408
I1028 18:48:06.135879 22103 layer_factory.hpp:77] Creating layer conv7_2_mbox_loc_flat
I1028 18:48:06.135891 22103 net.cpp:100] Creating Layer conv7_2_mbox_loc_flat
I1028 18:48:06.135901 22103 net.cpp:478] conv7_2_mbox_loc_flat <- conv7_2_mbox_loc_perm
I1028 18:48:06.135912 22103 net.cpp:452] conv7_2_mbox_loc_flat -> conv7_2_mbox_loc_flat
I1028 18:48:06.135931 22103 net.cpp:150] Setting up conv7_2_mbox_loc_flat
I1028 18:48:06.135942 22103 net.cpp:157] Top shape: 1 600 (600)
I1028 18:48:06.135948 22103 net.cpp:165] Memory required for data: 249952808
I1028 18:48:06.135954 22103 layer_factory.hpp:77] Creating layer conv7_2_mbox_conf
I1028 18:48:06.135970 22103 net.cpp:100] Creating Layer conv7_2_mbox_conf
I1028 18:48:06.135978 22103 net.cpp:478] conv7_2_mbox_conf <- conv7_2_conv7_2_relu_0_split_2
I1028 18:48:06.135994 22103 net.cpp:452] conv7_2_mbox_conf -> conv7_2_mbox_conf
I1028 18:48:06.140491 22103 net.cpp:150] Setting up conv7_2_mbox_conf
I1028 18:48:06.140542 22103 net.cpp:157] Top shape: 1 126 5 5 (3150)
I1028 18:48:06.140549 22103 net.cpp:165] Memory required for data: 249965408
I1028 18:48:06.140573 22103 layer_factory.hpp:77] Creating layer conv7_2_mbox_conf_perm
I1028 18:48:06.140599 22103 net.cpp:100] Creating Layer conv7_2_mbox_conf_perm
I1028 18:48:06.140614 22103 net.cpp:478] conv7_2_mbox_conf_perm <- conv7_2_mbox_conf
I1028 18:48:06.140638 22103 net.cpp:452] conv7_2_mbox_conf_perm -> conv7_2_mbox_conf_perm
I1028 18:48:06.140676 22103 net.cpp:150] Setting up conv7_2_mbox_conf_perm
I1028 18:48:06.140692 22103 net.cpp:157] Top shape: 1 5 5 126 (3150)
I1028 18:48:06.140702 22103 net.cpp:165] Memory required for data: 249978008
I1028 18:48:06.140710 22103 layer_factory.hpp:77] Creating layer conv7_2_mbox_conf_flat
I1028 18:48:06.140725 22103 net.cpp:100] Creating Layer conv7_2_mbox_conf_flat
I1028 18:48:06.140736 22103 net.cpp:478] conv7_2_mbox_conf_flat <- conv7_2_mbox_conf_perm
I1028 18:48:06.140753 22103 net.cpp:452] conv7_2_mbox_conf_flat -> conv7_2_mbox_conf_flat
I1028 18:48:06.140774 22103 net.cpp:150] Setting up conv7_2_mbox_conf_flat
I1028 18:48:06.140785 22103 net.cpp:157] Top shape: 1 3150 (3150)
I1028 18:48:06.140794 22103 net.cpp:165] Memory required for data: 249990608
I1028 18:48:06.140803 22103 layer_factory.hpp:77] Creating layer conv7_2_mbox_priorbox
I1028 18:48:06.140820 22103 net.cpp:100] Creating Layer conv7_2_mbox_priorbox
I1028 18:48:06.140830 22103 net.cpp:478] conv7_2_mbox_priorbox <- conv7_2_conv7_2_relu_0_split_3
I1028 18:48:06.140843 22103 net.cpp:478] conv7_2_mbox_priorbox <- data_data_0_split_4
I1028 18:48:06.140861 22103 net.cpp:452] conv7_2_mbox_priorbox -> conv7_2_mbox_priorbox
I1028 18:48:06.140883 22103 net.cpp:150] Setting up conv7_2_mbox_priorbox
I1028 18:48:06.140895 22103 net.cpp:157] Top shape: 1 2 600 (1200)
I1028 18:48:06.140904 22103 net.cpp:165] Memory required for data: 249995408
I1028 18:48:06.140982 22103 layer_factory.hpp:77] Creating layer conv8_2_mbox_loc
I1028 18:48:06.141013 22103 net.cpp:100] Creating Layer conv8_2_mbox_loc
I1028 18:48:06.141026 22103 net.cpp:478] conv8_2_mbox_loc <- conv8_2_conv8_2_relu_0_split_1
I1028 18:48:06.141047 22103 net.cpp:452] conv8_2_mbox_loc -> conv8_2_mbox_loc
I1028 18:48:06.141819 22103 net.cpp:150] Setting up conv8_2_mbox_loc
I1028 18:48:06.141842 22103 net.cpp:157] Top shape: 1 16 3 3 (144)
I1028 18:48:06.141852 22103 net.cpp:165] Memory required for data: 249995984
I1028 18:48:06.141885 22103 layer_factory.hpp:77] Creating layer conv8_2_mbox_loc_perm
I1028 18:48:06.141903 22103 net.cpp:100] Creating Layer conv8_2_mbox_loc_perm
I1028 18:48:06.141916 22103 net.cpp:478] conv8_2_mbox_loc_perm <- conv8_2_mbox_loc
I1028 18:48:06.141930 22103 net.cpp:452] conv8_2_mbox_loc_perm -> conv8_2_mbox_loc_perm
I1028 18:48:06.141958 22103 net.cpp:150] Setting up conv8_2_mbox_loc_perm
I1028 18:48:06.141984 22103 net.cpp:157] Top shape: 1 3 3 16 (144)
I1028 18:48:06.141995 22103 net.cpp:165] Memory required for data: 249996560
I1028 18:48:06.142002 22103 layer_factory.hpp:77] Creating layer conv8_2_mbox_loc_flat
I1028 18:48:06.142014 22103 net.cpp:100] Creating Layer conv8_2_mbox_loc_flat
I1028 18:48:06.142024 22103 net.cpp:478] conv8_2_mbox_loc_flat <- conv8_2_mbox_loc_perm
I1028 18:48:06.142040 22103 net.cpp:452] conv8_2_mbox_loc_flat -> conv8_2_mbox_loc_flat
I1028 18:48:06.142065 22103 net.cpp:150] Setting up conv8_2_mbox_loc_flat
I1028 18:48:06.142078 22103 net.cpp:157] Top shape: 1 144 (144)
I1028 18:48:06.142112 22103 net.cpp:165] Memory required for data: 249997136
I1028 18:48:06.142124 22103 layer_factory.hpp:77] Creating layer conv8_2_mbox_conf
I1028 18:48:06.142146 22103 net.cpp:100] Creating Layer conv8_2_mbox_conf
I1028 18:48:06.142158 22103 net.cpp:478] conv8_2_mbox_conf <- conv8_2_conv8_2_relu_0_split_2
I1028 18:48:06.142175 22103 net.cpp:452] conv8_2_mbox_conf -> conv8_2_mbox_conf
I1028 18:48:06.145953 22103 net.cpp:150] Setting up conv8_2_mbox_conf
I1028 18:48:06.146019 22103 net.cpp:157] Top shape: 1 84 3 3 (756)
I1028 18:48:06.146030 22103 net.cpp:165] Memory required for data: 250000160
I1028 18:48:06.146047 22103 layer_factory.hpp:77] Creating layer conv8_2_mbox_conf_perm
I1028 18:48:06.146065 22103 net.cpp:100] Creating Layer conv8_2_mbox_conf_perm
I1028 18:48:06.146078 22103 net.cpp:478] conv8_2_mbox_conf_perm <- conv8_2_mbox_conf
I1028 18:48:06.146095 22103 net.cpp:452] conv8_2_mbox_conf_perm -> conv8_2_mbox_conf_perm
I1028 18:48:06.146126 22103 net.cpp:150] Setting up conv8_2_mbox_conf_perm
I1028 18:48:06.146139 22103 net.cpp:157] Top shape: 1 3 3 84 (756)
I1028 18:48:06.146147 22103 net.cpp:165] Memory required for data: 250003184
I1028 18:48:06.146153 22103 layer_factory.hpp:77] Creating layer conv8_2_mbox_conf_flat
I1028 18:48:06.146164 22103 net.cpp:100] Creating Layer conv8_2_mbox_conf_flat
I1028 18:48:06.146175 22103 net.cpp:478] conv8_2_mbox_conf_flat <- conv8_2_mbox_conf_perm
I1028 18:48:06.146189 22103 net.cpp:452] conv8_2_mbox_conf_flat -> conv8_2_mbox_conf_flat
I1028 18:48:06.146210 22103 net.cpp:150] Setting up conv8_2_mbox_conf_flat
I1028 18:48:06.146220 22103 net.cpp:157] Top shape: 1 756 (756)
I1028 18:48:06.146229 22103 net.cpp:165] Memory required for data: 250006208
I1028 18:48:06.146235 22103 layer_factory.hpp:77] Creating layer conv8_2_mbox_priorbox
I1028 18:48:06.146252 22103 net.cpp:100] Creating Layer conv8_2_mbox_priorbox
I1028 18:48:06.146263 22103 net.cpp:478] conv8_2_mbox_priorbox <- conv8_2_conv8_2_relu_0_split_3
I1028 18:48:06.146275 22103 net.cpp:478] conv8_2_mbox_priorbox <- data_data_0_split_5
I1028 18:48:06.146291 22103 net.cpp:452] conv8_2_mbox_priorbox -> conv8_2_mbox_priorbox
I1028 18:48:06.146313 22103 net.cpp:150] Setting up conv8_2_mbox_priorbox
I1028 18:48:06.146325 22103 net.cpp:157] Top shape: 1 2 144 (288)
I1028 18:48:06.146333 22103 net.cpp:165] Memory required for data: 250007360
I1028 18:48:06.146340 22103 layer_factory.hpp:77] Creating layer conv9_2_mbox_loc
I1028 18:48:06.146363 22103 net.cpp:100] Creating Layer conv9_2_mbox_loc
I1028 18:48:06.146399 22103 net.cpp:478] conv9_2_mbox_loc <- conv9_2_conv9_2_relu_0_split_0
I1028 18:48:06.146420 22103 net.cpp:452] conv9_2_mbox_loc -> conv9_2_mbox_loc
I1028 18:48:06.147188 22103 net.cpp:150] Setting up conv9_2_mbox_loc
I1028 18:48:06.147212 22103 net.cpp:157] Top shape: 1 16 1 1 (16)
I1028 18:48:06.147222 22103 net.cpp:165] Memory required for data: 250007424
I1028 18:48:06.147238 22103 layer_factory.hpp:77] Creating layer conv9_2_mbox_loc_perm
I1028 18:48:06.147254 22103 net.cpp:100] Creating Layer conv9_2_mbox_loc_perm
I1028 18:48:06.147265 22103 net.cpp:478] conv9_2_mbox_loc_perm <- conv9_2_mbox_loc
I1028 18:48:06.147282 22103 net.cpp:452] conv9_2_mbox_loc_perm -> conv9_2_mbox_loc_perm
I1028 18:48:06.147310 22103 net.cpp:150] Setting up conv9_2_mbox_loc_perm
I1028 18:48:06.147322 22103 net.cpp:157] Top shape: 1 1 1 16 (16)
I1028 18:48:06.147330 22103 net.cpp:165] Memory required for data: 250007488
I1028 18:48:06.147337 22103 layer_factory.hpp:77] Creating layer conv9_2_mbox_loc_flat
I1028 18:48:06.147353 22103 net.cpp:100] Creating Layer conv9_2_mbox_loc_flat
I1028 18:48:06.147363 22103 net.cpp:478] conv9_2_mbox_loc_flat <- conv9_2_mbox_loc_perm
I1028 18:48:06.147375 22103 net.cpp:452] conv9_2_mbox_loc_flat -> conv9_2_mbox_loc_flat
I1028 18:48:06.147393 22103 net.cpp:150] Setting up conv9_2_mbox_loc_flat
I1028 18:48:06.147405 22103 net.cpp:157] Top shape: 1 16 (16)
I1028 18:48:06.147414 22103 net.cpp:165] Memory required for data: 250007552
I1028 18:48:06.147421 22103 layer_factory.hpp:77] Creating layer conv9_2_mbox_conf
I1028 18:48:06.147444 22103 net.cpp:100] Creating Layer conv9_2_mbox_conf
I1028 18:48:06.147459 22103 net.cpp:478] conv9_2_mbox_conf <- conv9_2_conv9_2_relu_0_split_1
I1028 18:48:06.147472 22103 net.cpp:452] conv9_2_mbox_conf -> conv9_2_mbox_conf
I1028 18:48:06.151258 22103 net.cpp:150] Setting up conv9_2_mbox_conf
I1028 18:48:06.151374 22103 net.cpp:157] Top shape: 1 84 1 1 (84)
I1028 18:48:06.151388 22103 net.cpp:165] Memory required for data: 250007888
I1028 18:48:06.151409 22103 layer_factory.hpp:77] Creating layer conv9_2_mbox_conf_perm
I1028 18:48:06.151430 22103 net.cpp:100] Creating Layer conv9_2_mbox_conf_perm
I1028 18:48:06.151444 22103 net.cpp:478] conv9_2_mbox_conf_perm <- conv9_2_mbox_conf
I1028 18:48:06.151468 22103 net.cpp:452] conv9_2_mbox_conf_perm -> conv9_2_mbox_conf_perm
I1028 18:48:06.151507 22103 net.cpp:150] Setting up conv9_2_mbox_conf_perm
I1028 18:48:06.151520 22103 net.cpp:157] Top shape: 1 1 1 84 (84)
I1028 18:48:06.151526 22103 net.cpp:165] Memory required for data: 250008224
I1028 18:48:06.151535 22103 layer_factory.hpp:77] Creating layer conv9_2_mbox_conf_flat
I1028 18:48:06.151549 22103 net.cpp:100] Creating Layer conv9_2_mbox_conf_flat
I1028 18:48:06.151561 22103 net.cpp:478] conv9_2_mbox_conf_flat <- conv9_2_mbox_conf_perm
I1028 18:48:06.151572 22103 net.cpp:452] conv9_2_mbox_conf_flat -> conv9_2_mbox_conf_flat
I1028 18:48:06.151597 22103 net.cpp:150] Setting up conv9_2_mbox_conf_flat
I1028 18:48:06.151609 22103 net.cpp:157] Top shape: 1 84 (84)
I1028 18:48:06.151615 22103 net.cpp:165] Memory required for data: 250008560
I1028 18:48:06.151623 22103 layer_factory.hpp:77] Creating layer conv9_2_mbox_priorbox
I1028 18:48:06.151636 22103 net.cpp:100] Creating Layer conv9_2_mbox_priorbox
I1028 18:48:06.151648 22103 net.cpp:478] conv9_2_mbox_priorbox <- conv9_2_conv9_2_relu_0_split_2
I1028 18:48:06.151657 22103 net.cpp:478] conv9_2_mbox_priorbox <- data_data_0_split_6
I1028 18:48:06.151675 22103 net.cpp:452] conv9_2_mbox_priorbox -> conv9_2_mbox_priorbox
I1028 18:48:06.151700 22103 net.cpp:150] Setting up conv9_2_mbox_priorbox
I1028 18:48:06.151712 22103 net.cpp:157] Top shape: 1 2 16 (32)
I1028 18:48:06.151721 22103 net.cpp:165] Memory required for data: 250008688
I1028 18:48:06.151727 22103 layer_factory.hpp:77] Creating layer mbox_loc
I1028 18:48:06.151743 22103 net.cpp:100] Creating Layer mbox_loc
I1028 18:48:06.151756 22103 net.cpp:478] mbox_loc <- conv4_3_norm_mbox_loc_flat
I1028 18:48:06.151765 22103 net.cpp:478] mbox_loc <- fc7_mbox_loc_flat
I1028 18:48:06.151804 22103 net.cpp:478] mbox_loc <- conv6_2_mbox_loc_flat
I1028 18:48:06.151818 22103 net.cpp:478] mbox_loc <- conv7_2_mbox_loc_flat
I1028 18:48:06.151830 22103 net.cpp:478] mbox_loc <- conv8_2_mbox_loc_flat
I1028 18:48:06.151841 22103 net.cpp:478] mbox_loc <- conv9_2_mbox_loc_flat
I1028 18:48:06.151859 22103 net.cpp:452] mbox_loc -> mbox_loc
I1028 18:48:06.151882 22103 net.cpp:150] Setting up mbox_loc
I1028 18:48:06.151896 22103 net.cpp:157] Top shape: 1 34928 (34928)
I1028 18:48:06.151906 22103 net.cpp:165] Memory required for data: 250148400
I1028 18:48:06.151912 22103 layer_factory.hpp:77] Creating layer mbox_conf
I1028 18:48:06.151926 22103 net.cpp:100] Creating Layer mbox_conf
I1028 18:48:06.151937 22103 net.cpp:478] mbox_conf <- conv4_3_norm_mbox_conf_flat
I1028 18:48:06.151947 22103 net.cpp:478] mbox_conf <- fc7_mbox_conf_flat
I1028 18:48:06.151955 22103 net.cpp:478] mbox_conf <- conv6_2_mbox_conf_flat
I1028 18:48:06.151971 22103 net.cpp:478] mbox_conf <- conv7_2_mbox_conf_flat
I1028 18:48:06.151978 22103 net.cpp:478] mbox_conf <- conv8_2_mbox_conf_flat
I1028 18:48:06.151988 22103 net.cpp:478] mbox_conf <- conv9_2_mbox_conf_flat
I1028 18:48:06.151999 22103 net.cpp:452] mbox_conf -> mbox_conf
I1028 18:48:06.152017 22103 net.cpp:150] Setting up mbox_conf
I1028 18:48:06.152029 22103 net.cpp:157] Top shape: 1 183372 (183372)
I1028 18:48:06.152035 22103 net.cpp:165] Memory required for data: 250881888
I1028 18:48:06.152047 22103 layer_factory.hpp:77] Creating layer mbox_priorbox
I1028 18:48:06.152060 22103 net.cpp:100] Creating Layer mbox_priorbox
I1028 18:48:06.152070 22103 net.cpp:478] mbox_priorbox <- conv4_3_norm_mbox_priorbox
I1028 18:48:06.152079 22103 net.cpp:478] mbox_priorbox <- fc7_mbox_priorbox
I1028 18:48:06.152091 22103 net.cpp:478] mbox_priorbox <- conv6_2_mbox_priorbox
I1028 18:48:06.152099 22103 net.cpp:478] mbox_priorbox <- conv7_2_mbox_priorbox
I1028 18:48:06.152110 22103 net.cpp:478] mbox_priorbox <- conv8_2_mbox_priorbox
I1028 18:48:06.152119 22103 net.cpp:478] mbox_priorbox <- conv9_2_mbox_priorbox
I1028 18:48:06.152166 22103 net.cpp:452] mbox_priorbox -> mbox_priorbox
I1028 18:48:06.152211 22103 net.cpp:150] Setting up mbox_priorbox
I1028 18:48:06.152248 22103 net.cpp:157] Top shape: 1 2 34928 (69856)
I1028 18:48:06.152274 22103 net.cpp:165] Memory required for data: 251161312
I1028 18:48:06.152298 22103 layer_factory.hpp:77] Creating layer mbox_loss
I1028 18:48:06.152343 22103 net.cpp:100] Creating Layer mbox_loss
I1028 18:48:06.152369 22103 net.cpp:478] mbox_loss <- mbox_loc
I1028 18:48:06.152385 22103 net.cpp:478] mbox_loss <- mbox_conf
I1028 18:48:06.152395 22103 net.cpp:478] mbox_loss <- mbox_priorbox
…
state {
  phase: TEST
}
layer {
  name: "data"
  type: "AnnotatedData"
  top: "data"
  top: "label"
  include {
    phase: TEST
  }
  transform_param {
    mean_value: 104
    mean_value: 117
    mean_value: 123
    resize_param {
      prob: 1
      resize_mode: WARP
      height: 300
      width: 300
      interp_mode: LINEAR
    }
  }
  data_param {
    source: "examples/VOC0712/VOC0712_test_lmdb"
    batch_size: 8
    backend: LMDB
  }
  annotated_data_param {
    batch_sampler {
    }
    label_map_file: "data/VOC0712/labelmap_voc.prototxt"
  }
}
layer {
  name: "conv1_1"
  type: "Convolution"
  bottom: "data"
  top: "conv1_1"
  param {
    lr_mult: 1
    decay_mult: 1
  }
  param {
    lr_mult: 2
    decay_mult: 0
  }
  convolution_param {
    num_output: 64
    pad: 1
    kernel_size: 3
    weight_filler {
      type: "xavier"
    }
    bias_filler {
      type: "constant"
      value: 0
    }
  }
}
layer {
  name: "relu1_1"
  type: "ReLU"
  bottom: "conv1_1"
  top: "conv1_1"
}
layer {
  name: "conv1_2"
  type: "Convolution"
  bottom: "conv1_1"
  top: "conv1_2"
  param {
    lr_mult: 1
    decay_mult: 1
  }
  param {
    lr_mult: 2
    decay_mult: 0
  }
  convolution_param {
    num_output: 64
    pad: 1
    kernel_size: 3
    weight_filler {
      type: "xavier"
    }
    bias_filler {
      type: "constant"
      value: 0
    }
  }
}
layer {
  name: "relu1_2"
  type: "ReLU"
  bottom: "conv1_2"
  top: "conv1_2"
}
layer {
  name: "pool1"
  type: "Pooling"
  bottom: "conv1_2"
  top: "pool1"
  pooling_param {
    pool: MAX
    kernel_size: 2
    stride: 2
  }
}
layer {
  name: "conv2_1"
  type: "Convolution"
  bottom: "pool1"
  top: "conv2_1"
  param {
    lr_mult: 1
    decay_mult: 1
  }
  param {
    lr_mult: 2
    decay_mult: 0
  }
  convolution_param {
    num_output: 128
    pad: 1
    kernel_size: 3
    weight_filler {
      type: "xavier"
    }
    bias_filler {
      type: "constant"
      value: 0
    }
  }
}
layer {
  name: "relu2_1"
  type: "ReLU"
  bottom: "conv2_1"
  top: "conv2_1"
}
layer {
  name: "conv2_2"
  type: "Convolution"
  bottom: "conv2_1"
  top: "conv2_2"
  param {
    lr_mult: 1
    decay_mult: 1
  }
  param {
    lr_mult: 2
    decay_mult: 0
  }
  convolution_param {
    num_output: 128
    pad: 1
    kernel_size: 3
    weight_filler {
      type: "xavier"
    }
    bias_filler {
      type: "constant"
      value: 0
    }
  }
}
layer {
  name: "relu2_2"
  type: "ReLU"
  bottom: "conv2_2"
  top: "conv2_2"
}
layer {
  name: "pool2"
  type: "Pooling"
  bottom: "conv2_2"
  top: "pool2"
  pooling_param {
    pool: MAX
    kernel_size: 2
    stride: 2
  }
}
layer {
  name: "conv3_1"
  type: "Convolution"
  bottom: "pool2"
  top: "conv3_1"
  param {
    lr_mult: 1
    decay_mult: 1
  }
  param {
    lr_mult: 2
    decay_mult: 0
  }
  convolution_param {
    num_output: 256
    pad: 1
    kernel_size: 3
    weight_filler {
      type: "xavier"
    }
    bias_filler {
      type: "constant"
      value: 0
    }
  }
}
layer {
  name: "relu3_1"
  type: "ReLU"
  bottom: "conv3_1"
  top: "conv3_1"
}
layer {
  name: "conv3_2"
  type: "Convolution"
  bottom: "conv3_1"
  top: "conv3_2"
  param {
    lr_mult: 1
    decay_mult: 1
  }
  param {
    lr_mult: 2
    decay_mult: 0
  }
  convolution_param {
    num_output: 256
    pad: 1
    kernel_size: 3
    weight_filler {
      type: "xavier"
    }
    bias_filler {
      type: "constant"
      value: 0
    }
  }
}
layer {
  name: "relu3_2"
  type: "ReLU"
  bottom: "conv3_2"
  top: "conv3_2"
}
layer {
  name: "conv3_3"
  type: "Convolution"
  bottom: "conv3_2"
  top: "conv3_3"
  param {
    lr_mult: 1
    decay_mult: 1
  }
  param {
    lr_mult: 2
    decay_mult: 0
  }
  convolution_param {
    num_output: 256
    pad: 1
    kernel_size: 3
    weight_filler {
      type: "xavier"
    }
    bias_filler {
      type: "constant"
      value: 0
    }
  }
}
layer {
  name: "relu3_3"
  type: "ReLU"
  bottom: "conv3_3"
  top: "conv3_3"
}
layer {
  name: "pool3"
  type: "Pooling"
  bottom: "conv3_3"
  top: "pool3"
  pooling_param {
    pool: MAX
    kernel_size: 2
    stride: 2
  }
}
layer {
  name: "conv4_1"
  type: "Convolution"
  bottom: "pool3"
  top: "conv4_1"
  param {
    lr_mult: 1
    decay_mult: 1
  }
  param {
    lr_mult: 2
    decay_mult: 0
  }
  convolution_param {
    num_output: 512
    pad: 1
    kernel_size: 3
    weight_filler {
      type: "xavier"
    }
    bias_filler {
      type: "constant"
      value: 0
    }
  }
}
layer {
  name: "relu4_1"
  type: "ReLU"
  bottom: "conv4_1"
  top: "conv4_1"
}
layer {
  name: "conv4_2"
  type: "Convolution"
  bottom: "conv4_1"
  top: "conv4_2"
  param {
    lr_mult: 1
    decay_mult: 1
  }
  param {
    lr_mult: 2
    decay_mult: 0
  }
  convolution_param {
    num_output: 512
    pad: 1
    kernel_size: 3
    weight_filler {
      type: "xavier"
    }
    bias_filler {
      type: "constant"
      value: 0
    }
  }
}
layer {
  name: "relu4_2"
  type: "ReLU"
  bottom: "conv4_2"
  top: "conv4_2"
}
layer {
  name: "conv4_3"
  type: "Convolution"
  bottom: "conv4_2"
  top: "conv4_3"
  param {
    lr_mult: 1
    decay_mult: 1
  }
  param {
    lr_mult: 2
    decay_mult: 0
  }
  convolution_param {
    num_output: 512
    pad: 1
    kernel_size: 3
    weight_filler {
      type: "xavier"
    }
    bias_filler {
      type: "constant"
      value: 0
    }
  }
}
layer {
  name: "relu4_3"
  type: "ReLU"
  bottom: "conv4_3"
  top: "conv4_3"
}
layer {
  name: "pool4"
  type: "Pooling"
  bottom: "conv4_3"
  top: "pool4"
  pooling_param {
    pool: MAX
    kernel_size: 2
    stride: 2
  }
}
layer {
  name: "conv5_1"
  type: "Convolution"
  bottom: "pool4"
  top: "conv5_1"
  param {
    lr_mult: 1
    decay_mult: 1
  }
  param {
    lr_mult: 2
    decay_mult: 0
  }
  convolution_param {
    num_output: 512
    pad: 1
    kernel_size: 3
    weight_filler {
      type: "xavier"
    }
    bias_filler {
      type: "constant"
      value: 0
    }
    dilation: 1
  }
}
layer {
  name: "relu5_1"
  type: "ReLU"
  bottom: "conv5_1"
  top: "conv5_1"
}
layer {
  name: "conv5_2"
  type: "Convolution"
  bottom: "conv5_1"
  top: "conv5_2"
  param {
    lr_mult: 1
    decay_mult: 1
  }
  param {
    lr_mult: 2
    decay_mult: 0
  }
  convolution_param {
    num_output: 512
    pad: 1
    kernel_size: 3
    weight_filler {
      type: "xavier"
    }
    bias_filler {
      type: "constant"
      value: 0
    }
    dilation: 1
  }
}
layer {
  name: "relu5_2"
  type: "ReLU"
  bottom: "conv5_2"
  top: "conv5_2"
}
layer {
  name: "conv5_3"
  type: "Convolution"
  bottom: "conv5_2"
  top: "conv5_3"
  param {
    lr_mult: 1
    decay_mult: 1
  }
  param {
    lr_mult: 2
    decay_mult: 0
  }
  convolution_param {
    num_output: 512
    pad: 1
    kernel_size: 3
    weight_filler {
      type: "xavier"
    }
    bias_filler {
      type: "constant"
      value: 0
    }
    dilation: 1
  }
}
layer {
  name: "relu5_3"
  type: "ReLU"
  bottom: "conv5_3"
  top: "conv5_3"
}
layer {
  name: "pool5"
  type: "Pooling"
  bottom: "conv5_3"
  top: "pool5"
  pooling_param {
    pool: MAX
    kernel_size: 3
    stride: 1
    pad: 1
  }
}
layer {
  name: "fc6"
  type: "Convolution"
  bottom: "pool5"
  top: "fc6"
  param {
    lr_mult: 1
    decay_mult: 1
  }
  param {
    lr_mult: 2
    decay_mult: 0
  }
  convolution_param {
    num_output: 1024
    pad: 6
    kernel_size: 3
    weight_filler {
      type: "xavier"
    }
    bias_filler {
      type: "constant"
      value: 0
    }
    dilation: 6
  }
}
layer {
  name: "relu6"
  type: "ReLU"
  bottom: "fc6"
  top: "fc6"
}
layer {
  name: "fc7"
  type: "Convolution"
  bottom: "fc6"
  top: "fc7"
  param {
    lr_mult: 1
    decay_mult: 1
  }
  param {
    lr_mult: 2
    decay_mult: 0
  }
  convolution_param {
    num_output: 1024
    kernel_size: 1
    weight_filler {
      type: "xavier"
    }
    bias_filler {
      type: "constant"
      value: 0
    }
  }
}
layer {
  name: "relu7"
  type: "ReLU"
  bottom: "fc7"
  top: "fc7"
}
layer {
  name: "conv6_1"
  type: "Convolution"
  bottom: "fc7"
  top: "conv6_1"
  param {
    lr_mult: 1
    decay_mult: 1
  }
  param {
    lr_mult: 2
    decay_mult: 0
  }
  convolution_param {
    num_output: 256
    pad: 0
    kernel_size: 1
    stride: 1
    weight_filler {
      type: "xavier"
    }
    bias_filler {
      type: "constant"
      value: 0
    }
  }
}
layer {
  name: "conv6_1_relu"
  type: "ReLU"
  bottom: "conv6_1"
  top: "conv6_1"
}
layer {
  name: "conv6_2"
  type: "Convolution"
  bottom: "conv6_1"
  top: "conv6_2"
  param {
    lr_mult: 1
    decay_mult: 1
  }
  param {
    lr_mult: 2
    decay_mult: 0
  }
  convolution_param {
    num_output: 512
    pad: 1
    kernel_size: 3
    stride: 2
    weight_filler {
      type: "xavier"
    }
    bias_filler {
      type: "constant"
      value: 0
    }
  }
}
layer {
  name: "conv6_2_relu"
  type: "ReLU"
  bottom: "conv6_2"
  top: "conv6_2"
}
layer {
  name: "conv7_1"
  type: "Convolution"
  bottom: "conv6_2"
  top: "conv7_1"
  param {
    lr_mult: 1
    decay_mult: 1
  }
  param {
    lr_mult: 2
    decay_mult: 0
  }
  convolution_param {
    num_output: 128
    pad: 0
    kernel_size: 1
    stride: 1
    weight_filler {
      type: "xavier"
    }
    bias_filler {
      type: "constant"
      value: 0
    }
  }
}
layer {
  name: "conv7_1_relu"
  type: "ReLU"
  bottom: "conv7_1"
  top: "conv7_1"
}
layer {
  name: "conv7_2"
  type: "Convolution"
  bottom: "conv7_1"
  top: "conv7_2"
  param {
    lr_mult: 1
    decay_mult: 1
  }
  param {
    lr_mult: 2
    decay_mult: 0
  }
  convolution_param {
    num_output: 256
    pad: 1
    kernel_size: 3
    stride: 2
    weight_filler {
      type: "xavier"
    }
    bias_filler {
      type: "constant"
      value: 0
    }
  }
}
layer {
  name: "conv7_2_relu"
  type: "ReLU"
  bottom: "conv7_2"
  top: "conv7_2"
}
layer {
  name: "conv8_1"
  type: "Convolution"
  bottom: "conv7_2"
  top: "conv8_1"
  param {
    lr_mult: 1
    decay_mult: 1
  }
  param {
    lr_mult: 2
    decay_mult: 0
  }
  convolution_param {
    num_output: 128
    pad: 0
    kernel_size: 1
    stride: 1
    weight_filler {
      type: "xavier"
    }
    bias_filler {
      type: "constant"
      value: 0
    }
  }
}
layer {
  name: "conv8_1_relu"
  type: "ReLU"
  bottom: "conv8_1"
  top: "conv8_1"
}
layer {
  name: "conv8_2"
  type: "Convolution"
  bottom: "conv8_1"
  top: "conv8_2"
  param {
    lr_mult: 1
    decay_mult: 1
  }
  param {
    lr_mult: 2
    decay_mult: 0
  }
  convolution_param {
    num_output: 256
    pad: 0
    kernel_size: 3
    stride: 1
    weight_filler {
      type: "xavier"
    }
    bias_filler {
      type: "constant"
      value: 0
    }
  }
}
layer {
  name: "conv8_2_relu"
  type: "ReLU"
  bottom: "conv8_2"
  top: "conv8_2"
}
layer {
  name: "conv9_1"
  type: "Convolution"
  bottom: "conv8_2"
  top: "conv9_1"
  param {
    lr_mult: 1
    decay_mult: 1
  }
  param {
    lr_mult: 2
    decay_mult: 0
  }
  convolution_param {
    num_output: 128
    pad: 0
    kernel_size: 1
    stride: 1
    weight_filler {
      type: "xavier"
    }
    bias_filler {
      type: "constant"
      value: 0
    }
  }
}
layer {
  name: "conv9_1_relu"
  type: "ReLU"
  bottom: "conv9_1"
  top: "conv9_1"
}
layer {
  name: "conv9_2"
  type: "Convolution"
  bottom: "conv9_1"
  top: "conv9_2"
  param {
    lr_mult: 1
    decay_mult: 1
  }
  param {
    lr_mult: 2
    decay_mult: 0
  }
  convolution_param {
    num_output: 256
    pad: 0
    kernel_size: 3
    stride: 1
    weight_filler {
      type: "xavier"
    }
    bias_filler {
      type: "constant"
      value: 0
    }
  }
}
layer {
  name: "conv9_2_relu"
  type: "ReLU"
  bottom: "conv9_2"
  top: "conv9_2"
}
layer {
  name: "conv4_3_norm"
  type: "Normalize"
  bottom: "conv4_3"
  top: "conv4_3_norm"
  norm_param {
    across_spatial: false
    scale_filler {
      type: "constant"
      value: 20
    }
    channel_shared: false
  }
}
layer {
  name: "conv4_3_norm_mbox_loc"
  type: "Convolution"
  bottom: "conv4_3_norm"
  top: "conv4_3_norm_mbox_loc"
  param {
    lr_mult: 1
    decay_mult: 1
  }
  param {
    lr_mult: 2
    decay_mult: 0
  }
  convolution_param {
    num_output: 16
    pad: 1
    kernel_size: 3
    stride: 1
    weight_filler {
      type: "xavier"
    }
    bias_filler {
      type: "constant"
      value: 0
    }
  }
}
layer {
  name: "conv4_3_norm_mbox_loc_perm"
  type: "Permute"
  bottom: "conv4_3_norm_mbox_loc"
  top: "conv4_3_norm_mbox_loc_perm"
  permute_param {
    order: 0
    order: 2
    order: 3
    order: 1
  }
}
layer {
  name: "conv4_3_norm_mbox_loc_flat"
  type: "Flatten"
  bottom: "conv4_3_norm_mbox_loc_perm"
  top: "conv4_3_norm_mbox_loc_flat"
  flatten_param {
    axis: 1
  }
}
layer {
  name: "conv4_3_norm_mbox_conf"
  type: "Convolution"
  bottom: "conv4_3_norm"
  top: "conv4_3_norm_mbox_conf"
  param {
    lr_mult: 1
    decay_mult: 1
  }
  param {
    lr_mult: 2
    decay_mult: 0
  }
  convolution_param {
    num_output: 84
    pad: 1
    kernel_size: 3
    stride: 1
    weight_filler {
      type: "xavier"
    }
    bias_filler {
      type: "constant"
      value: 0
    }
  }
}
layer {
  name: "conv4_3_norm_mbox_conf_perm"
  type: "Permute"
  bottom: "conv4_3_norm_mbox_conf"
  top: "conv4_3_norm_mbox_conf_perm"
  permute_param {
    order: 0
    order: 2
    order: 3
    order: 1
  }
}
layer {
  name: "conv4_3_norm_mbox_conf_flat"
  type: "Flatten"
  bottom: "conv4_3_norm_mbox_conf_perm"
  top: "conv4_3_norm_mbox_conf_flat"
  flatten_param {
    axis: 1
  }
}
layer {
  name: "conv4_3_norm_mbox_priorbox"
  type: "PriorBox"
  bottom: "conv4_3_norm"
  bottom: "data"
  top: "conv4_3_norm_mbox_priorbox"
  prior_box_param {
    min_size: 30
    max_size: 60
    aspect_ratio: 2
    flip: true
    clip: false
    variance: 0.1
    variance: 0.1
    variance: 0.2
    variance: 0.2
    step: 8
    offset: 0.5
  }
}
layer {
  name: "fc7_mbox_loc"
  type: "Convolution"
  bottom: "fc7"
  top: "fc7_mbox_loc"
  param {
    lr_mult: 1
    decay_mult: 1
  }
  param {
    lr_mult: 2
    decay_mult: 0
  }
  convolution_param {
    num_output: 24
    pad: 1
    kernel_size: 3
    stride: 1
    weight_filler {
      type: "xavier"
    }
    bias_filler {
      type: "constant"
      value: 0
    }
  }
}
layer {
  name: "fc7_mbox_loc_perm"
  type: "Permute"
  bottom: "fc7_mbox_loc"
  top: "fc7_mbox_loc_perm"
  permute_param {
    order: 0
    order: 2
    order: 3
    order: 1
  }
}
layer {
  name: "fc7_mbox_loc_flat"
  type: "Flatten"
  bottom: "fc7_mbox_loc_perm"
  top: "fc7_mbox_loc_flat"
  flatten_param {
    axis: 1
  }
}
layer {
  name: "fc7_mbox_conf"
  type: "Convolution"
  bottom: "fc7"
  top: "fc7_mbox_conf"
  param {
    lr_mult: 1
    decay_mult: 1
  }
  param {
    lr_mult: 2
    decay_mult: 0
  }
  convolution_param {
    num_output: 126
    pad: 1
    kernel_size: 3
    stride: 1
    weight_filler {
      type: "xavier"
    }
    bias_filler {
      type: "constant"
      value: 0
    }
  }
}
layer {
  name: "fc7_mbox_conf_perm"
  type: "Permute"
  bottom: "fc7_mbox_conf"
  top: "fc7_mbox_conf_perm"
  permute_param {
    order: 0
    order: 2
    order: 3
    order: 1
  }
}
layer {
  name: "fc7_mbox_conf_flat"
  type: "Flatten"
  bottom: "fc7_mbox_conf_perm"
  top: "fc7_mbox_conf_flat"
  flatten_param {
    axis: 1
  }
}
layer {
  name: "fc7_mbox_priorbox"
  type: "PriorBox"
  bottom: "fc7"
  bottom: "data"
  top: "fc7_mbox_priorbox"
  prior_box_param {
    min_size: 60
    max_size: 111
    aspect_ratio: 2
    aspect_ratio: 3
    flip: true
    clip: false
    variance: 0.1
    variance: 0.1
    variance: 0.2
    variance: 0.2
    step: 16
    offset: 0.5
  }
}
layer {
  name: "conv6_2_mbox_loc"
  type: "Convolution"
  bottom: "conv6_2"
  top: "conv6_2_mbox_loc"
  param {
    lr_mult: 1
    decay_mult: 1
  }
  param {
    lr_mult: 2
    decay_mult: 0
  }
  convolution_param {
    num_output: 24
    pad: 1
    kernel_size: 3
    stride: 1
    weight_filler {
      type: "xavier"
    }
    bias_filler {
      type: "constant"
      value: 0
    }
  }
}
layer {
  name: "conv6_2_mbox_loc_perm"
  type: "Permute"
  bottom: "conv6_2_mbox_loc"
  top: "conv6_2_mbox_loc_perm"
  permute_param {
    order: 0
    order: 2
    order: 3
    order: 1
  }
}
layer {
  name: "conv6_2_mbox_loc_flat"
  type: "Flatten"
  bottom: "conv6_2_mbox_loc_perm"
  top: "conv6_2_mbox_loc_flat"
  flatten_param {
    axis: 1
  }
}
layer {
  name: "conv6_2_mbox_conf"
  type: "Convolution"
  bottom: "conv6_2"
  top: "conv6_2_mbox_conf"
  param {
    lr_mult: 1
    decay_mult: 1
  }
  param {
    lr_mult: 2
    decay_mult: 0
  }
  convolution_param {
    num_output: 126
    pad: 1
    kernel_size: 3
    stride: 1
    weight_filler {
      type: "xavier"
    }
    bias_filler {
      type: "constant"
      value: 0
    }
  }
}
layer {
  name: "conv6_2_mbox_conf_perm"
  type: "Permute"
  bottom: "conv6_2_mbox_conf"
  top: "conv6_2_mbox_conf_perm"
  permute_param {
    order: 0
    order: 2
    order: 3
    order: 1
  }
}
layer {
  name: "conv6_2_mbox_conf_flat"
  type: "Flatten"
  bottom: "conv6_2_mbox_conf_perm"
  top: "conv6_2_mbox_conf_flat"
  flatten_param {
    axis: 1
  }
}
layer {
  name: "conv6_2_mbox_priorbox"
  type: "PriorBox"
  bottom: "conv6_2"
  bottom: "data"
  top: "conv6_2_mbox_priorbox"
  prior_box_param {
    min_size: 111
    max_size: 162
    aspect_ratio: 2
    aspect_ratio: 3
    flip: true
    clip: false
    variance: 0.1
    variance: 0.1
    variance: 0.2
    variance: 0.2
    step: 32
    offset: 0.5
  }
}
layer {
  name: "conv7_2_mbox_loc"
  type: "Convolution"
  bottom: "conv7_2"
  top: "conv7_2_mbox_loc"
  param {
    lr_mult: 1
    decay_mult: 1
  }
  param {
    lr_mult: 2
    decay_mult: 0
  }
  convolution_param {
    num_output: 24
    pad: 1
    kernel_size: 3
    stride: 1
    weight_filler {
      type: "xavier"
    }
    bias_filler {
      type: "constant"
      value: 0
    }
  }
}
layer {
  name: "conv7_2_mbox_loc_perm"
  type: "Permute"
  bottom: "conv7_2_mbox_loc"
  top: "conv7_2_mbox_loc_perm"
  permute_param {
    order: 0
    order: 2
    order: 3
    order: 1
  }
}
layer {
  name: "conv7_2_mbox_loc_flat"
  type: "Flatten"
  bottom: "conv7_2_mbox_loc_perm"
  top: "conv7_2_mbox_loc_flat"
  flatten_param {
    axis: 1
  }
}
layer {
  name: "conv7_2_mbox_conf"
  type: "Convolution"
  bottom: "conv7_2"
  top: "conv7_2_mbox_conf"
  param {
    lr_mult: 1
    decay_mult: 1
  }
  param {
    lr_mult: 2
    decay_mult: 0
  }
  convolution_param {
    num_output: 126
    pad: 1
    kernel_size: 3
    stride: 1
    weight_filler {
      type: "xavier"
    }
    bias_filler {
      type: "constant"
      value: 0
    }
  }
}
layer {
  name: "conv7_2_mbox_conf_perm"
  type: "Permute"
  bottom: "conv7_2_mbox_conf"
  top: "conv7_2_mbox_conf_perm"
  permute_param {
    order: 0
    order: 2
    order: 3
    order: 1
  }
}
layer {
  name: "conv7_2_mbox_conf_flat"
  type: "Flatten"
  bottom: "conv7_2_mbox_conf_perm"
  top: "conv7_2_mbox_conf_flat"
  flatten_param {
    axis: 1
  }
}
layer {
  name: "conv7_2_mbox_priorbox"
  type: "PriorBox"
  bottom: "conv7_2"
  bottom: "data"
  top: "conv7_2_mbox_priorbox"
  prior_box_param {
    min_size: 162
    max_size: 213
    aspect_ratio: 2
    aspect_ratio: 3
    flip: true
    clip: false
    variance: 0.1
    variance: 0.1
    variance: 0.2
    variance: 0.2
    step: 64
    offset: 0.5
  }
}
layer {
  name: "conv8_2_mbox_loc"
  type: "Convolution"
  bottom: "conv8_2"
  top: "conv8_2_mbox_loc"
  param {
    lr_mult: 1
    decay_mult: 1
  }
  param {
    lr_mult: 2
    decay_mult: 0
  }
  convolution_param {
    num_output: 16
    pad: 1
    kernel_size: 3
    stride: 1
    weight_filler {
      type: "xavier"
    }
    bias_filler {
      type: "constant"
      value: 0
    }
  }
}
layer {
  name: "conv8_2_mbox_loc_perm"
  type: "Permute"
  bottom: "conv8_2_mbox_loc"
  top: "conv8_2_mbox_loc_perm"
  permute_param {
    order: 0
    order: 2
    order: 3
    order: 1
  }
}
layer {
  name: "conv8_2_mbox_loc_flat"
  type: "Flatten"
  bottom: "conv8_2_mbox_loc_perm"
  top: "conv8_2_mbox_loc_flat"
  flatten_param {
    axis: 1
  }
}
layer {
  name: "conv8_2_mbox_conf"
  type: "Convolution"
  bottom: "conv8_2"
  top: "conv8_2_mbox_conf"
  param {
    lr_mult: 1
    decay_mult: 1
  }
  param {
    lr_mult: 2
    decay_mult: 0
  }
  convolution_param {
    num_output: 84
    pad: 1
    kernel_size: 3
    stride: 1
    weight_filler {
      type: "xavier"
    }
    bias_filler {
      type: "constant"
      value: 0
    }
  }
}
layer {
  name: "conv8_2_mbox_conf_perm"
  type: "Permute"
  bottom: "conv8_2_mbox_conf"
  top: "conv8_2_mbox_conf_perm"
  permute_param {
    order: 0
    order: 2
    order: 3
    order: 1
  }
}
layer {
  name: "conv8_2_mbox_conf_flat"
  type: "Flatten"
  bottom: "conv8_2_mbox_conf_perm"
  top: "conv8_2_mbox_conf_flat"
  flatten_param {
    axis: 1
  }
}
layer {
  name: "conv8_2_mbox_priorbox"
  type: "PriorBox"
  bottom: "conv8_2"
  bottom: "data"
  top: "conv8_2_mbox_priorbox"
  prior_box_param {
    min_size: 213
    max_size: 264
    aspect_ratio: 2
    flip: true
    clip: false
    variance: 0.1
    variance: 0.1
    variance: 0.2
    variance: 0.2
    step: 100
    offset: 0.5
  }
}
layer {
  name: "conv9_2_mbox_loc"
  type: "Convolution"
  bottom: "conv9_2"
  top: "conv9_2_mbox_loc"
  param {
    lr_mult: 1
    decay_mult: 1
  }
  param {
    lr_mult: 2
    decay_mult: 0
  }
  convolution_param {
    num_output: 16
    pad: 1
    kernel_size: 3
    stride: 1
    weight_filler {
      type: "xavier"
    }
    bias_filler {
      type: "constant"
      value: 0
    }
  }
}
layer {
  name: "conv9_2_mbox_loc_perm"
  type: "Permute"
  bottom: "conv9_2_mbox_loc"
  top: "conv9_2_mbox_loc_perm"
  permute_param {
    order: 0
    order: 2
    order: 3
    order: 1
  }
}
layer {
  name: "conv9_2_mbox_loc_flat"
  type: "Flatten"
  bottom: "conv9_2_mbox_loc_perm"
  top: "conv9_2_mbox_loc_flat"
  flatten_param {
    axis: 1
  }
}
layer {
  name: "conv9_2_mbox_conf"
  type: "Convolution"
  bottom: "conv9_2"
  top: "conv9_2_mbox_conf"
  param {
    lr_mult: 1
    decay_mult: 1
  }
  param {
    lr_mult: 2
    decay_mult: 0
  }
  convolution_param {
    num_output: 84
    pad: 1
    kernel_size: 3
    stride: 1
    weight_filler {
      type: "xavier"
    }
    bias_filler {
      type: "constant"
      value: 0
    }
  }
}
layer {
  name: "conv9_2_mbox_conf_perm"
  type: "Permute"
  bottom: "conv9_2_mbox_conf"
  top: "conv9_2_mbox_conf_perm"
  permute_param {
    order: 0
    order: 2
    order: 3
    order: 1
  }
}
layer {
  name: "conv9_2_mbox_conf_flat"
  type: "Flatten"
  bottom: "conv9_2_mbox_conf_perm"
  top: "conv9_2_mbox_conf_flat"
  flatten_param {
    axis: 1
  }
}
layer {
  name: "conv9_2_mbox_priorbox"
  type: "PriorBox"
  bottom: "conv9_2"
  bottom: "data"
  top: "conv9_2_mbox_priorbox"
  prior_box_param {
    min_size: 264
    max_size: 315
    aspect_ratio: 2
    flip: true
    clip: false
    variance: 0.1
    variance: 0.1
    variance: 0.2
    variance: 0.2
    step: 300
    offset: 0.5
  }
}
layer {
  name: "mbox_loc"
  type: "Concat"
  bottom: "conv4_3_norm_mbox_loc_flat"
  bottom: "fc7_mbox_loc_flat"
  bottom: "conv6_2_mbox_loc_flat"
  bottom: "conv7_2_mbox_loc_flat"
  bottom: "conv8_2_mbox_loc_flat"
  bottom: "conv9_2_mbox_loc_flat"
  top: "mbox_loc"
  concat_param {
    axis: 1
  }
}
layer {
  name: "mbox_conf"
  type: "Concat"
  bottom: "conv4_3_norm_mbox_conf_flat"
  bottom: "fc7_mbox_conf_flat"
  bottom: "conv6_2_mbox_conf_flat"
  bottom: "conv7_2_mbox_conf_flat"
  bottom: "conv8_2_mbox_conf_flat"
  bottom: "conv9_2_mbox_conf_flat"
  top: "mbox_conf"
  concat_param {
    axis: 1
  }
}
layer {
  name: "mbox_priorbox"
  type: "Concat"
  bottom: "conv4_3_norm_mbox_priorbox"
  bottom: "fc7_mbox_priorbox"
  bottom: "conv6_2_mbox_priorbox"
  bottom: "conv7_2_mbox_priorbox"
  bottom: "conv8_2_mbox_priorbox"
  bottom: "conv9_2_mbox_priorbox"
  top: "mbox_priorbox"
  concat_param {
    axis: 2
  }
}
layer {
  name: "mbox_conf_reshape"
  type: "Reshape"
  bottom: "mbox_conf"
  top: "mbox_conf_reshape"
  reshape_param {
    shape {
      dim: 0
      dim: -1
      dim: 21
    }
  }
}
layer {
  name: "mbox_conf_softmax"
  type: "Softmax"
  bottom: "mbox_conf_reshape"
  top: "mbox_conf_softmax"
  softmax_param {
    axis: 2
  }
}
layer {
  name: "mbox_conf_flatten"
  type: "Flatten"
  bottom: "mbox_conf_softmax"
  top: "mbox_conf_flatten"
  flatten_param {
    axis: 1
  }
}
layer {
  name: "detection_out"
  type: "DetectionOutput"
  bottom: "mbox_loc"
  bottom: "mbox_conf_flatten"
  bottom: "mbox_priorbox"
  top: "detection_out"
  include {
    phase: TEST
  }
  detection_output_param {
    num_classes: 21
    share_location: true
    background_label_id: 0
    nms_param {
      nms_threshold: 0.45
      top_k: 400
    }
    save_output_param {
      output_name_prefix: "comp4_det_test_"
      output_format: "VOC"
      label_map_file: "data/VOC0712/labelmap_voc.prototxt"
      name_size_file: "data/VOC0712/test_name_size.txt"
      num_test_image: 4952
    }
    code_type: CENTER_SIZE
    keep_top_k: 200
    confidence_threshold: 0.01
  }
}
layer {
  name: "detection_eval"
  type: "DetectionEvaluate"
  bottom: "detection_out"
  bottom: "label"
  top: "detection_eval"
  include {
    phase: TEST
  }
  detection_evaluate_param {
    num_classes: 21
    background_label_id: 0
    overlap_threshold: 0.5
    evaluate_difficult_gt: false
    name_size_file: "data/VOC0712/test_name_size.txt"
  }
}
I1028 18:48:06.160058 22103 layer_factory.hpp:77] Creating layer data
I1028 18:48:06.160212 22103 net.cpp:100] Creating Layer data
I1028 18:48:06.160275 22103 net.cpp:452] data -> data
I1028 18:48:06.160336 22103 net.cpp:452] data -> label
I1028 18:48:06.161622 22122 db_lmdb.cpp:35] Opened lmdb examples/VOC0712/VOC0712_test_lmdb
I1028 18:48:06.165050 22103 annotated_data_layer.cpp:62] output data size: 8,3,300,300
I1028 18:48:06.174711 22103 net.cpp:150] Setting up data
I1028 18:48:06.174779 22103 net.cpp:157] Top shape: 8 3 300 300 (2160000)
I1028 18:48:06.174793 22103 net.cpp:157] Top shape: 1 1 2 8 (16)
I1028 18:48:06.174798 22103 net.cpp:165] Memory required for data: 8640064
I1028 18:48:06.174814 22103 layer_factory.hpp:77] Creating layer data_data_0_split
I1028 18:48:06.174849 22103 net.cpp:100] Creating Layer data_data_0_split
I1028 18:48:06.174863 22103 net.cpp:478] data_data_0_split <- data
I1028 18:48:06.174888 22103 net.cpp:452] data_data_0_split -> data_data_0_split_0
I1028 18:48:06.174916 22103 net.cpp:452] data_data_0_split -> data_data_0_split_1
I1028 18:48:06.174971 22103 net.cpp:452] data_data_0_split -> data_data_0_split_2
I1028 18:48:06.174993 22103 net.cpp:452] data_data_0_split -> data_data_0_split_3
I1028 18:48:06.175009 22103 net.cpp:452] data_data_0_split -> data_data_0_split_4
I1028 18:48:06.175025 22103 net.cpp:452] data_data_0_split -> data_data_0_split_5
I1028 18:48:06.175041 22103 net.cpp:452] data_data_0_split -> data_data_0_split_6
I1028 18:48:06.175071 22103 net.cpp:150] Setting up data_data_0_split
I1028 18:48:06.175084 22103 net.cpp:157] Top shape: 8 3 300 300 (2160000)
I1028 18:48:06.175096 22103 net.cpp:157] Top shape: 8 3 300 300 (2160000)
I1028 18:48:06.175107 22103 net.cpp:157] Top shape: 8 3 300 300 (2160000)
I1028 18:48:06.175118 22103 net.cpp:157] Top shape: 8 3 300 300 (2160000)
I1028 18:48:06.175130 22103 net.cpp:157] Top shape: 8 3 300 300 (2160000)
I1028 18:48:06.175142 22103 net.cpp:157] Top shape: 8 3 300 300 (2160000)
I1028 18:48:06.175153 22103 net.cpp:157] Top shape: 8 3 300 300 (2160000)
I1028 18:48:06.175163 22103 net.cpp:165] Memory required for data: 69120064
I1028 18:48:06.175169 22103 layer_factory.hpp:77] Creating layer conv1_1
I1028 18:48:06.175194 22103 net.cpp:100] Creating Layer conv1_1
I1028 18:48:06.175205 22103 net.cpp:478] conv1_1 <- data_data_0_split_0
I1028 18:48:06.175221 22103 net.cpp:452] conv1_1 -> conv1_1
I1028 18:48:06.175444 22103 net.cpp:150] Setting up conv1_1
I1028 18:48:06.175462 22103 net.cpp:157] Top shape: 8 64 300 300 (46080000)
I1028 18:48:06.175472 22103 net.cpp:165] Memory required for data: 253440064
I1028 18:48:06.175523 22103 layer_factory.hpp:77] Creating layer relu1_1
I1028 18:48:06.175539 22103 net.cpp:100] Creating Layer relu1_1
I1028 18:48:06.175549 22103 net.cpp:478] relu1_1 <- conv1_1
I1028 18:48:06.175562 22103 net.cpp:439] relu1_1 -> conv1_1 (in-place)
I1028 18:48:06.175578 22103 net.cpp:150] Setting up relu1_1
I1028 18:48:06.175590 22103 net.cpp:157] Top shape: 8 64 300 300 (46080000)
I1028 18:48:06.175599 22103 net.cpp:165] Memory required for data: 437760064
I1028 18:48:06.175609 22103 layer_factory.hpp:77] Creating layer conv1_2
I1028 18:48:06.175627 22103 net.cpp:100] Creating Layer conv1_2
I1028 18:48:06.175638 22103 net.cpp:478] conv1_2 <- conv1_1
I1028 18:48:06.175652 22103 net.cpp:452] conv1_2 -> conv1_2
I1028 18:48:06.176643 22103 net.cpp:150] Setting up conv1_2
I1028 18:48:06.176750 22103 net.cpp:157] Top shape: 8 64 300 300 (46080000)
I1028 18:48:06.176781 22103 net.cpp:165] Memory required for data: 622080064
I1028 18:48:06.176831 22103 layer_factory.hpp:77] Creating layer relu1_2
I1028 18:48:06.176880 22103 net.cpp:100] Creating Layer relu1_2
I1028 18:48:06.176914 22103 net.cpp:478] relu1_2 <- conv1_2
I1028 18:48:06.176946 22103 net.cpp:439] relu1_2 -> conv1_2 (in-place)
I1028 18:48:06.176980 22103 net.cpp:150] Setting up relu1_2
I1028 18:48:06.177008 22103 net.cpp:157] Top shape: 8 64 300 300 (46080000)
I1028 18:48:06.177019 22103 net.cpp:165] Memory required for data: 806400064
I1028 18:48:06.177026 22103 layer_factory.hpp:77] Creating layer pool1
I1028 18:48:06.177042 22103 net.cpp:100] Creating Layer pool1
I1028 18:48:06.177049 22103 net.cpp:478] pool1 <- conv1_2
I1028 18:48:06.177083 22103 net.cpp:452] pool1 -> pool1
I1028 18:48:06.177114 22103 net.cpp:150] Setting up pool1
I1028 18:48:06.177127 22103 net.cpp:157] Top shape: 8 64 150 150 (11520000)
I1028 18:48:06.177136 22103 net.cpp:165] Memory required for data: 852480064
I1028 18:48:06.177144 22103 layer_factory.hpp:77] Creating layer conv2_1
I1028 18:48:06.177188 22103 net.cpp:100] Creating Layer conv2_1
I1028 18:48:06.177201 22103 net.cpp:478] conv2_1 <- pool1
I1028 18:48:06.177217 22103 net.cpp:452] conv2_1 -> conv2_1
I1028 18:48:06.178789 22103 net.cpp:150] Setting up conv2_1
I1028 18:48:06.178817 22103 net.cpp:157] Top shape: 8 128 150 150 (23040000)
I1028 18:48:06.178827 22103 net.cpp:165] Memory required for data: 944640064
I1028 18:48:06.178848 22103 layer_factory.hpp:77] Creating layer relu2_1
I1028 18:48:06.178866 22103 net.cpp:100] Creating Layer relu2_1
I1028 18:48:06.178876 22103 net.cpp:478] relu2_1 <- conv2_1
I1028 18:48:06.178892 22103 net.cpp:439] relu2_1 -> conv2_1 (in-place)
I1028 18:48:06.178908 22103 net.cpp:150] Setting up relu2_1
I1028 18:48:06.178920 22103 net.cpp:157] Top shape: 8 128 150 150 (23040000)
I1028 18:48:06.178928 22103 net.cpp:165] Memory required for data: 1036800064
I1028 18:48:06.178936 22103 layer_factory.hpp:77] Creating layer conv2_2
I1028 18:48:06.178957 22103 net.cpp:100] Creating Layer conv2_2
I1028 18:48:06.178966 22103 net.cpp:478] conv2_2 <- conv2_1
I1028 18:48:06.178979 22103 net.cpp:452] conv2_2 -> conv2_2
I1028 18:48:06.182034 22103 net.cpp:150] Setting up conv2_2
I1028 18:48:06.182090 22103 net.cpp:157] Top shape: 8 128 150 150 (23040000)
I1028 18:48:06.182101 22103 net.cpp:165] Memory required for data: 1128960064
I1028 18:48:06.182126 22103 layer_factory.hpp:77] Creating layer relu2_2
I1028 18:48:06.182147 22103 net.cpp:100] Creating Layer relu2_2
I1028 18:48:06.182157 22103 net.cpp:478] relu2_2 <- conv2_2
I1028 18:48:06.182174 22103 net.cpp:439] relu2_2 -> conv2_2 (in-place)
I1028 18:48:06.182198 22103 net.cpp:150] Setting up relu2_2
I1028 18:48:06.182206 22103 net.cpp:157] Top shape: 8 128 150 150 (23040000)
I1028 18:48:06.182214 22103 net.cpp:165] Memory required for data: 1221120064
I1028 18:48:06.182220 22103 layer_factory.hpp:77] Creating layer pool2
I1028 18:48:06.182232 22103 net.cpp:100] Creating Layer pool2
I1028 18:48:06.182240 22103 net.cpp:478] pool2 <- conv2_2
I1028 18:48:06.182250 22103 net.cpp:452] pool2 -> pool2
I1028 18:48:06.182338 22103 net.cpp:150] Setting up pool2
I1028 18:48:06.182353 22103 net.cpp:157] Top shape: 8 128 75 75 (5760000)
I1028 18:48:06.182358 22103 net.cpp:165] Memory required for data: 1244160064
I1028 18:48:06.182365 22103 layer_factory.hpp:77] Creating layer conv3_1
I1028 18:48:06.182390 22103 net.cpp:100] Creating Layer conv3_1
I1028 18:48:06.182399 22103 net.cpp:478] conv3_1 <- pool2
I1028 18:48:06.182413 22103 net.cpp:452] conv3_1 -> conv3_1
I1028 18:48:06.188318 22103 net.cpp:150] Setting up conv3_1
I1028 18:48:06.188479 22103 net.cpp:157] Top shape: 8 256 75 75 (11520000)
I1028 18:48:06.188513 22103 net.cpp:165] Memory required for data: 1290240064
I1028 18:48:06.188582 22103 layer_factory.hpp:77] Creating layer relu3_1
I1028 18:48:06.188632 22103 net.cpp:100] Creating Layer relu3_1
I1028 18:48:06.188663 22103 net.cpp:478] relu3_1 <- conv3_1
I1028 18:48:06.188701 22103 net.cpp:439] relu3_1 -> conv3_1 (in-place)
I1028 18:48:06.188750 22103 net.cpp:150] Setting up relu3_1
I1028 18:48:06.188781 22103 net.cpp:157] Top shape: 8 256 75 75 (11520000)
I1028 18:48:06.188805 22103 net.cpp:165] Memory required for data: 1336320064
I1028 18:48:06.188830 22103 layer_factory.hpp:77] Creating layer conv3_2
I1028 18:48:06.188876 22103 net.cpp:100] Creating Layer conv3_2
I1028 18:48:06.188904 22103 net.cpp:478] conv3_2 <- conv3_1
I1028 18:48:06.188941 22103 net.cpp:452] conv3_2 -> conv3_2
I1028 18:48:06.196732 22103 net.cpp:150] Setting up conv3_2
I1028 18:48:06.196779 22103 net.cpp:157] Top shape: 8 256 75 75 (11520000)
I1028 18:48:06.196784 22103 net.cpp:165] Memory required for data: 1382400064
I1028 18:48:06.196796 22103 layer_factory.hpp:77] Creating layer relu3_2
I1028 18:48:06.196813 22103 net.cpp:100] Creating Layer relu3_2
I1028 18:48:06.196820 22103 net.cpp:478] relu3_2 <- conv3_2
I1028 18:48:06.196827 22103 net.cpp:439] relu3_2 -> conv3_2 (in-place)
I1028 18:48:06.196842 22103 net.cpp:150] Setting up relu3_2
I1028 18:48:06.196849 22103 net.cpp:157] Top shape: 8 256 75 75 (11520000)
I1028 18:48:06.196853 22103 net.cpp:165] Memory required for data: 1428480064
I1028 18:48:06.196856 22103 layer_factory.hpp:77] Creating layer conv3_3
I1028 18:48:06.196877 22103 net.cpp:100] Creating Layer conv3_3
I1028 18:48:06.196882 22103 net.cpp:478] conv3_3 <- conv3_2
I1028 18:48:06.196890 22103 net.cpp:452] conv3_3 -> conv3_3
I1028 18:48:06.203299 22103 net.cpp:150] Setting up conv3_3
I1028 18:48:06.203347 22103 net.cpp:157] Top shape: 8 256 75 75 (11520000)
I1028 18:48:06.203354 22103 net.cpp:165] Memory required for data: 1474560064
I1028 18:48:06.203373 22103 layer_factory.hpp:77] Creating layer relu3_3
I1028 18:48:06.203393 22103 net.cpp:100] Creating Layer relu3_3
I1028 18:48:06.203403 22103 net.cpp:478] relu3_3 <- conv3_3
I1028 18:48:06.203459 22103 net.cpp:439] relu3_3 -> conv3_3 (in-place)
I1028 18:48:06.203478 22103 net.cpp:150] Setting up relu3_3
I1028 18:48:06.203510 22103 net.cpp:157] Top shape: 8 256 75 75 (11520000)
I1028 18:48:06.203537 22103 net.cpp:165] Memory required for data: 1520640064
I1028 18:48:06.203565 22103 layer_factory.hpp:77] Creating layer pool3
I1028 18:48:06.203598 22103 net.cpp:100] Creating Layer pool3
I1028 18:48:06.203634 22103 net.cpp:478] pool3 <- conv3_3
I1028 18:48:06.203668 22103 net.cpp:452] pool3 -> pool3
I1028 18:48:06.203713 22103 net.cpp:150] Setting up pool3
I1028 18:48:06.203732 22103 net.cpp:157] Top shape: 8 256 38 38 (2957312)
I1028 18:48:06.203738 22103 net.cpp:165] Memory required for data: 1532469312
I1028 18:48:06.203745 22103 layer_factory.hpp:77] Creating layer conv4_1
I1028 18:48:06.203769 22103 net.cpp:100] Creating Layer conv4_1
I1028 18:48:06.203799 22103 net.cpp:478] conv4_1 <- pool3
I1028 18:48:06.203837 22103 net.cpp:452] conv4_1 -> conv4_1
I1028 18:48:06.224903 22103 net.cpp:150] Setting up conv4_1
I1028 18:48:06.224951 22103 net.cpp:157] Top shape: 8 512 38 38 (5914624)
I1028 18:48:06.224958 22103 net.cpp:165] Memory required for data: 1556127808
I1028 18:48:06.224977 22103 layer_factory.hpp:77] Creating layer relu4_1
I1028 18:48:06.224997 22103 net.cpp:100] Creating Layer relu4_1
I1028 18:48:06.225064 22103 net.cpp:478] relu4_1 <- conv4_1
I1028 18:48:06.225085 22103 net.cpp:439] relu4_1 -> conv4_1 (in-place)
I1028 18:48:06.225103 22103 net.cpp:150] Setting up relu4_1
I1028 18:48:06.225119 22103 net.cpp:157] Top shape: 8 512 38 38 (5914624)
I1028 18:48:06.225129 22103 net.cpp:165] Memory required for data: 1579786304
I1028 18:48:06.225137 22103 layer_factory.hpp:77] Creating layer conv4_2
I1028 18:48:06.225162 22103 net.cpp:100] Creating Layer conv4_2
I1028 18:48:06.225175 22103 net.cpp:478] conv4_2 <- conv4_1
I1028 18:48:06.225194 22103 net.cpp:452] conv4_2 -> conv4_2
I1028 18:48:06.260272 22103 net.cpp:150] Setting up conv4_2
I1028 18:48:06.260334 22103 net.cpp:157] Top shape: 8 512 38 38 (5914624)
I1028 18:48:06.260340 22103 net.cpp:165] Memory required for data: 1603444800
I1028 18:48:06.260376 22103 layer_factory.hpp:77] Creating layer relu4_2
I1028 18:48:06.260395 22103 net.cpp:100] Creating Layer relu4_2
I1028 18:48:06.260404 22103 net.cpp:478] relu4_2 <- conv4_2
I1028 18:48:06.260440 22103 net.cpp:439] relu4_2 -> conv4_2 (in-place)
I1028 18:48:06.260463 22103 net.cpp:150] Setting up relu4_2
I1028 18:48:06.260478 22103 net.cpp:157] Top shape: 8 512 38 38 (5914624)
I1028 18:48:06.260490 22103 net.cpp:165] Memory required for data: 1627103296
I1028 18:48:06.260499 22103 layer_factory.hpp:77] Creating layer conv4_3
I1028 18:48:06.260522 22103 net.cpp:100] Creating Layer conv4_3
I1028 18:48:06.260532 22103 net.cpp:478] conv4_3 <- conv4_2
I1028 18:48:06.260553 22103 net.cpp:452] conv4_3 -> conv4_3
I1028 18:48:06.286190 22103 net.cpp:150] Setting up conv4_3
I1028 18:48:06.286247 22103 net.cpp:157] Top shape: 8 512 38 38 (5914624)
I1028 18:48:06.286254 22103 net.cpp:165] Memory required for data: 1650761792
I1028 18:48:06.286275 22103 layer_factory.hpp:77] Creating layer relu4_3
I1028 18:48:06.286294 22103 net.cpp:100] Creating Layer relu4_3
I1028 18:48:06.286326 22103 net.cpp:478] relu4_3 <- conv4_3
I1028 18:48:06.286365 22103 net.cpp:439] relu4_3 -> conv4_3 (in-place)
I1028 18:48:06.286386 22103 net.cpp:150] Setting up relu4_3
I1028 18:48:06.286420 22103 net.cpp:157] Top shape: 8 512 38 38 (5914624)
I1028 18:48:06.286428 22103 net.cpp:165] Memory required for data: 1674420288
I1028 18:48:06.286437 22103 layer_factory.hpp:77] Creating layer conv4_3_relu4_3_0_split
I1028 18:48:06.286448 22103 net.cpp:100] Creating Layer conv4_3_relu4_3_0_split
I1028 18:48:06.286473 22103 net.cpp:478] conv4_3_relu4_3_0_split <- conv4_3
I1028 18:48:06.286491 22103 net.cpp:452] conv4_3_relu4_3_0_split -> conv4_3_relu4_3_0_split_0
I1028 18:48:06.286511 22103 net.cpp:452] conv4_3_relu4_3_0_split -> conv4_3_relu4_3_0_split_1
I1028 18:48:06.286531 22103 net.cpp:150] Setting up conv4_3_relu4_3_0_split
I1028 18:48:06.286550 22103 net.cpp:157] Top shape: 8 512 38 38 (5914624)
I1028 18:48:06.286561 22103 net.cpp:157] Top shape: 8 512 38 38 (5914624)
I1028 18:48:06.286567 22103 net.cpp:165] Memory required for data: 1721737280
I1028 18:48:06.286574 22103 layer_factory.hpp:77] Creating layer pool4
I1028 18:48:06.286603 22103 net.cpp:100] Creating Layer pool4
I1028 18:48:06.286612 22103 net.cpp:478] pool4 <- conv4_3_relu4_3_0_split_0
I1028 18:48:06.286624 22103 net.cpp:452] pool4 -> pool4
I1028 18:48:06.286659 22103 net.cpp:150] Setting up pool4
I1028 18:48:06.286669 22103 net.cpp:157] Top shape: 8 512 19 19 (1478656)
I1028 18:48:06.286676 22103 net.cpp:165] Memory required for data: 1727651904
I1028 18:48:06.286684 22103 layer_factory.hpp:77] Creating layer conv5_1
I1028 18:48:06.286718 22103 net.cpp:100] Creating Layer conv5_1
I1028 18:48:06.286728 22103 net.cpp:478] conv5_1 <- pool4
I1028 18:48:06.286741 22103 net.cpp:452] conv5_1 -> conv5_1
I1028 18:48:06.318152 22103 net.cpp:150] Setting up conv5_1
I1028 18:48:06.318352 22103 net.cpp:157] Top shape: 8 512 19 19 (1478656)
I1028 18:48:06.318383 22103 net.cpp:165] Memory required for data: 1733566528
I1028 18:48:06.318429 22103 layer_factory.hpp:77] Creating layer relu5_1
I1028 18:48:06.318470 22103 net.cpp:100] Creating Layer relu5_1
I1028 18:48:06.318521 22103 net.cpp:478] relu5_1 <- conv5_1
I1028 18:48:06.318596 22103 net.cpp:439] relu5_1 -> conv5_1 (in-place)
I1028 18:48:06.318637 22103 net.cpp:150] Setting up relu5_1
I1028 18:48:06.318667 22103 net.cpp:157] Top shape: 8 512 19 19 (1478656)
I1028 18:48:06.318691 22103 net.cpp:165] Memory required for data: 1739481152
I1028 18:48:06.318717 22103 layer_factory.hpp:77] Creating layer conv5_2
I1028 18:48:06.318770 22103 net.cpp:100] Creating Layer conv5_2
I1028 18:48:06.318800 22103 net.cpp:478] conv5_2 <- conv5_1
I1028 18:48:06.318840 22103 net.cpp:452] conv5_2 -> conv5_2
I1028 18:48:06.347939 22103 net.cpp:150] Setting up conv5_2
I1028 18:48:06.347976 22103 net.cpp:157] Top shape: 8 512 19 19 (1478656)
I1028 18:48:06.347981 22103 net.cpp:165] Memory required for data: 1745395776
I1028 18:48:06.347993 22103 layer_factory.hpp:77] Creating layer relu5_2
I1028 18:48:06.348006 22103 net.cpp:100] Creating Layer relu5_2
I1028 18:48:06.348016 22103 net.cpp:478] relu5_2 <- conv5_2
I1028 18:48:06.348028 22103 net.cpp:439] relu5_2 -> conv5_2 (in-place)
I1028 18:48:06.348089 22103 net.cpp:150] Setting up relu5_2
I1028 18:48:06.348109 22103 net.cpp:157] Top shape: 8 512 19 19 (1478656)
I1028 18:48:06.348115 22103 net.cpp:165] Memory required for data: 1751310400
I1028 18:48:06.348120 22103 layer_factory.hpp:77] Creating layer conv5_3
I1028 18:48:06.348140 22103 net.cpp:100] Creating Layer conv5_3
I1028 18:48:06.348146 22103 net.cpp:478] conv5_3 <- conv5_2
I1028 18:48:06.348160 22103 net.cpp:452] conv5_3 -> conv5_3
I1028 18:48:06.374441 22103 net.cpp:150] Setting up conv5_3
I1028 18:48:06.374706 22103 net.cpp:157] Top shape: 8 512 19 19 (1478656)
I1028 18:48:06.374758 22103 net.cpp:165] Memory required for data: 1757225024
I1028 18:48:06.374835 22103 layer_factory.hpp:77] Creating layer relu5_3
I1028 18:48:06.374975 22103 net.cpp:100] Creating Layer relu5_3
I1028 18:48:06.375013 22103 net.cpp:478] relu5_3 <- conv5_3
I1028 18:48:06.375047 22103 net.cpp:439] relu5_3 -> conv5_3 (in-place)
I1028 18:48:06.375088 22103 net.cpp:150] Setting up relu5_3
I1028 18:48:06.375119 22103 net.cpp:157] Top shape: 8 512 19 19 (1478656)
I1028 18:48:06.375142 22103 net.cpp:165] Memory required for data: 1763139648
I1028 18:48:06.375167 22103 layer_factory.hpp:77] Creating layer pool5
I1028 18:48:06.375207 22103 net.cpp:100] Creating Layer pool5
I1028 18:48:06.375236 22103 net.cpp:478] pool5 <- conv5_3
I1028 18:48:06.375272 22103 net.cpp:452] pool5 -> pool5
I1028 18:48:06.375322 22103 net.cpp:150] Setting up pool5
I1028 18:48:06.375358 22103 net.cpp:157] Top shape: 8 512 19 19 (1478656)
I1028 18:48:06.375383 22103 net.cpp:165] Memory required for data: 1769054272
I1028 18:48:06.375408 22103 layer_factory.hpp:77] Creating layer fc6
I1028 18:48:06.375454 22103 net.cpp:100] Creating Layer fc6
I1028 18:48:06.375483 22103 net.cpp:478] fc6 <- pool5
I1028 18:48:06.375542 22103 net.cpp:452] fc6 -> fc6
I1028 18:48:06.439689 22103 net.cpp:150] Setting up fc6
I1028 18:48:06.439803 22103 net.cpp:157] Top shape: 8 1024 19 19 (2957312)
I1028 18:48:06.439834 22103 net.cpp:165] Memory required for data: 1780883520
I1028 18:48:06.439875 22103 layer_factory.hpp:77] Creating layer relu6
I1028 18:48:06.439913 22103 net.cpp:100] Creating Layer relu6
I1028 18:48:06.439942 22103 net.cpp:478] relu6 <- fc6
I1028 18:48:06.439975 22103 net.cpp:439] relu6 -> fc6 (in-place)
I1028 18:48:06.440011 22103 net.cpp:150] Setting up relu6
I1028 18:48:06.440038 22103 net.cpp:157] Top shape: 8 1024 19 19 (2957312)
I1028 18:48:06.440060 22103 net.cpp:165] Memory required for data: 1792712768
I1028 18:48:06.440083 22103 layer_factory.hpp:77] Creating layer fc7
I1028 18:48:06.440120 22103 net.cpp:100] Creating Layer fc7
I1028 18:48:06.440173 22103 net.cpp:478] fc7 <- fc6
I1028 18:48:06.440203 22103 net.cpp:452] fc7 -> fc7
I1028 18:48:06.457995 22103 net.cpp:150] Setting up fc7
I1028 18:48:06.458137 22103 net.cpp:157] Top shape: 8 1024 19 19 (2957312)
I1028 18:48:06.458166 22103 net.cpp:165] Memory required for data: 1804542016
I1028 18:48:06.458202 22103 layer_factory.hpp:77] Creating layer relu7
I1028 18:48:06.458290 22103 net.cpp:100] Creating Layer relu7
I1028 18:48:06.458319 22103 net.cpp:478] relu7 <- fc7
I1028 18:48:06.458349 22103 net.cpp:439] relu7 -> fc7 (in-place)
I1028 18:48:06.458384 22103 net.cpp:150] Setting up relu7
I1028 18:48:06.458413 22103 net.cpp:157] Top shape: 8 1024 19 19 (2957312)
I1028 18:48:06.458438 22103 net.cpp:165] Memory required for data: 1816371264
I1028 18:48:06.458458 22103 layer_factory.hpp:77] Creating layer fc7_relu7_0_split
I1028 18:48:06.458489 22103 net.cpp:100] Creating Layer fc7_relu7_0_split
I1028 18:48:06.458513 22103 net.cpp:478] fc7_relu7_0_split <- fc7
I1028 18:48:06.458541 22103 net.cpp:452] fc7_relu7_0_split -> fc7_relu7_0_split_0
I1028 18:48:06.458575 22103 net.cpp:452] fc7_relu7_0_split -> fc7_relu7_0_split_1
I1028 18:48:06.458619 22103 net.cpp:452] fc7_relu7_0_split -> fc7_relu7_0_split_2
I1028 18:48:06.458654 22103 net.cpp:452] fc7_relu7_0_split -> fc7_relu7_0_split_3
I1028 18:48:06.458693 22103 net.cpp:150] Setting up fc7_relu7_0_split
I1028 18:48:06.458719 22103 net.cpp:157] Top shape: 8 1024 19 19 (2957312)
I1028 18:48:06.458742 22103 net.cpp:157] Top shape: 8 1024 19 19 (2957312)
I1028 18:48:06.458765 22103 net.cpp:157] Top shape: 8 1024 19 19 (2957312)
I1028 18:48:06.458788 22103 net.cpp:157] Top shape: 8 1024 19 19 (2957312)
I1028 18:48:06.458809 22103 net.cpp:165] Memory required for data: 1863688256
I1028 18:48:06.458829 22103 layer_factory.hpp:77] Creating layer conv6_1
I1028 18:48:06.458865 22103 net.cpp:100] Creating Layer conv6_1
I1028 18:48:06.458889 22103 net.cpp:478] conv6_1 <- fc7_relu7_0_split_0
I1028 18:48:06.458981 22103 net.cpp:452] conv6_1 -> conv6_1
I1028 18:48:06.461992 22103 net.cpp:150] Setting up conv6_1
I1028 18:48:06.462057 22103 net.cpp:157] Top shape: 8 256 19 19 (739328)
I1028 18:48:06.462065 22103 net.cpp:165] Memory required for data: 1866645568
I1028 18:48:06.462086 22103 layer_factory.hpp:77] Creating layer conv6_1_relu
I1028 18:48:06.462105 22103 net.cpp:100] Creating Layer conv6_1_relu
I1028 18:48:06.462123 22103 net.cpp:478] conv6_1_relu <- conv6_1
I1028 18:48:06.462139 22103 net.cpp:439] conv6_1_relu -> conv6_1 (in-place)
I1028 18:48:06.462164 22103 net.cpp:150] Setting up conv6_1_relu
I1028 18:48:06.462203 22103 net.cpp:157] Top shape: 8 256 19 19 (739328)
I1028 18:48:06.462230 22103 net.cpp:165] Memory required for data: 1869602880
I1028 18:48:06.462255 22103 layer_factory.hpp:77] Creating layer conv6_2
I1028 18:48:06.462296 22103 net.cpp:100] Creating Layer conv6_2
I1028 18:48:06.462328 22103 net.cpp:478] conv6_2 <- conv6_1
I1028 18:48:06.462368 22103 net.cpp:452] conv6_2 -> conv6_2
I1028 18:48:06.477222 22103 net.cpp:150] Setting up conv6_2
I1028 18:48:06.477452 22103 net.cpp:157] Top shape: 8 512 10 10 (409600)
I1028 18:48:06.477471 22103 net.cpp:165] Memory required for data: 1871241280
I1028 18:48:06.477535 22103 layer_factory.hpp:77] Creating layer conv6_2_relu
I1028 18:48:06.477571 22103 net.cpp:100] Creating Layer conv6_2_relu
I1028 18:48:06.477586 22103 net.cpp:478] conv6_2_relu <- conv6_2
I1028 18:48:06.477608 22103 net.cpp:439] conv6_2_relu -> conv6_2 (in-place)
I1028 18:48:06.477635 22103 net.cpp:150] Setting up conv6_2_relu
I1028 18:48:06.477646 22103 net.cpp:157] Top shape: 8 512 10 10 (409600)
I1028 18:48:06.477654 22103 net.cpp:165] Memory required for data: 1872879680
I1028 18:48:06.477661 22103 layer_factory.hpp:77] Creating layer conv6_2_conv6_2_relu_0_split
I1028 18:48:06.477677 22103 net.cpp:100] Creating Layer conv6_2_conv6_2_relu_0_split
I1028 18:48:06.477686 22103 net.cpp:478] conv6_2_conv6_2_relu_0_split <- conv6_2
I1028 18:48:06.477707 22103 net.cpp:452] conv6_2_conv6_2_relu_0_split -> conv6_2_conv6_2_relu_0_split_0
I1028 18:48:06.477728 22103 net.cpp:452] conv6_2_conv6_2_relu_0_split -> conv6_2_conv6_2_relu_0_split_1
I1028 18:48:06.477746 22103 net.cpp:452] conv6_2_conv6_2_relu_0_split -> conv6_2_conv6_2_relu_0_split_2
I1028 18:48:06.477761 22103 net.cpp:452] conv6_2_conv6_2_relu_0_split -> conv6_2_conv6_2_relu_0_split_3
I1028 18:48:06.477785 22103 net.cpp:150] Setting up conv6_2_conv6_2_relu_0_split
I1028 18:48:06.477910 22103 net.cpp:157] Top shape: 8 512 10 10 (409600)
I1028 18:48:06.477941 22103 net.cpp:157] Top shape: 8 512 10 10 (409600)
I1028 18:48:06.477979 22103 net.cpp:157] Top shape: 8 512 10 10 (409600)
I1028 18:48:06.478011 22103 net.cpp:157] Top shape: 8 512 10 10 (409600)
I1028 18:48:06.478034 22103 net.cpp:165] Memory required for data: 1879433280
I1028 18:48:06.478057 22103 layer_factory.hpp:77] Creating layer conv7_1
I1028 18:48:06.478109 22103 net.cpp:100] Creating Layer conv7_1
I1028 18:48:06.478137 22103 net.cpp:478] conv7_1 <- conv6_2_conv6_2_relu_0_split_0
I1028 18:48:06.478171 22103 net.cpp:452] conv7_1 -> conv7_1
I1028 18:48:06.479322 22103 net.cpp:150] Setting up conv7_1
I1028 18:48:06.479346 22103 net.cpp:157] Top shape: 8 128 10 10 (102400)
I1028 18:48:06.479349 22103 net.cpp:165] Memory required for data: 1879842880
I1028 18:48:06.479359 22103 layer_factory.hpp:77] Creating layer conv7_1_relu
I1028 18:48:06.479370 22103 net.cpp:100] Creating Layer conv7_1_relu
I1028 18:48:06.479379 22103 net.cpp:478] conv7_1_relu <- conv7_1
I1028 18:48:06.479387 22103 net.cpp:439] conv7_1_relu -> conv7_1 (in-place)
I1028 18:48:06.479396 22103 net.cpp:150] Setting up conv7_1_relu
I1028 18:48:06.479403 22103 net.cpp:157] Top shape: 8 128 10 10 (102400)
I1028 18:48:06.479406 22103 net.cpp:165] Memory required for data: 1880252480
I1028 18:48:06.479410 22103 layer_factory.hpp:77] Creating layer conv7_2
I1028 18:48:06.479423 22103 net.cpp:100] Creating Layer conv7_2
I1028 18:48:06.479429 22103 net.cpp:478] conv7_2 <- conv7_1
I1028 18:48:06.479437 22103 net.cpp:452] conv7_2 -> conv7_2
I1028 18:48:06.483233 22103 net.cpp:150] Setting up conv7_2
I1028 18:48:06.483322 22103 net.cpp:157] Top shape: 8 256 5 5 (51200)
I1028 18:48:06.483331 22103 net.cpp:165] Memory required for data: 1880457280
I1028 18:48:06.483357 22103 layer_factory.hpp:77] Creating layer conv7_2_relu
I1028 18:48:06.483388 22103 net.cpp:100] Creating Layer conv7_2_relu
I1028 18:48:06.483403 22103 net.cpp:478] conv7_2_relu <- conv7_2
I1028 18:48:06.483422 22103 net.cpp:439] conv7_2_relu -> conv7_2 (in-place)
I1028 18:48:06.483445 22103 net.cpp:150] Setting up conv7_2_relu
I1028 18:48:06.483515 22103 net.cpp:157] Top shape: 8 256 5 5 (51200)
I1028 18:48:06.483525 22103 net.cpp:165] Memory required for data: 1880662080
I1028 18:48:06.483532 22103 layer_factory.hpp:77] Creating layer conv7_2_conv7_2_relu_0_split
I1028 18:48:06.483551 22103 net.cpp:100] Creating Layer conv7_2_conv7_2_relu_0_split
I1028 18:48:06.483587 22103 net.cpp:478] conv7_2_conv7_2_relu_0_split <- conv7_2
I1028 18:48:06.483610 22103 net.cpp:452] conv7_2_conv7_2_relu_0_split -> conv7_2_conv7_2_relu_0_split_0
I1028 18:48:06.483634 22103 net.cpp:452] conv7_2_conv7_2_relu_0_split -> conv7_2_conv7_2_relu_0_split_1
I1028 18:48:06.483652 22103 net.cpp:452] conv7_2_conv7_2_relu_0_split -> conv7_2_conv7_2_relu_0_split_2
I1028 18:48:06.483691 22103 net.cpp:452] conv7_2_conv7_2_relu_0_split -> conv7_2_conv7_2_relu_0_split_3
I1028 18:48:06.483714 22103 net.cpp:150] Setting up conv7_2_conv7_2_relu_0_split
I1028 18:48:06.483729 22103 net.cpp:157] Top shape: 8 256 5 5 (51200)
I1028 18:48:06.483755 22103 net.cpp:157] Top shape: 8 256 5 5 (51200)
I1028 18:48:06.483765 22103 net.cpp:157] Top shape: 8 256 5 5 (51200)
I1028 18:48:06.483775 22103 net.cpp:157] Top shape: 8 256 5 5 (51200)
I1028 18:48:06.483798 22103 net.cpp:165] Memory required for data: 1881481280
I1028 18:48:06.483808 22103 layer_factory.hpp:77] Creating layer conv8_1
I1028 18:48:06.483842 22103 net.cpp:100] Creating Layer conv8_1
I1028 18:48:06.483855 22103 net.cpp:478] conv8_1 <- conv7_2_conv7_2_relu_0_split_0
I1028 18:48:06.483873 22103 net.cpp:452] conv8_1 -> conv8_1
I1028 18:48:06.484431 22103 net.cpp:150] Setting up conv8_1
I1028 18:48:06.484457 22103 net.cpp:157] Top shape: 8 128 5 5 (25600)
I1028 18:48:06.484463 22103 net.cpp:165] Memory required for data: 1881583680
I1028 18:48:06.484480 22103 layer_factory.hpp:77] Creating layer conv8_1_relu
I1028 18:48:06.484525 22103 net.cpp:100] Creating Layer conv8_1_relu
I1028 18:48:06.484592 22103 net.cpp:478] conv8_1_relu <- conv8_1
I1028 18:48:06.484609 22103 net.cpp:439] conv8_1_relu -> conv8_1 (in-place)
I1028 18:48:06.484624 22103 net.cpp:150] Setting up conv8_1_relu
I1028 18:48:06.484658 22103 net.cpp:157] Top shape: 8 128 5 5 (25600)
I1028 18:48:06.484688 22103 net.cpp:165] Memory required for data: 1881686080
I1028 18:48:06.484715 22103 layer_factory.hpp:77] Creating layer conv8_2
I1028 18:48:06.484762 22103 net.cpp:100] Creating Layer conv8_2
I1028 18:48:06.484776 22103 net.cpp:478] conv8_2 <- conv8_1
I1028 18:48:06.484793 22103 net.cpp:452] conv8_2 -> conv8_2
I1028 18:48:06.488010 22103 net.cpp:150] Setting up conv8_2
I1028 18:48:06.488070 22103 net.cpp:157] Top shape: 8 256 3 3 (18432)
I1028 18:48:06.488076 22103 net.cpp:165] Memory required for data: 1881759808
I1028 18:48:06.488095 22103 layer_factory.hpp:77] Creating layer conv8_2_relu
I1028 18:48:06.488111 22103 net.cpp:100] Creating Layer conv8_2_relu
I1028 18:48:06.488121 22103 net.cpp:478] conv8_2_relu <- conv8_2
I1028 18:48:06.488168 22103 net.cpp:439] conv8_2_relu -> conv8_2 (in-place)
I1028 18:48:06.488204 22103 net.cpp:150] Setting up conv8_2_relu
I1028 18:48:06.488235 22103 net.cpp:157] Top shape: 8 256 3 3 (18432)
I1028 18:48:06.488265 22103 net.cpp:165] Memory required for data: 1881833536
I1028 18:48:06.488291 22103 layer_factory.hpp:77] Creating layer conv8_2_conv8_2_relu_0_split
I1028 18:48:06.488325 22103 net.cpp:100] Creating Layer conv8_2_conv8_2_relu_0_split
I1028 18:48:06.488353 22103 net.cpp:478] conv8_2_conv8_2_relu_0_split <- conv8_2
I1028 18:48:06.488390 22103 net.cpp:452] conv8_2_conv8_2_relu_0_split -> conv8_2_conv8_2_relu_0_split_0
I1028 18:48:06.488431 22103 net.cpp:452] conv8_2_conv8_2_relu_0_split -> conv8_2_conv8_2_relu_0_split_1
I1028 18:48:06.488471 22103 net.cpp:452] conv8_2_conv8_2_relu_0_split -> conv8_2_conv8_2_relu_0_split_2
I1028 18:48:06.488509 22103 net.cpp:452] conv8_2_conv8_2_relu_0_split -> conv8_2_conv8_2_relu_0_split_3
I1028 18:48:06.488554 22103 net.cpp:150] Setting up conv8_2_conv8_2_relu_0_split
I1028 18:48:06.488589 22103 net.cpp:157] Top shape: 8 256 3 3 (18432)
I1028 18:48:06.488621 22103 net.cpp:157] Top shape: 8 256 3 3 (18432)
I1028 18:48:06.488654 22103 net.cpp:157] Top shape: 8 256 3 3 (18432)
I1028 18:48:06.488683 22103 net.cpp:157] Top shape: 8 256 3 3 (18432)
I1028 18:48:06.488708 22103 net.cpp:165] Memory required for data: 1882128448
I1028 18:48:06.488734 22103 layer_factory.hpp:77] Creating layer conv9_1
I1028 18:48:06.488777 22103 net.cpp:100] Creating Layer conv9_1
I1028 18:48:06.488807 22103 net.cpp:478] conv9_1 <- conv8_2_conv8_2_relu_0_split_0
I1028 18:48:06.488850 22103 net.cpp:452] conv9_1 -> conv9_1
I1028 18:48:06.489514 22103 net.cpp:150] Setting up conv9_1
I1028 18:48:06.489596 22103 net.cpp:157] Top shape: 8 128 3 3 (9216)
I1028 18:48:06.489624 22103 net.cpp:165] Memory required for data: 1882165312
I1028 18:48:06.489663 22103 layer_factory.hpp:77] Creating layer conv9_1_relu
I1028 18:48:06.489704 22103 net.cpp:100] Creating Layer conv9_1_relu
I1028 18:48:06.489737 22103 net.cpp:478] conv9_1_relu <- conv9_1
I1028 18:48:06.489771 22103 net.cpp:439] conv9_1_relu -> conv9_1 (in-place)
I1028 18:48:06.489811 22103 net.cpp:150] Setting up conv9_1_relu
I1028 18:48:06.489848 22103 net.cpp:157] Top shape: 8 128 3 3 (9216)
I1028 18:48:06.489876 22103 net.cpp:165] Memory required for data: 1882202176
I1028 18:48:06.489902 22103 layer_factory.hpp:77] Creating layer conv9_2
I1028 18:48:06.489946 22103 net.cpp:100] Creating Layer conv9_2
I1028 18:48:06.490011 22103 net.cpp:478] conv9_2 <- conv9_1
I1028 18:48:06.490054 22103 net.cpp:452] conv9_2 -> conv9_2
I1028 18:48:06.493799 22103 net.cpp:150] Setting up conv9_2
I1028 18:48:06.493846 22103 net.cpp:157] Top shape: 8 256 1 1 (2048)
I1028 18:48:06.493854 22103 net.cpp:165] Memory required for data: 1882210368
I1028 18:48:06.493875 22103 layer_factory.hpp:77] Creating layer conv9_2_relu
I1028 18:48:06.493891 22103 net.cpp:100] Creating Layer conv9_2_relu
I1028 18:48:06.493932 22103 net.cpp:478] conv9_2_relu <- conv9_2
I1028 18:48:06.494032 22103 net.cpp:439] conv9_2_relu -> conv9_2 (in-place)
I1028 18:48:06.494077 22103 net.cpp:150] Setting up conv9_2_relu
I1028 18:48:06.494112 22103 net.cpp:157] Top shape: 8 256 1 1 (2048)
I1028 18:48:06.494139 22103 net.cpp:165] Memory required for data: 1882218560
I1028 18:48:06.494166 22103 layer_factory.hpp:77] Creating layer conv9_2_conv9_2_relu_0_split
I1028 18:48:06.494200 22103 net.cpp:100] Creating Layer conv9_2_conv9_2_relu_0_split
I1028 18:48:06.494230 22103 net.cpp:478] conv9_2_conv9_2_relu_0_split <- conv9_2
I1028 18:48:06.494263 22103 net.cpp:452] conv9_2_conv9_2_relu_0_split -> conv9_2_conv9_2_relu_0_split_0
I1028 18:48:06.494292 22103 net.cpp:452] conv9_2_conv9_2_relu_0_split -> conv9_2_conv9_2_relu_0_split_1
I1028 18:48:06.494331 22103 net.cpp:452] conv9_2_conv9_2_relu_0_split -> conv9_2_conv9_2_relu_0_split_2
I1028 18:48:06.494357 22103 net.cpp:150] Setting up conv9_2_conv9_2_relu_0_split
I1028 18:48:06.494393 22103 net.cpp:157] Top shape: 8 256 1 1 (2048)
I1028 18:48:06.494407 22103 net.cpp:157] Top shape: 8 256 1 1 (2048)
I1028 18:48:06.494416 22103 net.cpp:157] Top shape: 8 256 1 1 (2048)
I1028 18:48:06.494442 22103 net.cpp:165] Memory required for data: 1882243136
I1028 18:48:06.494469 22103 layer_factory.hpp:77] Creating layer conv4_3_norm
I1028 18:48:06.494503 22103 net.cpp:100] Creating Layer conv4_3_norm
I1028 18:48:06.494518 22103 net.cpp:478] conv4_3_norm <- conv4_3_relu4_3_0_split_1
I1028 18:48:06.494531 22103 net.cpp:452] conv4_3_norm -> conv4_3_norm
I1028 18:48:06.494591 22103 net.cpp:150] Setting up conv4_3_norm
I1028 18:48:06.494606 22103 net.cpp:157] Top shape: 8 512 38 38 (5914624)
I1028 18:48:06.494613 22103 net.cpp:165] Memory required for data: 1905901632
I1028 18:48:06.494626 22103 layer_factory.hpp:77] Creating layer conv4_3_norm_conv4_3_norm_0_split
I1028 18:48:06.494662 22103 net.cpp:100] Creating Layer conv4_3_norm_conv4_3_norm_0_split
I1028 18:48:06.494674 22103 net.cpp:478] conv4_3_norm_conv4_3_norm_0_split <- conv4_3_norm
I1028 18:48:06.494690 22103 net.cpp:452] conv4_3_norm_conv4_3_norm_0_split -> conv4_3_norm_conv4_3_norm_0_split_0
I1028 18:48:06.494727 22103 net.cpp:452] conv4_3_norm_conv4_3_norm_0_split -> conv4_3_norm_conv4_3_norm_0_split_1
I1028 18:48:06.494747 22103 net.cpp:452] conv4_3_norm_conv4_3_norm_0_split -> conv4_3_norm_conv4_3_norm_0_split_2
I1028 18:48:06.494786 22103 net.cpp:150] Setting up conv4_3_norm_conv4_3_norm_0_split
I1028 18:48:06.494801 22103 net.cpp:157] Top shape: 8 512 38 38 (5914624)
I1028 18:48:06.494812 22103 net.cpp:157] Top shape: 8 512 38 38 (5914624)
I1028 18:48:06.494840 22103 net.cpp:157] Top shape: 8 512 38 38 (5914624)
I1028 18:48:06.494865 22103 net.cpp:165] Memory required for data: 1976877120
I1028 18:48:06.494892 22103 layer_factory.hpp:77] Creating layer conv4_3_norm_mbox_loc
I1028 18:48:06.494936 22103 net.cpp:100] Creating Layer conv4_3_norm_mbox_loc
I1028 18:48:06.494949 22103 net.cpp:478] conv4_3_norm_mbox_loc <- conv4_3_norm_conv4_3_norm_0_split_0
I1028 18:48:06.494964 22103 net.cpp:452] conv4_3_norm_mbox_loc -> conv4_3_norm_mbox_loc
I1028 18:48:06.496045 22103 net.cpp:150] Setting up conv4_3_norm_mbox_loc
I1028 18:48:06.496103 22103 net.cpp:157] Top shape: 8 16 38 38 (184832)
I1028 18:48:06.496131 22103 net.cpp:165] Memory required for data: 1977616448
I1028 18:48:06.496168 22103 layer_factory.hpp:77] Creating layer conv4_3_norm_mbox_loc_perm
I1028 18:48:06.496212 22103 net.cpp:100] Creating Layer conv4_3_norm_mbox_loc_perm
I1028 18:48:06.496243 22103 net.cpp:478] conv4_3_norm_mbox_loc_perm <- conv4_3_norm_mbox_loc
I1028 18:48:06.496284 22103 net.cpp:452] conv4_3_norm_mbox_loc_perm -> conv4_3_norm_mbox_loc_perm
I1028 18:48:06.496340 22103 net.cpp:150] Setting up conv4_3_norm_mbox_loc_perm
I1028 18:48:06.496373 22103 net.cpp:157] Top shape: 8 38 38 16 (184832)
I1028 18:48:06.496402 22103 net.cpp:165] Memory required for data: 1978355776
I1028 18:48:06.496429 22103 layer_factory.hpp:77] Creating layer conv4_3_norm_mbox_loc_flat
I1028 18:48:06.496469 22103 net.cpp:100] Creating Layer conv4_3_norm_mbox_loc_flat
I1028 18:48:06.496536 22103 net.cpp:478] conv4_3_norm_mbox_loc_flat <- conv4_3_norm_mbox_loc_perm
I1028 18:48:06.496572 22103 net.cpp:452] conv4_3_norm_mbox_loc_flat -> conv4_3_norm_mbox_loc_flat
I1028 18:48:06.496645 22103 net.cpp:150] Setting up conv4_3_norm_mbox_loc_flat
I1028 18:48:06.496683 22103 net.cpp:157] Top shape: 8 23104 (184832)
I1028 18:48:06.496711 22103 net.cpp:165] Memory required for data: 1979095104
I1028 18:48:06.496738 22103 layer_factory.hpp:77] Creating layer conv4_3_norm_mbox_conf
I1028 18:48:06.496809 22103 net.cpp:100] Creating Layer conv4_3_norm_mbox_conf
I1028 18:48:06.496856 22103 net.cpp:478] conv4_3_norm_mbox_conf <- conv4_3_norm_conv4_3_norm_0_split_1
I1028 18:48:06.496893 22103 net.cpp:452] conv4_3_norm_mbox_conf -> conv4_3_norm_mbox_conf
I1028 18:48:06.501538 22103 net.cpp:150] Setting up conv4_3_norm_mbox_conf
I1028 18:48:06.501595 22103 net.cpp:157] Top shape: 8 84 38 38 (970368)
I1028 18:48:06.501603 22103 net.cpp:165] Memory required for data: 1982976576
I1028 18:48:06.501624 22103 layer_factory.hpp:77] Creating layer conv4_3_norm_mbox_conf_perm
I1028 18:48:06.501648 22103 net.cpp:100] Creating Layer conv4_3_norm_mbox_conf_perm
I1028 18:48:06.501660 22103 net.cpp:478] conv4_3_norm_mbox_conf_perm <- conv4_3_norm_mbox_conf
I1028 18:48:06.501720 22103 net.cpp:452] conv4_3_norm_mbox_conf_perm -> conv4_3_norm_mbox_conf_perm
I1028 18:48:06.501778 22103 net.cpp:150] Setting up conv4_3_norm_mbox_conf_perm
I1028 18:48:06.501814 22103 net.cpp:157] Top shape: 8 38 38 84 (970368)
I1028 18:48:06.501839 22103 net.cpp:165] Memory required for data: 1986858048
I1028 18:48:06.501864 22103 layer_factory.hpp:77] Creating layer conv4_3_norm_mbox_conf_flat
I1028 18:48:06.501901 22103 net.cpp:100] Creating Layer conv4_3_norm_mbox_conf_flat
I1028 18:48:06.501916 22103 net.cpp:478] conv4_3_norm_mbox_conf_flat <- conv4_3_norm_mbox_conf_perm
I1028 18:48:06.501933 22103 net.cpp:452] conv4_3_norm_mbox_conf_flat -> conv4_3_norm_mbox_conf_flat
I1028 18:48:06.501987 22103 net.cpp:150] Setting up conv4_3_norm_mbox_conf_flat
I1028 18:48:06.502024 22103 net.cpp:157] Top shape: 8 121296 (970368)
I1028 18:48:06.502037 22103 net.cpp:165] Memory required for data: 1990739520
I1028 18:48:06.502043 22103 layer_factory.hpp:77] Creating layer conv4_3_norm_mbox_priorbox
I1028 18:48:06.502061 22103 net.cpp:100] Creating Layer conv4_3_norm_mbox_priorbox
I1028 18:48:06.502089 22103 net.cpp:478] conv4_3_norm_mbox_priorbox <- conv4_3_norm_conv4_3_norm_0_split_2
I1028 18:48:06.502125 22103 net.cpp:478] conv4_3_norm_mbox_priorbox <- data_data_0_split_1
I1028 18:48:06.502166 22103 net.cpp:452] conv4_3_norm_mbox_priorbox -> conv4_3_norm_mbox_priorbox
I1028 18:48:06.502197 22103 net.cpp:150] Setting up conv4_3_norm_mbox_priorbox
I1028 18:48:06.502230 22103 net.cpp:157] Top shape: 1 2 23104 (46208)
I1028 18:48:06.502243 22103 net.cpp:165] Memory required for data: 1990924352
I1028 18:48:06.502251 22103 layer_factory.hpp:77] Creating layer fc7_mbox_loc
I1028 18:48:06.502282 22103 net.cpp:100] Creating Layer fc7_mbox_loc
I1028 18:48:06.502318 22103 net.cpp:478] fc7_mbox_loc <- fc7_relu7_0_split_1
I1028 18:48:06.502358 22103 net.cpp:452] fc7_mbox_loc -> fc7_mbox_loc
I1028 18:48:06.504777 22103 net.cpp:150] Setting up fc7_mbox_loc
I1028 18:48:06.504822 22103 net.cpp:157] Top shape: 8 24 19 19 (69312)
I1028 18:48:06.504827 22103 net.cpp:165] Memory required for data: 1991201600
I1028 18:48:06.504848 22103 layer_factory.hpp:77] Creating layer fc7_mbox_loc_perm
I1028 18:48:06.504868 22103 net.cpp:100] Creating Layer fc7_mbox_loc_perm
I1028 18:48:06.504910 22103 net.cpp:478] fc7_mbox_loc_perm <- fc7_mbox_loc
I1028 18:48:06.504947 22103 net.cpp:452] fc7_mbox_loc_perm -> fc7_mbox_loc_perm
I1028 18:48:06.505004 22103 net.cpp:150] Setting up fc7_mbox_loc_perm
I1028 18:48:06.505040 22103 net.cpp:157] Top shape: 8 19 19 24 (69312)
I1028 18:48:06.505067 22103 net.cpp:165] Memory required for data: 1991478848
I1028 18:48:06.505093 22103 layer_factory.hpp:77] Creating layer fc7_mbox_loc_flat
I1028 18:48:06.505146 22103 net.cpp:100] Creating Layer fc7_mbox_loc_flat
I1028 18:48:06.505200 22103 net.cpp:478] fc7_mbox_loc_flat <- fc7_mbox_loc_perm
I1028 18:48:06.505239 22103 net.cpp:452] fc7_mbox_loc_flat -> fc7_mbox_loc_flat
I1028 18:48:06.505285 22103 net.cpp:150] Setting up fc7_mbox_loc_flat
I1028 18:48:06.505318 22103 net.cpp:157] Top shape: 8 8664 (69312)
I1028 18:48:06.505344 22103 net.cpp:165] Memory required for data: 1991756096
I1028 18:48:06.505370 22103 layer_factory.hpp:77] Creating layer fc7_mbox_conf
I1028 18:48:06.505411 22103 net.cpp:100] Creating Layer fc7_mbox_conf
I1028 18:48:06.505442 22103 net.cpp:478] fc7_mbox_conf <- fc7_relu7_0_split_2
I1028 18:48:06.505486 22103 net.cpp:452] fc7_mbox_conf -> fc7_mbox_conf
I1028 18:48:06.521499 22103 net.cpp:150] Setting up fc7_mbox_conf
I1028 18:48:06.521605 22103 net.cpp:157] Top shape: 8 126 19 19 (363888)
I1028 18:48:06.521631 22103 net.cpp:165] Memory required for data: 1993211648
I1028 18:48:06.521669 22103 layer_factory.hpp:77] Creating layer fc7_mbox_conf_perm
I1028 18:48:06.521720 22103 net.cpp:100] Creating Layer fc7_mbox_conf_perm
I1028 18:48:06.521757 22103 net.cpp:478] fc7_mbox_conf_perm <- fc7_mbox_conf
I1028 18:48:06.521801 22103 net.cpp:452] fc7_mbox_conf_perm -> fc7_mbox_conf_perm
I1028 18:48:06.521860 22103 net.cpp:150] Setting up fc7_mbox_conf_perm
I1028 18:48:06.521898 22103 net.cpp:157] Top shape: 8 19 19 126 (363888)
I1028 18:48:06.521924 22103 net.cpp:165] Memory required for data: 1994667200
I1028 18:48:06.521948 22103 layer_factory.hpp:77] Creating layer fc7_mbox_conf_flat
I1028 18:48:06.521998 22103 net.cpp:100] Creating Layer fc7_mbox_conf_flat
I1028 18:48:06.522030 22103 net.cpp:478] fc7_mbox_conf_flat <- fc7_mbox_conf_perm
I1028 18:48:06.522063 22103 net.cpp:452] fc7_mbox_conf_flat -> fc7_mbox_conf_flat
I1028 18:48:06.522112 22103 net.cpp:150] Setting up fc7_mbox_conf_flat
I1028 18:48:06.522145 22103 net.cpp:157] Top shape: 8 45486 (363888)
I1028 18:48:06.522171 22103 net.cpp:165] Memory required for data: 1996122752
I1028 18:48:06.522195 22103 layer_factory.hpp:77] Creating layer fc7_mbox_priorbox
I1028 18:48:06.522230 22103 net.cpp:100] Creating Layer fc7_mbox_priorbox
I1028 18:48:06.522264 22103 net.cpp:478] fc7_mbox_priorbox <- fc7_relu7_0_split_3
I1028 18:48:06.522298 22103 net.cpp:478] fc7_mbox_priorbox <- data_data_0_split_2
I1028 18:48:06.522338 22103 net.cpp:452] fc7_mbox_priorbox -> fc7_mbox_priorbox
I1028 18:48:06.522387 22103 net.cpp:150] Setting up fc7_mbox_priorbox
I1028 18:48:06.522423 22103 net.cpp:157] Top shape: 1 2 8664 (17328)
I1028 18:48:06.522452 22103 net.cpp:165] Memory required for data: 1996192064
I1028 18:48:06.522485 22103 layer_factory.hpp:77] Creating layer conv6_2_mbox_loc
I1028 18:48:06.522552 22103 net.cpp:100] Creating Layer conv6_2_mbox_loc
I1028 18:48:06.522594 22103 net.cpp:478] conv6_2_mbox_loc <- conv6_2_conv6_2_relu_0_split_1
I1028 18:48:06.522650 22103 net.cpp:452] conv6_2_mbox_loc -> conv6_2_mbox_loc
I1028 18:48:06.524881 22103 net.cpp:150] Setting up conv6_2_mbox_loc
I1028 18:48:06.524999 22103 net.cpp:157] Top shape: 8 24 10 10 (19200)
I1028 18:48:06.525028 22103 net.cpp:165] Memory required for data: 1996268864
I1028 18:48:06.525068 22103 layer_factory.hpp:77] Creating layer conv6_2_mbox_loc_perm
I1028 18:48:06.525110 22103 net.cpp:100] Creating Layer conv6_2_mbox_loc_perm
I1028 18:48:06.525143 22103 net.cpp:478] conv6_2_mbox_loc_perm <- conv6_2_mbox_loc
I1028 18:48:06.525187 22103 net.cpp:452] conv6_2_mbox_loc_perm -> conv6_2_mbox_loc_perm
I1028 18:48:06.525246 22103 net.cpp:150] Setting up conv6_2_mbox_loc_perm
I1028 18:48:06.525285 22103 net.cpp:157] Top shape: 8 10 10 24 (19200)
I1028 18:48:06.525312 22103 net.cpp:165] Memory required for data: 1996345664
I1028 18:48:06.525341 22103 layer_factory.hpp:77] Creating layer conv6_2_mbox_loc_flat
I1028 18:48:06.525380 22103 net.cpp:100] Creating Layer conv6_2_mbox_loc_flat
I1028 18:48:06.525413 22103 net.cpp:478] conv6_2_mbox_loc_flat <- conv6_2_mbox_loc_perm
I1028 18:48:06.525447 22103 net.cpp:452] conv6_2_mbox_loc_flat -> conv6_2_mbox_loc_flat
I1028 18:48:06.525513 22103 net.cpp:150] Setting up conv6_2_mbox_loc_flat
I1028 18:48:06.525578 22103 net.cpp:157] Top shape: 8 2400 (19200)
I1028 18:48:06.525609 22103 net.cpp:165] Memory required for data: 1996422464
I1028 18:48:06.525637 22103 layer_factory.hpp:77] Creating layer conv6_2_mbox_conf
I1028 18:48:06.525691 22103 net.cpp:100] Creating Layer conv6_2_mbox_conf
I1028 18:48:06.525727 22103 net.cpp:478] conv6_2_mbox_conf <- conv6_2_conv6_2_relu_0_split_2
I1028 18:48:06.525773 22103 net.cpp:452] conv6_2_mbox_conf -> conv6_2_mbox_conf
I1028 18:48:06.534832 22103 net.cpp:150] Setting up conv6_2_mbox_conf
I1028 18:48:06.535040 22103 net.cpp:157] Top shape: 8 126 10 10 (100800)
I1028 18:48:06.535068 22103 net.cpp:165] Memory required for data: 1996825664
I1028 18:48:06.535112 22103 layer_factory.hpp:77] Creating layer conv6_2_mbox_conf_perm
I1028 18:48:06.535168 22103 net.cpp:100] Creating Layer conv6_2_mbox_conf_perm
I1028 18:48:06.535212 22103 net.cpp:478] conv6_2_mbox_conf_perm <- conv6_2_mbox_conf
I1028 18:48:06.535259 22103 net.cpp:452] conv6_2_mbox_conf_perm -> conv6_2_mbox_conf_perm
I1028 18:48:06.535327 22103 net.cpp:150] Setting up conv6_2_mbox_conf_perm
I1028 18:48:06.535362 22103 net.cpp:157] Top shape: 8 10 10 126 (100800)
I1028 18:48:06.535388 22103 net.cpp:165] Memory required for data: 1997228864
I1028 18:48:06.535413 22103 layer_factory.hpp:77] Creating layer conv6_2_mbox_conf_flat
I1028 18:48:06.535445 22103 net.cpp:100] Creating Layer conv6_2_mbox_conf_flat
I1028 18:48:06.535471 22103 net.cpp:478] conv6_2_mbox_conf_flat <- conv6_2_mbox_conf_perm
I1028 18:48:06.535503 22103 net.cpp:452] conv6_2_mbox_conf_flat -> conv6_2_mbox_conf_flat
I1028 18:48:06.535547 22103 net.cpp:150] Setting up conv6_2_mbox_conf_flat
I1028 18:48:06.535576 22103 net.cpp:157] Top shape: 8 12600 (100800)
I1028 18:48:06.535599 22103 net.cpp:165] Memory required for data: 1997632064
I1028 18:48:06.535624 22103 layer_factory.hpp:77] Creating layer conv6_2_mbox_priorbox
I1028 18:48:06.535660 22103 net.cpp:100] Creating Layer conv6_2_mbox_priorbox
I1028 18:48:06.535684 22103 net.cpp:478] conv6_2_mbox_priorbox <- conv6_2_conv6_2_relu_0_split_3
I1028 18:48:06.535714 22103 net.cpp:478] conv6_2_mbox_priorbox <- data_data_0_split_3
I1028 18:48:06.535750 22103 net.cpp:452] conv6_2_mbox_priorbox -> conv6_2_mbox_priorbox
I1028 18:48:06.535792 22103 net.cpp:150] Setting up conv6_2_mbox_priorbox
I1028 18:48:06.535820 22103 net.cpp:157] Top shape: 1 2 2400 (4800)
I1028 18:48:06.535841 22103 net.cpp:165] Memory required for data: 1997651264
I1028 18:48:06.535863 22103 layer_factory.hpp:77] Creating layer conv7_2_mbox_loc
I1028 18:48:06.535909 22103 net.cpp:100] Creating Layer conv7_2_mbox_loc
I1028 18:48:06.535935 22103 net.cpp:478] conv7_2_mbox_loc <- conv7_2_conv7_2_relu_0_split_1
I1028 18:48:06.535967 22103 net.cpp:452] conv7_2_mbox_loc -> conv7_2_mbox_loc
I1028 18:48:06.537052 22103 net.cpp:150] Setting up conv7_2_mbox_loc
I1028 18:48:06.537111 22103 net.cpp:157] Top shape: 8 24 5 5 (4800)
I1028 18:48:06.537117 22103 net.cpp:165] Memory required for data: 1997670464
I1028 18:48:06.537142 22103 layer_factory.hpp:77] Creating layer conv7_2_mbox_loc_perm
I1028 18:48:06.537165 22103 net.cpp:100] Creating Layer conv7_2_mbox_loc_perm
I1028 18:48:06.537212 22103 net.cpp:478] conv7_2_mbox_loc_perm <- conv7_2_mbox_loc
I1028 18:48:06.537255 22103 net.cpp:452] conv7_2_mbox_loc_perm -> conv7_2_mbox_loc_perm
I1028 18:48:06.537313 22103 net.cpp:150] Setting up conv7_2_mbox_loc_perm
I1028 18:48:06.537351 22103 net.cpp:157] Top shape: 8 5 5 24 (4800)
I1028 18:48:06.537375 22103 net.cpp:165] Memory required for data: 1997689664
I1028 18:48:06.537401 22103 layer_factory.hpp:77] Creating layer conv7_2_mbox_loc_flat
I1028 18:48:06.537438 22103 net.cpp:100] Creating Layer conv7_2_mbox_loc_flat
I1028 18:48:06.537467 22103 net.cpp:478] conv7_2_mbox_loc_flat <- conv7_2_mbox_loc_perm
I1028 18:48:06.537500 22103 net.cpp:452] conv7_2_mbox_loc_flat -> conv7_2_mbox_loc_flat
I1028 18:48:06.537540 22103 net.cpp:150] Setting up conv7_2_mbox_loc_flat
I1028 18:48:06.537570 22103 net.cpp:157] Top shape: 8 600 (4800)
I1028 18:48:06.537647 22103 net.cpp:165] Memory required for data: 1997708864
I1028 18:48:06.537677 22103 layer_factory.hpp:77] Creating layer conv7_2_mbox_conf
I1028 18:48:06.537721 22103 net.cpp:100] Creating Layer conv7_2_mbox_conf
I1028 18:48:06.537753 22103 net.cpp:478] conv7_2_mbox_conf <- conv7_2_conv7_2_relu_0_split_2
I1028 18:48:06.537791 22103 net.cpp:452] conv7_2_mbox_conf -> conv7_2_mbox_conf
I1028 18:48:06.541149 22103 net.cpp:150] Setting up conv7_2_mbox_conf
I1028 18:48:06.541190 22103 net.cpp:157] Top shape: 8 126 5 5 (25200)
I1028 18:48:06.541198 22103 net.cpp:165] Memory required for data: 1997809664
I1028 18:48:06.541215 22103 layer_factory.hpp:77] Creating layer conv7_2_mbox_conf_perm
I1028 18:48:06.541234 22103 net.cpp:100] Creating Layer conv7_2_mbox_conf_perm
I1028 18:48:06.541277 22103 net.cpp:478] conv7_2_mbox_conf_perm <- conv7_2_mbox_conf
I1028 18:48:06.541321 22103 net.cpp:452] conv7_2_mbox_conf_perm -> conv7_2_mbox_conf_perm
I1028 18:48:06.541384 22103 net.cpp:150] Setting up conv7_2_mbox_conf_perm
I1028 18:48:06.541425 22103 net.cpp:157] Top shape: 8 5 5 126 (25200)
I1028 18:48:06.541453 22103 net.cpp:165] Memory required for data: 1997910464
I1028 18:48:06.541479 22103 layer_factory.hpp:77] Creating layer conv7_2_mbox_conf_flat
I1028 18:48:06.541522 22103 net.cpp:100] Creating Layer conv7_2_mbox_conf_flat
I1028 18:48:06.541538 22103 net.cpp:478] conv7_2_mbox_conf_flat <- conv7_2_mbox_conf_perm
I1028 18:48:06.541551 22103 net.cpp:452] conv7_2_mbox_conf_flat -> conv7_2_mbox_conf_flat
I1028 18:48:06.541577 22103 net.cpp:150] Setting up conv7_2_mbox_conf_flat
I1028 18:48:06.541612 22103 net.cpp:157] Top shape: 8 3150 (25200)
I1028 18:48:06.541640 22103 net.cpp:165] Memory required for data: 1998011264
I1028 18:48:06.541667 22103 layer_factory.hpp:77] Creating layer conv7_2_mbox_priorbox
I1028 18:48:06.541707 22103 net.cpp:100] Creating Layer conv7_2_mbox_priorbox
I1028 18:48:06.541740 22103 net.cpp:478] conv7_2_mbox_priorbox <- conv7_2_conv7_2_relu_0_split_3
I1028 18:48:06.541774 22103 net.cpp:478] conv7_2_mbox_priorbox <- data_data_0_split_4
I1028 18:48:06.541821 22103 net.cpp:452] conv7_2_mbox_priorbox -> conv7_2_mbox_priorbox
I1028 18:48:06.541870 22103 net.cpp:150] Setting up conv7_2_mbox_priorbox
I1028 18:48:06.541889 22103 net.cpp:157] Top shape: 1 2 600 (1200)
I1028 18:48:06.541896 22103 net.cpp:165] Memory required for data: 1998016064
I1028 18:48:06.541903 22103 layer_factory.hpp:77] Creating layer conv8_2_mbox_loc
I1028 18:48:06.541937 22103 net.cpp:100] Creating Layer conv8_2_mbox_loc
I1028 18:48:06.541986 22103 net.cpp:478] conv8_2_mbox_loc <- conv8_2_conv8_2_relu_0_split_1
I1028 18:48:06.542037 22103 net.cpp:452] conv8_2_mbox_loc -> conv8_2_mbox_loc
I1028 18:48:06.542559 22103 net.cpp:150] Setting up conv8_2_mbox_loc
I1028 18:48:06.542578 22103 net.cpp:157] Top shape: 8 16 3 3 (1152)
I1028 18:48:06.542584 22103 net.cpp:165] Memory required for data: 1998020672
I1028 18:48:06.542619 22103 layer_factory.hpp:77] Creating layer conv8_2_mbox_loc_perm
I1028 18:48:06.542665 22103 net.cpp:100] Creating Layer conv8_2_mbox_loc_perm
I1028 18:48:06.542681 22103 net.cpp:478] conv8_2_mbox_loc_perm <- conv8_2_mbox_loc
I1028 18:48:06.542695 22103 net.cpp:452] conv8_2_mbox_loc_perm -> conv8_2_mbox_loc_perm
I1028 18:48:06.542744 22103 net.cpp:150] Setting up conv8_2_mbox_loc_perm
I1028 18:48:06.542758 22103 net.cpp:157] Top shape: 8 3 3 16 (1152)
I1028 18:48:06.542765 22103 net.cpp:165] Memory required for data: 1998025280
I1028 18:48:06.542773 22103 layer_factory.hpp:77] Creating layer conv8_2_mbox_loc_flat
I1028 18:48:06.542788 22103 net.cpp:100] Creating Layer conv8_2_mbox_loc_flat
I1028 18:48:06.542819 22103 net.cpp:478] conv8_2_mbox_loc_flat <- conv8_2_mbox_loc_perm
I1028 18:48:06.542839 22103 net.cpp:452] conv8_2_mbox_loc_flat -> conv8_2_mbox_loc_flat
I1028 18:48:06.542881 22103 net.cpp:150] Setting up conv8_2_mbox_loc_flat
I1028 18:48:06.542896 22103 net.cpp:157] Top shape: 8 144 (1152)
I1028 18:48:06.542902 22103 net.cpp:165] Memory required for data: 1998029888
I1028 18:48:06.542909 22103 layer_factory.hpp:77] Creating layer conv8_2_mbox_conf
I1028 18:48:06.542974 22103 net.cpp:100] Creating Layer conv8_2_mbox_conf
I1028 18:48:06.542989 22103 net.cpp:478] conv8_2_mbox_conf <- conv8_2_conv8_2_relu_0_split_2
I1028 18:48:06.543004 22103 net.cpp:452] conv8_2_mbox_conf -> conv8_2_mbox_conf
I1028 18:48:06.545049 22103 net.cpp:150] Setting up conv8_2_mbox_conf
I1028 18:48:06.545089 22103 net.cpp:157] Top shape: 8 84 3 3 (6048)
I1028 18:48:06.545094 22103 net.cpp:165] Memory required for data: 1998054080
I1028 18:48:06.545109 22103 layer_factory.hpp:77] Creating layer conv8_2_mbox_conf_perm
I1028 18:48:06.545128 22103 net.cpp:100] Creating Layer conv8_2_mbox_conf_perm
I1028 18:48:06.545171 22103 net.cpp:478] conv8_2_mbox_conf_perm <- conv8_2_mbox_conf
I1028 18:48:06.545208 22103 net.cpp:452] conv8_2_mbox_conf_perm -> conv8_2_mbox_conf_perm
I1028 18:48:06.545261 22103 net.cpp:150] Setting up conv8_2_mbox_conf_perm
I1028 18:48:06.545276 22103 net.cpp:157] Top shape: 8 3 3 84 (6048)
I1028 18:48:06.545282 22103 net.cpp:165] Memory required for data: 1998078272
I1028 18:48:06.545290 22103 layer_factory.hpp:77] Creating layer conv8_2_mbox_conf_flat
I1028 18:48:06.545307 22103 net.cpp:100] Creating Layer conv8_2_mbox_conf_flat
I1028 18:48:06.545337 22103 net.cpp:478] conv8_2_mbox_conf_flat <- conv8_2_mbox_conf_perm
I1028 18:48:06.545361 22103 net.cpp:452] conv8_2_mbox_conf_flat -> conv8_2_mbox_conf_flat
I1028 18:48:06.545403 22103 net.cpp:150] Setting up conv8_2_mbox_conf_flat
I1028 18:48:06.545418 22103 net.cpp:157] Top shape: 8 756 (6048)
I1028 18:48:06.545423 22103 net.cpp:165] Memory required for data: 1998102464
I1028 18:48:06.545430 22103 layer_factory.hpp:77] Creating layer conv8_2_mbox_priorbox
I1028 18:48:06.545470 22103 net.cpp:100] Creating Layer conv8_2_mbox_priorbox
I1028 18:48:06.545485 22103 net.cpp:478] conv8_2_mbox_priorbox <- conv8_2_conv8_2_relu_0_split_3
I1028 18:48:06.545496 22103 net.cpp:478] conv8_2_mbox_priorbox <- data_data_0_split_5
I1028 18:48:06.545534 22103 net.cpp:452] conv8_2_mbox_priorbox -> conv8_2_mbox_priorbox
I1028 18:48:06.545563 22103 net.cpp:150] Setting up conv8_2_mbox_priorbox
I1028 18:48:06.545578 22103 net.cpp:157] Top shape: 1 2 144 (288)
I1028 18:48:06.545586 22103 net.cpp:165] Memory required for data: 1998103616
I1028 18:48:06.545593 22103 layer_factory.hpp:77] Creating layer conv9_2_mbox_loc
I1028 18:48:06.545615 22103 net.cpp:100] Creating Layer conv9_2_mbox_loc
I1028 18:48:06.545627 22103 net.cpp:478] conv9_2_mbox_loc <- conv9_2_conv9_2_relu_0_split_0
I1028 18:48:06.545645 22103 net.cpp:452] conv9_2_mbox_loc -> conv9_2_mbox_loc
I1028 18:48:06.546116 22103 net.cpp:150] Setting up conv9_2_mbox_loc
I1028 18:48:06.546133 22103 net.cpp:157] Top shape: 8 16 1 1 (128)
I1028 18:48:06.546140 22103 net.cpp:165] Memory required for data: 1998104128
I1028 18:48:06.546154 22103 layer_factory.hpp:77] Creating layer conv9_2_mbox_loc_perm
I1028 18:48:06.546195 22103 net.cpp:100] Creating Layer conv9_2_mbox_loc_perm
I1028 18:48:06.546208 22103 net.cpp:478] conv9_2_mbox_loc_perm <- conv9_2_mbox_loc
I1028 18:48:06.546226 22103 net.cpp:452] conv9_2_mbox_loc_perm -> conv9_2_mbox_loc_perm
I1028 18:48:06.546272 22103 net.cpp:150] Setting up conv9_2_mbox_loc_perm
I1028 18:48:06.546286 22103 net.cpp:157] Top shape: 8 1 1 16 (128)
I1028 18:48:06.546293 22103 net.cpp:165] Memory required for data: 1998104640
I1028 18:48:06.546299 22103 layer_factory.hpp:77] Creating layer conv9_2_mbox_loc_flat
I1028 18:48:06.546311 22103 net.cpp:100] Creating Layer conv9_2_mbox_loc_flat
I1028 18:48:06.546340 22103 net.cpp:478] conv9_2_mbox_loc_flat <- conv9_2_mbox_loc_perm
I1028 18:48:06.546377 22103 net.cpp:452] conv9_2_mbox_loc_flat -> conv9_2_mbox_loc_flat
I1028 18:48:06.546401 22103 net.cpp:150] Setting up conv9_2_mbox_loc_flat
I1028 18:48:06.546435 22103 net.cpp:157] Top shape: 8 16 (128)
I1028 18:48:06.546447 22103 net.cpp:165] Memory required for data: 1998105152
I1028 18:48:06.546455 22103 layer_factory.hpp:77] Creating layer conv9_2_mbox_conf
I1028 18:48:06.546478 22103 net.cpp:100] Creating Layer conv9_2_mbox_conf
I1028 18:48:06.546519 22103 net.cpp:478] conv9_2_mbox_conf <- conv9_2_conv9_2_relu_0_split_1
I1028 18:48:06.546540 22103 net.cpp:452] conv9_2_mbox_conf -> conv9_2_mbox_conf
I1028 18:48:06.548586 22103 net.cpp:150] Setting up conv9_2_mbox_conf
I1028 18:48:06.548616 22103 net.cpp:157] Top shape: 8 84 1 1 (672)
I1028 18:48:06.548620 22103 net.cpp:165] Memory required for data: 1998107840
I1028 18:48:06.548635 22103 layer_factory.hpp:77] Creating layer conv9_2_mbox_conf_perm
I1028 18:48:06.548655 22103 net.cpp:100] Creating Layer conv9_2_mbox_conf_perm
I1028 18:48:06.548667 22103 net.cpp:478] conv9_2_mbox_conf_perm <- conv9_2_mbox_conf
I1028 18:48:06.548714 22103 net.cpp:452] conv9_2_mbox_conf_perm -> conv9_2_mbox_conf_perm
I1028 18:48:06.548774 22103 net.cpp:150] Setting up conv9_2_mbox_conf_perm
I1028 18:48:06.548801 22103 net.cpp:157] Top shape: 8 1 1 84 (672)
I1028 18:48:06.548821 22103 net.cpp:165] Memory required for data: 1998110528
I1028 18:48:06.548843 22103 layer_factory.hpp:77] Creating layer conv9_2_mbox_conf_flat
I1028 18:48:06.548877 22103 net.cpp:100] Creating Layer conv9_2_mbox_conf_flat
I1028 18:48:06.548905 22103 net.cpp:478] conv9_2_mbox_conf_flat <- conv9_2_mbox_conf_perm
I1028 18:48:06.548934 22103 net.cpp:452] conv9_2_mbox_conf_flat -> conv9_2_mbox_conf_flat
I1028 18:48:06.548970 22103 net.cpp:150] Setting up conv9_2_mbox_conf_flat
I1028 18:48:06.549008 22103 net.cpp:157] Top shape: 8 84 (672)
I1028 18:48:06.549032 22103 net.cpp:165] Memory required for data: 1998113216
I1028 18:48:06.549060 22103 layer_factory.hpp:77] Creating layer conv9_2_mbox_priorbox
I1028 18:48:06.549099 22103 net.cpp:100] Creating Layer conv9_2_mbox_priorbox
I1028 18:48:06.549129 22103 net.cpp:478] conv9_2_mbox_priorbox <- conv9_2_conv9_2_relu_0_split_2
I1028 18:48:06.549163 22103 net.cpp:478] conv9_2_mbox_priorbox <- data_data_0_split_6
I1028 18:48:06.549201 22103 net.cpp:452] conv9_2_mbox_priorbox -> conv9_2_mbox_priorbox
I1028 18:48:06.549252 22103 net.cpp:150] Setting up conv9_2_mbox_priorbox
I1028 18:48:06.549268 22103 net.cpp:157] Top shape: 1 2 16 (32)
I1028 18:48:06.549275 22103 net.cpp:165] Memory required for data: 1998113344
I1028 18:48:06.549284 22103 layer_factory.hpp:77] Creating layer mbox_loc
I1028 18:48:06.549301 22103 net.cpp:100] Creating Layer mbox_loc
I1028 18:48:06.549335 22103 net.cpp:478] mbox_loc <- conv4_3_norm_mbox_loc_flat
I1028 18:48:06.549371 22103 net.cpp:478] mbox_loc <- fc7_mbox_loc_flat
I1028 18:48:06.549407 22103 net.cpp:478] mbox_loc <- conv6_2_mbox_loc_flat
I1028 18:48:06.549437 22103 net.cpp:478] mbox_loc <- conv7_2_mbox_loc_flat
I1028 18:48:06.549470 22103 net.cpp:478] mbox_loc <- conv8_2_mbox_loc_flat
I1028 18:48:06.549500 22103 net.cpp:478] mbox_loc <- conv9_2_mbox_loc_flat
I1028 18:48:06.549542 22103 net.cpp:452] mbox_loc -> mbox_loc
I1028 18:48:06.549574 22103 net.cpp:150] Setting up mbox_loc
I1028 18:48:06.549612 22103 net.cpp:157] Top shape: 8 34928 (279424)
I1028 18:48:06.549624 22103 net.cpp:165] Memory required for data: 1999231040
I1028 18:48:06.549633 22103 layer_factory.hpp:77] Creating layer mbox_conf
I1028 18:48:06.549646 22103 net.cpp:100] Creating Layer mbox_conf
I1028 18:48:06.549679 22103 net.cpp:478] mbox_conf <- conv4_3_norm_mbox_conf_flat
I1028 18:48:06.549712 22103 net.cpp:478] mbox_conf <- fc7_mbox_conf_flat
I1028 18:48:06.549744 22103 net.cpp:478] mbox_conf <- conv6_2_mbox_conf_flat
I1028 18:48:06.549777 22103 net.cpp:478] mbox_conf <- conv7_2_mbox_conf_flat
I1028 18:48:06.549808 22103 net.cpp:478] mbox_conf <- conv8_2_mbox_conf_flat
I1028 18:48:06.549839 22103 net.cpp:478] mbox_conf <- conv9_2_mbox_conf_flat
I1028 18:48:06.549880 22103 net.cpp:452] mbox_conf -> mbox_conf
I1028 18:48:06.549921 22103 net.cpp:150] Setting up mbox_conf
I1028 18:48:06.549952 22103 net.cpp:157] Top shape: 8 183372 (1466976)
I1028 18:48:06.549994 22103 net.cpp:165] Memory required for data: 2005098944
I1028 18:48:06.550025 22103 layer_factory.hpp:77] Creating layer mbox_priorbox
I1028 18:48:06.550063 22103 net.cpp:100] Creating Layer mbox_priorbox
I1028 18:48:06.550117 22103 net.cpp:478] mbox_priorbox <- conv4_3_norm_mbox_priorbox
I1028 18:48:06.550165 22103 net.cpp:478] mbox_priorbox <- fc7_mbox_priorbox
I1028 18:48:06.550179 22103 net.cpp:478] mbox_priorbox <- conv6_2_mbox_priorbox
I1028 18:48:06.550211 22103 net.cpp:478] mbox_priorbox <- conv7_2_mbox_priorbox
I1028 18:48:06.550243 22103 net.cpp:478] mbox_priorbox <- conv8_2_mbox_priorbox
I1028 18:48:06.550276 22103 net.cpp:478] mbox_priorbox <- conv9_2_mbox_priorbox
I1028 18:48:06.550315 22103 net.cpp:452] mbox_priorbox -> mbox_priorbox
I1028 18:48:06.550343 22103 net.cpp:150] Setting up mbox_priorbox
I1028 18:48:06.550377 22103 net.cpp:157] Top shape: 1 2 34928 (69856)
I1028 18:48:06.550390 22103 net.cpp:165] Memory required for data: 2005378368
I1028 18:48:06.550398 22103 layer_factory.hpp:77] Creating layer mbox_conf_reshape
I1028 18:48:06.550426 22103 net.cpp:100] Creating Layer mbox_conf_reshape
I1028 18:48:06.550458 22103 net.cpp:478] mbox_conf_reshape <- mbox_conf
I1028 18:48:06.550500 22103 net.cpp:452] mbox_conf_reshape -> mbox_conf_reshape
I1028 18:48:06.550561 22103 net.cpp:150] Setting up mbox_conf_reshape
I1028 18:48:06.550577 22103 net.cpp:157] Top shape: 8 8732 21 (1466976)
I1028 18:48:06.550585 22103 net.cpp:165] Memory required for data: 2011246272
I1028 18:48:06.550591 22103 layer_factory.hpp:77] Creating layer mbox_conf_softmax
I1028 18:48:06.550607 22103 net.cpp:100] Creating Layer mbox_conf_softmax
I1028 18:48:06.550638 22103 net.cpp:478] mbox_conf_softmax <- mbox_conf_reshape
I1028 18:48:06.550662 22103 net.cpp:452] mbox_conf_softmax -> mbox_conf_softmax
I1028 18:48:06.550685 22103 net.cpp:150] Setting up mbox_conf_softmax
I1028 18:48:06.550700 22103 net.cpp:157] Top shape: 8 8732 21 (1466976)
I1028 18:48:06.550709 22103 net.cpp:165] Memory required for data: 2017114176
I1028 18:48:06.550714 22103 layer_factory.hpp:77] Creating layer mbox_conf_flatten
I1028 18:48:06.550730 22103 net.cpp:100] Creating Layer mbox_conf_flatten
I1028 18:48:06.550737 22103 net.cpp:478] mbox_conf_flatten <- mbox_conf_softmax
I1028 18:48:06.550752 22103 net.cpp:452] mbox_conf_flatten -> mbox_conf_flatten
I1028 18:48:06.550770 22103 net.cpp:150] Setting up mbox_conf_flatten
I1028 18:48:06.550784 22103 net.cpp:157] Top shape: 8 183372 (1466976)
I1028 18:48:06.550789 22103 net.cpp:165] Memory required for data: 2022982080
I1028 18:48:06.550793 22103 layer_factory.hpp:77] Creating layer detection_out
I1028 18:48:06.550824 22103 net.cpp:100] Creating Layer detection_out
I1028 18:48:06.550833 22103 net.cpp:478] detection_out <- mbox_loc
I1028 18:48:06.550840 22103 net.cpp:478] detection_out <- mbox_conf_flatten
I1028 18:48:06.550845 22103 net.cpp:478] detection_out <- mbox_priorbox
I1028 18:48:06.550856 22103 net.cpp:452] detection_out -> detection_out
I1028 18:48:06.553318 22103 net.cpp:150] Setting up detection_out
I1028 18:48:06.553385 22103 net.cpp:157] Top shape: 1 1 1 7 (7)
I1028 18:48:06.553392 22103 net.cpp:165] Memory required for data: 2022982108
I1028 18:48:06.553405 22103 layer_factory.hpp:77] Creating layer detection_eval
I1028 18:48:06.553439 22103 net.cpp:100] Creating Layer detection_eval
I1028 18:48:06.553452 22103 net.cpp:478] detection_eval <- detection_out
I1028 18:48:06.553508 22103 net.cpp:478] detection_eval <- label
I1028 18:48:06.553540 22103 net.cpp:452] detection_eval -> detection_eval
I1028 18:48:06.556933 22103 net.cpp:150] Setting up detection_eval
I1028 18:48:06.556977 22103 net.cpp:157] Top shape: 1 1 21 5 (105)
I1028 18:48:06.556985 22103 net.cpp:165] Memory required for data: 2022982528
I1028 18:48:06.556996 22103 net.cpp:228] detection_eval does not need backward computation.
I1028 18:48:06.557008 22103 net.cpp:228] detection_out does not need backward computation.
I1028 18:48:06.557018 22103 net.cpp:228] mbox_conf_flatten does not need backward computation.
I1028 18:48:06.557026 22103 net.cpp:228] mbox_conf_softmax does not need backward computation.
…
