…
      sampler {
        min_scale: 0.3
        max_scale: 1
        min_aspect_ratio: 0.5
        max_aspect_ratio: 2
      }
      sample_constraint {
        min_jaccard_overlap: 0.9
      }
      max_sample: 1
      max_trials: 50
    }
    batch_sampler {
      sampler {
        min_scale: 0.3
        max_scale: 1
        min_aspect_ratio: 0.5
        max_aspect_ratio: 2
      }
      sample_constraint {
        max_jaccard_overlap: 1
      }
      max_sample: 1
      max_trials: 50
    }
    label_map_file: "data/VOC0712/labelmap_voc.prototxt"
  }
}
layer {
  name: "conv1_1"
  type: "Convolution"
  bottom: "data"
  top: "conv1_1"
  param {
    lr_mult: 1
    decay_mult: 1
  }
  param {
    lr_mult: 2
    decay_mult: 0
  }
  convolution_param {
    num_output: 64
    pad: 1
    kernel_size: 3
    weight_filler {
      type: "xavier"
    }
    bias_filler {
      type: "constant"
      value: 0
    }
  }
}
layer {
  name: "relu1_1"
  type: "ReLU"
  bottom: "conv1_1"
  top: "conv1_1"
}
layer {
  name: "conv1_2"
  type: "Convolution"
  bottom: "conv1_1"
  top: "conv1_2"
  param {
    lr_mult: 1
    decay_mult: 1
  }
  param {
    lr_mult: 2
    decay_mult: 0
  }
  convolution_param {
    num_output: 64
    pad: 1
    kernel_size: 3
    weight_filler {
      type: "xavier"
    }
    bias_filler {
      type: "constant"
      value: 0
    }
  }
}
layer {
  name: "relu1_2"
  type: "ReLU"
  bottom: "conv1_2"
  top: "conv1_2"
}
layer {
  name: "pool1"
  type: "Pooling"
  bottom: "conv1_2"
  top: "pool1"
  pooling_param {
    pool: MAX
    kernel_size: 2
    stride: 2
  }
}
layer {
  name: "conv2_1"
  type: "Convolution"
  bottom: "pool1"
  top: "conv2_1"
  param {
    lr_mult: 1
    decay_mult: 1
  }
  param {
    lr_mult: 2
    decay_mult: 0
  }
  convolution_param {
    num_output: 128
    pad: 1
    kernel_size: 3
    weight_filler {
      type: "xavier"
    }
    bias_filler {
      type: "constant"
      value: 0
    }
  }
}
layer {
  name: "relu2_1"
  type: "ReLU"
  bottom: "conv2_1"
  top: "conv2_1"
}
layer {
  name: "conv2_2"
  type: "Convolution"
  bottom: "conv2_1"
  top: "conv2_2"
  param {
    lr_mult: 1
    decay_mult: 1
  }
  param {
    lr_mult: 2
    decay_mult: 0
  }
  convolution_param {
    num_output: 128
    pad: 1
    kernel_size: 3
    weight_filler {
      type: "xavier"
    }
    bias_filler {
      type: "constant"
      value: 0
    }
  }
}
layer {
  name: "relu2_2"
  type: "ReLU"
  bottom: "conv2_2"
  top: "conv2_2"
}
layer {
  name: "pool2"
  type: "Pooling"
  bottom: "conv2_2"
  top: "pool2"
  pooling_param {
    pool: MAX
    kernel_size: 2
    stride: 2
  }
}
layer {
  name: "conv3_1"
  type: "Convolution"
  bottom: "pool2"
  top: "conv3_1"
  param {
    lr_mult: 1
    decay_mult: 1
  }
  param {
    lr_mult: 2
    decay_mult: 0
  }
  convolution_param {
    num_output: 256
    pad: 1
    kernel_size: 3
    weight_filler {
      type: "xavier"
    }
    bias_filler {
      type: "constant"
      value: 0
    }
  }
}
layer {
  name: "relu3_1"
  type: "ReLU"
  bottom: "conv3_1"
  top: "conv3_1"
}
layer {
  name: "conv3_2"
  type: "Convolution"
  bottom: "conv3_1"
  top: "conv3_2"
  param {
    lr_mult: 1
    decay_mult: 1
  }
  param {
    lr_mult: 2
    decay_mult: 0
  }
  convolution_param {
    num_output: 256
    pad: 1
    kernel_size: 3
    weight_filler {
      type: "xavier"
    }
    bias_filler {
      type: "constant"
      value: 0
    }
  }
}
layer {
  name: "relu3_2"
  type: "ReLU"
  bottom: "conv3_2"
  top: "conv3_2"
}
layer {
  name: "conv3_3"
  type: "Convolution"
  bottom: "conv3_2"
  top: "conv3_3"
  param {
    lr_mult: 1
    decay_mult: 1
  }
  param {
    lr_mult: 2
    decay_mult: 0
  }
  convolution_param {
    num_output: 256
    pad: 1
    kernel_size: 3
    weight_filler {
      type: "xavier"
    }
    bias_filler {
      type: "constant"
      value: 0
    }
  }
}
layer {
  name: "relu3_3"
  type: "ReLU"
  bottom: "conv3_3"
  top: "conv3_3"
}
layer {
  name: "pool3"
  type: "Pooling"
  bottom: "conv3_3"
  top: "pool3"
  pooling_param {
    pool: MAX
    kernel_size: 2
    stride: 2
  }
}
layer {
  name: "conv4_1"
  type: "Convolution"
  bottom: "pool3"
  top: "conv4_1"
  param {
    lr_mult: 1
    decay_mult: 1
  }
  param {
    lr_mult: 2
    decay_mult: 0
  }
  convolution_param {
    num_output: 512
    pad: 1
    kernel_size: 3
    weight_filler {
      type: "xavier"
    }
    bias_filler {
      type: "constant"
      value: 0
    }
  }
}
layer {
  name: "relu4_1"
  type: "ReLU"
  bottom: "conv4_1"
  top: "conv4_1"
}
layer {
  name: "conv4_2"
  type: "Convolution"
  bottom: "conv4_1"
  top: "conv4_2"
  param {
    lr_mult: 1
    decay_mult: 1
  }
  param {
    lr_mult: 2
    decay_mult: 0
  }
  convolution_param {
    num_output: 512
    pad: 1
    kernel_size: 3
    weight_filler {
      type: "xavier"
    }
    bias_filler {
      type: "constant"
      value: 0
    }
  }
}
layer {
  name: "relu4_2"
  type: "ReLU"
  bottom: "conv4_2"
  top: "conv4_2"
}
layer {
  name: "conv4_3"
  type: "Convolution"
  bottom: "conv4_2"
  top: "conv4_3"
  param {
    lr_mult: 1
    decay_mult: 1
  }
  param {
    lr_mult: 2
    decay_mult: 0
  }
  convolution_param {
    num_output: 512
    pad: 1
    kernel_size: 3
    weight_filler {
      type: "xavier"
    }
    bias_filler {
      type: "constant"
      value: 0
    }
  }
}
layer {
  name: "relu4_3"
  type: "ReLU"
  bottom: "conv4_3"
  top: "conv4_3"
}
layer {
  name: "pool4"
  type: "Pooling"
  bottom: "conv4_3"
  top: "pool4"
  pooling_param {
    pool: MAX
    kernel_size: 2
    stride: 2
  }
}
layer {
  name: "conv5_1"
  type: "Convolution"
  bottom: "pool4"
  top: "conv5_1"
  param {
    lr_mult: 1
    decay_mult: 1
  }
  param {
    lr_mult: 2
    decay_mult: 0
  }
  convolution_param {
    num_output: 512
    pad: 1
    kernel_size: 3
    weight_filler {
      type: "xavier"
    }
    bias_filler {
      type: "constant"
      value: 0
    }
    dilation: 1
  }
}
layer {
  name: "relu5_1"
  type: "ReLU"
  bottom: "conv5_1"
  top: "conv5_1"
}
layer {
  name: "conv5_2"
  type: "Convolution"
  bottom: "conv5_1"
  top: "conv5_2"
  param {
    lr_mult: 1
    decay_mult: 1
  }
  param {
    lr_mult: 2
    decay_mult: 0
  }
  convolution_param {
    num_output: 512
    pad: 1
    kernel_size: 3
    weight_filler {
      type: "xavier"
    }
    bias_filler {
      type: "constant"
      value: 0
    }
    dilation: 1
  }
}
layer {
  name: "relu5_2"
  type: "ReLU"
  bottom: "conv5_2"
  top: "conv5_2"
}
layer {
  name: "conv5_3"
  type: "Convolution"
  bottom: "conv5_2"
  top: "conv5_3"
  param {
    lr_mult: 1
    decay_mult: 1
  }
  param {
    lr_mult: 2
    decay_mult: 0
  }
  convolution_param {
    num_output: 512
    pad: 1
    kernel_size: 3
    weight_filler {
      type: "xavier"
    }
    bias_filler {
      type: "constant"
      value: 0
    }
    dilation: 1
  }
}
layer {
  name: "relu5_3"
  type: "ReLU"
  bottom: "conv5_3"
  top: "conv5_3"
}
layer {
  name: "pool5"
  type: "Pooling"
  bottom: "conv5_3"
  top: "pool5"
  pooling_param {
    pool: MAX
    kernel_size: 3
    stride: 1
    pad: 1
  }
}
layer {
  name: "fc6"
  type: "Convolution"
  bottom: "pool5"
  top: "fc6"
  param {
    lr_mult: 1
    decay_mult: 1
  }
  param {
    lr_mult: 2
    decay_mult: 0
  }
  convolution_param {
    num_output: 1024
    pad: 6
    kernel_size: 3
    weight_filler {
      type: "xavier"
    }
    bias_filler {
      type: "constant"
      value: 0
    }
    dilation: 6
  }
}
layer {
  name: "relu6"
  type: "ReLU"
  bottom: "fc6"
  top: "fc6"
}
layer {
  name: "fc7"
  type: "Convolution"
  bottom: "fc6"
  top: "fc7"
  param {
    lr_mult: 1
    decay_mult: 1
  }
  param {
    lr_mult: 2
    decay_mult: 0
  }
  convolution_param {
    num_output: 1024
    kernel_size: 1
    weight_filler {
      type: "xavier"
    }
    bias_filler {
      type: "constant"
      value: 0
    }
  }
}
layer {
  name: "relu7"
  type: "ReLU"
  bottom: "fc7"
  top: "fc7"
}
layer {
  name: "conv6_1"
  type: "Convolution"
  bottom: "fc7"
  top: "conv6_1"
  param {
    lr_mult: 1
    decay_mult: 1
  }
  param {
    lr_mult: 2
    decay_mult: 0
  }
  convolution_param {
    num_output: 256
    pad: 0
    kernel_size: 1
    stride: 1
    weight_filler {
      type: "xavier"
    }
    bias_filler {
      type: "constant"
      value: 0
    }
  }
}
layer {
  name: "conv6_1_relu"
  type: "ReLU"
  bottom: "conv6_1"
  top: "conv6_1"
}
layer {
  name: "conv6_2"
  type: "Convolution"
  bottom: "conv6_1"
  top: "conv6_2"
  param {
    lr_mult: 1
    decay_mult: 1
  }
  param {
    lr_mult: 2
    decay_mult: 0
  }
  convolution_param {
    num_output: 512
    pad: 1
    kernel_size: 3
    stride: 2
    weight_filler {
      type: "xavier"
    }
    bias_filler {
      type: "constant"
      value: 0
    }
  }
}
layer {
  name: "conv6_2_relu"
  type: "ReLU"
  bottom: "conv6_2"
  top: "conv6_2"
}
layer {
  name: "conv7_1"
  type: "Convolution"
  bottom: "conv6_2"
  top: "conv7_1"
  param {
    lr_mult: 1
    decay_mult: 1
  }
  param {
    lr_mult: 2
    decay_mult: 0
  }
  convolution_param {
    num_output: 128
    pad: 0
    kernel_size: 1
    stride: 1
    weight_filler {
      type: "xavier"
    }
    bias_filler {
      type: "constant"
      value: 0
    }
  }
}
layer {
  name: "conv7_1_relu"
  type: "ReLU"
  bottom: "conv7_1"
  top: "conv7_1"
}
layer {
  name: "conv7_2"
  type: "Convolution"
  bottom: "conv7_1"
  top: "conv7_2"
  param {
    lr_mult: 1
    decay_mult: 1
  }
  param {
    lr_mult: 2
    decay_mult: 0
  }
  convolution_param {
    num_output: 256
    pad: 1
    kernel_size: 3
    stride: 2
    weight_filler {
      type: "xavier"
    }
    bias_filler {
      type: "constant"
      value: 0
    }
  }
}
layer {
  name: "conv7_2_relu"
  type: "ReLU"
  bottom: "conv7_2"
  top: "conv7_2"
}
layer {
  name: "conv8_1"
  type: "Convolution"
  bottom: "conv7_2"
  top: "conv8_1"
  param {
    lr_mult: 1
    decay_mult: 1
  }
  param {
    lr_mult: 2
    decay_mult: 0
  }
  convolution_param {
    num_output: 128
    pad: 0
    kernel_size: 1
    stride: 1
    weight_filler {
      type: "xavier"
    }
    bias_filler {
      type: "constant"
      value: 0
    }
  }
}
layer {
  name: "conv8_1_relu"
  type: "ReLU"
  bottom: "conv8_1"
  top: "conv8_1"
}
layer {
  name: "conv8_2"
  type: "Convolution"
  bottom: "conv8_1"
  top: "conv8_2"
  param {
    lr_mult: 1
    decay_mult: 1
  }
  param {
    lr_mult: 2
    decay_mult: 0
  }
  convolution_param {
    num_output: 256
    pad: 0
    kernel_size: 3
    stride: 1
    weight_filler {
      type: "xavier"
    }
    bias_filler {
      type: "constant"
      value: 0
    }
  }
}
layer {
  name: "conv8_2_relu"
  type: "ReLU"
  bottom: "conv8_2"
  top: "conv8_2"
}
layer {
  name: "conv9_1"
  type: "Convolution"
  bottom: "conv8_2"
  top: "conv9_1"
  param {
    lr_mult: 1
    decay_mult: 1
  }
  param {
    lr_mult: 2
    decay_mult: 0
  }
  convolution_param {
    num_output: 128
    pad: 0
    kernel_size: 1
    stride: 1
    weight_filler {
      type: "xavier"
    }
    bias_filler {
      type: "constant"
      value: 0
    }
  }
}
layer {
  name: "conv9_1_relu"
  type: "ReLU"
  bottom: "conv9_1"
  top: "conv9_1"
}
layer {
  name: "conv9_2"
  type: "Convolution"
  bottom: "conv9_1"
  top: "conv9_2"
  param {
    lr_mult: 1
    decay_mult: 1
  }
  param {
    lr_mult: 2
    decay_mult: 0
  }
  convolution_param {
    num_output: 256
    pad: 0
    kernel_size: 3
    stride: 1
    weight_filler {
      type: "xavier"
    }
    bias_filler {
      type: "constant"
      value: 0
    }
  }
}
layer {
  name: "conv9_2_relu"
  type: "ReLU"
  bottom: "conv9_2"
  top: "conv9_2"
}
layer {
  name: "conv4_3_norm"
  type: "Normalize"
  bottom: "conv4_3"
  top: "conv4_3_norm"
  norm_param {
    across_spatial: false
    scale_filler {
      type: "constant"
      value: 20
    }
    channel_shared: false
  }
}
layer {
  name: "conv4_3_norm_mbox_loc"
  type: "Convolution"
  bottom: "conv4_3_norm"
  top: "conv4_3_norm_mbox_loc"
  param {
    lr_mult: 1
    decay_mult: 1
  }
  param {
    lr_mult: 2
    decay_mult: 0
  }
  convolution_param {
    num_output: 16
    pad: 1
    kernel_size: 3
    stride: 1
    weight_filler {
      type: "xavier"
    }
    bias_filler {
      type: "constant"
      value: 0
    }
  }
}
layer {
  name: "conv4_3_norm_mbox_loc_perm"
  type: "Permute"
  bottom: "conv4_3_norm_mbox_loc"
  top: "conv4_3_norm_mbox_loc_perm"
  permute_param {
    order: 0
    order: 2
    order: 3
    order: 1
  }
}
layer {
  name: "conv4_3_norm_mbox_loc_flat"
  type: "Flatten"
  bottom: "conv4_3_norm_mbox_loc_perm"
  top: "conv4_3_norm_mbox_loc_flat"
  flatten_param {
    axis: 1
  }
}
layer {
  name: "conv4_3_norm_mbox_conf"
  type: "Convolution"
  bottom: "conv4_3_norm"
  top: "conv4_3_norm_mbox_conf"
  param {
    lr_mult: 1
    decay_mult: 1
  }
  param {
    lr_mult: 2
    decay_mult: 0
  }
  convolution_param {
    num_output: 84
    pad: 1
    kernel_size: 3
    stride: 1
    weight_filler {
      type: "xavier"
    }
    bias_filler {
      type: "constant"
      value: 0
    }
  }
}
layer {
  name: "conv4_3_norm_mbox_conf_perm"
  type: "Permute"
  bottom: "conv4_3_norm_mbox_conf"
  top: "conv4_3_norm_mbox_conf_perm"
  permute_param {
    order: 0
    order: 2
    order: 3
    order: 1
  }
}
layer {
  name: "conv4_3_norm_mbox_conf_flat"
  type: "Flatten"
  bottom: "conv4_3_norm_mbox_conf_perm"
  top: "conv4_3_norm_mbox_conf_flat"
  flatten_param {
    axis: 1
  }
}
layer {
  name: "conv4_3_norm_mbox_priorbox"
  type: "PriorBox"
  bottom: "conv4_3_norm"
  bottom: "data"
  top: "conv4_3_norm_mbox_priorbox"
  prior_box_param {
    min_size: 21
    max_size: 45
    aspect_ratio: 2
    flip: true
    clip: false
    variance: 0.1
    variance: 0.1
    variance: 0.2
    variance: 0.2
    step: 8
    offset: 0.5
  }
}
layer {
  name: "fc7_mbox_loc"
  type: "Convolution"
  bottom: "fc7"
  top: "fc7_mbox_loc"
  param {
    lr_mult: 1
    decay_mult: 1
  }
  param {
    lr_mult: 2
    decay_mult: 0
  }
  convolution_param {
    num_output: 24
    pad: 1
    kernel_size: 3
    stride: 1
    weight_filler {
      type: "xavier"
    }
    bias_filler {
      type: "constant"
      value: 0
    }
  }
}
layer {
  name: "fc7_mbox_loc_perm"
  type: "Permute"
  bottom: "fc7_mbox_loc"
  top: "fc7_mbox_loc_perm"
  permute_param {
    order: 0
    order: 2
    order: 3
    order: 1
  }
}
layer {
  name: "fc7_mbox_loc_flat"
  type: "Flatten"
  bottom: "fc7_mbox_loc_perm"
  top: "fc7_mbox_loc_flat"
  flatten_param {
    axis: 1
  }
}
layer {
  name: "fc7_mbox_conf"
  type: "Convolution"
  bottom: "fc7"
  top: "fc7_mbox_conf"
  param {
    lr_mult: 1
    decay_mult: 1
  }
  param {
    lr_mult: 2
    decay_mult: 0
  }
  convolution_param {
    num_output: 126
    pad: 1
    kernel_size: 3
    stride: 1
    weight_filler {
      type: "xavier"
    }
    bias_filler {
      type: "constant"
      value: 0
    }
  }
}
layer {
  name: "fc7_mbox_conf_perm"
  type: "Permute"
  bottom: "fc7_mbox_conf"
  top: "fc7_mbox_conf_perm"
  permute_param {
    order: 0
    order: 2
    order: 3
    order: 1
  }
}
layer {
  name: "fc7_mbox_conf_flat"
  type: "Flatten"
  bottom: "fc7_mbox_conf_perm"
  top: "fc7_mbox_conf_flat"
  flatten_param {
    axis: 1
  }
}
layer {
  name: "fc7_mbox_priorbox"
  type: "PriorBox"
  bottom: "fc7"
  bottom: "data"
  top: "fc7_mbox_priorbox"
  prior_box_param {
    min_size: 45
    max_size: 99
    aspect_ratio: 2
    aspect_ratio: 3
    flip: true
    clip: false
    variance: 0.1
    variance: 0.1
    variance: 0.2
    variance: 0.2
    step: 16
    offset: 0.5
  }
}
layer {
  name: "conv6_2_mbox_loc"
  type: "Convolution"
  bottom: "conv6_2"
  top: "conv6_2_mbox_loc"
  param {
    lr_mult: 1
    decay_mult: 1
  }
  param {
    lr_mult: 2
    decay_mult: 0
  }
  convolution_param {
    num_output: 24
    pad: 1
    kernel_size: 3
    stride: 1
    weight_filler {
      type: "xavier"
    }
    bias_filler {
      type: "constant"
      value: 0
    }
  }
}
layer {
  name: "conv6_2_mbox_loc_perm"
  type: "Permute"
  bottom: "conv6_2_mbox_loc"
  top: "conv6_2_mbox_loc_perm"
  permute_param {
    order: 0
    order: 2
    order: 3
    order: 1
  }
}
layer {
  name: "conv6_2_mbox_loc_flat"
  type: "Flatten"
  bottom: "conv6_2_mbox_loc_perm"
  top: "conv6_2_mbox_loc_flat"
  flatten_param {
    axis: 1
  }
}
layer {
  name: "conv6_2_mbox_conf"
  type: "Convolution"
  bottom: "conv6_2"
  top: "conv6_2_mbox_conf"
  param {
    lr_mult: 1
    decay_mult: 1
  }
  param {
    lr_mult: 2
    decay_mult: 0
  }
  convolution_param {
    num_output: 126
    pad: 1
    kernel_size: 3
    stride: 1
    weight_filler {
      type: "xavier"
    }
    bias_filler {
      type: "constant"
      value: 0
    }
  }
}
layer {
  name: "conv6_2_mbox_conf_perm"
  type: "Permute"
  bottom: "conv6_2_mbox_conf"
  top: "conv6_2_mbox_conf_perm"
  permute_param {
    order: 0
    order: 2
    order: 3
    order: 1
  }
}
layer {
  name: "conv6_2_mbox_conf_flat"
  type: "Flatten"
  bottom: "conv6_2_mbox_conf_perm"
  top: "conv6_2_mbox_conf_flat"
  flatten_param {
    axis: 1
  }
}
layer {
  name: "conv6_2_mbox_priorbox"
  type: "PriorBox"
  bottom: "conv6_2"
  bottom: "data"
  top: "conv6_2_mbox_priorbox"
  prior_box_param {
    min_size: 99
    max_size: 153
    aspect_ratio: 2
    aspect_ratio: 3
    flip: true
    clip: false
    variance: 0.1
    variance: 0.1
    variance: 0.2
    variance: 0.2
    step: 32
    offset: 0.5
  }
}
layer {
  name: "conv7_2_mbox_loc"
  type: "Convolution"
  bottom: "conv7_2"
  top: "conv7_2_mbox_loc"
  param {
    lr_mult: 1
    decay_mult: 1
  }
  param {
    lr_mult: 2
    decay_mult: 0
  }
  convolution_param {
    num_output: 24
    pad: 1
    kernel_size: 3
    stride: 1
    weight_filler {
      type: "xavier"
    }
    bias_filler {
      type: "constant"
      value: 0
    }
  }
}
layer {
  name: "conv7_2_mbox_loc_perm"
  type: "Permute"
  bottom: "conv7_2_mbox_loc"
  top: "conv7_2_mbox_loc_perm"
  permute_param {
    order: 0
    order: 2
    order: 3
    order: 1
  }
}
layer {
  name: "conv7_2_mbox_loc_flat"
  type: "Flatten"
  bottom: "conv7_2_mbox_loc_perm"
  top: "conv7_2_mbox_loc_flat"
  flatten_param {
    axis: 1
  }
}
layer {
  name: "conv7_2_mbox_conf"
  type: "Convolution"
  bottom: "conv7_2"
  top: "conv7_2_mbox_conf"
  param {
    lr_mult: 1
    decay_mult: 1
  }
  param {
    lr_mult: 2
    decay_mult: 0
  }
  convolution_param {
    num_output: 126
    pad: 1
    kernel_size: 3
    stride: 1
    weight_filler {
      type: "xavier"
    }
    bias_filler {
      type: "constant"
      value: 0
    }
  }
}
layer {
  name: "conv7_2_mbox_conf_perm"
  type: "Permute"
  bottom: "conv7_2_mbox_conf"
  top: "conv7_2_mbox_conf_perm"
  permute_param {
    order: 0
    order: 2
    order: 3
    order: 1
  }
}
layer {
  name: "conv7_2_mbox_conf_flat"
  type: "Flatten"
  bottom: "conv7_2_mbox_conf_perm"
  top: "conv7_2_mbox_conf_flat"
  flatten_param {
    axis: 1
  }
}
layer {
  name: "conv7_2_mbox_priorbox"
  type: "PriorBox"
  bottom: "conv7_2"
  bottom: "data"
  top: "conv7_2_mbox_priorbox"
  prior_box_param {
    min_size: 153
    max_size: 207
    aspect_ratio: 2
    aspect_ratio: 3
    flip: true
    clip: false
    variance: 0.1
    variance: 0.1
    variance: 0.2
    variance: 0.2
    step: 64
    offset: 0.5
  }
}
layer {
  name: "conv8_2_mbox_loc"
  type: "Convolution"
  bottom: "conv8_2"
  top: "conv8_2_mbox_loc"
  param {
    lr_mult: 1
    decay_mult: 1
  }
  param {
    lr_mult: 2
    decay_mult: 0
  }
  convolution_param {
    num_output: 16
    pad: 1
    kernel_size: 3
    stride: 1
    weight_filler {
      type: "xavier"
    }
    bias_filler {
      type: "constant"
      value: 0
    }
  }
}
layer {
  name: "conv8_2_mbox_loc_perm"
  type: "Permute"
  bottom: "conv8_2_mbox_loc"
  top: "conv8_2_mbox_loc_perm"
  permute_param {
    order: 0
    order: 2
    order: 3
    order: 1
  }
}
layer {
  name: "conv8_2_mbox_loc_flat"
  type: "Flatten"
  bottom: "conv8_2_mbox_loc_perm"
  top: "conv8_2_mbox_loc_flat"
  flatten_param {
    axis: 1
  }
}
layer {
  name: "conv8_2_mbox_conf"
  type: "Convolution"
  bottom: "conv8_2"
  top: "conv8_2_mbox_conf"
  param {
    lr_mult: 1
    decay_mult: 1
  }
  param {
    lr_mult: 2
    decay_mult: 0
  }
  convolution_param {
    num_output: 84
    pad: 1
    kernel_size: 3
    stride: 1
    weight_filler {
      type: "xavier"
    }
    bias_filler {
      type: "constant"
      value: 0
    }
  }
}
layer {
  name: "conv8_2_mbox_conf_perm"
  type: "Permute"
  bottom: "conv8_2_mbox_conf"
  top: "conv8_2_mbox_conf_perm"
  permute_param {
    order: 0
    order: 2
    order: 3
    order: 1
  }
}
layer {
  name: "conv8_2_mbox_conf_flat"
  type: "Flatten"
  bottom: "conv8_2_mbox_conf_perm"
  top: "conv8_2_mbox_conf_flat"
  flatten_param {
    axis: 1
  }
}
layer {
  name: "conv8_2_mbox_priorbox"
  type: "PriorBox"
  bottom: "conv8_2"
  bottom: "data"
  top: "conv8_2_mbox_priorbox"
  prior_box_param {
    min_size: 207
    max_size: 261
    aspect_ratio: 2
    flip: true
    clip: false
    variance: 0.1
    variance: 0.1
    variance: 0.2
    variance: 0.2
    step: 100
    offset: 0.5
  }
}
layer {
  name: "conv9_2_mbox_loc"
  type: "Convolution"
  bottom: "conv9_2"
  top: "conv9_2_mbox_loc"
  param {
    lr_mult: 1
    decay_mult: 1
  }
  param {
    lr_mult: 2
    decay_mult: 0
  }
  convolution_param {
    num_output: 16
    pad: 1
    kernel_size: 3
    stride: 1
    weight_filler {
      type: "xavier"
    }
    bias_filler {
      type: "constant"
      value: 0
    }
  }
}
layer {
  name: "conv9_2_mbox_loc_perm"
  type: "Permute"
  bottom: "conv9_2_mbox_loc"
  top: "conv9_2_mbox_loc_perm"
  permute_param {
    order: 0
    order: 2
    order: 3
    order: 1
  }
}
layer {
  name: "conv9_2_mbox_loc_flat"
  type: "Flatten"
  bottom: "conv9_2_mbox_loc_perm"
  top: "conv9_2_mbox_loc_flat"
  flatten_param {
    axis: 1
  }
}
layer {
  name: "conv9_2_mbox_conf"
  type: "Convolution"
  bottom: "conv9_2"
  top: "conv9_2_mbox_conf"
  param {
    lr_mult: 1
    decay_mult: 1
  }
  param {
    lr_mult: 2
    decay_mult: 0
  }
  convolution_param {
    num_output: 84
    pad: 1
    kernel_size: 3
    stride: 1
    weight_filler {
      type: "xavier"
    }
    bias_filler {
      type: "constant"
      value: 0
    }
  }
}
layer {
  name: "conv9_2_mbox_conf_perm"
  type: "Permute"
  bottom: "conv9_2_mbox_conf"
  top: "conv9_2_mbox_conf_perm"
  permute_param {
    order: 0
    order: 2
    order: 3
    order: 1
  }
}
layer {
  name: "conv9_2_mbox_conf_flat"
  type: "Flatten"
  bottom: "conv9_2_mbox_conf_perm"
  top: "conv9_2_mbox_conf_flat"
  flatten_param {
    axis: 1
  }
}
layer {
  name: "conv9_2_mbox_priorbox"
  type: "PriorBox"
  bottom: "conv9_2"
  bottom: "data"
  top: "conv9_2_mbox_priorbox"
  prior_box_param {
    min_size: 261
    max_size: 315
    aspect_ratio: 2
    flip: true
    clip: false
    variance: 0.1
    variance: 0.1
    variance: 0.2
    variance: 0.2
    step: 300
    offset: 0.5
  }
}
layer {
  name: "mbox_loc"
  type: "Concat"
  bottom: "conv4_3_norm_mbox_loc_flat"
  bottom: "fc7_mbox_loc_flat"
  bottom: "conv6_2_mbox_loc_flat"
  bottom: "conv7_2_mbox_loc_flat"
  bottom: "conv8_2_mbox_loc_flat"
  bottom: "conv9_2_mbox_loc_flat"
  top: "mbox_loc"
  concat_param {
    axis: 1
  }
}
layer {
  name: "mbox_conf"
  type: "Concat"
  bottom: "conv4_3_norm_mbox_conf_flat"
  bottom: "fc7_mbox_conf_flat"
  bottom: "conv6_2_mbox_conf_flat"
  bottom: "conv7_2_mbox_conf_flat"
  bottom: "conv8_2_mbox_conf_flat"
  bottom: "conv9_2_mbox_conf_flat"
  top: "mbox_conf"
  concat_param {
    axis: 1
  }
}
layer {
  name: "mbox_priorbox"
  type: "Concat"
  bottom: "conv4_3_norm_mbox_priorbox"
  bottom: "fc7_mbox_priorbox"
  bottom: "conv6_2_mbox_priorbox"
  bottom: "conv7_2_mbox_priorbox"
  bottom: "conv8_2_mbox_priorbox"
  bottom: "conv9_2_mbox_priorbox"
  top: "mbox_priorbox"
  concat_param {
    axis: 2
  }
}
layer {
  name: "mbox_loss"
  type: "MultiBoxLoss"
  bottom: "mbox_loc"
  bottom: "mbox_conf"
  bottom: "mbox_priorbox"
  bottom: "label"
  top: "mbox_loss"
  include {
    phase: TRAIN
  }
  propagate_down: true
  propagate_down: true
  propagate_down: false
  propagate_down: false
  loss_param {
    normalization: VALID
  }
  multibox_loss_param {
    loc_loss_type: SMOOTH_L1
    conf_loss_type: SOFTMAX
    loc_weight: 1
    num_classes: 21
    share_location: true
    match_type: PER_PREDICTION
    overlap_threshold: 0.5
    use_prior_for_matching: true
    background_label_id: 0
    use_difficult_gt: true
    neg_pos_ratio: 3
    neg_overlap: 0.5
    code_type: CENTER_SIZE
    ignore_cross_boundary_bbox: false
    mining_type: MAX_NEGATIVE
  }
}
I1031 13:10:03.127118 29889 layer_factory.hpp:77] Creating layer data
I1031 13:10:03.127799 29889 net.cpp:100] Creating Layer data
I1031 13:10:03.127830 29889 net.cpp:452] data -> data
I1031 13:10:03.127894 29889 net.cpp:452] data -> label
I1031 13:10:03.131896 29935 db_lmdb.cpp:35] Opened lmdb examples/VOC0712/VOC0712_trainval_lmdb
I1031 13:10:03.148743 29889 annotated_data_layer.cpp:62] output data size: 1,3,300,300
I1031 13:10:03.156277 29889 net.cpp:150] Setting up data
I1031 13:10:03.156340 29889 net.cpp:157] Top shape: 1 3 300 300 (270000)
I1031 13:10:03.156360 29889 net.cpp:157] Top shape: 1 1 1 8 (8)
I1031 13:10:03.156363 29889 net.cpp:165] Memory required for data: 1080032
I1031 13:10:03.156369 29889 layer_factory.hpp:77] Creating layer data_data_0_split
I1031 13:10:03.156379 29889 net.cpp:100] Creating Layer data_data_0_split
I1031 13:10:03.156383 29889 net.cpp:478] data_data_0_split <- data
I1031 13:10:03.156395 29889 net.cpp:452] data_data_0_split -> data_data_0_split_0
I1031 13:10:03.156419 29889 net.cpp:452] data_data_0_split -> data_data_0_split_1
I1031 13:10:03.156447 29889 net.cpp:452] data_data_0_split -> data_data_0_split_2
I1031 13:10:03.156455 29889 net.cpp:452] data_data_0_split -> data_data_0_split_3
I1031 13:10:03.156461 29889 net.cpp:452] data_data_0_split -> data_data_0_split_4
I1031 13:10:03.156466 29889 net.cpp:452] data_data_0_split -> data_data_0_split_5
I1031 13:10:03.156469 29889 net.cpp:452] data_data_0_split -> data_data_0_split_6
I1031 13:10:03.156710 29889 net.cpp:150] Setting up data_data_0_split
I1031 13:10:03.156724 29889 net.cpp:157] Top shape: 1 3 300 300 (270000)
I1031 13:10:03.156728 29889 net.cpp:157] Top shape: 1 3 300 300 (270000)
I1031 13:10:03.156746 29889 net.cpp:157] Top shape: 1 3 300 300 (270000)
I1031 13:10:03.156749 29889 net.cpp:157] Top shape: 1 3 300 300 (270000)
I1031 13:10:03.156756 29889 net.cpp:157] Top shape: 1 3 300 300 (270000)
I1031 13:10:03.156759 29889 net.cpp:157] Top shape: 1 3 300 300 (270000)
I1031 13:10:03.156762 29889 net.cpp:157] Top shape: 1 3 300 300 (270000)
I1031 13:10:03.156764 29889 net.cpp:165] Memory required for data: 8640032
I1031 13:10:03.156767 29889 layer_factory.hpp:77] Creating layer conv1_1
I1031 13:10:03.156812 29889 net.cpp:100] Creating Layer conv1_1
I1031 13:10:03.156821 29889 net.cpp:478] conv1_1 <- data_data_0_split_0
I1031 13:10:03.156829 29889 net.cpp:452] conv1_1 -> conv1_1
I1031 13:10:03.161377 29889 net.cpp:150] Setting up conv1_1
I1031 13:10:03.161399 29889 net.cpp:157] Top shape: 1 64 300 300 (5760000)
I1031 13:10:03.161402 29889 net.cpp:165] Memory required for data: 31680032
I1031 13:10:03.161434 29889 layer_factory.hpp:77] Creating layer relu1_1
I1031 13:10:03.161456 29889 net.cpp:100] Creating Layer relu1_1
I1031 13:10:03.161459 29889 net.cpp:478] relu1_1 <- conv1_1
I1031 13:10:03.161480 29889 net.cpp:439] relu1_1 -> conv1_1 (in-place)
I1031 13:10:03.161487 29889 net.cpp:150] Setting up relu1_1
I1031 13:10:03.161491 29889 net.cpp:157] Top shape: 1 64 300 300 (5760000)
I1031 13:10:03.161494 29889 net.cpp:165] Memory required for data: 54720032
I1031 13:10:03.161495 29889 layer_factory.hpp:77] Creating layer conv1_2
I1031 13:10:03.161505 29889 net.cpp:100] Creating Layer conv1_2
I1031 13:10:03.161531 29889 net.cpp:478] conv1_2 <- conv1_1
I1031 13:10:03.161536 29889 net.cpp:452] conv1_2 -> conv1_2
I1031 13:10:03.163091 29889 net.cpp:150] Setting up conv1_2
I1031 13:10:03.163110 29889 net.cpp:157] Top shape: 1 64 300 300 (5760000)
I1031 13:10:03.163115 29889 net.cpp:165] Memory required for data: 77760032
I1031 13:10:03.163136 29889 layer_factory.hpp:77] Creating layer relu1_2
I1031 13:10:03.163142 29889 net.cpp:100] Creating Layer relu1_2
I1031 13:10:03.163146 29889 net.cpp:478] relu1_2 <- conv1_2
I1031 13:10:03.163152 29889 net.cpp:439] relu1_2 -> conv1_2 (in-place)
I1031 13:10:03.163174 29889 net.cpp:150] Setting up relu1_2
I1031 13:10:03.163178 29889 net.cpp:157] Top shape: 1 64 300 300 (5760000)
I1031 13:10:03.163182 29889 net.cpp:165] Memory required for data: 100800032
I1031 13:10:03.163183 29889 layer_factory.hpp:77] Creating layer pool1
I1031 13:10:03.163187 29889 net.cpp:100] Creating Layer pool1
I1031 13:10:03.163195 29889 net.cpp:478] pool1 <- conv1_2
I1031 13:10:03.163199 29889 net.cpp:452] pool1 -> pool1
I1031 13:10:03.163244 29889 net.cpp:150] Setting up pool1
I1031 13:10:03.163252 29889 net.cpp:157] Top shape: 1 64 150 150 (1440000)
I1031 13:10:03.163255 29889 net.cpp:165] Memory required for data: 106560032
I1031 13:10:03.163257 29889 layer_factory.hpp:77] Creating layer conv2_1
I1031 13:10:03.163281 29889 net.cpp:100] Creating Layer conv2_1
I1031 13:10:03.163287 29889 net.cpp:478] conv2_1 <- pool1
I1031 13:10:03.163293 29889 net.cpp:452] conv2_1 -> conv2_1
I1031 13:10:03.163868 29889 net.cpp:150] Setting up conv2_1
I1031 13:10:03.163883 29889 net.cpp:157] Top shape: 1 128 150 150 (2880000)
I1031 13:10:03.163887 29889 net.cpp:165] Memory required for data: 118080032
I1031 13:10:03.163893 29889 layer_factory.hpp:77] Creating layer relu2_1
I1031 13:10:03.163902 29889 net.cpp:100] Creating Layer relu2_1
I1031 13:10:03.163904 29889 net.cpp:478] relu2_1 <- conv2_1
I1031 13:10:03.163908 29889 net.cpp:439] relu2_1 -> conv2_1 (in-place)
I1031 13:10:03.163913 29889 net.cpp:150] Setting up relu2_1
I1031 13:10:03.163916 29889 net.cpp:157] Top shape: 1 128 150 150 (2880000)
I1031 13:10:03.163918 29889 net.cpp:165] Memory required for data: 129600032
I1031 13:10:03.163920 29889 layer_factory.hpp:77] Creating layer conv2_2
I1031 13:10:03.163929 29889 net.cpp:100] Creating Layer conv2_2
I1031 13:10:03.163952 29889 net.cpp:478] conv2_2 <- conv2_1
I1031 13:10:03.163957 29889 net.cpp:452] conv2_2 -> conv2_2
I1031 13:10:03.166234 29889 net.cpp:150] Setting up conv2_2
I1031 13:10:03.166254 29889 net.cpp:157] Top shape: 1 128 150 150 (2880000)
I1031 13:10:03.166257 29889 net.cpp:165] Memory required for data: 141120032
I1031 13:10:03.166262 29889 layer_factory.hpp:77] Creating layer relu2_2
I1031 13:10:03.166270 29889 net.cpp:100] Creating Layer relu2_2
I1031 13:10:03.166292 29889 net.cpp:478] relu2_2 <- conv2_2
I1031 13:10:03.166297 29889 net.cpp:439] relu2_2 -> conv2_2 (in-place)
I1031 13:10:03.166306 29889 net.cpp:150] Setting up relu2_2
I1031 13:10:03.166311 29889 net.cpp:157] Top shape: 1 128 150 150 (2880000)
I1031 13:10:03.166316 29889 net.cpp:165] Memory required for data: 152640032
I1031 13:10:03.166319 29889 layer_factory.hpp:77] Creating layer pool2
I1031 13:10:03.166326 29889 net.cpp:100] Creating Layer pool2
I1031 13:10:03.166329 29889 net.cpp:478] pool2 <- conv2_2
I1031 13:10:03.166333 29889 net.cpp:452] pool2 -> pool2
I1031 13:10:03.166370 29889 net.cpp:150] Setting up pool2
I1031 13:10:03.166379 29889 net.cpp:157] Top shape: 1 128 75 75 (720000)
I1031 13:10:03.166383 29889 net.cpp:165] Memory required for data: 155520032
I1031 13:10:03.166384 29889 layer_factory.hpp:77] Creating layer conv3_1
I1031 13:10:03.166396 29889 net.cpp:100] Creating Layer conv3_1
I1031 13:10:03.166401 29889 net.cpp:478] conv3_1 <- pool2
I1031 13:10:03.166409 29889 net.cpp:452] conv3_1 -> conv3_1
I1031 13:10:03.170451 29889 net.cpp:150] Setting up conv3_1
I1031 13:10:03.170475 29889 net.cpp:157] Top shape: 1 256 75 75 (1440000)
I1031 13:10:03.170478 29889 net.cpp:165] Memory required for data: 161280032
I1031 13:10:03.170488 29889 layer_factory.hpp:77] Creating layer relu3_1
I1031 13:10:03.170496 29889 net.cpp:100] Creating Layer relu3_1
I1031 13:10:03.170500 29889 net.cpp:478] relu3_1 <- conv3_1
I1031 13:10:03.170505 29889 net.cpp:439] relu3_1 -> conv3_1 (in-place)
I1031 13:10:03.170511 29889 net.cpp:150] Setting up relu3_1
I1031 13:10:03.170521 29889 net.cpp:157] Top shape: 1 256 75 75 (1440000)
I1031 13:10:03.170522 29889 net.cpp:165] Memory required for data: 167040032
I1031 13:10:03.170526 29889 layer_factory.hpp:77] Creating layer conv3_2
I1031 13:10:03.170534 29889 net.cpp:100] Creating Layer conv3_2
I1031 13:10:03.170539 29889 net.cpp:478] conv3_2 <- conv3_1
I1031 13:10:03.170545 29889 net.cpp:452] conv3_2 -> conv3_2
I1031 13:10:03.175523 29889 net.cpp:150] Setting up conv3_2
I1031 13:10:03.175544 29889 net.cpp:157] Top shape: 1 256 75 75 (1440000)
I1031 13:10:03.175546 29889 net.cpp:165] Memory required for data: 172800032
I1031 13:10:03.175552 29889 layer_factory.hpp:77] Creating layer relu3_2
I1031 13:10:03.175559 29889 net.cpp:100] Creating Layer relu3_2
I1031 13:10:03.175562 29889 net.cpp:478] relu3_2 <- conv3_2
I1031 13:10:03.175567 29889 net.cpp:439] relu3_2 -> conv3_2 (in-place)
I1031 13:10:03.175572 29889 net.cpp:150] Setting up relu3_2
I1031 13:10:03.175576 29889 net.cpp:157] Top shape: 1 256 75 75 (1440000)
I1031 13:10:03.175590 29889 net.cpp:165] Memory required for data: 178560032
I1031 13:10:03.175593 29889 layer_factory.hpp:77] Creating layer conv3_3
I1031 13:10:03.175606 29889 net.cpp:100] Creating Layer conv3_3
I1031 13:10:03.175608 29889 net.cpp:478] conv3_3 <- conv3_2
I1031 13:10:03.175613 29889 net.cpp:452] conv3_3 -> conv3_3
I1031 13:10:03.180624 29889 net.cpp:150] Setting up conv3_3
I1031 13:10:03.180644 29889 net.cpp:157] Top shape: 1 256 75 75 (1440000)
I1031 13:10:03.180647 29889 net.cpp:165] Memory required for data: 184320032
I1031 13:10:03.180654 29889 layer_factory.hpp:77] Creating layer relu3_3
I1031 13:10:03.180658 29889 net.cpp:100] Creating Layer relu3_3
I1031 13:10:03.180661 29889 net.cpp:478] relu3_3 <- conv3_3
I1031 13:10:03.180665 29889 net.cpp:439] relu3_3 -> conv3_3 (in-place)
I1031 13:10:03.180671 29889 net.cpp:150] Setting up relu3_3
I1031 13:10:03.180675 29889 net.cpp:157] Top shape: 1 256 75 75 (1440000)
I1031 13:10:03.180677 29889 net.cpp:165] Memory required for data: 190080032
I1031 13:10:03.180680 29889 layer_factory.hpp:77] Creating layer pool3
I1031 13:10:03.180685 29889 net.cpp:100] Creating Layer pool3
I1031 13:10:03.180688 29889 net.cpp:478] pool3 <- conv3_3
I1031 13:10:03.180692 29889 net.cpp:452] pool3 -> pool3
I1031 13:10:03.180730 29889 net.cpp:150] Setting up pool3
I1031 13:10:03.180737 29889 net.cpp:157] Top shape: 1 256 38 38 (369664)
I1031 13:10:03.180739 29889 net.cpp:165] Memory required for data: 191558688
I1031 13:10:03.180742 29889 layer_factory.hpp:77] Creating layer conv4_1
I1031 13:10:03.180749 29889 net.cpp:100] Creating Layer conv4_1
I1031 13:10:03.180776 29889 net.cpp:478] conv4_1 <- pool3
I1031 13:10:03.180786 29889 net.cpp:452] conv4_1 -> conv4_1
I1031 13:10:03.191164 29889 net.cpp:150] Setting up conv4_1
I1031 13:10:03.191184 29889 net.cpp:157] Top shape: 1 512 38 38 (739328)
I1031 13:10:03.191186 29889 net.cpp:165] Memory required for data: 194516000
I1031 13:10:03.191207 29889 layer_factory.hpp:77] Creating layer relu4_1
I1031 13:10:03.191238 29889 net.cpp:100] Creating Layer relu4_1
I1031 13:10:03.191242 29889 net.cpp:478] relu4_1 <- conv4_1
I1031 13:10:03.191262 29889 net.cpp:439] relu4_1 -> conv4_1 (in-place)
I1031 13:10:03.191268 29889 net.cpp:150] Setting up relu4_1
I1031 13:10:03.191294 29889 net.cpp:157] Top shape: 1 512 38 38 (739328)
I1031 13:10:03.191313 29889 net.cpp:165] Memory required for data: 197473312
I1031 13:10:03.191315 29889 layer_factory.hpp:77] Creating layer conv4_2
I1031 13:10:03.191328 29889 net.cpp:100] Creating Layer conv4_2
I1031 13:10:03.191332 29889 net.cpp:478] conv4_2 <- conv4_1
I1031 13:10:03.191339 29889 net.cpp:452] conv4_2 -> conv4_2
I1031 13:10:03.207844 29889 net.cpp:150] Setting up conv4_2
I1031 13:10:03.207862 29889 net.cpp:157] Top shape: 1 512 38 38 (739328)
I1031 13:10:03.207865 29889 net.cpp:165] Memory required for data: 200430624
I1031 13:10:03.207875 29889 layer_factory.hpp:77] Creating layer relu4_2
I1031 13:10:03.207881 29889 net.cpp:100] Creating Layer relu4_2
I1031 13:10:03.207885 29889 net.cpp:478] relu4_2 <- conv4_2
I1031 13:10:03.207888 29889 net.cpp:439] relu4_2 -> conv4_2 (in-place)
I1031 13:10:03.207895 29889 net.cpp:150] Setting up relu4_2
I1031 13:10:03.207897 29889 net.cpp:157] Top shape: 1 512 38 38 (739328)
I1031 13:10:03.207904 29889 net.cpp:165] Memory required for data: 203387936
I1031 13:10:03.207907 29889 layer_factory.hpp:77] Creating layer conv4_3
I1031 13:10:03.207916 29889 net.cpp:100] Creating Layer conv4_3
I1031 13:10:03.207921 29889 net.cpp:478] conv4_3 <- conv4_2
I1031 13:10:03.207924 29889 net.cpp:452] conv4_3 -> conv4_3
I1031 13:10:03.225199 29889 net.cpp:150] Setting up conv4_3
I1031 13:10:03.225219 29889 net.cpp:157] Top shape: 1 512 38 38 (739328)
I1031 13:10:03.225222 29889 net.cpp:165] Memory required for data: 206345248
I1031 13:10:03.225227 29889 layer_factory.hpp:77] Creating layer relu4_3
I1031 13:10:03.225234 29889 net.cpp:100] Creating Layer relu4_3
I1031 13:10:03.225236 29889 net.cpp:478] relu4_3 <- conv4_3
I1031 13:10:03.225242 29889 net.cpp:439] relu4_3 -> conv4_3 (in-place)
I1031 13:10:03.225261 29889 net.cpp:150] Setting up relu4_3
I1031 13:10:03.225265 29889 net.cpp:157] Top shape: 1 512 38 38 (739328)
I1031 13:10:03.225267 29889 net.cpp:165] Memory required for data: 209302560
I1031 13:10:03.225270 29889 layer_factory.hpp:77] Creating layer conv4_3_relu4_3_0_split
I1031 13:10:03.225275 29889 net.cpp:100] Creating Layer conv4_3_relu4_3_0_split
I1031 13:10:03.225278 29889 net.cpp:478] conv4_3_relu4_3_0_split <- conv4_3
I1031 13:10:03.225286 29889 net.cpp:452] conv4_3_relu4_3_0_split -> conv4_3_relu4_3_0_split_0
I1031 13:10:03.225306 29889 net.cpp:452] conv4_3_relu4_3_0_split -> conv4_3_relu4_3_0_split_1
I1031 13:10:03.225340 29889 net.cpp:150] Setting up conv4_3_relu4_3_0_split
I1031 13:10:03.225345 29889 net.cpp:157] Top shape: 1 512 38 38 (739328)
I1031 13:10:03.225348 29889 net.cpp:157] Top shape: 1 512 38 38 (739328)
I1031 13:10:03.225350 29889 net.cpp:165] Memory required for data: 215217184
I1031 13:10:03.225353 29889 layer_factory.hpp:77] Creating layer pool4
I1031 13:10:03.225358 29889 net.cpp:100] Creating Layer pool4
I1031 13:10:03.225375 29889 net.cpp:478] pool4 <- conv4_3_relu4_3_0_split_0
I1031 13:10:03.225381 29889 net.cpp:452] pool4 -> pool4
I1031 13:10:03.225419 29889 net.cpp:150] Setting up pool4
I1031 13:10:03.225425 29889 net.cpp:157] Top shape: 1 512 19 19 (184832)
I1031 13:10:03.225426 29889 net.cpp:165] Memory required for data: 215956512
I1031 13:10:03.225428 29889 layer_factory.hpp:77] Creating layer conv5_1
I1031 13:10:03.225440 29889 net.cpp:100] Creating Layer conv5_1
I1031 13:10:03.225446 29889 net.cpp:478] conv5_1 <- pool4
I1031 13:10:03.225451 29889 net.cpp:452] conv5_1 -> conv5_1
I1031 13:10:03.241291 29889 net.cpp:150] Setting up conv5_1
I1031 13:10:03.241309 29889 net.cpp:157] Top shape: 1 512 19 19 (184832)
I1031 13:10:03.241312 29889 net.cpp:165] Memory required for data: 216695840
I1031 13:10:03.241318 29889 layer_factory.hpp:77] Creating layer relu5_1
I1031 13:10:03.241323 29889 net.cpp:100] Creating Layer relu5_1
I1031 13:10:03.241327 29889 net.cpp:478] relu5_1 <- conv5_1
I1031 13:10:03.241330 29889 net.cpp:439] relu5_1 -> conv5_1 (in-place)
I1031 13:10:03.241336 29889 net.cpp:150] Setting up relu5_1
I1031 13:10:03.241339 29889 net.cpp:157] Top shape: 1 512 19 19 (184832)
I1031 13:10:03.241341 29889 net.cpp:165] Memory required for data: 217435168
I1031 13:10:03.241343 29889 layer_factory.hpp:77] Creating layer conv5_2
I1031 13:10:03.241353 29889 net.cpp:100] Creating Layer conv5_2
I1031 13:10:03.241354 29889 net.cpp:478] conv5_2 <- conv5_1
I1031 13:10:03.241360 29889 net.cpp:452] conv5_2 -> conv5_2
I1031 13:10:03.257877 29889 net.cpp:150] Setting up conv5_2
I1031 13:10:03.257912 29889 net.cpp:157] Top shape: 1 512 19 19 (184832)
I1031 13:10:03.257915 29889 net.cpp:165] Memory required for data: 218174496
I1031 13:10:03.257972 29889 layer_factory.hpp:77] Creating layer relu5_2
I1031 13:10:03.257977 29889 net.cpp:100] Creating Layer relu5_2
I1031 13:10:03.257980 29889 net.cpp:478] relu5_2 <- conv5_2
I1031 13:10:03.257985 29889 net.cpp:439] relu5_2 -> conv5_2 (in-place)
I1031 13:10:03.258011 29889 net.cpp:150] Setting up relu5_2
I1031 13:10:03.258015 29889 net.cpp:157] Top shape: 1 512 19 19 (184832)
I1031 13:10:03.258018 29889 net.cpp:165] Memory required for data: 218913824
I1031 13:10:03.258021 29889 layer_factory.hpp:77] Creating layer conv5_3
I1031 13:10:03.258036 29889 net.cpp:100] Creating Layer conv5_3
I1031 13:10:03.258044 29889 net.cpp:478] conv5_3 <- conv5_2
I1031 13:10:03.258049 29889 net.cpp:452] conv5_3 -> conv5_3
I1031 13:10:03.274181 29889 net.cpp:150] Setting up conv5_3
I1031 13:10:03.274199 29889 net.cpp:157] Top shape: 1 512 19 19 (184832)
I1031 13:10:03.274202 29889 net.cpp:165] Memory required for data: 219653152
I1031 13:10:03.274222 29889 layer_factory.hpp:77] Creating layer relu5_3
I1031 13:10:03.274235 29889 net.cpp:100] Creating Layer relu5_3
I1031 13:10:03.274238 29889 net.cpp:478] relu5_3 <- conv5_3
I1031 13:10:03.274242 29889 net.cpp:439] relu5_3 -> conv5_3 (in-place)
I1031 13:10:03.274247 29889 net.cpp:150] Setting up relu5_3
I1031 13:10:03.274268 29889 net.cpp:157] Top shape: 1 512 19 19 (184832)
I1031 13:10:03.274271 29889 net.cpp:165] Memory required for data: 220392480
I1031 13:10:03.274273 29889 layer_factory.hpp:77] Creating layer pool5
I1031 13:10:03.274292 29889 net.cpp:100] Creating Layer pool5
I1031 13:10:03.274294 29889 net.cpp:478] pool5 <- conv5_3
I1031 13:10:03.274298 29889 net.cpp:452] pool5 -> pool5
I1031 13:10:03.274333 29889 net.cpp:150] Setting up pool5
I1031 13:10:03.274341 29889 net.cpp:157] Top shape: 1 512 19 19 (184832)
I1031 13:10:03.274343 29889 net.cpp:165] Memory required for data: 221131808
I1031 13:10:03.274345 29889 layer_factory.hpp:77] Creating layer fc6
I1031 13:10:03.274359 29889 net.cpp:100] Creating Layer fc6
I1031 13:10:03.274364 29889 net.cpp:478] fc6 <- pool5
I1031 13:10:03.274370 29889 net.cpp:452] fc6 -> fc6
I1031 13:10:03.307633 29889 net.cpp:150] Setting up fc6
I1031 13:10:03.307652 29889 net.cpp:157] Top shape: 1 1024 19 19 (369664)
I1031 13:10:03.307656 29889 net.cpp:165] Memory required for data: 222610464
I1031 13:10:03.307660 29889 layer_factory.hpp:77] Creating layer relu6
I1031 13:10:03.307668 29889 net.cpp:100] Creating Layer relu6
I1031 13:10:03.307672 29889 net.cpp:478] relu6 <- fc6
I1031 13:10:03.307675 29889 net.cpp:439] relu6 -> fc6 (in-place)
I1031 13:10:03.307680 29889 net.cpp:150] Setting up relu6
I1031 13:10:03.307684 29889 net.cpp:157] Top shape: 1 1024 19 19 (369664)
I1031 13:10:03.307687 29889 net.cpp:165] Memory required for data: 224089120
I1031 13:10:03.307688 29889 layer_factory.hpp:77] Creating layer fc7
I1031 13:10:03.307695 29889 net.cpp:100] Creating Layer fc7
I1031 13:10:03.307698 29889 net.cpp:478] fc7 <- fc6
I1031 13:10:03.307703 29889 net.cpp:452] fc7 -> fc7
I1031 13:10:03.315410 29889 net.cpp:150] Setting up fc7
I1031 13:10:03.315428 29889 net.cpp:157] Top shape: 1 1024 19 19 (369664)
I1031 13:10:03.315431 29889 net.cpp:165] Memory required for data: 225567776
I1031 13:10:03.315436 29889 layer_factory.hpp:77] Creating layer relu7
I1031 13:10:03.315444 29889 net.cpp:100] Creating Layer relu7
I1031 13:10:03.315448 29889 net.cpp:478] relu7 <- fc7
I1031 13:10:03.315451 29889 net.cpp:439] relu7 -> fc7 (in-place)
I1031 13:10:03.315456 29889 net.cpp:150] Setting up relu7
I1031 13:10:03.315460 29889 net.cpp:157] Top shape: 1 1024 19 19 (369664)
I1031 13:10:03.315462 29889 net.cpp:165] Memory required for data: 227046432
I1031 13:10:03.315464 29889 layer_factory.hpp:77] Creating layer fc7_relu7_0_split
I1031 13:10:03.315469 29889 net.cpp:100] Creating Layer fc7_relu7_0_split
I1031 13:10:03.315476 29889 net.cpp:478] fc7_relu7_0_split <- fc7
I1031 13:10:03.315481 29889 net.cpp:452] fc7_relu7_0_split -> fc7_relu7_0_split_0
I1031 13:10:03.315487 29889 net.cpp:452] fc7_relu7_0_split -> fc7_relu7_0_split_1
I1031 13:10:03.315502 29889 net.cpp:452] fc7_relu7_0_split -> fc7_relu7_0_split_2
I1031 13:10:03.315510 29889 net.cpp:452] fc7_relu7_0_split -> fc7_relu7_0_split_3
I1031 13:10:03.315558 29889 net.cpp:150] Setting up fc7_relu7_0_split
I1031 13:10:03.315568 29889 net.cpp:157] Top shape: 1 1024 19 19 (369664)
I1031 13:10:03.315572 29889 net.cpp:157] Top shape: 1 1024 19 19 (369664)
I1031 13:10:03.315575 29889 net.cpp:157] Top shape: 1 1024 19 19 (369664)
I1031 13:10:03.315577 29889 net.cpp:157] Top shape: 1 1024 19 19 (369664)
I1031 13:10:03.315579 29889 net.cpp:165] Memory required for data: 232961056
I1031 13:10:03.315582 29889 layer_factory.hpp:77] Creating layer conv6_1
I1031 13:10:03.315594 29889 net.cpp:100] Creating Layer conv6_1
I1031 13:10:03.315598 29889 net.cpp:478] conv6_1 <- fc7_relu7_0_split_0
I1031 13:10:03.315605 29889 net.cpp:452] conv6_1 -> conv6_1
I1031 13:10:03.318121 29889 net.cpp:150] Setting up conv6_1
I1031 13:10:03.318141 29889 net.cpp:157] Top shape: 1 256 19 19 (92416)
I1031 13:10:03.318145 29889 net.cpp:165] Memory required for data: 233330720
I1031 13:10:03.318150 29889 layer_factory.hpp:77] Creating layer conv6_1_relu
I1031 13:10:03.318156 29889 net.cpp:100] Creating Layer conv6_1_relu
I1031 13:10:03.318176 29889 net.cpp:478] conv6_1_relu <- conv6_1
I1031 13:10:03.318209 29889 net.cpp:439] conv6_1_relu -> conv6_1 (in-place)
I1031 13:10:03.318217 29889 net.cpp:150] Setting up conv6_1_relu
I1031 13:10:03.318222 29889 net.cpp:157] Top shape: 1 256 19 19 (92416)
I1031 13:10:03.318225 29889 net.cpp:165] Memory required for data: 233700384
I1031 13:10:03.318243 29889 layer_factory.hpp:77] Creating layer conv6_2
I1031 13:10:03.318251 29889 net.cpp:100] Creating Layer conv6_2
I1031 13:10:03.318256 29889 net.cpp:478] conv6_2 <- conv6_1
I1031 13:10:03.318262 29889 net.cpp:452] conv6_2 -> conv6_2
I1031 13:10:03.326680 29889 net.cpp:150] Setting up conv6_2
I1031 13:10:03.326699 29889 net.cpp:157] Top shape: 1 512 10 10 (51200)
I1031 13:10:03.326701 29889 net.cpp:165] Memory required for data: 233905184
I1031 13:10:03.326714 29889 layer_factory.hpp:77] Creating layer conv6_2_relu
I1031 13:10:03.326719 29889 net.cpp:100] Creating Layer conv6_2_relu
I1031 13:10:03.326722 29889 net.cpp:478] conv6_2_relu <- conv6_2
I1031 13:10:03.326725 29889 net.cpp:439] conv6_2_relu -> conv6_2 (in-place)
I1031 13:10:03.326745 29889 net.cpp:150] Setting up conv6_2_relu
I1031 13:10:03.326750 29889 net.cpp:157] Top shape: 1 512 10 10 (51200)
I1031 13:10:03.326750 29889 net.cpp:165] Memory required for data: 234109984
I1031 13:10:03.326753 29889 layer_factory.hpp:77] Creating layer conv6_2_conv6_2_relu_0_split
I1031 13:10:03.326757 29889 net.cpp:100] Creating Layer conv6_2_conv6_2_relu_0_split
I1031 13:10:03.326759 29889 net.cpp:478] conv6_2_conv6_2_relu_0_split <- conv6_2
I1031 13:10:03.326764 29889 net.cpp:452] conv6_2_conv6_2_relu_0_split -> conv6_2_conv6_2_relu_0_split_0
I1031 13:10:03.326771 29889 net.cpp:452] conv6_2_conv6_2_relu_0_split -> conv6_2_conv6_2_relu_0_split_1
I1031 13:10:03.326795 29889 net.cpp:452] conv6_2_conv6_2_relu_0_split -> conv6_2_conv6_2_relu_0_split_2
I1031 13:10:03.326802 29889 net.cpp:452] conv6_2_conv6_2_relu_0_split -> conv6_2_conv6_2_relu_0_split_3
I1031 13:10:03.326895 29889 net.cpp:150] Setting up conv6_2_conv6_2_relu_0_split
I1031 13:10:03.326905 29889 net.cpp:157] Top shape: 1 512 10 10 (51200)
I1031 13:10:03.326910 29889 net.cpp:157] Top shape: 1 512 10 10 (51200)
I1031 13:10:03.326912 29889 net.cpp:157] Top shape: 1 512 10 10 (51200)
I1031 13:10:03.326915 29889 net.cpp:157] Top shape: 1 512 10 10 (51200)
I1031 13:10:03.326917 29889 net.cpp:165] Memory required for data: 234929184
I1031 13:10:03.326920 29889 layer_factory.hpp:77] Creating layer conv7_1
I1031 13:10:03.326934 29889 net.cpp:100] Creating Layer conv7_1
I1031 13:10:03.326937 29889 net.cpp:478] conv7_1 <- conv6_2_conv6_2_relu_0_split_0
I1031 13:10:03.326957 29889 net.cpp:452] conv7_1 -> conv7_1
I1031 13:10:03.327677 29889 net.cpp:150] Setting up conv7_1
I1031 13:10:03.327692 29889 net.cpp:157] Top shape: 1 128 10 10 (12800)
I1031 13:10:03.327709 29889 net.cpp:165] Memory required for data: 234980384
I1031 13:10:03.327714 29889 layer_factory.hpp:77] Creating layer conv7_1_relu
I1031 13:10:03.327734 29889 net.cpp:100] Creating Layer conv7_1_relu
I1031 13:10:03.327738 29889 net.cpp:478] conv7_1_relu <- conv7_1
I1031 13:10:03.327742 29889 net.cpp:439] conv7_1_relu -> conv7_1 (in-place)
I1031 13:10:03.327747 29889 net.cpp:150] Setting up conv7_1_relu
I1031 13:10:03.327750 29889 net.cpp:157] Top shape: 1 128 10 10 (12800)
I1031 13:10:03.327752 29889 net.cpp:165] Memory required for data: 235031584
I1031 13:10:03.327754 29889 layer_factory.hpp:77] Creating layer conv7_2
I1031 13:10:03.327762 29889 net.cpp:100] Creating Layer conv7_2
I1031 13:10:03.327765 29889 net.cpp:478] conv7_2 <- conv7_1
I1031 13:10:03.327770 29889 net.cpp:452] conv7_2 -> conv7_2
I1031 13:10:03.330874 29889 net.cpp:150] Setting up conv7_2
I1031 13:10:03.330891 29889 net.cpp:157] Top shape: 1 256 5 5 (6400)
I1031 13:10:03.330894 29889 net.cpp:165] Memory required for data: 235057184
I1031 13:10:03.330899 29889 layer_factory.hpp:77] Creating layer conv7_2_relu
I1031 13:10:03.330904 29889 net.cpp:100] Creating Layer conv7_2_relu
I1031 13:10:03.330907 29889 net.cpp:478] conv7_2_relu <- conv7_2
I1031 13:10:03.330912 29889 net.cpp:439] conv7_2_relu -> conv7_2 (in-place)
I1031 13:10:03.330929 29889 net.cpp:150] Setting up conv7_2_relu
I1031 13:10:03.330934 29889 net.cpp:157] Top shape: 1 256 5 5 (6400)
I1031 13:10:03.330936 29889 net.cpp:165] Memory required for data: 235082784
I1031 13:10:03.330938 29889 layer_factory.hpp:77] Creating layer conv7_2_conv7_2_relu_0_split
I1031 13:10:03.330943 29889 net.cpp:100] Creating Layer conv7_2_conv7_2_relu_0_split
I1031 13:10:03.330950 29889 net.cpp:478] conv7_2_conv7_2_relu_0_split <- conv7_2
I1031 13:10:03.330957 29889 net.cpp:452] conv7_2_conv7_2_relu_0_split -> conv7_2_conv7_2_relu_0_split_0
I1031 13:10:03.330963 29889 net.cpp:452] conv7_2_conv7_2_relu_0_split -> conv7_2_conv7_2_relu_0_split_1
I1031 13:10:03.330970 29889 net.cpp:452] conv7_2_conv7_2_relu_0_split -> conv7_2_conv7_2_relu_0_split_2
I1031 13:10:03.330976 29889 net.cpp:452] conv7_2_conv7_2_relu_0_split -> conv7_2_conv7_2_relu_0_split_3
I1031 13:10:03.331027 29889 net.cpp:150] Setting up conv7_2_conv7_2_relu_0_split
I1031 13:10:03.331039 29889 net.cpp:157] Top shape: 1 256 5 5 (6400)
I1031 13:10:03.331056 29889 net.cpp:157] Top shape: 1 256 5 5 (6400)
I1031 13:10:03.331059 29889 net.cpp:157] Top shape: 1 256 5 5 (6400)
I1031 13:10:03.331063 29889 net.cpp:157] Top shape: 1 256 5 5 (6400)
I1031 13:10:03.331064 29889 net.cpp:165] Memory required for data: 235185184
I1031 13:10:03.331066 29889 layer_factory.hpp:77] Creating layer conv8_1
I1031 13:10:03.331077 29889 net.cpp:100] Creating Layer conv8_1
I1031 13:10:03.331084 29889 net.cpp:478] conv8_1 <- conv7_2_conv7_2_relu_0_split_0
I1031 13:10:03.331090 29889 net.cpp:452] conv8_1 -> conv8_1
I1031 13:10:03.331620 29889 net.cpp:150] Setting up conv8_1
I1031 13:10:03.331648 29889 net.cpp:157] Top shape: 1 128 5 5 (3200)
I1031 13:10:03.331651 29889 net.cpp:165] Memory required for data: 235197984
I1031 13:10:03.331670 29889 layer_factory.hpp:77] Creating layer conv8_1_relu
I1031 13:10:03.331676 29889 net.cpp:100] Creating Layer conv8_1_relu
I1031 13:10:03.331678 29889 net.cpp:478] conv8_1_relu <- conv8_1
I1031 13:10:03.331683 29889 net.cpp:439] conv8_1_relu -> conv8_1 (in-place)
I1031 13:10:03.331688 29889 net.cpp:150] Setting up conv8_1_relu
I1031 13:10:03.331691 29889 net.cpp:157] Top shape: 1 128 5 5 (3200)
I1031 13:10:03.331694 29889 net.cpp:165] Memory required for data: 235210784
I1031 13:10:03.331696 29889 layer_factory.hpp:77] Creating layer conv8_2
I1031 13:10:03.331718 29889 net.cpp:100] Creating Layer conv8_2
I1031 13:10:03.331724 29889 net.cpp:478] conv8_2 <- conv8_1
I1031 13:10:03.331732 29889 net.cpp:452] conv8_2 -> conv8_2
I1031 13:10:03.334446 29889 net.cpp:150] Setting up conv8_2
I1031 13:10:03.334463 29889 net.cpp:157] Top shape: 1 256 3 3 (2304)
I1031 13:10:03.334466 29889 net.cpp:165] Memory required for data: 235220000
I1031 13:10:03.334486 29889 layer_factory.hpp:77] Creating layer conv8_2_relu
I1031 13:10:03.334491 29889 net.cpp:100] Creating Layer conv8_2_relu
I1031 13:10:03.334494 29889 net.cpp:478] conv8_2_relu <- conv8_2
I1031 13:10:03.334501 29889 net.cpp:439] conv8_2_relu -> conv8_2 (in-place)
I1031 13:10:03.334520 29889 net.cpp:150] Setting up conv8_2_relu
I1031 13:10:03.334525 29889 net.cpp:157] Top shape: 1 256 3 3 (2304)
I1031 13:10:03.334527 29889 net.cpp:165] Memory required for data: 235229216
I1031 13:10:03.334529 29889 layer_factory.hpp:77] Creating layer conv8_2_conv8_2_relu_0_split
I1031 13:10:03.334534 29889 net.cpp:100] Creating Layer conv8_2_conv8_2_relu_0_split
I1031 13:10:03.334537 29889 net.cpp:478] conv8_2_conv8_2_relu_0_split <- conv8_2
I1031 13:10:03.334543 29889 net.cpp:452] conv8_2_conv8_2_relu_0_split -> conv8_2_conv8_2_relu_0_split_0
I1031 13:10:03.334566 29889 net.cpp:452] conv8_2_conv8_2_relu_0_split -> conv8_2_conv8_2_relu_0_split_1
I1031 13:10:03.334573 29889 net.cpp:452] conv8_2_conv8_2_relu_0_split -> conv8_2_conv8_2_relu_0_split_2
I1031 13:10:03.334578 29889 net.cpp:452] conv8_2_conv8_2_relu_0_split -> conv8_2_conv8_2_relu_0_split_3
I1031 13:10:03.334651 29889 net.cpp:150] Setting up conv8_2_conv8_2_relu_0_split
I1031 13:10:03.334676 29889 net.cpp:157] Top shape: 1 256 3 3 (2304)
I1031 13:10:03.334691 29889 net.cpp:157] Top shape: 1 256 3 3 (2304)
I1031 13:10:03.334693 29889 net.cpp:157] Top shape: 1 256 3 3 (2304)
I1031 13:10:03.334698 29889 net.cpp:157] Top shape: 1 256 3 3 (2304)
I1031 13:10:03.334700 29889 net.cpp:165] Memory required for data: 235266080
I1031 13:10:03.334703 29889 layer_factory.hpp:77] Creating layer conv9_1
I1031 13:10:03.334715 29889 net.cpp:100] Creating Layer conv9_1
I1031 13:10:03.334735 29889 net.cpp:478] conv9_1 <- conv8_2_conv8_2_relu_0_split_0
I1031 13:10:03.334743 29889 net.cpp:452] conv9_1 -> conv9_1
I1031 13:10:03.335152 29889 net.cpp:150] Setting up conv9_1
I1031 13:10:03.335163 29889 net.cpp:157] Top shape: 1 128 3 3 (1152)
I1031 13:10:03.335166 29889 net.cpp:165] Memory required for data: 235270688
I1031 13:10:03.335170 29889 layer_factory.hpp:77] Creating layer conv9_1_relu
I1031 13:10:03.335175 29889 net.cpp:100] Creating Layer conv9_1_relu
I1031 13:10:03.335177 29889 net.cpp:478] conv9_1_relu <- conv9_1
I1031 13:10:03.335180 29889 net.cpp:439] conv9_1_relu -> conv9_1 (in-place)
I1031 13:10:03.335184 29889 net.cpp:150] Setting up conv9_1_relu
I1031 13:10:03.335187 29889 net.cpp:157] Top shape: 1 128 3 3 (1152)
I1031 13:10:03.335189 29889 net.cpp:165] Memory required for data: 235275296
I1031 13:10:03.335191 29889 layer_factory.hpp:77] Creating layer conv9_2
I1031 13:10:03.335198 29889 net.cpp:100] Creating Layer conv9_2
I1031 13:10:03.335201 29889 net.cpp:478] conv9_2 <- conv9_1
I1031 13:10:03.335207 29889 net.cpp:452] conv9_2 -> conv9_2
I1031 13:10:03.338261 29889 net.cpp:150] Setting up conv9_2
I1031 13:10:03.338280 29889 net.cpp:157] Top shape: 1 256 1 1 (256)
I1031 13:10:03.338284 29889 net.cpp:165] Memory required for data: 235276320
I1031 13:10:03.338289 29889 layer_factory.hpp:77] Creating layer conv9_2_relu
I1031 13:10:03.338294 29889 net.cpp:100] Creating Layer conv9_2_relu
I1031 13:10:03.338296 29889 net.cpp:478] conv9_2_relu <- conv9_2
I1031 13:10:03.338300 29889 net.cpp:439] conv9_2_relu -> conv9_2 (in-place)
I1031 13:10:03.338305 29889 net.cpp:150] Setting up conv9_2_relu
I1031 13:10:03.338309 29889 net.cpp:157] Top shape: 1 256 1 1 (256)
I1031 13:10:03.338310 29889 net.cpp:165] Memory required for data: 235277344
I1031 13:10:03.338312 29889 layer_factory.hpp:77] Creating layer conv9_2_conv9_2_relu_0_split
I1031 13:10:03.338318 29889 net.cpp:100] Creating Layer conv9_2_conv9_2_relu_0_split
I1031 13:10:03.338340 29889 net.cpp:478] conv9_2_conv9_2_relu_0_split <- conv9_2
I1031 13:10:03.338346 29889 net.cpp:452] conv9_2_conv9_2_relu_0_split -> conv9_2_conv9_2_relu_0_split_0
I1031 13:10:03.338353 29889 net.cpp:452] conv9_2_conv9_2_relu_0_split -> conv9_2_conv9_2_relu_0_split_1
I1031 13:10:03.338361 29889 net.cpp:452] conv9_2_conv9_2_relu_0_split -> conv9_2_conv9_2_relu_0_split_2
I1031 13:10:03.338421 29889 net.cpp:150] Setting up conv9_2_conv9_2_relu_0_split
I1031 13:10:03.338443 29889 net.cpp:157] Top shape: 1 256 1 1 (256)
I1031 13:10:03.338448 29889 net.cpp:157] Top shape: 1 256 1 1 (256)
I1031 13:10:03.338449 29889 net.cpp:157] Top shape: 1 256 1 1 (256)
I1031 13:10:03.338451 29889 net.cpp:165] Memory required for data: 235280416
I1031 13:10:03.338454 29889 layer_factory.hpp:77] Creating layer conv4_3_norm
I1031 13:10:03.338461 29889 net.cpp:100] Creating Layer conv4_3_norm
I1031 13:10:03.338467 29889 net.cpp:478] conv4_3_norm <- conv4_3_relu4_3_0_split_1
I1031 13:10:03.338472 29889 net.cpp:452] conv4_3_norm -> conv4_3_norm
I1031 13:10:03.338596 29889 net.cpp:150] Setting up conv4_3_norm
I1031 13:10:03.338606 29889 net.cpp:157] Top shape: 1 512 38 38 (739328)
I1031 13:10:03.338609 29889 net.cpp:165] Memory required for data: 238237728
I1031 13:10:03.338613 29889 layer_factory.hpp:77] Creating layer conv4_3_norm_conv4_3_norm_0_split
I1031 13:10:03.338619 29889 net.cpp:100] Creating Layer conv4_3_norm_conv4_3_norm_0_split
I1031 13:10:03.338624 29889 net.cpp:478] conv4_3_norm_conv4_3_norm_0_split <- conv4_3_norm
I1031 13:10:03.338629 29889 net.cpp:452] conv4_3_norm_conv4_3_norm_0_split -> conv4_3_norm_conv4_3_norm_0_split_0
I1031 13:10:03.338647 29889 net.cpp:452] conv4_3_norm_conv4_3_norm_0_split -> conv4_3_norm_conv4_3_norm_0_split_1
I1031 13:10:03.338652 29889 net.cpp:452] conv4_3_norm_conv4_3_norm_0_split -> conv4_3_norm_conv4_3_norm_0_split_2
I1031 13:10:03.338692 29889 net.cpp:150] Setting up conv4_3_norm_conv4_3_norm_0_split
I1031 13:10:03.338699 29889 net.cpp:157] Top shape: 1 512 38 38 (739328)
I1031 13:10:03.338703 29889 net.cpp:157] Top shape: 1 512 38 38 (739328)
I1031 13:10:03.338706 29889 net.cpp:157] Top shape: 1 512 38 38 (739328)
I1031 13:10:03.338708 29889 net.cpp:165] Memory required for data: 247109664
I1031 13:10:03.338711 29889 layer_factory.hpp:77] Creating layer conv4_3_norm_mbox_loc
I1031 13:10:03.338718 29889 net.cpp:100] Creating Layer conv4_3_norm_mbox_loc
I1031 13:10:03.338723 29889 net.cpp:478] conv4_3_norm_mbox_loc <- conv4_3_norm_conv4_3_norm_0_split_0
I1031 13:10:03.338731 29889 net.cpp:452] conv4_3_norm_mbox_loc -> conv4_3_norm_mbox_loc
I1031 13:10:03.339337 29889 net.cpp:150] Setting up conv4_3_norm_mbox_loc
I1031 13:10:03.339349 29889 net.cpp:157] Top shape: 1 16 38 38 (23104)
I1031 13:10:03.339352 29889 net.cpp:165] Memory required for data: 247202080
I1031 13:10:03.339357 29889 layer_factory.hpp:77] Creating layer conv4_3_norm_mbox_loc_perm
I1031 13:10:03.339365 29889 net.cpp:100] Creating Layer conv4_3_norm_mbox_loc_perm
I1031 13:10:03.339368 29889 net.cpp:478] conv4_3_norm_mbox_loc_perm <- conv4_3_norm_mbox_loc
I1031 13:10:03.339372 29889 net.cpp:452] conv4_3_norm_mbox_loc_perm -> conv4_3_norm_mbox_loc_perm
I1031 13:10:03.339471 29889 net.cpp:150] Setting up conv4_3_norm_mbox_loc_perm
I1031 13:10:03.339481 29889 net.cpp:157] Top shape: 1 38 38 16 (23104)
I1031 13:10:03.339483 29889 net.cpp:165] Memory required for data: 247294496
I1031 13:10:03.339486 29889 layer_factory.hpp:77] Creating layer conv4_3_norm_mbox_loc_flat
I1031 13:10:03.339493 29889 net.cpp:100] Creating Layer conv4_3_norm_mbox_loc_flat
I1031 13:10:03.339498 29889 net.cpp:478] conv4_3_norm_mbox_loc_flat <- conv4_3_norm_mbox_loc_perm
I1031 13:10:03.339517 29889 net.cpp:452] conv4_3_norm_mbox_loc_flat -> conv4_3_norm_mbox_loc_flat
I1031 13:10:03.339551 29889 net.cpp:150] Setting up conv4_3_norm_mbox_loc_flat
I1031 13:10:03.339562 29889 net.cpp:157] Top shape: 1 23104 (23104)
I1031 13:10:03.339565 29889 net.cpp:165] Memory required for data: 247386912
I1031 13:10:03.339567 29889 layer_factory.hpp:77] Creating layer conv4_3_norm_mbox_conf
I1031 13:10:03.339581 29889 net.cpp:100] Creating Layer conv4_3_norm_mbox_conf
I1031 13:10:03.339586 29889 net.cpp:478] conv4_3_norm_mbox_conf <- conv4_3_norm_conv4_3_norm_0_split_1
I1031 13:10:03.339592 29889 net.cpp:452] conv4_3_norm_mbox_conf -> conv4_3_norm_mbox_conf
I1031 13:10:03.342905 29889 net.cpp:150] Setting up conv4_3_norm_mbox_conf
I1031 13:10:03.342922 29889 net.cpp:157] Top shape: 1 84 38 38 (121296)
I1031 13:10:03.342926 29889 net.cpp:165] Memory required for data: 247872096
I1031 13:10:03.342931 29889 layer_factory.hpp:77] Creating layer conv4_3_norm_mbox_conf_perm
I1031 13:10:03.342937 29889 net.cpp:100] Creating Layer conv4_3_norm_mbox_conf_perm
I1031 13:10:03.342941 29889 net.cpp:478] conv4_3_norm_mbox_conf_perm <- conv4_3_norm_mbox_conf
I1031 13:10:03.342947 29889 net.cpp:452] conv4_3_norm_mbox_conf_perm -> conv4_3_norm_mbox_conf_perm
I1031 13:10:03.343032 29889 net.cpp:150] Setting up conv4_3_norm_mbox_conf_perm
I1031 13:10:03.343042 29889 net.cpp:157] Top shape: 1 38 38 84 (121296)
I1031 13:10:03.343060 29889 net.cpp:165] Memory required for data: 248357280
I1031 13:10:03.343063 29889 layer_factory.hpp:77] Creating layer conv4_3_norm_mbox_conf_flat
I1031 13:10:03.343067 29889 net.cpp:100] Creating Layer conv4_3_norm_mbox_conf_flat
I1031 13:10:03.343071 29889 net.cpp:478] conv4_3_norm_mbox_conf_flat <- conv4_3_norm_mbox_conf_perm
I1031 13:10:03.343077 29889 net.cpp:452] conv4_3_norm_mbox_conf_flat -> conv4_3_norm_mbox_conf_flat
I1031 13:10:03.343101 29889 net.cpp:150] Setting up conv4_3_norm_mbox_conf_flat
I1031 13:10:03.343109 29889 net.cpp:157] Top shape: 1 121296 (121296)
I1031 13:10:03.343138 29889 net.cpp:165] Memory required for data: 248842464
I1031 13:10:03.343142 29889 layer_factory.hpp:77] Creating layer conv4_3_norm_mbox_priorbox
I1031 13:10:03.343152 29889 net.cpp:100] Creating Layer conv4_3_norm_mbox_priorbox
I1031 13:10:03.343158 29889 net.cpp:478] conv4_3_norm_mbox_priorbox <- conv4_3_norm_conv4_3_norm_0_split_2
I1031 13:10:03.343163 29889 net.cpp:478] conv4_3_norm_mbox_priorbox <- data_data_0_split_1
I1031 13:10:03.343166 29889 net.cpp:452] conv4_3_norm_mbox_priorbox -> conv4_3_norm_mbox_priorbox
I1031 13:10:03.343212 29889 net.cpp:150] Setting up conv4_3_norm_mbox_priorbox
I1031 13:10:03.343221 29889 net.cpp:157] Top shape: 1 2 23104 (46208)
I1031 13:10:03.343224 29889 net.cpp:165] Memory required for data: 249027296
I1031 13:10:03.343226 29889 layer_factory.hpp:77] Creating layer fc7_mbox_loc
I1031 13:10:03.343235 29889 net.cpp:100] Creating Layer fc7_mbox_loc
I1031 13:10:03.343240 29889 net.cpp:478] fc7_mbox_loc <- fc7_relu7_0_split_1
I1031 13:10:03.343247 29889 net.cpp:452] fc7_mbox_loc -> fc7_mbox_loc
I1031 13:10:03.345530 29889 net.cpp:150] Setting up fc7_mbox_loc
I1031 13:10:03.345547 29889 net.cpp:157] Top shape: 1 24 19 19 (8664)
I1031 13:10:03.345551 29889 net.cpp:165] Memory required for data: 249061952
I1031 13:10:03.345556 29889 layer_factory.hpp:77] Creating layer fc7_mbox_loc_perm
I1031 13:10:03.345561 29889 net.cpp:100] Creating Layer fc7_mbox_loc_perm
I1031 13:10:03.345569 29889 net.cpp:478] fc7_mbox_loc_perm <- fc7_mbox_loc
I1031 13:10:03.345577 29889 net.cpp:452] fc7_mbox_loc_perm -> fc7_mbox_loc_perm
I1031 13:10:03.345734 29889 net.cpp:150] Setting up fc7_mbox_loc_perm
I1031 13:10:03.345746 29889 net.cpp:157] Top shape: 1 19 19 24 (8664)
I1031 13:10:03.345747 29889 net.cpp:165] Memory required for data: 249096608
I1031 13:10:03.345751 29889 layer_factory.hpp:77] Creating layer fc7_mbox_loc_flat
I1031 13:10:03.345757 29889 net.cpp:100] Creating Layer fc7_mbox_loc_flat
I1031 13:10:03.345759 29889 net.cpp:478] fc7_mbox_loc_flat <- fc7_mbox_loc_perm
I1031 13:10:03.345767 29889 net.cpp:452] fc7_mbox_loc_flat -> fc7_mbox_loc_flat
I1031 13:10:03.345793 29889 net.cpp:150] Setting up fc7_mbox_loc_flat
I1031 13:10:03.345800 29889 net.cpp:157] Top shape: 1 8664 (8664)
I1031 13:10:03.345803 29889 net.cpp:165] Memory required for data: 249131264
I1031 13:10:03.345806 29889 layer_factory.hpp:77] Creating layer fc7_mbox_conf
I1031 13:10:03.345816 29889 net.cpp:100] Creating Layer fc7_mbox_conf
I1031 13:10:03.345823 29889 net.cpp:478] fc7_mbox_conf <- fc7_relu7_0_split_2
I1031 13:10:03.345829 29889 net.cpp:452] fc7_mbox_conf -> fc7_mbox_conf
I1031 13:10:03.354291 29889 net.cpp:150] Setting up fc7_mbox_conf
I1031 13:10:03.354308 29889 net.cpp:157] Top shape: 1 126 19 19 (45486)
I1031 13:10:03.354311 29889 net.cpp:165] Memory required for data: 249313208
I1031 13:10:03.354331 29889 layer_factory.hpp:77] Creating layer fc7_mbox_conf_perm
I1031 13:10:03.354338 29889 net.cpp:100] Creating Layer fc7_mbox_conf_perm
I1031 13:10:03.354341 29889 net.cpp:478] fc7_mbox_conf_perm <- fc7_mbox_conf
I1031 13:10:03.354348 29889 net.cpp:452] fc7_mbox_conf_perm -> fc7_mbox_conf_perm
I1031 13:10:03.354478 29889 net.cpp:150] Setting up fc7_mbox_conf_perm
I1031 13:10:03.354490 29889 net.cpp:157] Top shape: 1 19 19 126 (45486)
I1031 13:10:03.354492 29889 net.cpp:165] Memory required for data: 249495152
I1031 13:10:03.354496 29889 layer_factory.hpp:77] Creating layer fc7_mbox_conf_flat
I1031 13:10:03.354499 29889 net.cpp:100] Creating Layer fc7_mbox_conf_flat
I1031 13:10:03.354506 29889 net.cpp:478] fc7_mbox_conf_flat <- fc7_mbox_conf_perm
I1031 13:10:03.354512 29889 net.cpp:452] fc7_mbox_conf_flat -> fc7_mbox_conf_flat
I1031 13:10:03.354535 29889 net.cpp:150] Setting up fc7_mbox_conf_flat
I1031 13:10:03.354544 29889 net.cpp:157] Top shape: 1 45486 (45486)
I1031 13:10:03.354547 29889 net.cpp:165] Memory required for data: 249677096
I1031 13:10:03.354549 29889 layer_factory.hpp:77] Creating layer fc7_mbox_priorbox
I1031 13:10:03.354557 29889 net.cpp:100] Creating Layer fc7_mbox_priorbox
I1031 13:10:03.354573 29889 net.cpp:478] fc7_mbox_priorbox <- fc7_relu7_0_split_3
I1031 13:10:03.354578 29889 net.cpp:478] fc7_mbox_priorbox <- data_data_0_split_2
I1031 13:10:03.354584 29889 net.cpp:452] fc7_mbox_priorbox -> fc7_mbox_priorbox
I1031 13:10:03.354611 29889 net.cpp:150] Setting up fc7_mbox_priorbox
I1031 13:10:03.354622 29889 net.cpp:157] Top shape: 1 2 8664 (17328)
I1031 13:10:03.354624 29889 net.cpp:165] Memory required for data: 249746408
I1031 13:10:03.354627 29889 layer_factory.hpp:77] Creating layer conv6_2_mbox_loc
I1031 13:10:03.354637 29889 net.cpp:100] Creating Layer conv6_2_mbox_loc
I1031 13:10:03.354643 29889 net.cpp:478] conv6_2_mbox_loc <- conv6_2_conv6_2_relu_0_split_1
I1031 13:10:03.354650 29889 net.cpp:452] conv6_2_mbox_loc -> conv6_2_mbox_loc
I1031 13:10:03.356453 29889 net.cpp:150] Setting up conv6_2_mbox_loc
I1031 13:10:03.356472 29889 net.cpp:157] Top shape: 1 24 10 10 (2400)
I1031 13:10:03.356474 29889 net.cpp:165] Memory required for data: 249756008
I1031 13:10:03.356480 29889 layer_factory.hpp:77] Creating layer conv6_2_mbox_loc_perm
I1031 13:10:03.356492 29889 net.cpp:100] Creating Layer conv6_2_mbox_loc_perm
I1031 13:10:03.356498 29889 net.cpp:478] conv6_2_mbox_loc_perm <- conv6_2_mbox_loc
I1031 13:10:03.356503 29889 net.cpp:452] conv6_2_mbox_loc_perm -> conv6_2_mbox_loc_perm
I1031 13:10:03.356587 29889 net.cpp:150] Setting up conv6_2_mbox_loc_perm
I1031 13:10:03.356597 29889 net.cpp:157] Top shape: 1 10 10 24 (2400)
I1031 13:10:03.356600 29889 net.cpp:165] Memory required for data: 249765608
I1031 13:10:03.356601 29889 layer_factory.hpp:77] Creating layer conv6_2_mbox_loc_flat
I1031 13:10:03.356606 29889 net.cpp:100] Creating Layer conv6_2_mbox_loc_flat
I1031 13:10:03.356611 29889 net.cpp:478] conv6_2_mbox_loc_flat <- conv6_2_mbox_loc_perm
I1031 13:10:03.356616 29889 net.cpp:452] conv6_2_mbox_loc_flat -> conv6_2_mbox_loc_flat
I1031 13:10:03.356655 29889 net.cpp:150] Setting up conv6_2_mbox_loc_flat
I1031 13:10:03.356663 29889 net.cpp:157] Top shape: 1 2400 (2400)
I1031 13:10:03.356665 29889 net.cpp:165] Memory required for data: 249775208
I1031 13:10:03.356668 29889 layer_factory.hpp:77] Creating layer conv6_2_mbox_conf
I1031 13:10:03.356678 29889 net.cpp:100] Creating Layer conv6_2_mbox_conf
I1031 13:10:03.356683 29889 net.cpp:478] conv6_2_mbox_conf <- conv6_2_conv6_2_relu_0_split_2
I1031 13:10:03.356691 29889 net.cpp:452] conv6_2_mbox_conf -> conv6_2_mbox_conf
I1031 13:10:03.361359 29889 net.cpp:150] Setting up conv6_2_mbox_conf
I1031 13:10:03.361377 29889 net.cpp:157] Top shape: 1 126 10 10 (12600)
I1031 13:10:03.361380 29889 net.cpp:165] Memory required for data: 249825608
I1031 13:10:03.361385 29889 layer_factory.hpp:77] Creating layer conv6_2_mbox_conf_perm
I1031 13:10:03.361392 29889 net.cpp:100] Creating Layer conv6_2_mbox_conf_perm
I1031 13:10:03.361394 29889 net.cpp:478] conv6_2_mbox_conf_perm <- conv6_2_mbox_conf
I1031 13:10:03.361400 29889 net.cpp:452] conv6_2_mbox_conf_perm -> conv6_2_mbox_conf_perm
I1031 13:10:03.361515 29889 net.cpp:150] Setting up conv6_2_mbox_conf_perm
I1031 13:10:03.361524 29889 net.cpp:157] Top shape: 1 10 10 126 (12600)
I1031 13:10:03.361526 29889 net.cpp:165] Memory required for data: 249876008
I1031 13:10:03.361529 29889 layer_factory.hpp:77] Creating layer conv6_2_mbox_conf_flat
I1031 13:10:03.361536 29889 net.cpp:100] Creating Layer conv6_2_mbox_conf_flat
I1031 13:10:03.361541 29889 net.cpp:478] conv6_2_mbox_conf_flat <- conv6_2_mbox_conf_perm
I1031 13:10:03.361544 29889 net.cpp:452] conv6_2_mbox_conf_flat -> conv6_2_mbox_conf_flat
I1031 13:10:03.361568 29889 net.cpp:150] Setting up conv6_2_mbox_conf_flat
I1031 13:10:03.361577 29889 net.cpp:157] Top shape: 1 12600 (12600)
I1031 13:10:03.361578 29889 net.cpp:165] Memory required for data: 249926408
I1031 13:10:03.361580 29889 layer_factory.hpp:77] Creating layer conv6_2_mbox_priorbox
I1031 13:10:03.361593 29889 net.cpp:100] Creating Layer conv6_2_mbox_priorbox
I1031 13:10:03.361598 29889 net.cpp:478] conv6_2_mbox_priorbox <- conv6_2_conv6_2_relu_0_split_3
I1031 13:10:03.361603 29889 net.cpp:478] conv6_2_mbox_priorbox <- data_data_0_split_3
I1031 13:10:03.361619 29889 net.cpp:452] conv6_2_mbox_priorbox -> conv6_2_mbox_priorbox
I1031 13:10:03.361646 29889 net.cpp:150] Setting up conv6_2_mbox_priorbox
I1031 13:10:03.361670 29889 net.cpp:157] Top shape: 1 2 2400 (4800)
I1031 13:10:03.361671 29889 net.cpp:165] Memory required for data: 249945608
I1031 13:10:03.361675 29889 layer_factory.hpp:77] Creating layer conv7_2_mbox_loc
I1031 13:10:03.361685 29889 net.cpp:100] Creating Layer conv7_2_mbox_loc
I1031 13:10:03.361690 29889 net.cpp:478] conv7_2_mbox_loc <- conv7_2_conv7_2_relu_0_split_1
I1031 13:10:03.361696 29889 net.cpp:452] conv7_2_mbox_loc -> conv7_2_mbox_loc
I1031 13:10:03.363584 29889 net.cpp:150] Setting up conv7_2_mbox_loc
I1031 13:10:03.363601 29889 net.cpp:157] Top shape: 1 24 5 5 (600)
I1031 13:10:03.363603 29889 net.cpp:165] Memory required for data: 249948008
I1031 13:10:03.363610 29889 layer_factory.hpp:77] Creating layer conv7_2_mbox_loc_perm
I1031 13:10:03.363617 29889 net.cpp:100] Creating Layer conv7_2_mbox_loc_perm
I1031 13:10:03.363620 29889 net.cpp:478] conv7_2_mbox_loc_perm <- conv7_2_mbox_loc
I1031 13:10:03.363626 29889 net.cpp:452] conv7_2_mbox_loc_perm -> conv7_2_mbox_loc_perm
I1031 13:10:03.363723 29889 net.cpp:150] Setting up conv7_2_mbox_loc_perm
I1031 13:10:03.363734 29889 net.cpp:157] Top shape: 1 5 5 24 (600)
I1031 13:10:03.363735 29889 net.cpp:165] Memory required for data: 249950408
I1031 13:10:03.363737 29889 layer_factory.hpp:77] Creating layer conv7_2_mbox_loc_flat
I1031 13:10:03.363745 29889 net.cpp:100] Creating Layer conv7_2_mbox_loc_flat
I1031 13:10:03.363749 29889 net.cpp:478] conv7_2_mbox_loc_flat <- conv7_2_mbox_loc_perm
I1031 13:10:03.363754 29889 net.cpp:452] conv7_2_mbox_loc_flat -> conv7_2_mbox_loc_flat
I1031 13:10:03.363777 29889 net.cpp:150] Setting up conv7_2_mbox_loc_flat
I1031 13:10:03.363785 29889 net.cpp:157] Top shape: 1 600 (600)
I1031 13:10:03.363787 29889 net.cpp:165] Memory required for data: 249952808
I1031 13:10:03.363790 29889 layer_factory.hpp:77] Creating layer conv7_2_mbox_conf
I1031 13:10:03.363800 29889 net.cpp:100] Creating Layer conv7_2_mbox_conf
I1031 13:10:03.363804 29889 net.cpp:478] conv7_2_mbox_conf <- conv7_2_conv7_2_relu_0_split_2
I1031 13:10:03.363812 29889 net.cpp:452] conv7_2_mbox_conf -> conv7_2_mbox_conf
I1031 13:10:03.366631 29889 net.cpp:150] Setting up conv7_2_mbox_conf
I1031 13:10:03.366648 29889 net.cpp:157] Top shape: 1 126 5 5 (3150)
I1031 13:10:03.366652 29889 net.cpp:165] Memory required for data: 249965408
I1031 13:10:03.366657 29889 layer_factory.hpp:77] Creating layer conv7_2_mbox_conf_perm
I1031 13:10:03.366664 29889 net.cpp:100] Creating Layer conv7_2_mbox_conf_perm
I1031 13:10:03.366667 29889 net.cpp:478] conv7_2_mbox_conf_perm <- conv7_2_mbox_conf
I1031 13:10:03.366674 29889 net.cpp:452] conv7_2_mbox_conf_perm -> conv7_2_mbox_conf_perm
I1031 13:10:03.366756 29889 net.cpp:150] Setting up conv7_2_mbox_conf_perm
I1031 13:10:03.366766 29889 net.cpp:157] Top shape: 1 5 5 126 (3150)
I1031 13:10:03.366770 29889 net.cpp:165] Memory required for data: 249978008
I1031 13:10:03.366772 29889 layer_factory.hpp:77] Creating layer conv7_2_mbox_conf_flat
I1031 13:10:03.366777 29889 net.cpp:100] Creating Layer conv7_2_mbox_conf_flat
I1031 13:10:03.366782 29889 net.cpp:478] conv7_2_mbox_conf_flat <- conv7_2_mbox_conf_perm
I1031 13:10:03.366787 29889 net.cpp:452] conv7_2_mbox_conf_flat -> conv7_2_mbox_conf_flat
I1031 13:10:03.366816 29889 net.cpp:150] Setting up conv7_2_mbox_conf_flat
I1031 13:10:03.366824 29889 net.cpp:157] Top shape: 1 3150 (3150)
I1031 13:10:03.366827 29889 net.cpp:165] Memory required for data: 249990608
I1031 13:10:03.366829 29889 layer_factory.hpp:77] Creating layer conv7_2_mbox_priorbox
I1031 13:10:03.366837 29889 net.cpp:100] Creating Layer conv7_2_mbox_priorbox
I1031 13:10:03.366842 29889 net.cpp:478] conv7_2_mbox_priorbox <- conv7_2_conv7_2_relu_0_split_3
I1031 13:10:03.366847 29889 net.cpp:478] conv7_2_mbox_priorbox <- data_data_0_split_4
I1031 13:10:03.366853 29889 net.cpp:452] conv7_2_mbox_priorbox -> conv7_2_mbox_priorbox
I1031 13:10:03.366909 29889 net.cpp:150] Setting up conv7_2_mbox_priorbox
I1031 13:10:03.366919 29889 net.cpp:157] Top shape: 1 2 600 (1200)
I1031 13:10:03.366921 29889 net.cpp:165] Memory required for data: 249995408
I1031 13:10:03.366925 29889 layer_factory.hpp:77] Creating layer conv8_2_mbox_loc
I1031 13:10:03.366932 29889 net.cpp:100] Creating Layer conv8_2_mbox_loc
I1031 13:10:03.366937 29889 net.cpp:478] conv8_2_mbox_loc <- conv8_2_conv8_2_relu_0_split_1
I1031 13:10:03.366947 29889 net.cpp:452] conv8_2_mbox_loc -> conv8_2_mbox_loc
I1031 13:10:03.367411 29889 net.cpp:150] Setting up conv8_2_mbox_loc
I1031 13:10:03.367424 29889 net.cpp:157] Top shape: 1 16 3 3 (144)
I1031 13:10:03.367425 29889 net.cpp:165] Memory required for data: 249995984
I1031 13:10:03.367439 29889 layer_factory.hpp:77] Creating layer conv8_2_mbox_loc_perm
I1031 13:10:03.367449 29889 net.cpp:100] Creating Layer conv8_2_mbox_loc_perm
I1031 13:10:03.367452 29889 net.cpp:478] conv8_2_mbox_loc_perm <- conv8_2_mbox_loc
I1031 13:10:03.367458 29889 net.cpp:452] conv8_2_mbox_loc_perm -> conv8_2_mbox_loc_perm
I1031 13:10:03.367542 29889 net.cpp:150] Setting up conv8_2_mbox_loc_perm
I1031 13:10:03.367552 29889 net.cpp:157] Top shape: 1 3 3 16 (144)
I1031 13:10:03.367553 29889 net.cpp:165] Memory required for data: 249996560
I1031 13:10:03.367555 29889 layer_factory.hpp:77] Creating layer conv8_2_mbox_loc_flat
I1031 13:10:03.367561 29889 net.cpp:100] Creating Layer conv8_2_mbox_loc_flat
I1031 13:10:03.367564 29889 net.cpp:478] conv8_2_mbox_loc_flat <- conv8_2_mbox_loc_perm
I1031 13:10:03.367571 29889 net.cpp:452] conv8_2_mbox_loc_flat -> conv8_2_mbox_loc_flat
I1031 13:10:03.367606 29889 net.cpp:150] Setting up conv8_2_mbox_loc_flat
I1031 13:10:03.367614 29889 net.cpp:157] Top shape: 1 144 (144)
I1031 13:10:03.367616 29889 net.cpp:165] Memory required for data: 249997136
I1031 13:10:03.367619 29889 layer_factory.hpp:77] Creating layer conv8_2_mbox_conf
I1031 13:10:03.367627 29889 net.cpp:100] Creating Layer conv8_2_mbox_conf
I1031 13:10:03.367632 29889 net.cpp:478] conv8_2_mbox_conf <- conv8_2_conv8_2_relu_0_split_2
I1031 13:10:03.367637 29889 net.cpp:452] conv8_2_mbox_conf -> conv8_2_mbox_conf
I1031 13:10:03.369791 29889 net.cpp:150] Setting up conv8_2_mbox_conf
I1031 13:10:03.369808 29889 net.cpp:157] Top shape: 1 84 3 3 (756)
I1031 13:10:03.369812 29889 net.cpp:165] Memory required for data: 250000160
I1031 13:10:03.369817 29889 layer_factory.hpp:77] Creating layer conv8_2_mbox_conf_perm
I1031 13:10:03.369824 29889 net.cpp:100] Creating Layer conv8_2_mbox_conf_perm
I1031 13:10:03.369827 29889 net.cpp:478] conv8_2_mbox_conf_perm <- conv8_2_mbox_conf
I1031 13:10:03.369832 29889 net.cpp:452] conv8_2_mbox_conf_perm -> conv8_2_mbox_conf_perm
I1031 13:10:03.369920 29889 net.cpp:150] Setting up conv8_2_mbox_conf_perm
I1031 13:10:03.369930 29889 net.cpp:157] Top shape: 1 3 3 84 (756)
I1031 13:10:03.369931 29889 net.cpp:165] Memory required for data: 250003184
I1031 13:10:03.369933 29889 layer_factory.hpp:77] Creating layer conv8_2_mbox_conf_flat
I1031 13:10:03.369953 29889 net.cpp:100] Creating Layer conv8_2_mbox_conf_flat
I1031 13:10:03.369957 29889 net.cpp:478] conv8_2_mbox_conf_flat <- conv8_2_mbox_conf_perm
I1031 13:10:03.369962 29889 net.cpp:452] conv8_2_mbox_conf_flat -> conv8_2_mbox_conf_flat
I1031 13:10:03.369989 29889 net.cpp:150] Setting up conv8_2_mbox_conf_flat
I1031 13:10:03.369997 29889 net.cpp:157] Top shape: 1 756 (756)
I1031 13:10:03.369999 29889 net.cpp:165] Memory required for data: 250006208
I1031 13:10:03.370002 29889 layer_factory.hpp:77] Creating layer conv8_2_mbox_priorbox
I1031 13:10:03.370010 29889 net.cpp:100] Creating Layer conv8_2_mbox_priorbox
I1031 13:10:03.370015 29889 net.cpp:478] conv8_2_mbox_priorbox <- conv8_2_conv8_2_relu_0_split_3
I1031 13:10:03.370019 29889 net.cpp:478] conv8_2_mbox_priorbox <- data_data_0_split_5
I1031 13:10:03.370026 29889 net.cpp:452] conv8_2_mbox_priorbox -> conv8_2_mbox_priorbox
I1031 13:10:03.370056 29889 net.cpp:150] Setting up conv8_2_mbox_priorbox
I1031 13:10:03.370064 29889 net.cpp:157] Top shape: 1 2 144 (288)
I1031 13:10:03.370079 29889 net.cpp:165] Memory required for data: 250007360
I1031 13:10:03.370082 29889 layer_factory.hpp:77] Creating layer conv9_2_mbox_loc
I1031 13:10:03.370092 29889 net.cpp:100] Creating Layer conv9_2_mbox_loc
I1031 13:10:03.370098 29889 net.cpp:478] conv9_2_mbox_loc <- conv9_2_conv9_2_relu_0_split_0
I1031 13:10:03.370105 29889 net.cpp:452] conv9_2_mbox_loc -> conv9_2_mbox_loc
I1031 13:10:03.370477 29889 net.cpp:150] Setting up conv9_2_mbox_loc
I1031 13:10:03.370489 29889 net.cpp:157] Top shape: 1 16 1 1 (16)
I1031 13:10:03.370492 29889 net.cpp:165] Memory required for data: 250007424
I1031 13:10:03.370497 29889 layer_factory.hpp:77] Creating layer conv9_2_mbox_loc_perm
I1031 13:10:03.370508 29889 net.cpp:100] Creating Layer conv9_2_mbox_loc_perm
I1031 13:10:03.370512 29889 net.cpp:478] conv9_2_mbox_loc_perm <- conv9_2_mbox_loc
I1031 13:10:03.370517 29889 net.cpp:452] conv9_2_mbox_loc_perm -> conv9_2_mbox_loc_perm
I1031 13:10:03.370599 29889 net.cpp:150] Setting up conv9_2_mbox_loc_perm
I1031 13:10:03.370607 29889 net.cpp:157] Top shape: 1 1 1 16 (16)
I1031 13:10:03.370610 29889 net.cpp:165] Memory required for data: 250007488
I1031 13:10:03.370612 29889 layer_factory.hpp:77] Creating layer conv9_2_mbox_loc_flat
I1031 13:10:03.370618 29889 net.cpp:100] Creating Layer conv9_2_mbox_loc_flat
I1031 13:10:03.370621 29889 net.cpp:478] conv9_2_mbox_loc_flat <- conv9_2_mbox_loc_perm
I1031 13:10:03.370626 29889 net.cpp:452] conv9_2_mbox_loc_flat -> conv9_2_mbox_loc_flat
I1031 13:10:03.370649 29889 net.cpp:150] Setting up conv9_2_mbox_loc_flat
I1031 13:10:03.370658 29889 net.cpp:157] Top shape: 1 16 (16)
I1031 13:10:03.370661 29889 net.cpp:165] Memory required for data: 250007552
I1031 13:10:03.370663 29889 layer_factory.hpp:77] Creating layer conv9_2_mbox_conf
I1031 13:10:03.370671 29889 net.cpp:100] Creating Layer conv9_2_mbox_conf
I1031 13:10:03.370676 29889 net.cpp:478] conv9_2_mbox_conf <- conv9_2_conv9_2_relu_0_split_1
I1031 13:10:03.370683 29889 net.cpp:452] conv9_2_mbox_conf -> conv9_2_mbox_conf
I1031 13:10:03.373175 29889 net.cpp:150] Setting up conv9_2_mbox_conf
I1031 13:10:03.373193 29889 net.cpp:157] Top shape: 1 84 1 1 (84)
I1031 13:10:03.373195 29889 net.cpp:165] Memory required for data: 250007888
I1031 13:10:03.373200 29889 layer_factory.hpp:77] Creating layer conv9_2_mbox_conf_perm
I1031 13:10:03.373224 29889 net.cpp:100] Creating Layer conv9_2_mbox_conf_perm
I1031 13:10:03.373232 29889 net.cpp:478] conv9_2_mbox_conf_perm <- conv9_2_mbox_conf
I1031 13:10:03.373253 29889 net.cpp:452] conv9_2_mbox_conf_perm -> conv9_2_mbox_conf_perm
I1031 13:10:03.373392 29889 net.cpp:150] Setting up conv9_2_mbox_conf_perm
I1031 13:10:03.373401 29889 net.cpp:157] Top shape: 1 1 1 84 (84)
I1031 13:10:03.373404 29889 net.cpp:165] Memory required for data: 250008224
I1031 13:10:03.373406 29889 layer_factory.hpp:77] Creating layer conv9_2_mbox_conf_flat
I1031 13:10:03.373414 29889 net.cpp:100] Creating Layer conv9_2_mbox_conf_flat
I1031 13:10:03.373419 29889 net.cpp:478] conv9_2_mbox_conf_flat <- conv9_2_mbox_conf_perm
I1031 13:10:03.373423 29889 net.cpp:452] conv9_2_mbox_conf_flat -> conv9_2_mbox_conf_flat
I1031 13:10:03.373450 29889 net.cpp:150] Setting up conv9_2_mbox_conf_flat
I1031 13:10:03.373457 29889 net.cpp:157] Top shape: 1 84 (84)
I1031 13:10:03.373459 29889 net.cpp:165] Memory required for data: 250008560
I1031 13:10:03.373472 29889 layer_factory.hpp:77] Creating layer conv9_2_mbox_priorbox
I1031 13:10:03.373483 29889 net.cpp:100] Creating Layer conv9_2_mbox_priorbox
I1031 13:10:03.373488 29889 net.cpp:478] conv9_2_mbox_priorbox <- conv9_2_conv9_2_relu_0_split_2
I1031 13:10:03.373493 29889 net.cpp:478] conv9_2_mbox_priorbox <- data_data_0_split_6
I1031 13:10:03.373498 29889 net.cpp:452] conv9_2_mbox_priorbox -> conv9_2_mbox_priorbox
I1031 13:10:03.373523 29889 net.cpp:150] Setting up conv9_2_mbox_priorbox
I1031 13:10:03.373531 29889 net.cpp:157] Top shape: 1 2 16 (32)
I1031 13:10:03.373533 29889 net.cpp:165] Memory required for data: 250008688
I1031 13:10:03.373536 29889 layer_factory.hpp:77] Creating layer mbox_loc
I1031 13:10:03.373558 29889 net.cpp:100] Creating Layer mbox_loc
I1031 13:10:03.373564 29889 net.cpp:478] mbox_loc <- conv4_3_norm_mbox_loc_flat
I1031 13:10:03.373569 29889 net.cpp:478] mbox_loc <- fc7_mbox_loc_flat
I1031 13:10:03.373574 29889 net.cpp:478] mbox_loc <- conv6_2_mbox_loc_flat
I1031 13:10:03.373577 29889 net.cpp:478] mbox_loc <- conv7_2_mbox_loc_flat
I1031 13:10:03.373581 29889 net.cpp:478] mbox_loc <- conv8_2_mbox_loc_flat
I1031 13:10:03.373584 29889 net.cpp:478] mbox_loc <- conv9_2_mbox_loc_flat
I1031 13:10:03.373589 29889 net.cpp:452] mbox_loc -> mbox_loc
I1031 13:10:03.373623 29889 net.cpp:150] Setting up mbox_loc
I1031 13:10:03.373633 29889 net.cpp:157] Top shape: 1 34928 (34928)
I1031 13:10:03.373636 29889 net.cpp:165] Memory required for data: 250148400
I1031 13:10:03.373637 29889 layer_factory.hpp:77] Creating layer mbox_conf
I1031 13:10:03.373642 29889 net.cpp:100] Creating Layer mbox_conf
I1031 13:10:03.373648 29889 net.cpp:478] mbox_conf <- conv4_3_norm_mbox_conf_flat
I1031 13:10:03.373652 29889 net.cpp:478] mbox_conf <- fc7_mbox_conf_flat
I1031 13:10:03.373656 29889 net.cpp:478] mbox_conf <- conv6_2_mbox_conf_flat
I1031 13:10:03.373661 29889 net.cpp:478] mbox_conf <- conv7_2_mbox_conf_flat
I1031 13:10:03.373663 29889 net.cpp:478] mbox_conf <- conv8_2_mbox_conf_flat
I1031 13:10:03.373667 29889 net.cpp:478] mbox_conf <- conv9_2_mbox_conf_flat
I1031 13:10:03.373673 29889 net.cpp:452] mbox_conf -> mbox_conf
I1031 13:10:03.373697 29889 net.cpp:150] Setting up mbox_conf
I1031 13:10:03.373704 29889 net.cpp:157] Top shape: 1 183372 (183372)
I1031 13:10:03.373708 29889 net.cpp:165] Memory required for data: 250881888
I1031 13:10:03.373709 29889 layer_factory.hpp:77] Creating layer mbox_priorbox
I1031 13:10:03.373715 29889 net.cpp:100] Creating Layer mbox_priorbox
I1031 13:10:03.373718 29889 net.cpp:478] mbox_priorbox <- conv4_3_norm_mbox_priorbox
I1031 13:10:03.373723 29889 net.cpp:478] mbox_priorbox <- fc7_mbox_priorbox
I1031 13:10:03.373725 29889 net.cpp:478] mbox_priorbox <- conv6_2_mbox_priorbox
I1031 13:10:03.373729 29889 net.cpp:478] mbox_priorbox <- conv7_2_mbox_priorbox
I1031 13:10:03.373733 29889 net.cpp:478] mbox_priorbox <- conv8_2_mbox_priorbox
I1031 13:10:03.373736 29889 net.cpp:478] mbox_priorbox <- conv9_2_mbox_priorbox
I1031 13:10:03.373742 29889 net.cpp:452] mbox_priorbox -> mbox_priorbox
I1031 13:10:03.373764 29889 net.cpp:150] Setting up mbox_priorbox
I1031 13:10:03.373775 29889 net.cpp:157] Top shape: 1 2 34928 (69856)
I1031 13:10:03.373776 29889 net.cpp:165] Memory required for data: 251161312
I1031 13:10:03.373780 29889 layer_factory.hpp:77] Creating layer mbox_loss
I1031 13:10:03.373790 29889 net.cpp:100] Creating Layer mbox_loss
I1031 13:10:03.373795 29889 net.cpp:478] mbox_loss <- mbox_loc
I1031 13:10:03.373800 29889 net.cpp:478] mbox_loss <- mbox_conf
I1031 13:10:03.373803 29889 net.cpp:478] mbox_loss <- mbox_priorbox
…
state {
  phase: TEST
}
layer {
  name: "data"
  type: "AnnotatedData"
  top: "data"
  top: "label"
  include {
    phase: TEST
  }
  transform_param {
    mean_value: 104
    mean_value: 117
    mean_value: 123
    resize_param {
      prob: 1
      resize_mode: WARP
      height: 300
      width: 300
      interp_mode: LINEAR
    }
  }
  data_param {
    source: "examples/VOC0712/VOC0712_test_lmdb"
    batch_size: 8
    backend: LMDB
  }
  annotated_data_param {
    batch_sampler {
    }
    label_map_file: "data/VOC0712/labelmap_voc.prototxt"
  }
}
layer {
  name: "conv1_1"
  type: "Convolution"
  bottom: "data"
  top: "conv1_1"
  param {
    lr_mult: 1
    decay_mult: 1
  }
  param {
    lr_mult: 2
    decay_mult: 0
  }
  convolution_param {
    num_output: 64
    pad: 1
    kernel_size: 3
    weight_filler {
      type: "xavier"
    }
    bias_filler {
      type: "constant"
      value: 0
    }
  }
}
layer {
  name: "relu1_1"
  type: "ReLU"
  bottom: "conv1_1"
  top: "conv1_1"
}
layer {
  name: "conv1_2"
  type: "Convolution"
  bottom: "conv1_1"
  top: "conv1_2"
  param {
    lr_mult: 1
    decay_mult: 1
  }
  param {
    lr_mult: 2
    decay_mult: 0
  }
  convolution_param {
    num_output: 64
    pad: 1
    kernel_size: 3
    weight_filler {
      type: "xavier"
    }
    bias_filler {
      type: "constant"
      value: 0
    }
  }
}
layer {
  name: "relu1_2"
  type: "ReLU"
  bottom: "conv1_2"
  top: "conv1_2"
}
layer {
  name: "pool1"
  type: "Pooling"
  bottom: "conv1_2"
  top: "pool1"
  pooling_param {
    pool: MAX
    kernel_size: 2
    stride: 2
  }
}
layer {
  name: "conv2_1"
  type: "Convolution"
  bottom: "pool1"
  top: "conv2_1"
  param {
    lr_mult: 1
    decay_mult: 1
  }
  param {
    lr_mult: 2
    decay_mult: 0
  }
  convolution_param {
    num_output: 128
    pad: 1
    kernel_size: 3
    weight_filler {
      type: "xavier"
    }
    bias_filler {
      type: "constant"
      value: 0
    }
  }
}
layer {
  name: "relu2_1"
  type: "ReLU"
  bottom: "conv2_1"
  top: "conv2_1"
}
layer {
  name: "conv2_2"
  type: "Convolution"
  bottom: "conv2_1"
  top: "conv2_2"
  param {
    lr_mult: 1
    decay_mult: 1
  }
  param {
    lr_mult: 2
    decay_mult: 0
  }
  convolution_param {
    num_output: 128
    pad: 1
    kernel_size: 3
    weight_filler {
      type: "xavier"
    }
    bias_filler {
      type: "constant"
      value: 0
    }
  }
}
layer {
  name: "relu2_2"
  type: "ReLU"
  bottom: "conv2_2"
  top: "conv2_2"
}
layer {
  name: "pool2"
  type: "Pooling"
  bottom: "conv2_2"
  top: "pool2"
  pooling_param {
    pool: MAX
    kernel_size: 2
    stride: 2
  }
}
layer {
  name: "conv3_1"
  type: "Convolution"
  bottom: "pool2"
  top: "conv3_1"
  param {
    lr_mult: 1
    decay_mult: 1
  }
  param {
    lr_mult: 2
    decay_mult: 0
  }
  convolution_param {
    num_output: 256
    pad: 1
    kernel_size: 3
    weight_filler {
      type: "xavier"
    }
    bias_filler {
      type: "constant"
      value: 0
    }
  }
}
layer {
  name: "relu3_1"
  type: "ReLU"
  bottom: "conv3_1"
  top: "conv3_1"
}
layer {
  name: "conv3_2"
  type: "Convolution"
  bottom: "conv3_1"
  top: "conv3_2"
  param {
    lr_mult: 1
    decay_mult: 1
  }
  param {
    lr_mult: 2
    decay_mult: 0
  }
  convolution_param {
    num_output: 256
    pad: 1
    kernel_size: 3
    weight_filler {
      type: "xavier"
    }
    bias_filler {
      type: "constant"
      value: 0
    }
  }
}
layer {
  name: "relu3_2"
  type: "ReLU"
  bottom: "conv3_2"
  top: "conv3_2"
}
layer {
  name: "conv3_3"
  type: "Convolution"
  bottom: "conv3_2"
  top: "conv3_3"
  param {
    lr_mult: 1
    decay_mult: 1
  }
  param {
    lr_mult: 2
    decay_mult: 0
  }
  convolution_param {
    num_output: 256
    pad: 1
    kernel_size: 3
    weight_filler {
      type: "xavier"
    }
    bias_filler {
      type: "constant"
      value: 0
    }
  }
}
layer {
  name: "relu3_3"
  type: "ReLU"
  bottom: "conv3_3"
  top: "conv3_3"
}
layer {
  name: "pool3"
  type: "Pooling"
  bottom: "conv3_3"
  top: "pool3"
  pooling_param {
    pool: MAX
    kernel_size: 2
    stride: 2
  }
}
layer {
  name: "conv4_1"
  type: "Convolution"
  bottom: "pool3"
  top: "conv4_1"
  param {
    lr_mult: 1
    decay_mult: 1
  }
  param {
    lr_mult: 2
    decay_mult: 0
  }
  convolution_param {
    num_output: 512
    pad: 1
    kernel_size: 3
    weight_filler {
      type: "xavier"
    }
    bias_filler {
      type: "constant"
      value: 0
    }
  }
}
layer {
  name: "relu4_1"
  type: "ReLU"
  bottom: "conv4_1"
  top: "conv4_1"
}
layer {
  name: "conv4_2"
  type: "Convolution"
  bottom: "conv4_1"
  top: "conv4_2"
  param {
    lr_mult: 1
    decay_mult: 1
  }
  param {
    lr_mult: 2
    decay_mult: 0
  }
  convolution_param {
    num_output: 512
    pad: 1
    kernel_size: 3
    weight_filler {
      type: "xavier"
    }
    bias_filler {
      type: "constant"
      value: 0
    }
  }
}
layer {
  name: "relu4_2"
  type: "ReLU"
  bottom: "conv4_2"
  top: "conv4_2"
}
layer {
  name: "conv4_3"
  type: "Convolution"
  bottom: "conv4_2"
  top: "conv4_3"
  param {
    lr_mult: 1
    decay_mult: 1
  }
  param {
    lr_mult: 2
    decay_mult: 0
  }
  convolution_param {
    num_output: 512
    pad: 1
    kernel_size: 3
    weight_filler {
      type: "xavier"
    }
    bias_filler {
      type: "constant"
      value: 0
    }
  }
}
layer {
  name: "relu4_3"
  type: "ReLU"
  bottom: "conv4_3"
  top: "conv4_3"
}
layer {
  name: "pool4"
  type: "Pooling"
  bottom: "conv4_3"
  top: "pool4"
  pooling_param {
    pool: MAX
    kernel_size: 2
    stride: 2
  }
}
layer {
  name: "conv5_1"
  type: "Convolution"
  bottom: "pool4"
  top: "conv5_1"
  param {
    lr_mult: 1
    decay_mult: 1
  }
  param {
    lr_mult: 2
    decay_mult: 0
  }
  convolution_param {
    num_output: 512
    pad: 1
    kernel_size: 3
    weight_filler {
      type: "xavier"
    }
    bias_filler {
      type: "constant"
      value: 0
    }
    dilation: 1
  }
}
layer {
  name: "relu5_1"
  type: "ReLU"
  bottom: "conv5_1"
  top: "conv5_1"
}
layer {
  name: "conv5_2"
  type: "Convolution"
  bottom: "conv5_1"
  top: "conv5_2"
  param {
    lr_mult: 1
    decay_mult: 1
  }
  param {
    lr_mult: 2
    decay_mult: 0
  }
  convolution_param {
    num_output: 512
    pad: 1
    kernel_size: 3
    weight_filler {
      type: "xavier"
    }
    bias_filler {
      type: "constant"
      value: 0
    }
    dilation: 1
  }
}
layer {
  name: "relu5_2"
  type: "ReLU"
  bottom: "conv5_2"
  top: "conv5_2"
}
layer {
  name: "conv5_3"
  type: "Convolution"
  bottom: "conv5_2"
  top: "conv5_3"
  param {
    lr_mult: 1
    decay_mult: 1
  }
  param {
    lr_mult: 2
    decay_mult: 0
  }
  convolution_param {
    num_output: 512
    pad: 1
    kernel_size: 3
    weight_filler {
      type: "xavier"
    }
    bias_filler {
      type: "constant"
      value: 0
    }
    dilation: 1
  }
}
layer {
  name: "relu5_3"
  type: "ReLU"
  bottom: "conv5_3"
  top: "conv5_3"
}
layer {
  name: "pool5"
  type: "Pooling"
  bottom: "conv5_3"
  top: "pool5"
  pooling_param {
    pool: MAX
    kernel_size: 3
    stride: 1
    pad: 1
  }
}
layer {
  name: "fc6"
  type: "Convolution"
  bottom: "pool5"
  top: "fc6"
  param {
    lr_mult: 1
    decay_mult: 1
  }
  param {
    lr_mult: 2
    decay_mult: 0
  }
  convolution_param {
    num_output: 1024
    pad: 6
    kernel_size: 3
    weight_filler {
      type: "xavier"
    }
    bias_filler {
      type: "constant"
      value: 0
    }
    dilation: 6
  }
}
layer {
  name: "relu6"
  type: "ReLU"
  bottom: "fc6"
  top: "fc6"
}
layer {
  name: "fc7"
  type: "Convolution"
  bottom: "fc6"
  top: "fc7"
  param {
    lr_mult: 1
    decay_mult: 1
  }
  param {
    lr_mult: 2
    decay_mult: 0
  }
  convolution_param {
    num_output: 1024
    kernel_size: 1
    weight_filler {
      type: "xavier"
    }
    bias_filler {
      type: "constant"
      value: 0
    }
  }
}
layer {
  name: "relu7"
  type: "ReLU"
  bottom: "fc7"
  top: "fc7"
}
layer {
  name: "conv6_1"
  type: "Convolution"
  bottom: "fc7"
  top: "conv6_1"
  param {
    lr_mult: 1
    decay_mult: 1
  }
  param {
    lr_mult: 2
    decay_mult: 0
  }
  convolution_param {
    num_output: 256
    pad: 0
    kernel_size: 1
    stride: 1
    weight_filler {
      type: "xavier"
    }
    bias_filler {
      type: "constant"
      value: 0
    }
  }
}
layer {
  name: "conv6_1_relu"
  type: "ReLU"
  bottom: "conv6_1"
  top: "conv6_1"
}
layer {
  name: "conv6_2"
  type: "Convolution"
  bottom: "conv6_1"
  top: "conv6_2"
  param {
    lr_mult: 1
    decay_mult: 1
  }
  param {
    lr_mult: 2
    decay_mult: 0
  }
  convolution_param {
    num_output: 512
    pad: 1
    kernel_size: 3
    stride: 2
    weight_filler {
      type: "xavier"
    }
    bias_filler {
      type: "constant"
      value: 0
    }
  }
}
layer {
  name: "conv6_2_relu"
  type: "ReLU"
  bottom: "conv6_2"
  top: "conv6_2"
}
layer {
  name: "conv7_1"
  type: "Convolution"
  bottom: "conv6_2"
  top: "conv7_1"
  param {
    lr_mult: 1
    decay_mult: 1
  }
  param {
    lr_mult: 2
    decay_mult: 0
  }
  convolution_param {
    num_output: 128
    pad: 0
    kernel_size: 1
    stride: 1
    weight_filler {
      type: "xavier"
    }
    bias_filler {
      type: "constant"
      value: 0
    }
  }
}
layer {
  name: "conv7_1_relu"
  type: "ReLU"
  bottom: "conv7_1"
  top: "conv7_1"
}
layer {
  name: "conv7_2"
  type: "Convolution"
  bottom: "conv7_1"
  top: "conv7_2"
  param {
    lr_mult: 1
    decay_mult: 1
  }
  param {
    lr_mult: 2
    decay_mult: 0
  }
  convolution_param {
    num_output: 256
    pad: 1
    kernel_size: 3
    stride: 2
    weight_filler {
      type: "xavier"
    }
    bias_filler {
      type: "constant"
      value: 0
    }
  }
}
layer {
  name: "conv7_2_relu"
  type: "ReLU"
  bottom: "conv7_2"
  top: "conv7_2"
}
layer {
  name: "conv8_1"
  type: "Convolution"
  bottom: "conv7_2"
  top: "conv8_1"
  param {
    lr_mult: 1
    decay_mult: 1
  }
  param {
    lr_mult: 2
    decay_mult: 0
  }
  convolution_param {
    num_output: 128
    pad: 0
    kernel_size: 1
    stride: 1
    weight_filler {
      type: "xavier"
    }
    bias_filler {
      type: "constant"
      value: 0
    }
  }
}
layer {
  name: "conv8_1_relu"
  type: "ReLU"
  bottom: "conv8_1"
  top: "conv8_1"
}
layer {
  name: "conv8_2"
  type: "Convolution"
  bottom: "conv8_1"
  top: "conv8_2"
  param {
    lr_mult: 1
    decay_mult: 1
  }
  param {
    lr_mult: 2
    decay_mult: 0
  }
  convolution_param {
    num_output: 256
    pad: 0
    kernel_size: 3
    stride: 1
    weight_filler {
      type: "xavier"
    }
    bias_filler {
      type: "constant"
      value: 0
    }
  }
}
layer {
  name: "conv8_2_relu"
  type: "ReLU"
  bottom: "conv8_2"
  top: "conv8_2"
}
layer {
  name: "conv9_1"
  type: "Convolution"
  bottom: "conv8_2"
  top: "conv9_1"
  param {
    lr_mult: 1
    decay_mult: 1
  }
  param {
    lr_mult: 2
    decay_mult: 0
  }
  convolution_param {
    num_output: 128
    pad: 0
    kernel_size: 1
    stride: 1
    weight_filler {
      type: "xavier"
    }
    bias_filler {
      type: "constant"
      value: 0
    }
  }
}
layer {
  name: "conv9_1_relu"
  type: "ReLU"
  bottom: "conv9_1"
  top: "conv9_1"
}
layer {
  name: "conv9_2"
  type: "Convolution"
  bottom: "conv9_1"
  top: "conv9_2"
  param {
    lr_mult: 1
    decay_mult: 1
  }
  param {
    lr_mult: 2
    decay_mult: 0
  }
  convolution_param {
    num_output: 256
    pad: 0
    kernel_size: 3
    stride: 1
    weight_filler {
      type: "xavier"
    }
    bias_filler {
      type: "constant"
      value: 0
    }
  }
}
layer {
  name: "conv9_2_relu"
  type: "ReLU"
  bottom: "conv9_2"
  top: "conv9_2"
}
layer {
  name: "conv4_3_norm"
  type: "Normalize"
  bottom: "conv4_3"
  top: "conv4_3_norm"
  norm_param {
    across_spatial: false
    scale_filler {
      type: "constant"
      value: 20
    }
    channel_shared: false
  }
}
layer {
  name: "conv4_3_norm_mbox_loc"
  type: "Convolution"
  bottom: "conv4_3_norm"
  top: "conv4_3_norm_mbox_loc"
  param {
    lr_mult: 1
    decay_mult: 1
  }
  param {
    lr_mult: 2
    decay_mult: 0
  }
  convolution_param {
    num_output: 16
    pad: 1
    kernel_size: 3
    stride: 1
    weight_filler {
      type: "xavier"
    }
    bias_filler {
      type: "constant"
      value: 0
    }
  }
}
layer {
  name: "conv4_3_norm_mbox_loc_perm"
  type: "Permute"
  bottom: "conv4_3_norm_mbox_loc"
  top: "conv4_3_norm_mbox_loc_perm"
  permute_param {
    order: 0
    order: 2
    order: 3
    order: 1
  }
}
layer {
  name: "conv4_3_norm_mbox_loc_flat"
  type: "Flatten"
  bottom: "conv4_3_norm_mbox_loc_perm"
  top: "conv4_3_norm_mbox_loc_flat"
  flatten_param {
    axis: 1
  }
}
layer {
  name: "conv4_3_norm_mbox_conf"
  type: "Convolution"
  bottom: "conv4_3_norm"
  top: "conv4_3_norm_mbox_conf"
  param {
    lr_mult: 1
    decay_mult: 1
  }
  param {
    lr_mult: 2
    decay_mult: 0
  }
  convolution_param {
    num_output: 84
    pad: 1
    kernel_size: 3
    stride: 1
    weight_filler {
      type: "xavier"
    }
    bias_filler {
      type: "constant"
      value: 0
    }
  }
}
layer {
  name: "conv4_3_norm_mbox_conf_perm"
  type: "Permute"
  bottom: "conv4_3_norm_mbox_conf"
  top: "conv4_3_norm_mbox_conf_perm"
  permute_param {
    order: 0
    order: 2
    order: 3
    order: 1
  }
}
layer {
  name: "conv4_3_norm_mbox_conf_flat"
  type: "Flatten"
  bottom: "conv4_3_norm_mbox_conf_perm"
  top: "conv4_3_norm_mbox_conf_flat"
  flatten_param {
    axis: 1
  }
}
layer {
  name: "conv4_3_norm_mbox_priorbox"
  type: "PriorBox"
  bottom: "conv4_3_norm"
  bottom: "data"
  top: "conv4_3_norm_mbox_priorbox"
  prior_box_param {
    min_size: 21
    max_size: 45
    aspect_ratio: 2
    flip: true
    clip: false
    variance: 0.1
    variance: 0.1
    variance: 0.2
    variance: 0.2
    step: 8
    offset: 0.5
  }
}
layer {
  name: "fc7_mbox_loc"
  type: "Convolution"
  bottom: "fc7"
  top: "fc7_mbox_loc"
  param {
    lr_mult: 1
    decay_mult: 1
  }
  param {
    lr_mult: 2
    decay_mult: 0
  }
  convolution_param {
    num_output: 24
    pad: 1
    kernel_size: 3
    stride: 1
    weight_filler {
      type: "xavier"
    }
    bias_filler {
      type: "constant"
      value: 0
    }
  }
}
layer {
  name: "fc7_mbox_loc_perm"
  type: "Permute"
  bottom: "fc7_mbox_loc"
  top: "fc7_mbox_loc_perm"
  permute_param {
    order: 0
    order: 2
    order: 3
    order: 1
  }
}
layer {
  name: "fc7_mbox_loc_flat"
  type: "Flatten"
  bottom: "fc7_mbox_loc_perm"
  top: "fc7_mbox_loc_flat"
  flatten_param {
    axis: 1
  }
}
layer {
  name: "fc7_mbox_conf"
  type: "Convolution"
  bottom: "fc7"
  top: "fc7_mbox_conf"
  param {
    lr_mult: 1
    decay_mult: 1
  }
  param {
    lr_mult: 2
    decay_mult: 0
  }
  convolution_param {
    num_output: 126
    pad: 1
    kernel_size: 3
    stride: 1
    weight_filler {
      type: "xavier"
    }
    bias_filler {
      type: "constant"
      value: 0
    }
  }
}
layer {
  name: "fc7_mbox_conf_perm"
  type: "Permute"
  bottom: "fc7_mbox_conf"
  top: "fc7_mbox_conf_perm"
  permute_param {
    order: 0
    order: 2
    order: 3
    order: 1
  }
}
layer {
  name: "fc7_mbox_conf_flat"
  type: "Flatten"
  bottom: "fc7_mbox_conf_perm"
  top: "fc7_mbox_conf_flat"
  flatten_param {
    axis: 1
  }
}
layer {
  name: "fc7_mbox_priorbox"
  type: "PriorBox"
  bottom: "fc7"
  bottom: "data"
  top: "fc7_mbox_priorbox"
  prior_box_param {
    min_size: 45
    max_size: 99
    aspect_ratio: 2
    aspect_ratio: 3
    flip: true
    clip: false
    variance: 0.1
    variance: 0.1
    variance: 0.2
    variance: 0.2
    step: 16
    offset: 0.5
  }
}
layer {
  name: "conv6_2_mbox_loc"
  type: "Convolution"
  bottom: "conv6_2"
  top: "conv6_2_mbox_loc"
  param {
    lr_mult: 1
    decay_mult: 1
  }
  param {
    lr_mult: 2
    decay_mult: 0
  }
  convolution_param {
    num_output: 24
    pad: 1
    kernel_size: 3
    stride: 1
    weight_filler {
      type: "xavier"
    }
    bias_filler {
      type: "constant"
      value: 0
    }
  }
}
layer {
  name: "conv6_2_mbox_loc_perm"
  type: "Permute"
  bottom: "conv6_2_mbox_loc"
  top: "conv6_2_mbox_loc_perm"
  permute_param {
    order: 0
    order: 2
    order: 3
    order: 1
  }
}
layer {
  name: "conv6_2_mbox_loc_flat"
  type: "Flatten"
  bottom: "conv6_2_mbox_loc_perm"
  top: "conv6_2_mbox_loc_flat"
  flatten_param {
    axis: 1
  }
}
layer {
  name: "conv6_2_mbox_conf"
  type: "Convolution"
  bottom: "conv6_2"
  top: "conv6_2_mbox_conf"
  param {
    lr_mult: 1
    decay_mult: 1
  }
  param {
    lr_mult: 2
    decay_mult: 0
  }
  convolution_param {
    num_output: 126
    pad: 1
    kernel_size: 3
    stride: 1
    weight_filler {
      type: "xavier"
    }
    bias_filler {
      type: "constant"
      value: 0
    }
  }
}
layer {
  name: "conv6_2_mbox_conf_perm"
  type: "Permute"
  bottom: "conv6_2_mbox_conf"
  top: "conv6_2_mbox_conf_perm"
  permute_param {
    order: 0
    order: 2
    order: 3
    order: 1
  }
}
layer {
  name: "conv6_2_mbox_conf_flat"
  type: "Flatten"
  bottom: "conv6_2_mbox_conf_perm"
  top: "conv6_2_mbox_conf_flat"
  flatten_param {
    axis: 1
  }
}
layer {
  name: "conv6_2_mbox_priorbox"
  type: "PriorBox"
  bottom: "conv6_2"
  bottom: "data"
  top: "conv6_2_mbox_priorbox"
  prior_box_param {
    min_size: 99
    max_size: 153
    aspect_ratio: 2
    aspect_ratio: 3
    flip: true
    clip: false
    variance: 0.1
    variance: 0.1
    variance: 0.2
    variance: 0.2
    step: 32
    offset: 0.5
  }
}
layer {
  name: "conv7_2_mbox_loc"
  type: "Convolution"
  bottom: "conv7_2"
  top: "conv7_2_mbox_loc"
  param {
    lr_mult: 1
    decay_mult: 1
  }
  param {
    lr_mult: 2
    decay_mult: 0
  }
  convolution_param {
    num_output: 24
    pad: 1
    kernel_size: 3
    stride: 1
    weight_filler {
      type: "xavier"
    }
    bias_filler {
      type: "constant"
      value: 0
    }
  }
}
layer {
  name: "conv7_2_mbox_loc_perm"
  type: "Permute"
  bottom: "conv7_2_mbox_loc"
  top: "conv7_2_mbox_loc_perm"
  permute_param {
    order: 0
    order: 2
    order: 3
    order: 1
  }
}
layer {
  name: "conv7_2_mbox_loc_flat"
  type: "Flatten"
  bottom: "conv7_2_mbox_loc_perm"
  top: "conv7_2_mbox_loc_flat"
  flatten_param {
    axis: 1
  }
}
layer {
  name: "conv7_2_mbox_conf"
  type: "Convolution"
  bottom: "conv7_2"
  top: "conv7_2_mbox_conf"
  param {
    lr_mult: 1
    decay_mult: 1
  }
  param {
    lr_mult: 2
    decay_mult: 0
  }
  convolution_param {
    num_output: 126
    pad: 1
    kernel_size: 3
    stride: 1
    weight_filler {
      type: "xavier"
    }
    bias_filler {
      type: "constant"
      value: 0
    }
  }
}
layer {
  name: "conv7_2_mbox_conf_perm"
  type: "Permute"
  bottom: "conv7_2_mbox_conf"
  top: "conv7_2_mbox_conf_perm"
  permute_param {
    order: 0
    order: 2
    order: 3
    order: 1
  }
}
layer {
  name: "conv7_2_mbox_conf_flat"
  type: "Flatten"
  bottom: "conv7_2_mbox_conf_perm"
  top: "conv7_2_mbox_conf_flat"
  flatten_param {
    axis: 1
  }
}
layer {
  name: "conv7_2_mbox_priorbox"
  type: "PriorBox"
  bottom: "conv7_2"
  bottom: "data"
  top: "conv7_2_mbox_priorbox"
  prior_box_param {
    min_size: 153
    max_size: 207
    aspect_ratio: 2
    aspect_ratio: 3
    flip: true
    clip: false
    variance: 0.1
    variance: 0.1
    variance: 0.2
    variance: 0.2
    step: 64
    offset: 0.5
  }
}
layer {
  name: "conv8_2_mbox_loc"
  type: "Convolution"
  bottom: "conv8_2"
  top: "conv8_2_mbox_loc"
  param {
    lr_mult: 1
    decay_mult: 1
  }
  param {
    lr_mult: 2
    decay_mult: 0
  }
  convolution_param {
    num_output: 16
    pad: 1
    kernel_size: 3
    stride: 1
    weight_filler {
      type: "xavier"
    }
    bias_filler {
      type: "constant"
      value: 0
    }
  }
}
layer {
  name: "conv8_2_mbox_loc_perm"
  type: "Permute"
  bottom: "conv8_2_mbox_loc"
  top: "conv8_2_mbox_loc_perm"
  permute_param {
    order: 0
    order: 2
    order: 3
    order: 1
  }
}
layer {
  name: "conv8_2_mbox_loc_flat"
  type: "Flatten"
  bottom: "conv8_2_mbox_loc_perm"
  top: "conv8_2_mbox_loc_flat"
  flatten_param {
    axis: 1
  }
}
layer {
  name: "conv8_2_mbox_conf"
  type: "Convolution"
  bottom: "conv8_2"
  top: "conv8_2_mbox_conf"
  param {
    lr_mult: 1
    decay_mult: 1
  }
  param {
    lr_mult: 2
    decay_mult: 0
  }
  convolution_param {
    num_output: 84
    pad: 1
    kernel_size: 3
    stride: 1
    weight_filler {
      type: "xavier"
    }
    bias_filler {
      type: "constant"
      value: 0
    }
  }
}
layer {
  name: "conv8_2_mbox_conf_perm"
  type: "Permute"
  bottom: "conv8_2_mbox_conf"
  top: "conv8_2_mbox_conf_perm"
  permute_param {
    order: 0
    order: 2
    order: 3
    order: 1
  }
}
layer {
  name: "conv8_2_mbox_conf_flat"
  type: "Flatten"
  bottom: "conv8_2_mbox_conf_perm"
  top: "conv8_2_mbox_conf_flat"
  flatten_param {
    axis: 1
  }
}
layer {
  name: "conv8_2_mbox_priorbox"
  type: "PriorBox"
  bottom: "conv8_2"
  bottom: "data"
  top: "conv8_2_mbox_priorbox"
  prior_box_param {
    min_size: 207
    max_size: 261
    aspect_ratio: 2
    flip: true
    clip: false
    variance: 0.1
    variance: 0.1
    variance: 0.2
    variance: 0.2
    step: 100
    offset: 0.5
  }
}
layer {
  name: "conv9_2_mbox_loc"
  type: "Convolution"
  bottom: "conv9_2"
  top: "conv9_2_mbox_loc"
  param {
    lr_mult: 1
    decay_mult: 1
  }
  param {
    lr_mult: 2
    decay_mult: 0
  }
  convolution_param {
    num_output: 16
    pad: 1
    kernel_size: 3
    stride: 1
    weight_filler {
      type: "xavier"
    }
    bias_filler {
      type: "constant"
      value: 0
    }
  }
}
layer {
  name: "conv9_2_mbox_loc_perm"
  type: "Permute"
  bottom: "conv9_2_mbox_loc"
  top: "conv9_2_mbox_loc_perm"
  permute_param {
    order: 0
    order: 2
    order: 3
    order: 1
  }
}
layer {
  name: "conv9_2_mbox_loc_flat"
  type: "Flatten"
  bottom: "conv9_2_mbox_loc_perm"
  top: "conv9_2_mbox_loc_flat"
  flatten_param {
    axis: 1
  }
}
layer {
  name: "conv9_2_mbox_conf"
  type: "Convolution"
  bottom: "conv9_2"
  top: "conv9_2_mbox_conf"
  param {
    lr_mult: 1
    decay_mult: 1
  }
  param {
    lr_mult: 2
    decay_mult: 0
  }
  convolution_param {
    num_output: 84
    pad: 1
    kernel_size: 3
    stride: 1
    weight_filler {
      type: "xavier"
    }
    bias_filler {
      type: "constant"
      value: 0
    }
  }
}
layer {
  name: "conv9_2_mbox_conf_perm"
  type: "Permute"
  bottom: "conv9_2_mbox_conf"
  top: "conv9_2_mbox_conf_perm"
  permute_param {
    order: 0
    order: 2
    order: 3
    order: 1
  }
}
layer {
  name: "conv9_2_mbox_conf_flat"
  type: "Flatten"
  bottom: "conv9_2_mbox_conf_perm"
  top: "conv9_2_mbox_conf_flat"
  flatten_param {
    axis: 1
  }
}
layer {
  name: "conv9_2_mbox_priorbox"
  type: "PriorBox"
  bottom: "conv9_2"
  bottom: "data"
  top: "conv9_2_mbox_priorbox"
  prior_box_param {
    min_size: 261
    max_size: 315
    aspect_ratio: 2
    flip: true
    clip: false
    variance: 0.1
    variance: 0.1
    variance: 0.2
    variance: 0.2
    step: 300
    offset: 0.5
  }
}
layer {
  name: "mbox_loc"
  type: "Concat"
  bottom: "conv4_3_norm_mbox_loc_flat"
  bottom: "fc7_mbox_loc_flat"
  bottom: "conv6_2_mbox_loc_flat"
  bottom: "conv7_2_mbox_loc_flat"
  bottom: "conv8_2_mbox_loc_flat"
  bottom: "conv9_2_mbox_loc_flat"
  top: "mbox_loc"
  concat_param {
    axis: 1
  }
}
layer {
  name: "mbox_conf"
  type: "Concat"
  bottom: "conv4_3_norm_mbox_conf_flat"
  bottom: "fc7_mbox_conf_flat"
  bottom: "conv6_2_mbox_conf_flat"
  bottom: "conv7_2_mbox_conf_flat"
  bottom: "conv8_2_mbox_conf_flat"
  bottom: "conv9_2_mbox_conf_flat"
  top: "mbox_conf"
  concat_param {
    axis: 1
  }
}
layer {
  name: "mbox_priorbox"
  type: "Concat"
  bottom: "conv4_3_norm_mbox_priorbox"
  bottom: "fc7_mbox_priorbox"
  bottom: "conv6_2_mbox_priorbox"
  bottom: "conv7_2_mbox_priorbox"
  bottom: "conv8_2_mbox_priorbox"
  bottom: "conv9_2_mbox_priorbox"
  top: "mbox_priorbox"
  concat_param {
    axis: 2
  }
}
layer {
  name: "mbox_conf_reshape"
  type: "Reshape"
  bottom: "mbox_conf"
  top: "mbox_conf_reshape"
  reshape_param {
    shape {
      dim: 0
      dim: -1
      dim: 21
    }
  }
}
layer {
  name: "mbox_conf_softmax"
  type: "Softmax"
  bottom: "mbox_conf_reshape"
  top: "mbox_conf_softmax"
  softmax_param {
    axis: 2
  }
}
layer {
  name: "mbox_conf_flatten"
  type: "Flatten"
  bottom: "mbox_conf_softmax"
  top: "mbox_conf_flatten"
  flatten_param {
    axis: 1
  }
}
layer {
  name: "detection_out"
  type: "DetectionOutput"
  bottom: "mbox_loc"
  bottom: "mbox_conf_flatten"
  bottom: "mbox_priorbox"
  top: "detection_out"
  include {
    phase: TEST
  }
  detection_output_param {
    num_classes: 21
    share_location: true
    background_label_id: 0
    nms_param {
      nms_threshold: 0.45
      top_k: 400
    }
    save_output_param {
      output_name_prefix: "comp4_det_test_"
      output_format: "VOC"
      label_map_file: "data/VOC0712/labelmap_voc.prototxt"
      name_size_file: "data/VOC0712/test_name_size.txt"
      num_test_image: 4952
    }
    code_type: CENTER_SIZE
    keep_top_k: 200
    confidence_threshold: 0.01
  }
}
layer {
  name: "detection_eval"
  type: "DetectionEvaluate"
  bottom: "detection_out"
  bottom: "label"
  top: "detection_eval"
  include {
    phase: TEST
  }
  detection_evaluate_param {
    num_classes: 21
    background_label_id: 0
    overlap_threshold: 0.5
    evaluate_difficult_gt: false
    name_size_file: "data/VOC0712/test_name_size.txt"
  }
}
I1031 13:10:03.377017 29889 layer_factory.hpp:77] Creating layer data
I1031 13:10:03.377179 29889 net.cpp:100] Creating Layer data
I1031 13:10:03.377240 29889 net.cpp:452] data -> data
I1031 13:10:03.377252 29889 net.cpp:452] data -> label
I1031 13:10:03.380384 29941 db_lmdb.cpp:35] Opened lmdb examples/VOC0712/VOC0712_test_lmdb
I1031 13:10:03.383493 29889 annotated_data_layer.cpp:62] output data size: 8,3,300,300
I1031 13:10:03.403609 29889 net.cpp:150] Setting up data
I1031 13:10:03.403663 29889 net.cpp:157] Top shape: 8 3 300 300 (2160000)
I1031 13:10:03.403668 29889 net.cpp:157] Top shape: 1 1 2 8 (16)
I1031 13:10:03.403671 29889 net.cpp:165] Memory required for data: 8640064
I1031 13:10:03.403674 29889 layer_factory.hpp:77] Creating layer data_data_0_split
I1031 13:10:03.403683 29889 net.cpp:100] Creating Layer data_data_0_split
I1031 13:10:03.403687 29889 net.cpp:478] data_data_0_split <- data
I1031 13:10:03.403692 29889 net.cpp:452] data_data_0_split -> data_data_0_split_0
I1031 13:10:03.403700 29889 net.cpp:452] data_data_0_split -> data_data_0_split_1
I1031 13:10:03.403707 29889 net.cpp:452] data_data_0_split -> data_data_0_split_2
I1031 13:10:03.403712 29889 net.cpp:452] data_data_0_split -> data_data_0_split_3
I1031 13:10:03.403723 29889 net.cpp:452] data_data_0_split -> data_data_0_split_4
I1031 13:10:03.403728 29889 net.cpp:452] data_data_0_split -> data_data_0_split_5
I1031 13:10:03.403735 29889 net.cpp:452] data_data_0_split -> data_data_0_split_6
I1031 13:10:03.403848 29889 net.cpp:150] Setting up data_data_0_split
I1031 13:10:03.403858 29889 net.cpp:157] Top shape: 8 3 300 300 (2160000)
I1031 13:10:03.403861 29889 net.cpp:157] Top shape: 8 3 300 300 (2160000)
I1031 13:10:03.403864 29889 net.cpp:157] Top shape: 8 3 300 300 (2160000)
I1031 13:10:03.403868 29889 net.cpp:157] Top shape: 8 3 300 300 (2160000)
I1031 13:10:03.403872 29889 net.cpp:157] Top shape: 8 3 300 300 (2160000)
I1031 13:10:03.403875 29889 net.cpp:157] Top shape: 8 3 300 300 (2160000)
I1031 13:10:03.403878 29889 net.cpp:157] Top shape: 8 3 300 300 (2160000)
I1031 13:10:03.403882 29889 net.cpp:165] Memory required for data: 69120064
I1031 13:10:03.403885 29889 layer_factory.hpp:77] Creating layer conv1_1
I1031 13:10:03.403895 29889 net.cpp:100] Creating Layer conv1_1
I1031 13:10:03.403901 29889 net.cpp:478] conv1_1 <- data_data_0_split_0
I1031 13:10:03.403928 29889 net.cpp:452] conv1_1 -> conv1_1
I1031 13:10:03.404268 29889 net.cpp:150] Setting up conv1_1
I1031 13:10:03.404297 29889 net.cpp:157] Top shape: 8 64 300 300 (46080000)
I1031 13:10:03.404300 29889 net.cpp:165] Memory required for data: 253440064
I1031 13:10:03.404310 29889 layer_factory.hpp:77] Creating layer relu1_1
I1031 13:10:03.404333 29889 net.cpp:100] Creating Layer relu1_1
I1031 13:10:03.404336 29889 net.cpp:478] relu1_1 <- conv1_1
I1031 13:10:03.404340 29889 net.cpp:439] relu1_1 -> conv1_1 (in-place)
I1031 13:10:03.404364 29889 net.cpp:150] Setting up relu1_1
I1031 13:10:03.404371 29889 net.cpp:157] Top shape: 8 64 300 300 (46080000)
I1031 13:10:03.404373 29889 net.cpp:165] Memory required for data: 437760064
I1031 13:10:03.404376 29889 layer_factory.hpp:77] Creating layer conv1_2
I1031 13:10:03.404399 29889 net.cpp:100] Creating Layer conv1_2
I1031 13:10:03.404405 29889 net.cpp:478] conv1_2 <- conv1_1
I1031 13:10:03.404412 29889 net.cpp:452] conv1_2 -> conv1_2
I1031 13:10:03.407152 29889 net.cpp:150] Setting up conv1_2
I1031 13:10:03.407174 29889 net.cpp:157] Top shape: 8 64 300 300 (46080000)
I1031 13:10:03.407177 29889 net.cpp:165] Memory required for data: 622080064
I1031 13:10:03.407187 29889 layer_factory.hpp:77] Creating layer relu1_2
I1031 13:10:03.407194 29889 net.cpp:100] Creating Layer relu1_2
I1031 13:10:03.407197 29889 net.cpp:478] relu1_2 <- conv1_2
I1031 13:10:03.407202 29889 net.cpp:439] relu1_2 -> conv1_2 (in-place)
I1031 13:10:03.407209 29889 net.cpp:150] Setting up relu1_2
I1031 13:10:03.407213 29889 net.cpp:157] Top shape: 8 64 300 300 (46080000)
I1031 13:10:03.407215 29889 net.cpp:165] Memory required for data: 806400064
I1031 13:10:03.407217 29889 layer_factory.hpp:77] Creating layer pool1
I1031 13:10:03.407222 29889 net.cpp:100] Creating Layer pool1
I1031 13:10:03.407224 29889 net.cpp:478] pool1 <- conv1_2
I1031 13:10:03.407229 29889 net.cpp:452] pool1 -> pool1
I1031 13:10:03.407280 29889 net.cpp:150] Setting up pool1
I1031 13:10:03.407306 29889 net.cpp:157] Top shape: 8 64 150 150 (11520000)
I1031 13:10:03.407308 29889 net.cpp:165] Memory required for data: 852480064
I1031 13:10:03.407311 29889 layer_factory.hpp:77] Creating layer conv2_1
I1031 13:10:03.407320 29889 net.cpp:100] Creating Layer conv2_1
I1031 13:10:03.407325 29889 net.cpp:478] conv2_1 <- pool1
I1031 13:10:03.407330 29889 net.cpp:452] conv2_1 -> conv2_1
I1031 13:10:03.407943 29889 net.cpp:150] Setting up conv2_1
I1031 13:10:03.407956 29889 net.cpp:157] Top shape: 8 128 150 150 (23040000)
I1031 13:10:03.407959 29889 net.cpp:165] Memory required for data: 944640064
I1031 13:10:03.407968 29889 layer_factory.hpp:77] Creating layer relu2_1
I1031 13:10:03.407974 29889 net.cpp:100] Creating Layer relu2_1
I1031 13:10:03.407980 29889 net.cpp:478] relu2_1 <- conv2_1
I1031 13:10:03.407984 29889 net.cpp:439] relu2_1 -> conv2_1 (in-place)
I1031 13:10:03.407989 29889 net.cpp:150] Setting up relu2_1
I1031 13:10:03.407995 29889 net.cpp:157] Top shape: 8 128 150 150 (23040000)
I1031 13:10:03.407997 29889 net.cpp:165] Memory required for data: 1036800064
I1031 13:10:03.408000 29889 layer_factory.hpp:77] Creating layer conv2_2
I1031 13:10:03.408008 29889 net.cpp:100] Creating Layer conv2_2
I1031 13:10:03.408013 29889 net.cpp:478] conv2_2 <- conv2_1
I1031 13:10:03.408018 29889 net.cpp:452] conv2_2 -> conv2_2
I1031 13:10:03.410181 29889 net.cpp:150] Setting up conv2_2
I1031 13:10:03.410199 29889 net.cpp:157] Top shape: 8 128 150 150 (23040000)
I1031 13:10:03.410202 29889 net.cpp:165] Memory required for data: 1128960064
I1031 13:10:03.410224 29889 layer_factory.hpp:77] Creating layer relu2_2
I1031 13:10:03.410229 29889 net.cpp:100] Creating Layer relu2_2
I1031 13:10:03.410233 29889 net.cpp:478] relu2_2 <- conv2_2
I1031 13:10:03.410238 29889 net.cpp:439] relu2_2 -> conv2_2 (in-place)
I1031 13:10:03.410282 29889 net.cpp:150] Setting up relu2_2
I1031 13:10:03.410286 29889 net.cpp:157] Top shape: 8 128 150 150 (23040000)
I1031 13:10:03.410290 29889 net.cpp:165] Memory required for data: 1221120064
I1031 13:10:03.410307 29889 layer_factory.hpp:77] Creating layer pool2
I1031 13:10:03.410313 29889 net.cpp:100] Creating Layer pool2
I1031 13:10:03.410318 29889 net.cpp:478] pool2 <- conv2_2
I1031 13:10:03.410322 29889 net.cpp:452] pool2 -> pool2
I1031 13:10:03.410363 29889 net.cpp:150] Setting up pool2
I1031 13:10:03.410373 29889 net.cpp:157] Top shape: 8 128 75 75 (5760000)
I1031 13:10:03.410375 29889 net.cpp:165] Memory required for data: 1244160064
I1031 13:10:03.410377 29889 layer_factory.hpp:77] Creating layer conv3_1
I1031 13:10:03.410385 29889 net.cpp:100] Creating Layer conv3_1
I1031 13:10:03.410390 29889 net.cpp:478] conv3_1 <- pool2
I1031 13:10:03.410395 29889 net.cpp:452] conv3_1 -> conv3_1
I1031 13:10:03.413216 29889 net.cpp:150] Setting up conv3_1
I1031 13:10:03.413234 29889 net.cpp:157] Top shape: 8 256 75 75 (11520000)
I1031 13:10:03.413238 29889 net.cpp:165] Memory required for data: 1290240064
I1031 13:10:03.413246 29889 layer_factory.hpp:77] Creating layer relu3_1
I1031 13:10:03.413255 29889 net.cpp:100] Creating Layer relu3_1
I1031 13:10:03.413259 29889 net.cpp:478] relu3_1 <- conv3_1
I1031 13:10:03.413265 29889 net.cpp:439] relu3_1 -> conv3_1 (in-place)
I1031 13:10:03.413274 29889 net.cpp:150] Setting up relu3_1
I1031 13:10:03.413280 29889 net.cpp:157] Top shape: 8 256 75 75 (11520000)
I1031 13:10:03.413281 29889 net.cpp:165] Memory required for data: 1336320064
I1031 13:10:03.413285 29889 layer_factory.hpp:77] Creating layer conv3_2
I1031 13:10:03.413291 29889 net.cpp:100] Creating Layer conv3_2
I1031 13:10:03.413296 29889 net.cpp:478] conv3_2 <- conv3_1
I1031 13:10:03.413301 29889 net.cpp:452] conv3_2 -> conv3_2
I1031 13:10:03.418375 29889 net.cpp:150] Setting up conv3_2
I1031 13:10:03.418397 29889 net.cpp:157] Top shape: 8 256 75 75 (11520000)
I1031 13:10:03.418401 29889 net.cpp:165] Memory required for data: 1382400064
I1031 13:10:03.418407 29889 layer_factory.hpp:77] Creating layer relu3_2
I1031 13:10:03.418437 29889 net.cpp:100] Creating Layer relu3_2
I1031 13:10:03.418457 29889 net.cpp:478] relu3_2 <- conv3_2
I1031 13:10:03.418467 29889 net.cpp:439] relu3_2 -> conv3_2 (in-place)
I1031 13:10:03.418473 29889 net.cpp:150] Setting up relu3_2
I1031 13:10:03.418481 29889 net.cpp:157] Top shape: 8 256 75 75 (11520000)
I1031 13:10:03.418485 29889 net.cpp:165] Memory required for data: 1428480064
I1031 13:10:03.418488 29889 layer_factory.hpp:77] Creating layer conv3_3
I1031 13:10:03.418501 29889 net.cpp:100] Creating Layer conv3_3
I1031 13:10:03.418506 29889 net.cpp:478] conv3_3 <- conv3_2
I1031 13:10:03.418512 29889 net.cpp:452] conv3_3 -> conv3_3
I1031 13:10:03.423526 29889 net.cpp:150] Setting up conv3_3
I1031 13:10:03.423545 29889 net.cpp:157] Top shape: 8 256 75 75 (11520000)
I1031 13:10:03.423549 29889 net.cpp:165] Memory required for data: 1474560064
I1031 13:10:03.423557 29889 layer_factory.hpp:77] Creating layer relu3_3
I1031 13:10:03.423568 29889 net.cpp:100] Creating Layer relu3_3
I1031 13:10:03.423570 29889 net.cpp:478] relu3_3 <- conv3_3
I1031 13:10:03.423578 29889 net.cpp:439] relu3_3 -> conv3_3 (in-place)
I1031 13:10:03.423588 29889 net.cpp:150] Setting up relu3_3
I1031 13:10:03.423593 29889 net.cpp:157] Top shape: 8 256 75 75 (11520000)
I1031 13:10:03.423599 29889 net.cpp:165] Memory required for data: 1520640064
I1031 13:10:03.423600 29889 layer_factory.hpp:77] Creating layer pool3
I1031 13:10:03.423605 29889 net.cpp:100] Creating Layer pool3
I1031 13:10:03.423610 29889 net.cpp:478] pool3 <- conv3_3
I1031 13:10:03.423615 29889 net.cpp:452] pool3 -> pool3
I1031 13:10:03.423660 29889 net.cpp:150] Setting up pool3
I1031 13:10:03.423669 29889 net.cpp:157] Top shape: 8 256 38 38 (2957312)
I1031 13:10:03.423671 29889 net.cpp:165] Memory required for data: 1532469312
I1031 13:10:03.423674 29889 layer_factory.hpp:77] Creating layer conv4_1
I1031 13:10:03.423684 29889 net.cpp:100] Creating Layer conv4_1
I1031 13:10:03.423691 29889 net.cpp:478] conv4_1 <- pool3
I1031 13:10:03.423696 29889 net.cpp:452] conv4_1 -> conv4_1
I1031 13:10:03.432814 29889 net.cpp:150] Setting up conv4_1
I1031 13:10:03.432847 29889 net.cpp:157] Top shape: 8 512 38 38 (5914624)
I1031 13:10:03.432850 29889 net.cpp:165] Memory required for data: 1556127808
I1031 13:10:03.432857 29889 layer_factory.hpp:77] Creating layer relu4_1
I1031 13:10:03.432862 29889 net.cpp:100] Creating Layer relu4_1
I1031 13:10:03.432867 29889 net.cpp:478] relu4_1 <- conv4_1
I1031 13:10:03.432871 29889 net.cpp:439] relu4_1 -> conv4_1 (in-place)
I1031 13:10:03.432878 29889 net.cpp:150] Setting up relu4_1
I1031 13:10:03.432881 29889 net.cpp:157] Top shape: 8 512 38 38 (5914624)
I1031 13:10:03.432889 29889 net.cpp:165] Memory required for data: 1579786304
I1031 13:10:03.432898 29889 layer_factory.hpp:77] Creating layer conv4_2
I1031 13:10:03.432906 29889 net.cpp:100] Creating Layer conv4_2
I1031 13:10:03.432909 29889 net.cpp:478] conv4_2 <- conv4_1
I1031 13:10:03.432914 29889 net.cpp:452] conv4_2 -> conv4_2
I1031 13:10:03.450742 29889 net.cpp:150] Setting up conv4_2
I1031 13:10:03.450757 29889 net.cpp:157] Top shape: 8 512 38 38 (5914624)
I1031 13:10:03.450759 29889 net.cpp:165] Memory required for data: 1603444800
I1031 13:10:03.450791 29889 layer_factory.hpp:77] Creating layer relu4_2
I1031 13:10:03.450798 29889 net.cpp:100] Creating Layer relu4_2
I1031 13:10:03.450801 29889 net.cpp:478] relu4_2 <- conv4_2
I1031 13:10:03.450806 29889 net.cpp:439] relu4_2 -> conv4_2 (in-place)
I1031 13:10:03.450812 29889 net.cpp:150] Setting up relu4_2
I1031 13:10:03.450816 29889 net.cpp:157] Top shape: 8 512 38 38 (5914624)
I1031 13:10:03.450819 29889 net.cpp:165] Memory required for data: 1627103296
I1031 13:10:03.450820 29889 layer_factory.hpp:77] Creating layer conv4_3
I1031 13:10:03.450827 29889 net.cpp:100] Creating Layer conv4_3
I1031 13:10:03.450830 29889 net.cpp:478] conv4_3 <- conv4_2
I1031 13:10:03.450835 29889 net.cpp:452] conv4_3 -> conv4_3
I1031 13:10:03.467274 29889 net.cpp:150] Setting up conv4_3
I1031 13:10:03.467286 29889 net.cpp:157] Top shape: 8 512 38 38 (5914624)
I1031 13:10:03.467289 29889 net.cpp:165] Memory required for data: 1650761792
I1031 13:10:03.467295 29889 layer_factory.hpp:77] Creating layer relu4_3
I1031 13:10:03.467310 29889 net.cpp:100] Creating Layer relu4_3
I1031 13:10:03.467314 29889 net.cpp:478] relu4_3 <- conv4_3
I1031 13:10:03.467317 29889 net.cpp:439] relu4_3 -> conv4_3 (in-place)
I1031 13:10:03.467324 29889 net.cpp:150] Setting up relu4_3
I1031 13:10:03.467327 29889 net.cpp:157] Top shape: 8 512 38 38 (5914624)
I1031 13:10:03.467329 29889 net.cpp:165] Memory required for data: 1674420288
I1031 13:10:03.467331 29889 layer_factory.hpp:77] Creating layer conv4_3_relu4_3_0_split
I1031 13:10:03.467335 29889 net.cpp:100] Creating Layer conv4_3_relu4_3_0_split
I1031 13:10:03.467337 29889 net.cpp:478] conv4_3_relu4_3_0_split <- conv4_3
I1031 13:10:03.467342 29889 net.cpp:452] conv4_3_relu4_3_0_split -> conv4_3_relu4_3_0_split_0
I1031 13:10:03.467347 29889 net.cpp:452] conv4_3_relu4_3_0_split -> conv4_3_relu4_3_0_split_1
I1031 13:10:03.467383 29889 net.cpp:150] Setting up conv4_3_relu4_3_0_split
I1031 13:10:03.467388 29889 net.cpp:157] Top shape: 8 512 38 38 (5914624)
I1031 13:10:03.467391 29889 net.cpp:157] Top shape: 8 512 38 38 (5914624)
I1031 13:10:03.467392 29889 net.cpp:165] Memory required for data: 1721737280
I1031 13:10:03.467396 29889 layer_factory.hpp:77] Creating layer pool4
I1031 13:10:03.467401 29889 net.cpp:100] Creating Layer pool4
I1031 13:10:03.467402 29889 net.cpp:478] pool4 <- conv4_3_relu4_3_0_split_0
I1031 13:10:03.467407 29889 net.cpp:452] pool4 -> pool4
I1031 13:10:03.467438 29889 net.cpp:150] Setting up pool4
I1031 13:10:03.467443 29889 net.cpp:157] Top shape: 8 512 19 19 (1478656)
I1031 13:10:03.467445 29889 net.cpp:165] Memory required for data: 1727651904
I1031 13:10:03.467447 29889 layer_factory.hpp:77] Creating layer conv5_1
I1031 13:10:03.467455 29889 net.cpp:100] Creating Layer conv5_1
I1031 13:10:03.467458 29889 net.cpp:478] conv5_1 <- pool4
I1031 13:10:03.467463 29889 net.cpp:452] conv5_1 -> conv5_1
I1031 13:10:03.484447 29889 net.cpp:150] Setting up conv5_1
I1031 13:10:03.484462 29889 net.cpp:157] Top shape: 8 512 19 19 (1478656)
I1031 13:10:03.484477 29889 net.cpp:165] Memory required for data: 1733566528
I1031 13:10:03.484483 29889 layer_factory.hpp:77] Creating layer relu5_1
I1031 13:10:03.484489 29889 net.cpp:100] Creating Layer relu5_1
I1031 13:10:03.484508 29889 net.cpp:478] relu5_1 <- conv5_1
I1031 13:10:03.484513 29889 net.cpp:439] relu5_1 -> conv5_1 (in-place)
I1031 13:10:03.484519 29889 net.cpp:150] Setting up relu5_1
I1031 13:10:03.484521 29889 net.cpp:157] Top shape: 8 512 19 19 (1478656)
I1031 13:10:03.484524 29889 net.cpp:165] Memory required for data: 1739481152
I1031 13:10:03.484525 29889 layer_factory.hpp:77] Creating layer conv5_2
I1031 13:10:03.484534 29889 net.cpp:100] Creating Layer conv5_2
I1031 13:10:03.484536 29889 net.cpp:478] conv5_2 <- conv5_1
I1031 13:10:03.484542 29889 net.cpp:452] conv5_2 -> conv5_2
I1031 13:10:03.501802 29889 net.cpp:150] Setting up conv5_2
I1031 13:10:03.501816 29889 net.cpp:157] Top shape: 8 512 19 19 (1478656)
I1031 13:10:03.501818 29889 net.cpp:165] Memory required for data: 1745395776
I1031 13:10:03.501824 29889 layer_factory.hpp:77] Creating layer relu5_2
I1031 13:10:03.501829 29889 net.cpp:100] Creating Layer relu5_2
I1031 13:10:03.501832 29889 net.cpp:478] relu5_2 <- conv5_2
I1031 13:10:03.501837 29889 net.cpp:439] relu5_2 -> conv5_2 (in-place)
I1031 13:10:03.501843 29889 net.cpp:150] Setting up relu5_2
I1031 13:10:03.501847 29889 net.cpp:157] Top shape: 8 512 19 19 (1478656)
I1031 13:10:03.501848 29889 net.cpp:165] Memory required for data: 1751310400
I1031 13:10:03.501850 29889 layer_factory.hpp:77] Creating layer conv5_3
I1031 13:10:03.501857 29889 net.cpp:100] Creating Layer conv5_3
I1031 13:10:03.501860 29889 net.cpp:478] conv5_3 <- conv5_2
I1031 13:10:03.501865 29889 net.cpp:452] conv5_3 -> conv5_3
I1031 13:10:03.518249 29889 net.cpp:150] Setting up conv5_3
I1031 13:10:03.518262 29889 net.cpp:157] Top shape: 8 512 19 19 (1478656)
I1031 13:10:03.518265 29889 net.cpp:165] Memory required for data: 1757225024
I1031 13:10:03.518270 29889 layer_factory.hpp:77] Creating layer relu5_3
I1031 13:10:03.518280 29889 net.cpp:100] Creating Layer relu5_3
I1031 13:10:03.518283 29889 net.cpp:478] relu5_3 <- conv5_3
I1031 13:10:03.518287 29889 net.cpp:439] relu5_3 -> conv5_3 (in-place)
I1031 13:10:03.518292 29889 net.cpp:150] Setting up relu5_3
I1031 13:10:03.518296 29889 net.cpp:157] Top shape: 8 512 19 19 (1478656)
I1031 13:10:03.518298 29889 net.cpp:165] Memory required for data: 1763139648
I1031 13:10:03.518301 29889 layer_factory.hpp:77] Creating layer pool5
I1031 13:10:03.518306 29889 net.cpp:100] Creating Layer pool5
I1031 13:10:03.518307 29889 net.cpp:478] pool5 <- conv5_3
I1031 13:10:03.518311 29889 net.cpp:452] pool5 -> pool5
I1031 13:10:03.518347 29889 net.cpp:150] Setting up pool5
I1031 13:10:03.518352 29889 net.cpp:157] Top shape: 8 512 19 19 (1478656)
I1031 13:10:03.518354 29889 net.cpp:165] Memory required for data: 1769054272
I1031 13:10:03.518357 29889 layer_factory.hpp:77] Creating layer fc6
I1031 13:10:03.518364 29889 net.cpp:100] Creating Layer fc6
I1031 13:10:03.518368 29889 net.cpp:478] fc6 <- pool5
I1031 13:10:03.518373 29889 net.cpp:452] fc6 -> fc6
I1031 13:10:03.551290 29889 net.cpp:150] Setting up fc6
I1031 13:10:03.551319 29889 net.cpp:157] Top shape: 8 1024 19 19 (2957312)
I1031 13:10:03.551337 29889 net.cpp:165] Memory required for data: 1780883520
I1031 13:10:03.551342 29889 layer_factory.hpp:77] Creating layer relu6
I1031 13:10:03.551348 29889 net.cpp:100] Creating Layer relu6
I1031 13:10:03.551352 29889 net.cpp:478] relu6 <- fc6
I1031 13:10:03.551357 29889 net.cpp:439] relu6 -> fc6 (in-place)
I1031 13:10:03.551362 29889 net.cpp:150] Setting up relu6
I1031 13:10:03.551367 29889 net.cpp:157] Top shape: 8 1024 19 19 (2957312)
I1031 13:10:03.551368 29889 net.cpp:165] Memory required for data: 1792712768
I1031 13:10:03.551370 29889 layer_factory.hpp:77] Creating layer fc7
I1031 13:10:03.551380 29889 net.cpp:100] Creating Layer fc7
I1031 13:10:03.551398 29889 net.cpp:478] fc7 <- fc6
I1031 13:10:03.551403 29889 net.cpp:452] fc7 -> fc7
I1031 13:10:03.559650 29889 net.cpp:150] Setting up fc7
I1031 13:10:03.559680 29889 net.cpp:157] Top shape: 8 1024 19 19 (2957312)
I1031 13:10:03.559684 29889 net.cpp:165] Memory required for data: 1804542016
I1031 13:10:03.559689 29889 layer_factory.hpp:77] Creating layer relu7
I1031 13:10:03.559695 29889 net.cpp:100] Creating Layer relu7
I1031 13:10:03.559697 29889 net.cpp:478] relu7 <- fc7
I1031 13:10:03.559703 29889 net.cpp:439] relu7 -> fc7 (in-place)
I1031 13:10:03.559710 29889 net.cpp:150] Setting up relu7
I1031 13:10:03.559712 29889 net.cpp:157] Top shape: 8 1024 19 19 (2957312)
I1031 13:10:03.559715 29889 net.cpp:165] Memory required for data: 1816371264
I1031 13:10:03.559717 29889 layer_factory.hpp:77] Creating layer fc7_relu7_0_split
I1031 13:10:03.559722 29889 net.cpp:100] Creating Layer fc7_relu7_0_split
I1031 13:10:03.559725 29889 net.cpp:478] fc7_relu7_0_split <- fc7
I1031 13:10:03.559729 29889 net.cpp:452] fc7_relu7_0_split -> fc7_relu7_0_split_0
I1031 13:10:03.559736 29889 net.cpp:452] fc7_relu7_0_split -> fc7_relu7_0_split_1
I1031 13:10:03.559746 29889 net.cpp:452] fc7_relu7_0_split -> fc7_relu7_0_split_2
I1031 13:10:03.559751 29889 net.cpp:452] fc7_relu7_0_split -> fc7_relu7_0_split_3
I1031 13:10:03.559810 29889 net.cpp:150] Setting up fc7_relu7_0_split
I1031 13:10:03.559816 29889 net.cpp:157] Top shape: 8 1024 19 19 (2957312)
I1031 13:10:03.559820 29889 net.cpp:157] Top shape: 8 1024 19 19 (2957312)
I1031 13:10:03.559837 29889 net.cpp:157] Top shape: 8 1024 19 19 (2957312)
I1031 13:10:03.559840 29889 net.cpp:157] Top shape: 8 1024 19 19 (2957312)
I1031 13:10:03.559842 29889 net.cpp:165] Memory required for data: 1863688256
I1031 13:10:03.559845 29889 layer_factory.hpp:77] Creating layer conv6_1
I1031 13:10:03.559854 29889 net.cpp:100] Creating Layer conv6_1
I1031 13:10:03.559856 29889 net.cpp:478] conv6_1 <- fc7_relu7_0_split_0
I1031 13:10:03.559864 29889 net.cpp:452] conv6_1 -> conv6_1
I1031 13:10:03.562467 29889 net.cpp:150] Setting up conv6_1
I1031 13:10:03.562479 29889 net.cpp:157] Top shape: 8 256 19 19 (739328)
I1031 13:10:03.562482 29889 net.cpp:165] Memory required for data: 1866645568
I1031 13:10:03.562502 29889 layer_factory.hpp:77] Creating layer conv6_1_relu
I1031 13:10:03.562526 29889 net.cpp:100] Creating Layer conv6_1_relu
I1031 13:10:03.562530 29889 net.cpp:478] conv6_1_relu <- conv6_1
I1031 13:10:03.562538 29889 net.cpp:439] conv6_1_relu -> conv6_1 (in-place)
I1031 13:10:03.562544 29889 net.cpp:150] Setting up conv6_1_relu
I1031 13:10:03.562547 29889 net.cpp:157] Top shape: 8 256 19 19 (739328)
I1031 13:10:03.562551 29889 net.cpp:165] Memory required for data: 1869602880
I1031 13:10:03.562552 29889 layer_factory.hpp:77] Creating layer conv6_2
I1031 13:10:03.562561 29889 net.cpp:100] Creating Layer conv6_2
I1031 13:10:03.562563 29889 net.cpp:478] conv6_2 <- conv6_1
I1031 13:10:03.562569 29889 net.cpp:452] conv6_2 -> conv6_2
I1031 13:10:03.571297 29889 net.cpp:150] Setting up conv6_2
I1031 13:10:03.571311 29889 net.cpp:157] Top shape: 8 512 10 10 (409600)
I1031 13:10:03.571315 29889 net.cpp:165] Memory required for data: 1871241280
I1031 13:10:03.571353 29889 layer_factory.hpp:77] Creating layer conv6_2_relu
I1031 13:10:03.571359 29889 net.cpp:100] Creating Layer conv6_2_relu
I1031 13:10:03.571362 29889 net.cpp:478] conv6_2_relu <- conv6_2
I1031 13:10:03.571368 29889 net.cpp:439] conv6_2_relu -> conv6_2 (in-place)
I1031 13:10:03.571375 29889 net.cpp:150] Setting up conv6_2_relu
I1031 13:10:03.571378 29889 net.cpp:157] Top shape: 8 512 10 10 (409600)
I1031 13:10:03.571380 29889 net.cpp:165] Memory required for data: 1872879680
I1031 13:10:03.571383 29889 layer_factory.hpp:77] Creating layer conv6_2_conv6_2_relu_0_split
I1031 13:10:03.571388 29889 net.cpp:100] Creating Layer conv6_2_conv6_2_relu_0_split
I1031 13:10:03.571390 29889 net.cpp:478] conv6_2_conv6_2_relu_0_split <- conv6_2
I1031 13:10:03.571394 29889 net.cpp:452] conv6_2_conv6_2_relu_0_split -> conv6_2_conv6_2_relu_0_split_0
I1031 13:10:03.571401 29889 net.cpp:452] conv6_2_conv6_2_relu_0_split -> conv6_2_conv6_2_relu_0_split_1
I1031 13:10:03.571406 29889 net.cpp:452] conv6_2_conv6_2_relu_0_split -> conv6_2_conv6_2_relu_0_split_2
I1031 13:10:03.571424 29889 net.cpp:452] conv6_2_conv6_2_relu_0_split -> conv6_2_conv6_2_relu_0_split_3
I1031 13:10:03.571504 29889 net.cpp:150] Setting up conv6_2_conv6_2_relu_0_split
I1031 13:10:03.571509 29889 net.cpp:157] Top shape: 8 512 10 10 (409600)
I1031 13:10:03.571512 29889 net.cpp:157] Top shape: 8 512 10 10 (409600)
I1031 13:10:03.571516 29889 net.cpp:157] Top shape: 8 512 10 10 (409600)
I1031 13:10:03.571518 29889 net.cpp:157] Top shape: 8 512 10 10 (409600)
I1031 13:10:03.571519 29889 net.cpp:165] Memory required for data: 1879433280
I1031 13:10:03.571522 29889 layer_factory.hpp:77] Creating layer conv7_1
I1031 13:10:03.571533 29889 net.cpp:100] Creating Layer conv7_1
I1031 13:10:03.571537 29889 net.cpp:478] conv7_1 <- conv6_2_conv6_2_relu_0_split_0
I1031 13:10:03.571542 29889 net.cpp:452] conv7_1 -> conv7_1
I1031 13:10:03.573164 29889 net.cpp:150] Setting up conv7_1
I1031 13:10:03.573175 29889 net.cpp:157] Top shape: 8 128 10 10 (102400)
I1031 13:10:03.573179 29889 net.cpp:165] Memory required for data: 1879842880
I1031 13:10:03.573184 29889 layer_factory.hpp:77] Creating layer conv7_1_relu
I1031 13:10:03.573189 29889 net.cpp:100] Creating Layer conv7_1_relu
I1031 13:10:03.573191 29889 net.cpp:478] conv7_1_relu <- conv7_1
I1031 13:10:03.573197 29889 net.cpp:439] conv7_1_relu -> conv7_1 (in-place)
I1031 13:10:03.573202 29889 net.cpp:150] Setting up conv7_1_relu
I1031 13:10:03.573206 29889 net.cpp:157] Top shape: 8 128 10 10 (102400)
I1031 13:10:03.573209 29889 net.cpp:165] Memory required for data: 1880252480
I1031 13:10:03.573210 29889 layer_factory.hpp:77] Creating layer conv7_2
I1031 13:10:03.573218 29889 net.cpp:100] Creating Layer conv7_2
I1031 13:10:03.573220 29889 net.cpp:478] conv7_2 <- conv7_1
I1031 13:10:03.573226 29889 net.cpp:452] conv7_2 -> conv7_2
I1031 13:10:03.576010 29889 net.cpp:150] Setting up conv7_2
I1031 13:10:03.576022 29889 net.cpp:157] Top shape: 8 256 5 5 (51200)
I1031 13:10:03.576025 29889 net.cpp:165] Memory required for data: 1880457280
I1031 13:10:03.576030 29889 layer_factory.hpp:77] Creating layer conv7_2_relu
I1031 13:10:03.576037 29889 net.cpp:100] Creating Layer conv7_2_relu
I1031 13:10:03.576040 29889 net.cpp:478] conv7_2_relu <- conv7_2
I1031 13:10:03.576045 29889 net.cpp:439] conv7_2_relu -> conv7_2 (in-place)
I1031 13:10:03.576050 29889 net.cpp:150] Setting up conv7_2_relu
I1031 13:10:03.576053 29889 net.cpp:157] Top shape: 8 256 5 5 (51200)
I1031 13:10:03.576056 29889 net.cpp:165] Memory required for data: 1880662080
I1031 13:10:03.576057 29889 layer_factory.hpp:77] Creating layer conv7_2_conv7_2_relu_0_split
I1031 13:10:03.576063 29889 net.cpp:100] Creating Layer conv7_2_conv7_2_relu_0_split
I1031 13:10:03.576066 29889 net.cpp:478] conv7_2_conv7_2_relu_0_split <- conv7_2
I1031 13:10:03.576071 29889 net.cpp:452] conv7_2_conv7_2_relu_0_split -> conv7_2_conv7_2_relu_0_split_0
I1031 13:10:03.576076 29889 net.cpp:452] conv7_2_conv7_2_relu_0_split -> conv7_2_conv7_2_relu_0_split_1
I1031 13:10:03.576082 29889 net.cpp:452] conv7_2_conv7_2_relu_0_split -> conv7_2_conv7_2_relu_0_split_2
I1031 13:10:03.576087 29889 net.cpp:452] conv7_2_conv7_2_relu_0_split -> conv7_2_conv7_2_relu_0_split_3
I1031 13:10:03.576159 29889 net.cpp:150] Setting up conv7_2_conv7_2_relu_0_split
I1031 13:10:03.576164 29889 net.cpp:157] Top shape: 8 256 5 5 (51200)
I1031 13:10:03.576165 29889 net.cpp:157] Top shape: 8 256 5 5 (51200)
I1031 13:10:03.576169 29889 net.cpp:157] Top shape: 8 256 5 5 (51200)
I1031 13:10:03.576171 29889 net.cpp:157] Top shape: 8 256 5 5 (51200)
I1031 13:10:03.576174 29889 net.cpp:165] Memory required for data: 1881481280
I1031 13:10:03.576175 29889 layer_factory.hpp:77] Creating layer conv8_1
I1031 13:10:03.576196 29889 net.cpp:100] Creating Layer conv8_1
I1031 13:10:03.576200 29889 net.cpp:478] conv8_1 <- conv7_2_conv7_2_relu_0_split_0
I1031 13:10:03.576205 29889 net.cpp:452] conv8_1 -> conv8_1
I1031 13:10:03.576576 29889 net.cpp:150] Setting up conv8_1
I1031 13:10:03.576583 29889 net.cpp:157] Top shape: 8 128 5 5 (25600)
I1031 13:10:03.576607 29889 net.cpp:165] Memory required for data: 1881583680
I1031 13:10:03.576613 29889 layer_factory.hpp:77] Creating layer conv8_1_relu
I1031 13:10:03.576645 29889 net.cpp:100] Creating Layer conv8_1_relu
I1031 13:10:03.576648 29889 net.cpp:478] conv8_1_relu <- conv8_1
I1031 13:10:03.576653 29889 net.cpp:439] conv8_1_relu -> conv8_1 (in-place)
I1031 13:10:03.576656 29889 net.cpp:150] Setting up conv8_1_relu
I1031 13:10:03.576660 29889 net.cpp:157] Top shape: 8 128 5 5 (25600)
I1031 13:10:03.576663 29889 net.cpp:165] Memory required for data: 1881686080
I1031 13:10:03.576665 29889 layer_factory.hpp:77] Creating layer conv8_2
I1031 13:10:03.576673 29889 net.cpp:100] Creating Layer conv8_2
I1031 13:10:03.576675 29889 net.cpp:478] conv8_2 <- conv8_1
I1031 13:10:03.576696 29889 net.cpp:452] conv8_2 -> conv8_2
I1031 13:10:03.579645 29889 net.cpp:150] Setting up conv8_2
I1031 13:10:03.579658 29889 net.cpp:157] Top shape: 8 256 3 3 (18432)
I1031 13:10:03.579660 29889 net.cpp:165] Memory required for data: 1881759808
I1031 13:10:03.579665 29889 layer_factory.hpp:77] Creating layer conv8_2_relu
I1031 13:10:03.579672 29889 net.cpp:100] Creating Layer conv8_2_relu
I1031 13:10:03.579675 29889 net.cpp:478] conv8_2_relu <- conv8_2
I1031 13:10:03.579679 29889 net.cpp:439] conv8_2_relu -> conv8_2 (in-place)
I1031 13:10:03.579685 29889 net.cpp:150] Setting up conv8_2_relu
I1031 13:10:03.579689 29889 net.cpp:157] Top shape: 8 256 3 3 (18432)
I1031 13:10:03.579690 29889 net.cpp:165] Memory required for data: 1881833536
I1031 13:10:03.579694 29889 layer_factory.hpp:77] Creating layer conv8_2_conv8_2_relu_0_split
I1031 13:10:03.579697 29889 net.cpp:100] Creating Layer conv8_2_conv8_2_relu_0_split
I1031 13:10:03.579699 29889 net.cpp:478] conv8_2_conv8_2_relu_0_split <- conv8_2
I1031 13:10:03.579705 29889 net.cpp:452] conv8_2_conv8_2_relu_0_split -> conv8_2_conv8_2_relu_0_split_0
I1031 13:10:03.579710 29889 net.cpp:452] conv8_2_conv8_2_relu_0_split -> conv8_2_conv8_2_relu_0_split_1
I1031 13:10:03.579717 29889 net.cpp:452] conv8_2_conv8_2_relu_0_split -> conv8_2_conv8_2_relu_0_split_2
I1031 13:10:03.579722 29889 net.cpp:452] conv8_2_conv8_2_relu_0_split -> conv8_2_conv8_2_relu_0_split_3
I1031 13:10:03.579783 29889 net.cpp:150] Setting up conv8_2_conv8_2_relu_0_split
I1031 13:10:03.579788 29889 net.cpp:157] Top shape: 8 256 3 3 (18432)
I1031 13:10:03.579792 29889 net.cpp:157] Top shape: 8 256 3 3 (18432)
I1031 13:10:03.579794 29889 net.cpp:157] Top shape: 8 256 3 3 (18432)
I1031 13:10:03.579797 29889 net.cpp:157] Top shape: 8 256 3 3 (18432)
I1031 13:10:03.579798 29889 net.cpp:165] Memory required for data: 1882128448
I1031 13:10:03.579802 29889 layer_factory.hpp:77] Creating layer conv9_1
I1031 13:10:03.579809 29889 net.cpp:100] Creating Layer conv9_1
I1031 13:10:03.579813 29889 net.cpp:478] conv9_1 <- conv8_2_conv8_2_relu_0_split_0
I1031 13:10:03.579818 29889 net.cpp:452] conv9_1 -> conv9_1
I1031 13:10:03.580195 29889 net.cpp:150] Setting up conv9_1
I1031 13:10:03.580204 29889 net.cpp:157] Top shape: 8 128 3 3 (9216)
I1031 13:10:03.580205 29889 net.cpp:165] Memory required for data: 1882165312
I1031 13:10:03.580210 29889 layer_factory.hpp:77] Creating layer conv9_1_relu
I1031 13:10:03.580214 29889 net.cpp:100] Creating Layer conv9_1_relu
I1031 13:10:03.580217 29889 net.cpp:478] conv9_1_relu <- conv9_1
I1031 13:10:03.580222 29889 net.cpp:439] conv9_1_relu -> conv9_1 (in-place)
I1031 13:10:03.580226 29889 net.cpp:150] Setting up conv9_1_relu
I1031 13:10:03.580230 29889 net.cpp:157] Top shape: 8 128 3 3 (9216)
I1031 13:10:03.580232 29889 net.cpp:165] Memory required for data: 1882202176
I1031 13:10:03.580235 29889 layer_factory.hpp:77] Creating layer conv9_2
I1031 13:10:03.580241 29889 net.cpp:100] Creating Layer conv9_2
I1031 13:10:03.580243 29889 net.cpp:478] conv9_2 <- conv9_1
I1031 13:10:03.580248 29889 net.cpp:452] conv9_2 -> conv9_2
I1031 13:10:03.583148 29889 net.cpp:150] Setting up conv9_2
I1031 13:10:03.583160 29889 net.cpp:157] Top shape: 8 256 1 1 (2048)
I1031 13:10:03.583163 29889 net.cpp:165] Memory required for data: 1882210368
I1031 13:10:03.583179 29889 layer_factory.hpp:77] Creating layer conv9_2_relu
I1031 13:10:03.583185 29889 net.cpp:100] Creating Layer conv9_2_relu
I1031 13:10:03.583189 29889 net.cpp:478] conv9_2_relu <- conv9_2
I1031 13:10:03.583194 29889 net.cpp:439] conv9_2_relu -> conv9_2 (in-place)
I1031 13:10:03.583200 29889 net.cpp:150] Setting up conv9_2_relu
I1031 13:10:03.583204 29889 net.cpp:157] Top shape: 8 256 1 1 (2048)
I1031 13:10:03.583205 29889 net.cpp:165] Memory required for data: 1882218560
I1031 13:10:03.583209 29889 layer_factory.hpp:77] Creating layer conv9_2_conv9_2_relu_0_split
I1031 13:10:03.583212 29889 net.cpp:100] Creating Layer conv9_2_conv9_2_relu_0_split
I1031 13:10:03.583215 29889 net.cpp:478] conv9_2_conv9_2_relu_0_split <- conv9_2
I1031 13:10:03.583221 29889 net.cpp:452] conv9_2_conv9_2_relu_0_split -> conv9_2_conv9_2_relu_0_split_0
I1031 13:10:03.583227 29889 net.cpp:452] conv9_2_conv9_2_relu_0_split -> conv9_2_conv9_2_relu_0_split_1
I1031 13:10:03.583232 29889 net.cpp:452] conv9_2_conv9_2_relu_0_split -> conv9_2_conv9_2_relu_0_split_2
I1031 13:10:03.583282 29889 net.cpp:150] Setting up conv9_2_conv9_2_relu_0_split
I1031 13:10:03.583287 29889 net.cpp:157] Top shape: 8 256 1 1 (2048)
I1031 13:10:03.583290 29889 net.cpp:157] Top shape: 8 256 1 1 (2048)
I1031 13:10:03.583293 29889 net.cpp:157] Top shape: 8 256 1 1 (2048)
I1031 13:10:03.583294 29889 net.cpp:165] Memory required for data: 1882243136
I1031 13:10:03.583297 29889 layer_factory.hpp:77] Creating layer conv4_3_norm
I1031 13:10:03.583303 29889 net.cpp:100] Creating Layer conv4_3_norm
I1031 13:10:03.583305 29889 net.cpp:478] conv4_3_norm <- conv4_3_relu4_3_0_split_1
I1031 13:10:03.583312 29889 net.cpp:452] conv4_3_norm -> conv4_3_norm
I1031 13:10:03.583452 29889 net.cpp:150] Setting up conv4_3_norm
I1031 13:10:03.583458 29889 net.cpp:157] Top shape: 8 512 38 38 (5914624)
I1031 13:10:03.583461 29889 net.cpp:165] Memory required for data: 1905901632
I1031 13:10:03.583464 29889 layer_factory.hpp:77] Creating layer conv4_3_norm_conv4_3_norm_0_split
I1031 13:10:03.583469 29889 net.cpp:100] Creating Layer conv4_3_norm_conv4_3_norm_0_split
I1031 13:10:03.583472 29889 net.cpp:478] conv4_3_norm_conv4_3_norm_0_split <- conv4_3_norm
I1031 13:10:03.583477 29889 net.cpp:452] conv4_3_norm_conv4_3_norm_0_split -> conv4_3_norm_conv4_3_norm_0_split_0
I1031 13:10:03.583482 29889 net.cpp:452] conv4_3_norm_conv4_3_norm_0_split -> conv4_3_norm_conv4_3_norm_0_split_1
I1031 13:10:03.583487 29889 net.cpp:452] conv4_3_norm_conv4_3_norm_0_split -> conv4_3_norm_conv4_3_norm_0_split_2
I1031 13:10:03.583529 29889 net.cpp:150] Setting up conv4_3_norm_conv4_3_norm_0_split
I1031 13:10:03.583534 29889 net.cpp:157] Top shape: 8 512 38 38 (5914624)
I1031 13:10:03.583537 29889 net.cpp:157] Top shape: 8 512 38 38 (5914624)
I1031 13:10:03.583540 29889 net.cpp:157] Top shape: 8 512 38 38 (5914624)
I1031 13:10:03.583542 29889 net.cpp:165] Memory required for data: 1976877120
I1031 13:10:03.583544 29889 layer_factory.hpp:77] Creating layer conv4_3_norm_mbox_loc
I1031 13:10:03.583554 29889 net.cpp:100] Creating Layer conv4_3_norm_mbox_loc
I1031 13:10:03.583555 29889 net.cpp:478] conv4_3_norm_mbox_loc <- conv4_3_norm_conv4_3_norm_0_split_0
I1031 13:10:03.583560 29889 net.cpp:452] conv4_3_norm_mbox_loc -> conv4_3_norm_mbox_loc
I1031 13:10:03.584173 29889 net.cpp:150] Setting up conv4_3_norm_mbox_loc
I1031 13:10:03.584180 29889 net.cpp:157] Top shape: 8 16 38 38 (184832)
I1031 13:10:03.584182 29889 net.cpp:165] Memory required for data: 1977616448
I1031 13:10:03.584187 29889 layer_factory.hpp:77] Creating layer conv4_3_norm_mbox_loc_perm
I1031 13:10:03.584197 29889 net.cpp:100] Creating Layer conv4_3_norm_mbox_loc_perm
I1031 13:10:03.584199 29889 net.cpp:478] conv4_3_norm_mbox_loc_perm <- conv4_3_norm_mbox_loc
I1031 13:10:03.584205 29889 net.cpp:452] conv4_3_norm_mbox_loc_perm -> conv4_3_norm_mbox_loc_perm
I1031 13:10:03.584296 29889 net.cpp:150] Setting up conv4_3_norm_mbox_loc_perm
I1031 13:10:03.584303 29889 net.cpp:157] Top shape: 8 38 38 16 (184832)
I1031 13:10:03.584314 29889 net.cpp:165] Memory required for data: 1978355776
I1031 13:10:03.584317 29889 layer_factory.hpp:77] Creating layer conv4_3_norm_mbox_loc_flat
I1031 13:10:03.584322 29889 net.cpp:100] Creating Layer conv4_3_norm_mbox_loc_flat
I1031 13:10:03.584326 29889 net.cpp:478] conv4_3_norm_mbox_loc_flat <- conv4_3_norm_mbox_loc_perm
I1031 13:10:03.584329 29889 net.cpp:452] conv4_3_norm_mbox_loc_flat -> conv4_3_norm_mbox_loc_flat
I1031 13:10:03.584367 29889 net.cpp:150] Setting up conv4_3_norm_mbox_loc_flat
I1031 13:10:03.584372 29889 net.cpp:157] Top shape: 8 23104 (184832)
I1031 13:10:03.584374 29889 net.cpp:165] Memory required for data: 1979095104
I1031 13:10:03.584377 29889 layer_factory.hpp:77] Creating layer conv4_3_norm_mbox_conf
I1031 13:10:03.584391 29889 net.cpp:100] Creating Layer conv4_3_norm_mbox_conf
I1031 13:10:03.584394 29889 net.cpp:478] conv4_3_norm_mbox_conf <- conv4_3_norm_conv4_3_norm_0_split_1
I1031 13:10:03.584399 29889 net.cpp:452] conv4_3_norm_mbox_conf -> conv4_3_norm_mbox_conf
I1031 13:10:03.587780 29889 net.cpp:150] Setting up conv4_3_norm_mbox_conf
I1031 13:10:03.587792 29889 net.cpp:157] Top shape: 8 84 38 38 (970368)
I1031 13:10:03.587795 29889 net.cpp:165] Memory required for data: 1982976576
I1031 13:10:03.587800 29889 layer_factory.hpp:77] Creating layer conv4_3_norm_mbox_conf_perm
I1031 13:10:03.587808 29889 net.cpp:100] Creating Layer conv4_3_norm_mbox_conf_perm
I1031 13:10:03.587812 29889 net.cpp:478] conv4_3_norm_mbox_conf_perm <- conv4_3_norm_mbox_conf
I1031 13:10:03.587818 29889 net.cpp:452] conv4_3_norm_mbox_conf_perm -> conv4_3_norm_mbox_conf_perm
I1031 13:10:03.587929 29889 net.cpp:150] Setting up conv4_3_norm_mbox_conf_perm
I1031 13:10:03.587934 29889 net.cpp:157] Top shape: 8 38 38 84 (970368)
I1031 13:10:03.587937 29889 net.cpp:165] Memory required for data: 1986858048
I1031 13:10:03.587940 29889 layer_factory.hpp:77] Creating layer conv4_3_norm_mbox_conf_flat
I1031 13:10:03.587945 29889 net.cpp:100] Creating Layer conv4_3_norm_mbox_conf_flat
I1031 13:10:03.587947 29889 net.cpp:478] conv4_3_norm_mbox_conf_flat <- conv4_3_norm_mbox_conf_perm
I1031 13:10:03.587951 29889 net.cpp:452] conv4_3_norm_mbox_conf_flat -> conv4_3_norm_mbox_conf_flat
I1031 13:10:03.587975 29889 net.cpp:150] Setting up conv4_3_norm_mbox_conf_flat
I1031 13:10:03.587980 29889 net.cpp:157] Top shape: 8 121296 (970368)
I1031 13:10:03.587981 29889 net.cpp:165] Memory required for data: 1990739520
I1031 13:10:03.587983 29889 layer_factory.hpp:77] Creating layer conv4_3_norm_mbox_priorbox
I1031 13:10:03.587990 29889 net.cpp:100] Creating Layer conv4_3_norm_mbox_priorbox
I1031 13:10:03.587993 29889 net.cpp:478] conv4_3_norm_mbox_priorbox <- conv4_3_norm_conv4_3_norm_0_split_2
I1031 13:10:03.587996 29889 net.cpp:478] conv4_3_norm_mbox_priorbox <- data_data_0_split_1
I1031 13:10:03.588002 29889 net.cpp:452] conv4_3_norm_mbox_priorbox -> conv4_3_norm_mbox_priorbox
I1031 13:10:03.588026 29889 net.cpp:150] Setting up conv4_3_norm_mbox_priorbox
I1031 13:10:03.588033 29889 net.cpp:157] Top shape: 1 2 23104 (46208)
I1031 13:10:03.588035 29889 net.cpp:165] Memory required for data: 1990924352
I1031 13:10:03.588037 29889 layer_factory.hpp:77] Creating layer fc7_mbox_loc
I1031 13:10:03.588044 29889 net.cpp:100] Creating Layer fc7_mbox_loc
I1031 13:10:03.588047 29889 net.cpp:478] fc7_mbox_loc <- fc7_relu7_0_split_1
I1031 13:10:03.588053 29889 net.cpp:452] fc7_mbox_loc -> fc7_mbox_loc
I1031 13:10:03.590921 29889 net.cpp:150] Setting up fc7_mbox_loc
I1031 13:10:03.590934 29889 net.cpp:157] Top shape: 8 24 19 19 (69312)
I1031 13:10:03.590935 29889 net.cpp:165] Memory required for data: 1991201600
I1031 13:10:03.590940 29889 layer_factory.hpp:77] Creating layer fc7_mbox_loc_perm
I1031 13:10:03.590948 29889 net.cpp:100] Creating Layer fc7_mbox_loc_perm
I1031 13:10:03.590952 29889 net.cpp:478] fc7_mbox_loc_perm <- fc7_mbox_loc
I1031 13:10:03.590957 29889 net.cpp:452] fc7_mbox_loc_perm -> fc7_mbox_loc_perm
I1031 13:10:03.591063 29889 net.cpp:150] Setting up fc7_mbox_loc_perm
I1031 13:10:03.591069 29889 net.cpp:157] Top shape: 8 19 19 24 (69312)
I1031 13:10:03.591081 29889 net.cpp:165] Memory required for data: 1991478848
I1031 13:10:03.591084 29889 layer_factory.hpp:77] Creating layer fc7_mbox_loc_flat
I1031 13:10:03.591090 29889 net.cpp:100] Creating Layer fc7_mbox_loc_flat
I1031 13:10:03.591094 29889 net.cpp:478] fc7_mbox_loc_flat <- fc7_mbox_loc_perm
I1031 13:10:03.591097 29889 net.cpp:452] fc7_mbox_loc_flat -> fc7_mbox_loc_flat
I1031 13:10:03.591123 29889 net.cpp:150] Setting up fc7_mbox_loc_flat
I1031 13:10:03.591130 29889 net.cpp:157] Top shape: 8 8664 (69312)
I1031 13:10:03.591132 29889 net.cpp:165] Memory required for data: 1991756096
I1031 13:10:03.591135 29889 layer_factory.hpp:77] Creating layer fc7_mbox_conf
I1031 13:10:03.591145 29889 net.cpp:100] Creating Layer fc7_mbox_conf
I1031 13:10:03.591147 29889 net.cpp:478] fc7_mbox_conf <- fc7_relu7_0_split_2
I1031 13:10:03.591153 29889 net.cpp:452] fc7_mbox_conf -> fc7_mbox_conf
I1031 13:10:03.599678 29889 net.cpp:150] Setting up fc7_mbox_conf
I1031 13:10:03.599689 29889 net.cpp:157] Top shape: 8 126 19 19 (363888)
I1031 13:10:03.599691 29889 net.cpp:165] Memory required for data: 1993211648
I1031 13:10:03.599696 29889 layer_factory.hpp:77] Creating layer fc7_mbox_conf_perm
I1031 13:10:03.599704 29889 net.cpp:100] Creating Layer fc7_mbox_conf_perm
I1031 13:10:03.599707 29889 net.cpp:478] fc7_mbox_conf_perm <- fc7_mbox_conf
I1031 13:10:03.599714 29889 net.cpp:452] fc7_mbox_conf_perm -> fc7_mbox_conf_perm
I1031 13:10:03.599824 29889 net.cpp:150] Setting up fc7_mbox_conf_perm
I1031 13:10:03.599830 29889 net.cpp:157] Top shape: 8 19 19 126 (363888)
I1031 13:10:03.599833 29889 net.cpp:165] Memory required for data: 1994667200
I1031 13:10:03.599834 29889 layer_factory.hpp:77] Creating layer fc7_mbox_conf_flat
I1031 13:10:03.599839 29889 net.cpp:100] Creating Layer fc7_mbox_conf_flat
I1031 13:10:03.599843 29889 net.cpp:478] fc7_mbox_conf_flat <- fc7_mbox_conf_perm
I1031 13:10:03.599848 29889 net.cpp:452] fc7_mbox_conf_flat -> fc7_mbox_conf_flat
I1031 13:10:03.599869 29889 net.cpp:150] Setting up fc7_mbox_conf_flat
I1031 13:10:03.599875 29889 net.cpp:157] Top shape: 8 45486 (363888)
I1031 13:10:03.599877 29889 net.cpp:165] Memory required for data: 1996122752
I1031 13:10:03.599879 29889 layer_factory.hpp:77] Creating layer fc7_mbox_priorbox
I1031 13:10:03.599884 29889 net.cpp:100] Creating Layer fc7_mbox_priorbox
I1031 13:10:03.599887 29889 net.cpp:478] fc7_mbox_priorbox <- fc7_relu7_0_split_3
I1031 13:10:03.599891 29889 net.cpp:478] fc7_mbox_priorbox <- data_data_0_split_2
I1031 13:10:03.599903 29889 net.cpp:452] fc7_mbox_priorbox -> fc7_mbox_priorbox
I1031 13:10:03.599930 29889 net.cpp:150] Setting up fc7_mbox_priorbox
I1031 13:10:03.599934 29889 net.cpp:157] Top shape: 1 2 8664 (17328)
I1031 13:10:03.599936 29889 net.cpp:165] Memory required for data: 1996192064
I1031 13:10:03.599938 29889 layer_factory.hpp:77] Creating layer conv6_2_mbox_loc
I1031 13:10:03.599947 29889 net.cpp:100] Creating Layer conv6_2_mbox_loc
I1031 13:10:03.599951 29889 net.cpp:478] conv6_2_mbox_loc <- conv6_2_conv6_2_relu_0_split_1
I1031 13:10:03.599956 29889 net.cpp:452] conv6_2_mbox_loc -> conv6_2_mbox_loc
I1031 13:10:03.602151 29889 net.cpp:150] Setting up conv6_2_mbox_loc
I1031 13:10:03.602164 29889 net.cpp:157] Top shape: 8 24 10 10 (19200)
I1031 13:10:03.602166 29889 net.cpp:165] Memory required for data: 1996268864
I1031 13:10:03.602171 29889 layer_factory.hpp:77] Creating layer conv6_2_mbox_loc_perm
I1031 13:10:03.602179 29889 net.cpp:100] Creating Layer conv6_2_mbox_loc_perm
I1031 13:10:03.602181 29889 net.cpp:478] conv6_2_mbox_loc_perm <- conv6_2_mbox_loc
I1031 13:10:03.602188 29889 net.cpp:452] conv6_2_mbox_loc_perm -> conv6_2_mbox_loc_perm
I1031 13:10:03.602349 29889 net.cpp:150] Setting up conv6_2_mbox_loc_perm
I1031 13:10:03.602354 29889 net.cpp:157] Top shape: 8 10 10 24 (19200)
I1031 13:10:03.602355 29889 net.cpp:165] Memory required for data: 1996345664
I1031 13:10:03.602358 29889 layer_factory.hpp:77] Creating layer conv6_2_mbox_loc_flat
I1031 13:10:03.602362 29889 net.cpp:100] Creating Layer conv6_2_mbox_loc_flat
I1031 13:10:03.602375 29889 net.cpp:478] conv6_2_mbox_loc_flat <- conv6_2_mbox_loc_perm
I1031 13:10:03.602383 29889 net.cpp:452] conv6_2_mbox_loc_flat -> conv6_2_mbox_loc_flat
I1031 13:10:03.602409 29889 net.cpp:150] Setting up conv6_2_mbox_loc_flat
I1031 13:10:03.602414 29889 net.cpp:157] Top shape: 8 2400 (19200)
I1031 13:10:03.602416 29889 net.cpp:165] Memory required for data: 1996422464
I1031 13:10:03.602418 29889 layer_factory.hpp:77] Creating layer conv6_2_mbox_conf
I1031 13:10:03.602427 29889 net.cpp:100] Creating Layer conv6_2_mbox_conf
I1031 13:10:03.602430 29889 net.cpp:478] conv6_2_mbox_conf <- conv6_2_conv6_2_relu_0_split_2
I1031 13:10:03.602438 29889 net.cpp:452] conv6_2_mbox_conf -> conv6_2_mbox_conf
I1031 13:10:03.607242 29889 net.cpp:150] Setting up conv6_2_mbox_conf
I1031 13:10:03.607254 29889 net.cpp:157] Top shape: 8 126 10 10 (100800)
I1031 13:10:03.607256 29889 net.cpp:165] Memory required for data: 1996825664
I1031 13:10:03.607261 29889 layer_factory.hpp:77] Creating layer conv6_2_mbox_conf_perm
I1031 13:10:03.607270 29889 net.cpp:100] Creating Layer conv6_2_mbox_conf_perm
I1031 13:10:03.607273 29889 net.cpp:478] conv6_2_mbox_conf_perm <- conv6_2_mbox_conf
I1031 13:10:03.607278 29889 net.cpp:452] conv6_2_mbox_conf_perm -> conv6_2_mbox_conf_perm
I1031 13:10:03.607374 29889 net.cpp:150] Setting up conv6_2_mbox_conf_perm
I1031 13:10:03.607379 29889 net.cpp:157] Top shape: 8 10 10 126 (100800)
I1031 13:10:03.607381 29889 net.cpp:165] Memory required for data: 1997228864
I1031 13:10:03.607384 29889 layer_factory.hpp:77] Creating layer conv6_2_mbox_conf_flat
I1031 13:10:03.607389 29889 net.cpp:100] Creating Layer conv6_2_mbox_conf_flat
I1031 13:10:03.607391 29889 net.cpp:478] conv6_2_mbox_conf_flat <- conv6_2_mbox_conf_perm
I1031 13:10:03.607398 29889 net.cpp:452] conv6_2_mbox_conf_flat -> conv6_2_mbox_conf_flat
I1031 13:10:03.607422 29889 net.cpp:150] Setting up conv6_2_mbox_conf_flat
I1031 13:10:03.607426 29889 net.cpp:157] Top shape: 8 12600 (100800)
I1031 13:10:03.607429 29889 net.cpp:165] Memory required for data: 1997632064
I1031 13:10:03.607431 29889 layer_factory.hpp:77] Creating layer conv6_2_mbox_priorbox
I1031 13:10:03.607436 29889 net.cpp:100] Creating Layer conv6_2_mbox_priorbox
I1031 13:10:03.607439 29889 net.cpp:478] conv6_2_mbox_priorbox <- conv6_2_conv6_2_relu_0_split_3
I1031 13:10:03.607444 29889 net.cpp:478] conv6_2_mbox_priorbox <- data_data_0_split_3
I1031 13:10:03.607450 29889 net.cpp:452] conv6_2_mbox_priorbox -> conv6_2_mbox_priorbox
I1031 13:10:03.607475 29889 net.cpp:150] Setting up conv6_2_mbox_priorbox
I1031 13:10:03.607481 29889 net.cpp:157] Top shape: 1 2 2400 (4800)
I1031 13:10:03.607482 29889 net.cpp:165] Memory required for data: 1997651264
I1031 13:10:03.607484 29889 layer_factory.hpp:77] Creating layer conv7_2_mbox_loc
I1031 13:10:03.607493 29889 net.cpp:100] Creating Layer conv7_2_mbox_loc
I1031 13:10:03.607496 29889 net.cpp:478] conv7_2_mbox_loc <- conv7_2_conv7_2_relu_0_split_1
I1031 13:10:03.607502 29889 net.cpp:452] conv7_2_mbox_loc -> conv7_2_mbox_loc
I1031 13:10:03.608002 29889 net.cpp:150] Setting up conv7_2_mbox_loc
I1031 13:10:03.608008 29889 net.cpp:157] Top shape: 8 24 5 5 (4800)
I1031 13:10:03.608011 29889 net.cpp:165] Memory required for data: 1997670464
I1031 13:10:03.608016 29889 layer_factory.hpp:77] Creating layer conv7_2_mbox_loc_perm
I1031 13:10:03.608022 29889 net.cpp:100] Creating Layer conv7_2_mbox_loc_perm
I1031 13:10:03.608026 29889 net.cpp:478] conv7_2_mbox_loc_perm <- conv7_2_mbox_loc
I1031 13:10:03.608029 29889 net.cpp:452] conv7_2_mbox_loc_perm -> conv7_2_mbox_loc_perm
I1031 13:10:03.608120 29889 net.cpp:150] Setting up conv7_2_mbox_loc_perm
I1031 13:10:03.608125 29889 net.cpp:157] Top shape: 8 5 5 24 (4800)
I1031 13:10:03.608126 29889 net.cpp:165] Memory required for data: 1997689664
I1031 13:10:03.608129 29889 layer_factory.hpp:77] Creating layer conv7_2_mbox_loc_flat
I1031 13:10:03.608134 29889 net.cpp:100] Creating Layer conv7_2_mbox_loc_flat
I1031 13:10:03.608136 29889 net.cpp:478] conv7_2_mbox_loc_flat <- conv7_2_mbox_loc_perm
I1031 13:10:03.608153 29889 net.cpp:452] conv7_2_mbox_loc_flat -> conv7_2_mbox_loc_flat
I1031 13:10:03.608180 29889 net.cpp:150] Setting up conv7_2_mbox_loc_flat
I1031 13:10:03.608186 29889 net.cpp:157] Top shape: 8 600 (4800)
I1031 13:10:03.608187 29889 net.cpp:165] Memory required for data: 1997708864
I1031 13:10:03.608189 29889 layer_factory.hpp:77] Creating layer conv7_2_mbox_conf
I1031 13:10:03.608198 29889 net.cpp:100] Creating Layer conv7_2_mbox_conf
I1031 13:10:03.608201 29889 net.cpp:478] conv7_2_mbox_conf <- conv7_2_conv7_2_relu_0_split_2
I1031 13:10:03.608207 29889 net.cpp:452] conv7_2_mbox_conf -> conv7_2_mbox_conf
I1031 13:10:03.610944 29889 net.cpp:150] Setting up conv7_2_mbox_conf
I1031 13:10:03.610955 29889 net.cpp:157] Top shape: 8 126 5 5 (25200)
I1031 13:10:03.610957 29889 net.cpp:165] Memory required for data: 1997809664
I1031 13:10:03.610962 29889 layer_factory.hpp:77] Creating layer conv7_2_mbox_conf_perm
I1031 13:10:03.610970 29889 net.cpp:100] Creating Layer conv7_2_mbox_conf_perm
I1031 13:10:03.610973 29889 net.cpp:478] conv7_2_mbox_conf_perm <- conv7_2_mbox_conf
I1031 13:10:03.610978 29889 net.cpp:452] conv7_2_mbox_conf_perm -> conv7_2_mbox_conf_perm
I1031 13:10:03.611071 29889 net.cpp:150] Setting up conv7_2_mbox_conf_perm
I1031 13:10:03.611078 29889 net.cpp:157] Top shape: 8 5 5 126 (25200)
I1031 13:10:03.611078 29889 net.cpp:165] Memory required for data: 1997910464
I1031 13:10:03.611081 29889 layer_factory.hpp:77] Creating layer conv7_2_mbox_conf_flat
I1031 13:10:03.611088 29889 net.cpp:100] Creating Layer conv7_2_mbox_conf_flat
I1031 13:10:03.611090 29889 net.cpp:478] conv7_2_mbox_conf_flat <- conv7_2_mbox_conf_perm
I1031 13:10:03.611094 29889 net.cpp:452] conv7_2_mbox_conf_flat -> conv7_2_mbox_conf_flat
I1031 13:10:03.611116 29889 net.cpp:150] Setting up conv7_2_mbox_conf_flat
I1031 13:10:03.611120 29889 net.cpp:157] Top shape: 8 3150 (25200)
I1031 13:10:03.611122 29889 net.cpp:165] Memory required for data: 1998011264
I1031 13:10:03.611124 29889 layer_factory.hpp:77] Creating layer conv7_2_mbox_priorbox
I1031 13:10:03.611132 29889 net.cpp:100] Creating Layer conv7_2_mbox_priorbox
I1031 13:10:03.611135 29889 net.cpp:478] conv7_2_mbox_priorbox <- conv7_2_conv7_2_relu_0_split_3
I1031 13:10:03.611138 29889 net.cpp:478] conv7_2_mbox_priorbox <- data_data_0_split_4
I1031 13:10:03.611142 29889 net.cpp:452] conv7_2_mbox_priorbox -> conv7_2_mbox_priorbox
I1031 13:10:03.611166 29889 net.cpp:150] Setting up conv7_2_mbox_priorbox
I1031 13:10:03.611171 29889 net.cpp:157] Top shape: 1 2 600 (1200)
I1031 13:10:03.611172 29889 net.cpp:165] Memory required for data: 1998016064
I1031 13:10:03.611174 29889 layer_factory.hpp:77] Creating layer conv8_2_mbox_loc
I1031 13:10:03.611182 29889 net.cpp:100] Creating Layer conv8_2_mbox_loc
I1031 13:10:03.611186 29889 net.cpp:478] conv8_2_mbox_loc <- conv8_2_conv8_2_relu_0_split_1
I1031 13:10:03.611191 29889 net.cpp:452] conv8_2_mbox_loc -> conv8_2_mbox_loc
I1031 13:10:03.611593 29889 net.cpp:150] Setting up conv8_2_mbox_loc
I1031 13:10:03.611598 29889 net.cpp:157] Top shape: 8 16 3 3 (1152)
I1031 13:10:03.611615 29889 net.cpp:165] Memory required for data: 1998020672
I1031 13:10:03.611629 29889 layer_factory.hpp:77] Creating layer conv8_2_mbox_loc_perm
I1031 13:10:03.611650 29889 net.cpp:100] Creating Layer conv8_2_mbox_loc_perm
I1031 13:10:03.611654 29889 net.cpp:478] conv8_2_mbox_loc_perm <- conv8_2_mbox_loc
I1031 13:10:03.611657 29889 net.cpp:452] conv8_2_mbox_loc_perm -> conv8_2_mbox_loc_perm
I1031 13:10:03.611788 29889 net.cpp:150] Setting up conv8_2_mbox_loc_perm
I1031 13:10:03.611793 29889 net.cpp:157] Top shape: 8 3 3 16 (1152)
I1031 13:10:03.611795 29889 net.cpp:165] Memory required for data: 1998025280
I1031 13:10:03.611799 29889 layer_factory.hpp:77] Creating layer conv8_2_mbox_loc_flat
I1031 13:10:03.611802 29889 net.cpp:100] Creating Layer conv8_2_mbox_loc_flat
I1031 13:10:03.611805 29889 net.cpp:478] conv8_2_mbox_loc_flat <- conv8_2_mbox_loc_perm
I1031 13:10:03.611812 29889 net.cpp:452] conv8_2_mbox_loc_flat -> conv8_2_mbox_loc_flat
I1031 13:10:03.611848 29889 net.cpp:150] Setting up conv8_2_mbox_loc_flat
I1031 13:10:03.611866 29889 net.cpp:157] Top shape: 8 144 (1152)
I1031 13:10:03.611868 29889 net.cpp:165] Memory required for data: 1998029888
I1031 13:10:03.611871 29889 layer_factory.hpp:77] Creating layer conv8_2_mbox_conf
I1031 13:10:03.611879 29889 net.cpp:100] Creating Layer conv8_2_mbox_conf
I1031 13:10:03.611882 29889 net.cpp:478] conv8_2_mbox_conf <- conv8_2_conv8_2_relu_0_split_2
I1031 13:10:03.611909 29889 net.cpp:452] conv8_2_mbox_conf -> conv8_2_mbox_conf
I1031 13:10:03.614186 29889 net.cpp:150] Setting up conv8_2_mbox_conf
I1031 13:10:03.614197 29889 net.cpp:157] Top shape: 8 84 3 3 (6048)
I1031 13:10:03.614199 29889 net.cpp:165] Memory required for data: 1998054080
I1031 13:10:03.614210 29889 layer_factory.hpp:77] Creating layer conv8_2_mbox_conf_perm
I1031 13:10:03.614217 29889 net.cpp:100] Creating Layer conv8_2_mbox_conf_perm
I1031 13:10:03.614219 29889 net.cpp:478] conv8_2_mbox_conf_perm <- conv8_2_mbox_conf
I1031 13:10:03.614226 29889 net.cpp:452] conv8_2_mbox_conf_perm -> conv8_2_mbox_conf_perm
I1031 13:10:03.614846 29889 net.cpp:150] Setting up conv8_2_mbox_conf_perm
I1031 13:10:03.614854 29889 net.cpp:157] Top shape: 8 3 3 84 (6048)
I1031 13:10:03.614856 29889 net.cpp:165] Memory required for data: 1998078272
I1031 13:10:03.614859 29889 layer_factory.hpp:77] Creating layer conv8_2_mbox_conf_flat
I1031 13:10:03.614864 29889 net.cpp:100] Creating Layer conv8_2_mbox_conf_flat
I1031 13:10:03.614867 29889 net.cpp:478] conv8_2_mbox_conf_flat <- conv8_2_mbox_conf_perm
I1031 13:10:03.614873 29889 net.cpp:452] conv8_2_mbox_conf_flat -> conv8_2_mbox_conf_flat
I1031 13:10:03.614923 29889 net.cpp:150] Setting up conv8_2_mbox_conf_flat
I1031 13:10:03.614928 29889 net.cpp:157] Top shape: 8 756 (6048)
I1031 13:10:03.614929 29889 net.cpp:165] Memory required for data: 1998102464
I1031 13:10:03.614948 29889 layer_factory.hpp:77] Creating layer conv8_2_mbox_priorbox
I1031 13:10:03.614953 29889 net.cpp:100] Creating Layer conv8_2_mbox_priorbox
I1031 13:10:03.614956 29889 net.cpp:478] conv8_2_mbox_priorbox <- conv8_2_conv8_2_relu_0_split_3
I1031 13:10:03.614959 29889 net.cpp:478] conv8_2_mbox_priorbox <- data_data_0_split_5
I1031 13:10:03.614980 29889 net.cpp:452] conv8_2_mbox_priorbox -> conv8_2_mbox_priorbox
I1031 13:10:03.615008 29889 net.cpp:150] Setting up conv8_2_mbox_priorbox
I1031 13:10:03.615012 29889 net.cpp:157] Top shape: 1 2 144 (288)
I1031 13:10:03.615015 29889 net.cpp:165] Memory required for data: 1998103616
I1031 13:10:03.615016 29889 layer_factory.hpp:77] Creating layer conv9_2_mbox_loc
I1031 13:10:03.615026 29889 net.cpp:100] Creating Layer conv9_2_mbox_loc
I1031 13:10:03.615030 29889 net.cpp:478] conv9_2_mbox_loc <- conv9_2_conv9_2_relu_0_split_0
I1031 13:10:03.615036 29889 net.cpp:452] conv9_2_mbox_loc -> conv9_2_mbox_loc
I1031 13:10:03.615478 29889 net.cpp:150] Setting up conv9_2_mbox_loc
I1031 13:10:03.615484 29889 net.cpp:157] Top shape: 8 16 1 1 (128)
I1031 13:10:03.615486 29889 net.cpp:165] Memory required for data: 1998104128
I1031 13:10:03.615490 29889 layer_factory.hpp:77] Creating layer conv9_2_mbox_loc_perm
I1031 13:10:03.615495 29889 net.cpp:100] Creating Layer conv9_2_mbox_loc_perm
I1031 13:10:03.615499 29889 net.cpp:478] conv9_2_mbox_loc_perm <- conv9_2_mbox_loc
I1031 13:10:03.615504 29889 net.cpp:452] conv9_2_mbox_loc_perm -> conv9_2_mbox_loc_perm
I1031 13:10:03.615640 29889 net.cpp:150] Setting up conv9_2_mbox_loc_perm
I1031 13:10:03.615645 29889 net.cpp:157] Top shape: 8 1 1 16 (128)
I1031 13:10:03.615648 29889 net.cpp:165] Memory required for data: 1998104640
I1031 13:10:03.615649 29889 layer_factory.hpp:77] Creating layer conv9_2_mbox_loc_flat
I1031 13:10:03.615654 29889 net.cpp:100] Creating Layer conv9_2_mbox_loc_flat
I1031 13:10:03.615656 29889 net.cpp:478] conv9_2_mbox_loc_flat <- conv9_2_mbox_loc_perm
I1031 13:10:03.615662 29889 net.cpp:452] conv9_2_mbox_loc_flat -> conv9_2_mbox_loc_flat
I1031 13:10:03.615685 29889 net.cpp:150] Setting up conv9_2_mbox_loc_flat
I1031 13:10:03.615705 29889 net.cpp:157] Top shape: 8 16 (128)
I1031 13:10:03.615717 29889 net.cpp:165] Memory required for data: 1998105152
I1031 13:10:03.615720 29889 layer_factory.hpp:77] Creating layer conv9_2_mbox_conf
I1031 13:10:03.615732 29889 net.cpp:100] Creating Layer conv9_2_mbox_conf
I1031 13:10:03.615736 29889 net.cpp:478] conv9_2_mbox_conf <- conv9_2_conv9_2_relu_0_split_1
I1031 13:10:03.615742 29889 net.cpp:452] conv9_2_mbox_conf -> conv9_2_mbox_conf
I1031 13:10:03.618167 29889 net.cpp:150] Setting up conv9_2_mbox_conf
I1031 13:10:03.618180 29889 net.cpp:157] Top shape: 8 84 1 1 (672)
I1031 13:10:03.618181 29889 net.cpp:165] Memory required for data: 1998107840
I1031 13:10:03.618187 29889 layer_factory.hpp:77] Creating layer conv9_2_mbox_conf_perm
I1031 13:10:03.618196 29889 net.cpp:100] Creating Layer conv9_2_mbox_conf_perm
I1031 13:10:03.618198 29889 net.cpp:478] conv9_2_mbox_conf_perm <- conv9_2_mbox_conf
I1031 13:10:03.618203 29889 net.cpp:452] conv9_2_mbox_conf_perm -> conv9_2_mbox_conf_perm
I1031 13:10:03.618297 29889 net.cpp:150] Setting up conv9_2_mbox_conf_perm
I1031 13:10:03.618304 29889 net.cpp:157] Top shape: 8 1 1 84 (672)
I1031 13:10:03.618304 29889 net.cpp:165] Memory required for data: 1998110528
I1031 13:10:03.618307 29889 layer_factory.hpp:77] Creating layer conv9_2_mbox_conf_flat
I1031 13:10:03.618311 29889 net.cpp:100] Creating Layer conv9_2_mbox_conf_flat
I1031 13:10:03.618314 29889 net.cpp:478] conv9_2_mbox_conf_flat <- conv9_2_mbox_conf_perm
I1031 13:10:03.618319 29889 net.cpp:452] conv9_2_mbox_conf_flat -> conv9_2_mbox_conf_flat
I1031 13:10:03.618343 29889 net.cpp:150] Setting up conv9_2_mbox_conf_flat
I1031 13:10:03.618347 29889 net.cpp:157] Top shape: 8 84 (672)
I1031 13:10:03.618350 29889 net.cpp:165] Memory required for data: 1998113216
I1031 13:10:03.618351 29889 layer_factory.hpp:77] Creating layer conv9_2_mbox_priorbox
I1031 13:10:03.618357 29889 net.cpp:100] Creating Layer conv9_2_mbox_priorbox
I1031 13:10:03.618360 29889 net.cpp:478] conv9_2_mbox_priorbox <- conv9_2_conv9_2_relu_0_split_2
I1031 13:10:03.618363 29889 net.cpp:478] conv9_2_mbox_priorbox <- data_data_0_split_6
I1031 13:10:03.618369 29889 net.cpp:452] conv9_2_mbox_priorbox -> conv9_2_mbox_priorbox
I1031 13:10:03.618396 29889 net.cpp:150] Setting up conv9_2_mbox_priorbox
I1031 13:10:03.618401 29889 net.cpp:157] Top shape: 1 2 16 (32)
I1031 13:10:03.618402 29889 net.cpp:165] Memory required for data: 1998113344
I1031 13:10:03.618404 29889 layer_factory.hpp:77] Creating layer mbox_loc
I1031 13:10:03.618410 29889 net.cpp:100] Creating Layer mbox_loc
I1031 13:10:03.618413 29889 net.cpp:478] mbox_loc <- conv4_3_norm_mbox_loc_flat
I1031 13:10:03.618417 29889 net.cpp:478] mbox_loc <- fc7_mbox_loc_flat
I1031 13:10:03.618420 29889 net.cpp:478] mbox_loc <- conv6_2_mbox_loc_flat
I1031 13:10:03.618423 29889 net.cpp:478] mbox_loc <- conv7_2_mbox_loc_flat
I1031 13:10:03.618427 29889 net.cpp:478] mbox_loc <- conv8_2_mbox_loc_flat
I1031 13:10:03.618443 29889 net.cpp:478] mbox_loc <- conv9_2_mbox_loc_flat
I1031 13:10:03.618449 29889 net.cpp:452] mbox_loc -> mbox_loc
I1031 13:10:03.618475 29889 net.cpp:150] Setting up mbox_loc
I1031 13:10:03.618480 29889 net.cpp:157] Top shape: 8 34928 (279424)
I1031 13:10:03.618482 29889 net.cpp:165] Memory required for data: 1999231040
I1031 13:10:03.618484 29889 layer_factory.hpp:77] Creating layer mbox_conf
I1031 13:10:03.618489 29889 net.cpp:100] Creating Layer mbox_conf
I1031 13:10:03.618491 29889 net.cpp:478] mbox_conf <- conv4_3_norm_mbox_conf_flat
I1031 13:10:03.618495 29889 net.cpp:478] mbox_conf <- fc7_mbox_conf_flat
I1031 13:10:03.618499 29889 net.cpp:478] mbox_conf <- conv6_2_mbox_conf_flat
I1031 13:10:03.618501 29889 net.cpp:478] mbox_conf <- conv7_2_mbox_conf_flat
I1031 13:10:03.618504 29889 net.cpp:478] mbox_conf <- conv8_2_mbox_conf_flat
I1031 13:10:03.618506 29889 net.cpp:478] mbox_conf <- conv9_2_mbox_conf_flat
I1031 13:10:03.618512 29889 net.cpp:452] mbox_conf -> mbox_conf
I1031 13:10:03.618535 29889 net.cpp:150] Setting up mbox_conf
I1031 13:10:03.618538 29889 net.cpp:157] Top shape: 8 183372 (1466976)
I1031 13:10:03.618551 29889 net.cpp:165] Memory required for data: 2005098944
I1031 13:10:03.618554 29889 layer_factory.hpp:77] Creating layer mbox_priorbox
I1031 13:10:03.618559 29889 net.cpp:100] Creating Layer mbox_priorbox
I1031 13:10:03.618562 29889 net.cpp:478] mbox_priorbox <- conv4_3_norm_mbox_priorbox
I1031 13:10:03.618566 29889 net.cpp:478] mbox_priorbox <- fc7_mbox_priorbox
I1031 13:10:03.618568 29889 net.cpp:478] mbox_priorbox <- conv6_2_mbox_priorbox
I1031 13:10:03.618571 29889 net.cpp:478] mbox_priorbox <- conv7_2_mbox_priorbox
I1031 13:10:03.618573 29889 net.cpp:478] mbox_priorbox <- conv8_2_mbox_priorbox
I1031 13:10:03.618577 29889 net.cpp:478] mbox_priorbox <- conv9_2_mbox_priorbox
I1031 13:10:03.618582 29889 net.cpp:452] mbox_priorbox -> mbox_priorbox
I1031 13:10:03.618607 29889 net.cpp:150] Setting up mbox_priorbox
I1031 13:10:03.618613 29889 net.cpp:157] Top shape: 1 2 34928 (69856)
I1031 13:10:03.618614 29889 net.cpp:165] Memory required for data: 2005378368
I1031 13:10:03.618618 29889 layer_factory.hpp:77] Creating layer mbox_conf_reshape
I1031 13:10:03.618623 29889 net.cpp:100] Creating Layer mbox_conf_reshape
I1031 13:10:03.618626 29889 net.cpp:478] mbox_conf_reshape <- mbox_conf
I1031 13:10:03.618630 29889 net.cpp:452] mbox_conf_reshape -> mbox_conf_reshape
I1031 13:10:03.618681 29889 net.cpp:150] Setting up mbox_conf_reshape
I1031 13:10:03.618701 29889 net.cpp:157] Top shape: 8 8732 21 (1466976)
I1031 13:10:03.618703 29889 net.cpp:165] Memory required for data: 2011246272
I1031 13:10:03.618706 29889 layer_factory.hpp:77] Creating layer mbox_conf_softmax
I1031 13:10:03.618713 29889 net.cpp:100] Creating Layer mbox_conf_softmax
I1031 13:10:03.618716 29889 net.cpp:478] mbox_conf_softmax <- mbox_conf_reshape
I1031 13:10:03.618721 29889 net.cpp:452] mbox_conf_softmax -> mbox_conf_softmax
I1031 13:10:03.618798 29889 net.cpp:150] Setting up mbox_conf_softmax
I1031 13:10:03.618801 29889 net.cpp:157] Top shape: 8 8732 21 (1466976)
I1031 13:10:03.618804 29889 net.cpp:165] Memory required for data: 2017114176
I1031 13:10:03.618806 29889 layer_factory.hpp:77] Creating layer mbox_conf_flatten
I1031 13:10:03.618810 29889 net.cpp:100] Creating Layer mbox_conf_flatten
I1031 13:10:03.618813 29889 net.cpp:478] mbox_conf_flatten <- mbox_conf_softmax
I1031 13:10:03.618819 29889 net.cpp:452] mbox_conf_flatten -> mbox_conf_flatten
I1031 13:10:03.618841 29889 net.cpp:150] Setting up mbox_conf_flatten
I1031 13:10:03.618846 29889 net.cpp:157] Top shape: 8 183372 (1466976)
I1031 13:10:03.618849 29889 net.cpp:165] Memory required for data: 2022982080
I1031 13:10:03.618850 29889 layer_factory.hpp:77] Creating layer detection_out
I1031 13:10:03.618868 29889 net.cpp:100] Creating Layer detection_out
I1031 13:10:03.618872 29889 net.cpp:478] detection_out <- mbox_loc
I1031 13:10:03.618877 29889 net.cpp:478] detection_out <- mbox_conf_flatten
I1031 13:10:03.618880 29889 net.cpp:478] detection_out <- mbox_priorbox
I1031 13:10:03.618885 29889 net.cpp:452] detection_out -> detection_out
I1031 13:10:03.620303 29889 net.cpp:150] Setting up detection_out
I1031 13:10:03.620312 29889 net.cpp:157] Top shape: 1 1 1 7 (7)
I1031 13:10:03.620316 29889 net.cpp:165] Memory required for data: 2022982108
I1031 13:10:03.620317 29889 layer_factory.hpp:77] Creating layer detection_eval
I1031 13:10:03.620324 29889 net.cpp:100] Creating Layer detection_eval
I1031 13:10:03.620327 29889 net.cpp:478] detection_eval <- detection_out
I1031 13:10:03.620332 29889 net.cpp:478] detection_eval <- label
I1031 13:10:03.620337 29889 net.cpp:452] detection_eval -> detection_eval
I1031 13:10:03.621385 29889 net.cpp:150] Setting up detection_eval
I1031 13:10:03.621392 29889 net.cpp:157] Top shape: 1 1 21 5 (105)
I1031 13:10:03.621394 29889 net.cpp:165] Memory required for data: 2022982528
I1031 13:10:03.621397 29889 net.cpp:228] detection_eval does not need backward computation.
I1031 13:10:03.621400 29889 net.cpp:228] detection_out does not need backward computation.
I1031 13:10:03.621402 29889 net.cpp:228] mbox_conf_flatten does not need backward computation.
I1031 13:10:03.621415 29889 net.cpp:228] mbox_conf_softmax does not need backward computation.
…
