…
      sampler {
        min_scale: 0.3
        max_scale: 1
        min_aspect_ratio: 0.5
        max_aspect_ratio: 2
      }
      sample_constraint {
        min_jaccard_overlap: 0.9
      }
      max_sample: 1
      max_trials: 50
    }
    batch_sampler {
      sampler {
        min_scale: 0.3
        max_scale: 1
        min_aspect_ratio: 0.5
        max_aspect_ratio: 2
      }
      sample_constraint {
        max_jaccard_overlap: 1
      }
      max_sample: 1
      max_trials: 50
    }
    label_map_file: "data/VOC0712/labelmap_voc.prototxt"
  }
}
layer {
  name: "conv1_1"
  type: "Convolution"
  bottom: "data"
  top: "conv1_1"
  param {
    lr_mult: 1
    decay_mult: 1
  }
  param {
    lr_mult: 2
    decay_mult: 0
  }
  convolution_param {
    num_output: 64
    pad: 1
    kernel_size: 3
    weight_filler {
      type: "xavier"
    }
    bias_filler {
      type: "constant"
      value: 0
    }
  }
}
layer {
  name: "relu1_1"
  type: "ReLU"
  bottom: "conv1_1"
  top: "conv1_1"
}
layer {
  name: "conv1_2"
  type: "Convolution"
  bottom: "conv1_1"
  top: "conv1_2"
  param {
    lr_mult: 1
    decay_mult: 1
  }
  param {
    lr_mult: 2
    decay_mult: 0
  }
  convolution_param {
    num_output: 64
    pad: 1
    kernel_size: 3
    weight_filler {
      type: "xavier"
    }
    bias_filler {
      type: "constant"
      value: 0
    }
  }
}
layer {
  name: "relu1_2"
  type: "ReLU"
  bottom: "conv1_2"
  top: "conv1_2"
}
layer {
  name: "pool1"
  type: "Pooling"
  bottom: "conv1_2"
  top: "pool1"
  pooling_param {
    pool: MAX
    kernel_size: 2
    stride: 2
  }
}
layer {
  name: "conv2_1"
  type: "Convolution"
  bottom: "pool1"
  top: "conv2_1"
  param {
    lr_mult: 1
    decay_mult: 1
  }
  param {
    lr_mult: 2
    decay_mult: 0
  }
  convolution_param {
    num_output: 128
    pad: 1
    kernel_size: 3
    weight_filler {
      type: "xavier"
    }
    bias_filler {
      type: "constant"
      value: 0
    }
  }
}
layer {
  name: "relu2_1"
  type: "ReLU"
  bottom: "conv2_1"
  top: "conv2_1"
}
layer {
  name: "conv2_2"
  type: "Convolution"
  bottom: "conv2_1"
  top: "conv2_2"
  param {
    lr_mult: 1
    decay_mult: 1
  }
  param {
    lr_mult: 2
    decay_mult: 0
  }
  convolution_param {
    num_output: 128
    pad: 1
    kernel_size: 3
    weight_filler {
      type: "xavier"
    }
    bias_filler {
      type: "constant"
      value: 0
    }
  }
}
layer {
  name: "relu2_2"
  type: "ReLU"
  bottom: "conv2_2"
  top: "conv2_2"
}
layer {
  name: "pool2"
  type: "Pooling"
  bottom: "conv2_2"
  top: "pool2"
  pooling_param {
    pool: MAX
    kernel_size: 2
    stride: 2
  }
}
layer {
  name: "conv3_1"
  type: "Convolution"
  bottom: "pool2"
  top: "conv3_1"
  param {
    lr_mult: 1
    decay_mult: 1
  }
  param {
    lr_mult: 2
    decay_mult: 0
  }
  convolution_param {
    num_output: 256
    pad: 1
    kernel_size: 3
    weight_filler {
      type: "xavier"
    }
    bias_filler {
      type: "constant"
      value: 0
    }
  }
}
layer {
  name: "relu3_1"
  type: "ReLU"
  bottom: "conv3_1"
  top: "conv3_1"
}
layer {
  name: "conv3_2"
  type: "Convolution"
  bottom: "conv3_1"
  top: "conv3_2"
  param {
    lr_mult: 1
    decay_mult: 1
  }
  param {
    lr_mult: 2
    decay_mult: 0
  }
  convolution_param {
    num_output: 256
    pad: 1
    kernel_size: 3
    weight_filler {
      type: "xavier"
    }
    bias_filler {
      type: "constant"
      value: 0
    }
  }
}
layer {
  name: "relu3_2"
  type: "ReLU"
  bottom: "conv3_2"
  top: "conv3_2"
}
layer {
  name: "conv3_3"
  type: "Convolution"
  bottom: "conv3_2"
  top: "conv3_3"
  param {
    lr_mult: 1
    decay_mult: 1
  }
  param {
    lr_mult: 2
    decay_mult: 0
  }
  convolution_param {
    num_output: 256
    pad: 1
    kernel_size: 3
    weight_filler {
      type: "xavier"
    }
    bias_filler {
      type: "constant"
      value: 0
    }
  }
}
layer {
  name: "relu3_3"
  type: "ReLU"
  bottom: "conv3_3"
  top: "conv3_3"
}
layer {
  name: "pool3"
  type: "Pooling"
  bottom: "conv3_3"
  top: "pool3"
  pooling_param {
    pool: MAX
    kernel_size: 2
    stride: 2
  }
}
layer {
  name: "conv4_1"
  type: "Convolution"
  bottom: "pool3"
  top: "conv4_1"
  param {
    lr_mult: 1
    decay_mult: 1
  }
  param {
    lr_mult: 2
    decay_mult: 0
  }
  convolution_param {
    num_output: 512
    pad: 1
    kernel_size: 3
    weight_filler {
      type: "xavier"
    }
    bias_filler {
      type: "constant"
      value: 0
    }
  }
}
layer {
  name: "relu4_1"
  type: "ReLU"
  bottom: "conv4_1"
  top: "conv4_1"
}
layer {
  name: "conv4_2"
  type: "Convolution"
  bottom: "conv4_1"
  top: "conv4_2"
  param {
    lr_mult: 1
    decay_mult: 1
  }
  param {
    lr_mult: 2
    decay_mult: 0
  }
  convolution_param {
    num_output: 512
    pad: 1
    kernel_size: 3
    weight_filler {
      type: "xavier"
    }
    bias_filler {
      type: "constant"
      value: 0
    }
  }
}
layer {
  name: "relu4_2"
  type: "ReLU"
  bottom: "conv4_2"
  top: "conv4_2"
}
layer {
  name: "conv4_3"
  type: "Convolution"
  bottom: "conv4_2"
  top: "conv4_3"
  param {
    lr_mult: 1
    decay_mult: 1
  }
  param {
    lr_mult: 2
    decay_mult: 0
  }
  convolution_param {
    num_output: 512
    pad: 1
    kernel_size: 3
    weight_filler {
      type: "xavier"
    }
    bias_filler {
      type: "constant"
      value: 0
    }
  }
}
layer {
  name: "relu4_3"
  type: "ReLU"
  bottom: "conv4_3"
  top: "conv4_3"
}
layer {
  name: "pool4"
  type: "Pooling"
  bottom: "conv4_3"
  top: "pool4"
  pooling_param {
    pool: MAX
    kernel_size: 2
    stride: 2
  }
}
layer {
  name: "conv5_1"
  type: "Convolution"
  bottom: "pool4"
  top: "conv5_1"
  param {
    lr_mult: 1
    decay_mult: 1
  }
  param {
    lr_mult: 2
    decay_mult: 0
  }
  convolution_param {
    num_output: 512
    pad: 1
    kernel_size: 3
    weight_filler {
      type: "xavier"
    }
    bias_filler {
      type: "constant"
      value: 0
    }
    dilation: 1
  }
}
layer {
  name: "relu5_1"
  type: "ReLU"
  bottom: "conv5_1"
  top: "conv5_1"
}
layer {
  name: "conv5_2"
  type: "Convolution"
  bottom: "conv5_1"
  top: "conv5_2"
  param {
    lr_mult: 1
    decay_mult: 1
  }
  param {
    lr_mult: 2
    decay_mult: 0
  }
  convolution_param {
    num_output: 512
    pad: 1
    kernel_size: 3
    weight_filler {
      type: "xavier"
    }
    bias_filler {
      type: "constant"
      value: 0
    }
    dilation: 1
  }
}
layer {
  name: "relu5_2"
  type: "ReLU"
  bottom: "conv5_2"
  top: "conv5_2"
}
layer {
  name: "conv5_3"
  type: "Convolution"
  bottom: "conv5_2"
  top: "conv5_3"
  param {
    lr_mult: 1
    decay_mult: 1
  }
  param {
    lr_mult: 2
    decay_mult: 0
  }
  convolution_param {
    num_output: 512
    pad: 1
    kernel_size: 3
    weight_filler {
      type: "xavier"
    }
    bias_filler {
      type: "constant"
      value: 0
    }
    dilation: 1
  }
}
layer {
  name: "relu5_3"
  type: "ReLU"
  bottom: "conv5_3"
  top: "conv5_3"
}
layer {
  name: "pool5"
  type: "Pooling"
  bottom: "conv5_3"
  top: "pool5"
  pooling_param {
    pool: MAX
    kernel_size: 3
    stride: 1
    pad: 1
  }
}
layer {
  name: "fc6"
  type: "Convolution"
  bottom: "pool5"
  top: "fc6"
  param {
    lr_mult: 1
    decay_mult: 1
  }
  param {
    lr_mult: 2
    decay_mult: 0
  }
  convolution_param {
    num_output: 1024
    pad: 6
    kernel_size: 3
    weight_filler {
      type: "xavier"
    }
    bias_filler {
      type: "constant"
      value: 0
    }
    dilation: 6
  }
}
layer {
  name: "relu6"
  type: "ReLU"
  bottom: "fc6"
  top: "fc6"
}
layer {
  name: "fc7"
  type: "Convolution"
  bottom: "fc6"
  top: "fc7"
  param {
    lr_mult: 1
    decay_mult: 1
  }
  param {
    lr_mult: 2
    decay_mult: 0
  }
  convolution_param {
    num_output: 1024
    kernel_size: 1
    weight_filler {
      type: "xavier"
    }
    bias_filler {
      type: "constant"
      value: 0
    }
  }
}
layer {
  name: "relu7"
  type: "ReLU"
  bottom: "fc7"
  top: "fc7"
}
layer {
  name: "conv6_1"
  type: "Convolution"
  bottom: "fc7"
  top: "conv6_1"
  param {
    lr_mult: 1
    decay_mult: 1
  }
  param {
    lr_mult: 2
    decay_mult: 0
  }
  convolution_param {
    num_output: 256
    pad: 0
    kernel_size: 1
    stride: 1
    weight_filler {
      type: "xavier"
    }
    bias_filler {
      type: "constant"
      value: 0
    }
  }
}
layer {
  name: "conv6_1_relu"
  type: "ReLU"
  bottom: "conv6_1"
  top: "conv6_1"
}
layer {
  name: "conv6_2"
  type: "Convolution"
  bottom: "conv6_1"
  top: "conv6_2"
  param {
    lr_mult: 1
    decay_mult: 1
  }
  param {
    lr_mult: 2
    decay_mult: 0
  }
  convolution_param {
    num_output: 512
    pad: 1
    kernel_size: 3
    stride: 2
    weight_filler {
      type: "xavier"
    }
    bias_filler {
      type: "constant"
      value: 0
    }
  }
}
layer {
  name: "conv6_2_relu"
  type: "ReLU"
  bottom: "conv6_2"
  top: "conv6_2"
}
layer {
  name: "conv7_1"
  type: "Convolution"
  bottom: "conv6_2"
  top: "conv7_1"
  param {
    lr_mult: 1
    decay_mult: 1
  }
  param {
    lr_mult: 2
    decay_mult: 0
  }
  convolution_param {
    num_output: 128
    pad: 0
    kernel_size: 1
    stride: 1
    weight_filler {
      type: "xavier"
    }
    bias_filler {
      type: "constant"
      value: 0
    }
  }
}
layer {
  name: "conv7_1_relu"
  type: "ReLU"
  bottom: "conv7_1"
  top: "conv7_1"
}
layer {
  name: "conv7_2"
  type: "Convolution"
  bottom: "conv7_1"
  top: "conv7_2"
  param {
    lr_mult: 1
    decay_mult: 1
  }
  param {
    lr_mult: 2
    decay_mult: 0
  }
  convolution_param {
    num_output: 256
    pad: 1
    kernel_size: 3
    stride: 2
    weight_filler {
      type: "xavier"
    }
    bias_filler {
      type: "constant"
      value: 0
    }
  }
}
layer {
  name: "conv7_2_relu"
  type: "ReLU"
  bottom: "conv7_2"
  top: "conv7_2"
}
layer {
  name: "conv8_1"
  type: "Convolution"
  bottom: "conv7_2"
  top: "conv8_1"
  param {
    lr_mult: 1
    decay_mult: 1
  }
  param {
    lr_mult: 2
    decay_mult: 0
  }
  convolution_param {
    num_output: 128
    pad: 0
    kernel_size: 1
    stride: 1
    weight_filler {
      type: "xavier"
    }
    bias_filler {
      type: "constant"
      value: 0
    }
  }
}
layer {
  name: "conv8_1_relu"
  type: "ReLU"
  bottom: "conv8_1"
  top: "conv8_1"
}
layer {
  name: "conv8_2"
  type: "Convolution"
  bottom: "conv8_1"
  top: "conv8_2"
  param {
    lr_mult: 1
    decay_mult: 1
  }
  param {
    lr_mult: 2
    decay_mult: 0
  }
  convolution_param {
    num_output: 256
    pad: 0
    kernel_size: 3
    stride: 1
    weight_filler {
      type: "xavier"
    }
    bias_filler {
      type: "constant"
      value: 0
    }
  }
}
layer {
  name: "conv8_2_relu"
  type: "ReLU"
  bottom: "conv8_2"
  top: "conv8_2"
}
layer {
  name: "conv9_1"
  type: "Convolution"
  bottom: "conv8_2"
  top: "conv9_1"
  param {
    lr_mult: 1
    decay_mult: 1
  }
  param {
    lr_mult: 2
    decay_mult: 0
  }
  convolution_param {
    num_output: 128
    pad: 0
    kernel_size: 1
    stride: 1
    weight_filler {
      type: "xavier"
    }
    bias_filler {
      type: "constant"
      value: 0
    }
  }
}
layer {
  name: "conv9_1_relu"
  type: "ReLU"
  bottom: "conv9_1"
  top: "conv9_1"
}
layer {
  name: "conv9_2"
  type: "Convolution"
  bottom: "conv9_1"
  top: "conv9_2"
  param {
    lr_mult: 1
    decay_mult: 1
  }
  param {
    lr_mult: 2
    decay_mult: 0
  }
  convolution_param {
    num_output: 256
    pad: 0
    kernel_size: 3
    stride: 1
    weight_filler {
      type: "xavier"
    }
    bias_filler {
      type: "constant"
      value: 0
    }
  }
}
layer {
  name: "conv9_2_relu"
  type: "ReLU"
  bottom: "conv9_2"
  top: "conv9_2"
}
layer {
  name: "conv4_3_norm"
  type: "Normalize"
  bottom: "conv4_3"
  top: "conv4_3_norm"
  norm_param {
    across_spatial: false
    scale_filler {
      type: "constant"
      value: 20
    }
    channel_shared: false
  }
}
layer {
  name: "conv4_3_norm_mbox_loc"
  type: "Convolution"
  bottom: "conv4_3_norm"
  top: "conv4_3_norm_mbox_loc"
  param {
    lr_mult: 1
    decay_mult: 1
  }
  param {
    lr_mult: 2
    decay_mult: 0
  }
  convolution_param {
    num_output: 16
    pad: 1
    kernel_size: 3
    stride: 1
    weight_filler {
      type: "xavier"
    }
    bias_filler {
      type: "constant"
      value: 0
    }
  }
}
layer {
  name: "conv4_3_norm_mbox_loc_perm"
  type: "Permute"
  bottom: "conv4_3_norm_mbox_loc"
  top: "conv4_3_norm_mbox_loc_perm"
  permute_param {
    order: 0
    order: 2
    order: 3
    order: 1
  }
}
layer {
  name: "conv4_3_norm_mbox_loc_flat"
  type: "Flatten"
  bottom: "conv4_3_norm_mbox_loc_perm"
  top: "conv4_3_norm_mbox_loc_flat"
  flatten_param {
    axis: 1
  }
}
layer {
  name: "conv4_3_norm_mbox_conf"
  type: "Convolution"
  bottom: "conv4_3_norm"
  top: "conv4_3_norm_mbox_conf"
  param {
    lr_mult: 1
    decay_mult: 1
  }
  param {
    lr_mult: 2
    decay_mult: 0
  }
  convolution_param {
    num_output: 84
    pad: 1
    kernel_size: 3
    stride: 1
    weight_filler {
      type: "xavier"
    }
    bias_filler {
      type: "constant"
      value: 0
    }
  }
}
layer {
  name: "conv4_3_norm_mbox_conf_perm"
  type: "Permute"
  bottom: "conv4_3_norm_mbox_conf"
  top: "conv4_3_norm_mbox_conf_perm"
  permute_param {
    order: 0
    order: 2
    order: 3
    order: 1
  }
}
layer {
  name: "conv4_3_norm_mbox_conf_flat"
  type: "Flatten"
  bottom: "conv4_3_norm_mbox_conf_perm"
  top: "conv4_3_norm_mbox_conf_flat"
  flatten_param {
    axis: 1
  }
}
layer {
  name: "conv4_3_norm_mbox_priorbox"
  type: "PriorBox"
  bottom: "conv4_3_norm"
  bottom: "data"
  top: "conv4_3_norm_mbox_priorbox"
  prior_box_param {
    min_size: 30
    max_size: 60
    aspect_ratio: 2
    flip: true
    clip: false
    variance: 0.1
    variance: 0.1
    variance: 0.2
    variance: 0.2
    step: 8
    offset: 0.5
  }
}
layer {
  name: "fc7_mbox_loc"
  type: "Convolution"
  bottom: "fc7"
  top: "fc7_mbox_loc"
  param {
    lr_mult: 1
    decay_mult: 1
  }
  param {
    lr_mult: 2
    decay_mult: 0
  }
  convolution_param {
    num_output: 24
    pad: 1
    kernel_size: 3
    stride: 1
    weight_filler {
      type: "xavier"
    }
    bias_filler {
      type: "constant"
      value: 0
    }
  }
}
layer {
  name: "fc7_mbox_loc_perm"
  type: "Permute"
  bottom: "fc7_mbox_loc"
  top: "fc7_mbox_loc_perm"
  permute_param {
    order: 0
    order: 2
    order: 3
    order: 1
  }
}
layer {
  name: "fc7_mbox_loc_flat"
  type: "Flatten"
  bottom: "fc7_mbox_loc_perm"
  top: "fc7_mbox_loc_flat"
  flatten_param {
    axis: 1
  }
}
layer {
  name: "fc7_mbox_conf"
  type: "Convolution"
  bottom: "fc7"
  top: "fc7_mbox_conf"
  param {
    lr_mult: 1
    decay_mult: 1
  }
  param {
    lr_mult: 2
    decay_mult: 0
  }
  convolution_param {
    num_output: 126
    pad: 1
    kernel_size: 3
    stride: 1
    weight_filler {
      type: "xavier"
    }
    bias_filler {
      type: "constant"
      value: 0
    }
  }
}
layer {
  name: "fc7_mbox_conf_perm"
  type: "Permute"
  bottom: "fc7_mbox_conf"
  top: "fc7_mbox_conf_perm"
  permute_param {
    order: 0
    order: 2
    order: 3
    order: 1
  }
}
layer {
  name: "fc7_mbox_conf_flat"
  type: "Flatten"
  bottom: "fc7_mbox_conf_perm"
  top: "fc7_mbox_conf_flat"
  flatten_param {
    axis: 1
  }
}
layer {
  name: "fc7_mbox_priorbox"
  type: "PriorBox"
  bottom: "fc7"
  bottom: "data"
  top: "fc7_mbox_priorbox"
  prior_box_param {
    min_size: 60
    max_size: 111
    aspect_ratio: 2
    aspect_ratio: 3
    flip: true
    clip: false
    variance: 0.1
    variance: 0.1
    variance: 0.2
    variance: 0.2
    step: 16
    offset: 0.5
  }
}
layer {
  name: "conv6_2_mbox_loc"
  type: "Convolution"
  bottom: "conv6_2"
  top: "conv6_2_mbox_loc"
  param {
    lr_mult: 1
    decay_mult: 1
  }
  param {
    lr_mult: 2
    decay_mult: 0
  }
  convolution_param {
    num_output: 24
    pad: 1
    kernel_size: 3
    stride: 1
    weight_filler {
      type: "xavier"
    }
    bias_filler {
      type: "constant"
      value: 0
    }
  }
}
layer {
  name: "conv6_2_mbox_loc_perm"
  type: "Permute"
  bottom: "conv6_2_mbox_loc"
  top: "conv6_2_mbox_loc_perm"
  permute_param {
    order: 0
    order: 2
    order: 3
    order: 1
  }
}
layer {
  name: "conv6_2_mbox_loc_flat"
  type: "Flatten"
  bottom: "conv6_2_mbox_loc_perm"
  top: "conv6_2_mbox_loc_flat"
  flatten_param {
    axis: 1
  }
}
layer {
  name: "conv6_2_mbox_conf"
  type: "Convolution"
  bottom: "conv6_2"
  top: "conv6_2_mbox_conf"
  param {
    lr_mult: 1
    decay_mult: 1
  }
  param {
    lr_mult: 2
    decay_mult: 0
  }
  convolution_param {
    num_output: 126
    pad: 1
    kernel_size: 3
    stride: 1
    weight_filler {
      type: "xavier"
    }
    bias_filler {
      type: "constant"
      value: 0
    }
  }
}
layer {
  name: "conv6_2_mbox_conf_perm"
  type: "Permute"
  bottom: "conv6_2_mbox_conf"
  top: "conv6_2_mbox_conf_perm"
  permute_param {
    order: 0
    order: 2
    order: 3
    order: 1
  }
}
layer {
  name: "conv6_2_mbox_conf_flat"
  type: "Flatten"
  bottom: "conv6_2_mbox_conf_perm"
  top: "conv6_2_mbox_conf_flat"
  flatten_param {
    axis: 1
  }
}
layer {
  name: "conv6_2_mbox_priorbox"
  type: "PriorBox"
  bottom: "conv6_2"
  bottom: "data"
  top: "conv6_2_mbox_priorbox"
  prior_box_param {
    min_size: 111
    max_size: 162
    aspect_ratio: 2
    aspect_ratio: 3
    flip: true
    clip: false
    variance: 0.1
    variance: 0.1
    variance: 0.2
    variance: 0.2
    step: 32
    offset: 0.5
  }
}
layer {
  name: "conv7_2_mbox_loc"
  type: "Convolution"
  bottom: "conv7_2"
  top: "conv7_2_mbox_loc"
  param {
    lr_mult: 1
    decay_mult: 1
  }
  param {
    lr_mult: 2
    decay_mult: 0
  }
  convolution_param {
    num_output: 24
    pad: 1
    kernel_size: 3
    stride: 1
    weight_filler {
      type: "xavier"
    }
    bias_filler {
      type: "constant"
      value: 0
    }
  }
}
layer {
  name: "conv7_2_mbox_loc_perm"
  type: "Permute"
  bottom: "conv7_2_mbox_loc"
  top: "conv7_2_mbox_loc_perm"
  permute_param {
    order: 0
    order: 2
    order: 3
    order: 1
  }
}
layer {
  name: "conv7_2_mbox_loc_flat"
  type: "Flatten"
  bottom: "conv7_2_mbox_loc_perm"
  top: "conv7_2_mbox_loc_flat"
  flatten_param {
    axis: 1
  }
}
layer {
  name: "conv7_2_mbox_conf"
  type: "Convolution"
  bottom: "conv7_2"
  top: "conv7_2_mbox_conf"
  param {
    lr_mult: 1
    decay_mult: 1
  }
  param {
    lr_mult: 2
    decay_mult: 0
  }
  convolution_param {
    num_output: 126
    pad: 1
    kernel_size: 3
    stride: 1
    weight_filler {
      type: "xavier"
    }
    bias_filler {
      type: "constant"
      value: 0
    }
  }
}
layer {
  name: "conv7_2_mbox_conf_perm"
  type: "Permute"
  bottom: "conv7_2_mbox_conf"
  top: "conv7_2_mbox_conf_perm"
  permute_param {
    order: 0
    order: 2
    order: 3
    order: 1
  }
}
layer {
  name: "conv7_2_mbox_conf_flat"
  type: "Flatten"
  bottom: "conv7_2_mbox_conf_perm"
  top: "conv7_2_mbox_conf_flat"
  flatten_param {
    axis: 1
  }
}
layer {
  name: "conv7_2_mbox_priorbox"
  type: "PriorBox"
  bottom: "conv7_2"
  bottom: "data"
  top: "conv7_2_mbox_priorbox"
  prior_box_param {
    min_size: 162
    max_size: 213
    aspect_ratio: 2
    aspect_ratio: 3
    flip: true
    clip: false
    variance: 0.1
    variance: 0.1
    variance: 0.2
    variance: 0.2
    step: 64
    offset: 0.5
  }
}
layer {
  name: "conv8_2_mbox_loc"
  type: "Convolution"
  bottom: "conv8_2"
  top: "conv8_2_mbox_loc"
  param {
    lr_mult: 1
    decay_mult: 1
  }
  param {
    lr_mult: 2
    decay_mult: 0
  }
  convolution_param {
    num_output: 16
    pad: 1
    kernel_size: 3
    stride: 1
    weight_filler {
      type: "xavier"
    }
    bias_filler {
      type: "constant"
      value: 0
    }
  }
}
layer {
  name: "conv8_2_mbox_loc_perm"
  type: "Permute"
  bottom: "conv8_2_mbox_loc"
  top: "conv8_2_mbox_loc_perm"
  permute_param {
    order: 0
    order: 2
    order: 3
    order: 1
  }
}
layer {
  name: "conv8_2_mbox_loc_flat"
  type: "Flatten"
  bottom: "conv8_2_mbox_loc_perm"
  top: "conv8_2_mbox_loc_flat"
  flatten_param {
    axis: 1
  }
}
layer {
  name: "conv8_2_mbox_conf"
  type: "Convolution"
  bottom: "conv8_2"
  top: "conv8_2_mbox_conf"
  param {
    lr_mult: 1
    decay_mult: 1
  }
  param {
    lr_mult: 2
    decay_mult: 0
  }
  convolution_param {
    num_output: 84
    pad: 1
    kernel_size: 3
    stride: 1
    weight_filler {
      type: "xavier"
    }
    bias_filler {
      type: "constant"
      value: 0
    }
  }
}
layer {
  name: "conv8_2_mbox_conf_perm"
  type: "Permute"
  bottom: "conv8_2_mbox_conf"
  top: "conv8_2_mbox_conf_perm"
  permute_param {
    order: 0
    order: 2
    order: 3
    order: 1
  }
}
layer {
  name: "conv8_2_mbox_conf_flat"
  type: "Flatten"
  bottom: "conv8_2_mbox_conf_perm"
  top: "conv8_2_mbox_conf_flat"
  flatten_param {
    axis: 1
  }
}
layer {
  name: "conv8_2_mbox_priorbox"
  type: "PriorBox"
  bottom: "conv8_2"
  bottom: "data"
  top: "conv8_2_mbox_priorbox"
  prior_box_param {
    min_size: 213
    max_size: 264
    aspect_ratio: 2
    flip: true
    clip: false
    variance: 0.1
    variance: 0.1
    variance: 0.2
    variance: 0.2
    step: 100
    offset: 0.5
  }
}
layer {
  name: "conv9_2_mbox_loc"
  type: "Convolution"
  bottom: "conv9_2"
  top: "conv9_2_mbox_loc"
  param {
    lr_mult: 1
    decay_mult: 1
  }
  param {
    lr_mult: 2
    decay_mult: 0
  }
  convolution_param {
    num_output: 16
    pad: 1
    kernel_size: 3
    stride: 1
    weight_filler {
      type: "xavier"
    }
    bias_filler {
      type: "constant"
      value: 0
    }
  }
}
layer {
  name: "conv9_2_mbox_loc_perm"
  type: "Permute"
  bottom: "conv9_2_mbox_loc"
  top: "conv9_2_mbox_loc_perm"
  permute_param {
    order: 0
    order: 2
    order: 3
    order: 1
  }
}
layer {
  name: "conv9_2_mbox_loc_flat"
  type: "Flatten"
  bottom: "conv9_2_mbox_loc_perm"
  top: "conv9_2_mbox_loc_flat"
  flatten_param {
    axis: 1
  }
}
layer {
  name: "conv9_2_mbox_conf"
  type: "Convolution"
  bottom: "conv9_2"
  top: "conv9_2_mbox_conf"
  param {
    lr_mult: 1
    decay_mult: 1
  }
  param {
    lr_mult: 2
    decay_mult: 0
  }
  convolution_param {
    num_output: 84
    pad: 1
    kernel_size: 3
    stride: 1
    weight_filler {
      type: "xavier"
    }
    bias_filler {
      type: "constant"
      value: 0
    }
  }
}
layer {
  name: "conv9_2_mbox_conf_perm"
  type: "Permute"
  bottom: "conv9_2_mbox_conf"
  top: "conv9_2_mbox_conf_perm"
  permute_param {
    order: 0
    order: 2
    order: 3
    order: 1
  }
}
layer {
  name: "conv9_2_mbox_conf_flat"
  type: "Flatten"
  bottom: "conv9_2_mbox_conf_perm"
  top: "conv9_2_mbox_conf_flat"
  flatten_param {
    axis: 1
  }
}
layer {
  name: "conv9_2_mbox_priorbox"
  type: "PriorBox"
  bottom: "conv9_2"
  bottom: "data"
  top: "conv9_2_mbox_priorbox"
  prior_box_param {
    min_size: 264
    max_size: 315
    aspect_ratio: 2
    flip: true
    clip: false
    variance: 0.1
    variance: 0.1
    variance: 0.2
    variance: 0.2
    step: 300
    offset: 0.5
  }
}
layer {
  name: "mbox_loc"
  type: "Concat"
  bottom: "conv4_3_norm_mbox_loc_flat"
  bottom: "fc7_mbox_loc_flat"
  bottom: "conv6_2_mbox_loc_flat"
  bottom: "conv7_2_mbox_loc_flat"
  bottom: "conv8_2_mbox_loc_flat"
  bottom: "conv9_2_mbox_loc_flat"
  top: "mbox_loc"
  concat_param {
    axis: 1
  }
}
layer {
  name: "mbox_conf"
  type: "Concat"
  bottom: "conv4_3_norm_mbox_conf_flat"
  bottom: "fc7_mbox_conf_flat"
  bottom: "conv6_2_mbox_conf_flat"
  bottom: "conv7_2_mbox_conf_flat"
  bottom: "conv8_2_mbox_conf_flat"
  bottom: "conv9_2_mbox_conf_flat"
  top: "mbox_conf"
  concat_param {
    axis: 1
  }
}
layer {
  name: "mbox_priorbox"
  type: "Concat"
  bottom: "conv4_3_norm_mbox_priorbox"
  bottom: "fc7_mbox_priorbox"
  bottom: "conv6_2_mbox_priorbox"
  bottom: "conv7_2_mbox_priorbox"
  bottom: "conv8_2_mbox_priorbox"
  bottom: "conv9_2_mbox_priorbox"
  top: "mbox_priorbox"
  concat_param {
    axis: 2
  }
}
layer {
  name: "mbox_loss"
  type: "MultiBoxLoss"
  bottom: "mbox_loc"
  bottom: "mbox_conf"
  bottom: "mbox_priorbox"
  bottom: "label"
  top: "mbox_loss"
  include {
    phase: TRAIN
  }
  propagate_down: true
  propagate_down: true
  propagate_down: false
  propagate_down: false
  loss_param {
    normalization: VALID
  }
  multibox_loss_param {
    loc_loss_type: SMOOTH_L1
    conf_loss_type: SOFTMAX
    loc_weight: 1
    num_classes: 21
    share_location: true
    match_type: PER_PREDICTION
    overlap_threshold: 0.5
    use_prior_for_matching: true
    background_label_id: 0
    use_difficult_gt: true
    neg_pos_ratio: 3
    neg_overlap: 0.5
    code_type: CENTER_SIZE
    ignore_cross_boundary_bbox: false
    mining_type: MAX_NEGATIVE
  }
}
I1031 20:05:38.406513 12290 layer_factory.hpp:77] Creating layer data
I1031 20:05:38.406810 12290 net.cpp:100] Creating Layer data
I1031 20:05:38.406826 12290 net.cpp:452] data -> data
I1031 20:05:38.406873 12290 net.cpp:452] data -> label
I1031 20:05:38.410445 12310 db_lmdb.cpp:35] Opened lmdb examples/VOC0712/VOC0712_trainval_lmdb
I1031 20:05:38.426040 12290 annotated_data_layer.cpp:62] output data size: 8,3,300,300
I1031 20:05:38.446725 12290 net.cpp:150] Setting up data
I1031 20:05:38.446748 12290 net.cpp:157] Top shape: 8 3 300 300 (2160000)
I1031 20:05:38.446766 12290 net.cpp:157] Top shape: 1 1 1 8 (8)
I1031 20:05:38.446768 12290 net.cpp:165] Memory required for data: 8640032
I1031 20:05:38.446777 12290 layer_factory.hpp:77] Creating layer data_data_0_split
I1031 20:05:38.446789 12290 net.cpp:100] Creating Layer data_data_0_split
I1031 20:05:38.446794 12290 net.cpp:478] data_data_0_split <- data
I1031 20:05:38.446805 12290 net.cpp:452] data_data_0_split -> data_data_0_split_0
I1031 20:05:38.446820 12290 net.cpp:452] data_data_0_split -> data_data_0_split_1
I1031 20:05:38.446830 12290 net.cpp:452] data_data_0_split -> data_data_0_split_2
I1031 20:05:38.446837 12290 net.cpp:452] data_data_0_split -> data_data_0_split_3
I1031 20:05:38.446842 12290 net.cpp:452] data_data_0_split -> data_data_0_split_4
I1031 20:05:38.446847 12290 net.cpp:452] data_data_0_split -> data_data_0_split_5
I1031 20:05:38.446851 12290 net.cpp:452] data_data_0_split -> data_data_0_split_6
I1031 20:05:38.446971 12290 net.cpp:150] Setting up data_data_0_split
I1031 20:05:38.446981 12290 net.cpp:157] Top shape: 8 3 300 300 (2160000)
I1031 20:05:38.446985 12290 net.cpp:157] Top shape: 8 3 300 300 (2160000)
I1031 20:05:38.446988 12290 net.cpp:157] Top shape: 8 3 300 300 (2160000)
I1031 20:05:38.446991 12290 net.cpp:157] Top shape: 8 3 300 300 (2160000)
I1031 20:05:38.446995 12290 net.cpp:157] Top shape: 8 3 300 300 (2160000)
I1031 20:05:38.446997 12290 net.cpp:157] Top shape: 8 3 300 300 (2160000)
I1031 20:05:38.447001 12290 net.cpp:157] Top shape: 8 3 300 300 (2160000)
I1031 20:05:38.447003 12290 net.cpp:165] Memory required for data: 69120032
I1031 20:05:38.447006 12290 layer_factory.hpp:77] Creating layer conv1_1
I1031 20:05:38.447022 12290 net.cpp:100] Creating Layer conv1_1
I1031 20:05:38.447026 12290 net.cpp:478] conv1_1 <- data_data_0_split_0
I1031 20:05:38.447032 12290 net.cpp:452] conv1_1 -> conv1_1
I1031 20:05:38.480890 12311 blocking_queue.cpp:50] Waiting for data
I1031 20:05:38.983392 12290 net.cpp:150] Setting up conv1_1
I1031 20:05:38.983429 12290 net.cpp:157] Top shape: 8 64 300 300 (46080000)
I1031 20:05:38.983433 12290 net.cpp:165] Memory required for data: 253440032
I1031 20:05:38.983453 12290 layer_factory.hpp:77] Creating layer relu1_1
I1031 20:05:38.983479 12290 net.cpp:100] Creating Layer relu1_1
I1031 20:05:38.983482 12290 net.cpp:478] relu1_1 <- conv1_1
I1031 20:05:38.983489 12290 net.cpp:439] relu1_1 -> conv1_1 (in-place)
I1031 20:05:38.984587 12290 net.cpp:150] Setting up relu1_1
I1031 20:05:38.984607 12290 net.cpp:157] Top shape: 8 64 300 300 (46080000)
I1031 20:05:38.984611 12290 net.cpp:165] Memory required for data: 437760032
I1031 20:05:38.984613 12290 layer_factory.hpp:77] Creating layer conv1_2
I1031 20:05:38.984628 12290 net.cpp:100] Creating Layer conv1_2
I1031 20:05:38.984632 12290 net.cpp:478] conv1_2 <- conv1_1
I1031 20:05:38.984642 12290 net.cpp:452] conv1_2 -> conv1_2
I1031 20:05:38.988461 12290 net.cpp:150] Setting up conv1_2
I1031 20:05:38.988481 12290 net.cpp:157] Top shape: 8 64 300 300 (46080000)
I1031 20:05:38.988484 12290 net.cpp:165] Memory required for data: 622080032
I1031 20:05:38.988492 12290 layer_factory.hpp:77] Creating layer relu1_2
I1031 20:05:38.988500 12290 net.cpp:100] Creating Layer relu1_2
I1031 20:05:38.988503 12290 net.cpp:478] relu1_2 <- conv1_2
I1031 20:05:38.988507 12290 net.cpp:439] relu1_2 -> conv1_2 (in-place)
I1031 20:05:38.988770 12290 net.cpp:150] Setting up relu1_2
I1031 20:05:38.988786 12290 net.cpp:157] Top shape: 8 64 300 300 (46080000)
I1031 20:05:38.988790 12290 net.cpp:165] Memory required for data: 806400032
I1031 20:05:38.988792 12290 layer_factory.hpp:77] Creating layer pool1
I1031 20:05:38.988800 12290 net.cpp:100] Creating Layer pool1
I1031 20:05:38.988809 12290 net.cpp:478] pool1 <- conv1_2
I1031 20:05:38.988814 12290 net.cpp:452] pool1 -> pool1
I1031 20:05:38.988867 12290 net.cpp:150] Setting up pool1
I1031 20:05:38.988889 12290 net.cpp:157] Top shape: 8 64 150 150 (11520000)
I1031 20:05:38.988895 12290 net.cpp:165] Memory required for data: 852480032
I1031 20:05:38.988914 12290 layer_factory.hpp:77] Creating layer conv2_1
I1031 20:05:38.988924 12290 net.cpp:100] Creating Layer conv2_1
I1031 20:05:38.988930 12290 net.cpp:478] conv2_1 <- pool1
I1031 20:05:38.988936 12290 net.cpp:452] conv2_1 -> conv2_1
I1031 20:05:38.992580 12290 net.cpp:150] Setting up conv2_1
I1031 20:05:38.992600 12290 net.cpp:157] Top shape: 8 128 150 150 (23040000)
I1031 20:05:38.992604 12290 net.cpp:165] Memory required for data: 944640032
I1031 20:05:38.992612 12290 layer_factory.hpp:77] Creating layer relu2_1
I1031 20:05:38.992620 12290 net.cpp:100] Creating Layer relu2_1
I1031 20:05:38.992624 12290 net.cpp:478] relu2_1 <- conv2_1
I1031 20:05:38.992627 12290 net.cpp:439] relu2_1 -> conv2_1 (in-place)
I1031 20:05:38.993623 12290 net.cpp:150] Setting up relu2_1
I1031 20:05:38.993641 12290 net.cpp:157] Top shape: 8 128 150 150 (23040000)
I1031 20:05:38.993644 12290 net.cpp:165] Memory required for data: 1036800032
I1031 20:05:38.993647 12290 layer_factory.hpp:77] Creating layer conv2_2
I1031 20:05:38.993669 12290 net.cpp:100] Creating Layer conv2_2
I1031 20:05:38.993671 12290 net.cpp:478] conv2_2 <- conv2_1
I1031 20:05:38.993677 12290 net.cpp:452] conv2_2 -> conv2_2
I1031 20:05:38.997797 12290 net.cpp:150] Setting up conv2_2
I1031 20:05:38.997817 12290 net.cpp:157] Top shape: 8 128 150 150 (23040000)
I1031 20:05:38.997820 12290 net.cpp:165] Memory required for data: 1128960032
I1031 20:05:38.997826 12290 layer_factory.hpp:77] Creating layer relu2_2
I1031 20:05:38.997831 12290 net.cpp:100] Creating Layer relu2_2
I1031 20:05:38.997834 12290 net.cpp:478] relu2_2 <- conv2_2
I1031 20:05:38.997838 12290 net.cpp:439] relu2_2 -> conv2_2 (in-place)
I1031 20:05:38.998201 12290 net.cpp:150] Setting up relu2_2
I1031 20:05:38.998220 12290 net.cpp:157] Top shape: 8 128 150 150 (23040000)
I1031 20:05:38.998224 12290 net.cpp:165] Memory required for data: 1221120032
I1031 20:05:38.998226 12290 layer_factory.hpp:77] Creating layer pool2
I1031 20:05:38.998231 12290 net.cpp:100] Creating Layer pool2
I1031 20:05:38.998252 12290 net.cpp:478] pool2 <- conv2_2
I1031 20:05:38.998260 12290 net.cpp:452] pool2 -> pool2
I1031 20:05:38.998318 12290 net.cpp:150] Setting up pool2
I1031 20:05:38.998343 12290 net.cpp:157] Top shape: 8 128 75 75 (5760000)
I1031 20:05:38.998345 12290 net.cpp:165] Memory required for data: 1244160032
I1031 20:05:38.998347 12290 layer_factory.hpp:77] Creating layer conv3_1
I1031 20:05:38.998356 12290 net.cpp:100] Creating Layer conv3_1
I1031 20:05:38.998361 12290 net.cpp:478] conv3_1 <- pool2
I1031 20:05:38.998368 12290 net.cpp:452] conv3_1 -> conv3_1
I1031 20:05:39.004446 12290 net.cpp:150] Setting up conv3_1
I1031 20:05:39.004467 12290 net.cpp:157] Top shape: 8 256 75 75 (11520000)
I1031 20:05:39.004470 12290 net.cpp:165] Memory required for data: 1290240032
I1031 20:05:39.004479 12290 layer_factory.hpp:77] Creating layer relu3_1
I1031 20:05:39.004484 12290 net.cpp:100] Creating Layer relu3_1
I1031 20:05:39.004487 12290 net.cpp:478] relu3_1 <- conv3_1
I1031 20:05:39.004493 12290 net.cpp:439] relu3_1 -> conv3_1 (in-place)
I1031 20:05:39.005461 12290 net.cpp:150] Setting up relu3_1
I1031 20:05:39.005481 12290 net.cpp:157] Top shape: 8 256 75 75 (11520000)
I1031 20:05:39.005483 12290 net.cpp:165] Memory required for data: 1336320032
I1031 20:05:39.005486 12290 layer_factory.hpp:77] Creating layer conv3_2
I1031 20:05:39.005496 12290 net.cpp:100] Creating Layer conv3_2
I1031 20:05:39.005499 12290 net.cpp:478] conv3_2 <- conv3_1
I1031 20:05:39.005506 12290 net.cpp:452] conv3_2 -> conv3_2
I1031 20:05:39.012550 12290 net.cpp:150] Setting up conv3_2
I1031 20:05:39.012572 12290 net.cpp:157] Top shape: 8 256 75 75 (11520000)
I1031 20:05:39.012575 12290 net.cpp:165] Memory required for data: 1382400032
I1031 20:05:39.012581 12290 layer_factory.hpp:77] Creating layer relu3_2
I1031 20:05:39.012586 12290 net.cpp:100] Creating Layer relu3_2
I1031 20:05:39.012589 12290 net.cpp:478] relu3_2 <- conv3_2
I1031 20:05:39.012596 12290 net.cpp:439] relu3_2 -> conv3_2 (in-place)
I1031 20:05:39.013511 12290 net.cpp:150] Setting up relu3_2
I1031 20:05:39.013541 12290 net.cpp:157] Top shape: 8 256 75 75 (11520000)
I1031 20:05:39.013545 12290 net.cpp:165] Memory required for data: 1428480032
I1031 20:05:39.013548 12290 layer_factory.hpp:77] Creating layer conv3_3
I1031 20:05:39.013561 12290 net.cpp:100] Creating Layer conv3_3
I1031 20:05:39.013566 12290 net.cpp:478] conv3_3 <- conv3_2
I1031 20:05:39.013571 12290 net.cpp:452] conv3_3 -> conv3_3
I1031 20:05:39.020382 12290 net.cpp:150] Setting up conv3_3
I1031 20:05:39.020402 12290 net.cpp:157] Top shape: 8 256 75 75 (11520000)
I1031 20:05:39.020406 12290 net.cpp:165] Memory required for data: 1474560032
I1031 20:05:39.020411 12290 layer_factory.hpp:77] Creating layer relu3_3
I1031 20:05:39.020416 12290 net.cpp:100] Creating Layer relu3_3
I1031 20:05:39.020418 12290 net.cpp:478] relu3_3 <- conv3_3
I1031 20:05:39.020424 12290 net.cpp:439] relu3_3 -> conv3_3 (in-place)
I1031 20:05:39.021636 12290 net.cpp:150] Setting up relu3_3
I1031 20:05:39.021653 12290 net.cpp:157] Top shape: 8 256 75 75 (11520000)
I1031 20:05:39.021656 12290 net.cpp:165] Memory required for data: 1520640032
I1031 20:05:39.021659 12290 layer_factory.hpp:77] Creating layer pool3
I1031 20:05:39.021667 12290 net.cpp:100] Creating Layer pool3
I1031 20:05:39.021669 12290 net.cpp:478] pool3 <- conv3_3
I1031 20:05:39.021674 12290 net.cpp:452] pool3 -> pool3
I1031 20:05:39.021737 12290 net.cpp:150] Setting up pool3
I1031 20:05:39.021764 12290 net.cpp:157] Top shape: 8 256 38 38 (2957312)
I1031 20:05:39.021785 12290 net.cpp:165] Memory required for data: 1532469280
I1031 20:05:39.021787 12290 layer_factory.hpp:77] Creating layer conv4_1
I1031 20:05:39.021811 12290 net.cpp:100] Creating Layer conv4_1
I1031 20:05:39.021816 12290 net.cpp:478] conv4_1 <- pool3
I1031 20:05:39.021822 12290 net.cpp:452] conv4_1 -> conv4_1
I1031 20:05:39.033210 12290 net.cpp:150] Setting up conv4_1
I1031 20:05:39.033231 12290 net.cpp:157] Top shape: 8 512 38 38 (5914624)
I1031 20:05:39.033234 12290 net.cpp:165] Memory required for data: 1556127776
I1031 20:05:39.033254 12290 layer_factory.hpp:77] Creating layer relu4_1
I1031 20:05:39.033259 12290 net.cpp:100] Creating Layer relu4_1
I1031 20:05:39.033262 12290 net.cpp:478] relu4_1 <- conv4_1
I1031 20:05:39.033268 12290 net.cpp:439] relu4_1 -> conv4_1 (in-place)
I1031 20:05:39.034451 12290 net.cpp:150] Setting up relu4_1
I1031 20:05:39.034469 12290 net.cpp:157] Top shape: 8 512 38 38 (5914624)
I1031 20:05:39.034472 12290 net.cpp:165] Memory required for data: 1579786272
I1031 20:05:39.034476 12290 layer_factory.hpp:77] Creating layer conv4_2
I1031 20:05:39.034500 12290 net.cpp:100] Creating Layer conv4_2
I1031 20:05:39.034504 12290 net.cpp:478] conv4_2 <- conv4_1
I1031 20:05:39.034523 12290 net.cpp:452] conv4_2 -> conv4_2
I1031 20:05:39.053653 12290 net.cpp:150] Setting up conv4_2
I1031 20:05:39.053671 12290 net.cpp:157] Top shape: 8 512 38 38 (5914624)
I1031 20:05:39.053675 12290 net.cpp:165] Memory required for data: 1603444768
I1031 20:05:39.053686 12290 layer_factory.hpp:77] Creating layer relu4_2
I1031 20:05:39.053691 12290 net.cpp:100] Creating Layer relu4_2
I1031 20:05:39.053694 12290 net.cpp:478] relu4_2 <- conv4_2
I1031 20:05:39.053714 12290 net.cpp:439] relu4_2 -> conv4_2 (in-place)
I1031 20:05:39.054159 12290 net.cpp:150] Setting up relu4_2
I1031 20:05:39.054175 12290 net.cpp:157] Top shape: 8 512 38 38 (5914624)
I1031 20:05:39.054178 12290 net.cpp:165] Memory required for data: 1627103264
I1031 20:05:39.054181 12290 layer_factory.hpp:77] Creating layer conv4_3
I1031 20:05:39.054214 12290 net.cpp:100] Creating Layer conv4_3
I1031 20:05:39.054216 12290 net.cpp:478] conv4_3 <- conv4_2
I1031 20:05:39.054237 12290 net.cpp:452] conv4_3 -> conv4_3
I1031 20:05:39.072742 12290 net.cpp:150] Setting up conv4_3
I1031 20:05:39.072762 12290 net.cpp:157] Top shape: 8 512 38 38 (5914624)
I1031 20:05:39.072767 12290 net.cpp:165] Memory required for data: 1650761760
I1031 20:05:39.072788 12290 layer_factory.hpp:77] Creating layer relu4_3
I1031 20:05:39.072793 12290 net.cpp:100] Creating Layer relu4_3
I1031 20:05:39.072806 12290 net.cpp:478] relu4_3 <- conv4_3
I1031 20:05:39.072811 12290 net.cpp:439] relu4_3 -> conv4_3 (in-place)
I1031 20:05:39.073845 12290 net.cpp:150] Setting up relu4_3
I1031 20:05:39.073863 12290 net.cpp:157] Top shape: 8 512 38 38 (5914624)
I1031 20:05:39.073866 12290 net.cpp:165] Memory required for data: 1674420256
I1031 20:05:39.073869 12290 layer_factory.hpp:77] Creating layer conv4_3_relu4_3_0_split
I1031 20:05:39.073875 12290 net.cpp:100] Creating Layer conv4_3_relu4_3_0_split
I1031 20:05:39.073879 12290 net.cpp:478] conv4_3_relu4_3_0_split <- conv4_3
I1031 20:05:39.073884 12290 net.cpp:452] conv4_3_relu4_3_0_split -> conv4_3_relu4_3_0_split_0
I1031 20:05:39.073890 12290 net.cpp:452] conv4_3_relu4_3_0_split -> conv4_3_relu4_3_0_split_1
I1031 20:05:39.073969 12290 net.cpp:150] Setting up conv4_3_relu4_3_0_split
I1031 20:05:39.073997 12290 net.cpp:157] Top shape: 8 512 38 38 (5914624)
I1031 20:05:39.074017 12290 net.cpp:157] Top shape: 8 512 38 38 (5914624)
I1031 20:05:39.074018 12290 net.cpp:165] Memory required for data: 1721737248
I1031 20:05:39.074021 12290 layer_factory.hpp:77] Creating layer pool4
I1031 20:05:39.074026 12290 net.cpp:100] Creating Layer pool4
I1031 20:05:39.074033 12290 net.cpp:478] pool4 <- conv4_3_relu4_3_0_split_0
I1031 20:05:39.074036 12290 net.cpp:452] pool4 -> pool4
I1031 20:05:39.074075 12290 net.cpp:150] Setting up pool4
I1031 20:05:39.074084 12290 net.cpp:157] Top shape: 8 512 19 19 (1478656)
I1031 20:05:39.074086 12290 net.cpp:165] Memory required for data: 1727651872
I1031 20:05:39.074089 12290 layer_factory.hpp:77] Creating layer conv5_1
I1031 20:05:39.074095 12290 net.cpp:100] Creating Layer conv5_1
I1031 20:05:39.074100 12290 net.cpp:478] conv5_1 <- pool4
I1031 20:05:39.074106 12290 net.cpp:452] conv5_1 -> conv5_1
I1031 20:05:39.092733 12290 net.cpp:150] Setting up conv5_1
I1031 20:05:39.092754 12290 net.cpp:157] Top shape: 8 512 19 19 (1478656)
I1031 20:05:39.092772 12290 net.cpp:165] Memory required for data: 1733566496
I1031 20:05:39.092778 12290 layer_factory.hpp:77] Creating layer relu5_1
I1031 20:05:39.092784 12290 net.cpp:100] Creating Layer relu5_1
I1031 20:05:39.092787 12290 net.cpp:478] relu5_1 <- conv5_1
I1031 20:05:39.092808 12290 net.cpp:439] relu5_1 -> conv5_1 (in-place)
I1031 20:05:39.093832 12290 net.cpp:150] Setting up relu5_1
I1031 20:05:39.093848 12290 net.cpp:157] Top shape: 8 512 19 19 (1478656)
I1031 20:05:39.093852 12290 net.cpp:165] Memory required for data: 1739481120
I1031 20:05:39.093853 12290 layer_factory.hpp:77] Creating layer conv5_2
I1031 20:05:39.093863 12290 net.cpp:100] Creating Layer conv5_2
I1031 20:05:39.093866 12290 net.cpp:478] conv5_2 <- conv5_1
I1031 20:05:39.093875 12290 net.cpp:452] conv5_2 -> conv5_2
I1031 20:05:39.112504 12290 net.cpp:150] Setting up conv5_2
I1031 20:05:39.112540 12290 net.cpp:157] Top shape: 8 512 19 19 (1478656)
I1031 20:05:39.112542 12290 net.cpp:165] Memory required for data: 1745395744
I1031 20:05:39.112562 12290 layer_factory.hpp:77] Creating layer relu5_2
I1031 20:05:39.112567 12290 net.cpp:100] Creating Layer relu5_2
I1031 20:05:39.112571 12290 net.cpp:478] relu5_2 <- conv5_2
I1031 20:05:39.112576 12290 net.cpp:439] relu5_2 -> conv5_2 (in-place)
I1031 20:05:39.112995 12290 net.cpp:150] Setting up relu5_2
I1031 20:05:39.113010 12290 net.cpp:157] Top shape: 8 512 19 19 (1478656)
I1031 20:05:39.113013 12290 net.cpp:165] Memory required for data: 1751310368
I1031 20:05:39.113015 12290 layer_factory.hpp:77] Creating layer conv5_3
I1031 20:05:39.113040 12290 net.cpp:100] Creating Layer conv5_3
I1031 20:05:39.113044 12290 net.cpp:478] conv5_3 <- conv5_2
I1031 20:05:39.113066 12290 net.cpp:452] conv5_3 -> conv5_3
I1031 20:05:39.132647 12290 net.cpp:150] Setting up conv5_3
I1031 20:05:39.132666 12290 net.cpp:157] Top shape: 8 512 19 19 (1478656)
I1031 20:05:39.132669 12290 net.cpp:165] Memory required for data: 1757224992
I1031 20:05:39.132675 12290 layer_factory.hpp:77] Creating layer relu5_3
I1031 20:05:39.132688 12290 net.cpp:100] Creating Layer relu5_3
I1031 20:05:39.132691 12290 net.cpp:478] relu5_3 <- conv5_3
I1031 20:05:39.132709 12290 net.cpp:439] relu5_3 -> conv5_3 (in-place)
I1031 20:05:39.133632 12290 net.cpp:150] Setting up relu5_3
I1031 20:05:39.133651 12290 net.cpp:157] Top shape: 8 512 19 19 (1478656)
I1031 20:05:39.133653 12290 net.cpp:165] Memory required for data: 1763139616
I1031 20:05:39.133656 12290 layer_factory.hpp:77] Creating layer pool5
I1031 20:05:39.133661 12290 net.cpp:100] Creating Layer pool5
I1031 20:05:39.133664 12290 net.cpp:478] pool5 <- conv5_3
I1031 20:05:39.133671 12290 net.cpp:452] pool5 -> pool5
I1031 20:05:39.133719 12290 net.cpp:150] Setting up pool5
I1031 20:05:39.133744 12290 net.cpp:157] Top shape: 8 512 19 19 (1478656)
I1031 20:05:39.133747 12290 net.cpp:165] Memory required for data: 1769054240
I1031 20:05:39.133749 12290 layer_factory.hpp:77] Creating layer fc6
I1031 20:05:39.133759 12290 net.cpp:100] Creating Layer fc6
I1031 20:05:39.133764 12290 net.cpp:478] fc6 <- pool5
I1031 20:05:39.133770 12290 net.cpp:452] fc6 -> fc6
I1031 20:05:39.165882 12290 net.cpp:150] Setting up fc6
I1031 20:05:39.165912 12290 net.cpp:157] Top shape: 8 1024 19 19 (2957312)
I1031 20:05:39.165915 12290 net.cpp:165] Memory required for data: 1780883488
I1031 20:05:39.165921 12290 layer_factory.hpp:77] Creating layer relu6
I1031 20:05:39.165928 12290 net.cpp:100] Creating Layer relu6
I1031 20:05:39.165931 12290 net.cpp:478] relu6 <- fc6
I1031 20:05:39.165943 12290 net.cpp:439] relu6 -> fc6 (in-place)
I1031 20:05:39.166373 12290 net.cpp:150] Setting up relu6
I1031 20:05:39.166388 12290 net.cpp:157] Top shape: 8 1024 19 19 (2957312)
I1031 20:05:39.166390 12290 net.cpp:165] Memory required for data: 1792712736
I1031 20:05:39.166393 12290 layer_factory.hpp:77] Creating layer fc7
I1031 20:05:39.166419 12290 net.cpp:100] Creating Layer fc7
I1031 20:05:39.166422 12290 net.cpp:478] fc7 <- fc6
I1031 20:05:39.166427 12290 net.cpp:452] fc7 -> fc7
I1031 20:05:39.176540 12290 net.cpp:150] Setting up fc7
I1031 20:05:39.176576 12290 net.cpp:157] Top shape: 8 1024 19 19 (2957312)
I1031 20:05:39.176580 12290 net.cpp:165] Memory required for data: 1804541984
I1031 20:05:39.176600 12290 layer_factory.hpp:77] Creating layer relu7
I1031 20:05:39.176607 12290 net.cpp:100] Creating Layer relu7
I1031 20:05:39.176611 12290 net.cpp:478] relu7 <- fc7
I1031 20:05:39.176615 12290 net.cpp:439] relu7 -> fc7 (in-place)
I1031 20:05:39.177723 12290 net.cpp:150] Setting up relu7
I1031 20:05:39.177742 12290 net.cpp:157] Top shape: 8 1024 19 19 (2957312)
I1031 20:05:39.177744 12290 net.cpp:165] Memory required for data: 1816371232
I1031 20:05:39.177747 12290 layer_factory.hpp:77] Creating layer fc7_relu7_0_split
I1031 20:05:39.177755 12290 net.cpp:100] Creating Layer fc7_relu7_0_split
I1031 20:05:39.177758 12290 net.cpp:478] fc7_relu7_0_split <- fc7
I1031 20:05:39.177763 12290 net.cpp:452] fc7_relu7_0_split -> fc7_relu7_0_split_0
I1031 20:05:39.177769 12290 net.cpp:452] fc7_relu7_0_split -> fc7_relu7_0_split_1
I1031 20:05:39.177780 12290 net.cpp:452] fc7_relu7_0_split -> fc7_relu7_0_split_2
I1031 20:05:39.177804 12290 net.cpp:452] fc7_relu7_0_split -> fc7_relu7_0_split_3
I1031 20:05:39.177889 12290 net.cpp:150] Setting up fc7_relu7_0_split
I1031 20:05:39.177898 12290 net.cpp:157] Top shape: 8 1024 19 19 (2957312)
I1031 20:05:39.177917 12290 net.cpp:157] Top shape: 8 1024 19 19 (2957312)
I1031 20:05:39.177920 12290 net.cpp:157] Top shape: 8 1024 19 19 (2957312)
I1031 20:05:39.177923 12290 net.cpp:157] Top shape: 8 1024 19 19 (2957312)
I1031 20:05:39.177925 12290 net.cpp:165] Memory required for data: 1863688224
I1031 20:05:39.177928 12290 layer_factory.hpp:77] Creating layer conv6_1
I1031 20:05:39.177966 12290 net.cpp:100] Creating Layer conv6_1
I1031 20:05:39.177973 12290 net.cpp:478] conv6_1 <- fc7_relu7_0_split_0
I1031 20:05:39.177979 12290 net.cpp:452] conv6_1 -> conv6_1
I1031 20:05:39.182997 12290 net.cpp:150] Setting up conv6_1
I1031 20:05:39.183033 12290 net.cpp:157] Top shape: 8 256 19 19 (739328)
I1031 20:05:39.183051 12290 net.cpp:165] Memory required for data: 1866645536
I1031 20:05:39.183064 12290 layer_factory.hpp:77] Creating layer conv6_1_relu
I1031 20:05:39.183081 12290 net.cpp:100] Creating Layer conv6_1_relu
I1031 20:05:39.183085 12290 net.cpp:478] conv6_1_relu <- conv6_1
I1031 20:05:39.183089 12290 net.cpp:439] conv6_1_relu -> conv6_1 (in-place)
I1031 20:05:39.184149 12290 net.cpp:150] Setting up conv6_1_relu
I1031 20:05:39.184185 12290 net.cpp:157] Top shape: 8 256 19 19 (739328)
I1031 20:05:39.184188 12290 net.cpp:165] Memory required for data: 1869602848
I1031 20:05:39.184207 12290 layer_factory.hpp:77] Creating layer conv6_2
I1031 20:05:39.184217 12290 net.cpp:100] Creating Layer conv6_2
I1031 20:05:39.184221 12290 net.cpp:478] conv6_2 <- conv6_1
I1031 20:05:39.184227 12290 net.cpp:452] conv6_2 -> conv6_2
I1031 20:05:39.195395 12290 net.cpp:150] Setting up conv6_2
I1031 20:05:39.195415 12290 net.cpp:157] Top shape: 8 512 10 10 (409600)
I1031 20:05:39.195418 12290 net.cpp:165] Memory required for data: 1871241248
I1031 20:05:39.195431 12290 layer_factory.hpp:77] Creating layer conv6_2_relu
I1031 20:05:39.195438 12290 net.cpp:100] Creating Layer conv6_2_relu
I1031 20:05:39.195441 12290 net.cpp:478] conv6_2_relu <- conv6_2
I1031 20:05:39.195446 12290 net.cpp:439] conv6_2_relu -> conv6_2 (in-place)
I1031 20:05:39.195801 12290 net.cpp:150] Setting up conv6_2_relu
I1031 20:05:39.195819 12290 net.cpp:157] Top shape: 8 512 10 10 (409600)
I1031 20:05:39.195822 12290 net.cpp:165] Memory required for data: 1872879648
I1031 20:05:39.195825 12290 layer_factory.hpp:77] Creating layer conv6_2_conv6_2_relu_0_split
I1031 20:05:39.195832 12290 net.cpp:100] Creating Layer conv6_2_conv6_2_relu_0_split
I1031 20:05:39.195839 12290 net.cpp:478] conv6_2_conv6_2_relu_0_split <- conv6_2
I1031 20:05:39.195847 12290 net.cpp:452] conv6_2_conv6_2_relu_0_split -> conv6_2_conv6_2_relu_0_split_0
I1031 20:05:39.195853 12290 net.cpp:452] conv6_2_conv6_2_relu_0_split -> conv6_2_conv6_2_relu_0_split_1
I1031 20:05:39.195858 12290 net.cpp:452] conv6_2_conv6_2_relu_0_split -> conv6_2_conv6_2_relu_0_split_2
I1031 20:05:39.195863 12290 net.cpp:452] conv6_2_conv6_2_relu_0_split -> conv6_2_conv6_2_relu_0_split_3
I1031 20:05:39.195948 12290 net.cpp:150] Setting up conv6_2_conv6_2_relu_0_split
I1031 20:05:39.195963 12290 net.cpp:157] Top shape: 8 512 10 10 (409600)
I1031 20:05:39.195982 12290 net.cpp:157] Top shape: 8 512 10 10 (409600)
I1031 20:05:39.195986 12290 net.cpp:157] Top shape: 8 512 10 10 (409600)
I1031 20:05:39.195987 12290 net.cpp:157] Top shape: 8 512 10 10 (409600)
I1031 20:05:39.195991 12290 net.cpp:165] Memory required for data: 1879433248
I1031 20:05:39.195993 12290 layer_factory.hpp:77] Creating layer conv7_1
I1031 20:05:39.196002 12290 net.cpp:100] Creating Layer conv7_1
I1031 20:05:39.196010 12290 net.cpp:478] conv7_1 <- conv6_2_conv6_2_relu_0_split_0
I1031 20:05:39.196033 12290 net.cpp:452] conv7_1 -> conv7_1
I1031 20:05:39.198930 12290 net.cpp:150] Setting up conv7_1
I1031 20:05:39.198954 12290 net.cpp:157] Top shape: 8 128 10 10 (102400)
I1031 20:05:39.198958 12290 net.cpp:165] Memory required for data: 1879842848
I1031 20:05:39.198964 12290 layer_factory.hpp:77] Creating layer conv7_1_relu
I1031 20:05:39.198987 12290 net.cpp:100] Creating Layer conv7_1_relu
I1031 20:05:39.198992 12290 net.cpp:478] conv7_1_relu <- conv7_1
I1031 20:05:39.198995 12290 net.cpp:439] conv7_1_relu -> conv7_1 (in-place)
I1031 20:05:39.200104 12290 net.cpp:150] Setting up conv7_1_relu
I1031 20:05:39.200124 12290 net.cpp:157] Top shape: 8 128 10 10 (102400)
I1031 20:05:39.200126 12290 net.cpp:165] Memory required for data: 1880252448
I1031 20:05:39.200129 12290 layer_factory.hpp:77] Creating layer conv7_2
I1031 20:05:39.200140 12290 net.cpp:100] Creating Layer conv7_2
I1031 20:05:39.200163 12290 net.cpp:478] conv7_2 <- conv7_1
I1031 20:05:39.200170 12290 net.cpp:452] conv7_2 -> conv7_2
I1031 20:05:39.206310 12290 net.cpp:150] Setting up conv7_2
I1031 20:05:39.206331 12290 net.cpp:157] Top shape: 8 256 5 5 (51200)
I1031 20:05:39.206349 12290 net.cpp:165] Memory required for data: 1880457248
I1031 20:05:39.206357 12290 layer_factory.hpp:77] Creating layer conv7_2_relu
I1031 20:05:39.206362 12290 net.cpp:100] Creating Layer conv7_2_relu
I1031 20:05:39.206375 12290 net.cpp:478] conv7_2_relu <- conv7_2
I1031 20:05:39.206395 12290 net.cpp:439] conv7_2_relu -> conv7_2 (in-place)
I1031 20:05:39.206722 12290 net.cpp:150] Setting up conv7_2_relu
I1031 20:05:39.206738 12290 net.cpp:157] Top shape: 8 256 5 5 (51200)
I1031 20:05:39.206742 12290 net.cpp:165] Memory required for data: 1880662048
I1031 20:05:39.206744 12290 layer_factory.hpp:77] Creating layer conv7_2_conv7_2_relu_0_split
I1031 20:05:39.206750 12290 net.cpp:100] Creating Layer conv7_2_conv7_2_relu_0_split
I1031 20:05:39.206754 12290 net.cpp:478] conv7_2_conv7_2_relu_0_split <- conv7_2
I1031 20:05:39.206760 12290 net.cpp:452] conv7_2_conv7_2_relu_0_split -> conv7_2_conv7_2_relu_0_split_0
I1031 20:05:39.206768 12290 net.cpp:452] conv7_2_conv7_2_relu_0_split -> conv7_2_conv7_2_relu_0_split_1
I1031 20:05:39.206771 12290 net.cpp:452] conv7_2_conv7_2_relu_0_split -> conv7_2_conv7_2_relu_0_split_2
I1031 20:05:39.206780 12290 net.cpp:452] conv7_2_conv7_2_relu_0_split -> conv7_2_conv7_2_relu_0_split_3
I1031 20:05:39.206853 12290 net.cpp:150] Setting up conv7_2_conv7_2_relu_0_split
I1031 20:05:39.206866 12290 net.cpp:157] Top shape: 8 256 5 5 (51200)
I1031 20:05:39.206868 12290 net.cpp:157] Top shape: 8 256 5 5 (51200)
I1031 20:05:39.206885 12290 net.cpp:157] Top shape: 8 256 5 5 (51200)
I1031 20:05:39.206888 12290 net.cpp:157] Top shape: 8 256 5 5 (51200)
I1031 20:05:39.206892 12290 net.cpp:165] Memory required for data: 1881481248
I1031 20:05:39.206894 12290 layer_factory.hpp:77] Creating layer conv8_1
I1031 20:05:39.206903 12290 net.cpp:100] Creating Layer conv8_1
I1031 20:05:39.206907 12290 net.cpp:478] conv8_1 <- conv7_2_conv7_2_relu_0_split_0
I1031 20:05:39.206914 12290 net.cpp:452] conv8_1 -> conv8_1
I1031 20:05:39.209524 12290 net.cpp:150] Setting up conv8_1
I1031 20:05:39.209547 12290 net.cpp:157] Top shape: 8 128 5 5 (25600)
I1031 20:05:39.209549 12290 net.cpp:165] Memory required for data: 1881583648
I1031 20:05:39.209555 12290 layer_factory.hpp:77] Creating layer conv8_1_relu
I1031 20:05:39.209560 12290 net.cpp:100] Creating Layer conv8_1_relu
I1031 20:05:39.209563 12290 net.cpp:478] conv8_1_relu <- conv8_1
I1031 20:05:39.209568 12290 net.cpp:439] conv8_1_relu -> conv8_1 (in-place)
I1031 20:05:39.210575 12290 net.cpp:150] Setting up conv8_1_relu
I1031 20:05:39.210597 12290 net.cpp:157] Top shape: 8 128 5 5 (25600)
I1031 20:05:39.210600 12290 net.cpp:165] Memory required for data: 1881686048
I1031 20:05:39.210603 12290 layer_factory.hpp:77] Creating layer conv8_2
I1031 20:05:39.210615 12290 net.cpp:100] Creating Layer conv8_2
I1031 20:05:39.210623 12290 net.cpp:478] conv8_2 <- conv8_1
I1031 20:05:39.210629 12290 net.cpp:452] conv8_2 -> conv8_2
I1031 20:05:39.216537 12290 net.cpp:150] Setting up conv8_2
I1031 20:05:39.216557 12290 net.cpp:157] Top shape: 8 256 3 3 (18432)
I1031 20:05:39.216560 12290 net.cpp:165] Memory required for data: 1881759776
I1031 20:05:39.216565 12290 layer_factory.hpp:77] Creating layer conv8_2_relu
I1031 20:05:39.216572 12290 net.cpp:100] Creating Layer conv8_2_relu
I1031 20:05:39.216575 12290 net.cpp:478] conv8_2_relu <- conv8_2
I1031 20:05:39.216580 12290 net.cpp:439] conv8_2_relu -> conv8_2 (in-place)
I1031 20:05:39.217449 12290 net.cpp:150] Setting up conv8_2_relu
I1031 20:05:39.217468 12290 net.cpp:157] Top shape: 8 256 3 3 (18432)
I1031 20:05:39.217473 12290 net.cpp:165] Memory required for data: 1881833504
I1031 20:05:39.217475 12290 layer_factory.hpp:77] Creating layer conv8_2_conv8_2_relu_0_split
I1031 20:05:39.217481 12290 net.cpp:100] Creating Layer conv8_2_conv8_2_relu_0_split
I1031 20:05:39.217483 12290 net.cpp:478] conv8_2_conv8_2_relu_0_split <- conv8_2
I1031 20:05:39.217491 12290 net.cpp:452] conv8_2_conv8_2_relu_0_split -> conv8_2_conv8_2_relu_0_split_0
I1031 20:05:39.217499 12290 net.cpp:452] conv8_2_conv8_2_relu_0_split -> conv8_2_conv8_2_relu_0_split_1
I1031 20:05:39.217504 12290 net.cpp:452] conv8_2_conv8_2_relu_0_split -> conv8_2_conv8_2_relu_0_split_2
I1031 20:05:39.217509 12290 net.cpp:452] conv8_2_conv8_2_relu_0_split -> conv8_2_conv8_2_relu_0_split_3
I1031 20:05:39.217598 12290 net.cpp:150] Setting up conv8_2_conv8_2_relu_0_split
I1031 20:05:39.217608 12290 net.cpp:157] Top shape: 8 256 3 3 (18432)
I1031 20:05:39.217612 12290 net.cpp:157] Top shape: 8 256 3 3 (18432)
I1031 20:05:39.217614 12290 net.cpp:157] Top shape: 8 256 3 3 (18432)
I1031 20:05:39.217617 12290 net.cpp:157] Top shape: 8 256 3 3 (18432)
I1031 20:05:39.217619 12290 net.cpp:165] Memory required for data: 1882128416
I1031 20:05:39.217622 12290 layer_factory.hpp:77] Creating layer conv9_1
I1031 20:05:39.217633 12290 net.cpp:100] Creating Layer conv9_1
I1031 20:05:39.217638 12290 net.cpp:478] conv9_1 <- conv8_2_conv8_2_relu_0_split_0
I1031 20:05:39.217644 12290 net.cpp:452] conv9_1 -> conv9_1
I1031 20:05:39.220322 12290 net.cpp:150] Setting up conv9_1
I1031 20:05:39.220340 12290 net.cpp:157] Top shape: 8 128 3 3 (9216)
I1031 20:05:39.220343 12290 net.cpp:165] Memory required for data: 1882165280
I1031 20:05:39.220365 12290 layer_factory.hpp:77] Creating layer conv9_1_relu
I1031 20:05:39.220383 12290 net.cpp:100] Creating Layer conv9_1_relu
I1031 20:05:39.220386 12290 net.cpp:478] conv9_1_relu <- conv9_1
I1031 20:05:39.220391 12290 net.cpp:439] conv9_1_relu -> conv9_1 (in-place)
I1031 20:05:39.220695 12290 net.cpp:150] Setting up conv9_1_relu
I1031 20:05:39.220710 12290 net.cpp:157] Top shape: 8 128 3 3 (9216)
I1031 20:05:39.220727 12290 net.cpp:165] Memory required for data: 1882202144
I1031 20:05:39.220731 12290 layer_factory.hpp:77] Creating layer conv9_2
I1031 20:05:39.220757 12290 net.cpp:100] Creating Layer conv9_2
I1031 20:05:39.220777 12290 net.cpp:478] conv9_2 <- conv9_1
I1031 20:05:39.220782 12290 net.cpp:452] conv9_2 -> conv9_2
I1031 20:05:39.226311 12290 net.cpp:150] Setting up conv9_2
I1031 20:05:39.226347 12290 net.cpp:157] Top shape: 8 256 1 1 (2048)
I1031 20:05:39.226351 12290 net.cpp:165] Memory required for data: 1882210336
I1031 20:05:39.226373 12290 layer_factory.hpp:77] Creating layer conv9_2_relu
I1031 20:05:39.226382 12290 net.cpp:100] Creating Layer conv9_2_relu
I1031 20:05:39.226384 12290 net.cpp:478] conv9_2_relu <- conv9_2
I1031 20:05:39.226389 12290 net.cpp:439] conv9_2_relu -> conv9_2 (in-place)
I1031 20:05:39.227414 12290 net.cpp:150] Setting up conv9_2_relu
I1031 20:05:39.227437 12290 net.cpp:157] Top shape: 8 256 1 1 (2048)
I1031 20:05:39.227440 12290 net.cpp:165] Memory required for data: 1882218528
I1031 20:05:39.227443 12290 layer_factory.hpp:77] Creating layer conv9_2_conv9_2_relu_0_split
I1031 20:05:39.227452 12290 net.cpp:100] Creating Layer conv9_2_conv9_2_relu_0_split
I1031 20:05:39.227454 12290 net.cpp:478] conv9_2_conv9_2_relu_0_split <- conv9_2
I1031 20:05:39.227461 12290 net.cpp:452] conv9_2_conv9_2_relu_0_split -> conv9_2_conv9_2_relu_0_split_0
I1031 20:05:39.227468 12290 net.cpp:452] conv9_2_conv9_2_relu_0_split -> conv9_2_conv9_2_relu_0_split_1
I1031 20:05:39.227473 12290 net.cpp:452] conv9_2_conv9_2_relu_0_split -> conv9_2_conv9_2_relu_0_split_2
I1031 20:05:39.227551 12290 net.cpp:150] Setting up conv9_2_conv9_2_relu_0_split
I1031 20:05:39.227562 12290 net.cpp:157] Top shape: 8 256 1 1 (2048)
I1031 20:05:39.227566 12290 net.cpp:157] Top shape: 8 256 1 1 (2048)
I1031 20:05:39.227568 12290 net.cpp:157] Top shape: 8 256 1 1 (2048)
I1031 20:05:39.227571 12290 net.cpp:165] Memory required for data: 1882243104
I1031 20:05:39.227572 12290 layer_factory.hpp:77] Creating layer conv4_3_norm
I1031 20:05:39.227581 12290 net.cpp:100] Creating Layer conv4_3_norm
I1031 20:05:39.227586 12290 net.cpp:478] conv4_3_norm <- conv4_3_relu4_3_0_split_1
I1031 20:05:39.227591 12290 net.cpp:452] conv4_3_norm -> conv4_3_norm
I1031 20:05:39.227757 12290 net.cpp:150] Setting up conv4_3_norm
I1031 20:05:39.227785 12290 net.cpp:157] Top shape: 8 512 38 38 (5914624)
I1031 20:05:39.227800 12290 net.cpp:165] Memory required for data: 1905901600
I1031 20:05:39.227809 12290 layer_factory.hpp:77] Creating layer conv4_3_norm_conv4_3_norm_0_split
I1031 20:05:39.227815 12290 net.cpp:100] Creating Layer conv4_3_norm_conv4_3_norm_0_split
I1031 20:05:39.227833 12290 net.cpp:478] conv4_3_norm_conv4_3_norm_0_split <- conv4_3_norm
I1031 20:05:39.227838 12290 net.cpp:452] conv4_3_norm_conv4_3_norm_0_split -> conv4_3_norm_conv4_3_norm_0_split_0
I1031 20:05:39.227843 12290 net.cpp:452] conv4_3_norm_conv4_3_norm_0_split -> conv4_3_norm_conv4_3_norm_0_split_1
I1031 20:05:39.227847 12290 net.cpp:452] conv4_3_norm_conv4_3_norm_0_split -> conv4_3_norm_conv4_3_norm_0_split_2
I1031 20:05:39.227905 12290 net.cpp:150] Setting up conv4_3_norm_conv4_3_norm_0_split
I1031 20:05:39.227915 12290 net.cpp:157] Top shape: 8 512 38 38 (5914624)
I1031 20:05:39.227917 12290 net.cpp:157] Top shape: 8 512 38 38 (5914624)
I1031 20:05:39.227921 12290 net.cpp:157] Top shape: 8 512 38 38 (5914624)
I1031 20:05:39.227922 12290 net.cpp:165] Memory required for data: 1976877088
I1031 20:05:39.227926 12290 layer_factory.hpp:77] Creating layer conv4_3_norm_mbox_loc
I1031 20:05:39.227932 12290 net.cpp:100] Creating Layer conv4_3_norm_mbox_loc
I1031 20:05:39.227957 12290 net.cpp:478] conv4_3_norm_mbox_loc <- conv4_3_norm_conv4_3_norm_0_split_0
I1031 20:05:39.227965 12290 net.cpp:452] conv4_3_norm_mbox_loc -> conv4_3_norm_mbox_loc
I1031 20:05:39.231199 12290 net.cpp:150] Setting up conv4_3_norm_mbox_loc
I1031 20:05:39.231220 12290 net.cpp:157] Top shape: 8 16 38 38 (184832)
I1031 20:05:39.231222 12290 net.cpp:165] Memory required for data: 1977616416
I1031 20:05:39.231227 12290 layer_factory.hpp:77] Creating layer conv4_3_norm_mbox_loc_perm
I1031 20:05:39.231236 12290 net.cpp:100] Creating Layer conv4_3_norm_mbox_loc_perm
I1031 20:05:39.231240 12290 net.cpp:478] conv4_3_norm_mbox_loc_perm <- conv4_3_norm_mbox_loc
I1031 20:05:39.231245 12290 net.cpp:452] conv4_3_norm_mbox_loc_perm -> conv4_3_norm_mbox_loc_perm
I1031 20:05:39.231428 12290 net.cpp:150] Setting up conv4_3_norm_mbox_loc_perm
I1031 20:05:39.231441 12290 net.cpp:157] Top shape: 8 38 38 16 (184832)
I1031 20:05:39.231444 12290 net.cpp:165] Memory required for data: 1978355744
I1031 20:05:39.231447 12290 layer_factory.hpp:77] Creating layer conv4_3_norm_mbox_loc_flat
I1031 20:05:39.231453 12290 net.cpp:100] Creating Layer conv4_3_norm_mbox_loc_flat
I1031 20:05:39.231458 12290 net.cpp:478] conv4_3_norm_mbox_loc_flat <- conv4_3_norm_mbox_loc_perm
I1031 20:05:39.231462 12290 net.cpp:452] conv4_3_norm_mbox_loc_flat -> conv4_3_norm_mbox_loc_flat
I1031 20:05:39.231534 12290 net.cpp:150] Setting up conv4_3_norm_mbox_loc_flat
I1031 20:05:39.231544 12290 net.cpp:157] Top shape: 8 23104 (184832)
I1031 20:05:39.231546 12290 net.cpp:165] Memory required for data: 1979095072
I1031 20:05:39.231549 12290 layer_factory.hpp:77] Creating layer conv4_3_norm_mbox_conf
I1031 20:05:39.231565 12290 net.cpp:100] Creating Layer conv4_3_norm_mbox_conf
I1031 20:05:39.231571 12290 net.cpp:478] conv4_3_norm_mbox_conf <- conv4_3_norm_conv4_3_norm_0_split_1
I1031 20:05:39.231576 12290 net.cpp:452] conv4_3_norm_mbox_conf -> conv4_3_norm_mbox_conf
I1031 20:05:39.237071 12290 net.cpp:150] Setting up conv4_3_norm_mbox_conf
I1031 20:05:39.237092 12290 net.cpp:157] Top shape: 8 84 38 38 (970368)
I1031 20:05:39.237094 12290 net.cpp:165] Memory required for data: 1982976544
I1031 20:05:39.237100 12290 layer_factory.hpp:77] Creating layer conv4_3_norm_mbox_conf_perm
I1031 20:05:39.237108 12290 net.cpp:100] Creating Layer conv4_3_norm_mbox_conf_perm
I1031 20:05:39.237130 12290 net.cpp:478] conv4_3_norm_mbox_conf_perm <- conv4_3_norm_mbox_conf
I1031 20:05:39.237135 12290 net.cpp:452] conv4_3_norm_mbox_conf_perm -> conv4_3_norm_mbox_conf_perm
I1031 20:05:39.237341 12290 net.cpp:150] Setting up conv4_3_norm_mbox_conf_perm
I1031 20:05:39.237354 12290 net.cpp:157] Top shape: 8 38 38 84 (970368)
I1031 20:05:39.237355 12290 net.cpp:165] Memory required for data: 1986858016
I1031 20:05:39.237359 12290 layer_factory.hpp:77] Creating layer conv4_3_norm_mbox_conf_flat
I1031 20:05:39.237365 12290 net.cpp:100] Creating Layer conv4_3_norm_mbox_conf_flat
I1031 20:05:39.237370 12290 net.cpp:478] conv4_3_norm_mbox_conf_flat <- conv4_3_norm_mbox_conf_perm
I1031 20:05:39.237375 12290 net.cpp:452] conv4_3_norm_mbox_conf_flat -> conv4_3_norm_mbox_conf_flat
I1031 20:05:39.237422 12290 net.cpp:150] Setting up conv4_3_norm_mbox_conf_flat
I1031 20:05:39.237432 12290 net.cpp:157] Top shape: 8 121296 (970368)
I1031 20:05:39.237435 12290 net.cpp:165] Memory required for data: 1990739488
I1031 20:05:39.237437 12290 layer_factory.hpp:77] Creating layer conv4_3_norm_mbox_priorbox
I1031 20:05:39.237447 12290 net.cpp:100] Creating Layer conv4_3_norm_mbox_priorbox
I1031 20:05:39.237452 12290 net.cpp:478] conv4_3_norm_mbox_priorbox <- conv4_3_norm_conv4_3_norm_0_split_2
I1031 20:05:39.237457 12290 net.cpp:478] conv4_3_norm_mbox_priorbox <- data_data_0_split_1
I1031 20:05:39.237478 12290 net.cpp:452] conv4_3_norm_mbox_priorbox -> conv4_3_norm_mbox_priorbox
I1031 20:05:39.237512 12290 net.cpp:150] Setting up conv4_3_norm_mbox_priorbox
I1031 20:05:39.237540 12290 net.cpp:157] Top shape: 1 2 23104 (46208)
I1031 20:05:39.237541 12290 net.cpp:165] Memory required for data: 1990924320
I1031 20:05:39.237545 12290 layer_factory.hpp:77] Creating layer fc7_mbox_loc
I1031 20:05:39.237555 12290 net.cpp:100] Creating Layer fc7_mbox_loc
I1031 20:05:39.237587 12290 net.cpp:478] fc7_mbox_loc <- fc7_relu7_0_split_1
I1031 20:05:39.237613 12290 net.cpp:452] fc7_mbox_loc -> fc7_mbox_loc
I1031 20:05:39.242434 12290 net.cpp:150] Setting up fc7_mbox_loc
I1031 20:05:39.242455 12290 net.cpp:157] Top shape: 8 24 19 19 (69312)
I1031 20:05:39.242458 12290 net.cpp:165] Memory required for data: 1991201568
I1031 20:05:39.242465 12290 layer_factory.hpp:77] Creating layer fc7_mbox_loc_perm
I1031 20:05:39.242473 12290 net.cpp:100] Creating Layer fc7_mbox_loc_perm
I1031 20:05:39.242476 12290 net.cpp:478] fc7_mbox_loc_perm <- fc7_mbox_loc
I1031 20:05:39.242481 12290 net.cpp:452] fc7_mbox_loc_perm -> fc7_mbox_loc_perm
I1031 20:05:39.242594 12290 net.cpp:150] Setting up fc7_mbox_loc_perm
I1031 20:05:39.242604 12290 net.cpp:157] Top shape: 8 19 19 24 (69312)
I1031 20:05:39.242606 12290 net.cpp:165] Memory required for data: 1991478816
I1031 20:05:39.242609 12290 layer_factory.hpp:77] Creating layer fc7_mbox_loc_flat
I1031 20:05:39.242616 12290 net.cpp:100] Creating Layer fc7_mbox_loc_flat
I1031 20:05:39.242622 12290 net.cpp:478] fc7_mbox_loc_flat <- fc7_mbox_loc_perm
I1031 20:05:39.242627 12290 net.cpp:452] fc7_mbox_loc_flat -> fc7_mbox_loc_flat
I1031 20:05:39.242655 12290 net.cpp:150] Setting up fc7_mbox_loc_flat
I1031 20:05:39.242662 12290 net.cpp:157] Top shape: 8 8664 (69312)
I1031 20:05:39.242664 12290 net.cpp:165] Memory required for data: 1991756064
I1031 20:05:39.242666 12290 layer_factory.hpp:77] Creating layer fc7_mbox_conf
I1031 20:05:39.242676 12290 net.cpp:100] Creating Layer fc7_mbox_conf
I1031 20:05:39.242681 12290 net.cpp:478] fc7_mbox_conf <- fc7_relu7_0_split_2
I1031 20:05:39.242686 12290 net.cpp:452] fc7_mbox_conf -> fc7_mbox_conf
I1031 20:05:39.254068 12290 net.cpp:150] Setting up fc7_mbox_conf
I1031 20:05:39.254089 12290 net.cpp:157] Top shape: 8 126 19 19 (363888)
I1031 20:05:39.254092 12290 net.cpp:165] Memory required for data: 1993211616
I1031 20:05:39.254113 12290 layer_factory.hpp:77] Creating layer fc7_mbox_conf_perm
I1031 20:05:39.254120 12290 net.cpp:100] Creating Layer fc7_mbox_conf_perm
I1031 20:05:39.254123 12290 net.cpp:478] fc7_mbox_conf_perm <- fc7_mbox_conf
I1031 20:05:39.254128 12290 net.cpp:452] fc7_mbox_conf_perm -> fc7_mbox_conf_perm
I1031 20:05:39.254321 12290 net.cpp:150] Setting up fc7_mbox_conf_perm
I1031 20:05:39.254333 12290 net.cpp:157] Top shape: 8 19 19 126 (363888)
I1031 20:05:39.254334 12290 net.cpp:165] Memory required for data: 1994667168
I1031 20:05:39.254338 12290 layer_factory.hpp:77] Creating layer fc7_mbox_conf_flat
I1031 20:05:39.254343 12290 net.cpp:100] Creating Layer fc7_mbox_conf_flat
I1031 20:05:39.254348 12290 net.cpp:478] fc7_mbox_conf_flat <- fc7_mbox_conf_perm
I1031 20:05:39.254359 12290 net.cpp:452] fc7_mbox_conf_flat -> fc7_mbox_conf_flat
I1031 20:05:39.254390 12290 net.cpp:150] Setting up fc7_mbox_conf_flat
I1031 20:05:39.254405 12290 net.cpp:157] Top shape: 8 45486 (363888)
I1031 20:05:39.254406 12290 net.cpp:165] Memory required for data: 1996122720
I1031 20:05:39.254437 12290 layer_factory.hpp:77] Creating layer fc7_mbox_priorbox
I1031 20:05:39.254459 12290 net.cpp:100] Creating Layer fc7_mbox_priorbox
I1031 20:05:39.254463 12290 net.cpp:478] fc7_mbox_priorbox <- fc7_relu7_0_split_3
I1031 20:05:39.254467 12290 net.cpp:478] fc7_mbox_priorbox <- data_data_0_split_2
I1031 20:05:39.254473 12290 net.cpp:452] fc7_mbox_priorbox -> fc7_mbox_priorbox
I1031 20:05:39.254508 12290 net.cpp:150] Setting up fc7_mbox_priorbox
I1031 20:05:39.254534 12290 net.cpp:157] Top shape: 1 2 8664 (17328)
I1031 20:05:39.254535 12290 net.cpp:165] Memory required for data: 1996192032
I1031 20:05:39.254537 12290 layer_factory.hpp:77] Creating layer conv6_2_mbox_loc
I1031 20:05:39.254550 12290 net.cpp:100] Creating Layer conv6_2_mbox_loc
I1031 20:05:39.254555 12290 net.cpp:478] conv6_2_mbox_loc <- conv6_2_conv6_2_relu_0_split_1
I1031 20:05:39.254561 12290 net.cpp:452] conv6_2_mbox_loc -> conv6_2_mbox_loc
I1031 20:05:39.258559 12290 net.cpp:150] Setting up conv6_2_mbox_loc
I1031 20:05:39.258579 12290 net.cpp:157] Top shape: 8 24 10 10 (19200)
I1031 20:05:39.258599 12290 net.cpp:165] Memory required for data: 1996268832
I1031 20:05:39.258605 12290 layer_factory.hpp:77] Creating layer conv6_2_mbox_loc_perm
I1031 20:05:39.258612 12290 net.cpp:100] Creating Layer conv6_2_mbox_loc_perm
I1031 20:05:39.258615 12290 net.cpp:478] conv6_2_mbox_loc_perm <- conv6_2_mbox_loc
I1031 20:05:39.258620 12290 net.cpp:452] conv6_2_mbox_loc_perm -> conv6_2_mbox_loc_perm
I1031 20:05:39.258777 12290 net.cpp:150] Setting up conv6_2_mbox_loc_perm
I1031 20:05:39.258790 12290 net.cpp:157] Top shape: 8 10 10 24 (19200)
I1031 20:05:39.258793 12290 net.cpp:165] Memory required for data: 1996345632
I1031 20:05:39.258795 12290 layer_factory.hpp:77] Creating layer conv6_2_mbox_loc_flat
I1031 20:05:39.258800 12290 net.cpp:100] Creating Layer conv6_2_mbox_loc_flat
I1031 20:05:39.258805 12290 net.cpp:478] conv6_2_mbox_loc_flat <- conv6_2_mbox_loc_perm
I1031 20:05:39.258812 12290 net.cpp:452] conv6_2_mbox_loc_flat -> conv6_2_mbox_loc_flat
I1031 20:05:39.258841 12290 net.cpp:150] Setting up conv6_2_mbox_loc_flat
I1031 20:05:39.258849 12290 net.cpp:157] Top shape: 8 2400 (19200)
I1031 20:05:39.258852 12290 net.cpp:165] Memory required for data: 1996422432
I1031 20:05:39.258854 12290 layer_factory.hpp:77] Creating layer conv6_2_mbox_conf
I1031 20:05:39.258865 12290 net.cpp:100] Creating Layer conv6_2_mbox_conf
I1031 20:05:39.258870 12290 net.cpp:478] conv6_2_mbox_conf <- conv6_2_conv6_2_relu_0_split_2
I1031 20:05:39.258875 12290 net.cpp:452] conv6_2_mbox_conf -> conv6_2_mbox_conf
I1031 20:05:39.265897 12290 net.cpp:150] Setting up conv6_2_mbox_conf
I1031 20:05:39.265916 12290 net.cpp:157] Top shape: 8 126 10 10 (100800)
I1031 20:05:39.265919 12290 net.cpp:165] Memory required for data: 1996825632
I1031 20:05:39.265925 12290 layer_factory.hpp:77] Creating layer conv6_2_mbox_conf_perm
I1031 20:05:39.265933 12290 net.cpp:100] Creating Layer conv6_2_mbox_conf_perm
I1031 20:05:39.265952 12290 net.cpp:478] conv6_2_mbox_conf_perm <- conv6_2_mbox_conf
I1031 20:05:39.265964 12290 net.cpp:452] conv6_2_mbox_conf_perm -> conv6_2_mbox_conf_perm
I1031 20:05:39.266129 12290 net.cpp:150] Setting up conv6_2_mbox_conf_perm
I1031 20:05:39.266139 12290 net.cpp:157] Top shape: 8 10 10 126 (100800)
I1031 20:05:39.266141 12290 net.cpp:165] Memory required for data: 1997228832
I1031 20:05:39.266144 12290 layer_factory.hpp:77] Creating layer conv6_2_mbox_conf_flat
I1031 20:05:39.266151 12290 net.cpp:100] Creating Layer conv6_2_mbox_conf_flat
I1031 20:05:39.266157 12290 net.cpp:478] conv6_2_mbox_conf_flat <- conv6_2_mbox_conf_perm
I1031 20:05:39.266162 12290 net.cpp:452] conv6_2_mbox_conf_flat -> conv6_2_mbox_conf_flat
I1031 20:05:39.266216 12290 net.cpp:150] Setting up conv6_2_mbox_conf_flat
I1031 20:05:39.266239 12290 net.cpp:157] Top shape: 8 12600 (100800)
I1031 20:05:39.266242 12290 net.cpp:165] Memory required for data: 1997632032
I1031 20:05:39.266244 12290 layer_factory.hpp:77] Creating layer conv6_2_mbox_priorbox
I1031 20:05:39.266265 12290 net.cpp:100] Creating Layer conv6_2_mbox_priorbox
I1031 20:05:39.266286 12290 net.cpp:478] conv6_2_mbox_priorbox <- conv6_2_conv6_2_relu_0_split_3
I1031 20:05:39.266291 12290 net.cpp:478] conv6_2_mbox_priorbox <- data_data_0_split_3
I1031 20:05:39.266296 12290 net.cpp:452] conv6_2_mbox_priorbox -> conv6_2_mbox_priorbox
I1031 20:05:39.266345 12290 net.cpp:150] Setting up conv6_2_mbox_priorbox
I1031 20:05:39.266352 12290 net.cpp:157] Top shape: 1 2 2400 (4800)
I1031 20:05:39.266355 12290 net.cpp:165] Memory required for data: 1997651232
I1031 20:05:39.266368 12290 layer_factory.hpp:77] Creating layer conv7_2_mbox_loc
I1031 20:05:39.266382 12290 net.cpp:100] Creating Layer conv7_2_mbox_loc
I1031 20:05:39.266388 12290 net.cpp:478] conv7_2_mbox_loc <- conv7_2_conv7_2_relu_0_split_1
I1031 20:05:39.266396 12290 net.cpp:452] conv7_2_mbox_loc -> conv7_2_mbox_loc
I1031 20:05:39.271322 12290 net.cpp:150] Setting up conv7_2_mbox_loc
I1031 20:05:39.271342 12290 net.cpp:157] Top shape: 8 24 5 5 (4800)
I1031 20:05:39.271344 12290 net.cpp:165] Memory required for data: 1997670432
I1031 20:05:39.271350 12290 layer_factory.hpp:77] Creating layer conv7_2_mbox_loc_perm
I1031 20:05:39.271358 12290 net.cpp:100] Creating Layer conv7_2_mbox_loc_perm
I1031 20:05:39.271360 12290 net.cpp:478] conv7_2_mbox_loc_perm <- conv7_2_mbox_loc
I1031 20:05:39.271365 12290 net.cpp:452] conv7_2_mbox_loc_perm -> conv7_2_mbox_loc_perm
I1031 20:05:39.271497 12290 net.cpp:150] Setting up conv7_2_mbox_loc_perm
I1031 20:05:39.271507 12290 net.cpp:157] Top shape: 8 5 5 24 (4800)
I1031 20:05:39.271509 12290 net.cpp:165] Memory required for data: 1997689632
I1031 20:05:39.271512 12290 layer_factory.hpp:77] Creating layer conv7_2_mbox_loc_flat
I1031 20:05:39.271518 12290 net.cpp:100] Creating Layer conv7_2_mbox_loc_flat
I1031 20:05:39.271522 12290 net.cpp:478] conv7_2_mbox_loc_flat <- conv7_2_mbox_loc_perm
I1031 20:05:39.271526 12290 net.cpp:452] conv7_2_mbox_loc_flat -> conv7_2_mbox_loc_flat
I1031 20:05:39.271572 12290 net.cpp:150] Setting up conv7_2_mbox_loc_flat
I1031 20:05:39.271596 12290 net.cpp:157] Top shape: 8 600 (4800)
I1031 20:05:39.271598 12290 net.cpp:165] Memory required for data: 1997708832
I1031 20:05:39.271600 12290 layer_factory.hpp:77] Creating layer conv7_2_mbox_conf
I1031 20:05:39.271625 12290 net.cpp:100] Creating Layer conv7_2_mbox_conf
I1031 20:05:39.271631 12290 net.cpp:478] conv7_2_mbox_conf <- conv7_2_conv7_2_relu_0_split_2
I1031 20:05:39.271656 12290 net.cpp:452] conv7_2_mbox_conf -> conv7_2_mbox_conf
I1031 20:05:39.277421 12290 net.cpp:150] Setting up conv7_2_mbox_conf
I1031 20:05:39.277459 12290 net.cpp:157] Top shape: 8 126 5 5 (25200)
I1031 20:05:39.277463 12290 net.cpp:165] Memory required for data: 1997809632
I1031 20:05:39.277485 12290 layer_factory.hpp:77] Creating layer conv7_2_mbox_conf_perm
I1031 20:05:39.277492 12290 net.cpp:100] Creating Layer conv7_2_mbox_conf_perm
I1031 20:05:39.277520 12290 net.cpp:478] conv7_2_mbox_conf_perm <- conv7_2_mbox_conf
I1031 20:05:39.277541 12290 net.cpp:452] conv7_2_mbox_conf_perm -> conv7_2_mbox_conf_perm
I1031 20:05:39.277745 12290 net.cpp:150] Setting up conv7_2_mbox_conf_perm
I1031 20:05:39.277756 12290 net.cpp:157] Top shape: 8 5 5 126 (25200)
I1031 20:05:39.277760 12290 net.cpp:165] Memory required for data: 1997910432
I1031 20:05:39.277761 12290 layer_factory.hpp:77] Creating layer conv7_2_mbox_conf_flat
I1031 20:05:39.277768 12290 net.cpp:100] Creating Layer conv7_2_mbox_conf_flat
I1031 20:05:39.277773 12290 net.cpp:478] conv7_2_mbox_conf_flat <- conv7_2_mbox_conf_perm
I1031 20:05:39.277777 12290 net.cpp:452] conv7_2_mbox_conf_flat -> conv7_2_mbox_conf_flat
I1031 20:05:39.277807 12290 net.cpp:150] Setting up conv7_2_mbox_conf_flat
I1031 20:05:39.277817 12290 net.cpp:157] Top shape: 8 3150 (25200)
I1031 20:05:39.277818 12290 net.cpp:165] Memory required for data: 1998011232
I1031 20:05:39.277822 12290 layer_factory.hpp:77] Creating layer conv7_2_mbox_priorbox
I1031 20:05:39.277829 12290 net.cpp:100] Creating Layer conv7_2_mbox_priorbox
I1031 20:05:39.277835 12290 net.cpp:478] conv7_2_mbox_priorbox <- conv7_2_conv7_2_relu_0_split_3
I1031 20:05:39.277868 12290 net.cpp:478] conv7_2_mbox_priorbox <- data_data_0_split_4
I1031 20:05:39.277874 12290 net.cpp:452] conv7_2_mbox_priorbox -> conv7_2_mbox_priorbox
I1031 20:05:39.277910 12290 net.cpp:150] Setting up conv7_2_mbox_priorbox
I1031 20:05:39.277918 12290 net.cpp:157] Top shape: 1 2 600 (1200)
I1031 20:05:39.277920 12290 net.cpp:165] Memory required for data: 1998016032
I1031 20:05:39.277923 12290 layer_factory.hpp:77] Creating layer conv8_2_mbox_loc
I1031 20:05:39.277931 12290 net.cpp:100] Creating Layer conv8_2_mbox_loc
I1031 20:05:39.277974 12290 net.cpp:478] conv8_2_mbox_loc <- conv8_2_conv8_2_relu_0_split_1
I1031 20:05:39.277987 12290 net.cpp:452] conv8_2_mbox_loc -> conv8_2_mbox_loc
I1031 20:05:39.280725 12290 net.cpp:150] Setting up conv8_2_mbox_loc
I1031 20:05:39.280743 12290 net.cpp:157] Top shape: 8 16 3 3 (1152)
I1031 20:05:39.280746 12290 net.cpp:165] Memory required for data: 1998020640
I1031 20:05:39.280763 12290 layer_factory.hpp:77] Creating layer conv8_2_mbox_loc_perm
I1031 20:05:39.280771 12290 net.cpp:100] Creating Layer conv8_2_mbox_loc_perm
I1031 20:05:39.280774 12290 net.cpp:478] conv8_2_mbox_loc_perm <- conv8_2_mbox_loc
I1031 20:05:39.280779 12290 net.cpp:452] conv8_2_mbox_loc_perm -> conv8_2_mbox_loc_perm
I1031 20:05:39.280905 12290 net.cpp:150] Setting up conv8_2_mbox_loc_perm
I1031 20:05:39.280915 12290 net.cpp:157] Top shape: 8 3 3 16 (1152)
I1031 20:05:39.280917 12290 net.cpp:165] Memory required for data: 1998025248
I1031 20:05:39.280920 12290 layer_factory.hpp:77] Creating layer conv8_2_mbox_loc_flat
I1031 20:05:39.280926 12290 net.cpp:100] Creating Layer conv8_2_mbox_loc_flat
I1031 20:05:39.280930 12290 net.cpp:478] conv8_2_mbox_loc_flat <- conv8_2_mbox_loc_perm
I1031 20:05:39.280935 12290 net.cpp:452] conv8_2_mbox_loc_flat -> conv8_2_mbox_loc_flat
I1031 20:05:39.280973 12290 net.cpp:150] Setting up conv8_2_mbox_loc_flat
I1031 20:05:39.280982 12290 net.cpp:157] Top shape: 8 144 (1152)
I1031 20:05:39.280985 12290 net.cpp:165] Memory required for data: 1998029856
I1031 20:05:39.280987 12290 layer_factory.hpp:77] Creating layer conv8_2_mbox_conf
I1031 20:05:39.280997 12290 net.cpp:100] Creating Layer conv8_2_mbox_conf
I1031 20:05:39.281003 12290 net.cpp:478] conv8_2_mbox_conf <- conv8_2_conv8_2_relu_0_split_2
I1031 20:05:39.281008 12290 net.cpp:452] conv8_2_mbox_conf -> conv8_2_mbox_conf
I1031 20:05:39.285727 12290 net.cpp:150] Setting up conv8_2_mbox_conf
I1031 20:05:39.285755 12290 net.cpp:157] Top shape: 8 84 3 3 (6048)
I1031 20:05:39.285758 12290 net.cpp:165] Memory required for data: 1998054048
I1031 20:05:39.285764 12290 layer_factory.hpp:77] Creating layer conv8_2_mbox_conf_perm
I1031 20:05:39.285773 12290 net.cpp:100] Creating Layer conv8_2_mbox_conf_perm
I1031 20:05:39.285776 12290 net.cpp:478] conv8_2_mbox_conf_perm <- conv8_2_mbox_conf
I1031 20:05:39.285784 12290 net.cpp:452] conv8_2_mbox_conf_perm -> conv8_2_mbox_conf_perm
I1031 20:05:39.286020 12290 net.cpp:150] Setting up conv8_2_mbox_conf_perm
I1031 20:05:39.286032 12290 net.cpp:157] Top shape: 8 3 3 84 (6048)
I1031 20:05:39.286034 12290 net.cpp:165] Memory required for data: 1998078240
I1031 20:05:39.286037 12290 layer_factory.hpp:77] Creating layer conv8_2_mbox_conf_flat
I1031 20:05:39.286044 12290 net.cpp:100] Creating Layer conv8_2_mbox_conf_flat
I1031 20:05:39.286049 12290 net.cpp:478] conv8_2_mbox_conf_flat <- conv8_2_mbox_conf_perm
I1031 20:05:39.286054 12290 net.cpp:452] conv8_2_mbox_conf_flat -> conv8_2_mbox_conf_flat
I1031 20:05:39.286103 12290 net.cpp:150] Setting up conv8_2_mbox_conf_flat
I1031 20:05:39.286111 12290 net.cpp:157] Top shape: 8 756 (6048)
I1031 20:05:39.286113 12290 net.cpp:165] Memory required for data: 1998102432
I1031 20:05:39.286116 12290 layer_factory.hpp:77] Creating layer conv8_2_mbox_priorbox
I1031 20:05:39.286124 12290 net.cpp:100] Creating Layer conv8_2_mbox_priorbox
I1031 20:05:39.286128 12290 net.cpp:478] conv8_2_mbox_priorbox <- conv8_2_conv8_2_relu_0_split_3
I1031 20:05:39.286132 12290 net.cpp:478] conv8_2_mbox_priorbox <- data_data_0_split_5
I1031 20:05:39.286155 12290 net.cpp:452] conv8_2_mbox_priorbox -> conv8_2_mbox_priorbox
I1031 20:05:39.286206 12290 net.cpp:150] Setting up conv8_2_mbox_priorbox
I1031 20:05:39.286214 12290 net.cpp:157] Top shape: 1 2 144 (288)
I1031 20:05:39.286217 12290 net.cpp:165] Memory required for data: 1998103584
I1031 20:05:39.286219 12290 layer_factory.hpp:77] Creating layer conv9_2_mbox_loc
I1031 20:05:39.286247 12290 net.cpp:100] Creating Layer conv9_2_mbox_loc
I1031 20:05:39.286253 12290 net.cpp:478] conv9_2_mbox_loc <- conv9_2_conv9_2_relu_0_split_0
I1031 20:05:39.286259 12290 net.cpp:452] conv9_2_mbox_loc -> conv9_2_mbox_loc
I1031 20:05:39.288944 12290 net.cpp:150] Setting up conv9_2_mbox_loc
I1031 20:05:39.288982 12290 net.cpp:157] Top shape: 8 16 1 1 (128)
I1031 20:05:39.288985 12290 net.cpp:165] Memory required for data: 1998104096
I1031 20:05:39.288991 12290 layer_factory.hpp:77] Creating layer conv9_2_mbox_loc_perm
I1031 20:05:39.289017 12290 net.cpp:100] Creating Layer conv9_2_mbox_loc_perm
I1031 20:05:39.289021 12290 net.cpp:478] conv9_2_mbox_loc_perm <- conv9_2_mbox_loc
I1031 20:05:39.289026 12290 net.cpp:452] conv9_2_mbox_loc_perm -> conv9_2_mbox_loc_perm
I1031 20:05:39.289211 12290 net.cpp:150] Setting up conv9_2_mbox_loc_perm
I1031 20:05:39.289222 12290 net.cpp:157] Top shape: 8 1 1 16 (128)
I1031 20:05:39.289224 12290 net.cpp:165] Memory required for data: 1998104608
I1031 20:05:39.289227 12290 layer_factory.hpp:77] Creating layer conv9_2_mbox_loc_flat
I1031 20:05:39.289233 12290 net.cpp:100] Creating Layer conv9_2_mbox_loc_flat
I1031 20:05:39.289237 12290 net.cpp:478] conv9_2_mbox_loc_flat <- conv9_2_mbox_loc_perm
I1031 20:05:39.289242 12290 net.cpp:452] conv9_2_mbox_loc_flat -> conv9_2_mbox_loc_flat
I1031 20:05:39.289274 12290 net.cpp:150] Setting up conv9_2_mbox_loc_flat
I1031 20:05:39.289283 12290 net.cpp:157] Top shape: 8 16 (128)
I1031 20:05:39.289285 12290 net.cpp:165] Memory required for data: 1998105120
I1031 20:05:39.289288 12290 layer_factory.hpp:77] Creating layer conv9_2_mbox_conf
I1031 20:05:39.289297 12290 net.cpp:100] Creating Layer conv9_2_mbox_conf
I1031 20:05:39.289302 12290 net.cpp:478] conv9_2_mbox_conf <- conv9_2_conv9_2_relu_0_split_1
I1031 20:05:39.289309 12290 net.cpp:452] conv9_2_mbox_conf -> conv9_2_mbox_conf
I1031 20:05:39.293879 12290 net.cpp:150] Setting up conv9_2_mbox_conf
I1031 20:05:39.293897 12290 net.cpp:157] Top shape: 8 84 1 1 (672)
I1031 20:05:39.293900 12290 net.cpp:165] Memory required for data: 1998107808
I1031 20:05:39.293906 12290 layer_factory.hpp:77] Creating layer conv9_2_mbox_conf_perm
I1031 20:05:39.293932 12290 net.cpp:100] Creating Layer conv9_2_mbox_conf_perm
I1031 20:05:39.293947 12290 net.cpp:478] conv9_2_mbox_conf_perm <- conv9_2_mbox_conf
I1031 20:05:39.293957 12290 net.cpp:452] conv9_2_mbox_conf_perm -> conv9_2_mbox_conf_perm
I1031 20:05:39.294152 12290 net.cpp:150] Setting up conv9_2_mbox_conf_perm
I1031 20:05:39.294163 12290 net.cpp:157] Top shape: 8 1 1 84 (672)
I1031 20:05:39.294167 12290 net.cpp:165] Memory required for data: 1998110496
I1031 20:05:39.294168 12290 layer_factory.hpp:77] Creating layer conv9_2_mbox_conf_flat
I1031 20:05:39.294175 12290 net.cpp:100] Creating Layer conv9_2_mbox_conf_flat
I1031 20:05:39.294180 12290 net.cpp:478] conv9_2_mbox_conf_flat <- conv9_2_mbox_conf_perm
I1031 20:05:39.294184 12290 net.cpp:452] conv9_2_mbox_conf_flat -> conv9_2_mbox_conf_flat
I1031 20:05:39.294234 12290 net.cpp:150] Setting up conv9_2_mbox_conf_flat
I1031 20:05:39.294243 12290 net.cpp:157] Top shape: 8 84 (672)
I1031 20:05:39.294245 12290 net.cpp:165] Memory required for data: 1998113184
I1031 20:05:39.294247 12290 layer_factory.hpp:77] Creating layer conv9_2_mbox_priorbox
I1031 20:05:39.294255 12290 net.cpp:100] Creating Layer conv9_2_mbox_priorbox
I1031 20:05:39.294260 12290 net.cpp:478] conv9_2_mbox_priorbox <- conv9_2_conv9_2_relu_0_split_2
I1031 20:05:39.294263 12290 net.cpp:478] conv9_2_mbox_priorbox <- data_data_0_split_6
I1031 20:05:39.294267 12290 net.cpp:452] conv9_2_mbox_priorbox -> conv9_2_mbox_priorbox
I1031 20:05:39.294318 12290 net.cpp:150] Setting up conv9_2_mbox_priorbox
I1031 20:05:39.294327 12290 net.cpp:157] Top shape: 1 2 16 (32)
I1031 20:05:39.294328 12290 net.cpp:165] Memory required for data: 1998113312
I1031 20:05:39.294332 12290 layer_factory.hpp:77] Creating layer mbox_loc
I1031 20:05:39.294338 12290 net.cpp:100] Creating Layer mbox_loc
I1031 20:05:39.294344 12290 net.cpp:478] mbox_loc <- conv4_3_norm_mbox_loc_flat
I1031 20:05:39.294348 12290 net.cpp:478] mbox_loc <- fc7_mbox_loc_flat
I1031 20:05:39.294353 12290 net.cpp:478] mbox_loc <- conv6_2_mbox_loc_flat
I1031 20:05:39.294355 12290 net.cpp:478] mbox_loc <- conv7_2_mbox_loc_flat
I1031 20:05:39.294358 12290 net.cpp:478] mbox_loc <- conv8_2_mbox_loc_flat
I1031 20:05:39.294361 12290 net.cpp:478] mbox_loc <- conv9_2_mbox_loc_flat
I1031 20:05:39.294364 12290 net.cpp:452] mbox_loc -> mbox_loc
I1031 20:05:39.294431 12290 net.cpp:150] Setting up mbox_loc
I1031 20:05:39.294443 12290 net.cpp:157] Top shape: 8 34928 (279424)
I1031 20:05:39.294446 12290 net.cpp:165] Memory required for data: 1999231008
I1031 20:05:39.294448 12290 layer_factory.hpp:77] Creating layer mbox_conf
I1031 20:05:39.294454 12290 net.cpp:100] Creating Layer mbox_conf
I1031 20:05:39.294458 12290 net.cpp:478] mbox_conf <- conv4_3_norm_mbox_conf_flat
I1031 20:05:39.294461 12290 net.cpp:478] mbox_conf <- fc7_mbox_conf_flat
I1031 20:05:39.294466 12290 net.cpp:478] mbox_conf <- conv6_2_mbox_conf_flat
I1031 20:05:39.294469 12290 net.cpp:478] mbox_conf <- conv7_2_mbox_conf_flat
I1031 20:05:39.294472 12290 net.cpp:478] mbox_conf <- conv8_2_mbox_conf_flat
I1031 20:05:39.294476 12290 net.cpp:478] mbox_conf <- conv9_2_mbox_conf_flat
I1031 20:05:39.294479 12290 net.cpp:452] mbox_conf -> mbox_conf
I1031 20:05:39.294512 12290 net.cpp:150] Setting up mbox_conf
I1031 20:05:39.294520 12290 net.cpp:157] Top shape: 8 183372 (1466976)
I1031 20:05:39.294523 12290 net.cpp:165] Memory required for data: 2005098912
I1031 20:05:39.294524 12290 layer_factory.hpp:77] Creating layer mbox_priorbox
I1031 20:05:39.294528 12290 net.cpp:100] Creating Layer mbox_priorbox
I1031 20:05:39.294531 12290 net.cpp:478] mbox_priorbox <- conv4_3_norm_mbox_priorbox
I1031 20:05:39.294535 12290 net.cpp:478] mbox_priorbox <- fc7_mbox_priorbox
I1031 20:05:39.294538 12290 net.cpp:478] mbox_priorbox <- conv6_2_mbox_priorbox
I1031 20:05:39.294540 12290 net.cpp:478] mbox_priorbox <- conv7_2_mbox_priorbox
I1031 20:05:39.294543 12290 net.cpp:478] mbox_priorbox <- conv8_2_mbox_priorbox
I1031 20:05:39.294546 12290 net.cpp:478] mbox_priorbox <- conv9_2_mbox_priorbox
I1031 20:05:39.294549 12290 net.cpp:452] mbox_priorbox -> mbox_priorbox
I1031 20:05:39.294587 12290 net.cpp:150] Setting up mbox_priorbox
I1031 20:05:39.294596 12290 net.cpp:157] Top shape: 1 2 34928 (69856)
I1031 20:05:39.294598 12290 net.cpp:165] Memory required for data: 2005378336
I1031 20:05:39.294600 12290 layer_factory.hpp:77] Creating layer mbox_loss
I1031 20:05:39.294621 12290 net.cpp:100] Creating Layer mbox_loss
I1031 20:05:39.294627 12290 net.cpp:478] mbox_loss <- mbox_loc
I1031 20:05:39.294631 12290 net.cpp:478] mbox_loss <- mbox_conf
I1031 20:05:39.294633 12290 net.cpp:478] mbox_loss <- mbox_priorbox
…
state {
  phase: TEST
}
layer {
  name: "data"
  type: "AnnotatedData"
  top: "data"
  top: "label"
  include {
    phase: TEST
  }
  transform_param {
    mean_value: 104
    mean_value: 117
    mean_value: 123
    resize_param {
      prob: 1
      resize_mode: WARP
      height: 300
      width: 300
      interp_mode: LINEAR
    }
  }
  data_param {
    source: "examples/VOC0712/VOC0712_test_lmdb"
    batch_size: 8
    backend: LMDB
  }
  annotated_data_param {
    batch_sampler {
    }
    label_map_file: "data/VOC0712/labelmap_voc.prototxt"
  }
}
layer {
  name: "conv1_1"
  type: "Convolution"
  bottom: "data"
  top: "conv1_1"
  param {
    lr_mult: 1
    decay_mult: 1
  }
  param {
    lr_mult: 2
    decay_mult: 0
  }
  convolution_param {
    num_output: 64
    pad: 1
    kernel_size: 3
    weight_filler {
      type: "xavier"
    }
    bias_filler {
      type: "constant"
      value: 0
    }
  }
}
layer {
  name: "relu1_1"
  type: "ReLU"
  bottom: "conv1_1"
  top: "conv1_1"
}
layer {
  name: "conv1_2"
  type: "Convolution"
  bottom: "conv1_1"
  top: "conv1_2"
  param {
    lr_mult: 1
    decay_mult: 1
  }
  param {
    lr_mult: 2
    decay_mult: 0
  }
  convolution_param {
    num_output: 64
    pad: 1
    kernel_size: 3
    weight_filler {
      type: "xavier"
    }
    bias_filler {
      type: "constant"
      value: 0
    }
  }
}
layer {
  name: "relu1_2"
  type: "ReLU"
  bottom: "conv1_2"
  top: "conv1_2"
}
layer {
  name: "pool1"
  type: "Pooling"
  bottom: "conv1_2"
  top: "pool1"
  pooling_param {
    pool: MAX
    kernel_size: 2
    stride: 2
  }
}
layer {
  name: "conv2_1"
  type: "Convolution"
  bottom: "pool1"
  top: "conv2_1"
  param {
    lr_mult: 1
    decay_mult: 1
  }
  param {
    lr_mult: 2
    decay_mult: 0
  }
  convolution_param {
    num_output: 128
    pad: 1
    kernel_size: 3
    weight_filler {
      type: "xavier"
    }
    bias_filler {
      type: "constant"
      value: 0
    }
  }
}
layer {
  name: "relu2_1"
  type: "ReLU"
  bottom: "conv2_1"
  top: "conv2_1"
}
layer {
  name: "conv2_2"
  type: "Convolution"
  bottom: "conv2_1"
  top: "conv2_2"
  param {
    lr_mult: 1
    decay_mult: 1
  }
  param {
    lr_mult: 2
    decay_mult: 0
  }
  convolution_param {
    num_output: 128
    pad: 1
    kernel_size: 3
    weight_filler {
      type: "xavier"
    }
    bias_filler {
      type: "constant"
      value: 0
    }
  }
}
layer {
  name: "relu2_2"
  type: "ReLU"
  bottom: "conv2_2"
  top: "conv2_2"
}
layer {
  name: "pool2"
  type: "Pooling"
  bottom: "conv2_2"
  top: "pool2"
  pooling_param {
    pool: MAX
    kernel_size: 2
    stride: 2
  }
}
layer {
  name: "conv3_1"
  type: "Convolution"
  bottom: "pool2"
  top: "conv3_1"
  param {
    lr_mult: 1
    decay_mult: 1
  }
  param {
    lr_mult: 2
    decay_mult: 0
  }
  convolution_param {
    num_output: 256
    pad: 1
    kernel_size: 3
    weight_filler {
      type: "xavier"
    }
    bias_filler {
      type: "constant"
      value: 0
    }
  }
}
layer {
  name: "relu3_1"
  type: "ReLU"
  bottom: "conv3_1"
  top: "conv3_1"
}
layer {
  name: "conv3_2"
  type: "Convolution"
  bottom: "conv3_1"
  top: "conv3_2"
  param {
    lr_mult: 1
    decay_mult: 1
  }
  param {
    lr_mult: 2
    decay_mult: 0
  }
  convolution_param {
    num_output: 256
    pad: 1
    kernel_size: 3
    weight_filler {
      type: "xavier"
    }
    bias_filler {
      type: "constant"
      value: 0
    }
  }
}
layer {
  name: "relu3_2"
  type: "ReLU"
  bottom: "conv3_2"
  top: "conv3_2"
}
layer {
  name: "conv3_3"
  type: "Convolution"
  bottom: "conv3_2"
  top: "conv3_3"
  param {
    lr_mult: 1
    decay_mult: 1
  }
  param {
    lr_mult: 2
    decay_mult: 0
  }
  convolution_param {
    num_output: 256
    pad: 1
    kernel_size: 3
    weight_filler {
      type: "xavier"
    }
    bias_filler {
      type: "constant"
      value: 0
    }
  }
}
layer {
  name: "relu3_3"
  type: "ReLU"
  bottom: "conv3_3"
  top: "conv3_3"
}
layer {
  name: "pool3"
  type: "Pooling"
  bottom: "conv3_3"
  top: "pool3"
  pooling_param {
    pool: MAX
    kernel_size: 2
    stride: 2
  }
}
layer {
  name: "conv4_1"
  type: "Convolution"
  bottom: "pool3"
  top: "conv4_1"
  param {
    lr_mult: 1
    decay_mult: 1
  }
  param {
    lr_mult: 2
    decay_mult: 0
  }
  convolution_param {
    num_output: 512
    pad: 1
    kernel_size: 3
    weight_filler {
      type: "xavier"
    }
    bias_filler {
      type: "constant"
      value: 0
    }
  }
}
layer {
  name: "relu4_1"
  type: "ReLU"
  bottom: "conv4_1"
  top: "conv4_1"
}
layer {
  name: "conv4_2"
  type: "Convolution"
  bottom: "conv4_1"
  top: "conv4_2"
  param {
    lr_mult: 1
    decay_mult: 1
  }
  param {
    lr_mult: 2
    decay_mult: 0
  }
  convolution_param {
    num_output: 512
    pad: 1
    kernel_size: 3
    weight_filler {
      type: "xavier"
    }
    bias_filler {
      type: "constant"
      value: 0
    }
  }
}
layer {
  name: "relu4_2"
  type: "ReLU"
  bottom: "conv4_2"
  top: "conv4_2"
}
layer {
  name: "conv4_3"
  type: "Convolution"
  bottom: "conv4_2"
  top: "conv4_3"
  param {
    lr_mult: 1
    decay_mult: 1
  }
  param {
    lr_mult: 2
    decay_mult: 0
  }
  convolution_param {
    num_output: 512
    pad: 1
    kernel_size: 3
    weight_filler {
      type: "xavier"
    }
    bias_filler {
      type: "constant"
      value: 0
    }
  }
}
layer {
  name: "relu4_3"
  type: "ReLU"
  bottom: "conv4_3"
  top: "conv4_3"
}
layer {
  name: "pool4"
  type: "Pooling"
  bottom: "conv4_3"
  top: "pool4"
  pooling_param {
    pool: MAX
    kernel_size: 2
    stride: 2
  }
}
layer {
  name: "conv5_1"
  type: "Convolution"
  bottom: "pool4"
  top: "conv5_1"
  param {
    lr_mult: 1
    decay_mult: 1
  }
  param {
    lr_mult: 2
    decay_mult: 0
  }
  convolution_param {
    num_output: 512
    pad: 1
    kernel_size: 3
    weight_filler {
      type: "xavier"
    }
    bias_filler {
      type: "constant"
      value: 0
    }
    dilation: 1
  }
}
layer {
  name: "relu5_1"
  type: "ReLU"
  bottom: "conv5_1"
  top: "conv5_1"
}
layer {
  name: "conv5_2"
  type: "Convolution"
  bottom: "conv5_1"
  top: "conv5_2"
  param {
    lr_mult: 1
    decay_mult: 1
  }
  param {
    lr_mult: 2
    decay_mult: 0
  }
  convolution_param {
    num_output: 512
    pad: 1
    kernel_size: 3
    weight_filler {
      type: "xavier"
    }
    bias_filler {
      type: "constant"
      value: 0
    }
    dilation: 1
  }
}
layer {
  name: "relu5_2"
  type: "ReLU"
  bottom: "conv5_2"
  top: "conv5_2"
}
layer {
  name: "conv5_3"
  type: "Convolution"
  bottom: "conv5_2"
  top: "conv5_3"
  param {
    lr_mult: 1
    decay_mult: 1
  }
  param {
    lr_mult: 2
    decay_mult: 0
  }
  convolution_param {
    num_output: 512
    pad: 1
    kernel_size: 3
    weight_filler {
      type: "xavier"
    }
    bias_filler {
      type: "constant"
      value: 0
    }
    dilation: 1
  }
}
layer {
  name: "relu5_3"
  type: "ReLU"
  bottom: "conv5_3"
  top: "conv5_3"
}
layer {
  name: "pool5"
  type: "Pooling"
  bottom: "conv5_3"
  top: "pool5"
  pooling_param {
    pool: MAX
    kernel_size: 3
    stride: 1
    pad: 1
  }
}
layer {
  name: "fc6"
  type: "Convolution"
  bottom: "pool5"
  top: "fc6"
  param {
    lr_mult: 1
    decay_mult: 1
  }
  param {
    lr_mult: 2
    decay_mult: 0
  }
  convolution_param {
    num_output: 1024
    pad: 6
    kernel_size: 3
    weight_filler {
      type: "xavier"
    }
    bias_filler {
      type: "constant"
      value: 0
    }
    dilation: 6
  }
}
layer {
  name: "relu6"
  type: "ReLU"
  bottom: "fc6"
  top: "fc6"
}
layer {
  name: "fc7"
  type: "Convolution"
  bottom: "fc6"
  top: "fc7"
  param {
    lr_mult: 1
    decay_mult: 1
  }
  param {
    lr_mult: 2
    decay_mult: 0
  }
  convolution_param {
    num_output: 1024
    kernel_size: 1
    weight_filler {
      type: "xavier"
    }
    bias_filler {
      type: "constant"
      value: 0
    }
  }
}
layer {
  name: "relu7"
  type: "ReLU"
  bottom: "fc7"
  top: "fc7"
}
layer {
  name: "conv6_1"
  type: "Convolution"
  bottom: "fc7"
  top: "conv6_1"
  param {
    lr_mult: 1
    decay_mult: 1
  }
  param {
    lr_mult: 2
    decay_mult: 0
  }
  convolution_param {
    num_output: 256
    pad: 0
    kernel_size: 1
    stride: 1
    weight_filler {
      type: "xavier"
    }
    bias_filler {
      type: "constant"
      value: 0
    }
  }
}
layer {
  name: "conv6_1_relu"
  type: "ReLU"
  bottom: "conv6_1"
  top: "conv6_1"
}
layer {
  name: "conv6_2"
  type: "Convolution"
  bottom: "conv6_1"
  top: "conv6_2"
  param {
    lr_mult: 1
    decay_mult: 1
  }
  param {
    lr_mult: 2
    decay_mult: 0
  }
  convolution_param {
    num_output: 512
    pad: 1
    kernel_size: 3
    stride: 2
    weight_filler {
      type: "xavier"
    }
    bias_filler {
      type: "constant"
      value: 0
    }
  }
}
layer {
  name: "conv6_2_relu"
  type: "ReLU"
  bottom: "conv6_2"
  top: "conv6_2"
}
layer {
  name: "conv7_1"
  type: "Convolution"
  bottom: "conv6_2"
  top: "conv7_1"
  param {
    lr_mult: 1
    decay_mult: 1
  }
  param {
    lr_mult: 2
    decay_mult: 0
  }
  convolution_param {
    num_output: 128
    pad: 0
    kernel_size: 1
    stride: 1
    weight_filler {
      type: "xavier"
    }
    bias_filler {
      type: "constant"
      value: 0
    }
  }
}
layer {
  name: "conv7_1_relu"
  type: "ReLU"
  bottom: "conv7_1"
  top: "conv7_1"
}
layer {
  name: "conv7_2"
  type: "Convolution"
  bottom: "conv7_1"
  top: "conv7_2"
  param {
    lr_mult: 1
    decay_mult: 1
  }
  param {
    lr_mult: 2
    decay_mult: 0
  }
  convolution_param {
    num_output: 256
    pad: 1
    kernel_size: 3
    stride: 2
    weight_filler {
      type: "xavier"
    }
    bias_filler {
      type: "constant"
      value: 0
    }
  }
}
layer {
  name: "conv7_2_relu"
  type: "ReLU"
  bottom: "conv7_2"
  top: "conv7_2"
}
layer {
  name: "conv8_1"
  type: "Convolution"
  bottom: "conv7_2"
  top: "conv8_1"
  param {
    lr_mult: 1
    decay_mult: 1
  }
  param {
    lr_mult: 2
    decay_mult: 0
  }
  convolution_param {
    num_output: 128
    pad: 0
    kernel_size: 1
    stride: 1
    weight_filler {
      type: "xavier"
    }
    bias_filler {
      type: "constant"
      value: 0
    }
  }
}
layer {
  name: "conv8_1_relu"
  type: "ReLU"
  bottom: "conv8_1"
  top: "conv8_1"
}
layer {
  name: "conv8_2"
  type: "Convolution"
  bottom: "conv8_1"
  top: "conv8_2"
  param {
    lr_mult: 1
    decay_mult: 1
  }
  param {
    lr_mult: 2
    decay_mult: 0
  }
  convolution_param {
    num_output: 256
    pad: 0
    kernel_size: 3
    stride: 1
    weight_filler {
      type: "xavier"
    }
    bias_filler {
      type: "constant"
      value: 0
    }
  }
}
layer {
  name: "conv8_2_relu"
  type: "ReLU"
  bottom: "conv8_2"
  top: "conv8_2"
}
layer {
  name: "conv9_1"
  type: "Convolution"
  bottom: "conv8_2"
  top: "conv9_1"
  param {
    lr_mult: 1
    decay_mult: 1
  }
  param {
    lr_mult: 2
    decay_mult: 0
  }
  convolution_param {
    num_output: 128
    pad: 0
    kernel_size: 1
    stride: 1
    weight_filler {
      type: "xavier"
    }
    bias_filler {
      type: "constant"
      value: 0
    }
  }
}
layer {
  name: "conv9_1_relu"
  type: "ReLU"
  bottom: "conv9_1"
  top: "conv9_1"
}
layer {
  name: "conv9_2"
  type: "Convolution"
  bottom: "conv9_1"
  top: "conv9_2"
  param {
    lr_mult: 1
    decay_mult: 1
  }
  param {
    lr_mult: 2
    decay_mult: 0
  }
  convolution_param {
    num_output: 256
    pad: 0
    kernel_size: 3
    stride: 1
    weight_filler {
      type: "xavier"
    }
    bias_filler {
      type: "constant"
      value: 0
    }
  }
}
layer {
  name: "conv9_2_relu"
  type: "ReLU"
  bottom: "conv9_2"
  top: "conv9_2"
}
layer {
  name: "conv4_3_norm"
  type: "Normalize"
  bottom: "conv4_3"
  top: "conv4_3_norm"
  norm_param {
    across_spatial: false
    scale_filler {
      type: "constant"
      value: 20
    }
    channel_shared: false
  }
}
layer {
  name: "conv4_3_norm_mbox_loc"
  type: "Convolution"
  bottom: "conv4_3_norm"
  top: "conv4_3_norm_mbox_loc"
  param {
    lr_mult: 1
    decay_mult: 1
  }
  param {
    lr_mult: 2
    decay_mult: 0
  }
  convolution_param {
    num_output: 16
    pad: 1
    kernel_size: 3
    stride: 1
    weight_filler {
      type: "xavier"
    }
    bias_filler {
      type: "constant"
      value: 0
    }
  }
}
layer {
  name: "conv4_3_norm_mbox_loc_perm"
  type: "Permute"
  bottom: "conv4_3_norm_mbox_loc"
  top: "conv4_3_norm_mbox_loc_perm"
  permute_param {
    order: 0
    order: 2
    order: 3
    order: 1
  }
}
layer {
  name: "conv4_3_norm_mbox_loc_flat"
  type: "Flatten"
  bottom: "conv4_3_norm_mbox_loc_perm"
  top: "conv4_3_norm_mbox_loc_flat"
  flatten_param {
    axis: 1
  }
}
layer {
  name: "conv4_3_norm_mbox_conf"
  type: "Convolution"
  bottom: "conv4_3_norm"
  top: "conv4_3_norm_mbox_conf"
  param {
    lr_mult: 1
    decay_mult: 1
  }
  param {
    lr_mult: 2
    decay_mult: 0
  }
  convolution_param {
    num_output: 84
    pad: 1
    kernel_size: 3
    stride: 1
    weight_filler {
      type: "xavier"
    }
    bias_filler {
      type: "constant"
      value: 0
    }
  }
}
layer {
  name: "conv4_3_norm_mbox_conf_perm"
  type: "Permute"
  bottom: "conv4_3_norm_mbox_conf"
  top: "conv4_3_norm_mbox_conf_perm"
  permute_param {
    order: 0
    order: 2
    order: 3
    order: 1
  }
}
layer {
  name: "conv4_3_norm_mbox_conf_flat"
  type: "Flatten"
  bottom: "conv4_3_norm_mbox_conf_perm"
  top: "conv4_3_norm_mbox_conf_flat"
  flatten_param {
    axis: 1
  }
}
layer {
  name: "conv4_3_norm_mbox_priorbox"
  type: "PriorBox"
  bottom: "conv4_3_norm"
  bottom: "data"
  top: "conv4_3_norm_mbox_priorbox"
  prior_box_param {
    min_size: 30
    max_size: 60
    aspect_ratio: 2
    flip: true
    clip: false
    variance: 0.1
    variance: 0.1
    variance: 0.2
    variance: 0.2
    step: 8
    offset: 0.5
  }
}
layer {
  name: "fc7_mbox_loc"
  type: "Convolution"
  bottom: "fc7"
  top: "fc7_mbox_loc"
  param {
    lr_mult: 1
    decay_mult: 1
  }
  param {
    lr_mult: 2
    decay_mult: 0
  }
  convolution_param {
    num_output: 24
    pad: 1
    kernel_size: 3
    stride: 1
    weight_filler {
      type: "xavier"
    }
    bias_filler {
      type: "constant"
      value: 0
    }
  }
}
layer {
  name: "fc7_mbox_loc_perm"
  type: "Permute"
  bottom: "fc7_mbox_loc"
  top: "fc7_mbox_loc_perm"
  permute_param {
    order: 0
    order: 2
    order: 3
    order: 1
  }
}
layer {
  name: "fc7_mbox_loc_flat"
  type: "Flatten"
  bottom: "fc7_mbox_loc_perm"
  top: "fc7_mbox_loc_flat"
  flatten_param {
    axis: 1
  }
}
layer {
  name: "fc7_mbox_conf"
  type: "Convolution"
  bottom: "fc7"
  top: "fc7_mbox_conf"
  param {
    lr_mult: 1
    decay_mult: 1
  }
  param {
    lr_mult: 2
    decay_mult: 0
  }
  convolution_param {
    num_output: 126
    pad: 1
    kernel_size: 3
    stride: 1
    weight_filler {
      type: "xavier"
    }
    bias_filler {
      type: "constant"
      value: 0
    }
  }
}
layer {
  name: "fc7_mbox_conf_perm"
  type: "Permute"
  bottom: "fc7_mbox_conf"
  top: "fc7_mbox_conf_perm"
  permute_param {
    order: 0
    order: 2
    order: 3
    order: 1
  }
}
layer {
  name: "fc7_mbox_conf_flat"
  type: "Flatten"
  bottom: "fc7_mbox_conf_perm"
  top: "fc7_mbox_conf_flat"
  flatten_param {
    axis: 1
  }
}
layer {
  name: "fc7_mbox_priorbox"
  type: "PriorBox"
  bottom: "fc7"
  bottom: "data"
  top: "fc7_mbox_priorbox"
  prior_box_param {
    min_size: 60
    max_size: 111
    aspect_ratio: 2
    aspect_ratio: 3
    flip: true
    clip: false
    variance: 0.1
    variance: 0.1
    variance: 0.2
    variance: 0.2
    step: 16
    offset: 0.5
  }
}
layer {
  name: "conv6_2_mbox_loc"
  type: "Convolution"
  bottom: "conv6_2"
  top: "conv6_2_mbox_loc"
  param {
    lr_mult: 1
    decay_mult: 1
  }
  param {
    lr_mult: 2
    decay_mult: 0
  }
  convolution_param {
    num_output: 24
    pad: 1
    kernel_size: 3
    stride: 1
    weight_filler {
      type: "xavier"
    }
    bias_filler {
      type: "constant"
      value: 0
    }
  }
}
layer {
  name: "conv6_2_mbox_loc_perm"
  type: "Permute"
  bottom: "conv6_2_mbox_loc"
  top: "conv6_2_mbox_loc_perm"
  permute_param {
    order: 0
    order: 2
    order: 3
    order: 1
  }
}
layer {
  name: "conv6_2_mbox_loc_flat"
  type: "Flatten"
  bottom: "conv6_2_mbox_loc_perm"
  top: "conv6_2_mbox_loc_flat"
  flatten_param {
    axis: 1
  }
}
layer {
  name: "conv6_2_mbox_conf"
  type: "Convolution"
  bottom: "conv6_2"
  top: "conv6_2_mbox_conf"
  param {
    lr_mult: 1
    decay_mult: 1
  }
  param {
    lr_mult: 2
    decay_mult: 0
  }
  convolution_param {
    num_output: 126
    pad: 1
    kernel_size: 3
    stride: 1
    weight_filler {
      type: "xavier"
    }
    bias_filler {
      type: "constant"
      value: 0
    }
  }
}
layer {
  name: "conv6_2_mbox_conf_perm"
  type: "Permute"
  bottom: "conv6_2_mbox_conf"
  top: "conv6_2_mbox_conf_perm"
  permute_param {
    order: 0
    order: 2
    order: 3
    order: 1
  }
}
layer {
  name: "conv6_2_mbox_conf_flat"
  type: "Flatten"
  bottom: "conv6_2_mbox_conf_perm"
  top: "conv6_2_mbox_conf_flat"
  flatten_param {
    axis: 1
  }
}
layer {
  name: "conv6_2_mbox_priorbox"
  type: "PriorBox"
  bottom: "conv6_2"
  bottom: "data"
  top: "conv6_2_mbox_priorbox"
  prior_box_param {
    min_size: 111
    max_size: 162
    aspect_ratio: 2
    aspect_ratio: 3
    flip: true
    clip: false
    variance: 0.1
    variance: 0.1
    variance: 0.2
    variance: 0.2
    step: 32
    offset: 0.5
  }
}
layer {
  name: "conv7_2_mbox_loc"
  type: "Convolution"
  bottom: "conv7_2"
  top: "conv7_2_mbox_loc"
  param {
    lr_mult: 1
    decay_mult: 1
  }
  param {
    lr_mult: 2
    decay_mult: 0
  }
  convolution_param {
    num_output: 24
    pad: 1
    kernel_size: 3
    stride: 1
    weight_filler {
      type: "xavier"
    }
    bias_filler {
      type: "constant"
      value: 0
    }
  }
}
layer {
  name: "conv7_2_mbox_loc_perm"
  type: "Permute"
  bottom: "conv7_2_mbox_loc"
  top: "conv7_2_mbox_loc_perm"
  permute_param {
    order: 0
    order: 2
    order: 3
    order: 1
  }
}
layer {
  name: "conv7_2_mbox_loc_flat"
  type: "Flatten"
  bottom: "conv7_2_mbox_loc_perm"
  top: "conv7_2_mbox_loc_flat"
  flatten_param {
    axis: 1
  }
}
layer {
  name: "conv7_2_mbox_conf"
  type: "Convolution"
  bottom: "conv7_2"
  top: "conv7_2_mbox_conf"
  param {
    lr_mult: 1
    decay_mult: 1
  }
  param {
    lr_mult: 2
    decay_mult: 0
  }
  convolution_param {
    num_output: 126
    pad: 1
    kernel_size: 3
    stride: 1
    weight_filler {
      type: "xavier"
    }
    bias_filler {
      type: "constant"
      value: 0
    }
  }
}
layer {
  name: "conv7_2_mbox_conf_perm"
  type: "Permute"
  bottom: "conv7_2_mbox_conf"
  top: "conv7_2_mbox_conf_perm"
  permute_param {
    order: 0
    order: 2
    order: 3
    order: 1
  }
}
layer {
  name: "conv7_2_mbox_conf_flat"
  type: "Flatten"
  bottom: "conv7_2_mbox_conf_perm"
  top: "conv7_2_mbox_conf_flat"
  flatten_param {
    axis: 1
  }
}
layer {
  name: "conv7_2_mbox_priorbox"
  type: "PriorBox"
  bottom: "conv7_2"
  bottom: "data"
  top: "conv7_2_mbox_priorbox"
  prior_box_param {
    min_size: 162
    max_size: 213
    aspect_ratio: 2
    aspect_ratio: 3
    flip: true
    clip: false
    variance: 0.1
    variance: 0.1
    variance: 0.2
    variance: 0.2
    step: 64
    offset: 0.5
  }
}
layer {
  name: "conv8_2_mbox_loc"
  type: "Convolution"
  bottom: "conv8_2"
  top: "conv8_2_mbox_loc"
  param {
    lr_mult: 1
    decay_mult: 1
  }
  param {
    lr_mult: 2
    decay_mult: 0
  }
  convolution_param {
    num_output: 16
    pad: 1
    kernel_size: 3
    stride: 1
    weight_filler {
      type: "xavier"
    }
    bias_filler {
      type: "constant"
      value: 0
    }
  }
}
layer {
  name: "conv8_2_mbox_loc_perm"
  type: "Permute"
  bottom: "conv8_2_mbox_loc"
  top: "conv8_2_mbox_loc_perm"
  permute_param {
    order: 0
    order: 2
    order: 3
    order: 1
  }
}
layer {
  name: "conv8_2_mbox_loc_flat"
  type: "Flatten"
  bottom: "conv8_2_mbox_loc_perm"
  top: "conv8_2_mbox_loc_flat"
  flatten_param {
    axis: 1
  }
}
layer {
  name: "conv8_2_mbox_conf"
  type: "Convolution"
  bottom: "conv8_2"
  top: "conv8_2_mbox_conf"
  param {
    lr_mult: 1
    decay_mult: 1
  }
  param {
    lr_mult: 2
    decay_mult: 0
  }
  convolution_param {
    num_output: 84
    pad: 1
    kernel_size: 3
    stride: 1
    weight_filler {
      type: "xavier"
    }
    bias_filler {
      type: "constant"
      value: 0
    }
  }
}
layer {
  name: "conv8_2_mbox_conf_perm"
  type: "Permute"
  bottom: "conv8_2_mbox_conf"
  top: "conv8_2_mbox_conf_perm"
  permute_param {
    order: 0
    order: 2
    order: 3
    order: 1
  }
}
layer {
  name: "conv8_2_mbox_conf_flat"
  type: "Flatten"
  bottom: "conv8_2_mbox_conf_perm"
  top: "conv8_2_mbox_conf_flat"
  flatten_param {
    axis: 1
  }
}
layer {
  name: "conv8_2_mbox_priorbox"
  type: "PriorBox"
  bottom: "conv8_2"
  bottom: "data"
  top: "conv8_2_mbox_priorbox"
  prior_box_param {
    min_size: 213
    max_size: 264
    aspect_ratio: 2
    flip: true
    clip: false
    variance: 0.1
    variance: 0.1
    variance: 0.2
    variance: 0.2
    step: 100
    offset: 0.5
  }
}
layer {
  name: "conv9_2_mbox_loc"
  type: "Convolution"
  bottom: "conv9_2"
  top: "conv9_2_mbox_loc"
  param {
    lr_mult: 1
    decay_mult: 1
  }
  param {
    lr_mult: 2
    decay_mult: 0
  }
  convolution_param {
    num_output: 16
    pad: 1
    kernel_size: 3
    stride: 1
    weight_filler {
      type: "xavier"
    }
    bias_filler {
      type: "constant"
      value: 0
    }
  }
}
layer {
  name: "conv9_2_mbox_loc_perm"
  type: "Permute"
  bottom: "conv9_2_mbox_loc"
  top: "conv9_2_mbox_loc_perm"
  permute_param {
    order: 0
    order: 2
    order: 3
    order: 1
  }
}
layer {
  name: "conv9_2_mbox_loc_flat"
  type: "Flatten"
  bottom: "conv9_2_mbox_loc_perm"
  top: "conv9_2_mbox_loc_flat"
  flatten_param {
    axis: 1
  }
}
layer {
  name: "conv9_2_mbox_conf"
  type: "Convolution"
  bottom: "conv9_2"
  top: "conv9_2_mbox_conf"
  param {
    lr_mult: 1
    decay_mult: 1
  }
  param {
    lr_mult: 2
    decay_mult: 0
  }
  convolution_param {
    num_output: 84
    pad: 1
    kernel_size: 3
    stride: 1
    weight_filler {
      type: "xavier"
    }
    bias_filler {
      type: "constant"
      value: 0
    }
  }
}
layer {
  name: "conv9_2_mbox_conf_perm"
  type: "Permute"
  bottom: "conv9_2_mbox_conf"
  top: "conv9_2_mbox_conf_perm"
  permute_param {
    order: 0
    order: 2
    order: 3
    order: 1
  }
}
layer {
  name: "conv9_2_mbox_conf_flat"
  type: "Flatten"
  bottom: "conv9_2_mbox_conf_perm"
  top: "conv9_2_mbox_conf_flat"
  flatten_param {
    axis: 1
  }
}
layer {
  name: "conv9_2_mbox_priorbox"
  type: "PriorBox"
  bottom: "conv9_2"
  bottom: "data"
  top: "conv9_2_mbox_priorbox"
  prior_box_param {
    min_size: 264
    max_size: 315
    aspect_ratio: 2
    flip: true
    clip: false
    variance: 0.1
    variance: 0.1
    variance: 0.2
    variance: 0.2
    step: 300
    offset: 0.5
  }
}
layer {
  name: "mbox_loc"
  type: "Concat"
  bottom: "conv4_3_norm_mbox_loc_flat"
  bottom: "fc7_mbox_loc_flat"
  bottom: "conv6_2_mbox_loc_flat"
  bottom: "conv7_2_mbox_loc_flat"
  bottom: "conv8_2_mbox_loc_flat"
  bottom: "conv9_2_mbox_loc_flat"
  top: "mbox_loc"
  concat_param {
    axis: 1
  }
}
layer {
  name: "mbox_conf"
  type: "Concat"
  bottom: "conv4_3_norm_mbox_conf_flat"
  bottom: "fc7_mbox_conf_flat"
  bottom: "conv6_2_mbox_conf_flat"
  bottom: "conv7_2_mbox_conf_flat"
  bottom: "conv8_2_mbox_conf_flat"
  bottom: "conv9_2_mbox_conf_flat"
  top: "mbox_conf"
  concat_param {
    axis: 1
  }
}
layer {
  name: "mbox_priorbox"
  type: "Concat"
  bottom: "conv4_3_norm_mbox_priorbox"
  bottom: "fc7_mbox_priorbox"
  bottom: "conv6_2_mbox_priorbox"
  bottom: "conv7_2_mbox_priorbox"
  bottom: "conv8_2_mbox_priorbox"
  bottom: "conv9_2_mbox_priorbox"
  top: "mbox_priorbox"
  concat_param {
    axis: 2
  }
}
layer {
  name: "mbox_conf_reshape"
  type: "Reshape"
  bottom: "mbox_conf"
  top: "mbox_conf_reshape"
  reshape_param {
    shape {
      dim: 0
      dim: -1
      dim: 21
    }
  }
}
layer {
  name: "mbox_conf_softmax"
  type: "Softmax"
  bottom: "mbox_conf_reshape"
  top: "mbox_conf_softmax"
  softmax_param {
    axis: 2
  }
}
layer {
  name: "mbox_conf_flatten"
  type: "Flatten"
  bottom: "mbox_conf_softmax"
  top: "mbox_conf_flatten"
  flatten_param {
    axis: 1
  }
}
layer {
  name: "detection_out"
  type: "DetectionOutput"
  bottom: "mbox_loc"
  bottom: "mbox_conf_flatten"
  bottom: "mbox_priorbox"
  top: "detection_out"
  include {
    phase: TEST
  }
  detection_output_param {
    num_classes: 21
    share_location: true
    background_label_id: 0
    nms_param {
      nms_threshold: 0.45
      top_k: 400
    }
    save_output_param {
      output_directory: "/home/jazzseow/data/VOCdevkit/results/VOC2007/SSD_300x300/Main"
      output_name_prefix: "comp4_det_test_"
      output_format: "VOC"
      label_map_file: "data/VOC0712/labelmap_voc.prototxt"
      name_size_file: "data/VOC0712/test_name_size.txt"
      num_test_image: 4952
    }
    code_type: CENTER_SIZE
    keep_top_k: 200
    confidence_threshold: 0.01
  }
}
layer {
  name: "detection_eval"
  type: "DetectionEvaluate"
  bottom: "detection_out"
  bottom: "label"
  top: "detection_eval"
  include {
    phase: TEST
  }
  detection_evaluate_param {
    num_classes: 21
    background_label_id: 0
    overlap_threshold: 0.5
    evaluate_difficult_gt: false
    name_size_file: "data/VOC0712/test_name_size.txt"
  }
}
I1031 20:05:39.298183 12290 layer_factory.hpp:77] Creating layer data
I1031 20:05:39.298301 12290 net.cpp:100] Creating Layer data
I1031 20:05:39.298338 12290 net.cpp:452] data -> data
I1031 20:05:39.298352 12290 net.cpp:452] data -> label
I1031 20:05:39.301419 12315 db_lmdb.cpp:35] Opened lmdb examples/VOC0712/VOC0712_test_lmdb
I1031 20:05:39.304224 12290 annotated_data_layer.cpp:62] output data size: 8,3,300,300
I1031 20:05:39.327747 12290 net.cpp:150] Setting up data
I1031 20:05:39.327764 12290 net.cpp:157] Top shape: 8 3 300 300 (2160000)
I1031 20:05:39.327769 12290 net.cpp:157] Top shape: 1 1 2 8 (16)
I1031 20:05:39.327770 12290 net.cpp:165] Memory required for data: 8640064
I1031 20:05:39.327775 12290 layer_factory.hpp:77] Creating layer data_data_0_split
I1031 20:05:39.327783 12290 net.cpp:100] Creating Layer data_data_0_split
I1031 20:05:39.327786 12290 net.cpp:478] data_data_0_split <- data
I1031 20:05:39.327791 12290 net.cpp:452] data_data_0_split -> data_data_0_split_0
I1031 20:05:39.327800 12290 net.cpp:452] data_data_0_split -> data_data_0_split_1
I1031 20:05:39.327805 12290 net.cpp:452] data_data_0_split -> data_data_0_split_2
I1031 20:05:39.327811 12290 net.cpp:452] data_data_0_split -> data_data_0_split_3
I1031 20:05:39.327816 12290 net.cpp:452] data_data_0_split -> data_data_0_split_4
I1031 20:05:39.327819 12290 net.cpp:452] data_data_0_split -> data_data_0_split_5
I1031 20:05:39.327823 12290 net.cpp:452] data_data_0_split -> data_data_0_split_6
I1031 20:05:39.328029 12290 net.cpp:150] Setting up data_data_0_split
I1031 20:05:39.328037 12290 net.cpp:157] Top shape: 8 3 300 300 (2160000)
I1031 20:05:39.328040 12290 net.cpp:157] Top shape: 8 3 300 300 (2160000)
I1031 20:05:39.328043 12290 net.cpp:157] Top shape: 8 3 300 300 (2160000)
I1031 20:05:39.328047 12290 net.cpp:157] Top shape: 8 3 300 300 (2160000)
I1031 20:05:39.328049 12290 net.cpp:157] Top shape: 8 3 300 300 (2160000)
I1031 20:05:39.328052 12290 net.cpp:157] Top shape: 8 3 300 300 (2160000)
I1031 20:05:39.328070 12290 net.cpp:157] Top shape: 8 3 300 300 (2160000)
I1031 20:05:39.328073 12290 net.cpp:165] Memory required for data: 69120064
I1031 20:05:39.328075 12290 layer_factory.hpp:77] Creating layer conv1_1
I1031 20:05:39.328086 12290 net.cpp:100] Creating Layer conv1_1
I1031 20:05:39.328089 12290 net.cpp:478] conv1_1 <- data_data_0_split_0
I1031 20:05:39.328094 12290 net.cpp:452] conv1_1 -> conv1_1
I1031 20:05:39.332274 12290 net.cpp:150] Setting up conv1_1
I1031 20:05:39.332288 12290 net.cpp:157] Top shape: 8 64 300 300 (46080000)
I1031 20:05:39.332290 12290 net.cpp:165] Memory required for data: 253440064
I1031 20:05:39.332300 12290 layer_factory.hpp:77] Creating layer relu1_1
I1031 20:05:39.332306 12290 net.cpp:100] Creating Layer relu1_1
I1031 20:05:39.332309 12290 net.cpp:478] relu1_1 <- conv1_1
I1031 20:05:39.332314 12290 net.cpp:439] relu1_1 -> conv1_1 (in-place)
I1031 20:05:39.333468 12290 net.cpp:150] Setting up relu1_1
I1031 20:05:39.333482 12290 net.cpp:157] Top shape: 8 64 300 300 (46080000)
I1031 20:05:39.333484 12290 net.cpp:165] Memory required for data: 437760064
I1031 20:05:39.333487 12290 layer_factory.hpp:77] Creating layer conv1_2
I1031 20:05:39.333497 12290 net.cpp:100] Creating Layer conv1_2
I1031 20:05:39.333500 12290 net.cpp:478] conv1_2 <- conv1_1
I1031 20:05:39.333505 12290 net.cpp:452] conv1_2 -> conv1_2
I1031 20:05:39.339053 12290 net.cpp:150] Setting up conv1_2
I1031 20:05:39.339069 12290 net.cpp:157] Top shape: 8 64 300 300 (46080000)
I1031 20:05:39.339071 12290 net.cpp:165] Memory required for data: 622080064
I1031 20:05:39.339084 12290 layer_factory.hpp:77] Creating layer relu1_2
I1031 20:05:39.339090 12290 net.cpp:100] Creating Layer relu1_2
I1031 20:05:39.339092 12290 net.cpp:478] relu1_2 <- conv1_2
I1031 20:05:39.339097 12290 net.cpp:439] relu1_2 -> conv1_2 (in-place)
I1031 20:05:39.339994 12290 net.cpp:150] Setting up relu1_2
I1031 20:05:39.340014 12290 net.cpp:157] Top shape: 8 64 300 300 (46080000)
I1031 20:05:39.340016 12290 net.cpp:165] Memory required for data: 806400064
I1031 20:05:39.340025 12290 layer_factory.hpp:77] Creating layer pool1
I1031 20:05:39.340032 12290 net.cpp:100] Creating Layer pool1
I1031 20:05:39.340035 12290 net.cpp:478] pool1 <- conv1_2
I1031 20:05:39.340041 12290 net.cpp:452] pool1 -> pool1
I1031 20:05:39.340117 12290 net.cpp:150] Setting up pool1
I1031 20:05:39.340122 12290 net.cpp:157] Top shape: 8 64 150 150 (11520000)
I1031 20:05:39.340124 12290 net.cpp:165] Memory required for data: 852480064
I1031 20:05:39.340127 12290 layer_factory.hpp:77] Creating layer conv2_1
I1031 20:05:39.340137 12290 net.cpp:100] Creating Layer conv2_1
I1031 20:05:39.340140 12290 net.cpp:478] conv2_1 <- pool1
I1031 20:05:39.340145 12290 net.cpp:452] conv2_1 -> conv2_1
I1031 20:05:39.343442 12290 net.cpp:150] Setting up conv2_1
I1031 20:05:39.343456 12290 net.cpp:157] Top shape: 8 128 150 150 (23040000)
I1031 20:05:39.343458 12290 net.cpp:165] Memory required for data: 944640064
I1031 20:05:39.343466 12290 layer_factory.hpp:77] Creating layer relu2_1
I1031 20:05:39.343475 12290 net.cpp:100] Creating Layer relu2_1
I1031 20:05:39.343478 12290 net.cpp:478] relu2_1 <- conv2_1
I1031 20:05:39.343482 12290 net.cpp:439] relu2_1 -> conv2_1 (in-place)
I1031 20:05:39.343783 12290 net.cpp:150] Setting up relu2_1
I1031 20:05:39.343792 12290 net.cpp:157] Top shape: 8 128 150 150 (23040000)
I1031 20:05:39.343794 12290 net.cpp:165] Memory required for data: 1036800064
I1031 20:05:39.343797 12290 layer_factory.hpp:77] Creating layer conv2_2
I1031 20:05:39.343807 12290 net.cpp:100] Creating Layer conv2_2
I1031 20:05:39.343811 12290 net.cpp:478] conv2_2 <- conv2_1
I1031 20:05:39.343816 12290 net.cpp:452] conv2_2 -> conv2_2
I1031 20:05:39.349419 12290 net.cpp:150] Setting up conv2_2
I1031 20:05:39.349432 12290 net.cpp:157] Top shape: 8 128 150 150 (23040000)
I1031 20:05:39.349436 12290 net.cpp:165] Memory required for data: 1128960064
I1031 20:05:39.349442 12290 layer_factory.hpp:77] Creating layer relu2_2
I1031 20:05:39.349447 12290 net.cpp:100] Creating Layer relu2_2
I1031 20:05:39.349460 12290 net.cpp:478] relu2_2 <- conv2_2
I1031 20:05:39.349465 12290 net.cpp:439] relu2_2 -> conv2_2 (in-place)
I1031 20:05:39.350509 12290 net.cpp:150] Setting up relu2_2
I1031 20:05:39.350523 12290 net.cpp:157] Top shape: 8 128 150 150 (23040000)
I1031 20:05:39.350525 12290 net.cpp:165] Memory required for data: 1221120064
I1031 20:05:39.350528 12290 layer_factory.hpp:77] Creating layer pool2
I1031 20:05:39.350534 12290 net.cpp:100] Creating Layer pool2
I1031 20:05:39.350538 12290 net.cpp:478] pool2 <- conv2_2
I1031 20:05:39.350543 12290 net.cpp:452] pool2 -> pool2
I1031 20:05:39.350602 12290 net.cpp:150] Setting up pool2
I1031 20:05:39.350610 12290 net.cpp:157] Top shape: 8 128 75 75 (5760000)
I1031 20:05:39.350611 12290 net.cpp:165] Memory required for data: 1244160064
I1031 20:05:39.350613 12290 layer_factory.hpp:77] Creating layer conv3_1
I1031 20:05:39.350622 12290 net.cpp:100] Creating Layer conv3_1
I1031 20:05:39.350625 12290 net.cpp:478] conv3_1 <- pool2
I1031 20:05:39.350630 12290 net.cpp:452] conv3_1 -> conv3_1
I1031 20:05:39.355772 12290 net.cpp:150] Setting up conv3_1
I1031 20:05:39.355784 12290 net.cpp:157] Top shape: 8 256 75 75 (11520000)
I1031 20:05:39.355787 12290 net.cpp:165] Memory required for data: 1290240064
I1031 20:05:39.355795 12290 layer_factory.hpp:77] Creating layer relu3_1
I1031 20:05:39.355803 12290 net.cpp:100] Creating Layer relu3_1
I1031 20:05:39.355805 12290 net.cpp:478] relu3_1 <- conv3_1
I1031 20:05:39.355810 12290 net.cpp:439] relu3_1 -> conv3_1 (in-place)
I1031 20:05:39.356230 12290 net.cpp:150] Setting up relu3_1
I1031 20:05:39.356257 12290 net.cpp:157] Top shape: 8 256 75 75 (11520000)
I1031 20:05:39.356259 12290 net.cpp:165] Memory required for data: 1336320064
I1031 20:05:39.356263 12290 layer_factory.hpp:77] Creating layer conv3_2
I1031 20:05:39.356274 12290 net.cpp:100] Creating Layer conv3_2
I1031 20:05:39.356278 12290 net.cpp:478] conv3_2 <- conv3_1
I1031 20:05:39.356284 12290 net.cpp:452] conv3_2 -> conv3_2
I1031 20:05:39.363701 12290 net.cpp:150] Setting up conv3_2
I1031 20:05:39.363716 12290 net.cpp:157] Top shape: 8 256 75 75 (11520000)
I1031 20:05:39.363719 12290 net.cpp:165] Memory required for data: 1382400064
I1031 20:05:39.363725 12290 layer_factory.hpp:77] Creating layer relu3_2
I1031 20:05:39.363731 12290 net.cpp:100] Creating Layer relu3_2
I1031 20:05:39.363734 12290 net.cpp:478] relu3_2 <- conv3_2
I1031 20:05:39.363740 12290 net.cpp:439] relu3_2 -> conv3_2 (in-place)
I1031 20:05:39.364656 12290 net.cpp:150] Setting up relu3_2
I1031 20:05:39.364670 12290 net.cpp:157] Top shape: 8 256 75 75 (11520000)
I1031 20:05:39.364672 12290 net.cpp:165] Memory required for data: 1428480064
I1031 20:05:39.364676 12290 layer_factory.hpp:77] Creating layer conv3_3
I1031 20:05:39.364689 12290 net.cpp:100] Creating Layer conv3_3
I1031 20:05:39.364692 12290 net.cpp:478] conv3_3 <- conv3_2
I1031 20:05:39.364698 12290 net.cpp:452] conv3_3 -> conv3_3
I1031 20:05:39.371831 12290 net.cpp:150] Setting up conv3_3
I1031 20:05:39.371845 12290 net.cpp:157] Top shape: 8 256 75 75 (11520000)
I1031 20:05:39.371847 12290 net.cpp:165] Memory required for data: 1474560064
I1031 20:05:39.371853 12290 layer_factory.hpp:77] Creating layer relu3_3
I1031 20:05:39.371858 12290 net.cpp:100] Creating Layer relu3_3
I1031 20:05:39.371861 12290 net.cpp:478] relu3_3 <- conv3_3
I1031 20:05:39.371867 12290 net.cpp:439] relu3_3 -> conv3_3 (in-place)
I1031 20:05:39.372839 12290 net.cpp:150] Setting up relu3_3
I1031 20:05:39.372869 12290 net.cpp:157] Top shape: 8 256 75 75 (11520000)
I1031 20:05:39.372870 12290 net.cpp:165] Memory required for data: 1520640064
I1031 20:05:39.372874 12290 layer_factory.hpp:77] Creating layer pool3
I1031 20:05:39.372882 12290 net.cpp:100] Creating Layer pool3
I1031 20:05:39.372885 12290 net.cpp:478] pool3 <- conv3_3
I1031 20:05:39.372907 12290 net.cpp:452] pool3 -> pool3
I1031 20:05:39.373023 12290 net.cpp:150] Setting up pool3
I1031 20:05:39.373029 12290 net.cpp:157] Top shape: 8 256 38 38 (2957312)
I1031 20:05:39.373046 12290 net.cpp:165] Memory required for data: 1532469312
I1031 20:05:39.373060 12290 layer_factory.hpp:77] Creating layer conv4_1
I1031 20:05:39.373070 12290 net.cpp:100] Creating Layer conv4_1
I1031 20:05:39.373073 12290 net.cpp:478] conv4_1 <- pool3
I1031 20:05:39.373080 12290 net.cpp:452] conv4_1 -> conv4_1
I1031 20:05:39.383903 12290 net.cpp:150] Setting up conv4_1
I1031 20:05:39.383916 12290 net.cpp:157] Top shape: 8 512 38 38 (5914624)
I1031 20:05:39.383919 12290 net.cpp:165] Memory required for data: 1556127808
I1031 20:05:39.383925 12290 layer_factory.hpp:77] Creating layer relu4_1
I1031 20:05:39.383930 12290 net.cpp:100] Creating Layer relu4_1
I1031 20:05:39.383949 12290 net.cpp:478] relu4_1 <- conv4_1
I1031 20:05:39.383957 12290 net.cpp:439] relu4_1 -> conv4_1 (in-place)
I1031 20:05:39.384336 12290 net.cpp:150] Setting up relu4_1
I1031 20:05:39.384346 12290 net.cpp:157] Top shape: 8 512 38 38 (5914624)
I1031 20:05:39.384348 12290 net.cpp:165] Memory required for data: 1579786304
I1031 20:05:39.384351 12290 layer_factory.hpp:77] Creating layer conv4_2
I1031 20:05:39.384361 12290 net.cpp:100] Creating Layer conv4_2
I1031 20:05:39.384364 12290 net.cpp:478] conv4_2 <- conv4_1
I1031 20:05:39.384369 12290 net.cpp:452] conv4_2 -> conv4_2
I1031 20:05:39.403563 12290 net.cpp:150] Setting up conv4_2
I1031 20:05:39.403576 12290 net.cpp:157] Top shape: 8 512 38 38 (5914624)
I1031 20:05:39.403578 12290 net.cpp:165] Memory required for data: 1603444800
I1031 20:05:39.403590 12290 layer_factory.hpp:77] Creating layer relu4_2
I1031 20:05:39.403596 12290 net.cpp:100] Creating Layer relu4_2
I1031 20:05:39.403599 12290 net.cpp:478] relu4_2 <- conv4_2
I1031 20:05:39.403605 12290 net.cpp:439] relu4_2 -> conv4_2 (in-place)
I1031 20:05:39.404549 12290 net.cpp:150] Setting up relu4_2
I1031 20:05:39.404561 12290 net.cpp:157] Top shape: 8 512 38 38 (5914624)
I1031 20:05:39.404563 12290 net.cpp:165] Memory required for data: 1627103296
I1031 20:05:39.404567 12290 layer_factory.hpp:77] Creating layer conv4_3
I1031 20:05:39.404575 12290 net.cpp:100] Creating Layer conv4_3
I1031 20:05:39.404578 12290 net.cpp:478] conv4_3 <- conv4_2
I1031 20:05:39.404584 12290 net.cpp:452] conv4_3 -> conv4_3
I1031 20:05:39.426000 12290 net.cpp:150] Setting up conv4_3
I1031 20:05:39.426017 12290 net.cpp:157] Top shape: 8 512 38 38 (5914624)
I1031 20:05:39.426020 12290 net.cpp:165] Memory required for data: 1650761792
I1031 20:05:39.426028 12290 layer_factory.hpp:77] Creating layer relu4_3
I1031 20:05:39.426035 12290 net.cpp:100] Creating Layer relu4_3
I1031 20:05:39.426039 12290 net.cpp:478] relu4_3 <- conv4_3
I1031 20:05:39.426053 12290 net.cpp:439] relu4_3 -> conv4_3 (in-place)
I1031 20:05:39.427417 12290 net.cpp:150] Setting up relu4_3
I1031 20:05:39.427446 12290 net.cpp:157] Top shape: 8 512 38 38 (5914624)
I1031 20:05:39.427449 12290 net.cpp:165] Memory required for data: 1674420288
I1031 20:05:39.427453 12290 layer_factory.hpp:77] Creating layer conv4_3_relu4_3_0_split
I1031 20:05:39.427459 12290 net.cpp:100] Creating Layer conv4_3_relu4_3_0_split
I1031 20:05:39.427461 12290 net.cpp:478] conv4_3_relu4_3_0_split <- conv4_3
I1031 20:05:39.427467 12290 net.cpp:452] conv4_3_relu4_3_0_split -> conv4_3_relu4_3_0_split_0
I1031 20:05:39.427474 12290 net.cpp:452] conv4_3_relu4_3_0_split -> conv4_3_relu4_3_0_split_1
I1031 20:05:39.427539 12290 net.cpp:150] Setting up conv4_3_relu4_3_0_split
I1031 20:05:39.427546 12290 net.cpp:157] Top shape: 8 512 38 38 (5914624)
I1031 20:05:39.427548 12290 net.cpp:157] Top shape: 8 512 38 38 (5914624)
I1031 20:05:39.427551 12290 net.cpp:165] Memory required for data: 1721737280
I1031 20:05:39.427552 12290 layer_factory.hpp:77] Creating layer pool4
I1031 20:05:39.427561 12290 net.cpp:100] Creating Layer pool4
I1031 20:05:39.427563 12290 net.cpp:478] pool4 <- conv4_3_relu4_3_0_split_0
I1031 20:05:39.427569 12290 net.cpp:452] pool4 -> pool4
I1031 20:05:39.427631 12290 net.cpp:150] Setting up pool4
I1031 20:05:39.427636 12290 net.cpp:157] Top shape: 8 512 19 19 (1478656)
I1031 20:05:39.427639 12290 net.cpp:165] Memory required for data: 1727651904
I1031 20:05:39.427640 12290 layer_factory.hpp:77] Creating layer conv5_1
I1031 20:05:39.427666 12290 net.cpp:100] Creating Layer conv5_1
I1031 20:05:39.427670 12290 net.cpp:478] conv5_1 <- pool4
I1031 20:05:39.427675 12290 net.cpp:452] conv5_1 -> conv5_1
I1031 20:05:39.448978 12290 net.cpp:150] Setting up conv5_1
I1031 20:05:39.448995 12290 net.cpp:157] Top shape: 8 512 19 19 (1478656)
I1031 20:05:39.448999 12290 net.cpp:165] Memory required for data: 1733566528
I1031 20:05:39.449007 12290 layer_factory.hpp:77] Creating layer relu5_1
I1031 20:05:39.449012 12290 net.cpp:100] Creating Layer relu5_1
I1031 20:05:39.449015 12290 net.cpp:478] relu5_1 <- conv5_1
I1031 20:05:39.449023 12290 net.cpp:439] relu5_1 -> conv5_1 (in-place)
I1031 20:05:39.450083 12290 net.cpp:150] Setting up relu5_1
I1031 20:05:39.450095 12290 net.cpp:157] Top shape: 8 512 19 19 (1478656)
I1031 20:05:39.450099 12290 net.cpp:165] Memory required for data: 1739481152
I1031 20:05:39.450103 12290 layer_factory.hpp:77] Creating layer conv5_2
I1031 20:05:39.450114 12290 net.cpp:100] Creating Layer conv5_2
I1031 20:05:39.450116 12290 net.cpp:478] conv5_2 <- conv5_1
I1031 20:05:39.450124 12290 net.cpp:452] conv5_2 -> conv5_2
I1031 20:05:39.469709 12290 net.cpp:150] Setting up conv5_2
I1031 20:05:39.469722 12290 net.cpp:157] Top shape: 8 512 19 19 (1478656)
I1031 20:05:39.469725 12290 net.cpp:165] Memory required for data: 1745395776
I1031 20:05:39.469732 12290 layer_factory.hpp:77] Creating layer relu5_2
I1031 20:05:39.469738 12290 net.cpp:100] Creating Layer relu5_2
I1031 20:05:39.469740 12290 net.cpp:478] relu5_2 <- conv5_2
I1031 20:05:39.469746 12290 net.cpp:439] relu5_2 -> conv5_2 (in-place)
I1031 20:05:39.470795 12290 net.cpp:150] Setting up relu5_2
I1031 20:05:39.470808 12290 net.cpp:157] Top shape: 8 512 19 19 (1478656)
I1031 20:05:39.470810 12290 net.cpp:165] Memory required for data: 1751310400
I1031 20:05:39.470813 12290 layer_factory.hpp:77] Creating layer conv5_3
I1031 20:05:39.470824 12290 net.cpp:100] Creating Layer conv5_3
I1031 20:05:39.470826 12290 net.cpp:478] conv5_3 <- conv5_2
I1031 20:05:39.470836 12290 net.cpp:452] conv5_3 -> conv5_3
I1031 20:05:39.490952 12290 net.cpp:150] Setting up conv5_3
I1031 20:05:39.490979 12290 net.cpp:157] Top shape: 8 512 19 19 (1478656)
I1031 20:05:39.490983 12290 net.cpp:165] Memory required for data: 1757225024
I1031 20:05:39.490989 12290 layer_factory.hpp:77] Creating layer relu5_3
I1031 20:05:39.491003 12290 net.cpp:100] Creating Layer relu5_3
I1031 20:05:39.491008 12290 net.cpp:478] relu5_3 <- conv5_3
I1031 20:05:39.491013 12290 net.cpp:439] relu5_3 -> conv5_3 (in-place)
I1031 20:05:39.491384 12290 net.cpp:150] Setting up relu5_3
I1031 20:05:39.491394 12290 net.cpp:157] Top shape: 8 512 19 19 (1478656)
I1031 20:05:39.491396 12290 net.cpp:165] Memory required for data: 1763139648
I1031 20:05:39.491400 12290 layer_factory.hpp:77] Creating layer pool5
I1031 20:05:39.491406 12290 net.cpp:100] Creating Layer pool5
I1031 20:05:39.491410 12290 net.cpp:478] pool5 <- conv5_3
I1031 20:05:39.491415 12290 net.cpp:452] pool5 -> pool5
I1031 20:05:39.491482 12290 net.cpp:150] Setting up pool5
I1031 20:05:39.491488 12290 net.cpp:157] Top shape: 8 512 19 19 (1478656)
I1031 20:05:39.491490 12290 net.cpp:165] Memory required for data: 1769054272
I1031 20:05:39.491492 12290 layer_factory.hpp:77] Creating layer fc6
I1031 20:05:39.491503 12290 net.cpp:100] Creating Layer fc6
I1031 20:05:39.491506 12290 net.cpp:478] fc6 <- pool5
I1031 20:05:39.491513 12290 net.cpp:452] fc6 -> fc6
I1031 20:05:39.526204 12290 net.cpp:150] Setting up fc6
I1031 20:05:39.526226 12290 net.cpp:157] Top shape: 8 1024 19 19 (2957312)
I1031 20:05:39.526227 12290 net.cpp:165] Memory required for data: 1780883520
I1031 20:05:39.526252 12290 layer_factory.hpp:77] Creating layer relu6
I1031 20:05:39.526258 12290 net.cpp:100] Creating Layer relu6
I1031 20:05:39.526262 12290 net.cpp:478] relu6 <- fc6
I1031 20:05:39.526268 12290 net.cpp:439] relu6 -> fc6 (in-place)
I1031 20:05:39.527423 12290 net.cpp:150] Setting up relu6
I1031 20:05:39.527436 12290 net.cpp:157] Top shape: 8 1024 19 19 (2957312)
I1031 20:05:39.527462 12290 net.cpp:165] Memory required for data: 1792712768
I1031 20:05:39.527464 12290 layer_factory.hpp:77] Creating layer fc7
I1031 20:05:39.527477 12290 net.cpp:100] Creating Layer fc7
I1031 20:05:39.527480 12290 net.cpp:478] fc7 <- fc6
I1031 20:05:39.527487 12290 net.cpp:452] fc7 -> fc7
I1031 20:05:39.539170 12290 net.cpp:150] Setting up fc7
I1031 20:05:39.539186 12290 net.cpp:157] Top shape: 8 1024 19 19 (2957312)
I1031 20:05:39.539188 12290 net.cpp:165] Memory required for data: 1804542016
I1031 20:05:39.539196 12290 layer_factory.hpp:77] Creating layer relu7
I1031 20:05:39.539201 12290 net.cpp:100] Creating Layer relu7
I1031 20:05:39.539204 12290 net.cpp:478] relu7 <- fc7
I1031 20:05:39.539211 12290 net.cpp:439] relu7 -> fc7 (in-place)
I1031 20:05:39.539528 12290 net.cpp:150] Setting up relu7
I1031 20:05:39.539537 12290 net.cpp:157] Top shape: 8 1024 19 19 (2957312)
I1031 20:05:39.539541 12290 net.cpp:165] Memory required for data: 1816371264
I1031 20:05:39.539543 12290 layer_factory.hpp:77] Creating layer fc7_relu7_0_split
I1031 20:05:39.539549 12290 net.cpp:100] Creating Layer fc7_relu7_0_split
I1031 20:05:39.539552 12290 net.cpp:478] fc7_relu7_0_split <- fc7
I1031 20:05:39.539558 12290 net.cpp:452] fc7_relu7_0_split -> fc7_relu7_0_split_0
I1031 20:05:39.539566 12290 net.cpp:452] fc7_relu7_0_split -> fc7_relu7_0_split_1
I1031 20:05:39.539582 12290 net.cpp:452] fc7_relu7_0_split -> fc7_relu7_0_split_2
I1031 20:05:39.539587 12290 net.cpp:452] fc7_relu7_0_split -> fc7_relu7_0_split_3
I1031 20:05:39.539682 12290 net.cpp:150] Setting up fc7_relu7_0_split
I1031 20:05:39.539688 12290 net.cpp:157] Top shape: 8 1024 19 19 (2957312)
I1031 20:05:39.539691 12290 net.cpp:157] Top shape: 8 1024 19 19 (2957312)
I1031 20:05:39.539695 12290 net.cpp:157] Top shape: 8 1024 19 19 (2957312)
I1031 20:05:39.539697 12290 net.cpp:157] Top shape: 8 1024 19 19 (2957312)
I1031 20:05:39.539700 12290 net.cpp:165] Memory required for data: 1863688256
I1031 20:05:39.539701 12290 layer_factory.hpp:77] Creating layer conv6_1
I1031 20:05:39.539726 12290 net.cpp:100] Creating Layer conv6_1
I1031 20:05:39.539729 12290 net.cpp:478] conv6_1 <- fc7_relu7_0_split_0
I1031 20:05:39.539736 12290 net.cpp:452] conv6_1 -> conv6_1
I1031 20:05:39.544997 12290 net.cpp:150] Setting up conv6_1
I1031 20:05:39.545012 12290 net.cpp:157] Top shape: 8 256 19 19 (739328)
I1031 20:05:39.545016 12290 net.cpp:165] Memory required for data: 1866645568
I1031 20:05:39.545022 12290 layer_factory.hpp:77] Creating layer conv6_1_relu
I1031 20:05:39.545027 12290 net.cpp:100] Creating Layer conv6_1_relu
I1031 20:05:39.545030 12290 net.cpp:478] conv6_1_relu <- conv6_1
I1031 20:05:39.545037 12290 net.cpp:439] conv6_1_relu -> conv6_1 (in-place)
I1031 20:05:39.546084 12290 net.cpp:150] Setting up conv6_1_relu
I1031 20:05:39.546097 12290 net.cpp:157] Top shape: 8 256 19 19 (739328)
I1031 20:05:39.546099 12290 net.cpp:165] Memory required for data: 1869602880
I1031 20:05:39.546103 12290 layer_factory.hpp:77] Creating layer conv6_2
I1031 20:05:39.546113 12290 net.cpp:100] Creating Layer conv6_2
I1031 20:05:39.546118 12290 net.cpp:478] conv6_2 <- conv6_1
I1031 20:05:39.546123 12290 net.cpp:452] conv6_2 -> conv6_2
I1031 20:05:39.557731 12290 net.cpp:150] Setting up conv6_2
I1031 20:05:39.557744 12290 net.cpp:157] Top shape: 8 512 10 10 (409600)
I1031 20:05:39.557747 12290 net.cpp:165] Memory required for data: 1871241280
I1031 20:05:39.557762 12290 layer_factory.hpp:77] Creating layer conv6_2_relu
I1031 20:05:39.557768 12290 net.cpp:100] Creating Layer conv6_2_relu
I1031 20:05:39.557772 12290 net.cpp:478] conv6_2_relu <- conv6_2
I1031 20:05:39.557778 12290 net.cpp:439] conv6_2_relu -> conv6_2 (in-place)
I1031 20:05:39.560534 12290 net.cpp:150] Setting up conv6_2_relu
I1031 20:05:39.560549 12290 net.cpp:157] Top shape: 8 512 10 10 (409600)
I1031 20:05:39.560551 12290 net.cpp:165] Memory required for data: 1872879680
I1031 20:05:39.560554 12290 layer_factory.hpp:77] Creating layer conv6_2_conv6_2_relu_0_split
I1031 20:05:39.560560 12290 net.cpp:100] Creating Layer conv6_2_conv6_2_relu_0_split
I1031 20:05:39.560575 12290 net.cpp:478] conv6_2_conv6_2_relu_0_split <- conv6_2
I1031 20:05:39.560582 12290 net.cpp:452] conv6_2_conv6_2_relu_0_split -> conv6_2_conv6_2_relu_0_split_0
I1031 20:05:39.560590 12290 net.cpp:452] conv6_2_conv6_2_relu_0_split -> conv6_2_conv6_2_relu_0_split_1
I1031 20:05:39.560595 12290 net.cpp:452] conv6_2_conv6_2_relu_0_split -> conv6_2_conv6_2_relu_0_split_2
I1031 20:05:39.560601 12290 net.cpp:452] conv6_2_conv6_2_relu_0_split -> conv6_2_conv6_2_relu_0_split_3
I1031 20:05:39.560710 12290 net.cpp:150] Setting up conv6_2_conv6_2_relu_0_split
I1031 20:05:39.560716 12290 net.cpp:157] Top shape: 8 512 10 10 (409600)
I1031 20:05:39.560719 12290 net.cpp:157] Top shape: 8 512 10 10 (409600)
I1031 20:05:39.560721 12290 net.cpp:157] Top shape: 8 512 10 10 (409600)
I1031 20:05:39.560724 12290 net.cpp:157] Top shape: 8 512 10 10 (409600)
I1031 20:05:39.560726 12290 net.cpp:165] Memory required for data: 1879433280
I1031 20:05:39.560729 12290 layer_factory.hpp:77] Creating layer conv7_1
I1031 20:05:39.560739 12290 net.cpp:100] Creating Layer conv7_1
I1031 20:05:39.560741 12290 net.cpp:478] conv7_1 <- conv6_2_conv6_2_relu_0_split_0
I1031 20:05:39.560748 12290 net.cpp:452] conv7_1 -> conv7_1
I1031 20:05:39.565141 12290 net.cpp:150] Setting up conv7_1
I1031 20:05:39.565155 12290 net.cpp:157] Top shape: 8 128 10 10 (102400)
I1031 20:05:39.565158 12290 net.cpp:165] Memory required for data: 1879842880
I1031 20:05:39.565165 12290 layer_factory.hpp:77] Creating layer conv7_1_relu
I1031 20:05:39.565170 12290 net.cpp:100] Creating Layer conv7_1_relu
I1031 20:05:39.565173 12290 net.cpp:478] conv7_1_relu <- conv7_1
I1031 20:05:39.565179 12290 net.cpp:439] conv7_1_relu -> conv7_1 (in-place)
I1031 20:05:39.565527 12290 net.cpp:150] Setting up conv7_1_relu
I1031 20:05:39.565538 12290 net.cpp:157] Top shape: 8 128 10 10 (102400)
I1031 20:05:39.565541 12290 net.cpp:165] Memory required for data: 1880252480
I1031 20:05:39.565543 12290 layer_factory.hpp:77] Creating layer conv7_2
I1031 20:05:39.565552 12290 net.cpp:100] Creating Layer conv7_2
I1031 20:05:39.565556 12290 net.cpp:478] conv7_2 <- conv7_1
I1031 20:05:39.565562 12290 net.cpp:452] conv7_2 -> conv7_2
I1031 20:05:39.571878 12290 net.cpp:150] Setting up conv7_2
I1031 20:05:39.571892 12290 net.cpp:157] Top shape: 8 256 5 5 (51200)
I1031 20:05:39.571894 12290 net.cpp:165] Memory required for data: 1880457280
I1031 20:05:39.571900 12290 layer_factory.hpp:77] Creating layer conv7_2_relu
I1031 20:05:39.571905 12290 net.cpp:100] Creating Layer conv7_2_relu
I1031 20:05:39.571910 12290 net.cpp:478] conv7_2_relu <- conv7_2
I1031 20:05:39.571914 12290 net.cpp:439] conv7_2_relu -> conv7_2 (in-place)
I1031 20:05:39.572880 12290 net.cpp:150] Setting up conv7_2_relu
I1031 20:05:39.572892 12290 net.cpp:157] Top shape: 8 256 5 5 (51200)
I1031 20:05:39.572895 12290 net.cpp:165] Memory required for data: 1880662080
I1031 20:05:39.572897 12290 layer_factory.hpp:77] Creating layer conv7_2_conv7_2_relu_0_split
I1031 20:05:39.572916 12290 net.cpp:100] Creating Layer conv7_2_conv7_2_relu_0_split
I1031 20:05:39.572918 12290 net.cpp:478] conv7_2_conv7_2_relu_0_split <- conv7_2
I1031 20:05:39.572923 12290 net.cpp:452] conv7_2_conv7_2_relu_0_split -> conv7_2_conv7_2_relu_0_split_0
I1031 20:05:39.572932 12290 net.cpp:452] conv7_2_conv7_2_relu_0_split -> conv7_2_conv7_2_relu_0_split_1
I1031 20:05:39.572938 12290 net.cpp:452] conv7_2_conv7_2_relu_0_split -> conv7_2_conv7_2_relu_0_split_2
I1031 20:05:39.572942 12290 net.cpp:452] conv7_2_conv7_2_relu_0_split -> conv7_2_conv7_2_relu_0_split_3
I1031 20:05:39.573037 12290 net.cpp:150] Setting up conv7_2_conv7_2_relu_0_split
I1031 20:05:39.573045 12290 net.cpp:157] Top shape: 8 256 5 5 (51200)
I1031 20:05:39.573047 12290 net.cpp:157] Top shape: 8 256 5 5 (51200)
I1031 20:05:39.573050 12290 net.cpp:157] Top shape: 8 256 5 5 (51200)
I1031 20:05:39.573052 12290 net.cpp:157] Top shape: 8 256 5 5 (51200)
I1031 20:05:39.573055 12290 net.cpp:165] Memory required for data: 1881481280
I1031 20:05:39.573056 12290 layer_factory.hpp:77] Creating layer conv8_1
I1031 20:05:39.573076 12290 net.cpp:100] Creating Layer conv8_1
I1031 20:05:39.573081 12290 net.cpp:478] conv8_1 <- conv7_2_conv7_2_relu_0_split_0
I1031 20:05:39.573086 12290 net.cpp:452] conv8_1 -> conv8_1
I1031 20:05:39.575994 12290 net.cpp:150] Setting up conv8_1
I1031 20:05:39.576006 12290 net.cpp:157] Top shape: 8 128 5 5 (25600)
I1031 20:05:39.576009 12290 net.cpp:165] Memory required for data: 1881583680
I1031 20:05:39.576014 12290 layer_factory.hpp:77] Creating layer conv8_1_relu
I1031 20:05:39.576020 12290 net.cpp:100] Creating Layer conv8_1_relu
I1031 20:05:39.576022 12290 net.cpp:478] conv8_1_relu <- conv8_1
I1031 20:05:39.576028 12290 net.cpp:439] conv8_1_relu -> conv8_1 (in-place)
I1031 20:05:39.576328 12290 net.cpp:150] Setting up conv8_1_relu
I1031 20:05:39.576337 12290 net.cpp:157] Top shape: 8 128 5 5 (25600)
I1031 20:05:39.576340 12290 net.cpp:165] Memory required for data: 1881686080
I1031 20:05:39.576342 12290 layer_factory.hpp:77] Creating layer conv8_2
I1031 20:05:39.576352 12290 net.cpp:100] Creating Layer conv8_2
I1031 20:05:39.576355 12290 net.cpp:478] conv8_2 <- conv8_1
I1031 20:05:39.576364 12290 net.cpp:452] conv8_2 -> conv8_2
I1031 20:05:39.581651 12290 net.cpp:150] Setting up conv8_2
I1031 20:05:39.581665 12290 net.cpp:157] Top shape: 8 256 3 3 (18432)
I1031 20:05:39.581666 12290 net.cpp:165] Memory required for data: 1881759808
I1031 20:05:39.581672 12290 layer_factory.hpp:77] Creating layer conv8_2_relu
I1031 20:05:39.581677 12290 net.cpp:100] Creating Layer conv8_2_relu
I1031 20:05:39.581681 12290 net.cpp:478] conv8_2_relu <- conv8_2
I1031 20:05:39.581686 12290 net.cpp:439] conv8_2_relu -> conv8_2 (in-place)
I1031 20:05:39.582757 12290 net.cpp:150] Setting up conv8_2_relu
I1031 20:05:39.582769 12290 net.cpp:157] Top shape: 8 256 3 3 (18432)
I1031 20:05:39.582772 12290 net.cpp:165] Memory required for data: 1881833536
I1031 20:05:39.582774 12290 layer_factory.hpp:77] Creating layer conv8_2_conv8_2_relu_0_split
I1031 20:05:39.582795 12290 net.cpp:100] Creating Layer conv8_2_conv8_2_relu_0_split
I1031 20:05:39.582798 12290 net.cpp:478] conv8_2_conv8_2_relu_0_split <- conv8_2
I1031 20:05:39.582805 12290 net.cpp:452] conv8_2_conv8_2_relu_0_split -> conv8_2_conv8_2_relu_0_split_0
I1031 20:05:39.582811 12290 net.cpp:452] conv8_2_conv8_2_relu_0_split -> conv8_2_conv8_2_relu_0_split_1
I1031 20:05:39.582818 12290 net.cpp:452] conv8_2_conv8_2_relu_0_split -> conv8_2_conv8_2_relu_0_split_2
I1031 20:05:39.582823 12290 net.cpp:452] conv8_2_conv8_2_relu_0_split -> conv8_2_conv8_2_relu_0_split_3
I1031 20:05:39.582927 12290 net.cpp:150] Setting up conv8_2_conv8_2_relu_0_split
I1031 20:05:39.582932 12290 net.cpp:157] Top shape: 8 256 3 3 (18432)
I1031 20:05:39.582936 12290 net.cpp:157] Top shape: 8 256 3 3 (18432)
I1031 20:05:39.582938 12290 net.cpp:157] Top shape: 8 256 3 3 (18432)
I1031 20:05:39.582940 12290 net.cpp:157] Top shape: 8 256 3 3 (18432)
I1031 20:05:39.582942 12290 net.cpp:165] Memory required for data: 1882128448
I1031 20:05:39.582944 12290 layer_factory.hpp:77] Creating layer conv9_1
I1031 20:05:39.582954 12290 net.cpp:100] Creating Layer conv9_1
I1031 20:05:39.582957 12290 net.cpp:478] conv9_1 <- conv8_2_conv8_2_relu_0_split_0
I1031 20:05:39.582962 12290 net.cpp:452] conv9_1 -> conv9_1
I1031 20:05:39.585798 12290 net.cpp:150] Setting up conv9_1
I1031 20:05:39.585809 12290 net.cpp:157] Top shape: 8 128 3 3 (9216)
I1031 20:05:39.585813 12290 net.cpp:165] Memory required for data: 1882165312
I1031 20:05:39.585819 12290 layer_factory.hpp:77] Creating layer conv9_1_relu
I1031 20:05:39.585824 12290 net.cpp:100] Creating Layer conv9_1_relu
I1031 20:05:39.585826 12290 net.cpp:478] conv9_1_relu <- conv9_1
I1031 20:05:39.585831 12290 net.cpp:439] conv9_1_relu -> conv9_1 (in-place)
I1031 20:05:39.586784 12290 net.cpp:150] Setting up conv9_1_relu
I1031 20:05:39.586797 12290 net.cpp:157] Top shape: 8 128 3 3 (9216)
I1031 20:05:39.586799 12290 net.cpp:165] Memory required for data: 1882202176
I1031 20:05:39.586802 12290 layer_factory.hpp:77] Creating layer conv9_2
I1031 20:05:39.586822 12290 net.cpp:100] Creating Layer conv9_2
I1031 20:05:39.586825 12290 net.cpp:478] conv9_2 <- conv9_1
I1031 20:05:39.586832 12290 net.cpp:452] conv9_2 -> conv9_2
I1031 20:05:39.592512 12290 net.cpp:150] Setting up conv9_2
I1031 20:05:39.592525 12290 net.cpp:157] Top shape: 8 256 1 1 (2048)
I1031 20:05:39.592527 12290 net.cpp:165] Memory required for data: 1882210368
I1031 20:05:39.592533 12290 layer_factory.hpp:77] Creating layer conv9_2_relu
I1031 20:05:39.592538 12290 net.cpp:100] Creating Layer conv9_2_relu
I1031 20:05:39.592566 12290 net.cpp:478] conv9_2_relu <- conv9_2
I1031 20:05:39.592572 12290 net.cpp:439] conv9_2_relu -> conv9_2 (in-place)
I1031 20:05:39.592985 12290 net.cpp:150] Setting up conv9_2_relu
I1031 20:05:39.592995 12290 net.cpp:157] Top shape: 8 256 1 1 (2048)
I1031 20:05:39.592998 12290 net.cpp:165] Memory required for data: 1882218560
I1031 20:05:39.593000 12290 layer_factory.hpp:77] Creating layer conv9_2_conv9_2_relu_0_split
I1031 20:05:39.593006 12290 net.cpp:100] Creating Layer conv9_2_conv9_2_relu_0_split
I1031 20:05:39.593009 12290 net.cpp:478] conv9_2_conv9_2_relu_0_split <- conv9_2
I1031 20:05:39.593016 12290 net.cpp:452] conv9_2_conv9_2_relu_0_split -> conv9_2_conv9_2_relu_0_split_0
I1031 20:05:39.593024 12290 net.cpp:452] conv9_2_conv9_2_relu_0_split -> conv9_2_conv9_2_relu_0_split_1
I1031 20:05:39.593045 12290 net.cpp:452] conv9_2_conv9_2_relu_0_split -> conv9_2_conv9_2_relu_0_split_2
I1031 20:05:39.593150 12290 net.cpp:150] Setting up conv9_2_conv9_2_relu_0_split
I1031 20:05:39.593156 12290 net.cpp:157] Top shape: 8 256 1 1 (2048)
I1031 20:05:39.593159 12290 net.cpp:157] Top shape: 8 256 1 1 (2048)
I1031 20:05:39.593163 12290 net.cpp:157] Top shape: 8 256 1 1 (2048)
I1031 20:05:39.593164 12290 net.cpp:165] Memory required for data: 1882243136
I1031 20:05:39.593166 12290 layer_factory.hpp:77] Creating layer conv4_3_norm
I1031 20:05:39.593175 12290 net.cpp:100] Creating Layer conv4_3_norm
I1031 20:05:39.593178 12290 net.cpp:478] conv4_3_norm <- conv4_3_relu4_3_0_split_1
I1031 20:05:39.593183 12290 net.cpp:452] conv4_3_norm -> conv4_3_norm
I1031 20:05:39.593436 12290 net.cpp:150] Setting up conv4_3_norm
I1031 20:05:39.593442 12290 net.cpp:157] Top shape: 8 512 38 38 (5914624)
I1031 20:05:39.593444 12290 net.cpp:165] Memory required for data: 1905901632
I1031 20:05:39.593448 12290 layer_factory.hpp:77] Creating layer conv4_3_norm_conv4_3_norm_0_split
I1031 20:05:39.593453 12290 net.cpp:100] Creating Layer conv4_3_norm_conv4_3_norm_0_split
I1031 20:05:39.593456 12290 net.cpp:478] conv4_3_norm_conv4_3_norm_0_split <- conv4_3_norm
I1031 20:05:39.593461 12290 net.cpp:452] conv4_3_norm_conv4_3_norm_0_split -> conv4_3_norm_conv4_3_norm_0_split_0
I1031 20:05:39.593466 12290 net.cpp:452] conv4_3_norm_conv4_3_norm_0_split -> conv4_3_norm_conv4_3_norm_0_split_1
I1031 20:05:39.593471 12290 net.cpp:452] conv4_3_norm_conv4_3_norm_0_split -> conv4_3_norm_conv4_3_norm_0_split_2
I1031 20:05:39.593549 12290 net.cpp:150] Setting up conv4_3_norm_conv4_3_norm_0_split
I1031 20:05:39.593554 12290 net.cpp:157] Top shape: 8 512 38 38 (5914624)
I1031 20:05:39.593556 12290 net.cpp:157] Top shape: 8 512 38 38 (5914624)
I1031 20:05:39.593559 12290 net.cpp:157] Top shape: 8 512 38 38 (5914624)
I1031 20:05:39.593561 12290 net.cpp:165] Memory required for data: 1976877120
I1031 20:05:39.593564 12290 layer_factory.hpp:77] Creating layer conv4_3_norm_mbox_loc
I1031 20:05:39.593571 12290 net.cpp:100] Creating Layer conv4_3_norm_mbox_loc
I1031 20:05:39.593575 12290 net.cpp:478] conv4_3_norm_mbox_loc <- conv4_3_norm_conv4_3_norm_0_split_0
I1031 20:05:39.593580 12290 net.cpp:452] conv4_3_norm_mbox_loc -> conv4_3_norm_mbox_loc
I1031 20:05:39.597110 12290 net.cpp:150] Setting up conv4_3_norm_mbox_loc
I1031 20:05:39.597137 12290 net.cpp:157] Top shape: 8 16 38 38 (184832)
I1031 20:05:39.597139 12290 net.cpp:165] Memory required for data: 1977616448
I1031 20:05:39.597146 12290 layer_factory.hpp:77] Creating layer conv4_3_norm_mbox_loc_perm
I1031 20:05:39.597152 12290 net.cpp:100] Creating Layer conv4_3_norm_mbox_loc_perm
I1031 20:05:39.597168 12290 net.cpp:478] conv4_3_norm_mbox_loc_perm <- conv4_3_norm_mbox_loc
I1031 20:05:39.597193 12290 net.cpp:452] conv4_3_norm_mbox_loc_perm -> conv4_3_norm_mbox_loc_perm
I1031 20:05:39.597362 12290 net.cpp:150] Setting up conv4_3_norm_mbox_loc_perm
I1031 20:05:39.597368 12290 net.cpp:157] Top shape: 8 38 38 16 (184832)
I1031 20:05:39.597369 12290 net.cpp:165] Memory required for data: 1978355776
I1031 20:05:39.597373 12290 layer_factory.hpp:77] Creating layer conv4_3_norm_mbox_loc_flat
I1031 20:05:39.597390 12290 net.cpp:100] Creating Layer conv4_3_norm_mbox_loc_flat
I1031 20:05:39.597398 12290 net.cpp:478] conv4_3_norm_mbox_loc_flat <- conv4_3_norm_mbox_loc_perm
I1031 20:05:39.597403 12290 net.cpp:452] conv4_3_norm_mbox_loc_flat -> conv4_3_norm_mbox_loc_flat
I1031 20:05:39.597498 12290 net.cpp:150] Setting up conv4_3_norm_mbox_loc_flat
I1031 20:05:39.597506 12290 net.cpp:157] Top shape: 8 23104 (184832)
I1031 20:05:39.597508 12290 net.cpp:165] Memory required for data: 1979095104
I1031 20:05:39.597510 12290 layer_factory.hpp:77] Creating layer conv4_3_norm_mbox_conf
I1031 20:05:39.597543 12290 net.cpp:100] Creating Layer conv4_3_norm_mbox_conf
I1031 20:05:39.597545 12290 net.cpp:478] conv4_3_norm_mbox_conf <- conv4_3_norm_conv4_3_norm_0_split_1
I1031 20:05:39.597551 12290 net.cpp:452] conv4_3_norm_mbox_conf -> conv4_3_norm_mbox_conf
I1031 20:05:39.604898 12290 net.cpp:150] Setting up conv4_3_norm_mbox_conf
I1031 20:05:39.604912 12290 net.cpp:157] Top shape: 8 84 38 38 (970368)
I1031 20:05:39.604915 12290 net.cpp:165] Memory required for data: 1982976576
I1031 20:05:39.604923 12290 layer_factory.hpp:77] Creating layer conv4_3_norm_mbox_conf_perm
I1031 20:05:39.604931 12290 net.cpp:100] Creating Layer conv4_3_norm_mbox_conf_perm
I1031 20:05:39.604934 12290 net.cpp:478] conv4_3_norm_mbox_conf_perm <- conv4_3_norm_mbox_conf
I1031 20:05:39.604939 12290 net.cpp:452] conv4_3_norm_mbox_conf_perm -> conv4_3_norm_mbox_conf_perm
I1031 20:05:39.605106 12290 net.cpp:150] Setting up conv4_3_norm_mbox_conf_perm
I1031 20:05:39.605113 12290 net.cpp:157] Top shape: 8 38 38 84 (970368)
I1031 20:05:39.605115 12290 net.cpp:165] Memory required for data: 1986858048
I1031 20:05:39.605118 12290 layer_factory.hpp:77] Creating layer conv4_3_norm_mbox_conf_flat
I1031 20:05:39.605124 12290 net.cpp:100] Creating Layer conv4_3_norm_mbox_conf_flat
I1031 20:05:39.605128 12290 net.cpp:478] conv4_3_norm_mbox_conf_flat <- conv4_3_norm_mbox_conf_perm
I1031 20:05:39.605131 12290 net.cpp:452] conv4_3_norm_mbox_conf_flat -> conv4_3_norm_mbox_conf_flat
I1031 20:05:39.605167 12290 net.cpp:150] Setting up conv4_3_norm_mbox_conf_flat
I1031 20:05:39.605173 12290 net.cpp:157] Top shape: 8 121296 (970368)
I1031 20:05:39.605175 12290 net.cpp:165] Memory required for data: 1990739520
I1031 20:05:39.605177 12290 layer_factory.hpp:77] Creating layer conv4_3_norm_mbox_priorbox
I1031 20:05:39.605186 12290 net.cpp:100] Creating Layer conv4_3_norm_mbox_priorbox
I1031 20:05:39.605190 12290 net.cpp:478] conv4_3_norm_mbox_priorbox <- conv4_3_norm_conv4_3_norm_0_split_2
I1031 20:05:39.605193 12290 net.cpp:478] conv4_3_norm_mbox_priorbox <- data_data_0_split_1
I1031 20:05:39.605198 12290 net.cpp:452] conv4_3_norm_mbox_priorbox -> conv4_3_norm_mbox_priorbox
I1031 20:05:39.605237 12290 net.cpp:150] Setting up conv4_3_norm_mbox_priorbox
I1031 20:05:39.605244 12290 net.cpp:157] Top shape: 1 2 23104 (46208)
I1031 20:05:39.605247 12290 net.cpp:165] Memory required for data: 1990924352
I1031 20:05:39.605248 12290 layer_factory.hpp:77] Creating layer fc7_mbox_loc
I1031 20:05:39.605259 12290 net.cpp:100] Creating Layer fc7_mbox_loc
I1031 20:05:39.605262 12290 net.cpp:478] fc7_mbox_loc <- fc7_relu7_0_split_1
I1031 20:05:39.605268 12290 net.cpp:452] fc7_mbox_loc -> fc7_mbox_loc
I1031 20:05:39.610409 12290 net.cpp:150] Setting up fc7_mbox_loc
I1031 20:05:39.610421 12290 net.cpp:157] Top shape: 8 24 19 19 (69312)
I1031 20:05:39.610424 12290 net.cpp:165] Memory required for data: 1991201600
I1031 20:05:39.610430 12290 layer_factory.hpp:77] Creating layer fc7_mbox_loc_perm
I1031 20:05:39.610448 12290 net.cpp:100] Creating Layer fc7_mbox_loc_perm
I1031 20:05:39.610452 12290 net.cpp:478] fc7_mbox_loc_perm <- fc7_mbox_loc
I1031 20:05:39.610457 12290 net.cpp:452] fc7_mbox_loc_perm -> fc7_mbox_loc_perm
I1031 20:05:39.610616 12290 net.cpp:150] Setting up fc7_mbox_loc_perm
I1031 20:05:39.610637 12290 net.cpp:157] Top shape: 8 19 19 24 (69312)
I1031 20:05:39.610641 12290 net.cpp:165] Memory required for data: 1991478848
I1031 20:05:39.610661 12290 layer_factory.hpp:77] Creating layer fc7_mbox_loc_flat
I1031 20:05:39.610668 12290 net.cpp:100] Creating Layer fc7_mbox_loc_flat
I1031 20:05:39.610687 12290 net.cpp:478] fc7_mbox_loc_flat <- fc7_mbox_loc_perm
I1031 20:05:39.610692 12290 net.cpp:452] fc7_mbox_loc_flat -> fc7_mbox_loc_flat
I1031 20:05:39.610759 12290 net.cpp:150] Setting up fc7_mbox_loc_flat
I1031 20:05:39.610764 12290 net.cpp:157] Top shape: 8 8664 (69312)
I1031 20:05:39.610765 12290 net.cpp:165] Memory required for data: 1991756096
I1031 20:05:39.610769 12290 layer_factory.hpp:77] Creating layer fc7_mbox_conf
I1031 20:05:39.610780 12290 net.cpp:100] Creating Layer fc7_mbox_conf
I1031 20:05:39.610800 12290 net.cpp:478] fc7_mbox_conf <- fc7_relu7_0_split_2
I1031 20:05:39.610805 12290 net.cpp:452] fc7_mbox_conf -> fc7_mbox_conf
I1031 20:05:39.622077 12290 net.cpp:150] Setting up fc7_mbox_conf
I1031 20:05:39.622092 12290 net.cpp:157] Top shape: 8 126 19 19 (363888)
I1031 20:05:39.622094 12290 net.cpp:165] Memory required for data: 1993211648
I1031 20:05:39.622102 12290 layer_factory.hpp:77] Creating layer fc7_mbox_conf_perm
I1031 20:05:39.622108 12290 net.cpp:100] Creating Layer fc7_mbox_conf_perm
I1031 20:05:39.622112 12290 net.cpp:478] fc7_mbox_conf_perm <- fc7_mbox_conf
I1031 20:05:39.622119 12290 net.cpp:452] fc7_mbox_conf_perm -> fc7_mbox_conf_perm
I1031 20:05:39.622321 12290 net.cpp:150] Setting up fc7_mbox_conf_perm
I1031 20:05:39.622328 12290 net.cpp:157] Top shape: 8 19 19 126 (363888)
I1031 20:05:39.622330 12290 net.cpp:165] Memory required for data: 1994667200
I1031 20:05:39.622334 12290 layer_factory.hpp:77] Creating layer fc7_mbox_conf_flat
I1031 20:05:39.622339 12290 net.cpp:100] Creating Layer fc7_mbox_conf_flat
I1031 20:05:39.622341 12290 net.cpp:478] fc7_mbox_conf_flat <- fc7_mbox_conf_perm
I1031 20:05:39.622346 12290 net.cpp:452] fc7_mbox_conf_flat -> fc7_mbox_conf_flat
I1031 20:05:39.622380 12290 net.cpp:150] Setting up fc7_mbox_conf_flat
I1031 20:05:39.622387 12290 net.cpp:157] Top shape: 8 45486 (363888)
I1031 20:05:39.622390 12290 net.cpp:165] Memory required for data: 1996122752
I1031 20:05:39.622391 12290 layer_factory.hpp:77] Creating layer fc7_mbox_priorbox
I1031 20:05:39.622397 12290 net.cpp:100] Creating Layer fc7_mbox_priorbox
I1031 20:05:39.622400 12290 net.cpp:478] fc7_mbox_priorbox <- fc7_relu7_0_split_3
I1031 20:05:39.622403 12290 net.cpp:478] fc7_mbox_priorbox <- data_data_0_split_2
I1031 20:05:39.622409 12290 net.cpp:452] fc7_mbox_priorbox -> fc7_mbox_priorbox
I1031 20:05:39.622445 12290 net.cpp:150] Setting up fc7_mbox_priorbox
I1031 20:05:39.622452 12290 net.cpp:157] Top shape: 1 2 8664 (17328)
I1031 20:05:39.622454 12290 net.cpp:165] Memory required for data: 1996192064
I1031 20:05:39.622457 12290 layer_factory.hpp:77] Creating layer conv6_2_mbox_loc
I1031 20:05:39.622465 12290 net.cpp:100] Creating Layer conv6_2_mbox_loc
I1031 20:05:39.622469 12290 net.cpp:478] conv6_2_mbox_loc <- conv6_2_conv6_2_relu_0_split_1
I1031 20:05:39.622475 12290 net.cpp:452] conv6_2_mbox_loc -> conv6_2_mbox_loc
I1031 20:05:39.627193 12290 net.cpp:150] Setting up conv6_2_mbox_loc
I1031 20:05:39.627208 12290 net.cpp:157] Top shape: 8 24 10 10 (19200)
I1031 20:05:39.627212 12290 net.cpp:165] Memory required for data: 1996268864
I1031 20:05:39.627218 12290 layer_factory.hpp:77] Creating layer conv6_2_mbox_loc_perm
I1031 20:05:39.627224 12290 net.cpp:100] Creating Layer conv6_2_mbox_loc_perm
I1031 20:05:39.627228 12290 net.cpp:478] conv6_2_mbox_loc_perm <- conv6_2_mbox_loc
I1031 20:05:39.627235 12290 net.cpp:452] conv6_2_mbox_loc_perm -> conv6_2_mbox_loc_perm
I1031 20:05:39.627394 12290 net.cpp:150] Setting up conv6_2_mbox_loc_perm
I1031 20:05:39.627413 12290 net.cpp:157] Top shape: 8 10 10 24 (19200)
I1031 20:05:39.627416 12290 net.cpp:165] Memory required for data: 1996345664
I1031 20:05:39.627419 12290 layer_factory.hpp:77] Creating layer conv6_2_mbox_loc_flat
I1031 20:05:39.627424 12290 net.cpp:100] Creating Layer conv6_2_mbox_loc_flat
I1031 20:05:39.627427 12290 net.cpp:478] conv6_2_mbox_loc_flat <- conv6_2_mbox_loc_perm
I1031 20:05:39.627435 12290 net.cpp:452] conv6_2_mbox_loc_flat -> conv6_2_mbox_loc_flat
I1031 20:05:39.627473 12290 net.cpp:150] Setting up conv6_2_mbox_loc_flat
I1031 20:05:39.627480 12290 net.cpp:157] Top shape: 8 2400 (19200)
I1031 20:05:39.627482 12290 net.cpp:165] Memory required for data: 1996422464
I1031 20:05:39.627485 12290 layer_factory.hpp:77] Creating layer conv6_2_mbox_conf
I1031 20:05:39.627495 12290 net.cpp:100] Creating Layer conv6_2_mbox_conf
I1031 20:05:39.627497 12290 net.cpp:478] conv6_2_mbox_conf <- conv6_2_conv6_2_relu_0_split_2
I1031 20:05:39.627503 12290 net.cpp:452] conv6_2_mbox_conf -> conv6_2_mbox_conf
I1031 20:05:39.635205 12290 net.cpp:150] Setting up conv6_2_mbox_conf
I1031 20:05:39.635218 12290 net.cpp:157] Top shape: 8 126 10 10 (100800)
I1031 20:05:39.635221 12290 net.cpp:165] Memory required for data: 1996825664
I1031 20:05:39.635226 12290 layer_factory.hpp:77] Creating layer conv6_2_mbox_conf_perm
I1031 20:05:39.635234 12290 net.cpp:100] Creating Layer conv6_2_mbox_conf_perm
I1031 20:05:39.635238 12290 net.cpp:478] conv6_2_mbox_conf_perm <- conv6_2_mbox_conf
I1031 20:05:39.635243 12290 net.cpp:452] conv6_2_mbox_conf_perm -> conv6_2_mbox_conf_perm
I1031 20:05:39.635398 12290 net.cpp:150] Setting up conv6_2_mbox_conf_perm
I1031 20:05:39.635404 12290 net.cpp:157] Top shape: 8 10 10 126 (100800)
I1031 20:05:39.635406 12290 net.cpp:165] Memory required for data: 1997228864
I1031 20:05:39.635408 12290 layer_factory.hpp:77] Creating layer conv6_2_mbox_conf_flat
I1031 20:05:39.635414 12290 net.cpp:100] Creating Layer conv6_2_mbox_conf_flat
I1031 20:05:39.635417 12290 net.cpp:478] conv6_2_mbox_conf_flat <- conv6_2_mbox_conf_perm
I1031 20:05:39.635421 12290 net.cpp:452] conv6_2_mbox_conf_flat -> conv6_2_mbox_conf_flat
I1031 20:05:39.635457 12290 net.cpp:150] Setting up conv6_2_mbox_conf_flat
I1031 20:05:39.635463 12290 net.cpp:157] Top shape: 8 12600 (100800)
I1031 20:05:39.635465 12290 net.cpp:165] Memory required for data: 1997632064
I1031 20:05:39.635468 12290 layer_factory.hpp:77] Creating layer conv6_2_mbox_priorbox
I1031 20:05:39.635476 12290 net.cpp:100] Creating Layer conv6_2_mbox_priorbox
I1031 20:05:39.635479 12290 net.cpp:478] conv6_2_mbox_priorbox <- conv6_2_conv6_2_relu_0_split_3
I1031 20:05:39.635483 12290 net.cpp:478] conv6_2_mbox_priorbox <- data_data_0_split_3
I1031 20:05:39.635488 12290 net.cpp:452] conv6_2_mbox_priorbox -> conv6_2_mbox_priorbox
I1031 20:05:39.635525 12290 net.cpp:150] Setting up conv6_2_mbox_priorbox
I1031 20:05:39.635530 12290 net.cpp:157] Top shape: 1 2 2400 (4800)
I1031 20:05:39.635532 12290 net.cpp:165] Memory required for data: 1997651264
I1031 20:05:39.635535 12290 layer_factory.hpp:77] Creating layer conv7_2_mbox_loc
I1031 20:05:39.635545 12290 net.cpp:100] Creating Layer conv7_2_mbox_loc
I1031 20:05:39.635547 12290 net.cpp:478] conv7_2_mbox_loc <- conv7_2_conv7_2_relu_0_split_1
I1031 20:05:39.635553 12290 net.cpp:452] conv7_2_mbox_loc -> conv7_2_mbox_loc
I1031 20:05:39.638584 12290 net.cpp:150] Setting up conv7_2_mbox_loc
I1031 20:05:39.638597 12290 net.cpp:157] Top shape: 8 24 5 5 (4800)
I1031 20:05:39.638599 12290 net.cpp:165] Memory required for data: 1997670464
I1031 20:05:39.638604 12290 layer_factory.hpp:77] Creating layer conv7_2_mbox_loc_perm
I1031 20:05:39.638612 12290 net.cpp:100] Creating Layer conv7_2_mbox_loc_perm
I1031 20:05:39.638615 12290 net.cpp:478] conv7_2_mbox_loc_perm <- conv7_2_mbox_loc
I1031 20:05:39.638620 12290 net.cpp:452] conv7_2_mbox_loc_perm -> conv7_2_mbox_loc_perm
I1031 20:05:39.638772 12290 net.cpp:150] Setting up conv7_2_mbox_loc_perm
I1031 20:05:39.638777 12290 net.cpp:157] Top shape: 8 5 5 24 (4800)
I1031 20:05:39.638788 12290 net.cpp:165] Memory required for data: 1997689664
I1031 20:05:39.638790 12290 layer_factory.hpp:77] Creating layer conv7_2_mbox_loc_flat
I1031 20:05:39.638810 12290 net.cpp:100] Creating Layer conv7_2_mbox_loc_flat
I1031 20:05:39.638813 12290 net.cpp:478] conv7_2_mbox_loc_flat <- conv7_2_mbox_loc_perm
I1031 20:05:39.638834 12290 net.cpp:452] conv7_2_mbox_loc_flat -> conv7_2_mbox_loc_flat
I1031 20:05:39.638896 12290 net.cpp:150] Setting up conv7_2_mbox_loc_flat
I1031 20:05:39.638902 12290 net.cpp:157] Top shape: 8 600 (4800)
I1031 20:05:39.638905 12290 net.cpp:165] Memory required for data: 1997708864
I1031 20:05:39.638906 12290 layer_factory.hpp:77] Creating layer conv7_2_mbox_conf
I1031 20:05:39.638916 12290 net.cpp:100] Creating Layer conv7_2_mbox_conf
I1031 20:05:39.638918 12290 net.cpp:478] conv7_2_mbox_conf <- conv7_2_conv7_2_relu_0_split_2
I1031 20:05:39.638926 12290 net.cpp:452] conv7_2_mbox_conf -> conv7_2_mbox_conf
I1031 20:05:39.644645 12290 net.cpp:150] Setting up conv7_2_mbox_conf
I1031 20:05:39.644675 12290 net.cpp:157] Top shape: 8 126 5 5 (25200)
I1031 20:05:39.644676 12290 net.cpp:165] Memory required for data: 1997809664
I1031 20:05:39.644682 12290 layer_factory.hpp:77] Creating layer conv7_2_mbox_conf_perm
I1031 20:05:39.644690 12290 net.cpp:100] Creating Layer conv7_2_mbox_conf_perm
I1031 20:05:39.644695 12290 net.cpp:478] conv7_2_mbox_conf_perm <- conv7_2_mbox_conf
I1031 20:05:39.644700 12290 net.cpp:452] conv7_2_mbox_conf_perm -> conv7_2_mbox_conf_perm
I1031 20:05:39.644912 12290 net.cpp:150] Setting up conv7_2_mbox_conf_perm
I1031 20:05:39.644933 12290 net.cpp:157] Top shape: 8 5 5 126 (25200)
I1031 20:05:39.644935 12290 net.cpp:165] Memory required for data: 1997910464
I1031 20:05:39.644938 12290 layer_factory.hpp:77] Creating layer conv7_2_mbox_conf_flat
I1031 20:05:39.644943 12290 net.cpp:100] Creating Layer conv7_2_mbox_conf_flat
I1031 20:05:39.644946 12290 net.cpp:478] conv7_2_mbox_conf_flat <- conv7_2_mbox_conf_perm
I1031 20:05:39.644953 12290 net.cpp:452] conv7_2_mbox_conf_flat -> conv7_2_mbox_conf_flat
I1031 20:05:39.645027 12290 net.cpp:150] Setting up conv7_2_mbox_conf_flat
I1031 20:05:39.645032 12290 net.cpp:157] Top shape: 8 3150 (25200)
I1031 20:05:39.645035 12290 net.cpp:165] Memory required for data: 1998011264
I1031 20:05:39.645036 12290 layer_factory.hpp:77] Creating layer conv7_2_mbox_priorbox
I1031 20:05:39.645042 12290 net.cpp:100] Creating Layer conv7_2_mbox_priorbox
I1031 20:05:39.645045 12290 net.cpp:478] conv7_2_mbox_priorbox <- conv7_2_conv7_2_relu_0_split_3
I1031 20:05:39.645050 12290 net.cpp:478] conv7_2_mbox_priorbox <- data_data_0_split_4
I1031 20:05:39.645061 12290 net.cpp:452] conv7_2_mbox_priorbox -> conv7_2_mbox_priorbox
I1031 20:05:39.645099 12290 net.cpp:150] Setting up conv7_2_mbox_priorbox
I1031 20:05:39.645104 12290 net.cpp:157] Top shape: 1 2 600 (1200)
I1031 20:05:39.645107 12290 net.cpp:165] Memory required for data: 1998016064
I1031 20:05:39.645108 12290 layer_factory.hpp:77] Creating layer conv8_2_mbox_loc
I1031 20:05:39.645117 12290 net.cpp:100] Creating Layer conv8_2_mbox_loc
I1031 20:05:39.645120 12290 net.cpp:478] conv8_2_mbox_loc <- conv8_2_conv8_2_relu_0_split_1
I1031 20:05:39.645125 12290 net.cpp:452] conv8_2_mbox_loc -> conv8_2_mbox_loc
I1031 20:05:39.649744 12290 net.cpp:150] Setting up conv8_2_mbox_loc
I1031 20:05:39.649760 12290 net.cpp:157] Top shape: 8 16 3 3 (1152)
I1031 20:05:39.649761 12290 net.cpp:165] Memory required for data: 1998020672
I1031 20:05:39.649780 12290 layer_factory.hpp:77] Creating layer conv8_2_mbox_loc_perm
I1031 20:05:39.649791 12290 net.cpp:100] Creating Layer conv8_2_mbox_loc_perm
I1031 20:05:39.649794 12290 net.cpp:478] conv8_2_mbox_loc_perm <- conv8_2_mbox_loc
I1031 20:05:39.649799 12290 net.cpp:452] conv8_2_mbox_loc_perm -> conv8_2_mbox_loc_perm
I1031 20:05:39.650012 12290 net.cpp:150] Setting up conv8_2_mbox_loc_perm
I1031 20:05:39.650020 12290 net.cpp:157] Top shape: 8 3 3 16 (1152)
I1031 20:05:39.650022 12290 net.cpp:165] Memory required for data: 1998025280
I1031 20:05:39.650039 12290 layer_factory.hpp:77] Creating layer conv8_2_mbox_loc_flat
I1031 20:05:39.650063 12290 net.cpp:100] Creating Layer conv8_2_mbox_loc_flat
I1031 20:05:39.650066 12290 net.cpp:478] conv8_2_mbox_loc_flat <- conv8_2_mbox_loc_perm
I1031 20:05:39.650070 12290 net.cpp:452] conv8_2_mbox_loc_flat -> conv8_2_mbox_loc_flat
I1031 20:05:39.650115 12290 net.cpp:150] Setting up conv8_2_mbox_loc_flat
I1031 20:05:39.650122 12290 net.cpp:157] Top shape: 8 144 (1152)
I1031 20:05:39.650125 12290 net.cpp:165] Memory required for data: 1998029888
I1031 20:05:39.650126 12290 layer_factory.hpp:77] Creating layer conv8_2_mbox_conf
I1031 20:05:39.650136 12290 net.cpp:100] Creating Layer conv8_2_mbox_conf
I1031 20:05:39.650140 12290 net.cpp:478] conv8_2_mbox_conf <- conv8_2_conv8_2_relu_0_split_2
I1031 20:05:39.650146 12290 net.cpp:452] conv8_2_mbox_conf -> conv8_2_mbox_conf
I1031 20:05:39.655316 12290 net.cpp:150] Setting up conv8_2_mbox_conf
I1031 20:05:39.655329 12290 net.cpp:157] Top shape: 8 84 3 3 (6048)
I1031 20:05:39.655333 12290 net.cpp:165] Memory required for data: 1998054080
I1031 20:05:39.655339 12290 layer_factory.hpp:77] Creating layer conv8_2_mbox_conf_perm
I1031 20:05:39.655347 12290 net.cpp:100] Creating Layer conv8_2_mbox_conf_perm
I1031 20:05:39.655351 12290 net.cpp:478] conv8_2_mbox_conf_perm <- conv8_2_mbox_conf
I1031 20:05:39.655356 12290 net.cpp:452] conv8_2_mbox_conf_perm -> conv8_2_mbox_conf_perm
I1031 20:05:39.655524 12290 net.cpp:150] Setting up conv8_2_mbox_conf_perm
I1031 20:05:39.655530 12290 net.cpp:157] Top shape: 8 3 3 84 (6048)
I1031 20:05:39.655532 12290 net.cpp:165] Memory required for data: 1998078272
I1031 20:05:39.655534 12290 layer_factory.hpp:77] Creating layer conv8_2_mbox_conf_flat
I1031 20:05:39.655541 12290 net.cpp:100] Creating Layer conv8_2_mbox_conf_flat
I1031 20:05:39.655544 12290 net.cpp:478] conv8_2_mbox_conf_flat <- conv8_2_mbox_conf_perm
I1031 20:05:39.655550 12290 net.cpp:452] conv8_2_mbox_conf_flat -> conv8_2_mbox_conf_flat
I1031 20:05:39.655588 12290 net.cpp:150] Setting up conv8_2_mbox_conf_flat
I1031 20:05:39.655593 12290 net.cpp:157] Top shape: 8 756 (6048)
I1031 20:05:39.655596 12290 net.cpp:165] Memory required for data: 1998102464
I1031 20:05:39.655598 12290 layer_factory.hpp:77] Creating layer conv8_2_mbox_priorbox
I1031 20:05:39.655606 12290 net.cpp:100] Creating Layer conv8_2_mbox_priorbox
I1031 20:05:39.655608 12290 net.cpp:478] conv8_2_mbox_priorbox <- conv8_2_conv8_2_relu_0_split_3
I1031 20:05:39.655612 12290 net.cpp:478] conv8_2_mbox_priorbox <- data_data_0_split_5
I1031 20:05:39.655616 12290 net.cpp:452] conv8_2_mbox_priorbox -> conv8_2_mbox_priorbox
I1031 20:05:39.655658 12290 net.cpp:150] Setting up conv8_2_mbox_priorbox
I1031 20:05:39.655663 12290 net.cpp:157] Top shape: 1 2 144 (288)
I1031 20:05:39.655665 12290 net.cpp:165] Memory required for data: 1998103616
I1031 20:05:39.655668 12290 layer_factory.hpp:77] Creating layer conv9_2_mbox_loc
I1031 20:05:39.655678 12290 net.cpp:100] Creating Layer conv9_2_mbox_loc
I1031 20:05:39.655681 12290 net.cpp:478] conv9_2_mbox_loc <- conv9_2_conv9_2_relu_0_split_0
I1031 20:05:39.655686 12290 net.cpp:452] conv9_2_mbox_loc -> conv9_2_mbox_loc
I1031 20:05:39.658854 12290 net.cpp:150] Setting up conv9_2_mbox_loc
I1031 20:05:39.658881 12290 net.cpp:157] Top shape: 8 16 1 1 (128)
I1031 20:05:39.658884 12290 net.cpp:165] Memory required for data: 1998104128
I1031 20:05:39.658890 12290 layer_factory.hpp:77] Creating layer conv9_2_mbox_loc_perm
I1031 20:05:39.658898 12290 net.cpp:100] Creating Layer conv9_2_mbox_loc_perm
I1031 20:05:39.658902 12290 net.cpp:478] conv9_2_mbox_loc_perm <- conv9_2_mbox_loc
I1031 20:05:39.658907 12290 net.cpp:452] conv9_2_mbox_loc_perm -> conv9_2_mbox_loc_perm
I1031 20:05:39.659085 12290 net.cpp:150] Setting up conv9_2_mbox_loc_perm
I1031 20:05:39.659091 12290 net.cpp:157] Top shape: 8 1 1 16 (128)
I1031 20:05:39.659093 12290 net.cpp:165] Memory required for data: 1998104640
I1031 20:05:39.659096 12290 layer_factory.hpp:77] Creating layer conv9_2_mbox_loc_flat
I1031 20:05:39.659102 12290 net.cpp:100] Creating Layer conv9_2_mbox_loc_flat
I1031 20:05:39.659117 12290 net.cpp:478] conv9_2_mbox_loc_flat <- conv9_2_mbox_loc_perm
I1031 20:05:39.659123 12290 net.cpp:452] conv9_2_mbox_loc_flat -> conv9_2_mbox_loc_flat
I1031 20:05:39.659166 12290 net.cpp:150] Setting up conv9_2_mbox_loc_flat
I1031 20:05:39.659173 12290 net.cpp:157] Top shape: 8 16 (128)
I1031 20:05:39.659174 12290 net.cpp:165] Memory required for data: 1998105152
I1031 20:05:39.659178 12290 layer_factory.hpp:77] Creating layer conv9_2_mbox_conf
I1031 20:05:39.659186 12290 net.cpp:100] Creating Layer conv9_2_mbox_conf
I1031 20:05:39.659190 12290 net.cpp:478] conv9_2_mbox_conf <- conv9_2_conv9_2_relu_0_split_1
I1031 20:05:39.659196 12290 net.cpp:452] conv9_2_mbox_conf -> conv9_2_mbox_conf
I1031 20:05:39.664172 12290 net.cpp:150] Setting up conv9_2_mbox_conf
I1031 20:05:39.664186 12290 net.cpp:157] Top shape: 8 84 1 1 (672)
I1031 20:05:39.664189 12290 net.cpp:165] Memory required for data: 1998107840
I1031 20:05:39.664196 12290 layer_factory.hpp:77] Creating layer conv9_2_mbox_conf_perm
I1031 20:05:39.664202 12290 net.cpp:100] Creating Layer conv9_2_mbox_conf_perm
I1031 20:05:39.664206 12290 net.cpp:478] conv9_2_mbox_conf_perm <- conv9_2_mbox_conf
I1031 20:05:39.664212 12290 net.cpp:452] conv9_2_mbox_conf_perm -> conv9_2_mbox_conf_perm
I1031 20:05:39.664434 12290 net.cpp:150] Setting up conv9_2_mbox_conf_perm
I1031 20:05:39.664440 12290 net.cpp:157] Top shape: 8 1 1 84 (672)
I1031 20:05:39.664443 12290 net.cpp:165] Memory required for data: 1998110528
I1031 20:05:39.664445 12290 layer_factory.hpp:77] Creating layer conv9_2_mbox_conf_flat
I1031 20:05:39.664450 12290 net.cpp:100] Creating Layer conv9_2_mbox_conf_flat
I1031 20:05:39.664453 12290 net.cpp:478] conv9_2_mbox_conf_flat <- conv9_2_mbox_conf_perm
I1031 20:05:39.664459 12290 net.cpp:452] conv9_2_mbox_conf_flat -> conv9_2_mbox_conf_flat
I1031 20:05:39.664499 12290 net.cpp:150] Setting up conv9_2_mbox_conf_flat
I1031 20:05:39.664503 12290 net.cpp:157] Top shape: 8 84 (672)
I1031 20:05:39.664505 12290 net.cpp:165] Memory required for data: 1998113216
I1031 20:05:39.664507 12290 layer_factory.hpp:77] Creating layer conv9_2_mbox_priorbox
I1031 20:05:39.664515 12290 net.cpp:100] Creating Layer conv9_2_mbox_priorbox
I1031 20:05:39.664518 12290 net.cpp:478] conv9_2_mbox_priorbox <- conv9_2_conv9_2_relu_0_split_2
I1031 20:05:39.664522 12290 net.cpp:478] conv9_2_mbox_priorbox <- data_data_0_split_6
I1031 20:05:39.664526 12290 net.cpp:452] conv9_2_mbox_priorbox -> conv9_2_mbox_priorbox
I1031 20:05:39.664585 12290 net.cpp:150] Setting up conv9_2_mbox_priorbox
I1031 20:05:39.664590 12290 net.cpp:157] Top shape: 1 2 16 (32)
I1031 20:05:39.664592 12290 net.cpp:165] Memory required for data: 1998113344
I1031 20:05:39.664597 12290 layer_factory.hpp:77] Creating layer mbox_loc
I1031 20:05:39.664609 12290 net.cpp:100] Creating Layer mbox_loc
I1031 20:05:39.664628 12290 net.cpp:478] mbox_loc <- conv4_3_norm_mbox_loc_flat
I1031 20:05:39.664633 12290 net.cpp:478] mbox_loc <- fc7_mbox_loc_flat
I1031 20:05:39.664651 12290 net.cpp:478] mbox_loc <- conv6_2_mbox_loc_flat
I1031 20:05:39.664655 12290 net.cpp:478] mbox_loc <- conv7_2_mbox_loc_flat
I1031 20:05:39.664659 12290 net.cpp:478] mbox_loc <- conv8_2_mbox_loc_flat
I1031 20:05:39.664661 12290 net.cpp:478] mbox_loc <- conv9_2_mbox_loc_flat
I1031 20:05:39.664665 12290 net.cpp:452] mbox_loc -> mbox_loc
I1031 20:05:39.664710 12290 net.cpp:150] Setting up mbox_loc
I1031 20:05:39.664716 12290 net.cpp:157] Top shape: 8 34928 (279424)
I1031 20:05:39.664718 12290 net.cpp:165] Memory required for data: 1999231040
I1031 20:05:39.664721 12290 layer_factory.hpp:77] Creating layer mbox_conf
I1031 20:05:39.664726 12290 net.cpp:100] Creating Layer mbox_conf
I1031 20:05:39.664728 12290 net.cpp:478] mbox_conf <- conv4_3_norm_mbox_conf_flat
I1031 20:05:39.664732 12290 net.cpp:478] mbox_conf <- fc7_mbox_conf_flat
I1031 20:05:39.664736 12290 net.cpp:478] mbox_conf <- conv6_2_mbox_conf_flat
I1031 20:05:39.664739 12290 net.cpp:478] mbox_conf <- conv7_2_mbox_conf_flat
I1031 20:05:39.664742 12290 net.cpp:478] mbox_conf <- conv8_2_mbox_conf_flat
I1031 20:05:39.664757 12290 net.cpp:478] mbox_conf <- conv9_2_mbox_conf_flat
I1031 20:05:39.664763 12290 net.cpp:452] mbox_conf -> mbox_conf
I1031 20:05:39.664806 12290 net.cpp:150] Setting up mbox_conf
I1031 20:05:39.664813 12290 net.cpp:157] Top shape: 8 183372 (1466976)
I1031 20:05:39.664814 12290 net.cpp:165] Memory required for data: 2005098944
I1031 20:05:39.664818 12290 layer_factory.hpp:77] Creating layer mbox_priorbox
I1031 20:05:39.664821 12290 net.cpp:100] Creating Layer mbox_priorbox
I1031 20:05:39.664840 12290 net.cpp:478] mbox_priorbox <- conv4_3_norm_mbox_priorbox
I1031 20:05:39.664844 12290 net.cpp:478] mbox_priorbox <- fc7_mbox_priorbox
I1031 20:05:39.664847 12290 net.cpp:478] mbox_priorbox <- conv6_2_mbox_priorbox
I1031 20:05:39.664850 12290 net.cpp:478] mbox_priorbox <- conv7_2_mbox_priorbox
I1031 20:05:39.664854 12290 net.cpp:478] mbox_priorbox <- conv8_2_mbox_priorbox
I1031 20:05:39.664855 12290 net.cpp:478] mbox_priorbox <- conv9_2_mbox_priorbox
I1031 20:05:39.664861 12290 net.cpp:452] mbox_priorbox -> mbox_priorbox
I1031 20:05:39.664897 12290 net.cpp:150] Setting up mbox_priorbox
I1031 20:05:39.664902 12290 net.cpp:157] Top shape: 1 2 34928 (69856)
I1031 20:05:39.664904 12290 net.cpp:165] Memory required for data: 2005378368
I1031 20:05:39.664906 12290 layer_factory.hpp:77] Creating layer mbox_conf_reshape
I1031 20:05:39.664913 12290 net.cpp:100] Creating Layer mbox_conf_reshape
I1031 20:05:39.664937 12290 net.cpp:478] mbox_conf_reshape <- mbox_conf
I1031 20:05:39.664952 12290 net.cpp:452] mbox_conf_reshape -> mbox_conf_reshape
I1031 20:05:39.665289 12290 net.cpp:150] Setting up mbox_conf_reshape
I1031 20:05:39.665298 12290 net.cpp:157] Top shape: 8 8732 21 (1466976)
I1031 20:05:39.665302 12290 net.cpp:165] Memory required for data: 2011246272
I1031 20:05:39.665304 12290 layer_factory.hpp:77] Creating layer mbox_conf_softmax
I1031 20:05:39.665313 12290 net.cpp:100] Creating Layer mbox_conf_softmax
I1031 20:05:39.665318 12290 net.cpp:478] mbox_conf_softmax <- mbox_conf_reshape
I1031 20:05:39.665323 12290 net.cpp:452] mbox_conf_softmax -> mbox_conf_softmax
I1031 20:05:39.666515 12290 net.cpp:150] Setting up mbox_conf_softmax
I1031 20:05:39.666528 12290 net.cpp:157] Top shape: 8 8732 21 (1466976)
I1031 20:05:39.666532 12290 net.cpp:165] Memory required for data: 2017114176
I1031 20:05:39.666534 12290 layer_factory.hpp:77] Creating layer mbox_conf_flatten
I1031 20:05:39.666540 12290 net.cpp:100] Creating Layer mbox_conf_flatten
I1031 20:05:39.666543 12290 net.cpp:478] mbox_conf_flatten <- mbox_conf_softmax
I1031 20:05:39.666550 12290 net.cpp:452] mbox_conf_flatten -> mbox_conf_flatten
I1031 20:05:39.666594 12290 net.cpp:150] Setting up mbox_conf_flatten
I1031 20:05:39.666604 12290 net.cpp:157] Top shape: 8 183372 (1466976)
I1031 20:05:39.666606 12290 net.cpp:165] Memory required for data: 2022982080
I1031 20:05:39.666609 12290 layer_factory.hpp:77] Creating layer detection_out
I1031 20:05:39.666622 12290 net.cpp:100] Creating Layer detection_out
I1031 20:05:39.666625 12290 net.cpp:478] detection_out <- mbox_loc
I1031 20:05:39.666630 12290 net.cpp:478] detection_out <- mbox_conf_flatten
I1031 20:05:39.666632 12290 net.cpp:478] detection_out <- mbox_priorbox
I1031 20:05:39.666640 12290 net.cpp:452] detection_out -> detection_out
I1031 20:05:39.668524 12290 net.cpp:150] Setting up detection_out
I1031 20:05:39.668534 12290 net.cpp:157] Top shape: 1 1 1 7 (7)
I1031 20:05:39.668537 12290 net.cpp:165] Memory required for data: 2022982108
I1031 20:05:39.668540 12290 layer_factory.hpp:77] Creating layer detection_eval
I1031 20:05:39.668547 12290 net.cpp:100] Creating Layer detection_eval
I1031 20:05:39.668550 12290 net.cpp:478] detection_eval <- detection_out
I1031 20:05:39.668555 12290 net.cpp:478] detection_eval <- label
I1031 20:05:39.668560 12290 net.cpp:452] detection_eval -> detection_eval
I1031 20:05:39.669625 12290 net.cpp:150] Setting up detection_eval
I1031 20:05:39.669631 12290 net.cpp:157] Top shape: 1 1 21 5 (105)
I1031 20:05:39.669633 12290 net.cpp:165] Memory required for data: 2022982528
I1031 20:05:39.669649 12290 net.cpp:228] detection_eval does not need backward computation.
I1031 20:05:39.669653 12290 net.cpp:228] detection_out does not need backward computation.
I1031 20:05:39.669656 12290 net.cpp:228] mbox_conf_flatten does not need backward computation.
I1031 20:05:39.669659 12290 net.cpp:228] mbox_conf_softmax does not need backward computation.
…
